checkpoints/RNN_88.pt (torch, 111341 bytes, 9 tensors)

snn.l1.input_weights f4 [20, 416]
00000000: 9fda e5c0 fa9d efc0 3382 eec0 16a0 00c1
00000010: 0aa4 f4c0 ff0a 07c1 f939 00c1 6c4b fec0
00000020: ebc4 02c1 331e e3c0 294f fcc0 2df1 03c1
00000030: da14 f1c0 5425 ffc0 2ccb 02c1 e10f e7c0
00000040: 3964 e8c0 d30b ffc0 c4aa f9c0 0e16 e7c0
00000050: 7502 04c1 e8d2 fac0 1443 fac0 5bb6 e7c0
00000060: 9f14 f5c0 8974 e8c0 e598 fbc0 f566 eec0
00000070: a9ba eec0 ffa6 fbc0 483b f6c0 6609 e1c0
00000080: 3389 03c1 cedf 02c1 8c27 fec0 0770 e3c0
00000090: d61d fcc0 2e88 f8c0 a89b 01c1 9c89 fec0
000000a0: 447f 04c1 6a4e eec0 9ad4 fdc0 018c fdc0
000000b0: 4e85 f6c0 43d3 e8c0 6f87 f7c0 4dd4 f2c0
000000c0: 7937 02c1 0d18 04c1 9483 fbc0 41fe e6c0
000000d0: b868 cbc0 e83f bbc0 74b1 d8c0 fb43 d4c0
000000e0: 62db d7c0 3452 c6c0 1f1a ccc0 b8da c5c0
000000f0: 8a4a d4c0 32e6 bec0 26d6 cbc0 2c01 bfc0
00000100: c387 c2c0 4bf3 bac0 9a9a b6c0 552e bac0
00000110: 6c20 c6c0 aaf6 cdc0 7968 dac0 a823 c9c0
00000120: a087 dac0 15c8 c2c0 b2e5 c9c0 496c c5c0
00000130: d123 cac0 8338 d0c0 0691 e0c0 6fa9 d1c0
00000140: 5714 ccc0 adff d3c0 0911 d0c0 0695 c0c0
00000150: e9ad bdc0 1ee1 c9c0 3b7e ccc0 39fd d6c0
00000160: bd23 c8c0 8aa6 cbc0 c3fa d1c0 e8ef cec0
00000170: d32c ddc0 3aed dcc0 3349 bdc0 a654 ccc0
00000180: 77b1 dbc0 498b c5c0 6bfc bfc0 a8bc bcc0
00000190: 97a3 c7c0 7714 c8c0 b185 c3c0 2050 c7c0
000001a0: eff2 c7c0 97e6 b3c0 c53f c4c0 86ad c6c0
000001b0: e86c bfc0 870b b7c0 7eea c8c0 7d1c c4c0
000001c0: ea44 d6c0 f4da bfc0 7a1a bfc0 79a7 bbc0
000001d0: 6b02 b4c0 0fa8 c1c0 1b82 cfc0 cf00 b9c0
000001e0: 6a16 c4c0 81f0 bdc0 dbb0 c6c0 108f bdc0
000001f0: e086 c1c0 c425 c2c0 8e2c bcc0 2312 c1c0
00000200: 3637 bfc0 a8ff b6c0 15e9 cec0 e786 c6c0
00000210: 16c4 b3c0 ccb2 b6c0 c267 bcc0 91a4 b5c0
00000220: 7f9d c3c0 4b79 c7c0 82c4 ddc0 a2fb bfc0
00000230: 7fcb c9c0 0715 bcc0 fbe9 d5c0 05b7 bfc0
00000240: 9485 c2c0 0e6b bbc0 e458 aac0 ce24 b2c0
00000250: 7464 b5c0 14df bcc0 9b71 c7c0 61ab b8c0
00000260: 0f26 c5c0 767f bbc0 13a1 d2c0 50b7 b3c0
00000270: 0be9 09c1 7451 f6c0 e7a7 fdc0 1dbb f9c0
00000280: b448 fdc0 eaac f1c0 2401 f0c0 5f74 e8c0
00000290: df2e f0c0 a5f4 00c1 6222 f1c0 2991 fac0
000002a0: e420 03c1 ae64 f2c0 321a e0c0 b0d1 f7c0
000002b0: 6793 06c1 e35d edc0 667c e6c0 cacf ecc0
000002c0: a4f2 f5c0 9ecb f3c0 169d f8c0 8b1d f3c0
000002d0: 0e3e ffc0 c338 07c1 fe05 02c1 7e14 fec0
000002e0: 9612 fbc0 18b3 04c1 1adb fac0 b906 f6c0
000002f0: a524 f8c0 0a7f fbc0 f947 eac0 b7cc efc0
00000300: da52 e9c0 b795 02c1 b532 eec0 a126 f0c0
00000310: 9be7 fbc0 4f1c fac0 0dc2 e8c0 c4ca ecc0
00000320: 516c fec0 5209 ebc0 3097 f8c0 f96a fcc0
00000330: 7463 f5c0 7911 ebc0 4072 ddc0 881b f7c0
00000340: e8b1 ccc0 5f1e cac0 2931 cbc0 0839 d0c0
00000350: a6af bac0 6c1e c2c0 3dc7 c6c0 6577 cdc0
00000360: 9472 c9c0 130c cbc0 5f3a c3c0 bb19 b5c0
00000370: 1afb bac0 3a67 d7c0 5155 bfc0 b48c b9c0
00000380: 0aaf c6c0 405c aac0 a115 c7c0 8771 d3c0
00000390: 344d c2c0 2245 c4c0 7f37 c7c0 5bb6 a6c0
000003a0: 47b2 c4c0 e298 d5c0 2b77 c9c0 b247 d1c0
000003b0: cfd0 c7c0 2533 d3c0 2cf5 c7c0 b3b3 c6c0
000003c0: ce6b cfc0 da49 c1c0 d401 c9c0 f761 c6c0
000003d0: df92 cbc0 ea8b c1c0 c55e d6c0 c5c7 acc0
000003e0: 95da b6c0 4644 cfc0 effa b5c0 71b3 c3c0
000003f0: 4d91 c4c0 ede3 cbc0 9f35 bec0 13e7 c9c0
-7.182937 -7.4880342 -7.4533935 -8.0390835 -7.6450243 -8.440185 -8.0141535 -7.946707
-8.173076 -7.0974364 -7.884663 -8.246381 -7.5337954 -7.9733067 -8.1746025 -7.2206883
-7.262234 -7.9701934 -7.8020954 -7.221442 -8.2506 -7.8382454 -7.8206882 -7.24101
-7.658767 -7.2642255 -7.862414 -7.450068 -7.4602857 -7.8641353 -7.6947365 -7.0323973
-8.220996 -8.17964 -7.9423275 -7.107425 -7.878642 -7.7666235 -8.100502 -7.954298
-8.281071 -7.447072 -7.9322023 -7.9233403 -7.7037725 -7.275789 -7.7352824 -7.5884156
-8.138543 -8.255872 -7.859812 -7.218537 -6.356533 -5.851551 -6.7716618 -6.6332984
-6.74553 -6.1975346 -6.3781886 -6.182949 -6.634099 -5.9656 -6.369891 -5.968893
-6.0790725 -5.842199 -5.7063723 -5.818156 -6.1914577 -6.4363604 -6.825253 -6.2856026
-6.829056 -6.086924 -6.309289 -6.1694684 -6.316872 -6.5068984 -7.017703 -6.551933
-6.377483 -6.6249604 -6.5020795 -6.0181913 -5.9274793 -6.30873 -6.390409 -6.718411
-6.2543626 -6.3640795 -6.5618606 -6.4667854 -6.9117217 -6.9039583 -5.9151855 -6.385333
-6.865413 -6.1732526 -5.9995627 -5.8980293 -6.2387195 -6.252498 -6.1100698 -6.228531
-6.248405 -5.621898 -6.1327844 -6.208682 -5.982044 -5.720157 -6.2786245 -6.1284776
-6.6959124 -5.9954777 -5.971982 -5.8641934 -5.625295 -6.051765 -6.484632 -5.7813487
-6.127736 -5.9356084 -6.209089 -5.9237137 -6.047714 -6.06711 -5.880439 -6.033464
-5.9754896 -5.718708 -6.4659524 -6.2039676 -5.6176863 -5.709326 -5.8876657 -5.6763387
-6.1129756 -6.2335563 -6.930238 -5.999467 -6.306091 -5.877567 -6.684812 -5.9910913
-6.078806 -5.856818 -5.323351 -5.5669928 -5.6685123 -5.902231 -6.232618 -5.7709203
-6.160896 -5.859309 -6.5821624 -5.616127 -8.619395 -7.697443 -7.926746 -7.804091
-7.915125 -7.5523577 -7.500139 -7.2642055 -7.5057216 -8.059728 -7.535447 -7.8302197
-8.19553 -7.57479 -7.0031977 -7.7443466 -8.410987 -7.417711 -7.2026854 -7.400365
-7.685869 -7.6186056 -7.7691755 -7.5973563 -7.976325 -8.451358 -8.126463 -7.9400015
-7.846019 -8.293724 -7.839246 -7.6883206 -7.754473 -7.8592577 -7.3212857 -7.4937396
-7.2913637 -8.161551 -7.44369 -7.5047154 -7.872022 -7.8159556 -7.273688 -7.3997517
-7.950722 -7.3448877 -7.7684555 -7.888058 -7.6683903 -7.345883 -6.9201965 -7.7221107
-6.396717 -6.3162074 -6.349751 -6.506962 -5.8339415 -6.0662136 -6.211821 -6.4208245
-6.2952366 -6.345224 -6.1008754 -5.659391 -5.843152 -6.731351 -5.9791646 -5.7984257
-6.208867 -5.323761 -6.2213902 -6.6076083 -6.071924 -6.133439 -6.2255244 -5.20976
-6.1467624 -6.6749125 -6.295797 -6.540002 -6.2442393 -6.599993 -6.248678 -6.209436
-6.4819098 -6.040265 -6.281473 -6.1994586 -6.3616786 -6.0483294 -6.6990685 -5.399386
-5.7141824 -6.477084 -5.6868815 -6.1156545 -6.142737 -6.371573 -5.9440455 -6.3094573

snn.l1.recurrent_weights f4 [20, 20]
00000000: 0000 0000 6a7a 813f 5368 72c0 5af6 82bf
00000010: 3c03 d8c0 bea3 c2c0 aa37 fac0 b0da 643f
00000020: 98f8 05c1 6217 753f 3bb7 a4bd 576b 17be
00000030: 598c 623f 39d2 1d3e ae52 3a3f 92d5 833e
00000040: a123 d5c0 031e fe3e d8cf a43f 7757 ca3e
00000050: b7de 943e 0000 0000 8f23 fc3f ddc8 65c0
00000060: 3f6b 86c0 ef5b bfc0 e31e aac0 4839 4b3f
00000070: 8fc8 9bc0 2027 7b3f c454 bc3d bdff 85be
00000080: a965 bd3f e52f 593f 2159 713f 5d7f ae3f
00000090: dd26 bbc0 8197 633f ad91 d63e ca68 7f3f
000000a0: 4119 253e 6bc3 943f 0000 0000 aba3 9b40
000000b0: 3415 64bf 01ff a93f c047 8b3f d7c4 21be
000000c0: 8740 08bf 8e9b 903f 929e 483f 1077 8a40
000000d0: 15cc a43f 17bd 413f 79a9 1f3f 8567 283f
000000e0: fcaa de3e 6851 c23f 0924 273f 869b 553f
000000f0: 5361 823e 59c3 b5be 7142 9c3f 0000 0000
00000100: 8117 adbf 1309 a4be 416c 1f40 a13b 13be
00000110: aa6f 4dbe 1670 8f3f 11bf 573f 836e 1841
00000120: 199c 0f3d cddb afbe cde1 d0be ec9c 21bf
00000130: 36a4 143f e116 9a3f 4be8 a73e f8b8 d5bc
00000140: 2b37 cd3e 2200 2f3f 7e01 2340 dc3e bd40
00000150: 0000 0000 bacb babf aaf7 0fbf d2af 003f
00000160: 98fa 40c0 85dc a33f 77b7 58bd cf1e a040
00000170: c0b3 933f f15a ef3e 807c 51bd ce72 183f
00000180: f0cc c8bf 32ad 0d40 76ff 5d3f 0411 123f
00000190: ab01 993e 1ba9 3c3e ef02 3f40 22a3 9b40
000001a0: 883f 0bc0 0000 0000 6260 e23d f85c c73e
000001b0: d553 bcbf e61b 293e bfc0 07be 8e75 8340
000001c0: 66d7 3d3f c928 1d3f e7a3 c53e 3e1c 66bd
000001d0: ce40 c33e 1a6d 743f 727d 843e 942a 2c3e
000001e0: ac1d 12be d89e c73f 2602 1e41 3788 fc40
000001f0: 4bbe a73f 8665 a340 0000 0000 89b6 143f
00000200: 3813 bd40 6398 fc3f b6cc 223f 92c9 2240
00000210: feb6 b63f 1f95 1c3f 3893 953e f131 d63e
00000220: 01cd 0441 5b58 6440 2999 31be 0ff7 aa3f
00000230: 3dc8 053f 82c5 4e3f a90a 13bf ae68 81c0
00000240: 3093 71c0 c1d7 d6c0 f093 d0c0 0000 0000
00000250: 6c24 9fc0 96eb 363e 4d3e 0dbe b0bc 97bf
00000260: d6df db3e 4ee1 e23e 41bf 373f 163b 823f
00000270: 68e2 c0c0 e131 b93e a754 843e a1f4 533f
00000280: 8b87 e6be e84b 713f 5552 a240 f404 6240
00000290: 325a b240 3eb4 1240 d2bb d13f 7fbd d93d
000002a0: 0000 0000 8426 0e3f e2bd 603f 7d87 fc3f
000002b0: 846f d23f 4b21 1c3f d5e7 bf3e 4468 4b3f
000002c0: 6aaa 8940 e5cd fd3f ad75 473e 42a8 fb3e
000002d0: 1f99 c73d 063f 203f f3ae 793e 2c9a 27bf
000002e0: 810d f9c0 b27e c7c0 cb75 fcc0 45c1 023f
000002f0: 2969 0dc1 0000 0000 5b97 863f 631f 043f
00000300: 5bfa 913f df86 273f 80a1 973f 2a91 e13e
00000310: b929 fdc0 cf18 3f40 4ceb 6d3f 1b1c a63f
00000320: 637f 083e effc e23e e94c 7740 eff6 7840
00000330: 255b 42c0 1804 ddbf a32e 64c0 a809 1e3f
00000340: 6cde 84c0 a647 213f 0000 0000 ecd5 5540
00000350: e1ec a63f 2e10 083e 383c a7be b596 a63d
00000360: 6ef0 9dc0 bb60 973f 352d ab3d 7063 a23e
00000370: b745 853f a688 bfbe a8d7 623f f881 1f41
00000380: 7ada 12c0 cb8a 72bf 1c3f 833e ec4e ad3d
00000390: 5294 c2bf d2b9 303e dcae bcbd 0000 0000
000003a0: 9b3a 86be 8ae2 c6bd e430 c93e 40a3 4bbd
000003b0: 7cc4 02c0 70bf 743f 6f00 933f 3494 823e
000003c0: 48b5 89bc a849 563f feab df3f 84ac b53d
000003d0: 7305 a9c0 19f0 97c0 a9a9 e2c0 89a2 163f
000003e0: 4e30 ddc0 7ac8 103f abb0 ce3f f824 bb3f
000003f0: 0000 0000 2509 933f 21c6 02bf 1662 123f
0.0 1.0115483 -3.7876174 -1.023143 -6.750395 -6.082488 -7.819295 0.8939619
-8.373192 0.95738804 -0.08042761 -0.1478704 0.88495404 0.15412225 0.7278241 0.2574888
-6.660599 0.49632272 1.2875929 0.39519855 0.29076168 0.0 1.9698352 -3.5903847
-4.2005916 -5.9799724 -5.3162704 0.7938428 -4.8682323 0.98106575 0.09195855 -0.26171675
1.4796649 0.84838706 0.94276625 1.3632618 -5.848494 0.8890305 0.41908017 0.9976927
0.16122915 1.1622137 0.0 4.863729 -0.89094853 1.3280946 1.0881271 -0.15797745
-0.5322346 1.1297472 0.7836696 4.327034 1.2874781 0.75679153 0.6236797 0.6578296
0.43489826 1.5181093 0.6528936 0.83440435 0.25464877 -0.355006 1.2207776 0.0
-1.3522798 -0.32038173 2.4909823 -0.14378215 -0.20062128 1.1206081 0.8427592 9.52698
0.035060976 -0.34347382 -0.40797272 -0.6313007 0.58063066 1.2038232 0.32794413 -0.026089177
0.40081152 0.6835958 2.546966 5.9139233 0.0 -1.4593422 -0.5623728 0.5026828
-3.015295 1.2801672 -0.05290934 5.003761 1.153923 0.4674907 -0.051144123 0.5955018
-1.5687542 2.213696 0.8671793 0.57057214 0.29884085 0.18423884 2.984554 4.8636637
-2.1757526 0.0 0.1105354 0.38938117 -1.4713084 0.16514549 -0.1325712 4.1081
0.74156797 0.6139036 0.3860161 -0.056179278 0.3813538 0.95478976 0.25876957 0.16813117
-0.14269131 1.559535 9.8755245 7.891628 1.3104948 5.106143 0.0 0.58091027
5.908596 1.9734005 0.63593614 2.5435529 1.4274595 0.6116504 0.29213881 0.41834977
8.30005 3.5678928 -0.17343582 1.3356646 0.52258664 0.80770123 -0.5743814 -4.0440283
-3.7746086 -6.713837 -6.518059 0.0 -4.973196 0.17863306 -0.13793297 -1.1854458
0.4294421 0.4431252 0.71776205 1.0174282 -6.0276375 0.36170867 0.25845835 0.8279515
-0.45025286 0.9425645 5.0725503 3.5315523 5.57351 2.292251 1.6385443 0.10631847
0.0 0.5552752 0.8778974 1.9728848 1.6440282 0.609883 0.3748156 0.7945597
4.3020525 1.9828459 0.19478483 0.49151808 0.097460024 0.62596166 0.24383144 -0.6546962
-7.7828984 -6.2342157 -7.889379 0.51076156 -8.838174 0.0 1.051494 0.5161039
1.1404527 0.6544017 1.1846161 0.44056064 -7.911343 2.9858892 0.9293716 1.2977327
0.13329844 0.44333598 3.8640692 3.8900716 -3.036813 -1.7266874 -3.5653465 0.61733484
-4.152151 0.6299995 0.0 3.3411818 1.304104 0.13287422 -0.3266313 0.08134214
-4.9355993 1.1826395 0.08358232 0.3171649 1.04119 -0.37408942 0.88610315 9.969231
-2.2945848 -0.9474303 0.25634086 0.08462319 -1.5201514 0.17258385 -0.09213039 0.0
-0.26216587 -0.09711178 0.39295113 -0.049716234 -2.0432425 0.9560461 1.1484507 0.25503695
-0.016810074 0.8370614 1.7474363 0.08870795 -5.281915 -4.748059 -7.0832105 0.5884176
-6.9121466 0.565559 1.6147665 1.4620657 0.0 1.1487166 -0.5108357 0.5718092

snn.fc_out.weight f4 [9, 20]
00000000: b79b 46bf 93b6 4dbf 0397 6dc0 1421 12c0
00000010: 6745 45c0 ac8a f3bf 78ba 8f40 fbde f3be
00000020: 50f5 90bf babf 37bf f8ab dabf 5a97 22c0
00000030: 4b89 97bf a218 0fbf ae01 c8be 4215 00bf
00000040: 677e c7bf 838b 0cc0 67e9 47bf 9270 39bf
00000050: 5547 1ebf 3b5a a03e b417 7340 3c7e 17c0
00000060: 5d4f 6cbf bf05 9fbf ef84 233f 9727 43be
00000070: 7a2e b33d 2828 573f b6f0 1d3f 587c 6ec0
00000080: 8bb3 363e 9e90 6c3d c631 e73e d8c9 2fbe
00000090: 6965 fcbf 9d6e bcbd 47ae 2bbf cc0b 1e3f
000000a0: b049 153f aa3b 143f 5188 92be b3df 83bf
000000b0: 1315 2640 1ac8 e53f b1cb 03c0 dcfc aa3e
000000c0: e25e dabe 985d 333e 368c db3f a7c1 9ebf
000000d0: 8476 7e3f a4f6 8f3c 9120 7abe a183 f83e
000000e0: 1b4d 48bf 955b 993d 1703 5a3e a8f9 3f3d
000000f0: 5d6a 313e bf08 a9be a47a 9b3f 5095 aebf
00000100: f5a5 063c 40e0 cf3c 44fd cdbf ac43 de3d
00000110: a2a9 87bf bcc3 8a3e 2ef0 0ebf f2d1 263f
00000120: 65f6 59bd 92bb 1c3e def7 ea3e ab5e 413e
00000130: e1c9 2940 bca4 ae3f 1e2b d83e 6879 063f
00000140: a05c a03d 0158 0d3f a145 fa3e db70 aec0
00000150: 6608 243e b448 32bf 608b 4c3f bff8 b53e
00000160: 9c60 d73e 0735 0f3f 6a48 583d 8cc3 2cc0
00000170: 2f49 613f b8c9 803d b8e2 ae3d d822 0c3f
00000180: 5724 b5bf 43e1 413f 3f58 0cbe 8fbf 1a3e
00000190: 3a33 893f 85a9 b9be 8163 79c0 2a9b 5a3f
000001a0: 2766 11bf dadc 25bf 872d 8dbf 13ec a63e
000001b0: 58f9 0d3f 06af 75be 71af bdbf a6b9 d33f
000001c0: 5a4d 20bf b8f2 80be f776 ab3d 8e2f 6b3d
000001d0: 2dcd 0040 5f9b 0abd 058d 303f d7dd bcbd
000001e0: ca4b 18bf 211f 00bf 775b 80c0 1263 013f
000001f0: aeb9 46c0 3268 943e 513d 993f 84b1 adbe
00000200: fa33 1e3f f014 9bbf dbb2 c9bf d9d2 a13f
00000210: d465 88be 612b d4be 9962 68be 4137 01bf
00000220: 44d5 f5be 0479 2fc0 fd88 3cbf f71e 60bf
00000230: 1af8 18bf eda1 0abf a3fc a5c0 02ab 1940
00000240: a1ff 55bf aa0d cb3f 6f4e a83e fa97 06bf
00000250: 0fcb 463f e990 6bbf bfaa 933f cf62 ffbd
00000260: 540e 53bf 30d0 99bd c4f4 28bf 2841 09bf
00000270: dacd febf b765 31c0 b38e 96be 1353 3abf
00000280: 3c77 12bf 3e6a 82bf f940 5fc0 c473 7d40
00000290: d321 10c0 2c8d 54c0 faa6 993f 52d7 f9be
000002a0: 81ed f03e 3580 a1bf 538b 1ac0 9257 a93f
000002b0: b840 f1bf 6891 1abf 171b 94be 9e80 b6be
000002c0: 3bc4 34bf da3c 28c0 e62c 84bf bd8f 0dbf
-0.7758135 -0.8035671 -3.712342 -2.283269 -3.082361 -1.9026694 4.4915123 -0.47631058
-1.1324863 -0.71776927 -1.7083731 -2.5404878 -1.1838773 -0.5589696 -0.39063781 -0.50032437
-1.558545 -2.1960151 -0.7809052 -0.72437394 -0.61827594 0.3131884 3.7983217 -2.3670797
-0.923086 -1.2423629 0.63874716 -0.19058071 0.08749099 0.8404565 0.6169542 -3.7263393
0.17841928 0.057755105 0.45155162 -0.17166841 -1.9718448 -0.09200785 -0.670628 0.6173675
0.58315563 0.5790354 -0.28619626 -1.0302643 2.5950363 1.7951691 -2.0593073 0.3339604
-0.42650515 0.17516172 1.7152164 -1.2402848 0.9939959 0.017573662 -0.24426486 0.48537925
-0.78242654 0.07488171 0.21290241 0.04686895 0.1732573 -0.33014485 1.2146802 -1.3639317
0.008218278 0.025375485 -1.6092916 0.10852751 -1.0598643 0.27102458 -0.55835235 0.651641
-0.053213496 0.15305927 0.45892233 0.18883769 2.6529467 1.3644023 0.42220396 0.52529
0.07830167 0.5521241 0.48881248 -5.4512763 0.16018829 -0.69642186 0.7990017 0.3554134
0.42065895 0.5594029 0.052803434 -2.6994352 0.88002294 0.06288475 0.08539337 0.5474067
-1.4151715 0.7573435 -0.13705538 0.15112136 1.0718758 -0.36262146 -3.8966982 0.8539301
-0.567965 -0.6479012 -1.1029519 0.32601985 0.55458593 -0.23992547 -1.4819165 1.654103
-0.6261803 -0.2518518 0.083723 0.0574184 2.012523 -0.03383958 0.6896518 -0.09222
-0.59490645 -0.500475 -4.011165 0.50541794 -3.105083 0.28985745 1.1971837 -0.33924496
0.6179806 -1.2115765 -1.5757707 1.2642471 -0.2664019 -0.41439345 -0.22693862 -0.50474936
-0.4801427 -2.7417612 -0.7364653 -0.8754725 -0.5975357 -0.5415333 -5.1870894 2.4010625
-0.83593184 1.5863545 0.3287234 -0.5257565 0.7765359 -0.9201799 1.1536483 -0.12470018
-0.8244374 -0.07510412 -0.6599848 -0.53615046 -1.9906571 -2.7718332 -0.29405746 -0.7278301
-0.5721319 -1.0188673 -3.4883406 3.9601908 -2.2520645 -3.3211164 1.2004082 -0.4879709
0.470562 -1.2617251 -2.4147537 1.3229849 -1.8847876 -0.6037812 -0.28926918 -0.35645002
-0.70611924 -2.628714 -1.0326202 -0.5529745

exp_avg f4 [20, 416]
00000000: 4bbe 2937 265c 8937 393e d436 3322 2837
00000010: 78c9 bd36 665d 7937 447a b237 84ba cb37
00000020: 8fbc 7b37 c791 b737 fa0d 3737 3091 e136
00000030: 26c0 1c37 30b5 e137 364a be37 c7df 9a36
00000040: 20ad e537 2817 0837 c69f 7337 6c4b 4f37
00000050: 47de 0f37 ef17 8e37 91f4 fd36 128f 4937
00000060: 1c69 5237 f7e3 9f37 d171 3a37 df0d a237
00000070: d986 e236 80d7 6737 e450 9e37 5423 0a37
00000080: ae47 7236 d08e 6537 7f6e 9437 14ba 2737
00000090: d214 a537 d054 6737 3dee 8d37 c1a0 0837
000000a0: 0dab 6037 b9e4 bc36 4d6e 4e37 1af3 5137
000000b0: 567d c637 0546 7f37 7a9f 0c37 e6bb 9736
000000c0: 5faa 2d36 b7fb 2d37 1c89 0537 838e fa36
000000d0: 9552 0637 3b89 9336 8a0d 7f37 b1ce c436
000000e0: 243e 1637 9f7e 1337 661d d737 a3ef bd37
000000f0: fad6 37b6 1b71 6e36 8f43 8737 53ac bd36
00000100: 9086 5d37 7e84 8337 4e41 5a37 eaa4 7c37
00000110: 2ce1 3c37 b266 8b36 7b3b 2c37 e3cb be36
00000120: b163 be37 3c23 2537 d6ca f336 16de f436
00000130: 7bb8 3b37 d3a1 7b37 edf1 9e36 4bd2 0f37
00000140: b66d 3837 58fe 1737 9dcd 7336 93a4 9837
00000150: bfd2 3736 cdc6 0e37 7338 e436 022b e536
00000160: fc5a 2d36 540c 9437 82f6 b537 2b56 0537
00000170: 6cca 2437 d679 ea36 2fd2 6f37 8167 7c37
00000180: 6b1c 5637 7a80 1d37 4b17 9136 1ffa 9e37
00000190: b844 ed36 f0c9 5536 feb8 5537 1ae2 1c37
000001a0: 8f1c f635 0b12 3f37 9008 7536 1989 c137
000001b0: 8755 2937 c373 9237 a550 0137 8301 d837
000001c0: 6368 af36 3379 af37 23c4 a737 ee62 b236
000001d0: eb1e 9136 2c34 5437 7026 b136 6684 8637
000001e0: db41 2d37 1e97 f936 96ec 6c37 fc13 4537
000001f0: b56c 1a37 30c1 1537 6567 3837 7a65 46b2
00000200: 982d 8e37 8dc2 3837 7228 fe35 6d0a 3837
00000210: dc9d 8c36 1129 9537 7dc0 2437 ce9d 7237
00000220: a6ad 7637 8698 9837 c02c 0e36 da68 50b5
00000230: 1083 de36 afda 5137 8fd5 b437 7f9d 1c37
00000240: b8a0 fb36 8d6a 3a37 0d9f 9737 eac5 3037
00000250: dc13 5437 7707 a436 e60b 8337 3652 1937
00000260: 3830 7437 e94b 7a37 73c4 a937 6637 2437
00000270: c400 4237 f856 0f37 fd22 6037 2195 9237
00000280: 4abe b836 c167 0737 1ccf b537 d24f 0137
00000290: f4b4 6237 3f96 3837 14ff 8e37 421e 3937
000002a0: 0603 8137 06c8 eb37 884d 9e36 5cbb fe37
000002b0: 6e0a 3b37 31e9 d036 3020 5137 467a 3437
000002c0: 3361 da37 cbdb 0337 3180 6437 138f 4d37
000002d0: 41ef ab36 ec42 2d37 6e4e 9d36 5cd1 5d37
000002e0: 5f7f a236 4813 d336 e60e 7f37 9dda 7c37
000002f0: 9a20 5a37 f41e 0837 add3 4a37 5fe3 5237
00000300: 7749 b036 45a1 a937 38c1 7e37 9bac 8237
00000310: 0481 7d37 3733 9c37 1a65 8e37 24a1 7037
00000320: 6be1 f035 01d7 7e37 53e6 9537 5951 b337
00000330: c6da 0237 b645 8a37 5395 ad36 1f1c b337
00000340: dc13 4e36 3717 3236 9aa8 5037 799d ae36
00000350: 2a52 4a36 52b0 8737 dd12 e036 8deb 2537
00000360: 8efc 8d37 356e 6536 9e6f bb36 7ecc 9136
00000370: c03c 9e36 40eb 7f37 4a6f af36 217d d936
00000380: 9f3e 0237 add6 1837 4303 3134 4d6c ae36
00000390: fcbb fb36 db5b f935 7ad4 2c37 ea19 7937
000003a0: fb64 8237 3868 96b4 32e9 c136 156c b937
000003b0: b777 3b37 4c73 7336 14d4 cc36 8132 4f36
000003c0: 11ad 4637 c877 c436 df34 aa37 d809 2c35
000003d0: d32d 9b34 2d7b 3037 bc12 9136 04ca a635
000003e0: 3ed3 dd36 99d6 02b7 ba0b 2e37 a001 0337
000003f0: 2ab3 1a36 fc17 4037 db0b 1137 c325 8437
1.0117491e-05 1.6374583e-05 6.325336e-06 1.0021543e-05 5.656093e-06 1.4863303e-05 2.1276188e-05 2.4286339e-05
1.5004668e-05 2.1883183e-05 1.0910904e-05 6.7224246e-06 9.343063e-06 2.6906462e-05 2.2684322e-05 4.6156088e-06
2.7379545e-05 8.111623e-06 1.4521129e-05 1.2355722e-05 8.575217e-06 1.6938864e-05 7.568459e-06 1.2013845e-05
1.2541448e-05 1.9060431e-05 1.1112964e-05 1.9318364e-05 6.751023e-06 1.3818848e-05 1.8872735e-05 8.233666e-06
3.6102533e-06 1.3682715e-05 1.7694429e-05 9.9973e-06 1.9679228e-05 1.378842e-05 1.6919448e-05 8.14366e-06
1.3391266e-05 5.6294634e-06 1.2304238e-05 1.2513972e-05 2.3661803e-05 1.5215487e-05 8.381781e-06 4.522025e-06
2.5878178e-06 1.03702105e-05 7.959341e-06 7.467171e-06 8.00625e-06 4.396917e-06 1.5202337e-05 5.8653172e-06
8.955165e-06 8.791364e-06 2.5643687e-05 2.2642145e-05 -2.7394258e-06 3.55306e-06 1.6124714e-05 5.6527e-06
1.3203957e-05 1.5678113e-05 1.30090175e-05 1.50587675e-05 1.12581e-05 4.154478e-06 1.0265848e-05 5.686177e-06
2.2696187e-05 9.84297e-06 7.2655776e-06 7.297621e-06 1.1189021e-05 1.49984435e-05 4.736931e-06 8.572427e-06
1.0992799e-05 9.05952e-06 3.6329504e-06 1.8196448e-05 2.7391795e-06 8.5101465e-06 6.801501e-06 6.8297386e-06
2.5831969e-06 1.7648716e-05 2.169167e-05 7.94748e-06 9.822292e-06 6.987927e-06 1.4294447e-05 1.5044469e-05
1.2762011e-05 9.3878425e-06 4.3240484e-06 1.895154e-05 7.0711503e-06 3.1857016e-06 1.2738861e-05 9.350968e-06
1.833674e-06 1.1388688e-05 3.651283e-06 2.3071234e-05 1.0093098e-05 1.7458462e-05 7.707776e-06 2.574991e-05
5.2275586e-06 2.0918063e-05 1.9999285e-05 5.3163303e-06 4.324936e-06 1.2648332e-05 5.279486e-06 1.6035698e-05
1.0326937e-05 7.4383706e-06 1.4121781e-05 1.1746768e-05 9.204426e-06 8.926072e-06 1.0991328e-05 -1.154819e-08
1.694895e-05 1.1012552e-05 1.8936246e-06 1.0969682e-05 4.1907024e-06 1.7781307e-05 9.819979e-06 1.4461066e-05
1.4703173e-05 1.8190836e-05 2.1185697e-06 -7.763862e-07 6.6313733e-06 1.2508287e-05 2.1557118e-05 9.3349945e-06
7.499093e-06 1.1111272e-05 1.8074667e-05 1.0536498e-05 1.2640809e-05 4.88845e-06 1.5621958e-05 9.138652e-06
1.455476e-05 1.4918835e-05 2.0237849e-05 9.78806e-06 1.1563479e-05 8.543713e-06 1.3359587e-05 1.7474e-05
5.50578e-06 8.070784e-06 2.1673324e-05 7.707584e-06 1.3512781e-05 1.10022365e-05 1.70465e-05 1.1033904e-05
1.5379406e-05 2.8107326e-05 4.7177928e-06 3.0366406e-05 1.1148497e-05 6.22603e-06 1.2464865e-05 1.0757305e-05
2.6032887e-05 7.859383e-06 1.3619706e-05 1.2252264e-05 5.12405e-06 1.0327185e-05 4.688095e-06 1.3221372e-05
4.842804e-06 6.2905347e-06 1.5202653e-05 1.507127e-05 1.3001403e-05 8.1134385e-06 1.2089423e-05 1.2569914e-05
5.253761e-06 2.0221467e-05 1.5184567e-05 1.5577583e-05 1.5110014e-05 1.8620498e-05 1.6974798e-05 1.4342633e-05
1.7946999e-06 1.5189639e-05 1.7869437e-05 2.1376343e-05 7.799541e-06 1.6483344e-05 5.1731854e-06 2.1351558e-05
3.0707952e-06 2.653758e-06 1.2437022e-05 5.2039363e-06 3.0148171e-06 1.617536e-05 6.677916e-06 9.88961e-06
1.6926115e-05 3.4187808e-06 5.5860282e-06 4.3451428e-06 4.715839e-06 1.5253958e-05 5.228362e-06 6.481671e-06
7.763184e-06 9.109889e-06 1.6485596e-07 5.198212e-06 7.502267e-06 1.8578679e-06 1.030147e-05 1.484759e-05
1.554423e-05 -2.8015506e-07 5.7789957e-06 2.2104048e-05 1.1173942e-05 3.6276933e-06 6.104363e-06 3.08748e-06
1.1842015e-05 5.8551996e-06 2.02902e-05 6.408932e-07 2.890434e-07 1.0519097e-05 4.3235177e-06 1.2426758e-06
6.610905e-06 -7.798569e-06 1.03739385e-05 7.808587e-06 2.3052075e-06 1.1449676e-05 8.645434e-06 1.575321e-05

exp_avg_sq f4 [20, 416]
00000000: 841d 2e31 8626 2d31 0911 2531 2bb6 1231
00000010: b116 2e31 11c8 2f31 d157 3231 d4e4 1c31
00000020: 6df2 1c31 b302 2c31 462a 3031 9c09 2c31
00000030: 4776 2a31 248e 1b31 5ff4 3231 f481 1d31
00000040: 3df7 3131 d847 2731 197a 1e31 be52 2231
00000050: 3ff8 2531 4300 2731 2734 2e31 d863 2331
00000060: 1fd3 1b31 86d3 3131 bfc2 2a31 f3bf 2d31
00000070: 944d 2431 4cab 1e31 5019 2a31 7fcc 2131
00000080: a42a 2731 aa75 2a31 f721 2231 7f69 1c31
00000090: bbc9 2a31 f1b4 3031 94a1 2931 5f2b 1d31
000000a0: c9b3 1c31 2946 2b31 71c6 3331 ac45 2b31
000000b0: 82b1 2031 8ab2 2631 6553 3531 8824 1531
000000c0: ba9f 1b31 51b5 2031 f818 2531 1098 1c31
000000d0: 5214 fa30 ffe0 0831 8c9d 0231 a6fd ff30
000000e0: bcdb 0131 701c 0131 32c8 1731 08ae f130
000000f0: 7a03 0b31 61f8 0331 a010 0b31 bc3c 0a31
00000100: b849 0831 57dc 0431 3dd8 0331 ec96 0031
00000110: e22b 0131 dae5 0331 5329 fd30 cc68 0831
00000120: 1258 f730 e8ba 0031 c9fb 0031 67b8 0231
00000130: 971b 0631 4051 fe30 6c03 0431 1a44 0a31
00000140: fcb4 0631 3aca 0631 0ba0 0731 222a f930
00000150: fe6e ef30 11f7 0031 3b2d 0531 009f 0531
00000160: 5d82 e630 094d f830 ff50 0731 17ca f430
00000170: 8a35 0831 accb 0131 30d3 0831 6494 1131
00000180: 5e7b ff30 ac3e fc30 d67a 0431 b1dd ed30
00000190: 7eb7 e130 f5c5 0031 00db 0431 2642 0b31
000001a0: aafc 0931 1cfa 0831 db3f 0f31 06f9 0d31
000001b0: 8937 0731 0013 1031 dbf7 1331 9a23 1031
000001c0: 1353 0931 cc07 0831 c1b8 1631 13ab 1031
000001d0: 3111 0c31 ffa9 1031 9a38 1331 0db3 0e31
000001e0: c674 0731 4c53 2131 76d9 0d31 d250 0d31
000001f0: 63dd 0d31 9647 1231 1bd5 1531 f81d 0f31
00000200: 33f4 0231 684b 0b31 0e0b 1331 a538 0f31
00000210: a0dc 1131 1b94 0d31 9315 0b31 f43b 1231
00000220: ab7b 1731 4761 1131 e462 0c31 3671 1c31
00000230: 7eaa fa30 5461 0f31 96ca 1931 8da0 0b31
00000240: 788a 1131 b8fc 1431 5af4 0c31 26c0 1c31
00000250: afb7 0931 bb2a 0c31 f9bb 1331 19e8 0d31
00000260: 33e0 0031 5052 0f31 0c85 0e31 aeca 0f31
00000270: 4103 3331 fe5f 2e31 ee09 2231 6049 3731
00000280: e1fc 3231 16b7 3231 5499 3d31 0724 3b31
00000290: aad8 3731 4200 3331 6e80 2e31 c5a6 3231
000002a0: c707 4231 00fe 3231 3d14 3631 2da0 3431
000002b0: 8cfe 3731 8533 4231 3d1d 3c31 8f19 3b31
000002c0: 6f2a 3531 9613 3431 3ac6 3031 6479 3531
000002d0: 1f63 3231 29ab 3031 815d 2d31 52b1 4031
000002e0: 74f7 3731 03f3 3531 209d 2c31 ca8e 3831
000002f0: 41b3 3931 cc4e 3c31 b265 3231 ddf0 3a31
00000300: f1ce 2d31 6922 2431 cfa1 3831 3889 3631
00000310: cb2b 3d31 f97b 3a31 ae38 3531 f512 3931
00000320: 98b6 2d31 5425 3931 d428 2431 94e6 3831
00000330: 53b3 3f31 f216 4331 b5f3 2431 2b44 3a31
00000340: 4ceb c830 9a40 cf30 23eb c730 40b6 ca30
00000350: 760e e330 2bbe c630 b8f1 d230 e5e0 b630
00000360: 80a4 bb30 6716 c730 0749 bd30 d999 c130
00000370: 745a df30 3cce c930 a75c c230 1b8b c230
00000380: b6e5 cd30 4657 e230 99f0 d030 2ed7 c330
00000390: ecb9 cd30 5cca cf30 dc3f d730 0bd8 d330
000003a0: 1a1a cb30 599d cb30 6376 b530 6a7d b530
000003b0: d062 c330 b0db d030 6c98 cd30 42e2 c430
000003c0: db2a cf30 9b12 d430 3527 cb30 ee65 c130
000003d0: d139 ba30 567a ce30 6fbf e130 e055 c630
000003e0: 2357 c830 4960 dd30 b6fb b130 0acc bc30
000003f0: 48f5 c430 af98 dd30 2141 b630 0a24 b830
2.533711e-09 2.5196711e-09 2.4020343e-09 2.1349347e-09 2.533323e-09 2.5579576e-09 2.5952327e-09 2.2831061e-09
2.283879e-09 2.5030829e-09 2.56354e-09 2.5034756e-09 2.4805489e-09 2.2636266e-09 2.6041318e-09 2.2920377e-09
2.5897429e-09 2.4342537e-09 2.306143e-09 2.3621136e-09 2.4151772e-09 2.4301847e-09 2.5349978e-09 2.3776376e-09
2.2675477e-09 2.5877127e-09 2.4848956e-09 2.5283924e-09 2.390924e-09 2.3089397e-09 2.4752644e-09 2.3544826e-09
2.4325937e-09 2.480514e-09 2.359341e-09 2.2760955e-09 2.4852926e-09 2.5714224e-09 2.4684583e-09 2.287116e-09
2.2803184e-09 2.4923656e-09 2.616073e-09 2.492338e-09 2.3383966e-09 2.4257667e-09 2.638637e-09 2.170312e-09
2.2646263e-09 2.338613e-09 2.4024853e-09 2.2787425e-09 1.8195669e-09 1.99185e-09 1.9007045e-09 1.8625783e-09
1.8896875e-09 1.8788135e-09 2.208719e-09 1.758452e-09 2.0229138e-09 1.9204196e-09 2.0236612e-09 2.0116167e-09
1.983251e-09 1.9333777e-09 1.9185926e-09 1.871224e-09 1.8796915e-09 1.9193664e-09 1.8419918e-09 1.9850175e-09
1.7996646e-09 1.8732695e-09 1.8769575e-09 1.902231e-09 1.951525e-09 1.8504025e-09 1.9210473e-09 2.0120354e-09
1.9602444e-09 1.961452e-09 1.973606e-09 1.8129109e-09 1.7421085e-09 1.8766892e-09 1.9379758e-09 1.9444428e-09
1.6771754e-09 1.806627e-09 1.9691127e-09 1.7810774e-09 1.9821038e-09 1.8887745e-09 1.991065e-09 2.1184627e-09
1.8588755e-09 1.8353226e-09 1.9278352e-09 1.7307028e-09 1.6423056e-09 1.8738977e-09 1.9333015e-09 2.0264763e-09
2.0079747e-09 1.9932775e-09 2.0845536e-09 2.0659754e-09 1.9676654e-09 2.0965558e-09 2.1532205e-09 2.0974995e-09
1.9983346e-09 1.9795037e-09 2.1932893e-09 2.1052002e-09 2.0382454e-09 2.105139e-09 2.142349e-09 2.0765498e-09
1.9711464e-09 2.3475932e-09 2.0641813e-09 2.0564142e-09 2.0644044e-09 2.1286488e-09 2.180349e-09 2.0826274e-09
1.90563e-09 2.0270026e-09 2.13976e-09 2.0841437e-09 2.1225688e-09 2.0602389e-09 2.0239426e-09 2.1279876e-09
2.204369e-09 2.1155573e-09 2.0428894e-09 2.276534e-09 1.8238351e-09 2.0864563e-09 2.2379587e-09 2.0318425e-09
2.1178987e-09 2.1680489e-09 2.051158e-09 2.2810211e-09 2.0040536e-09 2.039697e-09 2.1498165e-09 2.0650133e-09
1.8753894e-09 2.0856028e-09 2.0739348e-09 2.0924449e-09 2.6049778e-09 2.5374898e-09 2.3579747e-09 2.6671714e-09
2.6046154e-09 2.6006481e-09 2.7590277e-09 2.723256e-09 2.6753164e-09 2.6048075e-09 2.5393336e-09 2.5997207e-09
2.8235136e-09 2.6046791e-09 2.649599e-09 2.6284497e-09 2.6774698e-09 2.826e-09 2.737422e-09 2.722661e-09
2.6363087e-09 2.620458e-09 2.572405e-09 2.640797e-09 2.5958753e-09 2.5708664e-09 2.5227964e-09 2.8040472e-09
2.6770666e-09 2.6477103e-09 2.511861e-09 2.685669e-09 2.7022937e-09 2.7402391e-09 2.5960216e-09 2.7203477e-09
2.5292446e-09 2.38847e-09 2.6867502e-09 2.6562486e-09 2.7528013e-09 2.7137033e-09 2.6371185e-09 2.693182e-09
2.5278606e-09 2.6942262e-09 2.388835e-09 2.6906593e-09 2.7896092e-09 2.8389278e-09 2.4003672e-09 2.7105311e-09
1.4618791e-09 1.5079593e-09 1.4545986e-09 1.4749233e-09 1.6520534e-09 1.4460445e-09 1.5348212e-09 1.3306162e-09
1.3652794e-09 1.4485523e-09 1.3772316e-09 1.4086324e-09 1.6251094e-09 1.468329e-09 1.4141691e-09 1.4154894e-09
1.4981001e-09 1.6468469e-09 1.5202374e-09 1.4249275e-09 1.4968555e-09 1.5118746e-09 1.5661459e-09 1.5413674e-09
1.4777612e-09 1.4814915e-09 1.3203131e-09 1.3205128e-09 1.4216202e-09 1.5196431e-09 1.4959034e-09 1.4325183e-09
1.5073413e-09 1.5430318e-09 1.4781337e-09 1.4071568e-09 1.3549714e-09 1.5023243e-09 1.6425313e-09 1.4430803e-09
1.4576681e-09 1.6107232e-09 1.2949986e-09 1.3736792e-09 1.433059e-09 1.6123262e-09 1.3260754e-09 1.3398005e-09

exp_avg f4 [20, 20]
00000000: 0000 0000 0400 0000 5dfd 4d34 a3de 2634
00000010: 021f 9236 4c04 a135 635f 8a36 0400 0000
00000020: ceb7 eb36 0400 0000 0400 0080 0400 0000
00000030: 0400 0000 0400 0000 0400 0000 0400 0000
00000040: fb92 e936 0400 0000 0400 0080 0400 0000
00000050: 0400 0080 0000 0000 67ed 3833 9bb3 6e34
00000060: c011 1335 29b4 3936 8876 1736 0400 0080
00000070: e2e5 2736 0400 0080 0400 0080 0400 0080
00000080: 0400 0080 0400 0080 0400 0000 0400 0000
00000090: 76a2 9835 0400 0080 0400 0000 0400 0080
000000a0: 0400 0080 0400 0080 0000 0000 46ff 24ba
000000b0: 8556 04bc 3b07 daba 6faf 93bb 0400 0080
000000c0: 92c8 babb 0400 0080 0400 0000 0400 0000
000000d0: 0400 0080 0400 0080 0400 0080 0400 0080
000000e0: 16b8 27bc 0400 0080 0400 0000 0400 0080
000000f0: 0400 0000 0400 0000 2d55 f6ba 0000 0000
00000100: cc4d e63b 9ae2 4c3b 0b71 993c 0400 0000
00000110: f8e7 c73c 0400 0000 0400 0080 0400 0000
00000120: 0400 0000 0400 0000 0400 0000 0400 0000
00000130: 79d8 ec3b 0400 0000 0400 0080 0400 0000
00000140: 0400 0000 0400 0000 caa4 7d39 e335 03b8
00000150: 0000 0000 9c8a de3a 499d 043c 0400 0000
00000160: 2f36 033c 0400 0080 0400 0080 0400 0000
00000170: 0400 0000 0400 0000 0400 0000 0400 0000
00000180: b48d 2c3b 0400 0000 0400 0080 0400 0000
00000190: 0400 0000 0400 0000 e583 9339 97e1 ad3a
000001a0: ee25 23bb 0000 0000 ca20 583b 0400 0000
000001b0: d971 153b 0400 0000 0400 0080 0400 0080
000001c0: 0400 0000 0400 0000 0400 0000 0400 0000
000001d0: 523b c2ba 0400 0000 0400 0080 0400 0000
000001e0: 0400 0080 0400 0080 0cfb c5b9 acd1 ecb9
000001f0: 67b1 8cb8 273c 0cba 0000 0000 0400 0080
00000200: fa99 67bb 0400 0080 0400 0000 0400 0080
00000210: 0400 0080 0400 0080 0400 0080 0400 0080
00000220: 3bfe d3ba 0400 0080 0400 0080 0400 0080
00000230: 0400 0080 0400 0000 6951 d9b2 c63f bf33
00000240: 213c 03b6 c8e2 8d33 6643 ab34 0000 0000
00000250: 1af1 a4b5 0400 0080 0400 0000 0400 0000
00000260: 0400 0080 0400 0080 0400 0080 0400 0080
00000270: df7a 4833 0400 0080 0400 0080 0400 0080
00000280: 0400 0080 0400 0000 42d0 99b8 9989 5538
00000290: c269 9cba 8c6d 02ba 3c9a 60ba 0400 0080
000002a0: 0000 0000 0400 0080 0400 0080 0400 0080
000002b0: 0400 0080 0400 0000 0400 0080 0400 0080
000002c0: a7c6 dfba 0400 0000 0400 0080 0400 0080
000002d0: 0400 0080 0400 0080 9b05 0f35 6296 2a34
000002e0: 40b9 8837 31e0 9e36 ffcf 1037 0400 0080
000002f0: a428 aa37 0000 0000 0400 0000 0400 0000
00000300: 0400 0080 0400 0080 0400 0080 0400 0080
00000310: 4795 8437 0400 0080 0400 0000 0400 0080
00000320: 0400 0000 0400 0000 feb2 b235 daee ad35
00000330: 8542 4e38 e903 b737 a410 1e38 0400 0000
00000340: 1b29 a438 0400 0000 0000 0000 0400 0080
00000350: 0400 0000 0400 0000 0400 0000 0400 0000
00000360: c014 4538 0400 0000 0400 0000 0400 0000
00000370: 0400 0000 0400 0000 6f07 a738 a39d 2038
00000380: b100 e83a fd04 0f3a dd59 c73a 0400 0000
00000390: 3ee1 373b 0400 0080 0400 0080 0000 0000
000003a0: 0400 0000 0400 0000 0400 0000 0400 0000
000003b0: 9e21 073b 0400 0000 0400 0000 0400 0000
000003c0: 0400 0000 0400 0000 e7cd 8934 8755 af34
000003d0: 279a b636 3a18 ac36 adb7 ab36 0400 0000
000003e0: dd2e 2237 0400 0080 0400 0080 0400 0080
000003f0: 0000 0000 0400 0000 0400 0000 0400 0000
0.0 6e-45 1.9184286e-07 1.554095e-07 4.354749e-06 1.1996685e-06 4.123825e-06 6e-45
7.0249434e-06 6e-45 -6e-45 6e-45 6e-45 6e-45 6e-45 6e-45
6.961052e-06 6e-45 -6e-45 6e-45 -6e-45 0.0 4.3056755e-08 2.2230817e-07
5.4787597e-07 2.7672015e-06 2.2569748e-06 -6e-45 2.5018749e-06 -6e-45 -6e-45 -6e-45
-6e-45 -6e-45 6e-45 6e-45 1.1372165e-06 -6e-45 6e-45 -6e-45
-6e-45 -6e-45 0.0 -0.0006294142 -0.0080772685 -0.0016634235 -0.0045069973 -6e-45
-0.0057001794 -6e-45 6e-45 6e-45 -6e-45 -6e-45 -6e-45 -6e-45
-0.010236761 -6e-45 6e-45 -6e-45 6e-45 6e-45 -0.0018793695 0.0
0.007028317 0.0031262995 0.01873066 6e-45 0.024402604 6e-45 -6e-45 6e-45
6e-45 6e-45 6e-45 6e-45 0.007227954 6e-45 -6e-45 6e-45
6e-45 6e-45 0.00024189349 -3.128302e-05 0.0 0.0016978565 0.00809414 6e-45
0.008008524 -6e-45 -6e-45 6e-45 6e-45 6e-45 6e-45 6e-45
0.0026329579 6e-45 -6e-45 6e-45 6e-45 6e-45 0.00028136294 0.0013266084
-0.0024894434 0.0 0.0032978528 6e-45 0.0022803454 6e-45 -6e-45 -6e-45
6e-45 6e-45 6e-45 6e-45 -0.0014818704 6e-45 -6e-45 6e-45
-6e-45 -6e-45 -0.00037761813 -0.00045169645 -6.708764e-05 -0.00053495396 0.0 -6e-45
-0.003533958 -6e-45 6e-45 -6e-45 -6e-45 -6e-45 -6e-45 -6e-45
-0.0016173789 -6e-45 -6e-45 -6e-45 -6e-45 6e-45 -2.5299146e-08 8.905731e-08
-1.955552e-06 6.6070754e-08 3.190027e-07 0.0 -1.2289122e-06 -6e-45 6e-45 6e-45
-6e-45 -6e-45 -6e-45 -6e-45 4.667788e-08 -6e-45 -6e-45 -6e-45
-6e-45 6e-45 -7.3343996e-05 5.0911305e-05 -0.0011933374 -0.000497543 -0.00085679046 -6e-45
0.0 -6e-45 -6e-45 -6e-45 -6e-45 6e-45 -6e-45 -6e-45
-0.0017072753 6e-45 -6e-45 -6e-45 -6e-45 -6e-45 5.327981e-07 1.5887193e-07
1.6298727e-05 4.7348663e-06 8.631497e-06 -6e-45 2.0284504e-05 0.0 6e-45 6e-45
-6e-45 -6e-45 -6e-45 -6e-45 1.5805139e-05 -6e-45 6e-45 -6e-45
6e-45 6e-45 1.3314127e-06 1.2959019e-06 4.917618e-05 2.181712e-05 3.7685633e-05 6e-45
7.827786e-05 6e-45 0.0 -6e-45 6e-45 6e-45 6e-45 6e-45
4.6987785e-05 6e-45 6e-45 6e-45 6e-45 6e-45 7.964565e-05 3.8293783e-05
0.0017700401 0.00054557604 0.0015209276 6e-45 0.0028057839 -6e-45 -6e-45 0.0
6e-45 6e-45 6e-45 6e-45 0.0020619403 6e-45 6e-45 6e-45
6e-45 6e-45 2.5668052e-07 3.265852e-07 5.4419684e-06 5.12882e-06 5.11758e-06 6e-45
9.666864e-06 -6e-45 -6e-45 -6e-45 0.0 6e-45 6e-45 6e-45

exp_avg_sq f4 [20, 20]
00000000: 0000 0000 8e96 b827 89b4 e62a 0a95 4c2a
00000010: 1668 562e 63c0 2f2d 2064 142e 73e2 8c25
00000020: ff22 ce2e e94a 2628 577b f027 d8f5 b329
00000030: b08d 5028 2a2c 1925 41ff ce26 dd65 d625
00000040: 149c d52e 7743 5f28 a116 f425 18ac a227
00000050: a6a2 0a27 0000 0000 e1bc 7a2c 4fb0 932a
00000060: 5861 ab2f 2920 652e dd6c 322f 0193 9425
00000070: 3d1b f42f 9f4a cb28 8f5b c028 0f5a 4329
00000080: cda8 0c29 fb23 2825 3f8a 5826 5cfa b525
00000090: 5e27 922f 93e2 2a29 132c 0f26 39fe 3927
000000a0: b230 d527 2e99 d227 0000 0000 acd4 7137
000000b0: 5d58 553a 05c8 ab39 f0b6 ce3a 172d dc25
000000c0: 0f0f 223b 86d1 7a29 4c26 9a2e af4f 6733
000000d0: dfce 982a 854b 8625 f627 cf26 a797 0526
000000e0: fe8b a03a e2a2 ae2c 4f9d 9b26 3c5b 9e27
000000f0: 8dfe d926 d61d 3828 27d9 0239 0000 0000
00000100: 4bb7 8d3a f3d6 8c39 6cec e23a 337a 9525
00000110: dcc1 2a3b aafc 2c2a 6999 512e 545e 7731
00000120: cf86 202b a760 2325 ae27 fd26 07d3 c425
00000130: 1b10 853a c17f ba2d e587 ee25 8a6e 0128
00000140: 5720 3727 3635 8328 60d5 5637 3f65 0437
00000150: 0000 0000 1830 9938 585d e339 6488 3326
00000160: da1c 153a ee4b 0c2a b9a3 a72d bdf4 0132
00000170: 1c2e c32a 7ab6 bf25 371c 4c27 6f35 8626
00000180: 128a 6039 9808 8e2c 00cf 5126 7c6f 3728
00000190: 773a e026 7831 3128 ca1d 8a37 3a7f 7937
000001a0: e840 5739 0000 0000 0e56 233a 6693 9225
000001b0: d9d7 623a 28c8 9f29 a41f 142d 736a c132
000001c0: 14b7 702a 379c 0b25 9c7d ca26 a1dd 0426
000001d0: 96f8 ce39 fddc 492c ed30 cd25 761d d027
000001e0: 5084 b026 0b9c 2427 3571 0c35 1b2d d034
000001f0: a3b6 d336 10c2 1f36 0000 0000 b32d 5225
00000200: 80d6 0838 f22c 0e29 4a61 322c abda 4130
00000210: 9210 9529 e30a f524 d9d1 2126 e34b 8125
00000220: 367f 7e37 d4d7 fa2b f926 c725 af2a 0927
00000230: 7ce3 0526 49cf 7926 ee3b e82a 1bc3 3a29
00000240: 5ac1 8f2d 62f8 402c 6d9d 342d 0000 0000
00000250: d9b3 f22d cbea 7226 f7ab c125 c0ca ae27
00000260: 75ed 9b26 0589 bd24 6123 f525 2fbe 5125
00000270: 0c40 972d b19b 9e26 1270 8625 df25 6326
00000280: 036d 9e25 0973 5626 7a85 b234 b2cd 1d34
00000290: 8872 9b36 7af5 ee35 f60a 3937 0a35 2f25
000002a0: 0000 0000 78f7 4d26 fef3 4a2b 6df3 2d30
000002b0: d3f0 8e26 6e98 bc24 9108 ab25 e867 7325
000002c0: 45f7 2737 b9f0 c628 f3fd 2c25 3531 3226
000002d0: a137 cf26 17ab b826 333a 782c 01dd 152b
000002e0: 3174 eb2f 6e88 6c2e a072 3e2f 4abf 4b25
000002f0: 98a1 1f30 0000 0000 b30e d729 ae58 ad2a
00000300: 9931 3829 5e43 f624 f875 1526 ac86 4e25
00000310: 5a91 0a30 1fdd b829 cbc7 d625 bae7 bd26
00000320: d247 0a27 7e67 aa27 cdc9 b22f 2f7c 6c2f
00000330: ab96 ac31 afe8 d930 f2d8 7731 f26e 7f25
00000340: ad8d 0732 e39a 2f29 0000 0000 6861 b42e
00000350: ac4b 1d2a 06ef f224 ee57 6426 f01e b825
00000360: 5295 9931 4d64 772c 99a5 fa25 5840 5a27
00000370: 59f6 1327 f098 9728 2b6b 8935 5459 1e35
00000380: 82f5 2637 5a66 4036 38ec 9937 fd54 bb25
00000390: 3acf 8c37 9117 b32a ccc2 842e 0000 0000
000003a0: 6f93 952b dee1 4625 e623 7927 56f2 1126
000003b0: 8cb5 9537 c691 532e af21 1d26 0de4 7e28
000003c0: 14fa 2927 bbd2 5f27 338a f22c 5a58 182c
000003d0: 9a09 1630 1a29 dd2e 17f4 ad2f a55d 9b25
000003e0: 90b6 5e30 f674 1829 db81 662b ecf9 8b2b
000003f0: 0000 0000 e67a 1825 5d7e 6626 2939 b025
0.0 5.123349e-15 4.098148e-13 1.8170548e-13 4.8750413e-11 9.990317e-12 3.3740233e-11 2.4439577e-16
9.374012e-11 9.231095e-15 6.6747107e-15 7.991844e-14 1.1577043e-14 1.3285598e-16 1.4363308e-15 3.7192108e-16
9.7138436e-11 1.2393616e-14 4.2342587e-16 4.5150617e-15 1.923952e-15 0.0 3.5631986e-12 2.6234784e-13
3.1173886e-10 5.2097136e-11 1.6227682e-10 2.577352e-16 4.4402695e-10 2.2569889e-14 2.135599e-14 4.337681e-14
3.1232656e-14 1.4583868e-16 7.512741e-16 3.1568145e-16 2.6585217e-10 3.7944105e-14 4.9672823e-16 2.5811722e-15
5.917217e-15 5.8452787e-15 0.0 1.4414236e-05 0.00081384723 0.00032764688 0.0015771072 3.819447e-16
0.0024728214 5.5692884e-14 7.009912e-11 5.385635e-08 2.714417e-13 2.3296469e-16 1.4374342e-15 4.634917e-16
0.0012248752 4.963461e-12 1.0797924e-15 4.3952726e-15 1.5126396e-15 1.02205215e-14 0.00012478662 0.0
0.0010812072 0.0002686303 0.0017312891 2.5930185e-16 0.002605549 1.5364329e-13 4.7657354e-11 3.599685e-09
5.7030503e-13 1.4170743e-16 1.7566157e-15 3.4143578e-16 0.0010151895 2.1202486e-11 4.1378504e-16 7.184908e-15
2.5413883e-15 1.4566998e-14 1.2805074e-05 7.891386e-06 0.0 7.304567e-05 0.0004336636 6.2287944e-16
0.0005688198 1.2460841e-13 1.905841e-11 7.564435e-09 3.4670953e-13 3.325687e-16 2.8325982e-15 9.312601e-16
0.0002141374 4.036837e-12 7.279198e-16 1.0182715e-14 1.5558969e-15 9.836201e-15 1.6464754e-05 1.4871179e-05
0.00020528177 0.0 0.00062307797 2.5426844e-16 0.00086533796 7.09574e-14 8.419852e-12 2.2516565e-08
2.13798e-13 1.2109256e-16 1.4050612e-15 4.6097063e-16 0.00039476593 2.8686491e-12 3.5594985e-16 5.776354e-15
1.2248317e-15 2.2844163e-15 5.23188e-07 3.8775838e-07 6.3095517e-06 2.3805806e-06 0.0 1.823008e-16
3.2624695e-05 3.1569318e-14 2.5349328e-12 7.0523737e-10 6.619804e-14 1.06270256e-16 5.614249e-16 2.2429356e-16
1.5169198e-05 1.7823473e-12 3.4547406e-16 1.9035708e-15 4.6451943e-16 8.6670153e-16 4.1253063e-13 4.1469524e-14
1.6343083e-11 2.7422721e-12 1.0266771e-11 0.0 2.7592083e-11 8.427882e-16 3.359669e-16 4.8514524e-15
1.0819648e-15 8.2197804e-17 4.25247e-16 1.8192297e-16 1.7195155e-11 1.1005653e-15 2.3321236e-16 7.880777e-16
2.74825e-16 7.4402066e-16 3.32522e-07 1.4696596e-07 4.632693e-06 1.7803825e-06 1.1029411e-05 1.5196801e-16
0.0 7.1459045e-16 7.2103423e-13 6.328296e-10 9.918505e-16 8.179023e-17 2.9669576e-16 2.1112095e-16
1.0011548e-05 2.2086813e-14 1.5004663e-16 6.1822844e-16 1.4378589e-15 1.2813939e-15 3.5275227e-12 5.324214e-13
4.282881e-10 5.378136e-11 1.7321122e-10 1.7672255e-16 5.80735e-10 0.0 9.550468e-14 3.0792507e-13
4.0899226e-14 1.0679962e-16 5.1854637e-16 1.791328e-16 5.0410665e-10 8.2096e-14 3.7258467e-16 1.3177319e-15
1.919028e-15 4.7296685e-15 3.25214e-10 2.1508194e-10 5.022988e-09 1.5854961e-09 3.606655e-09 2.2155314e-16
7.890248e-09 3.899215e-14 0.0 8.202755e-11 1.3970655e-13 1.0535569e-16 7.922256e-16 3.1939876e-16
4.469862e-09 3.515649e-12 4.34803e-16 3.0288458e-15 2.0533893e-15 1.6830694e-14 1.0238485e-06 5.8989576e-07
9.951533e-06 2.8669806e-06 1.834902e-05 3.249692e-16 1.6785798e-05 3.181314e-13 6.037268e-11 0.0
1.0628008e-12 1.7250289e-16 3.4575152e-15 5.0635407e-16 1.7846723e-05 4.810532e-11 5.4515967e-16 1.4149283e-14
2.358903e-15 3.1061704e-15 6.893397e-12 2.1649544e-12 5.4583327e-10 1.00572176e-10 3.1641953e-10 2.695167e-16
8.1022566e-10 3.3852227e-14 8.1892625e-13 9.945911e-13 0.0 1.3225538e-16 7.9968534e-16 3.0569866e-16

exp_avg f4 [9, 20]
00000000: 0400 0000 0400 0000 117a 2a3b fdc0 2f3a
00000010: 786d d93b bc9f 7e3b 0057 15bc 0400 0000
00000020: e88e 30ba 0400 0000 0400 0000 0400 0000
00000030: 0400 0000 0400 0000 0400 0000 0400 0000
00000040: 7abe 403c 0400 0000 0400 0000 0400 0000
00000050: 0400 0000 0400 0080 e32c cebb 7ad4 1aba
00000060: 2598 12bc 4886 92bb 7904 33bb 0400 0000
00000070: 205e 7cbb 0400 0000 0400 0000 0400 0000
00000080: 0400 0000 0400 0000 0400 0000 0400 0000
00000090: 394e eebb 0400 0000 0400 0000 0400 0000
000000a0: 0400 0000 0400 0000 ba96 6dbb 114c 5339
000000b0: 2f7a 14bc 64d2 c8bb 2e49 02bb 0400 0000
000000c0: b87f 14bb 0400 0000 0400 0080 0400 0000
000000d0: 0400 0000 0400 0000 0400 0000 0400 0000
000000e0: 1e34 0bbc 0400 0000 0400 0080 0400 0000
000000f0: 0400 0000 0400 0000 159e 5d3b 5cb5 3b3a
00000100: 78e3 9c3b 7a0b 833b 4ffe 133c 0400 0000
00000110: 9ad1 233c 0400 0000 0400 0000 0400 0000
00000120: 0400 0000 0400 0000 0400 0000 0400 0000
00000130: eb4b 013b 0400 0000 0400 0000 0400 0000
00000140: 0400 0080 0400 0000 2a8a 3a3a a0c5 cfba
00000150: d28e 5ebb 7ed4 133a c6fe 50bc 0400 0080
00000160: 4a0a 7bbc 0400 0080 0400 0000 0400 0000
00000170: 0400 0080 0400 0080 0400 0080 0400 0080
00000180: c207 2cbb 0400 0080 0400 0000 0400 0080
00000190: 0400 0000 0400 0000 49d1 5f3b 8106 0d3b
000001a0: 2f0a 183c 777b ba3b 27bc 873c 0400 0000
000001b0: c619 873c 0400 0000 0400 0000 0400 0000
000001c0: 0400 0000 0400 0000 0400 0000 0400 0000
000001d0: eccd 583c 0400 0000 0400 0080 0400 0000
000001e0: 0400 0000 0400 0000 d401 08bb ea72 13bb
000001f0: 70be efbb d5ab e7bb 996d c1bc 0400 0000
00000200: 060f e5bc 0400 0000 0400 0000 0400 0000
00000210: 0400 0000 0400 0000 0400 0000 0400 0000
00000220: 27e9 6dbc 0400 0000 0400 0000 0400 0000
00000230: 0400 0000 0400 0000 b6af fb3a 490a 7b3b
00000240: 1bf3 023c e32d eb3b a2f3 d23c 0400 0000
00000250: d87c e93c 0400 0000 0400 0000 0400 0000
00000260: 0400 0000 0400 0000 0400 0000 0400 0000
00000270: 6e1c 473c 0400 0000 0400 0000 0400 0000
00000280: 0400 0000 0400 0000 db5d 1cb8 4518 4ebb
00000290: 4909 df37 7cf5 6ebb 1acc 96ba 0400 0000
000002a0: 342c a1bb 0400 0000 0400 0000 0400 0080
000002b0: 0400 0000 0400 0000 0400 0000 0400 0000
000002c0: ff6a cbbb 0400 0000 0400 0000 0400 0000
6e-45 6e-45 0.0026012699 0.0006704478 0.006635364 0.0038852533 -0.009114981 6e-45
-0.0006735162 6e-45 6e-45 6e-45 6e-45 6e-45 6e-45 6e-45
0.011764163 6e-45 6e-45 6e-45 6e-45 -6e-45 -0.006291972 -0.0005906295
-0.008947407 -0.004471574 -0.0027315898 6e-45 -0.0038508251 6e-45 6e-45 6e-45
6e-45 6e-45 6e-45 6e-45 -0.0072725085 6e-45 6e-45 6e-45
6e-45 6e-45 -0.003625317 0.00020150865 -0.009062334 -0.006128596 -0.0019880044 6e-45
-0.0022659134 6e-45 -6e-45 6e-45 6e-45 6e-45 6e-45 6e-45
-0.008496312 6e-45 -6e-45 6e-45 6e-45 6e-45 0.0033816148 0.00071605085
0.0047878586 0.003999171 0.0090328 6e-45 0.009998703 6e-45 6e-45 6e-45
6e-45 6e-45 6e-45 6e-45 0.0019729089 6e-45 6e-45 6e-45
-6e-45 6e-45 0.0007115925 -0.0015851744 -0.003395964 0.0005639269 -0.012756055 -6e-45
-0.015322277 -6e-45 6e-45 6e-45 -6e-45 -6e-45 -6e-45 -6e-45
-0.0026249741 -6e-45 6e-45 -6e-45 6e-45 6e-45 0.0034151843 0.002151877
0.009279772 0.0056909877 0.01656921 6e-45 0.016491782 6e-45 6e-45 6e-45
6e-45 6e-45 6e-45 6e-45 0.013232689 6e-45 -6e-45 6e-45
6e-45 6e-45 -0.0020753043 -0.0022498914 -0.007316403 -0.0070700445 -0.02361183 6e-45
-0.027961265 6e-45 6e-45 6e-45 6e-45 6e-45 6e-45 6e-45
-0.01452092 6e-45 6e-45 6e-45 6e-45 6e-45 0.0019202146 0.003830569
0.007992531 0.007177101 0.025750939 6e-45 0.028501913 6e-45 6e-45 6e-45
6e-45 6e-45 6e-45 6e-45 0.012152774 6e-45 6e-45 6e-45
6e-45 6e-45 -3.7280708e-05 -0.0031447571 2.6587995e-05 -0.0036462238 -0.0011504919 6e-45
-0.0049185995 6e-45 6e-45 -6e-45 6e-45 6e-45 6e-45 6e-45
-0.0062078233 6e-45 6e-45 6e-45

exp_avg_sq f4 [9, 20]
00000000: a861 9427 e986 e027 c20f 1738 3400 2238
00000010: 9f29 6738 9dd8 8238 e1ec a43a 245f 0a27
00000020: 3145 603a 5e8c a829 71c4 992c 1365 3333
00000030: fdb7 d729 2f8b 4826 5afb cc27 bfd6 1327
00000040: c2e4 7039 3815 322c bcd6 1627 87dc 2028
00000050: 9a5f 1f29 86c7 0b2b 1159 d339 ef36 2038
00000060: 29ef 533a f667 6439 0d54 193b 5361 d028
00000070: 4837 213b 2932 a72c c0c3 3e2f 87d2 3433
00000080: 343e 142d d5af 8828 1684 4f2a 6f04 2029
00000090: cf91 5f3a 15e3 322f e153 a828 2a8c 082b
000000a0: 23d4 ac2a 1043 912b d9e8 c439 d7fd c637
000000b0: 7370 063b c7e5 5c3a b736 0b3b eb4c 9629
000000c0: 31b6 363b cc73 052d 58ca 8730 396c 0e34
000000d0: ad78 f32d f546 f928 ffb7 4f2a dc0e d229
000000e0: dd97 eb3a 2d83 b62f 3cdf ec29 01dd 232b
000000f0: 123b 892a d800 582b 31db 003a f3da 2a38
00000100: 9ad0 083b d531 553a 420d 303b 4906 8329
00000110: 0906 593b e548 042d bc60 c02f 6825 a934
00000120: f7d2 952d 339d 0129 f21f a12a 6862 c129
00000130: 96db 223b f9c9 ae2f ff19 d329 9839 4b2b
00000140: ad91 412a 2c45 a22b 6638 dd39 0123 0e38
00000150: f794 b43a be1d c339 b219 3c3b d994 6a29
00000160: 213c 5b3b 1bdc 242d 72f0 3e30 3826 4133
00000170: 92db ef2d d146 d128 03d1 882a 4d39 c229
00000180: 301a 9e3a 7dd7 d62f c5eb 7e29 fc09 542b
00000190: 0e54 442a d971 8329 0254 a538 14e9 0239
000001a0: 67d1 343a 97f0 dc39 eb0f 163b 7365 2d28
000001b0: a501 3e3b 1ecc 652b e2ee 9f2e e620 4535
000001c0: 9ecb 1d2c 3870 8627 7b46 f628 723b 2d28
000001d0: 1b06 d43a 0285 5b2e 5f9c 6929 4ddc 9829
000001e0: 73f4 ef28 ecc8 4b28 9249 8538 aead 1f39
000001f0: f32c 4839 0cf0 d339 b33d 263b 2e63 4827
00000200: c9be 3e3b 44c9 e229 5cd0 142e 37af ee34
00000210: 8c1f 062b 250c d026 b14e dd27 7945 2d27
00000220: 6fbc 6a3a 9555 b02c 4680 0f28 f3a6 5a28
00000230: 1121 4429 d64c ac28 d1a4 4738 268e 1139
00000240: d542 9a39 8a2d fb39 b151 093b 6f1b 5827
00000250: 00a5 273b cba2 142a 4fb5 222f 9989 e434
00000260: b1a9 8b2b 070d 2027 7a82 f127 d85a 6b27
00000270: d17b 3e3a 31cf b72c fba5 7c28 b1b0 8228
00000280: a64a 8328 498a db27 82d4 7438 7418 1c39
00000290: 1407 2739 5017 0539 fcd8 013b 8dfd 3c27
000002a0: 635a 083b df43 9129 550f aa2c 9dfb e834
000002b0: 4b0f d329 bb28 de26 03cd e827 6914 5d27
000002c0: 7807 363a 3b82 6b2c e58c c427 117e 4d28
4.118413e-15 6.231876e-15 3.601588e-05 3.8624e-05 5.5113454e-05 6.2392304e-05 0.0012582802 1.9202923e-15
0.0008555232 7.4850486e-14 4.370331e-12 4.176861e-08 9.579835e-14 6.957757e-16 5.689389e-15 2.0516762e-15
0.00022973403 2.53071e-12 2.093309e-15 8.9296034e-15 3.5388013e-14 4.9659615e-13 0.00040311416 3.8198134e-05
0.0008084649 0.00021782503 0.0023396045 2.3134847e-14 0.00245996 4.7519944e-12 1.7349944e-10 4.210099e-08
8.426638e-12 1.5175288e-14 1.843112e-13 3.5530982e-14 0.0008528502 1.6269681e-10 1.8688123e-14 4.8511423e-13
3.0700537e-13 1.0321483e-12 0.00037557518 2.3721643e-05 0.0020513802 0.00084265735 0.002124233 6.674681e-14
0.002787959 7.585887e-12 9.880052e-10 1.3264152e-07 2.7679492e-11 2.7675326e-14 1.844913e-13 9.328451e-14
0.0017974336 3.3198813e-10 1.05192303e-13 5.821594e-13 2.4377077e-13 7.6739786e-13 0.00049154746 4.073507e-05
0.002087629 0.0008132731 0.002686337 5.818659e-14 0.003311517 7.519517e-12 3.499333e-10 3.150592e-07
1.7033026e-11 2.8780103e-14 2.8621512e-13 8.5879925e-14 0.0024850122 3.1793926e-10 9.374792e-14 7.2200015e-13
1.7192385e-13 1.1529991e-12 0.00042194425 3.3888038e-05 0.0013777305 0.00037215458 0.002870184 5.2087542e-14
0.0033452588 9.371194e-12 6.946329e-10 4.4971074e-08 2.7268663e-11 2.3234373e-14 2.4303484e-13 8.625271e-14
0.0012062248 3.9079487e-10 5.6603827e-14 7.5331386e-13 1.743746e-13 5.837318e-14 7.883461e-05 0.00012484594
0.00068976585 0.00042140923 0.0022897671 9.6254275e-15 0.002899268 8.1640413e-13 7.272917e-11 7.343609e-07
2.2424072e-12 3.731414e-15 2.7342052e-14 9.616319e-15 0.0016176136 4.991297e-11 5.1872023e-14 6.788372e-14
2.6640343e-14 1.1312332e-14 6.355638e-05 0.00015228122 0.00019090231 0.00040423905 0.0025366365 2.780934e-15
0.0029105416 1.007133e-13 3.3836364e-11 4.445844e-07 4.7650143e-13 1.4436191e-15 6.142514e-15 2.4046234e-15
0.00089544704 5.0117224e-12 7.9659095e-15 1.2137632e-14 4.3549423e-14 1.9129158e-14 4.7598794e-05 0.00013881232
0.00029422963 0.0004790838 0.0020953233 2.9990893e-15 0.0025580525 1.3201521e-13 1.4798228e-10 4.2568425e-07
9.923643e-13 2.2211523e-15 6.70324e-15 3.2662048e-15 0.0007266375 5.2241757e-12 1.4024801e-14 1.4509527e-14
1.4576295e-14 6.093464e-15 5.8372047e-05 0.00014886429 0.00015928998 0.00012692553 0.001981317 2.6227691e-15
0.0020805828 6.451067e-14 4.833393e-12 4.339644e-07 9.372935e-14 1.5415384e-15 6.461521e-15 3.0680975e-15
0.0006943862 3.34678e-12 5.4553686e-15 1.1407122e-14
