checkpoints/RNN_41.pt (torch, 111341 bytes, 9 tensors)

snn.l1.input_weights f4 [20, 416]
00000000: 45f0 d5be e352 31bf 516b 5cbf 4d08 99bf
00000010: 1c00 30bf 8ebc 9ebf 6c2b a4bf c107 9ebf
00000020: 967c a0bf a9ef cebe 289c 85bf ec1e 78bf
00000030: 41aa 5cbf a527 87bf bca1 7cbf 3516 2bbf
00000040: f512 30bf 12e9 94bf 6622 85bf 78b2 39bf
00000050: 7f86 8cbf ed16 2abf a8ed 83bf 062d b5be
00000060: 26d6 9bbf cf84 e0be 1fcb 67bf d89b 98be
00000070: b742 36bf 7602 4abf 4c3a 3ebf 51d1 f0be
00000080: 74d1 b2bf 7843 9bbf adf5 96bf e822 17bf
00000090: bf65 53bf b3c2 43bf 209a abbf 2b4f a1bf
000000a0: f895 c2bf 475c b1be 3144 90bf 4bd8 7bbf
000000b0: 096b 4cbf c303 adbe 9d22 43bf 161a 5abf
000000c0: 3ed2 a9bf bafc a0bf c7b2 babf 6a8a 7cbf
000000d0: 6d63 f2be 332c 03be 4213 3fbf 3636 22bf
000000e0: 3403 21bf d856 5fbe a1b3 7abe 13c3 a2be
000000f0: 7b49 2ebf 469f 7e3d 07a7 0abf 3b3c 81bd
00000100: ec95 94be 99dc 5b3a 36af 8a3e 717b dfbe
00000110: 6b8c b2be a0ad eebe f757 4cbf 5d0a bdbe
00000120: 2359 08bf 2949 04be a9c8 9fbe 4845 aabe
00000130: b70f e7be 7c70 86be 79da 57bf 8686 c6be
00000140: 9c99 a5be f157 e1be c2fd 04bf e3b2 f1be
00000150: 58d0 6ebe 4838 87be 0870 29be dcc2 29bf
00000160: 1d01 d4be 5dd2 ddbe 7b2a 8ebe f31b 00bf
00000170: c155 5abf 6e8a 43bf ff27 68be b8ae a8be
00000180: bfc2 63bf 17e7 28be d5f5 74be 3cb4 31be
00000190: d2fb 79be 5ef5 f8be 27ae 9abe 3da0 cbbe
000001a0: 4dbe 483f 0878 833f 476f 373f b431 5f3f
000001b0: 5f21 353f f5c1 9e3f 4c10 2d3f de8e 273f
000001c0: 37e0 9f3e 5048 333f e6a6 3e3f 3b26 943f
000001d0: cf33 9d3f d8d7 553f cea7 d43e 0934 433f
000001e0: d917 783f e2e8 2c3f 8bc7 343f aa5d 6d3f
000001f0: 927a 203f 402e 923f a577 5f3f e854 fe3e
00000200: 9749 2b3f 7d4a 803f 969f 033f 9c9d 493f
00000210: cc83 9b3f 41a3 973f a201 8e3f 9431 373f
00000220: 4aad 603f 4e9f 4f3f 0a61 1c3d 64b0 573f
00000230: 1587 d63e 3748 9d3f 6949 813e dcfe 303f
00000240: accd ea3e 769a 773f 75b6 9b3f 0d2b 9b3f
00000250: 8bd3 a23f 74e3 313f 1765 e73e 5dce 583f
00000260: 6671 633f c450 3f3f 22d5 313e 24db a13f
00000270: 5225 d3bf d42d 3fbf 5700 83bf a610 2dbf
00000280: b76e 06bf 7f07 11bf 0345 a9be 4b7f 22be
00000290: d12b 6ebe 1414 14bf 5766 99be 3c8b e5be
000002a0: 4f24 9bbf bf5f acbe 2687 5fbe b97f 85bf
000002b0: 0144 bcbf 3cf2 bbbe dcd2 84be 4acc d2be
000002c0: fdc1 f7be bbea 4bbf ffee f8be bee9 92be
000002d0: 5fa5 3dbf 1aba 4dbf 1096 4bbf 4a78 b9be
000002e0: 57da 18bf 5cd3 80bf a99e 46bf 4c9f 7dbf
000002f0: ac41 41bf 4c0a 04bf a567 f7be ebd9 45bf
00000300: 6b04 43be 7c0b 7cbf 3282 3abe 74c6 28be
00000310: 7e03 18bf 29fc 07bf c86b 07bf 9a54 96be
00000320: 2d1c 03bf 1d4d 63be a1f9 15bf 734e 88bf
00000330: 4e57 20bf 0154 01bf 186d b9bc 1a8f 25bf
00000340: 4c57 4dbf 4a7b 79bf 1694 68bf d34a 8cbf
00000350: 82f5 9dbe 113e d5be 617b 2abf ba8d 65bf
00000360: cc7b 6dbf 2b0e 78bf 8f47 5ebf 1e82 afbe
00000370: d443 b7be 8e69 8ebf 0732 13bf ef79 0dbf
00000380: 0dc2 16bf fa99 c7be 7c85 56bf 5997 a8bf
00000390: 7fe2 bebe 9620 18bf caaa 26bf 491d 113e
000003a0: 3aaf 23bf 3192 81bf 34d3 49bf c1be 75bf
000003b0: c792 1bbf f38b 5bbf 7a2d 41bf 6750 40bf
000003c0: f1db 45bf b2b2 4ebf c112 65bf 4260 81bf
000003d0: 1b71 43bf 7aa9 32bf a340 4fbf a607 2fbe
000003e0: 7e39 a6be 97e4 45bf 6b6b fbbe 78fb 2abf
000003f0: fc23 5fbf f8b7 7dbf 2001 21bf 7fd7 62bf
-0.41784874 -0.692671 -0.8610125 -1.1955658 -0.68750167 -1.2401292 -1.2825751 -1.2346116
-1.2538021 -0.4041722 -1.043828 -0.96922183 -0.86197287 -1.0558974 -0.9868429 -0.6683076
-0.68778926 -1.1633627 -1.0401123 -0.72537947 -1.0978545 -0.6644123 -1.0306902 -0.35385913
-1.2174728 -0.43851325 -0.90544313 -0.298064 -0.7119555 -0.78910005 -0.74307704 -0.47034696
-1.397017 -1.2129965 -1.1793724 -0.5903764 -0.8257713 -0.7646896 -1.340641 -1.2602285
-1.5202017 -0.34640715 -1.127081 -0.9837691 -0.7985082 -0.33791932 -0.7622469 -0.85196054
-1.3267286 -1.2577126 -1.4585809 -0.98648703 -0.4734148 -0.1280983 -0.7463876 -0.6336397
-0.6289551 -0.21810472 -0.24482585 -0.31789455 -0.6808087 0.062163614 -0.54161114 -0.06310316
-0.2902063 0.00083870586 0.270868 -0.43648866 -0.34872755 -0.4661684 -0.79821724 -0.3692197
-0.5326101 -0.12918533 -0.3120778 -0.33255982 -0.45129177 -0.26257694 -0.8431774 -0.38774508
-0.32343757 -0.44012406 -0.51949704 -0.47206792 -0.23321664 -0.26410127 -0.16546643 -0.66312957
-0.414071 -0.43324557 -0.27766785 -0.5004265 -0.852871 -0.763831 -0.22671507 -0.329458
-0.88969034 -0.16494404 -0.23921902 -0.1735391 -0.24412468 -0.486247 -0.30210993 -0.3977069
0.78415376 1.0271006 0.7165417 0.87185216 0.70754045 1.2402941 0.6760299 0.65452373
0.3122575 0.70032215 0.74473417 1.1574167 1.2281436 0.83532476 0.41534275 0.76251274
0.9691139 0.6754285 0.7061698 0.92721045 0.6268703 1.1420364 0.8729194 0.49674153
0.66909164 1.0022732 0.51415384 0.7875612 1.2149596 1.1846696 1.1094248 0.71560025
0.8776442 0.81102455 0.03817848 0.84253526 0.41899934 1.2287663 0.2525132 0.69138885
0.4586004 0.96720064 1.2165056 1.2122513 1.2720808 0.6948769 0.45194313 0.84689885
0.8884491 0.74732614 0.1736646 1.2645001 -1.6495764 -0.74679303 -1.0234479 -0.6760353
-0.5251269 -0.56652063 -0.33060464 -0.15868871 -0.23258902 -0.57843137 -0.29960892 -0.4483279
-1.2120456 -0.33666798 -0.21828899 -1.0429603 -1.4708253 -0.36708248 -0.25942123 -0.41171485
-0.4839019 -0.79655045 -0.4861984 -0.28693956 -0.7408046 -0.80362093 -0.7952585 -0.36224586
-0.5970816 -1.0064502 -0.77585846 -0.9907119 -0.7549083 -0.5157821 -0.48321262 -0.7728564
-0.19044654 -0.98455024 -0.18213728 -0.16481954 -0.5938033 -0.5311914 -0.52898836 -0.2936142
-0.5121487 -0.22197385 -0.5858403 -1.0648941 -0.62633216 -0.50518805 -0.022635028 -0.6467148
-0.8021133 -0.9745375 -0.9085096 -1.0960335 -0.3085137 -0.41648915 -0.6659451 -0.8966938
-0.92767024 -0.9689662 -0.8682794 -0.3427896 -0.35793936 -1.1125963 -0.5749821 -0.5526418
-0.5888985 -0.38984662 -0.8379743 -1.3171188 -0.37282178 -0.5942472 -0.65104353 0.14171328
-0.6393925 -1.0122739 -0.78837895 -0.9599419 -0.6077084 -0.8576042 -0.75460017 -0.75122684
-0.7728873 -0.8074142 -0.8948174 -1.01075 -0.7634446 -0.6978985 -0.80958 -0.17092761
-0.32465738 -0.77301925 -0.4910539 -0.6678996 -0.8716428 -0.9910884 -0.6289234 -0.8861007

snn.l1.recurrent_weights f4 [20, 20]
00000000: 0000 0000 7fcc 4c40 c174 133e 434a 9640
00000010: df22 4a40 0a0e e23e 2e37 91be 4a13 eb3f
00000020: e48c 8b40 5a7b 4940 1f7f 6040 0737 9a40
00000030: e70c 5a40 063d 6040 a30e 0240 66b1 f0be
00000040: 8bff 8d40 9202 58bf b021 5b40 9245 993f
00000050: 7dfa 7ebf 0000 0000 a576 c640 aab6 7d40
00000060: d04e 0b40 9294 3840 7a5e 7740 f61d 39be
00000070: 2b8f ae40 7392 7340 21a0 6d40 9b72 7c40
00000080: 2d8b e540 64d1 9440 b9e0 723f afa2 5640
00000090: dfe9 fdbd 98a1 603f 4a01 08bf be82 f03f
000000a0: 29c7 61bf 6b2b 9b40 0000 0000 bd93 1040
000000b0: 87ba f3bf d351 453f fa63 b63e e386 fabd
000000c0: 5c9c c23f e7bc 7640 4f01 f13f 07b9 8840
000000d0: e1bd 9d40 444f 7240 41f9 0940 1760 dc3f
000000e0: 6199 1540 4b73 0740 03a2 803f 392b 2540
000000f0: 06f1 283f 7130 dc3f f835 7a3f 0000 0000
00000100: 9ea5 c43f 4491 8dbf a762 87be b077 583e
00000110: fce2 4040 ce88 b93f 9a0e 1840 1652 0441
00000120: 1eb8 2b40 abb7 c33f 51ec 85be 17c5 aabf
00000130: 7c68 3740 c9b6 d5bf 0508 a93f c622 c4bd
00000140: c1a7 a0bd 8471 2e40 0b14 2dbf 6c99 9140
00000150: 0000 0000 e324 da3e 390c df3e 0f79 9cbe
00000160: 99fb 7440 50bb b53f a937 1d40 1ebd 6540
00000170: eb7e 5640 5c2d c83f 6d80 88bf 5c78 3abd
00000180: d6df afbf 2a06 b3be 27f8 54be fcaa da3b
00000190: 3714 253e c632 4440 cab4 de3f 7699 ec3f
000001a0: 1d1b 0140 0000 0000 4ba5 da3e 335f 303f
000001b0: eb43 8d40 f21e 1140 0b9f 5040 297c 0040
000001c0: 2fa8 7f40 8919 8340 5b5a ce3f fbc2 cd3e
000001d0: 6c76 bf3f 2613 5abe bdd7 7d3f 923d 9d3f
000001e0: 011d 0e3f 1efc 7940 7de8 aa3f a857 be3f
000001f0: 2d61 3440 58ec 1a40 0000 0000 8778 aa3f
00000200: bf1a 5540 d26b 1c40 4811 c73f a0f3 2a3f
00000210: 5101 4440 ebe7 1b40 ce5c 0c3f 1ba0 2140
00000220: 5d90 003f 95d9 c63f e629 0e3f d047 d13f
00000230: c534 0d40 c764 4840 72c9 083f 73f3 8540
00000240: 5ac9 3a40 5814 113f b605 35be 0000 0000
00000250: 95b7 8440 3b51 1440 67db 5940 76e0 9f40
00000260: 0eec 5840 6773 7040 37cd e33f 840e 2a3f
00000270: 8cb9 8740 132f 4fbf 9e41 0540 3880 cf3f
00000280: f44b 1bc0 80b4 4640 3f9a 0040 0295 a140
00000290: 6b80 0040 5cb3 2bbf 1625 2ebf b0da f9bf
000002a0: 0000 0000 3e27 643e 86dc 7240 a3b3 4140
000002b0: 88f2 a140 1df9 0640 cbfe d0bf 72dd b1bf
000002c0: 2514 d5bf 7f9f 1ec0 3187 d1bf d499 9ebf
000002d0: 8f95 abbf afc3 a340 297a bc40 1224 4b40
000002e0: 1543 b73e 08c5 773e 436f c5bf 3c5e 5abf
000002f0: b40f 9340 0000 0000 d24d 8140 d592 7f40
00000300: 777a b540 36ba 9c40 c86d 9a3f 8995 26bf
00000310: 4f96 2040 1e12 3abe 53f9 b83e f8b0 b33f
00000320: bf53 c3bf d007 5940 cdc6 a440 4894 8540
00000330: ae64 d93f 8bc0 69bf 1e22 03c0 5faa b7bf
00000340: abfc bb40 8ca2 1f40 0000 0000 576c 6040
00000350: a4a0 b140 b380 5940 7d60 30bf c4ce 3ec0
00000360: 532e 11be a494 ecbf ca35 68bf fcdf 23be
00000370: 51cb 713f 9a9d 543f 852a ef3f 4ad1 cb40
00000380: 2d2c 96bf 3e2a 02bf bd71 c7bf 4712 773e
00000390: 81f2 9f3f 2574 5b3f 8bad 363f 0000 0000
000003a0: 67fd a83f 0231 f03f 498b 523f 9182 1dbf
000003b0: 9c65 5540 1b59 8dbf 71f3 0940 f189 ba3e
000003c0: 3cd3 e4bf 4a7c b840 5da3 8240 747b 8e40
000003d0: 1c94 1240 0c1a 2640 9267 e63f 35de 5ebf
000003e0: 111e cb40 bb45 1940 e0fe 9c40 3d75 7b40
000003f0: 0000 0000 e135 8540 7a2e 9fbf c0e2 8b3f
0.0 3.1999815 0.14400007 4.696565 3.1583784 0.44151336 -0.2836241 1.8365262
4.3609486 3.1481538 3.5077589 4.819217 3.4070375 3.5037246 2.0321434 -0.47010344
4.437444 -0.8437892 3.4239311 1.1974356 -0.99600965 0.0 6.201983 3.964274
2.1766853 2.884068 3.8651414 -0.18077835 5.4549766 3.8058136 3.7128985 3.944495
7.173239 4.6505604 0.9487415 3.3536794 -0.12398123 0.8774657 -0.53126967 1.8789899
-0.8819452 4.84905 0.0 2.2590172 -1.9041299 0.7707798 0.3562315 -0.12232759
1.5203967 3.8552797 1.8828524 4.2725863 4.9294286 3.786088 2.1558383 1.7216824
2.3374865 2.116412 1.0049442 2.580763 0.6599277 1.7202283 0.977386 0.0
1.5363042 -1.1059957 -0.26442453 0.21139407 3.013854 1.4494874 2.3758912 8.2700405
2.6831126 1.5290426 -0.26156858 -1.3341397 2.8657522 -1.6696407 1.3205572 -0.09576945
-0.078444965 2.7256784 -0.6760871 4.5499783 0.0 0.42606267 0.43564013 -0.3056111
3.8278563 1.4197788 2.4565222 3.5896678 3.3514965 1.5638843 -1.0664192 -0.04552494
-1.3740184 -0.3496564 -0.20797788 0.006673215 0.16120993 3.065599 1.7398922 1.8484333
2.0172799 0.0 0.42704234 0.6889526 4.414541 2.2675138 3.2597072 2.0075781
3.99464 4.096867 1.6121324 0.4018782 1.4958014 -0.21296367 0.99157315 1.2284415
0.55513006 3.906013 1.33522 1.48705 2.8184311 2.4206753 0.0 1.3318032
3.3297575 2.4440808 1.5552149 0.6677799 3.0625803 2.4360301 0.5482911 2.525397
0.5022028 1.5535151 0.5553268 1.635004 2.2063458 3.131151 0.5343238 4.185968
2.9185395 0.5667167 -0.1767796 0.0 4.14741 2.317458 3.4040163 4.99615
3.3894076 3.7570436 1.7797002 0.664284 4.2414 -0.80931205 2.08213 1.6211004
-2.4265108 3.1047668 2.0094144 5.0494394 2.007838 -0.67070556 -0.6802534 -1.9519863
0.0 0.22280595 3.7947097 3.0265892 5.060856 2.1089547 -1.6327757 -1.3895705
-1.6646773 -2.4784849 -1.6369382 -1.2390695 -1.3405017 5.117637 5.889912 3.1740766
0.35793367 0.24196255 -1.5424579 -0.8530004 4.595667 0.0 4.0407495 3.993337
5.6711993 4.897731 1.2064753 -0.6507192 2.509174 -0.18170974 0.3612772 1.4038382
-1.5259932 3.3911018 5.1492677 4.1743507 1.698385 -0.9130942 -2.0489573 -1.4348868
5.8745933 2.494296 0.0 3.5066125 5.5508595 3.3984802 -0.6889723 -2.98137
-0.14177828 -1.8482862 -0.90707076 -0.16003412 0.9445086 0.8305298 1.8684851 6.369298
-1.1732231 -0.50845706 -1.5581585 0.24128066 1.2495881 0.857241 0.71358556 0.0
1.3202332 1.8764956 0.8224378 -0.61527354 3.3343267 -1.1042818 2.1554835 0.36433366
-1.7876964 5.765172 4.082442 4.45257 2.2902899 2.5953398 1.8000357 -0.8705781
6.34742 2.394881 4.9061127 3.9290307 0.0 4.162827 -1.2436059 1.0928574

snn.fc_out.weight f4 [9, 20]
00000000: 5f30 083f 929d 1fc0 ecf8 25c0 8645 68c0
00000010: 7bf9 5fbf 547a 393d 2c44 513f 8e2d 0e3f
00000020: b98a 5bc0 c5ce 67bf c5f4 d3bf cfb0 6ac0
00000030: 685b 0fc0 355a dbbf 7297 0e3e 4a0c 3d3f
00000040: bc1e 843d 7055 f53e b63f bb3e d1e8 f5be
00000050: 45de 17c0 adef 823f aeaa 8f40 8fb9 7bc0
00000060: 33e2 80c0 d2fe 21bf 6e5f a6bf 0be0 cdbf
00000070: ca7a c8bd 3f15 ff3f 6f96 c93f 4c70 16c0
00000080: b0ff 5b3f f8c2 8e3f f128 5f3f c0d9 33c0
00000090: b2d0 80bf 742a c73e e4f5 e0bf 82ee 993f
000000a0: a01e 0040 0ecf 183e 8a42 0bc0 dc9b 33bf
000000b0: f8d4 4840 fbdd 343f daf7 903f fc5b 9f3f
000000c0: 9a49 1340 4ead 463e f7a3 e13f 467c 2cc0
000000d0: 944b da3e 7ace 123f babb 9e3e fe5b 4f3f
000000e0: 8780 3ac0 a491 41bf 192a 383f 2835 513f
000000f0: aef4 5b3e 47a2 debe a5d2 0cbd 359f 23c0
00000100: 5fce b4bf 6198 5c3f 0de2 133f 750b 703f
00000110: b063 a5bc 11b3 8d3f a5ee 5c3f b748 8fbe
00000120: f879 1939 cb64 b43f fc7b 0140 19a8 b23f
00000130: 3431 2e40 eb21 af3f cf4c cd3f 175e d13f
00000140: c2df 8cbf 962f 2040 aace 0f3f 7c7e 67c0
00000150: 1fc1 463e c706 b23e b496 a83f c47c bfbe
00000160: 7039 54be e8e9 533e 54ca 93bf c5e0 8fc0
00000170: 9106 1140 e4fa 64bf 20d3 e3bf 6435 a63f
00000180: fd73 9ebf bf0c c53d 89cb eabf 3dea b0bf
00000190: f5f2 0840 2b92 7dbf ef4f 1bc0 839e 6b3f
000001a0: 7710 f43e 6a3c a5bf 40a0 a6bf bf01 ab3f
000001b0: ef6e 34c0 5d4d e5be fd76 24c0 0547 d73f
000001c0: 7ebc abbf 14f4 b5be 3071 043e ecc5 dc3e
000001d0: 35f2 2040 0183 22bd d1b3 b63f 1dbd e4be
000001e0: 8c1a 5ac0 f7ac 3bc0 ec3c 2ec0 9426 6f40
000001f0: 16b5 f9be 8a39 c2be c9bb 56bf 46d3 23c0
00000200: 101a 1fc0 165e b1c0 a127 a0c0 d91f 4d40
00000210: dd24 cbbf 7351 a1c0 60ca 52c0 b2c1 bcbf
00000220: ff70 31c0 5670 dbbf c08d 71c0 1f31 79c0
00000230: 45ea 45c0 2bb7 e5bf cb02 9cc0 5fb8 8940
00000240: 053b a13f 4158 a7bf 4ece 46c0 2370 76c0
00000250: d183 3140 76f1 4ac0 cd25 b23f 90b5 9e3f
00000260: a7cd c13d 9a0e dfbf 2e4d 8ac0 ca05 88c0
00000270: 9e7d c0c0 8493 00c0 6796 30c0 df39 6dc0
00000280: 51f5 dcbe e2d5 c3c0 11ba ad3f d7ff 4a40
00000290: 10fe adc0 aa60 c4bf 7b20 b8bf dbb1 21bf
000002a0: 1719 dec0 d392 4cc0 1e12 a7c0 7a34 8440
000002b0: 2882 d5c0 1056 87c0 c910 97be 0feb a3bf
000002c0: fe34 f13f 9564 8dbb 564f 5bbf 78f3 7bbf
0.5319881 -2.4939923 -2.593318 -3.6292434 -0.8749005 0.045282677 0.8174465 0.5553826
-3.430342 -0.9054988 -1.6559073 -3.6670415 -2.239954 -1.7136904 0.1392496 0.73846877
0.064511746 0.47916746 0.36572045 -0.48029187 -2.3729413 1.0229393 4.489585 -3.9332006
-4.027612 -0.6327945 -1.2997873 -1.6083997 -0.09789045 1.9928359 1.5749034 -2.350604
0.85937023 1.115325 0.87171847 -2.8101654 -1.0063689 0.38899577 -1.757504 1.2025912
2.0018692 0.14922735 -2.1759362 -0.701597 3.1379986 0.70651215 1.1325638 1.2449946
2.3013673 0.19402048 1.7628163 -2.695085 0.42635787 0.5734631 0.310026 0.80999744
-2.9140947 -0.75612855 0.71939236 0.81721735 0.21480057 -0.43483183 -0.034380574 -2.5565922
-1.412548 0.8617001 0.577668 0.9376748 -0.020189136 1.1070272 0.8630164 -0.27985165
0.00014636654 1.409326 2.0231924 1.3957549 2.7217531 1.3682226 1.6039065 1.6356839
-1.1005785 2.5029044 0.5617472 -3.617095 0.19409607 0.34770796 1.3170991 -0.37399876
-0.20725036 0.20694697 -1.1546121 -4.4961877 2.2660258 -0.8944533 -1.7798805 1.2985044
-1.2379147 0.09621572 -1.8343364 -1.3821484 2.139829 -0.9905116 -2.4267538 0.92038745
0.47668812 -1.2909062 -1.3017654 1.3359908 -2.8192708 -0.44785586 -2.5697625 1.6818548
-1.3416898 -0.3553778 0.12933803 0.43119752 2.5147831 -0.039675716 1.4273626 -0.44675532
-3.4078703 -2.932432 -2.7224684 3.7367296 -0.4877097 -0.37934524 -0.8388029 -2.55977
-2.4859657 -5.542735 -5.0048375 3.2050688 -1.5870625 -5.0411925 -3.293602 -1.4746611
-2.7725217 -1.7143657 -3.7742767 -3.893623 -3.0924237 -1.7946523 -4.875341 4.303756
1.2596136 -1.3073808 -3.1063418 -3.8505943 2.7736704 -3.1709876 1.3917786 1.2399158
0.09463053 -1.7426331 -4.3219213 -4.2507067 -6.015334 -2.0090036 -2.7591798 -3.7066572
-0.43155912 -6.1198587 1.3572408 3.1718652 -5.4372635 -1.5342 -1.4384912 -0.6316201
-6.9405627 -3.1964614 -5.2209616 4.131406 -6.672138 -4.2292557 -0.29504994 -1.2806109
1.8844297 -0.004314969 -0.8566793 -0.9841838

exp_avg f4 [20, 416]
00000000: b3a7 2138 c3a2 68ba f54f 323b 5da6 7239
00000010: 6515 25ba c7c7 2539 e731 9f38 598f 803a
00000020: f2fd 01ba bf47 8dbb 62f6 50bb df18 8e39
00000030: 97f7 c1ba 4170 fd3a bf87 d23a dbbc a6bb
00000040: 6005 c33a f989 47ba e5e8 2cba 0808 b3bb
00000050: f81b eaba 81de 5a3a f30c 78ba 2f0f 91ba
00000060: ec50 a2ba c3ab 3cbb 67cb e73a b1f0 643b
00000070: 4240 393b f3b1 a6ba dffc 81ba 8d4a 963a
00000080: ac24 f5b8 5b68 d4ba a4a2 a7ba 5aae e53a
00000090: 62e3 8b38 7929 21bb a5e2 6aba c234 423b
000000a0: 7291 9eb9 3b3a b33a 612d 553a 1943 17ba
000000b0: c93d e9ba e742 21bb db35 8d3a 78ac a838
000000c0: c435 8937 9e41 85ba 7fcd 2e39 4e5e c13a
000000d0: 6d9e 1dbb fd74 73ba 6f7a 3bba 4cf3 f23a
000000e0: 427f 7bbb 4a5f 62ba c5cf daba d3c9 2dbb
000000f0: d82f 83ba fb87 1d3b 1ac7 30bb 678e 21bb
00000100: 4717 60bb 00e3 7fb6 02b2 a73a 738d 393a
00000110: 5463 fa3a 7e3c b7b9 67cd 1836 d6e0 3dbb
00000120: 161c 99bb a00c caba e60a 53bb 558c 673a
00000130: f473 5c39 5e1b 17bb 766d d4b9 caa0 813b
00000140: dea5 b3ba 9a24 c839 5d9c 0b3b 767e aaba
00000150: 7428 5eb7 3d74 06bb f900 753a 1127 0b3a
00000160: 7d64 a1ba 8768 38ba 7f70 85ba f24b 163b
00000170: 1c56 36ba ef1f f8b7 3168 4237 9ce9 303b
00000180: 74c2 a9ba af43 e9ba b49a b33a 7a78 6cbb
00000190: 93d5 91bb fb44 ed3a 1783 1ebb f8b7 1fba
000001a0: be7d 9bbb a8c0 9c39 b701 b0ba 1b1e 9239
000001b0: 02da 93ba f4bc 353b 4b13 93bb bbca e539
000001c0: 3445 d1b9 1a9d 8739 e3bd 12bc 339f d1bb
000001d0: cac3 9d3a a972 1a3b e232 41ba 5f8d ec3a
000001e0: a127 4e39 2f10 433a cc29 073b 004f 1bbb
000001f0: 2910 48bb 57f0 f5ba 48bd 8c3b 8379 9aba
00000200: 1a07 19bb 40d4 eeb9 8445 0dbb 99b5 63ba
00000210: 68ca 88bb 8997 1439 fbaa 7739 d55a 18ba
00000220: 7efe c939 e7a6 faba 2281 beb9 356f 343a
00000230: 1748 693a fa6f d5ba 2d79 d6bb f941 d03a
00000240: ec65 453a b474 1e3a d439 3c3a 26ec cbba
00000250: 1039 c2ba 8d04 03bb 2a13 21bb f5d7 06bb
00000260: a462 27ba 4955 bf39 c644 57bb 4d94 ec39
00000270: 2252 1fbb dba6 c63a ca24 f53a 71ce 323b
00000280: 65f7 8db9 404a ce3a 40e7 07bb a500 e9ba
00000290: 268b 2bbb 32cb 63ba 20a5 13bb 9610 21bb
000002a0: 5aec 103a 84f7 1bba 5dad adba 432a 873a
000002b0: 4b3a 233b 9b19 03bb 0046 f6ba 0ba8 c3ba
000002c0: cd5d 0b3a 4e41 443a fc76 d9b9 8b24 1abb
000002d0: 2dc4 92bb f776 1937 f1d5 34ba 9217 d9ba
000002e0: df35 6eba 0c04 7dba 1c32 fe39 f75a b839
000002f0: c093 2bba 6d57 0eb9 872a 143b b151 9eba
00000300: af2e 17bb 800c 0dba 7ce6 74bb 761c 583b
00000310: cf0e 353a 9fa1 d7b8 ca2d 7cbb 3057 4fbb
00000320: cf4f d538 8fb9 5dbb 8770 faba 986e dbba
00000330: a4a8 20ba eb85 9139 a991 a8b9 e580 e7ba
00000340: fa81 5b3a d8ac f03a 5f5d ac39 0049 b638
00000350: 3328 9d3a 87de d73a 1c68 e7ba db78 56bb
00000360: 5a91 5e3a 065b 18ba d6fd d3ba 5a16 21bb
00000370: 0dca b839 1a1b 26ba e34f 6a39 81a5 a53b
00000380: caf4 40ba fd0f cf3a 5497 66bb 940e 59ba
00000390: c9b3 6abb f165 a13a 12a3 16bb b937 f63a
000003a0: 5518 a33a 2356 30bb 7941 063a 1209 2139
000003b0: 9502 7b39 0a62 b33a 28c2 6dbc 09f4 f93a
000003c0: be1e 9eba ad0a 6fbb f7a5 ec39 1d3b e3b9
000003d0: 48aa 98ba 7156 6539 e942 c83a 1baf 2eba
000003e0: 10f5 11b8 2832 0f3b 941c 783a dc17 4b3a
000003f0: ae1c 2eba 2f0a 0fbb a34e 2f3a 84dc c13a
3.8541573e-05 -0.0008874351 0.0027208303 0.00023140894 -0.00062974385 0.00015810049 7.591006e-05 0.0009808346
-0.00049588 -0.0043115313 -0.0031885137 0.0002710288 -0.0014798519 0.0019335822 0.0016062184 -0.0050884313
0.0014878921 -0.0007611807 -0.0006595983 -0.005463604 -0.0017861119 0.00083491957 -0.0009462379 -0.0011067147
-0.0012383736 -0.0028788901 0.001768452 0.0034933502 0.002826706 -0.0012717828 -0.000991728 0.001146631
-0.00011689341 -0.0016205417 -0.001278956 0.0017523274 6.67039e-05 -0.002459137 -0.0008960164 0.0029633497
-0.00030244474 0.001367397 0.0008132067 -0.0005770191 -0.0017794903 -0.0024606527 0.0010773496 8.042989e-05
1.635671e-05 -0.001016665 0.00016670486 0.0014752836 -0.0024050728 -0.0009287147 -0.0007151728 0.0018535643
-0.0038375412 -0.0008635415 -0.0016694 -0.0026518002 -0.0010008765 0.002403735 -0.0026974143 -0.0024651529
-0.0034193562 -3.8130092e-06 0.0012794139 0.00070782675 0.0019103088 -0.0003494955 2.2769325e-06 -0.0028973124
-0.0046725376 -0.001541514 -0.003220254 0.0008832862 0.00021024031 -0.0023057084 -0.00040517346 0.003955935
-0.0013706048 0.00038174243 0.0021302917 -0.0013007659 -1.324165e-05 -0.002051606 0.0009346153 0.00053082505
-0.0012313273 -0.0007034619 -0.0010180621 0.002293345 -0.00069555803 -2.9578774e-05 1.158756e-05 0.002699471
-0.0012951628 -0.001779666 0.0013702721 -0.0036082552 -0.004450509 0.0018102223 -0.0024187022 -0.0006092782
-0.0047452142 0.0002989818 -0.0013428245 0.0002786972 -0.0011280181 0.0027731033 -0.004488384 0.0004382933
-0.00039915147 0.00025866256 -0.008956405 -0.006397152 0.0012036499 0.0023566878 -0.0007369948 0.0018047503
0.00019660454 0.0007441071 0.0020624278 -0.002369821 -0.003052721 -0.0018763643 0.004295025 -0.0011785481
-0.002335018 -0.00045553036 -0.0021556327 -0.0008686423 -0.0041745193 0.00014170831 0.00023619451 -0.0005811875
0.0003852732 -0.0019123227 -0.00036335835 0.0006883026 0.0008898987 -0.0016283982 -0.006545207 0.0015888802
0.0007530141 0.0006044612 0.0007180248 -0.0015558049 -0.0014818031 -0.0019991726 -0.0024578073 -0.0020575498
-0.0006385243 0.000364939 -0.0032847389 0.0004512392 -0.002431043 0.0015155928 0.0018702981 0.0027283693
-0.0002707794 0.0015738681 -0.00207372 -0.0017776681 -0.0026175468 -0.0008689641 -0.0022528842 -0.0024576536
0.0005528383 -0.00059496635 -0.0013250519 0.0010312278 0.0024906571 -0.0020004276 -0.0018789172 -0.00149274
0.00053164066 0.0007486538 -0.00041478116 -0.0023520316 -0.0044789524 9.147209e-06 -0.0006898335 -0.0016562811
-0.0009087007 -0.0009651787 0.0004848399 0.0003516299 -0.0006545149 -0.00013574744 0.0022608356 -0.0012078789
-0.0023068597 -0.0005380586 -0.0037368825 0.0032975948 0.00069068087 -0.00010282103 -0.003847944 -0.003163766
0.00010171497 -0.0033832525 -0.0019107022 -0.0016741334 -0.0006128645 0.00027756332 -0.00032151982 -0.0017662315
0.0008373555 0.0018362058 0.00032875963 8.6920336e-05 0.001199013 0.0016469517 -0.0017654928 -0.0032725844
0.0008490287 -0.00058119034 -0.0016173671 -0.0024579973 0.00035245754 -0.0006336436 0.00022345739 0.00505513
-0.0007360695 0.0015797612 -0.0035185413 -0.00082800654 -0.0035812727 0.0012313706 -0.002298538 0.0018784917
0.0012443165 -0.002690681 0.00051214505 0.00015357535 0.00023938187 0.0013685834 -0.0145116225 0.001906992
-0.0012063605 -0.003647487 0.0004513708 -0.00043340857 -0.0011647427 0.00021871344 0.001527873 -0.0006663666
-3.4798926e-05 0.0021849964 0.00094647077 0.0007747391 -0.0006641847 -0.0021826138 0.0006687438 0.001479045

exp_avg_sq f4 [20, 416]
00000000: 241b a138 fa44 5238 119b 4e38 1e81 3e38
00000010: a182 c038 aab0 5a38 2c42 8b38 81c1 3b38
00000020: 105f 5938 a46b 8c38 8872 8238 05a2 5738
00000030: 5982 4538 8107 6438 79f5 5138 7252 6238
00000040: 036b 9138 1c36 5b38 0e68 7738 f51d 3338
00000050: b57b 6f38 68ae f638 01a6 7838 306f 6738
00000060: 0b73 3838 fac5 8738 3995 7e38 76d0 6b38
00000070: e7d3 4338 4762 6738 6314 6338 7648 9238
00000080: 9aed 5f38 9acc 5538 5228 8438 c826 4138
00000090: d1b2 7638 02a6 9738 eeb8 5338 7df7 8c38
000000a0: 1189 2738 bd0d 6b38 9e65 4238 af41 3f38
000000b0: f055 8938 bf06 6238 04f5 7138 3b09 4338
000000c0: ca69 6f38 545c 4938 635a 9a38 0517 3b38
000000d0: 1b04 6638 577b 9038 9f06 4138 0498 2838
000000e0: 7ed3 be38 e499 2738 c7c4 9838 5361 5938
000000f0: 76f9 0038 5efb 5238 ca95 8738 fb44 2938
00000100: 2683 4738 f94b 4938 cf0c 5238 5919 4438
00000110: 9abe 9638 ee31 5a38 f7d8 6b38 41d0 4038
00000120: 268a 9138 96f3 2c38 122f a638 c894 9238
00000130: c9e9 2a38 1d2b 2638 5842 4938 c08b 2038
00000140: 67d0 5b38 52f2 6738 84c6 2c38 4280 4138
00000150: 9df9 2f38 23bd 4638 6041 3638 a726 3938
00000160: becb 6338 737d 2738 ecfd 4d38 3510 4138
00000170: cb14 2838 3458 f237 a2b5 5938 b545 2538
00000180: 7fd1 2638 3bef 9238 1994 1e38 4b2a 7a38
00000190: e097 5538 80b0 3a38 1fd2 8838 511e 6038
000001a0: 8376 5738 927f 7938 cf15 2a38 7095 5338
000001b0: 153e 6638 1d7c 5a38 dc13 8938 3535 0d39
000001c0: c38a 1938 f6db 0039 3f51 5838 c808 5e38
000001d0: d496 4438 ef61 7e38 3dc5 3f38 00fa 9d38
000001e0: 7045 6738 e497 4838 586a 2f38 c0b6 9d38
000001f0: 8cfa 7938 ea93 8438 7f0f 6d38 b354 f738
00000200: 56d0 2738 a729 b138 5fd0 5838 17ea 6838
00000210: 15d0 5b38 e28c 6338 4e5f 8338 ccbd 6138
00000220: 9624 4f38 3f3b 4038 0f63 2838 2ecf 5738
00000230: a2a8 8e38 e335 6b38 880b 7338 0484 cc38
00000240: f10b 2538 8d34 a438 791f 9438 0926 d038
00000250: b48c 1b38 9fe3 4438 ee50 7238 e3a5 6238
00000260: 5b5b 3a38 f8e9 6038 8ea5 3838 e733 8938
00000270: cbe9 3538 e2eb 3638 d603 1438 bc94 2038
00000280: c777 3138 54ec 2738 7321 3c38 935a 9538
00000290: 5d1a 8838 cea7 8738 348a 3638 e0bb 3038
000002a0: 4a20 0438 05d5 3638 1ce7 4038 35d9 3838
000002b0: ae74 3938 2e1a 5938 6f5c 9238 6f67 3938
000002c0: 645e 5e38 100f 1838 e527 5d38 ba21 6638
000002d0: cacb 6838 2a38 6638 5ff9 1e38 acbc 4c38
000002e0: c560 2c38 9bf4 2338 8664 2b38 9f0b 4538
000002f0: 2966 3b38 a392 0e38 40a3 7e38 7045 2438
00000300: 176f 9138 b30e 0538 629f 3e38 98a4 7438
00000310: f07c 5f38 d5bb 4138 71e4 6538 bcd9 5f38
00000320: 7114 1a38 7148 5e38 a8ee 1c38 1bdc 3538
00000330: a66f 3938 5e43 2d38 c8ee 6238 89e8 2938
00000340: 84c0 3a38 5b7d 3838 5dd8 2f38 0d91 1a38
00000350: 67f1 bc38 55cc 5038 c1ed 3138 94da c238
00000360: 5997 5238 621b 5538 a054 4638 f896 6b38
00000370: da4d b038 0768 1f38 f594 e938 db41 5d38
00000380: 14e6 7438 aa9a 3838 2aa3 3e38 8b98 5638
00000390: aa86 8338 56f6 4338 7974 3338 5389 cb38
000003a0: 5e86 0038 4625 6a38 5a94 4e38 fdfa 2238
000003b0: be74 8f38 8510 1f38 5369 1f39 f98b 3538
000003c0: f258 7f38 e7b1 2f38 4876 5538 d52f 2d38
000003d0: 5528 5138 313e 3838 3b8d 1d38 c615 c538
000003e0: 6437 6e38 17d6 9838 704e 7638 9210 6938
000003f0: 46b4 2538 3597 2038 d8e1 ac38 7249 e138
7.6821336e-05 5.013214e-05 4.9258644e-05 4.541978e-05 9.179605e-05 5.213978e-05 6.640362e-05 4.476449e-05
5.1825366e-05 6.69577e-05 6.220216e-05 5.1410887e-05 4.7089856e-05 5.4366425e-05 5.0058097e-05 5.3959382e-05
6.934071e-05 5.2264062e-05 5.8986298e-05 4.2704825e-05 5.709725e-05 0.0001176268 5.928241e-05 5.5178243e-05
4.397616e-05 6.474178e-05 6.0697294e-05 5.622251e-05 4.6688972e-05 5.516622e-05 5.4140004e-05 6.9753194e-05
5.3388627e-05 5.0973707e-05 6.301761e-05 4.6050904e-05 5.8817506e-05 7.2311625e-05 5.047855e-05 6.7218185e-05
3.9943556e-05 5.604116e-05 4.6347843e-05 4.559912e-05 6.548676e-05 5.388888e-05 5.7687066e-05 4.650022e-05
5.7080564e-05 4.800812e-05 7.360128e-05 4.4605713e-05 5.4840097e-05 6.889429e-05 4.6020952e-05 4.0195897e-05
9.0992995e-05 3.9959225e-05 7.2845774e-05 5.1827472e-05 3.0749907e-05 5.0302006e-05 6.465202e-05 4.0356983e-05
4.756744e-05 4.799289e-05 5.007983e-05 4.675365e-05 7.18806e-05 5.202175e-05 5.623043e-05 4.597032e-05
6.939871e-05 4.1234853e-05 7.924264e-05 6.989535e-05 4.0748888e-05 3.9617637e-05 4.7983922e-05 3.8277125e-05
5.240776e-05 5.530037e-05 4.1192878e-05 4.6134235e-05 4.1955722e-05 4.7383026e-05 4.3453067e-05 4.4143435e-05
5.4310767e-05 3.9932736e-05 4.9112292e-05 4.602988e-05 4.0073686e-05 2.888972e-05 5.190599e-05 3.9403985e-05
3.9772593e-05 7.006383e-05 3.7808062e-05 5.9644033e-05 5.0924602e-05 4.4510234e-05 6.5241235e-05 5.3433996e-05
5.1370367e-05 5.9485035e-05 4.055147e-05 5.0445495e-05 5.489409e-05 5.209084e-05 6.536368e-05 0.00013466629
3.6607275e-05 0.00012288973 5.157408e-05 5.2937103e-05 4.687051e-05 6.0649527e-05 4.572164e-05 7.5329095e-05
5.513936e-05 4.7825175e-05 4.182229e-05 7.520383e-05 5.9599566e-05 6.3218016e-05 5.6519635e-05 0.00011793654
4.000993e-05 8.447776e-05 5.1692474e-05 5.5531124e-05 5.240746e-05 5.4252225e-05 6.264319e-05 5.3820942e-05
4.938672e-05 4.5831544e-05 4.0146577e-05 5.1452946e-05 6.802498e-05 5.6078552e-05 5.7946454e-05 9.752068e-05
3.9350187e-05 7.829918e-05 7.063052e-05 9.9252975e-05 3.708592e-05 4.694203e-05 5.7772668e-05 5.4037093e-05
4.4430937e-05 5.3623662e-05 4.4023203e-05 6.5423366e-05 4.33715e-05 4.3611864e-05 3.5289522e-05 3.8285492e-05
4.231164e-05 4.0036e-05 4.4853845e-05 7.1217444e-05 6.489896e-05 6.468558e-05 4.3520893e-05 4.2136642e-05
3.1501324e-05 4.359057e-05 4.5991605e-05 4.407131e-05 4.4216104e-05 5.1761213e-05 6.9790396e-05 4.4203767e-05
5.3016833e-05 3.6253652e-05 5.272766e-05 5.4867684e-05 5.5502904e-05 5.488858e-05 3.790238e-05 4.8813105e-05
4.109812e-05 3.9090035e-05 4.0863197e-05 4.6979283e-05 4.467942e-05 3.3992004e-05 6.0710358e-05 3.9165316e-05
6.934831e-05 3.172336e-05 4.5447967e-05 5.8327423e-05 5.32837e-05 4.6189718e-05 5.4810607e-05 5.3370124e-05
3.67355e-05 5.299639e-05 3.7415564e-05 4.3358752e-05 4.4211418e-05 4.1309155e-05 5.410498e-05 4.0509305e-05
4.452515e-05 4.3985765e-05 4.1924755e-05 3.685155e-05 9.009503e-05 4.9781363e-05 4.2421514e-05 9.291354e-05
5.0208855e-05 5.080866e-05 4.7285692e-05 5.6168967e-05 8.406835e-05 3.8005437e-05 0.00011138051 5.275184e-05
5.838841e-05 4.401306e-05 4.545149e-05 5.1163643e-05 6.27165e-05 4.672104e-05 4.27854e-05 9.705373e-05
3.0642717e-05 5.582466e-05 4.925239e-05 3.885756e-05 6.840516e-05 3.792394e-05 0.00015202658 4.3284123e-05
6.0879574e-05 4.1888936e-05 5.0893315e-05 4.129096e-05 4.9867045e-05 4.392694e-05 3.7563248e-05 9.3977476e-05
5.679521e-05 7.287802e-05 5.872402e-05 5.556696e-05 3.950696e-05 3.8287795e-05 8.243666e-05 0.00010742516

exp_avg f4 [20, 20]
00000000: 0000 0000 4897 3937 81d7 8338 46fb 6eba
00000010: 2297 ec38 7d09 d037 bd78 2d39 e986 0838
00000020: cf53 81b8 c322 7837 6448 89b7 2604 8dba
00000030: f540 a238 82e0 12b8 34df 8237 ca39 a839
00000040: c7d9 a6b8 0ff6 f738 f966 4235 24de 2038
00000050: f655 2b3a 0000 0000 75d3 f4ba 0182 abba
00000060: 823d 9638 43c2 9ab6 6b9d e9b8 378a 8539
00000070: 7c36 23b8 9252 a0b8 c097 d2b7 2b37 f0ba
00000080: 6471 16ba 620d 46b7 3e39 4138 49e7 8d38
00000090: d3a0 b639 67f0 be38 425a f738 afb6 c935
000000a0: fdcb d038 ac7a 4fba 0000 0000 89f8 1dbb
000000b0: 6a76 3438 7cd3 42b7 d4ac 9db9 a5cf 7b37
000000c0: fa04 c7b8 7404 97b9 a59a d1b8 481c 3cbb
000000d0: 173f 3bba 3658 5db8 2ff7 6cb5 15cf 29ba
000000e0: c8bb dab8 cf2b b5b5 a960 db37 2f15 1eb8
000000f0: 4644 bd39 e57f 16ba 0619 ecba 0000 0000
00000100: 6a60 2839 9086 2738 711a 76b9 6bdd 1439
00000110: 9353 80b7 fd8e c338 8d63 c738 9425 7fba
00000120: 2acc 24b9 6adb 9e38 5356 1138 7633 2139
00000130: 9ba9 8039 7ae1 b739 8be6 3537 b70e 5a38
00000140: ed6a 453a 36fd bc38 a239 2839 e12a 8a3a
00000150: 0000 0000 2a2d 0638 44ce da39 1547 b439
00000160: 4cae 39b8 ef32 f138 46e3 d937 85bb 8c3a
00000170: 6c8c ae38 cbc9 0438 957b 8138 de88 9f3a
00000180: b346 193a ca0f 6439 901e e738 4543 8938
00000190: f750 4638 ce10 42b8 ac1c 82b5 5453 7f39
000001a0: ec62 3437 0000 0000 759f 13b8 61e2 9037
000001b0: cded ebb7 e992 e5b7 54e8 ceb7 8b00 1439
000001c0: ddc6 14b8 7e62 fcb7 dac7 9037 05f1 db36
000001d0: eb7e e737 158b 4737 0637 3e37 4990 4337
000001e0: 9c1b 8838 5069 2bb8 5588 e639 ecee 5338
000001f0: a4d2 3d38 051c 14b5 0000 0000 547d ba37
00000200: 0ac7 9b37 862d cb37 a19f 8f37 7bf4 bf38
00000210: d10f 8ab8 9707 04b8 f8fe 9a37 c71d a238
00000220: e0e8 7537 5f83 3fb8 c11b 9937 6afa 4a37
00000230: 9a86 e137 5be0 8038 3e92 2139 be05 ecb9
00000240: a86b a638 4af0 8d37 3fa1 4439 0000 0000
00000250: 6992 9db7 a104 4238 f6ec 5ab6 d663 2bba
00000260: 9b9a bb38 a254 9db7 ae4a bc37 5238 0139
00000270: 7851 a9b8 28c6 a538 595a 1337 21d5 0838
00000280: 4836 593a 5eb8 2db9 3ba7 a3ba cfcc 033a
00000290: b6c7 5e39 5e74 ac37 c8ce 013a c2bf b339
000002a0: 0000 0000 626a 7337 d7d1 bbb7 9ad0 15ba
000002b0: 1af4 c8b8 5e61 c937 066b 9938 6fa3 703a
000002c0: 12ed 9c39 7157 ab39 040c 3139 649a 8637
000002d0: 93cf a439 a1d8 d4b9 36f9 caba 55ee 1eb7
000002e0: 365b eb38 1f6c 7936 65e6 2238 6b56 2339
000002f0: 829c 9bb7 0000 0000 ea68 2fb7 a717 f5b9
00000300: 04c2 c9b9 b8cd ca36 f652 1a38 e395 01b9
00000310: 73b4 3d38 7952 0a39 e659 ad38 f8d3 9534
00000320: 2cb6 9a39 4d68 dc36 0bd4 88ba c8b8 3db9
00000330: efc4 1e39 3f69 9737 2342 073a e383 ea38
00000340: de2f 02b9 08b1 04b9 0000 0000 42c4 46ba
00000350: c9f3 6ab8 c3f0 57b7 34fb 3238 4845 c839
00000360: fa3d bdb7 ccff 3039 f511 ad38 5c0e c2b6
00000370: 0873 8739 a038 2eba f9c9 e5ba 66f4 1939
00000380: 4a7c 5539 7af7 5938 6357 39ba 9e60 1139
00000390: a6a7 8ab8 e8fc 3639 076b 0239 0000 0000
000003a0: dbe7 43b9 1487 0639 2cfe 5e38 66ca 0eba
000003b0: 97f5 4939 cb31 c839 6a93 4237 efe2 6c38
000003c0: fc9c 4a3a c24c 13ba 9a06 fbba 2c8b e3b9
000003d0: b3b1 bb38 0c45 66b6 1ca9 8db8 692a a739
000003e0: 1cd5 a7b7 94e2 04b8 94c7 31b7 2f0b 7aba
000003f0: 0000 0000 a558 7837 cbc1 8e38 d350 9839
0.0 1.1062082e-05 6.2867075e-05 -0.0009116422 0.000112815076 2.479995e-05 0.00016543544 3.255057e-05
-6.16681e-05 1.47900455e-05 -1.6365382e-05 -0.0010758683 7.736861e-05 -3.50182e-05 1.5601145e-05 0.00032086513
-7.956061e-05 0.0001182371 7.2420477e-07 3.8353857e-05 0.00065359415 0.0 -0.0018678742 -0.0013085009
7.164014e-05 -4.6121727e-06 -0.00011139627 0.00025470715 -3.891297e-05 -7.6447745e-05 -2.5104615e-05 -0.0018326988
-0.00057389424 -1.1804836e-05 4.6068097e-05 6.766484e-05 0.00034833568 9.1046844e-05 0.000117946896 1.5028835e-06
9.956209e-05 -0.0007914703 0.0 -0.0024104437 4.3025626e-05 -1.1612541e-05 -0.0003007414 1.5009112e-05
-9.4899864e-05 -0.00028804282 -9.9947014e-05 -0.002870338 -0.0007142885 -5.277266e-05 -8.827655e-07 -0.0006477696
-0.00010430027 -1.3498301e-06 2.6151845e-05 -3.7689864e-05 0.00036099757 -0.00057411037 -0.0018012829 0.0
0.00016057646 3.9941224e-05 -0.00023470238 0.00014196865 -1.5297706e-05 9.324958e-05 9.507602e-05 -0.00097330776
-0.00015716316 7.574896e-05 3.465109e-05 0.00015373327 0.00024540428 0.00035072473 1.0842118e-05 5.1988955e-05
0.0007530887 9.011703e-05 0.00016043198 0.0010541343 0.0 3.1990152e-05 0.0004173388 0.00034385236
-4.4269764e-05 0.000115012626 2.5974248e-05 0.0010737038 8.323122e-05 3.1659187e-05 6.174218e-05 0.0012171527
0.0005847022 0.00021749656 0.00011020631 6.545199e-05 4.7282283e-05 -4.6268855e-05 -9.694099e-07 0.00024349737
1.0751868e-05 0.0 -3.5196037e-05 1.7271554e-05 -2.8124918e-05 -2.7367338e-05 -2.46653e-05 0.00014114582
-3.5471156e-05 -3.0086605e-05 1.72592e-05 6.554767e-06 2.7596447e-05 1.1893707e-05 1.1337694e-05 1.16565e-05
6.490128e-05 -4.0867657e-05 0.00043970594 5.0528834e-05 4.5257286e-05 -5.517507e-07 0.0 2.2231288e-05
1.8570125e-05 2.4220684e-05 1.7121261e-05 9.153128e-05 -6.583299e-05 -3.147832e-05 1.847696e-05 7.7303084e-05
1.4657358e-05 -4.5660297e-05 1.8251945e-05 1.2098442e-05 2.6884769e-05 6.145305e-05 0.00015408636 -0.00045017706
7.9355494e-05 1.6920403e-05 0.00018752085 0.0 -1.8784036e-05 4.6257515e-05 -3.262246e-06 -0.0006538009
8.9456524e-05 -1.8755269e-05 2.2446122e-05 0.0001232338 -8.073723e-05 7.9047226e-05 8.7829185e-06 3.262342e-05
0.00082859816 -0.00016567248 -0.0012485752 0.0005027772 0.00021245968 2.0558185e-05 0.0004951772 0.0003428441
0.0 1.4508698e-05 -2.2389851e-05 -0.0005714983 -9.5822106e-05 2.4006407e-05 7.315543e-05 0.0009179627
0.0002993127 0.0003268081 0.00016884512 1.6045939e-05 0.00031435172 -0.00040597192 -0.0015485648 -9.473025e-06
0.000112226626 3.7166826e-06 3.883838e-05 0.00015577085 -1.855032e-05 0.0 -1.045524e-05 -0.00046747664
-0.0003848226 6.044018e-06 3.6793725e-05 -0.00012358236 4.5229168e-05 0.00013191429 8.266028e-05 2.790764e-07
0.00029508898 6.568653e-06 -0.001043917 -0.00018093281 0.00015141418 1.8049612e-05 0.00051596964 0.00011182555
-0.00012415598 -0.0001265445 0.0 -0.0007582345 -5.601699e-05 -1.2871055e-05 4.267246e-05 0.0003819859
-2.2559416e-05 0.0001687996 8.2526276e-05 -5.783322e-06 0.00025834912 -0.0006646011 -0.0017531506 0.00014682263
0.00020359564 5.1967312e-05 -0.00070702116 0.0001386427 -6.61158e-05 0.00017451087 0.00012437637 0.0
-0.00018683022 0.00012829556 5.316564e-05 -0.000544703 0.00019260343 0.0003818407 1.1597624e-05 5.6478133e-05
0.0007729081 -0.0005619043 -0.0019151748 -0.00043400505 8.949954e-05 -3.4312861e-06 -6.754903e-05 0.0003188432
-2.0007188e-05 -3.168227e-05 -1.059649e-05 -0.00095384096 0.0 1.4802591e-05 6.8071844e-05 0.00029051918

exp_avg_sq f4 [20, 20]
00000000: 0000 0000 ff13 1336 848c d535 8415 8d37
00000010: a05a 4134 31e4 a331 c1cd 5b35 c733 b832
00000020: 3ac7 2d35 8535 da34 e543 3234 2f8c 4d37
00000030: 03e3 0636 de62 3234 5e71 6432 6bf5 7235
00000040: 091f 2135 a582 2733 11d5 ec31 1976 c932
00000050: eee2 2f35 0000 0000 8468 3737 9301 2a39
00000060: 72fe 3434 a747 852f d4d3 8f35 9a39 df33
00000070: fffb 5c35 b4fd 0834 f8a6 2833 fea2 da38
00000080: 4524 9f36 17a0 2233 5810 8d32 0016 b235
00000090: 3b4d 5236 02ec da31 94c2 9b33 3935 3331
000000a0: f39b d934 1ae3 e936 0000 0000 b29f 1c39
000000b0: 7446 9734 934b f530 4019 2636 1561 8233
000000c0: 242c e635 7abc 0435 1c9d 4d34 53ea d338
000000d0: 1762 0837 c556 3034 bf0d 6b32 7cf2 4036
000000e0: bc7f 3c36 4e96 ff32 5a4e ce32 bb36 3f32
000000f0: a7a3 0e34 695b ce37 6680 e237 0000 0000
00000100: 11dd e834 a40d b532 6984 4737 e749 8833
00000110: f7e8 2836 37ce f335 e3af e434 41ed 9838
00000120: 5640 b437 8e1a f534 1b9b bd32 8d90 0f37
00000130: e311 3e35 706a 3d34 08f3 0a32 580c 6933
00000140: fd18 1535 b653 6437 4823 1237 dac7 7638
00000150: 0000 0000 0fcf 3a32 0485 a736 0eea 2634
00000160: f3da 5e36 0e5c d935 e1d2 3035 138d 1738
00000170: 0cc8 5737 57db 2535 99fe 4d33 95d5 9636
00000180: 3665 d735 a53f 1134 0d4e c833 d65a 8633
00000190: a485 d932 86cb d634 585a ed34 7849 4f35
000001a0: ca10 c132 0000 0000 b244 de33 b060 3b32
000001b0: 61a9 9f33 cecf f733 0293 2433 6f9f 0935
000001c0: 3254 af34 afc1 6f33 d8af 1332 8e92 d033
000001d0: d5b8 9f33 f8c4 1d32 976c 0532 4bce 2832
000001e0: 7a0f 0533 0887 6036 aad1 7d36 b453 cd36
000001f0: 90b8 f433 1598 4930 0000 0000 556c 3032
00000200: 09fa 0935 e6c7 a734 b730 c233 ada3 6636
00000210: a89f 4736 22c3 c633 e7c5 b031 f147 8135
00000220: dc5f 0334 96b2 9132 2951 8631 c34c 0032
00000230: 85bf 1833 ccd3 9d35 4799 9b35 88a9 c936
00000240: 2a05 aa33 1187 0331 b56f c134 0000 0000
00000250: 87b6 a334 02a1 9634 1e0a d533 658e 8e36
00000260: e8ee 8a35 09c8 f633 05ed 2732 daf3 b234
00000270: 2e0f 6634 bd98 c532 d7b8 9931 df8d 9c32
00000280: 0617 bb35 9e01 6837 08d5 8537 d8c1 7539
00000290: ef4f 1635 7ce4 af31 8999 e436 6744 b034
000002a0: 0000 0000 aba8 6435 5da1 4634 ac96 1439
000002b0: dcc9 5837 8cbf 8534 bda5 8933 0cd4 da36
000002c0: c18d ba36 3f86 d933 ee5f 4834 e4ff a632
000002d0: 2de8 b834 956e 9d36 9dde 1a37 1072 8938
000002e0: 2ddb 3534 8382 eb2f eb7d ef35 3485 8133
000002f0: 50b9 7335 0000 0000 0294 8f33 c521 3b38
00000300: 49c2 a736 b64b 6f33 554b 2332 1c45 f635
00000310: 8fb3 e335 13a0 b432 60c0 2833 0107 4231
00000320: bf2a 0f35 a4ca 0737 d118 1637 0140 9638
00000330: d479 d834 8727 b631 e4c6 8436 7855 2334
00000340: e27c c535 a8db 2535 0000 0000 ac83 3938
00000350: 302d fc36 4aa5 3534 93e4 1633 36ab 7336
00000360: 7844 0e36 a193 b033 3fcf b333 e35c 5c32
00000370: 10e7 4434 970f 3838 a1ef 6738 fbce 3239
00000380: a19d 2435 2904 4a33 a976 a537 8a2d 1234
00000390: 1469 8836 6d5f 9b36 944e 7135 0000 0000
000003a0: 81b8 1838 d493 9335 b2fa 6433 97be 8537
000003b0: 46b5 8b35 9f2d 0235 6469 2032 c4af 2634
000003c0: 0869 8935 cb1a be36 22ed 8037 56d7 8339
000003d0: 5ac6 5034 de84 622f 9ea0 1f36 1919 2c34
000003e0: bde5 6535 5c5f 7934 5863 1a33 0640 2639
000003f0: 0000 0000 4b46 6e33 8db7 ee32 86ce 2f36
0.0 2.1916346e-06 1.5910632e-06 1.6818529e-05 1.8007495e-07 4.7698667e-09 8.188327e-07 2.1443965e-08
6.4737435e-07 4.0644605e-07 1.6602242e-07 1.2251591e-05 2.0099694e-06 1.661351e-07 1.3297123e-08 9.0509155e-07
6.0022336e-07 3.9001538e-08 6.892727e-09 2.3453184e-08 6.5522806e-07 0.0 1.0931984e-05 0.0001621305
1.6856373e-07 2.424347e-10 1.071598e-06 1.03947244e-07 8.232309e-07 1.2758284e-07 3.9267405e-08 0.0001042541
4.7427916e-06 3.7864165e-08 1.6421993e-08 1.3268436e-06 3.1337393e-06 6.371466e-09 7.2531435e-08 2.6078182e-09
4.0532868e-07 6.970379e-06 0.0 0.0001493681 2.8177203e-07 1.7847576e-09 2.4750625e-06 6.071256e-08
1.7149182e-06 4.94481e-07 1.9149269e-07 0.0001010491 8.12907e-06 1.6422844e-07 1.3681926e-08 2.8751374e-06
2.8088534e-06 2.9754258e-08 2.4017186e-08 1.11301075e-08 1.3284317e-07 2.459968e-05 2.700109e-05 0.0
4.3374214e-07 2.1077376e-08 1.1892153e-05 6.346436e-08 2.5169554e-06 1.8164927e-06 4.2596284e-07 7.292117e-05
2.148763e-05 4.5654127e-07 2.207303e-08 8.55712e-06 7.0806544e-07 1.7640718e-07 8.087916e-09 5.4260767e-08
5.554319e-07 1.36093495e-05 8.710493e-06 5.8837097e-05 0.0 1.0873705e-08 4.992473e-06 1.5545103e-07
3.3208023e-06 1.6194551e-06 6.587198e-07 3.613259e-05 1.2861576e-05 6.178647e-07 4.7961837e-08 4.4952126e-06
1.6048205e-06 1.3527331e-07 9.327423e-08 6.256384e-08 2.5322898e-08 4.000869e-07 4.4210424e-07 7.722042e-07
2.2475792e-08 0.0 1.0350176e-07 1.0906817e-08 7.434824e-08 1.1539633e-07 3.831793e-08 5.1268484e-07
3.265755e-07 5.5822678e-08 8.596508e-09 9.712413e-08 7.437635e-08 9.183388e-09 7.766309e-09 9.825793e-09
3.098055e-08 3.34572e-06 3.7821978e-06 6.1192204e-06 1.1395707e-07 7.3339496e-10 0.0 1.026918e-08
5.1400326e-07 3.125162e-07 9.04269e-08 3.4367943e-06 2.9746243e-06 9.255588e-08 5.144773e-09 9.632187e-07
1.2235199e-07 1.6961433e-08 3.90914e-09 7.468034e-09 3.5564444e-08 1.1759053e-06 1.159301e-06 6.010003e-06
7.917181e-08 1.9139785e-09 3.603033e-07 0.0 3.0493922e-07 2.8056826e-07 9.920426e-08 4.2485067e-06
1.0351332e-06 1.1491654e-07 9.774571e-09 3.333251e-07 2.1425942e-07 2.3003276e-08 4.4739e-09 1.8225306e-08
1.3939286e-06 1.3828654e-05 1.5954036e-05 0.00023437233 5.5995673e-07 5.119146e-09 6.8128033e-06 3.2832324e-07
0.0 8.5182063e-07 1.849889e-07 0.0001417051 1.2921602e-05 2.491255e-07 6.409707e-08 6.521592e-06
5.5597343e-06 1.0129269e-07 1.866135e-07 1.9441309e-08 3.44416e-07 4.691838e-06 9.2309465e-06 6.553915e-05
1.6936674e-07 4.2838985e-10 1.7843535e-06 6.03126e-08 9.079422e-07 0.0 6.685879e-08 4.4615725e-05
4.9996056e-06 5.5715383e-08 9.504977e-09 1.8348542e-06 1.6965076e-06 2.1027551e-08 3.9290512e-08 2.8234697e-09
5.3333855e-07 8.093808e-06 8.946475e-06 7.164479e-05 4.0321777e-07 5.301391e-09 3.9570605e-06 1.5211651e-07
1.471399e-06 6.178693e-07 0.0 4.4230066e-05 7.5154458e-06 1.691707e-07 3.5132484e-08 3.630948e-06
2.1199503e-06 8.222492e-08 8.373035e-08 1.2826805e-08 1.8337983e-07 4.3883538e-05 5.5297864e-05 0.00017052509
6.132414e-07 4.7035574e-08 1.9724788e-05 1.3613877e-07 4.0653485e-06 4.630469e-06 8.989384e-07 0.0
3.6411457e-05 1.0995377e-06 5.3313393e-08 1.5943586e-05 1.0409065e-06 4.849516e-07 9.337189e-09 1.5523898e-07
1.0237864e-06 5.6655604e-06 1.5369213e-05 0.00025146705 1.944367e-07 2.0601784e-10 2.3786338e-06 1.6027879e-07
8.564346e-07 2.3224624e-07 3.594627e-08 0.00015854844 0.0 5.5477624e-08 2.7790316e-08 2.6197245e-06

exp_avg f4 [9, 20]
00000000: a156 2db9 006a 2e39 c7aa c338 abc4 ce38
00000010: 68bd 71b7 6eca 5bb7 8883 d6b7 d852 dbb8
00000020: 2705 9b38 b1d5 49b8 587a 3737 68be b8b5
00000030: 239c a038 872f 07b8 db63 87b8 8a14 96b8
00000040: 449b 94b9 b288 d4b7 0343 18b9 4366 a5b7
00000050: 4c8c 6dba b673 68bb 5eb8 acbb 0172 2cbb
00000060: 20b3 22ba 2a76 f9b9 1184 f2b9 fc3a 46ba
00000070: 4e6b acba 62dc 1cbb 86ec b8ba 7486 25bb
00000080: eab3 70bb 2611 8bba 1e3f 2eba 117d 7dba
00000090: 9f49 16ba 248c 25ba 3fad 47b9 806b 66ba
000000a0: 3d8f 743a 8561 033b 069b 9a3a 7bae fd3a
000000b0: 7e5c ac39 5de2 c039 f691 db3a eff7 133a
000000c0: 235e 41b8 952e 8139 852c eab9 03e8 a03a
000000d0: 1415 a03a 13f8 e3b9 4fb5 bf38 73fb 133b
000000e0: c3f2 2e3a ddd3 483a 7420 d939 ac4c d337
000000f0: e5a7 9db8 c46c 473b 98a8 323b f914 a13b
00000100: 213d 253a 04ee 9139 2519 ecb9 a0f5 17ba
00000110: e53d a839 1d7c b739 ba3a 9539 a65e 573b
00000120: 84c7 423b cf68 2cb8 b51a 2538 cda4 70ba
00000130: 8678 8cba 39a9 77ba 98b2 6fb8 2ef5 bd38
00000140: 5ed2 b1b8 c686 26bb bfdc 2fb9 b53f 7fba
00000150: 5d48 aab9 530b 83b9 989c b0ba 9a4a c639
00000160: 8ea1 0539 c6b6 e139 b4d5 363a b821 2a38
00000170: 2200 dfba fbc4 023a 6c62 8039 de71 9dba
00000180: c9be 0b3a 3b53 f438 6895 f5b7 2a76 ce39
00000190: 0342 553a f35c 35b9 d979 4a3a 3617 b43a
000001a0: 77c3 e939 0964 9838 89bf f939 a68b 473a
000001b0: 01a9 533a 8628 373a 34f9 383a 41ba 7e3a
000001c0: 8975 e139 01be 243a a2c1 f239 1953 183a
000001d0: 0ab1 1e3a 494a 2c3a b626 ef39 8f39 ea39
000001e0: af58 6839 fe99 d439 7095 003a db6a 3bbb
000001f0: e331 b3b8 e459 e3b4 7128 afb8 92d7 b838
00000200: 16ab 4639 8156 e639 4f9f ad39 39eb 03bb
00000210: e518 efb7 d8b6 c439 d123 c438 7ae5 69b9
00000220: 47ba 8b39 87a3 9c38 2fea e937 6391 1138
00000230: 702e 3639 6232 07b8 2177 fc39 8be4 16ba
00000240: 025a f3b9 0eff a237 f468 0039 89c3 4639
00000250: 09e9 10ba 6176 2539 c204 75b9 7336 d939
00000260: c318 6bb9 c6cf dd38 af6c 8638 b32b 0d3a
00000270: 5b15 253a 8531 0339 a76d 1eb8 373a 27b2
00000280: bca1 6eba da93 303a e6bc 9fb9 fb39 a8ba
00000290: 7c23 db38 56ab 7e35 9f18 c838 b1d9 0dba
000002a0: a533 cf39 d666 f938 89b5 8038 828f b7ba
000002b0: 77f8 723a 9c07 24b8 9e01 8cb9 a108 5536
000002c0: b7cc 4aba c0be 10b9 47d0 e5b9 0a95 c1b8
-0.00016530837 0.00016633421 9.330134e-05 9.859478e-05 -1.4408819e-05 -1.3100549e-05 -2.5572037e-05 -0.000104581646
7.391936e-05 -4.812115e-05 1.0936135e-05 -1.3764484e-06 7.658477e-05 -3.223077e-05 -6.455901e-05 -7.156383e-05
-0.00028344442 -2.5336023e-05 -0.00014520813 -1.9717152e-05 -0.00090617384 -0.003546936 -0.0052710017 -0.0026313069
-0.0006206501 -0.0004758102 -0.00046256234 -0.000756189 -0.0013154538 -0.002393507 -0.0014108575 -0.0025257142
-0.003672833 -0.0010609969 -0.00066469784 -0.00096698204 -0.00057330163 -0.0006315133 -0.00019042658 -0.00087898225
0.00093292055 0.002004714 0.0011795468 0.0019354367 0.00032875309 0.00036789748 0.0016751874 0.000564455
-4.6102457e-05 0.00024639504 -0.00044665128 0.0012276176 0.0012213313 -0.00043481644 9.141361e-05 0.0022580295
0.00066737476 0.00076609646 0.00041413645 2.5188863e-05 -7.517616e-05 0.003042982 0.0027261134 0.00491583
0.00063033594 0.0002783389 -0.00045032162 -0.0005796794 0.00032089572 0.00034996952 0.0002846325 0.0032862811
0.0029720971 -4.1105606e-05 3.936394e-05 -0.00091798307 -0.0010717071 -0.00094475184 -5.714837e-05 9.0578906e-05
-8.479202e-05 -0.002540992 -0.00016771535 -0.0009736971 -0.00032478842 -0.00024994704 -0.0013474403 0.00037821085
0.00012744052 0.0004305152 0.0006974593 4.056256e-05 -0.0017013589 0.0004988459 0.00024487393 -0.0012012084
0.00053308584 0.000116503295 -2.9275849e-05 0.0003937942 0.00081351417 -0.00017296131 0.0007723845 0.0013739828
0.00044586856 7.266558e-05 0.00047635686 0.0007612057 0.0008074195 0.00069869345 0.0007056177 0.0009717085
0.00043002915 0.00062844163 0.00046302105 0.00058107224 0.00060536026 0.00065723486 0.00045614474 0.00044674843
0.00022158281 0.00040550524 0.00049050804 -0.0028597626 -8.544677e-05 -4.234745e-07 -8.352183e-05 8.813957e-05
0.00018946486 0.0004393347 0.00033115825 -0.0020129217 -2.8502613e-05 0.00037520262 9.3526796e-05 -0.00022306098
0.00026650933 7.469119e-05 2.7884815e-05 3.4706096e-05 0.00017374172 -3.223343e-05 0.00048153943 -0.00057561015
-0.00046415633 1.9430674e-05 0.0001224613 0.00018955594 -0.0005527889 0.00015779726 -0.00023366793 0.00041430033
-0.00022420571 0.00010576802 6.409862e-05 0.0005385235 0.00062974327 0.00012511581 -3.7772257e-05 -9.733916e-09
-0.000910308 0.0006735899 -0.00030467584 -0.0012834662 0.00010449343 9.48717e-07 9.541329e-05 -0.00054111617
0.00039520595 0.000118924 6.137329e-05 -0.0014004561 0.00092685915 -3.9107734e-05 -0.00026704086 3.1744496e-06
-0.00077361934 -0.0001380397 -0.00043833462 -9.230718e-05
