checkpoints/RNN_199.pt (torch, 111359 bytes, 9 tensors)

snn.l1.input_weights f4 [20, 416]
000000 51 75 a4 3d 63 23 61 3f 55 0b ce 3e 98 50 8f 3e
       0.08030189 0.8794462 0.4024302 0.27991176
000010 2a 19 01 bf 50 60 f4 3e 7f 95 b0 bd a5 fa 09 3f
       -0.5042902 0.4772973 -0.08622264 0.5389808
000020 bc 3e ea 3d 65 87 48 3f 2c 9e f8 3e 55 d2 b4 bd
       0.11437747 0.78331596 0.48558176 -0.0882918
000030 d5 8f cb 3d 90 f0 29 bf 8b 53 2c 3f a9 e7 97 3e
       0.09939543 -0.66382694 0.67314976 0.2966893
000040 61 3c af be 46 2f a7 3b 59 70 e1 bc 90 b7 f5 bd
       -0.34225753 0.005102071 -0.027519392 -0.119979024
000050 19 74 27 3f 8e 54 18 3e 92 ce c2 3e ce 46 f5 3e
       0.65411526 0.14876005 0.38048226 0.47905582
000060 87 1e 03 3f 34 93 32 3f 7f 01 2b 3e 99 87 dd 3e
       0.51218456 0.69755864 0.1669979 0.43267515
000070 af 9b 25 3f 7e 20 86 bd 3b dc 55 3f da ab 62 3f
       0.6469068 -0.06549166 0.8353917 0.88543475
000080 6c 7e f4 3e d2 80 43 be 25 67 5c be 83 10 da 3d
       0.47752702 -0.1909211 -0.21523722 0.106476806
000090 b6 de 91 3f 6b 8a ad 3e 4b b2 9a be 9d 99 c6 3e
       1.1396091 0.33894667 -0.30214152 0.38789073
0000a0 e2 a6 64 be 99 f3 6b 3f 5e 0c cd 3d 03 a8 65 3f
       -0.22329286 0.92168576 0.100121245 0.8970949
0000b0 1e c4 4e 3f ba 1c d3 3e ba ea 47 3f 94 7c b4 3e
       0.80768 0.41232854 0.7809254 0.35251296
0000c0 0a 31 da 3e 57 3a 36 bf 86 86 83 3d d8 92 db 3d
       0.4261554 -0.7118277 0.06422143 0.107213676
0000d0 46 7d b4 3f d4 d1 9b 3f 95 a4 59 3f 32 ad 9c 3f
       1.410073 1.217341 0.8501676 1.2240355
0000e0 a0 8c 81 3f 97 fc 98 3f be 15 cc 3f 0a 83 cb 3f
       1.012104 1.1952084 1.5944135 1.5899365
0000f0 ca c9 d3 3f e9 fc 3a 3f 42 d0 c6 3f 13 50 75 3f
       1.6545956 0.7304216 1.5532305 0.9582531
000100 47 bc d0 3f 62 e5 d5 3f b3 a5 b5 3f bb ce ef 3f
       1.6307458 1.6710627 1.4191192 1.8734964
000110 14 18 c1 3f c5 e5 7f 3f c8 b8 8f 3e 2b ae 17 3f
       1.5085473 0.99959975 0.28070664 0.59250134
000120 f1 f7 a1 3f eb 63 c8 3f 65 f5 98 3f 57 d8 9e 3f
       1.2653791 1.5655493 1.1949888 1.2409772
000130 fe d3 cd 3f 3e 2b 6c 3f cb ee d6 3f 75 8e 8a 3f
       1.608032 0.9225348 1.6791624 1.0824724
000140 e8 f8 e0 3f 5b e2 d7 3f 44 04 89 3f 01 e9 e8 3f
       1.757596 1.6865953 1.0704427 1.8196107
000150 89 8b b3 3f 75 64 94 3f a7 37 3b 3f 57 ee 8c 3f
       1.4026958 1.1593157 0.73131794 1.1010236
000160 86 8e 82 3f 2d a6 a2 3f 25 bf ab 3f 59 7b bd 3f
       1.0199745 1.2706963 1.3417708 1.4803268
000170 63 89 e9 3f 66 6a aa 3f fb 9a a6 3f 07 e5 86 3f
       1.8245052 1.331372 1.3016046 1.0538644
000180 20 43 96 3f a7 a9 ef 3f e5 11 8b 3f 92 3d ee 3f
       1.1739235 1.8723649 1.0864836 1.861254
000190 80 a1 39 3f 76 49 bd 3e 0b 49 98 3f ac ce bc 3f
       0.72512054 0.3697011 1.1897291 1.4750571
0001a0 8b 84 11 40 b3 e8 08 40 99 50 dd 3f 9c e1 d9 3f
       2.2737148 2.1392028 1.7290221 1.7021976
0001b0 0b c5 0c 40 87 08 34 40 94 8c c8 3f b1 e7 1e 40
       2.1995265 2.8130205 1.5667901 2.4828913
0001c0 67 dc b9 3f ac 16 01 40 3b c1 25 40 1d e9 29 40
       1.4520386 2.0170088 2.5899189 2.654853
0001d0 75 62 16 40 a5 81 ef 3f f4 84 cb 3f ba 80 0c 40
       2.3497593 1.8711439 1.5899949 2.1953568
0001e0 7f 6e 0b 40 4e 56 f8 3f 1d d4 ea 3f 72 4e fd 3f
       2.1786191 1.9401338 1.8345982 1.9789565
0001f0 98 c5 11 40 93 ed 08 40 aa d4 e6 3f a2 74 ea 3f
       2.2776852 2.1395004 1.803365 1.8316844
000200 f3 c8 c5 3f 98 48 04 40 71 12 18 40 18 e2 3c 40
       1.545195 2.0669308 2.3761256 2.9512997
000210 01 80 23 40 57 13 d3 3f 2a 24 bc 3f 96 12 b3 3f
       2.5546877 1.6490277 1.4698536 1.3990047
000220 1c 94 0f 40 91 96 05 40 8f 97 d3 3f f5 a4 03 40
       2.2434149 2.0873148 1.6530627 2.0569432
000230 7a 98 01 40 03 b2 e0 3f bf 65 fc 3f 20 c0 f5 3f
       2.0249314 1.7554325 1.971855 1.9199257
000240 60 e9 d0 3f 4e ca 20 40 da 67 1e 40 20 98 50 40
       1.632122 2.5123477 2.4750886 3.259285
000250 7f 06 2f 40 c2 c2 cb 3f 8d f3 c2 3f 96 40 e4 3f
       2.7347715 1.591881 1.5230576 1.783221
000260 84 55 22 40 c5 c6 f3 3f 61 44 ce 3f 0c a2 24 40
       2.5364695 1.9045035 1.6114618 2.5723906
000270 54 19 90 be 29 4c 1e 3f 44 b7 1a 3f 7e b2 de 3e
       -0.28144324 0.6183496 0.6043589 0.43495554
000280 06 1b 57 3f 5d 63 0d 3e 7d 60 7a 3f fb fb bf 3f
       0.8402561 0.13807435 0.9780348 1.4998773
000290 7e 9b 8f 3f d0 70 2d 3f 16 4d 72 3f 5b fd 71 3f
       1.1219327 0.67750263 0.94648874 0.94527215
0002a0 e7 1a 51 3f b6 3d c6 3e 15 7d eb 3e 03 25 d1 bd
       0.81681675 0.38718957 0.45993868 -0.102121376
0002b0 b9 58 74 bd 48 c9 01 3f ad 7b d5 3d 92 4c da 3e
       -0.059654925 0.50697756 0.1042398 0.42636544
0002c0 cc f9 c4 3e 2a 0d d7 3d b6 ed ac 3f 6c 08 95 3f
       0.3847183 0.10500558 1.3510044 1.1643195
0002d0 d4 4f 5e 3f 99 d7 09 3e 4b e5 a7 3e d0 54 84 3f
       0.8684056 0.1346115 0.32792124 1.0338383
0002e0 19 ca 8c 3f ab e3 00 3f 4a eb 84 3f 00 21 3e 3f
       1.0999175 0.50347394 1.0384305 0.74269104
0002f0 32 bd a0 bd f8 9b 88 3e 8b ae 23 3f dd fe de 3e
       -0.07848586 0.26681495 0.63938206 0.4355382
000300 2e a4 93 3e b1 fd 8b be c9 5d a7 3f a9 11 86 3f
       0.28836197 -0.2734199 1.3075496 1.047414
000310 b0 22 60 3f 62 88 dd 3e 39 4e 83 3e 9f d4 79 3f
       0.8755293 0.43268114 0.25645617 0.9759006
000320 e7 80 41 3f d6 ed 13 3f 05 95 6f 3f 5b 13 46 3f
       0.75587314 0.57784784 0.9358676 0.77373284
000330 ae 22 10 3f 2c 16 29 3f 7f a5 6a 3e 04 7c 39 3f
       0.56302917 0.66049457 0.22914694 0.7245486
000340 2c 0a 10 3e 11 b4 0c 3f ab 72 57 3e ca 42 3c 3e
       0.1406638 0.5496226 0.21039836 0.18384853
000350 f4 a9 05 3f d6 93 96 3e a9 e6 19 bf d8 f8 37 3e
       0.5221245 0.29409665 -0.60117584 0.1796602
000360 4b 41 c2 bd 24 0a 15 3e c0 32 ae 3e de f5 bd be
       -0.0948511 0.1455465 0.34023094 -0.37101644
000370 3f 3d b3 3e 07 9a 02 bf ef 29 15 bf b5 65 8f be
       0.35007665 -0.5101628 -0.5826711 -0.28007284
000380 05 a9 d7 bd 3f 67 5a 3f 04 4a bd 3c 97 37 1a 3e
       -0.10530285 0.8531379 0.023106582 0.15060268
000390 85 b6 57 3f 91 a3 2c bd a9 38 65 bf 81 27 a8 3e
       0.8426288 -0.042148177 -0.8953958 0.3284264
0003a0 cc e5 c3 be 84 fe 2c bb 7b 6b 6e 3d eb 89 4f bd
       -0.3826126 -0.002639682 0.05820797 -0.05066864
0003b0 5f cb 16 3f 54 c9 ad 3e 60 64 4a be 1e 25 ae be
       0.5890407 0.33942664 -0.19764853 -0.34012693
0003c0 a2 79 69 bd 16 0e e0 bb f8 e4 a0 3e 63 d1 87 be
       -0.057000764 -0.0068376167 0.3142469 -0.26526937
0003d0 40 7a 29 3f 2b 6f 16 bf b2 33 00 bf cd ac 7d 3f
       0.66202164 -0.5876338 -0.5007888 0.990918
0003e0 22 ab 47 be 44 75 ec 3d 31 61 75 3e f5 1e 06 bf
       -0.19498876 0.11545804 0.23962857 -0.52390987
0003f0 ae 74 20 3d 2b b7 0b 3f 97 a7 c7 be f0 69 fc be
       0.039173774 0.5457637 -0.38995048 -0.49299574

snn.l1.recurrent_weights f4 [20, 20]
000000 00 00 00 00 01 11 85 40 28 89 ac 3d 63 72 a9 40
       0.0 4.1583257 0.08424598 5.295213
000010 ff 2a 33 be 6b 4e b6 bf 7c b7 6c be 9e 3b 72 c0
       -0.1749687 -1.4242681 -0.23116869 -3.7848887
000020 a3 a8 be 40 ae af 34 40 e5 b0 56 40 33 8f d3 40
       5.9580855 2.8232226 3.3545468 6.6112304
000030 64 b5 ce 40 1d b7 5b 40 26 6e ec bf a9 3e 36 be
       6.4596424 3.4330513 -1.8471115 -0.1779734
000040 e6 1a 9d 40 49 62 a5 c0 51 a6 0b 40 75 78 52 3f
       4.9095335 -5.1682477 2.1820261 0.8221505
000050 84 62 48 bf 00 00 00 00 d8 1b 79 41 d3 f1 18 41
       -0.7827532 0.0 15.569298 9.559039
000060 57 3c 97 c0 ea 41 c0 40 2c f2 59 41 04 47 e5 c0
       -4.7261157 6.008046 13.621624 -7.164919
000070 67 a0 d0 40 db 7e 82 40 77 7b 64 40 b2 db 22 41
       6.5195804 4.0779853 3.5700357 10.178637
000080 9e 57 53 41 db e2 94 40 f6 7f 35 bd e8 1c d2 40
       13.208891 4.6526923 -0.044311486 6.5660286
000090 54 1c f5 bf f7 58 57 40 4c a5 f5 be 38 fa f2 3f
       -1.914927 3.364805 -0.47977674 1.8982611
0000a0 5d ce 2b 3f d1 0c e2 40 00 00 00 00 52 06 08 41
       0.6711176 7.0640645 0.0 8.501543
0000b0 06 07 55 c0 f8 e9 d9 40 0d 88 25 41 15 49 08 c0
       -3.3285537 6.8098106 10.3457155 -2.1294606
0000c0 9b 1e 04 40 c4 26 96 40 bd 5d f5 3f 8a 74 2a 41
       2.064368 4.692232 1.9169232 10.653452
0000d0 fd ef 13 41 68 fe 82 40 a1 73 a6 40 b6 76 c5 40
       9.246091 4.0935555 5.201615 6.170741
0000e0 68 4f 56 bf f2 24 ed 40 26 a3 4e 40 19 fd 3a 40
       -0.83714914 7.41076 3.2287078 2.9216979
0000f0 2a 51 84 3e 40 90 6c 40 ce bc dc 3f 00 00 00 00
       0.25843173 3.6963043 1.7245119 0.0
000100 f9 91 0d 3f 80 96 28 c0 a1 7c ad 40 a6 c0 08 40
       0.5530086 -2.6341858 5.4214635 2.1367583
000110 b2 51 87 40 8e 5e 55 3f 62 cf 2a 40 fc 57 a2 41
       4.2287226 0.83347404 2.6689076 20.292961
000120 2a d4 a8 40 5e fe b9 3f 76 1b 11 40 ca a6 97 bf
       5.275899 1.4530752 2.267301 -1.1847775
000130 86 9f 30 40 2b f5 08 41 b7 f9 03 41 68 e7 be be
       2.7597365 8.559855 8.248466 -0.37285924
000140 7c 11 40 c0 9f 1a f5 3f c4 86 50 40 ec bc fb 40
       -3.0010672 1.9148749 3.2582254 7.8668118
000150 00 00 00 00 3d b9 4d c0 1b d4 35 40 c9 ff c1 c0
       0.0 -3.214431 2.841071 -6.062474
000160 a5 10 ab 40 59 b2 c4 3f bf ca 35 40 08 89 ea 40
       5.345782 1.5366927 2.8404996 7.3292274
000170 a5 e9 ad 40 f1 10 c7 3f b2 f5 4e c0 86 2c de bf
       5.434771 1.5552045 -3.233746 -1.7357337
000180 9d 0c b5 3f 35 39 6d c0 46 14 a7 c0 64 e4 19 be
       1.4144474 -3.7066166 -5.221225 -0.1502853
000190 16 89 8d be 1a bc 4a 40 b5 6b be 40 50 15 75 bf
       -0.2764365 3.1677308 5.950648 -0.95735645
0001a0 80 b4 66 bd 00 00 00 00 80 57 e3 3f fd df d0 3e
       -0.056324482 0.0 1.7761078 0.4079589
0001b0 03 aa a7 40 ce ee 2e 40 6a 70 3c 40 8e 9e a7 3f
       5.2395034 2.7333255 2.9443612 1.3095262
0001c0 f1 f1 b3 40 5f d9 83 40 ae 3f b2 40 30 af 73 3f
       5.623284 4.1202846 5.5702734 0.9518919
0001d0 fb a8 80 3f ea d1 37 be f1 40 44 40 87 70 91 3f
       1.0051569 -0.1795117 3.0664637 1.1362466
0001e0 f9 1d f7 3f e1 21 83 40 51 35 c4 40 54 43 bc 40
       1.9306022 4.0978856 6.1315084 5.883219
0001f0 85 e5 e1 bf 3a 20 cc 40 00 00 00 00 34 5b 93 3e
       -1.7648169 6.378934 0.0 0.2878052
000200 f5 95 23 40 9a 86 de 3f f6 55 2e 3f b4 e8 9f 40
       2.5560277 1.7384827 0.68099916 4.997156
000210 aa 06 93 40 8e 79 f1 3f 89 03 03 40 45 00 e7 3f
       4.5945635 1.886522 2.0470908 1.8046957
000220 ce 48 46 c0 17 ed 09 41 43 57 92 40 ab 9d a8 3f
       -3.0981936 8.620383 4.573152 1.3173116
000230 4a c4 0e c0 5d 2a 14 41 ae f3 93 40 dc 84 37 bf
       -2.2307305 9.260343 4.623496 -0.716871
000240 a0 9f fe 40 00 b7 6a c0 c1 17 fd c0 00 00 00 00
       7.9569855 -3.6674194 -7.9091496 0.0
000250 00 81 be 40 6d ae dd 3f d6 43 3f 40 d2 0b 26 40
       5.953247 1.7318856 2.9885154 2.5944715
000260 46 0b 03 41 59 16 62 40 b5 ca 77 c0 c1 ea a9 40
       8.190252 3.532614 -3.8717473 5.3099065
000270 56 d6 bb 3f 74 ee 0d c1 c3 d6 3c c0 07 24 9d 3f
       1.4674785 -8.870716 -2.950608 1.227662
000280 88 f5 66 c1 b6 44 7e 40 33 3b 38 40 94 fa 42 3f
       -14.434944 3.9729438 2.8786132 0.761636
000290 35 60 5f c1 a0 59 26 c1 5f f3 8b c0 24 79 97 c1
       -13.960988 -10.396881 -4.3734584 -18.93415
0002a0 00 00 00 00 0c 04 4b be a9 93 74 40 59 bc f2 be
       0.0 -0.19825763 3.8215125 -0.47409323
0002b0 fb 02 0d 41 c4 19 06 40 44 4f 2f c1 86 b5 68 c0
       8.813228 2.0953226 -10.956852 -3.6360793
0002c0 af d1 92 c0 09 1f 54 c1 a1 47 4c c1 a6 3d c9 bf
       -4.588096 -13.257577 -12.767488 -1.5721939
0002d0 61 38 65 c1 61 99 8d 40 6d 4e e0 40 8c 6f db c0
       -14.326264 4.424973 7.0095735 -6.8573666
0002e0 07 bc 7c c1 d2 b4 0c c1 e1 7e c0 c0 ac 28 99 c1
       -15.795905 -8.794146 -6.015488 -19.14486
0002f0 c4 e9 bf 40 00 00 00 00 3f e7 63 40 62 1d 9f c0
       5.997286 0.0 3.5609891 -4.972337
000300 2f cf f9 40 49 b2 98 40 42 6b db c0 f4 9c 9b c0
       7.806541 4.7717633 -6.856843 -4.8629093
000310 75 7b 1c c0 42 37 42 c1 82 ba 3e c1 22 c0 98 3f
       -2.4450352 -12.138491 -11.920534 1.1933634
000320 27 db 89 c1 2a 14 78 3f 93 53 8a 40 db d9 6f c0
       -17.232008 0.9690577 4.322702 -3.7476718
000330 8b ac 6f c1 2e 28 48 c1 c5 55 16 c1 81 87 ab c1
       -14.979625 -12.5098095 -9.39594 -21.441164
000340 ba cc ec 40 ac 1f 30 40 00 00 00 00 78 12 86 c0
       7.399991 2.751933 0.0 -4.1897545
000350 71 2f cf 40 92 dd 66 40 0e e9 3a c1 3d 56 0b c1
       6.474541 3.6072736 -11.681898 -8.708554
000360 4f be 9f c0 cf a0 83 c1 c7 2b 5d c1 d3 23 df be
       -4.991981 -16.45352 -13.823188 -0.4358202
000370 97 39 93 3f 53 ac d9 3f 11 77 4f 3f 67 52 72 41
       1.150195 1.7005714 0.81041056 15.145118
000380 b4 ab ae bf 58 80 d3 3f 34 1d 6a 40 22 7a c5 3f
       -1.364615 1.6523542 3.6580324 1.5427897
000390 6a 62 e6 3f 24 b9 49 3e 9a 17 3c 3f 00 00 00 00
       1.7998784 0.19699532 0.73473513 0.0
0003a0 ab ad 6d 40 08 4c e7 3f 4b ce b6 3f 8c 23 f0 be
       3.7137249 1.8070078 1.4281706 -0.4690212
0003b0 51 51 41 bf 83 4f e2 40 6a a2 e1 40 e6 4d 8a 3d
       -0.75514704 7.072206 7.051076 0.06753139
0003c0 23 95 ed c0 67 19 18 41 02 d0 18 41 c9 9f 8c 40
       -7.424455 9.506202 9.550783 4.394505
0003d0 60 69 24 c1 3f 06 9e bf 31 d1 aa 40 c9 06 4a c1
       -10.275726 -1.2345656 5.338036 -12.626657
0003e0 3b 67 ef 40 65 55 d9 3f 21 02 94 40 9a 7c 96 40
       7.4813514 1.6979185 4.62526 4.70271
0003f0 00 00 00 00 53 e9 7b 40 b6 78 c8 c0 38 74 1c 3f
       0.0 3.936116 -6.264735 0.61114836

snn.fc_out.weight f4 [9, 20]
000000 28 93 7f c0 ed c9 9d 3f bb bf f3 3e 56 1d 2c c1
       -3.9933567 1.2327248 0.47607216 -10.757162
000010 c5 30 e3 be 4f 3f a1 c0 b4 10 e3 c0 eb eb 09 41
       -0.44373146 -5.038978 -7.095789 8.620097
000020 53 6f 56 c0 01 66 98 bd 6c 5c ad bf ed 11 24 c1
       -3.3505447 -0.07441331 -1.354383 -10.254376
000030 1a 7f 1a c0 7f a6 a6 bf 43 93 a0 bf cd 8b 94 40
       -2.4140077 -1.301956 -1.2544941 4.6420655
000040 a9 c6 ad 40 bf 09 f7 bf 71 e7 30 c0 37 5c 68 be
       5.4305005 -1.9299849 -2.764126 -0.22691427
000050 36 eb 34 c0 c5 51 0e 40 7b ee 07 41 1f fc 51 c0
       -2.8268561 2.2237408 8.495723 -3.2810133
000060 a6 c1 a4 bf d4 04 0b 40 f4 fc ee 3e 92 66 e1 bf
       -1.2871597 2.1721697 0.46677363 -1.7609427
000070 10 ad 0d 3f fc 14 26 40 d9 77 f4 3f a2 8f b6 bf
       0.553422 2.5950308 1.9099075 -1.4262583
000080 a7 70 20 40 11 c8 ac 3f 48 f8 63 40 03 64 b9 c0
       2.5068758 1.3498555 3.562029 -5.7934585
000090 2a 64 92 bf 4f 01 04 40 4c 1e c1 3e 16 19 d7 3f
       -1.1436818 2.0625799 0.37718427 1.6804531
0000a0 53 cf 45 40 49 5e 53 3f b9 c1 b0 be e3 cb 96 bf
       3.090779 0.8256574 -0.345228 -1.1780971
0000b0 fc 74 99 40 b3 95 bc 3e a6 6f 6a 3f 99 f3 0b 3e
       4.7955303 0.3683296 0.9157661 0.13667144
0000c0 72 42 85 40 ce 5f 36 3e dd 00 fa 3f 86 ac 38 c0
       4.164361 0.17809984 1.9531513 -2.88553
0000d0 b3 01 e7 3f 27 a6 1f 3f 16 12 49 3f b3 94 58 40
       1.8047394 0.62362903 0.7854322 3.3840759
0000e0 2a 26 b5 c0 9e 44 86 c0 1c f7 5a c0 47 9d 3d 3f
       -5.6609087 -4.195876 -3.4213324 0.7406811
0000f0 e6 8d 13 40 dd 8e cf bf 64 bb 0f c0 07 7e cd c0
       2.3055358 -1.6215473 -2.2458124 -6.421634
000100 e5 26 a5 bf 75 54 8f 40 c6 8b a5 bf 48 64 0a 3f
       -1.2902495 4.4790597 -1.293328 0.5405927
000110 5f 32 e0 bd f1 5f b7 3f 5f b4 f1 3e b2 e3 f4 bf
       -0.109471075 1.4326154 0.47207925 -1.9131987
000120 ad bc d0 3e 7d ed cd 3f 0b 44 52 40 44 23 5a 40
       0.40768948 1.6088101 3.285403 3.4084024
000130 56 16 5a 40 02 3c 48 c0 51 c1 e3 3e d2 48 93 3f
       3.4076133 -3.1286626 0.44483426 1.1506598
000140 9a a9 bf bf ce 8a 39 40 59 50 c1 3e fc 1f 65 c0
       -1.4973633 2.899097 0.37756613 -3.5800772
000150 e7 27 e4 be 0f ce ca bf c8 1b b0 40 00 57 5b bf
       -0.44561693 -1.5844134 5.5033913 -0.85679626
000160 b6 e4 1d c0 8f c8 3c bf 90 48 f6 bf 52 d3 e4 c0
       -2.4670844 -0.7374353 -1.9240894 -7.150796
000170 ac bb 8c 3f 22 38 d7 bf f4 a6 cf bf e3 46 e5 3f
       1.0994773 -1.6814005 -1.6222825 1.7912258
000180 9f 5c 02 c0 0c dc 88 40 05 27 37 bf 8d 96 a4 bf
       -2.0369031 4.276861 -0.71543914 -1.2858444
000190 26 0f 34 40 cd 87 f4 bf dc 9a 93 c0 6f 6e 34 3f
       2.8134246 -1.9103943 -4.6126537 0.7048101
0001a0 64 a5 1b c0 03 dc 5a c0 fa 84 22 c0 ba 1e 09 bf
       -2.4319696 -3.4196784 -2.5393662 -0.5356251
0001b0 cb 84 86 c0 3a 4e 74 bf f4 0c 28 c0 84 0c d7 3f
       -4.20371 -0.95431864 -2.6257906 1.6800694
0001c0 c6 05 20 c0 99 e8 02 bf 43 f7 7a c0 bc 7d f1 be
       -2.5003524 -0.51136166 -3.9213417 -0.4716624
0001d0 5b 1d 62 40 22 4f a3 bd ae d8 b4 bd 1a 01 fa be
       3.5330417 -0.07974078 -0.08830391 -0.48828965
0001e0 c7 c0 11 c1 9b 12 04 c1 fe 48 12 c1 8c 31 a7 40
       -9.109565 -8.254542 -9.14282 5.224798
0001f0 0d 27 94 c0 8e cc bc 3f bd 30 91 bf 70 aa 61 be
       -4.629767 1.4749925 -1.1342999 -0.22037673
000200 c7 96 b8 c0 29 c2 02 c1 e2 4d de c0 27 6b a0 40
       -5.7684054 -8.172402 -6.947007 5.01308
000210 64 30 c2 c0 57 65 c9 c0 35 79 03 c1 cc 7b 48 c0
       -6.068407 -6.2936206 -8.217092 -3.132556
000220 7d 99 4f c0 a0 6b bf 3f b8 04 cb be 03 a5 83 c0
       -3.2437432 1.495472 -0.39652038 -4.113893
000230 54 f0 8c c0 b8 02 1f c0 36 97 bb c0 66 3c 08 41
       -4.404337 -2.484541 -5.8622084 8.514746
000240 c8 54 03 40 9b a7 28 c0 f5 27 c8 bf 20 5a 70 c0
       2.0520496 -2.6352298 -1.5637194 -3.7555008
000250 a9 6a 69 40 ed 51 3f c0 2a 41 07 40 a4 49 59 40
       3.647135 -2.9893754 2.1133523 3.3951197
000260 be 48 74 3e 29 ab b3 bf c3 87 a2 c0 06 e6 0b c1
       0.23855874 -1.4036609 -5.0790725 -8.743658
000270 0b cb 9e c0 c0 51 7c bd 15 10 b4 3f b1 00 59 c0
       -4.9622855 -0.0616014 1.4067408 -3.3906672
000280 41 e0 6f c0 76 1f 33 c1 90 a2 28 c0 1a ba a9 40
       -3.7480624 -11.195181 -2.634922 5.3039675
000290 39 a4 fb c0 3d 3e 45 c1 8e 33 19 c1 39 33 13 3e
       -7.8637967 -12.327695 -9.575087 0.14375009
0002a0 6e 74 08 c1 21 e5 62 c0 21 d3 97 c0 ce 29 b2 40
       -8.528425 -3.545235 -4.7445226 5.567603
0002b0 1e a9 49 c1 3b 77 89 c0 68 f3 ea 3f c1 7c ac c0
       -12.603788 -4.2958045 1.8355532 -5.3902287
0002c0 75 f8 57 bf c7 ca 0c 40 70 93 bd 3e 41 d7 04 bf
       -0.8436349 2.1998765 0.37026548 -0.5189095

exp_avg f4 [20, 416]
000000 26 1a 9f 3a 8f f1 00 bb 18 61 34 bb e0 28 94 ba
       0.001213853 -0.001967523 -0.0027523693 -0.0011303686
000010 d3 da c9 b9 f7 93 7b bb 51 f5 14 ba 3a 7b cb bb
       -0.00038500744 -0.0038387754 -0.0005682307 -0.006209758
000020 15 e6 8e ba 38 8e 9f ba f0 3a a3 39 e3 12 a8 ba
       -0.001090231 -0.0012173122 0.00031133695 -0.0012823011
000030 20 54 87 b9 2d ba 09 b9 d7 03 e9 bb f9 ca d2 3a
       -0.00025811885 -0.00013134694 -0.0071110534 0.0016082219
000040 fd 81 b2 b9 3e 41 b8 ba 88 b0 6e b9 18 a0 09 3b
       -0.00034047654 -0.001405753 -0.00022763212 0.0020999964
000050 88 41 87 ba f6 27 20 ba 1f 39 e5 ba 17 94 89 3a
       -0.0010319212 -0.000610947 -0.0017488337 0.0010496405
000060 ff fb 30 3a 56 9d c2 3a e9 fe 86 3a 39 60 08 3b
       0.00067514175 0.0014847915 0.0010299358 0.0020809306
000070 e1 fb 1f b9 51 fe 03 b7 c8 56 29 ba f0 09 ba 39
       -0.00015257254 -7.867421e-06 -0.000645977 0.0003548409
000080 69 94 1e bb 0d da b2 ba 0b 04 3e ba 73 bd 4e 3a
       -0.0024197346 -0.0013645306 -0.0007248527 0.00078865065
000090 0d 15 0c 3b 93 23 0a bb 62 02 21 ba a3 12 47 3a
       0.0021374852 -0.0021078333 -0.00061420177 0.00075940246
0000a0 28 0c 5f bb e9 fc 8c 3a 6f 71 b8 3a 38 0f d7 ba
       -0.0034034345 0.0010756525 0.0014071892 -0.0016407734
0000b0 6c d3 06 3b 7a 12 97 b9 bd 4d 98 bb bd 82 02 3b
       0.0020572795 -0.0002881473 -0.004647939 0.0019914352
0000c0 72 66 53 b9 12 2a 82 bb 5c f3 bd ba d3 b5 d3 39
       -0.00020160692 -0.0039723003 -0.0014492082 0.00040380526
0000d0 73 6f 05 3b cb 74 13 39 ca 16 66 3b 08 0e b9 3a
       0.0020360618 0.00014062521 0.0035108798 0.0014118562
0000e0 92 3f 1b b9 90 07 dc ba 45 47 95 ba 91 a1 7d bb
       -0.00014805634 -0.0016786922 -0.0011389038 -0.0038701037
0000f0 3a d1 14 3a 13 0c 51 3a 0c d0 ee ba de 9f 3f ba
       0.0005676929 0.00079745165 -0.0018219962 -0.0007309894
000100 34 6c 09 3b 73 d5 28 3a a0 31 36 3a 39 d2 e3 b9
       0.0020969035 0.0006440498 0.0006950144 -0.00043453442
000110 30 f0 36 bb 0d f1 9d bb 64 23 f6 bb fc fe 2b b9
       -0.002791416 -0.0048199953 -0.007511543 -0.0001640282
000120 3f 06 30 ba c7 65 86 3a c3 4c 92 bb 57 54 9e ba
       -0.0006714798 0.0010253721 -0.004464717 -0.0012079579
000130 a8 f6 0d 39 c7 8c ce bb cc ca f1 ba 99 17 58 ba
       0.00013538694 -0.006303403 -0.0018447279 -0.00082432624
000140 91 e3 a4 3a 27 84 13 bb 58 4d da ba dd f5 9f 3a
       0.0012580027 -0.002250919 -0.001665513 0.001220401
000150 f6 a5 c7 3a 1b b1 16 ba 71 53 dc ba 5a 48 d2 b8
       0.0015231955 -0.00057484367 -0.0016809535 -0.00010027057
000160 4d cf ee 39 4b 6d 49 bb 7f 2f 8d ba 3b 38 b8 ba
       0.0004554935 -0.003073531 -0.0010771601 -0.0014054844
000170 1f 46 60 bb aa 38 8d 3a 09 1a 4b 3a d4 2e 2c bb
       -0.0034221483 0.0010774333 0.0007747715 -0.002627303
000180 28 df 9f 3a 91 ae bc b9 8a 19 1f 3b 0d 95 95 38
       0.0012197243 -0.00035988216 0.0024276697 7.1326365e-05
000190 07 56 70 ba 3b 1f 98 bb 7e 66 1b bc 93 ad cf ba
       -0.00091680925 -0.004642395 -0.009484885 -0.0015844576
0001a0 8d a8 0a 3b 89 5c a5 ba b9 e1 b5 39 c7 4f 06 3b
       0.0021157593 -0.0012616079 0.00034691187 0.0020494328
0001b0 bc c1 8f 3a 9a 69 00 bb 7f 90 0a bb 89 43 8f bb
       0.0010967772 -0.0019594193 -0.0021143255 -0.0043720645
0001c0 ec 74 16 3b e5 42 83 ba 6e 72 07 ba b5 be 1f ba
       0.0022957874 -0.0010014443 -0.00051668927 -0.0006093786
0001d0 cf dd 2b b9 54 0f a8 39 66 a2 8b ba d2 43 c9 ba
       -0.00016390461 0.00032054877 -0.0010653257 -0.0015355295
0001e0 da ed e1 ba 98 9c 63 3a 8a 4b 31 3a 8e f0 f4 3a
       -0.0017237023 0.0008682697 0.00067632704 0.0018687414
0001f0 d8 83 f5 3a 21 57 b6 3a 14 f0 c6 ba 3f 1d f2 39
       0.0018731309 0.0013911464 -0.001517775 0.00046179627
000200 08 a2 98 ba 65 c4 ee ba 15 87 2e b9 1d 0c 44 bb
       -0.0011644969 -0.0018216489 -0.00016644255 -0.0029914447
000210 10 4a dd 3a 4f 82 05 bb 3a 9c 03 b9 33 18 ab 39
       0.0016883034 -0.002037186 -0.00012551332 0.0003263369
000220 4a 95 db ba a1 62 df ba 71 5a f2 3a ec f5 9b 3a
       -0.0016752866 -0.0017042944 0.0018490088 0.0011898852
000230 ec 9d 40 bb 16 b0 d7 3a 2f 67 35 bb 33 cb 90 3a
       -0.0029391004 0.0016455676 -0.002767991 0.0011046886
000240 34 bd e8 ba 52 f3 4c 3a 26 33 07 3b b8 19 94 bb
       -0.0017756582 0.000781824 0.0020629852 -0.0045196675
000250 88 1f b2 ba c6 9f 04 b8 37 35 49 3b a0 0a 3b ba
       -0.0013589719 -3.1620053e-05 0.0030701885 -0.0007135067
000260 d3 f7 0e 3a 8c 96 09 bb 17 64 7f ba fc 69 4a bb
       0.0005453799 -0.0020994274 -0.00097423926 -0.0030885926
000270 43 eb e8 3a 86 67 0d ba 96 ae 82 ba 1c 9f d2 3a
       0.0017770309 -0.00053941493 -0.0009970244 0.0016069147
000280 bd 25 92 b9 70 4e cd 3a 9a 5c fa 38 81 01 ae ba
       -0.00027875407 0.0015663635 0.00011938177 -0.0013275595
000290 f9 b4 45 3a d6 31 d7 ba 0d 6f 72 3b 87 37 c2 3a
       0.00075419206 -0.001641805 0.003699246 0.0014817574
0002a0 dd 4d 1f ba 01 6e 59 3a b3 f5 ba 3a 77 9f 01 3b
       -0.0006076971 0.0008294285 0.0014263898 0.0019778886
0002b0 50 cb 1e ba 55 7b b9 3b 82 39 0b bb f9 12 6c 3b
       -0.00060575176 0.0056604543 -0.0021243994 0.003602205
0002c0 8a 61 c5 3a 0b 52 ac 3b 8a c5 3c bb fb b8 b2 bb
       0.0015058976 0.0052588037 -0.0028804266 -0.0054541803
0002d0 1c 6d 12 bb ef 72 4d b8 76 be 44 3a 8f 2d 14 ba
       -0.0022342866 -4.898285e-05 0.00075051875 -0.0005652541
0002e0 4c e9 2b 3b 3c 2d fe ba 11 4b aa ba eb 43 0d 3b
       0.0026231585 -0.0019392143 -0.0012992342 0.0021555375
0002f0 82 de 2f 3b 71 6b 4f 3b 25 64 dd b9 dd 53 19 3b
       0.0026835506 0.0031649733 -0.00042227018 0.0023395934
000300 7b c7 7e bb 31 1f 59 3b 55 e4 2c 3a 54 6d d9 3a
       -0.0038876224 0.0033130164 0.00065953034 0.0016588368
000310 0f e1 84 ba b8 e1 f0 3a 87 43 a8 3b 68 aa 00 bc
       -0.0010137873 0.0018377816 0.005135003 -0.007853128
000320 b3 26 b2 3b cd 7f ca ba 8c 45 df 3a 59 aa 77 3b
       0.005436742 -0.0015449465 0.0017034276 0.0037790744
000330 25 c6 b3 bb ff d4 d5 39 c0 bc 6e bb b1 81 a1 3a
       -0.005486267 0.0004078522 -0.0036428422 0.0012321976
000340 57 13 d7 bb da a0 66 bb f2 8d 00 3b e1 e7 4f 3a
       -0.006563585 -0.003519109 0.0019615856 0.0007930976
000350 1d bf 06 3a 24 1d ca 39 72 76 ea 39 2c cb 5c 3a
       0.00051401724 0.00038550154 0.00044720207 0.0008422609
000360 ea cb a8 3a eb c0 37 39 c6 bc 0b 3a e7 51 da ba
       0.0012878154 0.00017524108 0.00053305586 -0.0016656489
000370 7c 6f 18 39 1c c9 0e 3b d5 1b 87 3b 63 8c 74 3b
       0.00014537381 0.002178735 0.004123191 0.0037315122
000380 fd f3 c7 b9 d7 ce 38 3b 0b 3d 1b 39 03 2f 19 3a
       -0.00038138023 0.0028199458 0.00014804692 0.0005843492
000390 cd f5 dc 3a cb 72 85 3a a7 61 1a bb 7b 7e 90 b9
       0.0016857922 0.0010181306 -0.002355674 -0.00027560056
0003a0 d6 36 56 bb 5a e1 df 39 00 55 99 3a 56 ee 0f ba
       -0.0032686493 0.00042701775 0.0011698306 -0.0005490532
0003b0 da b3 3c 3b 34 a8 fc ba 23 10 98 3a 2d f4 eb 3a
       0.0028793723 -0.0019276203 0.0011601489 0.0018001847
0003c0 af 29 a4 3a 0d 01 45 bb c1 a2 2e ba cf d4 85 3a
       0.001252463 -0.003006044 -0.00066618255 0.0010210517
0003d0 15 0c 9c bb 0d 0f c2 38 0f ab bf 39 6c af a9 39
       -0.0047621825 9.253444e-05 0.00036557807 0.0003236489
0003e0 3e b2 b8 b8 8b 17 99 b9 b5 50 9d 3a cb ab a3 3b
       -8.807004e-05 -0.00029199975 0.0012002202 0.0049948446
0003f0 c2 dc c9 ba de 13 6c 36 4f fe 83 38 b5 1f 67 bb
       -0.0015400874 3.5178305e-06 6.2939354e-05 -0.0035266702

exp_avg_sq f4 [20, 416]
000000 f2 7d c4 38 71 3d be 38 e7 3d f4 38 19 57 e8 38
       9.3694674e-05 9.07135e-05 0.00011646357 0.00011078845
000010 c8 e7 05 39 ed 30 b1 38 f4 04 09 39 03 16 ae 38
       0.00012770214 8.449131e-05 0.00013067183 8.3010666e-05
000020 8e 3f 04 39 40 f9 29 39 1f d8 14 39 8b cc e7 38
       0.00012612177 0.00016209949 0.00014194891 0.000110530375
000030 c4 50 eb 38 83 6b f1 38 75 b7 df 38 73 1e 08 39
       0.00011220717 0.00011511801 0.0001066764 0.00012981314
000040 9a 59 c9 38 2d 5f c3 38 4f 26 04 39 f1 9f 62 39
       9.6011165e-05 9.3160525e-05 0.00012602772 0.00021612622
000050 5f bd cd 38 b3 c7 c4 38 b1 f0 d6 38 7f 93 9e 38
       9.810435e-05 9.383205e-05 0.000102491475 7.5615004e-05
000060 5a 58 d6 38 6d 22 00 39 bb 09 e3 38 04 cc 9f 38
       0.00010220772 0.00012219856 0.00010826016 7.619712e-05
000070 97 8d d1 38 36 33 d1 38 31 02 02 39 0c 84 e5 38
       9.99227e-05 9.9754354e-05 0.00012398582 0.000109441666
000080 e6 9b be 38 d0 3c f7 38 4d 48 d1 38 e2 42 b9 38
       9.088944e-05 0.00011789205 9.979364e-05 8.833945e-05
000090 17 21 d7 38 e5 ec b5 38 e4 d3 05 39 29 bb 0e 39
       0.000102581624 8.6748776e-05 0.00012762804 0.00013611898
0000a0 1b 13 e7 38 71 c9 e6 38 78 76 ec 38 d3 f0 94 38
       0.00011018497 0.00011004776 0.000112754235 7.102047e-05
0000b0 d4 3d dc 38 a9 a2 ad 38 41 13 c1 38 5c 7e 15 39
       0.00010501934 8.279581e-05 9.2065435e-05 0.0001425682
0000c0 e6 3f e4 38 8b bb d4 38 54 a6 e2 38 15 4e dc 38
       0.00010883789 0.0001014388 0.00010807501 0.000105049614
0000d0 cc 4d c1 38 c2 fe 02 39 a4 45 ad 38 92 fe d0 38
       9.217448e-05 0.00012492671 8.2622544e-05 9.96563e-05
0000e0 4f b5 c1 38 46 41 c2 38 f6 b8 c2 38 fc a5 a6 38
       9.2367285e-05 9.262799e-05 9.2850925e-05 7.946414e-05
0000f0 c5 7b 90 38 ac d8 c1 38 b5 d4 ae 38 0e 22 ac 38
       6.889509e-05 9.2433154e-05 8.336586e-05 8.207942e-05
000100 4f e6 bd 38 9e 4c ab 38 9c 0f a4 38 7f 84 a1 38
       9.0551206e-05 8.1681865e-05 7.823037e-05 7.7017576e-05
000110 4b 39 a4 38 ad 2d f3 38 4a fb 15 39 46 08 f7 38
       7.830801e-05 0.00011595651 0.0001430336 0.00011779419
000120 59 89 fa 38 60 9b 9d 38 05 6a e4 38 3f 5d e5 38
       0.00011946512 7.515284e-05 0.00010891635 0.00010936939
000130 bf 63 a0 38 40 9f a0 38 3d dc a7 38 e3 f1 84 38
       7.647974e-05 7.659057e-05 8.004203e-05 6.3393054e-05
000140 2a 69 ae 38 b0 be e0 38 d2 54 a8 38 d1 38 bb 38
       8.316555e-05 0.00010716671 8.026663e-05 8.927438e-05
000150 56 c5 9b 38 ea 8b b6 38 f1 15 aa 38 84 dc d4 38
       7.4277326e-05 8.704497e-05 8.1103186e-05 0.00010150022
000160 93 d9 b7 38 ac 68 d7 38 0a 73 07 39 7f 01 8f 38
       8.766646e-05 0.000102714956 0.00012917459 6.81905e-05
000170 00 92 b2 38 ed bd 8c 38 3d 3f b0 38 6d 0d 84 38
       8.514896e-05 6.711097e-05 8.404113e-05 6.296751e-05
000180 18 29 b1 38 ee 62 ab 38 ac 77 ab 38 7c 7e cf 38
       8.447672e-05 8.1723425e-05 8.176206e-05 9.894089e-05
000190 4d d4 a4 38 80 6c da 38 ae ff eb 38 52 06 93 38
       7.8596735e-05 0.0001041526 0.00011253297 7.0106835e-05
0001a0 51 eb 9b 38 54 70 92 38 59 7e 83 38 34 eb 98 38
       7.434807e-05 6.982745e-05 6.270101e-05 7.291735e-05
0001b0 1d 58 88 38 b3 1e 8a 38 0b 50 a9 38 be f9 d0 38
       6.501398e-05 6.586071e-05 8.073457e-05 9.964731e-05
0001c0 91 16 a2 38 5a 33 b0 38 12 61 99 38 f5 0b 81 38
       7.728965e-05 8.401899e-05 7.313689e-05 6.1534265e-05
0001d0 07 21 82 38 71 0e 8c 38 50 c3 84 38 5e 0c 91 38
       6.205035e-05 6.67841e-05 6.33063e-05 6.916442e-05
0001e0 ee da 92 38 2b b0 a9 38 63 e2 76 38 d9 f3 99 38
       7.002601e-05 8.091362e-05 5.886181e-05 7.341029e-05
0001f0 87 7d 8e 38 a5 37 8a 38 0b a8 af 38 9f fa 00 39
       6.794469e-05 6.5907174e-05 8.375951e-05 0.00012300395
000200 e6 f9 9c 38 38 f4 bc 38 32 45 87 38 26 ee 81 38
       7.485207e-05 9.010028e-05 6.45019e-05 6.195558e-05
000210 79 d0 9d 38 25 81 98 38 a6 c0 82 38 69 a1 84 38
       7.5251744e-05 7.27198e-05 6.2347666e-05 6.3243155e-05
000220 47 60 94 38 cd 35 a6 38 a9 3e 9b 38 6b d1 85 38
       7.075123e-05 7.925518e-05 7.402647e-05 6.380941e-05
000230 4a de 83 38 39 90 96 38 fd c9 a4 38 fb 79 d6 38
       6.287971e-05 7.179421e-05 7.857753e-05 0.00010227036
000240 5e 06 93 38 b3 ba 74 38 c9 71 a2 38 5b c2 7b 38
       7.010692e-05 5.834801e-05 7.745956e-05 6.002407e-05
000250 a4 5b 96 38 01 17 8f 38 32 21 9b 38 31 18 96 38
       7.169627e-05 6.823056e-05 7.397159e-05 7.1570634e-05
000260 c9 1c a1 38 01 7d 9f 38 28 09 9c 38 2e 39 91 38
       7.68244e-05 7.6049946e-05 7.440365e-05 6.924789e-05
000270 47 d7 49 39 17 78 37 39 a9 f2 0a 39 54 f1 33 39
       0.00019249051 0.00017496977 0.00013251104 0.00017160672
000280 0d 7d 6b 39 17 af 0c 39 f1 5e 81 39 07 33 1a 39
       0.00022457931 0.00013416666 0.00024675534 0.00014705594
000290 cb 67 2e 39 a8 71 20 39 91 74 56 39 3d 02 16 39
       0.00016632599 0.0001530113 0.00020452055 0.00014305949
0002a0 8e 67 c5 38 f0 7c 2b 39 f6 52 17 39 37 91 1a 39
       9.4129806e-05 0.00016354374 0.00014431388 0.00014740681
0002b0 17 8f 56 39 94 8c 3a 39 fb d0 00 39 da b3 e8 38
       0.00020461935 0.00017790712 0.00012284883 0.00011096122
0002c0 fd cc 52 39 6a 68 fb 38 5b 49 4c 39 3c 78 1c 39
       0.00020103525 0.00011988061 0.00019482283 0.0001492211
0002d0 82 9c 4c 39 85 54 34 39 10 60 0e 39 2d 40 1a 39
       0.0001951326 0.00017197624 0.00013577961 0.00014710492
0002e0 9e 8d c8 38 0f 99 27 39 70 d6 1c 39 49 15 fc 38
       9.5631214e-05 0.0001598338 0.00014957204 0.00012020261
0002f0 2b 7b 66 39 f9 16 29 39 41 94 eb 38 4e 88 06 39
       0.00021980393 0.00016125654 0.00011233288 0.00012830013
000300 c5 9a 80 39 1f 87 db 38 1a d7 1e 39 dd 3e df 38
       0.00024529375 0.00010467902 0.00015148186 0.00010645178
000310 8d 16 a4 39 a0 08 f3 38 0f a1 30 39 30 ac 2b 39
       0.0003129732 0.000115887495 0.00016844667 0.00016371976
000320 6c f6 0f 39 5b 4c 0d 39 b6 04 4b 39 08 1d e6 38
       0.00013729342 0.00013475252 0.00019361344 0.00010972662
000330 52 a8 25 39 8d ca 09 39 22 7d f8 38 de f2 fc 38
       0.0001579833 0.00013140794 0.00011848869 0.00012061534
000340 99 ae eb 38 94 6f 1c 39 a5 ed d1 38 ed 21 cf 38
       0.000112381946 0.00014918885 0.00010010161 9.876848e-05
000350 a1 24 f6 38 f0 02 14 39 cf 72 c4 38 3c 0f 40 39
       0.00011737017 0.00014115474 9.367393e-05 0.00018316222
000360 35 22 07 39 78 a0 03 39 66 e5 cb 38 19 70 4d 39
       0.00012887346 0.00012552913 9.722523e-05 0.00019592083
000370 8a 5a f5 38 da 4f a8 38 81 d6 ab 39 5f d5 ed 38
       0.000116993746 8.025738e-05 0.0003277548 0.00011340784
000380 dc 24 c1 38 3a cd 0e 39 06 61 2e 39 62 be e8 38
       9.209823e-05 0.00013618628 0.00016630077 0.000110980836
000390 64 69 00 39 c4 6c 0c 39 b0 64 be 38 2c 5c 8c 39
       0.00012246292 0.00013391959 9.0786605e-05 0.00026771554
0003a0 bd 34 2f 39 d0 07 2f 39 7a 26 a3 38 70 de 98 38
       0.00016708947 0.00016692211 7.7796125e-05 7.289357e-05
0003b0 43 f0 a7 38 2a c6 de 38 39 d5 2b 39 18 71 1a 39
       8.007933e-05 0.00010622696 0.00016387262 0.00014728715
0003c0 e5 02 e2 38 a5 14 6b 39 fc cb 26 39 82 c6 e4 38
       0.00010777059 0.00022419037 0.00015906984 0.00010908862
0003d0 71 e8 12 39 9d 99 4e 39 0c dc a7 38 dd 43 15 39
       0.00014010236 0.00019702916 8.0041675e-05 0.00014235028
0003e0 31 e5 0d 39 b3 3f 6b 39 f8 f7 93 38 8d ff dc 38
       0.00013532188 0.00022435076 7.055694e-05 0.000105380175
0003f0 7b a1 00 39 83 15 09 39 86 f5 f1 38 ad 18 46 39
       0.00012267187 0.00013073352 0.00011537508 0.00018891944

exp_avg f4 [20, 20]
000000 00 00 00 00 44 87 0d b5 6b af 8f 38 1f 3a 50 3a
       0.0 -5.272343e-07 6.8514455e-05 0.0007943231
000010 f3 00 d0 3a c8 f3 46 3a a9 5f df 39 9d a9 0b 3c
       0.0015869424 0.0007589427 0.00042605147 0.008524326
000020 04 00 00 00 04 00 00 80 04 00 00 00 bb 5e 70 3a
       6e-45 -6e-45 6e-45 0.00091693894
000030 04 00 00 00 04 00 00 00 31 7e c0 39 3c 5c 67 38
       6e-45 6e-45 0.00036715114 5.516059e-05
000040 c4 9c 39 3a d4 52 28 3b e2 80 bd 3a 04 00 00 00
       0.000708055 0.0025684135 0.0014457966 6e-45
000050 7c aa e6 38 00 00 00 00 2d c9 01 38 d7 56 4d 39
       0.0001099901 0.0 3.0943356e-05 0.00019582674
000060 db e2 b0 3a 4a 6a 85 38 ee d6 c5 38 0d f3 0f 3b
       0.0013495343 6.361732e-05 9.433726e-05 0.0021964938
000070 04 00 00 80 04 00 00 00 04 00 00 00 20 b5 2b 39
       -6e-45 6e-45 6e-45 0.00016375305
000080 04 00 00 80 04 00 00 00 78 cd db 38 c6 c7 09 38
       -6e-45 6e-45 0.00010481005 3.28494e-05
000090 8a 63 84 38 db fb b2 39 84 f6 57 39 04 00 00 00
       6.312791e-05 0.00034138453 0.00020595832 6e-45
0000a0 30 19 46 ba ee 83 cc 34 00 00 00 00 6e c7 b6 36
       -0.0007556854 3.8093953e-07 0.0 5.4472393e-06
0000b0 91 ff 95 38 df c1 43 ba 81 80 47 b9 be 50 f6 ba
       7.1524766e-05 -0.0007467549 -0.0001902599 -0.0018792374
0000c0 04 00 00 80 04 00 00 00 04 00 00 00 6d 66 82 38
       -6e-45 6e-45 6e-45 6.217961e-05
0000d0 04 00 00 80 04 00 00 00 ce 9a 85 ba 97 98 53 38
       -6e-45 6e-45 -0.001019323 5.044843e-05
0000e0 ed b6 b9 b9 59 b4 ff ba 6a a6 91 ba 04 00 00 00
       -0.0003542224 -0.0019508704 -0.0011112217 6e-45
0000f0 e8 ee c4 36 ec 31 8c 34 bc bd 12 37 00 00 00 00
       5.8690675e-06 2.6113355e-07 8.746454e-06 0.0
000100 2b eb 94 3b 16 6f e6 39 5b ce 4c 39 57 cb be 3b
       0.004544636 0.00043951784 0.0001953183 0.00582258
000110 04 00 00 00 04 00 00 80 04 00 00 80 c5 8f 20 39
       6e-45 -6e-45 -6e-45 0.00015312347
000120 04 00 00 00 04 00 00 80 99 37 cb b8 94 c4 44 37
       6e-45 -6e-45 -9.69015e-05 1.172828e-05
000130 e7 32 a8 b6 1a d6 91 b9 7a 43 04 ba 04 00 00 80
       -5.012716e-06 -0.00027816073 -0.0005045455 -6e-45
000140 37 fc 3f 3a df 51 6e 34 6d 50 bd b7 12 87 98 b8
       0.0007323655 2.2195262e-07 -2.2568007e-05 -7.2730836e-05
000150 00 00 00 00 ad eb 90 39 d2 95 fa b8 5f a7 49 3b
       0.0 0.00027641412 -0.00011948835 0.0030769927
000160 04 00 00 00 04 00 00 80 04 00 00 80 92 d4 17 b9
       6e-45 -6e-45 -6e-45 -0.00014479671
000170 04 00 00 00 04 00 00 80 e4 85 80 3a eb dd 53 b7
       6e-45 -6e-45 0.0009805528 -1.2628249e-05
000180 34 15 90 b8 9c 09 5f 3a fe 1b 5f 3a 04 00 00 80
       -6.8704045e-05 0.0008508207 0.0008510946 -6e-45
000190 8f eb 81 bb 5d 3a 33 36 45 92 f9 b7 f9 a0 37 bb
       -0.0039648484 2.670705e-06 -2.9751225e-05 -0.0028019531
0001a0 55 4c ec bb 00 00 00 00 9b ec 7d ba 22 1e 96 bc
       -0.007211248 0.0 -0.0009686441 -0.018324915
0001b0 04 00 00 80 04 00 00 00 04 00 00 00 11 93 07 bb
       -6e-45 6e-45 6e-45 -0.0020687024
0001c0 04 00 00 80 04 00 00 00 22 8b 80 bb d8 db 96 b8
       -6e-45 6e-45 -0.003922836 -7.1935065e-05
0001d0 88 27 6a ba 61 16 16 bc 90 fc de bb 04 00 00 00
       -0.0008932282 -0.009160609 -0.00680501 6e-45
0001e0 44 99 0d 3b 6e 3a a7 35 fa 97 27 38 45 8f d8 39
       0.0021606246 1.2459475e-06 3.9957442e-05 0.00041305475
0001f0 8d 46 88 3b 5a 7b 36 39 00 00 00 00 9e ba c5 3b
       0.004158801 0.00017402825 0.0 0.0060342094
000200 04 00 00 00 04 00 00 00 04 00 00 00 82 03 2b 39
       6e-45 6e-45 6e-45 0.00016309138
000210 04 00 00 80 04 00 00 00 a3 a2 93 3a 29 ae 8d 38
       -6e-45 6e-45 0.001126368 6.755844e-05
000220 49 46 93 b8 ec 54 01 3b d7 ab 1e 3a 04 00 00 00
       -7.022598e-05 0.0019734455 0.0006052828 6e-45
000230 d5 0b 50 39 e3 ae 9c b6 fe e8 a7 b8 d0 a1 de b9
       0.00019840834 -4.669522e-06 -8.006579e-05 -0.000424637
000240 c9 02 9a ba 05 e7 9c 38 e2 8c 18 b9 00 00 00 00
       -0.0011750098 7.4816904e-05 -0.00014548333 0.0
000250 04 00 00 00 04 00 00 00 04 00 00 00 d1 c2 88 b9
       6e-45 6e-45 6e-45 -0.0002608509
000260 04 00 00 80 04 00 00 00 4b 9c fd b7 49 2f c4 b8
       -6e-45 6e-45 -3.023273e-05 -9.354816e-05
000270 e1 4a d2 38 29 0f 68 ba f7 0b 5f b9 04 00 00 00
       0.000100275276 -0.00088523567 -0.00021271395 6e-45
000280 1c 77 f7 37 3a 70 89 30 44 21 10 33 ff b6 9f 36
       2.950016e-05 9.999959e-10 3.3557868e-08 4.759873e-06
000290 13 b3 6b 3a 49 91 80 36 92 cb a5 33 23 c9 cb 3a
       0.0008991223 3.8316107e-06 7.7204405e-08 0.0015547614
0002a0 00 00 00 00 04 00 00 80 04 00 00 80 98 7d 07 36
       0.0 -6e-45 -6e-45 2.0189673e-06
0002b0 04 00 00 00 04 00 00 80 d8 08 92 37 d0 c1 82 32
       6e-45 -6e-45 1.7408674e-05 1.5222128e-08
0002c0 c8 7c c7 b4 e1 9c 03 38 18 63 83 37 04 00 00 80
       -3.715743e-07 3.137894e-05 1.5662561e-05 -6e-45
0002d0 a5 20 8d 36 7c d6 fc 2f ab 5a 04 33 7d d2 98 36
       4.205928e-06 4.5990933e-10 3.0816107e-08 4.554457e-06
0002e0 2e 74 bb 39 09 c0 a0 35 b1 b6 13 34 23 7d 41 3a
       0.0003575398 1.1976819e-06 1.3756905e-07 0.00073810125
0002f0 04 00 00 80 00 00 00 00 04 00 00 00 7a 9c 3e 36
       -6e-45 0.0 6e-45 2.8403288e-06
000300 04 00 00 80 04 00 00 00 5a 5e 9e 36 3a b4 26 33
       -6e-45 6e-45 4.719751e-06 3.8813802e-08
000310 dc 1f 0b b4 0e e5 88 37 80 94 42 37 04 00 00 00
       -1.2956974e-07 1.6319125e-05 1.1597876e-05 6e-45
000320 52 64 1f 37 28 67 cb 2f 8e 66 a3 32 43 c6 6c 36
       9.500496e-06 3.6998782e-10 1.9022334e-08 3.5282144e-06
000330 c2 f9 f8 39 02 f0 01 36 f9 1e 19 32 6a 19 5f 3a
       0.0004748833 1.93622e-06 8.9128145e-09 0.0008510562
000340 04 00 00 80 04 00 00 80 00 00 00 00 2c 74 f4 35
       -6e-45 -6e-45 0.0 1.8213227e-06
000350 04 00 00 80 04 00 00 80 aa 87 dd 36 ee 1e 7d 32
       -6e-45 -6e-45 6.6021066e-06 1.4733571e-08
000360 3d ad 2f b4 8d 13 86 37 b5 6f 29 37 04 00 00 00
       -1.6361169e-07 1.5983149e-05 1.0099194e-05 6e-45
000370 6f 35 0c bb 7b c1 56 34 db 41 de b5 af ce 08 b9
       -0.0021394154 2.0000691e-07 -1.6559455e-06 -0.00013046966
000380 e0 36 c7 39 06 96 fc b8 04 b5 1c 37 08 40 27 39
       0.00037997123 -0.000120442404 9.340471e-06 0.00015950215
000390 04 00 00 00 04 00 00 80 04 00 00 80 00 00 00 00
       6e-45 -6e-45 -6e-45 0.0
0003a0 04 00 00 00 04 00 00 80 98 2b de ba bb b8 86 b6
       6e-45 -6e-45 -0.0016950248 -4.0150167e-06
0003b0 69 22 91 b7 28 6b 54 bb 10 d4 1c bb 04 00 00 80
       -1.730137e-05 -0.0032412503 -0.002393011 -6e-45
0003c0 53 71 50 38 4f 20 6e 32 c4 5f a4 34 6a 07 83 37
       4.9696606e-05 1.3860769e-08 3.061706e-07 1.561987e-05
0003d0 7a 79 b6 3a fe 59 b5 36 45 53 8e 35 0f 4a 23 3b
       0.0013921701 5.404697e-06 1.0604059e-06 0.0024915969
0003e0 04 00 00 80 04 00 00 00 04 00 00 00 a7 1b 06 37
       -6e-45 6e-45 6e-45 7.993461e-06
0003f0 00 00 00 00 04 00 00 00 39 a7 0a 38 f5 fd a4 34
       0.0 6e-45 3.3057502e-05 3.0732159e-07

exp_avg_sq f4 [20, 20]
000000 00 00 00 00 3d 6d 3d 2f 88 d3 9e 33 5a 72 8a 38
       0.0 1.7228259e-10 7.395926e-08 6.6016524e-05
000010 d8 62 66 3a cd 8f 5b 37 da 6d f3 36 a2 f9 87 3b
       0.00087885326 1.3086898e-05 7.2547527e-06 0.0041496316
000020 ed 3a 83 1c f6 a2 37 1a 15 60 38 18 ec 6a 08 38
       8.684085e-22 3.7975152e-23 2.3829952e-24 3.2524506e-05
000030 19 19 cc 23 65 c8 b0 17 f9 fa 91 38 3b f2 32 34
       2.2128354e-17 1.142432e-24 6.960886e-05 1.6665665e-07
000040 12 cf 95 36 48 f1 2a 3a e5 76 8d 39 6c ae ae 15
       4.464652e-06 0.0006520939 0.000269822 7.055323e-26
000050 78 9e 00 35 00 00 00 00 0a 79 44 32 af 98 e1 34
       4.791432e-07 0.0 1.1436223e-08 4.2020608e-07
000060 87 a7 37 37 5a 61 a2 33 4b 94 fb 33 75 1a 58 38
       1.09466555e-05 7.561421e-08 1.1715073e-07 5.1523053e-05
000070 11 fd 72 1b 51 b4 26 19 3e c5 22 17 65 9d 96 34
       2.0099541e-22 8.6184135e-24 5.259398e-25 2.8054197e-07
000080 84 ec e9 21 0d 97 8b 16 c1 39 e2 34 90 9d 3d 32
       1.5851299e-18 2.2551988e-25 4.2137802e-07 1.10370735e-08
000090 4e bf 69 33 f9 49 29 36 bc ef 52 35 a9 17 22 14
       5.442353e-08 2.522602e-06 7.8579956e-07 8.183576e-27
0000a0 6d ba 90 37 16 c3 a5 2d 00 00 00 00 9c fd 83 37
       1.7252949e-05 1.8844964e-11 0.0 1.5734513e-05
0000b0 63 ce 07 39 4a 4e 9f 36 db 2c 84 36 14 9c 25 3a
       0.00012951488 4.7476833e-06 3.9391284e-06 0.0006317508
0000c0 f9 cb f7 1c 5c 55 da 1a 08 2f c2 18 f7 4f 1b 37
       1.6397815e-21 9.030059e-23 5.0195314e-24 9.257338e-06
0000d0 39 2b 31 23 f8 b1 d3 17 6c e1 d9 37 fd d2 ce 32
       9.604342e-18 1.3680481e-24 2.5973386e-05 2.4077503e-08
0000e0 dc ef f9 35 62 7b 14 39 bd 1f 48 38 6c bc 2a 15
       1.8621754e-06 0.00014160344 4.7713274e-05 3.4479865e-26
0000f0 54 83 3e 38 46 44 f4 2c 75 20 cc 30 00 00 00 00
       4.542184e-05 6.942477e-12 1.4852178e-09 0.0
000100 f9 81 4f 3a 25 a2 e3 35 e8 0e b8 34 b9 6a 68 3b
       0.0007915791 1.6960008e-06 3.4283516e-07 0.0035464002
000110 52 e6 69 1c f7 47 df 1a 77 4c bd 18 b4 15 5a 35
       7.7390915e-22 9.2346904e-23 4.8932565e-24 8.124291e-07
000120 4f 69 9c 22 c4 7b 21 18 35 db de 37 e4 81 16 31
       4.2395385e-18 2.0871248e-24 2.6566539e-05 2.1901707e-09
000130 60 b2 eb 33 54 41 13 39 db 06 73 38 3a 74 44 16
       1.09754865e-07 0.00014043349 5.79421e-05 1.5869429e-25
000140 84 fc 88 37 b8 90 52 2e e3 08 09 33 de b8 96 37
       1.633005e-05 4.7877008e-11 3.190588e-08 1.7967479e-05
000150 00 00 00 00 52 b9 1a 36 c5 5f 16 36 c0 dc 11 3a
       0.0 2.3055659e-06 2.2407487e-06 0.00055642053
000160 66 f5 2d 1d 6a 56 54 1b 87 48 51 19 41 b2 24 37
       2.3023227e-21 1.7564151e-22 1.08196935e-23 9.816665e-06
000170 96 9d 90 23 18 1c ab 18 a5 dc 60 37 2f d7 8b 33
       1.5679252e-17 4.423083e-24 1.3402813e-05 6.5118336e-08
000180 aa 51 d0 35 8f 6e 00 39 df 3d 41 38 bf 00 67 16
       1.5520975e-06 0.00012248218 4.6072408e-05 1.8660267e-25
000190 24 9c a3 39 68 87 0b 2f 63 57 0d 34 02 c2 00 39
       0.00031206117 1.2690082e-10 1.316344e-07 0.00012279305
0001a0 9f 01 ef 3a 00 00 00 00 8c fe 2b 37 b8 8e 03 3c
       0.0018234736 0.0 1.0251661e-05 0.008029632
0001b0 52 a9 24 1b 9b 9e 09 19 b9 6c f0 16 14 bd 8b 38
       1.3620472e-22 7.114764e-24 3.8842705e-25 6.663255e-05
0001c0 ae c7 2a 23 f7 a8 8b 16 75 3a 72 39 c8 d0 6f 34
       9.258002e-18 2.2563293e-25 0.00023100695 2.2334564e-07
0001d0 59 55 4d 37 8a 81 a0 3a 50 4f 0a 3a f7 23 00 15
       1.2238824e-05 0.0012245637 0.0005276101 2.5877765e-26
0001e0 c1 3b 5a 38 a8 c3 83 2d 1a 0b 5b 32 9e 5c bd 37
       5.20309e-05 1.4979865e-11 1.2750002e-08 2.2573684e-05
0001f0 65 13 d1 39 b4 7d 81 36 00 00 00 00 e2 64 01 3b
       0.00039878036 3.8591334e-06 0.0 0.0019743969
000200 30 3e 4d 1b a1 3c 97 19 82 99 e3 17 00 c9 32 37
       1.6977296e-22 1.5637522e-23 1.4708282e-24 1.0656426e-05
000210 19 ee fc 21 a8 ad 63 17 23 a6 33 38 7c 6a 93 32
       1.7139208e-18 7.356684e-25 4.2831653e-05 1.7161476e-08
000220 01 e2 db 35 3e a9 9e 39 cd 05 e2 38 a2 16 f2 14
       1.6382547e-06 0.00030262204 0.000107776 2.4444682e-26
000230 70 f7 ea 35 2a 28 29 2f d3 25 d0 32 64 fc a1 36
       1.7506372e-06 1.538473e-10 2.4231587e-08 4.827556e-06
000240 83 fa 0a 38 6e a4 20 35 60 25 49 35 00 00 00 00
       3.313507e-05 5.984392e-07 7.493272e-07 0.0
000250 8e 6f 0d 1d 82 3a b2 1a 85 8a 8b 18 eb af 33 36
       1.8718867e-21 7.37136e-23 3.6070527e-24 2.6775476e-06
000260 f6 cf 54 24 41 d4 9b 17 71 4b ff 35 25 43 0e 33
       4.6146322e-17 1.0070221e-24 1.9020937e-06 3.312302e-08
000270 f5 89 cd 34 50 09 fb 37 cd bc 1f 37 18 68 82 15
       3.8284603e-07 2.9925868e-05 9.521097e-06 5.267081e-26
000280 bd 3b 10 33 99 a7 9a 25 fb 1a 80 29 77 06 a1 2f
       3.3581944e-08 2.682831e-16 5.689022e-14 2.9290323e-10
000290 f1 22 12 36 32 61 2e 2f b2 cb eb 2c 60 f1 2f 37
       2.1776034e-06 1.5859739e-10 6.7017164e-12 1.0487012e-05
0002a0 00 00 00 00 d9 8b d2 1a 10 44 70 18 74 a2 cb 2e
       0.0 8.70799e-23 3.1053636e-24 9.260229e-11
0002b0 ca 9d cf 20 27 96 20 18 80 88 a1 32 37 d9 50 29
       3.517158e-19 2.0755323e-24 1.880494e-08 4.637368e-14
0002c0 ea 74 b5 2d 01 09 df 32 34 3a 44 32 6c e2 ba 15
       2.0629238e-11 2.5964711e-08 1.1421935e-08 7.548203e-26
0002d0 3b bb 5d 32 e0 b4 0c 25 51 ed 17 29 89 16 e2 2e
       1.2906464e-08 1.2204347e-16 3.3734575e-14 1.0281293e-10
0002e0 f6 a4 12 35 77 8b c7 2e 99 2e 8f 2c db 4f 4e 36
       5.462929e-07 9.074246e-11 4.069478e-12 3.0742874e-06
0002f0 26 02 d2 1c 00 00 00 00 6d 51 34 18 9d bf 12 2e
       1.389719e-21 0.0 2.3305564e-24 3.3366743e-11
000300 85 05 39 1f 2f 49 11 17 64 7b 11 32 e1 75 d3 28
       3.917984e-20 4.69444e-25 8.468167e-09 2.3476828e-14
000310 8f 80 5b 2d 53 50 59 32 68 a5 b7 31 d5 ba 49 14
       1.24772545e-11 1.2649326e-08 5.3448055e-09 1.0184753e-26
000320 cf 0f 0c 32 80 9b 9a 24 d4 55 aa 28 46 a0 ae 2e
       8.152667e-09 6.705028e-17 1.8911013e-14 7.941074e-11
000330 a9 e6 16 35 05 14 5a 2e 07 61 24 2c d7 0d 39 36
       5.621501e-07 4.9585242e-11 2.3359663e-12 2.7575204e-06
000340 d4 8a 72 1b f3 3f 51 1a 00 00 00 00 6a 05 d3 2d
       2.0062629e-22 4.3271845e-23 0.0 2.3990327e-11
000350 f2 d8 3b 1d ff a0 d6 17 d5 41 a3 31 7f f3 84 28
       2.4861402e-21 1.3870067e-24 4.7514086e-09 1.4760544e-14
000360 cf 02 b2 2c ff 02 f2 31 76 a1 4c 31 d4 b4 91 15
       5.059376e-12 7.0434676e-09 2.9777687e-09 5.885033e-26
000370 26 86 c7 38 f3 18 93 2d 3c c0 c6 31 10 9e 84 36
       9.5140465e-05 1.6723045e-11 5.784413e-09 3.9523075e-06
000380 74 5e 87 3a 9e 69 93 36 4f 7f a3 35 22 3b a4 3b
       0.0010327832 4.393237e-06 1.2181498e-06 0.005011932
000390 49 b8 0a 1c e1 04 3a 1b d8 7d c9 18 00 00 00 00
       4.5898553e-22 1.5387136e-22 5.208435e-24 0.0
0003a0 3b 2c d6 22 0a 74 ae 18 3c a7 76 38 50 98 fd 31
       5.8051647e-18 4.5095115e-24 5.880672e-05 7.380585e-09
0003b0 f1 18 74 34 56 6b 92 39 5c 00 f7 38 08 86 1b 17
       2.2733344e-07 0.00027927262 0.00011777945 5.025237e-25
0003c0 c9 a3 68 34 0d e5 36 29 36 14 1e 2c f5 e0 56 31
       2.1666268e-07 4.0610788e-14 2.246437e-12 3.1268972e-09
0003d0 7f e9 11 37 32 2c 03 31 ec c6 e5 2e fd 70 38 38
       8.6970385e-06 1.908813e-09 1.044905e-10 4.3974247e-05
0003e0 a4 39 83 1b b2 b0 4f 19 58 18 12 17 57 22 a2 30
       2.1709381e-22 1.07373325e-23 4.720587e-25 1.1796811e-09
0003f0 00 00 00 00 63 cb dd 16 19 4f 1e 34 a6 5e a9 2b
       0.0 3.583283e-25 1.4743672e-07 1.2034442e-12
