checkpoints/RNN_108.pt (torch, 111359 bytes, 9 tensors)

snn.l1.input_weights f4 [20, 416]
-0.3984489 -0.1586775 -0.41789088 -0.33933327 -0.5247055 -0.35986272 -1.0087725 -0.21779372
-0.7248293 0.1371801 -0.4484897 -0.490178 -0.4491461 -1.0621995 -0.21176077 -0.029485751
-0.7053764 -0.7563139 -0.3828761 -0.28839248 -0.33117923 -0.091047205 -0.69559455 0.09171806
-0.71911615 0.025483586 -0.29199883 -0.03806384 -0.003875276 -0.29368755 0.15042326 0.3024381
-0.7344904 -0.85950434 -0.7240285 -0.24928848 0.13241725 -0.15354125 -1.1249471 -0.711984
-1.1653692 0.09451256 -0.90306973 0.15288565 -0.02189117 0.181261 -0.011965957 -0.20853238
-0.49718186 -0.8962168 -0.8533242 -0.5037908 0.6200589 0.2998561 -0.019056516 0.14821617
-0.08438182 0.3106536 0.42700016 0.657694 0.44484833 0.42682135 0.083291456 0.14643577
0.6292891 0.4790672 0.5520638 0.5655816 0.5374351 0.24404266 -0.35155928 0.33014
0.08265634 0.5689909 0.14257388 0.09244038 0.471467 -0.051778484 0.27980977 0.31586385
0.46949813 0.49033773 0.07127664 0.28255704 0.35391906 0.43567467 0.2585823 0.15730631
0.07976784 0.09194665 0.23615322 0.54362476 0.13336237 0.074273646 0.60889906 0.36017972
-0.057555623 0.62031674 0.44505852 0.81280714 0.16570865 -0.30930746 0.17878708 0.50451696
2.1117675 2.0482304 1.3448986 1.6266991 1.9723959 2.0602136 1.1969966 1.9501597
0.976449 1.7724663 1.724432 2.3518336 2.0914586 1.5038366 1.2241026 1.8329271
1.9796535 1.5940077 1.4860642 1.8034799 1.7136881 1.9772931 1.2150147 1.4779572
1.2428423 1.961517 1.6804616 2.0594585 1.8937358 1.6726843 1.831002 1.3145671
1.8551849 1.719561 1.2339882 1.8064975 1.6669621 1.8011348 1.4114766 1.4997321
0.83461237 2.1756153 1.9956586 2.5994384 2.0578387 1.31838 1.2074699 1.6311406
2.0659955 1.7820851 1.35043 2.5538702 -1.0025289 -0.020744892 0.0385854 0.070613705
0.022372624 -0.047396734 0.4082336 0.7686899 0.5294308 0.42116192 0.56246006 0.2137948
-0.3828294 0.20954475 0.14449115 -0.25778475 -0.8269778 0.13586976 0.25115758 -0.07972195
-0.20185474 -0.13723622 0.19278349 0.37670168 0.2909623 0.039987758 -0.3887587 0.6059562
-0.07762263 -0.30786797 0.043549746 0.017438218 -0.13518876 -0.17441787 0.14646421 -0.20946
0.13932855 -0.40415743 0.6158019 0.50592977 0.2000344 0.0047831587 -0.13725506 0.5826009
0.14093491 0.20497541 0.3590685 0.043368913 0.06727261 0.109824225 0.32978332 0.07533167
-0.4673699 -0.46164018 -0.37333182 -0.6991718 -0.060826406 -0.12461824 -0.7176261 -0.6684623
-0.5835664 -0.67379904 -0.74664557 -0.3965468 -0.047599442 -1.0176289 -0.7110585 -0.57235384
-0.3505017 -0.15068822 -0.70884997 -0.6628619 0.22175509 -0.7035435 -0.705229 -0.011567705
-0.47625092 -0.76353043 -0.4573174 -0.8095275 -0.100302294 -0.47350037 -0.6002124 -0.64855725
-0.6520884 -0.8130489 -0.7252593 -0.5647838 -0.15464757 -0.8182573 -0.7096365 0.058441423
-0.18055835 -0.5445497 -0.18355198 -0.59893245 -0.71234316 -0.41071698 -0.6323133 -0.5273084
00000000: 7f01 ccbe 5b7c 22be cbf5 d5be 17bd adbe
00000010: 1a53 06bf ed3f b8be 751f 81bf 5105 5fbe
00000020: 6a8e 39bf f178 0c3e 71a0 e5be 9cf8 fabe
00000030: 7af6 e5be 27f6 87bf d1d7 58be 1a8c f1bc
00000040: 8c93 34bf ca9d 41bf 5608 c4be 2ea8 93be
00000050: 5390 a9be f576 babd 7c12 32bf aed6 bb3d
00000060: ff17 38bf f4c2 d03c df80 95be d4e8 1bbd
00000070: 58f8 7dbb 375e 96be 8e08 1a3e 2bd9 9a3e
00000080: 9007 3cbf 7a08 5cbf ef59 39bf 7b45 7fbe
00000090: 6398 073e eb39 1dbe 44fe 8fbf 9544 36bf
000000a0: d12a 95bf cd8f c13d 942f 67bf 0e8e 1c3e
000000b0: 1c55 b3bc 7c9c 393e dc0c 44bc 8389 55be
000000c0: 9f8e febe 776e 65bf 7473 5abf 6ff8 00bf
000000d0: 2ebc 1e3f bd86 993e 691c 9cbc fbc5 173e
000000e0: 60d0 acbd fd0d 9f3e c49f da3e a25e 283f
000000f0: 29c3 e33e 5488 da3e b694 aa3d 42f3 153e
00000100: 1719 213f 4c48 f53e 0e54 0d3f f5c9 103f
00000110: 5995 093f 52e6 793e 94ff b3be 1c08 a93e
00000120: ba47 a93d 63a9 113f e3fe 113e 6251 bd3d
00000130: 1f64 f13e ad15 54bd 3a43 8f3e e8b8 a13e
00000140: 0f62 f03e 8c0d fb3e 7df9 913d 51ab 903e
00000150: e134 b53e c010 df3e e664 843e e814 213e
00000160: 525d a33d 864e bc3d 26d2 713e fe2a 0b3f
00000170: 2590 083e c81c 983d cfe0 1b3f 7a69 b83e
00000180: 72bf 6bbd 14cd 1e3f b6de e33e 2114 503f
00000190: 87af 293e 8c5d 9ebe f613 373e 0628 013f
000001a0: 3327 0740 3516 0340 a325 ac3f ad37 d03f
000001b0: 7877 fc3f 8ada 0340 2f37 993f d59e f93f
000001c0: 90f8 793f 2de0 e23f 30ba dc3f 7184 1640
000001d0: 75da 0540 b87d c03f 65af 9c3f 5b9d ea3f
000001e0: 4965 fd3f 7208 cc3f 5a37 be3f 6ed8 e63f
000001f0: 225a db3f f117 fd3f 9a85 9b3f b42d bd3f
00000200: 7515 9f3f fd12 fb3f 5e19 d73f 2bce 0340
00000210: ef65 f23f 851a d63f 465e ea3f bc43 a83f
00000220: b376 ed3f 931a dc3f 53f3 9d3f 4f3b e73f
00000230: 045f d53f 968b e63f 44ab b43f 39f7 bf3f
00000240: 28a9 553f 483d 0b40 be71 ff3f 335d 2640
00000250: a1b3 0340 adc0 a83f 608e 9a3f 37c9 d03f
00000260: 4539 0440 5d1b e43f e4da ac3f 9c72 2340
00000270: de52 80bf 31f1 a9bc b90b 1e3d eb9d 903d
00000280: cb46 b73c 1423 42bd ff03 d13e dcc8 443f
00000290: c788 073f 89a2 d73e 62fd 0f3f 06ed 5a3e
000002a0: 3702 c4be e692 563e 7df5 133e 5dfc 83be
000002b0: d1b4 53bf 7121 0b3e ba97 803e 4345 a3bd
000002c0: 02b3 4ebe a787 0cbe 0969 453e 0bdf c03e
000002d0: 03f9 943e 34ca 233d 610b c7be f21f 1b3f
000002e0: 9df8 9ebd dfa0 9dbe 3861 323d 98da 8e3c
000002f0: ec6e 0abe 999a 32be b7fa 153e af7c 56be
00000300: 25ac 0e3e b9ed cebe 31a5 1d3f 9d84 013f
00000310: d1d5 4c3e 0bbc 9c3b 978c 0cbe 5525 153f
00000320: 3e51 103e 13e5 513e d4d7 b73e 9aa3 313d
00000330: 39c6 893d 86eb e03d 5cd9 a83e 7e47 9a3d
00000340: 1c4b efbe 1a5c ecbe 5925 bfbe ecfc 32bf
00000350: 1c25 79bd d937 ffbd 58b6 37bf 5820 2bbf
00000360: 9c64 15bf 187e 2cbf 2a24 3fbf 2f08 cbbe
00000370: a2f7 42bd aa41 82bf ee07 36bf c885 12bf
00000380: f574 b3be 034e 1abe 3177 35bf 51b1 29bf
00000390: c413 633e 6d1b 34bf e389 34bf 7986 3dbc
000003a0: 29d7 f3be bb76 43bf 8225 eabe 323d 4fbf
000003b0: 4a6b cdbd a46e f2be 85a7 19bf d907 26bf
000003c0: 44ef 26bf f923 50bf 98aa 39bf ac95 10bf
000003d0: ef5b 1ebe 4f79 51bf bdaa 35bf 4660 6f3d
000003e0: 4ae4 38be 9c67 0bbf 0df5 3bbe a353 19bf
000003f0: 1f5c 36bf 7f49 d2be 49df 21bf affd 06bf

snn.l1.recurrent_weights f4 [20, 20]
0.0 5.9773617 2.5149925 4.6461916 1.6877818 -1.810624 -2.0307517 -1.6948165
5.9580855 2.8232226 3.3545468 5.6356654 7.174657 3.4330513 -0.6846482 -0.59804326
5.636357 -4.3029537 2.833703 0.8221505 -0.31430444 0.0 13.200615 9.320134
-0.8762348 3.687458 10.649217 -2.6810727 6.5195804 4.0779853 3.5700357 9.433833
13.585406 4.6526923 -0.48163468 6.9500246 -1.1400254 3.314375 -0.66750675 1.8982611
-0.19612145 8.922747 0.0 6.8565655 -4.19813 2.237485 6.667232 -1.7042563
2.064368 4.692232 1.9169232 9.074639 9.254059 4.0935555 2.5307932 5.087584
-0.8542071 4.9569798 0.43435848 2.9216979 0.44138047 2.9846382 4.248441 0.0
0.5461255 -1.818644 6.6990404 -0.07674454 4.2287226 0.83347404 2.6689076 15.768014
5.178503 1.4530752 0.42858684 0.9184209 4.3844423 4.4786687 2.8201876 -0.37285924
-1.0021828 4.72626 1.6214869 7.5811663 0.0 -1.0265796 2.0928652 -2.5722194
5.345782 1.5366927 2.8404996 5.71802 6.0190454 1.5552045 -0.62134635 -0.1717856
-1.4911898 -0.2944123 -1.686344 -0.1502853 -0.8479306 5.920396 5.675376 0.14660747
0.2165903 0.0 1.4055879 1.1119833 5.2395034 2.7333255 2.9443612 1.0566182
6.404926 4.1202846 3.448442 1.9835322 0.17210785 -0.29801062 1.4510105 1.1362466
0.34093758 6.1793156 4.3140855 5.504188 -1.1843983 3.3226447 0.0 -0.07246787
2.5560277 1.7384827 0.68099916 4.4392653 4.7740793 1.886522 -0.5196317 4.5920973
-1.0235419 5.7925887 0.5682884 1.3173116 -0.9385971 7.1505866 4.1598363 2.5494022
2.6071537 -1.8623444 -5.1510315 0.0 5.953247 1.7318856 2.9885154 5.467829
8.216417 3.532614 -2.5531862 0.6836148 2.9104445 -7.4227786 -1.208003 1.227662
-5.6148276 5.764703 4.7212157 6.7358174 -1.439317 -5.003985 -0.3534873 -7.592512
0.0 -0.19825763 3.8215125 4.491078 8.855414 2.0953226 -5.1602683 -0.55733454
-1.1631024 -5.950566 -5.437416 -1.5721939 -6.8271337 6.4527793 7.9736905 1.2974706
-3.8254628 -4.7946267 -3.6232672 -8.333289 5.997286 0.0 3.5609891 2.6391993
7.861178 4.7717633 -3.4345496 -1.1603879 1.4141309 -6.4384894 -4.966269 1.1933634
-8.295427 3.6093063 5.720415 2.6511085 -2.3958256 -6.868129 -5.7365336 -9.8595
7.399991 2.751933 0.0 1.6428686 6.5766196 3.6072736 -6.5706296 -4.900142
-1.155432 -9.308262 -6.2653937 -0.4358202 0.033676114 1.760853 3.9389129 12.357672
-2.3776855 -0.28691167 4.7688327 -0.41537026 1.7998784 0.19699532 0.73473513 0.0
3.4895482 1.8070078 -1.0366077 1.7878457 2.170682 3.516073 2.283343 0.06753139
-1.6011779 10.6803055 10.312854 9.372424 -1.2294408 0.9454347 7.3552456 -4.0260696
7.4813514 1.6979185 4.62526 8.8675 0.0 3.936116 -3.2021492 3.6550853
00000000: 0000 0000 8c46 bf40 a3f5 2040 9aad 9440
00000010: 3c09 d83f 87c2 e7bf d6f7 01c0 bfef d8bf
00000020: a3a8 be40 aeaf 3440 e5b0 5640 5f57 b440
00000030: ca96 e540 1db7 5b40 1b45 2fbf 5d19 19bf
00000040: 095d b440 ccb1 89c0 645b 3540 7578 523f
00000050: 83ec a0be 0000 0000 b835 5341 451f 1541
00000060: ed50 60bf 50ff 6b40 3163 2a41 b296 2bc0
00000070: 67a0 d040 db7e 8240 777b 6440 fbf0 1641
00000080: d35d 5941 dbe2 9440 d298 f6be 9a66 de40
00000090: 5aec 91bf b81e 5440 b9e1 2abf 38fa f23f
000000a0: 10d4 48be 92c3 0e41 0000 0000 fc68 db40
000000b0: 1557 86c0 f432 0f40 f759 d540 1225 dabf
000000c0: 9b1e 0440 c426 9640 bd5d f53f b931 1141
000000d0: a010 1441 68fe 8240 84f8 2140 7dcd a240
000000e0: 51ad 5abf 949f 9e40 3c64 de3e 19fd 3a40
000000f0: 9ffc e13e 5004 3f40 3bf3 8740 0000 0000
00000100: e1ce 0b3f 54c9 e8bf 8a5e d640 3e2c 9dbd
00000110: b251 8740 8e5e 553f 62cf 2a40 c949 7c41
00000120: 4cb6 a540 5efe b93f bc6f db3e a21d 6b3f
00000130: 5a4d 8c40 4151 8f40 f47d 3440 68e7 bebe
00000140: 8747 80bf 863d 9740 e28c cf3f ea98 f240
00000150: 0000 0000 f666 83bf 81f1 0540 3e9f 24c0
00000160: a510 ab40 59b2 c43f bfca 3540 05fa b640
00000170: 059c c040 f110 c73f 8e10 1fbf 90e8 2fbe
00000180: 4fdf bebf 36bd 96be 1fda d7bf 64e4 19be
00000190: fb11 59bf e273 bd40 ae9c b540 4520 163e
000001a0: d9c9 5d3e 0000 0000 4eea b33f 7855 8e3f
000001b0: 03aa a740 ceee 2e40 6a70 3c40 443f 873f
000001c0: 27f5 cc40 5fd9 8340 46b3 5c40 62e4 fd3f
000001d0: 0a3d 303e d994 98be b6ba b93f 8770 913f
000001e0: 5f8f ae3e f4bc c540 fd0c 8a40 4f22 b040
000001f0: 5d9a 97bf 36a6 5440 0000 0000 096a 94bd
00000200: f595 2340 9a86 de3f f655 2e3f 760e 8e40
00000210: 42c5 9840 8e79 f13f 9506 05bf 76f2 9240
00000220: 6c03 83bf e35c b940 597b 113f ab9d a83f
00000230: e647 70bf 9bd1 e440 611d 8540 6829 2340
00000240: 9bdb 2640 4d61 eebf 40d5 a4c0 0000 0000
00000250: 0081 be40 6dae dd3f d643 3f40 75f8 ae40
00000260: 7276 0341 5916 6240 6767 23c0 6101 2f3f
00000270: b944 3a40 6787 edc0 d89f 9abf 0724 9d3f
00000280: abac b3c0 7278 b840 3314 9740 d18b d740
00000290: 8a3b b8bf a520 a0c0 4afc b4be dcf5 f2c0
000002a0: 0000 0000 0c04 4bbe a993 7440 e9b6 8f40
000002b0: c7af 0d41 c419 0640 eb20 a5c0 7aad 0ebf
000002c0: 8ae0 94bf 096b bec0 50ff adc0 a63d c9bf
000002d0: e177 dac0 2b7d ce40 7928 ff40 8413 a63f
000002e0: 62d4 74c0 956d 99c0 9ce3 67c0 2755 05c1
000002f0: c4e9 bf40 0000 0000 3fe7 6340 a4e8 2840
00000300: c58e fb40 49b2 9840 a9cf 5bc0 9787 94bf
00000310: 3e02 b53f 1b08 cec0 adeb 9ec0 22c0 983f
00000320: 12ba 04c1 e0fe 6640 a40d b740 c3ab 2940
00000330: 3555 19c0 b6c7 dbc0 af91 b7c0 83c0 1dc1
00000340: bacc ec40 ac1f 3040 0000 0000 8549 d23f
00000350: ab73 d240 92dd 6640 9942 d2c0 f7cd 9cc0
00000360: 32e5 93bf a4ee 14c1 1b7e c8c0 d323 dfbe
00000370: f7ef 093d a263 e13f 2617 7c40 06b9 4541
00000380: 002c 18c0 16e6 92be 479a 9840 69ab d4be
00000390: 6a62 e63f 24b9 493e 9a17 3c3f 0000 0000
000003a0: c254 5f40 084c e73f 90af 84bf 21d8 e43f
000003b0: 74ec 0a40 5707 6140 4b22 1240 e64d 8a3d
000003c0: 66f3 ccbf 88e2 2a41 7301 2541 73f5 1541
000003d0: 515e 9dbf 0208 723f 2c5e eb40 90d5 80c0
000003e0: 3b67 ef40 6555 d93f 2102 9440 48e1 0d41
000003f0: 0000 0000 53e9 7b40 03f0 4cc0 ebec 6940

snn.fc_out.weight f4 [9, 20]
1.17533 -4.109988 -4.2927704 -5.7157307 1.4992326 1.2168616 -3.3688078 2.6477308
-3.3505447 -0.07441331 -1.354383 -5.990509 -3.350369 -1.301956 1.982781 -0.56337404
3.172271 -1.0355234 2.6125655 -0.22691427 -3.0359626 2.9843166 7.348836 -3.7770407
-2.2073362 0.20998628 -0.52041155 -2.2531135 0.55342185 2.5950308 1.9099075 -1.9601508
2.247693 1.3498555 1.753007 -3.6611173 -1.6115868 1.0498493 -0.6627849 1.6804531
2.8599322 0.98898184 -1.3382568 -1.4046456 5.13332 0.9214621 0.51799065 1.074351
4.164361 0.17809984 1.9531513 -3.4282167 2.2898054 0.62362903 1.6714401 1.078364
-6.2551303 -2.3383458 -3.0550904 0.7406811 0.2511279 -0.22057502 0.38073352 -4.539808
-2.0768523 2.0581443 -0.6719229 1.8538818 -0.10947096 1.4326154 0.47207925 -0.6879019
1.1166819 1.6088101 1.6660047 3.4380534 3.699129 -0.5308143 0.2327233 1.1506598
-0.9591084 2.796346 -0.25873187 -4.359061 -0.77018565 -1.1773047 4.188702 -0.35495827
-2.4670844 -0.7374353 -1.9240894 -7.247743 1.019133 -1.6814005 -1.5786293 1.3462837
-1.3762043 2.335884 -0.14974914 -1.2858444 2.2692976 -1.5997097 -4.053233 0.79253805
-1.3587992 -2.8619485 -2.7198508 0.6737938 -4.20371 -0.95431864 -2.6257906 1.5066636
-2.9973204 -0.51136166 -2.5620997 0.1443187 2.9859095 -0.12841864 0.68216234 -0.48828965
-5.9737344 -9.71392 -8.978875 5.019891 -3.8935704 1.7215328 0.64493155 -1.2984656
-5.7684054 -8.172402 -6.947007 4.9087424 -7.1089363 -6.2936206 -6.4403186 -2.4422817
-3.1164222 0.5850533 -1.352617 -4.113893 -2.720665 -1.6093829 -6.266626 7.470715
2.6125138 -1.2521573 -1.2715046 -5.4213285 3.647135 -2.9893754 2.1133523 2.6360588
0.49329993 -1.4036609 -4.690829 -5.894472 -5.231854 -1.4321934 0.3057504 -3.3906672
-1.6760656 -12.7584095 -0.10699832 4.109869 -8.94954 -4.009605 -8.377245 -1.4061556
-8.528425 -3.545235 -4.7445226 5.428635 -12.717941 -4.2958045 2.8446755 -6.4749856
1.1013958 0.6709456 -0.008452421 -0.5189095
00000000: 3771 963f 0685 83c0 605e 89c0 44e7 b6c0
00000010: dbe6 bf3f 1fc2 9b3f 8c9a 57c0 6c74 2940
00000020: 536f 56c0 0166 98bd 6c5c adbf 40b2 bfc0
00000030: 726c 56c0 7fa6 a6bf c5cb fd3f 4839 10bf
00000040: 7d06 4b40 088c 84bf 4634 2740 375c 68be
00000050: 364d 42c0 0bff 3e40 aa29 eb40 09bb 71c0
00000060: ff44 0dc0 a506 573e b139 05bf 0333 10c0
00000070: 0ead 0d3f fc14 2640 d977 f43f 39e6 fabf
00000080: 34da 0f40 11c8 ac3f 8962 e03f bf4f 6ac0
00000090: 7a48 cebf 7661 863f 45ac 29bf 1619 d73f
000000a0: 2109 3740 ea2d 7d3f 004c abbf 6dcb b3bf
000000b0: 2844 a440 f1e4 6b3f 099b 043f 5584 893f
000000c0: 7242 8540 ce5f 363e dd00 fa3f e767 5bc0
000000d0: 2c8c 1240 27a6 1f3f c0f1 d53f d507 8a3f
000000e0: 072a c8c0 75a7 15c0 9a86 43c0 479d 3d3f
000000f0: d693 803e 6bde 61be 81ef c23e 1b46 91c0
00000100: 26eb 04c0 a3b8 0340 2403 2cbf 004c ed3f
00000110: 5032 e0bd f15f b73f 5fb4 f13e 571a 30bf
00000120: 6fef 8e3f 7ded cd3f a43f d53f 1109 5c40
00000130: 88be 6c40 72e3 07bf 044f 6e3e d248 933f
00000140: 2188 75bf 55f7 3240 8178 84be 6d7d 8bc0
00000150: e32a 45bf ecb1 96bf d909 8640 17bd b5be
00000160: b6e4 1dc0 8fc8 3cbf 9048 f6bf 83ed e7c0
00000170: f372 823f 2238 d7bf 8610 cabf 0653 ac3f
00000180: 7627 b0bf 207f 1540 d757 19be 8d96 a4bf
00000190: 2c3c 1140 4ac3 ccbf 16b4 81c0 c6e3 4a3f
000001a0: 22ed adbf 2a2a 37c0 0912 2ec0 c07d 2c3f
000001b0: cb84 86c0 3a4e 74bf f40c 28c0 5ada c03f
000001c0: 19d4 3fc0 99e8 02bf 71f9 23c0 48c8 133e
000001d0: 2419 3f40 2d80 03be 31a2 2e3f 1a01 fabe
000001e0: d528 bfc0 376c 1bc1 79a9 0fc1 f2a2 a040
000001f0: 4230 79c0 305b dc3f 3c1a 253f 1f34 a6bf
00000200: c796 b8c0 29c2 02c1 e24d dec0 6b14 9d40
00000210: 687c e3c0 5765 c9c0 1717 cec0 584e 1cc0
00000220: 7673 47c0 0ec6 153f 8e22 adbf 03a5 83c0
00000230: 601f 2ec0 4200 cebf 3388 c8c0 1910 ef40
00000240: 6d33 2740 b146 a0bf aac0 a2bf 867b adc0
00000250: a96a 6940 ed51 3fc0 2a41 0740 30b5 2840
00000260: cf91 fc3e 29ab b3bf 451b 96c0 849f bcc0
00000270: 596b a7c0 1d52 b7bf 518b 9c3e b100 59c0
00000280: 5189 d6bf 7222 4cc1 ef21 dbbd 0c84 8340
00000290: 5131 0fc1 af4e 80c0 3209 06c1 e8fc b3bf
000002a0: 6e74 08c1 21e5 62c0 21d3 97c0 61b7 ad40
000002b0: b07c 4bc1 3b77 89c0 2a0f 3640 1533 cfc0
000002c0: 8afa 8c3f 17c3 2b3f 067c 0abc 41d7 04bf

exp_avg f4 [20, 416]
0.002454756 -0.0013232088 0.00024091847 -0.0017276941 -0.005341807 -0.00070901273 0.0013316114 -0.0023163352
-0.0011324657 -0.0005292683 -0.0036316102 0.00058524753 -0.00182366 -0.00060248486 -0.0018457343 0.0016088673
-0.0013687286 -0.004366 0.0031049617 -4.178565e-05 -0.0013787553 0.0022574088 -0.0008606187 -0.00018501458
-0.001880314 -0.004936127 -0.0011106316 6.074213e-05 0.0005338248 1.7153838e-05 0.00063585705 -0.000987339
-0.0022469312 -9.427518e-06 -0.00064064236 -0.0018989689 -0.0022685295 -0.0018352037 0.0021365497 -0.0039321124
-0.0013275578 -8.6326654e-05 -0.00071132113 -0.002562862 -0.0012081416 0.00024120662 0.000535286 -0.0017763712
-0.0010608219 -0.00070720736 -0.006930763 0.0028044095 -0.00042379505 -8.976379e-05 -0.00041090287 -0.0025404089
-0.0005063683 0.0007325368 -0.0006424368 -0.00031253303 -0.0005254577 0.00183495 -0.0008735057 -0.0030121175
-0.0011127905 -0.0026595644 -4.5564135e-05 0.0001711796 0.0010776334 -0.00018257402 -0.00026812608 0.00047125548
-0.0012002069 -0.0014858902 -0.0007429256 -0.0023035635 -0.002182545 -0.0008646524 -0.0024411671 -0.0016314461
-0.0025237424 -0.0017285114 -0.0004107447 -0.0015641962 9.6525066e-05 0.0008228328 -0.0008537304 7.454959e-05
-0.00058503164 -1.5083248e-05 -0.0010707305 -0.0030343484 -0.00015071424 -0.00071179785 -0.0029967101 -0.0010113706
0.0012480618 -6.195975e-05 0.0015819559 0.0008444109 0.00054565637 -0.002905535 0.0013435393 -0.0024748521
-0.0003104827 5.270113e-05 -0.00025032737 -0.0012383405 0.0012184422 1.5797237e-05 0.000840759 -8.327619e-05
0.0018062787 0.0006787115 0.00011042842 -0.00018679841 0.00094450254 0.00011774697 5.822601e-05 -0.0013411869
0.0011203232 -0.0006845012 -0.0012193291 -0.00056109484 -0.00054765027 -0.000650592 -0.0025476431 -0.0010234308
-0.00065842096 -2.941723e-05 -0.00082319364 -0.0005278736 -0.00049402023 -0.0010979025 0.0012780238 -0.0016884967
-0.0009517962 -2.418845e-06 -0.0008078454 -0.0009056595 -0.0013242404 -0.00029764543 -0.0013497433 -0.0018553913
-0.0012739378 0.00078796974 0.00013355543 -0.00048485128 -0.00016850255 0.0003703268 -0.00014372713 0.0011685153
-0.0012409261 0.00046855546 -0.0006348375 -0.0004635604 -0.00017780806 0.00020332281 -0.0019909802 -0.002178716
0.0039674575 -0.00042643718 0.0001689864 -0.00071315607 0.000598897 -0.00019496185 0.00018260212 0.0006473359
0.0018173552 -0.0006725099 -0.00083242403 -0.0010547092 -0.002244738 0.0012036691 2.8167555e-05 -0.0016901075
0.00019110412 0.0020116463 -0.0018496452 -0.0028652623 0.0007486853 -0.0004723069 -0.0014964829 0.0011295095
-0.0014930362 0.00085807714 -0.00017194485 0.00035085506 0.0006498171 -0.00015195261 0.00094314304 -0.0010312136
-0.00024035719 -0.0007834337 0.0012976369 -0.0019087011 7.1829545e-06 -0.002651933 -0.0012885664 -0.0012411573
-0.0007630763 -0.0005363397 0.00038162287 0.00018377586 -0.0013349401 -0.0020501115 0.0025295422 0.00016094367
0.002373959 0.00070740614 0.00075161795 0.00022710778 -0.00022325484 0.002509997 0.0012363698 -0.0005559832
-0.0019997656 0.0017993725 -0.00067729066 -0.0014711702 0.00017819699 -0.0022728858 -0.0008015998 -0.0024521945
-0.0016452331 0.001664764 -0.0006045305 0.00022646201 -0.00029692307 0.00018072067 0.00046619173 -0.0004982901
0.00028701036 -7.313066e-05 -0.0002469719 -0.0035713618 0.001993398 0.0013918566 -0.0007170154 0.0014513014
0.00029224387 0.0003462439 -0.00061288034 -0.000176719 -0.0017731354 -0.00035357772 -0.0022874442 0.00086593936
0.00052560616 -0.00049715245 0.0009244762 -0.0013655111 -0.0018350601 0.0010070121 -0.0035380966 -0.0014231054
00000000: f9df 203b 856f adba 0f9f 7c39 cb73 e2ba
00000010: 530a afbb 0add 39ba 7789 ae3a a8cd 17bb
00000020: 3e6f 94ba 98be 0aba 4f00 6ebb 4c6b 193a
00000030: e007 efba 13f0 1dba 91ec f1ba a1e0 d23a
00000040: e966 b3ba aa10 8fbb 9d7c 4b3b 0043 2fb8
00000050: 5ab7 b4ba 09f1 133b 259b 61ba 7900 42b9
00000060: de74 f6ba 3cbf a1bb 9d92 91ba 5ec5 7e38
00000070: 60f0 0b3a 96e5 8f37 a5af 263a 9969 81ba
00000080: 4041 13bb e22a 1eb7 c8f0 27ba d3e6 f8ba
00000090: 9cab 14bb 388b f0ba 5b05 0c3b f3d8 80bb
000000a0: 7301 aeba 450a b5b8 f477 3aba b0f5 27bb
000000b0: 815a 9eba 69ec 7c39 6f52 0c3a 20d5 e8ba
000000c0: 470b 8bba e263 39ba 741b e3bb 2fca 373b
000000d0: cf30 deb9 913f bcb8 736e d7b9 fd7c 26bb
000000e0: cdbd 04ba b607 403a 3469 28ba 79db a3b9
000000f0: dfbe 09ba b482 f03a fafb 64ba f266 45bb
00000100: 0edb 91ba 164c 2ebb 1e1c 3fb8 ad7e 3339
00000110: 603f 8d3a 5771 3fb9 4693 8cb9 d712 f739
00000120: 4350 9dba 34c2 c2ba e5c0 42ba 62f7 16bb
00000130: 0709 0fbb d7a9 62ba fdfb 1fbb 3fd6 d5ba
00000140: 5f65 25bb 388f e2ba 3859 d7b9 b705 cdba
00000150: 806d ca38 60b3 573a e1cc 5fba 8257 9c38
00000160: cf5c 19ba 0f0e 7db7 c157 8cba ebdb 46bb
00000170: 0c09 1eb9 f297 3aba 7464 44bb f78f 84ba
00000180: 0196 a33a 63f0 81b8 a259 cf3a 755b 5d3a
00000190: 610a 0f3a ca6a 3ebb b319 b03a 2131 22bb
000001a0: 48c8 a2b9 680b 5d38 5f3e 83b9 d04f a2ba
000001b0: 23b4 9f3a 4f84 8437 6266 5c3a 90a4 aeb8
000001c0: a8c0 ec3a 8feb 313a ce95 e738 51df 43b9
000001d0: 7e98 773a ecee f638 b437 7438 c4ca afba
000001e0: cfd7 923a 1970 33ba e5d1 9fba 7016 13ba
000001f0: 3090 0fba 7d8c 2aba 5cf6 26bb a424 86ba
00000200: e299 2cba 05c5 f6b7 97cb 57ba ff60 0aba
00000210: 2381 01ba 7fe7 8fba 5d83 a73a 8c50 ddba
00000220: f681 79ba 7153 22b6 96c5 53ba c869 6dba
00000230: 2292 adba 4b0d 9cb9 dfe9 b0ba 9a30 f3ba
00000240: 42fa a6ba c18f 4e3a 030b 0c39 a333 feb9
00000250: 0fb0 30b9 6c28 c239 75b5 16b9 de28 993a
00000260: 92a6 a2ba 73a8 f539 396b 26ba 060a f3b9
00000270: fd71 3ab9 0d33 5539 1b7b 02bb cac8 0ebb
00000280: 7201 823b 6e93 dfb9 f131 3139 18f3 3aba
00000290: 4cff 1c3a ac6e 4cb9 e278 3f39 fab1 293a
000002a0: 5234 ee3a 604b 30ba 0837 5aba 2b3e 8aba
000002b0: 741c 13bb 6fc4 9d3a 5d49 ec37 9986 ddba
000002c0: 1f63 4839 d3d5 033b cb6f f2ba 20c7 3bbb
000002d0: 6c43 443a f69f f7b9 a225 c4ba 0d0c 943a
000002e0: fbb1 c3ba 95f0 603a 184c 34b9 f8f2 b739
000002f0: 7d58 2a3a 7855 1fb9 423d 773a c929 87ba
00000300: 6408 7cb9 585f 4dba 7815 aa3a 622d faba
00000310: 1c05 f136 0ecc 2dbb 1de5 a8ba 54ae a2ba
00000320: 2f09 48ba 2699 0cba 8e14 c839 f5b3 4039
00000330: 28f9 aeba 2a5b 06bb adc6 253b fdc2 2839
00000340: 6c94 1b3b 3971 393a 3a08 453a c823 6e39
00000350: 8419 6ab9 c37e 243b b00d a23a 67bf 11ba
00000360: 800e 03bb ecd8 eb3a 358c 31ba 48d4 c0ba
00000370: 64da 3a39 b2f4 14bb 7422 52ba ffb4 20bb
00000380: dda4 d7ba 3634 da3a 5b79 1eba 6f76 6d39
00000390: 57ac 9bb9 d67f 3d39 326b f439 af9f 02ba
000003a0: e179 9639 b95d 99b8 027c 81b9 820d 6abb
000003b0: aba3 023b f56e b63a 17f6 3bba 9839 be3a
000003c0: 4f38 9939 1288 b539 b4a9 20ba a54d 39b9
000003d0: 8d68 e8ba 6660 b9b9 f2e8 15bb 3500 633a
000003e0: d5c8 093a 5653 02ba 8c58 723a f3fa b2ba
000003f0: 6686 f0ba b8fd 833a 69df 67bb 7e87 baba

exp_avg_sq f4 [20, 416]
0.000101357655 0.00010381455 6.7223875e-05 9.806189e-05 0.00023594186 5.3111296e-05 8.7165376e-05 6.3083855e-05
8.6934895e-05 9.300129e-05 0.000108128304 9.1683614e-05 9.9256096e-05 0.00014304173 0.00011000261 0.00015543913
0.00017357203 0.00013729204 6.5225046e-05 0.00016913856 0.000109045126 9.704095e-05 0.00010654063 8.742937e-05
7.391567e-05 0.00010101109 9.061678e-05 5.3163232e-05 9.7760014e-05 7.755081e-05 0.000113579255 0.00011515214
6.591644e-05 0.00018703949 8.905683e-05 8.105609e-05 0.0001335399 9.3227696e-05 0.00019200997 0.00015102972
6.598103e-05 0.00013920931 0.00010699107 5.4179833e-05 7.159793e-05 5.15962e-05 7.7726196e-05 0.00011394378
7.0729366e-05 0.0001234583 8.960499e-05 7.513111e-05 5.19006e-05 3.6187856e-05 4.1951687e-05 4.3162963e-05
5.634944e-05 3.922611e-05 4.401169e-05 3.784808e-05 4.2989283e-05 4.934182e-05 9.365774e-05 3.9705785e-05
5.652295e-05 3.9591152e-05 5.296919e-05 3.671122e-05 3.8366423e-05 4.1039035e-05 5.7678983e-05 4.8042075e-05
5.4353346e-05 3.152194e-05 4.3439064e-05 6.279519e-05 3.8165046e-05 3.7115806e-05 7.053186e-05 3.089592e-05
4.7689595e-05 4.6026755e-05 6.361898e-05 4.354129e-05 3.2288808e-05 3.8665e-05 5.340159e-05 4.051829e-05
4.182351e-05 3.2317228e-05 4.6578047e-05 5.380971e-05 4.909261e-05 3.40659e-05 0.00010633935 3.3821856e-05
5.107303e-05 4.8921625e-05 5.3789998e-05 3.6164744e-05 4.1615473e-05 5.630455e-05 6.349665e-05 3.892002e-05
2.6087444e-05 2.3993167e-05 3.8644346e-05 2.2987691e-05 2.2600687e-05 2.691924e-05 2.637166e-05 3.2591663e-05
2.518371e-05 2.1687147e-05 2.6890399e-05 2.1291085e-05 2.5869758e-05 2.7999826e-05 2.5352632e-05 2.7147811e-05
2.4298823e-05 2.4909948e-05 3.214337e-05 2.4966055e-05 2.7164886e-05 2.5068473e-05 2.6291023e-05 3.8498703e-05
2.109439e-05 2.5715124e-05 2.6074607e-05 2.0680609e-05 2.89295e-05 2.746656e-05 2.6030415e-05 2.905692e-05
2.6530315e-05 2.1207428e-05 2.7925376e-05 2.4484643e-05 2.1819018e-05 3.3778208e-05 2.6399122e-05 3.2195872e-05
2.8517306e-05 2.4173953e-05 3.283503e-05 2.2147102e-05 3.100936e-05 2.4888825e-05 3.006948e-05 3.1262312e-05
2.7115415e-05 2.9231205e-05 2.8590455e-05 2.5026671e-05 5.8425867e-05 4.474123e-05 4.2369116e-05 5.7779813e-05
6.0346538e-05 5.6636567e-05 5.9113987e-05 5.406771e-05 5.8014237e-05 4.2827203e-05 6.571678e-05 3.9626557e-05
3.850731e-05 4.5510285e-05 5.694772e-05 5.4011223e-05 6.234996e-05 4.851256e-05 4.6705485e-05 4.5295317e-05
5.603164e-05 6.2959676e-05 7.419017e-05 5.9186004e-05 5.1147017e-05 4.5478555e-05 4.583958e-05 4.8657766e-05
4.299665e-05 5.2574902e-05 6.670054e-05 4.8953465e-05 5.7626377e-05 4.825761e-05 4.1923657e-05 4.5559085e-05
6.961398e-05 3.9786584e-05 6.130626e-05 4.9397135e-05 7.445321e-05 3.919436e-05 4.7654405e-05 4.445621e-05
4.7913058e-05 5.6768997e-05 6.323267e-05 4.4132576e-05 5.11347e-05 4.7054426e-05 4.6409514e-05 5.0400533e-05
5.423043e-05 7.5576696e-05 7.639215e-05 5.3912067e-05 8.48839e-05 8.244941e-05 6.408339e-05 8.482418e-05
7.682603e-05 8.091834e-05 6.500361e-05 0.00013216873 0.00021988625 8.1618615e-05 9.1228554e-05 0.0001137791
6.2334955e-05 7.637606e-05 6.7707966e-05 7.1145005e-05 7.729894e-05 7.1803406e-05 4.512491e-05 8.5658176e-05
6.011367e-05 0.00011110809 5.4718057e-05 0.00016498247 0.00012962858 9.416589e-05 8.326999e-05 8.98012e-05
6.848307e-05 0.00011170948 4.9250095e-05 8.2740924e-05 9.943082e-05 0.00010188893 4.751216e-05 7.666961e-05
8.066522e-05 0.00017430968 4.8822778e-05 0.00015211913 7.225504e-05 7.499426e-05 6.382443e-05 8.763328e-05
00000000: fa8f d438 03b7 d938 8bfa 8c38 94a6 cd38
00000010: 2967 7739 d2c3 5e38 8ecc b638 e34b 8438
00000020: d150 b638 b009 c338 f1c2 e238 4446 c038
00000030: b627 d038 79fd 1539 34b1 e638 60fd 2239
00000040: e300 3639 0df6 0f39 6ec9 8838 c95a 3139
00000050: 28af e438 7782 cb38 916e df38 495a b738
00000060: 2c03 9b38 ead5 d338 8309 be38 96fb 5e38
00000070: 8204 cd38 c6a2 a238 6631 ee38 d67d f138
00000080: 9f3c 8a38 0820 4439 06c4 ba38 a8fc a938
00000090: d806 0c39 3d83 c338 4956 4939 bb5d 1e39
000000a0: 4c5f 8a38 b7f8 1139 6560 e038 273f 6338
000000b0: d926 9638 ff68 5838 ef00 a338 1af5 ee38
000000c0: 8a54 9438 9674 0139 50ea bb38 b58f 9d38
000000d0: d8af 5938 6ac8 1738 48f5 2f38 e109 3538
000000e0: c058 6c38 b786 2438 3199 3838 11bf 1e38
000000f0: 644f 3438 60f4 4e38 1e6a c438 c389 2638
00000100: 0e13 6d38 ad0e 2638 3c2b 5e38 5ffa 1938
00000110: a2eb 2038 5421 2c38 56ec 7138 c980 4938
00000120: 76f9 6338 6d36 0438 5732 3638 e9b0 8338
00000130: 6813 2038 cbac 1b38 81ea 9338 3e96 0138
00000140: 5006 4838 da0c 4138 2e6b 8538 1ba0 3638
00000150: d86d 0738 3a2c 2238 85fb 5f38 2ff2 2938
00000160: a76b 2f38 5c8c 0738 cc5c 4338 bcb1 6138
00000170: cae8 4d38 fbe1 0e38 8102 df38 f1db 0d38
00000180: 4037 5638 3231 4d38 929c 6138 99af 1738
00000190: 468c 2e38 8d28 6c38 8129 8538 0e3e 2338
000001a0: 5cd6 da37 ef44 c937 0d16 2238 b1d5 c037
000001b0: 9b96 bd37 a1d0 e137 b538 dd37 08b3 0838
000001c0: 9b41 d337 cbec b537 b192 e137 429a b237
000001d0: e202 d937 2be1 ea37 5dac d437 7bbb e337
000001e0: 53d5 cb37 b5f5 d037 aed1 0638 326e d137
000001f0: 26e0 e337 234a d237 8b8b dc37 ab79 2138
00000200: dcf3 b037 cfb6 d737 cbba da37 457b ad37
00000210: a1ad f237 fd67 e637 e45b da37 43bf f337
00000220: 6b8d de37 9be6 b137 4a41 ea37 5f64 cd37
00000230: fc07 b737 13ad 0d38 af73 dd37 0e0a 0738
00000240: 7338 ef37 2bc9 ca37 58b8 0938 8ac8 b937
00000250: 0c10 0238 58c8 d037 b73d fc37 a71f 0338
00000260: e975 e337 8935 f537 89d5 ef37 5ef0 d137
00000270: 4c0e 7538 88a8 3b38 7eb5 3138 9a58 7238
00000280: 9a1c 7d38 0d8d 6d38 29f1 7738 c3c6 6238
00000290: 5054 7338 5ca1 3338 6dd1 8938 b134 2638
000002a0: e982 2138 4ce2 3e38 26db 6e38 1c8a 6238
000002b0: e1c1 8238 f779 4b38 a2e5 4338 7afb 3d38
000002c0: 8403 6b38 3809 8438 8b96 9b38 7d3e 7838
000002d0: b186 5638 3ac0 3e38 e043 4038 e115 4c38
000002e0: 4d57 3438 df83 5c38 94e1 8b38 6253 4d38
000002f0: dab3 7138 3768 4a38 2fd7 2f38 b216 3f38
00000300: b9fd 9138 85e0 2638 8c91 8038 c52f 4f38
00000310: c323 9c38 a064 2438 87e0 4738 7e76 3a38
00000320: 41f6 4838 3f1b 6e38 c89b 8438 fe1a 3938
00000330: 7779 5638 4e5c 4538 d6a7 4238 2965 5338
00000340: 7b75 6338 ee7e 9e38 b934 a038 a41f 6238
00000350: b203 b238 b1e8 ac38 8264 8638 a3e3 b138
00000360: a91d a138 b4b2 a938 8c52 8838 c696 0a39
00000370: 4491 6639 a92a ab38 f551 bf38 b09c ee38
00000380: d3b9 8238 162c a038 70fe 8d38 af33 9538
00000390: 8d1b a238 2995 9638 8144 3d38 62a3 b338
000003a0: 9022 7c38 b402 e938 1181 6538 25ff 2c39
000003b0: e8ec 0739 ed7a c538 3ca1 ae38 a753 bc38
000003c0: 919e 8f38 9245 ea38 e391 4e38 3285 ad38
000003d0: 8485 d038 34ad d538 cb47 4738 afc9 a038
000003e0: cf2a a938 e6c6 3639 0fc7 4c38 2b82 1f39
000003f0: a187 9738 3d46 9d38 7bd9 8538 c2c7 b738

exp_avg f4 [20, 20]
0.0 -8.028797e-05 -0.00023381846 -2.6589905e-05 0.0006186762 0.00018924147 -0.00053595414 0.00036053767
1.7682286e-38 -6e-45 6e-45 -0.00038663164 -1.639516e-05 6e-45 2.5927962e-05 -5.8220947e-05
1.6903497e-06 0.0014080644 0.0003505848 6e-45 3.954263e-05 0.0 -0.00016265208 -0.0011806722
-0.00018020936 -0.0017551964 -0.0029048654 0.00065997493 -2.799248e-39 6e-45 6e-45 -0.00095546665
6.068103e-06 6e-45 0.0020952844 -7.5599586e-05 4.096985e-05 -0.0025925338 -0.0009338527 6e-45
-0.0013089213 -0.000106419306 0.0 -0.003140039 -0.0007724246 -0.0035202857 -0.0047390787 0.00027440322
-1.48643e-38 6e-45 6e-45 -0.0021557747 -2.7876436e-05 6e-45 0.003209977 -0.00016427318
2.3648026e-05 -0.0064917626 -0.0024592355 6e-45 0.0010580596 4.6456866e-05 8.111117e-05 0.0
-0.0001209777 -0.002656586 -0.002882499 -0.0034931994 9.654354e-39 -6e-45 -6e-45 -0.0005760943
1.7093551e-05 -6e-45 0.0017029092 0.0001220706 -1.0719129e-05 -0.0106982095 -0.0040590605 -6e-45
0.0032211752 0.00021929567 0.0003441745 0.0016585984 0.0 0.0014507395 0.0018591961 0.0037248775
2.396353e-38 -6e-45 -6e-45 0.0013844463 8.305908e-05 -6e-45 0.001625229 0.00018855715
6.539512e-06 0.007830539 0.0035166312 -6e-45 0.0021123711 9.556229e-06 -5.1592528e-05 0.00068117445
-0.00010913276 0.0 -0.0004536361 0.0024477257 -1.374527e-39 6e-45 6e-45 0.0004881802
1.3395253e-05 6e-45 0.0025426177 -1.999918e-07 6.92844e-05 0.0019275841 0.0009825142 6e-45
0.002577734 2.307049e-05 -9.428268e-05 0.000553348 -0.00027650496 -0.0023888198 0.0 8.203281e-05
3.80954e-40 6e-45 6e-45 0.0005322765 1.5892243e-05 6e-45 0.0048950734 -1.1516421e-05
4.598329e-05 -0.006356221 -0.001450765 6e-45 -0.0009168231 -0.00029137256 -0.0007106175 -0.0011343495
-0.0005939694 -0.0003646889 -0.0007764506 0.0 6.116039e-39 6e-45 6e-45 -0.0012798549
-9.858279e-05 6e-45 -0.0016931749 -0.00021008485 3.2305572e-05 -0.000107442895 -0.00016547657 6e-45
0.00050833944 4.048958e-06 9.25504e-06 0.00017522885 0.00014005578 7.686273e-05 7.449763e-05 0.0011846999
0.0 -6e-45 -6e-45 0.00012318851 2.1460546e-06 -6e-45 0.000571751 2.5483785e-06
5.9415584e-07 0.0009569791 0.00041566623 -6e-45 0.00020151424 -1.5719586e-07 -2.0664938e-06 6.265072e-05
4.9706337e-05 1.1340341e-05 -3.3956003e-06 0.0005737798 -1.250873e-39 0.0 6e-45 3.9487975e-05
2.8436222e-08 6e-45 0.0003056301 -1.405796e-07 4.6650615e-07 0.00036841852 0.00019631757 6e-45
0.00018321678 4.5925324e-07 1.1026448e-06 5.2480795e-05 4.914959e-05 2.3106453e-05 1.8746137e-05 0.00049512554
-4.313e-41 -6e-45 0.0 3.737387e-05 2.6063432e-07 -6e-45 0.00022487003 4.3086555e-07
1.6140045e-07 0.0003567139 0.00016354423 6e-45 -0.0002849283 1.9329107e-06 4.487637e-06 -0.0020341051
-0.0004771698 -0.0041265395 -0.0039277673 -0.004804397 5.078245e-39 -6e-45 -6e-45 0.0
1.386109e-06 -6e-45 0.0017538038 8.8083725e-05 5.4184e-07 -0.012647499 -0.0053578084 -6e-45
0.0006644743 -6.154108e-06 -0.0001284686 -7.589774e-05 0.00011088002 -0.0010374387 -0.0015312282 0.0020455555
-1.515164e-39 6e-45 6e-45 -7.012251e-05 0.0 6e-45 0.0022764998 -7.6066775e-05
00000000: 0000 0000 4760 a8b8 2a2d 75b9 630d dfb7
00000010: a82e 223a 1f6f 4639 467f 0cba 8c06 bd39
00000020: 058b c000 0400 0080 0400 0000 d2b4 cab9
00000030: 5788 89b7 0400 0000 e07f d937 4432 74b8
00000040: f9df e235 cd8e b83a b2ce b739 0400 0000
00000050: 93da 2538 0000 0000 968d 2ab9 c9c0 9aba
00000060: 95f6 3cb9 9e0e e6ba 8e5f 3ebb 2b02 2d3a
00000070: 2a7b 1e80 0400 0000 0400 0000 4878 7aba
00000080: 9c9c cb36 0400 0000 0a51 093b 388b 9eb8
00000090: 0bd7 2b38 80e7 29bb cbcd 74ba 0400 0000
000000a0: 1c90 abba 6e2d dfb8 0000 0000 1dc9 4dbb
000000b0: 8a7c 4aba 98b4 66bb 464a 9bbb c7dd 8f39
000000c0: 9fdb a180 0400 0000 0400 0000 e647 0dbb
000000d0: 31d8 e9b7 0400 0000 7a5e 523b bf40 2cb9
000000e0: c05f c637 dab8 d4bb 202b 21bb 0400 0000
000000f0: 97ae 8a3a aeda 4238 3a1a aa38 0000 0000
00000100: 68b5 fdb8 1e1a 2ebb 4fe8 3cbb 29ee 64bb
00000110: 6920 6900 0400 0080 0400 0080 0905 17ba
00000120: 1f64 8f37 0400 0080 2734 df3a 1400 0039
00000130: 4fd6 33b7 8b47 2fbc de01 85bb 0400 0080
00000140: 5a1a 533b bcf2 6539 5272 b439 5465 d93a
00000150: 0000 0000 bd26 be3a 45b0 f33a 131d 743b
00000160: 4978 0201 0400 0080 0400 0080 4f76 b53a
00000170: 0130 ae38 0400 0080 a305 d53a 6db7 4539
00000180: fb6d db36 a94b 003c 4877 663b 0400 0080
00000190: b56f 0a3b b153 2037 0e65 58b8 d890 323a
000001a0: 34de e4b8 0000 0000 02d6 edb9 066a 203b
000001b0: 9ff7 0e80 0400 0000 0400 0000 70f2 ff39
000001c0: 2cbc 6037 0400 0000 0ca2 263b 54bd 56b4
000001d0: c74c 9138 fda6 fc3a b5c7 803a 0400 0000
000001e0: 33ef 283b 8087 c137 a1b9 c5b8 8e0e 113a
000001f0: def7 90b9 bf8d 1cbb 0000 0000 0809 ac38
00000200: f225 0400 0400 0000 0400 0000 7988 0b3a
00000210: 5550 8537 0400 0000 da66 a03b a736 41b7
00000220: 2fde 4038 d947 d0bb 9827 beba 0400 0000
00000230: f556 70ba 5dc3 98b9 bc48 3aba 74ae 94ba
00000240: 9db4 1bba b733 bfb9 b88a 4bba 0000 0000
00000250: 0799 4200 0400 0000 0400 0000 cec0 a7ba
00000260: 3bbe ceb8 0400 0000 86ed ddba 394a 5cb9
00000270: d87f 0738 f752 e1b8 c783 2db9 0400 0000
00000280: 1542 053a 49dc 8736 1846 1b37 a3bd 3739
00000290: f0db 1239 5d31 a138 9c3b 9c38 ef47 9b3a
000002a0: 0000 0000 0400 0080 0400 0080 2a2c 0139
000002b0: f004 1036 0400 0080 8fe1 153a cf04 2b36
000002c0: 147e 1f35 c8dd 7a3a c7ed d939 0400 0080
000002d0: 914d 5339 abc9 28b4 18ae 0ab6 5963 8338
000002e0: c67b 5038 6542 3e37 f8df 63b6 b669 163a
000002f0: ed9e 0d80 0000 0000 0400 0000 e49f 2538
00000300: ea43 f432 0400 0000 fa3c a039 3af2 16b4
00000310: 1e74 fa34 4c28 c139 99da 4d39 0400 0000
00000320: e11d 4039 498f f634 96fe 9335 d31e 5c38
00000330: f825 4e38 bbd4 c137 0641 9d37 50cb 013a
00000340: 3b78 0080 0400 0080 0000 0000 e3c1 1c38
00000350: 4fed 8b34 0400 0080 17cb 6b39 b651 e734
00000360: 6b4d 2d34 5405 bb39 127d 2b39 0400 0000
00000370: 6e62 95b9 27b7 0136 8294 9636 9f4e 05bb
00000380: a52c fab9 ec37 87bb 80b4 80bb 346e 9dbb
00000390: 154c 3700 0400 0080 0400 0080 0000 0000
000003a0: 580a ba35 0400 0080 e4df e53a 97b9 b838
000003b0: f672 1135 7537 4fbc 8e90 afbb 0400 0080
000003c0: 1e30 2e3a 637f ceb6 87b5 06b9 4a2b 9fb8
000003d0: 4288 e838 abfa 87ba 7eb3 c8ba ba0e 063b
000003e0: a97f 1080 0400 0000 0400 0000 bc0e 93b8
000003f0: 0000 0000 0400 0000 5431 153b 0a86 9fb8

exp_avg_sq f4 [20, 20]
0.0 1.645139e-07 8.59613e-07 1.3689169e-05 1.8002304e-06 6.997619e-06 1.702399e-05 2.9561283e-05
1.2604326e-11 5.511834e-13 3.458741e-14 8.910943e-06 3.880704e-08 1.6581612e-14 8.066087e-06 1.9914337e-07
1.13920136e-08 0.00011182035 1.55447e-05 1.0240327e-15 2.197386e-05 0.0 5.422005e-07 2.4236253e-05
3.7191528e-06 1.015788e-05 2.3440623e-05 4.0621802e-05 2.9173e-12 1.2508976e-13 7.633645e-15 1.4672479e-05
5.7631238e-09 3.2732705e-15 1.4362497e-05 1.0122863e-07 6.133197e-08 0.00014959043 2.346379e-05 1.1877948e-16
5.849022e-05 8.7138616e-08 0.0 4.236683e-05 3.86679e-06 2.1505384e-05 5.8076348e-05 0.0001301402
2.3800323e-11 1.310649e-12 7.2854964e-14 2.6344731e-05 2.4701858e-08 1.985623e-14 5.943681e-05 2.085652e-07
1.9358827e-08 0.0004988188 7.412965e-05 5.0044967e-16 0.00011962227 5.2504284e-08 2.6408188e-07 0.0
1.3397904e-05 4.223454e-05 7.8579906e-05 0.00032661902 1.1232726e-11 1.3403508e-12 7.1022025e-14 1.1202864e-05
1.338271e-08 3.0293205e-14 5.4991553e-05 2.663357e-07 4.1878723e-09 0.00083120225 0.00012280152 2.303328e-15
4.7399048e-05 2.2869433e-07 8.4490654e-07 2.959116e-05 0.0 1.612223e-05 3.8918417e-05 5.6708337e-05
3.3416683e-11 2.5493108e-12 1.5704018e-13 1.7223738e-05 5.0432046e-08 6.4197976e-14 1.646546e-05 5.3661387e-07
6.8745734e-08 0.0001766547 3.4696277e-05 2.7084181e-15 4.9456172e-05 4.433065e-08 3.213359e-07 2.5342833e-05
1.4129688e-06 0.0 1.2864891e-05 7.351032e-05 1.97692e-12 1.0326566e-13 5.6377683e-15 1.7991288e-05
9.6384465e-09 3.2748975e-15 1.7821401e-05 2.0423012e-07 3.973618e-08 0.00015831647 4.8570157e-05 3.7559617e-16
0.00012243674 2.5561283e-08 4.19103e-07 5.165938e-05 6.585002e-06 2.0755448e-05 0.0 0.0002818678
2.4641459e-12 2.2696844e-13 2.1347937e-14 3.0894116e-05 4.9277458e-09 1.0677707e-14 7.534567e-05 6.274881e-08
5.222913e-08 0.0006971249 0.00014589618 3.547966e-16 1.4411193e-05 2.94354e-07 1.9083911e-06 2.3648496e-05
2.6611085e-06 8.406919e-06 2.1261292e-05 0.0 2.7169161e-11 1.0699e-12 5.235355e-14 1.42896715e-05
8.13581e-08 1.461618e-14 1.1415064e-05 2.2014811e-07 1.8124636e-08 0.00012753661 1.9049452e-05 7.6447985e-16
4.9575755e-07 6.280304e-09 8.314328e-09 2.4453954e-07 6.2691285e-08 1.5003752e-07 1.719811e-07 2.1955855e-06
0.0 1.263903e-12 4.5072412e-14 1.1593232e-07 5.0334927e-09 3.012505e-14 2.8293263e-07 5.7501195e-09
4.8574345e-10 3.1352506e-06 3.1525792e-07 1.0955633e-15 1.0016418e-07 8.224122e-10 3.80656e-09 3.1283477e-08
6.0563394e-09 2.1985402e-08 1.7280117e-08 5.749364e-07 2.0170886e-11 0.0 3.382627e-14 1.5229775e-08
5.5046717e-10 6.8136385e-15 1.0518956e-07 1.5935533e-10 1.355083e-10 8.2777876e-07 9.5966946e-08 1.4782406e-16
6.2022e-08 4.0429833e-11 2.3260317e-10 1.6692425e-08 6.3977734e-09 1.7262352e-08 1.2185441e-08 3.4377427e-07
2.9119634e-12 6.280622e-13 0.0 6.7884067e-09 3.4357014e-11 2.0131412e-14 4.32693e-08 6.73924e-11
7.5011984e-12 4.5200107e-07 4.627392e-08 8.541775e-16 0.00016517624 1.3458761e-07 9.093193e-07 3.2084463e-05
1.149327e-05 5.1013016e-05 0.00010798929 0.00044272572 6.661858e-12 2.2333262e-12 7.5597216e-14 0.0
2.0254413e-08 6.545221e-14 8.4744956e-05 4.5183415e-07 5.1326055e-09 0.0011538134 0.00019174 7.2937685e-15
1.737388e-05 4.15629e-08 5.6759177e-07 2.1542324e-05 3.105564e-06 7.886623e-06 1.8378298e-05 3.6186713e-05
3.1509548e-12 1.5584439e-13 6.8515737e-15 1.2685521e-05 0.0 5.2009085e-15 1.0880079e-05 1.8408127e-07
00000000: 0000 0000 3da5 3034 28c0 6635 88aa 6537
00000010: 729f f135 17cd ea36 bdce 8e37 5ffa f737
00000020: d6bc 5d2d f324 1b2b 92c4 1b29 3580 1537
00000030: cbac 2633 985a 9528 9453 0737 1dd4 5534
00000040: 9bb6 4332 1881 ea38 fd65 8237 2394 9326
00000050: 8154 b837 0000 0000 bc8b 1135 f54e cb37
00000060: 8f96 7936 c36b 2a37 5ba2 c437 5461 2a38
00000070: 6849 4d2c abd6 0c2a f983 0928 d129 7637
00000080: f904 c631 2fdd 6b27 74f6 7037 0763 d933
00000090: 9bb5 8333 60db 1c39 1bd4 c437 84f1 0825
000000a0: 6553 7538 f620 bb33 0000 0000 0ab3 3138
000000b0: 79bf 8136 7666 b437 0197 7338 3e76 0839
000000c0: 9059 d12d 1b75 b82b 070e a429 e1fe dc37
000000d0: f62f d432 59d9 b228 ca4b 7938 f7f1 5f34
000000e0: 834a a632 2ac3 023a 0e76 9b38 ab3e 1026
000000f0: b8dd fa38 1281 6133 23c7 8d34 0000 0000
00000100: 8fc7 6037 fe24 3138 44cb a438 103e ab39
00000110: b39b 452d 3aa3 bc2b 69ed 9f29 eff3 3b37
00000120: c8e9 6532 b06d 0829 bba6 6638 e6fc 8e34
00000130: eae4 8f31 0ae5 593a 48c4 0039 e7f8 2527
00000140: 57ce 4638 058f 7534 89cd 6235 883a f837
00000150: 0000 0000 3a3e 8737 553c 2338 1dda 6d38
00000160: d7f7 122e 4d64 332c c0cf 302a b27b 9037
00000170: 9f9a 5833 9d8f 9029 4e1f 8a37 d30b 1035
00000180: 5ea1 9333 633c 3939 d886 1138 7f29 4327
00000190: 296f 4f38 1166 3e33 1284 ac34 5297 d437
000001a0: 3da5 bd35 0000 0000 49d6 5737 8d29 9a38
000001b0: 061d 0b2c 9a88 e829 3c1f cb27 ffeb 9637
000001c0: 5696 2532 32fb 6b27 2b7f 9537 594a 5b34
000001d0: 64aa 2a33 c101 2639 cfb7 4b38 3684 d825
000001e0: 5d62 0039 db91 db32 1401 e134 d6ac 5838
000001f0: bdf4 dc36 fc1b ae37 0000 0000 a8c7 9339
00000200: 1b66 2d2c 338b 7f2a fe48 c028 4e94 0138
00000210: e950 a931 3b5a 4028 e602 9e38 86c0 8633
00000220: 8952 6033 43bf 363a b5fb 1839 bd86 cc25
00000230: 9ac7 7137 b507 9e34 e911 0036 c260 c637
00000240: 7f95 3236 710b 0d37 475a b237 0000 0000
00000250: 83fb ee2d 3693 962b 89c7 6b29 acbd 6f37
00000260: 17b7 ae33 9ea6 8328 5483 3f37 da61 6c34
00000270: 7fb0 9b32 59bb 0539 63cc 9f37 a858 5c26
00000280: 3314 0535 23ca d731 cdd6 0e32 4249 8334
00000290: e6a0 8633 001a 2134 cea9 3834 df57 1336
000002a0: 0000 0000 e8e0 b12b f4fc 4a29 78f6 f833
000002b0: 12f3 ac31 d1ab 0729 f7e5 9734 9692 c531
000002c0: 2885 0530 3267 5236 b840 a934 27e3 9d26
000002d0: d719 d733 1d10 6230 dbca 8231 8c5c 0633
000002e0: 2018 d031 69da bc32 616f 9432 5455 1a35
000002f0: cc6c b12d 0000 0000 0957 1829 a1d2 8232
00000300: af4f 1730 b97c f527 92e4 e133 8a36 2f2f
00000310: 32fe 142f 8634 5e35 6316 ce33 f66d 2a25
00000320: f530 8533 f2cf 312e f9bf 7f2f 0863 8f32
00000330: 69d3 db31 5048 9432 2358 5132 fa8f b834
00000340: 45e9 4c2c a7c8 302b 0000 0000 753f e931
00000350: 8f1a 172e e053 b528 19d7 3933 8c32 942e
00000360: 65f6 032d 8eaa f234 b7be 4633 2d33 7626
00000370: 2933 2d39 2983 1034 f217 7435 6e92 0638
00000380: 38d3 4037 cff6 5538 4f78 e238 a41d e839
00000390: af64 ea2c 0728 1d2c d43a aa29 0000 0000
000003a0: edfb ad32 a162 9329 1ab9 b138 9d93 f234
000003b0: e05a b031 8e3b 973a d00d 4939 9264 0328
000003c0: 20be 9137 e482 3233 9c5c 1835 cab5 b437
000003d0: 2f69 5036 ca50 0437 182b 9a37 30c7 1738
000003e0: 8eba 5d2c 1677 2f2a 9dda f627 e6d3 5437
000003f0: 0000 0000 ea61 bb27 9589 3637 e0a7 4534

exp_avg f4 [9, 20]
0.00015774764 1.6464723e-05 1.2271141e-05 0.00018106577 5.8665017e-05 0.00020072954 0.0004925297 -0.00017222873
1.2282834e-13 6e-45 6e-45 0.00014924418 2.717857e-07 6e-45 -0.00011057851 2.4762396e-05
-4.6191926e-05 0.00046208617 -0.00016085345 6e-45 0.0001846907 -0.0002163823 0.00038965093 -0.00058726437
-0.0010776875 1.8100905e-05 0.0005279179 0.001743373 -3.8057455e-09 6e-45 6e-45 -0.00019849419
-0.00025375606 6e-45 0.0015661648 -0.00022097194 -0.00018860825 0.0012221143 0.00052094035 6e-45
0.0014371652 0.00097188907 0.0011004719 0.001763634 0.0008758274 0.0013495202 0.0026157654 0.0022617658
1.0265956e-09 6e-45 6e-45 0.0014677881 0.0003683646 6e-45 0.0007611183 0.00041415181
0.00021853954 0.006592573 0.0010830392 6e-45 -0.0029092685 -0.0019803324 -0.0030122811 -0.00075592997
-0.0020982174 -0.0046519893 -0.0037866165 -0.002048603 7.7589757e-10 6e-45 6e-45 -0.0018680767
-0.0008812867 6e-45 -0.0020600527 -0.0021467542 0.00023023352 0.00050873135 -0.0011667601 6e-45
-0.00075579766 -0.000306855 -0.00056181557 -0.0021976102 -0.00029420684 -0.00045490867 -0.0043155192 -0.0018545081
1.6188452e-10 6e-45 6e-45 -0.0016302535 -3.8634233e-05 6e-45 -0.0011177411 -0.00011493402
5.8570997e-05 -0.008506823 -0.001580864 6e-45 0.0016724579 -0.0002531296 -0.000114898794 0.0023002129
0.0012663278 0.001388992 0.0019762274 0.002196426 7.330607e-11 6e-45 6e-45 0.0016431166
-0.00032907102 6e-45 0.001709762 5.39309e-06 -0.00032948103 0.0035643107 0.0033213873 6e-45
0.0011497817 0.00086096564 0.0010415808 0.0013024942 0.0004553487 0.0012276856 0.0024354581 -0.00024225046
2.2541938e-12 6e-45 6e-45 0.0013254329 0.00027696232 6e-45 0.00044901518 0.0010066269
0.000115735726 0.0006710605 0.00022521922 6e-45 0.0021252425 0.0014705003 0.001729795 0.0027478477
0.0013060445 0.0011720619 0.0020528878 0.00091658416 1.7580327e-09 -6e-45 -6e-45 0.0028710235
0.0011193034 -6e-45 0.0021588271 0.0014303356 0.00025248216 0.0025049883 0.0017190315 -6e-45
-0.0030620175 -0.00056311965 -0.00058477273 -0.0047544474 -0.00049210124 -0.00025019096 -0.001998647 -0.0028005573
7.651609e-12 6e-45 6e-45 -0.003759779 -0.00026215363 6e-45 -0.0033565136 -0.00039860912
-0.00031128063 -0.007019037 -0.003961138 6e-45
00000000: 0f69 2539 b91d 8a37 26e0 4d37 79dc 3d39
00000010: 150f 7638 ed7a 5239 1c1d 013a 4c98 34b9
00000020: dc4a 0a2a 0400 0000 0400 0000 6e7e 1c39
00000030: f1e9 9134 0400 0000 63e6 e7b8 d7b8 cf37
00000040: 34be 41b8 2844 f239 c5aa 28b9 0400 0000
00000050: 88a9 4139 aee4 62b9 104a cc39 a5f2 19ba
00000060: 3141 8dba 66d7 9737 f863 0a3a e481 e43a
00000070: b1c3 82b1 0400 0000 0400 0000 e122 50b9
00000080: 900a 85b9 0400 0000 c547 cd3a b4b4 67b9
00000090: 24c5 45b9 5a2f a03a b78f 083a 0400 0000
000000a0: 435f bc3a 5fc6 7e3a b63d 903a bd29 e73a
000000b0: c897 653a 62e2 b03a 436d 2b3b 223a 143b
000000c0: 1f18 8d30 0400 0000 0400 0000 cc62 c03a
000000d0: 0f21 c139 0400 0000 c985 473a 8422 d939
000000e0: c327 6539 8306 d83b c4f4 8d3a 0400 0000
000000f0: 6da9 3ebb 77c8 01bb b169 45bb 9a29 46ba
00000100: 3f82 09bb b76f 98bb e228 78bb db41 06bb
00000110: f046 5530 0400 0000 0400 0000 41da f4ba
00000120: 2606 67ba 0400 0000 f301 07bb 8fb0 0cbb
00000130: d76a 7139 625c 053a f9ed 98ba 0400 0000
00000140: b920 46ba 62e1 a0b9 ce46 13ba c805 10bb
00000150: c63f 9ab9 cf80 eeb9 3369 8dbb f712 f3ba
00000160: 71fe 312f 0400 0000 0400 0000 3bae d5ba
00000170: 310b 22b8 0400 0000 2b81 92ba bb08 f1b8
00000180: 21aa 7538 3460 0bbc fe34 cfba 0400 0000
00000190: 6036 db3a 7bb6 84b9 d2f5 f0b8 2bbf 163b
000001a0: e9fa a53a d60e b63a 9883 013b eaf1 0f3b
000001b0: a633 a12e 0400 0000 0400 0000 d85d d73a
000001c0: 2a87 acb9 0400 0000 181a e03a 4af6 b436
000001d0: 32be acb9 3697 693b a2ab 593b 0400 0000
000001e0: 46b4 963a 6db2 613a a785 883a 74b8 aa3a
000001f0: debb ee39 4bea a03a 359c 1f3b 9d04 7eb9
00000200: f29f 1e2c 0400 0000 0400 0000 26ba ad3a
00000210: 4135 9139 0400 0000 cc69 eb39 cbf0 833a
00000220: 25b7 f238 1cea 2f3a d328 6c39 0400 0000
00000230: a747 0b3b cdbd c03a 4aba e23a 3c15 343b
00000240: 952f ab3a df9f 993a be89 063b ec46 703a
00000250: 479f f130 0400 0080 0400 0080 c827 3c3b
00000260: 97b5 923a 0400 0080 1c7b 0d3b 197a bb3a
00000270: 955f 8439 bb2a 243b 2051 e13a 0400 0080
00000280: 21ac 48bb 529e 13ba 6f4b 19ba 32cb 9bbb
00000290: 5b00 01ba 102c 83b9 bcfb 02bb 8e89 37bb
000002a0: c99b 062d 0400 0000 0400 0000 a066 76bb
000002b0: aa71 89b9 0400 0000 f4f8 5bbb 69fc d0b9
000002c0: 6133 a3b9 f3ff e5bb 6fcc 81bb 0400 0000
