checkpoints/RNN_160.pt (torch, 111359 bytes, 9 tensors)

snn.l1.input_weights f4 [20, 416]
000000 ac 17 d1 bd 85 fc 09 3f b6 89 cb 3d 9f bd 4c 3e
       -0.10209593 0.5390094 0.09938376 0.1999421
000010 5f 7a ee be 51 6f 11 3e 41 c8 83 be f3 b1 e8 3e
       -0.46577737 0.1420262 -0.2573872 0.45448264
000020 f8 ab cd bd 1d 11 21 3f ba c0 34 3e 05 bf 86 be
       -0.10042566 0.6291674 0.17651644 -0.2631761
000030 1d 9c 33 bd f6 fa 32 bf e8 52 54 3e 57 f3 2b 3e
       -0.043850053 -0.69914186 0.20734751 0.16792046
000040 3c a4 0e bf b5 8b 88 be 11 e0 05 be f1 ee 6c be
       -0.5571935 -0.26669088 -0.13073756 -0.23138024
000050 c4 cd c7 3e a0 4b e9 bd ce b6 6e 3e 52 c4 1a 3f
       0.39024174 -0.113913774 0.23311922 0.6045581
000060 ee bd 07 3e b5 01 e5 3e 6f 19 95 3d 96 c5 a2 3e
       0.13256046 0.44727865 0.07280242 0.3179137
000070 71 c3 00 3f 49 30 1c bd 32 9e 08 3f 1d 8e 26 3f
       0.5029822 -0.038131986 0.53366387 0.650606
000080 07 d2 82 3d 94 4c f5 be dd c0 c8 be 8e 9d f2 3d
       0.06387716 -0.47909987 -0.39209643 0.118464574
000090 8f 18 5f 3f 8d 16 ea bc 42 30 aa be 02 e3 95 3d
       0.8714685 -0.028575206 -0.33239943 0.07318689
0000a0 ab b7 f5 be d0 69 2d 3f 1b 06 64 be 74 58 2b 3f
       -0.4799169 0.6773958 -0.22267954 0.66931844
0000b0 bc 96 ee 3e 0a eb ca 3e bd 1a f4 3e a4 b9 04 3e
       0.46599376 0.39632446 0.4767665 0.12961441
0000c0 f1 41 07 3e de 7d 5b bf 83 f4 80 be 39 7a 8c 3c
       0.13208748 -0.85738933 -0.25186548 0.017148124
0000d0 a4 e5 9a 3f 44 b3 51 3f 8c df e5 3e f8 49 68 3f
       1.2101331 0.8191416 0.44897115 0.9073787
0000e0 67 65 17 3f d5 99 55 3f 4a f5 7f 3f ed 60 93 3f
       0.591391 0.83437854 0.99983656 1.1513954
0000f0 bc 75 8e 3f 8e e1 0b 3f 92 39 8c 3f eb 6b 1d 3f
       1.112968 0.54641044 1.0955069 0.61492795
000100 fa e9 a4 3f 7d b2 8e 3f d2 cc 9b 3f 15 22 ad 3f
       1.2883904 1.114822 1.2171881 1.3526026
000110 0b 36 96 3f ee f1 39 3f 6c 7c 25 3e 64 5a e8 3e
       1.1735243 0.7263478 0.16160744 0.45381463
000120 3c 8f 65 3f ff f9 86 3f 6d 52 12 3f 01 e3 42 3f
       0.89671683 1.0545043 0.5715702 0.7612763
000130 ea fb 8a 3f cb 69 e1 3e d4 ae a1 3f d2 90 48 3f
       1.0858128 0.44026026 1.2631478 0.7834598
000140 28 a1 a0 3f 3c 55 a6 3f 82 a7 45 3f 24 fa a6 3f
       1.2549181 1.2994761 0.7720872 1.3045087
000150 fd 1e 81 3f de 62 62 3f 88 5a 12 3f 48 a4 30 3f
       1.0087582 0.8843211 0.5716939 0.69000673
000160 90 89 3f 3f cd d7 4f 3f b0 9c 3f 3f 99 85 91 3f
       0.7481928 0.8118866 0.7484846 1.1368896
000170 40 1b a1 3f c3 a6 4d 3f 8d a7 80 3f e1 9d 41 3f
       1.2586441 0.80332583 1.0051132 0.7563153
000180 1b e1 38 3f 60 3e b4 3f b5 0f 50 3f 4a d3 b2 3f
       0.72218484 1.4081535 0.8127397 1.397073
000190 8d 80 df 3e 67 e4 c0 3d 6b e9 55 3f ce fe 81 3f
       0.43652764 0.09418564 0.8355929 1.0155885
0001a0 40 30 10 40 bf 52 0d 40 6b d6 cc 3f 49 1d d8 3f
       2.252945 2.2081754 1.6002935 1.6883937
0001b0 c9 57 0e 40 08 a7 23 40 01 4b ae 3f f9 09 10 40
       2.224108 2.5570698 1.3616639 2.2506087
0001c0 f2 9c a3 3f 5a 35 02 40 50 c4 0e 40 ea a2 22 40
       1.2782271 2.0345063 2.230732 2.5411935
0001d0 3c 93 18 40 f8 a9 de 3f e4 25 bc 3f 9f 02 03 40
       2.3839865 1.739562 1.4699063 2.047035
0001e0 56 4e 09 40 4e ea e4 3f e9 25 ea 3f 7e 7c ff 3f
       2.1454062 1.7884004 1.8292819 1.9959867
0001f0 c9 a9 07 40 18 09 09 40 bc ee bc 3f 38 ea d3 3f
       2.1197379 2.14118 1.4760356 1.6555853
000200 39 a7 b5 3f c6 f1 06 40 eb 76 0b 40 45 6c 29 40
       1.4191657 2.1085067 2.1791332 2.6472332
000210 b3 2a 14 40 40 81 db 3f 00 3c d3 3f 06 51 b7 3f
       2.3151062 1.7148819 1.6502686 1.4321601
000220 8a 1e 03 40 9d 66 f7 3f bf 3a d1 3f c2 d0 fe 3f
       2.048739 1.932819 1.6346053 1.9907458
000230 f1 3c f1 3f ba 72 e3 3f 1c c1 d6 3f f8 93 e3 3f
       1.8846723 1.7769387 1.6777682 1.7779531
000240 83 ee 99 3f 9a 00 1e 40 ae b7 10 40 12 f1 44 40
       1.2025913 2.4687867 2.261211 3.0772138
000250 56 bd 1f 40 59 fd d1 3f 11 9d b6 3f 46 04 de 3f
       2.4959311 1.640544 1.4266683 1.7345054
000260 70 83 18 40 93 5f ea 3f 99 ff d2 3f 57 ae 2a 40
       2.3830223 1.8310417 1.6484252 2.6668909
000270 0b 87 20 bf cf 8e ab 3e 5f 1e eb 3e 60 3d 76 3e
       -0.6270606 0.33507392 0.4592161 0.2404685
000280 b1 26 c5 3e cb dc e0 3d 8a c4 3b 3f 1d 4b 9e 3f
       0.38506082 0.10979613 0.7334677 1.2366673
000290 f1 89 5c 3f 35 9e 0a 3f 71 c9 5c 3f ce 90 1e 3f
       0.8614798 0.54147655 0.86244875 0.61939704
0002a0 18 40 b1 3e 64 6b 80 3e f8 3a 83 3e df 67 fa bd
       0.34619212 0.25081933 0.25630927 -0.12226843
0002b0 38 2e ac be d8 27 a6 3e e2 84 e4 3d b3 29 61 3d
       -0.33629012 0.32452273 0.11158158 0.054971408
0002c0 3f 5c 76 3d b8 9c 00 3e fe 6c 5b 3f cc 1e 6e 3f
       0.060146566 0.12559783 0.85713184 0.9301574
0002d0 fb e0 16 3f 49 1e 54 3d e5 db e6 bd d4 79 53 3f
       0.5893704 0.051786695 -0.1127241 0.8260777
0002e0 63 c1 13 3f c7 d4 cf bc f7 aa 40 3f d3 8e f5 3e
       0.5771696 -0.025370015 0.7526087 0.4796053
0002f0 44 1d 67 be a8 af 43 3e 73 ae aa 3e 33 82 43 3e
       -0.22569758 0.19109976 0.3333622 0.19092636
000300 c6 cf 06 3e 1f 04 92 be f4 0a 7c 3f 62 54 55 3f
       0.13165197 -0.2851877 0.98454213 0.8333188
000310 7b 3c 0a 3f 9a 69 94 3e cd 3f 08 3c 77 6f 45 3f
       0.53998536 0.28986818 0.008315993 0.77123207
000320 7b 56 b3 3e 59 8a 9e 3e 85 21 32 3f d6 08 0b 3f
       0.35026917 0.30964926 0.69582397 0.5431036
000330 1d 7f 84 3e 7e 5a 08 3f a2 b4 e8 3d 14 fd f7 3e
       0.2587823 0.5326308 0.11362578 0.4843527
000340 b3 80 5b bd 95 71 61 3e bd 07 59 bd c3 d7 8e be
       -0.053589534 0.22015984 -0.052985895 -0.27898988
000350 82 a9 4c 3e 66 e0 fa bc c7 88 47 bf 67 77 b9 bd
       0.19986537 -0.03062458 -0.7794308 -0.09055977
000360 24 9d 63 be 14 44 ab bd 04 d7 9e 3c 88 73 cf be
       -0.22227913 -0.08362594 0.019389637 -0.4051783
000370 3f 67 b4 3e ec 16 2d bf 7e 0b 38 bf 1d 48 e4 be
       0.3523502 -0.676131 -0.71892536 -0.44586268
000380 6c e9 8a be 7c 23 e7 3e de 9f 57 be e6 92 72 be
       -0.27131212 0.4514426 -0.21057078 -0.2368885
000390 a9 81 fc 3e 0c d0 c7 be b6 fb 69 bf ba bc 1f 3e
       0.49317673 -0.39025915 -0.91399705 0.15599337
0003a0 9e ce cc be 71 c3 80 be 45 d0 54 3d c3 c0 7f be
       -0.40001386 -0.2514911 0.051956434 -0.24975877
0003b0 88 23 e6 3e 8e 38 33 3d 3b 07 e1 be 41 f5 19 bf
       0.44948983 0.043755107 -0.4395083 -0.6013985
0003c0 56 6a a9 be f5 b1 97 be d9 4c 33 be 2e a9 bf be
       -0.3308894 -0.29627958 -0.17509784 -0.3743376
0003d0 fb 08 9a 3e 42 ba 4d bf 7a 97 23 bf 75 06 34 3f
       0.30084977 -0.8036233 -0.6390301 0.7032235
0003e0 6d 01 86 be 0b 7b a9 bd 6e 92 1c 3e b6 27 f4 be
       -0.26172963 -0.08275422 0.15290233 -0.47686547
0003f0 65 e3 23 be 75 41 20 3e 52 f8 04 bf 9a a6 23 bf
       -0.16004713 0.1564997 -0.51941407 -0.6392609

snn.l1.recurrent_weights f4 [20, 20]
000000 00 00 00 00 d0 76 b0 40 de cc 05 40 97 dd 98 40
       0.0 5.5145035 2.090629 4.7770495
000010 e9 59 47 ba 74 9e fe bf 94 41 59 bf 00 b6 5a c0
       -0.0007604645 -1.9892106 -0.8486569 -3.4173584
000020 a3 a8 be 40 ae af 34 40 e5 b0 56 40 58 c9 c5 40
       5.9580855 2.8232226 3.3545468 6.180828
000030 64 b5 ce 40 1d b7 5b 40 ee e8 cb bf e6 53 3a 3f
       6.4596424 3.4330513 -1.593046 0.7278427
000040 57 2f b1 40 c9 c5 ab c0 be d0 f5 3f 75 78 52 3f
       5.537029 -5.3678937 1.9204328 0.8221505
000050 78 13 08 3f 00 00 00 00 42 92 81 41 8c c9 2e 41
       0.53154707 0.0 16.196415 10.924206
000060 b9 17 fc bf 6c 05 bf 40 b0 91 63 41 60 09 9d c0
       -1.969474 5.969412 14.223068 -4.9073944
000070 67 a0 d0 40 db 7e 82 40 77 7b 64 40 66 74 37 41
       6.5195804 4.0779853 3.5700357 11.465918
000080 9e 57 53 41 db e2 94 40 32 1f 96 3e fd 5b fc 40
       13.208891 4.6526923 0.29320675 7.886229
000090 84 3d 6e bf a9 74 92 40 c8 54 41 3f 38 fa f2 3f
       -0.93062615 4.5767407 0.7551999 1.8982611
0000a0 d5 41 09 3f d1 11 02 41 00 00 00 00 43 f9 01 41
       0.53616077 8.12935 0.0 8.123355
0000b0 36 6b 4c c0 85 26 a8 40 0f 12 15 41 d6 cd 0e c0
       -3.1940436 5.254702 9.316909 -2.2313132
0000c0 9b 1e 04 40 c4 26 96 40 bd 5d f5 3f f7 5e 27 41
       2.064368 4.692232 1.9169232 10.460685
0000d0 fd ef 13 41 68 fe 82 40 ba 44 67 40 33 70 c2 40
       9.246091 4.0935555 3.6135697 6.076196
0000e0 e3 68 81 bf 50 5e cc 40 82 24 11 40 19 fd 3a 40
       -1.0110134 6.3865128 2.2678533 2.9216979
0000f0 be 62 58 3f cb fd 3f 40 f4 ea 45 40 00 00 00 00
       0.8452567 2.9998653 3.0924654 0.0
000100 9a 6e aa 3e dc 6f c9 bf dd fe e3 40 25 96 e1 3f
       0.33287507 -1.5737262 7.1248612 1.7623945
000110 b2 51 87 40 8e 5e 55 3f 62 cf 2a 40 25 86 9c 41
       4.2287226 0.83347404 2.6689076 19.5655
000120 2a d4 a8 40 5e fe b9 3f e5 27 ec 3f 1e 3b 4c be
       5.275899 1.4530752 1.8449675 -0.19944426
000130 b1 4a 74 40 3c 84 f2 40 e7 6d d5 40 68 e7 be be
       3.8170588 7.578642 6.669666 -0.37285924
000140 40 99 14 c0 d4 76 64 40 42 3d 62 40 6f c9 02 41
       -2.3218536 3.5697527 3.5349889 8.174178
000150 00 00 00 00 2a 31 1c c0 a7 5e 1b 40 9f 4b 93 c0
       0.0 -2.4405007 2.4276521 -4.602981
000160 a5 10 ab 40 59 b2 c4 3f bf ca 35 40 29 5f e4 40
       5.345782 1.5366927 2.8404996 7.136616
000170 a5 e9 ad 40 f1 10 c7 3f 07 3d b3 bf 43 27 98 bf
       5.434771 1.5552045 -1.4002999 -1.1886982
000180 51 2e ac 3e b3 e7 f5 bf 77 08 5c c0 64 e4 19 be
       0.33629087 -1.9211334 -3.4380167 -0.1502853
000190 9f ee 40 bf ce d6 8a 40 3b 40 d3 40 fd 00 40 bf
       -0.75364107 4.3387213 6.6015906 -0.7500151
0001a0 0f b9 d9 bd 00 00 00 00 8e ad fc 3f 65 0f 92 3e
       -0.10631 0.0 1.9740465 0.2852737
0001b0 03 aa a7 40 ce ee 2e 40 6a 70 3c 40 04 76 ad 3f
       5.2395034 2.7333255 2.9443612 1.355164
0001c0 f1 f1 b3 40 5f d9 83 40 31 39 97 40 43 0b b9 3f
       5.623284 4.1202846 4.7257314 1.4456562
0001d0 16 c0 e0 3e b5 2c fa be 55 7f 1b 40 87 70 91 3f
       0.4389655 -0.48862234 2.4296467 1.1362466
0001e0 5d a2 d2 3f 8e 80 c2 40 0e 39 da 40 8b c8 c2 40
       1.6455799 6.0781927 6.8194647 6.0869803
0001f0 99 1c c6 bf bd f6 ab 40 00 00 00 00 0c d3 fa 3e
       -1.5477477 5.3738694 0.0 0.4898914
000200 f5 95 23 40 9a 86 de 3f f6 55 2e 3f 5f 07 a9 40
       2.5560277 1.7384827 0.68099916 5.28215
000210 aa 06 93 40 8e 79 f1 3f 16 fa 9d 3f d6 19 66 40
       4.5945635 1.886522 1.2341945 3.595327
000220 94 d8 23 c0 96 7f 03 41 96 82 71 40 ab 9d a8 3f
       -2.5600939 8.218649 3.7735953 1.3173116
000230 fd db dd bf a3 89 06 41 c4 c6 79 40 7b 62 ab bd
       -1.733276 8.408603 3.9027567 -0.08368393
000240 78 72 9f 40 d2 07 16 c0 58 62 e2 c0 00 00 00 00
       4.982723 -2.3442273 -7.074505 0.0
000250 00 81 be 40 6d ae dd 3f d6 43 3f 40 45 bd 54 40
       5.953247 1.7318856 2.9885154 3.324052
000260 46 0b 03 41 59 16 62 40 db 2a 70 c0 29 60 64 40
       8.190252 3.532614 -3.7526157 3.5683692
000270 9f f8 19 40 ff f4 13 c1 8a 0a 3c c0 07 24 9d 3f
       2.4057996 -9.2473135 -2.9381433 1.227662
000280 62 2c 39 c1 4a be 95 40 1f 65 80 40 78 7c 56 40
       -11.573336 4.6794786 4.012344 3.351347
000290 0e f4 0e c1 68 f3 0b c1 3e 61 43 c0 1d 02 6f c1
       -8.934584 -8.746925 -3.0528102 -14.938016
0002a0 00 00 00 00 0c 04 4b be a9 93 74 40 f2 1c e0 3f
       0.0 -0.19825763 3.8215125 1.7508833
0002b0 fb 02 0d 41 c4 19 06 40 a9 f0 17 c1 71 a4 05 c0
       8.813228 2.0953226 -9.496255 -2.0881617
0002c0 ac 5a 52 c0 84 6b 29 c1 af 8d 24 c1 a6 3d c9 bf
       -3.2867842 -10.588749 -10.284591 -1.5721939
0002d0 8d f0 3e c1 d4 f8 a3 40 57 9f eb 40 2c 57 75 c0
       -11.933728 5.1241245 7.3632007 -3.8334455
0002e0 27 7b 35 c1 2d 50 fd c0 f2 84 b0 c0 f3 31 78 c1
       -11.3425665 -7.916037 -5.5162287 -15.512195
0002f0 c4 e9 bf 40 00 00 00 00 3f e7 63 40 a3 c1 02 c0
       5.997286 0.0 3.5609891 -2.0430686
000300 2f cf f9 40 49 b2 98 40 b6 17 cd c0 ee 22 4a c0
       7.806541 4.7717633 -6.4091444 -3.158382
000310 9d 9a 8e bf 1a 1d 25 c1 9c 5d 1b c1 22 c0 98 3f
       -1.1140934 -10.319605 -9.710354 1.1933634
000320 d7 70 66 c1 e4 6e c6 3f 8d 4c a1 40 a4 8d 87 bf
       -14.402549 1.5502591 5.0405946 -1.05901
000330 4e 21 1e c1 63 f2 2c c1 38 2f 07 c1 48 d2 8a c1
       -9.883131 -10.809176 -8.449028 -17.352676
000340 ba cc ec 40 ac 1f 30 40 00 00 00 00 b2 d6 da bf
       7.399991 2.751933 0.0 -1.709677
000350 71 2f cf 40 92 dd 66 40 a7 0b 29 c1 d5 a4 ea c0
       6.474541 3.6072736 -10.565345 -7.332621
000360 3b 0a 73 c0 61 06 5e c1 f4 81 34 c1 d3 23 df be
       -3.7974994 -13.876557 -11.281727 -0.4358202
000370 59 3c 98 3f ca 72 56 3f 73 d0 e6 3f f8 0a 66 41
       1.1893417 0.83768904 1.8032364 14.377678
000380 18 53 ef bf 95 79 b7 3f af 77 9f 40 3b e7 98 3f
       -1.8697233 1.4333979 4.98336 1.1945566
000390 6a 62 e6 3f 24 b9 49 3e 9a 17 3c 3f 00 00 00 00
       1.7998784 0.19699532 0.73473513 0.0
0003a0 ab ad 6d 40 08 4c e7 3f 43 d2 28 3f dd 78 fb 3e
       3.7137249 1.8070078 0.65945834 0.4911565
0003b0 cf f7 10 3f 6a e6 bf 40 ed c0 b2 40 e6 4d 8a 3d
       0.56628126 5.9968767 5.5860505 0.06753139
0003c0 a9 19 a1 c0 30 94 1e 41 34 9d 25 41 2f 27 e3 40
       -5.0343823 9.911179 10.35088 7.098533
0003d0 ed 1f c6 c0 3d 38 c7 be 2d ba d0 40 3e 7a 16 c1
       -6.191397 -0.38910094 6.5227265 -9.404844
0003e0 3b 67 ef 40 65 55 d9 3f 21 02 94 40 f7 57 e3 40
       7.4813514 1.6979185 4.62526 7.104488
0003f0 00 00 00 00 53 e9 7b 40 b5 1b ac c0 fc c3 0e 40
       0.0 3.936116 -5.378382 2.230712

snn.fc_out.weight f4 [9, 20]
000000 05 8a 34 c0 c4 85 aa bf 5d bf 24 c0 99 20 0e c1
       -2.820924 -1.3322072 -2.57418 -8.882958
000010 6d 82 44 3f 80 56 1a c0 cf d1 cb c0 43 6d e7 40
       0.76761514 -2.4115295 -6.3693614 7.2320876
000020 53 6f 56 c0 01 66 98 bd 6c 5c ad bf a4 97 09 c1
       -3.3505447 -0.07441331 -1.354383 -8.599522
000030 8e 7e 1a c0 7f a6 a6 bf e5 c9 95 3f 1a 71 b9 3f
       -2.4139743 -1.301956 1.1702238 1.4487641
000040 bf 2e aa 40 f9 cb 89 bf 49 b9 c7 3e 37 5c 68 be
       5.3182063 -1.0765373 0.3900855 -0.22691427
000050 a8 97 31 c0 51 05 3a 40 7e 30 fb 40 06 52 4e c0
       -2.7748814 2.9065745 7.8496695 -3.2237563
000060 80 8f a7 bf 00 77 9d 3f b3 88 33 3e cb 0e 07 c0
       -1.3090668 1.2301941 0.17532615 -2.110278
000070 10 ad 0d 3f fc 14 26 40 d9 77 f4 3f 29 c9 b0 bf
       0.553422 2.5950308 1.9099075 -1.3811389
000080 95 df 1d 40 11 c8 ac 3f d9 2b 25 40 9c fa 91 c0
       2.4667714 1.3498555 2.5808012 -4.561842
000090 cc ee b6 bf e1 8b e7 3f e1 17 d6 3c 16 19 d7 3f
       -1.4291625 1.8089563 0.026134433 1.6804531
0000a0 63 76 2b 40 fa de ee 3f 5d 86 14 bf 36 24 aa bf
       2.6791008 1.8661797 -0.5801752 -1.3292301
0000b0 e3 0e a6 40 ec 0b 03 3f bd e7 10 3f e8 7c 1c 3f
       5.189317 0.51190066 0.56603605 0.6112809
0000c0 72 42 85 40 ce 5f 36 3e dd 00 fa 3f 2b f5 44 c0
       4.164361 0.17809984 1.9531513 -3.0774639
0000d0 4c 31 e7 3f 27 a6 1f 3f be c4 71 3f 7d 2c 27 40
       1.8061919 0.62362903 0.9444083 2.6120903
0000e0 41 0a a9 c0 50 8b 63 c0 21 a6 56 c0 47 9d 3d 3f
       -5.2825017 -3.555378 -3.3538897 0.7406811
0000f0 b8 2a e9 3f 1f f6 c6 bf ca fe 1e bf 13 eb bf c0
       1.8216162 -1.554386 -0.6210753 -5.9974456
000100 8b f1 c5 bf b4 f8 80 40 d3 19 80 bf 59 f7 9e 3f
       -1.5464338 4.0303593 -1.0007881 1.2419235
000110 5f 32 e0 bd f1 5f b7 3f 5f b4 f1 3e 40 e8 c0 bf
       -0.109471075 1.4326154 0.47207925 -1.5070877
000120 33 e9 d0 3e 7d ed cd 3f 48 f9 47 40 3c 35 5b 40
       0.40802917 1.6088101 3.12459 3.4251242
000130 40 62 4d 40 ed 50 29 c0 e9 5b e9 3e d2 48 93 3f
       3.2091217 -2.6455643 0.45577934 1.1506598
000140 2c 03 aa bf c0 4d 51 40 12 60 67 3e 8b bd 70 c0
       -1.3282218 3.2703705 0.22595242 -3.7615688
000150 4f de 29 bf 65 c5 d5 bf a4 4a a5 40 3f 55 48 bf
       -0.6635484 -1.6700865 5.1653614 -0.78255075
000160 b6 e4 1d c0 8f c8 3c bf 90 48 f6 bf dc ec e8 c0
       -2.4670844 -0.7374353 -1.9240894 -7.2789135
000170 7a c2 92 3f 22 38 d7 bf d9 ad e2 bf bd d4 bc 3f
       1.14656 -1.6814005 -1.7709304 1.4752423
000180 39 44 fe bf 4a 7e 7a 40 5a 7b 2e bf 8d 96 a4 bf
       -1.986457 3.913958 -0.6815697 -1.2858444
000190 06 e2 21 40 07 b9 92 bf 8c 98 5e c0 3f d6 50 3f
       2.5294204 -1.1462716 -3.4780607 0.81576914
0001a0 3b 73 12 c0 f5 72 5d c0 37 17 1d c0 d5 5e 1d bf
       -2.288283 -3.4601414 -2.454542 -0.6147283
0001b0 cb 84 86 c0 3a 4e 74 bf f4 0c 28 c0 b5 0c d3 3f
       -4.20371 -0.95431864 -2.6257906 1.6488253
0001c0 a4 fe 1f c0 99 e8 02 bf 04 b8 6b c0 33 51 11 3f
       -2.499917 -0.51136166 -3.6831064 0.56764525
0001d0 d0 58 61 40 cd 21 14 3d ab 4a 14 be 1a 01 fa be
       3.5210457 0.036165047 -0.14481609 -0.48828965
0001e0 27 78 01 c1 4f 34 19 c1 e4 c1 16 c1 2b ca 9f 40
       -8.091834 -9.575271 -9.422337 4.9934287
0001f0 4b f8 98 c0 24 d0 ed 3f 25 41 0c bf b0 24 ff 3a
       -4.780309 1.8579144 -0.547869 0.001946589
000200 c7 96 b8 c0 29 c2 02 c1 e2 4d de c0 15 7f 9b 40
       -5.7684054 -8.172402 -6.947007 4.859263
000210 79 2a c2 c0 57 65 c9 c0 dd 8c f4 c0 97 fe 50 c0
       -6.0676847 -6.2936206 -7.642195 -3.265539
000220 c3 d0 44 c0 c7 5a 8e 3f 93 03 12 bf 03 a5 83 c0
       -3.0752418 1.1121453 -0.57036704 -4.113893
000230 e2 15 68 c0 5c 66 2f c0 86 f6 ca c0 e9 c0 04 41
       -3.6263356 -2.7406225 -6.342593 8.297097
000240 d9 66 0a 40 e2 eb 15 c0 6d c8 c5 bf 83 a7 95 c0
       2.1625273 -2.3425221 -1.545179 -4.676698
000250 a9 6a 69 40 ed 51 3f c0 2a 41 07 40 98 f8 44 40
       3.647135 -2.9893754 2.1133523 3.077673
000260 91 4d 75 3e 29 ab b3 bf ad 2e 91 c0 ac 09 0e c1
       0.2395537 -1.4036609 -4.5369477 -8.877361
000270 38 8b b8 c0 66 f7 8b be 8d c3 92 3f b1 00 59 c0
       -5.7669945 -0.27337188 1.1465927 -3.3906672
000280 b4 bb 27 c0 b9 50 50 c1 27 34 2a c0 e9 4a 9d 40
       -2.6208315 -13.019708 -2.6594331 4.9153943
000290 76 30 08 c1 45 f7 13 c1 77 1e 15 c1 36 08 f7 3d
       -8.511831 -9.247869 -9.319938 0.12062113
0002a0 6e 74 08 c1 21 e5 62 c0 21 d3 97 c0 fd 64 b0 40
       -8.528425 -3.545235 -4.7445226 5.5123277
0002b0 1e a9 49 c1 3b 77 89 c0 a2 dc 0a 40 dd 4f be c0
       -12.603788 -4.2958045 2.1697164 -5.947249
0002c0 da f5 8b 3d b0 26 cd 3f 9e 23 c3 3e 41 d7 04 bf
       0.06834002 1.6027431 0.3811311 -0.5189095

exp_avg f4 [20, 416]
000000 01 7b 24 bb 59 ee 48 3a 77 b6 f6 ba 04 fe 81 3a
       -0.002509773 0.0007664911 -0.0018822689 0.0009917622
000010 95 ee 37 bb d9 0c 42 3b 6f 8c db 3a 44 4d c9 ba
       -0.002806579 0.0029609709 0.0016750226 -0.001535811
000020 fa 6c b6 3a 9d df 16 bc 0b 4c d8 39 dd 50 25 3b
       0.0013917976 -0.009208587 0.00041255387 0.00252252
000030 8b e6 0c bb 34 e2 2b b8 9b ec e0 ba bd 01 ae bb
       -0.002149972 -4.0980245e-05 -0.0017160358 -0.005310266
000040 48 f5 a7 ba b6 c0 58 bb bd 65 bb ba ad d6 25 38
       -0.0012814188 -0.003307385 -0.0014297288 3.9538998e-05
000050 52 59 18 3a 0e 5c e2 3a d9 3f d6 ba 7c c9 03 38
       0.00058116496 0.0017269866 -0.0016345932 3.142048e-05
000060 b4 9f d0 b7 d3 74 61 3a 76 1a a3 ba 05 d6 49 3a
       -2.48699e-05 0.0008600477 -0.0012443799 0.0007699433
000070 85 24 07 b9 5d 3a 0d 3b a7 53 2b bb a6 e1 a9 38
       -0.00012888208 0.002154968 -0.002614239 8.100578e-05
000080 ee 8f 9e 3a a9 eb 8c ba 67 a6 cb bb a3 b8 0c 3b
       0.0012097338 -0.0010751385 -0.006214905 0.0021472357
000090 a9 bc 31 3a 99 fb 3e bb e4 73 3c 3b c6 c1 8c bb
       0.0006780127 -0.0029141663 0.00287556 -0.0042955605
0000a0 f1 c8 3c 3a e8 b9 4a bb 6b cd 66 3b bd e1 9f 39
       0.00072015735 -0.0030933563 0.0035217653 0.0003049503
0000b0 dd 08 01 ba 82 02 95 3a 09 b0 d7 b9 e4 3f 53 bb
       -0.000492228 0.0011368545 -0.00041139152 -0.0032234127
0000c0 d8 ce 22 ba 44 0a a1 3b 60 74 26 3b e9 24 7c ba
       -0.00062106317 0.004914554 0.0025398955 -0.0009618537
0000d0 0e 24 5f ba e3 a4 9a 3a 6e f1 49 bb 6f 81 14 39
       -0.00085121475 0.0011798408 -0.003081407 0.00014162598
0000e0 0d 1c a8 37 d0 68 54 3b dd 25 38 3a 57 3a f3 ba
       2.0040223e-05 0.0032411106 0.0007024685 -0.0018556815
0000f0 a5 97 12 3b d5 41 fe ba 2e a6 c9 b9 d7 ab ff 3a
       0.002236822 -0.0019398282 -0.0003846152 0.0019506168
000100 4e c0 c1 bb a8 f5 92 38 57 ef 0d ba ad 3c 63 bb
       -0.005912817 7.0075796e-05 -0.00054143876 -0.0034673617
000110 96 5b 3c 3a 88 31 17 bb ef b7 4c bb 58 ac 2f 3b
       0.0007185278 -0.0023070294 -0.0031237563 0.0026805606
000120 81 12 a2 b8 04 60 f0 ba 8f 11 0a ba 1b 29 5d bb
       -7.7282086e-05 -0.0018339162 -0.00052668987 -0.0033746425
000130 44 71 48 bb 6c 0c 45 bb 8b 97 71 b9 7f 2e dd 39
       -0.003058509 -0.0030067218 -0.00023040005 0.00042187047
000140 a3 57 1a 3a dd 2d 95 b8 5f dd e9 ba 9d cc f8 b9
       0.00058876927 -7.113416e-05 -0.0017842463 -0.00047454695
000150 de a0 44 3a e1 44 a0 b9 b5 cd 03 bb 28 03 48 b9
       0.0007500778 -0.00030568897 -0.0020111625 -0.00019074662
000160 36 4e c2 b8 2c fa a3 ba ef 08 fe 3a bd 69 d2 39
       -9.265209e-05 -0.001251047 0.0019381325 0.00040133102
000170 ce 41 55 3a 09 0f 55 ba db ef ad ba 0a 49 11 3a
       0.0008135111 -0.00081275456 -0.0013270335 0.00055421947
000180 78 e0 02 bb 70 38 be 3a 3a a9 b4 3a ee 59 18 ba
       -0.001997022 0.0014512669 0.0013783344 -0.00058117404
000190 8a c4 b7 3b 58 10 cc 3b 67 84 99 bb 3b 8d 2c bb
       0.005608146 0.0062275343 -0.004684973 -0.0026329297
0001a0 d7 cc 06 bb 4b 72 96 b9 de e6 54 3a b4 a7 bd 3b
       -0.0020568871 -0.00028695384 0.000812156 0.005787814
0001b0 f2 b7 da 39 33 a6 06 3b 23 9d 8c 39 23 b3 90 3a
       0.0004171725 0.002054584 0.00026819957 0.0011039715
0001c0 d4 b2 fb 3a d1 b5 a0 ba c7 a8 73 3a 49 27 17 3b
       0.0019203075 -0.0012261217 0.0009294864 0.0023064187
0001d0 db 17 7f 3a 7e e2 40 ba 58 ab d4 3a ef e3 74 bb
       0.0009731033 -0.0007357969 0.0016225381 -0.0037367304
0001e0 5a 09 0b bb 6c 0b ae ba 6f cd 15 ba 72 b7 f1 39
       -0.002121529 -0.001327855 -0.0005714511 0.0004610378
0001f0 18 a5 4d bb 88 75 0c 3b c5 e3 5e 3a 9f d5 09 bb
       -0.003137892 0.0021432359 0.0008502568 -0.002103187
000200 fb 33 5d bb 22 64 95 36 ff 04 16 3a f8 5e c0 3a
       -0.0033752907 4.452203e-06 0.00057227904 0.001467674
000210 91 48 88 3a a0 bc 0a ba 59 dd a7 39 4c 5f 28 38
       0.0010397603 -0.00052923895 0.0003201764 4.0143073e-05
000220 16 70 a2 ba 4f bd 4a 38 01 08 49 3a 39 8a a1 3a
       -0.0012393023 4.833686e-05 0.0007668734 0.0012324519
000230 3a eb f7 3a fb 0c 7f bb 3f 0d e9 ba 2f db 9e 3a
       0.0018914707 -0.003891765 -0.0017780437 0.0012119765
000240 a4 da 32 3b 79 e6 d8 38 cc 18 c0 bb a7 7c 72 39
       0.0027290964 0.000103426115 -0.005862331 0.00023125355
000250 4a 1c 4e b9 a8 12 0e bb 66 78 bb 3b 28 60 08 bb
       -0.0001965623 -0.00216786 0.0057211397 -0.0020809267
000260 1d 8f 19 3b 56 a3 85 3b 58 9f 09 bb b6 2f 04 bb
       0.002343125 0.004078309 -0.0020999517 -0.002017004
000270 06 94 8e ba 69 40 08 3b fa 62 ce ba af 67 4e ba
       -0.0010877855 0.0020790345 -0.001574605 -0.00078737264
000280 cb e8 46 bb 0c 7a 1d bb c6 5a d1 b8 52 ee a7 ba
       -0.0030351158 -0.0024029044 -9.9828045e-05 -0.0012812114
000290 99 f2 d9 ba 9e 37 5b ba 11 98 b6 b9 dc 49 64 3b
       -0.0016628086 -0.00083624746 -0.00034827043 0.0034834063
0002a0 1a 8c 9a bb 27 32 1b 3b 68 77 1e 3b 25 4b a6 b9
       -0.0047164084 0.0023681016 0.0024180058 -0.00031717974
0002b0 f2 d7 1d bb d0 be 7c bb 12 8a f6 b9 51 53 15 bb
       -0.0024085012 -0.0038565882 -0.00047023647 -0.0022785256
0002c0 c2 7c 56 bc 2e 51 a3 3b 97 99 ec 3a 1a 02 1f ba
       -0.013091268 0.0049840426 0.0018051144 -0.0006065682
0002d0 0a 13 55 bb 90 78 d8 3a ee 5e 0f 3a 63 dd d5 3a
       -0.003251257 0.0016515423 0.0005469163 0.0016316589
0002e0 75 36 7f 3a c4 84 75 bb 2c ed df ba 41 72 a6 3a
       0.0009735593 -0.0037463168 -0.0017084233 0.0012698845
0002f0 8e 28 a5 b9 40 45 02 ba fc 67 b1 3a 04 22 68 3a
       -0.00031501468 -0.00049694255 0.0013535018 0.00088551664
000300 2b 92 70 b9 59 e4 4b bb 3b 75 7a bb ed 6b 2c ba
       -0.00022942635 -0.0031111448 -0.0038216847 -0.00065773615
000310 ea b5 95 39 22 87 6f b9 b1 5d 2d 3a 56 55 a3 ba
       0.0002855503 -0.00022843157 0.00066133874 -0.0012461345
000320 84 d7 86 bb f1 10 b1 3a 8d e2 27 3b ec dd 3a bb
       -0.004115047 0.0013509077 0.0025617213 -0.0028513623
000330 1c 0d 5a bb 72 c8 58 3b 5b f7 e7 3a e4 68 97 ba
       -0.0033271974 0.003307846 0.0017697619 -0.0011551646
000340 b6 43 9a 3b 6a 87 76 3b f4 0a 3d bb c0 b6 a6 b9
       0.004707779 0.0037617334 -0.002884564 -0.00031798147
000350 2e 10 9f bb c5 67 c7 ba f1 0f 1e 3b 5b 1f 09 ba
       -0.0048542237 -0.0015213421 0.0024118389 -0.00052308076
000360 5e b9 d4 ba c7 b5 98 ba b6 34 29 bb 63 b5 da 3a
       -0.001622956 -0.0011650854 -0.0025818772 0.0016686138
000370 26 d7 9d bb a6 16 13 3a 71 da d0 39 9f 80 ea bb
       -0.0048169075 0.000561098 0.00039835603 -0.007156446
000380 8f aa 7b 38 0e 5f f3 3a 76 e6 0d bb db 18 d9 ba
       6.000191e-05 0.0018567757 -0.0021652258 -0.0016563194
000390 a0 24 b2 ba 55 08 03 3b 2c 44 28 ba fd ca c0 39
       -0.0013591237 0.001999398 -0.000641885 0.00036772332
0003a0 bb ea a7 3a a4 c2 8d 3b 5d 10 42 bb 30 da 8a 3a
       0.0012811044 0.0043261815 -0.0029611804 0.0010593589
0003b0 f1 d1 29 38 89 bc a7 b9 ed db d7 bb 2d 59 21 3b
       4.0488263e-05 -0.00031993192 -0.0065874965 0.0024619803
0003c0 c6 0f 14 bb a7 3c dd b9 96 e4 95 3b 3d c6 d9 3a
       -0.002259241 -0.00042197594 0.0045743687 0.0016614866
0003d0 5f 00 9d ba 06 ce 7b ba fd 91 a3 3a 43 f7 52 3a
       -0.001197826 -0.000960559 0.0012479421 0.0008047709
0003e0 6a 1b a7 39 0d 14 fc ba c7 2c 43 bb 42 bd 0c 3a
       0.00031873147 -0.001923205 -0.0029781328 0.0005368778
0003f0 bc 85 8e 3b e0 86 c8 ba 12 47 89 3b 32 12 41 3a
       0.0043494385 -0.0015298985 0.0041893804 0.0007365077

exp_avg_sq f4 [20, 416]
000000 48 da db 38 a5 fa be 38 a9 8e ef 38 85 f3 e7 38
       0.00010483392 9.106592e-05 0.000114229806 0.000110602974
000010 82 0f 03 39 d4 37 e8 38 2d 0d e8 38 d6 01 ae 38
       0.0001249891 0.00011073021 0.00011065076 8.2973085e-05
000020 9b 4c d5 38 1a 72 da 38 6e ac 0f 39 54 c6 d3 38
       0.000101709 0.00010416303 0.00013701778 0.000100982055
000030 0b 12 fe 38 74 1c c7 38 cf 0f ce 38 dd 3d 0e 39
       0.000121150246 9.494359e-05 9.82579e-05 0.00013565221
000040 9a c1 e9 38 e9 6d d5 38 88 ab f5 38 e1 63 62 39
       0.00011146367 0.00010177104 0.000117144606 0.00021590247
000050 f4 53 bc 38 7b 4e e4 38 b3 e6 fa 38 26 62 98 38
       8.980176e-05 0.00010886505 0.000119639 7.2662064e-05
000060 aa 4a af 38 e8 f6 cb 38 78 2f e4 38 9f 23 b4 38
       8.3585575e-05 9.725784e-05 0.00010880729 8.589704e-05
000070 86 b5 c4 38 8d c1 da 38 bc 34 f2 38 0b 83 f3 38
       9.37982e-05 0.00010431102 0.00011549282 0.000116115516
000080 58 8e d9 38 ce 9e 00 39 7b cc d8 38 0e 90 c9 38
       0.0001037388 0.0001226619 0.0001033777 9.611259e-05
000090 7f 01 c5 38 10 b6 de 38 eb a2 dd 38 87 98 ca 38
       9.393971e-05 0.00010619697 0.00010568447 9.660521e-05
0000a0 c4 c3 cf 38 c8 a6 b8 38 52 dd da 38 3d 41 ab 38
       9.9069934e-05 8.804869e-05 0.00010436274 8.166067e-05
0000b0 29 68 cc 38 7e 42 ad 38 d3 99 cd 38 38 12 14 39
       9.7468794e-05 8.261668e-05 9.803814e-05 0.00014121167
0000c0 3b 50 f3 38 68 fd cc 38 c8 91 df 38 43 7a d2 38
       0.00011602087 9.7746786e-05 0.000106606225 0.00010036353
0000d0 2c 18 f6 38 b7 1f 0b 39 53 c8 cc 38 7f 23 e7 38
       0.000117346965 0.00013267888 9.764791e-05 0.0001102155
0000e0 e8 11 07 39 42 99 ea 38 35 87 e1 38 b6 18 b7 38
       0.00012881274 0.00011186536 0.0001075402 8.730723e-05
0000f0 44 cd ab 38 2d 97 ca 38 80 ca bd 38 c8 8c c6 38
       8.192149e-05 9.660269e-05 9.049941e-05 9.467598e-05
000100 4e 95 e1 38 8f 60 db 38 07 3b d7 38 71 07 dc 38
       0.00010756646 0.00010460719 0.000102629936 0.000104918036
000110 4d 9c ca 38 17 ca 08 39 71 38 0a 39 88 0d 0d 39
       9.661224e-05 0.00013045255 0.00013181732 0.00013451849
000120 7a be e7 38 e0 4c be 38 00 59 10 39 88 a0 f4 38
       0.000110504174 9.074225e-05 0.00013766065 0.00011664728
000130 12 e6 b2 38 40 13 bc 38 3d 04 c1 38 ab e5 8c 38
       8.530555e-05 8.968124e-05 9.2037466e-05 6.718499e-05
000140 c4 2a a4 38 37 ee f1 38 a2 2b cd 38 6a 51 d5 38
       7.828095e-05 0.000115361465 9.783289e-05 0.00010171796
000150 23 9a a8 38 e4 0e fd 38 4e ac c4 38 79 13 00 39
       8.0395745e-05 0.00012066754 9.3781025e-05 0.00012214285
000160 18 51 e1 38 45 b4 f3 38 19 c1 13 39 f3 01 c4 38
       0.00010743941 0.00011620721 0.00014090947 9.3463714e-05
000170 37 64 cc 38 ee c4 a7 38 22 5b ce 38 b1 99 a1 38
       9.7461445e-05 7.9998616e-05 9.83982e-05 7.7057055e-05
000180 28 b7 d0 38 fd 7f d7 38 00 79 d7 38 19 72 e7 38
       9.9523284e-05 0.000102758386 0.00010274537 0.00011036191
000190 41 a2 da 38 d5 39 04 39 98 d3 ff 38 ad d5 c8 38
       0.00010425272 0.00012610045 0.0001219876 9.5765434e-05
0001a0 df 92 d6 38 1a d5 c5 38 b4 69 c5 38 cf 04 f7 38
       0.00010231672 9.433385e-05 9.413381e-05 0.000117787735
0001b0 c7 89 c0 38 ec cf aa 38 ff ca c7 38 55 20 19 39
       9.1809365e-05 8.14496e-05 9.5268704e-05 0.00014603262
0001c0 01 e0 ba 38 4f be 0e 39 de 24 cf 38 c0 65 a4 38
       8.910895e-05 0.00013613071 9.877396e-05 7.839082e-05
0001d0 50 69 ba 38 fb 54 eb 38 97 90 da 38 0e fb a9 38
       8.888787e-05 0.00011221502 0.00010421982 8.1053106e-05
0001e0 83 7a d6 38 0f b4 e2 38 8b 08 c1 38 39 11 d4 38
       0.00010227135 0.00010810058 9.2045484e-05 0.00010112156
0001f0 fa 3c b7 38 55 f1 ab 38 8d e5 e4 38 95 06 28 39
       8.737478e-05 8.198867e-05 0.000109146444 0.0001602418
000200 27 1f ad 38 8e 04 08 39 e0 df c7 38 30 87 b3 38
       8.2550854e-05 0.00012971667 9.5307594e-05 8.560566e-05
000210 0e 82 c6 38 8e 66 de 38 c2 6b b1 38 3e 8e a4 38
       9.4656e-05 0.00010604887 8.460089e-05 7.846624e-05
000220 64 bb db 38 a7 90 cb 38 07 3d ac 38 62 25 e1 38
       0.00010477638 9.706738e-05 8.212966e-05 0.00010735799
000230 9d d8 ae 38 7a 3e ba 38 41 5f c4 38 ac b9 1a 39
       8.337314e-05 8.880808e-05 9.363751e-05 0.00014755753
000240 23 b9 bc 38 4c 25 d3 38 6f 62 dc 38 86 1e a0 38
       8.999023e-05 0.00010068211 0.00010508752 7.63508e-05
000250 27 f0 c6 38 6c 2c d8 38 2e 68 ef 38 6b d0 c6 38
       9.4861076e-05 0.00010307957 0.00011415813 9.4801966e-05
000260 5b 15 de 38 79 c0 da 38 09 2f c8 38 6d 5d d0 38
       0.00010589763 0.00010430901 9.545504e-05 9.935615e-05
000270 b3 31 69 39 c6 38 4a 39 31 8b 1d 39 4a b1 67 39
       0.00022239126 0.00019285371 0.0001502454 0.00022095922
000280 be 65 76 39 2f dc 5b 39 d5 68 65 39 a1 f9 35 39
       0.0002349829 0.00020967492 0.00021878195 0.00017354499
000290 61 a0 45 39 25 14 39 39 06 61 9d 39 97 b2 3b 39
       0.0001884713 0.0001765048 0.00030017662 0.0001790024
0002a0 e1 5a f3 38 2d 50 32 39 b1 9e 57 39 75 0f 33 39
       0.000116040705 0.0001700527 0.00020563115 0.00017076528
0002b0 00 12 44 39 05 ad 89 39 fa 72 17 39 30 b0 0f 39
       0.00018698722 0.00026259586 0.00014443314 0.00013703178
0002c0 1e 05 7f 39 75 18 64 39 7b 89 8c 39 db 83 4e 39
       0.00024320601 0.00021752885 0.00026805312 0.00019694811
0002d0 29 4c 67 39 db 68 4f 39 de 9b 3e 39 db ab 4b 39
       0.00022058249 0.0001978012 0.00018177877 0.0001942361
0002e0 65 b2 02 39 5d 37 40 39 ad ee 3f 39 14 cf 1d 39
       0.00012464223 0.00018331171 0.00018304093 0.0001504983
0002f0 fa c1 82 39 4e f2 56 39 b2 0f 10 39 e7 4f 1b 39
       0.00024940056 0.00020498896 0.00013738757 0.00014811718
000300 67 10 65 39 1d 9b 21 39 7b df 46 39 a7 9c 23 39
       0.00021845252 0.0001541194 0.00018966004 0.00015603249
000310 bd 3f b8 39 5e 3f 24 39 b0 a0 55 39 52 b4 3b 39
       0.00035142704 0.00015663865 0.00020373124 0.00017900884
000320 c0 6f 30 39 de 66 43 39 ee eb 80 39 8c e0 01 39
       0.00016826298 0.0001863497 0.00024589844 0.00012386049
000330 dc 64 51 39 af 73 19 39 e5 9b fb 38 21 dc 12 39
       0.00019969366 0.00014634313 0.0001199765 0.0001400565
000340 f2 9a e6 38 cc 69 28 39 67 d6 cc 38 f0 54 ea 38
       0.000109961155 0.00016061141 9.7674136e-05 0.0001117381
000350 6f ad 11 39 a7 d2 0f 39 ce b4 dd 38 1c 01 14 39
       0.00013892887 0.00013716017 0.00010571779 0.00014114793
000360 20 af 21 39 2d fb d6 38 db 5f f5 38 b8 cd 2a 39
       0.00015419396 0.000102511 0.00011700365 0.000162891
000370 25 58 25 39 d2 41 fd 38 b1 89 77 39 f4 e9 04 39
       0.00015768463 0.0001207624 0.0002360705 0.00012675655
000380 79 72 ea 38 87 c5 5e 39 d1 a8 2f 39 f4 58 08 39
       0.00011179312 0.00021245154 0.0001675219 0.00013003108
000390 23 0c 27 39 d3 96 1a 39 12 97 a8 38 9b 95 2d 39
       0.00015930882 0.00014742771 8.039003e-05 0.00016554298
0003a0 34 5a 35 39 2a 5f 1c 39 1e e9 c7 38 9c a7 be 38
       0.00017295108 0.0001491277 9.532481e-05 9.091126e-05
0003b0 90 75 d2 38 c1 cf 02 39 a4 06 74 39 67 b2 2b 39
       0.00010035478 0.0001247516 0.00023272127 0.00016374291
0003c0 17 7b 1f 39 3b 67 5b 39 70 ae 24 39 3d b2 ec 38
       0.00015209276 0.00020923924 0.00015705242 0.000112865564
0003d0 b6 bf 1d 39 6d 27 30 39 80 8e c0 38 eb 77 2a 39
       0.00015044105 0.00016799355 9.181816e-05 0.00016257136
0003e0 df 40 37 39 ca d3 44 39 68 5c c3 38 9b 3c d7 38
       0.00017476406 0.00018770914 9.3155366e-05 0.000102632875
0003f0 82 83 2d 39 2a c2 05 39 44 c9 40 39 69 97 4e 39
       0.00016547556 0.000127562 0.00018385524 0.00019702096

exp_avg f4 [20, 20]
000000 00 00 00 00 7e ef bf 35 2a c9 e3 b7 0d 6b a5 ba
       0.0 1.430031e-06 -2.7154183e-05 -0.0012620405
000010 a2 61 82 ba 3a 1e b5 b9 5c 01 64 ba 03 81 54 bb
       -0.000994731 -0.0003454553 -0.00086977123 -0.003242553
000020 04 00 00 00 04 00 00 80 04 00 00 00 6e 1d 52 ba
       6e-45 -6e-45 6e-45 -0.00080152496
000030 11 07 e1 15 04 00 00 00 17 6d 9a b9 f1 bf 29 b8
       9.0887925e-26 6e-45 -0.00029454447 -4.04715e-05
000040 f6 0c 69 38 61 f5 90 bb 83 d9 fb ba 04 00 00 00
       5.55636e-05 -0.0044237827 -0.0019214604 6e-45
000050 bc a4 1c 3a 00 00 00 00 63 db 78 38 89 ee 56 3a
       0.0005975475 0.0 5.9332127e-05 0.00081989967
000060 4b 55 a7 3a ad 7b bd 38 17 9c f9 39 ef 3b 8f 3b
       0.0012766508 9.035259e-05 0.00047609277 0.0043711583
000070 04 00 00 80 04 00 00 00 04 00 00 00 d6 6d 34 3a
       -6e-45 6e-45 6e-45 0.0006882822
000080 f3 36 fc 94 04 00 00 00 29 ee 31 3a fe 4a 89 37
       -2.5467171e-26 6e-45 0.0006787503 1.6366594e-05
000090 79 f9 35 39 61 f7 f0 3a 91 94 9b 3a 04 00 00 00
       0.00017354441 0.0018384272 0.0011869838 6e-45
0000a0 ba fa b0 3a 5b 91 0d 37 00 00 00 00 8d 8f 2f 3a
       0.0013502457 8.438098e-06 0.0 0.0006697111
0000b0 a9 be a5 39 4a 94 85 b9 b1 0a 40 39 40 40 8e 3b
       0.00031613305 -0.0002547822 0.0001831453 0.0043411553
0000c0 04 00 00 80 04 00 00 00 04 00 00 00 ca 69 41 3a
       -6e-45 6e-45 6e-45 0.00073781295
0000d0 63 eb 14 96 04 00 00 00 2d fd 99 39 b0 d5 87 37
       -1.202962e-25 6e-45 0.00029371065 1.619276e-05
0000e0 7e 43 13 39 a1 7d 9b 3a e6 66 49 3a 04 00 00 00
       0.00014044155 0.0011863002 0.00076828746 6e-45
0000f0 00 6f fd 39 f6 93 58 b6 32 b7 59 36 00 00 00 00
       0.00048338622 -3.2272633e-06 3.2442153e-06 0.0
000100 22 54 66 3a a0 42 ad 39 0d bf ac 39 16 ab 38 3b
       0.00087863405 0.0003304677 0.0003294874 0.0028178147
000110 04 00 00 00 04 00 00 80 04 00 00 80 1c fb 5a 39
       6e-45 -6e-45 -6e-45 0.00020883646
000120 f8 ef a4 15 04 00 00 80 86 cd a8 3a d8 d6 bc 35
       6.6617676e-26 -6e-45 0.0012878634 1.4069619e-06
000130 3c 7c 22 38 35 c5 ec b9 54 8c 00 3a 04 00 00 80
       3.8739512e-05 -0.00045160358 0.0004903723 -6e-45
000140 cc b5 f3 3a 48 52 2e 38 99 8c fb 38 37 0c ed 3a
       0.0018593608 4.1561463e-05 0.00011994801 0.0018085305
000150 00 00 00 00 43 0d 12 3a c7 5f 86 3a fb 1b 27 3c
       0.0 0.0005571434 0.0010251933 0.010199542
000160 04 00 00 00 04 00 00 80 04 00 00 80 ef 5d 97 3a
       6e-45 -6e-45 -6e-45 0.001154838
000170 5b ef 44 16 04 00 00 80 3f 16 20 3b ff 03 9b 38
       1.5908281e-25 -6e-45 0.0024427322 7.39172e-05
000180 0c 21 23 39 b2 29 d8 3b 89 51 8d 3b 04 00 00 80
       0.00015557202 0.0065967673 0.0043126983 -6e-45
000190 bf 85 d3 ba d3 c2 c0 b2 f9 3c a2 38 c5 72 ee 39
       -0.0016137882 -2.2440338e-08 7.736119e-05 0.00045480407
0001a0 46 25 82 bb 00 00 00 00 87 d3 01 ba e9 a4 26 bb
       -0.0039717285 0.0 -0.00049524795 -0.0025427884
0001b0 04 00 00 80 04 00 00 00 04 00 00 00 03 4b fc 39
       -6e-45 6e-45 6e-45 0.00048121074
0001c0 0d 9e 77 96 04 00 00 00 e6 c3 cd ba 8f eb db 37
       -2.0002373e-25 6e-45 -0.0015698641 2.6216525e-05
0001d0 bd 53 f8 38 13 74 ec ba a5 1f d6 ba 04 00 00 00
       0.00011841159 -0.0018039964 -0.0016336335 6e-45
0001e0 7d 55 e8 3a 15 1c a1 37 48 8a 9a 38 33 84 a9 3a
       0.0017725673 1.9205772e-05 7.369049e-05 0.0012933075
0001f0 29 90 5a 3a 85 15 66 b8 00 00 00 00 18 e7 0e 3c
       0.00083375216 -5.4856315e-05 0.0 0.008722089
000200 04 00 00 00 04 00 00 00 04 00 00 00 6a 73 9a 3a
       6e-45 6e-45 6e-45 0.0011783664
000210 59 1a 43 94 04 00 00 00 49 a6 03 3b 9a 32 e6 37
       -9.85018e-27 6e-45 0.0020088127 2.74417e-05
000220 5a 3f 90 39 89 2f 36 3b 5f 71 0e 3b 04 00 00 00
       0.0002751302 0.002779933 0.0021735055 6e-45
000230 f6 29 79 ba f1 ac 9a b7 22 31 67 b8 45 e0 84 ba
       -0.0009504849 -1.8438763e-05 -5.512045e-05 -0.0010137638
000240 a3 ee 33 bb 05 4d ae b9 ad 18 45 ba 00 00 00 00
       -0.002745547 -0.0003324525 -0.00075186306 0.0
000250 04 00 00 00 04 00 00 00 04 00 00 00 34 6c 58 ba
       6e-45 6e-45 6e-45 -0.00082558696
000260 4e 07 0b 96 04 00 00 00 7e 77 1c ba be 80 90 b8
       -1.1230636e-25 6e-45 -0.00059687335 -6.890435e-05
000270 c8 b8 24 b9 fc 7d 62 bb 82 2c fe ba 04 00 00 00
       -0.00015709095 -0.0034559956 -0.0019391926 6e-45
000280 80 44 c8 38 82 b7 af 32 d4 40 6f 34 24 72 ae 37
       9.549502e-05 2.0456131e-08 2.2282194e-07 2.0795567e-05
000290 d2 58 02 3a 35 4d 9d 36 06 ba a8 36 56 fa c9 3a
       0.00049723417 4.6879527e-06 5.028446e-06 0.0015409689
0002a0 00 00 00 00 04 00 00 80 04 00 00 80 dd 3e 49 37
       0.0 -6e-45 -6e-45 1.199517e-05
0002b0 c5 b7 c8 11 04 00 00 80 64 1d 07 39 ca 98 f7 33
       3.1667693e-28 -6e-45 0.00012885552 1.1529626e-07
0002c0 c2 3d 81 35 b4 b6 03 39 1c 47 0b 39 04 00 00 80
       9.629223e-07 0.00012561196 0.00013282563 -6e-45
0002d0 6e 4e 44 38 77 e2 f6 b1 1f 6a 60 b2 e8 d5 f5 36
       4.6803085e-05 -7.1852884e-09 -1.3062645e-08 7.326471e-06
0002e0 be 63 1e 39 43 f0 77 b5 75 34 1c 35 3b 5a 2f 3a
       0.00015105211 -9.23643e-07 5.8190864e-07 0.00066891656
0002f0 04 00 00 80 00 00 00 00 04 00 00 00 f4 0a 9f 36
       -6e-45 0.0 6e-45 4.7398444e-06
000300 70 a5 d7 91 04 00 00 00 d5 2f 46 38 5f 8c c4 32
       -3.4022978e-28 6e-45 4.7251426e-05 2.2881236e-08
000310 81 d3 16 35 ef 31 06 38 d3 63 40 38 04 00 00 00
       5.6187133e-07 3.1994594e-05 4.5869336e-05 6e-45
000320 8a a3 3e 38 a7 7d e6 af 89 6c 2e 33 a5 69 10 37
       4.5451838e-05 -4.1926038e-10 4.0611244e-08 8.607666e-06
000330 37 1f 73 39 5d 98 ec 35 d0 24 07 36 e0 f2 45 3a
       0.00023185914 1.7627714e-06 2.0137995e-06 0.0007551145
000340 04 00 00 80 04 00 00 80 00 00 00 00 a6 e4 a2 36
       -6e-45 -6e-45 0.0 4.8545944e-06
000350 43 67 d1 8f 04 00 00 80 ae 2c 55 38 a7 2b 37 33
       -2.0648766e-29 -6e-45 5.082477e-05 4.264771e-08
000360 ab 6c bb 34 2a 9b 6b 38 61 e6 70 38 04 00 00 00
       3.491053e-07 5.6172874e-05 5.7435016e-05 6e-45
000370 01 23 09 bb b8 39 a9 b7 e1 c4 eb b7 c8 d3 35 ba
       -0.0020925405 -2.0173247e-05 -2.8105862e-05 -0.000693616
000380 10 0a 45 bb 0f 74 de b9 e0 c9 5f b9 1b e4 49 bb
       -0.0030065812 -0.0004242961 -0.00021342142 -0.0030806127
000390 04 00 00 00 04 00 00 80 04 00 00 80 00 00 00 00
       6e-45 -6e-45 -6e-45 0.0
0003a0 25 a6 35 15 04 00 00 80 77 df c5 b9 ec 3b 6e b7
       3.6683724e-26 -6e-45 -0.00037741262 -1.4199857e-05
0003b0 65 74 e9 37 2a 7c ae bb eb 22 32 bb 04 00 00 80
       2.7829965e-05 -0.00532486 -0.0027181457 -6e-45
0003c0 e4 07 86 39 38 95 29 b4 3e 16 23 36 91 19 bb 38
       0.0002556435 -1.5793637e-07 2.430184e-06 8.921617e-05
0003d0 bb 9a 50 3a 51 a6 14 36 5d b0 a8 37 31 10 3c 3b
       0.0007957627 2.2150527e-06 2.0109286e-05 0.0028696174
0003e0 04 00 00 80 04 00 00 00 04 00 00 00 20 78 7e 38
       -6e-45 6e-45 6e-45 6.0670194e-05
0003f0 00 00 00 00 04 00 00 00 8b db a3 39 ea 96 33 35
       0.0 6e-45 0.00031253355 6.6902305e-07

exp_avg_sq f4 [20, 20]
000000 00 00 00 00 bb 33 79 32 ac f3 52 34 a9 2a 4f 38
       0.0 1.450547e-08 1.9646421e-07 4.9392376e-05
000010 3a 8c 4b 39 42 6a 28 37 21 05 79 37 22 4e cd 3a
       0.00019411827 1.003832e-05 1.4842751e-05 0.0015663544
000020 c3 69 b5 23 5d dc 7d 21 8f e1 7e 1f c7 a7 e3 37
       1.9668851e-17 8.6011383e-19 5.397317e-20 2.7138636e-05
000030 a7 12 0d 2b ba 62 f4 1e f8 3f 45 38 43 f2 3f 33
       5.011915e-13 2.5875337e-20 4.7028036e-05 4.469099e-08
000040 1a 0f 54 35 0b 47 ca 39 be 07 49 39 d6 7a f1 1c
       7.899813e-07 0.00038581374 0.00019171738 1.5979795e-21
000050 09 fe cc 36 00 00 00 00 a2 4f 85 33 a9 f7 10 37
       6.1092474e-06 0.0 6.20778e-08 8.640732e-06
000060 2f 28 a4 37 0e 65 ac 35 58 d3 47 36 8d 10 38 39
       1.9569035e-05 1.2844409e-06 2.977633e-06 0.00017553773
000070 3d f4 a7 22 df 73 66 20 d3 03 61 1e e6 87 bd 36
       4.552404e-18 1.9520096e-19 1.1912192e-20 5.6484596e-06
000080 42 b0 21 29 53 f8 c0 1d 55 ee fb 36 5a 01 11 32
       3.590206e-14 5.107874e-21 7.5081284e-06 8.440418e-09
000090 5b 72 db 34 32 dc 2e 38 16 ee 94 37 03 14 60 1b
       4.0875133e-07 4.1689906e-05 1.7753842e-05 1.8535312e-22
0000a0 c5 41 df 37 1e d1 1f 31 00 00 00 00 30 6f b3 37
       2.6614298e-05 2.3256415e-09 0.0 2.1390239e-05
0000b0 8a 15 90 38 4e be b5 36 ab 9d 20 37 73 8e 2d 3a
       6.870467e-05 5.4163747e-06 9.573453e-06 0.0006620653
0000c0 1d 47 2b 24 a4 e9 16 22 62 38 06 20 16 4d 4f 37
       3.713995e-17 2.045248e-18 1.1368897e-19 1.2356109e-05
0000d0 64 eb 74 2a 01 53 12 1f 63 eb 5a 38 74 2f b6 31
       2.1753221e-13 3.0985362e-20 5.219447e-05 5.302292e-09
0000e0 44 e2 9c 34 4f 22 4d 39 3a fa a7 38 bd 06 6c 1c
       2.9221894e-07 0.00019563104 8.009789e-05 7.809456e-22
0000f0 ec aa 9b 38 94 be ad 2f 74 70 9a 31 00 00 00 00
       7.4228126e-05 3.160393e-10 4.4947743e-09 0.0
000100 6b 82 a6 39 c8 64 5f 36 da 33 b4 35 2c 9f 54 3b
       0.00031759156 3.3288252e-06 1.3426136e-06 0.0032443507
000110 03 ac a1 23 31 55 1a 22 fc d7 02 20 cc 58 a8 35
       1.7528505e-17 2.0915992e-18 1.1082892e-19 1.2542819e-06
000120 4f 39 d8 29 59 3c 5f 1f 09 53 8e 38 1c 46 49 30
       9.6022684e-14 4.7272005e-20 6.786554e-05 7.3223005e-10
000130 d9 32 8b 32 c5 5a 5e 39 37 80 0c 39 13 ca 87 1d
       1.6204853e-08 0.00021205384 0.00013399204 3.5943142e-21
000140 2f 15 db 37 99 9c aa 31 04 52 a7 33 d7 20 a6 37
       2.6116699e-05 4.9654543e-09 7.791462e-08 1.9804034e-05
000150 00 00 00 00 78 cc 66 36 92 a8 f3 36 45 a9 b6 39
       0.0 3.4391687e-06 7.2615885e-06 0.0003483986
000160 33 7b 70 24 9e c4 92 22 46 a8 90 20 35 2e 38 37
       5.2146058e-17 3.9781556e-18 2.4505903e-19 1.0978013e-05
000170 ca ea c7 2a 0f 8b ec 1f ab d6 a9 37 d1 fc c3 32
       3.551242e-13 1.0017994e-19 2.0246332e-05 2.2815955e-08
000180 95 ab f4 34 a4 1f 0a 39 39 13 84 38 a0 ab 9f 1d
       4.5573384e-07 0.00013172493 6.297831e-05 4.2264406e-21
000190 32 24 54 39 00 0b 60 32 33 79 87 34 77 e0 c0 38
       0.0002023138 1.3041017e-08 2.5233894e-07 9.197083e-05
0001a0 20 16 c6 39 00 00 00 00 bd 20 c0 37 16 7d 52 3b
       0.00037781987 0.0 2.2903429e-05 0.0032118014
0001b0 23 a1 63 22 0d 3f 3e 20 ac 2e 26 1e c4 58 64 38
       3.0849542e-18 1.6114488e-19 8.797618e-21 5.4442105e-05
0001c0 3d 16 6c 2a 11 11 c1 1d be d3 3c 39 d2 e0 99 33
       2.0968726e-13 5.110432e-21 0.00018007957 7.165512e-08
0001d0 e3 2c 31 36 6a 3d 4b 3a c8 83 d9 39 3e 24 31 1c
       2.6401183e-06 0.0007752987 0.0004148765 5.861123e-22
0001e0 81 71 b0 38 a5 f2 81 30 53 89 03 33 f8 6c de 37
       8.413476e-05 9.454949e-10 3.062571e-08 2.6515205e-05
0001f0 98 3d 6c 39 fb 4e a5 36 00 00 00 00 b8 9b 16 3b
       0.0002252966 4.9265777e-06 0.0 0.0022981
000200 69 dd 8d 22 20 12 d1 20 29 51 1d 1f 02 46 65 37
       3.8452554e-18 3.5417971e-19 3.3313177e-20 1.3665764e-05
000210 80 d3 2e 29 3c 5f 9d 1e 08 d0 cc 38 75 95 7d 31
       3.8819208e-14 1.666241e-20 9.766227e-05 3.6901302e-09
000220 45 d2 d0 34 98 9a ca 39 fa ac 49 39 f7 54 27 1c
       3.889601e-07 0.00038643624 0.00019233293 5.536548e-22
000230 12 ce a3 36 3e ea 4a 32 69 3e 15 34 a0 63 51 37
       4.8817683e-06 1.1811208e-08 1.3899411e-07 1.24805665e-05
000240 d9 2d b2 37 aa 6b f6 35 20 48 90 36 00 00 00 00
       2.1240603e-05 1.8359763e-06 4.299931e-06 0.0
000250 8d 85 43 24 54 62 f6 21 e4 e6 c0 1f 46 af f7 36
       4.2397007e-17 1.6695636e-18 8.169714e-20 7.381578e-06
000260 b5 18 93 2b 30 6b d7 1e f1 5d bd 36 91 b9 e0 32
       1.0451836e-12 2.2808342e-20 5.643575e-06 2.6161418e-08
000270 ca e7 ba 34 d2 e3 6d 38 b9 bc bd 37 74 46 b4 1c
       3.4813849e-07 5.6717377e-05 2.2618437e-05 1.1929613e-21
000280 75 aa 95 33 ed c3 4c 29 68 7d 68 2b bd 34 e5 30
       6.969359e-08 4.5467038e-14 8.2596993e-13 1.6676932e-09
000290 fc 13 48 35 07 db db 30 d4 cd 2e 2f 17 e2 32 37
       7.4534887e-07 1.5996598e-09 1.5898333e-10 1.0662267e-05
0002a0 00 00 00 00 c0 87 11 22 b7 12 a6 1f 28 85 17 30
       0.0 1.972303e-18 7.0334696e-20 5.5122706e-10
0002b0 51 81 0f 28 06 ff 5d 1f ed 7b 05 34 a6 2c b8 29
       7.966136e-15 4.700952e-20 1.2431674e-07 8.178987e-14
0002c0 7b 87 c8 2c 02 0a d6 33 b5 43 87 33 b1 2c 01 1d
       5.6993832e-12 9.966972e-08 6.298743e-08 1.7096113e-21
0002d0 d6 03 d7 32 80 cd a6 28 fe ff 0d 2b 44 c2 0d 30
       2.5031039e-08 1.8518824e-14 5.0448523e-13 5.157157e-10
0002e0 9c 7e 34 34 16 b5 1e 30 98 cd 9d 2e a5 ea 5d 36
       1.6809867e-07 5.7737404e-10 7.176054e-11 3.3068147e-06
0002f0 a4 28 11 24 00 00 00 00 b5 45 79 1f 07 d8 47 2f
       3.1476287e-17 0.0 5.278546e-20 1.8175693e-10
000300 61 c6 7f 26 08 d8 48 1e e7 7a 70 33 d5 f6 db 28
       8.873975e-16 1.0632586e-20 5.5991134e-08 2.442093e-14
000310 a7 8b 1b 2c 03 f2 3d 33 6d 98 dc 32 9d 6f 8b 1b
       2.2104347e-12 4.42251e-08 2.5680686e-08 2.306775e-22
000320 66 86 78 32 50 97 0e 28 60 3a 78 2a 6b d3 c3 2f
       1.4466059e-08 7.915394e-15 2.2047078e-13 3.5620515e-10
000330 1b b7 2a 34 e7 03 d8 2f d1 fc 2f 2e d1 4d 24 36
       1.5899097e-07 3.9292944e-10 4.001494e-11 2.44832e-06
000340 6e a5 a7 22 4f a2 90 21 00 00 00 00 80 a7 f6 2e
       4.5440596e-18 9.800782e-19 0.0 1.1216539e-10
000350 57 d7 81 24 27 5a 14 1f 14 6e f7 32 13 ef 89 28
       5.630963e-17 3.141479e-20 2.8804642e-08 1.5313737e-14
000360 6a 76 8a 2b e9 8c c4 32 f7 62 6d 32 27 6d c9 1c
       9.838356e-13 2.2881482e-08 1.3817718e-08 1.3329279e-21
000370 e9 e3 16 39 58 ca d9 30 51 ae d1 32 b6 3a 11 37
       0.00014390018 1.5846338e-09 2.4410072e-08 8.656343e-06
000380 24 87 dc 39 19 14 f2 36 b6 b5 b0 36 41 40 9d 3b
       0.00042062358 7.2145017e-06 5.2663627e-06 0.0047989194
000390 5e c4 3f 23 9a 93 80 22 a3 45 0b 20 00 00 00 00
       1.0395713e-17 3.485075e-18 1.1796799e-19 0.0
0003a0 8b 09 14 2a 3b 2a f1 1f d7 d0 08 39 02 d0 83 31
       1.3148351e-13 1.02137335e-19 0.0001304777 3.8362495e-09
0003b0 86 de f0 32 43 09 e6 39 68 5f 8b 39 15 ff 56 1e
       2.804087e-08 0.0004387592 0.0002658323 1.1381815e-20
0003c0 96 b9 2f 35 91 78 19 2f c0 e1 1d 30 26 bf 3b 33
       6.5462643e-07 1.3958103e-10 5.743708e-10 4.371318e-08
0003d0 ae 56 8e 36 c3 e2 da 32 08 cd 03 32 a8 43 86 38
       4.2420206e-06 2.548166e-08 7.671822e-09 6.40222e-05
0003e0 f9 67 b5 22 44 8e 8f 20 52 f6 49 1e 5f 1f af 32
       4.9170234e-18 2.4319286e-19 1.0691789e-20 2.0386947e-08
0003f0 00 00 00 00 14 4e 19 1e 12 49 a4 35 3b 24 d3 2e
       0.0 8.115899e-21 1.2240218e-06 9.601605e-11
