checkpoints/RNN_34.pt (torch, 111341 bytes, 9 tensors)

snn.l1.input_weights f4 [20, 416]
0	0xbeef4e49	-0.46739414
1	0xbf2f1de0	-0.6840496
2	0xbf4a055b	-0.7891442
3	0xbfa0aa48	-1.2551966
4	0xbf404001	-0.7509766
5	0xbfa9be48	-1.3261194
6	0xbfa6d917	-1.3035
7	0xbfafd2ce	-1.3736207
8	0xbf9df523	-1.2340435
9	0xbf028d94	-0.5099728
10	0xbf8e5e49	-1.1122524
11	0xbf902c27	-1.1263474
12	0xbf7609c3	-0.96108645
13	0xbf87c05b	-1.0605577
14	0xbf961e90	-1.1728077
15	0xbf4373a8	-0.7634835
16	0xbf2bd661	-0.6712399
17	0xbf928b68	-1.1448793
18	0xbf8444d5	-1.0333506
19	0xbf55659d	-0.83358175
20	0xbf9cd623	-1.2252849
21	0xbf435163	-0.7629606
22	0xbf84b65f	-1.0368155
23	0xbed4b292	-0.41542488
24	0xbf9b12f4	-1.2115159
25	0xbef524e2	-0.47879702
26	0xbf715c18	-0.9428115
27	0xbec9c264	-0.3940612
28	0xbf5b1a70	-0.85587215
29	0xbf603a57	-0.8758902
30	0xbf6ab9df	-0.91689867
31	0xbf0a400a	-0.54003966
32	0xbfc0fbed	-1.5076882
33	0xbfa2a2fa	-1.2705986
34	0xbf93ee9a	-1.155719
35	0xbf31df6b	-0.69481534
36	0xbf701cf6	-0.9379419
37	0xbf70c28a	-0.94046843
38	0xbfa5d202	-1.2954714
39	0xbfa6e673	-1.3039078
40	0xbfc0422c	-1.5020194
41	0xbefa3ee5	-0.4887611
42	0xbf961ca0	-1.1727486
43	0xbf90e3b3	-1.1319488
44	0xbf6ea25f	-0.9321651
45	0xbedc284b	-0.4299949
46	0xbf78f7b6	-0.97252977
47	0xbf6ca984	-0.9244616
48	0xbfb2e959	-1.3977462
49	0xbfa32421	-1.2745401
50	0xbfb78d53	-1.4340004
51	0xbf84fb42	-1.0389178
52	0xbf058fb8	-0.5217242
53	0xbd2fc3cc	-0.042911336
54	0xbf3825dd	-0.71932775
55	0xbf1234d3	-0.57111853
56	0xbf2407a4	-0.6407416
57	0xbe5a1cce	-0.2130005
58	0xbe6ed506	-0.2332345
59	0xbec8d033	-0.39221343
60	0xbf3ae0f1	-0.72999483
61	0x3d4ef201	0.05052376
62	0xbf16dde6	-0.5893234
63	0xbd12b708	-0.035819083
64	0xbe85fcae	-0.26169342
65	0xbcc33bfc	-0.023832314
66	0x3e85420f	0.2602696
67	0xbef22e6b	-0.4730104
68	0xbece378f	-0.40276763
69	0xbef3224b	-0.474871
70	0xbf305346	-0.68877065
71	0xbea544b4	-0.3227898
72	0xbefa2e3c	-0.488634
73	0xbdcc5d55	-0.09978739
74	0xbe8b2575	-0.27177015
75	0xbec71bcc	-0.38888395
76	0xbef55cc4	-0.47922337
77	0xbe93f62a	-0.28898746
78	0xbf6590cd	-0.89674073
79	0xbeecb821	-0.4623423
80	0xbeba3d86	-0.36375064
81	0xbeef852c	-0.4678129
82	0xbf1bfd12	-0.6093303
83	0xbee8edbd	-0.4549388
84	0xbea4aa75	-0.32161298
85	0xbe9b18cc	-0.30292356
86	0xbde02733	-0.10944977
87	0xbf1cdbd9	-0.6127296
88	0xbea59245	-0.32338157
89	0xbed77651	-0.42082456
90	0xbeb5706c	-0.35437334
91	0xbf0de646	-0.55429494
92	0xbf657b79	-0.8964153
93	0xbf4f926f	-0.81082815
94	0xbe8d34e7	-0.27579424
95	0xbeb45d94	-0.35227644
96	0xbf714b8f	-0.9425592
97	0xbe30b5e0	-0.1725688
98	0xbeaafb72	-0.33394963
99	0xbe5b46f6	-0.21413788
100	0xbe76e516	-0.24110827
101	0xbf02ba88	-0.51065874
102	0xbe56f30b	-0.20991151
103	0xbee7a22e	-0.4524092
104	0x3f1819b4	0.5941422
105	0x3f5b30e3	0.8562147
106	0x3f291031	0.6604033
107	0x3f47f968	0.7811494
108	0x3f073661	0.5281735
109	0x3f89342d	1.0719048
110	0x3f116948	0.5680127
111	0x3ed9e88d	0.42560235
112	0x3e53db9c	0.20689243
113	0x3f1123ce	0.5669526
114	0x3f0f10f8	0.5588527
115	0x3f58dae2	0.8470899
116	0x3f892f62	1.0717585
117	0x3f35939a	0.7092835
118	0x3e980eef	0.29698893
119	0x3f2f9d93	0.68599814
120	0x3f44ab00	0.76823425
121	0x3ef9dbd1	0.4880052
122	0x3f2bcf0d	0.6711281
123	0x3f618b96	0.88103616
124	0x3f13c2e5	0.5771926
125	0x3f7e7809	0.9940191
126	0x3f2e94d5	0.6819585
127	0x3ed34b1a	0.41268235
128	0x3f261dcf	0.64889234
129	0x3f4d7ba1	0.8026677
130	0x3e85080f	0.2598271
131	0x3ef57d17	0.47946998
132	0x3f8b2137	1.0869511
133	0x3f8be779	1.0930015
134	0x3f74e9a7	0.95669025
135	0x3f320c2e	0.69549835
136	0x3f3864ef	0.7202901
137	0x3f2157f5	0.63024837
138	0xbce59581	-0.02802539
139	0x3f3abef1	0.72947603
140	0x3e87cf05	0.2652513
141	0x3f9319d4	1.1492257
142	0x3daaf491	0.083474286
143	0x3f0063ba	0.5015217
144	0x3ef233ed	0.4730524
145	0x3f39959a	0.724939
146	0x3f85b70d	1.0446488
147	0x3f7fa41f	0.99859804
148	0x3f956a85	1.1673132
149	0x3f0ae3ae	0.5425366
150	0x3e963107	0.2933428
151	0x3f3c595f	0.7357387
152	0x3f456c76	0.77118623
153	0x3f13088d	0.5743492
154	0x3e68364d	0.22676964
155	0x3f908ec1	1.1293565
156	0xbfcdbc03	-1.6073002
157	0xbf3f7fce	-0.7480439
158	0xbf8b408b	-1.0879072
159	0xbf3386a8	-0.70127344
160	0xbf2bdac8	-0.6713071
161	0xbf25e1fa	-0.6479794
162	0xbef45db1	-0.4772773
163	0xbea926bf	-0.33037373
164	0xbea3fa64	-0.3202697
165	0xbf41c13b	-0.7568547
166	0xbf053160	-0.52028465
167	0xbf284746	-0.65733755
168	0xbfb70544	-1.4298482
169	0xbed74c65	-0.42050472
170	0xbe5063cf	-0.20350574
171	0xbf8b0afb	-1.0862726
172	0xbfb66b79	-1.4251548
173	0xbece07bb	-0.40240273
174	0xbeaf37af	-0.3422217
175	0xbedbc025	-0.42920032
176	0xbf036f25	-0.5134147
177	0xbf546871	-0.82971865
178	0xbf279dd5	-0.6547521
179	0xbeca9c10	-0.3957219
180	0xbf4d9029	-0.80298096
181	0xbf66d47e	-0.9016799
182	0xbf80b78f	-1.0056018
183	0xbf067e92	-0.5253688
184	0xbf4a9cb9	-0.7914539
185	0xbf8f1e66	-1.1181152
186	0xbf5ed3eb	-0.8704211
187	0xbf8a78d5	-1.0818125
188	0xbf3bb021	-0.73315626
189	0xbf117fc7	-0.568356
190	0xbef8a129	-0.48560455
191	0xbf43ed62	-0.7653409
192	0xbe3dfa7c	-0.18552583
193	0xbf82e1f9	-1.0225211
194	0xbebc4252	-0.36769348
195	0xbe9c934d	-0.30581132
196	0xbf2bd0f0	-0.6711569
197	0xbf317f7f	-0.6933517
198	0xbf1625b3	-0.58651274
199	0xbef8992c	-0.4855436
200	0xbf2658f0	-0.6497946
201	0xbea8a9b3	-0.3294197
202	0xbf3e1288	-0.74247026
203	0xbf937ec6	-1.1523063
204	0xbf2b71c8	-0.6697049
205	0xbefd2cdf	-0.49448296
206	0xbd9c6ef3	-0.076383494
207	0xbf35498e	-0.7081536
208	0xbf3f8975	-0.7481912
209	0xbf606971	-0.8766089
210	0xbf4d6ab6	-0.8024095
211	0xbf86baba	-1.0525734
212	0xbeb8ccb9	-0.3609369
213	0xbee0e11b	-0.43921742
214	0xbf28ca33	-0.6593353
215	0xbf6250f4	-0.88404775
216	0xbf692eae	-0.9108685
217	0xbf4ec1a1	-0.80764204
218	0xbf5635c8	-0.83675814
219	0xbe910fda	-0.28332406
220	0xbee9eac4	-0.45686924
221	0xbf810306	-1.0079048
222	0xbf00eefa	-0.5036465
223	0xbece599e	-0.40302747
224	0xbf0543b2	-0.5205642
225	0xbe9ee974	-0.31037486
226	0xbf312703	-0.6920015
227	0xbfacc088	-1.3496256
228	0xbee22c5f	-0.44174477
229	0xbf0bb0ae	-0.54566467
230	0xbf1ab8c8	-0.60438204
231	0x3e2f2eb3	0.17107658
232	0xbf33fff1	-0.7031241
233	0xbf506aa9	-0.8141275
234	0xbf44831e	-0.7676257
235	0xbf6b73e5	-0.91973716
236	0xbf21bb7b	-0.631767
237	0xbf575b89	-0.84124047
238	0xbf3c095e	-0.73451793
239	0xbf256d65	-0.6462005
240	0xbf39e0c5	-0.72608596
241	0xbf2837a3	-0.65709895
242	0xbf4a2d17	-0.7897505
243	0xbf6e111c	-0.92994857
244	0xbf51e5f7	-0.81991524
245	0xbf328fba	-0.6975056
246	0xbf3efdd0	-0.7460604
247	0xbe01ad93	-0.1266387
248	0xbeb0faf7	-0.3456647
249	0xbf3e8e26	-0.7443565
250	0xbedcf379	-0.43154505
251	0xbf183d6c	-0.5946872
252	0xbf4de497	-0.80426925
253	0xbf70fa74	-0.9413216
254	0xbf0faf2d	-0.5612667
255	0xbf52b8f2	-0.82313454

snn.l1.recurrent_weights f4 [20, 20]
0	0x00000000	0.0
1	0x4039caf9	2.9030135
2	0xbd4c06c9	-0.04981116
3	0x408c0f98	4.3769035
4	0x4041b8da	3.0269074
5	0x3f75a02c	0.9594753
6	0xbe6c0b8d	-0.23051281
7	0x400887c5	2.1332867
8	0x4079d6e8	3.9037418
9	0x403bd25d	2.9347146
10	0x404b1e25	3.1737149
11	0x408c706d	4.388724
12	0x4043dc8b	3.0603359
13	0x404f6934	3.240796
14	0x400fa9a1	2.2447283
15	0xbec6fb60	-0.3886366
16	0x40853e75	4.163874
17	0xbd79f000	-0.061019897
18	0x40599655	3.3998005
19	0x3fbb6fc1	1.464348
20	0xbee2d21c	-0.44300926
21	0x00000000	0.0
22	0x40b1d303	5.5570083
23	0x406498fb	3.5718372
24	0x4019ddd8	2.4041653
25	0x40226e69	2.537989
26	0x4071de54	3.7791948
27	0x3eb975e4	0.36222756
28	0x409e3230	4.9436264
29	0x406d8f1a	3.7118592
30	0x40613655	3.5189412
31	0x405d22de	3.4552531
32	0x40c7970a	6.2371874
33	0x4090afea	4.521474
34	0x3fa836e6	1.3141754
35	0x403ead10	2.979313
36	0xbe0428b9	-0.1290616
37	0x3f81f158	1.0151777
38	0x3bb776ed	0.005598894
39	0x3ff97a0a	1.9490368
40	0xbf0256c0	-0.5091362
41	0x408638b7	4.194423
42	0x00000000	0.0
43	0x3fedc469	1.8575565
44	0xbfd1f60b	-1.6403211
45	0x3f06c678	0.5264659
46	0x3ea8dee2	0.32982546
47	0x3da85a72	0.08220376
48	0x3fa9eac4	1.327477
49	0x405fb988	3.495699
50	0x3fdc28b1	1.7199918
51	0x406e76d6	3.7260032
52	0x4086cf36	4.2127943
53	0x40657fe5	3.585931
54	0x4004b7a3	2.0737083
55	0x3fc27933	1.5193237
56	0x401366f9	2.30316
57	0x3fee4e94	1.861773
58	0x3fa71d77	1.3055867
59	0x4012ec72	2.2956815
60	0x3f825722	1.0182841
61	0x3f996a79	1.1985618
62	0x3eeaada6	0.45835608
63	0x00000000	0.0
64	0x3fbdcbc8	1.4827814
65	0xbf18766d	-0.59555703
66	0xbf075dab	-0.528773
67	0x3f2f790b	0.6854407
68	0x4025c764	2.5902948
69	0x3fbdec66	1.4837768
70	0x4015eac1	2.3424532
71	0x40f5655b	7.6686225
72	0x4000c693	2.01212
73	0x3fc805f3	1.5626816
74	0x3d8a36ae	0.067487106
75	0xbfc12f37	-1.5092534
76	0x4034dfd7	2.826162
77	0xbf49e792	-0.78868973
78	0x3fb96078	1.4482565
79	0x3e8df930	0.27729177
80	0x3ec17069	0.37781075
81	0x40228d62	2.5398793
82	0xbf3a4890	-0.7276697
83	0x4088ccfe	4.2750235
84	0x00000000	0.0
85	0x3f3e8dd3	0.74435157
86	0x3f245fde	0.6420878
87	0x3e97a895	0.29620805
88	0x405a6f54	3.413045
89	0x3fb6de1f	1.4286536
90	0x4012a1c9	2.2911246
91	0x40565a5f	3.3492658
92	0x4043abf9	3.0573714
93	0x3fc5d7e4	1.545651
94	0xbf36b689	-0.71372277
95	0x3ea7de85	0.32786956
96	0xbfa1090d	-1.2580887
97	0x3e6aaba3	0.22917037
98	0x3e49d12e	0.19708702
99	0x3e53b035	0.20672686
100	0x3eada118	0.33911967
101	0x403bb1b9	2.9327223
102	0x3fd7cf8b	1.6860212
103	0x40027251	2.0382273
104	0x4009e03c	2.1543112
105	0x00000000	0.0
106	0x3e8e5b44	0.27804005
107	0x3f48b890	0.7840662
108	0x4084aaef	4.145866
109	0x400a18dd	2.1577675
110	0x4044ddd4	3.0760393
111	0x4004d2da	2.0753694
112	0x40748002	3.820313
113	0x407ab19e	3.917091
114	0x3fd58df3	1.6683944
115	0x3e21eaba	0.15812197
116	0x3fbc18a1	1.4695016
117	0x3dca6161	0.09881855
118	0x3f875c65	1.0575072
119	0x3faa09dd	1.328426
120	0x3f55c65a	0.83505785
121	0x40783018	3.8779354
122	0x3fba3989	1.4548808
123	0x3fb4cdd6	1.4125316
124	0x4039025d	2.8907692
125	0x40123598	2.284521
126	0x00000000	0.0
127	0x3fbfba33	1.4978698
128	0x404ca60b	3.1976345
129	0x401a6dad	2.412944
130	0x3fc51201	1.5396119
131	0x3f2c35b5	0.6726945
132	0x40459059	3.0869353
133	0x4016e8c2	2.3579564
134	0x3f2aad76	0.6667093
135	0x401311cf	2.297962
136	0x3ef4816a	0.47754985
137	0x3fa84ad7	1.3147839
138	0x3f436ce8	0.7633805
139	0x3fda0dc4	1.7035451
140	0x40096605	2.1468518
141	0x4035b77a	2.8393235
142	0x3ec8a433	0.39187774
143	0x407b3bd2	3.9255261
144	0x40365147	2.8487108
145	0x3f890eb6	1.0707614
146	0xbe30ea4b	-0.17276876
147	0x00000000	0.0
148	0x406cd146	3.700273
149	0x400ab56e	2.1673236
150	0x404948e8	3.1450748
151	0x4091b5db	4.553449
152	0x40421d35	3.0330327
153	0x40614410	3.5197792
154	0x4002741f	2.0383375
155	0x3f00d6ee	0.50327957
156	0x407c9e2a	3.9471536
157	0xbd83b844	-0.0643163
158	0x400cbf73	2.1991851
159	0x3ff29234	1.8950868
160	0xbff5d45b	-1.9205431
161	0x402f3c81	2.7380679
162	0x3fd49831	1.6608945
163	0x40953bbc	4.663542
164	0x4010b346	2.260942
165	0xbdeffe65	-0.11718444
166	0xbe8dd9e2	-0.27705294
167	0xbfb79ff4	-1.4345689
168	0x00000000	0.0
169	0x3ed11673	0.4083744
170	0x405e3826	3.472177
171	0x4027690d	2.6157868
172	0x408d0772	4.407159
173	0x40032868	2.0493412
174	0xbfabf2db	-1.3433489
175	0xbf843c85	-1.0330969
176	0xbfd364ea	-1.6515172
177	0xbfc0bc5f	-1.5057486
178	0xbf9e3602	-1.2360232
179	0xbf681f58	-0.90672827
180	0xbf5bd577	-0.85872597
181	0x40902c2b	4.5053916
182	0x40a69b20	5.206436
183	0x403d8ba0	2.961647
184	0x3f2ce89a	0.6754242
185	0x3f3e4700	0.7432709
186	0xbfb0aa64	-1.3801999
187	0xbe69aa5b	-0.22818892
188	0x4086bde7	4.2106814
189	0x00000000	0.0
190	0x40779c22	3.8689046
191	0x4068a6ce	3.635181
192	0x409d5a74	4.9172916
193	0x4096a813	4.708017
194	0x3fce8e26	1.613713
195	0xbf3a7414	-0.7283337
196	0x401ff696	2.4994254
197	0x3f6de90f	0.92933744
198	0x3f5b207e	0.85596454
199	0x3fe0e770	1.7570629
200	0xbf890757	-1.0705365
201	0x40424051	3.0351756
202	0x40948541	4.6412663
203	0x40798a29	3.8990576
204	0x3ffeeda2	1.991627
205	0xbe8e72dd	-0.2782201
206	0xbfd48eb6	-1.6606052
207	0xbf690806	-0.9102787
208	0x40a4e75f	5.1532435
209	0x401d3949	2.4566214
210	0x00000000	0.0
211	0x404bdb5e	3.185264
212	0x409e9aa4	4.956377
213	0x4049b9ee	3.1519732
214	0xbedf4058	-0.43603778
215	0xc02a0116	-2.6563163
216	0xbdc25207	-0.09488302
217	0xbf631b7c	-0.8871381
218	0xbf0aa09a	-0.5415131
219	0x3e25a7b0	0.16177249
220	0x3f9bcec6	1.2172477
221	0x3ebfa34b	0.3742927
222	0x3fc46116	1.5342128
223	0x40c0570e	6.010627
224	0xbf9f6060	-1.2451286
225	0xbdd4160e	-0.10355769
226	0xbff5d3ed	-1.92053
227	0x3f0abe25	0.5419639
228	0x3f5d35eb	0.864104
229	0x3f627f03	0.88475055
230	0x3f25403a	0.64551127
231	0x00000000	0.0
232	0x3f3943ff	0.7236938
233	0x3fed4c0e	1.8538835
234	0x3f91b0f1	1.1382123
235	0xbf80efb8	-1.0073156
236	0x4058518a	3.3799767
237	0xbeb41733	-0.3517395
238	0x4014aa81	2.3229067
239	0x3f305a51	0.6888781
240	0xbf9b0262	-1.2110102
241	0x40a34b91	5.1029744
242	0x4064d73c	3.5756369
243	0x4081a49c	4.051344
244	0x40260f6f	2.594692
245	0x401bae38	2.4325085
246	0x3ffe5b81	1.9871675
247	0xbe8fd151	-0.28089383
248	0x40b838b0	5.75692
249	0x4023d65d	2.5599587
250	0x40985c48	4.761265
251	0x405e1b14	3.4704027
252	0x00000000	0.0
253	0x408664ed	4.19982
254	0xbf53b319	-0.82695156
255	0x3f838651	1.0275365

snn.fc_out.weight f4 [9, 20]
0	0x3daf3bdd	0.0855634
1	0xc00b4953	-2.1763504
2	0xc00f9628	-2.2435398
3	0xc063dd6b	-3.5603893
4	0xbf7d2289	-0.9888082
5	0xbe25a419	-0.1617588
6	0x3f1bf04f	0.60913557
7	0x3de335e1	0.11094261
8	0xc046684b	-3.1001155
9	0xbf815f95	-1.0107294
10	0xbfcf9468	-1.6217165
11	0xc063145a	-3.5481172
12	0xbff47723	-1.9098858
13	0xbfe46ec8	-1.7846308
14	0xbe5611c8	-0.2090522
15	0x3ec11f6a	0.3771928
16	0xbea490be	-0.3214168
17	0x3d97498e	0.07387076
18	0x3cc79526	0.024363112
19	0xbf2c22eb	-0.6724078
20	0xc02227c7	-2.5336778
21	0x3f44a974	0.76821065
22	0x407aeed2	3.9208264
23	0xc077af1a	-3.8700624
24	0xc07a476c	-3.9106092
25	0xbf75cb16	-0.9601301
26	0xbf8b8951	-1.0901281
27	0xbfe88e4c	-1.8168426
28	0xbe0e7d23	-0.13914923
29	0x3fd934d6	1.6969249
30	0x3fabf427	1.3433884
31	0xc01b5134	-2.4268312
32	0x3f21934e	0.63115394
33	0x3f73ca88	0.95230913
34	0x3f2cb8df	0.6746959
35	0xc01c1d48	-2.4392872
36	0xbf68fb90	-0.91008854
37	0x3e31f64e	0.17379114
38	0xbff772de	-1.933193
39	0x3f7bae9b	0.983133
40	0x3fea6ba2	1.8314097
41	0x3e61648d	0.22011013
42	0xc0052cdf	-2.0808637
43	0xbf0713b5	-0.52764446
44	0x403746b3	2.8636901
45	0x3f335adc	0.70060515
46	0x3f926777	1.1437825
47	0x3f93c74c	1.1545196
48	0x400200a7	2.0312898
49	0x3d943fff	0.07238769
50	0x3fb8f3ce	1.4449403
51	0xc01f7ce3	-2.4919975
52	0x3eea17d0	0.45721292
53	0x3eab94d9	0.33512
54	0x3e5f7c34	0.21824723
55	0x3f5f067a	0.8711926
56	0xc02f8f8c	-2.7431364
57	0xbf2be4c2	-0.6714593
58	0x3f5038c7	0.81336635
59	0x3f1da93a	0.61586344
60	0x3e88802a	0.2666028
61	0xbeca1ba6	-0.3947422
62	0x3d832e48	0.06405312
63	0xc0131c04	-2.298585
64	0xbfaea110	-1.3642902
65	0x3f85078d	1.0392929
66	0x3e87b3a4	0.26504242
67	0x3f5eed90	0.8708124
68	0xbe2fd72f	-0.1717193
69	0x3f7e3232	0.9929534
70	0x3f3356d1	0.70054346
71	0xbe0ec96c	-0.13944024
72	0x3c549f69	0.0129774595
73	0x3f9702e6	1.179776
74	0x3ff34194	1.9004388
75	0x3f87912a	1.0591176
76	0x401e2ada	2.4713655
77	0x3f9e15ff	1.2350463
78	0x3fc9d541	1.5768205
79	0x3fc7e747	1.5617455
80	0xbf395d57	-0.7240805
81	0x40187e5e	2.3827128
82	0x3f2de66b	0.67929715
83	0xc05ef696	-3.4838004
84	0x3ee9e4c6	0.45682353
85	0x3ed128a3	0.40851316
86	0x3fad22dc	1.3526263
87	0xbc6e433b	-0.014542396
88	0x3df8df92	0.12152018
89	0x3f068697	0.5254912
90	0xbf22715f	-0.6345424
91	0xc086ed3e	-4.21646
92	0x400d253b	2.2053974
93	0xbed397b7	-0.41326687
94	0xbfb9e438	-1.4522772
95	0x3fa6756e	1.3004587
96	0xbf6a822f	-0.91604894
97	0x3ea6c119	0.32569197
98	0xbfe81fd3	-1.8134712
99	0xbf80b43a	-1.0055001
100	0x4004de58	2.0760708
101	0xbf82831f	-1.0196265
102	0xc00dee3d	-2.217666
103	0x3f7bdecb	0.9838683
104	0x3f115886	0.567757
105	0xbf9e5dac	-1.2372336
106	0xbf84676e	-1.0344064
107	0x3fad246b	1.3526739
108	0xc021c8fa	-2.5278916
109	0xbeca6494	-0.3952986
110	0xc00f1575	-2.2356846
111	0x3fdcb9de	1.7244222
112	0xbfa5272c	-1.2902579
113	0xbe6cdd4b	-0.23131292
114	0x3ea72a1e	0.3264932
115	0x3e98624a	0.2976249
116	0x401e1590	2.470066
117	0x3e2fffee	0.17187473
118	0x3fc6243e	1.547981
119	0xbe61cd4c	-0.22050971
120	0xc0406611	-3.0062296
121	0xc01fc627	-2.4964693
122	0xc00782a7	-2.1173494
123	0x405bde1d	3.4354317
124	0xbf079b3e	-0.52971256
125	0xbefb2a62	-0.49055773
126	0xbf57376f	-0.8406896
127	0xc019a6ac	-2.4007978
128	0xc001bc71	-2.0271266
129	0xc09464b1	-4.6372914
130	0xc0851a84	-4.159487
131	0x4039e8a0	2.9048233
132	0xbfa92647	-1.3214806
133	0xc08a8d60	-4.3297577
134	0xc03a5ece	-2.9120364
135	0xbfd1d63d	-1.6393505
136	0xc0211d1c	-2.5174017
137	0xbfc07c7d	-1.5037991
138	0xc063bde2	-3.5584645
139	0xc06548fd	-3.5825799
140	0xc0406f2e	-3.0067859
141	0xbfe85a7e	-1.8152616
142	0xc0930e9d	-4.595534
143	0x40750ce1	3.828911
144	0x3f851bda	1.0399125
145	0xbfb09181	-1.3794404
146	0xc02b7837	-2.6792123
147	0xc06e4417	-3.7229059
148	0x401952a6	2.3956695
149	0xc03dd5d6	-2.9661765
150	0x3f99336d	1.1968819
151	0x3f83cb34	1.0296388
152	0xbdc7f3a9	-0.09763271
153	0xbfd4af9b	-1.661609
154	0xc086dec0	-4.214691
155	0xc06f6435	-3.7404912
156	0xc0b6f087	-5.7168612
157	0xc00974b2	-2.1477475
158	0xc0372e6c	-2.8622084
159	0xc0650304	-3.578309
160	0xbefdaec0	-0.49547386
161	0xc0a7cdad	-5.243857
162	0x3f8f769f	1.1208075
163	0x40403364	3.0031366
164	0xc09c8a20	-4.891861
165	0xbfdb0b47	-1.7112817
166	0xbf530d92	-0.8244258
167	0xbf2cccc5	-0.67499954
168	0xc0c2dd60	-6.0895233
169	0xc034701c	-2.8193426
170	0xc0982e4b	-4.755651
171	0x4076bf78	3.8554363
172	0xc0b7ab20	-5.7396393
173	0xc076115e	-3.84481
174	0xbedeff2b	-0.43554053
175	0xbf01645c	-0.5054376
176	0x3fe67b95	1.8006464
177	0xbe1bbf2a	-0.15209642
178	0xbf87c6e5	-1.0607573
179	0xbf8e2b0f	-1.110689

exp_avg f4 [20, 416]
0	0x39c6944b	0.0003787599
1	0x3a883643	0.0010392148
2	0x3aa8e573	0.0012885764
3	0x3a143b6d	0.0005654607
4	0xbaa0d1e5	-0.0012269585
5	0xba808b93	-0.0009807221
6	0xba9a0a72	-0.001175238
7	0x3a6d7057	0.00090575725
8	0x3aa697f6	0.0012710083
9	0xb9598001	-0.00020742418
10	0xb989ca9a	-0.00026281626
11	0x3a8077b6	0.0009801302
12	0x3955676f	0.00020351795
13	0x393b8c54	0.00017885986
14	0xb9797c2a	-0.00023792745
15	0x3b2339c8	0.0024906266
16	0x3aac97e4	0.0013167826
17	0xbb0e0d62	-0.0021675457
18	0x3a0ce353	0.000537445
19	0x3a2df804	0.00066363835
20	0x39d375cb	0.0004033282
21	0xba4533f6	-0.00075226964
22	0x392a06a1	0.00016214933
23	0xb9e8f7a4	-0.00044434995
24	0x39823549	0.00024835233
25	0xba5923b6	-0.00082832144
26	0x39ee051a	0.00045398698
27	0x3a397af2	0.000707551
28	0xb9faa9da	-0.00047810265
29	0xb9c1bb31	-0.00036951297
30	0xb9d10b7e	-0.0003987215
31	0x3a688d91	0.00088711927
32	0xba8dd5ab	-0.0010821124
33	0x3a0f7427	0.0005472325
34	0x3999c281	0.0002932735
35	0x3a38b7c0	0.0007046424
36	0x3a0523d7	0.0005078888
37	0xba8dd17a	-0.0010819875
38	0x3ae712b7	0.0017629479
39	0x3aa7ed0e	0.0012811737
40	0x3acad4b2	0.0015474765
41	0x3a7f4d70	0.0009739017
42	0x39e5da91	0.00043841128
43	0x378dc49a	1.690006e-05
44	0x3a991b07	0.0011681028
45	0xb990a0c5	-0.00027585603
46	0xbaa7c1ba	-0.0012798824
47	0xba4cf558	-0.00078185415
48	0x3a4ac846	0.00077355315
49	0x39efcece	0.00045739714
50	0x3a3d7574	0.000722728
51	0x3ace6fcb	0.001574987
52	0x3a152705	0.0005689713
53	0x3a9998c0	0.0011718497
54	0x3a41d77e	0.00073944766
55	0xba076a18	-0.00051656505
56	0xba223190	-0.0006187195
57	0xba0f788d	-0.00054729806
58	0xb9c9ef3e	-0.00038515957
59	0x3a1c4eed	0.00059626886
60	0x3b080bc5	0.0020758968
61	0xba361de7	-0.0006947205
62	0x393a67db	0.00017777031
63	0xba027ffe	-0.0004978179
64	0x397d489d	0.00024155011
65	0x3a37972e	0.00070034235
66	0x3a49da24	0.0007700047
67	0x3a1f0da9	0.0006067404
68	0xb93b858f	-0.00017883464
69	0xba8f215d	-0.0010919977
70	0x3a2c226d	0.0006566409
71	0xbb28735a	-0.002570352
72	0x3a89afb5	0.0010504635
73	0x38a5f347	7.913127e-05
74	0xb9e0945d	-0.0004283515
75	0xb9b577ec	-0.0003461236
76	0x392fa2c2	0.00016749933
77	0xbb0ef6e3	-0.0021814636
78	0x39c65bd7	0.0003783393
79	0x3895ab42	7.136773e-05
80	0x3aa54f2b	0.0012612095
81	0x3a9d5a73	0.0012005105
82	0xb9333cb5	-0.00017093385
83	0xb7e7ad9a	-2.7618185e-05
84	0x38b57c0e	8.6538595e-05
85	0x3a270d3d	0.0006372517
86	0xbaf605e5	-0.0018770067
87	0x3abc6f23	0.0014376383
88	0x3aadd38a	0.0013261896
89	0x3a684cbb	0.00088615314
90	0x3a361af7	0.0006946767
91	0xb7c22027	-2.3141574e-05
92	0xb9f0902d	-0.00045883787
93	0x39e5ba0b	0.00043816897
94	0x3a03c759	0.00050269585
95	0xb8f8deae	-0.00011867039
96	0xb8909abf	-6.895279e-05
97	0x3a5bfc6d	0.00083918014
98	0x3a74477b	0.0009318513
99	0xb9c0b5a2	-0.0003675642
100	0x388a9f61	6.6100394e-05
101	0xba988de9	-0.0011638972
102	0xb9c41800	-0.00037401915
103	0x39ca7d9d	0.00038622032
104	0x39bac65f	0.00035624483
105	0x3a87d52c	0.0010363213
106	0x3b348ed5	0.0027550955
107	0x3a8c8c14	0.0010722899
108	0xbac169cb	-0.001475626
109	0xba856d66	-0.0010179698
110	0xbaac3c51	-0.0013140534
111	0x3aaccf5a	0.0013184354
112	0x38d46c0f	0.00010129075
113	0xbaa7dc1a	-0.0012806684
114	0xba7ee329	-0.00097231806
115	0xba7754b2	-0.0009434923
116	0x39f6910b	0.00047028842
117	0x3a3b8b50	0.0007154243
118	0xb8a9021f	-8.058943e-05
119	0x3a8cfdcf	0.0010756793
120	0x3ad39ee8	0.001614538
121	0xbb15dbb9	-0.002286656
122	0x3a8f2164	0.0010919985
123	0xbabfab1f	-0.0014623142
124	0xb887ed72	-6.481529e-05
125	0xba5e4783	-0.0008479284
126	0x3a42f610	0.0007437179
127	0x3aad1376	0.0013204652
128	0xb91a5a61	-0.00014720253
129	0xbb2f51a5	-0.0026751545
130	0xb9954776	-0.00028472737
131	0xba3930d1	-0.0007064464
132	0x3a1cae8c	0.0005976937
133	0xb956a780	-0.00020471029
134	0x3ad6becb	0.0016383765
135	0x3a80545e	0.0009790768
136	0xba75f848	-0.0009383005
137	0xb9793e51	-0.00023769705
138	0x3840f195	4.6001358e-05
139	0xb9b80e9e	-0.00035106105
140	0xbaed71af	-0.0018115545
141	0xbaf1bc45	-0.001844295
142	0xb9ffee22	-0.00048814813
143	0xba72a234	-0.00092557375
144	0xbab290aa	-0.0013623436
145	0x3a01e445	0.0004954974
146	0xba5603f9	-0.0008164044
147	0xb9525fd4	-0.0002006286
148	0x39d96857	0.00041467205
149	0x388f7042	6.839681e-05
150	0x398fb78e	0.00027411844
151	0x3a45ceca	0.00075457676
152	0x3a4a3cca	0.0007714747
153	0xbac42ab8	-0.0014966344
154	0x3a03cf0c	0.0005028106
155	0xb993a6e5	-0.0002816237
156	0x3aad68fb	0.0013230139
157	0x3ac475a9	0.0014988679
158	0xb9df414f	-0.00042582533
159	0x3a58999f	0.00082626374
160	0xb970bb3e	-0.00022957937
161	0x3a8225d6	0.0009929489
162	0xb8fdecc4	-0.00012108081
163	0x370c408e	8.359681e-06
164	0xb8472115	-4.7476107e-05
165	0xb968ecc1	-0.00022213442
166	0x3929e2bf	0.00016201565
167	0xb9a0541b	-0.00030580242
168	0x38339c62	4.282257e-05
169	0x3aae90a1	0.0013318249
170	0x38da24a1	0.00010401873
171	0x3a6b751e	0.00089819904
172	0x3aa344f3	0.0012456462
173	0xba4a1a73	-0.000770963
174	0x3a5f99b9	0.00085296814
175	0xba1d7b01	-0.0006007404
176	0xbb1d4700	-0.0023998618
177	0xbabb3ad0	-0.0014284495
178	0x39b883b4	0.0003519334
179	0x3aa8dba5	0.0012882842
180	0x3a077a9b	0.0005168111
181	0xbaab6882	-0.001307741
182	0xba5fd30a	-0.0008538222
183	0x39899202	0.0002623946
184	0x38f23e7e	0.00011551099
185	0x39d5e646	0.00040798093
186	0x3b07673c	0.0020660898
187	0x39bd4a43	0.00036104218
188	0x3a5377cd	0.0008066863
189	0xbaa7f7e3	-0.0012814965
190	0xbb0a230f	-0.0021078025
191	0x3a7749ee	0.00094333186
192	0xb83108d8	-4.2208325e-05
193	0xba432208	-0.0007443731
194	0x3a0bd7e7	0.0005334601
195	0xbaa5eed8	-0.0012659682
196	0xba86cb59	-0.0010283991
197	0xbaab6c8a	-0.0013078612
198	0x392917d8	0.00016125978
199	0xba0df2a3	-0.0005414879
200	0x3a617c7f	0.000860162
201	0x3a6107f2	0.0008584253
202	0xb8d82bdf	-0.00010307854
203	0x3907b178	0.00012940716
204	0x3a927701	0.0011174382
205	0x396d8d84	0.000226548
206	0x3aa8f128	0.0012889253
207	0x3b507291	0.0031806568
208	0x39aab579	0.00032560134
209	0xb9ec2c2e	-0.00045046344
210	0x3a1ff270	0.00061014947
211	0x39a75e69	0.00031923063
212	0x3a97f95b	0.00115947
213	0xb91c0a3c	-0.00014881132
214	0x3a60b425	0.00085717655
215	0xba15ebf0	-0.00057190564
216	0x39cbf951	0.00038904932
217	0xb9c57955	-0.00037665167
218	0x389f02ac	7.5822085e-05
219	0x39c2b57f	0.0003713779
220	0x38e1bf3c	0.00010764456
221	0xb8f1f178	-0.000115367526
222	0xba1e3190	-0.0006034607
223	0xb991ef0b	-0.00027834656
224	0xba2cca33	-0.00065914093
225	0x3a7169e6	0.00092092005
226	0x3a335af3	0.00068418606
227	0xbaf36d29	-0.0018571961
228	0x3b0ad165	0.0021181938
229	0x3a5663a2	0.00081782986
230	0x3abf9a0d	0.0014618054
231	0xba3d5126	-0.000722187
232	0xbab3d870	-0.001372112
233	0x3a3f0039	0.0007286105
234	0x3a1bd9af	0.0005945218
235	0x3aab0b4f	0.0013049635
236	0xbb7835a7	-0.0037873776
237	0x380cad92	3.354025e-05
238	0xba6cc026	-0.0009031318
239	0x39c9480d	0.0003839139
240	0x3a0f7ffa	0.0005474087
241	0x3a505d74	0.0007948496
242	0x3a184172	0.0005808092
243	0x3a982636	0.0011608067
244	0xb8ca6a12	-9.651868e-05
245	0xba283844	-0.00064170756
246	0x38d6a31b	0.00010234696
247	0x3a0e6bc6	0.00054329296
248	0xbad87db7	-0.0016516958
249	0xbad74930	-0.001642501
250	0x3a9179e4	0.0011098948
251	0xba8a20e8	-0.0010538371
252	0x3a83001a	0.0009994537
253	0x3a8de148	0.0010824585
254	0xbab6f104	-0.0013957326
255	0x3a2716e4	0.00063739554

exp_avg_sq f4 [20, 416]
0	0x37d08c5b	2.486089e-05
1	0x37c6e843	2.3711595e-05
2	0x37a4254b	1.956769e-05
3	0x3797945e	1.8069692e-05
4	0x37c701f6	2.3723562e-05
5	0x379cbded	1.868509e-05
6	0x37ab0e58	2.0391468e-05
7	0x3776ec53	1.4717766e-05
8	0x378d30ad	1.6831176e-05
9	0x37de5317	2.6503154e-05
10	0x37ab0389	2.0386435e-05
11	0x378ee310	1.7033453e-05
12	0x379e9987	1.890656e-05
13	0x378727e8	1.6111837e-05
14	0x378f2b78	1.706717e-05
15	0x37b46c9b	2.1508245e-05
16	0x37bd5d18	2.2573906e-05
17	0x37a1d50b	1.9291901e-05
18	0x37a79de7	1.998148e-05
19	0x37953e50	1.77912e-05
20	0x37a0b262	1.9156552e-05
21	0x380b11a7	3.3156623e-05
22	0x37b73826	2.1841446e-05
23	0x37acd5f1	2.0603622e-05
24	0x378aaf5c	1.653254e-05
25	0x37b2f267	2.1332131e-05
26	0x37b552a7	2.161537e-05
27	0x379a08cd	1.8362329e-05
28	0x378ae764	1.6558632e-05
29	0x377e58a1	1.5160215e-05
30	0x378d0569	1.681103e-05
31	0x37e3d3cf	2.715914e-05
32	0x379b16db	1.8488083e-05
33	0x3796977e	1.7951937e-05
34	0x37baa914	2.2251661e-05
35	0x378e929c	1.699599e-05
36	0x37a7ade9	1.9988935e-05
37	0x37ab2741	2.0403068e-05
38	0x37881c14	1.6225538e-05
39	0x379ccfbb	1.8693381e-05
40	0x3780e3dc	1.5364894e-05
41	0x37b588c2	2.1640564e-05
42	0x37999c6f	1.8311866e-05
43	0x3788d40c	1.6311205e-05
44	0x37a19639	1.9262648e-05
45	0x37a0c2a4	1.9164123e-05
46	0x379ab61e	1.8443036e-05
47	0x379bb076	1.855961e-05
48	0x3796f1b3	1.7993943e-05
49	0x379aec37	1.8468227e-05
50	0x37bd70a8	2.2583015e-05
51	0x37940f1e	1.7650014e-05
52	0x37ce7d9a	2.4615601e-05
53	0x3813be03	3.5224493e-05
54	0x37cd8d13	2.4503597e-05
55	0x37cac241	2.4170733e-05
56	0x37fac0e2	2.989214e-05
57	0x37c89569	2.3911432e-05
58	0x37fe3a47	3.0306297e-05
59	0x37eece4f	2.846788e-05
60	0x37850d09	1.5860905e-05
61	0x37cd7fbd	2.4497387e-05
62	0x37cbbe6d	2.428816e-05
63	0x37d2b330	2.5117391e-05
64	0x37ade40a	2.0729396e-05
65	0x37c0b971	2.2974536e-05
66	0x37b5e632	2.1684074e-05
67	0x37cdc8bb	2.4531377e-05
68	0x37e7e5b5	2.7644312e-05
69	0x37e5c22e	2.738935e-05
70	0x37c82a53	2.3861567e-05
71	0x38089263	3.256126e-05
72	0x38063e1b	3.200593e-05
73	0x37d2ffd9	2.515309e-05
74	0x3815ab7b	3.5684072e-05
75	0x381bb0d1	3.7119553e-05
76	0x37a5ca3e	1.976371e-05
77	0x37acc19a	2.059415e-05
78	0x37a249cb	1.9346267e-05
79	0x3796bf4c	1.7970473e-05
80	0x37b7bd2b	2.1903388e-05
81	0x37ad1721	2.0633977e-05
82	0x379b04bc	1.8479644e-05
83	0x37c51ad1	2.3496717e-05
84	0x3793ba41	1.7610497e-05
85	0x37f48d61	2.9152901e-05
86	0x37c6be1b	2.3691964e-05
87	0x37c5ce26	2.3580225e-05
88	0x37ddbf74	2.6434405e-05
89	0x37cbc181	2.4289593e-05
90	0x37dd79cb	2.6401967e-05
91	0x37d0f53c	2.4909728e-05
92	0x37a68c14	1.9853971e-05
93	0x378da6d3	1.6886193e-05
94	0x37cddd91	2.454108e-05
95	0x37b22060	2.123433e-05
96	0x378f9877	1.7117925e-05
97	0x37d056fa	2.4836034e-05
98	0x37a23cad	1.934016e-05
99	0x37eff1e9	2.8603668e-05
100	0x37b86c41	2.1984919e-05
101	0x37e0614d	2.674819e-05
102	0x37d0a739	2.4873401e-05
103	0x37bf35ef	2.279409e-05
104	0x37c3ef39	2.3357208e-05
105	0x383c168e	4.48437e-05
106	0x3816472c	3.582907e-05
107	0x37f4a511	2.9163932e-05
108	0x3809216b	3.269447e-05
109	0x37e7904c	2.760454e-05
110	0x3811718b	3.467644e-05
111	0x38817313	6.1726336e-05
112	0x37ea34f7	2.7919637e-05
113	0x38634fec	5.419545e-05
114	0x3815ceea	3.5717072e-05
115	0x38062d2e	3.1990166e-05
116	0x381427d4	3.5323043e-05
117	0x3803cbc1	3.1422594e-05
118	0x37f0bd69	2.869843e-05
119	0x38424f37	4.632698e-05
120	0x37fffb73	3.0515459e-05
121	0x382194c9	3.852396e-05
122	0x3816ba72	3.5936428e-05
123	0x37fddf3e	3.0263906e-05
124	0x38131795	3.5069494e-05
125	0x37effd71	2.8609038e-05
126	0x37f74c9a	2.9480365e-05
127	0x3892bd02	6.997028e-05
128	0x380c2b58	3.3418968e-05
129	0x383e58fa	4.5382396e-05
130	0x37d685cc	2.5573092e-05
131	0x37de31ab	2.648759e-05
132	0x3814731f	3.5393165e-05
133	0x3809e011	3.2872023e-05
134	0x38055891	3.1792155e-05
135	0x380e8bc0	3.398559e-05
136	0x38119098	3.4705357e-05
137	0x382b492b	4.083772e-05
138	0x37e70021	2.7537406e-05
139	0x37f8d3cc	2.966253e-05
140	0x3818b18e	3.6404985e-05
141	0x37f828bf	2.9582878e-05
142	0x37fade4d	2.990584e-05
143	0x386d630e	5.6597455e-05
144	0x37e25fd5	2.6985925e-05
145	0x3831c39a	4.2382257e-05
146	0x381bb7eb	3.7126167e-05
147	0x382263e1	3.871683e-05
148	0x380157da	3.0837815e-05
149	0x3801c9e9	3.094404e-05
150	0x37edc4a7	2.8344175e-05
151	0x384b9c66	4.854463e-05
152	0x380b0e14	3.3153294e-05
153	0x381fff5c	3.8146376e-05
154	0x37f48e2c	2.915327e-05
155	0x3821e27f	3.8596332e-05
156	0x37e49e8e	2.725355e-05
157	0x38086eef	3.252824e-05
158	0x37934d8e	1.755988e-05
159	0x37d38921	2.5217016e-05
160	0x38089ff0	3.257388e-05
161	0x37fadd09	2.990525e-05
162	0x380135c4	3.080607e-05
163	0x38245384	3.9178427e-05
164	0x383ac002	4.4524677e-05
165	0x380cbe24	3.3555683e-05
166	0x3812264e	3.4844787e-05
167	0x3802593a	3.1077514e-05
168	0x379fdd5b	1.9057354e-05
169	0x37e92c95	2.7796525e-05
170	0x382d4cd3	4.1317962e-05
171	0x37c7dcd9	2.3825489e-05
172	0x37b4862b	2.1520149e-05
173	0x380523ce	3.1743017e-05
174	0x37e8df7c	2.7760623e-05
175	0x381ee872	3.7886617e-05
176	0x383b88c1	4.4711636e-05
177	0x37cae979	2.4188996e-05
178	0x38115401	3.464893e-05
179	0x382ba849	4.0926305e-05
180	0x3805df3d	3.1917578e-05
181	0x37e668ea	2.7466991e-05
182	0x37cc2e3f	2.434023e-05
183	0x37f94f68	2.972009e-05
184	0x37b79cd6	2.1888332e-05
185	0x37ec0f8a	2.8140628e-05
186	0x380b5cd8	3.322665e-05
187	0x37d03e37	2.4824503e-05
188	0x37f3ee1c	2.9078736e-05
189	0x37d72efc	2.5651876e-05
190	0x380a4283	3.2963708e-05
191	0x37f8583f	2.9604997e-05
192	0x383241a8	4.2499654e-05
193	0x3798a0c8	1.8194682e-05
194	0x38117943	3.4683628e-05
195	0x3818648e	3.6333273e-05
196	0x3804b165	3.1636464e-05
197	0x37d2bcce	2.512187e-05
198	0x3810f6ce	3.456213e-05
199	0x37e83aac	2.7683876e-05
200	0x37cbe403	2.4305662e-05
201	0x3817cc52	3.6191494e-05
202	0x37d9f79a	2.5983714e-05
203	0x37cf2c72	2.469702e-05
204	0x3804dee1	3.1678825e-05
205	0x37ee9567	2.8441382e-05
206	0x37e98374	2.7836977e-05
207	0x37eca407	2.8209774e-05
208	0x37a6ade3	1.9869714e-05
209	0x37cf398a	2.4703117e-05
210	0x37a73469	1.9932357e-05
211	0x3778691d	1.48064255e-05
212	0x37f5feae	2.932487e-05
213	0x37e129f6	2.684163e-05
214	0x37a0708e	1.9125899e-05
215	0x37c480e5	2.3425042e-05
216	0x37abeb32	2.049431e-05
217	0x37a59f45	1.9743698e-05
218	0x37a181ad	1.925308e-05
219	0x38099968	3.2806216e-05
220	0x37a8f7cc	2.014255e-05
221	0x37872f54	1.6115293e-05
222	0x37f717c1	2.9455756e-05
223	0x37c95c28	2.400398e-05
224	0x37bce82d	2.2519462e-05
225	0x380305cb	3.123823e-05
226	0x37a87c09	2.0084919e-05
227	0x37754c7e	1.4620948e-05
228	0x37d0b10d	2.4877978e-05
229	0x37dd7538	2.6399837e-05
230	0x378ad922	1.6551992e-05
231	0x3824d006	3.9294384e-05
232	0x37a1bb92	1.928004e-05
233	0x37c3240c	2.3262597e-05
234	0x37b11804	2.1111227e-05
235	0x37b7b6a3	2.1900347e-05
236	0x37b3f5cc	2.1452921e-05
237	0x37a293df	1.9380763e-05
238	0x3805aeb2	3.187237e-05
239	0x37c2a3f9	2.3202958e-05
240	0x37c4e2be	2.3470606e-05
241	0x37c374fd	2.3300288e-05
242	0x37d8ce2d	2.5845215e-05
243	0x3781bc4a	1.5465677e-05
244	0x37a9d9f8	2.024787e-05
245	0x37ab2fbd	2.0407018e-05
246	0x37810e5f	1.538469e-05
247	0x38067a50	3.2062002e-05
248	0x37c7507b	2.3760125e-05
249	0x37d83788	2.5775065e-05
250	0x37b9ac11	2.2133843e-05
251	0x37deb371	2.6548021e-05
252	0x378bdf6a	1.6674127e-05
253	0x37a7a711	1.9985748e-05
254	0x37f19ea1	2.8803306e-05
255	0x37dba49d	2.6183488e-05

exp_avg f4 [20, 20]
0	0x00000000	0.0
1	0xb9435c93	-0.00018631136
2	0x3888ab41	6.516884e-05
3	0xb9acab54	-0.00032934046
4	0xb8bbbe45	-8.952295e-05
5	0x37933674	1.7549122e-05
6	0xb65ccaf4	-3.290069e-06
7	0x3821150d	3.8404996e-05
8	0xb976572a	-0.0002349286
9	0xb8919e24	-6.943595e-05
10	0xb8b30466	-8.5362044e-05
11	0xb9a52b2e	-0.00031503424
12	0xb9a04ce2	-0.0003057486
13	0xb81e55c4	-3.775001e-05
14	0x38839766	6.274767e-05
15	0x3880556b	6.119426e-05
16	0x3934909c	0.00017220009
17	0x38300e65	4.1975076e-05
18	0x38223730	3.8675207e-05
19	0x38741315	5.8191905e-05
20	0x3912f151	0.00014013542
21	0x00000000	0.0
22	0xbadc1281	-0.0016790183
23	0xbb69473b	-0.0035595435
24	0x3918e9ae	0.00014582902
25	0xb6a6844a	-4.962586e-06
26	0xb8f2ba60	-0.00011574174
27	0x38223086	3.8669e-05
28	0xb982b495	-0.00024930076
29	0xb91f05fd	-0.00015165652
30	0xb8828f34	-6.225557e-05
31	0xbb5ac7fc	-0.003338336
32	0xbab5b6bd	-0.0013863664
33	0xb8a0ac36	-7.661471e-05
34	0x37448bec	1.17150885e-05
35	0xb914b2cf	-0.00014180991
36	0xb9929813	-0.00027960594
37	0xb680b215	-3.8354287e-06
38	0x38f20903	0.00011541138
39	0xb721b1d2	-9.63775e-06
40	0xb739dd12	-1.1078331e-05
41	0xbac3c905	-0.0014937228
42	0x00000000	0.0
43	0xbb62bd34	-0.0034597637
44	0x38758c75	5.8543363e-05
45	0xb6b63001	-5.429611e-06
46	0xb9307101	-0.00016826765
47	0x35db0b51	1.6320065e-06
48	0xb9907f46	-0.00027560646
49	0xb958fd69	-0.00020693768
50	0xb91d6166	-0.0001500897
51	0xbb7691db	-0.0037623558
52	0xbadaffa9	-0.0016708273
53	0xb909a0f5	-0.000131253
54	0xb87d9aee	-6.046419e-05
55	0xb963c968	-0.00021723437
56	0xb9bf551c	-0.0003649377
57	0xb7ba8276	-2.2233678e-05
58	0xb704b4ba	-7.909892e-06
59	0xb875520c	-5.8488964e-05
60	0x37f97b28	2.9740462e-05
61	0xba5a367a	-0.00083241577
62	0xba2443f0	-0.0006266227
63	0x00000000	0.0
64	0x37d0ce06	2.489147e-05
65	0x380b9762	3.328117e-05
66	0xb94347e8	-0.00018623436
67	0x36e1c2d7	6.728205e-06
68	0xba33d262	-0.00068596576
69	0x3989835d	0.0002622855
70	0xb884770a	-6.316423e-05
71	0xba90a71e	-0.0011036133
72	0xba8942d9	-0.0010472193
73	0x38a9486b	8.072037e-05
74	0x38b4e5e5	8.62589e-05
75	0x36a7e3dd	5.0035146e-06
76	0x3950be6e	0.00019907366
77	0x38877417	6.458925e-05
78	0x37ac0dec	2.051048e-05
79	0x390629b8	0.00012794777
80	0x393b6c13	0.0001787397
81	0xb9d0080e	-0.00039678853
82	0xb925ef1e	-0.00015824704
83	0xba91314a	-0.0011077311
84	0x00000000	0.0
85	0x37adb205	2.0706104e-05
86	0x39310099	0.00016880258
87	0x389f8fba	7.608482e-05
88	0xb999ce77	-0.00029336262
89	0xb922f67f	-0.00015541351
90	0xb7add0d6	-2.0720454e-05
91	0xba3faa91	-0.0007311488
92	0xba09d8b0	-0.0005258424
93	0xb7eb2d5f	-2.803531e-05
94	0x38c2a5ee	9.281548e-05
95	0x393d85f0	0.0001807434
96	0x381d1d7d	3.745918e-05
97	0x384e4410	4.9177615e-05
98	0x391749d2	0.00014427982
99	0x38a9e684	8.101485e-05
100	0xb677e115	-3.6936883e-06
101	0xb974dbf8	-0.00023351598
102	0xb924e077	-0.00015723878
103	0x387ba418	5.9995888e-05
104	0xb70a5048	-8.244133e-06
105	0x00000000	0.0
106	0xb86288f9	-5.4010165e-05
107	0xb7201eb7	-9.5438945e-06
108	0xb911305d	-0.00013846294
109	0xb8bd0926	-9.013926e-05
110	0xb8b55db8	-8.648209e-05
111	0xb88d9271	-6.750681e-05
112	0xb95bb373	-0.00020952318
113	0xb8c2bdb4	-9.285976e-05
114	0xb70ec92a	-8.510697e-06
115	0xb89cc673	-7.475624e-05
116	0xb7e594bb	-2.7368185e-05
117	0x372de122	1.0364021e-05
118	0xb78c21f7	-1.6705117e-05
119	0x36906f12	4.3044647e-06
120	0xb7981ada	-1.8132316e-05
121	0xb9f5382e	-0.000467719
122	0xb9c3c79c	-0.0003734202
123	0xba40a170	-0.0007348275
124	0xb90d2eae	-0.00013464197
125	0xb6ac016b	-5.1261645e-06
126	0x00000000	0.0
127	0xb60af3fb	-2.0705618e-06
128	0xb7b3da81	-2.1440212e-05
129	0xb9659a69	-0.00021896664
130	0xb711ebe2	-8.697594e-06
131	0xba023df2	-0.0004968337
132	0xb95c750d	-0.0002102444
133	0xb8b36de3	-8.555853e-05
134	0xb7969ac2	-1.7953458e-05
135	0xb885c365	-6.378329e-05
136	0xb9055d2e	-0.0001271858
137	0xb598f2f3	-1.139559e-06
138	0xb7826e7c	-1.5548656e-05
139	0xb6c895e7	-5.9779154e-06
140	0x3880e2a7	6.145733e-05
141	0xb94e9d90	-0.00019704388
142	0x37da4365	2.6019008e-05
143	0x39362812	0.000173718
144	0xb8230a63	-3.88719e-05
145	0x372458e1	9.7958555e-06
146	0xb7c9eab0	-2.4070352e-05
147	0x00000000	0.0
148	0xb96c8d33	-0.00022559315
149	0xb7e8908c	-2.7723865e-05
150	0xb8a31767	-7.776805e-05
151	0x383944a8	4.417138e-05
152	0xb974b9ec	-0.00023338915
153	0xb80aa722	-3.305742e-05
154	0x38701774	5.72423e-05
155	0x37c90c86	2.3966899e-05
156	0x3923785b	0.00015589727
157	0x3815df68	3.573243e-05
158	0x380edd9b	3.4061824e-05
159	0x386d175e	5.6526966e-05
160	0x388c7e78	6.699277e-05
161	0xba9b4468	-0.0011845948
162	0xbabf9569	-0.0014616671
163	0xbb2e7f31	-0.0026626105
164	0x391acb78	0.00014762382
165	0x3775b185	1.464447e-05
166	0x388bbee4	6.663593e-05
167	0xb7bc2696	-2.2429314e-05
168	0x00000000	0.0
169	0xb6201c0c	-2.3858183e-06
170	0xb92e5432	-0.00016625298
171	0xbb14d2e4	-0.0022708708
172	0xbaa2b334	-0.0012413026
173	0xb9066c1f	-0.00012819514
174	0xb7c6bd09	-2.3691466e-05
175	0xb91163af	-0.00013865413
176	0xb9845f6a	-0.0002524809
177	0x369ece2f	4.73277e-06
178	0x3835c724	4.3339227e-05
179	0xb5c56860	-1.4708021e-06
180	0x38c8e504	9.579401e-05
181	0xba93b733	-0.0011269808
182	0xbab42114	-0.0013742768
183	0xba240434	-0.000625673
184	0x3918a7f6	0.0001455842
185	0x36a4e7fa	4.9145865e-06
186	0xb8dbd861	-0.000104830375
187	0x38161bbf	3.5788627e-05
188	0xb997a589	-0.00028924298
189	0x00000000	0.0
190	0xb897c4cb	-7.2368966e-05
191	0xba8b6a1e	-0.0010636484
192	0xbaa04d2d	-0.0012230031
193	0xb80204f5	-3.0999032e-05
194	0x37abee35	2.0495712e-05
195	0xb8ee4eca	-0.000113634
196	0xb6a9c538	-5.0595518e-06
197	0x368b4e48	4.151636e-06
198	0x38a49873	7.848525e-05
199	0x374eb66f	1.2321033e-05
200	0x37f356fa	2.9008359e-05
201	0xba808c9c	-0.000980753
202	0xbab1c54f	-0.0013562831
203	0xba8458ba	-0.0010097243
204	0x39645453	0.00021775188
205	0x37903973	1.719289e-05
206	0x377a064a	1.49026255e-05
207	0xb7803f3b	-1.5288233e-05
208	0xb9ee9c73	-0.0004551146
209	0xb73225bb	-1.0618412e-05
210	0x00000000	0.0
211	0xba9a8d1e	-0.0011791324
212	0xba804c83	-0.0009788427
213	0xb9044132	-0.00012612788
214	0xb7d4b5f3	-2.5357096e-05
215	0xb8fb3bd4	-0.000119797565
216	0xb8eb21a6	-0.00011211941
217	0x35ab2b0d	1.2753022e-06
218	0x37990271	1.8240158e-05
219	0xb6c1ce20	-5.7758443e-06
220	0x3829830c	4.0414787e-05
221	0xbaab5f6e	-0.0013074705
222	0x381e6c41	3.7770955e-05
223	0xba11afd4	-0.00055575115
224	0x38851865	6.346478e-05
225	0x37c69e09	2.367703e-05
226	0xba08a781	-0.00052129483
227	0x376c64f5	1.4090202e-05
228	0xba893f92	-0.0010471216
229	0x39ea39ee	0.0004467512
230	0xb98f69e4	-0.0002735398
231	0x00000000	0.0
232	0xbada8f7d	-0.0016674843
233	0x384524b9	4.700266e-05
234	0x38d9ddca	0.00010388678
235	0xb9583747	-0.00020619958
236	0x39ed8c5f	0.00045308747
237	0x389b280c	7.398435e-05
238	0x37d870eb	2.5801788e-05
239	0x39158692	0.00014259879
240	0x391631cc	0.00014323666
241	0xbab74015	-0.001398089
242	0xbacd8e0b	-0.0015682591
243	0xbb69b1aa	-0.0035658875
244	0x3942bd79	0.00018571866
245	0xb640cd9b	-2.8729908e-06
246	0xb89f7ec3	-7.605322e-05
247	0x3810b97e	3.450503e-05
248	0xb98be0e5	-0.00026679705
249	0xb8765b86	-5.873621e-05
250	0xb89b470f	-7.404212e-05
251	0xbb604c04	-0.0034224996
252	0x00000000	0.0
253	0xb885fc36	-6.388912e-05
254	0x37b8712c	2.1987209e-05
255	0xb9252928	-0.00015750958

exp_avg_sq f4 [20, 20]
0	0x00000000	0.0
1	0x360c8bbb	2.094296e-06
2	0x35da89cd	1.6282371e-06
3	0x3775c24a	1.4648374e-05
4	0x348e7e86	2.654162e-07
5	0x324ee530	1.2042889e-08
6	0x3489ea82	2.5688865e-07
7	0x321dee4b	9.192784e-09
8	0x356762c2	8.619792e-07
9	0x352d2544	6.450175e-07
10	0x34c85c25	3.7319947e-07
11	0x372acdac	1.0180676e-05
12	0x360abbdd	2.0672953e-06
13	0x34d02f67	3.877751e-07
14	0x333be629	4.374866e-08
15	0x3409f3cb	1.284781e-07
16	0x35122705	5.444602e-07
17	0x3247fc64	1.16407115e-08
18	0x32afb507	2.0455003e-08
19	0x33af0662	8.1502336e-08
20	0x3424a378	1.533316e-07
21	0x00000000	0.0
22	0x37317cad	1.05790505e-05
23	0x390a305a	0.00013178718
24	0x349c70ca	2.913933e-07
25	0x3091893b	1.0589142e-09
26	0x33a7930c	7.803291e-08
27	0x328ec9f9	1.6622822e-08
28	0x35ada33f	1.2937015e-06
29	0x3498f106	2.8487574e-07
30	0x34094c9e	1.2786992e-07
31	0x38a83e58	8.022477e-05
32	0x36ab3b1c	5.1030784e-06
33	0x340406e3	1.2295963e-07
34	0x32b6c982	2.1279224e-08
35	0x3307f8d5	3.165845e-08
36	0x3612d931	2.1882117e-06
37	0x307e7f79	9.258581e-10
38	0x33b44c92	8.395831e-08
39	0x323d736a	1.102749e-08
40	0x33c9d4b9	9.398486e-08
41	0x36b0a9b8	5.2649666e-06
42	0x00000000	0.0
43	0x38ffe21e	0.00012201465
44	0x3506fc61	5.028615e-07
45	0x31e989d7	6.796863e-09
46	0x345b22c3	2.040861e-07
47	0x32931a80	1.7125103e-08
48	0x36207095	2.390739e-06
49	0x35291081	6.298142e-07
50	0x34f1e7d4	4.5058425e-07
51	0x38a55305	7.883277e-05
52	0x36f8701c	7.404027e-06
53	0x34c5343f	3.6732123e-07
54	0x33206c07	3.7351153e-08
55	0x3400bf14	1.1990443e-07
56	0x360e6063	2.1215753e-06
57	0x3198ee3a	4.4508655e-09
58	0x337174fe	5.621859e-08
59	0x3328e740	3.932587e-08
60	0x33181cf4	3.541659e-08
61	0x37a51b29	1.968218e-05
62	0x37dcbf7a	2.6315207e-05
63	0x00000000	0.0
64	0x35090f88	5.105908e-07
65	0x3327b4ed	3.904727e-08
66	0x35dd22fc	1.6475965e-06
67	0x32b3f379	2.0949061e-08
68	0x366639f5	3.4306406e-06
69	0x364806da	2.980631e-06
70	0x35939cfb	1.0998041e-06
71	0x388e2931	6.77876e-05
72	0x379bf82e	1.8593008e-05
73	0x35a03671	1.1936773e-06
74	0x339cd9fc	7.303967e-08
75	0x3524142c	6.1124115e-07
76	0x3542e4d8	7.2603643e-07
77	0x32d90947	2.5266344e-08
78	0x328aedaa	1.6173392e-08
79	0x34450d4b	1.835189e-07
80	0x346344c8	2.1166045e-07
81	0x3757256f	1.2823714e-05
82	0x3720863f	9.568e-06
83	0x388d61e6	6.741639e-05
84	0x00000000	0.0
85	0x32ef784e	2.787797e-08
86	0x35819dae	9.65714e-07
87	0x334f5754	4.8275368e-08
88	0x36956ef8	4.4534645e-06
89	0x36281edf	2.505192e-06
90	0x35c2f08e	1.4524137e-06
91	0x3823745a	3.897059e-05
92	0x3755afd9	1.2736732e-05
93	0x35b91458	1.3789495e-06
94	0x33eed682	1.11217574e-07
95	0x34da02bf	4.0607662e-07
96	0x35ddc3b2	1.6522738e-06
97	0x32d3b8e2	2.4647708e-08
98	0x340fceb0	1.3393105e-07
99	0x34618ec5	2.1006697e-07
100	0x32e5b958	2.6743393e-08
101	0x3572f596	9.05094e-07
102	0x35914c45	1.0825539e-06
103	0x35daa545	1.6290365e-06
104	0x335e7b13	5.180034e-08
105	0x00000000	0.0
106	0x338427e8	6.153988e-08
107	0x321e2f2a	9.207534e-09
108	0x346526de	2.1341427e-07
109	0x34a63797	3.0960356e-07
110	0x340d66e6	1.3169083e-07
111	0x358a4550	1.0301974e-06
112	0x3554dc0b	7.929636e-07
113	0x3441ff7c	1.806747e-07
114	0x32ebf14e	2.7467333e-08
115	0x32f92313	2.9003365e-08
116	0x34165586	1.4000952e-07
117	0x3190679a	4.2027297e-09
118	0x32b046ad	2.0521236e-08
119	0x33254db8	3.848774e-08
120	0x3262c0c5	1.3198762e-08
121	0x367853ac	3.7003583e-06
122	0x367530ef	3.6536328e-06
123	0x366c2693	3.5189194e-06
124	0x3435ce93	1.693209e-07
125	0x3128b15d	2.4548037e-09
126	0x00000000	0.0
127	0x319334b1	4.2842534e-09
128	0x354ae779	7.55877e-07
129	0x3517f6f0	5.6611225e-07
130	0x3481875b	2.4126606e-07
131	0x35f90ea2	1.8556204e-06
132	0x365ba7a5	3.2731125e-06
133	0x34807c21	2.3932174e-07
134	0x3260b715	1.3080144e-08
135	0x33ad6c95	8.075691e-08
136	0x33beda28	8.887247e-08
137	0x311acdce	2.2526936e-09
138	0x31fb05fc	7.305742e-09
139	0x32ed94f5	2.7658169e-08
140	0x32bf9fa1	2.2307917e-08
141	0x35c64cc3	1.477449e-06
142	0x35c76792	1.4856798e-06
143	0x36daa56d	6.5161644e-06
144	0x3407dc56	1.2653013e-07
145	0x31c38219	5.6900373e-09
146	0x34180e86	1.4161387e-07
147	0x00000000	0.0
148	0x34fea0f7	4.7428304e-07
149	0x3506d57d	5.0229556e-07
150	0x3482c14f	2.4355037e-07
151	0x3693ab1b	4.4008607e-06
152	0x35b6d517	1.3622074e-06
153	0x349ca8d5	2.9180106e-07
154	0x331b00ae	3.6089368e-08
155	0x33729635	5.648163e-08
156	0x3489b5c6	2.5650496e-07
157	0x321028f9	8.391219e-09
158	0x3282ed9e	1.5242048e-08
159	0x338ff8a2	6.7041825e-08
160	0x34c4119b	3.6520655e-07
161	0x3713e110	8.814284e-06
162	0x3770e793	1.4359032e-05
163	0x394b519e	0.00019389993
164	0x351be2d2	5.8072067e-07
165	0x31dedb7c	6.486003e-09
166	0x350ccec5	5.2454953e-07
167	0x337eb952	5.930753e-08
168	0x00000000	0.0
169	0x358b728b	1.0389643e-06
170	0x34d05051	3.8801457e-07
171	0x38e7644c	0.0001103362
172	0x3719057d	9.1207885e-06
173	0x34f770af	4.6089323e-07
174	0x33a336ce	7.600248e-08
175	0x347ff46f	2.383765e-07
176	0x36790179	3.7104749e-06
177	0x31b1ecff	5.1783213e-09
178	0x345e23a3	2.0688326e-07
179	0x3364f5ec	5.330905e-08
180	0x33d6e007	1.0005902e-07
181	0x368689cf	4.0095542e-06
182	0x372348a1	9.732467e-06
183	0x389b0e11	7.393596e-05
184	0x349030f9	2.6857722e-07
185	0x301c7a32	5.692612e-10
186	0x341b1b64	1.4445465e-07
187	0x32352ab5	1.0545297e-08
188	0x35aa656d	1.2695506e-06
189	0x00000000	0.0
190	0x342e2d01	1.6221385e-07
191	0x384a5fb3	4.824968e-05
192	0x36a88a70	5.0229064e-06
193	0x340a47a8	1.287832e-07
194	0x32819323	1.5084487e-08
195	0x33851414	6.196947e-08
196	0x35c854e5	1.4925869e-06
197	0x3018e83d	5.562731e-10
198	0x3377d932	5.7706707e-08
199	0x32133956	8.569563e-09
200	0x3444e90e	1.8338707e-07
201	0x36ad5b7b	5.1664515e-06
202	0x37109e86	8.619978e-06
203	0x38a7e468	8.0057245e-05
204	0x34ddec5f	4.133644e-07
205	0x3189a84e	4.006359e-09
206	0x34e0dbc4	4.1883152e-07
207	0x33105117	3.3601363e-08
208	0x35ca8da7	1.5091399e-06
209	0x351a6b13	5.7525284e-07
210	0x00000000	0.0
211	0x3845bc13	4.7143618e-05
212	0x36bae302	5.569659e-06
213	0x34835f4a	2.4469983e-07
214	0x3343f3d6	4.5623743e-08
215	0x3454257b	1.9757674e-07
216	0x35f755da	1.842792e-06
217	0x3143f7f6	2.8517184e-09
218	0x33f340cd	1.13273565e-07
219	0x32dee396	2.5947696e-08
220	0x336da04b	5.5326648e-08
221	0x381aa690	3.6871585e-05
222	0x385f07a2	5.317445e-05
223	0x392907ae	0.00016119957
224	0x355595ca	7.9566655e-07
225	0x33a99973	7.897588e-08
226	0x364919aa	2.9966272e-06
227	0x333548a9	4.220843e-08
228	0x36c266f3	5.7936354e-06
229	0x36e6db20	6.8800437e-06
230	0x36189b13	2.274003e-06
231	0x00000000	0.0
232	0x380c98cd	3.3520908e-05
233	0x36358cd3	2.7053072e-06
234	0x343e9c38	1.7751961e-07
235	0x35a9afee	1.2642683e-06
236	0x359c75be	1.1657173e-06
237	0x33808815	5.985218e-08
238	0x32d12e78	2.4351934e-08
239	0x34f8252b	4.6220643e-07
240	0x347fa17e	2.3807476e-07
241	0x36a24ed0	4.837151e-06
242	0x376e559e	1.420584e-05
243	0x394a3ebf	0.00019287596
244	0x349c72c8	2.914078e-07
245	0x306f3103	8.7017343e-10
246	0x3412e6b6	1.3681242e-07
247	0x32d9d701	2.5359897e-08
248	0x35a9c9b5	1.2650186e-06
249	0x34da941a	4.0713422e-07
250	0x3400352b	1.1940271e-07
251	0x38f10779	0.000114931674
252	0x00000000	0.0
253	0x34276536	1.5589907e-07
254	0x331a6bd4	3.595399e-08
255	0x335ca423	5.1372023e-08
