checkpoints/RNN_326.pt (torch, 111359 bytes, 9 tensors)

snn.l1.input_weights f4 [20, 416]
00000000: 6193 4e3f 8eea 1440 6d74 d93f f76f 3d3f
00000010: 4850 8cbe 5575 b63f 15cf 593f c322 a73f
00000020: 758f 833f d02e ac3f 67a5 b73f 2dfe 9bbe
00000030: 812b 833e 0064 dbbf 5825 d93f 33fb 80be
00000040: 3cda 723e 3879 453f e9de 503f 7733 45bf
00000050: dbb1 c83f 8f1e 763f 0191 e03f 5f71 823f
00000060: def5 ca3f 9c45 0740 ed9a 583f 4199 a83f
00000070: d2d8 ba3f e725 313e f0b0 de3f 5a74 de3f
00000080: 3c22 463f 2f38 89be e958 023f f140 f53e
00000090: c6c5 1940 9966 a83f a200 283f d4be ca3f
000000a0: dfc3 763e 53d2 0b40 ee6b 973f 04f2 0640
000000b0: 0c3a e33f 76ec 7a3f ea75 c93f 50a2 2a3f
000000c0: 5951 7f3f 096b a7bf 951d af3f a69c 803f
000000d0: cecc 0240 7134 0840 6ee5 b63f 6253 eb3f
000000e0: 56f8 403f 1390 0540 620f 3240 af9e 2240
000000f0: 78cb 3940 5225 8a3f 3b17 3c40 2064 de3f
00000100: 9348 2a40 2c2c 4d40 4e36 fd3f 8c01 5c40
00000110: 4b65 1340 da5d ee3f e403 10bf 4a31 3a3f
00000120: a6a2 693f b7bb 3540 503b d53f 7b57 0840
00000130: a37d 3a40 3554 e93f 1eed 3e40 8bf0 f23f
00000140: 1870 4840 b165 4f40 0ca4 af3f 0915 5840
00000150: c8e0 0940 bd1d e63f cb1b 803e d37d 2140
00000160: de92 913f 23e1 1f40 f375 3d40 2507 2340
00000170: 1942 5040 3679 1740 10b7 2840 cd1c ed3f
00000180: 9e4b 2b40 ac26 5540 aa16 b43f 7fb3 4340
00000190: fa1e a23f de1d 3c3f 84db af3e b090 3c40
000001a0: f28e 2140 10f3 1140 11f0 2440 a84c e33f
000001b0: c809 2b40 d742 6e40 4cf6 0d40 2d69 4f40
000001c0: 71c3 1040 6910 1340 3bda 6040 6bfe 3e40
000001d0: 19a8 2d40 ed31 e43f bd4c b93f 40c7 4640
000001e0: ae8a 1940 2651 0640 3e77 ec3f ff44 1b40
000001f0: 89b0 3140 18fc 4540 9537 3440 d90d 2b40
00000200: 277b 2340 1124 0f40 cb6f 4c40 523b 6340
00000210: 0201 5d40 8b66 943f 461e 583f df79 e53f
00000220: 0d43 3340 26d2 2040 763d 0040 99cc f33f
00000230: b8e1 1e40 2e85 0440 be4e 3c40 c091 1c40
00000240: d8a5 3940 67b2 4540 2fd8 5740 cfa4 8c40
00000250: c1f5 6f40 86f3 a33f 4896 b53f 441e 0940
00000260: 839f 5640 8364 0a40 3c49 f63f 5b88 3a40
00000270: d82b 2c3e 7504 6f3f b514 933f 4c73 6a3f
00000280: 194b bc3f d9db 473e 2875 a73f 4a1b 0040
00000290: f208 b93f 4ed6 853f f17b 573f 866f 6a3f
000002a0: 0ceb 593f ad9e 793f 8b84 a33e 070c 313f
000002b0: ff56 f33e dbe9 ef3e 560a 05bf 2e88 6f3f
000002c0: a131 773f 1550 69be 8bef d33f c80f d63f
000002d0: ff4e a03f 2005 e03e 8b1a 203f d82b 493f
000002e0: 9b08 d53f c109 833f 888e 793f 0866 ad3f
000002f0: 33f5 be3d 9a21 afbe 5b36 a13f 0407 553f
00000300: 0bda 823f 43e7 aebe 83a0 cd3f 09c4 813f
00000310: a13c cf3f 6ee9 363e b617 0c3f 5f3c cd3f
00000320: e11a b43f a895 9d3f a823 403f 6da1 a13f
00000330: 022c 223f ad65 283f 4f89 003e ce26 803f
00000340: 5b54 bfbd 58cd cc3f 1297 1c3f cbe0 883f
00000350: 44ea 773f 9ca8 d53e 6b2d 39bf b03e 6c3f
00000360: 406d 063f e800 273f 5e13 893f e60f 8abf
00000370: 4e2b 7dbe 0f24 d13e 0c76 febe 221a 563e
00000380: f514 72bd 9161 f83f b725 413f 9b83 1f3f
00000390: 29c3 e53f 4422 d03e 9b62 6dbf 8c08 3e3e
000003a0: a138 b23d a487 b93e a178 8c3e 3b9c 0abf
000003b0: d409 b33f 953a 8a3f e342 2e3f 96de 4e3e
000003c0: 5a19 f63e 149c 7cbe 5606 a23f 55f6 16be
000003d0: 36b0 b53f 6f61 05be 2533 33be da41 dc3f
000003e0: a7dc cdbd 8fba 373e a46d 3a3f a60a 24bf
000003f0: 0822 2f3f 216e b03f 5794 6abe 07e3 5dbf
0.8069363 2.326816 1.6988655 0.7399897 -0.27405 1.4254557 0.8508161 1.3057483
1.0278155 1.3451786 1.4347352 -0.30467358 0.25619128 -1.7139893 1.6964521 -0.2519165
0.23716062 0.7713809 0.81590134 -0.77031654 1.5679277 0.9614038 1.7544252 1.0190848
1.5856283 2.1136236 0.846114 1.3171769 1.4597418 0.17299615 1.7397747 1.7379258
0.7739599 -0.26800677 0.50916916 0.4790111 2.4026961 1.315631 0.65625966 1.5839486
0.24098156 2.1847122 1.1829813 2.1085215 1.775209 0.9801706 1.573911 0.6665392
0.997335 -1.307954 1.3680903 1.0047805 2.0437503 2.1282008 1.4288766 1.8384821
0.7537893 2.0869186 2.782189 2.5409353 2.9030437 1.0792639 2.9389179 1.7374306
2.6606796 3.205821 1.9782197 3.4375944 2.3030574 1.8622391 -0.56255937 0.7273146
0.91263807 2.8395822 1.6658726 2.1303394 2.9139183 1.8228823 2.9832225 1.8979658
3.1318417 3.2405818 1.3721938 3.376284 2.1543446 1.7977825 0.25021204 2.5233047
1.1372945 2.4981163 2.960324 2.547311 3.2540343 2.3667731 2.6361732 1.8524414
2.6764903 3.3304853 1.4069417 3.0578306 1.2665703 0.73483074 0.34347165 2.946331
2.5243497 2.2804604 2.5771525 1.7757769 2.672472 3.7228296 2.2181578 3.2407944
2.2619288 2.2978766 3.5133197 2.9842784 2.7133849 1.7827736 1.4476544 3.1059113
2.3990893 2.098703 1.847389 2.4260862 2.7763999 3.0935116 2.8158925 2.6727202
2.5543916 2.2365763 3.1943233 3.5504956 3.4531865 1.1593794 0.84421194 1.7927817
2.8009675 2.5128264 2.0037513 1.9046813 2.4825268 2.0706286 2.942306 2.4463959
2.9007473 3.0890138 3.3725698 4.395118 3.7493746 1.2808692 1.4186487 2.1424723
3.3534858 2.1623847 1.9241099 2.9145725 0.168136 0.93366176 1.1490694 0.9158218
1.4710418 0.19517459 1.3082628 2.0016656 1.4455855 1.0456026 0.84173495 0.9157642
0.8512428 0.97507745 0.3193706 0.6915898 0.4752731 0.46858105 -0.51968896 0.9356717
0.965601 -0.22784455 1.6557478 1.6723566 1.2524108 0.4375391 0.625405 0.78582525
1.6643251 1.0237352 0.9748311 1.3546762 0.09324112 -0.34205323 1.2594713 0.8321383
1.0222791 -0.34160814 1.6064609 1.013795 1.6190377 0.17862484 0.5472368 1.6034049
1.4070703 1.2311296 0.7505441 1.2627388 0.633484 0.65780145 0.12552379 1.0011842
-0.093422614 1.6000166 0.61168015 1.0693601 0.96841836 0.417302 -0.7233493 0.92283154
0.5251045 0.6523576 1.0709035 -1.0786102 -0.2472355 0.40847823 -0.49699438 0.20908406
-0.059102017 1.9404775 0.75448173 0.6231019 1.7950183 0.40651143 -0.92728585 0.18557948
0.08702207 0.36236298 0.27435783 -0.5414464 1.3987374 1.0799128 0.6807081 0.20202097
0.48066217 -0.24668914 1.2658184 -0.14742406 1.41944 -0.13025449 -0.17499979 1.7207596
-0.10051852 0.1794226 0.7282355 -0.6407875 0.684113 1.3783609 -0.2290815 -0.8667454

snn.l1.recurrent_weights f4 [20, 20]
00000000: 0000 0000 f7e8 cdbe 5be6 b7bf 49fb e140
00000010: 07a2 29bf cac2 e8bf fe95 5c3f 4e38 63c0
00000020: a3a8 be40 aeaf 3440 e5b0 5640 7cac f640
00000030: 6d0b cc40 1db7 5b40 9719 f0bf 7adb 39c0
00000040: 4646 3a40 d9a7 95c0 f118 6940 7578 523f
00000050: 060e 61c0 0000 0000 6c6d 6541 f27f 1241
00000060: 52e5 d9c0 74a7 1140 73a9 4f41 c5b4 afc0
00000070: 67a0 d040 db7e 8240 777b 6440 aa89 1941
00000080: 0583 5541 dbe2 9440 8324 a2c0 61d6 b240
00000090: 1597 88c0 581d 2b40 bb1d 72c0 38fa f23f
000000a0: 9da3 9b3f 703a f340 0000 0000 ee42 1341
000000b0: 3b3f 39c0 d371 c440 1dbc 2741 3535 d33e
000000c0: 9b1e 0440 c426 9640 bd5d f53f 7419 2a41
000000d0: 5c32 1641 68fe 8240 edbd 9d40 9365 a040
000000e0: 5221 84bf 8b99 0541 116d 3440 19fd 3a40
000000f0: 805f 93bf c164 8c3f 171d 21c0 0000 0000
00000100: e7e4 07bf 62a5 81c0 567b 0440 0b02 2440
00000110: b251 8740 8e5e 553f 62cf 2a40 0357 8341
00000120: 6882 a440 5efe b93f af9e 1040 cc97 acc0
00000130: 795e 1a40 df6b 1441 d0bc 2541 68e7 bebe
00000140: d41e a8c0 e95c 743f de5e b940 e976 0541
00000150: 0000 0000 96cf c7c0 c820 a140 69ca 02c1
00000160: a510 ab40 59b2 c43f bfca 3540 c0ad fe40
00000170: 9d7f ad40 f110 c73f 625e c6c0 2402 3ac0
00000180: 5b3b 1e3f ae6a 7cc0 9797 08c1 64e4 19be
00000190: 38b3 87be b4ce 8dbe 0d31 1040 bcf9 dabf
000001a0: 05e2 69be 0000 0000 37a6 1cbf 51d2 563f
000001b0: 03aa a740 ceee 2e40 6a70 3c40 78b0 743e
000001c0: 5f59 af40 5fd9 8340 359f bc40 b322 a6bf
000001d0: eb56 d43e b9ab 9e3a fc94 6b40 8770 913f
000001e0: 6929 3e3f 6ac0 c9bd 4286 fc3f 4365 ad40
000001f0: d025 56c0 e04e 7540 0000 0000 d85a 953f
00000200: f595 2340 9a86 de3f f655 2e3f d2bb 8840
00000210: 4de3 8e40 8e79 f13f e931 313e f511 59c0
00000220: b65f aac0 25eb dd40 a90c 9040 ab9d a83f
00000230: 839a b7c0 14d0 5141 e1bf 3841 ac27 a6bf
00000240: c0bc 3841 2093 26c1 5d11 eac0 0000 0000
00000250: 0081 be40 6dae dd3f d643 3f40 a336 6040
00000260: bd09 0541 5916 6240 21be 13c1 4849 3141
00000270: 89fc 0dbf 8501 21c1 0a42 0ec1 0724 9d3f
00000280: df8d a3c1 fb1d 1340 f585 b9bf 2bcd a7c0
00000290: 6862 cec1 ed5d 85c1 27e0 03c1 3820 ecc1
000002a0: 0000 0000 0c04 4bbe a993 7440 b707 e2c0
000002b0: fd05 0b41 c419 0640 4088 72c1 715c 0ec1
000002c0: 6db5 00c1 a618 a9c1 05a1 8bc1 a63d c9bf
000002d0: 0d3e 9dc1 0c54 7940 4379 bd40 143a 32c1
000002e0: 37f0 bfc1 0274 3fc1 7ac7 ddc0 613b d2c1
000002f0: c4e9 bf40 0000 0000 3fe7 6340 2742 33c1
00000300: 67ff fc40 49b2 9840 342b 27c1 4cde 0cc1
00000310: 4513 abc0 3d09 8bc1 7f10 7dc1 22c0 983f
00000320: b9a5 b8c1 102a 00be 3fa9 9d3f 7463 22c1
00000330: 2e74 dbc1 4f96 93c1 d50c 3dc1 8b3e 03c2
00000340: bacc ec40 ac1f 3040 0000 0000 6d57 3dc1
00000350: cb7c cd40 92dd 6640 ed69 7bc1 a224 5dc1
00000360: 0879 fec0 f552 c4c1 d9f3 9ac1 d323 dfbe
00000370: 88a8 fabe 138f a7be 18c2 18c0 df13 5941
00000380: f460 11c0 5058 003e 2469 e53f dbdb d53f
00000390: 6a62 e63f 24b9 493e 9a17 3c3f 0000 0000
000003a0: 01b0 6440 084c e73f 3161 403f aaf1 40c0
000003b0: e654 08c0 a69c 0041 ccb5 0341 e64d 8a3d
000003c0: 0f97 4ac1 99b0 ef40 93d4 ba40 f5d9 eabd
000003d0: f098 91c1 3cff a9c0 f706 e03f 048d 97c1
000003e0: 3b67 ef40 6555 d93f 2102 9440 379b c9be
000003f0: 0000 0000 53e9 7b40 524b 25c1 0f0c 8cc0
0.0 -0.402168 -1.4367174 7.0619245 -0.6626286 -1.8184445 0.8616637 -3.5503116
5.9580855 2.8232226 3.3545468 7.708555 6.3763947 3.4330513 -1.8757809 -2.9040208
2.9105392 -4.676739 3.6421473 0.8221505 -3.516481 0.0 14.339214 9.156237
-6.809243 2.2758455 12.978869 -5.4908166 6.5195804 4.0779853 3.5700357 9.596109
13.344487 4.6526923 -5.066957 5.5886693 -4.2684426 2.673666 -3.7830646 1.8982611
1.2159306 7.6008835 0.0 9.20384 -2.8944843 6.1388946 10.483426 0.4125153
2.064368 4.692232 1.9169232 10.631214 9.387295 4.0935555 4.9294343 5.012399
-1.0322669 8.349986 2.819157 2.9216979 -1.1513519 1.0968248 -2.5174005 0.0
-0.5308365 -4.0514383 2.0700278 2.5626247 4.2287226 0.83347404 2.6689076 16.417486
5.1409187 1.4530752 2.2596853 -5.39353 2.4120162 9.276336 10.358597 -0.37285924
-5.253763 0.9545427 5.7928305 8.341531 0.0 -6.24409 5.0352516 -8.174417
5.345782 1.5366927 2.8404996 7.9587097 5.421828 1.5552045 -6.1990213 -2.9063807
0.6180932 -3.9440112 -8.537009 -0.1502853 -0.2650392 -0.27696764 2.2529938 -1.7107463
-0.22840126 0.0 -0.61191124 0.8391467 5.2395034 2.7333255 2.9443612 0.23895442
5.4796596 4.1202846 5.8944345 -1.2979339 0.41472563 0.0012105621 3.6809683 1.1362466
0.74281937 -0.09851153 1.9728472 5.418611 -3.346058 3.8329391 0.0 1.1668348
2.5560277 1.7384827 0.68099916 4.2729273 4.4652467 1.886522 0.17304195 -3.391721
-5.3241835 6.934954 4.5015454 1.3173116 -5.7376113 13.1133 11.546845 -1.2980857
11.546082 -10.410919 -7.3146195 0.0 5.953247 1.7318856 2.9885154 3.5033348
8.3148775 3.532614 -9.233918 11.080391 -0.55463463 -10.062871 -8.891123 1.227662
-20.444273 2.2987049 -1.4494005 -5.243795 -25.79805 -16.670862 -8.242225 -29.515732
0.0 -0.19825763 3.8215125 -7.0634418 8.688962 2.0953226 -15.158264 -8.897569
-8.044293 -21.137035 -17.453623 -1.5721939 -19.655298 3.8957548 5.9210525 -11.139179
-23.992292 -11.965822 -6.9306 -26.278994 5.997286 0.0 3.5609891 -11.20365
7.906177 4.7717633 -10.448048 -8.804272 -5.346102 -17.37951 -15.816527 1.1933634
-23.08092 -0.12516046 1.2317275 -10.149281 -27.431728 -18.448393 -11.815633 -32.811077
7.399991 2.751933 0.0 -11.833844 6.4214835 3.6072736 -15.713361 -13.821444
-7.9522743 -24.540506 -19.369066 -0.4358202 -0.48956704 -0.32726344 -2.3868465 13.567351
-2.2715425 0.12533689 1.7922711 1.670772 1.7998784 0.19699532 0.73473513 0.0
3.5732424 1.8070078 0.751483 -3.01475 -2.1301818 8.038244 8.231884 0.06753139
-12.66188 7.4903073 5.838449 -0.11467353 -18.199677 -5.3124065 1.7502126 -18.943855
7.4813514 1.6979185 4.62526 -0.39376232 0.0 3.936116 -10.330889 -4.376472

snn.fc_out.weight f4 [9, 20]
00000000: cfe3 8cc0 a298 ba40 32d3 e140 eb35 3dc1
00000010: 8277 80bf b4a4 80c1 03d1 e8c0 aee4 1941
00000020: 536f 56c0 0166 98bd 6c5c adbf 07e2 26c1
00000030: c3ad ffbf 7fa6 a6bf 9f5c 2dc1 543e 2041
00000040: c7ba 7740 9593 98c0 e530 65c1 375c 68be
00000050: 7f71 41c0 f6f1 3cbf 40d1 0441 738b 75c0
00000060: 1837 92bf 171b 3f40 a61f c73e 5af4 e5bf
00000070: 10ad 0d3f fc14 2640 d977 f43f f943 0ac0
00000080: be19 0640 11c8 ac3f d57f 6d40 9c9d cac0
00000090: 4f4d 27bf 928a ef3f 6c61 17be 1619 d73f
000000a0: 6261 8240 de2e 6cc0 e4d4 8fbf 361e 96bf
000000b0: f9c7 4440 b0a1 163f 26e7 3b3f b792 85bf
000000c0: 7242 8540 ce5f 363e dd00 fa3f f00e 23c0
000000d0: 034a b23f 27a6 1f3f d4ba 0b3f bf12 3140
000000e0: 8125 f2c0 08c1 9bc0 5607 43c0 479d 3d3f
000000f0: a01d 0140 d3c4 94c0 d927 1cc0 3074 c8c0
00000100: 09bd c4bf 6b23 4740 1e9d 99be a61a 03bf
00000110: 5f32 e0bd f15f b73f 5fb4 f13e e5fe e7bf
00000120: 8d54 8cba 7ded cd3f b462 2d40 d86f 8b40
00000130: e65b 6c40 37fa 57c0 c4bf febe d248 933f
00000140: 784d 11c0 c5f7 8bbd e30b bebe 9f11 71c0
00000150: a91e 5cbf 7206 9cbf b852 a240 f21b 19bf
00000160: b6e4 1dc0 8fc8 3cbf 9048 f6bf 1128 f1c0
00000170: c7c3 2f3f 2238 d7bf 1e60 8abf b493 ec3e
00000180: f584 09c0 5070 8840 367b a63e 8d96 a4bf
00000190: b26d 0d40 73b9 8dc0 ab2e b0c0 3e5f 713f
000001a0: 29de f8bf 361e 1cc0 0706 1fc0 b56f 9fbe
000001b0: cb84 86c0 3a4e 74bf f40c 28c0 5354 fd3f
000001c0: 6129 3ac0 99e8 02bf 802f 82c0 6bf3 b1bf
000001d0: dab4 5a40 eff5 afbe d951 ae3e 1a01 fabe
000001e0: 62ef f3c0 082f abc0 36df 22c1 51c4 b740
000001f0: 68a8 1ac0 45a6 4a40 3b81 23c0 d9a8 1cbf
00000200: c796 b8c0 29c2 02c1 e24d dec0 7f66 b240
00000210: 8c46 cfc0 5765 c9c0 14b6 c5c0 bb36 1ec0
00000220: c2c5 28c0 ab29 1c40 ab61 d93f 03a5 83c0
00000230: a002 85c0 af24 78c0 f96d 89c0 07a5 0841
00000240: 2f7f ff3f 812f 19c0 cba3 38bf 91d6 f9bf
00000250: a96a 6940 ed51 3fc0 2a41 0740 9441 5d40
00000260: bc14 30be 29ab b3bf db01 a1c0 d948 04c1
00000270: 63b0 7dc0 a13f 053f 0e64 933f b100 59c0
00000280: a742 85c0 c55c 14c1 c9f2 40c0 0e50 aa40
00000290: 1516 c1c0 8637 4dc1 8be1 15c1 698b bbbc
000002a0: 6e74 08c1 21e5 62c0 21d3 97c0 aef6 a840
000002b0: ad26 50c1 3b77 89c0 1469 5440 a79f a3c0
000002c0: db0b 6fbf 2a1b 5140 d654 c73f 41d7 04bf
-4.4028087 5.831132 7.0570307 -11.825664 -1.0036471 -16.080421 -7.275514 9.61833
-3.3505447 -0.07441331 -1.354383 -10.430182 -1.9974903 -1.301956 -10.835113 10.015217
3.870775 -4.7680154 -14.324437 -0.22691427 -3.0225523 -0.73806703 8.301086 -3.8366363
-1.1423063 2.9860284 0.38891333 -1.7965195 0.553422 2.5950308 1.9099075 -2.1603987
2.0953212 1.3498555 3.7109272 -6.3317394 -0.6535234 1.8714163 -0.14783257 1.6804531
4.0743876 -3.6903605 -1.1236844 -1.172797 3.0747054 0.58840466 0.7339958 -1.0435399
4.164361 0.17809984 1.9531513 -2.5477867 1.3928837 0.62362903 0.5458195 2.7667692
-7.567078 -4.8673134 -3.0473228 0.7406811 2.0174332 -4.6490264 -2.439932 -6.264183
-1.5370189 3.1115367 -0.30002683 -0.5121254 -0.109471075 1.4326154 0.47207925 -1.8124663
-0.001070635 1.6088101 2.7091494 4.357403 3.693109 -3.374647 -0.4975568 1.1506598
-2.2703533 -0.06834368 -0.37118444 -3.7667005 -0.85984284 -1.2189467 5.0725975 -0.59808266
-2.4670844 -0.7374353 -1.9240894 -7.536141 0.6865811 -1.6814005 -1.0810583 0.4620644
-2.14874 4.26371 0.32515877 -1.2858444 2.2098203 -4.428888 -5.505697 0.94285953
-1.9442798 -2.439344 -2.4847429 -0.31139913 -4.20371 -0.95431864 -2.6257906 1.9791359
-2.9087756 -0.51136166 -4.0682983 -1.390241 3.4172883 -0.3436732 0.3404682 -0.48828965
-7.6229715 -5.349491 -10.179495 5.7427144 -2.4165287 3.1663983 -2.5547626 -0.6119514
-5.7684054 -8.172402 -6.947007 5.5750117 -6.4773617 -6.2936206 -6.1784763 -2.4720905
-2.6370702 2.4400432 1.6982931 -4.113893 -4.1565704 -3.877239 -4.2946744 8.54029
1.9960688 -2.3935244 -0.7212493 -1.9518605 3.647135 -2.9893754 2.1133523 3.4571276
-0.1719541 -1.4036609 -5.0314765 -8.267785 -3.9638908 0.52050215 1.1514909 -3.3906672
-4.1643863 -9.272649 -3.0148184 5.3222723 -6.0339456 -12.826056 -9.367564 -0.022893624
-8.528425 -3.545235 -4.7445226 5.2801123 -13.009442 -4.2958045 3.3189135 -5.113239
-0.93377465 3.267283 1.5572765 -0.5189095

exp_avg f4 [20, 416]
00000000: 6ea5 333a f8e5 063a 3835 f4b8 a99c 5f3a
00000010: 921e 003a 1f72 bab9 861c 6aba d815 e1b9
00000020: 3077 003b 5329 233a 0767 4938 bf35 b3ba
00000030: 77fb 523a f665 633b b148 63bb 270e 36bb
00000040: cd97 553a 2dab 933a 114c d93a 4d1d 8ebb
00000050: e187 533a 2d06 50ba 84a1 733a 3e11 2a3b
00000060: 0a11 253a ed36 003b a781 923a fdeb cf3a
00000070: cfae 85bb ff29 a7ba 9eee 42ba dfc1 1a3b
00000080: 08f5 4339 12aa a239 7747 a33a d567 caba
00000090: bd97 b93a d7e3 f3ba 3750 dc3a 55f3 b23a
000000a0: ac62 cd3a e72e 163b ea0e 7d3a 9849 ad3a
000000b0: e623 b0ba 480d e13a 019f a839 68cd 88ba
000000c0: b548 b4ba 0f6f df39 49ae f53a f68a 98ba
000000d0: b264 123a 34fe c3ba 1e48 ab39 f794 dfba
000000e0: c5e5 7eb9 0d45 0cba a3d8 b63a f2e7 b13a
000000f0: 3e75 ec38 a7ca c33a 26f0 e93a 445b 0e3a
00000100: 84d8 3bbb 7eee 2b3a 3a2f 43bb a2af 233a
00000110: 64af 09ba 6010 d1ba 8240 833b 5769 14b9
00000120: 9cf1 133a 6754 0dba d0c1 273b 160f 4c39
00000130: 2a0d db3a b3b2 fc3a 027e 843a f4e6 773a
00000140: eb12 04ba 354a c83a ba64 d23a 3461 443a
00000150: a92f 29b9 5455 083a abe0 df3a 7aa1 9fba
00000160: 1fcf 63b8 fd26 0fbb 3daf 14b9 87d5 683a
00000170: b77d ac38 9050 0f3b e9f4 2bb9 d128 033b
00000180: 3ac8 06ba 54d4 54bb 7626 fd39 0c4b 813a
00000190: 8749 e63a ebc2 8d3a 4674 073b 607b 0fb9
000001a0: 243f 5539 5760 a639 3f7c 8e39 1587 fa38
000001b0: 45cb 9c3a b3c7 763a 4571 4eba a594 23ba
000001c0: ae4f 6a39 3b29 b03a 3bb0 243b 3fe3 89b9
000001d0: d85c ffba 897a 40b9 f113 8139 66b6 aaba
000001e0: d8d9 e23a 8715 833a 326a 8b3a ef23 9d39
000001f0: d222 9a3a 80e6 e438 53f9 713a 856d 00bb
00000200: 253d bf3a a1c1 f439 4c08 17bb bc35 6c3a
00000210: 3a39 51ba c3b2 fe39 7eba e239 db1c 063b
00000220: 8cee 5f3a 9529 97b9 e01d 9bba 9404 aeba
00000230: 57a8 fa39 cf58 8a3a 1ff9 a43a dbc1 2a39
00000240: 9f72 0fba e45c f83a 0237 933a 64e9 2337
00000250: 12b3 4db9 2ab2 263a dc51 a33a df79 493a
00000260: b80c 1239 52b9 113a df11 923a 8635 153a
00000270: 5842 6c3b 7788 803a 4a6f 5a38 4cef e2ba
00000280: e0d1 0e3a d3c8 1c3a 5aba 19ba 30a2 9d3a
00000290: 7057 e13a 2a37 6b3b 203f ad3b 09a1 1fba
000002a0: 91d1 44ba 7c8d 1fb8 4d6e 943a 57a6 f6b9
000002b0: 56e3 3339 490d 163b 1783 bfba 90d5 2739
000002c0: f224 fc39 219f 4f3b 1c9c 993a b6ff 0c3a
000002d0: 0ab9 1e39 15a4 ccb8 15c5 20b9 f387 193a
000002e0: 8d3a e1b9 7441 57ba b967 3dbb 53f6 703a
000002f0: b635 293b 7c4c 063b ea53 0eba 43e1 8c3a
00000300: 3150 a2b9 a827 9c39 52fa 4f3a 8ff8 44b9
00000310: c950 c6ba b74c 873a 3998 a5b9 b493 a23a
00000320: 441b 5839 41f9 09ba e6e4 443b 026e 02b9
00000330: 79de 023b 069d fcba 5544 1abb c752 a83a
00000340: 193e 4f3b fa2b ebba f219 263a 8528 f53a
00000350: 48aa e7b9 6aa9 a73a 5072 1bba b88a 9939
00000360: 7236 97ba f8de bc3a 95e1 85ba c174 1ebb
00000370: 2014 223c 18a6 a9b9 1ac2 e8ba f12a 533a
00000380: 7962 b03a b967 3c3a a7cf cb39 ffa5 f939
00000390: eae1 603a a39f 3dbb 3059 093a 4990 afb8
000003a0: 3ccb cb3a 2e5b 1136 5d89 82bb 6c3a ba3a
000003b0: f168 3ab9 f9ef a33a 8998 2d39 0034 2839
000003c0: d9e3 d63a 74c9 36ba c915 c33a ab03 533a
000003d0: ab53 21ba b36d b6bb ef86 8739 130b c13b
000003e0: 44cb 3eba df72 beb8 d1f7 053b 6f10 fab9
000003f0: 2c18 443b e38f 4bba b8d3 b038 b181 be3b
0.0006852959 0.00051459624 -0.000116447394 0.0008530119 0.0004887368 -0.0003556171 -0.0008930642 -0.0004293162
0.0019602291 0.00062241143 4.8018086e-05 -0.0013672634 0.00080483354 0.0034698225 -0.0034680779 -0.0027779432
0.0008147925 0.0011266224 0.0016578456 -0.004336989 0.0008069259 -0.00079354906 0.0009293782 0.0025950219
0.00062967895 0.0019563988 0.0011177555 0.0015863177 -0.0040796767 -0.0012753605 -0.00074360694 0.0023614091
0.0001868793 0.0003102576 0.0012457211 -0.0015442321 0.0014159601 -0.001860733 0.0016808574 0.0013652841
0.0015669665 0.002291614 0.00096534065 0.0013220785 -0.0013438433 0.0017170096 0.00032161924 -0.0010437192
-0.0013754579 0.0004261662 0.0018743958 -0.0011638093 0.0005584463 -0.0014953078 0.00032669393 -0.0017057945
-0.00024308923 -0.00053508655 0.0013950061 0.0013573153 0.00011275195 0.0014937714 0.0017848059 0.000543047
-0.002866299 0.00065586704 -0.0029782788 0.0006244128 -0.00052522705 -0.0015950315 0.0040054927 -0.00014153622
0.00056436076 -0.00053913 0.00255977 0.00019460576 0.0016712297 0.0019279331 0.0010108354 0.0009456717
-0.00050382194 0.0015280904 0.0016051747 0.0007491291 -0.00016134851 0.0005200703 0.0017080506 -0.0012178861
-5.4313914e-05 -0.0021843307 -0.00014179661 0.0008881916 8.225015e-05 0.0021868087 -0.00016399067 0.0020013342
-0.00051415304 -0.003247519 0.00048284576 0.0009864285 0.001756952 0.0010815536 0.002066867 -0.00013683503
0.00020336785 0.00031733766 0.0002717692 0.0001194609 0.0011962435 0.0009413913 -0.0007875155 -0.00062401063
0.00022345662 0.0013440022 0.0025129456 -0.00026299988 -0.0019482626 -0.00018356195 0.00024619655 -0.001302433
0.0017307354 0.0010000922 0.0010636507 0.00029972146 0.0011759645 0.00010914821 0.00092305726 -0.0019596529
0.0014590366 0.0004668357 -0.0023045717 0.00090106926 -0.00079812447 0.00048579843 0.00043245027 0.0020463977
0.0008542321 -0.00028831945 -0.0011834465 -0.0013276511 0.0004780914 0.0010555031 0.0012586451 0.0001628468
-0.0005472097 0.0018948582 0.0011231604 9.769898e-06 -0.00019617032 0.0006358946 0.0012460309 0.0007685702
0.00013928383 0.0005558926 0.0011144242 0.00056918745 0.0036050286 0.0009806295 5.2078896e-05 -0.0017313748
0.0005448144 0.0005980853 -0.00058642554 0.0012026485 0.0017192196 0.0035891035 0.005287066 -0.0006089365
-0.00075080345 -3.804032e-05 0.0011324376 -0.0004704471 0.0001715546 0.0022896102 -0.0014611211 0.0001600592
0.00048092712 0.0031680542 0.0011719498 0.000537868 0.00015136987 -9.758041e-05 -0.00015332208 0.0005856745
-0.00042958968 -0.00082113524 -0.0028900935 0.00091919786 0.0025819368 0.0020492366 -0.0005429374 0.0010748286
-0.00030958795 0.00029784185 0.0007933724 -0.00018784612 -0.0015130277 0.0010322545 -0.00031584667 0.0012403638
0.00020609522 -0.0005263277 0.003004366 -0.00012438747 0.001996903 -0.0019272871 -0.0023539264 0.0012842052
0.0031622706 -0.0017942183 0.00063362636 0.0018704092 -0.00044186623 0.0012791578 -0.00059298147 0.00029285788
-0.0011536612 0.0014409712 -0.0010214323 -0.0024178477 0.0098924935 -0.0003235794 -0.0017758042 0.000805541
0.0013457082 0.0007187087 0.0003887389 0.00047616658 0.00085785857 -0.0028934262 0.0005239425 -8.3715255e-05
0.001554824 2.1659757e-06 -0.00398366 0.0014208085 -0.00017777436 0.001250743 0.0001655539 0.000160411
0.0016394808 -0.0006972768 0.0014883812 0.0008049558 -0.000615413 -0.0055672764 0.0002584974 0.0058912127
-0.0007278214 -9.0813024e-05 0.00204419 -0.0004769596 0.0029921634 -0.0007765276 8.43177e-05 0.0058138003

exp_avg_sq f4 [20, 416]
00000000: b499 8538 4efc 3a38 07e3 2738 d15f 1938
00000010: af3e 5b38 54c2 7c38 e046 4138 aade 5638
00000020: 203d 6b38 a5a6 8f38 5687 b938 bd5c a938
00000030: d35d de38 1f54 a539 aee1 8e38 ebfd d038
00000040: 19f2 4538 72a9 2238 d9fb 5b38 b252 1739
00000050: 181d 2638 1dcd 3c38 0a82 5138 e931 4238
00000060: e454 6b38 3580 8d38 6c5e 9938 4420 3238
00000070: 9bcf 5438 fb45 6138 6458 8f38 aaf6 8938
00000080: 3bec 8c38 407e c438 9bac 4a38 b5ba 0b38
00000090: af97 6938 a173 5138 e81d 6638 9452 5b38
000000a0: 2321 3d38 b6bf 5238 5fa3 4838 4fbc 6c38
000000b0: f8c5 4238 8a66 0738 8fa9 8b38 7258 9d38
000000c0: 7821 0339 92f8 c338 3234 6338 dbfd 1838
000000d0: b12e 0238 567f 9238 dcd8 1338 9504 2238
000000e0: e039 1838 0937 4c38 b2f6 9f38 9948 3739
000000f0: 125d df38 66f6 2538 2f31 6139 e591 1038
00000100: 9ddf 4438 21f2 8b38 43f3 9338 b0be 9638
00000110: 7265 3138 08d2 6738 1306 1539 1590 3a38
00000120: 6cef d038 6297 3938 8638 5f38 6870 d538
00000130: 8870 d438 807c 6a38 41e3 1d39 27e6 e137
00000140: 4c96 7038 d6e6 1b39 f7b2 8b38 e366 b538
00000150: c52a 1638 47c0 1338 fe27 e238 ec96 6638
00000160: f24f ee37 362b 8338 62e4 8e38 034e fb38
00000170: 5bd4 b838 5389 2f38 b6fb b338 aab4 d237
00000180: c084 3138 30ec e838 aa54 9838 bc3f 0139
00000190: 9502 2738 367f 5938 32b9 3539 77f9 a238
000001a0: 42a9 d037 b6a9 0d38 f44f c437 8203 b637
000001b0: 8199 d437 c1af d937 7db3 b437 794a 9938
000001c0: f976 f937 c6b9 8937 3f82 0838 2571 8537
000001d0: 7309 fb37 9d53 ef37 121e e137 b9e5 c937
000001e0: 44df c237 ff25 c137 65ce 0a38 779e 9e37
000001f0: 9fc5 b537 1b4f fb37 6ead 1338 d6c8 fd37
00000200: 74f4 3338 dff9 9d37 f9d2 fe37 8c32 d437
00000210: 48f6 1f38 3e00 b737 2cf5 e337 59ae be37
00000220: 2ac2 ae37 c531 aa37 906c cf37 b417 a437
00000230: 962f b337 8fe4 2938 4f29 5338 a7e4 3739
00000240: 1e53 4838 327a 5f37 b931 f637 a330 0438
00000250: 3bd0 e837 bd2b 0a38 309f 0838 fe9b 0238
00000260: b162 9137 c2f7 a438 6550 0038 c01a 8237
00000270: 3c16 9938 8219 8738 df80 a338 12ab 8238
00000280: afa9 9c38 fccf ad38 c311 2b39 a1f5 1239
00000290: eaf3 2239 d6e9 5538 23d1 e838 ed3f a438
000002a0: 6581 a838 568e 8e38 ae0e 9538 d4fc 5738
000002b0: 0ac0 ca38 e17e ac38 8c5f 7d38 bb9e 8338
000002c0: 5c42 7c38 b805 0139 dcd8 ab38 62b3 2d39
000002d0: fe22 7939 f4b7 8938 b43a 2238 948b e638
000002e0: fe30 b738 2fb2 6338 fbf7 e338 4ed7 4238
000002f0: cfef 7b38 41d9 ae38 1ad6 7138 6f29 b738
00000300: dd60 7938 9672 a738 d272 ac38 51c8 4f39
00000310: bcb2 8339 8f43 5d38 a07d 8038 c4aa a338
00000320: a4d3 9e38 01e0 9538 205e bf38 e1a1 9338
00000330: 3f0c 6338 080a 4f38 692c 8838 a7e5 8b38
00000340: 8ea2 ae38 7668 5139 4cba 2638 dd05 3738
00000350: 5e6b 9e38 37bc bb38 3445 3538 5fe3 be38
00000360: f277 2938 e0d1 5f38 a585 1d38 dfd9 4439
00000370: f5de 3439 9381 7338 a66b 9338 0341 3038
00000380: 25ed 8238 17fe 5039 c114 4e38 08b0 a738
00000390: 1708 b338 665d d838 1eb8 2f38 3ed5 8039
000003a0: 0df9 6d38 d1de 2e38 b24e 1838 8fdc 7039
000003b0: 476d 3838 5e8a be38 c9d4 3438 9f52 3238
000003c0: a635 8238 0ba2 103a f795 1938 e855 4038
000003d0: cd11 1e39 1dac d338 30bf 2938 2630 7238
000003e0: 868a 6f38 1707 8a38 3bde e337 4b2d 5a38
000003f0: 1de1 1538 4728 9638 5bc9 0138 cf96 cc38
6.370564e-05 4.4580833e-05 4.002734e-05 3.656728e-05 5.2272047e-05 6.0262464e-05 4.6080793e-05 5.1228948e-05
5.6085293e-05 6.849811e-05 8.846696e-05 8.075822e-05 0.00010603261 0.00031533928 6.813124e-05 9.965509e-05
4.719393e-05 3.8781618e-05 5.244822e-05 0.00014431289 3.960458e-05 4.501372e-05 4.995059e-05 4.6299687e-05
5.6107427e-05 6.747284e-05 7.313196e-05 4.2468557e-05 5.0738086e-05 5.3709355e-05 6.8352354e-05 6.578614e-05
6.7197216e-05 9.369524e-05 4.8321304e-05 3.3314067e-05 5.5692795e-05 4.993717e-05 5.4864126e-05 5.2290576e-05
4.5091972e-05 5.0246446e-05 4.7835867e-05 5.644216e-05 4.6437577e-05 3.2282005e-05 6.659619e-05 7.5028176e-05
0.00012505602 9.3446244e-05 5.4169628e-05 3.6476045e-05 3.10379e-05 6.985541e-05 3.5249497e-05 3.8628077e-05
3.6293524e-05 4.8688646e-05 7.6276614e-05 0.00017479285 0.00010650804 3.9568542e-05 0.00021475994 3.446815e-05
4.6938298e-05 6.6731365e-05 7.054817e-05 7.188076e-05 4.2294567e-05 5.52703e-05 0.0001421201 4.4480043e-05
9.962809e-05 4.4248423e-05 5.3219985e-05 0.00010177569 0.00010129908 5.5905897e-05 0.00015057345 2.6929263e-05
5.7360434e-05 0.00014867945 6.661371e-05 8.649917e-05 3.580262e-05 3.5226603e-05 0.00010783969 5.497683e-05
2.8409038e-05 6.2546154e-05 6.813627e-05 0.000119831435 8.813358e-05 4.1851144e-05 8.58227e-05 2.5118079e-05
4.232372e-05 0.000111066154 7.263695e-05 0.00012326142 3.9818307e-05 5.1855306e-05 0.00017330496 7.7712284e-05
2.4874349e-05 3.3775075e-05 2.3402252e-05 2.1697724e-05 2.534385e-05 2.5950258e-05 2.1541253e-05 7.30948e-05
2.9738514e-05 1.641818e-05 3.2546228e-05 1.5907523e-05 2.9925932e-05 2.8529956e-05 2.6836093e-05 2.406804e-05
2.3230568e-05 2.3025086e-05 3.3093984e-05 1.8908859e-05 2.1668906e-05 2.9958368e-05 3.520905e-05 3.0253472e-05
4.290459e-05 1.8832214e-05 3.0377401e-05 2.5295907e-05 3.813792e-05 2.1815413e-05 2.7174676e-05 2.2730952e-05
2.0832831e-05 2.0288755e-05 2.4726876e-05 1.9561361e-05 2.1360622e-05 4.05056e-05 5.034479e-05 0.0001753742
4.7761125e-05 1.3320287e-05 2.934864e-05 3.151655e-05 2.775352e-05 3.29425e-05 3.257318e-05 3.1139694e-05
1.7331304e-05 7.866278e-05 3.059245e-05 1.5509664e-05 7.29975e-05 6.442053e-05 7.79645e-05 6.2307474e-05
7.470266e-05 8.288023e-05 0.00016314448 0.00014015149 0.00015540389 5.1000934e-05 0.00011101577 7.8320365e-05
8.034966e-05 6.7976e-05 7.107608e-05 5.149546e-05 9.667881e-05 8.225232e-05 6.0408885e-05 6.2761326e-05
6.0143284e-05 0.00012304529 8.1943086e-05 0.00016565391 0.00023759526 6.566933e-05 3.867848e-05 0.00010993253
8.7352455e-05 5.4286964e-05 0.000108703935 4.6453722e-05 6.0066403e-05 8.337433e-05 5.7658275e-05 8.7338376e-05
5.9456437e-05 7.984524e-05 8.222986e-05 0.00019815682 0.00025119435 5.2753425e-05 6.126915e-05 7.804253e-05
7.573448e-05 7.1465976e-05 9.125122e-05 7.0396585e-05 5.4132423e-05 4.936199e-05 6.4932574e-05 6.6708126e-05
8.327245e-05 0.00019970708 3.9750987e-05 4.363606e-05 7.554026e-05 8.9519126e-05 4.3218213e-05 9.102257e-05
4.0404448e-05 5.3362804e-05 3.7556183e-05 0.0001877318 0.00017249196 5.805639e-05 7.029557e-05 4.2022217e-05
6.243055e-05 0.00019931082 4.9133556e-05 7.995969e-05 8.536892e-05 0.000103170794 4.1894724e-05 0.0002457294
5.673715e-05 4.1692347e-05 3.6312915e-05 0.00022970348 4.397079e-05 9.085679e-05 4.3113516e-05 4.2515454e-05
6.208876e-05 0.00055173103 3.661771e-05 4.5856374e-05 0.00015074686 0.000100933226 4.0470797e-05 5.7742138e-05
5.711105e-05 6.5816734e-05 2.7163993e-05 5.2017433e-05 3.573402e-05 7.1600596e-05 3.0943524e-05 9.755568e-05

exp_avg f4 [20, 20]
00000000: 0000 0000 e6a9 b737 60c8 5b3a f944 613b
00000010: 0d46 223c 72bf 1b3a 88b4 783a 8095 cd3c
00000020: 0400 0000 0400 0080 0400 0000 15a8 2d3b
00000030: d174 dd2f 0400 0000 bb07 f83a cf70 ce3a
00000040: 950a bd3a b5b9 183c d492 0c3b 0400 0000
00000050: 5ee5 9639 0000 0000 b84d 4339 9c77 a839
00000060: d3de 3d39 decb e038 c20a 2d39 0dd3 00bb
00000070: 0400 0080 0400 0000 0400 0000 06a9 8d39
00000080: db13 83b1 0400 0000 ffc0 6739 69dc 7139
00000090: 9408 4e39 ea7b c339 2b3e 1d39 0400 0000
000000a0: 3912 9e3a 6dbc 3bb6 0000 0000 0212 cd3a
000000b0: d2d6 9b3b 3c86 523a 0292 013a 0876 ed3b
000000c0: 0400 0080 0400 0000 0400 0000 a656 a83a
000000d0: e58f 16b2 0400 0000 f95f a13a c923 2f3a
000000e0: f2b4 503a 5bf8 913b d5c7 d63a 0400 0000
000000f0: 60a4 5d3a 04c8 8437 2a3a 6ab9 0000 0000
00000100: cefe ee3b c3d8 1eba cf7e 2fba 0694 833c
00000110: 0400 0000 0400 0080 0400 0080 acec 13b7
00000120: 8ca1 8131 0400 0080 cd29 07b8 9ee4 8eb9
00000130: 03f6 c7b8 d171 923a 215b be39 0400 0080
00000140: 1815 90ba ab0a cf36 b8ec 09b9 0244 0bba
00000150: 0000 0000 2099 1bb9 d64f 33b9 ed50 debb
00000160: 0400 0000 0400 0080 0400 0080 5dd8 70b9
00000170: 8657 2b2e 0400 0080 141e e7b9 f061 1b38
00000180: a72c 80b8 caf5 50bb c9c8 76b9 0400 0080
00000190: 1b79 0ebb 86e9 92b8 905e 8cba 2242 b4bb
000001a0: e29d 46bc 0000 0000 f8f9 d0ba f7c7 f0bc
000001b0: 0400 0080 0400 0000 0400 0000 74e2 68bb
000001c0: 4912 3e32 0400 0000 a6fc 82bb 9857 0cbb
000001d0: 56c1 b3ba 40cb 4bbc 330c 37bb 0400 0000
000001e0: 08cd 7e3b 315b c335 38dd 8b39 fb98 603a
000001f0: 95f7 303c e6e3 293a 0000 0000 78f1 5a3c
00000200: 0400 0000 0400 0000 0400 0000 d28b 353a
00000210: 9fe4 2931 0400 0000 1962 903a 5aa3 413a
00000220: 124d 9b39 ee6c b93b db0b 8d3a 0400 0000
00000230: a3ed 49b7 552d 2db7 91e3 5ab8 56b8 7d38
00000240: c701 3e38 70ff b638 e19c e337 0000 0000
00000250: 0400 0000 0400 0000 0400 0000 1972 2e37
00000260: 0c27 02b1 0400 0000 a2f8 d138 5c75 9a36
00000270: 03f7 7638 c816 04b8 75eb b138 0400 0000
00000280: 3aae ee37 9b9a 4633 21b5 8934 25e0 0935
00000290: b598 6139 3ec6 3635 a719 8b33 dae6 2e3a
000002a0: 0000 0000 0400 0080 0400 0080 f582 4335
000002b0: 46af f130 0400 0080 3763 49b6 4c81 4534
000002c0: c001 9835 f3de 5537 ce1b c435 0400 0080
000002d0: 5f60 c837 1f1f 77b1 c32a ec34 1715 6d36
000002e0: 7d40 2d39 ffa4 4635 f089 9934 ccfe cb39
000002f0: 0400 0080 0000 0000 0400 0000 8cf5 3636
00000300: 24e6 3cb0 0400 0000 f981 1f36 1a9b 7135
00000310: 860d 0536 aa58 bd37 0bcc b136 0400 0000
00000320: 0a35 6237 4a06 9632 f07d 8134 c923 ad35
00000330: 039e 0d39 1108 eb34 d455 1634 c4fb d939
00000340: 0400 0080 0400 0080 0000 0000 0b7a 9735
00000350: 2b4e 442f 0400 0080 30fa 28b5 ec7e d734
00000360: 3f54 6335 aae2 2937 652a fd35 0400 0000
00000370: f68b 7a3a eb06 0137 5329 acb9 9efc 91b6
00000380: 8b1f 0e3c 0bb3 9db9 0323 58ba 2eca 923c
00000390: 0400 0000 0400 0080 0400 0080 0000 0000
000003a0: 2def 0032 0400 0080 3cad 8839 319a 09ba
000003b0: 17f4 1f38 238a ef3a a163 273a 0400 0080
000003c0: b9d9 ac38 7717 5533 9b79 6435 2e96 6d36
000003d0: 6812 c039 1a02 ee35 59a2 b530 931d 373a
000003e0: 0400 0080 0400 0000 0400 0000 7245 5536
000003f0: 0000 0000 0400 0000 d02d 8db5 fbc2 8035
0.0 2.1894415e-05 0.0008384045 0.0034373386 0.009904397 0.00059413083 0.00094873505 0.025095701
6e-45 -6e-45 6e-45 0.002649789 4.028267e-10 6e-45 0.0018923202 0.0015750172
0.0014422709 0.00932162 0.002144982 6e-45 0.0002878112 0.0 0.00018625602 0.00032132573
0.00018107453 0.000107191256 0.00016502573 -0.0019657046 -6e-45 6e-45 6e-45 0.00027019548
-3.814859e-09 6e-45 0.00022101773 0.0002306566 0.00019648887 0.00037285622 0.00014995846 6e-45
0.0012059874 -2.797485e-06 0.0 0.0015645626 0.004755833 0.0008030867 0.00049427163 0.0072467364
-6e-45 6e-45 6e-45 0.0012843206 -8.763867e-09 6e-45 0.0012311927 0.00066810526
0.0007961533 0.004454655 0.0016386459 6e-45 0.0008454975 1.5828766e-05 -0.00022337647 0.0
0.0072935587 -0.00060595217 -0.0006694616 0.016061794 6e-45 -6e-45 -6e-45 -8.816987e-06
3.77276e-09 -6e-45 -3.222544e-05 -0.00027254684 -9.534883e-05 0.0011172836 0.0003630752 -6e-45
-0.0010992615 6.1703226e-06 -0.00013153523 -0.0005312563 0.0 -0.00014838995 -0.00017100511 -0.0067845494
6e-45 -6e-45 -6e-45 -0.00022968785 3.8958635e-11 -6e-45 -0.00044082163 3.704609e-05
-6.111833e-05 -0.0031884783 -0.00023535186 -6e-45 -0.0021739665 -7.00532e-05 -0.0010709334 -0.0055010477
-0.012122603 0.0 -0.0015943637 -0.029392226 -6e-45 6e-45 6e-45 -0.0035535367
1.1063613e-08 6e-45 -0.003997403 -0.0021414515 -0.0013714235 -0.012438595 -0.0027930855 6e-45
0.0038879532 1.4555172e-06 0.00026676967 0.0008567718 0.010801216 0.0006480798 0.0 0.013363235
6e-45 6e-45 6e-45 0.0006925437 2.4722693e-09 6e-45 0.0011015564 0.0007386707
0.00029621326 0.0056587374 0.001076098 6e-45 -1.2035863e-05 -1.0322158e-05 -5.2187188e-05 6.0491577e-05
4.5301185e-05 8.726015e-05 2.7133561e-05 0.0 6e-45 6e-45 6e-45 1.0397774e-05
-1.8939685e-09 6e-45 0.00010012208 4.60322e-06 5.8881018e-05 -3.149247e-05 8.483875e-05 6e-45
2.8452941e-05 4.624108e-08 2.5650027e-07 5.136265e-07 0.0002151456 6.8088764e-07 6.477358e-08 0.0006671973
0.0 -6e-45 -6e-45 7.283373e-07 1.7584874e-09 -6e-45 -3.0009085e-06 1.8394093e-07
1.1325392e-06 1.2747699e-05 1.461123e-06 -6e-45 2.3886734e-05 -3.596092e-09 4.398954e-07 3.5328028e-06
0.0001652259 7.400085e-07 2.8598834e-07 0.00038909016 -6e-45 0.0 6e-45 2.726304e-06
-6.872105e-10 6e-45 2.37685e-06 9.00052e-07 1.9826416e-06 2.2571843e-05 5.298765e-06 6e-45
1.3482999e-05 1.7465158e-08 2.4119754e-07 1.2899919e-06 0.00013505672 4.377803e-07 1.4001063e-07 0.00041577045
-6e-45 -6e-45 0.0 1.1285896e-06 1.7853867e-10 -6e-45 -6.294895e-07 4.0139219e-07
8.4686684e-07 1.0125959e-05 1.8862307e-06 6e-45 0.0009557599 7.69061e-06 -0.00032837185 -4.3507453e-06
0.008674513 -0.0003007877 -0.0008244963 0.017918672 6e-45 -6e-45 -6e-45 0.0
7.504963e-09 -6e-45 0.0002606901 -0.00052491116 3.813588e-05 0.0018275421 0.00063853903 -6e-45
8.242153e-05 4.961427e-08 8.511358e-07 3.5403168e-06 0.00036634807 1.7732993e-06 1.3215625e-09 0.0006985303
-6e-45 6e-45 6e-45 3.1779896e-06 0.0 6e-45 -1.0518652e-06 9.59349e-07

exp_avg_sq f4 [20, 20]
00000000: 0000 0000 ced9 3932 4719 2436 a22d 4338
00000010: 1a90 593a 11a0 4d37 0879 ed36 6a8b 603b
00000020: 0203 f304 8007 aa02 7eb6 aa00 eae4 c637
00000030: 1404 9825 6ed7 5100 1490 8038 ab79 0437
00000040: d545 1137 1ba7 c439 de2f 1a38 da0d 0500
00000050: df0a 5f35 0000 0000 31ea f634 351e 1336
00000060: a37b 5f37 c974 b933 ca9a c934 4304 a238
00000070: 9afb e003 ea59 9a01 5ead 2500 833b d635
00000080: 55cc bf28 e027 1000 e9d9 a234 9f31 4935
00000090: 96ef ba34 730d d036 cc6d ad34 1496 0000
000000a0: 4223 9e38 c269 da30 0000 0000 82af 9e37
000000b0: 470a 0f3a 244f 2b37 34ff 4c36 4ee1 0b3b
000000c0: 2e6f 6505 a927 4a03 6bcb 3301 e2b6 0337
000000d0: 2fb5 042a 0f01 6200 184b 8638 a810 2036
000000e0: 8d7c e336 432f 9539 a0e8 c937 5778 0200
000000f0: 7a69 9038 fea9 8331 7eec 0035 0000 0000
00000100: 95db 1c3a 1352 8e36 eb51 0536 3741 0c3b
00000110: 6891 d804 77bc 4e03 7845 2f01 181d 3f36
00000120: 02c3 c028 4584 9500 9f3c df37 8587 b535
00000130: c59b 9835 9431 e038 316c 1737 5c5e 0b00
00000140: 225b c537 77d2 0f31 dc23 1535 d723 1537
00000150: 0000 0000 139c 9635 4a60 9835 c0b3 9c3a
00000160: 6411 a105 699a c403 79c6 c101 45be a336
00000170: d962 0322 3f6e 1e01 2c67 0537 3d90 9c35
00000180: 7619 c435 f04f 8538 9ab7 8b36 2c5e 0d00
00000190: a64a 163a 7e70 4734 15a2 b337 4d60 a339
000001a0: c232 763b 0000 0000 95a0 1838 dca7 893c
000001b0: 8d75 9803 1fd8 7e01 76d3 1b00 8295 4039
000001c0: 27f7 472a ed29 1000 388d b439 e8d4 6138
000001d0: b015 5f38 4378 f53a e6e3 3039 99da 0100
000001e0: 8a70 2e39 744e 2732 1314 3b36 2b6d 3938
000001f0: c467 9e3a a279 3837 0000 0000 77ad a63b
00000200: 6a08 be03 a707 0c02 f45d 6900 7e10 bd37
00000210: 9733 2c28 aeb3 3400 2bf7 b838 5a3c ed36
00000220: ce4a 2737 eafb fa39 53cf 2c38 50c0 0100
00000230: 0027 de35 6ef8 c330 1f74 1334 52b4 9335
00000240: 8dff af37 e8cf 1c34 e5dc 7b34 0000 0000
00000250: 89f4 8205 8705 2503 7033 0101 17a3 1c35
00000260: 9329 cb27 2424 4800 482d 2a35 9ff5 2a34
00000270: d9d5 2f34 d878 0a37 7eda b834 edc5 0300
00000280: 5b8a 3b32 a1a4 0c2c fa1d 7c2e dbb5 1e2f
00000290: 2e13 4c35 8387 992d 2a73 3c2d 530f 4e36
000002a0: 0000 0000 e1f1 4203 b275 de00 8aa5 4d2e
000002b0: 79ba a327 a1af 9400 e4bd b830 3dfa 1b2d
000002c0: 92be 9c2d 19b3 be31 87b2 812f 4e68 0500
000002d0: a68a f431 6762 a42b 477e 0e2e fda1 832e
000002e0: d786 d834 419c b52d a3bb f42d fab3 d135
000002f0: 4672 4205 0000 0000 caf4 a600 7909 a22d
00000300: 3710 4626 4aa1 2100 9dd1 9330 7db4 bb2c
00000310: b1e4 a02d 9be9 8731 599f 122f ccba 0000
00000320: 4dea 5231 4e6c 2e2b b003 a42d d0f2 122e
00000330: 1ab8 7034 1e49 ed2c 32f9 832c 04b7 7035
00000340: 7891 e003 49be c102 0000 0000 fc09 342d
00000350: ce28 5e24 d55c 6300 a650 cd2f f8e5 172c
00000360: 157a c22c 7617 d330 d8a5 702e 4237 0400
00000370: f2fd 0d39 c026 e831 9e29 6b35 4b70 0237
00000380: d7dc 613a 47bf 1037 c08f 8636 76c8 3f3b
00000390: bc70 8004 1c3c ac03 848f 3a01 0000 0000
000003a0: 2d95 bb29 be86 2101 97d5 6c38 e555 1936
000003b0: c849 3c36 a412 5f39 6a7f ac37 f0ff 2300
000003c0: 110f a033 f885 252d 4f97 552f 52e3 b330
000003d0: b4ec 8436 418e 6d2f bc01 8f2f 924d 8237
000003e0: 9700 f303 cd4c c001 40d1 2100 c64d 0730
000003f0: 0000 0000 7dab 1900 6904 5c32 9e26 e92e
0.0 1.081794e-08 2.4452618e-06 4.653412e-05 0.0008299366 1.22562205e-05 7.0772403e-06 0.0034262785
5.7131788e-36 2.498356e-37 1.56775e-38 2.3710036e-05 2.637056e-16 7.515957e-39 6.130352e-05 7.896141e-06
8.6589325e-06 0.00037508536 3.676104e-05 4.64146e-40 8.3089793e-07 0.0 4.5991467e-07 2.192229e-06
1.3320622e-05 8.635977e-08 3.755179e-07 7.725556e-05 1.3223302e-36 5.6699686e-38 3.460106e-39 1.5961563e-06
2.1293875e-14 1.483672e-39 3.0333402e-07 7.4950543e-07 3.4819521e-07 6.2004488e-06 3.230365e-07 5.3838e-41
7.5405944e-05 1.5891646e-09 0.0 1.8916795e-05 0.00054565485 1.0210821e-05 3.0546917e-06 0.002134401
1.0787949e-35 5.9407992e-37 3.3023053e-38 7.850789e-06 1.1786816e-13 9.000258e-39 6.403605e-05 2.3851553e-06
6.779627e-06 0.00028454707 2.4069392e-05 2.26841e-40 6.8861016e-05 3.8319277e-09 4.802786e-07 0.0
0.0005983648 4.2414845e-06 1.9866227e-06 0.0021401176 5.091489e-36 6.0754306e-37 3.2192265e-38 2.8478153e-06
2.1400853e-14 1.3730938e-38 2.66119e-05 1.3524992e-06 1.1370217e-06 0.00010690387 9.025492e-06 1.04404e-39
2.3526667e-05 2.0928874e-09 5.555901e-07 8.889437e-06 0.0 1.1221294e-06 1.1352906e-06 0.0011955425
1.5146756e-35 1.15552955e-36 7.11818e-38 4.879929e-06 1.780614e-18 2.9099114e-38 7.951439e-06 1.1664885e-06
1.4610548e-06 6.356824e-05 4.163897e-06 1.227644e-39 0.00057331694 1.8574244e-07 2.1413938e-05 0.00031161532
0.0037566875 0.0 3.6389178e-05 0.016803674 8.960745e-37 4.680749e-38 2.555416e-39 0.00018366243
1.7760499e-13 1.484408e-39 0.00034437492 5.3842465e-05 5.318754e-05 0.0018727857 0.00016869567 1.70254e-40
0.00016635857 9.7385175e-09 2.7876856e-06 4.4209108e-05 0.0012085368 1.09955745e-05 0.0 0.0050865966
1.1169128e-36 1.0287772e-37 9.676431e-39 2.2538235e-05 9.559105e-15 4.839903e-39 8.819842e-05 7.0701763e-06
9.9713925e-06 0.00047871406 4.120108e-05 1.60824e-40 1.6551639e-06 1.4258725e-09 1.3732686e-07 1.1004834e-06
2.0980626e-05 1.4604268e-07 2.3456558e-07 0.0 1.2314969e-35 4.8495487e-37 2.3730463e-38 5.8351856e-07
5.6388893e-15 6.62512e-39 6.339583e-07 1.592184e-07 1.6375942e-07 8.253577e-06 3.4431645e-07 3.46509e-40
1.0916291e-08 1.9986584e-12 5.732479e-11 1.4434624e-10 7.602383e-07 1.7454265e-11 1.0712134e-11 3.0705312e-06
0.0 5.728914e-37 2.0429701e-38 4.675863e-11 4.5443762e-15 1.3654657e-38 1.3441732e-09 8.866294e-12
1.7819777e-11 5.550089e-09 2.3591815e-10 4.96595e-40 7.117097e-09 1.1680213e-12 3.239922e-11 5.985965e-11
4.0331244e-07 2.0646708e-11 2.7822916e-11 1.5624094e-06 9.142825e-36 0.0 1.5332506e-38 1.8421474e-11
6.8717025e-16 3.088431e-39 1.0755233e-09 5.334898e-12 1.8291453e-11 3.955575e-09 1.3335234e-10 6.701e-41
3.0692207e-09 6.196752e-13 1.8646279e-11 3.3412217e-11 2.2418718e-07 6.7440628e-12 3.75091e-12 8.967329e-07
1.3198935e-36 2.846802e-37 0.0 1.0234032e-11 4.817314e-17 9.125016e-39 3.7346587e-10 2.158605e-12
5.5273655e-12 1.5358939e-09 5.471698e-11 3.87165e-40 0.0001354141 6.756494e-09 8.7604883e-07 7.774749e-06
0.00086159765 8.627604e-06 4.010246e-06 0.002926377 3.0196186e-36 1.0123052e-36 3.4265772e-38 0.0
8.330346e-14 2.9667703e-38 5.6465706e-05 2.2848774e-06 2.805713e-06 0.00021273881 2.056333e-05 3.306055e-39
7.453321e-08 9.408911e-12 1.9425993e-10 1.3088572e-09 3.9614624e-06 2.1605563e-10 2.601278e-10 1.553333e-05
1.4282392e-36 7.0639865e-38 3.105636e-39 4.9223237e-10 0.0 2.357406e-39 1.2806688e-08 1.0602473e-10

exp_avg f4 [9, 20]
00000000: c509 7339 7c78 b6b7 7c81 1438 c2b3 243a
00000010: 9537 0739 4bbd 0b3a 4966 f339 3606 78ba
00000020: 0400 0000 0400 0000 0400 0000 9417 e339
00000030: a3c1 5ab4 0400 0000 b698 0a3a aaeb ce39
00000040: c64d 003a 357e 663a 052f 003a 0400 0000
00000050: 30f0 d0ba 61c0 59b8 d413 b43a c159 3c3a
00000060: 1bf7 9eb9 8084 5b39 0978 4b39 ee46 433b
00000070: 0400 0080 0400 0000 0400 0000 9ff6 973a
00000080: 2f5c e832 0400 0000 3c76 b7b9 27d0 013a
00000090: 4d85 2d3a 73bd 9d3a 7c7d 7539 0400 0000
000000a0: a2a0 0f3b e476 92b4 2980 203a f499 383b
000000b0: a33e 713b 3788 2d3a 75a1 603a a92c 903b
000000c0: 0400 0000 0400 0000 0400 0000 44b8 323b
000000d0: ddca dc32 0400 0000 30dd 043b 03ca f93a
000000e0: ec41 da3a e52f 2f3b ab37 d43a 0400 0000
000000f0: 2b2e 26bb a188 2238 5877 43ba 1053 0dbb
00000100: 8c29 5ebb 3a53 97b9 9d3c 66ba 5a61 86bb
00000110: 0400 0000 0400 0000 0400 0000 b191 01bb
00000120: 4e6c be32 0400 0000 ab5c 39bb e568 eaba
00000130: 8aff bfba 4d4c 73bb f33a a6ba 0400 0000
00000140: 992a 373b 1347 c638 e659 a63a 0296 c53a
00000150: 54d2 b03b c85c d839 74fb cd3a 4115 b13b
00000160: 0400 0000 0400 0000 0400 0000 3830 733a
00000170: d5bd da32 0400 0000 7e36 df3a f023 c23a
00000180: fe61 dc39 a94d 893b a829 0838 0400 0000
00000190: a1f1 ab3b 4ec3 2439 32a5 2b3b 2117 bb3b
000001a0: 0d8c d23b 7ec9 aa3a e141 033b 16ac 6b3c
000001b0: 0400 0000 0400 0000 0400 0000 0420 a23b
000001c0: f173 d832 0400 0000 b161 683b 5865 6f3b
000001d0: 8af0 953b 20f6 1b3c f9d0 3c3b 0400 0000
000001e0: 0c44 82bb 2951 c3b9 b8ed 87bb bd8f 12bc
000001f0: 8ac3 15bc 0943 00bb 9e46 8ebb 2b52 a7bc
00000200: 0400 0000 0400 0000 0400 0000 24c8 febb
00000210: 67cd df32 0400 0000 2e83 71bb 7201 b6bb
00000220: 4f0a a7bb a40b 4abc ff10 45bb 0400 0000
00000230: 7dd4 14bb 6610 0b39 cfb4 1ebb f83c 6fbb
00000240: 4d08 cabb fe78 a7ba 6d0d 85ba a8e8 35bc
00000250: 0400 0000 0400 0080 0400 0080 2c55 45bb
00000260: ffe9 0833 0400 0080 1890 02bb b3ac b8ba
00000270: 38cc 1ebb aa30 e4bb 09a8 c7ba 0400 0080
00000280: 0f84 bbb8 c78a c437 0240 b83a 79f8 5c3b
00000290: 83b8 5c3b d67f d339 dc2d 963a 571f 1a3c
000002a0: 0400 0000 0400 0000 0400 0000 9f54 283b
000002b0: 6ea6 ad32 0400 0000 fdbc 893a bd7f 573a
000002c0: 34bb 993a 2fdd 943b ea45 0e3a 0400 0000
0.00023177925 -2.1752196e-05 3.540654e-05 0.00062828895 0.00012895309 0.0005330636 0.0004642478 -0.0009461375
6e-45 6e-45 6e-45 0.0004331438 -2.0373277e-07 6e-45 0.0005287038 0.00039466965
0.00048944016 0.000879261 0.0004889819 6e-45 -0.0015940722 -5.1916e-05 0.0013738819 0.0007185005
-0.00030320216 0.00020934828 0.00019404305 0.0029796916 -6e-45 6e-45 6e-45 0.0011593885
2.7050275e-08 6e-45 -0.0003499257 0.00049519766 0.00066192896 0.001203461 0.00023411767 6e-45
0.0021915813 -2.7281123e-07 0.0006122613 0.0028167935 0.0036811016 0.0006619724 0.0008568981 0.004399855
6e-45 6e-45 6e-45 0.0027270475 2.5703622e-08 6e-45 0.002027344 0.0019057397
0.0016651726 0.0026731428 0.0016190907 6e-45 -0.0025357108 3.8751055e-05 -0.0007456443 -0.0021564402
-0.0033899276 -0.00028862973 -0.0008782836 -0.0041009607 6e-45 6e-45 6e-45 -0.0019770677
2.2168162e-08 6e-45 -0.0028283994 -0.0017884044 -0.00146483 -0.0037124336 -0.0012682363 6e-45
0.0027948974 9.454614e-05 0.0012691587 0.0015074613 0.005396167 0.00041267858 0.0015715198 0.005404145
6e-45 6e-45 6e-45 0.00092768995 2.5464866e-08 6e-45 0.001702979 0.0014811736
0.0004203468 0.004190166 3.2463722e-05 6e-45 0.0052473103 0.00015713015 0.0026190993 0.0057095443
0.0064253868 0.001303002 0.002002828 0.01438429 6e-45 6e-45 6e-45 0.004947664
2.5198434e-08 6e-45 0.003545862 0.0036528911 0.0045757936 0.00951913 0.002881108 6e-45
-0.003975397 -0.00037253767 -0.0041482113 -0.008945403 -0.009140858 -0.0019571206 -0.0043419143 -0.020424923
6e-45 6e-45 6e-45 -0.0077753235 2.6054023e-08 6e-45 -0.003685187 -0.0055543715
-0.0050976644 -0.012331877 -0.0030069945 6e-45 -0.002270966 0.00013262182 -0.0024216657 -0.0036504846
-0.0061655403 -0.0012777147 -0.0010151096 -0.011102833 6e-45 -6e-45 -6e-45 -0.003011058
3.1877786e-08 -6e-45 -0.0019922312 -0.0014089554 -0.002423061 -0.006963809 -0.0015232573 -6e-45
-8.941453e-05 2.3429644e-05 0.0014057162 0.0033717437 0.0033679313 0.000403403 0.0011457759 0.009406886
6e-45 6e-45 6e-45 0.0025685204 2.0215534e-08 6e-45 0.0010508593 0.00082206336
0.0011728765 0.0045429687 0.0005427288 6e-45
