checkpoints/RNN_134.pt (torch, 111359 bytes, 9 tensors)

snn.l1.input_weights f4 [20, 416]
0	0xbe0bc576	-0.13649544
1	0x3eb5da93	0.3551832
2	0xbd96be21	-0.07360483
3	0x3e3fde03	0.18737034
4	0xbea9cf0b	-0.33165774
5	0xbc2e9368	-0.010655262
6	0xbf032133	-0.51222533
7	0x3ec7c4fa	0.3901747
8	0xbe76cc28	-0.24101317
9	0x3f185cab	0.595164
10	0x3c0ef4a3	0.008725318
11	0xbea063fe	-0.31326288
12	0xbe1830ec	-0.14862412
13	0xbf422df2	-0.75851357
14	0x3d320efb	0.043471318
15	0x3dbfc9e3	0.09364679
16	0xbf13b3c8	-0.576962
17	0xbebdf6b3	-0.3710228
18	0xbe0259ac	-0.1272952
19	0xbe7bd979	-0.24594678
20	0x3ea87761	0.3290358
21	0xbd2695c6	-0.04067018
22	0x3d3f5493	0.046711516
23	0x3f26cdea	0.6515795
24	0xbe1a22ac	-0.15052289
25	0x3ed53652	0.41643006
26	0xbbbac573	-0.0056998073
27	0x3e95ebd2	0.2928148
28	0x3ec81067	0.39075014
29	0xbcf80821	-0.030277314
30	0x3ee9083b	0.45514092
31	0x3f26cddf	0.65157884
32	0xbe925a05	-0.28584304
33	0xbf1488cd	-0.5802124
34	0xbee4df06	-0.44701403
35	0x3ddd0d09	0.10793502
36	0x3f4690dc	0.7756479
37	0xbd5990c5	-0.05311658
38	0xbf0d0dbe	-0.55099094
39	0xbe08bdcd	-0.13353653
40	0xbf40ad31	-0.7526427
41	0x3efca3fd	0.49343863
42	0xbece4501	-0.4028702
43	0x3f1f6703	0.6226656
44	0x3ec16c7f	0.37778088
45	0x3ed225ea	0.4104455
46	0x3ea8294a	0.32844
47	0x3e32abc3	0.17448334
48	0xbda01a49	-0.078175135
49	0xbf57b0c3	-0.8425409
50	0xbeccae18	-0.39976573
51	0xbb5aa68d	-0.0033363432
52	0x3f8f2718	1.1183805
53	0x3f2719ad	0.65273553
54	0x3ec991d2	0.39369065
55	0x3f212b01	0.62956244
56	0x3e987ac8	0.29781175
57	0x3f2c088a	0.6720053
58	0x3f39d2ad	0.7258709
59	0x3f797c44	0.9745524
60	0x3f6bdfaf	0.9213819
61	0x3f1350c6	0.57545125
62	0x3f4238b7	0.7586779
63	0x3ed8ddf8	0.4235685
64	0x3f854742	1.0412371
65	0x3f54fd43	0.83198947
66	0x3f8b1aa5	1.0867506
67	0x3f8b73b9	1.0894691
68	0x3f7a5215	0.977815
69	0x3f17e5e8	0.59335184
70	0x3b2e623e	0.002660885
71	0x3ebc4433	0.36770782
72	0x3f2e4c79	0.6808544
73	0x3f56263c	0.8365209
74	0x3e8cbaa6	0.2748615
75	0x3eefaf57	0.4681346
76	0x3f6463eb	0.8921496
77	0x3e4693e7	0.19392358
78	0x3f78c77f	0.97179407
79	0x3f38f468	0.72247934
80	0x3f7cc77c	0.9874189
81	0x3f85d2bf	1.045494
82	0x3ef80755	0.48443094
83	0x3f6ac3c3	0.9170496
84	0x3f452ac7	0.770184
85	0x3f42daf1	0.7611533
86	0x3f0822d2	0.5317813
87	0x3ee2e22e	0.44313186
88	0x3ef50626	0.47856253
89	0x3ee12c19	0.43978956
90	0x3ee6545d	0.4498624
91	0x3f7c1914	0.98475766
92	0x3f5ba40d	0.85797197
93	0x3eff4cbb	0.49863228
94	0x3f7cadcd	0.987027
95	0x3f2f14c5	0.68391067
96	0x3ed58234	0.417009
97	0x3f9791ef	1.184141
98	0x3f30e12e	0.69093597
99	0x3f9eb7f3	1.2399887
100	0x3ec18454	0.3779627
101	0xbdaa0cb7	-0.083032064
102	0x3f1371c8	0.5759549
103	0x3f534eaa	0.82541907
104	0x400d4e2b	2.207896
105	0x400f93f5	2.2434056
106	0x3fc8b330	1.5679684
107	0x3fdc29bc	1.7200236
108	0x400ce101	2.2012331
109	0x401c2949	2.4400198
110	0x3fac588f	1.3464526
111	0x400b278d	2.174289
112	0x3f96c323	1.1778301
113	0x400495f6	2.071653
114	0x4002dbbf	2.0446622
115	0x40222026	2.5332122
116	0x40158942	2.3365026
117	0x3fd4676b	1.6594061
118	0x3fb78c59	1.4339706
119	0x4000f1fc	2.0147696
120	0x400a0c91	2.157017
121	0x3fddacca	1.7318356
122	0x3fe27184	1.7690892
123	0x3ffe8853	1.9885353
124	0x40031a91	2.0484965
125	0x400aff21	2.1718218
126	0x3fb38b41	1.4026872
127	0x3fcf1aa6	1.6180007
128	0x3fb16125	1.3857771
129	0x4009bac7	2.152025
130	0x3fff4d83	1.994553
131	0x4022b857	2.5425012
132	0x400bcee6	2.184503
133	0x3fde33d6	1.7359569
134	0x3feeddd2	1.8661444
135	0x3fc19f67	1.5126771
136	0x4000a103	2.0098274
137	0x3ff40c6b	1.906629
138	0x3fc67add	1.5506245
139	0x3ff9ffd9	1.9531204
140	0x3ff18f74	1.8871903
141	0x3fecb0f6	1.8491504
142	0x3fd20fb6	1.6411045
143	0x3fd78a64	1.6839108
144	0x3f820ab8	1.0159521
145	0x401fbbf1	2.495846
146	0x400c1a26	2.189096
147	0x40407792	3.007298
148	0x401555c4	2.3333597
149	0x3fcb10ed	1.586454
150	0x3fbb5ade	1.4637105
151	0x3fe22e81	1.7670442
152	0x40146a2b	2.31898
153	0x3fe9de11	1.8270894
154	0x3fcdf9ed	1.6091896
155	0x402cbbb0	2.6989555
156	0xbf56e884	-0.8394854
157	0x3e4ee29a	0.20203629
158	0x3ea19b1a	0.31563646
159	0x3df98a30	0.1218456
160	0x3e26d430	0.1629188
161	0x3d8d8c55	0.06911532
162	0x3f0e2c92	0.5553676
163	0x3f913f37	1.1347417
164	0x3f3b5322	0.73173726
165	0x3f0a538f	0.5403375
166	0x3f48afff	0.7839355
167	0x3eedf8ce	0.46478885
168	0xbd30d617	-0.043172922
169	0x3e45e895	0.19327004
170	0x3e1039e5	0.14084585
171	0xbe13110a	-0.14361969
172	0xbf080cb6	-0.53144395
173	0x3e7d961c	0.24764293
174	0x3e25803d	0.161622
175	0xbd78e0fd	-0.06076144
176	0xbdebcf89	-0.115141936
177	0x3d1fa5fe	0.03897666
178	0x3f0d2570	0.5513525
179	0x3f42c04b	0.76074666
180	0x3eee6238	0.4655931
181	0x3dcfdd0e	0.10149585
182	0xbea76ffe	-0.3270263
183	0x3f38dd98	0.72213125
184	0x3e4c0bcb	0.19926374
185	0xbe37e33b	-0.17957775
186	0x3eff58ca	0.49872428
187	0x3eb0e9fe	0.34553522
188	0xbe7dfcf9	-0.24803533
189	0x3d3d1ea2	0.04617179
190	0x3e736e0a	0.23772445
191	0xbd0b6526	-0.03403201
192	0x3e002974	0.12515813
193	0xbe757d6c	-0.23973626
194	0x3f58aff8	0.84643507
195	0x3f306fb1	0.6892043
196	0x3ecedc79	0.40402582
197	0x3e3bc12b	0.18335406
198	0xbda08473	-0.07837763
199	0x3f392770	0.723258
200	0x3e51df2e	0.20495293
201	0x3e710751	0.23537947
202	0x3f0d28ef	0.55140585
203	0x3ed67795	0.4188811
204	0x3e003929	0.12521805
205	0x3ed18167	0.4091904
206	0x3e3e8f32	0.18609312
207	0x3e9d8893	0.3076826
208	0xbe0af62c	-0.1357047
209	0xbce30e73	-0.02771685
210	0xbe073d0e	-0.13206884
211	0xbee6684d	-0.4500145
212	0x3d493812	0.04912574
213	0xbdb1fc1d	-0.08690665
214	0xbf1bcfbc	-0.6086385
215	0xbe98833a	-0.29787618
216	0xbea73a9a	-0.32661897
217	0xbe8e6807	-0.27813742
218	0xbe4b5c24	-0.19859368
219	0xbea9775e	-0.33098882
220	0x3e635817	0.22201572
221	0xbf424359	-0.75884014
222	0xbf3fbb09	-0.7489477
223	0xbecdf5c8	-0.4022658
224	0xbe8cb875	-0.2748448
225	0x3e6f2ed4	0.23357707
226	0xbeaf6d91	-0.3426328
227	0xbed21fc3	-0.41039857
228	0x3ec99a6b	0.39375624
229	0xbeec2e85	-0.46129242
230	0xbf215ee4	-0.63035417
231	0x3cce632b	0.025193771
232	0xbeb96922	-0.36213022
233	0xbec73f39	-0.38915423
234	0x3c1901d6	0.009338817
235	0xbed75cdc	-0.42063034
236	0x3ebd4d5b	0.3697308
237	0xbe1143e1	-0.1418605
238	0xbeee1db9	-0.46507052
239	0xbf1ffc00	-0.62493896
240	0xbee23a3c	-0.44185054
241	0xbf097c8d	-0.53705674
242	0xbee36f5e	-0.44420904
243	0xbeb422fb	-0.35182938
244	0x3df46763	0.11933782
245	0xbf4c5d5c	-0.79829955
246	0xbf09bb47	-0.5380139
247	0x3ee81575	0.4532887
248	0xbe3990ee	-0.18121693
249	0xbe5c11a6	-0.21491107
250	0x3e454b88	0.19267094
251	0xbeb9b054	-0.3626734
252	0xbeb1a354	-0.34694922
253	0xbc3e2624	-0.011605773
254	0xbf0a7e5d	-0.54099065
255	0xbf10abea	-0.5651232

snn.l1.recurrent_weights f4 [20, 20]
0	0x00000000	0.0
1	0x40cce0be	6.4024343
2	0x402ec4c7	2.7307603
3	0x4096b99f	4.710159
4	0x3edbf473	0.42959937
5	0xc009edf9	-2.1551497
6	0xbfcc8cde	-1.5980489
7	0xc03df22c	-2.967906
8	0x40bea8a3	5.9580855
9	0x4034afae	2.8232226
10	0x4056b0e5	3.3545468
11	0x40bf178a	5.9716234
12	0x40d37b10	6.6087723
13	0x405bb71d	3.4330513
14	0xbfc6d4d7	-1.5533704
15	0x3f45a814	0.7720959
16	0x40b6c2a3	5.7112594
17	0xc0ac6005	-5.386721
18	0x3fed9dcb	1.856378
19	0x3f527875	0.8221505
20	0x3e31c45d	0.17360063
21	0x00000000	0.0
22	0x41719081	15.097779
23	0x41286467	10.524512
24	0xbfa30fea	-1.2739232
25	0x40999407	4.7993197
26	0x414e080b	12.876964
27	0xc0790925	-3.8911831
28	0x40d0a067	6.5195804
29	0x40827edb	4.0779853
30	0x40647b77	3.5700357
31	0x412d9976	10.849966
32	0x41540cd0	13.253128
33	0x4094e2db	4.6526923
34	0xbeaf0ec8	-0.34190965
35	0x40f9788b	7.7959647
36	0xbfd0be84	-1.6308141
37	0x4087d423	4.2446456
38	0x3e8ee912	0.27912194
39	0x3ff2fa38	1.8982611
40	0x3eb922c3	0.36159334
41	0x41133c11	9.202165
42	0x00000000	0.0
43	0x40f89785	7.768496
44	0xc050b88d	-3.261264
45	0x407c7ba7	3.9450471
46	0x41062b38	8.385551
47	0xc00133c0	-2.0187836
48	0x40041e9b	2.064368
49	0x409626c4	4.692232
50	0x3ff55dbd	1.9169232
51	0x41209e9e	10.038725
52	0x4113e051	9.242265
53	0x4082fe68	4.0935555
54	0x403418e7	2.81402
55	0x40cc0925	6.3761163
56	0xbfc045d2	-1.5021307
57	0x40ba61b3	5.824426
58	0x3fbfa8bb	1.4973367
59	0x403afd19	2.9216979
60	0x3f520e33	0.82052916
61	0x40275495	2.6145375
62	0x40705fcc	3.755847
63	0x00000000	0.0
64	0x3ded6712	0.11591925
65	0xbfa484b3	-1.2852997
66	0x40eed56c	7.4635525
67	0x3f8aaf4f	1.083475
68	0x408751b2	4.2287226
69	0x3f555e8e	0.83347404
70	0x402acf62	2.6689076
71	0x4190e28a	18.110615
72	0x40a78024	5.234392
73	0x3fb9fe5e	1.4530752
74	0x3f9b11be	1.211479
75	0x3e64f6e0	0.223598
76	0x408f88ab	4.485433
77	0x40cbbe45	6.3669763
78	0x40a61fc2	5.1913767
79	0xbebee768	-0.37285924
80	0xbfece5a8	-1.8507586
81	0x40951b4c	4.659582
82	0x403973e1	2.8976977
83	0x41035951	8.209306
84	0x00000000	0.0
85	0xbfec65b6	-1.846854
86	0x400846c4	2.1293192
87	0xc0772de0	-3.862175
88	0x40ab10a5	5.345782
89	0x3fc4b259	1.5366927
90	0x4035cabf	2.8404996
91	0x40d63d22	6.6949625
92	0x40b026cc	5.504736
93	0x3fc710f1	1.5552045
94	0xbf2824c8	-0.65681124
95	0xbed9f422	-0.4256907
96	0xbf4ec5f2	-0.8077079
97	0xbf8a5ebb	-1.081016
98	0xc022098f	-2.5318334
99	0xbe19e464	-0.1502853
100	0xbf9d475e	-1.2287405
101	0x40a568d8	5.1690483
102	0x40cf3feb	6.4765525
103	0xbeef92f8	-0.46791816
104	0x3e690b87	0.22758304
105	0x00000000	0.0
106	0x3fdf3198	1.743701
107	0x3ef413ac	0.47671258
108	0x40a7aa03	5.2395034
109	0x402eeece	2.7333255
110	0x403c706a	2.9443612
111	0x3f8d6bd2	1.1048529
112	0x40b33b9b	5.601026
113	0x4083d95f	4.1202846
114	0x40743c5d	3.8161843
115	0x3fe695ca	1.8014462
116	0xbf08e1b9	-0.53469425
117	0xbf04ca3c	-0.51871085
118	0x3fee1c01	1.8602296
119	0x3f917087	1.1362466
120	0x3f7aa6bd	0.9791067
121	0x40db3ddd	6.8513017
122	0x40c44293	6.1331267
123	0x40c23fcd	6.070288
124	0xbfd7ec97	-1.6869076
125	0x408d6b2b	4.419332
126	0x00000000	0.0
127	0x3ead0ab4	0.33797228
128	0x402395f5	2.5560277
129	0x3fde869a	1.7384827
130	0x3f2e55f6	0.68099916
131	0x40a36c2b	5.106954
132	0x4095b083	4.677797
133	0x3ff1798e	1.886522
134	0x3e91aa3e	0.28450197
135	0x408c9677	4.3933673
136	0xc00c0f96	-2.1884513
137	0x40ed94d2	7.4244165
138	0x4027dd42	2.6228795
139	0x3fa89dab	1.3173116
140	0xbf94d372	-1.1627028
141	0x40fb0ec2	7.8455515
142	0x40867cd5	4.2027383
143	0x3f80d52e	1.0065057
144	0x407c7304	3.94452
145	0xbfecca6b	-1.8499273
146	0xc0c401fa	-6.1252413
147	0x00000000	0.0
148	0x40be8100	5.953247
149	0x3fddae6d	1.7318856
150	0x403f43d6	2.9885154
151	0x408bb0e2	4.365342
152	0x41042d80	8.261108
153	0x40621659	3.532614
154	0xc048112f	-3.1260488
155	0x400912fb	2.1417835
156	0x401e2ed4	2.4716082
157	0xc10c1d8d	-8.757215
158	0xc01972b6	-2.3976264
159	0x3f9d2407	1.227662
160	0xc112e9a7	-9.182044
161	0x40b0cfd7	5.525371
162	0x408fec11	4.4975667
163	0x40a7e604	5.246828
164	0xc0a7b1a0	-5.2404327
165	0xc0e78f3b	-7.236234
166	0xbfe48e44	-1.7855916
167	0xc1406ff7	-12.027335
168	0x00000000	0.0
169	0xbe4b040c	-0.19825763
170	0x407493a9	3.8215125
171	0x404d7251	3.2101023
172	0x410d0506	8.813726
173	0x400619c4	2.0953226
174	0xc0ffed4f	-7.9977183
175	0xbf4ddbf9	-0.80413777
176	0xc0010eb1	-2.0165217
177	0xc10a311a	-8.636988
178	0xc10690da	-8.410364
179	0xbfc93da6	-1.5721939
180	0xc11fbd46	-9.983709
181	0x40c6055c	6.188154
182	0x40f973a2	7.7953653
183	0xbfab735c	-1.339458
184	0xc0f9c54b	-7.8053336
185	0xc0da26ce	-6.817237
186	0xc097e554	-4.746744
187	0xc14ad94a	-12.678049
188	0x40bfe9c4	5.997286
189	0x00000000	0.0
190	0x4063e73f	3.5609891
191	0x3e3c761d	0.18404432
192	0x40f9d658	7.807415
193	0x4098b249	4.7717633
194	0xc0b0fe16	-5.5310163
195	0xbfb79d67	-1.434491
196	0x3f00ae5e	0.50266063
197	0xc10d6c33	-8.838916
198	0xc1001187	-8.004279
199	0x3f98c022	1.1933634
200	0xc13fe9e3	-11.994601
201	0x403a769c	2.9134893
202	0x40afe912	5.497201
203	0x3f56855f	0.8379726
204	0xc0c7cc45	-6.2436852
205	0xc113e898	-9.244286
206	0xc0e9d65b	-7.3074164
207	0xc1674cea	-14.456278
208	0x40ecccba	7.399991
209	0x40301fac	2.751933
210	0x00000000	0.0
211	0xbde69f29	-0.11260826
212	0x40cf204f	6.472694
213	0x4066dd92	3.6072736
214	0xc114b971	-9.295274
215	0xc0af3ba5	-5.476031
216	0xc01d1c6d	-2.45486
217	0xc141122b	-12.066936
218	0xc1176fbb	-9.464778
219	0xbedf23d3	-0.4358202
220	0x3f2fba4f	0.6864366
221	0x3f596662	0.8492185
222	0x40357376	2.8351722
223	0x415b2f19	13.698998
224	0xc01277a5	-2.2885525
225	0x3f593148	0.8484082
226	0x40a970c6	5.2950163
227	0x3f150d86	0.5822376
228	0x3fe6626a	1.7998784
229	0x3e49b924	0.19699532
230	0x3f3c179a	0.73473513
231	0x00000000	0.0
232	0x40666808	3.6000996
233	0x3fe74c08	1.8070078
234	0xbe8372a7	-0.2567341
235	0x3f8a75f3	1.0817245
236	0x3fa7a28e	1.3096483
237	0x409eb79b	4.959913
238	0x40871b6c	4.2220974
239	0x3d8a4de6	0.06753139
240	0xc04cc5e1	-3.1995776
241	0x412cb302	10.793703
242	0x41303b96	11.014547
243	0x410d4d04	8.831303
244	0xc04a0cc2	-3.1570287
245	0x3f02c146	0.5107616
246	0x40f1084a	7.532262
247	0xc0e093f9	-7.018063
248	0x40ef673b	7.4813514
249	0x3fd95565	1.6979185
250	0x40940221	4.62526
251	0x4108ce1a	8.550318
252	0x00000000	0.0
253	0x407be953	3.936116
254	0xc08cf11a	-4.4044313
255	0x405952c9	3.3956778

snn.fc_out.weight f4 [9, 20]
0	0xbf1ee52b	-0.6206843
1	0xc04b9a9f	-3.1813123
2	0xc0713cba	-3.7693315
3	0xc0e5fe6c	-7.1873074
4	0x3fea4897	1.8303403
5	0xbdf2cf33	-0.11855926
6	0xc0a0e141	-5.027497
7	0x40a4328a	5.1311693
8	0xc0566f53	-3.3505447
9	0xbd986601	-0.07441331
10	0xbfad5c6c	-1.354383
11	0xc0e47623	-7.139421
12	0xc022d1cf	-2.5440557
13	0xbfa6a67f	-1.301956
14	0x4012145d	2.2824929
15	0x3df7f11d	0.121065356
16	0x40940953	4.626138
17	0xbf851f63	-1.0400203
18	0x40021e1f	2.0330884
19	0xbe685c37	-0.22691427
20	0xc03af9e1	-2.9215014
21	0x4055ca26	3.3404632
22	0x40f82f4b	7.755773
23	0xc05a5644	-3.4115152
24	0xbfdb595a	-1.7136643
25	0x3f0cd857	0.5501761
26	0xbda497bd	-0.08036754
27	0xc01c1ef2	-2.4393888
28	0x3f0dad10	0.553422
29	0x402614fc	2.5950308
30	0x3ff477d9	1.9099075
31	0xbfccc7ba	-1.5998452
32	0x401bfd01	2.4373171
33	0x3facc811	1.3498555
34	0x3fedf589	1.8590556
35	0xc061ef23	-3.5302207
36	0xbfb65a79	-1.424636
37	0x3fc89366	1.5669982
38	0xbf0ab031	-0.54175097
39	0x3fd71916	1.6804531
40	0x40370f4a	2.8603082
41	0x3fbf15b7	1.4928502
42	0xbf8b2702	-1.0871279
43	0xbfaa4635	-1.3302675
44	0x40acad27	5.3961368
45	0x3f678ce9	0.90449387
46	0x3ef697c5	0.48162666
47	0x3f04bc01	0.5184937
48	0x40854272	4.164361
49	0x3e365fce	0.17809984
50	0x3ffa00dd	1.9531513
51	0xc048ccd1	-3.137501
52	0x40035ad8	2.0524197
53	0x3f1fa627	0.62362903
54	0x3fce3328	1.6109362
55	0x3fe27d58	1.7694502
56	0xc0bc13d1	-5.877419
57	0xc0440e0d	-3.0633576
58	0xc0511488	-3.2668781
59	0x3f3d9d47	0.7406811
60	0x3f6afa8e	0.91788566
61	0xbf37222f	-0.71536535
62	0x3e8904cf	0.2676148
63	0xc0aecf91	-5.4628377
64	0xbfd5cebb	-1.6703714
65	0x4047dcf9	3.122862
66	0xbf61cc85	-0.882027
67	0x3fef10f9	1.8677055
68	0xbde0325f	-0.109471075
69	0x3fb75ff1	1.4326154
70	0x3ef1b45f	0.47207925
71	0xbf95ddbc	-1.1708293
72	0x3ecc2db0	0.39878607
73	0x3fcded7d	1.6088101
74	0x4017d942	2.3726354
75	0x406f2c8b	3.7370937
76	0x4047dc0c	3.1228056
77	0xbffae725	-1.960179
78	0x3ee8ac75	0.45444074
79	0x3f9348d2	1.1506598
80	0xbf9226f7	-1.1418141
81	0x4040e661	3.0140612
82	0xbe033ed9	-0.12816943
83	0xc080ff94	-4.0311985
84	0xbf46c08f	-0.7763757
85	0xbfc66092	-1.5498221
86	0x4098bfa3	4.773393
87	0xbf165a78	-0.58731794
88	0xc01de4b6	-2.4670844
89	0xbf3cc88f	-0.7374353
90	0xbff64890	-1.9240894
91	0xc0ec9615	-7.3933206
92	0x3f9e00fb	1.2344049
93	0xbfd73822	-1.6814005
94	0xbfdb94a2	-1.7154734
95	0x3f8d8b2e	1.1058099
96	0xbfd9fd70	-1.7030468
97	0x4055bac6	3.3395247
98	0xbeed7f71	-0.46386293
99	0xbfa4968d	-1.2858444
100	0x4011bae6	2.2770324
101	0xbf7040e7	-0.93849033
102	0xc05f06a2	-3.4847798
103	0x3f4eb7d0	0.80749226
104	0xc005f072	-2.0928006
105	0xc0518c61	-3.274193
106	0xc023b2a9	-2.5577796
107	0xbe3b9d13	-0.18321638
108	0xc08684cb	-4.20371
109	0xbf744e3a	-0.95431864
110	0xc0280cf4	-2.6257906
111	0x3fc4de82	1.5380404
112	0xc01fd418	-2.4973202
113	0xbf02e899	-0.51136166
114	0xc05c71b6	-3.4444404
115	0x3f28c6f8	0.659286
116	0x40602b16	3.5026298
117	0x3c9d4aea	0.01920076
118	0xbd749e00	-0.059720993
119	0xbefa011a	-0.48828965
120	0xc0e3fbb3	-7.124475
121	0xc128c995	-10.549214
122	0xc11c9738	-9.786919
123	0x409f5de2	4.9802103
124	0xc0963e44	-4.695101
125	0x3fd54cb8	1.6664038
126	0xbe0ef1c5	-0.13959415
127	0xbe169c7a	-0.14708129
128	0xc0b896c7	-5.7684054
129	0xc102c229	-8.172402
130	0xc0de4de2	-6.947007
131	0x409c511d	4.8849015
132	0xc0c98d8a	-6.2985277
133	0xc0c96557	-6.2936206
134	0xc0db16d6	-6.8465376
135	0xc073d0c9	-3.8096182
136	0xc053cee6	-3.309503
137	0x3f8fc7d3	1.1232857
138	0xbf0ec291	-0.55765635
139	0xc083a503	-4.113893
140	0xc03cf536	-2.9524665
141	0xc021b34c	-2.5265684
142	0xc0ce1ee1	-6.4412694
143	0x41015024	8.082066
144	0x401006a3	2.250405
145	0xbfdf0422	-1.7423136
146	0xbfa038b0	-1.25173
147	0xc0a12064	-5.035204
148	0x40696aa9	3.647135
149	0xc03f51ed	-2.9893754
150	0x4007412a	2.1133523
151	0x403c2a66	2.9400878
152	0x3e0af535	0.13570102
153	0xbfb3ab29	-1.4036609
154	0xc092764a	-4.5769396
155	0xc0fac60b	-7.836675
156	0xc0b4e022	-5.65236
157	0xbf174680	-0.5909195
158	0x3f707350	0.9392595
159	0xc05900b1	-3.3906672
160	0xbff4d73a	-1.9128182
161	0xc15b0bf0	-13.690414
162	0xbffcf771	-1.9763013
163	0x408e8bd7	4.4545703
164	0xc10e8293	-8.906878
165	0xc0d6f2bd	-6.717131
166	0xc1128735	-9.15801
167	0xbe9fa750	-0.31182337
168	0xc108746e	-8.528425
169	0xc062e521	-3.545235
170	0xc097d321	-4.7445226
171	0x40ad1252	5.4084864
172	0xc14a1485	-12.63001
173	0xc089773b	-4.2958045
174	0x40311a49	2.7672293
175	0xc0d31808	-6.5966835
176	0x3f42c85b	0.7608697
177	0x3f8c3887	1.0954751
178	0x3eb66a7f	0.35628125
179	0xbf04d741	-0.5189095

exp_avg f4 [20, 416]
0	0x3b8b6975	0.004254515
1	0x38ee4dcd	0.00011363216
2	0x3aac90c1	0.0013165699
3	0x3aa30106	0.0012436218
4	0xba9e8220	-0.0012093224
5	0x3b20946d	0.002450253
6	0x3ae9aa7d	0.0017827299
7	0x3b80ccb2	0.0039306516
8	0xb9b579a8	-0.0003461365
9	0xba328763	-0.00068103353
10	0x3a1ebc25	0.00060552574
11	0x3af451ef	0.0018640141
12	0xba3f334e	-0.0007293717
13	0x3b3fb11e	0.0029249857
14	0x38a47642	7.8421566e-05
15	0x39f5bfb5	0.00046872874
16	0xbab96204	-0.0014143591
17	0x3b16e462	0.002302431
18	0x3a0f5468	0.00054675946
19	0x3a22adb1	0.00062056916
20	0x3980ea14	0.00024588464
21	0xb87133a9	-5.750699e-05
22	0x39cf0b47	0.0003949052
23	0x3b041000	0.0020151138
24	0xbb05e468	-0.002043033
25	0xbae7dd1a	-0.0017689795
26	0x38bff5d1	9.1533766e-05
27	0x3ac35b79	0.001490458
28	0x39f0c5cb	0.00045923734
29	0xbacb63a1	-0.0015517363
30	0x39912ab2	0.00027688366
31	0x3aabc338	0.0013104444
32	0x39fcf55c	0.00048247993
33	0x3b6d8020	0.0036239699
34	0x3a91323d	0.0011077594
35	0xba8f7c32	-0.0010947047
36	0xba88ccce	-0.0010437013
37	0xb989694b	-0.00026209126
38	0xbab52bcb	-0.0013822255
39	0x3afab7a1	0.0019128212
40	0x3acc393c	0.0015581022
41	0x3acb2d2b	0.0015501132
42	0x3acec66e	0.0015775689
43	0x39f7ec7a	0.000472877
44	0x3b938a7f	0.004502594
45	0x3a96b9fe	0.0011499522
46	0x3b16212f	0.0022907963
47	0x3a717e59	0.00092122477
48	0xbb4d8764	-0.0031361217
49	0xbaa238d2	-0.0012376553
50	0xbb22224e	-0.0024739685
51	0xba3b5afc	-0.00071470416
52	0x3b6151e8	0.0034381095
53	0x3a80fbd5	0.0009840677
54	0x381afaf3	3.6950176e-05
55	0xba3bada1	-0.00071593566
56	0x39d56041	0.0004069824
57	0x3973bd0f	0.00023244716
58	0xba73d993	-0.00093021354
59	0x3a4add0b	0.00077386264
60	0xbaa94218	-0.0012913374
61	0x3ae92d66	0.0017790019
62	0xbad73515	-0.0016419018
63	0x3a64bbe0	0.00087255053
64	0x3ab590e7	0.0013852388
65	0x3b77ebd8	0.0037829783
66	0x3acd550e	0.0015665607
67	0xbae5ef71	-0.0017542673
68	0xb88e0303	-6.7716486e-05
69	0x3a0bf015	0.0005338204
70	0x3895cada	7.142658e-05
71	0xbab3c1f3	-0.0013714418
72	0xbb342a19	-0.0027490912
73	0x3b1e467d	0.00241509
74	0x3b650c73	0.0034950047
75	0xb971ccfc	-0.00023059914
76	0x394ecef3	0.00019722786
77	0x39e9773b	0.00044530057
78	0xbaa08ce7	-0.0012249023
79	0x3ad1431b	0.0015965434
80	0x3aa72e42	0.0012754875
81	0x3b3f592d	0.002919744
82	0xbaf18df7	-0.001842915
83	0xbb0d73ac	-0.0021583838
84	0x3ad73093	0.0016417674
85	0x3ab57814	0.001384499
86	0x399405cd	0.00028233082
87	0xbb08531b	-0.0020801488
88	0xba2a5655	-0.000649785
89	0x3a0637f4	0.0005120032
90	0x3b06c798	0.0020565744
91	0x3a7aadf9	0.0009562667
92	0x39aca37d	0.00032928205
93	0xba2b6dc7	-0.00065394904
94	0x3b291cd0	0.0025804527
95	0xba295b95	-0.0006460485
96	0x3adc8d4e	0.001682678
97	0x3b5e4722	0.003391691
98	0xbb2f44ee	-0.0026743966
99	0x39376dea	0.00017493186
100	0xbb54dbed	-0.0032479719
101	0xbabc0f19	-0.0014347761
102	0x3b381790	0.0028090216
103	0x3b17adf7	0.0023144463
104	0x3b382bb1	0.0028102214
105	0xb9552efe	-0.00020330769
106	0xba09e6bd	-0.0005260518
107	0x3aea9169	0.0017896119
108	0x3ad679d4	0.0016363212
109	0x3a4acbff	0.0007736086
110	0xbaa421a4	-0.0012522233
111	0x3a818fcf	0.0009884777
112	0xb995fb1f	-0.00028606594
113	0xb9dd6712	-0.00042229198
114	0xb9bebbea	-0.0003637963
115	0xb9b042c0	-0.0003361907
116	0xbb3189c9	-0.0027090183
117	0xbaad3ee3	-0.0013217594
118	0x3add7aa4	0.0016897512
119	0xba06481b	-0.0005122439
120	0xba4d42a4	-0.00078300596
121	0xb962ebef	-0.00021640932
122	0x3b393184	0.0028258273
123	0x3aa8de56	0.0012883644
124	0x3a408e01	0.0007345379
125	0x3aab3140	0.0013060942
126	0xba0cf08b	-0.000537642
127	0x3a51410c	0.000798241
128	0x3a0f4d80	0.00054665655
129	0x3b13e13e	0.0022564675
130	0xbb19460c	-0.0023387698
131	0x3b169cc4	0.0022981623
132	0x3b9c4300	0.004768729
133	0x397d708e	0.0002416989
134	0x3b3628e4	0.0027795369
135	0xba6d943f	-0.0009062923
136	0xb900b90c	-0.00012275967
137	0x386b6ddb	5.6130677e-05
138	0x3b03f26e	0.0020133513
139	0xbb0bf689	-0.0021356663
140	0x3adc9582	0.0016829225
141	0x3b44442a	0.0029947856
142	0x3aa6b72c	0.0012719384
143	0x3a1ee47c	0.00060612685
144	0xbad231a0	-0.0016036518
145	0x3906a6a5	0.00012841316
146	0x3a72ebdb	0.00092667126
147	0xba9b43e0	-0.001184579
148	0xba9865dd	-0.0011627037
149	0x391ffc68	0.0001525745
150	0xba8fec6c	-0.0010980493
151	0x3b096f6c	0.0020970954
152	0xbb14dfef	-0.0022716483
153	0x375f75c8	1.3319259e-05
154	0xba362a1d	-0.00069490244
155	0x3b89b029	0.004201908
156	0xbb0e24b3	-0.0021689355
157	0x3b03be9f	0.0020102633
158	0x3a9d9ee9	0.0012025508
159	0x3bd7d898	0.0065870993
160	0x3bb9253b	0.00565019
161	0xbb557423	-0.0032570444
162	0xbb7bcbdf	-0.0038421077
163	0xba146769	-0.0005661161
164	0x3ae671b7	0.0017581497
165	0x3ac8d369	0.0015321794
166	0x3b7e9e95	0.0038851846
167	0x3b84da4d	0.004054344
168	0xbb39a265	-0.0028325554
169	0x3a93266b	0.0011226659
170	0x3b9f5bba	0.0048632296
171	0x3a4620f3	0.00075580104
172	0xbac8eb61	-0.0015328937
173	0x3b268802	0.0025410657
174	0x3ae6130a	0.0017553282
175	0x3b9da406	0.004810813
176	0x3b37ea05	0.002806307
177	0x3abcbcfe	0.0014399586
178	0x3933da39	0.00017152065
179	0xb9795848	-0.00023779378
180	0x3ad0048e	0.0015870498
181	0x3aaa50bd	0.0012994033
182	0x3b391014	0.0028238343
183	0xbb0fb1f9	-0.0021926148
184	0x3bee7be6	0.0072779534
185	0xbb24fb6d	-0.0025174276
186	0x3b2a5dbc	0.0025995811
187	0xbb3c05ce	-0.0028689983
188	0xbb505bb5	-0.0031792943
189	0xba9177cd	-0.0011098325
190	0x39b6b3e5	0.00034847777
191	0xba50b066	-0.0007960856
192	0x3b06dae7	0.0020577253
193	0x3b9236fa	0.00446212
194	0x3ac0432a	0.0014668454
195	0x3a881819	0.0010383158
196	0x3a4d9fd8	0.0007843948
197	0xbb0de818	-0.0021653231
198	0x3b0f4370	0.0021860264
199	0x3af50da2	0.001869608
200	0xba2bd0b3	-0.0006554231
201	0xbaab067b	-0.0013048196
202	0x3aa7d9a6	0.0012805953
203	0xbb3ce2fb	-0.0028821814
204	0xbac577a8	-0.0015065568
205	0xbab917e9	-0.0014121506
206	0x3ab1e0df	0.0013571045
207	0x3bfd1444	0.007723363
208	0x39e81bb6	0.00044271135
209	0x3b728321	0.0037004428
210	0xbac128dc	-0.0014736908
211	0x3b9b12a7	0.004732448
212	0xb79e58bd	-1.887639e-05
213	0xba5c07d7	-0.0008393502
214	0x3b327822	0.002723225
215	0xba8a53f3	-0.0010553583
216	0x3ab1c7eb	0.0013563609
217	0xbae07d41	-0.0017127172
218	0xb8ae931f	-8.32437e-05
219	0x3a418bfc	0.0007383225
220	0xbb64b283	-0.003489644
221	0x3b27abc8	0.0025584567
222	0x39a6d172	0.00031818036
223	0x3b50f461	0.0031883942
224	0x3b5b588e	0.003346953
225	0x3b11c089	0.0022240004
226	0x3af24dc8	0.0018486315
227	0x3a350cd9	0.00069065165
228	0x3b05ddc7	0.002042638
229	0x3b24d3d3	0.002515067
230	0x39738f6e	0.00023227718
231	0xba184ece	-0.00058100827
232	0x3b87357b	0.0041262484
233	0x3aa523d2	0.0012599176
234	0x3b1ef386	0.0024254038
235	0xbb2a2fe9	-0.0025968498
236	0x39ce84af	0.0003939024
237	0xb8b9d5f8	-8.861342e-05
238	0x3b6f81a6	0.0036545782
239	0x3b359048	0.0027704407
240	0xb954d299	-0.00020296349
241	0x3b180b0a	0.002319994
242	0xbb483fee	-0.0030555683
243	0xbb21a8c3	-0.002466724
244	0x3b87493c	0.0041286033
245	0x3b8db3b9	0.004324403
246	0x389212cb	6.965323e-05
247	0xba2acf9b	-0.0006515921
248	0x3a2db2d2	0.00066260726
249	0xba42cc0a	-0.0007430917
250	0x3ba7bd52	0.0051190043
251	0xbb101727	-0.0021986456
252	0x3b32c3e7	0.0027277411
253	0xb9dbfd98	-0.00041959877
254	0x3b20c878	0.0024533551
255	0x3b150dee	0.0022743898

exp_avg_sq f4 [20, 416]
0	0x38a259a1	7.741457e-05
1	0x3884588c	6.3107436e-05
2	0x38861dc1	6.39516e-05
3	0x38a338ca	7.7830235e-05
4	0x38e373b0	0.00010845752
5	0x38a93c6d	8.069803e-05
6	0x38996b6f	7.3156196e-05
7	0x386ce5b4	5.6480712e-05
8	0x388cce2e	6.714124e-05
9	0x389368da	7.029036e-05
10	0x38cce886	9.770789e-05
11	0x389bfc1d	7.437936e-05
12	0x38a5f8a2	7.9141246e-05
13	0x38ad1814	8.253768e-05
14	0x389e17fe	7.538496e-05
15	0x38f80611	0.000118266915
16	0x38b34d47	8.549779e-05
17	0x389575bb	7.126803e-05
18	0x389b39b9	7.4017276e-05
19	0x39642e11	0.00021760935
20	0x38830d2b	6.2490195e-05
21	0x38a87221	8.0321224e-05
22	0x38b875d3	8.79575e-05
23	0x385693dd	5.1159284e-05
24	0x3865086d	5.46057e-05
25	0x388d241c	6.73013e-05
26	0x38a263dc	7.743362e-05
27	0x3869e01e	5.5760254e-05
28	0x3891591d	6.9307374e-05
29	0x389a7b5a	7.366268e-05
30	0x38993106	7.30474e-05
31	0x38a8f41f	8.056335e-05
32	0x389833ae	7.257551e-05
33	0x38e681a5	0.00010991403
34	0x389af794	7.389407e-05
35	0x389711a6	7.2035284e-05
36	0x38848893	6.3196894e-05
37	0x389d1e93	7.492038e-05
38	0x38cf1c3f	9.8757904e-05
39	0x38a073a1	7.650932e-05
40	0x3890847e	6.891134e-05
41	0x389a848e	7.3679825e-05
42	0x38a66529	7.9343394e-05
43	0x387cd781	6.0282186e-05
44	0x38823f6c	6.210696e-05
45	0x3860f475	5.363343e-05
46	0x38919e8a	6.943669e-05
47	0x38cd20c4	9.781265e-05
48	0x38a1a2e2	7.7074175e-05
49	0x38b27609	8.509687e-05
50	0x388f8497	6.843468e-05
51	0x389224fb	6.968711e-05
52	0x38c8cf3c	9.5753436e-05
53	0x38b2f1d2	8.532744e-05
54	0x388c73a4	6.69726e-05
55	0x389c9da5	7.468023e-05
56	0x38b8411d	8.785932e-05
57	0x38a4ad5a	7.852419e-05
58	0x389c1449	7.442438e-05
59	0x38927128	6.9828995e-05
60	0x38862b65	6.397701e-05
61	0x387fea9b	6.101523e-05
62	0x38b097d7	8.420616e-05
63	0x388731c0	6.446568e-05
64	0x38a10d12	7.679513e-05
65	0x38a474db	7.8418954e-05
66	0x388ff0c1	6.863615e-05
67	0x3892e677	7.00475e-05
68	0x389c3a88	7.449562e-05
69	0x38a60c4d	7.917788e-05
70	0x38b1826f	8.464313e-05
71	0x38c6b37c	9.474807e-05
72	0x38b7f7e5	8.772294e-05
73	0x3888bcc2	6.520144e-05
74	0x38b929b3	8.8292545e-05
75	0x38c2765e	9.2726885e-05
76	0x3883fd74	6.293776e-05
77	0x389320c0	7.0156064e-05
78	0x38915f32	6.93187e-05
79	0x3861f716	5.3874297e-05
80	0x387ad4b9	5.980276e-05
81	0x38a78119	7.987227e-05
82	0x38901d9a	6.871969e-05
83	0x388c721a	6.696973e-05
84	0x3895518a	7.1200615e-05
85	0x38ac139a	8.20525e-05
86	0x3889055e	6.533669e-05
87	0x38bb469f	8.930009e-05
88	0x38ad01a0	8.2495855e-05
89	0x38a7628c	7.981536e-05
90	0x38b61960	8.683163e-05
91	0x3899370d	7.3058625e-05
92	0x38a5b06d	7.900675e-05
93	0x38815b76	6.168235e-05
94	0x389d858b	7.511218e-05
95	0x385c7c48	5.2567833e-05
96	0x38979ab6	7.229058e-05
97	0x388bab60	6.6599576e-05
98	0x389b656b	7.4098665e-05
99	0x38a0cebf	7.667904e-05
100	0x38a1b61b	7.710998e-05
101	0x38b4be59	8.618524e-05
102	0x38a01828	7.633894e-05
103	0x389b0b07	7.39303e-05
104	0x3890417e	6.878654e-05
105	0x387eda50	6.076164e-05
106	0x388929ed	6.540478e-05
107	0x38937556	7.031362e-05
108	0x38850171	6.342203e-05
109	0x386edd15	5.694952e-05
110	0x3883d712	6.286627e-05
111	0x38cb646a	9.698498e-05
112	0x387a49f9	5.9673537e-05
113	0x38aa0b34	8.1083184e-05
114	0x3896f807	7.198756e-05
115	0x3877b593	5.9058493e-05
116	0x389725ae	7.2072595e-05
117	0x38a3cc4b	7.810498e-05
118	0x387a4149	5.9665446e-05
119	0x38733d20	5.799264e-05
120	0x38910da5	6.91668e-05
121	0x38970f37	7.203075e-05
122	0x387728d0	5.89274e-05
123	0x3884ce3f	6.332667e-05
124	0x3888f692	6.530913e-05
125	0x3867ace7	5.523572e-05
126	0x3881e519	6.193872e-05
127	0x390dcd83	0.00013523367
128	0x385edd32	5.313493e-05
129	0x38bf0d00	9.110011e-05
130	0x3885003b	6.341977e-05
131	0x385e93f1	5.3066706e-05
132	0x388e804d	6.7949855e-05
133	0x3895a52a	7.135638e-05
134	0x38743362	5.8221987e-05
135	0x38780611	5.9133457e-05
136	0x38985fef	7.265794e-05
137	0x3886eb67	6.433465e-05
138	0x3864bed9	5.4537177e-05
139	0x38a8faa4	8.05755e-05
140	0x3852c91b	5.0255196e-05
141	0x3875fb98	5.8646867e-05
142	0x388f8e6f	6.845302e-05
143	0x38d73855	0.000102624916
144	0x3880c434	6.140061e-05
145	0x3889f205	6.577749e-05
146	0x38975a8d	7.2171075e-05
147	0x38791a2b	5.9390597e-05
148	0x3892074a	6.96318e-05
149	0x38966f9a	7.173345e-05
150	0x38967c0d	7.1756636e-05
151	0x3885dcfc	6.383096e-05
152	0x3898262c	7.255035e-05
153	0x38a74798	7.976516e-05
154	0x38802b8c	6.111627e-05
155	0x388fefe0	6.8634516e-05
156	0x3914e971	0.00014201344
157	0x38fe8463	0.00012136323
158	0x38d1d4ea	0.00010005555
159	0x391e3f08	0.00015091535
160	0x392c66bf	0.00016441474
161	0x391364f0	0.00014056615
162	0x39134b2a	0.00014047013
163	0x390aca1d	0.00013235999
164	0x39208b37	0.0001531065
165	0x38ec20a8	0.000112594396
166	0x395511ae	0.00020319849
167	0x391596c0	0.00014265906
168	0x38cd51ca	9.790396e-05
169	0x3908a061	0.00013029717
170	0x391689fe	0.00014356521
171	0x3912feff	0.00014018638
172	0x392f8448	0.00016738579
173	0x3926762c	0.00015875016
174	0x38c03428	9.164988e-05
175	0x3902dab6	0.00012479242
176	0x3958482a	0.00020626248
177	0x3914d61a	0.00014194139
178	0x393cd535	0.00018008503
179	0x39125ba7	0.00013957788
180	0x3937e685	0.00017538115
181	0x3910effd	0.00013822313
182	0x38f7c8e0	0.00011815294
183	0x38fe0ebe	0.0001211441
184	0x38b874a7	8.795532e-05
185	0x391d4a21	0.00015000302
186	0x3917b3f5	0.00014467521
187	0x38df748b	0.000106551764
188	0x392aea39	0.00016299718
189	0x390e72d3	0.0001358495
190	0x38be88e4	9.085404e-05
191	0x39031968	0.00012502598
192	0x394a36bb	0.0001928461
193	0x38f729d6	0.0001178567
194	0x391172bc	0.0001387102
195	0x38ec6835	0.00011272767
196	0x3966d642	0.00022014327
197	0x38e18129	0.00010752894
198	0x390dfa00	0.0001353994
199	0x38e7aa07	0.000110466084
200	0x38fecdc9	0.00012149994
201	0x390cb23f	0.00013417842
202	0x39338351	0.0001711969
203	0x38bb6eb7	8.937477e-05
204	0x391ca850	0.0001494002
205	0x38efa0d0	0.00011426362
206	0x38c6cbb3	9.479318e-05
207	0x38e0ff18	0.00010728667
208	0x38ad530f	8.264754e-05
209	0x38f8e071	0.00011867367
210	0x389d26ca	7.4935684e-05
211	0x38c32f39	9.3071205e-05
212	0x38ebaadc	0.00011237498
213	0x38c5ad6b	9.4259936e-05
214	0x38a1c92f	7.7145516e-05
215	0x38ae6d21	8.3172934e-05
216	0x38d95d01	0.0001036469
217	0x38afb007	8.377438e-05
218	0x38be2337	9.066465e-05
219	0x38d615f9	0.00010208408
220	0x39054fd3	0.00012713605
221	0x38d070ef	9.9392484e-05
222	0x391af4aa	0.00014777729
223	0x38c5d408	9.433186e-05
224	0x38bffd0f	9.1547256e-05
225	0x39072286	0.00012887464
226	0x38e011fa	0.00010684501
227	0x38b9b2e3	8.854808e-05
228	0x38d879cb	0.00010322368
229	0x38daf850	0.00010441302
230	0x38998945	7.321177e-05
231	0x38cb7ef4	9.703441e-05
232	0x39092583	0.00013079312
233	0x38da278d	0.00010402417
234	0x38afcb24	8.382488e-05
235	0x389017d3	6.870893e-05
236	0x38b44277	8.595449e-05
237	0x38d02208	9.924552e-05
238	0x394829d3	0.00019089067
239	0x38e1ac83	0.00010760969
240	0x38ce0ec5	9.8255965e-05
241	0x391ebe0b	0.0001513885
242	0x38c7198a	9.4938165e-05
243	0x38c86b43	9.556722e-05
244	0x38cf82f7	9.894923e-05
245	0x39221e53	0.0001546082
246	0x388bbcc9	6.6632005e-05
247	0x38e94f7a	0.000111251094
248	0x3908b6f9	0.00013038133
249	0x390d3f1d	0.0001347032
250	0x389017d0	6.8708905e-05
251	0x3897cead	7.2387375e-05
252	0x38d7166c	0.00010256175
253	0x38d8b06c	0.00010332544
254	0x39108884	0.00013783766
255	0x3908e1c3	0.00013054073

exp_avg f4 [20, 20]
0	0x00000000	0.0
1	0x38b115b2	8.444059e-05
2	0x39ad8d74	0.00033102522
3	0x3b36ac16	0.0027873567
4	0x3b6dc937	0.0036283263
5	0x3ac39aa4	0.0014923406
6	0x3ac7e9a3	0.0015252124
7	0x3c62fcad	0.013854188
8	0x00000004	6e-45
9	0x80000004	-6e-45
10	0x00000004	6e-45
11	0x3af3bf9a	0.001859653
12	0x3602aeb8	1.947321e-06
13	0x00000004	6e-45
14	0x3b03fb60	0.0020138845
15	0x380dc3cb	3.3799366e-05
16	0x38991cfe	7.301009e-05
17	0x3c18ec3e	0.009333668
18	0x3bb3a793	0.005482623
19	0x00000004	6e-45
20	0x392dbd80	0.0001656916
21	0x00000000	0.0
22	0x376e1b02	1.4192194e-05
23	0x3a2b2b07	0.0006529544
24	0x3a83b90a	0.0010049653
25	0xb795c989	-1.7856031e-05
26	0x399eb73a	0.00030272623
27	0x3bdd3691	0.0067508896
28	0x80000004	-6e-45
29	0x00000004	6e-45
30	0x00000004	6e-45
31	0x39ad5f9f	0.00033068375
32	0x33ab1316	7.96628e-08
33	0x00000004	6e-45
34	0x3ab6f9be	0.0013959927
35	0xb77c9aac	-1.5056383e-05
36	0xb9123e43	-0.0001394684
37	0x3b3a8a22	0.0028463681
38	0x3aa5a151	0.0012636577
39	0x00000004	6e-45
40	0xb9c38d82	-0.0003729873
41	0x371e548f	9.437222e-06
42	0x00000000	0.0
43	0x3a0c6917	0.0005356236
44	0x3a6d574a	0.00090538396
45	0xb97ff9a8	-0.00024411699
46	0x3958774e	0.0002064381
47	0x3c05b516	0.00816085
48	0x80000004	-6e-45
49	0x00000004	6e-45
50	0x00000004	6e-45
51	0x3984682b	0.00025254613
52	0x34ce091a	3.8377112e-07
53	0x00000004	6e-45
54	0x3b2691a3	0.0025416396
55	0xb5e2c892	-1.6896686e-06
56	0xb8705430	-5.7298865e-05
57	0x3b631886	0.0034652068
58	0x3aa9e30a	0.001296134
59	0x00000004	6e-45
60	0x3a3de334	0.0007243634
61	0xb6c8a3b6	-5.979523e-06
62	0xb769e359	-1.3940816e-05
63	0x00000000	0.0
64	0x3b269e5e	0.0025423984
65	0x3a702fc4	0.0009162391
66	0x39c9401c	0.00038385473
67	0x3c4e6d74	0.012599338
68	0x00000004	6e-45
69	0x80000004	-6e-45
70	0x80000004	-6e-45
71	0xba39066d	-0.00070581475
72	0xb4d86040	-4.0303166e-07
73	0x80000004	-6e-45
74	0x3b62a51b	0.0034583274
75	0x36856d88	3.97646e-06
76	0xb704b6f1	-7.9104075e-06
77	0x3b8a57c9	0.0042218906
78	0x3a8fa611	0.0010959526
79	0x80000004	-6e-45
80	0x3a82570d	0.0009944156
81	0xb6abbbe1	-5.118069e-06
82	0xb7b618be	-2.1707612e-05
83	0x38611dac	5.3671814e-05
84	0x00000000	0.0
85	0x3a85f29d	0.0010219399
86	0x3a654293	0.0008745577
87	0x3b0d129f	0.0021525992
88	0x00000004	6e-45
89	0x80000004	-6e-45
90	0x80000004	-6e-45
91	0xb988c6a3	-0.00026087937
92	0xb45dc871	-2.0655149e-07
93	0x80000004	-6e-45
94	0x3a3cad9f	0.00071975024
95	0xb7e78bdf	-2.7602478e-05
96	0xb97faca5	-0.0002438301
97	0x3b50d998	0.0031867977
98	0x3ac706eb	0.0015184557
99	0x80000004	-6e-45
100	0xba496148	-0.00076820375
101	0x382f0dce	4.1736108e-05
102	0x378cc88d	1.678269e-05
103	0x3a51acaa	0.0007998446
104	0x3a454194	0.00075247255
105	0x00000000	0.0
106	0x39e3fafe	0.00043483818
107	0x3c1d4f58	0.009601437
108	0x80000004	-6e-45
109	0x00000004	6e-45
110	0x00000004	6e-45
111	0x38ed18dc	0.00011305671
112	0x35a8aebc	1.256783e-06
113	0x00000004	6e-45
114	0x3af61487	0.0018774428
115	0x369e1a7b	4.7118497e-06
116	0xb9827ba2	-0.00024887646
117	0x3b9d88cf	0.0048075686
118	0x3adc4fa1	0.0016808399
119	0x00000004	6e-45
120	0xba6df355	-0.0009077092
121	0xb7849345	-1.5804204e-05
122	0xb8a67e0a	-7.9389734e-05
123	0x3a77297d	0.00094284845
124	0x3b1f300c	0.0024290113
125	0xb9983bcc	-0.0002903625
126	0x00000000	0.0
127	0x3c76d7a4	0.015066061
128	0x00000004	6e-45
129	0x00000004	6e-45
130	0x00000004	6e-45
131	0x3934ad56	0.0001723071
132	0xb3ea6342	-1.0914529e-07
133	0x00000004	6e-45
134	0x3b3bcf93	0.002865766
135	0xb7e897f8	-2.7727321e-05
136	0xb8c8c946	-9.574233e-05
137	0x3bac2ef4	0.0052546207
138	0x3ab652f8	0.0013910225
139	0x00000004	6e-45
140	0x3a8b1a7f	0.0010612755
141	0x38ddb4a0	0.00010571745
142	0x39ca4508	0.00038579875
143	0x3b1e40eb	0.002414758
144	0x38480b27	4.7694102e-05
145	0x39010798	0.00012305228
146	0x3ab01190	0.0013432968
147	0x00000000	0.0
148	0x00000004	6e-45
149	0x00000004	6e-45
150	0x00000004	6e-45
151	0x3afe760e	0.0019413845
152	0x362eaded	2.6029259e-06
153	0x00000004	6e-45
154	0x3a14d1e3	0.00056770275
155	0x38558228	5.0904375e-05
156	0x3941ea06	0.00018493095
157	0x3b0a32bc	0.002108737
158	0x3aba1caa	0.0014199216
159	0x00000004	6e-45
160	0x395872d6	0.00020642145
161	0x3423ee6d	1.5267297e-07
162	0x34f5e463	4.580098e-07
163	0x3806d033	3.214199e-05
164	0x399ec52f	0.00030283022
165	0x382fda26	4.1926418e-05
166	0x37927c13	1.7462333e-05
167	0x3af7dccf	0.001891041
168	0x00000000	0.0
169	0x80000004	-6e-45
170	0x80000004	-6e-45
171	0x3761367c	1.3423731e-05
172	0xb1407dee	-2.801126e-09
173	0x80000004	-6e-45
174	0x39b600ed	0.00034714435
175	0x33a7d71c	7.815672e-08
176	0xb4998b1b	-2.8599683e-07
177	0x39ca537f	0.00038590652
178	0x3985b7ab	0.0002550458
179	0x80000004	-6e-45
180	0x39014e76	0.00012331628
181	0x34520749	1.9560424e-07
182	0x359e6444	1.1801098e-06
183	0x37e4e6ec	2.728725e-05
184	0x39227287	0.00015492189
185	0x37badfc6	2.227713e-05
186	0x3756592f	1.2776159e-05
187	0x3a957f57	0.0011405748
188	0x80000004	-6e-45
189	0x00000000	0.0
190	0x00000004	6e-45
191	0x3780596c	1.530043e-05
192	0x315fcc0c	3.2566758e-09
193	0x00000004	6e-45
194	0x396446bc	0.00021770125
195	0x3433050f	1.6672514e-07
196	0x32616ce1	1.312148e-08
197	0x39860514	0.00025562255
198	0x3933b443	0.00017137923
199	0x00000004	6e-45
200	0x38b591d2	8.657914e-05
201	0x33ab0d8e	7.9652736e-08
202	0x34b4f705	3.3707343e-07
203	0x374be6dc	1.2153494e-05
204	0x3903b804	0.00012561685
205	0x37ab28f4	2.0403859e-05
206	0x36fd3858	7.546547e-06
207	0x3a5d8f27	0.00084518123
208	0x80000004	-6e-45
209	0x80000004	-6e-45
210	0x00000000	0.0
211	0x36c614cf	5.9032823e-06
212	0xaf8b220a	-2.530814e-10
213	0x80000004	-6e-45
214	0x391de8ed	0.00015059458
215	0x33980572	7.079042e-08
216	0xb3a17407	-7.518252e-08
217	0x392e9a77	0.00016651476
218	0x38e4c0d2	0.00010907803
219	0x00000004	6e-45
220	0x3a661baf	0.0008777929
221	0x37d4a26c	2.5348003e-05
222	0x38ce87fa	9.848173e-05
223	0x39e2ba79	0.00043245012
224	0x3b3afd4c	0.0028532324
225	0x3a601554	0.00085481
226	0x3a7ebccf	0.0009717466
227	0x3c8a6a76	0.016896468
228	0x00000004	6e-45
229	0x80000004	-6e-45
230	0x80000004	-6e-45
231	0x00000000	0.0
232	0xb31be845	-3.6299998e-08
233	0x80000004	-6e-45
234	0x3b749a71	0.00373235
235	0x384f8b97	4.948265e-05
236	0x3796cbe8	1.7976345e-05
237	0x3bf1b73f	0.007376581
238	0x3b36bbc2	0.0027882908
239	0x80000004	-6e-45
240	0x3a39ecc7	0.00070924725
241	0x37b23189	2.124232e-05
242	0x3833b7b3	4.284801e-05
243	0x39df55c4	0.00042597775
244	0x3a7c3167	0.00096203986
245	0x39367313	0.00017399741
246	0x399498c7	0.00028342588
247	0x3bc6f682	0.0060718665
248	0x80000004	-6e-45
249	0x00000004	6e-45
250	0x00000004	6e-45
251	0x398c2655	0.0002673144
252	0x00000000	0.0
253	0x00000004	6e-45
254	0x3aa38d48	0.0012478018
255	0x37caf3af	2.419375e-05

exp_avg_sq f4 [20, 20]
0	0x00000000	0.0
1	0x33768efc	5.7406382e-08
2	0x34f87813	4.6280965e-07
3	0x37e3ec82	2.7170641e-05
4	0x37a36436	1.9477779e-05
5	0x372470bd	9.801411e-06
6	0x37855c4c	1.5897815e-05
7	0x39b71ef5	0.00034927545
8	0x288dd20f	1.5745243e-14
9	0x264674f0	6.885353e-16
10	0x24474122	4.3206416e-17
11	0x37881c90	1.6225764e-05
12	0x2fa6b8f6	3.0326647e-10
13	0x23bf0c9f	2.0713607e-17
14	0x37bc6e4e	2.2462711e-05
15	0x33740042	5.681091e-08
16	0x33dd319d	1.0300139e-07
17	0x395191de	0.00019986133
18	0x38c07cf7	9.17855e-05
19	0x21bcc759	1.2792142e-18
20	0x37740cd5	1.4546521e-05
21	0x00000000	0.0
22	0x3429d2e9	1.581608e-07
23	0x3764a9b0	1.36293675e-05
24	0x37049d76	7.904475e-06
25	0x36765186	3.670431e-06
26	0x36bf5e02	5.7031875e-06
27	0x3907d488	0.00012953777
28	0x27834c76	3.6442703e-15
29	0x25342842	1.5626151e-16
30	0x232fe7f6	9.535889e-18
31	0x370f8f71	8.556862e-06
32	0x2ddcf3d7	2.5119391e-11
33	0x2296daf8	4.0889424e-18
34	0x378905df	1.6334407e-05
35	0x321240f0	8.513084e-09
36	0x3424b34c	1.5338918e-07
37	0x3897ead8	7.243984e-05
38	0x3807f3dc	3.241362e-05
39	0x202f2cb4	1.4837868e-19
40	0x3851701f	4.9933904e-05
41	0x32531408	1.2286371e-08
42	0x00000000	0.0
43	0x37d45542	2.531207e-05
44	0x37964497	1.7913333e-05
45	0x3744f5d4	1.1739747e-05
46	0x3794fac3	1.7759745e-05
47	0x39d9ae0e	0.00041519146
48	0x2905e5b7	2.973118e-14
49	0x26ebf3f0	1.637252e-15
50	0x24d1dac4	9.1009905e-17
51	0x37764491	1.4678707e-05
52	0x2f21d82a	1.4719662e-10
53	0x23e4c764	2.4804255e-17
54	0x38be3888	9.070436e-05
55	0x321e39be	9.2099395e-09
56	0x333fbe53	4.4643752e-08
57	0x3991181a	0.00027674512
58	0x38fcb64a	0.000120502504
59	0x213883be	6.2515984e-19
60	0x38e98f72	0.000111370246
61	0x31328159	2.5975935e-09
62	0x32be8f93	2.2184201e-08
63	0x00000000	0.0
64	0x3874b37a	5.8341284e-05
65	0x374fc4a7	1.2383948e-05
66	0x36c3f40a	5.8398628e-06
67	0x3ac6a9c9	0.0015156801
68	0x287cc69b	1.4031876e-14
69	0x26f14ce7	1.6743579e-15
70	0x24cc9346	8.872039e-17
71	0x3630da68	2.6353173e-06
72	0x2e865618	6.108908e-11
73	0x242e8402	3.784205e-17
74	0x38cdd9bd	9.815719e-05
75	0x312852ef	2.449436e-09
76	0x3191b2b6	4.2403725e-09
77	0x39a0b28d	0.0003065061
78	0x394ebc4c	0.00019715837
79	0x22544ebd	2.8773041e-18
80	0x38600368	5.3408934e-05
81	0x331cdee4	3.65243e-08
82	0x34b012bf	3.2796194e-07
83	0x37da02fe	2.5989018e-05
84	0x00000000	0.0
85	0x37262839	9.903736e-06
86	0x37988965	1.8183791e-05
87	0x3967faf4	0.00022123364
88	0x293bff66	4.1743864e-14
89	0x27657932	3.1845834e-15
90	0x25622c38	1.9617357e-16
91	0x377c7275	1.504702e-05
92	0x2f8dff8d	2.582933e-10
93	0x24b8eb25	8.019563e-17
94	0x380c4b3d	3.3448672e-05
95	0x336772f0	5.3888414e-08
96	0x344bf68a	1.8995539e-07
97	0x39382af2	0.00017563606
98	0x38b3c49b	8.572006e-05
99	0x2279a55f	3.383334e-18
100	0x3908729a	0.00013012663
101	0x331b21e1	3.6119562e-08
102	0x34da2412	4.063191e-07
103	0x384f3d5e	4.94098e-05
104	0x38000e49	3.0530882e-05
105	0x00000000	0.0
106	0x37a00a2e	1.9078227e-05
107	0x3a4f85db	0.00079163694
108	0x2731f343	2.4695557e-15
109	0x2514b9b2	1.289987e-16
110	0x2301e9fb	7.042651e-18
111	0x3805a1cc	3.1860356e-05
112	0x2eec8921	1.07563965e-10
113	0x2296ee41	4.0909843e-18
114	0x38d74b46	0.0001026602
115	0x33a41b2f	7.64179e-08
116	0x34d4f2e0	3.9664792e-07
117	0x39c94722	0.00038390706
118	0x396b10d4	0.00022417615
119	0x210a7b35	4.691928e-19
120	0x3906320f	0.00012797884
121	0x319a3771	4.488293e-09
122	0x33f9248f	1.1601616e-07
123	0x3802153e	3.10142e-05
124	0x384d7d7b	4.899267e-05
125	0x374f738f	1.2365067e-05
126	0x00000000	0.0
127	0x3ab1d368	0.0013567032
128	0x275dceaa	3.0781944e-15
129	0x25a37128	2.835267e-16
130	0x23f5f779	2.6667762e-17
131	0x378fe2c6	1.7152528e-05
132	0x2ddbe105	2.4997346e-11
133	0x23760d5c	1.3338516e-17
134	0x391aafc2	0.0001475206
135	0x31c48983	5.719984e-09
136	0x33dfd106	1.0422268e-07
137	0x39ed6a2b	0.00045283264
138	0x3988cce3	0.00026092594
139	0x2102d001	4.4321004e-19
140	0x376d4063	1.4141292e-05
141	0x33ab86f8	7.987359e-08
142	0x353cbe2a	7.031218e-07
143	0x37a9a5be	2.022355e-05
144	0x372a4e6a	1.0151047e-05
145	0x36c45a6f	5.851783e-06
146	0x3743ec62	1.1677943e-05
147	0x00000000	0.0
148	0x2918d9a0	3.393954e-14
149	0x26c09c8a	1.3365106e-15
150	0x2496cd3b	6.5399804e-17
151	0x374d527e	1.2238159e-05
152	0x3024ada0	5.990959e-10
153	0x23a86792	1.825846e-17
154	0x375a07d4	1.2995635e-05
155	0x337571db	5.714706e-08
156	0x33f4202c	1.13679874e-07
157	0x38bd9e4a	9.041706e-05
158	0x381916fd	3.6499452e-05
159	0x218cee34	9.549821e-19
160	0x34439090	1.8213382e-07
161	0x2d1a469a	8.769563e-12
162	0x2de5e1c0	2.6134539e-11
163	0x320ac8f4	8.078349e-09
164	0x342d4623	1.6137396e-07
165	0x32972203	1.759418e-08
166	0x311238c4	2.1278064e-09
167	0x36aeeee8	5.2134164e-06
168	0x00000000	0.0
169	0x26e38997	1.5788583e-15
170	0x2481d40b	5.630405e-17
171	0x314e0286	2.997838e-09
172	0x2ce0483d	6.374483e-12
173	0x242d8c03	3.763199e-17
174	0x34a376e5	3.0447623e-07
175	0x2d0758d6	7.693587e-12
176	0x2ca3a9fe	4.6516116e-12
177	0x34adda15	3.2382437e-07
178	0x345a84ec	2.0351189e-07
179	0x21c9f744	1.368574e-18
180	0x33725976	5.642638e-08
181	0x2bbcc79f	1.3413609e-12
182	0x2d8f32e6	1.6279821e-11
183	0x311d6cab	2.2908277e-09
184	0x33085153	3.173893e-08
185	0x319e04d0	4.5989523e-09
186	0x30299dfb	6.1706346e-10
187	0x35efc156	1.7863156e-06
188	0x28e2f506	2.5197302e-14
189	0x00000000	0.0
190	0x2442deaf	4.2255665e-17
191	0x30711aa5	8.7713153e-10
192	0x2b479c10	7.091558e-13
193	0x231d02ba	8.5115644e-18
194	0x3418eb64	1.4241738e-07
195	0x2a9c96e1	2.781586e-13
196	0x2b8f3908	1.017659e-12
197	0x34153212	1.3894922e-07
198	0x33b3f6ed	8.3802526e-08
199	0x205a025e	1.8466101e-19
200	0x33093c7b	3.1952805e-08
201	0x2a17f9f8	1.349822e-13
202	0x2c5443fd	3.0164753e-12
203	0x30abb42b	1.2493094e-09
204	0x32f71839	2.87656e-08
205	0x3167182f	3.362867e-09
206	0x2fb700f6	3.328819e-10
207	0x358f7e40	1.0691074e-06
208	0x27830eef	3.6375995e-15
209	0x26622311	7.8457025e-16
210	0x00000000	0.0
211	0x2ff025b8	4.3682546e-10
212	0x294a3cb9	4.490568e-14
213	0x23e7f310	2.5148011e-17
214	0x33883f9a	6.3445626e-08
215	0x2a1c46e7	1.3880183e-13
216	0x2ae77682	4.1116074e-13
217	0x3389834f	6.4034445e-08
218	0x33290427	3.9352155e-08
219	0x219d7752	1.0670318e-18
220	0x39464e85	0.00018912002
221	0x323ccbda	1.0989391e-08
222	0x33ece516	1.1031277e-07
223	0x375186ed	1.2488786e-05
224	0x3887caa1	6.475044e-05
225	0x37a27807	1.9367797e-05
226	0x3788b1ba	1.6295224e-05
227	0x3b0eccd4	0.0021789568
228	0x2815ea3d	8.321954e-15
229	0x274907e2	2.7898627e-15
230	0x24d9c0c6	9.443532e-17
231	0x00000000	0.0
232	0x2eb23d2f	8.105371e-11
233	0x24bc880a	8.176246e-17
234	0x392b28ce	0.00016323032
235	0x3233c495	1.0463869e-08
236	0x31c9994c	5.8672978e-09
237	0x3a10b7a9	0.00055205316
238	0x39b2aeb5	0.00034080973
239	0x232812fd	9.111319e-18
240	0x3651d062	3.1264722e-06
241	0x3240f677	1.12319105e-08
242	0x33a03c82	7.461587e-08
243	0x35d0b0b7	1.5548638e-06
244	0x36095539	2.0464197e-06
245	0x352cb8a9	6.434371e-07
246	0x35209e6a	5.983517e-07
247	0x385aefc0	5.2198535e-05
248	0x278dd098	3.936152e-15
249	0x2560736e	1.9468012e-16
250	0x231de289	8.558958e-18
251	0x357f421c	9.5091104e-07
252	0x00000000	0.0
253	0x22efb1b6	6.496924e-18
254	0x36b5382d	5.40076e-06
255	0x32207d01	9.341648e-09

exp_avg f4 [9, 20]
0	0x3a0a22cf	0.0005269469
1	0xb8effcdc	-0.00011443507
2	0xb8473764	-4.7496884e-05
3	0x39927fa8	0.000279424
4	0xb9c371ff	-0.00037278232
5	0x3934a4c6	0.0001722752
6	0x39adb22a	0.00033129874
7	0xbacb86d4	-0.0015527853
8	0x00000004	6e-45
9	0x00000004	6e-45
10	0x00000004	6e-45
11	0x39a8000f	0.000320435
12	0xb58194fc	-9.654609e-07
13	0x00000004	6e-45
14	0x39608087	0.00021410185
15	0xb8e623ca	-0.00010973921
16	0xb96ffb19	-0.00022886357
17	0xb957057f	-0.00020506045
18	0x36201b98	2.385792e-06
19	0x00000004	6e-45
20	0xbb32695b	-0.0027223441
21	0xb9aa3032	-0.00032460835
22	0xba8049d7	-0.0009787631
23	0xbaceae49	-0.0015768494
24	0xbac6ed21	-0.0015176871
25	0xbab58933	-0.0013850093
26	0xba94e9ca	-0.0011361178
27	0xbb01d87b	-0.001981287
28	0x80000004	-6e-45
29	0x00000004	6e-45
30	0x00000004	6e-45
31	0xbac4accd	-0.0015005112
32	0x3867f083	5.5298686e-05
33	0x00000004	6e-45
34	0xbace1f1d	-0.0015725825
35	0x3948bca5	0.00019143762
36	0xba20c289	-0.00061325036
37	0xbafce588	-0.001929448
38	0xbb278f2e	-0.002556752
39	0x00000004	6e-45
40	0x3b95252a	0.0045515494
41	0x39ed5ce9	0.00045273386
42	0x3ad2543d	0.0016046833
43	0x3b7d2103	0.0038624413
44	0x3b818cb1	0.0039535393
45	0x3b64a2ca	0.003488707
46	0x3b9b21b0	0.0047342405
47	0x3bce10c1	0.0062886183
48	0x00000004	6e-45
49	0x00000004	6e-45
50	0x00000004	6e-45
51	0x3b41d6c3	0.002957747
52	0x388c7b11	6.698643e-05
53	0x00000004	6e-45
54	0x3ba4b9eb	0.005027046
55	0x3952b358	0.00020093971
56	0xb7a16b5f	-1.9242694e-05
57	0x3c16a444	0.009194437
58	0x3baff05f	0.0053692306
59	0x00000004	6e-45
60	0xbb068130	-0.002052378
61	0x3a8b3d27	0.0010623083
62	0x3a92642d	0.0011168771
63	0x3b3cee64	0.0028828615
64	0xba9cf977	-0.0011976202
65	0xbacb35ce	-0.0015503706
66	0x3a50ab23	0.00079600717
67	0x3ab34115	0.0013676012
68	0x00000004	6e-45
69	0x00000004	6e-45
70	0x00000004	6e-45
71	0x3b08a42d	0.002084981
72	0x3889f226	6.577773e-05
73	0x00000004	6e-45
74	0xbae8fa1a	-0.0017774731
75	0x39ad339f	0.00033035592
76	0x3a5767cb	0.00082170655
77	0x3bbbbd2e	0.005729339
78	0xb8d14e0e	-9.9804354e-05
79	0x00000004	6e-45
80	0xbaafb7fd	-0.0013406273
81	0xba4c1946	-0.00077857485
82	0xba9eab90	-0.0012105573
83	0xbada182e	-0.0016639286
84	0xba4d8f26	-0.000784146
85	0xbad061e7	-0.0015898318
86	0xbb73957c	-0.0037167957
87	0xba900fec	-0.0010991073
88	0x00000004	6e-45
89	0x00000004	6e-45
90	0x00000004	6e-45
91	0xba97b3b8	-0.0011573946
92	0xb8c7507d	-9.5040516e-05
93	0x00000004	6e-45
94	0xbaa0b732	-0.0012261628
95	0xba97a4f0	-0.0011569541
96	0xb9a85b72	-0.0003211159
97	0xbbc17720	-0.0059040934
98	0xba573d76	-0.00082107575
99	0x00000004	6e-45
100	0x3b5fc1d8	0.003414264
101	0x3a1cc31c	0.00059800013
102	0x3ab92540	0.0014125481
103	0x3bdd807a	0.0067597004
104	0x3bb049f3	0.005379909
105	0x3b2dad8d	0.002650115
106	0x3ba81a4b	0.0051300875
107	0x3c1b7a63	0.0094896285
108	0x00000004	6e-45
109	0x00000004	6e-45
110	0x00000004	6e-45
111	0x3bb07ec9	0.0053862077
112	0xb5418c71	-7.210247e-07
113	0x00000004	6e-45
114	0x3b339a56	0.0027405224
115	0x3a9024bb	0.0010997275
116	0x3a59bb17	0.00083057716
117	0x3c2eab3e	0.0106609445
118	0x3be02449	0.006840263
119	0x00000004	6e-45
120	0x3a440c2f	0.0007478622
121	0xb92a8b60	-0.00016264385
122	0xb917bd4e	-0.00014471004
123	0xba0e1d28	-0.0005421215
124	0xb98f9bf1	-0.0002739127
125	0xba755485	-0.00093586027
126	0x38ffc920	0.0001219681
127	0xbaebe4a4	-0.0017997217
128	0x00000004	6e-45
129	0x00000004	6e-45
130	0x00000004	6e-45
131	0xba0843bc	-0.00051980815
132	0xb534c321	-6.7339175e-07
133	0x00000004	6e-45
134	0x3a29189c	0.00064505055
135	0xb833a70f	-4.283251e-05
136	0xb90a9b29	-0.00013218507
137	0xbae091ea	-0.001713333
138	0xba0e8060	-0.00054359995
139	0x00000004	6e-45
140	0xbb75be59	-0.003749749
141	0xba638d2b	-0.00086803985
142	0xbb003f49	-0.001956897
143	0xbbf27490	-0.0073991492
144	0xbb96df4a	-0.004604255
145	0xbac82216	-0.0015268947
146	0xbb9ff5b5	-0.0048815855
147	0xbbe8ee5b	-0.0071084923
148	0x00000004	6e-45
149	0x80000004	-6e-45
150	0x80000004	-6e-45
151	0xbbc56fe5	-0.0060253018
152	0xb8c37f66	-9.3220544e-05
153	0x80000004	-6e-45
154	0xbb79de6b	-0.0038126956
155	0xba16d096	-0.00057531276
156	0xba88edf7	-0.0010446896
157	0xbc358c81	-0.011080862
158	0xbbde486e	-0.0067835366
159	0x80000004	-6e-45
160	0x3a23b42b	0.00062448037
161	0x390dd4bd	0.00013526059
162	0x39563e03	0.00020431732
163	0xbb2a8c96	-0.0026023737
164	0xba18d760	-0.0005830433
165	0x3a317021	0.00067687227
166	0xbab4c2d9	-0.0013790979
167	0xbb6c38a0	-0.0036044493
168	0x00000004	6e-45
169	0x00000004	6e-45
170	0x00000004	6e-45
171	0xbacaaef2	-0.0015463515
172	0x362babad	2.5580914e-06
173	0x00000004	6e-45
174	0xb9795b11	-0.00023780415
175	0x3882d159	6.237877e-05
176	0x3a395a42	0.00070706394
177	0xbb9bb5fa	-0.004751918
178	0xbab86e93	-0.001407104
179	0x00000004	6e-45
