checkpoints/RNN_148.pt (torch, 111359 bytes, 9 tensors)

snn.l1.input_weights f4 [20, 416]
00000000: 86d4 ddbd 83e3 ee3e c06b b53c 0b40 6e3e
00000010: 23fd cfbe 5b54 9c3d 31bf b0be 342d ed3e
00000020: 7d72 1bbe 89fc 243f 62e4 b73d 18db 93be
00000030: 5b49 a6bd 5789 34bf 7b6b d53d ec93 013e
00000040: bd0e 10bf f543 9ebe 464a 02be 76d8 77be
00000050: 2d14 bb3e 9f7c 9fbd 0b39 403e 9a1f 303f
00000060: f71b eb3c b7bf dd3e c7b3 4c3d 66a4 9a3e
00000070: 7fdc e43e a06e adbc db75 f93e 5a98 253f
00000080: 25ae c6bd 0487 02bf a5a1 d4be df42 103e
00000090: 4d6f 583f cb49 97bd 34e3 bdbe 1157 ad3c
000000a0: b109 17bf 2bcb 183f b549 95be d357 243f
000000b0: f0c8 da3e cee8 d43e 68d8 d13e 5305 343e
000000c0: b52c 2e3d 1805 59bf 39eb 97be e6c6 943c
000000d0: 3fc6 943f 9e61 403f d96c d83e c0dc 4b3f
000000e0: 9321 e83e 07ab 473f 940e 5c3f e84f 853f
000000f0: b730 823f 0635 0f3f f584 773f 7774 013f
00000100: 3264 953f cfd0 753f eb4f 953f b674 a03f
00000110: 1324 8b3f 3a2a 283f 653f ae3d 068f cb3e
00000120: 6349 543f d431 793f 9bf9 d63e f726 1d3f
00000130: 93e1 7e3f 4256 a23e 0c0b 933f 8c1e 393f
00000140: d7d7 903f 9a7d 943f 5483 283f e0dc 913f
00000150: f7e9 6b3f ca56 553f c4a4 0b3f c427 133f
00000160: c067 273f d9e9 203f 4496 163f f54c 853f
00000170: 116b 8a3f c29f 253f ac21 7e3f 583d 373f
00000180: 5660 163f 78ef a63f 702f 3c3f f989 ad3f
00000190: 06d3 db3e 2858 84bb f700 363f 8d02 6a3f
000001a0: a0b5 0d40 5e24 0e40 a7fa c73f 3e27 d83f
000001b0: 3510 0e40 d1e0 2140 e5a3 ab3f 1a90 0c40
000001c0: 8b89 9a3f 8d7d 0340 6ab6 0840 029c 2340
000001d0: 9aed 1640 cb71 da3f 192d ba3f 9156 0340
000001e0: ebea 0840 6cdf e13f 16d5 e63f cba3 0040
000001f0: 80a9 0540 5b73 0a40 83ba b63f 76f5 ce3f
00000200: 3a8d b43f dd18 0940 19e6 0540 5a61 2640
00000210: c511 0e40 d620 dc3f c7e9 e33f 4806 be3f
00000220: 3620 0140 3728 f53f 0863 cc3f 62cf fa3f
00000230: 4aa9 ef3f 3993 e73f 2fd9 d03f 2be0 da3f
00000240: f1fc 8b3f 135a 1e40 3545 0d40 e4c6 4340
00000250: 9993 1b40 48c0 d13f 22d2 b83f ccce dd3f
00000260: 4e0d 1540 e736 e83f abac d03f 7f9f 2c40
00000270: fe29 3ebf f117 8b3e 07be cd3e 4eaa 283e
00000280: ab91 873e a2a7 d43d 676f 233f 0340 973f
00000290: 6275 4c3f fb99 083f 51e2 533f c813 093f
000002a0: 3b71 1e3e acb4 5c3e 2cac 463e 80af 07be
000002b0: 834a dabe ed1f 8e3e 9c43 053e 3a22 84bc
000002c0: 7bcf bbbc 5e7b e53d 7a36 333f 88db 603f
000002d0: 3e82 053f 8e6b 923d 011e 76be 9e6c 403f
000002e0: 105c c13e c1b7 02be 3eb8 213f 0682 d93e
000002f0: a202 84be d15b 163e d9fb 8e3e bcbd a23d
00000300: d6bd 123e 6d3e 75be 1c11 6c3f 9a71 473f
00000310: 3d87 f93e 7c18 803e 7345 40bd b047 3d3f
00000320: def6 7a3e f79d 843e 03ab 1e3f f0b3 003f
00000330: a58a 2f3e b9db ed3e e47b 083e 4f30 c23e
00000340: 78bf a8bd 425a cb3d 9248 efbd 16de adbe
00000350: 6d36 ee3d e198 96bd f967 36bf cd73 20be
00000360: c015 82be 25a8 25be e1af 38bd 06b3 c4be
00000370: eaaf 993e 735d 32bf 3824 39bf 0ea9 d8be
00000380: 5984 8abe 9880 af3e 78c6 8dbe 560d 95be
00000390: 2952 e13e 2142 dbbe 4140 46bf b387 dc3d
000003a0: 6488 bfbe db64 a2be 7efe 133d d3ed 97be
000003b0: ada8 e03e 4f19 48bd 5cef f1be 9ce7 1ebf
000003c0: c290 c5be 43e7 c6be 282c 9abe cc17 acbe
000003d0: 30bf 593e a83e 4abf ed35 1dbf 2f9e 1d3f
000003e0: 7a3d 5fbe 5637 0abe 79ad 3c3e 5d9f c4be
000003f0: 9007 81be fc49 c93d 12b9 09bf 15b2 1cbf
-0.10831551 0.46657953 0.022146106 0.23266618 -0.40622815 0.07633277 -0.34520867 0.4632355
-0.15180393 0.6444784 0.089791074 -0.28878093 -0.0811946 -0.70522064 0.10420891 0.12654084
-0.5627249 -0.30911222 -0.12723646 -0.24203667 0.3653883 -0.077874415 0.1877176 0.6879822
0.028699858 0.4331033 0.049976137 0.3020355 0.44699475 -0.021170914 0.4872273 0.64685595
-0.09701184 -0.5098727 -0.41529575 0.1408801 0.8454483 -0.07387122 -0.37087405 0.02115968
-0.5899916 0.5968501 -0.29157797 0.6419651 0.42731428 0.41583866 0.40985417 0.17580156
0.042523105 -0.847734 -0.29671648 0.018161248 1.1623 0.7514895 0.42270544 0.7963371
0.45338115 0.7799534 0.85959744 1.041501 1.0171117 0.5594028 0.9668725 0.50568336
1.1671202 0.9602174 1.1665014 1.2535617 1.0870384 0.6568943 0.08508185 0.39757556
0.8292448 0.97341657 0.4198731 0.6138758 0.9956295 0.31706434 1.1487746 0.72312236
1.1315869 1.160083 0.6582539 1.1395531 0.9215388 0.83335555 0.5454829 0.5748255
0.65392685 0.62856823 0.5882304 1.041411 1.0813924 0.64696896 0.9927013 0.7157798
0.58740747 1.304183 0.73509884 1.3557731 0.42934436 -0.0040388294 0.7109522 0.9141014
2.2142105 2.2209697 1.5623368 1.6886976 2.2197392 2.5293467 1.3409392 2.1962953
1.2073225 2.054538 2.1361337 2.556397 2.358252 1.7065977 1.4545013 2.0521586
2.1393383 1.7646308 1.8033779 2.0099971 2.0884705 2.1632907 1.4275669 1.6168659
1.4105599 2.1421425 2.092169 2.5996919 2.2198346 1.7197521 1.7805718 1.4845667
2.017591 1.9152898 1.5967722 1.9594538 1.8723538 1.8091804 1.6316279 1.7099661
1.0936567 2.4742477 2.207349 3.0590143 2.4308836 1.6386805 1.4439127 1.7328734
2.328937 1.8141755 1.6302694 2.6972349 -0.74282825 0.27166703 0.40184042 0.16471216
0.26478323 0.10383536 0.6384186 1.181641 0.7986661 0.53359956 0.82767206 0.5354581
0.15472881 0.21553296 0.19401616 -0.13250542 -0.42634973 0.27758732 0.13014072 -0.016129602
-0.022926083 0.11205171 0.70005 0.8783498 0.5215186 0.07149421 -0.24034883 0.75165737
0.3776555 -0.12765409 0.63171756 0.42482013 -0.2578326 0.14683463 0.2792652 0.07946345
0.14330229 -0.23949595 0.92213607 0.7790772 0.4873599 0.2501868 -0.046941232 0.7393751
0.24508235 0.25901768 0.61979693 0.5027456 0.17142732 0.46456698 0.1332851 0.37927482
-0.08239645 0.09929325 -0.116837636 -0.339585 0.11631475 -0.07353378 -0.712524 -0.15669174
-0.2540722 -0.16177423 -0.045089606 -0.38417834 0.30017024 -0.6967384 -0.7232089 -0.42316478
-0.27054098 0.34277797 -0.27690482 -0.29111737 0.44007996 -0.4282389 -0.77441794 0.1076807
-0.37408745 -0.31717572 0.036131375 -0.29673633 0.4387869 -0.04885226 -0.4725293 -0.6207216
-0.38587004 -0.38848314 -0.30111814 -0.33611906 0.21264338 -0.79001856 -0.6141041 0.61569494
-0.21800795 -0.13497671 0.1842555 -0.38402835 -0.25201082 0.098285645 -0.5379802 -0.6120923

snn.l1.recurrent_weights f4 [20, 20]
00000000: 0000 0000 554a c140 b07a 1f40 862c 9740
00000010: 2f64 c43d 4d7b 06c0 a42d 93bf 6581 51c0
00000020: a3a8 be40 aeaf 3440 e5b0 5640 44e4 c240
00000030: 0952 cf40 1db7 5b40 67c8 ccbf aa05 653f
00000040: d3c6 b340 725f aec0 02cc e73f 7578 523f
00000050: 2e94 b83e 0000 0000 d9b1 7b41 e6f3 2c41
00000060: 0f9f cebf c2db ab40 9ace 5a41 963f 8ec0
00000070: 67a0 d040 db7e 8240 777b 6440 ed45 3441
00000080: 085c 5341 dbe2 9440 d130 89bd 73e1 fb40
00000090: c20f a7bf 9987 8f40 8b47 0f3f 38fa f23f
000000a0: 1063 063f 80a2 0b41 0000 0000 6047 0041
000000b0: 500d 4bc0 157c 9540 4f35 0f41 c41c 09c0
000000c0: 9b1e 0440 c426 9640 bd5d f53f 478c 2541
000000d0: 52de 1341 68fe 8240 b2cd 4c40 6759 ca40
000000e0: 40dd 96bf 19cb c440 60f9 f83f 19fd 3a40
000000f0: d8de 653f fab5 3140 33aa 5740 0000 0000
00000100: 0c35 563e 83b0 aebf 9a27 ed40 466a c33f
00000110: b251 8740 8e5e 553f 62cf 2a40 a73c 9841
00000120: 60b6 a840 5efe b93f 14e8 c93f b655 09bc
00000130: 5ee3 8640 876c e340 1b36 c240 68e7 bebe
00000140: 6463 0ac0 4a8b 8940 f9f0 5940 08bc 0341
00000150: 0000 0000 59a9 0cc0 2b6e 1040 bbf5 88c0
00000160: a510 ab40 59b2 c43f bfca 3540 d05d df40
00000170: e71d ae40 f110 c73f eb2d 7bbf 5ac7 3bbf
00000180: d315 3ebe 09e1 bebf 03dd 3fc0 64e4 19be
00000190: ad9d 83bf db3c 9940 c12e d740 1955 29bf
000001a0: b44e 863b 0000 0000 6bb0 f13f 37fc b43e
000001b0: 03aa a740 ceee 2e40 6a70 3c40 b723 9f3f
000001c0: 7ecc b340 5fd9 8340 888c 8a40 cd2e c93f
000001d0: 3fe6 51bd 9cba 03bf 8278 0b40 8770 913f
000001e0: c1fa ae3f 1ff5 d340 4ce6 d540 b811 c440
000001f0: bd9d cfbf 173d 9e40 0000 0000 9abe f53e
00000200: f595 2340 9a86 de3f f655 2e3f 62a6 a840
00000210: 6654 9340 8e79 f13f 3930 4f3f 5b9c 8140
00000220: 4eee 1cc0 f5f1 fd40 7326 5540 ab9d a83f
00000230: b503 bfbf 44b2 0041 f42e 7e40 38fb 8a3e
00000240: ef58 8d40 3732 04c0 c2f3 d6c0 0000 0000
00000250: 0081 be40 6dae dd3f d643 3f40 a5c1 6b40
00000260: 2c4a 0341 5916 6240 4536 5cc0 2566 3140
00000270: 3718 1d40 0134 12c1 4e30 30c0 0724 9d3f
00000280: 5fe6 28c1 7c33 a640 dd39 8a40 84a5 8840
00000290: fb10 e9c0 33c7 01c1 9aab 1ec0 f3a0 5ac1
000002a0: 0000 0000 0c04 4bbe a993 7440 7156 1f40
000002b0: b702 0d41 c419 0640 bb4f 0ec1 232c a6bf
000002c0: 44f5 2cc0 e6b1 1bc1 f14a 17c1 a63d c9bf
000002d0: f85c 31c1 5623 b640 35ae f240 e989 2ec0
000002e0: 391e 1dc1 750f f0c0 c01a a6c0 d9c6 64c1
000002f0: c4e9 bf40 0000 0000 3fe7 6340 f9e3 83bf
00000300: c0cc f940 49b2 9840 7749 c3c0 0b04 12c0
00000310: 755c d1be bd51 1bc1 77f0 0fc1 22c0 983f
00000320: b5fa 55c1 4930 0c40 b5bb a940 db9e 24be
00000330: d21f 04c1 5f8b 22c1 bd8e fec0 9cc0 80c1
00000340: bacc ec40 ac1f 3040 0000 0000 3d6f 6ebf
00000350: a729 cf40 92dd 6640 8a3b 21c1 cf98 cdc0
00000360: 34a2 4cc0 da8f 51c1 04e5 27c1 d323 dfbe
00000370: 3d92 7e3f d6a0 3e3f 3e8f 0d40 5bb1 6141
00000380: 503b 06c0 953e 973f cb45 a640 c7fe 773f
00000390: 6a62 e63f 24b9 493e 9a17 3c3f 0000 0000
000003a0: 17e5 6c40 084c e73f 4109 7e3e b135 3a3f
000003b0: be6b 6d3f b5f8 b140 3d20 a040 e64d 8a3d
000003c0: d0b7 86c0 3248 2241 ed11 2941 9bf2 fe40
000003d0: 67b4 9ac0 6aa4 19bd da75 de40 38b4 05c1
000003e0: 3b67 ef40 6555 d93f 2102 9440 e089 fa40
000003f0: 0000 0000 53e9 7b40 54ae 9fc0 f0e7 2840
0.0 6.0403237 2.4918633 4.724185 0.09589421 -2.1012757 -1.1498303 -3.2735226
5.9580855 2.8232226 3.3545468 6.0903645 6.478764 3.4330513 -1.5998658 0.8946177
5.6180205 -5.449151 1.8109133 0.8221505 0.36050552 0.0 15.73092 10.8095455
-1.6142291 5.370576 13.67544 -4.445262 6.5195804 4.0779853 3.5700357 11.267072
13.209969 4.6526923 -0.06698764 7.8712707 -1.3051684 4.4853024 0.5596854 1.8982611
0.5249491 8.727173 0.0 8.017426 -3.1726875 4.6713967 8.950515 -2.1423807
2.064368 4.692232 1.9169232 10.346747 9.241777 4.0935555 3.2000546 6.3234134
-1.178627 6.149792 1.9451103 2.9216979 0.8979316 2.776732 3.3697631 0.0
0.20918673 -1.3647617 7.411084 1.5266807 4.2287226 0.83347404 2.6689076 19.029615
5.2722626 1.4530752 1.577395 -0.0083822515 4.215255 7.106998 6.0691047 -0.37285924
-2.1623163 4.298253 3.4053328 8.233406 0.0 -2.1978362 2.256724 -4.2799964
5.345782 1.5366927 2.8404996 6.9802017 5.44115 1.5552045 -0.9811694 -0.7335106
-0.18563013 -1.4912425 -2.9978645 -0.1502853 -1.0282494 4.7886786 6.7244573 -0.66145474
0.0040987376 0.0 1.8881963 0.35348675 5.2395034 2.7333255 2.9443612 1.2432774
5.6187124 4.1202846 4.3296547 1.5717407 -0.05124497 -0.5145662 2.1792302 1.1362466
1.3670274 6.623672 6.6843624 6.127163 -1.6220013 4.9449573 0.0 0.4799698
2.5560277 1.7384827 0.68099916 5.2703104 4.6040525 1.886522 0.80932957 4.0503364
-2.452045 7.935786 3.3304718 1.3173116 -1.4923006 8.043522 3.9716158 0.2714479
4.417106 -2.0655649 -6.7172556 0.0 5.953247 1.7318856 2.9885154 3.6836941
8.205608 3.532614 -3.4408123 2.7718594 2.454603 -9.137696 -2.7529483 1.227662
-10.556243 5.1937847 4.3195634 4.2702045 -7.283323 -8.111133 -2.4792237 -13.664294
0.0 -0.19825763 3.8215125 2.489651 8.813163 2.0953226 -8.894465 -1.298222
-2.7024698 -9.730932 -9.455796 -1.5721939 -11.085197 5.6918135 7.5837655 -2.7271674
-9.819879 -7.501887 -5.1907654 -14.298547 5.997286 0.0 3.5609891 -1.0303947
7.806244 4.7717633 -6.102718 -2.2814968 -0.40890852 -9.707456 -8.996207 1.1933634
-13.373708 2.190447 5.3041635 -0.16076224 -8.257769 -10.159026 -7.954924 -16.094048
7.399991 2.751933 0.0 -0.93138486 6.4738345 3.6072736 -10.077036 -6.4249034
-3.1974 -13.09762 -10.493412 -0.4358202 0.9944189 0.74464166 2.2118678 14.1058
-2.0973701 1.1815974 5.1960196 0.96873134 1.7998784 0.19699532 0.73473513 0.0
3.7014825 1.8070078 0.24808218 0.72738177 0.92742527 5.5616097 5.0039353 0.06753139
-4.209938 10.142626 10.566876 7.967115 -4.834522 -0.037510313 6.951886 -8.356499
7.4813514 1.6979185 4.62526 7.8293304 0.0 3.936116 -4.9900303 2.6391563

snn.fc_out.weight f4 [9, 20]
00000000: 326f f8bf ac1b 11c0 963e 4dc0 dba2 01c1
00000010: 32ed a23f 8d2a b4bf d068 bac0 e23f cd40
00000020: 536f 56c0 0166 98bd 6c5c adbf dda3 fdc0
00000030: 097c 1ac0 7fa6 a6bf 3d9e e63f eb62 373f
00000040: cb4b a340 824c 79bf 9070 a13f 375c 68be
00000050: a466 36c0 eaf8 4d40 b284 fa40 d755 51c0
00000060: ccfb babf ccde 5d3f 1edc 893d 2642 16c0
00000070: 10ad 0d3f fc14 2640 d977 f43f e9e6 b8bf
00000080: 5a50 1b40 11c8 ac3f 3237 0b40 064d 7dc0
00000090: ec25 b8bf 3cd7 da3f 3190 88be 1619 d73f
000000a0: e373 3140 2563 e73f bd2c 61bf 721b abbf
000000b0: 7027 ab40 7d0e 3b3f 979d 013f 8f10 0a3f
000000c0: 7242 8540 ce5f 363e dd00 fa3f ddcb 46c0
000000d0: 2de7 ec3f 27a6 1f3f 3e49 a23f 0197 0c40
000000e0: 3883 afc0 d65f 55c0 bdcd 53c0 479d 3d3f
000000f0: 8b19 b33f dd08 9dbf 1fcc a8bd b371 b9c0
00000100: 1b4b d2bf 83b7 6840 316a 71bf 2b84 c73f
00000110: 5f32 e0bd f15f b73f 5fb4 f13e 400b afbf
00000120: 19c8 ca3e 7ded cd3f 8e95 3540 1bb4 6240
00000130: 0c41 4a40 2b37 19c0 340f ed3e d248 933f
00000140: 0477 a0bf e7d4 4840 a398 6c3d c7f8 77c0
00000150: dc40 3ebf 4e86 d2bf be30 a040 f9b1 2bbf
00000160: b6e4 1dc0 8fc8 3cbf 9048 f6bf 6bef eac0
00000170: ab86 993f 2238 d7bf 7734 e4bf 420c a33f
00000180: 97ed f1bf da08 6c40 4be5 1abf 8d96 a4bf
00000190: a0e3 1c40 23cf 6fbf 7b3e 5bc0 fac2 513f
000001a0: 307e 0bc0 7067 55c0 f5d4 1dc0 14a8 f0be
000001b0: cb84 86c0 3a4e 74bf f40c 28c0 0f89 cd3f
000001c0: 93f2 1fc0 99e8 02bf 1a58 66c0 0cc5 3c3f
000001d0: c12e 6140 6ac1 c63c b449 04be 1a01 fabe
000001e0: 5394 f5c0 ea8c 21c1 91f4 19c1 d842 9f40
000001f0: be6a 98c0 f1ea e53f e391 c8be f26d febb
00000200: c796 b8c0 29c2 02c1 e24d dec0 a37f 9b40
00000210: ff4f c2c0 5765 c9c0 c338 e8c0 c460 67c0
00000220: 76a7 4bc0 de45 913f 5190 06bf 03a5 83c0
00000230: fff5 55c0 31c8 2dc0 e4f9 ccc0 ee8e 0341
00000240: 1fde 0a40 6327 07c0 ac12 b6bf a638 9bc0
00000250: a96a 6940 ed51 3fc0 2a41 0740 c8f7 4040
00000260: 6e15 5e3e 29ab b3bf 3e7d 91c0 abd7 07c1
00000270: c11b b9c0 ea8c c2be f27f 853f b100 59c0
00000280: 89b1 0dc0 3906 59c1 41fb 20c0 7963 9640
00000290: 9d6c 0bc1 e592 01c1 6b43 14c1 2775 143c
000002a0: 6e74 08c1 21e5 62c0 21d3 97c0 a5a3 ae40
000002b0: 82a2 49c1 3b77 89c0 a74d 1c40 4186 c9c0
000002c0: d9d2 d53e fd23 ae3f f913 cf3e 41d7 04bf
-1.9408934 -2.267314 -3.206945 -8.10226 1.2728636 -1.4075485 -5.8252945 6.414048
-3.3505447 -0.07441331 -1.354383 -7.926253 -2.4138205 -1.301956 1.801704 0.7163531
5.103002 -0.97382367 1.2612476 -0.22691427 -2.8500147 3.2183175 7.828698 -3.2708642
-1.4608092 0.86668086 0.06731437 -2.3477874 0.553422 2.5950308 1.9099075 -1.4445468
2.4267793 1.3498555 2.1752439 -3.9578261 -1.4386573 1.7096934 -0.2667251 1.6804531
2.7726982 1.8077132 -0.8795889 -1.3367751 5.348564 0.7306898 0.5063109 0.53931516
4.164361 0.17809984 1.9531513 -3.1061928 1.8508049 0.62362903 1.2678602 2.1967165
-5.484768 -3.3339744 -3.3094323 0.7406811 1.399217 -1.226833 -0.08242058 -5.7951293
-1.642917 3.6362007 -0.9430266 1.558721 -0.109471075 1.4326154 0.47207925 -1.3675308
0.39605787 1.6088101 2.837253 3.5422428 3.1602201 -2.3939922 0.46300662 1.1506598
-1.2536321 3.1379945 0.057762753 -3.8745592 -0.7431772 -1.6447237 5.00595 -0.6706844
-2.4670844 -0.7374353 -1.9240894 -7.341726 1.1994222 -1.6814005 -1.7828511 1.2738116
-1.8900632 3.6880403 -0.60506123 -1.2858444 2.4513931 -0.9367544 -3.4256885 0.81938136
-2.1795769 -3.3344383 -2.4661229 -0.47003233 -4.20371 -0.95431864 -2.6257906 1.6057452
-2.4991806 -0.51136166 -3.5991273 0.7373817 3.5184786 0.024262149 -0.1291874 -0.48828965
-7.674356 -10.096903 -9.622209 4.9769096 -4.76303 1.7962323 -0.39173803 -0.0077645713
-5.7684054 -8.172402 -6.947007 4.8593307 -6.072265 -6.2936206 -7.256929 -3.615281
-3.182096 1.1349447 -0.5256396 -4.113893 -3.3431394 -2.7153437 -6.405504 8.222395
2.1698072 -2.111779 -1.4224448 -4.850665 3.647135 -2.9893754 2.1133523 3.0151234
0.21687862 -1.4036609 -4.5465384 -8.490153 -5.784638 -0.37998134 1.0429671 -3.3906672
-2.213961 -13.564019 -2.5153353 4.6996427 -8.714017 -8.098363 -9.266459 0.009061134
-8.528425 -3.545235 -4.7445226 5.457476 -12.602175 -4.2958045 2.4422395 -6.2976384
0.41762426 1.3604733 0.40444925 -0.5189095

exp_avg f4 [20, 416]
00000000: f922 b63a 3ca3 dfba 663f 45ba c581 90ba
00000010: e9cd 2abb 3b82 9a3a 7e3e 28bb f109 1aba
00000020: 90ac e0ba 73ce a1ba 8e72 81ba 9149 f73a
00000030: 8387 cb3a e671 5d3a 7e2b 52ba 2f9f 78bb
00000040: 2a84 32bb eb00 f8b9 4956 cf39 0049 acbb
00000050: 9a4d 24bb 612e fe38 9b8e 9ebb 63b4 11bb
00000060: 5876 4abb 6e22 53bb e158 1eb9 58eb fbba
00000070: 5ac6 f5b9 aa16 86bb 95e9 e039 cf25 e139
00000080: 7f91 40bb 6d64 c0bb 8040 abba 8342 cfba
00000090: 9779 3f38 5eb8 83bb f5b1 5dbb 09a6 47bb
000000a0: 4db1 68ba 2c07 62ba fbb8 21bb 4ec8 64ba
000000b0: 25da 01bb abca 23bb 1680 6d39 a612 2fbb
000000c0: b8bc ffba d42d 2cba 14fb 7c3b 5b1b 2eba
000000d0: d5f5 3bbb 5ec7 fa3a a828 80bb 940b d0ba
000000e0: 32c5 063b c8bd 773b c1d1 89ba 55d4 d5bb
000000f0: 3068 18bb 54ec e139 bfe3 0ebb 880c ccba
00000100: 738b 493b 9538 2fbb b61e ffba 75d8 3cbb
00000110: cb1c d6bb b117 61ba 5cf9 b73a f72d 76bb
00000120: c63b 70bb 67ad fc3a db18 44ba 0af1 00bc
00000130: 87d6 ccbb cf01 113b 33bf c7b9 cb8b a3ba
00000140: 1573 6a3a 03c2 5fbb 5f4b 8a3b 2773 023b
00000150: 6d27 00bb 9322 81bb 3707 ebba efa8 7fbb
00000160: 37e2 813a f056 deb9 d600 d0ba a273 0db9
00000170: ceed cbba b045 70bb 6e4a 9938 3b27 2539
00000180: f2d6 85b9 77c2 8fbb 951b 4dbb 5bc9 20bb
00000190: 6e77 ac3b 8832 163a bd97 403a 78fc b63a
000001a0: a9ad adbb 1c35 953a ea72 e33a 88d8 a1bb
000001b0: 93b2 88bb df5c cc39 a1ff 63bb 7773 bfbb
000001c0: 3c07 c7ba 7d85 cdb9 445c bdba e9cb aebb
000001d0: 593b 30bb 4542 67bb 3d22 7eba b346 9fb8
000001e0: b39c 49ba 253b 35ba 02fe 953a 5957 f339
000001f0: 83e2 29b9 0da6 4eba 057b 99ba 2e6c 61bb
00000200: 8221 8abb ecbe 163a b3f9 a3b9 6b2e 80bb
00000210: bf6e 58ba 5e97 63ba b824 963b 91c3 cc3a
00000220: 883c aeb9 d1a6 d7bb dd94 fa3a 4c34 92bb
00000230: d86a 0a3b b085 053b f646 00bb 6a55 8c3b
00000240: cb9e b8ba 4253 97bb 93df dcba 7d45 beba
00000250: bbe1 b3ba 9e61 5f3a de4f 18bb 1c16 e9ba
00000260: d98c c0ba 3b02 1f3a ce20 643a 9c72 023b
00000270: 8b9d 0cbb ad58 d73a dbea 05ba 83ea 85bb
00000280: d0a0 3dbb 1d2a 6b38 6582 6fba fc48 1cbb
00000290: ac90 503b a7e3 b2ba 5cb6 933a 5c4a dcbb
000002a0: 0573 dd39 4b9c 99ba 3cb0 9bbb f4ca 3ebb
000002b0: c63f 453b 9dcf 44bc edec 3f3b b57d a2b9
000002c0: a2f6 15bb b119 e7ba ea8c 68bb 15b5 8dbb
000002d0: c09e cd38 bba4 653a cc09 2538 b74d 31ba
000002e0: 51ef 42bb 3ca1 fc3a 51c6 6c3a dc54 9c3b
000002f0: ddda 58b9 65bd 08bc 395f 943b af9a 9bbb
00000300: 51c1 80b9 6494 9f3b be47 44ba 65d8 b53b
00000310: bc58 ec3b 20f6 cbba ee8d 49bb da90 1a3b
00000320: 8b7f 27bb 1cf9 35ba 063a a139 0ea0 adba
00000330: 82d3 acbb 74fb 2fbb 0832 15bb c712 a8b9
00000340: f983 7dba f2bc 3ab9 134e d2ba e4fb 6a3b
00000350: 5e64 74ba e599 89ba d9bf 183b 9472 67ba
00000360: 34d9 70ba d3f8 b63a b56c faba 6b0f 9bba
00000370: d504 b1b9 af6f 923b c388 21bb d5df 86ba
00000380: 2781 5abb 7662 2ebb 0cbb b3ba ca13 ba3a
00000390: 23d4 aeba bfa3 84bb 627c d0b8 9886 b4ba
000003a0: f543 0fbb 648b 5638 b5fa 69bb 5389 34ba
000003b0: b033 c2ba aeaf 42bb 4e66 b0ba a04a 6bbb
000003c0: 6edc cabb 397a b9bb 688b 66ba 7350 3b3b
000003d0: 6934 efba a73e 9f3a cfcc 063a b7d7 343a
000003e0: b70d 5cbb fa71 3cbb 6fa4 0abb 9400 93ba
000003f0: 2708 53bb d611 2fba ca37 2d3b 75f0 7c3b
0.0013895921 -0.0017062197 -0.0007524401 -0.0011025002 -0.0026062673 0.0011788079 -0.0025672014 -0.0005876115
-0.0017141271 -0.0012344852 -0.0009876059 0.0018866529 0.0015528057 0.0008447453 -0.0008017345 -0.0037936678
-0.002723942 -0.0004730293 0.00039546404 -0.0052577257 -0.0025070668 0.000121203026 -0.0048387772 -0.0022232763
-0.0030893292 -0.0032216567 -0.00015101164 -0.0019219918 -0.00046877825 -0.0040920572 0.00042898642 0.00042943514
-0.0029383597 -0.0058713467 -0.0013065487 -0.0015812669 4.5651188e-05 -0.004019781 -0.0033827994 -0.0030463955
-0.00088765175 -0.00086222845 -0.0024676907 -0.00087273575 -0.0019813862 -0.0024992626 0.00022649797 -0.0026713996
-0.0019511199 -0.0006568108 0.0038601803 -0.00066416495 -0.0028680463 0.0019132902 -0.0039110966 -0.0015872591
0.0020564315 0.0037802327 -0.0010514782 -0.006525556 -0.002325546 0.00043091422 -0.0021803228 -0.00155677
0.0030753284 -0.0026736606 -0.0019464109 -0.0028815542 -0.006534194 -0.0008586599 0.0014036107 -0.0037564018
-0.0036656721 0.0019277752 -0.00074805104 -0.007869968 -0.0062511596 0.0022126322 -0.00038098692 -0.0012477575
0.000894354 -0.003414274 0.0042204107 0.0019905062 -0.001955475 -0.003940889 -0.0017931227 -0.0039010604
0.0009909336 -0.00042407913 -0.001586939 -0.00013489884 -0.0015558542 -0.003666263 7.309472e-05 0.0001575024
-0.00025527884 -0.0043871957 -0.0031296958 -0.002453408 0.0052632606 0.00057295756 0.00073468295 0.001396074
-0.005300243 0.0011383626 0.0017352973 -0.0049391426 -0.0041716783 0.00038979106 -0.0034789818 -0.005842622
-0.0015184651 -0.00039200103 -0.0014447053 -0.0053343666 -0.0026890843 -0.0035287302 -0.0009694433 -7.5948796e-05
-0.00076908915 -0.0006913415 0.0011443498 0.0004641365 -0.00016201478 -0.000788302 -0.0011709636 -0.0034396756
-0.00421542 0.00057504955 -0.00031275823 -0.0039117835 -0.00082562485 -0.0008681918 0.004582014 0.0015622248
-0.00033232966 -0.0065811654 0.0019117851 -0.0044618007 0.0021120813 0.0020373873 -0.0019573546 0.004282643
-0.001408541 -0.0046180794 -0.0016851298 -0.0014516559 -0.0013723889 0.0008521321 -0.0023240964 -0.0017783078
-0.0014690413 0.0006065701 0.0008702398 0.0019904738 -0.0021456208 0.0016429626 -0.00051085436 -0.004086794
-0.0028934963 5.6067587e-05 -0.0009136557 -0.0023847213 0.0031824512 -0.0013648168 0.0011269557 -0.0067227315
0.000422381 -0.0011719553 -0.0047512334 -0.0029112669 0.0030097826 -0.0120123895 0.0029285506 -0.00030992707
-0.00228826 -0.0017631558 -0.0035484382 -0.004324565 9.804731e-05 0.00087602035 3.934819e-05 -0.00067635946
-0.0029744694 0.0019274126 0.0009032237 0.004770858 -0.00020680898 -0.008345936 0.004527953 -0.0047486643
-0.00024558094 0.0048699845 -0.0007487497 0.005549478 0.0072127264 -0.0015561022 -0.0030754763 0.0023584873
-0.00255582 -0.0006941722 0.00030751544 -0.0013246553 -0.005274237 -0.0026852759 -0.0022765417 -0.00032057447
-0.00096708495 -0.0001780873 -0.0016044996 0.0035855705 -0.0009322817 -0.0010498135 0.002330771 -0.0008829024
-0.0009187639 0.0013959653 -0.0019105884 -0.0011830156 -0.0003376367 0.00446888 -0.0024648167 -0.0010290096
-0.003334114 -0.002660898 -0.001371236 0.0014196571 -0.0013338368 -0.0040478404 -9.941381e-05 -0.0013773022
-0.0021860574 5.1151394e-05 -0.0035702412 -0.0006886918 -0.001481643 -0.0029706764 -0.0013458224 -0.0035902634
-0.006190828 -0.005660322 -0.0008794577 0.0028581887 -0.0018249872 0.0012149409 0.0005142213 0.0006898599
-0.003357751 -0.0028754459 -0.002115514 -0.0011215382 -0.0032200904 -0.0006678378 0.0026430958 0.0038595472

exp_avg_sq f4 [20, 416]
00000000: ef55 c238 db81 c438 7b3c d038 b16c d238
00000010: ab2d e138 c93a de38 d3af d338 b8ed ae38
00000020: e58f b438 43fb b438 8ffb 0439 a0d6 c038
00000030: 3c78 cf38 ab6d b338 5e92 c738 d7ac 0b39
00000040: 1c4f e038 76a1 b738 6341 e338 24f0 5439
00000050: d5f3 ba38 69e4 d738 414f eb38 af96 8a38
00000060: dc74 a338 41f8 c238 9ecf e038 83a4 a038
00000070: 54f4 b038 6139 c238 42ad cc38 bfd8 e438
00000080: 2661 d238 9704 da38 6e1f d638 332e c138
00000090: f505 ac38 bb1e d138 a68a cf38 3628 bd38
000000a0: dfde bf38 65dd b638 7fd5 dd38 a81a a638
000000b0: 656c ac38 3933 9238 7f6e d638 49b4 0439
000000c0: 1460 d438 5592 d338 a7b7 d038 aa7f c538
000000d0: 4413 f638 53c1 0239 f6ae b838 1301 e438
000000e0: a2ce f838 ae25 d438 55a1 e138 eddd d638
000000f0: 6920 a438 44ad a838 2326 c638 0703 b238
00000100: 4d48 d538 8e31 e038 7840 ca38 4b08 dd38
00000110: a3e7 cc38 d9b4 fc38 a39f e938 f200 fe38
00000120: 6fc4 fb38 b308 bd38 cc08 0139 dc88 0639
00000130: 8d35 b938 510e b638 1fdc c138 0446 9138
00000140: 4620 a338 3dd9 da38 ada5 c538 79c0 c438
00000150: a89b b138 1ed3 e138 d5ab be38 08b5 f238
00000160: e161 e038 3f9e dd38 8096 1039 8c23 d438
00000170: d91c d438 65c3 a838 8ee9 cd38 a4e5 9a38
00000180: c3de ca38 18ca c338 77b9 c638 bc88 e638
00000190: 4b0d da38 755b f238 75bd d638 df1e c638
000001a0: b765 c538 e94c b738 35d8 be38 1071 dc38
000001b0: 30d9 c238 afbd aa38 c436 cc38 263c 1539
000001c0: bb5c b138 898f ff38 ab28 d238 7df1 aa38
000001d0: 25d9 bb38 9ee4 dd38 e2d8 bb38 9e0c 9b38
000001e0: c900 d038 9c14 df38 650c ad38 2696 bd38
000001f0: e3b4 b238 d40f af38 99a8 b938 b815 3a39
00000200: 0d78 a638 da97 f538 1446 b838 2923 a238
00000210: c354 b538 bc64 c938 ca23 a938 0267 a738
00000220: 019d e038 ff8b b938 ed45 a738 3b04 c938
00000230: 1081 9638 68f8 af38 05a1 b738 377d 1e39
00000240: 793c b138 59a9 cd38 ed88 cb38 4a94 9a38
00000250: 4217 c838 297a c538 c1ad d538 e050 c338
00000260: c749 d138 6711 d238 17d3 ad38 ceb0 d438
00000270: 6188 5939 8618 3539 91a1 1539 7859 4c39
00000280: e326 6939 7c4d 4939 385a 6f39 0a81 3839
00000290: 8a44 6439 c586 2039 1f47 9239 c4ff 3e39
000002a0: fdbd f238 4558 4839 1447 6839 5683 2e39
000002b0: 4bf9 6939 df1f 8239 e971 0539 2413 1b39
000002c0: eb0b 8a39 dd06 4f39 d461 7a39 84f9 4539
000002d0: 8622 6639 8044 5739 0eeb 3439 7e9b 3b39
000002e0: a47b f238 0ee9 6839 6163 4739 5d2c 1139
000002f0: dc51 8639 21b1 4d39 adfd 0839 975b 2a39
00000300: ad05 8f39 3d81 2039 7bbc 4d39 77c5 1939
00000310: 549b ad39 cb8e 1939 5502 3a39 eb21 3339
00000320: 8913 2139 37dc 3f39 5d4d 7039 ec99 0d39
00000330: a283 4c39 3b85 2339 3595 fb38 8cfe 0939
00000340: 6aa7 dc38 c1e6 1c39 ddff b938 897d e038
00000350: 2df5 0e39 399e 0f39 1d4b d238 356c 0539
00000360: a8c7 1239 9672 d538 fe7a 0439 95bf 0b39
00000370: a49e 2e39 0ad5 e838 0528 5e39 c483 ef38
00000380: ab3e fc38 d122 4739 ec9a 1739 bf92 0939
00000390: 0dc6 1f39 0b17 1139 3d31 b338 7c19 1639
000003a0: fdcc 3839 fd7f 0f39 88b6 c738 e186 ac38
000003b0: 53d2 d938 20de 0639 592b 6239 9a8d 1f39
000003c0: 03d9 0839 245b 3639 b717 1539 6039 f238
000003d0: 35ef 0739 0277 2239 720e aa38 4c22 0f39
000003e0: 75ab 3339 3889 2239 28b3 b538 e754 cc38
000003f0: 10e9 0c39 90fb 0839 96c2 2339 6198 3139
9.266647e-05 9.370196e-05 9.929478e-05 0.00010033826 0.000107373424 0.000105967345 0.00010094014 8.341245e-05
8.609871e-05 8.62987e-05 0.00012682214 9.1952505e-05 9.8929246e-05 8.5558124e-05 9.5163225e-05 0.00013320461
0.000106958876 8.7561944e-05 0.00010836383 0.00020307355 8.9145884e-05 0.000102945436 0.000112204354 6.60842e-05
7.7942124e-05 9.296882e-05 0.00010719824 7.660037e-05 8.437844e-05 9.2613285e-05 9.75975e-05 0.00010912259
0.000100316756 0.00010395905 0.000102101694 9.2115624e-05 8.202709e-05 9.9716206e-05 9.8963545e-05 9.019712e-05
9.149103e-05 8.719674e-05 0.00010577868 7.920462e-05 8.221789e-05 6.9713635e-05 0.00010224897 0.00012655662
0.00010126844 0.000100885205 9.952421e-05 9.417471e-05 0.000117337826 0.00012469785 8.806393e-05 0.00010872087
0.0001186405 0.00010115966 0.000107588865 0.00010245652 7.826166e-05 8.0431375e-05 9.448479e-05 8.488265e-05
0.000101700985 0.000106903826 9.644119e-05 0.00010539646 9.770624e-05 0.00012049982 0.000111400404 0.0001211184
0.00012005201 9.013843e-05 0.00012305676 0.0001283022 8.831462e-05 8.681103e-05 9.243958e-05 6.92718e-05
7.778457e-05 0.00010435514 9.4245515e-05 9.381859e-05 8.469011e-05 0.0001076816 9.091912e-05 0.00011573179
0.00010699384 0.00010567577 0.00013788976 0.00010115569 0.00010114321 8.047259e-05 9.818665e-05 7.386066e-05
9.673603e-05 9.3359675e-05 9.475921e-05 0.000109927234 0.00010397526 0.000115564944 0.00010239604 9.447126e-05
9.412638e-05 8.7404456e-05 9.100178e-05 0.00010511477 9.291095e-05 8.141563e-05 9.737679e-05 0.00014232154
8.45729e-05 0.00012186083 0.00010021155 8.1512124e-05 8.957301e-05 0.000105806845 8.9572524e-05 7.393326e-05
9.918359e-05 0.000106373074 8.2515915e-05 9.0401896e-05 8.521394e-05 8.3475985e-05 8.852891e-05 0.00017746433
7.937858e-05 0.00011710795 8.786857e-05 7.731311e-05 8.646541e-05 9.60319e-05 8.065214e-05 7.982367e-05
0.000107103966 8.847564e-05 7.976205e-05 9.585215e-05 7.176597e-05 8.3909195e-05 8.756112e-05 0.000151147
8.4512816e-05 9.806705e-05 9.705299e-05 7.370913e-05 9.541075e-05 9.416446e-05 0.00010188996 9.313389e-05
9.979639e-05 0.00010016822 8.2886014e-05 0.0001014188 0.00020745538 0.00017270641 0.00014269935 0.00019488286
0.00022235098 0.00019197719 0.00022826425 0.00017595678 0.00021769307 0.00015308995 0.0002790028 0.00018215092
0.00011574847 0.0001910637 0.00022151723 0.0001664286 0.0002231348 0.00024819278 0.00012726303 0.00014789082
0.0002633029 0.00019743615 0.00023878302 0.00018880336 0.0002194737 0.00020529516 0.00017253702 0.00017891635
0.00011562489 0.00022212064 0.0001901514 0.00013844804 0.00025619462 0.00019616309 0.00013064472 0.00016246583
0.00027279314 0.00015306934 0.00019620538 0.00014664778 0.0003311286 0.00014644412 0.00017739211 0.00017083406
0.00015361434 0.00018297216 0.00022917004 0.00013504148 0.00019503993 0.00015594524 0.00011996405 0.00013160164
0.00010521601 0.00014963282 8.869146e-05 0.00010704535 0.0001363351 0.00013696485 0.00010027571 0.00012724179
0.00013998023 0.00010177975 0.00012634319 0.00013327443 0.00016653031 0.00011102304 0.00021186478 0.00011420951
0.00012027969 0.00018991089 0.00014458195 0.00013120005 0.00015237201 0.00013836862 8.5445565e-05 0.00014314608
0.00017623972 0.00013685222 9.5230585e-05 8.226722e-05 0.00010386542 0.00012861984 0.00021569188 0.00015216172
0.00013050814 0.00017390825 0.00014218582 0.00011550146 0.00012963715 0.00015493858 8.108922e-05 0.0001365032
0.00017134643 0.00015500642 8.664123e-05 9.743292e-05 0.00013438263 0.00013063685 0.0001561738 0.00016936801

exp_avg f4 [20, 20]
00000000: 0000 0000 33b5 5bb5 6c90 20b8 f38c 06bb
00000010: e710 2fbb cea8 43ba 1e3b b0ba d615 27bc
00000020: 0400 0000 0400 0080 0400 0000 8f88 cfba
00000030: a14e da32 0400 0000 c79b 95ba 8603 2eb8
00000040: dfe4 c3b8 c966 c1bb 7468 92bb 0400 0000
00000050: d088 c9ba 0000 0000 097f dcb8 3434 87ba
00000060: 418f 08ba aa3e bdb9 bf58 2dba bc46 4fbb
00000070: 0400 0080 0400 0000 0400 0000 e99c 6fba
00000080: ce3d 0531 0400 0000 9dff 98ba 648e 0437
00000090: 5a3c 2eb9 d211 28bb 38d4 eaba 0400 0000
000000a0: 5720 17bb 9d22 0f37 0000 0000 1967 8fba
000000b0: 777e 88ba 4135 56ba 5289 58ba a8b4 e3bb
000000c0: 0400 0080 0400 0000 0400 0000 6c8b 45ba
000000d0: 1b10 872f 0400 0000 5c73 2fbb 41b2 d436
000000e0: e487 d6b8 b9f6 8dbb 4eae 32bb 0400 0000
000000f0: 5f58 c3bb 7955 8cb6 5190 8737 0000 0000
00000100: 3312 c4bb 77a3 2cba f960 a9b8 1f75 01bd
00000110: 0400 0000 0400 0080 0400 0080 8cfe bbb9
00000120: 7bcb 97b0 0400 0080 c89d 73bb 5270 dd35
00000130: 03e7 c337 de05 20bc f19d 05bc 0400 0080
00000140: e10f 0f3a c3f6 cb37 6b73 66b8 9995 dd38
00000150: 0000 0000 6ead 0338 bb31 aab9 e48c 183b
00000160: 0400 0000 0400 0080 0400 0080 2243 94b9
00000170: edb9 6432 0400 0080 c11f 743a a6a8 2f38
00000180: 968c c9b8 60b1 863a 89eb 803a 0400 0080
00000190: 4f46 0fbc 2536 d6b7 e348 0cb9 a642 6ebb
000001a0: 2efb b4bb 0000 0000 fa9d 1abb b732 afbc
000001b0: 0400 0080 0400 0000 0400 0000 1ec8 54bb
000001c0: 339a fab1 0400 0000 7876 ccbb aba5 59b8
000001d0: 9cc5 22ba c76f 41bc 21a7 27bc 0400 0000
000001e0: bf9c c5bb ab7c af37 e5ff aeb6 9997 9bba
000001f0: a2c6 96bb 2d56 37ba 0000 0000 4f72 a4bc
00000200: 0400 0000 0400 0000 0400 0000 66c4 72ba
00000210: 7cc9 e030 0400 0000 85c5 84bb 2056 cc37
00000220: 64ef 3eb8 f2a6 17bc d0d4 f7bb 0400 0000
00000230: 2396 0838 a360 dbb7 97fe 8f37 1ec4 133a
00000240: 0b32 4bba 3c96 9139 c249 8d39 0000 0000
00000250: 0400 0000 0400 0000 0400 0000 3360 b739
00000260: dd6c ea31 0400 0000 f267 9138 7c76 b1b8
00000270: 4a9e 29b8 1e68 573a 4afe ac39 0400 0000
00000280: b131 4db8 973d e332 b6a4 f433 f8b3 3f37
00000290: 306b 3939 51c8 fb35 e38d aeb4 212f 41b8
000002a0: 0000 0000 0400 0080 0400 0080 bb21 b636
000002b0: 9a99 452d 0400 0080 b513 4a38 5804 a833
000002c0: 345a ab34 8af0 96b7 ac7b a6b6 0400 0080
000002d0: 7192 4bb8 ca40 4433 d946 da33 fc12 6136
000002e0: 5ac2 c838 f43e 6833 8c0b 53b5 c6d9 5e38
000002f0: 0400 0080 0000 0000 0400 0000 b7e3 b035
00000300: c908 052d 0400 0000 5b13 6cb7 1257 4a33
00000310: 2081 1c34 e1ea c2b7 4c90 3836 0400 0000
00000320: 8011 b0b7 51cc 5732 1502 8533 d4cb 7f36
00000330: db42 ac38 a7c0 9e35 db4c 90b4 eb9b ec37
00000340: 0400 0080 0400 0080 0000 0000 9621 0036
00000350: 94fe af2c 0400 0080 f208 9637 5d14 0933
00000360: 0f49 0134 fe6a a1b6 69e7 9236 0400 0000
00000370: 81b2 23bc 7ac7 a4b7 431b 1c37 e10b fcba
00000380: 41ad 01bc b399 b5ba 4534 2bba 2cf0 23bd
00000390: 0400 0000 0400 0080 0400 0080 0000 0000
000003a0: fd49 b1b1 0400 0080 c343 d1bb 37c4 84b7
000003b0: cee5 5ab7 f6fc 6fbc eaea 43bc 0400 0080
000003c0: 6fac 97b9 394d c636 f086 3437 12b8 8b38
000003d0: cf65 aa39 02fd 2335 7863 ac37 13d1 1eba
000003e0: 0400 0080 0400 0000 0400 0000 ce60 2e38
000003f0: 0000 0000 0400 0000 68b6 aa34 ff10 a836
0.0 -8.1847537e-07 -3.8281476e-05 -0.002053079 -0.0026712955 -0.00074638135 -0.0013445353 -0.010198077
6e-45 -6e-45 6e-45 -0.0015833544 2.5414296e-08 6e-45 -0.0011414223 -4.1488114e-05
-9.340955e-05 -0.0059021455 -0.004468018 6e-45 -0.0015375856 0.0 -0.000105140796 -0.001031524
-0.0005209335 -0.00036095578 -0.00066126505 -0.0031627854 -6e-45 6e-45 6e-45 -0.0009140508
1.938918e-09 6e-45 -0.0011672858 7.900966e-06 -0.00016616416 -0.0025645387 -0.0017916029 6e-45
-0.0023060048 8.531523e-06 0.0 -0.001094076 -0.0010413666 -0.00081713876 -0.00082602084 -0.006949026
-6e-45 6e-45 6e-45 -0.0007535729 2.45678e-10 6e-45 -0.002677164 6.338844e-06
-0.00010229627 -0.00433239 -0.0027264538 6e-45 -0.0059614624 -4.1822755e-06 1.6160457e-05 0.0
-0.005983615 -0.00065856375 -8.0766105e-05 -0.031605836 6e-45 -6e-45 -6e-45 -0.00035857072
-1.1044529e-09 -6e-45 -0.0037172902 1.6498473e-06 2.3353385e-05 -0.009767024 -0.008155332 -6e-45
0.0005457383 2.4314393e-05 -5.4943765e-05 0.00010565966 0.0 3.1394353e-05 -0.0003246198 0.0023277337
6e-45 -6e-45 -6e-45 -0.00028278778 1.3313621e-08 -6e-45 0.0009312593 4.1880317e-05
-9.610613e-05 0.001027625 0.000983582 -6e-45 -0.00874479 -2.5536001e-05 -0.00013378593 -0.0036355644
-0.005523107 0.0 -0.0023592697 -0.021386487 -6e-45 6e-45 6e-45 -0.0032467912
-7.293488e-09 6e-45 -0.0062397085 -5.1891122e-05 -0.00062092557 -0.011806435 -0.010232718 6e-45
-0.0060306485 2.0919679e-05 -5.215394e-06 -0.0011870741 -0.0046013156 -0.0006993737 0.0 -0.020074038
6e-45 6e-45 6e-45 -0.0009260833 1.635541e-09 6e-45 -0.0040518665 2.43588e-05
-4.552248e-05 -0.009256111 -0.007563211 6e-45 3.2564752e-05 -2.6151834e-05 1.7165481e-05 0.0005636829
-0.00077512924 0.00027768489 0.0002694857 0.0 6e-45 6e-45 6e-45 0.00034976154
6.8226726e-09 6e-45 6.9335e-05 -8.462087e-05 -4.0440158e-05 0.0008217114 0.00032995857 6e-45
-4.8922087e-05 2.6454286e-08 1.1392096e-07 1.1426389e-05 0.00017682905 1.8759257e-06 -3.2513262e-07 -4.6058678e-05
0.0 -6e-45 -6e-45 5.4279494e-06 1.123226e-11 -6e-45 4.8178907e-05 7.8239e-08
3.1916863e-07 -1.7993403e-05 -4.961583e-06 -6e-45 -4.8535356e-05 4.569373e-08 1.0164303e-07 3.3538663e-06
9.572944e-05 5.4073965e-08 -7.862043e-07 5.3131742e-05 -6e-45 0.0 6e-45 1.3179296e-06
7.562125e-12 6e-45 -1.4071203e-05 4.711098e-08 1.4575608e-07 -2.3235976e-05 2.7502128e-06 6e-45
-2.0988984e-05 1.2561103e-08 6.193674e-08 3.8116605e-06 8.214052e-05 1.1827987e-06 -2.687801e-07 2.8205997e-05
-6e-45 -6e-45 0.0 1.9093036e-06 5.002063e-12 -6e-45 1.7885559e-05 3.191632e-08
1.204064e-07 -4.8106294e-06 4.3780788e-06 6e-45 -0.009991289 -1.9643212e-05 9.304672e-06 -0.0019229614
-0.007914842 -0.001385501 -0.0006530921 -0.040023968 6e-45 -6e-45 -6e-45 0.0
-5.1597895e-09 -6e-45 -0.0063862517 -1.5826996e-05 -1.3047318e-05 -0.014647713 -0.011957863 -6e-45
-0.00028929437 5.9098497e-06 1.0760254e-05 6.662322e-05 0.0003250078 6.1090407e-07 2.0550317e-05 -0.0006058376
-6e-45 6e-45 6e-45 4.157499e-05 0.0 6e-45 3.1797686e-07 5.0087688e-06

exp_avg_sq f4 [20, 20]
00000000: 0000 0000 2d7f ff32 1985 ae34 67d4 3438
00000010: 66aa a938 4a1f 3037 eaed 9037 5026 833a
00000020: b310 f825 af90 ad23 5343 ae21 9193 ca37
00000030: d9ad 392d 5716 2721 3a24 1a38 ad6e 5633
00000040: a7b1 b834 be69 a939 fdab 2539 c819 251f
00000050: 1b17 2537 0000 0000 2dbf d633 971b 3e37
00000060: 8ab3 6737 3edb 0736 8ba7 9136 9d12 3939
00000070: 4ea9 e524 9c8f 9d22 cdd7 9920 8773 f236
00000080: 7e83 5b2b 34ef 0320 9420 4a37 cc4f ee31
00000090: e5c2 8a34 f62d 7338 7ccb d837 e933 991d
000000a0: e33c 1938 fe4c b231 0000 0000 d8dd bd37
000000b0: ee1b 2f38 498c 0037 b7c7 5137 6355 1d3a
000000c0: d334 6a26 dd5b 4e24 8d88 3722 1e28 5937
000000d0: cc4e a52c 9615 4821 ffae 9a38 2cff c631
000000e0: 7d3c 0634 4b4d 7639 6e3a d238 1a5f a11e
000000f0: 3158 bf38 3226 6930 8909 2332 0000 0000
00000100: 82b5 2839 563b c636 9c58 2436 e155 353b
00000110: 3112 dd25 e508 5324 8fea 3222 348b dc35
00000120: a9ff 102c 83a0 9821 17f6 b438 6c07 8b30
00000130: 4987 0732 04e5 8739 1610 3339 cdad b91f
00000140: 2534 1c38 70ca 4f32 0ca4 2634 0ccb c237
00000150: 0000 0000 9752 cb36 93cb 4637 657c 9939
00000160: 036b a426 1bb1 c824 05ce c522 6458 5a37
00000170: eced 072d 85b9 2122 fa27 e337 e65f 0033
00000180: d22b a434 db21 1e39 50e6 a038 6e55 da1f
00000190: 596d 2b39 7cec b432 4084 af34 2054 8d38
000001a0: f5cd 1239 0000 0000 20f7 af37 a09b ee3a
000001b0: 81a1 9b24 5712 8222 273d 6320 98f1 2a38
000001c0: 89b3 9a2c feff 0320 14c6 1e39 6b26 9033
000001d0: 2ea0 9e35 574f 123a 6186 a739 8139 721e
000001e0: a216 e038 6ee3 0131 c087 6e33 57c4 e737
000001f0: e61a 0139 17c6 f436 0000 0000 2d0d 093b
00000200: 86fc c124 48f1 0e23 c71d 5721 427d 7337
00000210: 4cc8 6c2b df30 d720 2593 0839 6ed6 8531
00000220: 620e 5034 2cbe dc39 c6b9 7539 86cf 641e
00000230: de7c 0937 f2c6 0c33 aa65 b634 73f5 8837
00000240: 10ea 8437 1ca5 5836 f483 f936 0000 0000
00000250: c5ad 8526 0374 2824 33e3 0322 8feb 2137
00000260: ea4d c02d 4a48 1321 419d 1737 3da4 2233
00000270: 8deb 8134 d368 9b38 9bc1 fb37 3482 f61e
00000280: f6d0 e133 a22a cc2a 4069 632c 8f62 5131
00000290: 3be7 c734 7a1d 9a31 b63b fa2f 919c 0f37
000002a0: 0000 0000 a3ff 4624 b016 e321 09e9 8f30
000002b0: 5d3a 442a 7ec7 9721 9b2e 5234 eac4 c52a
000002c0: 1769 882c cff2 2a34 4e14 e833 5ea2 301f
000002d0: 1af8 1e33 21b7 ca29 d291 132c db4d 8130
000002e0: d98b b033 9d78 c830 608e 452f a1fc 3636
000002f0: 9e7d 4626 0000 0000 976d aa21 a5b7 b82f
00000300: 05dd ae28 3451 8920 30ed c933 f49b 4629
00000310: 79c2 9f2b 2b72 9733 bedc 3b33 52aa be1d
00000320: 8ac5 af32 1805 ea28 7dcd 3e2b cf4b 2030
00000330: e639 9f33 0002 8930 9e44 d82e 45b6 fc35
00000340: 873d e524 11c6 c523 0000 0000 0b77 512f
00000350: 8788 b126 79db 4a21 4e5b 3e33 b86b f928
00000360: abf5 182b 6300 1633 b262 c132 2cb7 091f
00000370: 7eb3 2b39 42f7 8031 fb85 5533 4408 2c37
00000380: 51c7 5139 9c52 3a37 39a9 0b37 8f41 803b
00000390: 891c 8325 04d1 af24 d570 3e22 0000 0000
000003a0: de36 462c 97e2 2422 df54 2139 b0f0 af31
000003b0: a7c7 6932 0966 fe39 9bfd a039 5cfe 9220
000003c0: 3e1f a035 5330 e330 d195 f831 d9b4 4934
000003d0: 6638 3136 b7ae dc33 f1cf 7733 99c8 7e38
000003e0: 2f0e f824 8b4c c422 0a15 8a20 4caa e033
000003f0: 0000 0000 66a1 5120 c5a5 1c36 d03b 8e30
0.0 2.974374e-08 3.2506867e-07 4.311316e-05 8.090287e-05 1.04977025e-05 1.7276925e-05 0.0010005925
4.3032458e-16 1.8817973e-17 1.1808519e-18 2.4148992e-05 1.0554634e-11 5.6611367e-19 3.67502e-05 4.9926417e-08
3.440193e-07 0.00032312976 0.00015799697 3.4961435e-20 9.840146e-06 0.0 9.999926e-08 1.1331306e-05
1.3810475e-05 2.0244183e-06 4.3408413e-06 0.00017649909 9.959973e-17 4.2706988e-18 2.6062013e-19 7.225611e-06
7.798691e-13 1.1175277e-19 1.2047723e-05 6.9357835e-09 2.5846307e-07 5.797852e-05 2.5843961e-05 4.0552437e-21
3.6534748e-05 5.189235e-09 0.0 2.263386e-05 4.1749263e-05 7.662057e-06 1.25038705e-05 0.00060017983
8.125665e-16 4.474694e-17 2.4873414e-18 1.2943548e-05 4.6983303e-12 6.7791205e-19 7.375888e-05 5.791568e-09
1.2501728e-07 0.00023489182 0.00010024464 1.7085871e-20 9.124017e-05 8.4819185e-10 9.490017e-09 0.0
0.00016089345 5.9077674e-06 2.4489482e-06 0.0027669596 3.8349716e-16 4.5760866e-17 2.4247673e-18 1.6431791e-06
2.060555e-12 1.0342408e-18 8.628907e-05 1.011569e-09 7.8887945e-09 0.00025919836 0.00017076763 7.863808e-20
3.724186e-05 1.2095015e-08 1.5519635e-07 2.3221153e-05 0.0 6.059486e-06 1.1849118e-05 0.00029275115
1.1408792e-15 8.70362e-17 5.361509e-18 1.3014393e-05 7.726691e-12 2.1917782e-18 2.7079124e-05 2.988954e-08
3.0579264e-07 0.00015080666 7.6722936e-05 9.246792e-20 0.00016348566 2.1062299e-08 3.2692515e-07 6.7390734e-05
0.0001400037 0.0 2.0976702e-05 0.0018204339 6.749413e-17 3.525599e-18 1.9247882e-19 4.075616e-05
4.3968757e-12 1.1180832e-19 0.00015141844 6.712511e-08 1.1818536e-06 0.00055812806 0.00031952842 1.2823265e-20
0.00010685368 1.890125e-09 5.5537157e-08 2.7628774e-05 0.00012312419 7.2948274e-06 0.0 0.0020912394
8.41282e-17 7.748929e-18 7.2884243e-19 1.45130925e-05 8.412201e-13 3.6454757e-19 0.00013024786 3.8951873e-09
1.9376742e-07 0.0004210336 0.00023434227 1.2113134e-20 8.194909e-06 3.277723e-08 3.3974112e-07 1.632676e-05
1.584462e-05 3.2282614e-06 7.4361396e-06 0.0 9.275829e-16 3.652746e-17 1.7874089e-18 9.651193e-06
2.1862474e-11 4.990121e-19 9.036915e-06 3.7867938e-08 2.4199508e-07 7.410501e-05 3.0011686e-05 2.6100114e-20
1.0515389e-07 3.6267262e-13 3.2317066e-12 3.0469527e-09 3.723488e-07 4.485341e-09 4.5517162e-10 8.559918e-06
0.0 4.315094e-17 1.5388124e-18 1.0470852e-09 1.7428546e-13 1.0284963e-18 1.9574729e-07 3.5130866e-13
3.87702e-12 1.5920817e-07 1.0807035e-07 3.7403757e-20 3.701289e-08 9.00237e-14 2.0970903e-12 9.408113e-10
8.221077e-08 1.4586196e-09 1.7967627e-10 2.7267163e-06 6.8865293e-16 0.0 1.1548656e-18 3.3599892e-10
1.9413733e-14 2.3262438e-19 9.402936e-08 4.41001e-14 1.1351607e-12 7.0522525e-08 4.3740094e-08 5.046869e-21
2.0462512e-08 2.5981428e-14 6.778673e-13 5.831539e-10 7.414546e-08 9.96863e-10 9.8347316e-11 1.882851e-06
9.941715e-17 2.1442667e-17 0.0 1.9050732e-10 1.2318848e-15 6.873073e-19 4.4320863e-08 2.7691269e-14
5.434218e-13 3.492495e-08 2.2513039e-08 2.9162395e-20 0.00016374697 3.7534003e-09 4.971478e-08 1.0253923e-05
0.00020006044 1.1105698e-05 8.324446e-06 0.003914065 2.2744214e-16 7.624824e-17 2.5809534e-18 0.0
2.816795e-12 2.23461e-18 0.00015385773 5.1205333e-09 1.3607781e-08 0.00048522677 0.0003070653 2.4901683e-19
1.1930022e-06 1.6530158e-09 7.234782e-09 1.8785376e-07 2.6407884e-06 1.0276329e-07 5.769829e-08 6.074514e-05
1.07576883e-16 5.320695e-18 2.3392032e-19 1.046179e-07 0.0 1.7756391e-19 2.3342302e-06 1.034886e-09

exp_avg f4 [9, 20]
00000000: 2ee1 393a 6f51 05b9 49e4 58b9 21f4 973a
00000010: ca78 943a 7c84 d639 5ea1 263a 6b3a 6cb9
00000020: 0400 0000 0400 0000 0400 0000 9cb3 4e3a
00000030: 3c8a f330 0400 0000 9f17 cb39 af72 8fb8
00000040: f4ca 4fb8 a155 863a fc80 ab3a 0400 0000
00000050: b8dd 3eba b3df 00b9 770d 05ba a601 42ba
00000060: b7dc 5bb8 65d0 6cba b2db 73ba 2744 76ba
00000070: 0400 0080 0400 0000 0400 0000 66e0 0aba
00000080: 13e6 9e35 0400 0000 6ccb 05bb 9eb8 c139
00000090: 6fd3 d8b5 5452 05bb 7064 8aba 0400 0000
000000a0: ab3c 6c3b d855 1eb9 342b 12ba cda9 023b
000000b0: ecee 223b 97ac a13a d6b4 973a d37e 603b
000000c0: 0400 0000 0400 0000 0400 0000 751a ce3a
000000d0: 6238 1c36 0400 0000 809f 693b 38a1 81b9
000000e0: 7d36 313a 1849 a13b 1b77 703b 0400 0000
000000f0: b88f 27bc 0549 e9b9 951e f5b9 ecdc c6bb
00000100: 9645 f8bb 31cb a6bb 4110 c6bb ebfd 13bc
00000110: 0400 0000 0400 0000 0400 0000 a3de bdbb
00000120: c7d8 7734 0400 0000 95be e6bb ce06 8fba
00000130: d3dd 40bb 6dfb 00bc cac5 19bc 0400 0000
00000140: 3e67 5b3b 82d7 973a b00a bc3a 76ab 4d3b
00000150: 0040 213b 4e8c 183b d824 433b c013 a73b
00000160: 0400 0000 0400 0000 0400 0000 0210 463b
00000170: a009 6636 0400 0000 477d 273b 41d1 803a
00000180: 870e b53a 3654 823b 43dc 823b 0400 0000
00000190: 51e6 4abb 7da0 c1b9 fd74 5bba 3ab2 92bb
000001a0: bfae c2ba 19c3 ce39 3c9f 33bb 45c8 5dbb
000001b0: 0400 0000 0400 0000 0400 0000 db9c 86bb
000001c0: 5719 1635 0400 0000 2e2b 29ba 4dac 09ba
000001d0: 6dec 6dba 0812 f5bb 10a9 68bb 0400 0000
000001e0: 445c 1f3a 69fc 0bb9 120c bd37 4d0c ea39
000001f0: 220c 3838 d117 c638 8dcf 203a c811 0bba
00000200: 0400 0000 0400 0000 0400 0000 b7d2 fa39
00000210: 4081 aab5 0400 0000 e621 453a b3e4 73b9
00000220: 4bc5 63b9 fc05 203a 4865 31b9 0400 0000
00000230: 8ad9 363b 5bc4 1939 22b1 8f39 f7f3 1b3b
00000240: 711a e73a 79ed f939 0dd2 fb3a d3d4 0e3b
00000250: 0400 0000 0400 0080 0400 0080 a1fa 043b
00000260: 9eeb d8b6 0400 0080 5467 923a 9082 563a
00000270: bddc 373a 0e91 413b ae77 f13a 0400 0080
00000280: da0f 443b a958 3738 cf9f 5d3a eb19 0e3b
00000290: 97f2 a03a 0ca1 8a3a 36f2 1d3b 025e 5f3b
000002a0: 0400 0000 0400 0000 0400 0000 0b90 263b
000002b0: 1007 8131 0400 0000 192f b13a 41a8 c7b6
000002c0: f646 b23a 316c 7f3b db5c 5b3b 0400 0000
0.00070907443 -0.00012714205 -0.00020684408 0.0011593142 0.0011327502 0.0004091597 0.0006356443 -0.00022528476
6e-45 6e-45 6e-45 0.000788504 1.7719866e-09 6e-45 0.00038736776 -6.840133e-05
-4.954166e-05 0.0010248908 0.0013084705 6e-45 -0.00072809635 -0.00012290366 -0.0005075554 -0.00074007583
-5.2419226e-05 -0.0009033739 -0.00093024515 -0.0009394311 -6e-45 6e-45 6e-45 -0.000529772
1.1838878e-06 6e-45 -0.0020415438 0.0003694938 -1.6154789e-06 -0.002034326 -0.0010558497 6e-45
0.0036046903 -0.00015100033 -0.0005575896 0.0019937635 0.0024861647 0.0012334761 0.0011574279 0.003425528
6e-45 6e-45 6e-45 0.0015724438 2.327863e-06 6e-45 0.0035648048 -0.00024724915
0.00067601335 0.0049220435 0.0036692086 6e-45 -0.010227136 -0.00044495627 -0.00046752827 -0.0060688164
-0.0075766547 -0.0050901403 -0.006044418 -0.009032707 6e-45 6e-45 6e-45 -0.0057943626
2.3082531e-07 6e-45 -0.007041762 -0.0010912062 -0.0029429093 -0.007872445 -0.0093855355 6e-45
0.0033478285 0.0011584612 0.0014346447 0.0031382716 0.0024604797 0.0023276987 0.00297766 0.00509879
6e-45 6e-45 6e-45 0.0030221944 3.4278273e-06 6e-45 0.002555685 0.0009827988
0.0013813534 0.003977324 0.0039935424 6e-45 -0.0030960033 -0.00036931402 -0.00083716196 -0.0044768127
-0.0014853104 0.0003943674 -0.0027408144 -0.0033841294 6e-45 6e-45 6e-45 -0.004108054
5.591623e-07 6e-45 -0.00064532727 -0.000525181 -0.00090760627 -0.007478956 -0.003550116 6e-45
0.00060791173 -0.00013350103 2.2536176e-05 0.00044641123 4.3880318e-05 9.445812e-05 0.0006134443 -0.0005305079
6e-45 6e-45 6e-45 0.0004784071 -1.2703604e-06 6e-45 0.0007520005 -0.00023259483
-0.00021721904 0.00061044074 -0.00016917766 6e-45 0.002790066 0.00014664365 0.0002740706 0.0023796537
0.0017631782 0.00047669912 0.001921238 0.0021794334 6e-45 -6e-45 -6e-45 0.0020290988
-6.464731e-06 -6e-45 0.001116971 0.00081829075 0.00070137886 0.0029535922 0.0018422508 -6e-45
0.0029916675 4.371317e-05 0.00084542943 0.0021682929 0.0012279329 0.001057656 0.0024100668 0.0034083133
6e-45 6e-45 6e-45 0.0025415446 3.755197e-09 6e-45 0.0013518065 -5.9502495e-06
0.001360147 0.00389744 0.0033472094 6e-45
