checkpoints/RNN_14.pt (torch, 111341 bytes, 9 tensors)

snn.l1.input_weights f4 [20, 416]
-0.22496729 -0.29961583 -0.3769996 -0.91655445 -0.4535928 -1.0454228 -0.8720257 -1.0615498
-0.80404526 -0.25140634 -0.7738487 -0.89339685 -0.74499077 -0.7764449 -0.83972937 -0.49334726
-0.26514134 -0.6433807 -0.6422858 -0.5549882 -0.9026294 -0.48995394 -0.6776289 -0.2013286
-0.7183057 -0.14208524 -0.6200416 -0.24409987 -0.59759486 -0.6481463 -0.6164986 -0.26371917
-1.1423736 -0.844102 -0.755274 -0.41361585 -0.57624125 -0.76347816 -0.81518847 -0.96420467
-1.0555767 -0.23325208 -0.91596353 -0.7575839 -0.74918836 -0.27214062 -0.7650478 -0.5740367
-0.9932191 -0.8269585 -0.88453734 -0.74113697 -0.07888922 0.30791703 -0.21248128 -0.13526423
-0.32390955 0.13696516 0.12678291 0.030601863 -0.20634031 0.46820343 -0.18154125 0.37419266
0.24916966 0.33236226 0.69243443 -0.0118653 0.0031065815 -0.060423587 -0.19586174 0.124650486
-0.15677069 0.26958 0.109921955 -0.021787323 -0.060022388 0.06641393 -0.48532626 -0.065321825
0.06579211 -0.10353382 -0.20497675 -0.05788799 0.07232292 0.083685316 0.30295727 -0.13268496
0.11193815 0.021491516 -0.08005783 -0.072525926 -0.44352496 -0.39605016 0.13945049 0.0914579
-0.48877686 0.16249041 0.12167739 0.17081223 0.11647631 -0.10841234 0.24260537 -0.081921734
0.6497222 0.8827753 0.7473478 0.85093915 0.57908225 0.9508229 0.65321296 0.5015337
0.26484668 0.63246965 0.63092613 0.8342365 1.0045834 0.7101836 0.38222134 0.82075566
0.7365785 0.5322621 0.7361572 0.90457684 0.7435823 0.88237804 0.7420639 0.55507743
0.80283254 0.856011 0.27323735 0.44219247 0.93923604 1.1120338 0.92698145 0.80425423
0.84466684 0.6378211 0.08523251 0.85298735 0.42035523 1.0828059 0.29989412 0.61601985
0.61732507 0.7964019 1.0247493 1.0774335 1.0524223 0.50380015 0.3082067 0.79518735
0.8732387 0.65888315 0.4470147 1.1333843 -1.0631714 -0.41436332 -0.71760446 -0.27935573
-0.5028621 -0.3462108 -0.26507366 -0.19337969 -0.18784563 -0.50219345 -0.29434466 -0.57404864
-1.130223 -0.18371387 0.032143515 -0.626829 -0.9704845 -0.13364668 -0.116098136 -0.034819588
-0.31960467 -0.45566565 -0.48928764 -0.21733907 -0.6183537 -0.5694334 -0.7755757 -0.3715085
-0.515244 -0.86077 -0.6648568 -0.6314718 -0.34101367 -0.35869652 -0.18700278 -0.38133833
0.08194813 -0.6428226 -0.13598754 -0.105991974 -0.53282374 -0.36991793 -0.2549935 -0.21084674
-0.39145926 -0.10966563 -0.5454787 -0.6918811 -0.3589274 -0.18673635 0.18890849 -0.40263134
-0.45291764 -0.62817043 -0.35535163 -0.6498374 -0.14133844 -0.14282478 -0.293955 -0.66653186
-0.5312103 -0.2562685 -0.55803216 0.032774992 -0.1921258 -0.605756 -0.099281564 -0.023311362
-0.16025032 -0.009051377 -0.24597624 -0.9419478 -0.25969225 -0.30093226 -0.20934267 0.3315041
-0.37829763 -0.34799114 -0.48649648 -0.57463145 -0.31598675 -0.52224153 -0.35866967 -0.28152907
-0.47040895 -0.35879868 -0.48195738 -0.46305975 -0.5475055 -0.36048117 -0.34433967 0.12178526
-0.00049635884 -0.432646 -0.08357606 -0.2253649 -0.3521176 -0.42838803 -0.16655846 -0.4437894
00000000: d35d 66be 3f67 99be 1706 c1be 50a3 6abf
00000010: 513d e8be 6ad0 85bf 143d 5fbf dde0 87bf
00000020: e9d5 4dbf 55b8 80be f31a 46bf a8b5 64bf
00000030: b7b7 3ebf 18c5 46bf 81f8 56bf 0398 fcbe
00000040: 9bc0 87be 99b4 24bf d86c 24bf b513 0ebf
00000050: b812 67bf 3edb fabe 1679 2dbf 1629 4ebe
00000060: e2e2 37bf cb7e 11be 0cbb 1ebf 51f5 79be
00000070: fafb 18bf eaec 25bf dad2 1dbf 3306 87be
00000080: 4c39 92bf 1217 58bf a359 41bf 75c5 d3be
00000090: 8c84 13bf 4e73 43bf 31b0 50bf 1ed6 76bf
000000a0: 231d 87bf a2d9 6ebe 967c 6abf 05f1 41bf
000000b0: cfca 3fbf 0456 8bbe 2cda 43bf 12f4 12bf
000000c0: 9b43 7ebf 8db3 53bf 0a71 62bf 27bb 3dbf
000000d0: ac90 a1bd 4da7 9d3e b194 59be b582 0abe
000000e0: 79d7 a5be 9840 0c3e 61d3 013e c2b0 fa3c
000000f0: e04a 53be 5cb8 ef3e f3e5 39be 2e96 bf3e
00000100: 5526 7f3e 632b aa3e 6243 313f ad66 42bc
00000110: ca97 4b3b b97e 77bd fb8f 48be c148 ff3d
00000120: 7f88 20be 6406 8a3e c31e e13d 547b b2bc
00000130: 09da 75bd 0704 883d af7c f8be 73c7 85bd
00000140: 04be 863d 8a09 d4bd 6de5 51be f51b 6dbd
00000150: 0a1e 943d 3563 ab3d 371d 9b3e 91de 07be
00000160: d43f e53d fa0e b03c 5cf5 a3bd 7988 94bd
00000170: b415 e3be 16c7 cabe 1ccc 0e3e 484e bb3d
00000180: f640 fabe e363 263e ff31 f93d 67e9 2e3e
00000190: 228b ee3d 4a07 debd 8b6d 783e 95c6 a7bd
000001a0: 3254 263f 90fd 613f 2f52 3f3f 26d7 593f
000001b0: bc3e 143f 2169 733f f738 273f 8364 003f
000001c0: fc99 873e 88e9 213f 6084 213f 8690 553f
000001d0: 3096 803f 98ce 353f 84b2 c33e 0b1d 523f
000001e0: 6990 3c3f 5442 083f cc74 3c3f 5992 673f
000001f0: 695b 3e3f 87e3 613f e6f7 3d3f 8e19 0e3f
00000200: 6f86 4d3f 8923 5b3f c4e5 8b3e 0d67 e23e
00000210: c671 703f 2057 8e3f a84e 6d3f 9be3 4d3f
00000220: 163c 583f 3e48 233f 628e ae3d 615d 5a3f
00000230: cd38 d73e 6299 8a3f b98b 993e 7ab3 1d3f
00000240: 0409 1e3f ffe0 4b3f fc2a 833f 57e9 893f
00000250: c6b5 863f 0cf9 003f 45cd 9d3e 6691 4b3f
00000260: 928c 5f3f 91ac 283f 1cdf e43e bd12 913f
00000270: 0016 88bf 6e27 d4be edb4 37bf b707 8fbe
00000280: 92bb 00bf 8b42 b1be bcb7 87be 5305 46be
00000290: 9b5a 40be c08f 00bf 58b4 96be daf4 12bf
000002a0: 26ab 90bf 7d1f 3cbe eba8 033d de77 20bf
000002b0: ac71 78bf adda 08be dcc4 edbd fc9e 0ebd
000002c0: 39a3 a3be 024d e9be e983 fabe 228e 5ebe
000002d0: 6e4c 1ebf 63c6 11bf 218c 46bf 5d36 bebe
000002e0: 08e7 03bf 6c5b 5cbf 0e34 2abf 23a8 21bf
000002f0: 5899 aebe 12a7 b7be a87d 3fbe c73e c3be
00000300: 6cd4 a73d 0690 24bf 5140 0bbe 5212 d9bd
00000310: 2367 08bf e265 bdbe 828e 82be 35e8 57be
00000320: 596d c8be 6098 e0bd 7ea4 0bbf 1f1f 31bf
00000330: 55c5 b7be d037 3fbe 3a71 413e b225 cebe
00000340: d2e4 e7be c7cf 20bf a6f0 b5be be5b 26bf
00000350: 06bb 10be a940 12be 4581 96be d5a1 2abf
00000360: 66fd 07bf a035 83be 32db 0ebf 123f 063d
00000370: a0bc 44be d312 1bbf 2254 cbbd 78f7 bebc
00000380: a918 24be 3a4c 14bc 32e1 7bbe 7e23 71bf
00000390: 62f6 84be cb13 9abe ed5d 56be e8ba a93e
000003a0: 3ab0 c1be e52b b2be 1116 f9be 0c1b 13bf
000003b0: 04c9 a1be 9fb1 05bf 8da3 b7be 9424 90be
000003c0: 71d9 f0be 76b4 b7be 1ec3 f6be 2b16 edbe
000003d0: 5229 0cbf fd90 b8be 4a4d b0be 8d6a f93d
000003e0: 141e 02ba c783 ddbe ed29 abbd 0ec6 66be
000003f0: c248 b4be ad55 dbbe 4d8e 2abe 5d38 e3be

snn.l1.recurrent_weights f4 [20, 20]
0.0 1.7820308 -0.7010675 3.163257 2.1594164 1.8239306 1.0224156 2.5912187
2.2778518 1.8832368 1.7980185 2.6895907 1.6939411 1.8306769 2.0912113 1.2045484
2.61731 1.099039 3.06574 1.2299572 1.0373377 0.0 3.3268661 1.5081547
2.0351217 1.5933211 2.388425 1.4036751 2.8140218 2.1403515 2.1519344 1.1106772
3.1984763 2.7923172 1.7059704 2.1450136 -0.445534 0.4369308 1.1719191 1.8341441
0.054328945 2.3912435 0.0 -0.014583754 -1.6934068 -0.048346303 0.04476165 0.16746941
0.40511468 2.0980399 0.9725334 1.4267596 2.2138987 2.5057614 1.7020304 0.81408155
1.9530243 1.110323 1.6779726 1.7288398 1.6677141 -0.014203676 -1.020934 0.0
1.5088469 0.5610638 1.183735 1.4890932 1.1916368 0.8573889 1.6190662 4.6529703
0.3444928 0.86362034 0.51837564 0.47988778 1.794858 0.6372917 1.8591744 0.6785661
1.5014015 1.5062127 -1.3075444 2.8733659 0.0 1.3125852 1.1561145 1.2894607
1.9264491 0.9402806 1.5634252 2.117927 1.7239538 0.97286654 -0.16800283 1.4006039
-1.1767211 0.94434327 1.2599175 0.41322163 1.2544346 1.9934546 1.3843468 1.9125158
2.2897868 0.0 1.0247207 1.5841547 2.7467964 1.3661642 1.9848033 1.5647879
2.5978415 2.7938802 1.6789987 1.0110348 1.3526459 1.1779022 1.4388895 1.2624738
1.0842634 2.7154012 0.85932887 1.1202003 2.1277423 1.9770664 0.0 1.5579082
2.2940195 1.8167747 1.2124635 0.4498029 1.9325136 1.7624953 0.6031737 1.3399371
0.11573026 1.2060118 0.8715251 1.5360014 2.3199475 1.6661199 -0.091706686 2.9283714
1.9012468 1.8061867 0.97751045 0.0 1.9715321 1.230658 1.8574581 3.0213196
1.542629 2.1234756 1.9825431 1.8553866 2.7069156 1.0680996 2.1481981 1.7684488
-0.10903745 1.6919242 0.50781333 2.6824515 2.5785801 0.8215358 1.3637404 0.15094085
0.0 0.3602313 2.3014805 0.71252465 2.5231004 1.474519 -0.30827743 0.99426496
-1.3710113 -0.3776375 0.15106598 0.048646927 0.5058954 2.3370717 2.8838785 1.3519355
0.7687273 1.1985991 0.6176247 1.015652 2.4937801 0.0 2.5009568 1.6093751
2.3476222 2.9064443 2.1902876 0.6286571 2.172036 1.8260384 1.857667 2.2139359
0.7899573 1.9638461 2.8906374 2.1721923 2.7664795 1.3635265 1.1881169 0.9458707
2.8640456 2.0281355 0.0 1.3748039 3.0793686 2.1025991 0.61932415 0.22615983
0.28977 0.8745148 0.76677257 1.3028712 1.6020015 -0.6766295 0.6113589 3.7169714
-1.1943972 0.6205067 -0.6108178 1.0601478 -0.55753696 0.4554017 -0.16972466 0.0
-0.7924268 1.1627271 1.606233 0.29838777 2.8290758 0.8959807 2.4602544 1.0566869
0.51734704 2.776868 1.8037786 1.9256743 2.5372036 1.7994162 1.5731388 1.0582601
3.4172804 1.5825346 3.3287044 1.2653614 0.0 2.8890429 -0.01940177 1.2308339
00000000: 0000 0000 9619 e43f 2979 33bf cd72 4a40
00000010: e133 0a40 8f76 e93f 84de 823f 87d6 2540
00000020: 53c8 1140 e70d f13f 7825 e63f 4122 2c40
00000030: 10d3 d83f 9f53 ea3f 68d6 0540 a42e 9a3f
00000040: 0282 2740 4fad 8c3f 1635 4440 3d6f 9d3f
00000050: 7bc7 843f 0000 0000 60eb 5440 370b c13f
00000060: 6f3f 0240 f2f1 cb3f f5db 1840 a0ab b33f
00000070: ef18 3440 85fb 0840 4bb9 0940 ac2a 8e3f
00000080: d6b3 4c40 53b5 3240 3d5d da3f e747 0940
00000090: 081d e4be 65b5 df3e 7201 963f 3cc5 ea3f
000000a0: 0788 5e3d 220a 1940 0000 0000 b3f0 6ebc
000000b0: 8ec1 d8bf c606 46bd fe57 373d 1a7d 2b3e
000000c0: 316b cf3e 4946 0640 f3f7 783f 0fa0 b63f
000000d0: 84b0 0d40 655e 2040 22dc d93f a667 503f
000000e0: b3fc f93f 101f 8e3f cec7 d63f 9f4a dd3f
000000f0: a877 d53f 89b6 68bc f7ad 82bf 0000 0000
00000100: e521 c13f e1a1 0f3f a184 973f 9b9a be3f
00000110: 8e87 983f d77d 5b3f 903d cf3f 22e5 9440
00000120: 5c61 b03e 3916 5d3f 44b4 043f dab3 f53e
00000130: e8bd e53f 8d25 233f 6df9 ed3f 82b6 2d3f
00000140: ed2d c03f 94cb c03f 9d5d a7bf 3ae5 3740
00000150: 0000 0000 cb02 a83f 8ffb 933f 0c0d a53f
00000160: e295 f63f 3bb6 703f 511e c83f 1e8c 0740
00000170: 85aa dc3f c80d 793f ef08 2cbe fd46 b33f
00000180: cc9e 96bf 7bc0 713f fa44 a13f c991 d33e
00000190: 5091 a03f 8529 ff3f 4732 b13f 51cd f43f
000001a0: de8b 1240 0000 0000 0c2a 833f 95c5 ca3f
000001b0: 83cb 2f40 78de ae3f 090e fe3f f84a c83f
000001c0: 0943 2640 efce 3240 6ee9 d63f 9769 813f
000001d0: 8023 ad3f 80c5 963f 882d b83f be98 a13f
000001e0: 25c9 8a3f 22c9 2d40 fafc 5b3f b962 8f3f
000001f0: ee2c 0840 8310 fd3f 0000 0000 8969 c73f
00000200: 37d1 1240 138c e83f 0132 9b3f 914c e63e
00000210: 9b5c f73f 7299 e13f 9769 1a3f 0f83 ab3f
00000220: fd03 ed3d 985e 9a3f 451c 5f3f b29b c43f
00000230: 057a 1440 6b43 d53f b7d0 bbbd 706a 3b40
00000240: 0e5c f33f 2031 e73f 203e 7a3f 0000 0000
00000250: 2a5b fc3f 3486 9d3f 30c1 ed3f 4d5d 4140
00000260: de74 c53f 06e7 0740 f9c3 fd3f 4f7d ed3f
00000270: 1b3e 2d40 7db7 883f 147c 0940 885c e23f
00000280: 074f dfbd f990 d83f 0e00 023f 49ad 2b40
00000290: 7507 2540 2c50 523f 0c8f ae3f 3d90 1a3e
000002a0: 0000 0000 3d70 b83e 754b 1340 0468 363f
000002b0: 7a7a 2140 0abd bc3f 8ad6 9dbe 2688 7e3f
000002c0: 4c7d afbf b459 c1be 0ab1 1a3e 0042 473d
000002d0: 5c82 013f 9592 1540 7791 3840 390c ad3f
000002e0: 50cb 443f b26b 993f a71c 1e3f e200 823f
000002f0: 189a 1f40 0000 0000 ad0f 2040 0100 ce3f
00000300: 713f 1640 2f03 3a40 ac2d 0c40 acef 203f
00000310: a302 0b40 a0bb e93f 08c8 ed3f 20b1 0d40
00000320: a43a 4a3f 4f5f fb3f 3400 3940 3305 0b40
00000330: 000e 3140 0988 ae3f 3714 983f 9524 723f
00000340: 864c 3740 f9cc 0140 0000 0000 93f9 af3f
00000350: 6014 4540 fc90 0640 078c 1e3f 7196 673e
00000360: bc5c 943e 34e0 5f3f 354b 443f 7cc4 a63f
00000370: 630e cd3f 9737 2dbf 0482 1c3f dce2 6d40
00000380: 02e2 98bf 87d9 1e3f 8e5e 1cbf ecb2 873f
00000390: beba 0ebf 692a e93e 4dcc 2dbe 0000 0000
000003a0: 7cdc 4abf 3ed4 943f 0b99 cd3f 48c6 983e
000003b0: 940f 3540 fe5e 653f cf74 1d40 8441 873f
000003c0: db70 043f 35b8 3140 38e2 e63f 7f7c f63f
000003d0: 8b61 2240 4553 e63f 9d5c c93f 1175 873f
000003e0: b9b4 5a40 7e90 ca3f 7e09 5540 5df7 a13f
000003f0: 0000 0000 14e6 3840 76f0 9ebc f78b 9d3f

snn.fc_out.weight f4 [9, 20]
-0.866677 -1.53244 -1.473642 -2.9724467 -1.1981304 -0.8459986 -0.3398867 -0.75349903
-1.9959303 -1.2445871 -1.1799076 -2.7715485 -1.2211493 -1.6146716 -0.922785 -0.6785371
-1.2268665 -0.5900586 -0.9182591 -1.1189923 -2.2284815 0.70948523 2.5601683 -2.8202987
-2.599164 -0.68233156 -0.41515458 -1.5066541 0.2451909 1.3178992 0.9855423 -1.9015436
0.6531591 0.82464135 0.71306866 -1.6791694 -0.08054697 -0.024895575 -1.3708415 0.87399274
1.3958528 0.46471536 -1.6132419 -0.14240225 2.0187953 0.5487244 1.0457307 0.91413915
1.4229482 -0.022277335 0.9160191 -2.006866 0.6228736 -0.022368167 -0.1711848 1.0014365
-2.164884 -0.2509808 0.47448236 0.07906124 0.43558288 -0.37830004 0.25963274 -1.4250374
-1.0902034 0.7080883 0.13359766 0.7753552 -0.66433024 0.6491898 0.17232795 0.37624314
-0.031681456 0.6262517 1.0832871 0.7977278 1.7370136 1.1135167 1.1076237 0.9107799
-0.34412602 1.485372 0.7642946 -2.6346078 0.52256644 0.5576334 1.01715 0.1906252
0.47127968 0.6411008 0.113412 -2.8241012 1.4316264 0.055602062 -0.41434354 0.79617476
-0.48024297 0.2978243 -0.8915415 -0.10563531 1.5922582 -1.2686545 -1.6451974 0.9212187
0.40710196 -0.8875999 -0.7824044 1.0978787 -1.8449023 -0.59883475 -1.6127862 1.5463473
-1.338173 -0.45055145 0.40589082 0.33712423 1.8670087 0.33251566 1.2612913 -0.061440393
-1.8597044 -1.3913906 -0.92890424 2.269089 -0.7524449 -0.78410554 -0.8997479 -1.5712198
-1.0766662 -1.9135573 -1.7675476 1.8348377 -0.86784357 -2.009305 -1.2229054 -1.325851
-1.536808 -1.3350626 -2.1188788 -1.7275465 -1.5597503 -0.9599263 -2.7924914 2.663325
1.0507653 -0.73305476 -1.3491153 -2.1995173 1.4781145 -1.4691254 0.76163214 0.8439822
0.009169797 -0.73078483 -2.2541785 -1.9508092 -3.477435 -1.9058058 -1.5915176 -1.7598622
-1.0183659 -2.4424353 0.04413032 2.0175273 -2.9243197 -2.068942 -1.1196254 -1.2261374
-2.9375055 -1.5708984 -2.4025147 2.4463682 -2.5582194 -2.2654023 -0.63157666 -0.8803909
0.93348527 -0.9068979 -1.3653077 -0.9979711
00000000: 8bde 5dbf fe26 c4bf 4da0 bcbf 913c 3ec0
00000010: 565c 99bf 5d93 58bf a105 aebe 50e5 40bf
00000020: a57a ffbf a14e 9fbf 3607 97bf 0d61 31c0
00000030: 9f4e 9cbf 8fad cebf a33b 6cbf 9bb4 2dbf
00000040: f609 9dbf 150e 17bf 0713 6bbf 243b 8fbf
00000050: 719f 0ec0 d3a0 353f ccd9 2340 c67f 34c0
00000060: b458 26c0 48ad 2ebf 248f d4be 0bda c0bf
00000070: 5313 7b3e ecb0 a83f 804c 7c3f c865 f3bf
00000080: 6f35 273f b21b 533f ab8b 363f 06ef d6bf
00000090: cff5 a4bd cef1 cbbc bc77 afbf fdbd 5f3f
000000a0: 4eab b23f 2cef ed3e b67e cebf e5d1 11be
000000b0: f133 0140 3479 0c3f 81da 853f 0605 6a3f
000000c0: 2b23 b63f f57e b6bc 3a80 6a3f 7e70 00c0
000000d0: a574 1f3f 723d b7bc 114b 2fbe 122f 803f
000000e0: 768d 0ac0 8e80 80be 5aef f23e dcea a13d
000000f0: b804 df3e 8bb0 c1be 95ee 843e a067 b6bf
00000100: c98b 8bbf 4645 353f d3cd 083e ae7d 463f
00000110: 8c11 2abf 4d31 263f bd76 303e f1a2 c03e
00000120: 6ac4 01bd 0852 203f 27a9 8a3f e437 4c3f
00000130: 7656 de3f b787 8e3f 9dc6 8d3f df28 693f
00000140: 4931 b0be ab20 be3f d0a8 433f 6a9d 28c0
00000150: eac6 053f 10c1 0e3f f931 823f 4133 433e
00000160: 924b f13e 2f1f 243f 8d44 e83d 13be 34c0
00000170: 893f b73f fdbe 633d d624 d4be 1cd2 4b3f
00000180: 68e2 f5be 6d7c 983e 103c 64bf 5357 d8bd
00000190: 1ecf cb3f 4563 a2bf d495 d2bf fdd4 6b3f
000001a0: ab6f d03e bf39 63bf a84b 48bf 4a87 8c3f
000001b0: c225 ecbf 3c4d 19bf c76f cebf b5ee c53f
000001c0: 4149 abbf aeae e6be ecd0 cf3e 8c9b ac3e
000001d0: 24fa ee3f 7e3f aa3e fe71 a13f eca8 7bbd
000001e0: cb0a eebf 1619 b2bf abcc 6dbf c138 1140
000001f0: 3ba0 40bf 24bb 48bf e155 66bf bb1d c9bf
00000200: 33d0 89bf 72ef f4bf 003f e2bf f6db ea3f
00000210: ff2a 5ebf 7498 00c0 2a88 9cbf 7cb5 a9bf
00000220: 20b6 c4bf 55e3 aabf b69b 07c0 3e20 ddbf
00000230: e6a5 c7bf bbbd 75bf 2eb8 32c0 eb73 2a40
00000240: 7a7f 863f 7aa9 3bbf cfaf acbf e4c4 0cc0
00000250: db32 bd3f 4d0c bcbf 53fa 423f 380f 583f
00000260: eb3c 163c b714 3bbf 7644 10c0 1eb4 f9bf
00000270: 4c8e 5ec0 72f1 f3bf d9b6 cbbf 2a43 e1bf
00000280: d059 82bf dc50 1cc0 ffc1 343d 2b1f 0140
00000290: 0e28 3bc0 8c69 04c0 e34f 8fbf 12f2 9cbf
000002a0: 1700 3cc0 3313 c9bf cdc2 19c0 4c91 1c40
000002b0: deb9 23c0 5afc 10c0 02af 21bf 4c61 61bf
000002c0: e4f8 6e3f 762a 68bf 67c2 aebf 097b 7fbf

exp_avg f4 [20, 416]
0.00092101045 0.0030805513 -0.0011269918 0.0021306619 0.0006575138 -0.0007447478 0.0054380298 -0.00056707993
0.0038099505 0.0022458408 -0.0029685127 0.0021830404 -0.0017142952 -0.002930992 -0.0015826229 0.0010373548
0.0040988023 9.1662485e-05 0.0046967617 -0.00021883556 0.00054946897 -0.0012431921 -0.0027756689 -0.001123398
0.003372934 -0.00085917796 0.0007778416 0.0020274934 0.0053998535 -0.00030069292 0.0009978821 0.0012051361
0.003924229 -0.0013483585 -0.0014707808 0.0009137546 -0.00093438895 0.0017558474 -0.0017492771 0.00079058245
0.0016541372 -0.0001625567 -0.003004527 0.00028314043 -0.0018305874 -0.00012567386 0.000932432 0.0015112007
0.0078024706 0.0012537758 -0.0017157987 0.0014383785 -0.0011667138 0.0033291162 0.0024067548 0.0041675093
0.004326405 -0.0027143415 0.0012565829 0.008219141 0.0060722674 0.0018989776 0.00040743413 0.0048173596
0.00022107665 0.00062419556 -0.00050829706 0.0006268657 0.0051091705 0.0011441322 0.0034451545 -0.0011273881
0.004299109 0.003892171 0.002194878 0.0010401149 0.00050477806 0.0072211805 0.0031766589 0.0013790093
-0.00059114373 -0.00057211576 0.004538197 0.003211518 0.0004221711 0.0041683596 0.0047486722 0.0019346183
-0.00021247622 0.00527335 0.004092739 -0.0008549506 0.010861372 0.0032394323 -0.0040312484 -0.0010076974
0.0027603083 0.0031081869 0.008443246 0.0003136977 0.0053860326 0.005984091 0.009340943 0.0021806562
-0.00043189552 0.003853087 0.0030350545 0.00096662703 0.0021111083 -0.0012478548 0.0033562628 0.003544892
0.0006631181 0.005951221 -0.00018637301 -0.0027950378 -0.004291932 0.00096439506 0.0024875728 0.0030236384
0.0031429518 0.0023515555 0.003512806 0.0019879993 0.003124281 0.0055700243 0.0027202896 -0.002875043
0.00060730724 0.009241583 -0.0022950573 -0.00013511734 0.00022149939 -0.0018760655 0.0032789884 -0.00082121184
-0.0033007793 -0.0003543912 0.00698467 0.0035042895 0.0012467846 0.0036030898 0.0004478195 -0.0011943225
0.0016474832 0.0036552385 -0.0022788097 -0.00079166977 -0.0029335686 0.0019872005 0.002407447 0.00015634511
0.0066662095 0.0039025391 0.00020996113 0.0019821222 0.002524704 0.008120143 0.0053055896 4.080039e-06
0.00054717314 0.002161573 0.002019464 0.0067397505 0.0023412653 -0.001930033 0.0028098829 0.00032987897
0.0016778071 4.948066e-05 0.0018399502 0.0017895278 0.004432345 0.002870956 0.0012926158 0.0014169724
0.0012365582 0.004114702 0.002309094 0.0053824093 0.00027460096 0.005090421 0.00078556006 0.0032235608
0.0030415189 -0.0016168308 0.004416576 0.0006698727 -0.00019561645 -0.0016351398 -0.0012335306 0.000814459
0.0016544012 0.002139164 -0.00015837708 -0.000982576 4.0237872e-05 0.0031149115 -0.0045642015 0.0019148653
0.0038957591 0.007745295 0.0012762294 -0.00015167116 0.00017245885 0.0025231345 0.0005642995 0.0052802362
-0.00079198525 -0.0007938129 0.0021432058 0.002956827 -0.004788442 -0.004029295 -0.0025471137 0.0016648775
0.0026427053 0.0010941107 -0.0011675293 0.0077485796 0.0034717855 -0.0007814572 0.0038191546 -0.0027939116
0.00040027872 0.002043708 0.0022091747 -0.0034026098 0.001082464 0.0061981785 -3.3193523e-05 0.0024902523
0.00078562775 -0.0039688647 0.0013079253 -0.0006203064 -0.00035096993 0.004405945 0.0057522263 0.00040029606
0.003039554 -0.0024349468 -0.0015350251 0.0026833452 -0.0014274594 0.004805853 -0.0020810333 0.0033737249
0.0007473019 -0.0021525484 -0.0013071878 0.005039459 -0.00043300085 0.008158242 0.001789981 0.002326552
00000000: f76f 713a 13e3 493b 92b7 93ba 93a2 0b3b
00000010: 015d 2c3a 2e3b 43ba 8031 b23b 17a8 14ba
00000020: 5db0 793b f52e 133b 618b 42bb 5711 0f3b
00000030: 34b2 e0ba e315 40bb 0370 cfba daf7 873a
00000040: 3f4f 863b ec3a c038 4be7 993b 3977 65b9
00000050: 3d0a 103a 9bf2 a2ba ffe7 35bb fb3e 93ba
00000060: 710c 5d3b 753a 61ba 11e8 4b3a b2df 043b
00000070: 41f1 b03b 52a6 9db9 5ecb 823a a8f5 9d3a
00000080: d296 803b 67bb b0ba 37c7 c0ba 0889 6f3a
00000090: c8f1 74ba 7624 e63a 0048 e5ba 173f 4f3a
000000a0: a2cf d83a fb73 2ab9 99e7 44bb 7772 9439
000000b0: 52f0 efba 52c7 03b9 746e 743a 7b13 c63a
000000c0: deab ff3b bc55 a43a a7e4 e0ba f987 bc3a
000000d0: 6bec 98ba 4d2d 5a3b a5ba 1d3b 9a8f 883b
000000e0: 84c4 8d3b 18e3 31bb edb3 a43a 93a9 063c
000000f0: dff9 c63b 1de7 f83a e29c d539 f1da 9d3b
00000100: d0d0 6739 0ea1 233a 3d3f 05ba 3f54 243a
00000110: d46a a73b b5f6 953a 1ac8 613b dec4 93ba
00000120: 8adf 8c3b cb13 7f3b f1d7 0f3b 7754 883a
00000130: 1553 043a a79f ec3b 7e2f 503b e0bf b43a
00000140: fcf6 1aba 0afa 15ba 28b5 943b 5578 523b
00000150: d956 dd39 bc96 883b c09a 9b3b 0593 fd3a
00000160: 27cc 5eb9 11cc ac3b 621c 863b c31e 60ba
00000170: e5f3 313c a84c 543b 9018 84bb b714 84ba
00000180: 4ae6 343b b9b2 4b3b 8a55 0a3c cb77 a439
00000190: 517d b03b 3216 c43b c10a 193c 57e9 0e3b
000001a0: 0970 e2b9 1384 7c3b c4e7 463b 3e65 7d3a
000001b0: 855a 0a3b 0f8f a3ba bff4 5b3b 6b51 683b
000001c0: 1ad5 2d3a 7602 c33b 206d 43b9 f42c 37bb
000001d0: 56a3 8cbb 75cf 7c3a 8c06 233b 3c28 463b
000001e0: fbf9 4d3b 8e1c 1a3b 1b37 663b 1849 023b
000001f0: bdc0 4c3b c084 b63b e346 323b 386b 3cbb
00000200: b333 1f3a 026a 173c ac68 16bb 49ae 0db9
00000210: 4a42 6839 50e6 f5ba 4ce4 563b 9846 57ba
00000220: e351 58bb 95cd b9b9 a9df e43b 39a8 653b
00000230: 266b a33a d121 6c3b 51c9 ea39 d08a 9cba
00000240: 5df0 d73a ba8c 6f3b 1558 15bb 0f88 4fba
00000250: 1d41 40bb b13b 023b 42c6 1d3b 92f0 2339
00000260: 3870 da3b bec1 7f3b 0329 5c39 7ee6 013b
00000270: 8175 253b 590a 053c 83da ad3b 45e7 8836
00000280: 2b70 0f3a 2da9 0d3b fc58 043b 20d9 dc3b
00000290: ea6f 193b 29f9 fcba 0326 383b 9bf3 ac39
000002a0: dde9 db3a 7489 4f38 7c2a f13a 978e ea3a
000002b0: 343d 913b a626 3c3b fd6c a93a b4b9 b93a
000002c0: 0214 a23a 9fd4 863b 2b54 173b ec5e b03b
000002d0: 51f8 8f39 8ccd a63b 0bee 4d3a 6042 533b
000002e0: 3854 473b d7eb d3ba edb8 903b 659a 2f3a
000002f0: 641e 4db9 3052 d6ba 6bae a1ba 6b81 553a
00000300: 7ed8 d83a 3731 0c3b 0612 26b9 c8c9 80ba
00000310: 16c5 2838 8b23 4c3b 4c8f 95bb 38fc fa3a
00000320: fe4f 7f3b 3ecc fd3b 2747 a73a eb09 1fb9
00000330: 12d6 3439 2c5b 253b 80ed 133a d505 ad3b
00000340: 3b9d 4fba e217 50ba 0775 0c3b 53c7 413b
00000350: 5de8 9cbb 2d08 84bb 7aed 26bb 0538 da3a
00000360: 3d31 2d3b 4368 8f3a c807 99ba cce7 fd3b
00000370: e586 633b b4da 4cba c84a 7a3b 0f1a 37bb
00000380: 80dc d139 bbef 053b cdc7 103b 52fe 5ebb
00000390: 77e1 8d3a 171a cb3b 4639 0bb8 8033 233b
000003a0: 96f2 4d3a 400d 82bb b16e ab3a 0f9c 22ba
000003b0: 6302 b8b9 bf5f 903b 2c7d bc3b d4de d139
000003c0: 4133 473b a193 1fbb e532 c9ba 10db 2f3b
000003d0: 9719 bbba 6b7a 9d3b f261 08bb b619 5d3b
000003e0: 95e6 433a c511 0dbb f255 abba 0c22 a53b
000003f0: 6404 e3b9 26aa 053c cc9d ea3a 1179 183b

exp_avg_sq f4 [20, 416]
8.7256536e-05 0.00010604831 6.588839e-05 5.7736233e-05 7.474303e-05 5.959278e-05 8.017134e-05 4.3978638e-05
4.3482905e-05 8.866073e-05 7.413031e-05 5.4171578e-05 6.66021e-05 5.4342425e-05 6.7485176e-05 7.1058304e-05
7.2685914e-05 8.314081e-05 6.917385e-05 5.591834e-05 7.1728624e-05 8.2732535e-05 7.877121e-05 7.280379e-05
5.3802443e-05 7.811591e-05 7.842287e-05 6.088734e-05 6.588694e-05 4.9062746e-05 7.2415954e-05 8.2501894e-05
5.8316906e-05 7.751781e-05 6.638551e-05 6.111761e-05 7.111904e-05 7.143746e-05 5.438604e-05 6.295184e-05
5.3888667e-05 7.6262746e-05 6.6784945e-05 5.444137e-05 6.1957544e-05 6.4174055e-05 7.730896e-05 6.183781e-05
6.233982e-05 7.6152406e-05 6.651592e-05 6.37033e-05 0.000113932474 0.00014836482 8.16286e-05 9.296815e-05
0.00011327385 9.457384e-05 0.00012739758 0.000120833836 6.9306116e-05 0.000108132 0.00011738219 9.8387594e-05
7.6069125e-05 9.038611e-05 9.2027236e-05 0.00010480726 0.00011988859 0.00013309917 8.8929606e-05 0.000116637464
0.00014133602 0.00010115524 0.00013298061 0.00016830911 8.247058e-05 9.1787486e-05 8.735143e-05 8.048457e-05
8.159369e-05 7.4068485e-05 9.34139e-05 0.00011436315 8.1013364e-05 0.0001363207 9.5526295e-05 0.0001032574
0.00012614006 8.012164e-05 9.2779694e-05 0.000121027784 7.7494e-05 7.952306e-05 0.000101632286 8.827903e-05
7.4212956e-05 8.53589e-05 9.469161e-05 0.00012567137 0.000109299835 0.00011870327 9.6190655e-05 0.00011892964
7.8109035e-05 0.00021924425 8.860278e-05 9.440009e-05 0.00010880943 8.760332e-05 0.0001431696 0.00022284497
9.0714624e-05 0.000189564 0.00011780898 0.00011286699 0.0001060541 0.00011405589 9.299489e-05 0.00011350033
9.2353286e-05 0.00020588559 0.00010139321 9.820109e-05 0.00016088093 9.513732e-05 0.00011168434 0.00024557541
9.1028196e-05 0.0001579693 9.271186e-05 9.4731746e-05 0.00010622463 0.00010596034 0.000113537375 0.000105820174
0.000113226044 0.0001627217 8.4888925e-05 0.000111268106 0.00015820918 8.4322106e-05 0.000109084955 0.00022580397
7.0277005e-05 0.00015683447 0.00011755766 0.00013379178 9.4242074e-05 0.00010009938 9.670748e-05 0.00012426145
0.00010777184 0.00015828392 7.150851e-05 0.000118496166 8.956303e-05 9.6408214e-05 7.5102085e-05 7.999465e-05
0.00010027645 9.719412e-05 0.00010461607 0.00011699813 0.00014104329 0.00013256598 0.000107076434 9.116098e-05
6.2478284e-05 9.439111e-05 9.784541e-05 7.221552e-05 7.236546e-05 9.738644e-05 0.0001053251 9.2742695e-05
0.00012719563 8.403414e-05 0.00010881733 0.00013858204 0.00010539708 0.00011831458 9.819795e-05 0.00010646636
7.1053175e-05 8.9741596e-05 9.2231225e-05 8.6925254e-05 8.260445e-05 7.039826e-05 9.304787e-05 6.7529174e-05
0.0001415285 5.9372494e-05 0.00010953597 0.00011249671 9.5884294e-05 8.575447e-05 0.00012717512 9.773127e-05
8.968798e-05 0.00011335944 8.339746e-05 7.9282e-05 9.5160205e-05 8.5377425e-05 9.797057e-05 8.958582e-05
7.0482376e-05 9.7230266e-05 8.80011e-05 6.8648944e-05 0.00010297982 0.00013243311 9.310981e-05 6.944728e-05
7.40647e-05 8.924362e-05 8.448497e-05 0.00017595025 0.00010659991 7.892601e-05 0.00012789668 0.00010566946
0.00010199771 0.00013382974 0.000107162145 6.0487782e-05 9.032459e-05 0.00012544577 6.5123466e-05 0.00013917715
8.225244e-05 0.00010520027 9.352344e-05 9.110708e-05 0.00010215204 8.510005e-05 0.00013527418 0.0001154044
8.258214e-05 0.000110890214 0.00011354921 6.5856584e-05 8.888561e-05 9.496155e-05 7.806193e-05 0.00012220677
0.00010330186 9.1154645e-05 0.00010380927 0.000109469154 8.1456725e-05 8.7047396e-05 0.00013727862 0.00011445759
00000000: 7ffd b638 4166 de38 8f2d 8a38 cf29 7238
00000010: 5cbf 9c38 43f3 7938 a921 a838 b475 3838
00000020: 6a61 3638 5eef b938 6876 9b38 4a36 6338
00000030: bbac 8b38 bced 6338 d486 8d38 2305 9538
00000040: f46e 9838 e25b ae38 6e11 9138 dc89 6a38
00000050: 036d 9638 b180 ad38 f931 a538 3dae 9838
00000060: efa9 6138 29d2 a338 f576 a438 4961 7f38
00000070: c82c 8a38 b9c8 4d38 05de 9738 de04 ad38
00000080: 4d99 7438 0f91 a238 7338 8b38 442c 8038
00000090: be25 9538 b2d0 9538 911c 6438 0305 8438
000000a0: 8406 6238 40ef 9f38 e50e 8c38 fa57 6438
000000b0: 34ef 8138 2f95 8638 ef20 a238 ecae 8138
000000c0: 70bc 8238 03b4 9f38 767e 8b38 7398 8538
000000d0: 08ef ee38 6192 1b39 0530 ab38 e5f7 c238
000000e0: 6f8d ed38 f255 c638 0796 0539 2c68 fd38
000000f0: 7058 9138 edc4 e238 152b f638 7055 ce38
00000100: 4d87 9f38 ac8d bd38 bffe c038 f8cb db38
00000110: b26c fb38 8990 0b39 b87f ba38 439b f438
00000120: 9933 1439 4e23 d438 b670 0b39 227c 3039
00000130: 0ef4 ac38 087e c038 7130 b738 d3c9 a838
00000140: 471d ab38 3755 9b38 35e7 c338 40d6 ef38
00000150: b8e5 a938 4ff1 0e39 4a55 c838 e58b d838
00000160: 7744 0439 fa06 a838 b892 c238 4cd0 fd38
00000170: 4684 a238 9ec5 a638 6b23 d538 7122 b938
00000180: c7a2 9b38 b602 b338 2c95 c638 a7c6 0339
00000190: e737 e538 55f0 f838 f7b9 c938 dd69 f938
000001a0: 78ce a338 eee4 6539 41d0 b938 aaf8 c538
000001b0: 9e30 e438 adb7 b738 cc1f 1639 7eab 6939
000001c0: 0b3e be38 b3c5 4639 3710 f738 01b3 ec38
000001d0: 5d69 de38 4a31 ef38 4006 c338 0707 ee38
000001e0: cbad c138 fee2 5739 11a3 d438 4ff1 cd38
000001f0: 25b2 2839 7684 c738 1338 ea38 93c0 8039
00000200: 64e6 be38 90a4 2539 4d6e c238 b8aa c638
00000210: eac4 de38 0637 de38 ea1a ee38 c6eb dd38
00000220: c573 ed38 46a0 2a39 6506 b238 9c58 e938
00000230: f4e4 2539 16d6 b038 8ac4 e438 cbc5 6c39
00000240: ae61 9338 ef73 2439 4a89 f638 754a 0c39
00000250: d4a3 c538 72ec d138 6fcf ca38 2e4c 0239
00000260: 9103 e238 04f9 2539 d7f6 9538 2581 f838
00000270: c9d3 bb38 c42e ca38 2080 9d38 cdc2 a738
00000280: 824b d238 b2d4 cb38 5365 db38 e55c f538
00000290: 05e5 1339 6901 0b39 398e e038 ae2d bf38
000002a0: c606 8338 d7f3 c538 5b32 cd38 6972 9738
000002b0: e9c2 9738 f23b cc38 fce1 dc38 db7e c238
000002c0: d15f 0539 7c3b b038 dc34 e438 5550 1139
000002d0: a008 dd38 a81f f838 9fef cd38 b146 df38
000002e0: 6202 9538 a733 bc38 436c c138 a44b b638
000002f0: ed3b ad38 c7a2 9338 b222 c338 739e 8d38
00000300: 4467 1439 bb06 7938 adb6 e538 36ec eb38
00000310: 7d15 c938 15d7 b338 505a 0539 13f5 cc38
00000320: de16 bc38 63bb ed38 ace5 ae38 3344 a638
00000330: bf90 c738 a80c b338 8d75 cd38 05e0 bb38
00000340: f0cf 9338 1ae8 cb38 3b8d b838 9ff7 8f38
00000350: dff6 d738 bedd 0a39 f343 c338 39a4 9138
00000360: 2f53 9b38 4e28 bb38 862d b138 497f 3839
00000370: 648e df38 1485 a538 011c 0639 dc9a dd38
00000380: 9be7 d538 a654 0c39 3dbc e038 43b4 7d38
00000390: a56c bd38 188a 0339 e592 8838 15f0 1139
000003a0: f17e ac38 f79e dc38 0422 c438 be10 bf38
000003b0: 753a d638 be77 b238 63d8 0d39 4405 f238
000003c0: f32f ad38 bb8d e838 4521 ee38 7c1c 8a38
000003d0: 1968 ba38 1826 c738 2eb5 a338 a124 0039
000003e0: c4a3 d838 472a bf38 2db4 d938 ce92 e538
000003f0: bfd3 aa38 378d b638 73f2 0f39 f308 f038

exp_avg f4 [20, 20]
0.0 -0.0002358202 -0.00022997218 0.0020984772 0.00053104607 0.00015534315 0.00015930943 0.000109772234
-8.833143e-05 -0.00015817264 -0.00024128721 0.00024489214 -0.00037124616 -0.0004297718 -5.0066585e-05 0.000120241406
-3.237618e-06 0.00014843103 5.99548e-05 -6.5107226e-05 4.3396358e-05 0.0 -0.0010408044 -0.00259825
0.00013094395 -3.4093646e-05 -0.000103184844 1.1194563e-05 -0.0006383387 -0.00049444503 -0.00041257346 -0.0028661361
-0.0014732181 -0.00043109083 -0.00010934436 -3.112244e-05 -0.00011968354 -4.186105e-05 8.265495e-05 -0.00019225922
-0.00014030664 -0.00074504927 0.0 -0.0038401869 -0.00036465318 -9.352896e-05 -8.154615e-05 -0.0001470745
-0.00070642726 -0.0007496275 -0.00044471884 -0.0039053576 -0.001460503 -0.00046019326 -0.00019141348 -8.235e-05
-0.0002414518 -5.9447866e-05 1.4836088e-05 -0.00016865712 0.00017692617 -0.00034983878 -0.0011102435 0.0
0.00038411224 0.00021366679 0.00024953546 0.00011882506 -0.0003570142 -0.00023820247 -0.0003415003 -0.002648209
-0.00044173107 -0.00051926455 -7.678764e-05 0.00015499613 -0.00011565907 0.00013812126 3.4607227e-05 4.7718862e-05
0.00020003362 -0.0010645242 -0.0006251789 -0.0013474522 0.0 6.4214364e-05 -6.545455e-05 0.00015042801
-0.00087980094 -0.00036233573 -0.0006349416 -0.0008780214 -0.0014373887 -0.00052006554 -0.00013577989 4.362897e-05
0.00014706145 8.98156e-06 0.000117848744 -0.000280419 0.00015525694 -0.0003044734 -0.00025976336 0.00065076514
0.00033974616 0.0 4.864684e-05 6.387602e-05 -0.00022243909 -0.00019873885 -0.00023207406 -0.00011863183
-0.0004988615 -0.00031971437 -1.0008104e-05 5.5973334e-05 5.5962253e-05 7.802085e-05 0.000111145855 -5.3393367e-05
4.8860882e-05 -0.00041609013 -9.809656e-05 -0.000105040475 9.5006886e-05 3.382037e-05 0.0 3.148463e-05
-0.00034330107 -0.00015324741 -0.00020556168 -0.0002496548 -0.00067374855 -0.00020898803 -4.4926484e-05 5.9767117e-06
4.0627867e-05 4.272723e-06 4.7656515e-05 -0.00011475526 0.00015623256 -0.00043278042 -0.00042470067 0.001379081
0.00042449415 0.00010094701 0.00010893458 0.0 -0.00024109139 -0.00024404109 -0.000276499 -0.00015522832
-0.00059534376 -0.0004654323 -7.288544e-05 8.419212e-05 -8.818757e-06 0.00012231446 8.491635e-05 -8.5114494e-05
0.0002644507 -0.0002982766 -0.00040489866 -0.003761072 0.00037252254 0.00011948773 2.7035658e-06 0.0001416442
0.0 -0.00018824117 -0.00040571552 -0.0027299472 -0.00097505224 -0.00029599507 2.958551e-05 6.7273984e-05
0.00013024322 2.5491934e-05 0.0002162807 -9.7980024e-05 0.00012942731 -0.0004517334 -0.0012433721 -0.0013519666
0.0002461924 3.0761483e-05 1.9637366e-05 3.324017e-05 -0.0004281479 0.0 -0.0003541442 -0.0021493693
-0.0010540448 -0.0003971587 -6.265791e-05 1.8204662e-05 -3.5342007e-05 2.4007892e-05 0.0001337041 -8.290235e-05
0.00023316877 -0.00019995132 -0.00072072353 -0.0028162082 0.00040947433 0.00012587722 7.377413e-05 0.00012625304
-0.000552815 -0.00023743896 0.0 -0.0025085898 -0.0007841095 -0.00029876397 6.3097386e-06 9.4723604e-05
6.3063754e-07 5.777301e-05 0.00017703691 -6.5886896e-05 0.0001570908 -0.00049372396 -0.001551438 -0.0016804594
0.00038730557 0.00012055387 0.0003755572 9.653958e-05 -0.0002714403 -0.00026787017 -0.00033991502 0.0
-0.000480338 -0.0006397228 9.045745e-05 0.00019760805 -4.421647e-05 0.0002539388 3.9291524e-05 0.00021716973
9.790984e-05 -0.0006375044 -0.00088422623 -0.0036779498 0.00017070108 -9.575258e-06 -7.0022936e-05 3.517903e-05
-0.000690548 -0.0004077334 -0.00041059186 -0.003048633 0.0 -0.00040754722 -6.1994615e-05 -3.830435e-06
00000000: 0000 0000 8146 77b9 b024 71b9 9b86 093b
00000010: e635 0b3a 9ce3 2239 4d0c 2739 8535 e638
00000020: 933e b9b8 25db 25b9 0b02 7db9 de64 8039
00000030: d1a3 c2b9 ff52 e1b9 96fe 51b8 1d2a fc38
00000040: db45 59b6 27a4 1b39 fa77 7b38 2d8a 88b8
00000050: 7c04 3638 0000 0000 9a6b 88ba 6747 2abb
00000060: 004e 0939 c6ff 0eb8 f164 d8b8 48d0 3b37
00000070: 2f56 27ba a59d 01ba ac4e d8b9 c9d5 3bbb
00000080: ff18 c1ba 0804 e2b9 ce4f e5b8 7789 02b8
00000090: 9cfe fab8 f693 2fb8 0a57 ad38 3199 49b9
000000a0: 471f 13b9 694f 43ba 0000 0000 a5ab 7bbb
000000b0: ec2e bfb9 fa24 c4b8 c203 abb8 0338 1ab9
000000c0: 882f 39ba a682 44ba 2729 e9b9 07f1 7fbb
000000d0: 596e bfba 1846 f1b9 2ab6 48b9 52b3 acb8
000000e0: 392e 7db9 a957 79b8 83e8 7837 8dd9 30b9
000000f0: 4285 3939 916a b7b9 9785 91ba 0000 0000
00000100: ac62 c939 be0b 6039 15d4 8239 b831 f938
00000110: a32d bbb9 fdc5 79b9 650b b3b9 938d 2dbb
00000120: 2498 e7b9 411f 08ba 0d09 a1b8 7586 2239
00000130: fe8d f2b8 a5d4 1039 3a27 1138 bd25 4838
00000140: 1ec0 5139 8187 8bba 0ce3 23ba fe9c b0ba
00000150: 0000 0000 d3aa 8638 a544 89b8 36bc 1d39
00000160: 71a2 66ba e1f7 bdb9 3672 26ba 052b 66ba
00000170: c366 bcba 0255 08ba 2360 0eb9 40fe 3638
00000180: 8234 1a39 82af 1637 9025 f738 3305 93b9
00000190: 78cc 2239 baa1 9fb9 d930 88b9 1c98 2a3a
000001a0: f51f b239 0000 0000 260a 4c38 2df5 8538
000001b0: 8a3e 69b9 8e64 50b9 e858 73b9 fbc9 f8b8
000001c0: 07c6 02ba 569f a7b9 7be8 27b7 e9c4 6a38
000001d0: 03b9 6a38 209f a338 fa16 e938 b1f2 5fb8
000001e0: f9ef 4c38 ac26 dab9 31b9 cdb8 2d49 dcb8
000001f0: 6f3e c738 59da 0d38 0000 0000 5d0e 0438
00000200: 17fd b3b9 0ab1 20b9 0b8c 57b9 1ae4 82b9
00000210: 809e 30ba cc23 5bb9 726f 3cb8 908b c836
00000220: d767 2a38 695e 8f36 cbe2 4738 c3a8 f0b8
00000230: 5cd2 2339 cee6 e2b9 5caa deb9 48c2 b43a
00000240: a48e de39 83b3 d338 cf73 e438 0000 0000
00000250: 7acd 7cb9 48e5 7fb9 11f7 90b9 c9c4 22b9
00000260: d810 1cba 4405 f4b9 13da 98b8 4d90 b038
00000270: 46f4 13b7 8a41 0039 1e15 b238 7f7f b2b8
00000280: f9a5 8a39 0262 9cb9 9448 d4b9 517c 76bb
00000290: 214f c339 7d95 fa38 e86e 3536 5386 1439
000002a0: 0000 0000 9b62 45b9 37b6 d4b9 eae8 32bb
000002b0: a69a 7fba c92f 9bb9 662e f837 7215 8d38
000002c0: e691 0839 83d7 d537 69c9 6239 a07a cdb8
000002d0: e1b6 0739 a1d6 ecb9 a5f8 a2ba 7934 b1ba
000002e0: 6213 8139 e405 0138 ecba a437 5c6b 0b38
000002f0: 0a79 e0b9 0000 0000 6eac b9b9 6fdc 0cbb
00000300: e027 8aba bd39 d0b9 3667 83b8 37b6 9837
00000310: 313c 14b8 8e64 c937 ec32 0c39 dcdb adb8
00000320: c47e 7439 06aa 51b9 f0ee 3cba 2290 38bb
00000330: b7ae d639 e9fd 0339 2fb7 9a38 cb62 0439
00000340: c9ea 10ba 09f9 78b9 0000 0000 2767 24bb
00000350: b38c 4dba 6ca3 9cb9 3eb8 d336 59a6 c638
00000360: 1549 2935 4c51 7238 fca2 3939 c22c 8ab8
00000370: beb8 2439 416d 01ba 9f59 cbba dc42 dcba
00000380: 460f cb39 ded1 fc38 6fe6 c439 4b75 ca38
00000390: 1a50 8eb9 ed70 8cb9 9f36 b2b9 0000 0000
000003a0: e0d5 fbb9 12b3 27ba f9b3 bd38 0235 4f39
000003b0: 1375 39b8 1723 8539 f4cc 2438 0eb8 6339
000003c0: f254 cd38 321e 27ba 6bcb 67ba c209 71bb
000003d0: 39fe 3239 6ca5 20b7 47d9 92b8 328d 1338
000003e0: e405 35ba 0dc5 d5b9 b544 d7b9 93cb 47bb
000003f0: 0000 0000 10ac d5b9 1b03 82b8 3087 80b6

exp_avg_sq f4 [20, 20]
0.0 4.170876e-06 4.1053377e-06 2.9601379e-05 6.1595216e-07 2.5218404e-07 2.5862337e-07 1.3870785e-07
2.1709834e-06 2.0932819e-06 1.6540803e-06 1.6662136e-05 4.5339075e-06 1.754372e-06 5.419081e-07 8.348735e-08
7.024536e-07 2.2871338e-07 2.8762167e-07 8.404315e-07 3.4566e-07 0.0 2.3715718e-06 4.1109815e-05
6.638457e-07 6.314312e-08 5.330267e-08 1.2852522e-07 1.2905608e-06 5.571864e-07 5.161142e-07 1.9657928e-05
2.3318532e-06 5.500673e-07 1.7381598e-07 4.461174e-08 7.46275e-07 5.2144788e-08 3.4219627e-07 1.8909594e-07
6.6847144e-07 4.074208e-06 0.0 3.958491e-05 1.0238201e-06 2.819098e-07 2.6654993e-07 3.516045e-07
2.845279e-06 1.7774349e-06 1.7321504e-06 2.3841838e-05 5.029034e-06 1.6302539e-06 5.5829196e-07 1.6282107e-07
1.5128963e-06 1.7999602e-07 7.6316985e-07 6.453046e-07 2.0220251e-07 8.289954e-06 1.0356673e-05 0.0
6.4060566e-07 4.7300773e-07 5.495094e-07 2.1815978e-07 3.371325e-06 3.6430188e-06 2.693554e-06 1.6555425e-05
8.4959875e-06 2.6427379e-06 7.4369046e-07 2.006913e-07 6.1240274e-07 3.4745287e-07 2.0932622e-07 1.2560077e-06
5.324849e-07 9.392919e-06 6.7890446e-06 5.1263407e-05 0.0 5.38815e-07 5.8959824e-07 3.3735816e-07
5.1712823e-06 3.6337967e-06 3.580225e-06 2.0209647e-05 1.0325983e-05 3.0075337e-06 6.878914e-07 2.3185515e-07
6.0768974e-07 3.6562474e-07 4.5883712e-07 1.2968543e-06 2.3672978e-07 1.7052436e-06 2.4552141e-06 1.1570889e-05
2.9133716e-07 0.0 3.8117733e-08 9.141524e-08 7.789681e-07 7.671096e-07 4.966215e-07 5.9564613e-06
1.8209169e-06 6.2018165e-07 2.1894276e-07 2.6383653e-08 4.7571797e-07 6.020009e-08 2.599824e-07 2.6324773e-07
1.8988247e-07 1.6506046e-06 1.455955e-06 6.603767e-06 4.5664498e-07 7.56802e-08 0.0 9.420317e-08
8.961032e-07 6.1402187e-07 5.693509e-07 2.590619e-06 1.8682333e-06 5.1164125e-07 1.3641841e-07 4.6254105e-08
1.6015676e-07 5.6363085e-08 1.628424e-07 2.1392101e-07 2.1538591e-07 3.4258237e-06 4.291721e-06 2.3702307e-05
4.640493e-07 1.363935e-07 1.316562e-07 0.0 1.5986365e-06 1.7145115e-06 1.1875597e-06 1.3807895e-05
3.632147e-06 1.4085737e-06 4.3432163e-07 4.0664016e-08 6.4129637e-07 1.5106063e-07 2.5398433e-07 6.311498e-07
6.124761e-07 2.804152e-06 2.8001198e-06 6.5461376e-05 1.1159441e-06 1.671542e-07 1.4134909e-07 2.4713506e-07
0.0 1.0834149e-06 1.0475047e-06 2.677633e-05 3.377119e-06 1.0070424e-06 3.1815767e-07 1.02848574e-07
9.439485e-07 1.2331705e-07 5.5974704e-07 4.2047918e-07 2.934951e-07 1.2719928e-06 2.5814786e-06 3.3143562e-05
3.7117923e-07 3.5552603e-08 2.4063812e-08 1.04554246e-07 9.980841e-07 0.0 4.4900517e-07 1.8824152e-05
1.8441369e-06 4.7669644e-07 1.6414633e-07 2.992037e-08 7.332957e-07 3.2814725e-08 3.424715e-07 1.4917755e-07
4.5691112e-07 1.1215992e-06 1.7826434e-06 4.4981145e-05 6.134977e-07 4.606346e-08 3.378806e-08 1.6001232e-07
1.0461453e-06 4.1025706e-07 0.0 2.0584914e-05 1.5490325e-06 4.4041136e-07 1.9199665e-07 4.4091138e-08
8.6061107e-07 4.270473e-08 4.476183e-07 1.6040484e-07 4.1919486e-07 1.5333155e-05 2.163637e-05 4.4379103e-05
1.0748914e-06 9.258324e-07 8.515168e-07 4.4686448e-07 5.242301e-06 7.6835295e-06 4.93544e-06 0.0
1.5192176e-05 5.6406075e-06 1.7399142e-06 3.7294973e-07 1.2981287e-06 8.293785e-07 5.305891e-07 2.8116851e-06
4.3499048e-07 1.5131887e-06 2.3645955e-06 5.0506256e-05 6.4375257e-07 5.4529384e-08 4.408103e-08 1.5496016e-07
1.1323502e-06 5.2277016e-07 4.391135e-07 2.3207367e-05 0.0 5.1830176e-07 2.1000321e-07 4.5368306e-08
00000000: 0000 0000 8df3 8b36 95c0 8936 7a50 f837
00000010: e957 2535 e963 8734 edd8 8a34 b9ef 1434
00000020: 36b1 1136 4f7a 0c36 c401 de35 aac5 8b37
00000030: f821 9836 c377 eb35 a477 1135 a849 b333
00000040: 3e90 3c35 4194 7534 6c6a 9a34 039a 6135
00000050: 2693 b934 0000 0000 4b27 1f36 546d 2c38
00000060: 2133 3235 4c99 8733 e8ee 6433 be00 0a34
00000070: 5537 ad35 8f91 1535 198b 0a35 14e7 a437
00000080: ef7c 1c36 56a8 1335 2ca2 3a34 209b 3f33
00000090: a153 4835 cdf5 5f33 19b7 b734 4c0a 4b34
000000a0: 0271 3335 2eb5 8836 0000 0000 f907 2638
000000b0: 316a 8935 6359 9734 581a 8f34 28c4 bc34
000000c0: 85f1 3e36 3390 ee35 3c7c e835 f5ff c737
000000d0: 13bf a836 19cf da35 88dd 1535 ead3 2e34
000000e0: b90e cb35 ee44 4134 a2dc 4c35 ff38 2d35
000000f0: 011d 5934 1515 0b37 92c1 2d37 0000 0000
00000100: 16f6 2b35 b0f1 fd34 0082 1335 4e3f 6a34
00000110: ec3e 6236 967a 7436 e8c2 3436 81e0 8a37
00000120: fd89 0e37 e459 3136 05a2 4735 9b7d 5734
00000130: ff63 2435 8f89 ba34 27c3 6034 1994 a835
00000140: 15f0 0e35 4896 1d37 73cd e336 aa03 5738
00000150: 0000 0000 16a3 1035 e244 1e35 271e b534
00000160: fa84 ad36 27dc 7336 cc43 7036 e387 a937
00000170: c23d 2d37 09d5 4936 89a7 3835 dcf3 7834
00000180: 1f20 2335 154b c434 1856 f634 930f ae35
00000190: c92f 7e34 b9df e435 42c4 2436 9720 4237
000001a0: 1369 9c34 0000 0000 e4b6 2333 0f50 c433
000001b0: 481a 5135 5feb 4d35 924f 0535 9ddd c736
000001c0: 3a66 f435 8f7a 2635 8716 6b34 44a2 e232
000001d0: 2e66 ff34 5947 8133 b593 8b34 7e54 8d34
000001e0: 7fe2 4b34 588a dd35 3c6a c335 ed95 dd36
000001f0: cf28 f534 a185 a233 0000 0000 be4c ca33
00000200: be8b 7035 43d3 2435 7fd5 1835 7fda 2d36
00000210: 02c0 fa35 b857 0935 687a 1234 eda8 4633
00000220: 8ef7 2b34 de13 7233 c7d9 2e34 29b2 6534
00000230: d444 6734 34e7 6536 9a01 9036 51d4 c637
00000240: 7322 f934 8f73 1234 615d 0d34 0000 0000
00000250: bb90 d635 2b1e e635 3e64 9f35 75a8 6737
00000260: cfbf 7336 390e bd35 b62c e934 8fa6 2e33
00000270: 8d25 2c35 3b33 2234 575b 8834 496c 2935
00000280: 0969 2435 f72e 3c36 b1e9 3b36 4f48 8938
00000290: 8cc7 9535 ff7a 3334 bec5 1734 fcad 8434
000002a0: 0000 0000 da69 9135 fd97 8c35 bb9d e037
000002b0: 76a2 6236 b729 8735 42cf aa34 9add dc33
000002c0: a663 7d35 2269 0434 8641 1635 38be e134
000002d0: a991 9d34 57b9 aa35 773d 2d36 a103 0b38
000002e0: 7c46 c734 80b2 1833 e2b4 ce32 4e87 e033
000002f0: e9f5 8535 0000 0000 cd0e f134 8fe8 9d37
00000300: 1084 f735 a9ec ff34 3340 3034 cb81 0033
00000310: b2d7 4435 2cf0 0c33 eddc b734 9d2d 2034
00000320: 634d f534 db89 9635 2943 ef35 23aa 3c38
00000330: 3eaf 2435 4fd7 4533 5d1e 1133 dacf 2b34
00000340: 4769 8c35 4d41 dc34 0000 0000 c4ad ac37
00000350: 5ae8 cf35 ad71 ec34 a327 4e34 b85e 3d33
00000360: be04 6735 596a 3733 3150 f034 bf3b 2c34
00000370: b40d e134 b39f 8037 c07f b537 b323 3a38
00000380: fd44 9035 b886 7835 ca93 6435 96e8 ef34
00000390: 06e7 af36 82e8 0037 1b9b a536 0000 0000
000003a0: e6e1 7e37 7344 bd36 ff86 e935 d239 c834
000003b0: 5d3b ae35 75a2 5e35 ce6d 0e35 62b0 3c36
000003c0: a388 e934 c518 cb35 71af 1e36 aed6 5338
000003d0: 57ce 2c35 b133 6a33 9b53 3d33 2063 2634
000003e0: 42fb 9735 7e54 0c35 4dbf eb34 71ad c237
000003f0: 0000 0000 6d21 0b35 3e7d 6134 fbda 4233

exp_avg f4 [9, 20]
-6.951411e-05 0.00011179839 0.00019134763 0.00076844596 4.3100554e-05 -7.55932e-05 -5.9563394e-05 -8.785478e-05
0.00012986976 -7.813894e-07 0.00012084115 0.00060613867 0.000170017 6.302942e-05 -4.7663827e-05 -8.6807246e-05
-3.1686508e-05 -0.00010042612 -9.360955e-05 -2.531108e-05 1.1391496e-05 -0.0002582569 -0.0022710746 0.00049028994
0.00035495684 0.0007115277 0.00034093476 0.0002204974 0.00017050517 -0.0011802987 -0.00048361244 -0.00031540354
-0.0005619334 -0.0003198207 -0.00023503877 0.00010673724 0.00011623727 -0.00012823864 0.00025932092 -0.00044215945
0.0010497852 0.0021874385 0.0010437449 0.0047525666 0.0013398391 0.0009836921 -0.0002982754 0.0007488989
0.0006874155 0.00095957937 0.00037969966 0.0033878034 0.0013499021 0.0006654155 -0.00018959524 0.00071885524
0.00077808404 -5.3600593e-06 0.00062129856 -0.0003784244 0.0008748645 0.0013279313 0.0005253031 0.0023052013
0.0015980522 0.0005310401 0.0017477757 0.00033918355 0.00051168085 0.00012972431 0.000115159695 0.00051560474
0.0014946469 -0.00017071185 -5.89791e-05 0.0011043231 -0.00073354 0.0008853308 -6.190323e-05 0.000482022
-0.0016219086 -0.0048455885 -0.001465758 -1.4806314e-05 -0.0022371344 -0.0017409716 -0.0018174782 -0.0013039246
-0.00201482 -0.002056707 -0.0015962442 0.00086426473 -0.004623786 -0.0013331348 -0.00034624603 -0.001691829
-4.7092122e-05 -0.00086212857 -0.00035349577 -0.0010748764 -0.00015628472 0.00015670584 0.0010076866 0.0035153155
1.8676917e-06 -0.0002006821 -0.00019017636 -4.8587972e-05 0.0008174704 0.00054064643 0.00079876697 0.0023277884
0.0007450036 2.3395023e-06 -3.5388446e-05 -0.00017148766 0.00010349507 7.760418e-05 -0.0005559952 0.00037678448
-0.00020901379 0.00014827999 -0.00027813166 -0.006402527 -0.0006628474 -0.00012210249 3.029209e-05 -0.00017426774
7.396159e-06 0.00026795224 0.00039416974 -0.004795989 0.00010753185 8.228693e-05 0.00011849831 -6.403997e-05
-0.0005280913 3.5417288e-05 -1.09388575e-05 0.00033368645 3.784704e-05 0.0004683162 0.0015684244 -0.0053773667
-0.0011691155 -9.9431476e-05 0.00025642716 0.00035915943 -0.0015078475 0.0009018461 -0.0005360454 -0.0015052841
0.00028328045 0.0003921314 0.00073240197 0.00012143781 0.0007713788 8.103624e-05 7.381809e-05 0.00055852585
8.283397e-05 0.0007033765 -0.00032154168 -3.7117785e-05 0.0007312814 1.252139e-05 -9.935978e-06 -5.3103522e-05
0.0011983298 0.00043803948 0.00080726534 -0.0010849221 0.0010353388 0.00061846554 6.201206e-05 -3.718868e-05
-0.00042878443 1.6765725e-05 0.00012150598 0.00016975284
00000000: 1bc8 91b8 4e75 ea38 7da4 4839 8971 493a
00000010: dec6 3438 ca87 9eb8 b5d3 79b8 ad3e b8b8
00000020: a62d 0839 acc0 51b5 196c fd38 47e5 1e3a
00000030: 9746 3239 aa2e 8438 a5ea 47b8 490c b6b8
00000040: 21e7 04b8 dd9b d2b8 3f50 c4b8 2153 d4b7
00000050: 1a1e 3f37 a866 87b9 4fd6 14bb cd86 003a
00000060: 8019 ba39 d185 3a3a 7dbf b239 5235 6739
00000070: a2c9 3239 41b4 9aba 5d8d fdb9 bf5c a5b9
00000080: b64e 13ba 9cad a7b9 bd74 76b9 1fd8 df38
00000090: 69c4 f338 cc77 06b9 77f5 8739 a3d1 e7b9
000000a0: f298 893a 215b 0f3b 44ce 883a 6bbb 9b3b
000000b0: 8a9d af3a 3bef 803a d961 9cb9 c151 443a
000000c0: ac33 343a 488c 7b3a 6d12 c739 e905 5e3b
000000d0: 33ef b03a 476f 2e3a 16ce 46b9 8f71 3c3a
000000e0: 56f8 4b3a 8fda b3b6 a4de 223a 4367 c6b9
000000f0: 2a57 653a fb0d ae3a 7fb4 093a dc12 173b
00000100: bc75 d13a 7f35 0b3a 9f15 e53a 72d4 b139
00000110: 5222 063a 9b06 0839 e481 f138 a629 073a
00000120: 07e8 c33a 1d01 33b9 5460 77b8 efbe 903a
00000130: 094b 40ba 8b15 683a 0bd2 81b8 e6b7 fc39
00000140: 3996 d4ba bec7 9ebb ad1e c0ba a268 78b7
00000150: e39c 12bb 5031 e4ba 7338 eeba 73e8 aaba
00000160: 120b 04bb d1c9 06bb 1139 d1ba d38f 623a
00000170: 2183 97bb 95bc aeba 5b88 b5b9 5cc0 ddba
00000180: c884 45b8 7800 62ba 6655 b9b9 dee2 8cba
00000190: 5ce0 23b9 6751 2439 5a14 843a 3561 663b
000001a0: 66ad fa35 316e 52b9 146a 47b9 f0ca 4bb8
000001b0: 834b 563a 2bba 0d3a 5864 513a cf8d 183b
000001c0: 584c 433a 5800 1d36 0e6e 14b8 5ed1 33b9
000001d0: 7e0b d938 6dbf a238 35c0 11ba 288b c539
000001e0: b62a 5bb9 9b7b 1b39 33d2 91b9 4acc d1bb
000001f0: f0c2 2dba a308 00b9 c51b fe37 a4bb 36b9
00000200: 862c f836 f17b 8c39 91a8 ce39 ac27 9dbb
00000210: b982 e138 7691 ac38 4c82 f838 324d 86b8
00000220: 9b6f 0aba 068d 1438 0986 37b7 a3f2 ae39
00000230: f3bd 1e38 5688 f539 9793 cd3a 9f34 b0bb
00000240: 023d 99ba de85 d0b8 1271 8639 904d bc39
00000250: f7a2 c5ba de69 6c3a 6685 0cba f44c c5ba
00000260: 4285 9439 fc96 cd39 aafe 3f3a 6eac fe38
00000270: 5b36 4a3a 00f2 a938 c9ce 9a38 096a 123a
00000280: 26b7 ad38 cc62 383a 9894 a8b9 ebae 1bb8
00000290: 77b3 3f3a f612 5237 b3b2 26b7 79bb 5eb8
000002a0: 4711 9d3a aaa8 e539 a99e 533a f233 8eba
000002b0: 35b4 873a 8520 223a 790c 8238 0bfb 1bb8
000002c0: 79ce e0b9 1fa4 8c37 07d1 fe38 aeff 3139
