checkpoints/RNN_10.pt (torch, 111341 bytes, 9 tensors)

snn.l1.input_weights f4 [20, 416]
00000000: 6616 0fbe 9147 49be 4c42 90be a250 58bf
00000010: 03ca b0be f4cd 70bf 190b 38bf 95e7 6cbf
00000020: 50aa 30bf 4fd8 10be 2973 2abf 1d6d 48bf
00000030: 4625 2cbf 8821 31bf 03ee 35bf ed92 cbbe
00000040: 6c1f 25be 9502 02bf 0e18 08bf ef7b efbe
00000050: a223 47bf 817f c3be b338 0abf a036 d8bd
00000060: 602c 12bf b2a5 0dbd 5230 05bf b267 2cbe
00000070: af23 06bf fc60 0abf 6f5d ffbe 737d 3dbe
00000080: e4d6 81bf 1ba2 37bf e377 24bf fe79 9abe
00000090: 140d f1be 8548 2dbf 1354 28bf 28ae 56bf
000000a0: baca 6ebf 5803 0fbe 7853 56bf 16f5 1fbf
000000b0: 9d66 2ebf b70e 2fbe b31f 2abf 56d2 fabe
000000c0: 5ce7 5fbf 1c46 37bf 605c 3abf 9956 1fbf
000000d0: b066 d43c 6990 c63e 2023 b1bd eaf7 1fbd
000000e0: 7bee 75be 7623 603e 8ea3 563e 8508 1e3e
000000f0: 40c7 84bd 968d 123f 9c21 afbd 94ce f73e
00000100: 67be c33e 0145 dd3e 0d3c 4e3f 5b75 013e
00000110: 6ced e33d 7668 1d3d 4a59 afbd 7595 7c3e
00000120: f505 72bd 0e3d af3e 371e 4f3e e6d1 a53d
00000130: ada2 8b3d 8d95 043e 2cba c6be 3d31 753d
00000140: 49c0 343e 8c1b 6ebb 70c8 abbd ed9e 6a3d
00000150: 1c40 443e 95ec 443e 799f c83e 06ec 833b
00000160: 3b0e 5a3e 23fc 0c3e f32a f0bc e7cb 863d
00000170: a0fc a7be 647f 94be 8318 823e 258e 713e
00000180: 172d c8be aa48 813e bc5a 7d3e d72f 8f3e
00000190: 12aa 563e 864d 9c3c 3183 b23e 0562 db3c
000001a0: 580b 2c3f 2c40 633f f2e3 483f f2e0 5e3f
000001b0: 9424 203f 3a15 6c3f 12af 313f a660 093f
000001c0: ce5f 8f3e ed88 283f cc6e 213f 6945 5c3f
000001d0: d012 7e3f 20e5 393f 42cd d43e 6bac 583f
000001e0: 46cb 3f3f 768b 103f 8cac 403f 0886 613f
000001f0: 84dd 4d3f 57f0 5a3f b055 513f 634e 193f
00000200: 1715 5d3f 04a3 633f 44f2 9b3e 9f5c e63e
00000210: 0134 633f 1061 923f 44d0 6e3f dc1a 573f
00000220: a2c0 613f b3c0 253f 0605 c83d c8e2 673f
00000230: fd47 f53e 060f 8a3f ce22 c63e fae5 283f
00000240: 42d3 173f a1dc 563f 97b2 853f 1db9 8f3f
00000250: 1917 803f 7eff 063f 9fea a53e aecb 513f
00000260: 10c2 673f a0b5 323f 635e f93e 1601 933f
00000270: 6fd8 73bf 5f39 babe 8dfc 1bbf 10ba 38be
00000280: 3fb0 e5be c04f 8bbe 9c8c 4bbe c2c4 1bbe
00000290: e08a 17be 305d d5be 8768 60be a82c 05bf
000002a0: a1b9 82bf 8de2 f5bd 7d0a 9d3d 6643 03bf
000002b0: e4a7 5cbf a7d5 8cbd de0b e9bc b37d 803d
000002c0: 5a61 89be d0c4 b1be 5acc e2be ebe2 32be
000002d0: 2ee3 17bf f542 01bf a67a 2ebf 232c a6be
000002e0: 3bdf dabe 41c2 46bf fa4d 1dbf bc10 ffbe
000002f0: 393f 75be d7f7 9fbe 4b1c 09be 8843 9dbe
00000300: 4669 0c3e 73af 10bf 58a7 97bd 8e9f a0bd
00000310: bdc0 04bf 838d 7dbe aca0 24be 924a debd
00000320: 7ee8 9ebe 10f7 7ebc 4c3f 00bf 78e3 10bf
00000330: 80a2 90be 6323 edbd 813c 663e 3aeb a2be
00000340: f2d8 cbbe b8cc 17bf bddb 92be 0ee9 0abf
00000350: a2c9 9fbd a789 85bd b9d6 40be d401 25bf
00000360: 9212 d4be e161 08be 34f3 fbbe ee0e fa3d
00000370: 25f9 d8bd aa3f 08bf 5dd4 06bd fe0e 6f3d
00000380: 2cf5 d4bd 9397 633d 94cf 30be d700 51bf
00000390: f3e5 50be 5927 77be 11f5 c7bd 9559 b63e
000003a0: 5689 97be f2e2 90be 75fb d5be e4bc 00bf
000003b0: 974c 69be a0cc e3be c483 91be cd2d 52be
000003c0: 461a d8be 4125 9cbe 46b8 dcbe 2516 b4be
000003d0: 48d6 f6be 9b36 8fbe 4e29 86be f8c1 293e
000003e0: 9a19 a93d 4e8b b0be 44cf 8a3c 9b29 0abe
000003f0: 8fc9 7cbe dde0 a6be 5e02 f0bd eade b2be
-0.13973388 -0.19656207 -0.2817558 -0.84498036 -0.34529123 -0.9406426 -0.71891934 -0.92540866
-0.69009876 -0.14145015 -0.6658197 -0.78291494 -0.67244375 -0.6919179 -0.710663 -0.39760533
-0.16125268 -0.5078519 -0.53161705 -0.4677424 -0.77788746 -0.38183215 -0.53992766 -0.10557294
-0.5709896 -0.034581847 -0.52026856 -0.16836432 -0.523982 -0.54054236 -0.49875972 -0.18504886
-1.0143704 -0.7173173 -0.6424543 -0.30171198 -0.4708029 -0.6768878 -0.6575329 -0.8385949
-0.93278086 -0.1396612 -0.83721113 -0.62483346 -0.68125325 -0.17095457 -0.6645462 -0.489886
-0.874624 -0.71591353 -0.72797203 -0.6224151 0.025927871 0.3878205 -0.08649278 -0.03905479
-0.24016754 0.21888527 0.20960829 0.15432937 -0.064833164 0.57247293 -0.08551332 0.48399794
0.38231203 0.43216708 0.8056038 0.12642424 0.11129269 0.0384297 -0.085619524 0.24666388
-0.059087712 0.3422627 0.2022637 0.080966756 0.06818137 0.12947674 -0.38813913 0.05986141
0.17651476 -0.0036332337 -0.0838784 0.05728047 0.19165081 0.19230874 0.39184168 0.004025939
0.21294491 0.13768058 -0.029317355 0.0658186 -0.32809925 -0.2900344 0.25409326 0.2358938
-0.390969 0.2525075 0.24741644 0.27966186 0.20963314 0.019079935 0.34865716 0.026780138
0.6720481 0.88769794 0.78472817 0.8706199 0.62555814 0.9221989 0.6940776 0.536631
0.2800278 0.6583393 0.6305969 0.8604341 0.99247456 0.7261524 0.4156285 0.8463809
0.74919546 0.564628 0.75263286 0.8809514 0.8041613 0.8552298 0.81771374 0.59885234
0.86360306 0.8892062 0.30458272 0.4499254 0.88751227 1.1435871 0.9328654 0.8402536
0.8818456 0.6474716 0.09766583 0.90580416 0.47906485 1.0785835 0.3869843 0.65975916
0.5930673 0.83930403 1.0445126 1.1228367 1.0007049 0.527336 0.32405564 0.81951416
0.9053049 0.6980839 0.48704824 1.1484706 -0.95252126 -0.36371896 -0.60932237 -0.18039727
-0.44861028 -0.27209282 -0.19877857 -0.15211776 -0.1479907 -0.4167266 -0.21914874 -0.52021265
-1.02129 -0.12006102 0.07668016 -0.51274717 -0.8619368 -0.068766885 -0.028448042 0.06273975
-0.26832086 -0.3472047 -0.44296533 -0.17469375 -0.59331024 -0.50492793 -0.68155897 -0.3245555
-0.42748436 -0.7764016 -0.6144711 -0.49817455 -0.23949899 -0.31243774 -0.13389699 -0.30715585
0.13712034 -0.56517714 -0.07404965 -0.07842933 -0.51856595 -0.24761014 -0.16076916 -0.10854067
-0.31036752 -0.015561834 -0.50096583 -0.5659709 -0.28248978 -0.11579015 0.22484018 -0.3182009
-0.39813954 -0.5929675 -0.28683272 -0.54261863 -0.0780213 -0.06520396 -0.1883191 -0.64455914
-0.41420418 -0.13318588 -0.49208987 0.12209879 -0.105943955 -0.53222144 -0.03291737 0.058363907
-0.10398325 0.055564474 -0.17266685 -0.81641906 -0.20400219 -0.24136104 -0.097635396 0.3561522
-0.29596967 -0.28298146 -0.4179341 -0.50288224 -0.22783123 -0.44492054 -0.28420842 -0.20525284
-0.42207545 -0.30497172 -0.4310934 -0.35173145 -0.4821036 -0.27971348 -0.26203388 0.165779
0.08256836 -0.3448128 0.016944535 -0.13492434 -0.24686264 -0.32593432 -0.117192015 -0.34935695

snn.l1.recurrent_weights f4 [20, 20]
00000000: 0000 0000 509e b53f 30c8 77bf 81d7 2f40
00000010: c810 f13f b1af d83f 6350 873f ab84 1940
00000020: 5529 ea3f 93f7 bc3f bd0f ae3f cb96 0740
00000030: a25a a33f 5bec a93f 667a e13f 54a8 a43f
00000040: b4fe 0540 7519 873f cd48 2d40 fa7e 643f
00000050: bfd2 853f 0000 0000 dacb 2f40 df5c 603f
00000060: 69b2 dd3f e560 b53f 0151 0640 eb9c b03f
00000070: d59e 0f40 4b3b d53f f50e d63f 931c e83e
00000080: 3afe 2040 5d3d 1040 675c c63f 2017 fe3f
00000090: ef3b 14bf f095 b03e 26d6 8b3f 0e21 cc3f
000000a0: 30eb 1f3d 4543 0340 0000 0000 e83a f5be
000000b0: 6456 dcbf 3ac6 f4bc 8167 9d3d 31f9 2f3e
000000c0: 2270 333e 870b e23f efb8 403f 15f4 623f
000000d0: 171c e93f fe97 0b40 53b3 c33f 65a9 483f
000000e0: 57a7 e63f 64de 8b3f 9e56 ca3f 0c09 c73f
000000f0: c999 cd3f f6ce 8cbe 42d3 abbf 0000 0000
00000100: ab0a ac3f 6953 013f 47ba 9e3f a286 bb3f
00000110: 2d09 593f 9bb2 063f 5a70 a53f 4b04 6a40
00000120: cf6a ce3c d3b8 fe3e efe5 5b3e f95c 1e3f
00000130: 3766 a23f 6d62 0d3f fadb da3f 1042 cb3e
00000140: 48df bf3f effc a03f ef8a b4bf 718e 1540
00000150: 0000 0000 6a6a 9b3f db4b 843f fddd 9e3f
00000160: 13c3 c83f 39e7 443f e315 a93f f388 d63f
00000170: 4bdf b53f 7843 413f 0643 62be 2def aa3f
00000180: 5d87 9dbf cc2a 663f 1062 a13f d93a 9c3e
00000190: fa5c ab3f d062 d43f f209 ab3f 5590 c93f
000001a0: cad8 0740 0000 0000 b0c7 883f 7ee7 cf3f
000001b0: 8de0 1240 b61c 8d3f 06ba cf3f f45c 973f
000001c0: d92b 0a40 c90f 1940 ea0e ca3f 2d2a 8b3f
000001d0: bb40 a63f e294 a43f 86fc af3f 55ac 903f
000001e0: aebb 823f 31d5 1b40 a718 5a3f 7c4c 6c3f
000001f0: 95df f13f 7acc e83f 0000 0000 1837 ba3f
00000200: d958 0040 ec97 d53f 685c 863f 4d59 5e3e
00000210: 3216 ce3f 7abc c63f 2bd2 173f f9a3 993f
00000220: f6cc ec3d 2637 973f f6eb 483f 987a bd3f
00000230: 9da2 0540 dea9 a33f b243 8fbe 738f 2040
00000240: 9bc2 cb3f 51bf d23f acaf 833f 0000 0000
00000250: 81e5 bd3f 8af7 5a3f d515 b73f 6efe 1c40
00000260: fe10 893f 4eb4 cd3f 187d d93f 8d44 f43f
00000270: cc2f 1040 3099 893f 81dc e63f 169c bc3f
00000280: 8cc1 563d b4ce b83f 77f6 7e3e f4d7 ff3f
00000290: 4833 1540 6639 593f a447 a83f a435 923e
000002a0: 0000 0000 3c09 5d3e 6969 f93f 766a f33d
000002b0: cde3 0840 906a 9a3f 9610 93be 09b4 853f
000002c0: d340 adbf de60 8ebe 80fe 6c3e 194b ed3c
000002d0: 99e1 083f c67b e33f 57ba 0f40 a566 443f
000002e0: ac5f 1d3f b0c2 9c3f 0ef7 463f 3209 893f
000002f0: 8afc fd3f 0000 0000 520f 0040 6d9e 763f
00000300: 3d89 db3f 784f 1340 0915 fd3f 08cf 373f
00000310: da9d fe3f d35d f63f 2093 e03f 2218 f73f
00000320: dbb6 7a3f 607d d03f 5f33 1940 56e4 c13f
00000330: 496c 2640 5da3 c23f 5c90 b23f 8453 943f
00000340: 2848 0f40 23d7 dc3f 0000 0000 de9d 453f
00000350: f217 2640 e4dd d23f a04a 163f 746e f03e
00000360: ddfd 9f3e 287c 8f3f 3214 523f aa32 9c3f
00000370: caf6 c83f 24b6 69bf fc9c ce3e de09 3840
00000380: 4e55 94bf c24b 133f 8f0c fdbe c833 8a3f
00000390: a746 60bf d98f 603e 844e e4be 0000 0000
000003a0: 535b 8cbf 717a 5e3f f633 b83f 4790 f03e
000003b0: 6a23 2040 b853 6a3f 02d0 1340 99ae 623f
000003c0: 47f6 1c3f e8a7 0d40 afe4 a83f 2eef 9e3f
000003d0: fafc 1040 c731 d43f d91e aa3f c291 8e3f
000003e0: bc99 3240 9688 983f f902 3440 abf3 1e3f
000003f0: 0000 0000 b239 1a40 f517 cfbd 4459 923f
0.0 1.4188938 -0.96789837 2.7475283 1.8833246 1.6928617 1.0571407 2.3987224
1.8293864 1.4763054 1.3598553 2.1185787 1.2762034 1.3275255 1.7615478 1.286387
2.0936708 1.0554644 2.7075684 0.8925625 1.045494 0.0 2.746817 0.8764171
1.7320071 1.4170195 2.098694 1.3797888 2.2440693 1.665872 1.6723315 0.453343
2.5155168 2.2537453 1.5496949 1.9850807 -0.5790395 0.34489393 1.0924728 1.5947587
0.03904265 2.0509808 0.0 -0.47896504 -1.7213864 -0.029879678 0.076857574 0.17184903
0.17523244 1.7659768 0.75282186 0.8865369 1.8211697 2.1811519 1.52891 0.78383476
1.8019818 1.0927243 1.5807683 1.5549636 1.6062557 -0.2750165 -1.3423846 0.0
1.3440756 0.505179 1.2400597 1.4650462 0.84779626 0.5261628 1.2924912 3.656512
0.025197415 0.49750385 0.21474431 0.61860615 1.2687443 0.5522831 1.7098382 0.3969884
1.4990015 1.2577189 -1.4104899 2.336819 0.0 1.214185 1.0335649 1.2411495
1.5684532 0.7691532 1.3209804 1.6760544 1.4208769 0.75493574 -0.2209588 1.3354241
-1.2306935 0.8990905 1.2608051 0.30513647 1.3387749 1.6592655 1.336241 1.5747172
2.1226068 0.0 1.068594 1.6242521 2.2949555 1.1024387 1.6228645 1.1825242
2.1589262 2.3915884 1.5785801 1.0872246 1.2988504 1.2857935 1.3748939 1.1302592
1.0213525 2.4348872 0.85193866 0.92304206 1.8896357 1.8187401 0.0 1.4548063
2.0054228 1.6686988 1.049695 0.21713753 1.6100523 1.5526268 0.59305066 1.2003165
0.11562531 1.1813705 0.7848505 1.4803038 2.0880501 1.2786214 -0.27981335 2.5087554
1.5918764 1.6464635 1.0287986 0.0 1.4835664 0.85533965 1.4303538 2.4530292
1.0708311 1.607065 1.69913 1.908342 2.2529173 1.0749874 1.8036042 1.4735134
0.052430674 1.4438081 0.24898706 1.9987779 2.331255 0.8485321 1.3146863 0.2855655
0.0 0.21585554 1.9485294 0.1188554 2.1389039 1.206377 -0.28723592 1.0445567
-1.3535408 -0.2780828 0.23143959 0.028966473 0.53469235 1.7772148 2.2457483 0.76719123
0.6147411 1.2246914 0.77720726 1.0705931 1.9842694 0.0 2.000935 0.9633549
1.7151257 2.3017254 1.9772044 0.7180028 1.9891922 1.9247383 1.7544899 1.930424
0.97935265 1.6288261 2.3937604 1.5147808 2.6003592 1.5206105 1.3950305 1.1587987
2.238779 1.7253155 0.0 0.7719401 2.5952115 1.6473966 0.5870762 0.4695927
0.3124837 1.1209764 0.82062066 1.2202961 1.5700314 -0.9129355 0.40354145 2.8756022
-1.1588533 0.5753747 -0.49423644 1.0797052 -0.87607807 0.21929874 -0.44591153 0.0
-1.096537 0.8690558 1.4390857 0.46985075 2.5021615 0.91533995 2.3095708 0.88547665
0.6131329 2.2133732 1.3194789 1.2416742 2.2654405 1.6577691 1.3290664 1.1138232
2.7906332 1.1916683 2.8126814 0.6209056 0.0 2.4097714 -0.10111991 1.1433492

snn.fc_out.weight f4 [9, 20]
00000000: 76f9 74bf aeae b0bf bd41 aabf fe57 28c0
00000010: edf2 8fbf 9d0a 73bf cf57 e5be 5678 56bf
00000020: dc95 d5bf da54 9cbf a745 81bf f044 19c0
00000030: 41c2 87bf a10a bbbf f560 70bf 2d84 44bf
00000040: 9de3 a2bf aa44 2fbf 92fb 81bf 396b 8cbf
00000050: 9e22 efbf 6661 2f3f bf64 0f40 ec35 1cc0
00000060: 62fb 0ec0 3a6a cdbe 3083 46be 28f6 93bf
00000070: c618 a13e 8c49 9b3f c549 663f 4e54 d3bf
00000080: 4e08 263f eb08 443f 6953 393f 4dc9 aebf
00000090: 101c 853d 110f fd3d d268 84bf fd5e 563f
000000a0: b206 9c3f 015e 033f a6c1 b8bf 3fe2 d1bc
000000b0: 3b2f e73f 20b9 e53e c783 6f3f bf96 433f
000000c0: aefa a63f 04b1 62bc 1d73 583f 192b eabf
000000d0: 1aad 283f cd9f 7ebd cee6 62be e7ff 663f
000000e0: 25c2 f8bf 461d 8bbe 8e19 aa3e deb7 203c
000000f0: 05c0 dd3e c1f4 aabe b1bc ab3e 3940 9bbf
00000100: 6f38 6ebf e0af 173f ec87 2d3e 560f 373f
00000110: cddd 2ebf b2d8 1d3f 10e7 f63d 35e2 ef3e
00000120: 57b1 98bb 6917 0e3f 6a71 6f3f 8c78 493f
00000130: e1ce cd3f 592e 823f 2363 753f 87f1 503f
00000140: 7465 a6be 1d2f a13f a252 443f 0140 16c0
00000150: 6761 e23e 9fd0 013f d624 6c3f 2a85 203e
00000160: 28db ef3e 52da 183f 72be 2c3e 9a73 19c0
00000170: 3a9d 9c3f c447 883d cebd 8cbe b456 283f
00000180: 200d e3be 9bc7 9b3e b776 3bbf 5bcc bcbc
00000190: e8b2 b03f a083 a1bf c8f0 c2bf 904c 7b3f
000001a0: 9c8d a53e f02c 56bf 2316 4bbf 01b8 6a3f
000001b0: 7ea4 cfbf 0f68 24bf f307 babf 63f9 c33f
000001c0: 0bf3 a2bf ad22 06bf c5f5 9e3e ff0e 8b3e
000001d0: ef51 d23f 97ac 853e 87d3 883f 7aa6 0fbe
000001e0: 7e7c c1bf ea9c 95bf 0c6a 61bf a521 ee3f
000001f0: 0a1e 43bf aef0 42bf f1ad 5ebf 47d0 a0bf
00000200: 6264 64bf 04d4 b8bf 03d7 a6bf c6cf ba3f
00000210: e389 49bf 7679 c3bf bac6 60bf e9c5 94bf
00000220: 22ff a4bf 9751 9abf 9e08 d7bf e7ba a8bf
00000230: 7211 8ebf 6415 45bf 552c 10c0 1638 1440
00000240: 0a28 623f 1973 f4be 089b 91bf 8b82 d6bf
00000250: f74f 8e3f 56af 87bf c3f7 0a3f 5bd8 543f
00000260: a43b 9fbc 8d72 03bf c600 d4bf 2e1c c7bf
00000270: 164c 32c0 beb9 ccbf 5438 92bf 1cd0 9dbf
00000280: ca74 80bf 6efa eebf bf27 95be 5bff d93f
00000290: 738f 0fc0 5dbe eabf 6116 8ebf 1a51 97bf
000002a0: 9cfc 04c0 7b57 a5bf 1def debf 2145 fd3f
000002b0: 3a54 e9bf 77e0 e5bf 77f8 25bf 974a 5cbf
000002c0: 7b02 073f e803 6bbf 7c6d a9bf 340e 5bbf
-0.9569315 -1.3803308 -1.3301312 -2.6303706 -1.124601 -0.9493807 -0.44793555 -0.8377737
-1.6686358 -1.2213395 -1.0099381 -2.3948326 -1.0606157 -1.4612619 -0.93897945 -0.76764184
-1.2725712 -0.6846415 -1.0154898 -1.0970222 -1.8682439 0.68507993 2.240524 -2.4407911
-2.2340932 -0.40120107 -0.19385982 -1.1559496 0.31464213 1.213182 0.89956313 -1.6510103
0.6485642 0.7657611 0.723929 -1.3655182 0.06499493 0.12356389 -1.0344489 0.8373869
1.2189543 0.51315314 -1.4434097 -0.025620578 1.8061289 0.44867802 0.9356045 0.76401895
1.3045251 -0.013836149 0.8455065 -1.8294402 0.6588913 -0.062164117 -0.22158358 0.90234226
-1.9434248 -0.2717077 0.33222622 0.009809462 0.43310562 -0.33389857 0.33542398 -1.2128974
-0.9305486 0.5925274 0.16946381 0.71507776 -0.6830719 0.61658776 0.120557904 0.4685227
-0.0046598124 0.5550447 0.9353243 0.78699565 1.607876 1.0170394 0.95854396 0.8161854
-0.32499278 1.2592503 0.7668859 -2.3476565 0.44214937 0.50708956 0.9224371 0.15675798
0.4684689 0.5970813 0.16869524 -2.3976808 1.2235482 0.06654313 -0.2748856 0.657573
-0.4434595 0.30425724 -0.7322802 -0.023046663 1.3804598 -1.2618294 -1.5229731 0.981637
0.32334602 -0.8366232 -0.7933065 0.9168702 -1.6222074 -0.6422128 -1.4533676 1.5310482
-1.2730421 -0.5239666 0.31046882 0.2715988 1.6431254 0.26108238 1.0689553 -0.1402835
-1.5116117 -1.1688511 -0.8805244 1.8604017 -0.7621771 -0.761485 -0.86984164 -1.2563561
-0.8921567 -1.4439702 -1.3034366 1.4594657 -0.78726023 -1.5271442 -0.8780323 -1.1622897
-1.289036 -1.2056149 -1.6799505 -1.3182038 -1.1099074 -0.76985765 -2.2527058 2.3159232
0.88342345 -0.47744063 -1.1375437 -1.6758589 1.1118153 -1.0600383 0.54284304 0.8314263
-0.019437619 -0.51346666 -1.6562736 -1.5555475 -2.785894 -1.5994184 -1.142344 -1.2329135
-1.0035641 -1.8670175 -0.29131886 1.7031053 -2.2431304 -1.8339344 -1.110058 -1.1821625
-2.077918 -1.2917322 -1.7416722 1.9786721 -1.8228829 -1.7959126 -0.6483225 -0.86051315
0.5273816 -0.91802835 -1.3236537 -0.8556855

exp_avg f4 [20, 416]
00000000: 8124 0a39 4ba8 02bb 5fb7 0a3b be67 f13a
00000010: 0fc5 9b3a 6a61 083b 7ccc f33b 3277 9f3a
00000020: 9182 a23a 47d0 5a3b 480b 753a 363f 4d3a
00000030: 6ab2 b43a 2a18 5f3b c780 73ba 962f 423b
00000040: 173d 223b 4749 3c3b bdf5 0a3a 9c89 1fbb
00000050: 471b 453b ffd8 a0ba 2912 053a fc69 d4ba
00000060: db4e 143b aa09 853a edab 643a 58e7 3b3b
00000070: 4677 0039 09f6 84b9 66b9 343b cc15 fd39
00000080: 953f b33a 486f be38 4705 7a3b 6489 a63a
00000090: eb8a b438 ebcb 263a f97e 2f3b 07f9 ca39
000000a0: a078 033b 3248 7839 df96 473a 9b0f 083b
000000b0: 9bee 5b3b 9538 433a 7bbc 7b3a ede0 e83a
000000c0: 421a 943b 8af8 6e3b 51df 573a 90ab 0a3b
000000d0: a044 9e3a de22 823a e4a1 e33a 921d e83a
000000e0: 2254 66ba 37c7 423b 4c96 b03b f608 073b
000000f0: 1d59 20bb f8e4 fc3a 8663 c5b8 d758 c43a
00000100: a03c 083b 5eac eaba e71f 04ba f694 2c3a
00000110: 9ac0 cd3a 0f12 883b ea2b f33a 4f1f 133b
00000120: 0a42 e439 1506 80ba a8b2 e439 0768 e4b9
00000130: e9a4 863a 1ee2 73ba ae16 e13a f2dc bb3b
00000140: d405 6c3a e332 713b 713a 8d3b 14e0 a2ba
00000150: e3d5 aeb9 b29f ca3a 5ae4 4cba 125e 5eba
00000160: d691 f936 b59e e53a 7622 1bbb 9a8c e0b9
00000170: 9335 abb9 3d90 9039 528f 3e3b 7fc8 b03b
00000180: 3d53 513b 1125 c33a 03b3 9539 994d 873b
00000190: 6ee9 823b 16d3 df3b 4f09 9dba 7043 593b
000001a0: f112 333b 7856 9aba 23e9 20b9 4cb2 013c
000001b0: e142 a93a fa65 04bb 0c8a e03a 078a 733b
000001c0: 0c03 c7b9 7aae 2c39 a19a 8039 6958 83ba
000001d0: 217c d439 bb51 75ba 018c 4aba 9060 87ba
000001e0: 33ab 403b 380e 893a 02a7 b13b b7a9 3dbb
000001f0: 7f4a bcba d65d 703a a213 9c3a f2f4 6c3b
00000200: 9623 f83a f4de b13a ef8f 9b3a 1563 e13a
00000210: 5934 8639 3ddc f73a c38f e93b c427 71ba
00000220: 74e4 f439 ff7c 3ab9 81dc 7cb8 6549 9bba
00000230: 7de0 9e3a c70d 553b 42cb 133a 9997 813a
00000240: 7275 823b 5244 593b f607 e4b8 2753 cfb6
00000250: 53fd 1ab9 cd19 97ba bf65 513a d793 1e3b
00000260: 940c 853b 1839 fbb9 43c6 e83a 836f ef3a
00000270: ff9f 4d3a 40b0 52bb 7c4e f53a 10cb 9e3a
00000280: 3db1 9b3b e480 dbba 79f5 433b 9c47 453a
00000290: afd6 86b9 be6d 943a 98a0 043b 0102 0bbb
000002a0: 2e33 2d3b f0dc fe3a 240a 1cbb da51 233a
000002b0: 8507 9d3b 4f8e df3b 0447 b43b b5a0 2dba
000002c0: 1478 953a 8077 2c3b 9f9d c639 bcaa 3a3b
000002d0: d9c3 0e3b d220 493b 8bb9 b73a 94ba e0ba
000002e0: 8648 50bb 3c1d 443b 4a3e 0d3b db21 bd3b
000002f0: 17f6 19ba fbc2 69ba ac6e 913a dc44 93ba
00000300: fe2a 5e3a 97c7 1e3b 4515 2a38 d394 ea3a
00000310: fe73 a93b c897 423b dcef cc3a e51b 0a3b
00000320: 2022 9eba 8493 193b 6807 fc3a 68ce 8b3a
00000330: 319e 4c3b 9c21 b5b9 be0f 9a39 ba84 223b
00000340: fb80 803a 252b 913b cd6f 2fb9 73ba 57ba
00000350: 3ae0 8eba a3b0 aa3b 9485 a53b 895d a03a
00000360: b1a0 a63a 69aa 613a b590 b13a a668 433b
00000370: 1020 4b3b a92b 7838 84f8 353a b543 963b
00000380: 2da6 b439 8c21 6e3b 3fa4 2a3b 4263 d43a
00000390: 01dc 273b bdcf 313b c5ce a639 5c58 0d3b
000003a0: afe0 963b b3fe 923a cafb 023b f2c8 a6ba
000003b0: e516 1fbb 2079 293b 5a88 003a 0c4c 593a
000003c0: 16c3 593a 413b 913b 6988 90ba 0f8d 643b
000003d0: 818d 293b c5f1 be3a 6c61 a63b 5d23 0bb9
000003e0: 520c 463b 5dd8 423b a6ce f7ba c7ba 3c3b
000003f0: 67f5 e03b dc88 b3b5 e966 8f3a d5ab d93b
0.00013174304 -0.0019936736 0.0021166427 0.0018417758 0.001188429 0.0020810016 0.007440148 0.001216626
0.0012398531 0.0033388303 0.00093476893 0.00078295486 0.0013786082 0.0034041503 -0.00092889037 0.0029630414
0.002475565 0.00287302 0.00053009 -0.0024343496 0.0030076073 -0.0012271701 0.00050762534 -0.0016205902
0.002263001 0.0010149975 0.00087231287 0.0028671827 0.00012251464 -0.00025360312 0.0027576326 0.0004827216
0.0013675565 9.080634e-05 0.0038150118 0.001270574 8.608944e-05 0.00063627836 0.0026778562 0.00038713982
0.0020060912 0.00023678018 0.0007613729 0.0020761255 0.0033558968 0.0007447091 0.0009602976 0.0017767228
0.0045197317 0.0036464059 0.0008234876 0.0021159388 0.0012074895 0.0009928604 0.0017366973 0.0017709008
-0.00087863405 0.0029720792 0.0053890105 0.0020604706 -0.0024467178 0.0019294312 -9.41223e-05 0.001498009
0.0020788088 -0.0017904153 -0.0005040154 0.0006583476 0.0015697659 0.0041525434 0.0018552516 0.0022449081
0.00043536752 -0.0009767438 0.00043620658 -0.00043565055 0.0010272536 -0.00093034084 0.0017172897 0.005733126
0.0009003554 0.0036804012 0.0043099453 -0.00124264 -0.00033347224 0.001545897 -0.00078160095 -0.00084826455
7.437756e-06 0.0017518612 -0.0023671663 -0.00042829366 -0.00032655578 0.00027573286 0.0029077125 0.0053949947
0.0031940483 0.0014888366 0.0002855287 0.0041291234 0.003995112 0.0068305833 -0.0011980924 0.0033151768
0.0027324522 -0.0011775037 -0.00015345639 0.007916044 0.0012913608 -0.0020202384 0.0017130985 0.0037161128
-0.00037958508 0.00016468196 0.0002452927 -0.0010020855 0.00040528274 -0.0009358187 -0.00077265507 -0.001032846
0.0029398918 0.0010456508 0.00542152 -0.002894027 -0.0014365463 0.0009169256 0.0011907707 0.003615674
0.0018931504 0.0013570474 0.0011868457 0.0017195666 0.00025597474 0.0018910241 0.0071277334 -0.0009199346
0.00046709517 -0.00017784907 -6.0286842e-05 -0.0011847435 0.0012121346 0.0032509433 0.0005637893 0.0009887099
0.0039812857 0.0033152294 -0.0001087337 -6.178761e-06 -0.00014780955 -0.0011528075 0.00079878786 0.0024197006
0.0040603373 -0.0004791699 0.0017759282 0.0018267486 0.00078439707 -0.003214851 0.0018715407 0.0012114961
0.004751353 -0.0016746786 0.0029900952 0.0007525624 -0.00025718423 0.001132421 0.0020237323 -0.0021210911
0.002642821 0.0019444507 -0.0023809755 0.00062301534 0.004792156 0.0068223844 0.00550163 -0.00066233735
0.0011403584 0.0026316345 0.0003788294 0.0028483113 0.0021784215 0.0030689728 0.0014017088 -0.0017145448
-0.0031781509 0.0029924652 0.002155202 0.005771858 -0.0005873157 -0.0008917299 0.0011095605 -0.0011235732
0.0008475034 0.0024227852 4.0550967e-05 0.0017897136 0.005171298 0.002969252 0.0015635449 0.0021073755
-0.0012064613 0.0023433873 0.0019228281 0.0010666372 0.003122222 -0.0003454805 0.00029384898 0.002479835
0.0009804064 0.004430192 -0.0001673095 -0.0008229382 -0.0010900565 0.005209045 0.005051324 0.0012234907
0.0012712685 0.0008608462 0.0013547154 0.0029817014 0.0030994453 5.916847e-05 0.0006941634 0.004585708
0.00034456086 0.0036335913 0.002603784 0.0016203898 0.002561331 0.0027131878 0.00031816043 0.002156756
0.004604421 0.0011214822 0.0019986504 -0.0012724681 -0.002427512 0.002585955 0.00049031305 0.0008289225
0.0008306963 0.0044321124 -0.0011026982 0.0034874117 0.0025871696 0.0014567903 0.0050775316 -0.00013269247
0.0030219746 0.0029731013 -0.001890619 0.0028797851 0.0068651917 -1.3376371e-06 0.0010940704 0.0066427984

exp_avg_sq f4 [20, 416]
00000000: a864 5f38 f3df 6f38 91a2 2338 2a31 ed37
00000010: 403f 2138 ad15 1738 25df 5a38 cd52 c537
00000020: e677 de37 df27 5038 cee3 2838 e477 fd37
00000030: e091 1938 3558 0538 399f 2a38 ca7f 2138
00000040: 993b 3638 d68e 4238 da5a 1b38 c0c1 1138
00000050: 64e8 2c38 2b02 5338 dc0d 4538 7700 2338
00000060: 4843 0138 5c7f 4238 18da 3438 94b0 2138
00000070: 5089 2e38 03be f937 7c4a 2738 ef57 3d38
00000080: 7117 1d38 c716 4438 1bb3 2638 3929 2038
00000090: f344 3638 0250 3b38 d6d3 0a38 107e 1338
000000a0: 66bb f837 bc8f 3238 7c32 1a38 b163 0738
000000b0: 934b 1238 041f 2538 0058 3038 8203 1d38
000000c0: 3c39 2438 da9f 4238 2423 1538 c24f 1338
000000d0: cc3e 7d38 6e3f a338 861d 4638 7a62 5638
000000e0: 0751 8138 8b38 5638 d47a 9338 9179 7f38
000000f0: b645 2d38 867d 6238 b82a 7d38 7172 5b38
00000100: e4e2 3138 e57f 5838 8eca 5438 316e 7638
00000110: 9146 8938 9493 9a38 9772 4238 824a 8b38
00000120: f9d2 9938 6801 7038 f6d4 9338 efdc 9c38
00000130: b574 3838 51a4 4238 fbe5 4738 4e6b 4438
00000140: 40a3 4038 4818 3538 1d27 4d38 d006 7738
00000150: 382c 4538 febc 9938 19bb 5838 2dae 6738
00000160: edce 9738 4d83 2e38 2cde 5d38 5104 8138
00000170: 8fd8 1c38 733c 4a38 2705 7c38 42bb 3638
00000180: 74ac 2638 4d8a 4e38 973e 6538 be1e 8338
00000190: ae56 8d38 306c 8838 23eb 5038 e18b 8438
000001a0: e35a 3f38 576f e638 f520 3f38 0fe8 4838
000001b0: bcaa 7738 4272 4538 53d0 8e38 9db6 d238
000001c0: 967b 5738 a205 b438 2299 7b38 abab 5238
000001d0: b3eb 6e38 a7d9 8438 1ce8 6538 d2e5 7338
000001e0: f624 3d38 37bf ba38 a764 4538 d8a5 6838
000001f0: 58c6 b238 e9df 5538 0c37 7938 c9a2 d438
00000200: a629 2b38 460f 9538 35ef 3f38 1400 4d38
00000210: 442b 7238 86d9 7538 67c6 8438 b731 5438
00000220: 3380 6038 c505 ac38 968e 3238 ad49 7438
00000230: c134 b138 7274 3438 bd6a 7438 5fba e338
00000240: c862 1938 2c56 8d38 0a0b 7e38 b760 7e38
00000250: e729 4d38 32d6 5938 6fae 7238 6d86 8838
00000260: c3c0 6d38 8c1c aa38 7ae8 3038 103a 8238
00000270: c1cb 4a38 dda1 7138 9e5e 3a38 07b1 4538
00000280: 86b1 6238 dfd3 4e38 0f0d 8538 d34f 7a38
00000290: 1dbf 9738 0af0 9338 6fc1 6e38 9f78 4838
000002a0: 37ab 2038 9243 5a38 23e8 5538 31d0 3238
000002b0: a93b 2338 79bf 5f38 2646 8038 b8de 6438
000002c0: 9a47 8a38 6f3c 6838 eb5f 5e38 163d 8938
000002d0: 0dcf 5538 82f0 7a38 003f 5138 ac4d 5a38
000002e0: 848e 2e38 19d2 4d38 5573 5238 8cdd 4b38
000002f0: 980f 4338 9c21 1f38 7055 6838 2546 2a38
00000300: 852e b238 7fde 1d38 e850 8b38 ada7 8238
00000310: 070e 4e38 c8f6 5338 b03b 8538 d1c5 6838
00000320: 740b 6938 7681 7f38 0976 4838 96b8 4538
00000330: 53c7 4938 ce9f 3538 1c7c 6338 02ad 4838
00000340: e374 2b38 a925 7838 bc47 4838 e3f0 3838
00000350: 46a0 7338 ba91 9838 068d 6c38 0c3b 1f38
00000360: 7b1e 3838 922e 7138 b764 3b38 a670 a638
00000370: a8c3 8838 743a 3538 86ee a038 616e 7a38
00000380: 34a1 5f38 e367 aa38 49ca 8038 d94b 1538
00000390: f811 6238 7b7a 8f38 e076 2938 fbbb ae38
000003a0: 581a 5038 ce6e 6e38 35e2 5038 9233 4838
000003b0: 6169 6e38 a79c 3238 558e 9738 69e6 8d38
000003c0: 1ce3 3f38 2eeb 9138 b09b 8038 62fb 2138
000003d0: c1b9 5338 ebd1 7838 06d0 4538 3265 9138
000003e0: 9a87 7838 72c6 5a38 dc34 7038 911d 7438
000003f0: 3119 4f38 ccf8 4538 0e6a 8f38 5a7c 7f38
5.3261087e-05 5.719061e-05 3.901363e-05 2.8275495e-05 3.8444297e-05 3.6021393e-05 5.218307e-05 2.3522787e-05
2.6520294e-05 4.9628197e-05 4.026648e-05 3.0215779e-05 3.66139e-05 3.179182e-05 4.0679446e-05 3.8504404e-05
4.3447686e-05 4.638623e-05 3.7039492e-05 3.4751138e-05 4.1224426e-05 5.030834e-05 4.6981368e-05 3.886266e-05
3.0818657e-05 4.6371817e-05 4.311846e-05 3.8549842e-05 4.1612715e-05 2.9771594e-05 3.988527e-05 4.5143006e-05
3.745355e-05 4.6751255e-05 3.974429e-05 3.8185364e-05 4.3456395e-05 4.4658787e-05 3.309905e-05 3.5164936e-05
2.9651168e-05 4.257237e-05 3.676348e-05 3.2279353e-05 3.4879497e-05 3.936795e-05 4.2043626e-05 3.7434984e-05
3.915395e-05 4.6402078e-05 3.5557096e-05 3.512181e-05 6.0378385e-05 7.7842604e-05 4.7234375e-05 5.111329e-05
6.166292e-05 5.1074236e-05 7.032385e-05 6.0909955e-05 4.1311338e-05 5.39995e-05 6.0359685e-05 5.232025e-05
4.2411397e-05 5.1617524e-05 5.0733383e-05 5.8753594e-05 6.545813e-05 7.370781e-05 4.6359924e-05 6.641915e-05
7.334905e-05 5.722177e-05 7.049173e-05 7.479812e-05 4.397771e-05 4.6406236e-05 4.7659483e-05 4.6829977e-05
4.5928406e-05 4.3176376e-05 4.8912236e-05 5.8895734e-05 4.7009642e-05 7.330811e-05 5.167266e-05 5.5236906e-05
7.238784e-05 4.1607116e-05 5.289742e-05 6.152003e-05 3.7394984e-05 4.821685e-05 6.008628e-05 4.356658e-05
3.9738094e-05 4.924303e-05 5.4656146e-05 6.252293e-05 6.739549e-05 6.505137e-05 4.9810053e-05 6.320305e-05
4.5622593e-05 0.00010987993 4.5568642e-05 4.7899837e-05 5.9048398e-05 4.707487e-05 6.809891e-05 0.00010047595
5.1375093e-05 8.584118e-05 5.998568e-05 5.022778e-05 5.6963134e-05 6.3347914e-05 5.4814023e-05 5.814975e-05
4.5095534e-05 8.904788e-05 4.70622e-05 5.5467564e-05 8.524646e-05 5.099169e-05 5.9417493e-05 0.00010139269
4.0808365e-05 7.1077186e-05 4.5760728e-05 4.887588e-05 5.773759e-05 5.8615136e-05 6.331206e-05 5.059104e-05
5.3525157e-05 8.202674e-05 4.25713e-05 5.824275e-05 8.449844e-05 4.3023792e-05 5.827354e-05 0.00010858918
3.657004e-05 6.739455e-05 6.05686e-05 6.064839e-05 4.8914833e-05 5.1936317e-05 5.785975e-05 6.510024e-05
5.6684727e-05 8.111549e-05 4.217818e-05 6.209698e-05 4.8350314e-05 5.7609624e-05 4.4433975e-05 4.713333e-05
5.404793e-05 4.9311548e-05 6.3443666e-05 5.9678987e-05 7.235839e-05 7.054217e-05 5.692377e-05 4.7796053e-05
3.830643e-05 5.203818e-05 5.099935e-05 4.26324e-05 3.891779e-05 5.3345666e-05 6.116582e-05 5.456686e-05
6.5936896e-05 5.5369394e-05 5.3018255e-05 6.544047e-05 5.097599e-05 5.9828635e-05 4.9888156e-05 5.2047588e-05
4.161756e-05 4.9071477e-05 5.0175313e-05 4.8605303e-05 4.6506146e-05 3.7939855e-05 5.539268e-05 4.0596486e-05
8.496366e-05 3.7638933e-05 6.6431065e-05 6.230115e-05 4.912729e-05 5.0536153e-05 6.353052e-05 5.549734e-05
5.5562195e-05 6.0917308e-05 4.7793645e-05 4.714037e-05 4.810777e-05 4.3302593e-05 5.4236603e-05 4.7844842e-05
4.0878436e-05 5.916288e-05 4.7750524e-05 4.409336e-05 5.808498e-05 7.2750685e-05 5.6398123e-05 3.7963546e-05
4.3897406e-05 5.750225e-05 4.4678072e-05 7.936479e-05 6.521429e-05 4.32082e-05 7.673823e-05 5.9707443e-05
5.3317475e-05 8.125582e-05 6.141194e-05 3.5595007e-05 5.3899334e-05 6.841585e-05 4.040345e-05 8.331981e-05
4.96156e-05 5.6846817e-05 4.9801736e-05 4.7731744e-05 5.6841764e-05 4.25844e-05 7.2267525e-05 6.766321e-05
4.574946e-05 6.9579444e-05 6.132515e-05 3.861951e-05 5.0479317e-05 5.932331e-05 4.7162197e-05 6.932988e-05
5.9254096e-05 5.2160067e-05 5.7269688e-05 5.820167e-05 4.9376107e-05 4.720017e-05 6.8385256e-05 6.091255e-05

exp_avg f4 [20, 20]
00000000: 0000 0000 2bfa 18b9 6b35 abb9 93b1 8939
00000010: f3e9 2bb9 5164 1039 29e3 3638 b172 32b8
00000020: ac11 c738 6897 77b9 0971 56b9 43d8 34ba
00000030: ba61 3c38 071a 85b9 3dff 59b9 595e 1938
00000040: 441e 98b9 55a6 3737 9f37 6db7 4e18 8eb9
00000050: 2d81 e6b8 0000 0000 fe59 7dba 852b 3cbb
00000060: 63fb c4b9 1e9d b1b8 4e23 edb8 44f7 ffb8
00000070: 1ede 0cba c0d7 d8b9 c28b e9b9 117b 0bbb
00000080: 6471 76ba 6333 dfb9 49fa a6b8 21af e4b8
00000090: 8fb7 99b8 3351 9eb8 a7b5 bcb8 d204 86b9
000000a0: a33e 5437 7252 aaba 0000 0000 8044 1abb
000000b0: 9f06 1539 3aa2 0cb8 f7c7 3eb8 53d0 aab8
000000c0: 1310 69ba 4a58 4fba a9ff 21ba ad7d 13bb
000000d0: 6ba7 afba 1e6b 59ba fe2d 5fb9 e01d 6f37
000000e0: 68c3 48b9 90be 2eb9 b93e cbb8 9a73 b5b9
000000f0: 6021 7f38 d495 173a 130c 0e39 0000 0000
00000100: da8b 3236 e745 0039 e32a 2238 62f1 9638
00000110: c387 b639 313f c538 5396 9937 508d feba
00000120: a510 233a 98ce 4d39 8bb7 54b9 5d75 db38
00000130: dd53 95b9 61a2 6037 f81d 7738 9da1 f8b7
00000140: 0c28 a436 0263 93b9 5aa1 8738 05a0 aaba
00000150: 0000 0000 1f62 ecb7 cf32 a7b8 984e 54b8
00000160: 0378 9737 7536 8d38 8378 f9b8 32cb e3b8
00000170: 897f 62b9 0c9b 7139 1b58 5238 7e71 fdb8
00000180: 2c3b f738 f3ea b038 24ee cc38 e97a 98b8
00000190: f455 bd37 6443 1db9 4435 ed38 984b b2b9
000001a0: abce 1bb9 0000 0000 9540 4c36 b236 b2b7
000001b0: fca1 87b6 19b9 5f35 95d7 beb8 05e5 cbb9
000001c0: bdff a0b8 bd66 36b8 b74f 79b6 8619 4d37
000001d0: ab62 c735 155d 9f37 3a6b 4137 e27b aeb8
000001e0: cb29 5ab9 5fea d9b9 c055 7737 e3dc 8aba
000001f0: e3bb cfb9 77c6 27b8 0000 0000 e1a2 2eb9
00000200: 6023 1eb9 2799 86b8 c72f 1bb9 8cc4 46ba
00000210: 5c6b 9db9 1d16 e9b8 f5c7 73b6 6115 e1b8
00000220: 01ff 09b9 c03c 95b7 1f0b 13b9 c86f dcb8
00000230: 8775 8ab8 09bf 7cb9 eb15 19b9 f9c9 56b9
00000240: 7c5d 37b9 5224 0e39 f2dd 6938 0000 0000
00000250: cedb ab38 ae3b 00b9 6d52 efb8 396b 65ba
00000260: daa9 7fb8 34e2 5ab9 9673 05b9 599d a237
00000270: 4e1f 61b9 5126 9c37 aae4 ebb6 a3bc 1db9
00000280: be9b 5337 3579 c6b9 d529 e9b9 4e39 83bb
00000290: 7d61 e9b9 25a4 21b8 600f 91b8 1278 26b8
000002a0: 0000 0000 9d22 eab8 b364 b8b9 27e7 08bb
000002b0: 2c9d f9b9 ad9e fcb8 9bb6 c837 5ccc 50b8
000002c0: e35e 71b8 4918 6738 1b5b 74b7 68d9 1ab9
000002d0: 176a 4038 1a41 22ba a278 88ba 1bb3 beba
000002e0: eda2 07b8 e40c 3438 2cc6 c836 24f6 79b7
000002f0: 11cb dcb9 0000 0000 d509 b6b9 42e4 c4ba
00000300: 0fa0 1dba 559c f2b9 ec3e e6b8 99ae f337
00000310: 779d 6bb8 f285 1bb8 de62 a536 2586 57b9
00000320: df45 d238 8271 8fb9 c27a 11ba 46a3 2ebb
00000330: 203a 2fb9 0925 2738 27e7 5637 28fe 2338
00000340: a08c e2b9 08a4 06b9 0000 0000 1baf beba
00000350: 424f b5b9 2714 2bb9 67bd 39b7 5ae7 6138
00000360: 49b6 d438 44ac 7238 efb8 6a38 04d4 fdb8
00000370: a585 6839 764b 103a cb31 e6b8 deef 94ba
00000380: b24d 153a 6a17 8639 0cf3 4f39 6434 5339
00000390: ce76 003a c289 83b7 94bd f338 0000 0000
000003a0: b9d8 213a f921 1137 f1e9 56b9 1eb9 aa39
000003b0: 338a c6b9 b049 8db7 445b 0239 dd02 dfb7
000003c0: 56a0 03b8 6013 4aba 6051 5fba fe76 57bb
000003d0: cb4f afb9 3db1 9cb8 71b9 cbb8 6099 9ab8
000003e0: ac21 0aba 00e8 a0b9 b897 d0b9 840d 07bb
000003f0: 0000 0000 7615 98b9 11b0 47b8 f7f3 96b8
0.0 -0.00014589044 -0.0003265546 0.0002626298 -0.00016394984 0.00013770281 4.360374e-05 -4.254532e-05
9.492351e-05 -0.00023612159 -0.00020450739 -0.00068986806 4.4913708e-05 -0.0002538713 -0.00020789816 3.656591e-05
-0.0002901425 1.0946377e-05 -1.4139251e-05 -0.0002710246 -0.000109913155 0.0 -0.0009664594 -0.0028712463
-0.0003757133 -8.469283e-05 -0.00011307617 -0.00012205404 -0.0005373674 -0.00041359477 -0.0004454535 -0.002128307
-0.0009401052 -0.0004257216 -7.962116e-05 -0.000109045075 -7.329799e-05 -7.5491516e-05 -8.998374e-05 -0.00025562063
1.2650768e-05 -0.0012994541 0.0 -0.0023539364 0.00014212214 -3.3529686e-05 -4.548576e-05 -8.145035e-05
-0.000889064 -0.00079095794 -0.0006179759 -0.0022505329 -0.0013401335 -0.0008293855 -0.0002128407 1.4252466e-05
-0.00019146281 -0.00016664923 -9.691477e-05 -0.0003460914 6.082782e-05 0.0005782519 0.00013546673 0.0
2.6605471e-06 0.00012233072 3.866375e-05 7.1975184e-05 0.00034814895 9.405462e-05 1.8309021e-05 -0.0019420777
0.0006220437 0.00019627286 -0.0002028627 0.000104645944 -0.00028481978 1.3389247e-05 5.89173e-05 -2.963916e-05
4.892243e-06 -0.00028111791 6.467356e-05 -0.001301766 0.0 -2.8179084e-05 -7.9726444e-05 -5.0617935e-05
1.8056488e-05 6.733547e-05 -0.00011895692 -0.000108620516 -0.0002160055 0.0002304131 5.0149956e-05 -0.0001208512
0.000117888994 8.436097e-05 9.771835e-05 -7.2708186e-05 2.257058e-05 -0.00014997792 0.00011310962 -0.00034007127
-0.00014858942 0.0 3.043596e-06 -2.1244723e-05 -4.042171e-06 8.3343326e-07 -9.100061e-05 -0.0003888981
-7.6770295e-05 -4.3487864e-05 -3.7150292e-06 1.2224895e-05 1.4855372e-06 1.8997622e-05 1.1528662e-05 -8.3200415e-05
-0.00020805669 -0.00041564085 1.47423125e-05 -0.0010594394 -0.00039622103 -4.0000737e-05 0.0 -0.0001665461
-0.00015081232 -6.418145e-05 -0.0001479975 -0.00075823884 -0.00030025363 -0.00011114425 -3.6326212e-06 -0.00010732818
-0.00013160334 -1.7790473e-05 -0.00014023155 -0.00010511238 -6.602244e-05 -0.00024103759 -0.00014599382 -0.00020483871
-0.00017487066 0.00013555706 5.575823e-05 0.0 8.194857e-05 -0.00012229264 -0.00011411761 -0.0008751634
-6.0954924e-05 -0.00020874367 -0.00012726928 1.9385176e-05 -0.00021469334 1.8614492e-05 -7.0301658e-06 -0.0001504296
1.2612842e-05 -0.0003785581 -0.0004447239 -0.004004634 -0.00044513858 -3.8538263e-05 -6.9170026e-05 -3.968931e-05
0.0 -0.00011164437 -0.00035170242 -0.002088973 -0.00047610083 -0.00012045852 2.392689e-05 -4.978139e-05
-5.7547248e-05 5.509731e-05 -1.45647455e-05 -0.00014767575 4.587517e-05 -0.00061895105 -0.0010411928 -0.0014549227
-3.2338245e-05 4.292735e-05 5.9835347e-06 -1.4898866e-05 -0.00042112966 0.0 -0.0003472107 -0.0015021639
-0.00060129253 -0.00046274313 -0.00010978975 2.904916e-05 -5.6175017e-05 -3.7079626e-05 4.928893e-06 -0.0002055397
0.00010026595 -0.00027359655 -0.00055496034 -0.0026647612 -0.00016710954 3.9850394e-05 1.2809213e-05 3.909893e-05
-0.00043210853 -0.00012840342 0.0 -0.0014548035 -0.00034582062 -0.00016315338 -1.1070958e-05 5.3859643e-05
0.00010142901 5.785773e-05 5.596218e-05 -0.00012103471 0.0002217503 0.00055044086 -0.00010976529 -0.001136299
0.00056954764 0.00025575917 0.000198316 0.00020142045 0.0004900516 -1.5680565e-05 0.000116224546 0.0
0.0006173957 8.650583e-06 -0.0002049578 0.0003256285 -0.0003786847 -1.6842823e-05 0.00012431765 -2.6585005e-05
-3.138216e-05 -0.00077085756 -0.0008518901 -0.0032877321 -0.00033438051 -7.471673e-05 -9.7143355e-05 -7.3718606e-05
-0.00052693 -0.00030690432 -0.0003978589 -0.0020607421 0.0 -0.0002900769 -4.7609272e-05 -7.1979994e-05

exp_avg_sq f4 [20, 20]
00000000: 0000 0000 d917 3f36 ecef 4136 f5b6 a037
00000010: 2515 f434 fcf0 cc34 a38f bf34 83f8 7f34
00000020: f542 b235 c915 e435 7448 a735 c099 2d37
00000030: 72c9 4b36 8246 c535 a917 2835 46fd 0f34
00000040: 705e 1935 fa1e b534 2693 eb34 0763 6a35
00000050: 54d9 0635 0000 0000 1df9 b435 b6b1 d337
00000060: 7754 3335 8648 f833 9f47 c733 9d39 6e34
00000070: d1dd 6335 648b 1435 ebd0 e834 2924 3d37
00000080: c9d9 c935 ee01 1635 71cf 7734 fc06 c033
00000090: 63fc 0e35 6381 cf33 dd18 f834 8ada 8a34
000000a0: bd20 5e35 7eb9 4e36 0000 0000 28f6 ba37
000000b0: dfea 6935 d9ff ea34 0b03 d934 632d 0d35
000000c0: 66d1 f235 e931 f135 01e2 b635 d3f3 6a37
000000d0: be3d 6636 6941 e535 ceab 5335 e324 8b34
000000e0: a09a a835 2877 ae34 2ae5 8135 efe6 6335
000000f0: 6b03 ba34 255a 9936 a205 a936 0000 0000
00000100: be1d 1f35 f9c7 3835 6ead 4535 bfbb c334
00000110: d901 0336 33f0 2b36 958c 0236 1c27 1337
00000120: 0e45 9d36 669b 0936 5e6b 6735 6a2a 9c34
00000130: b177 0e35 4387 1235 9fa7 c934 f723 a735
00000140: bec2 3535 140f c036 cf5a 8a36 dfd1 fe37
00000150: 0000 0000 7efd 5335 5f07 5e35 9130 0835
00000160: 407e 5136 f08b 3636 35a4 2a36 fc91 2337
00000170: c226 c936 27ef 2036 7605 5335 a8e4 c534
00000180: e356 be34 1225 0a35 169f 1335 d157 ae35
00000190: eb15 ab34 b879 6035 2643 9c35 3b97 4337
000001a0: ac4a a234 0000 0000 79b0 3833 0f31 1134
000001b0: 8888 eb34 5e7b f134 74d6 9d34 777c bb36
000001c0: 4cb5 7c35 ba3e e334 3b77 5434 a7d3 3c33
000001d0: 9a71 d134 4f30 9633 59af b534 39ce 6634
000001e0: e0f5 ab34 a6c3 8235 a004 5835 af82 f736
000001f0: d551 0735 5bd1 f333 0000 0000 8956 3234
00000200: d78f 2935 b0b4 f234 38ab d834 d7a3 3e36
00000210: 2037 9835 98ac de34 a182 3134 3b42 ba33
00000220: 1d39 4034 07fe ad33 4594 8f34 e287 6934
00000230: 0fde b434 51b1 0736 f532 3636 5518 9637
00000240: 1f14 be34 d286 5034 80b9 3234 0000 0000
00000250: d3be 7935 7255 a135 0ace 5735 1588 2937
00000260: b7a0 1136 2575 8a35 0ac6 e634 d056 9433
00000270: a90c 0335 9eed 4f34 3b47 ca34 bf54 1935
00000280: 7bb7 3d35 39aa f135 739a c635 6acf 2038
00000290: 8f99 9135 c910 8f34 fc2b 7234 1e9d b534
000002a0: 0000 0000 5b68 7635 ccb9 5e35 52e6 5837
000002b0: 607e 0a36 ea4e 6c35 f080 c934 3a10 3234
000002c0: 0cc6 1435 7a0a 5a34 b6a6 1c35 3527 0235
000002d0: 1f53 cd34 0d8d 3f35 a1d5 ae35 455d a137
000002e0: 1564 9b34 5b24 8c33 f5f0 3533 99cd 3634
000002f0: 0232 0d35 0000 0000 3c18 a234 81a0 3437
00000300: 3248 8135 cda2 fc34 650e 7c34 cf62 7f33
00000310: b373 1235 1bf3 8f33 fa00 ef34 4dc1 6934
00000320: 8942 1235 f7a0 2e35 a6a3 5335 ce44 e637
00000330: 3548 1d35 69dd a733 4b65 6b33 dfeb 6e34
00000340: 7268 2735 b359 b934 0000 0000 3dbf 3c37
00000350: 3f7e 6b35 9e6e d934 2f05 6134 2e47 a033
00000360: 86b1 1035 c200 9833 fb9b 0135 6226 5034
00000370: f3d0 2135 c94b 1237 9b6f 3637 c4b9 c737
00000380: df57 6f35 0b37 b135 849e 9535 2084 3a35
00000390: 33d1 4f36 19cc b836 4db9 6e36 0000 0000
000003a0: dd05 1137 0ad0 9336 c487 0536 4d90 0835
000003b0: bc67 b535 4356 a235 40a6 6935 2516 3d36
000003c0: 4e04 1835 760f 8635 f59e 9e35 ffab f337
000003d0: 0772 2b35 fbfc d633 473d a533 6033 8434
000003e0: da44 4335 9a01 0335 87b7 c134 7788 4a37
000003f0: 0000 0000 b38c 0635 0f80 8734 3108 bd33
0.0 2.84751e-06 2.8898894e-06 1.9158682e-05 4.5463926e-07 3.81733e-07 3.5681032e-07 2.3839134e-07
1.328152e-06 1.6993664e-06 1.2463556e-06 1.0347401e-05 3.0366614e-06 1.4698164e-06 6.2619307e-07 1.3410053e-07
5.7134366e-07 3.3736416e-07 4.3879226e-07 8.7315897e-07 5.0235144e-07 0.0 1.3483547e-06 2.5235913e-05
6.680561e-07 1.1561592e-07 9.2796874e-08 2.2186437e-07 8.4886875e-07 5.5337136e-07 4.3365375e-07 1.1273697e-05
1.5039051e-06 5.588216e-07 2.3079134e-07 8.941967e-08 5.3266393e-07 9.662724e-08 4.621169e-07 2.586351e-07
8.2749085e-07 3.0804363e-06 0.0 2.2287553e-05 8.7141046e-07 4.377205e-07 4.0421614e-07 5.259264e-07
1.8091348e-06 1.7970425e-06 1.3625832e-06 1.4004257e-05 3.430861e-06 1.7080866e-06 7.8853634e-07 2.5917606e-07
1.2561977e-06 3.2496723e-07 9.677944e-07 8.490014e-07 3.4647687e-07 4.5702495e-06 5.0372482e-06 0.0
5.9275396e-07 6.883634e-07 7.364059e-07 3.6458184e-07 1.9521597e-06 2.56208e-06 1.945334e-06 8.770989e-06
4.6870036e-06 2.0505045e-06 8.6210446e-07 2.9088125e-07 5.3073296e-07 5.458607e-07 3.7561128e-07 1.2452937e-06
6.771114e-07 5.723801e-06 4.123292e-06 3.0376888e-05 0.0 7.8972505e-07 8.271217e-07 5.073462e-07
3.1216914e-06 2.7201568e-06 2.5427555e-06 9.749547e-06 5.994779e-06 2.3981063e-06 7.861157e-07 3.686048e-07
3.5453476e-07 5.146295e-07 5.499327e-07 1.2989568e-06 3.186718e-07 8.3623627e-07 1.1642448e-06 1.1658117e-05
3.0229182e-07 0.0 4.300134e-08 1.3522025e-07 4.38715e-07 4.497951e-07 2.9399564e-07 5.587524e-06
9.414114e-07 4.2327684e-07 1.9787414e-07 4.3964658e-08 3.901194e-07 6.9937066e-08 3.384146e-07 2.1495443e-07
3.203013e-07 9.742696e-07 8.0473e-07 7.376387e-06 5.04105e-07 1.1353651e-07 0.0 1.6609023e-07
6.316672e-07 4.520748e-07 4.0357713e-07 2.8407574e-06 1.1340926e-06 4.14763e-07 1.6531932e-07 8.673347e-08
1.7902171e-07 8.1021476e-08 2.6743706e-07 2.174925e-07 3.3689182e-07 2.021978e-06 2.7149774e-06 1.7892724e-05
3.5404898e-07 1.9420557e-07 1.6645026e-07 0.0 9.3037414e-07 1.2020303e-06 8.039357e-07 1.0104869e-05
2.1700232e-06 1.0315895e-06 4.298493e-07 6.907578e-08 4.8819726e-07 1.9364822e-07 3.767726e-07 5.7120263e-07
7.0674986e-07 1.800544e-06 1.47971e-06 3.8340142e-05 1.0848033e-06 2.6648038e-07 2.2554008e-07 3.3828195e-07
0.0 9.1794e-07 8.2971815e-07 1.2928229e-05 2.0637162e-06 8.8031686e-07 3.7532982e-07 1.6583445e-07
5.542249e-07 2.0306643e-07 5.8357125e-07 4.848583e-07 3.8244704e-07 7.13583e-07 1.3026184e-06 1.9236128e-05
2.894382e-07 6.525871e-08 4.2361496e-08 1.7024867e-07 5.2599364e-07 0.0 3.0192484e-07 1.0766206e-05
9.632261e-07 4.705711e-07 2.3474566e-07 5.946168e-08 5.4557603e-07 6.703177e-08 4.451793e-07 2.1770138e-07
5.448606e-07 6.5054286e-07 7.8841765e-07 2.7450176e-05 5.859213e-07 7.816818e-08 5.4807327e-08 2.2251287e-07
6.2364336e-07 3.45242e-07 0.0 1.1250199e-05 8.7728034e-07 4.0499884e-07 2.0956644e-07 7.463528e-08
5.390251e-07 7.0781894e-08 4.8283226e-07 1.9385473e-07 6.0281235e-07 8.719923e-06 1.08740305e-05 2.3809152e-05
8.916231e-07 1.3203547e-06 1.1147499e-06 6.9482667e-07 3.0967174e-06 5.5073874e-06 3.5572623e-06 0.0
8.644039e-06 4.4051603e-06 1.989757e-06 5.0873933e-07 1.3515742e-06 1.2095046e-06 8.704119e-07 2.8176084e-06
5.6630677e-07 9.988278e-07 1.181818e-06 2.904795e-05 6.3868396e-07 1.00111684e-07 7.6945575e-08 2.4624296e-07
7.2743353e-07 4.8803633e-07 3.6082585e-07 1.2071911e-05 0.0 5.0123634e-07 2.5238884e-07 8.802488e-08

exp_avg f4 [9, 20]
00000000: 7918 81b8 18c9 6339 b867 4a39 b947 433a
00000010: d860 5938 4a92 d937 9108 1fb7 41fb dcb7
00000020: 6d89 8039 f8c1 0539 1e3e 0939 d150 1d3a
00000030: b217 4a39 cf0f 5c39 0eca 8a37 44f1 4637
00000040: 8721 3a38 4670 d137 241b adb8 77d0 ca38
00000050: 0bdd 933a 5e50 4bbb 2408 b3bb dabe 5239
00000060: 97cf 353a 9f8c 83b8 bd02 9739 c79d 943a
00000070: f069 2bbb 3d58 4ebb 6828 32bb 35d0 9f37
00000080: 10a5 39bb a5d7 43bb c116 43ba c639 953a
00000090: 8583 ec39 031a 8839 8937 173a 27aa f3ba
000000a0: 9cc1 dcba 7f88 953a 3cec 1f3b e66b 803a
000000b0: 7f21 21bb ec03 b8b9 c54f 33ba 6b12 abba
000000c0: b251 1aba d398 773a 1873 4eb9 2c72 9a3a
000000d0: b499 b83a e0f3 b339 518a 1ab8 2e97 95ba
000000e0: 5892 713a 873f f939 2d14 2cba 2c7e e1b9
000000f0: 6795 be3a 1785 713b af15 243b e8df de3b
00000100: 04ff 373b 8d17 a33a 8e88 983a 289d 333a
00000110: 5976 0b3b ef45 093b 7765 003b 1ccb 583b
00000120: bc70 583b 8740 e63a 6b04 dcb8 dfdc a63a
00000130: 5b52 b0b9 e35f 2bb9 02fa d339 dd4c 4e3a
00000140: a986 b2ba 132a 8cbb 5212 85ba d824 80ba
00000150: 255b fcba 5dc6 c8ba 5ce3 b7ba d684 c1ba
00000160: 10d0 5eba 386f d6ba ccfb 7bba 2004 a139
00000170: c6d9 8bbb 7299 a7ba 21e2 9538 0992 efba
00000180: c2a5 c2b9 eba8 97ba 95c6 63ba 99be 07ba
00000190: cea6 bdb9 1582 9f39 ef9b 0c3a 835f 993b
000001a0: e85c ca39 674a ba39 180d d239 fb57 4ab8
000001b0: 58af c53a 9a62 b338 d8a2 843a e629 4d3b
000001c0: 349a 6e3a e640 ef39 6162 9d38 2883 34b7
000001d0: 383c 82b9 3821 0139 710d 4237 306a e839
000001e0: cc00 de39 37e4 7c39 3667 b839 15d2 84bb
000001f0: 9305 b4b8 ae3b c438 c084 e8b7 8654 2d39
00000200: 0f99 80b8 9fbe 0c3a 1b18 ef39 4575 33bb
00000210: defe 7239 858f d139 fb26 6039 7776 3739
00000220: 3722 9239 24ec 0839 c6ee ef39 4729 003a
00000230: edfd b23a d9da bb3a 88dc b13a 5101 1cbb
00000240: 58ae 2a39 8b9d f938 f530 5e39 291e 9f3a
00000250: 9634 28ba ac13 843a ef5c 54b9 9535 8a3a
00000260: beb7 5d39 fb55 8d3a 428e 5e3a 7970 1b3a
00000270: a51b a43a 3b91 d339 f496 7b3a f748 833a
00000280: 145a 6cba 7895 bb39 6dc4 6cba 5e7d c4bb
00000290: 9902 c139 0222 e138 0419 7b38 7b5c b3b9
000002a0: 6e94 653a 2ff7 4cb7 5d9a 083a f8c3 e0bb
000002b0: 621e 5d3a eace bf37 ca2d b2b9 70ca 5db9
000002c0: 1989 02bb dcd2 cab8 e24c 52ba 184b 31b7
-6.155758e-05 0.0002172332 0.0001930286 0.0007449347 5.1827024e-05 2.5936537e-05 -9.479133e-06 -2.6343043e-05
0.00024516453 0.00012756127 0.00013088479 0.0006001117 0.00019273048 0.00020986724 1.6544971e-05 1.1857894e-05
4.437708e-05 2.4967023e-05 -8.254338e-05 9.67094e-05 0.0011281086 -0.0031023244 -0.005463617 0.00020098258
0.00069355353 -6.2727595e-05 0.00028803005 0.0011338525 -0.0026155673 -0.00314857 -0.0027184729 1.9051231e-05
-0.0028327145 -0.0029883173 -0.000744205 0.0011385016 0.00045111417 0.00025959322 0.0005768468 -0.0018590138
-0.0016842368 0.0011408477 0.0024402281 0.0009797781 -0.0024586616 -0.00035098137 -0.00068401947 -0.0013051754
-0.00058868073 0.0009445075 -0.00019688567 0.0011783293 0.0014083893 0.00034323242 -3.684528e-05 -0.0011412853
0.00092152273 0.00047540313 -0.0006564286 -0.0004300935 0.0014540375 0.003685301 0.0025037338 0.006801594
0.0028075585 0.0012442932 0.0011637376 0.0006851726 0.0021280257 0.0020946225 0.0019591728 0.0033080047
0.003302618 0.0017566838 -0.000104912404 0.001273062 -0.00033630696 -0.00016343551 0.00040431326 0.000786973
-0.0013620454 -0.0042774766 -0.0010152555 -0.0009776605 -0.0019253237 -0.0015317906 -0.001402955 -0.001476432
-0.00084996317 -0.001636005 -0.0009612411 0.00030711386 -0.004267904 -0.0012786819 7.1469934e-05 -0.0018277775
-0.00037126063 -0.0011570727 -0.0008688954 -0.00051782426 -0.00036173168 0.00030423762 0.0005363812 0.0046805753
0.00038597663 0.0003553212 0.00040064077 -4.824249e-05 0.0015082164 8.553751e-05 0.0010119332 0.003130549
0.00091019575 0.00045633985 7.504668e-05 -1.0759373e-05 -0.000248404 0.00012314774 1.1566431e-05 0.00044329604
0.00042343733 0.0002411761 0.00035172113 -0.004053364 -8.584107e-05 9.3571245e-05 -2.7718372e-05 0.00016530053
-6.132025e-05 0.0005368981 0.00045603592 -0.002738313 0.00023173864 0.00039970517 0.00021376826 0.00017496372
0.00027872782 0.0001305794 0.00045763532 0.00048889633 0.0013655998 0.001433219 0.0013569752 -0.0023804496
0.00016277411 0.0001190259 0.00021189808 0.0012139726 -0.00064165273 0.0010076663 -0.00020252516 0.0010544533
0.00021144652 0.001078307 0.0008489826 0.00059295405 0.0012520446 0.0004035326 0.0009597384 0.0010016252
-0.0009016108 0.00035778782 -0.0009031955 -0.0059963902 0.00036813764 0.000107351705 5.986636e-05 -0.00034210444
0.00087577745 -1.2216899e-05 0.000521099 -0.006859299 0.00084350083 2.2865326e-05 -0.0003398492 -0.00021151616
-0.0019918142 -9.671386e-05 -0.00080223207 -1.0567506e-05
