checkpoints/RNN_182.pt (torch, 111359 bytes, 9 tensors)

snn.l1.input_weights f4 [20, 416]
000000 6e 39 bd bc e5 6a 2d 3f a3 58 7c 3e bb 9f 52 3e
       -0.023098674 0.67741233 0.24643187 0.20568745
000010 8f 23 0e bf 7b 44 b2 3e 11 06 29 be 5e a7 fc 3e
       -0.5552301 0.3481787 -0.1650622 0.4934644
000020 3f 41 05 bd 3b 1e 2e 3f 44 02 ab 3e 01 46 25 be
       -0.032532927 0.6801488 0.33400166 -0.16139986
000030 3a a5 d8 3c 0c 2b 2c bf 5c a1 ed 3e 5d 58 8c 3e
       0.026445974 -0.67253184 0.4641217 0.27411166
000040 c2 12 e0 be 0c 42 1c be c8 f5 db bd ce 9f 39 be
       -0.4376431 -0.1525957 -0.107402384 -0.18127367
000050 73 6d 00 3f 0d d7 f7 bc e5 75 81 3e ca 20 ff 3e
       0.50167006 -0.030253911 0.2528526 0.49829704
000060 0e 82 9b 3e 7c e7 08 3f 66 cd 90 3d 1c 1c af 3e
       0.3037266 0.5347822 0.07070427 0.34201133
000070 dd ef 12 3f 06 ae cf bd 42 4e 26 3f c2 81 40 3f
       0.5739725 -0.10140614 0.6496316 0.75197995
000080 3f d6 90 3e 59 a3 ac be e3 00 b7 be 2b 9e 8f 3d
       0.28288457 -0.33718374 -0.35742864 0.0701259
000090 44 bd 7b 3f c9 74 1b 3e a0 fb b1 be 5d 45 79 3e
       0.9833567 0.15181269 -0.34762287 0.24342866
0000a0 0c 5e a0 be 8c e1 41 3f 21 3c aa bd c9 6a 3b 3f
       -0.31321752 0.7573478 -0.0831225 0.73209816
0000b0 71 1a 29 3f 08 64 b8 3e 5c cf 18 3f 76 6b 4f 3e
       0.6605597 0.36013818 0.59691405 0.20255837
0000c0 47 70 97 3e eb ee 45 bf 37 49 f1 bd da 7b 1c 3d
       0.29577848 -0.77317685 -0.11781543 0.03820405
0000d0 0e 21 a6 3f 1a 8c 79 3f 02 f4 23 3f e0 47 92 3f
       1.2978837 0.97479403 0.640442 1.1428185
0000e0 8c 9b 55 3f 67 b2 7d 3f 1f ad a3 3f c7 24 b1 3f
       0.8344047 0.99100345 1.2787207 1.3839349
0000f0 3f 87 af 3f 98 dd 26 3f c0 e5 ad 3f 6c 8d 55 3f
       1.3713149 0.65181875 1.3585739 0.8341892
000100 aa 74 ba 3f 1a be b7 3f 14 6f a7 3f 9d 18 ce 3f
       1.4566853 1.4354889 1.3080773 1.6101261
000110 09 99 aa 3f 3d 32 56 3f 9a 9d 87 3e 84 99 04 3f
       1.3327953 0.8367041 0.26487428 0.51796746
000120 73 90 8a 3f 1c 41 a7 3f 79 88 62 3f 69 e5 84 3f
       1.0825332 1.3066745 0.8848949 1.038251
000130 6c e6 b0 3f 46 40 37 3f 88 5e ba 3f 51 c9 6e 3f
       1.3820319 0.7158245 1.4560099 0.93275934
000140 12 5f c5 3f ee 33 bd 3f 08 8d 78 3f fe 31 c9 3f
       1.5419638 1.4781473 0.97090197 1.5718381
000150 3f dc 98 3f 0e d5 83 3f 68 a6 27 3f 1e 00 5e 3f
       1.1942214 1.0299394 0.6548829 0.8671893
000160 9b 2f 6f 3f 38 fb 83 3f d7 3c 84 3f 2e 4c a4 3f
       0.93432015 1.0311041 1.0331067 1.2835748
000170 a5 33 ca 3f 4f a3 8a 3f 77 4e 90 3f d3 00 6d 3f
       1.5797011 1.0831088 1.1273946 0.9257938
000180 15 ac 70 3f a3 0f d1 3f ee f0 71 3f d8 9f cd 3f
       0.94012576 1.6332897 0.94508255 1.6064405
000190 22 48 12 3f 05 92 8d 3e c9 0d 85 3f 3b 66 9b 3f
       0.57141316 0.27650467 1.0394832 1.2140573
0001a0 de 04 12 40 41 a4 0a 40 22 93 d5 3f fe 3d d9 3f
       2.281547 2.1662753 1.6685526 1.6972044
0001b0 73 5f 0d 40 a5 30 2a 40 67 de bd 3f b5 8b 17 40
       2.2089508 2.659219 1.4833497 2.367902
0001c0 00 5f ad 3f 19 14 02 40 0c 19 1a 40 0f ee 27 40
       1.3544617 2.0324767 2.4077787 2.623905
0001d0 b5 d6 16 40 aa 92 e8 3f f6 ff c2 3f 17 e4 06 40
       2.3568547 1.8169758 1.5234363 2.1076715
0001e0 72 4f 0b 40 15 0d ee 3f d8 1c eb 3f 59 e4 fb 3f
       2.176724 1.8597742 1.8368177 1.9679061
0001f0 38 4a 0c 40 75 93 07 40 4b b1 d2 3f 59 f5 e1 3f
       2.19203 2.118375 1.6460356 1.7652999
000200 17 3f bc 3f 92 58 04 40 48 3c 14 40 2b 7d 31 40
       1.4706753 2.067906 2.3161793 2.7732646
000210 3c 4c 1c 40 c8 c6 d7 3f ed 86 c6 3f 4d 30 b1 3f
       2.442153 1.6857538 1.5509926 1.3842865
000220 9d 7d 0a 40 be cd fd 3f f4 ab d0 3f e5 a7 02 40
       2.1639168 1.9828413 1.6302476 2.0414975
000230 fc 57 fc 3f 66 4a de 3f af 59 ee 3f 1e 06 ec 3f
       1.9714351 1.7366455 1.8621119 1.8439367
000240 07 6a b8 3f ac 9d 1f 40 64 0c 17 40 39 57 4a 40
       1.4407357 2.4939985 2.3601313 3.1615736
000250 66 59 26 40 23 aa cf 3f 6b 68 b8 3f bf 07 e0 3f
       2.5992064 1.6223797 1.4406866 1.7502364
000260 3c e0 1d 40 5e a7 ea 3f 6a c1 d1 3f eb b1 25 40
       2.4668112 1.8332326 1.638715 2.5889843
000270 fe 1a cb be 29 48 ee 3e e3 ee 06 3f 44 83 8d 3e
       -0.3966903 0.4653943 0.5270826 0.2763921
000280 a9 aa 1c 3f 7e b0 c8 3d a9 11 5f 3f 96 11 b4 3f
       0.61197907 0.09799288 0.8713632 1.4067867
000290 78 0f 82 3f c2 1f 1b 3f 2f 66 68 3f c5 16 50 3f
       1.0160971 0.60595334 0.9078092 0.81284744
0002a0 a1 cb 20 3f d0 79 a2 3e 6f bf be 3e 76 e9 24 be
       0.62810713 0.3173356 0.37255427 -0.16104683
0002b0 7c d1 37 be b7 68 d7 3e 03 b8 ac 3d 91 fa 7f 3e
       -0.17951006 0.4207208 0.08433535 0.24997927
0002c0 1c f7 70 3e 7d 12 c4 3d 94 1d 8f 3f ca 96 84 3f
       0.23531765 0.09573839 1.1180902 1.0358517
0002d0 54 d2 3c 3f ad 7d 31 3d ff 27 38 3e 39 18 71 3f
       0.73758435 0.043332744 0.17984007 0.94177586
0002e0 4c 74 59 3f 89 6d 98 3e b4 72 6c 3f 05 0d 1b 3f
       0.8494308 0.2977107 0.92362523 0.6056674
0002f0 6c c4 1c be 7d ad 56 3e 14 01 fd 3e 8d 90 b6 3e
       -0.15309304 0.20964618 0.49414885 0.35657158
000300 ce f9 32 3e 17 f4 87 be 6a 5a 98 3f be 78 70 3f
       0.17478105 -0.26553413 1.1902592 0.9393424
000310 b9 db 3a 3f 0d b1 b2 3e 65 5d 0f 3e 4e fe 61 3f
       0.7299152 0.34900704 0.14000471 0.88278663
000320 c5 0a 0b 3f 1d c1 dc 3e 57 4c 5e 3f 11 64 2a 3f
       0.5431331 0.43116084 0.86835235 0.6655894
000330 e0 4a e6 3e 87 a8 1b 3f 39 7f 10 3e 1e ca 1d 3f
       0.44979 0.6080403 0.14111032 0.6163653
000340 18 8d 2f 3d 38 8a cd 3e 96 1f a0 3d c8 be 4b bd
       0.042859167 0.40144515 0.078185245 -0.04974249
000350 18 3f ad 3e 1f bf de 3d 31 e3 25 bf 8d 13 3f 3d
       0.338372 0.10876297 -0.6479979 0.046649504
000360 f8 f9 34 be c1 77 09 3d e1 03 54 3e e0 6d bf be
       -0.1767348 0.03356147 0.20704605 -0.37388515
000370 55 c7 9b 3e 86 19 17 bf 2c ec 27 bf 60 04 d4 be
       0.30425516 -0.5902332 -0.65594745 -0.41409588
000380 33 e0 3c be 93 4b 36 3f dc b3 bf bd 72 c1 6e bd
       -0.184449 0.7120907 -0.09360477 -0.058289953
000390 4c 8e 26 3f e0 11 5d be e8 ba 7b bf 36 fc 7b 3e
       0.6506088 -0.2158885 -0.9833207 0.2460793
0003a0 11 b7 d9 be 34 dc f2 bd a9 19 82 3d f6 74 ed bd
       -0.4252248 -0.11858407 0.063525505 -0.11594574
0003b0 31 2b fd 3e 83 56 47 3e b2 0c 9c be 33 25 e0 be
       0.49447015 0.19466595 -0.30478436 -0.4377838
0003c0 70 80 36 be fd 08 0d be 79 16 ac 3d 43 d1 b2 be
       -0.17822433 -0.1377296 0.08402724 -0.3492528
0003d0 98 ce 07 3f 34 21 39 bf 79 9d 11 bf e7 a0 54 3f
       0.5304961 -0.7231629 -0.5688091 0.8305802
0003e0 b0 ad 81 be 43 10 90 3d dc c9 11 3e 65 b6 0a bf
       -0.25327826 0.07034352 0.1423716 -0.5418456
0003f0 ef 1a 57 bd 5e 46 9b 3e 03 43 eb be 0a 84 15 bf
       -0.05251592 0.30327123 -0.45949563 -0.584046

snn.l1.recurrent_weights f4 [20, 20]
000000 00 00 00 00 ba 6a 91 40 d2 3b 7c 3f 56 13 a1 40
       0.0 4.544278 0.9852878 5.0336103
000010 35 02 af bd 78 b4 ca bf 83 64 da be 0a b1 6a c0
       -0.08545343 -1.5836325 -0.4265481 -3.6670556
000020 a3 a8 be 40 ae af 34 40 e5 b0 56 40 45 d5 cd 40
       5.9580855 2.8232226 3.3545468 6.432284
000030 64 b5 ce 40 1d b7 5b 40 dc 9d db bf 66 64 6d 3e
       6.4596424 3.4330513 -1.715755 0.2318283
000040 51 a2 a9 40 41 9c a7 c0 44 44 06 40 75 78 52 3f
       5.301064 -5.237824 2.0979166 0.8221505
000050 ce 5f fc 3c 00 00 00 00 42 08 82 41 71 36 25 41
       0.030807402 0.0 16.254032 10.325791
000060 54 a5 55 c0 4f 09 cc 40 90 2f 63 41 77 55 c3 c0
       -3.3382158 6.3761363 14.199112 -6.1041827
000070 67 a0 d0 40 db 7e 82 40 77 7b 64 40 09 03 2f 41
       6.5195804 4.0779853 3.5700357 10.938241
000080 9e 57 53 41 db e2 94 40 d5 6a b8 3e d9 7c e9 40
       13.208891 4.6526923 0.36019006 7.29649
000090 4f ae 95 bf 73 f1 81 40 19 a0 99 3e 38 fa f2 3f
       -1.169382 4.060724 0.30004957 1.8982611
0000a0 40 5a 0f 3f 33 2b ea 40 00 00 00 00 b9 90 04 41
       0.55997086 7.3177733 0.0 8.285333
0000b0 6b 1e 54 c0 43 97 c6 40 95 ae 1e 41 14 cd 12 c0
       -3.3143566 6.2059646 9.917623 -2.293767
0000c0 9b 1e 04 40 c4 26 96 40 bd 5d f5 3f c0 dc 28 41
       2.064368 4.692232 1.9169232 10.553894
0000d0 fd ef 13 41 68 fe 82 40 d9 e9 8f 40 d7 e5 be 40
       9.246091 4.0935555 4.497296 5.9655566
0000e0 ab 68 65 bf 16 69 dc 40 3e 2c 33 40 19 fd 3a 40
       -0.89612836 6.887828 2.7995753 2.9216979
0000f0 b5 49 ee 3e f0 4a 60 40 14 7d 1a 40 00 00 00 00
       0.4654061 3.5045738 2.4138842 0.0
000100 c5 94 ee 3e 13 61 09 c0 d0 f2 c6 40 31 3d fe 3f
       0.46597877 -2.14655 6.21714 1.9862424
000110 b2 51 87 40 8e 5e 55 3f 62 cf 2a 40 de f7 a0 41
       4.2287226 0.83347404 2.6689076 20.121029
000120 2a d4 a8 40 5e fe b9 3f 9b ca 05 40 c9 a2 0d bf
       5.275899 1.4530752 2.090491 -0.55326515
000130 e2 7a 44 40 43 ab 02 41 69 fb f0 40 68 e7 be be
       3.0700002 8.166812 7.5306897 -0.37285924
000140 92 30 23 c0 47 3e 14 40 4c 84 52 40 10 0f ff 40
       -2.5498395 2.316301 3.2893248 7.9705887
000150 00 00 00 00 73 ea 2e c0 92 a5 2b 40 92 e0 ad c0
       0.0 -2.7330596 2.6819806 -5.4336634
000160 a5 10 ab 40 59 b2 c4 3f bf ca 35 40 03 6a e8 40
       5.345782 1.5366927 2.8404996 7.262941
000170 a5 e9 ad 40 f1 10 c7 3f 7f 52 15 c0 01 13 e1 bf
       5.434771 1.5552045 -2.3331602 -1.7583925
000180 9f f8 95 3f a3 81 3d c0 ef e5 8d c0 64 e4 19 be
       1.1716498 -2.9610374 -4.434318 -0.1502853
000190 92 53 db be b5 0c 5f 40 43 49 c8 40 cb 24 5b bf
       -0.42837197 3.4851506 6.258943 -0.85603017
0001a0 f2 72 b7 bd 00 00 00 00 88 82 f7 3f 29 ff a7 3e
       -0.08957471 0.0 1.933671 0.3281186
0001b0 03 aa a7 40 ce ee 2e 40 6a 70 3c 40 54 b6 b4 3f
       5.2395034 2.7333255 2.9443612 1.4118142
0001c0 f1 f1 b3 40 5f d9 83 40 00 c8 a8 40 ed 6e 94 3f
       5.623284 4.1202846 5.274414 1.1596352
0001d0 bd d0 6e 3f 75 01 a1 be 49 b9 35 40 87 70 91 3f
       0.9328726 -0.31446424 2.839434 1.1362466
0001e0 90 38 f0 3f ff 5f 99 40 89 ad d2 40 ac e9 be 40
       1.8767262 4.7929683 6.5836835 5.9660244
0001f0 81 82 cb bf 20 d5 c1 40 00 00 00 00 5f 37 ba 3e
       -1.5899202 6.057266 0.0 0.3637037
000200 f5 95 23 40 9a 86 de 3f f6 55 2e 3f d1 86 a5 40
       2.5560277 1.7384827 0.68099916 5.172707
000210 aa 06 93 40 8e 79 f1 3f 02 cd e3 3f ac 12 23 40
       4.5945635 1.886522 1.7796938 2.5480146
000220 9f c1 31 c0 2d 3b 08 41 78 09 8a 40 ab 9d a8 3f
       -2.7774427 8.514447 4.313656 1.3173116
000230 87 51 fe bf 4e d1 0f 41 d6 30 84 40 2a 43 d2 be
       -1.986863 8.9886 4.1309614 -0.41066867
000240 31 21 d7 40 93 3f 40 c0 c9 e2 f0 c0 00 00 00 00
       6.7228017 -3.0038803 -7.5276837 0.0
000250 00 81 be 40 6d ae dd 3f d6 43 3f 40 e1 5d 3b 40
       5.953247 1.7318856 2.9885154 2.927605
000260 46 0b 03 41 59 16 62 40 34 a3 76 c0 04 fa 94 40
       8.190252 3.532614 -3.8537111 4.6555195
000270 d5 56 fa 3f 45 dc 0f c1 6d 19 39 c0 07 24 9d 3f
       1.9557749 -8.991277 -2.8921769 1.227662
000280 35 ef 54 c1 d3 10 83 40 e3 1e 58 40 cf 1a e2 3f
       -13.3084 4.0958037 3.3768852 1.7664431
000290 91 5f 3d c1 21 47 1b c1 66 60 7b c0 46 b4 89 c1
       -11.835832 -9.704865 -3.9277587 -17.213024
0002a0 00 00 00 00 0c 04 4b be a9 93 74 40 90 f5 de 3e
       0.0 -0.19825763 3.8215125 0.43546724
0002b0 fb 02 0d 41 c4 19 06 40 a2 3d 26 c1 21 b6 4d c0
       8.813228 2.0953226 -10.390047 -3.2142413
0002c0 e8 94 81 c0 b0 27 42 c1 44 b3 3c c1 a6 3d c9 bf
       -4.049427 -12.134689 -11.793766 -1.5721939
0002d0 8c de 55 c1 3b f1 90 40 cc 94 e3 40 37 2d b6 c0
       -13.366833 4.529447 7.1119137 -5.6930194
0002e0 08 35 5f c1 55 42 07 c1 0c 58 bd c0 11 e8 8c c1
       -13.950447 -8.453694 -5.916998 -17.613314
0002f0 c4 e9 bf 40 00 00 00 00 3f e7 63 40 79 e8 71 c0
       5.997286 0.0 3.5609891 -3.779814
000300 2f cf f9 40 49 b2 98 40 d8 46 d7 c0 61 e8 8b c0
       7.806541 4.7717633 -6.727398 -4.3721166
000310 69 42 f4 bf de ca 35 c1 23 2b 30 c1 22 c0 98 3f
       -1.9082767 -11.362028 -11.010531 1.1933634
000320 53 fe 80 c1 16 f4 84 3f 1c 7a 93 40 8e f7 2a c0
       -16.124182 1.0386989 4.608656 -2.6713595
000330 6b e7 4c c1 13 f1 3c c1 2e 25 12 c1 11 3f 9d c1
       -12.806499 -11.808856 -9.134077 -19.655794
000340 ba cc ec 40 ac 1f 30 40 00 00 00 00 db 41 49 c0
       7.399991 2.751933 0.0 -3.1446445
000350 71 2f cf 40 92 dd 66 40 10 1b 34 c1 8f 0b 06 c1
       6.474541 3.6072736 -11.256607 -8.377822
000360 44 ef 8f c0 a5 70 75 c1 9e 84 4c c1 d3 23 df be
       -4.497957 -15.340001 -12.782377 -0.4358202
000370 28 1b 9d 3f 6f 01 ae 3f a2 95 a0 3f 6b 2b 6d 41
       1.2273912 1.3594187 1.2545664 14.8231
000380 07 2d c4 bf c6 a3 dc 3f f6 e9 89 40 03 f5 b6 3f
       -1.5326241 1.723748 4.3098097 1.4293522
000390 6a 62 e6 3f 24 b9 49 3e 9a 17 3c 3f 00 00 00 00
       1.7998784 0.19699532 0.73473513 0.0
0003a0 ab ad 6d 40 08 4c e7 3f 6a 4a 95 3f 99 c8 98 3d
       3.7137249 1.8070078 1.1663334 0.07460136
0003b0 8a 4d 9b be bf e9 d4 40 de 44 ce 40 e6 4d 8a 3d
       -0.30332595 6.6535335 6.4459066 0.06753139
0003c0 e0 14 cf c0 61 9c 1a 41 76 5c 1f 41 f4 35 ae 40
       -6.471298 9.663178 9.960073 5.444086
0003d0 69 ee 08 c1 90 10 62 bf 8b a3 b8 40 8e 22 34 c1
       -8.558206 -0.8830652 5.7699637 -11.258436
0003e0 3b 67 ef 40 65 55 d9 3f 21 02 94 40 8b 74 b5 40
       7.4813514 1.6979185 4.62526 5.6704764
0003f0 00 00 00 00 53 e9 7b 40 3d c0 bd c0 30 ee ab 3f
       0.0 3.936116 -5.9297166 1.3432064

snn.fc_out.weight f4 [9, 20]
000000 f1 62 6a c0 f3 e6 be 3e ac 5b 77 bf 82 2f 22 c1
       -3.662289 0.37285575 -0.96624255 -10.136599
000010 58 69 a1 bd 58 4b 77 c0 d3 10 de c0 79 f1 01 41
       -0.07881421 -3.8639736 -6.9395537 8.121453
000020 53 6f 56 c0 01 66 98 bd 6c 5c ad bf d5 26 1b c1
       -3.3505447 -0.07441331 -1.354383 -9.69698
000030 1a 7f 1a c0 7f a6 a6 bf 01 68 2a be 1b b9 4a 40
       -2.4140077 -1.301956 -0.16641237 3.167548
000040 b2 08 b0 40 48 29 c7 bf 8a eb b6 bf 37 5c 68 be
       5.5010614 -1.5559473 -1.4290631 -0.22691427
000050 e4 52 2e c0 68 38 1b 40 d6 b5 01 41 f4 5b 4f c0
       -2.7238092 2.4253178 8.106894 -3.2399874
000060 06 70 9f bf 75 26 e9 3f d7 48 b3 3e b6 c4 ec bf
       -1.2456062 1.8214861 0.3501651 -1.8497531
000070 10 ad 0d 3f fc 14 26 40 d9 77 f4 3f 81 09 b1 bf
       0.553422 2.5950308 1.9099075 -1.3831025
000080 a7 70 20 40 11 c8 ac 3f 5e d9 4f 40 b8 df ad c0
       2.5068758 1.3498555 3.247642 -5.4335594
000090 d2 0e a5 bf 42 69 fa 3f 66 7e a6 3e 16 19 d7 3f
       -1.2895148 1.9563372 0.3251831 1.6804531
0000a0 21 eb 34 40 5d 24 a6 3f 7c de 7a be 8e 5b 9f bf
       2.8268511 1.2979847 -0.24498934 -1.2449815
0000b0 32 fd 9d 40 e7 b3 b7 3e 85 4e 4d 3f b9 22 e3 3e
       4.9371576 0.35879442 0.80197936 0.4436243
0000c0 72 42 85 40 ce 5f 36 3e dd 00 fa 3f ec 7d 3c c0
       4.164361 0.17809984 1.9531513 -2.9451857
0000d0 b3 01 e7 3f 27 a6 1f 3f 07 d5 3a 3f 7b 34 52 40
       1.8047394 0.62362903 0.72981304 3.2844532
0000e0 c3 72 a9 c0 72 45 7c c0 76 24 59 c0 47 9d 3d 3f
       -5.295259 -3.9417386 -3.3928504 0.7406811
0000f0 ac 45 11 40 38 1d d5 bf 9d b4 d0 bf 0f 90 c8 c0
       2.2698774 -1.6649542 -1.6305119 -6.2675853
000100 0c b2 ab bf b7 53 8f 40 bd 03 97 bf 2e b1 4d 3f
       -1.341371 4.478969 -1.1798016 0.8034848
000110 5f 32 e0 bd f1 5f b7 3f 5f b4 f1 3e be 42 e0 bf
       -0.109471075 1.4326154 0.47207925 -1.7520368
000120 ad bc d0 3e 7d ed cd 3f 4a 4c 56 40 84 95 51 40
       0.40768948 1.6088101 3.3484063 3.2747507
000130 0f 6a 52 40 c8 25 3d c0 f5 62 f1 3e d2 48 93 3f
       3.2877233 -2.955431 0.4714581 1.1506598
000140 a1 f0 b7 bf 33 a1 4d 40 5c a5 c1 3e 21 0d 67 c0
       -1.4370309 3.2129638 0.37821472 -3.6101763
000150 26 61 f8 be 09 80 d3 bf 24 5c ac 40 d7 4d 5e bf
       -0.48511618 -1.6523448 5.3862476 -0.86837524
000160 b6 e4 1d c0 8f c8 3c bf 90 48 f6 bf 7b b4 e5 c0
       -2.4670844 -0.7374353 -1.9240894 -7.1782813
000170 ac bb 8c 3f 22 38 d7 bf 65 c7 d8 bf a7 72 da 3f
       1.0994773 -1.6814005 -1.693585 1.7066239
000180 e3 dd 00 c0 03 29 86 40 3c 01 36 bf 8d 96 a4 bf
       -2.013543 4.1925063 -0.71095634 -1.2858444
000190 af dc 29 40 87 ad e8 bf cf 5c 7d c0 a6 29 44 3f
       2.6540945 -1.8177956 -3.9587896 0.7662605
0001a0 e2 4c 1c c0 1f 73 62 c0 4d 7c 1e c0 69 d7 17 bf
       -2.4421926 -3.5382764 -2.4763367 -0.59313065
0001b0 cb 84 86 c0 3a 4e 74 bf f4 0c 28 c0 a3 b0 d7 3f
       -4.20371 -0.95431864 -2.6257906 1.685078
0001c0 c6 05 20 c0 99 e8 02 bf 37 96 77 c0 e3 0d 19 bc
       -2.5003524 -0.51136166 -3.8685434 -0.00934169
0001d0 10 a0 61 40 c8 65 83 3c b5 cb 04 be 1a 01 fa be
       3.5253944 0.016039744 -0.12968333 -0.48828965
0001e0 48 a8 0e c1 32 8c 0a c1 74 e0 11 c1 a2 34 a3 40
       -8.916084 -8.659227 -9.117298 5.100175
0001f0 39 f4 98 c0 45 a2 cb 3f 47 e9 5b bf c2 c7 e7 bd
       -4.7798123 1.5908896 -0.8590283 -0.11317398
000200 c7 96 b8 c0 29 c2 02 c1 e2 4d de c0 4a 9d 9d 40
       -5.7684054 -8.172402 -6.947007 4.9254503
000210 64 30 c2 c0 57 65 c9 c0 05 2b 03 c1 a1 4d 42 c0
       -6.068407 -6.2936206 -8.198003 -3.035988
000220 b7 61 4c c0 af 89 a3 3f 53 b7 18 bf 03 a5 83 c0
       -3.193464 1.2776393 -0.5965473 -4.113893
000230 02 52 81 c0 0d 56 27 c0 46 c2 c4 c0 e9 b4 06 41
       -4.0412607 -2.6146271 -6.148715 8.4191675
000240 40 08 09 40 de 1d 26 c0 e1 94 d2 bf 3c 60 86 c0
       2.1411285 -2.595573 -1.6451684 -4.1992474
000250 a9 6a 69 40 ed 51 3f c0 2a 41 07 40 03 66 4f 40
       3.647135 -2.9893754 2.1133523 3.2406013
000260 be 48 74 3e 29 ab b3 bf cd 85 97 c0 05 35 0f c1
       0.23855874 -1.4036609 -4.735083 -8.950444
000270 a1 7a aa c0 03 ec 21 be c8 47 ac 3f b1 00 59 c0
       -5.3274693 -0.15812688 1.3459406 -3.3906672
000280 f9 29 59 c0 84 9a 3b c1 94 ad 2b c0 fa 7e a5 40
       -3.3931868 -11.725224 -2.6824694 5.17175
000290 a2 d4 02 c1 83 e0 33 c1 3a e6 17 c1 9f 50 1d 3e
       -8.176912 -11.242312 -9.493708 0.15362786
0002a0 6e 74 08 c1 21 e5 62 c0 21 d3 97 c0 16 45 b1 40
       -8.528425 -3.545235 -4.7445226 5.5396833
0002b0 1e a9 49 c1 3b 77 89 c0 6c f6 e9 3f 4a 95 b0 c0
       -12.603788 -4.2958045 1.8278327 -5.518224
0002c0 57 52 0f bf ac 7a f9 3f c6 93 9a 3e 41 d7 04 bf
       -0.55985016 1.9490561 0.30190867 -0.5189095

exp_avg f4 [20, 416]
000000 88 13 6b ba 13 ec da 39 77 b9 e2 38 a4 70 11 ba
       -0.0008967449 0.0004175609 0.00010811065 -0.0005548096
000010 79 82 a8 ba 9c 92 85 3a 31 d9 3a 3a e8 26 a5 ba
       -0.0012856267 0.0010190788 0.0007127701 -0.0012600096
000020 3c fa db bb 3f f0 84 3a 61 ac 8b bb 75 67 82 bb
       -0.00671318 0.00101424 -0.0042624925 -0.003979618
000030 33 9b 6d 3b 3e 45 60 bb dd 32 93 bb ce 5b 68 3a
       0.0036255836 -0.003422096 -0.0044921474 0.00088637776
000040 0a 8a a8 39 5d e9 cc bb 9e 54 ac 3a 01 cb 3f 3b
       0.00032146304 -0.006253405 0.0013147776 0.0029265287
000050 07 b0 db bb c7 c3 e6 ba b4 7a ed bb 56 2e 93 b9
       -0.0067043337 -0.0017605954 -0.0072472934 -0.00028072548
000060 f6 7b 46 b6 2d 3e f0 3a 2f 36 de ba 04 82 db 3a
       -2.9576454e-06 0.0018329077 -0.0016953404 0.0016747122
000070 a5 4c d5 b9 a3 94 91 38 36 b6 e5 bb 88 da 2a bb
       -0.0004068363 6.9418245e-05 -0.0070102466 -0.0026070196
000080 ee 82 24 35 13 1a 06 bb 62 0f 5c ba f5 33 c5 3a
       6.128529e-07 -0.0020462319 -0.0008394626 0.0015045392
000090 26 1a fd 37 55 f7 93 bb f7 86 71 3b 57 ec 0d 3b
       3.0172127e-05 -0.0045155683 0.0036854127 0.0021655762
0000a0 f6 f3 22 ba b2 65 db ba 82 6f 53 3b c9 45 2b 3a
       -0.00062161626 -0.0016738682 0.0032262509 0.0006533531
0000b0 18 6c eb 3a 15 71 02 3a f2 0d 55 ba 82 45 02 bb
       0.0017961292 0.0004975957 -0.0008127383 -0.0019877856
0000c0 83 0d 04 3a b7 20 58 3b d1 32 9f bb 64 04 39 3a
       0.0005037414 0.0032978484 -0.0048583527 0.0007057844
0000d0 ef 98 06 bb a2 51 99 3b 07 3d 45 3b 41 75 7a 3a
       -0.0020537933 0.004678921 0.003009619 0.00095542154
0000e0 c1 06 81 bb 62 62 cd 39 64 db c5 ba 8d a3 cf 3a
       -0.0039375727 0.00039173948 -0.0015095291 0.0015841589
0000f0 85 29 07 bb 27 92 8b 3a 87 a0 d9 39 3c 0e ce ba
       -0.0020624113 0.0010648415 0.00041509068 -0.0015720795
000100 3b 7a db 3a 9f 77 f7 3a 5d 38 bc ba 00 64 5f bb
       0.0016744802 0.0018880254 -0.0014360059 -0.0034086704
000110 f8 fb 59 bb 46 3e d5 39 2e c7 05 bc cf b2 0b 3b
       -0.0033261757 0.00040672923 -0.008165164 0.0021316295
000120 48 2c 8c ba 3f 20 90 3a 90 60 a4 bb e9 f6 f2 ba
       -0.0010694349 0.0010995938 -0.005016394 -0.001853672
000130 a5 a5 2b b9 e6 12 3e 39 03 d3 10 38 54 d1 95 ba
       -0.00016369538 0.00018126852 3.4528795e-05 -0.0011430182
000140 23 9f 10 bb bf e3 cd ba f9 77 57 3a 54 d2 15 3b
       -0.002206751 -0.0015708132 0.00082194764 0.002286096
000150 8b 69 43 bb 6e 04 b1 3a ed 6f a6 bb e5 8b 0b bb
       -0.0029817547 0.0013505348 -0.0050792606 -0.00212931
000160 2f 17 18 bb 90 80 37 bb d9 01 a3 3b 86 3c 8d ba
       -0.0023207178 -0.0028000213 0.0049745855 -0.0010775484
000170 b0 39 22 3b b6 84 00 ba dc c6 92 3a 04 20 5e 3a
       0.0024753623 -0.0004902588 0.0011198181 0.00084733986
000180 5f 3f 68 bb b8 c4 8c bb b1 38 21 bb 43 93 c6 39
       -0.0035438163 -0.0042959116 -0.002460044 0.00037875221
000190 63 1f ab bb 2e a4 10 bb 28 8c cb ba 3d 4e 06 bb
       -0.0052222474 -0.0022070515 -0.0015529441 -0.002049341
0001a0 1a 09 6d b9 fd 53 8b 3b 28 ba 9f 39 3b b8 c0 b6
       -0.00022605472 0.0042519555 0.0003046554 -5.743493e-06
0001b0 bb c9 2e bb bc 97 a6 b9 87 bd e1 ba 97 98 42 ba
       -0.0026670534 -0.00031775038 -0.0017222621 -0.00074232504
0001c0 af 5b 2f 3a f1 1c b5 3a 0b 12 a5 b8 ec 7e 9d bb
       0.0006689382 0.0013817829 -7.871174e-05 -0.00480639
0001d0 04 8e 15 3b a8 02 6e 3a 4f a4 d1 3a cc 1b 2d bb
       0.0022820244 0.00090793753 0.0015994402 -0.0026414273
0001e0 a9 9d 21 b6 43 44 ff ba ad 7d 61 39 f8 c6 9d 38
       -2.408264e-06 -0.00194753 0.0002150449 7.523404e-05
0001f0 c7 7e 56 3a 24 85 1f 3a a3 da 96 ba 2c 3d e5 bb
       0.00081823434 0.0006085208 -0.0011509251 -0.0069958176
000200 15 38 8a b9 4e f1 26 bb fa 6e 8b ba 06 63 aa bb
       -0.00026363196 -0.0025473419 -0.0010637932 -0.005199793
000210 99 bc b8 36 72 83 0f 3b 37 5d 6e ba ab ee 41 3b
       5.505583e-06 0.0021898416 -0.00090928696 0.002959172
000220 36 90 b8 3a 79 47 48 ba 69 66 4c ba 3d a0 ad ba
       0.0014081064 -0.0007640045 -0.0007797243 -0.0013246607
000230 e0 19 9d bb 15 6f 36 ba 61 d3 87 3a 3b a2 a9 ba
       -0.0047943443 -0.00069593015 0.0010362678 -0.0012942025
000240 b7 82 21 ba d4 9a 96 ba b7 6f de b9 da 5b a1 3a
       -0.00061611406 -0.0011490234 -0.00042426374 0.0012310699
000250 9e 8c c6 ba 72 34 0b bb 5c 40 a1 3a 26 ca 1b 3a
       -0.0015148108 -0.0021240977 0.0012302506 0.0005942903
000260 98 f1 e6 ba fb 0b 35 bb 0d 16 02 bb b9 e5 17 39
       -0.0017619608 -0.002762555 -0.001984957 0.0001448606
000270 cf 5a 30 bb 8d b1 70 3b ea be d2 bb 34 68 09 bc
       -0.0026909595 0.0036726922 -0.00643145 -0.00838666
000280 af 74 76 bb c3 99 b6 b9 df 98 e9 ba 66 3d 6c 3a
       -0.003760617 -0.00034828307 -0.0017822048 0.00090118346
000290 93 0f b8 bb 13 aa b7 3a 12 96 1d 3a 43 2b 93 bb
       -0.005617091 0.0014012478 0.0006011437 -0.004491241
0002a0 a7 1d 84 3a 72 4b 6d bb c3 ae e0 37 dd cd 0a ba
       0.0010079638 -0.00362083 2.678426e-05 -0.0005294958
0002b0 03 13 b8 ba a9 1d a9 ba 74 a4 0c 3b 79 de af 3a
       -0.0014043752 -0.0012902516 0.0021460326 0.0013417742
0002c0 17 eb 99 3a f3 1d 98 3b 51 b7 61 bb 6e 96 a9 bb
       0.0011743036 0.004642242 -0.003444154 -0.0051754033
0002d0 73 d3 1c bb 55 4c 2c bb 1c dc ed ba 85 76 b5 bb
       -0.0023929744 -0.0026290615 -0.0018147263 -0.0055378103
0002e0 ab a5 2a 39 ef aa 3f 3b 6d b9 8b 3a c0 fc 60 bb
       0.0001627418 0.0029246171 0.001066012 -0.0034330338
0002f0 7c 83 48 b9 fb 71 7a 39 a1 6f f8 b9 bb 53 3f b9
       -0.00019122468 0.00023884319 -0.00047385416 -0.00018246371
000300 d7 aa 99 ba 39 07 15 bb 72 be 4d 3a 02 b9 a8 38
       -0.0011723888 -0.00227399 0.0007848508 8.045325e-05
000310 ac 84 85 3a c9 e9 5c 3a 29 e3 2e bb 9a f9 9b 3b
       0.0010186634 0.00084271707 -0.002668569 0.0047599794
000320 53 87 41 b9 4d eb 41 3b 83 b7 74 b9 4d ae 38 3b
       -0.00018456327 0.0029589713 -0.00023338017 0.0028180063
000330 5e b8 52 3b 98 46 56 3b 8c dc be ba 0f 4f 0a ba
       0.0032153348 0.0032695886 -0.0014561578 -0.0005276063
000340 f5 4a 4a 3a 3c 04 58 bb 87 6f 47 ba 31 69 e7 bb
       0.0007716858 -0.0032961508 -0.00076078664 -0.0070621003
000350 86 02 a3 bb 5c 39 8e 3a ef e6 aa 3a b8 dd b4 ba
       -0.004974666 0.0010850835 0.0013038794 -0.0013798987
000360 54 3c 62 3a 16 26 1d 3b f7 47 9d ba c5 d1 37 b8
       0.00086302054 0.0023979 -0.0011999597 -4.3825963e-05
000370 97 51 4d bb ac e4 95 ba b0 8e f8 ba 24 58 62 3b
       -0.003132915 -0.0011435947 -0.0018963423 0.00345374
000380 b2 93 72 36 0c cb 10 3b 75 27 13 ba 2f 9f 1e ba
       3.614678e-06 0.0022093682 -0.00056134845 -0.0006050942
000390 65 e7 88 3a 72 75 a8 3b 75 5c 2d 3b 51 ba 2c bc
       0.0010444938 0.0051409537 0.0026452814 -0.010542468
0003a0 c4 0b a9 3a 55 10 a2 bb 74 b7 88 3a e3 de 85 b9
       0.0012897183 -0.0049457946 0.001043065 -0.000255338
0003b0 6d bc 4f bb 2d 9a cb ba b4 5d 20 3c 80 0d a6 3b
       -0.0031698004 -0.0015533619 0.009787966 0.0050675273
0003c0 ce a3 e0 3a 5b 90 f0 ba dc 37 14 ba 25 9e b4 ba
       0.0017138661 -0.0018353568 -0.00056540756 -0.0013780041
0003d0 85 86 86 ba 8f 0e 74 3b 51 5f b0 bb 6a 9b 02 bb
       -0.0010263479 0.0037240123 -0.0053824564 -0.001992906
0003e0 d7 b4 00 3c a1 3d 2d bb c0 13 34 3b c7 f6 15 3b
       0.007855616 -0.0026434439 0.0027477592 0.0022882686
0003f0 ed 7f ea b8 50 b6 9b 39 e9 aa cd 39 77 b3 b5 38
       -0.000111818175 0.00029699737 0.00039227985 8.6641805e-05

exp_avg_sq f4 [20, 416]
000000 a5 d7 b0 38 37 3f e5 38 69 8d de 38 af 4c e1 38
       8.432501e-05 0.000109313456 0.000106121246 0.000107431195
000010 5e c1 fd 38 0c 62 c6 38 23 35 ed 38 30 d9 b2 38
       0.000120999975 9.4596384e-05 0.00011310938 8.528156e-05
000020 4c b8 ee 38 3b 55 12 39 fe 09 02 39 11 e0 d0 38
       0.00011383052 0.00013955396 0.00012401488 9.9599485e-05
000030 5f 25 fc 38 b4 93 e6 38 d3 82 e1 38 0e 4a 01 39
       0.00012023257 0.000109947665 0.00010753204 0.00012329986
000040 83 ab d6 38 14 15 c8 38 d0 e0 f2 38 fa 34 5b 39
       0.00010236262 9.540669e-05 0.00011581334 0.00020905203
000050 3c 15 d1 38 0c d8 c1 38 bf dc ee 38 de 34 99 38
       9.969852e-05 9.243199e-05 0.000113898415 7.305456e-05
000060 2a 46 c0 38 f4 cd ed 38 12 9a cb 38 b9 8c 97 38
       9.1683425e-05 0.000113394024 9.708492e-05 7.226453e-05
000070 55 14 c6 38 48 fc cd 38 e8 16 e9 38 07 57 d6 38
       9.445163e-05 9.822153e-05 0.000111145724 0.00010220525
000080 cb 9d ba 38 4d b1 f5 38 b9 36 c4 38 01 db bf 38
       8.8985624e-05 0.00011715535 9.356201e-05 9.1483824e-05
000090 59 c5 c4 38 74 ac c5 38 f9 56 fb 38 95 b8 cf 38
       9.382767e-05 9.425814e-05 0.000119848126 9.90491e-05
0000a0 04 b5 d8 38 23 41 c9 38 21 13 ef 38 28 e5 9b 38
       0.000103333994 9.5965595e-05 0.00011399971 7.4336596e-05
0000b0 5a 19 b4 38 de 81 9a 38 54 7c ca 38 57 9a 16 39
       8.587791e-05 7.367482e-05 9.6552685e-05 0.00014362611
0000c0 68 f8 dd 38 07 b1 c9 38 5d 29 dd 38 5b 16 c1 38
       0.000105843705 9.617401e-05 0.00010545806 9.207121e-05
0000d0 ad ae cc 38 be e3 0d 39 aa a9 b9 38 0a 91 d1 38
       9.760014e-05 0.00013531648 8.85309e-05 9.992912e-05
0000e0 8f 10 ea 38 4e 9f cc 38 a0 06 c5 38 69 7a ac 38
       0.00011161074 9.757151e-05 9.394926e-05 8.2244e-05
0000f0 a9 31 93 38 80 13 b4 38 02 60 a7 38 84 7a a7 38
       7.018756e-05 8.586701e-05 7.9810634e-05 7.986001e-05
000100 72 5e c0 38 04 67 bb 38 ee 9f af 38 30 bb ba 38
       9.172865e-05 8.936043e-05 8.3744395e-05 8.9040375e-05
000110 22 cc bc 38 84 dc ea 38 b1 7f 20 39 2c ab f8 38
       9.002561e-05 0.00011199064 0.00015306358 0.00011857445
000120 1c b3 eb 38 53 7f a1 38 eb 5f f6 38 36 23 d4 38
       0.00011239035 7.700794e-05 0.0001174806 0.00010115506
000130 e3 05 af 38 04 7a ad 38 75 1f a0 38 7d c1 8a 38
       8.345747e-05 8.27201e-05 7.635254e-05 6.616393e-05
000140 5c b3 a7 38 96 15 d6 38 3a 36 ba 38 1f cd b9 38
       7.996589e-05 0.00010208336 8.8792716e-05 8.859694e-05
000150 77 61 a0 38 21 48 d3 38 25 f0 bf 38 4c fc d7 38
       7.647549e-05 0.00010074699 9.15232e-05 0.00010298993
000160 85 97 ca 38 78 bc e4 38 df 43 07 39 b1 32 99 38
       9.660333e-05 0.00010906992 0.00012899887 7.3050505e-05
000170 47 6a b4 38 b8 d7 a0 38 e6 b4 ae 38 f7 5c 94 38
       8.6028645e-05 7.669575e-05 8.3306615e-05 7.074506e-05
000180 aa fd ae 38 52 d6 ba 38 48 22 bc 38 bb f3 d5 38
       8.344215e-05 8.9090914e-05 8.970924e-05 0.0001020203
000190 e0 53 c0 38 ea 56 f4 38 f4 11 04 39 e5 d5 9f 38
       9.1708964e-05 0.00011651016 0.00012595189 7.621552e-05
0001a0 33 2d b1 38 8b ca a8 38 00 db 9a 38 64 dc af 38
       8.448437e-05 8.048591e-05 7.384084e-05 8.385701e-05
0001b0 ef d2 89 38 41 ac 9c 38 d9 fc b4 38 39 af e7 38
       6.5719585e-05 7.4707445e-05 8.6301654e-05 0.00011047576
0001c0 8a 6a 9f 38 de bf cf 38 bd 34 9f 38 9b 35 91 38
       7.601555e-05 9.906267e-05 7.591534e-05 6.9241236e-05
0001d0 0b 3a 98 38 f1 72 a1 38 bb 69 96 38 69 4f 8f 38
       7.258736e-05 7.698488e-05 7.172251e-05 6.833563e-05
0001e0 72 4b ad 38 05 dc b5 38 c5 e7 9e 38 e1 95 b7 38
       8.2633356e-05 8.6717344e-05 7.5771975e-05 8.754037e-05
0001f0 db 46 91 38 3b 1c 9a 38 98 b2 aa 38 24 7e 0b 39
       6.927337e-05 7.3485506e-05 8.1394974e-05 0.00013303064
000200 08 c7 8c 38 e2 18 ce 38 20 dc 9e 38 2e 6a 90 38
       6.712793e-05 9.82748e-05 7.5750286e-05 6.8862326e-05
000210 9f 7d a2 38 96 17 a3 38 8b ab 97 38 aa 11 95 38
       7.748161e-05 7.776839e-05 7.2321935e-05 7.108164e-05
000220 55 ef 97 38 30 97 b0 38 02 d8 a1 38 48 8c a9 38
       7.24482e-05 8.420495e-05 7.717313e-05 8.0846774e-05
000230 06 0d 74 38 e5 39 99 38 d1 2d a7 38 1d af eb 38
       5.8186262e-05 7.306392e-05 7.9717145e-05 0.000112382906
000240 98 ef a7 38 40 ea a1 38 4c 9d a4 38 75 dc 88 38
       8.007808e-05 7.720711e-05 7.849428e-05 6.526049e-05
000250 48 fc a6 38 bf f4 a4 38 9d f6 af 38 93 3a b9 38
       7.962488e-05 7.865717e-05 8.3905856e-05 8.832398e-05
000260 6f 15 af 38 24 e0 bb 38 99 c2 b9 38 8b 20 9f 38
       8.3486426e-05 8.958604e-05 8.857734e-05 7.5877724e-05
000270 b1 54 44 39 38 99 35 39 83 ef 24 39 8c cd 24 39
       0.00018723567 0.00017318584 0.00015729484 0.00015716831
000280 4b a2 5b 39 ed 5e 24 39 f2 32 66 39 d6 88 18 39
       0.00020945926 0.00015675621 0.00021953488 0.00014546825
000290 03 e8 3a 39 4c 68 27 39 e4 cd 5e 39 88 af 24 39
       0.00017824773 0.00015965215 0.0002124827 0.0001570565
0002a0 95 ba d6 38 d6 fa 2b 39 03 62 28 39 27 52 25 39
       0.00010239069 0.00016401274 0.0001605824 0.0001576623
0002b0 8d a0 71 39 cb 4f 3f 39 02 f7 04 39 5f 47 05 39
       0.00023043361 0.00018244905 0.00012680519 0.00012710456
0002c0 07 ae 38 39 e7 56 20 39 5d 67 69 39 d7 bc 1a 39
       0.00017612438 0.00015291163 0.00022259117 0.00014756933
0002d0 19 80 3d 39 2d 00 49 39 39 54 21 39 56 47 1b 39
       0.00018072165 0.00019168919 0.00015385532 0.00014808527
0002e0 0b 3c e2 38 eb 08 38 39 eb 86 29 39 1a 81 ef 38
       0.00010787704 0.0001755093 0.00016167357 0.00011420455
0002f0 c3 2d 6d 39 0a 56 2f 39 cd be fc 38 77 6c fe 38
       0.00022619129 0.00016721353 0.00012051836 0.00012131867
000300 9b 02 3b 39 59 65 f0 38 04 2d 27 39 74 25 f4 38
       0.0001783468 0.00011462969 0.0001594313 0.00011641803
000310 90 0d a1 39 5f fb 00 39 c5 0b 34 39 3e 02 40 39
       0.00030718418 0.00012300674 0.00017170522 0.00018311382
000320 02 ff 07 39 2f b3 1b 39 41 2c 55 39 9d 0b ec 38
       0.00012969601 0.00014848703 0.00020329749 0.0001125552
000330 2a a4 27 39 41 48 06 39 c1 27 e3 38 b1 b7 f5 38
       0.00015987517 0.00012806153 0.00010831608 0.000117167256
000340 7f 3b e0 38 94 d8 1e 39 7a 91 00 39 08 9b de 38
       0.00010692234 0.00015148736 0.00012261225 0.00010614662
000350 42 20 02 39 20 d8 0c 39 43 87 b5 38 0d 20 1b 39
       0.00012409783 0.00013431953 8.655947e-05 0.00014793892
000360 cf 94 13 39 8d 25 00 39 7a 6a eb 38 60 ba 36 39
       0.00014074448 0.0001222102 0.00011225506 0.00017426303
000370 8d 6f e3 38 7d bd bf 38 72 a1 8e 39 13 bb e8 38
       0.000108449814 9.142885e-05 0.00027204637 0.00011097467
000380 d8 52 d7 38 99 fe 34 39 94 53 48 39 1e 0b 05 39
       0.0001026743 0.00017260983 0.00019104622 0.0001268801
000390 0e 57 0c 39 50 6a 21 39 13 c8 a7 38 69 5d 64 39
       0.00013383871 0.00015393761 8.000447e-05 0.00021778572
0003a0 22 5b 1f 39 ae c1 28 39 c9 4f c3 38 75 60 aa 38
       0.00015197371 0.0001609388 9.313186e-05 8.124198e-05
0003b0 7a 42 ae 38 98 a8 d9 38 6d d0 5b 39 62 11 2f 39
       8.309349e-05 0.000103787694 0.00020963112 0.00016695776
0003c0 f0 59 f5 38 ff 89 70 39 1c 3a 23 39 8f 55 06 39
       0.000116992625 0.00022939591 0.00015566539 0.00012811109
0003d0 b7 a8 1a 39 71 ca 48 39 2a cc bb 38 4a 1e 24 39
       0.00014749436 0.00019148902 8.9548834e-05 0.00015651542
0003e0 75 c6 0e 39 d9 ae 74 39 7c 8f a8 38 ac d6 e6 38
       0.00013616106 0.00023334789 8.03759e-05 0.000110072404
0003f0 b1 bc e7 38 86 b0 06 39 94 d6 0b 39 e8 5a 44 39
       0.00011050085 0.00012844996 0.0001333601 0.00018725882

exp_avg f4 [20, 20]
000000 00 00 00 00 a6 c8 5b 37 8a 67 b1 38 f2 c0 ed ba
       0.0 1.3100134e-05 8.459303e-05 -0.0018139167
000010 43 3a 9c bb 8b 72 a6 39 84 58 89 39 28 af a4 bb
       -0.0047676875 0.00031747328 0.00026196626 -0.005025763
000020 04 00 00 00 04 00 00 80 04 00 00 00 07 4c 99 ba
       6e-45 -6e-45 6e-45 -0.0011695632
000030 04 00 00 00 04 00 00 00 d9 df dc ba 94 61 af 38
       6e-45 6e-45 -0.001685138 8.3628256e-05
000040 b8 16 3a b9 09 3c e5 ba 10 df 51 bb 04 00 00 00
       -0.00017746806 -0.0017489205 -0.0032023825 6e-45
000050 87 19 0a 3a 00 00 00 00 ab 9b c0 38 7c 8b 34 3a
       0.0005268086 0.0 9.184269e-05 0.000688724
000060 b6 71 e5 3a 00 d3 35 39 1d 54 de 39 c7 0a bb 3b
       0.0017505202 0.00017340109 0.0004240581 0.005708072
000070 04 00 00 80 04 00 00 00 04 00 00 00 ca a6 0f 3a
       -6e-45 6e-45 6e-45 0.00054798706
000080 04 00 00 80 04 00 00 00 09 70 b3 39 1c bd 7f 38
       -6e-45 6e-45 0.00034225013 6.097286e-05
000090 ea d4 5d 39 fb 17 00 3b 2f 3d 85 3a 04 00 00 00
       0.00021155519 0.0019545543 0.0010165329 6e-45
0000a0 bf aa 88 3a e0 5d db 35 00 00 00 00 d7 fa 53 3a
       0.0010426863 1.6344093e-06 0.0 0.0008086389
0000b0 8d 0d 3e 3b 83 cd db 38 34 14 6d 39 07 57 21 3c
       0.0028999776 0.00010481013 0.00022609608 0.009847409
0000c0 04 00 00 80 04 00 00 00 04 00 00 00 49 f6 3c 3a
       -6e-45 6e-45 6e-45 0.000720833
0000d0 04 00 00 80 04 00 00 00 50 61 9e 3a da a4 80 35
       -6e-45 6e-45 0.0012083445 9.584721e-07
0000e0 c3 58 92 39 55 9b 57 3b 60 54 f8 3a 04 00 00 00
       0.00027913423 0.0032898982 0.0018946044 6e-45
0000f0 eb e3 a8 3a f2 d4 96 b5 61 b8 7b b6 00 00 00 00
       0.0012885308 -1.1237846e-06 -3.7509237e-06 0.0
000100 f8 d7 12 3a 3f e3 01 3a 72 72 35 39 8d ba ae 3b
       0.000560164 0.0004954822 0.0001730414 0.005332297
000110 04 00 00 00 04 00 00 80 04 00 00 80 a5 7a 54 b9
       6e-45 -6e-45 -6e-45 -0.00020263584
000120 04 00 00 00 04 00 00 80 26 82 ef 3a 87 55 a8 b6
       6e-45 -6e-45 0.001827304 -5.016747e-06
000130 27 b7 73 36 35 33 28 3b f8 3d e5 38 04 00 00 80
       3.631643e-06 0.0025665287 0.000109311135 -6e-45
000140 f2 35 23 39 be 80 db 36 81 28 8f 38 1d e4 d3 38
       0.00015564988 6.541696e-06 6.826316e-05 0.000101037534
000150 00 00 00 00 c4 eb 71 37 2b 9c 97 38 3d 14 d0 3b
       0.0 1.4419613e-05 7.22933e-05 0.006350069
000160 04 00 00 00 04 00 00 80 04 00 00 80 46 23 f1 b8
       6e-45 -6e-45 -6e-45 -0.00011498346
000170 04 00 00 00 04 00 00 80 15 4d 2d 3a 49 ad ea 37
       6e-45 -6e-45 0.00066109124 2.7975666e-05
000180 71 b0 f3 b8 57 13 4a 3b d1 29 03 3b 04 00 00 80
       -0.00011620008 0.0030834281 0.0020013938 -6e-45
000190 e8 79 25 3a 7f 70 f7 36 91 06 27 39 5f 68 46 3a
       0.0006312416 7.37427e-06 0.00015928807 0.0007568653
0001a0 94 aa 4b 3b 00 00 00 00 72 3e 8d 3a d3 32 72 3c
       0.0031077014 0.0 0.0010776056 0.014782625
0001b0 04 00 00 80 04 00 00 00 04 00 00 00 66 d6 ff 39
       -6e-45 6e-45 6e-45 0.0004879713
0001c0 04 00 00 80 04 00 00 00 3e d0 18 3b 5b 2c f9 37
       -6e-45 6e-45 0.0023317481 2.9703768e-05
0001d0 ee af 72 b9 f0 81 e0 3b 17 41 d7 3a 04 00 00 00
       -0.00023144457 0.0068514273 0.0016422597 6e-45
0001e0 8b 1d df 39 28 c4 f6 35 9f 79 7d 38 95 42 83 39
       0.00042555886 1.8385517e-06 6.043317e-05 0.00025035875
0001f0 08 76 6c 3b 4a 46 69 b9 00 00 00 00 d0 23 5d 3c
       0.0036081094 -0.00022246796 0.0 0.013497308
000200 04 00 00 00 04 00 00 00 04 00 00 00 14 35 34 39
       6e-45 6e-45 6e-45 0.00017185911
000210 04 00 00 80 04 00 00 00 69 fb 05 3a c7 b3 bd 37
       -6e-45 6e-45 0.00051110104 2.2614271e-05
000220 ea 4d 82 37 24 e6 98 3b cf fa b5 3a 04 00 00 00
       1.553349e-05 0.004666107 0.0013883951 6e-45
000230 ce 83 2a b8 c4 f0 88 b4 e7 6a 3a b8 a1 5e 42 b8
       -4.065391e-05 -2.5507154e-07 -4.4445416e-05 -4.6341334e-05
000240 e5 7e 06 bb 70 01 06 b9 3f 54 38 b9 00 00 00 00
       -0.0020522412 -0.00012779771 -0.00017578992 0.0
000250 04 00 00 00 04 00 00 00 04 00 00 00 34 ab 2a b8
       6e-45 6e-45 6e-45 -4.0690604e-05
000260 04 00 00 80 04 00 00 00 16 d1 84 b9 b1 55 97 b7
       -6e-45 6e-45 -0.00025332783 -1.8040506e-05
000270 33 a9 a5 37 48 b3 d9 ba af 56 4d ba 04 00 00 00
       1.9748322e-05 -0.0016609216 -0.0007833046 6e-45
000280 d3 00 a3 38 44 61 8e 31 ae 87 03 34 65 3a c4 36
       7.772599e-05 4.1438017e-09 1.2249686e-07 5.848053e-06
000290 96 c9 11 3a 8e d2 4e 36 2d 3a 1b 36 bc c6 0f 3b
       0.00055613497 3.081895e-06 2.3130663e-06 0.0021938523
0002a0 00 00 00 00 04 00 00 80 04 00 00 80 23 86 5f 36
       0.0 -6e-45 -6e-45 3.3307667e-06
0002b0 04 00 00 00 04 00 00 80 a3 b6 87 38 6e bc 8f 33
       6e-45 -6e-45 6.4713204e-05 6.6932316e-08
0002c0 eb 56 48 35 1c d3 1b 39 35 58 b1 38 04 00 00 80
       7.463229e-07 0.00014860596 8.4564475e-05 -6e-45
0002d0 a9 81 45 38 48 ba 8a 31 ff a1 72 33 5b 92 9a 36
       4.7089216e-05 4.0375063e-09 5.649235e-08 4.6065957e-06
0002e0 74 7e 82 39 a2 3f 42 35 3f 87 bb 35 cb 69 9a 3a
       0.00024889747 7.236323e-07 1.3971948e-06 0.0011780796
0002f0 04 00 00 80 00 00 00 00 04 00 00 00 c1 25 47 36
       -6e-45 0.0 6e-45 2.9675286e-06
000300 04 00 00 80 04 00 00 00 11 98 0c 38 17 08 4b 33
       -6e-45 6e-45 3.3520224e-05 4.727198e-08
000310 e2 bb 1e 35 fc 8d ad 38 5f 68 4a 38 04 00 00 00
       5.913299e-07 8.2757295e-05 4.8257756e-05 6e-45
000320 42 50 15 38 91 b7 18 31 4a f0 49 33 6c a7 4b 36
       3.5599114e-05 2.2223257e-09 4.70175e-08 3.034681e-06
000330 ca 69 93 39 6b 31 cf 35 5d 6d 8c 35 29 d9 92 3a
       0.00028116844 1.5437084e-06 1.0462642e-06 0.0011203635
000340 04 00 00 80 04 00 00 80 00 00 00 00 de c7 e6 35
       -6e-45 -6e-45 0.0 1.7194504e-06
000350 04 00 00 80 04 00 00 80 50 e8 03 38 18 9b 09 33
       -6e-45 -6e-45 3.144919e-05 3.2038855e-08
000360 dc 81 c3 34 dd c5 92 38 49 31 34 38 04 00 00 00
       3.6416066e-07 6.9986774e-05 4.2961245e-05 6e-45
000370 7a 95 be 3a 47 9a b4 b5 a2 62 5b b5 4f 0c c3 b9
       0.0014540397 -1.3455946e-06 -8.172739e-07 -0.0003720247
000380 df bc ea 39 44 da 24 3a 40 e7 21 3a 5d 02 15 3c
       0.00044772678 0.00062886276 0.00061761215 0.009094802
000390 04 00 00 00 04 00 00 80 04 00 00 80 00 00 00 00
       6e-45 -6e-45 -6e-45 0.0
0003a0 04 00 00 00 04 00 00 80 fa 3f 1b 3b c9 d5 83 b5
       6e-45 -6e-45 0.0023689256 -9.82248e-07
0003b0 76 27 54 38 58 2c 63 3b dc cc 2b 39 04 00 00 80
       5.058149e-05 0.0034663882 0.00016384147 -6e-45
0003c0 66 9a 6b 39 de ae 5b 33 d4 b5 94 35 f5 2b 0f 38
       0.00022468864 5.114895e-08 1.1079778e-06 3.4134795e-05
0003d0 c4 ab 92 3a 65 e2 de 36 07 9b 5f 37 27 cf 96 3b
       0.0011190106 6.6424714e-06 1.3327931e-05 0.004602331
0003e0 04 00 00 80 04 00 00 00 04 00 00 00 04 63 b9 37
       -6e-45 6e-45 6e-45 2.2099826e-05
0003f0 00 00 00 00 04 00 00 00 0f af 32 39 98 45 37 35
       0.0 6e-45 0.00017040617 6.8274085e-07

exp_avg_sq f4 [20, 20]
000000 00 00 00 00 26 1e c9 30 57 1e bb 33 28 dc 8c 38
       0.0 1.4633244e-09 8.713385e-08 6.7167275e-05
000010 18 70 21 3a 8a 24 4a 37 e0 15 3f 37 e3 47 5a 3b
       0.0006158366 1.2048646e-05 1.138958e-05 0.0033307008
000020 80 42 a2 1f ec 0e 63 1d be f8 63 1b 39 79 0f 38
       6.8719684e-20 3.0050914e-21 1.8857373e-22 3.4206754e-05
000030 91 5b fc 26 50 95 da 1a 0b fb 79 38 56 fc 99 33
       1.7510832e-15 9.0403914e-23 5.9600028e-05 7.170517e-08
000040 ad fa 24 36 6d e1 1c 3a 83 b8 8f 39 1f fc d7 18
       2.4583817e-06 0.0005984519 0.00027412557 5.5830775e-24
000050 86 5b d4 35 00 00 00 00 54 30 ed 32 24 77 1a 36
       1.5821868e-06 0.0 2.7612408e-08 2.3017137e-06
000060 ba b1 86 37 35 f0 ac 34 11 f0 39 35 23 5d d0 38
       1.6056805e-05 3.221227e-07 6.9267213e-07 9.935561e-05
000070 b1 38 96 1e 32 1f 4e 1c 09 42 49 1a fe 81 cd 35
       1.5905315e-20 6.82e-22 4.161917e-23 1.5311523e-06
000080 11 9e 10 25 d2 98 ac 19 78 09 e7 35 ae 7f 6f 32
       1.2543564e-16 1.7846107e-23 1.7213597e-06 1.3940662e-08
000090 2b 5f 74 34 ec 7d 44 37 09 91 8e 36 9b 6b 48 17
       2.2758893e-07 1.1711829e-05 4.248814e-06 6.4759303e-25
0000a0 cf 50 94 37 eb a7 60 2f 00 00 00 00 55 7c 8a 37
       1.7680604e-05 2.0432338e-10 0.0 1.6508779e-05
0000b0 14 88 d6 38 b8 2c 92 36 2f c7 bc 36 80 a9 22 3a
       0.00010229662 4.356345e-06 5.6260246e-06 0.0006205067
0000c0 dc 31 19 20 ba fa 06 1e 6b 19 f0 1b 0c 90 24 37
       1.2976101e-19 7.14575e-21 3.9721095e-22 9.8087e-06
0000d0 a9 0f 5b 26 1e e0 02 1b 30 cc f3 37 25 d2 0d 32
       7.600211e-16 1.0825764e-22 2.906294e-05 8.2550615e-09
0000e0 26 99 85 35 d9 d6 17 39 a3 89 60 38 60 1b 53 18
       9.953844e-07 0.00014480519 5.3533946e-05 2.7284932e-24
0000f0 fd 79 57 38 fc 20 45 2e bd 6c d9 30 00 00 00 00
       5.1373605e-05 4.482191e-11 1.5819733e-09 0.0
000100 cc 9d 2a 3a 6f 5f 02 36 54 e2 1a 35 c8 e2 69 3b
       0.0006508499 1.942706e-06 5.769882e-07 0.003568815
000110 67 9a 90 1f e2 09 0a 1e 07 0f ea 1b 48 81 69 35
       6.124181e-20 7.307703e-21 3.8721764e-22 8.6987393e-07
000120 2e 65 c1 25 ac aa 47 1b 67 e7 1d 38 c9 8d 5d 30
       3.3548725e-16 1.6516041e-22 3.7647227e-05 8.060082e-10
000130 0f dc 6a 33 d5 6e 26 39 cc 9d ae 38 ff e7 72 19
       5.4682513e-08 0.00015872282 8.3263585e-05 1.2557958e-23
000140 1a 78 91 37 46 cc 07 30 07 14 0e 33 25 06 8e 37
       1.7341274e-05 4.9403004e-10 3.3080166e-08 1.693058e-05
000150 00 00 00 00 68 22 1d 36 d4 6b 63 36 17 2e fc 39
       0.0 2.341485e-06 3.38884e-06 0.00048099525
000160 96 17 57 20 c7 45 83 1e 5c 62 81 1c ec ff 1b 37
       1.8219012e-19 1.3899024e-20 8.561929e-22 9.298306e-06
000170 57 cf b2 26 c6 91 d3 1b 9c 55 6e 37 39 7d df 32
       1.2407431e-15 3.5001226e-22 1.4205838e-05 2.6017561e-08
000180 59 76 6b 35 19 fb 03 39 94 9d 60 38 f0 cf 8e 19
       8.771654e-07 0.00012586675 5.3552518e-05 1.4766441e-23
000190 32 59 89 39 d2 ac bf 30 11 23 12 34 3c f4 e9 38
       0.00026197132 1.3946198e-09 1.3610067e-07 0.00011155798
0001a0 c4 73 96 3a 00 00 00 00 fe c8 80 37 7f 5e c7 3b
       0.0011478593 0.0 1.5352383e-05 0.006084263
0001b0 9c 98 4b 1e f5 28 2a 1c 05 a3 14 1a 1b ab 82 38
       1.0778289e-20 5.6301217e-22 3.073737e-23 6.230754e-05
0001c0 49 29 53 26 dc ae ac 19 77 ca 5e 39 36 5d ce 33
       7.326128e-16 1.7855008e-23 0.00021246994 9.6095775e-08
0001d0 65 f2 e5 36 6a ff 8c 3a 1e e2 07 3a 76 70 1e 18
       6.8529503e-06 0.0010757272 0.00051835354 2.04778e-24
0001e0 9a 18 6b 38 c8 06 fa 2e d3 1b 80 32 83 9f bc 37
       5.6051278e-05 1.13698884e-10 1.4913814e-08 2.2485625e-05
0001f0 bd ba ba 39 d8 f5 7b 36 00 00 00 00 d6 d8 0d 3b
       0.00035615815 3.7545014e-06 0.0 0.0021644137
000200 1c c6 7d 1e 56 ff ba 1c 3f b5 0c 1b ed 2b 3a 37
       1.34346765e-20 1.237445e-21 1.1639092e-22 1.1096691e-05
000210 4c 5e 1c 25 c1 c1 8c 1a 73 b1 5e 38 85 0f c2 31
       1.3562792e-16 5.821567e-23 5.3094187e-05 5.6479075e-09
000220 bf 71 77 35 ae 5d aa 39 9e cf 0d 39 58 aa 15 18
       9.218019e-07 0.00032494724 0.00013524151 1.93438e-24
000230 d9 55 22 36 65 b8 7a 30 43 11 0d 33 36 b3 df 36
       2.418985e-06 9.121151e-10 3.284482e-08 6.666781e-06
000240 b0 a6 09 38 c0 43 58 35 36 84 b7 35 00 00 00 00
       3.2818585e-05 8.056486e-07 1.3673041e-06 0.0
000250 fa e0 2e 20 f9 5e dc 1d 14 89 ac 1b bd 7b 80 36
       1.4812812e-19 5.8331715e-21 2.8543598e-22 3.8291023e-06
000260 05 91 83 27 ed ac c0 1a 44 6e 30 36 72 2b 97 32
       3.6517035e-15 7.9688715e-23 2.6290227e-06 1.759847e-08
000270 57 79 c3 34 cd 35 1d 38 04 b8 6a 37 d3 3d a1 18
       3.6409867e-07 3.7481823e-05 1.3990331e-05 4.167995e-24
000280 8a 78 37 33 de 8a 24 27 32 55 0c 2a 54 a0 1c 30
       4.2717637e-08 2.2834852e-15 1.2464056e-13 5.698031e-10
000290 59 e3 e6 35 6a 8e c6 2f 07 dc d5 2d 62 6b 43 37
       1.7202502e-06 3.6117181e-10 2.4313008e-11 1.1647908e-05
0002a0 00 00 00 00 53 2a 02 1e f3 89 94 1b bc 62 45 2f
       0.0 6.890895e-21 2.4573694e-22 1.7952123e-10
0002b0 94 5a 00 24 d3 8e 46 1b a9 41 22 33 af b3 0f 29
       2.7832298e-17 1.6424325e-22 3.7778282e-08 3.190823e-14
0002c0 76 59 79 2d e1 6e 42 33 e5 fb d9 32 d4 12 e7 18
       1.4173876e-11 4.526999e-08 2.5376673e-08 5.9731112e-24
0002d0 a5 9a 88 32 5d 18 bc 26 b5 8f 9f 29 a2 0b 52 2f
       1.5902808e-08 1.3051724e-15 7.0859476e-14 1.9103522e-10
0002e0 aa 23 d4 34 f7 69 30 2f bd 2b 68 2d 76 59 65 36
       3.9514026e-07 1.6044753e-10 1.3197385e-11 3.4175732e-06
0002f0 33 d5 01 20 00 00 00 00 65 f4 5e 1b 06 db 89 2e
       1.0997267e-19 0.0 1.8442378e-22 6.268945e-11
000300 3e c5 64 22 73 a3 33 1a 9a 8e 8c 32 4a e1 6a 28
       3.1004181e-18 3.7148366e-23 1.6362993e-08 1.3038461e-14
000310 85 8f 18 2d 8b f4 b0 32 5e 05 36 32 be 6d 79 17
       8.672067e-12 2.0600302e-08 1.0595015e-08 8.0594753e-25
000320 94 a2 27 32 b8 05 1b 26 74 d4 2d 29 e3 26 21 2f
       9.757645e-09 5.378418e-16 3.859799e-14 1.465668e-10
000330 ae 3c de 34 06 11 da 2e eb a2 07 2d 47 fd 42 36
       4.1394873e-07 9.916516e-11 7.710037e-12 2.905568e-06
000340 47 f2 95 1e 20 5d 81 1d 00 00 00 00 2e 38 44 2e
       1.5876192e-20 3.4242305e-21 0.0 4.4615138e-11
000350 ae 43 68 20 79 b0 04 1b a9 ef 1d 32 ee 95 1c 28
       1.9673558e-19 1.0975805e-22 9.193095e-09 8.69225e-15
000360 84 ea 65 2c e5 49 47 32 b0 61 d6 31 ce 28 b4 18
       3.267304e-12 1.1600126e-08 6.2393255e-09 4.657011e-24
000370 53 51 e1 38 81 5a 18 2f 48 e8 06 32 ca ba aa 36
       0.00010743984 1.3856473e-10 7.852641e-09 5.08814e-06
000380 cc 6e 5e 3a 0c d3 a4 36 65 f2 17 36 33 5d a9 3b
       0.0008485138 4.91215e-06 2.2641846e-06 0.005168581
000390 3a 85 2b 1f 07 01 66 1e 83 22 f9 1b 00 00 00 00
       3.632086e-20 1.2176311e-20 4.1215897e-22 0.0
0003a0 43 68 04 26 f8 b3 d7 1b a0 18 aa 38 8f 4b 66 31
       4.5938e-16 3.5685068e-22 8.1108185e-05 3.3512355e-09
0003b0 42 1a 04 34 08 20 ad 39 f5 ea 2f 39 1b 4c 40 1a
       1.230301e-07 0.00033020996 0.00016776829 3.9766147e-23
0003c0 2a 29 a9 34 7d 7d 9c 2b 38 b8 37 2d a5 67 07 32
       3.1508654e-07 1.1119297e-12 1.044325e-11 7.8816e-09
0003d0 40 b5 f9 36 01 83 a0 31 43 8a 0b 30 7c 99 66 38
       7.4418786e-06 4.6715063e-09 5.0764387e-10 5.4979217e-05
0003e0 e9 40 a2 1e 37 66 80 1c 91 a3 34 1a 04 85 50 31
       1.7179263e-20 8.496751e-22 3.7355255e-23 3.0343594e-09
0003f0 00 00 00 00 99 1e 09 1a f4 1f ad 34 8e c7 16 2c
       0.0 2.8355653e-23 3.224701e-07 2.1427057e-12
