checkpoints/RNN_120.pt (torch, 111359 bytes, 9 tensors)

snn.l1.input_weights f4 [20, 416]
-0.24209894 0.12418378 -0.22636624 -0.03455452 -0.39740127 -0.16503213 -0.77232325 0.12790059
-0.44959143 0.4103742 -0.17421646 -0.3812481 -0.2874075 -0.906337 -0.058419507 0.045052234
-0.61738145 -0.5467859 -0.1831717 -0.24120033 0.007608739 -0.033548053 -0.29534644 0.3872679
-0.41914022 0.25605956 -0.10380874 0.16192314 0.1975173 -0.14155214 0.35130268 0.5404028
-0.49652934 -0.69818705 -0.5333906 -0.062765524 0.4969535 -0.06583008 -0.87327486 -0.43492815
-0.9682701 0.30353522 -0.61759764 0.44303918 0.23083651 0.38500845 0.19712943 0.03699531
-0.23754652 -0.8445611 -0.6022347 -0.20099318 0.9546962 0.5078625 0.22923955 0.41878602
0.16701761 0.5450249 0.6116528 0.88132596 0.7466226 0.5592456 0.46779713 0.3383502
0.8622607 0.64462614 0.8611233 0.8593931 0.82338774 0.4520643 -0.15449925 0.37966803
0.44291073 0.74342304 0.22417542 0.31544945 0.7676557 0.08931482 0.6390903 0.59281695
0.753632 0.8361292 0.2756541 0.6697587 0.57280177 0.65656847 0.43865845 0.34064507
0.31988364 0.29154125 0.33666545 0.8436593 0.5297886 0.31626678 0.8716951 0.5978846
0.20533286 0.98138714 0.6179263 1.0837522 0.31034487 -0.15276517 0.3866136 0.72742015
2.2172897 2.19986 1.5107135 1.7044489 2.1752517 2.2940414 1.3174542 2.1009355
1.1091297 1.9781715 1.9107693 2.4747453 2.2570467 1.5884966 1.3551363 1.9637351
2.1050017 1.7136183 1.6937892 1.9236077 1.9431769 2.1373274 1.3698349 1.5613165
1.382607 2.116678 1.8678516 2.3464584 2.0585837 1.7323924 1.8810982 1.4651995
1.9792621 1.8447516 1.4511213 1.9268612 1.82752 1.9036093 1.595825 1.6202084
0.9527804 2.3932765 2.1427412 2.865719 2.223545 1.4939176 1.4062171 1.7886187
2.2531013 1.8529104 1.531735 2.698624 -0.90222204 0.107637204 0.20611386 0.076028906
0.08671257 0.00833449 0.4980144 0.9853177 0.6433124 0.53532696 0.7018474 0.35221192
-0.24212478 0.20239007 0.14872755 -0.17826386 -0.6507278 0.22417071 0.22233617 -0.105518766
-0.16306892 -0.03309113 0.3844387 0.59927154 0.39226574 0.12348216 -0.3872816 0.6612279
0.06351725 -0.2553354 0.2919371 0.20152467 -0.1790355 -0.038390443 0.19447495 -0.13487232
0.1456481 -0.3094026 0.73839694 0.6111134 0.2959027 0.11539339 -0.108890556 0.7183114
0.16423038 0.20304619 0.46423674 0.2656116 0.10686298 0.2711918 0.2498006 0.20320404
-0.25857884 -0.22735837 -0.22732145 -0.5323877 -0.0011321729 -0.072848156 -0.6144043 -0.50628275
-0.430237 -0.46634826 -0.45838416 -0.32515368 0.09164871 -0.86582774 -0.71146715 -0.46898377
-0.28187567 0.05934173 -0.4786964 -0.50758797 0.3302184 -0.54454786 -0.5806938 -0.009006158
-0.40343946 -0.51786685 -0.15920879 -0.61253613 0.1821332 -0.2757891 -0.47517568 -0.5961271
-0.52470785 -0.6704336 -0.57684493 -0.39218664 -0.0064692465 -0.80968434 -0.5587092 0.26053795
-0.1688726 -0.36468288 0.06321131 -0.4687818 -0.48229575 -0.15772921 -0.5675008 -0.5338366
00000000: c9e8 77be 1154 fe3d 8dcc 67be 0a89 0dbd
00000010: 2e78 cbbe 2ffe 28be fab6 45bf 5ff8 023e
00000020: d930 e6be 911c d23e cd65 32be f332 c3be
00000030: 1327 93be b405 68bf 4b49 6fbd b188 383d
00000040: b60c 1ebf 29fa 0bbf 5d91 3bbe 38fd 76be
00000050: bb52 f93b af69 09bd a637 97be fa47 c63e
00000060: 8c99 d6be 3d1a 833e ad99 d4bd 2ecf 253e
00000070: fa41 4a3e 0bf3 10be f2dd b33e d757 0a3f
00000080: 1839 febe 63bc 32bf 498c 08bf 368b 80bd
00000090: b070 fe3e ecd1 86bd f18e 5fbf e7ae debe
000000a0: 8de0 77bf f868 9b3e e11a 1ebf 08d6 e23e
000000b0: 6860 6c3e d41f c53e 4cdc 493e 6588 173d
000000c0: 653f 73be 2835 58bf 0e2c 1abf 28d1 4dbe
000000d0: f866 743f 4703 023f c6bd 6a3e 1f6b d63e
000000e0: aa06 2b3e c086 0b3f 4795 1c3f 949e 613f
000000f0: a922 3f3f b82a 0f3f 1b83 ef3e 3d3c ad3e
00000100: 1ebd 5c3f 3806 253f 9472 5c3f 3001 5c3f
00000110: 8ac9 523f f974 e73e 0d35 1ebe d963 c23e
00000120: 32c5 e23e f950 3e3f 3e8e 653e 9782 a13e
00000130: 1585 443f b0ea b63d 6c9b 233f dac2 173f
00000140: 07ee 403f 900c 563f 8922 8d3e 4e75 2b3f
00000150: 23a3 123f df14 283f d797 e03e 0869 ae3e
00000160: cac7 a33e e544 953e 6a5f ac3e 0efa 573f
00000170: 3aa0 073f b8ed a13e 6927 5f3f f70e 193f
00000180: c742 523e 303c 7b3f 6b30 1e3f 64b8 8a3f
00000190: 86e5 9e3e 796e 1cbe 38f2 c53e 3538 3a3f
000001a0: 13e8 0d40 82ca 0c40 0f5f c13f 622b da3f
000001b0: 5337 0b40 93d1 1240 57a2 a83f ba75 0640
000001c0: f6f7 8d3f b934 fd3f 1794 f43f 3a62 1e40
000001d0: 7473 1040 db53 cb3f 1b75 ad3f ac5b fb3f
000001e0: 59b8 0640 d857 db3f 16ce d83f c738 f63f
000001f0: 05ba f83f f9c9 0840 c056 af3f 38d9 c73f
00000200: 44f9 b03f a777 0740 c315 ef3f 602c 1640
00000210: d6bf 0340 09bf dd3f d3c7 f03f a88b bb3f
00000220: 7658 fd3f d220 ec3f 58be b93f 63a3 f63f
00000230: 2dec e93f 78a9 f33f fe43 cc3f fd62 cf3f
00000240: 6be9 733f 712b 1940 ac22 0940 f167 3740
00000250: 904e 0e40 b138 bf3f ecfe b33f 75f1 e43f
00000260: d032 1040 2b2c ed3f e40f c43f 41b6 2c40
00000270: 06f8 66bf e570 dc3d 830f 533e 0bb5 9b3d
00000280: 5c96 b13d 628d 083c befb fe3e c83d 7c3f
00000290: 1fb0 243f 300b 093f 45ac 333f 1f55 b43e
000002a0: 8fef 77be 583f 4f3e 094c 183e cd8a 36be
000002b0: 1996 26bf 028d 653e 18ac 633e 391a d8bd
000002c0: 8afb 26be 918a 07bd 26d5 c43e dc69 193f
000002d0: 0ed7 c83e 37e4 fc3d c649 c6be 3b46 293f
000002e0: 5515 823d 52bb 82be c878 953e 7c5c 4e3e
000002f0: 1555 37be 4c3f 1dbd 7124 473e f81b 0abe
00000300: c724 153e 056a 9ebe 9507 3d3f ee71 1c3f
00000310: 8f80 973e 5f53 ec3d 0302 dfbd 42e3 373f
00000320: 022c 283e 57eb 4f3e 70b0 ed3e 3efe 873e
00000330: fada da3d a7d9 8a3e bacb 7f3e b814 503e
00000340: 7264 84be a2d0 68be f4c6 68be 8f4a 08bf
00000350: 6b65 94ba 6a31 95bd 9a49 1dbf bf9b 01bf
00000360: 0648 dcbe 33c5 eebe 54b1 eabe 8b7a a6be
00000370: 52b2 bb3d e3a6 5dbf b622 36bf a41e f0be
00000380: 0252 90be 5010 733d b217 f5be 49f1 01bf
00000390: 6312 a93e 7d67 0bbf 59a8 14bf 918e 13bc
000003a0: 9e8f cebe ec92 04bf a107 23be 2bcf 1cbf
000003b0: 2081 3a3e 3b34 8dbe 3a4a f3be c99b 18bf
000003c0: 4153 06bf 89a1 2bbf 1cac 13bf b0cc c8be
000003d0: f9fb d3bb 7947 4fbf 9107 0fbf 3b65 853e
000003e0: f0ec 2cbe b7b7 babe ee74 813d 2b04 f0be
000003f0: 78ef f6be c483 21be bc47 11bf 84a9 08bf

snn.l1.recurrent_weights f4 [20, 20]
0.0 6.325646 2.7093103 4.665947 1.072092 -2.0080242 -1.9559842 -2.4264228
5.9580855 2.8232226 3.3545468 5.813197 7.0121984 3.4330513 -1.2774045 0.13552491
5.696962 -5.0188074 2.2186048 0.8221505 -0.04677003 0.0 14.200438 10.033331
-0.945418 4.2852917 11.825721 -3.233461 6.5195804 4.0779853 3.5700357 10.239844
13.41033 4.6526923 -0.45815885 7.503549 -1.6362901 3.8399014 -0.08121894 1.8982611
0.047116626 9.228062 0.0 7.365487 -3.6001723 3.1299613 7.5755687 -1.8924522
2.064368 4.692232 1.9169232 9.584133 9.27964 4.0935555 2.590914 5.8132763
-1.4705449 5.404655 0.9865602 2.9216979 0.60608405 2.734129 4.0756083 0.0
0.19682777 -1.4583738 7.183444 0.4762502 4.2287226 0.83347404 2.6689076 16.943401
5.167932 1.4530752 0.85943115 0.62669045 4.5745015 5.426881 4.1091003 -0.37285924
-1.3895301 4.6706166 2.1962042 7.99093 0.0 -1.4421275 2.0949147 -3.194984
5.345782 1.5366927 2.8404996 6.2512956 5.753463 1.5552045 -0.5244985 -0.30964413
-1.3709968 -0.67493963 -2.0454504 -0.1502853 -1.1881273 5.572526 6.064014 -0.14514545
0.24183327 0.0 1.5901722 0.6861538 5.2395034 2.7333255 2.9443612 1.0592656
5.917611 4.1202846 3.4801645 2.0487702 -0.53084344 -0.43187642 1.5905213 1.1362466
0.5506753 6.572152 5.233002 5.8512616 -1.5344583 3.8802176 0.0 0.09471074
2.5560277 1.7384827 0.68099916 4.813423 4.712383 1.886522 -0.17403318 4.5625
-1.6896373 6.66793 1.6725802 1.3173116 -1.0353645 7.695026 4.418861 1.9161589
3.258617 -1.834495 -5.5509167 0.0 5.953247 1.7318856 2.9885154 5.1075163
8.38971 3.532614 -2.86761 1.5648836 2.599916 -8.153067 -1.9456288 1.227662
-7.448592 5.682536 4.626097 6.0931087 -3.1471648 -6.156445 -1.0440513 -9.887129
0.0 -0.19825763 3.8215125 3.9003074 8.827598 2.0953226 -6.6856065 -0.6330323
-1.4005952 -7.2941985 -7.043906 -1.5721939 -8.523796 6.3835397 7.9212494 0.091698244
-5.611961 -5.836505 -4.1876807 -10.566765 5.997286 0.0 3.5609891 1.4982039
7.824818 4.7717633 -4.5868554 -1.196829 1.1822119 -7.656713 -6.6278434 1.1933634
-10.224871 3.399928 5.6318393 1.8022634 -4.14695 -8.095783 -6.5287313 -12.258405
7.399991 2.751933 0.0 0.77268356 6.509512 3.6072736 -8.063318 -5.05045
-1.6242887 -10.714024 -8.033549 -0.4358202 0.31396833 1.3573782 3.5308561 13.116199
-2.4624434 0.35336724 5.168463 0.05987133 1.7998784 0.19699532 0.73473513 0.0
3.5179372 1.8070078 -0.6647919 1.570043 1.8513007 4.2591467 3.3402083 0.06753139
-2.1758406 11.288503 11.144409 9.454117 -1.7423809 0.9814691 7.848299 -5.402374
7.4813514 1.6979185 4.62526 9.067874 0.0 3.936116 -3.6841035 4.0522437
00000000: 0000 0000 b16b ca40 5765 2d40 704f 9540
00000010: 503a 893f 7883 00c0 b15d fabf 834a 1bc0
00000020: a3a8 be40 aeaf 3440 e5b0 5640 b605 ba40
00000030: ee63 e040 1db7 5b40 fe81 a3bf 0bc7 0a3e
00000040: 834d b640 129a a0c0 9ffd 0d40 7578 523f
00000050: ee91 3fbd 0000 0000 fe34 6341 8688 2041
00000060: ea06 72bf 1c21 8940 2736 3d41 06f1 4ec0
00000070: 67a0 d040 db7e 8240 777b 6440 67d6 2341
00000080: b690 5641 dbe2 9440 cc93 eabe 131d f040
00000090: f471 d1bf f2c0 7540 1e56 a6bd 38fa f23f
000000a0: 5dfd 403d 24a6 1341 0000 0000 12b2 eb40
000000b0: 3969 66c0 4951 4840 0f6b f240 e03b f2bf
000000c0: 9b1e 0440 c426 9640 bd5d f53f 9c58 1941
000000d0: 6879 1441 68fe 8240 89d1 2540 5c06 ba40
000000e0: d13a bcbf eff2 ac40 368f 7c3f 19fd 3a40
000000f0: 5328 1b3f f8fb 2e40 626b 8240 0000 0000
00000100: 388d 493e feab babf c6de e540 11d7 f33e
00000110: b251 8740 8e5e 553f 62cf 2a40 168c 8741
00000120: b35f a540 5efe b93f ae03 5c3f c96e 203f
00000130: 5162 9240 02a9 ad40 c07d 8340 68e7 bebe
00000140: 1fdc b1bf b175 9540 9c8e 0c40 b3b5 ff40
00000150: 0000 0000 a297 b8bf 1513 0640 9e7a 4cc0
00000160: a510 ab40 59b2 c43f bfca 3540 9d0a c840
00000170: 5e1c b840 f110 c73f 8945 06bf ad89 9ebe
00000180: d37c afbf d8c8 2cbf a9e8 02c0 64e4 19be
00000190: 8e14 98bf 2252 b240 670c c240 02a1 14be
000001a0: 24a3 773e 0000 0000 c38a cb3f c7a7 2f3f
000001b0: 03aa a740 ceee 2e40 6a70 3c40 0496 873f
000001c0: 125d bd40 5fd9 8340 04bb 5e40 0d1f 0340
000001d0: 5be5 07bf e81e ddbe 3496 cb3f 8770 913f
000001e0: 0ef9 0c3f 124f d240 c174 a740 893d bb40
000001f0: 2169 c4bf 7c55 7840 0000 0000 b4f7 c13d
00000200: f595 2340 9a86 de3f f655 2e3f 9007 9a40
00000210: d7cb 9640 8e79 f13f c135 32be 0000 9240
00000220: 0946 d8bf af5f d540 1c17 d63f ab9d a83f
00000230: d386 84bf a73d f640 4f67 8d40 b244 f53f
00000240: 2e8d 5040 bbd0 eabf 1ca1 b1c0 0000 0000
00000250: 0081 be40 6dae dd3f d643 3f40 c670 a340
00000260: 413c 0641 5916 6240 ec86 37c0 1b4e c83f
00000270: 0665 2640 f672 02c1 5d0a f9bf 0724 9d3f
00000280: de5a eec0 56d7 b540 fd08 9440 bffa c240
00000290: 266b 49c0 9901 c5c0 79a3 85bf ae31 1ec1
000002a0: 0000 0000 0c04 4bbe a993 7440 a39e 7940
000002b0: d73d 0d41 c419 0640 7df0 d5c0 680e 22bf
000002c0: b446 b3bf 136a e9c0 ae67 e1c0 a63d c9bf
000002d0: 7861 08c1 f545 cc40 e07a fd40 4acc bb3d
000002e0: 2f95 b3c0 a6c4 bac0 7b01 86c0 7811 29c1
000002f0: c4e9 bf40 0000 0000 3fe7 6340 25c5 bf3f
00000300: e964 fa40 49b2 9840 85c7 92c0 b131 99bf
00000310: b852 973f cb03 f5c0 4b17 d4c0 22c0 983f
00000320: 1299 23c1 6c98 5940 0738 b440 91b0 e63f
00000330: d0b3 84c0 5488 01c1 5eeb d0c0 6d22 44c1
00000340: bacc ec40 ac1f 3040 0000 0000 97ce 453f
00000350: ec4d d040 92dd 6640 5a03 01c1 499d a1c0
00000360: b1e8 cfbf a46c 2bc1 6b89 00c1 d323 dfbe
00000370: 75c0 a03e 92be ad3f 8cf9 6140 f3db 5141
00000380: ac98 1dc0 8dec b43e 0d64 a540 a43b 753d
00000390: 6a62 e63f 24b9 493e 9a17 3c3f 0000 0000
000003a0: e225 6140 084c e73f cd2f 2abf 2bf7 c83f
000003b0: 6cf7 ec3f ee4a 8840 f9c5 5540 e64d 8a3d
000003c0: f940 0bc0 b59d 3441 804f 3241 1044 1741
000003d0: 5606 dfbf 8f41 7b3f 4425 fb40 3fe0 acc0
000003e0: 3b67 ef40 6555 d93f 2102 9440 0316 1141
000003f0: 0000 0000 53e9 7b40 5ac8 6bc0 fbab 8140

snn.fc_out.weight f4 [9, 20]
0.5696139 -3.814754 -4.1273804 -6.2945404 2.0224726 0.9419244 -4.0670323 3.7040732
-3.3505447 -0.07441331 -1.354383 -6.4468765 -2.9649937 -1.301956 2.3023977 -0.26560727
3.8434396 -1.0673459 2.4703689 -0.22691427 -3.0215414 3.2062156 7.562475 -3.596197
-1.9664016 0.31458643 -0.29356864 -2.3612707 0.553422 2.5950308 1.9099075 -1.7953206
2.409826 1.3498555 1.7217956 -3.5150445 -1.509484 1.3435864 -0.69590515 1.6804531
2.8677049 1.1462892 -1.2213913 -1.3438448 5.287451 0.9229145 0.47745842 0.75947183
4.164361 0.17809984 1.9531513 -3.238553 2.4110303 0.62362903 1.756462 1.3600051
-6.35871 -2.7344074 -3.1702924 0.7406811 0.52477777 -0.2938159 0.42527568 -5.0062995
-1.78698 2.5683002 -0.78952837 1.893581 -0.109471075 1.4326154 0.47207925 -0.91803026
0.8087963 1.6088101 1.9347329 3.8112307 3.3107712 -1.2968693 0.35355332 1.1506598
-0.9959691 2.8537955 -0.27078342 -4.2255354 -0.7520405 -1.335913 4.499126 -0.41062444
-2.4670844 -0.7374353 -1.9240894 -7.400448 0.95054686 -1.6814005 -1.614574 1.0683666
-1.5549349 2.8693278 -0.23244308 -1.2858444 2.173627 -1.1887628 -3.7219393 0.7934734
-1.8370025 -3.1129444 -2.675723 0.21455722 -4.20371 -0.95431864 -2.6257906 1.4980843
-2.5332808 -0.51136166 -3.1224751 0.34968835 3.3348541 -0.026059212 0.18878953 -0.48828965
-6.485243 -10.417898 -9.57781 5.027596 -4.478313 1.601599 0.24489091 -0.5835056
-5.7684054 -8.172402 -6.947007 4.943845 -6.953393 -6.2936206 -6.509278 -3.3629143
-3.218209 0.9733832 -0.7926168 -4.113893 -2.712767 -2.0798814 -6.3921475 7.8087587
2.418199 -1.4126031 -1.1573459 -5.2357526 3.647135 -2.9893754 2.1133523 2.8085678
0.1059368 -1.4036609 -4.6231136 -6.856521 -5.3827734 -0.95463413 0.68936414 -3.3906672
-1.7197043 -13.374265 -1.1139051 4.236886 -8.970333 -5.267645 -8.898972 -0.82739913
-8.528425 -3.545235 -4.7445226 5.3893147 -12.7858305 -4.2958045 2.991459 -6.699209
1.0284593 0.84504044 0.24576539 -0.5189095
00000000: 37d2 113f ee24 74c0 8013 84c0 e06c c9c0
00000010: 3170 0140 f521 713f 2125 82c0 890f 6d40
00000020: 536f 56c0 0166 98bd 6c5c adbf d04c cec0
00000030: 75c2 3dc0 7fa6 a6bf 7c5a 1340 adfd 87be
00000040: eafa 7540 ca9e 88bf 861a 1e40 375c 68be
00000050: ef60 41c0 a332 4d40 ccff f140 1728 66c0
00000060: 0cb3 fbbf 7911 a13e a14e 96be 0f1f 17c0
00000070: 10ad 0d3f fc14 2640 d977 f43f 11cd e5bf
00000080: 973a 1a40 11c8 ac3f cc63 dc3f 7df6 60c0
00000090: c636 c1bf a4fa ab3f d726 32bf 1619 d73f
000000a0: 7a88 3740 9bb9 923f 8d56 9cbf 1b03 acbf
000000b0: cc32 a940 2044 6c3f 6e75 f43e bf6c 423f
000000c0: 7242 8540 ce5f 363e dd00 fa3f 7444 4fc0
000000d0: 524e 1a40 27a6 1f3f bfd3 e03f a614 ae3f
000000e0: 8d7a cbc0 8800 2fc0 12e6 4ac0 479d 3d3f
000000f0: d657 063f 0a6f 96be bcbd d93e 9b33 a0c0
00000100: c3bb e4bf 085f 2440 881e 4abf dd60 f23f
00000110: 5f32 e0bd f15f b73f 5fb4 f13e 0804 6bbf
00000120: 460d 4f3f 7ded cd3f 54a5 f73f 34eb 7340
00000130: ade3 5340 d0ff a5bf f104 b53e d248 933f
00000140: d5f7 7ebf 96a4 3640 20a4 8abe 9637 87c0
00000150: ba85 40bf 32ff aabf d7f8 8f40 5e3d d2be
00000160: b6e4 1dc0 8fc8 3cbf 9048 f6bf 78d0 ecc0
00000170: 0a57 733f 2238 d7bf 5caa cebf 3dc0 883f
00000180: 1b08 c7bf 11a3 3740 8f05 6ebe 8d96 a4bf
00000190: b41c 0b40 6129 98bf 4134 6ec0 1321 4b3f
000001a0: e622 ebbf 7b3a 47c0 0c3f 2bc0 e3b4 5b3e
000001b0: cb84 86c0 3a4e 74bf f40c 28c0 3ac1 bf3f
000001c0: 4621 22c0 99e8 02bf a2d6 47c0 5a0a b33e
000001d0: 406e 5540 217a d5bc 0b52 413e 1a01 fabe
000001e0: 1c87 cfc0 b6af 26c1 b63e 19c1 11e2 a040
000001f0: 574e 8fc0 3201 cd3f afc4 7a3e 9f60 15bf
00000200: c796 b8c0 29c2 02c1 e24d dec0 fa33 9e40
00000210: 3282 dec0 5765 c9c0 014c d0c0 fd39 57c0
00000220: 23f7 4dc0 a42f 793f efe8 4abf 03a5 83c0
00000230: f99d 2dc0 c71c 05c0 798c ccc0 5ae1 f940
00000240: c6c3 1a40 2ed0 b4bf e923 94bf 498b a7c0
00000250: a96a 6940 ed51 3fc0 2a41 0740 93bf 3340
00000260: 65f5 d83d 29ab b3bf 8cf0 93c0 9f68 dbc0
00000270: ae3f acc0 e762 74bf 2b7a 303f b100 59c0
00000280: 451f dcbf fdfc 55c1 7194 8ebf 9294 8740
00000290: 7c86 0fc1 8c90 a8c0 3062 0ec1 6ed0 53bf
000002a0: 6e74 08c1 21e5 62c0 21d3 97c0 4475 ac40
000002b0: c392 4cc1 3b77 89c0 1074 3f40 ec5f d6c0
000002c0: 8ea4 833f 9254 583f eca9 7b3e 41d7 04bf

exp_avg f4 [20, 416]
0.000244373 0.0005163115 -0.00033558512 0.00046374535 5.6000637e-05 0.00019548515 -0.003914684 -0.0011966843
-0.0013452183 -0.0010432132 0.00030809187 0.0006917215 0.00040102392 0.00055475516 0.0003997835 -0.0007707333
-0.0024591747 -0.0021963492 -0.002225745 5.663829e-06 -0.0011919069 -0.00061134313 0.0030550177 -0.0023679286
-0.002580105 -0.00052648975 -0.001772923 0.0001439022 0.0004864047 -0.0010557472 0.00017717337 -0.0008850801
-0.000705248 -0.00045511438 0.0013632254 -0.0034397477 0.0013304442 0.00027666593 0.0013533357 0.00024216842
-0.0008518321 -0.001570031 0.0025281725 0.0005677609 -0.00048091076 0.0037968792 -0.0023033922 -0.00026704103
0.0010353955 0.0047041564 -0.0028194364 -0.0020986653 -0.0011845883 0.002065215 -0.0006904518 0.00046492132
-0.00055236905 0.0029561205 0.000560136 -0.0008811542 -0.0023636352 0.0009443043 -0.001976804 -0.000115945084
-0.0006428603 -3.6616082e-05 -0.002722699 -0.0007055385 0.0010566775 -0.00095688796 -0.002863254 -0.0023671528
0.0011251117 0.0006361567 -0.0015454553 -0.0005314462 0.0008198538 -0.0022968915 -0.0026605364 0.00018426256
-0.00036111337 -0.0016210818 -0.0001750763 -0.00043653217 0.00029815937 0.00059940486 -8.911015e-05 -0.0016849653
-0.0011604083 0.00039899428 -0.0011747284 0.0001264231 -0.0008811221 -0.0011532246 0.0012631003 0.0003514188
0.0012244596 0.0021832818 0.0012887516 0.0007861454 -0.0021407444 0.0033549932 2.0598345e-06 -0.0024199423
-0.00048282594 -0.001023654 -0.0006082657 -0.0026525417 -0.00011718641 -0.00026596308 -0.0007774522 0.0040547354
-0.0052763727 0.0010426358 0.00023572122 -0.00082830084 -0.0014799208 -0.0024682668 -0.00040953272 0.0004844989
0.0008082184 -0.00047764028 -0.0006262068 -0.002739776 0.00059383654 0.0010664725 0.00020305303 0.0007822309
0.0009093171 -0.0013007122 -0.000522759 0.0017146884 0.0011861889 -0.00092863117 -0.0015814588 -0.00012445074
-0.0015436567 -0.0013195531 0.00010639614 -0.0007311754 0.0005639804 0.0012204126 -0.0013231563 -0.0031725052
5.9934173e-05 -0.0015075253 -0.0009332755 -0.001123873 0.0012461551 -2.1082527e-05 -0.0027610564 0.0011743209
-0.0015337009 0.0020613603 -0.0014362598 0.0020378714 0.0025345774 0.00038357475 -0.00024597047 -0.0011607475
-0.004105163 -0.0018641673 0.00068232877 0.0016115556 -0.0025337592 0.001174296 0.0016285958 -0.003886464
-0.0018695515 -0.0007587006 -0.00018342458 0.0012441447 -0.00033633815 -0.00620013 -0.00012472244 -0.0025659825
-0.00071240135 -0.002496301 -0.00021591381 0.0040360447 -0.0012468599 -0.0012103269 -0.0033433652 -0.0005727505
0.0016483577 -0.00047048507 0.0012884173 -0.00039049334 -0.0014810067 0.00038798756 5.8069832e-05 -0.001664128
-0.002852621 0.0002505949 -0.0017255214 0.0003117862 -0.0016348037 2.9028886e-05 -0.0045129852 0.003509808
0.002728393 -0.000119138735 0.0011456065 0.0017960295 0.00114609 -0.0044548744 0.0011294471 0.00034028076
-0.00083906774 0.0036742252 0.00135681 0.0021657583 -0.00027954183 0.0009120331 -0.0006255398 0.0032122442
-0.0012078772 0.0009168816 -0.0020872008 0.002151166 -0.0016855999 0.0010044955 -0.0061223907 -0.0014083002
-0.0017480484 -0.0013867444 -0.001538555 -8.8043234e-05 -0.001162876 0.001481593 -0.0023560799 0.00071436644
-0.0012800363 0.0012184328 0.0019143611 0.0011036064 0.0003210267 -0.0011838798 -0.0009938992 -0.0013287241
-0.0016612435 -0.001165022 -0.00027674026 0.00015192218 -0.002818066 -0.0002551772 -0.0005646744 0.0011055897
-0.0013757555 -0.0003204545 -0.0032149693 -0.0034291574 -0.0026334464 -0.00085900404 0.0005183385 -0.0022741086
00000000: 301f 8039 1459 073a 79f1 afb9 d922 f339
00000010: 3ae2 6a38 25fb 4c39 c046 80bb 10da 9cba
00000020: 0952 b0ba 6dbc 88ba 6487 a139 a554 353a
00000030: 8540 d239 fd6c 113a 089a d139 090b 4aba
00000040: 1b2a 21bb a0f0 0fbb cedd 11bb ec0b be36
00000050: c239 9cba 8b42 20ba b136 483b 402f 1bbb
00000060: fb16 29bb 2104 0aba 6d61 e8ba 74e4 1639
00000070: 2204 ff39 ff60 8aba 9dc7 3939 b804 68ba
00000080: 64e0 38ba 6b9c eeb9 41ae b23a 646d 61bb
00000090: 4d62 ae3a 790d 9139 6962 b13a 97ee 7d39
000000a0: 7c4d 5fba 80c9 cdba b2af 253b cad5 143a
000000b0: c022 fcb9 10d5 783b 82f4 16bb a401 8cb9
000000c0: 1cb6 873a 5325 9a3b 4bc6 38bb c389 09bb
000000d0: 3044 9bba 8f58 073b 70ff 34ba afc0 f339
000000e0: dccc 10ba 79bb 413b 17d6 123a 42fd 66ba
000000f0: 38e7 1abb 308b 773a 458d 01bb 8b27 f3b8
00000100: a085 28ba 3894 19b8 4f6f 32bb e3f3 38ba
00000110: 3780 8a3a aad7 7aba 6ea5 3bbb 3c22 1bbb
00000120: 7c78 933a c1c3 263a e090 caba c050 0bba
00000130: 75eb 563a 7287 16bb 655c 2ebb 9b36 4139
00000140: d153 bdb9 7b7a d4ba b094 37b9 5bde e4b9
00000150: 4652 9c39 6121 1d3a a6e0 bab8 0eda dcba
00000160: d718 98ba 1b30 d139 58f9 99ba 7190 0439
00000170: 1afb 66ba cc27 97ba 9d8e a53a a23e b839
00000180: 0c7e a03a 6415 0f3b 54eb a83a 5315 4e3a
00000190: bb4b 0cbb 72df 5b3b b03b 0a36 e597 1ebb
000001a0: cd23 fdb9 212c 86ba 0574 1fba 44d6 2dbb
000001b0: fac1 f5b8 f670 8bb9 efcd 4bba 96dd 843b
000001c0: 6ce5 acbb 0da9 883a ef2b 7739 5422 59ba
000001d0: e7f9 c1ba a5c2 21bb 8db6 d6b9 5704 fe39
000001e0: 9ede 533a cb6b fab9 0728 24ba d08d 33bb
000001f0: b2ab 1b3a e1c8 8b3a a2ea 5439 a10e 4d3a
00000200: 3d5f 6e3a a97c aaba c309 09ba 65bf e03a
00000210: e579 9b3a 626f 73ba f448 cfba fe7e 02b9
00000220: 8654 caba dbf4 acba fe20 df38 5aac 3fba
00000230: 15d8 133a 40f6 9f3a c26d adba cee9 4fbb
00000240: d461 7b38 2898 c5ba 0fa7 74ba ec4e 93ba
00000250: 0756 a33a 62da b0b7 d7f2 34bb aceb 993a
00000260: 7606 c9ba e317 073b e240 bcba cf8d 053b
00000270: 271b 263b 881a c939 99f5 80b9 3924 98ba
00000280: 9a84 86bb 1357 f4ba 4fde 323a d53a d33a
00000290: 6d0d 26bb d6ea 993a 9b76 d53a 0cb4 7ebb
000002a0: bd0b f5ba 89e3 46ba a955 40b9 9212 a33a
000002b0: 8b56 b0b9 762a cbbb edc7 02b9 0b2a 28bb
000002c0: 72c0 3aba fb98 23bb ec66 62b9 cc40 843b
000002d0: ad6d a3ba d5a3 9eba 5c1c 5bbb a324 16ba
000002e0: b50d d83a 70ab f6b9 1ce0 a83a 21bb ccb9
000002f0: 571e c2ba cf6a cb39 0290 7338 df1e daba
00000300: 0af3 3abb 4762 8339 e42a e2ba 3c77 a339
00000310: e946 d6ba 0f83 f337 aae1 93bb cf04 663b
00000320: d7ce 323b 1fda f9b8 2d28 963a c068 eb3a
00000330: 6638 963a 32fa 91bb f509 943a b667 b239
00000340: e2f4 5bba 45cb 703b fdd6 b13a 65ef 0d3b
00000350: 788f 92b9 8115 6f3a 44fb 23ba 8484 523b
00000360: a251 9eba e25a 703a 6bc9 08bb 94fa 0c3b
00000370: 59ef dcba 47a9 833a 569e c8bb b796 b8ba
00000380: c51e e5ba 6cc3 b5ba 57a9 c9ba daa3 b8b8
00000390: a56b 98ba 0332 c23a 7668 1abb 5244 3b3a
000003a0: e4c6 a7ba d2b3 9f3a 4deb fa3a e3a6 903a
000003b0: 794f a839 6a2c 9bba b945 82ba 9528 aeba
000003c0: 15be d9ba a7b3 98ba 7317 91b9 4d4d 1f39
000003d0: 4daf 38bb 4ec9 85b9 a806 14ba 6fe9 903a
000003e0: b252 b4ba ad02 a8b9 3cb2 52bb b7bb 60bb
000003f0: e695 2cbb c92e 61ba 1ce1 073a 3609 15bb

exp_avg_sq f4 [20, 416]
6.0369017e-05 5.7397978e-05 5.1288866e-05 6.1112885e-05 0.00014828179 4.76204e-05 5.9089227e-05 3.937257e-05
5.815101e-05 6.4657994e-05 8.0396036e-05 6.58377e-05 6.440766e-05 9.774781e-05 6.4657375e-05 0.00012524259
0.000106078754 7.355636e-05 5.4449527e-05 0.00020051823 6.166714e-05 6.109395e-05 8.643932e-05 5.3965e-05
4.621866e-05 5.78581e-05 5.77766e-05 4.0124753e-05 6.60494e-05 5.7971796e-05 7.880433e-05 6.870712e-05
4.936417e-05 0.00014360911 6.216352e-05 5.7190697e-05 7.681576e-05 6.0191574e-05 0.00013658554 9.016175e-05
5.1064984e-05 8.8246954e-05 7.343705e-05 4.3907952e-05 4.4927696e-05 4.135669e-05 5.5592944e-05 7.578881e-05
4.8444752e-05 0.00010693609 6.1940846e-05 5.76854e-05 5.827023e-05 4.3773187e-05 4.12609e-05 4.6055888e-05
5.135749e-05 4.8889247e-05 4.114738e-05 3.5372243e-05 4.0722036e-05 3.9765277e-05 7.031854e-05 3.6625665e-05
4.8986934e-05 4.4176668e-05 4.1206127e-05 4.3969696e-05 4.09335e-05 4.5698303e-05 6.326015e-05 6.0005084e-05
5.7013956e-05 3.8006943e-05 4.9040733e-05 6.349067e-05 3.960898e-05 4.070928e-05 4.812524e-05 3.295974e-05
4.1479987e-05 4.3355274e-05 5.2724776e-05 3.989975e-05 4.178586e-05 4.4563167e-05 4.681947e-05 4.810957e-05
4.5333883e-05 4.3199532e-05 5.3721422e-05 4.9594284e-05 4.813671e-05 3.700905e-05 7.175031e-05 3.008012e-05
4.8040325e-05 3.849988e-05 5.0261962e-05 4.0409814e-05 4.4916265e-05 5.456565e-05 5.4274537e-05 4.3509703e-05
3.3653727e-05 3.1283005e-05 3.6459383e-05 3.93245e-05 3.011364e-05 3.1057185e-05 3.0942825e-05 5.2355586e-05
3.2541495e-05 3.6585177e-05 3.980807e-05 3.1777676e-05 3.672825e-05 3.6608355e-05 3.615332e-05 3.413375e-05
3.4109813e-05 3.8632734e-05 3.30983e-05 3.7047586e-05 3.1795378e-05 3.4310535e-05 3.261174e-05 6.0917682e-05
2.905914e-05 4.0675262e-05 3.5663543e-05 2.5637446e-05 3.8603026e-05 4.109029e-05 3.2109856e-05 3.6479585e-05
3.673157e-05 3.2537897e-05 3.147624e-05 3.842851e-05 2.5388974e-05 3.4649198e-05 3.880676e-05 5.1157404e-05
3.2031374e-05 3.088547e-05 3.300133e-05 2.624455e-05 3.7313526e-05 3.5863468e-05 3.5901565e-05 4.223128e-05
4.0964936e-05 3.8829192e-05 3.40291e-05 3.6898706e-05 7.788871e-05 7.120589e-05 5.952833e-05 8.2485436e-05
9.491426e-05 7.658758e-05 7.996008e-05 7.251362e-05 8.578733e-05 5.714406e-05 0.0001180102 6.7462046e-05
5.182845e-05 7.018371e-05 7.976949e-05 6.686422e-05 0.00010076 7.710786e-05 5.518992e-05 6.985925e-05
0.000100224475 8.937019e-05 0.00011244692 8.858938e-05 9.0753674e-05 6.0752274e-05 6.449005e-05 6.790086e-05
5.425117e-05 8.0795246e-05 8.87519e-05 6.550822e-05 9.279817e-05 7.210409e-05 5.1492367e-05 6.239156e-05
0.00010338289 5.5369146e-05 8.662576e-05 6.5240965e-05 0.00011237546 5.050873e-05 7.287575e-05 6.4642605e-05
6.479632e-05 7.250756e-05 0.000100275094 5.7877114e-05 7.3213305e-05 6.279682e-05 5.333219e-05 6.4671e-05
5.8828882e-05 6.9570015e-05 6.206876e-05 6.0507155e-05 6.511469e-05 6.912772e-05 6.0957103e-05 6.0101167e-05
7.893929e-05 6.874793e-05 6.987512e-05 9.460555e-05 0.00011823213 7.1734794e-05 8.075643e-05 9.191783e-05
6.112287e-05 7.315532e-05 7.545517e-05 6.6393586e-05 5.6986777e-05 9.288133e-05 5.2785403e-05 7.396764e-05
7.536526e-05 7.91783e-05 5.642247e-05 9.747873e-05 8.82257e-05 8.218767e-05 8.373838e-05 8.191498e-05
5.5779794e-05 0.00011501218 5.7250683e-05 7.882033e-05 8.346788e-05 0.00011523029 4.308445e-05 7.669131e-05
8.393654e-05 0.00014039711 4.7450256e-05 0.000112347 6.490729e-05 7.5591546e-05 7.761533e-05 7.879404e-05
00000000: bd34 7d38 9cbe 7038 001f 5738 bb29 8038
00000010: 177c 1b39 04bc 4738 93d6 7738 fa23 2538
00000020: 2ce7 7338 ff98 8738 4b9a a838 5912 8a38
00000030: 9912 8738 f5fd cc38 aa98 8738 8d53 0339
00000040: 9976 de38 4542 9a38 bc60 6438 3442 5239
00000050: 4b53 8138 911f 8038 c246 b538 7a58 6238
00000060: e9da 4138 a9ac 7238 2755 7238 a04b 2838
00000070: 0084 8a38 be26 7338 c143 a538 db16 9038
00000080: 600c 4f38 c795 1639 c95d 8238 0be0 6f38
00000090: 2618 a138 3676 7c38 6738 0f39 3915 bd38
000000a0: 9c2e 5638 3911 b938 3702 9a38 ce29 3838
000000b0: bf70 3c38 6876 2d38 782c 6938 cff0 9e38
000000c0: 2831 4b38 e042 e038 3de6 8138 3af3 7138
000000d0: 2f67 7438 1a99 3738 8e0f 2d38 222c 4138
000000e0: af68 5738 6e0e 4d38 aa95 2c38 a85c 1438
000000f0: f4cc 2a38 a4c9 2638 fb77 9338 829e 1938
00000100: 5277 4d38 564a 3938 bed4 2c38 1a6c 3838
00000110: 03b0 2b38 2eac 3f38 89aa 8438 f8ad 7b38
00000120: 4522 6f38 a569 1f38 16b1 4d38 4b26 8538
00000130: d221 2638 42bf 2a38 15da 4938 403e 0a38
00000140: ccfa 2d38 5fd8 3538 cc24 5d38 085a 2738
00000150: 3a43 2f38 56e9 3a38 0660 4438 42c9 4938
00000160: e324 3e38 2531 3538 f052 6138 7503 5038
00000170: 66e6 4938 2a3a 1b38 a878 9638 9154 fc37
00000180: e87e 4938 ee7a 2138 5fd0 5238 b57d 2938
00000190: 7964 3c38 6cdd 6438 d7a4 6338 307e 3638
000001a0: 6a27 0d38 df35 0338 f7eb 1838 5cf0 2438
000001b0: 8d9c fc37 6643 0238 9bc8 0138 6298 5b38
000001c0: 2a7d 0838 0973 1938 97f7 2638 0549 0538
000001d0: a80c 1a38 ec8b 1938 55a3 1738 d62a 0f38
000001e0: 2211 0f38 9509 2238 07d3 0a38 8b63 1b38
000001f0: 075c 0538 a8e8 0f38 97c8 0838 dd81 7f38
00000200: 07c4 f337 bb9a 2a38 7095 1538 ff0f d737
00000210: afe9 2138 5d58 2c38 b2ad 0638 a801 1938
00000220: 3910 1a38 4d79 0838 5b05 0438 4c2e 2138
00000230: 68fa d437 4b54 1138 71c4 2238 d891 5638
00000240: 6d59 0638 058b 0138 e96a 0a38 be27 dc37
00000250: 1881 1c38 1b6c 1638 0395 1638 7e21 3138
00000260: c4d1 2b38 87dc 2238 78ba 0e38 afc3 1a38
00000270: 2f58 a338 5f54 9538 0fae 7938 08fc ac38
00000280: b50c c738 a59d a038 3eb0 a738 7412 9838
00000290: b9e8 b338 f8ad 6f38 3e7c f738 697a 8d38
000002a0: 6062 5938 982f 9338 eb49 a738 7439 8c38
000002b0: 1d4f d338 f8b4 a138 ba7b 6738 6681 9238
000002c0: 9b2f d238 416c bb38 7bd1 eb38 10c9 b938
000002d0: 0253 be38 42d0 7e38 d53e 8738 ff65 8e38
000002e0: c08b 6338 9e70 a938 5020 ba38 7561 8938
000002f0: a39c c238 9736 9738 82f9 5738 37d8 8238
00000300: 44cf d838 2b3c 6838 daaa b538 fad1 8838
00000310: 1eab eb38 56d9 5338 dfd4 9838 bc90 8738
00000320: 42e3 8738 330f 9838 c84a d238 14c1 7238
00000330: 188a 9938 c9b1 8338 01b1 5f38 fb9f 8738
00000340: 08bf 7638 1ee6 9138 e92a 8238 10c9 7d38
00000350: 2f8e 8838 a9f8 9038 31ac 7f38 2315 7c38
00000360: 358c a538 c42c 9038 eb89 9238 f866 c638
00000370: 64f3 f738 5370 9638 c75b a938 02c4 c038
00000380: 172f 8038 f76a 9938 b03d 9e38 c93c 8b38
00000390: 1605 6f38 49c9 c238 e565 5d38 131f 9b38
000003a0: 6a0d 9e38 870c a638 2aa7 6c38 7f6d cc38
000003b0: d005 b938 2b5c ac38 b39c af38 c5c9 ab38
000003c0: 19f5 6938 b232 f138 7420 7038 584c a538
000003d0: 7a0b af38 caa7 f138 93b5 3438 55d5 a038
000003e0: 1607 b038 9037 1339 5305 4738 d69b eb38
000003f0: d61e 8838 e786 9e38 6ac5 a238 3a3e a538

exp_avg f4 [20, 20]
0.0 5.2543855e-06 -6.957069e-05 -0.00016735219 0.000606136 0.00048105646 -0.00024016653 0.000974186
6e-45 -6e-45 6e-45 -0.00031586993 1.2481254e-05 6e-45 0.0010019491 -7.6236574e-05
-7.84064e-05 0.0015453212 0.0010527166 6e-45 -0.0003180243 0.0 -0.00021701622 -0.0011165483
-0.00026629964 -0.00010773084 -0.0013280681 0.0012947643 -6e-45 6e-45 6e-45 -0.0010796104
-1.0813555e-06 6e-45 -0.00063503376 -6.117022e-05 -4.4687302e-05 -0.001500971 -0.0011496886 6e-45
0.0002206147 6.645821e-07 0.0 -0.00055321143 -0.00060558773 -0.00060975726 -0.001336908 0.0013704702
-6e-45 6e-45 6e-45 -0.00037969666 -4.060494e-06 6e-45 -0.00086733524 -4.259587e-05
2.891187e-05 -0.0006654973 -0.0008251465 6e-45 0.0029488301 1.4133147e-05 1.2238328e-05 0.0
0.00037370276 0.0006213008 7.188037e-05 0.0010923569 6e-45 -6e-45 -6e-45 -0.0009746168
3.754873e-06 -6e-45 -0.00061229826 3.4459583e-05 -1.063307e-05 -0.0009859921 -0.0024445823 -6e-45
0.0019810873 2.6926042e-05 -0.00012623818 0.0005422867 0.0 0.0011150807 0.00067630154 0.0054196403
6e-45 -6e-45 -6e-45 -0.00016415781 1.2046042e-05 -6e-45 0.00057530985 3.5888381e-06
-0.00012458266 0.0047339876 0.0026840395 -6e-45 0.0009888698 4.7042227e-05 -3.068864e-05 0.00041295032
-0.000603435 0.0 4.29989e-05 0.0019487618 -6e-45 6e-45 6e-45 -0.00043714608
5.016507e-06 6e-45 -0.0012920083 1.8154473e-05 3.1030777e-05 0.0015834636 -0.001177582 6e-45
-0.0011350957 -4.1692274e-05 -0.00021390674 -0.0014562088 -0.00059460074 -0.00045778792 0.0 -0.0032575498
6e-45 6e-45 6e-45 -0.0017495007 -5.1417487e-06 6e-45 -0.0035594911 -4.2545333e-05
-1.2737482e-05 -0.0065716007 -0.006866896 6e-45 -0.000308937 -2.2639377e-05 2.4131507e-05 0.00027383235
-0.00079143187 -0.00077843637 -4.3489028e-05 0.0 6e-45 6e-45 6e-45 0.00012199411
-4.6967825e-06 6e-45 0.00062491826 -8.4286294e-05 -6.9941484e-06 -0.00033102933 -0.00018717919 6e-45
0.00044894282 1.0477792e-06 1.2097888e-06 6.983709e-05 0.00010638438 0.0001093756 5.395391e-05 0.0014304456
0.0 -6e-45 -6e-45 3.0722065e-05 2.3284082e-07 -6e-45 0.00020799229 6.210462e-07
2.6733818e-07 0.00059569743 0.0003542059 -6e-45 0.00021564671 2.545237e-07 3.9351224e-07 4.065798e-05
3.609807e-05 4.348604e-05 1.5955993e-05 0.0007059954 -6e-45 0.0 6e-45 2.312135e-05
2.6366687e-09 6e-45 9.641033e-05 4.7595325e-08 1.7840598e-07 0.00027497535 0.00021779755 6e-45
0.00018934379 2.8823902e-07 4.0139855e-07 3.078381e-05 3.7949194e-05 4.325918e-05 2.031603e-05 0.000627611
-6e-45 -6e-45 0.0 1.490595e-05 3.5206714e-08 -6e-45 8.765656e-05 1.67556e-07
1.09016284e-07 0.00025222846 0.00016757452 6e-45 0.0039900145 6.338667e-05 0.00014254532 -0.00072883273
0.00029274842 0.00034524704 0.0007274707 0.0032147195 6e-45 -6e-45 -6e-45 0.0
6.998349e-06 -6e-45 0.00056801207 6.430597e-05 8.982262e-07 0.0016585076 -0.0010161196 -6e-45
0.0011079024 -4.1375984e-06 -8.3583494e-05 9.963894e-05 0.00014594775 0.00024525824 -3.8284325e-06 0.0035582485
-6e-45 6e-45 6e-45 -5.3026568e-05 0.0 6e-45 0.0003240873 -1.9344347e-05
00000000: 0000 0000 d44e b036 7be6 91b8 437b 2fb9
00000010: 19e5 1e3a 4e36 fc39 36d5 7bb9 8460 7f3a
00000020: 0400 0000 0400 0080 0400 0000 589b a5b9
00000030: 9466 5137 0400 0000 d553 833a 33e1 9fb8
00000040: 1e6e a4b8 608c ca3a 4ffb 893a 0400 0000
00000050: 80bc a6b9 0000 0000 d98e 63b9 2559 92ba
00000060: 229e 8bb9 8eed e1b8 9212 aeba 15b5 a93a
00000070: 0400 0080 0400 0000 0400 0000 b781 8dba
00000080: 1823 91b5 0400 0000 6578 26ba 8348 80b8
00000090: a06e 3bb8 3bbc c4ba 26b1 96ba 0400 0000
000000a0: cf54 6739 bc65 3235 0000 0000 6405 11ba
000000b0: 4ec0 1eba 1ed8 1fba 303b afba 59a1 b33a
000000c0: 0400 0080 0400 0000 0400 0000 0612 c7b9
000000d0: 613f 88b6 0400 0000 e25d 63ba f8a8 32b8
000000e0: c587 f237 c574 2eba a54e 58ba 0400 0000
000000f0: 2941 413b 671d 6d37 3853 4d37 0000 0000
00000100: 89ed c339 cade 223a 7bbe 9638 6a2d 8f3a
00000110: 0400 0000 0400 0080 0400 0080 6d7d 7fba
00000120: 3afc 7b36 0400 0080 a482 20ba b288 1038
00000130: b064 32b7 683c 81ba 4935 20bb 0400 0080
00000140: 21d5 013b 3cdf e137 ce5e 04b9 3f28 0e3a
00000150: 0000 0000 e627 923a d449 313a 3d97 b13b
00000160: 0400 0000 0400 0080 0400 0080 c721 2cb9
00000170: 5b19 4a37 0400 0080 64d0 163a c5d7 7036
00000180: 67a2 02b9 911f 9b3b b6e6 2f3b 0400 0080
00000190: f79c 813a 354f 4538 adb7 00b8 4181 d839
000001a0: d62f 1eba 0000 0000 b859 3438 986d ff3a
000001b0: 0400 0080 0400 0000 0400 0000 c130 e5b9
000001c0: 7853 a836 0400 0000 9b58 a9ba 6f4a 9837
000001d0: 0b27 0238 398c cf3a 1859 9aba 0400 0000
000001e0: 7ec7 94ba bdde 2eb8 274c 60b9 42de beba
000001f0: fbde 1bba 4103 f0b9 0000 0000 9e7c 55bb
00000200: 0400 0000 0400 0000 0400 0000 814f e5ba
00000210: 4987 acb6 0400 0000 5a46 69bb b472 32b8
00000220: 12b3 55b7 9556 d7bb b303 e1bb 0400 0000
00000230: d2f8 a1b9 b1e9 bdb7 046e ca37 2891 8f39
00000240: 1878 4fba fb0f 4cba fd67 36b8 0000 0000
00000250: 0400 0000 0400 0000 0400 0000 17d7 ff38
00000260: 0e99 9db6 0400 0000 8ed1 233a dcc2 b0b8
00000270: 47af eab6 018e adb9 8845 44b9 0400 0000
00000280: 1660 eb39 6ba1 8c35 0760 a235 8175 9238
00000290: ae1a df38 9460 e538 924c 6238 ca7d bb3a
000002a0: 0000 0000 0400 0080 0400 0080 91db 0038
000002b0: cc02 7a34 0400 0080 8118 5a39 f8b5 2635
000002c0: ae86 8f34 9428 1c3a b6b4 b939 0400 0080
000002d0: 391f 6239 79a5 8834 e943 d334 2c88 2a38
000002e0: 0268 1738 c864 3638 3cd9 8537 8d12 393a
000002f0: 0400 0080 0000 0000 0400 0000 b9f4 c137
00000300: c430 3531 0400 0000 e72f ca38 9d6b 4c33
00000310: dd8f 3f34 912a 9039 9660 6439 0400 0000
00000320: 968a 4639 45bf 9a34 cc7f d734 dd1d 0138
00000330: a32b 1f38 3171 3538 586c aa37 4386 243a
00000340: 0400 0080 0400 0080 0000 0000 9114 7a37
00000350: 3136 1733 0400 0080 42d4 b738 71e9 3334
00000360: 561c ea33 883d 8439 f1b6 2f39 0400 0000
00000370: abbe 823b 76ee 8438 3878 1539 230f 3fba
00000380: 077c 9939 4602 b539 bbb3 3e3a 0bae 523b
00000390: 0400 0000 0400 0080 0400 0080 0000 0000
000003a0: 5cd3 ea36 0400 0080 a5e6 143a 01dc 8638
000003b0: a21d 7135 4862 d93a 512f 85ba 0400 0080
000003c0: 0937 913a b3d5 8ab6 8c49 afb8 40f5 d038
000003d0: 8d09 1939 0196 8039 fc75 80b6 8131 693b
000003e0: 0400 0080 0400 0000 0400 0000 d868 5eb8
000003f0: 0000 0000 0400 0000 43ea a939 ab45 a2b7

exp_avg_sq f4 [20, 20]
0.0 9.1461516e-08 6.039689e-07 1.8118455e-05 4.7491503e-06 9.208112e-06 1.549254e-05 9.55962e-05
5.7610573e-13 2.5192991e-14 1.5808912e-15 1.1260978e-05 5.6088987e-09 7.578969e-16 1.3506974e-05 7.5086284e-08
2.4221066e-08 0.00013139826 4.6071767e-05 4.6805323e-17 2.0805262e-05 0.0 2.7600208e-07 1.680466e-05
4.8171573e-06 7.5499383e-06 1.0512434e-05 7.409949e-05 1.3334121e-13 5.7174957e-15 3.4891116e-16 1.0534239e-05
5.953356e-10 1.4961172e-16 1.8582956e-05 1.7793283e-08 7.6007424e-08 9.818003e-05 3.7080503e-05 5.429054e-18
6.393425e-05 3.0423685e-08 0.0 3.0191784e-05 7.3083374e-06 2.0016761e-05 3.0692943e-05 0.00024045749
1.087843e-12 5.9905883e-14 3.329984e-15 1.8341249e-05 2.996237e-09 9.075697e-16 9.0660724e-05 3.081229e-08
1.6927471e-08 0.0003602217 0.00013129786 2.2874085e-17 0.00013863633 9.538058e-09 6.361055e-08 0.0
2.5204692e-05 2.9676092e-05 2.2953041e-05 0.0007564204 5.134156e-13 6.1263386e-14 3.2462034e-15 5.436345e-06
1.3041104e-09 1.3846147e-15 9.4376446e-05 1.8682554e-08 3.0574572e-09 0.000504005 0.00023304929 1.05278446e-16
6.420328e-05 9.327614e-08 5.831169e-07 3.1080912e-05 0.0 1.6080206e-05 2.8380464e-05 0.00013127092
1.5273809e-12 1.165214e-13 7.177828e-15 1.845871e-05 5.6092273e-09 2.9342924e-15 3.018439e-05 1.316508e-07
9.0186816e-08 0.00019364271 7.87521e-05 1.2379353e-16 8.9284535e-05 3.9584506e-08 3.745416e-07 3.1822394e-05
4.8009642e-06 0.0 1.4392289e-05 0.00025717277 9.0359245e-14 4.719968e-15 2.576859e-16 2.1428532e-05
1.5962976e-09 1.4968584e-16 5.521744e-05 8.816503e-08 9.296604e-08 0.00025170727 0.00013117281 1.7167387e-17
0.00014981507 9.791594e-09 2.2635267e-07 3.7565627e-05 1.731498e-05 2.139859e-05 0.0 0.0006996542
1.1262892e-13 1.0374052e-14 9.757523e-16 2.2219043e-05 5.211036e-10 4.880459e-16 0.00013843628 1.2298584e-08
5.389382e-08 0.00056308066 0.00027693974 1.6216722e-17 1.9739053e-05 1.5122768e-07 1.1640716e-06 2.4385901e-05
5.339004e-06 1.0034465e-05 1.757276e-05 0.0 1.2418217e-12 4.8901946e-14 2.392927e-15 1.4649235e-05
1.1439515e-08 6.680635e-16 1.5609656e-05 8.5352156e-08 3.382467e-08 0.000116422205 3.998595e-05 3.4942074e-17
3.392574e-07 2.955352e-10 4.8116405e-10 3.8052253e-08 8.322973e-08 6.892874e-08 1.9897476e-08 3.2077248e-06
0.0 5.776926e-14 2.06012e-15 1.5885954e-08 2.324767e-10 1.3769241e-15 3.541891e-07 2.6558744e-10
2.8963006e-11 9.813951e-07 3.899752e-07 5.007508e-17 8.440931e-08 3.9527374e-11 2.4249255e-10 7.5629085e-09
1.2276133e-08 1.4167742e-08 3.311871e-09 1.0197747e-06 9.219509e-13 0.0 1.5461014e-15 3.2369898e-09
2.5699961e-11 3.1143096e-16 1.5073606e-07 7.5076586e-12 7.388968e-12 3.304911e-07 1.4310962e-07 6.756599e-18
5.1323465e-08 2.1945729e-12 2.4056705e-11 4.2629584e-09 1.1852584e-08 1.0622819e-08 2.090273e-09 5.9183634e-07
1.3309704e-13 2.8706882e-14 0.0 1.6276299e-09 1.6155791e-12 9.201465e-16 6.502951e-08 3.2595278e-12
8.280517e-13 1.6594866e-07 6.824904e-08 3.9041856e-17 0.00020938164 3.2737535e-08 2.842938e-07 1.8653393e-05
2.3867748e-05 4.0923238e-05 4.1830914e-05 0.0010398733 3.044935e-13 1.02079105e-13 3.4553146e-15 0.0
1.7566196e-09 2.991625e-15 0.00014914034 4.3340076e-08 3.6454568e-09 0.0007856742 0.0003664345 3.3337623e-16
9.561972e-06 2.242341e-08 2.3094213e-07 7.330942e-06 2.4263275e-06 3.3603212e-06 4.002607e-06 4.532478e-05
1.4402098e-13 7.12317e-15 3.1316513e-16 4.46286e-06 0.0 2.3771794e-16 9.798012e-06 3.815276e-08
00000000: 0000 0000 8069 c433 6d20 2235 16fd 9737
00000010: e45a 9f36 8a7c 1a37 faf5 8137 d27a c838
00000020: cb28 222b 15eb e228 97d4 e326 88ed 3c37
00000030: 65b8 c031 ec72 5a26 039c 6237 1f3f a133
00000040: b00e d032 f4c7 0939 2f3d 4138 f9d9 5724
00000050: f686 ae37 0000 0000 702d 9434 bcf7 8c37
00000060: 11a3 a136 7a55 fd36 8f5e 3037 dc65 9b38
00000070: fd20 162a 97fe cd27 3322 c925 36bc 3037
00000080: 05a5 2330 967d 2c25 98e2 9b37 d8d7 9832
00000090: 8639 a333 01e6 cd38 e386 1b38 f74b c822
000000a0: 7014 8638 32ab 0233 0000 0000 5d44 fd37
000000b0: 243a f536 abe9 a737 4cbc 0038 5123 7c39
000000c0: ad19 992b 64e5 8629 5df3 6f27 88db 9937
000000d0: 5ce6 4d31 69cb 8226 1b21 be38 7956 0433
000000e0: e767 9132 23dc bc39 00ad 0939 e8f9 d223
000000f0: e85e 1139 d3dc 2332 459a 8833 0000 0000
00000100: aa6e d337 ecf0 f837 488b c037 844a 463a
00000110: 7e83 102b f0f3 8929 e2e9 6927 d969 b636
00000120: 4e3c b330 448b c726 f8eb c538 5f7b a032
00000130: 5b1b 5231 341f 043a b15e 7439 6dc1 f224
00000140: e0a4 8638 1a4f c833 7d87 1c35 e05c 0238
00000150: 0000 0000 fbe3 8637 9512 ee37 c5a5 0939
00000160: b2f5 d62b 0231 032a e44d 0128 c7d7 9a37
00000170: 49bb c031 2470 5327 7c34 fd37 e55b 0d34
00000180: baac c133 920c 4b39 b627 a538 67b9 0e25
00000190: 453e bb38 a003 2a33 9b14 c934 0979 0538
000001a0: f817 a136 0000 0000 6976 7137 25d5 8639
000001b0: 8f78 cb29 050e aa27 ba8b 9425 6cc1 b337
000001c0: bb64 db30 7693 2c25 4699 6738 3d55 bd33
000001d0: 9fa4 c733 94f7 8339 6f8b 0939 5957 9e23
000001e0: ad17 1d39 e337 2832 590b 7334 c98f 1d38
000001f0: a33f 9137 1f81 b337 0000 0000 0069 373a
00000200: 279e fd29 dfe1 3a28 e89e 8c26 0863 ba37
00000210: 683d 0f30 6eab 0c26 3529 1139 bf49 5332
00000220: e278 6733 b49b 133a 3932 9139 a792 9523
00000230: 4b95 a537 2661 2234 323d 9c35 5390 cc37
00000240: b225 b336 b359 2837 3769 9337 0000 0000
00000250: 58c5 ae2b 1b3c 5c29 b66d 2c27 fcc5 7537
00000260: 8587 4432 638e 4026 7bf1 8237 d84a b733
00000270: 9e46 1133 b227 f438 96b6 2738 5224 2124
00000280: 2f23 b634 e278 a22f e942 0430 e56e 2333
00000290: 07bc b233 fa05 9433 03eb aa32 4b44 5736
000002a0: 0000 0000 b615 8229 8272 1427 9575 8832
000002b0: 609c 7f2f 886f c626 6127 be34 1c02 922f
000002c0: e4c2 fe2d 7bb8 8335 c95d d134 38ee 6624
000002d0: 8244 b533 ded7 2d2e cb4f 852f 06ee 0132
000002e0: 01e7 5232 6366 7332 0d97 6331 31df 8835
000002f0: c8c0 812b 0000 0000 13d1 de26 ba71 5e31
00000300: 2b0f e22d 1987 b325 03da 2134 7d13 042d
00000310: f4fc 012d 5a6e b134 aca9 1934 4646 f922
00000320: bf6e 5c33 e96d 1a2c e29a d32d 6179 9231
00000330: 37a0 4b32 a77f 3632 79a4 0f31 afde 1e35
00000340: 9cda 152a c848 0129 0000 0000 23b3 df30
00000350: 5f5f e32b 6a9b 8426 5aa6 8b33 6f5e 652c
00000360: 6a13 692b 9f2f 3234 4e90 9233 7d0c 3424
00000370: 758d 5b39 4d9b 0c33 0ba1 9834 db79 9c37
00000380: 9937 c837 fea4 2b38 9a73 2f38 5c4c 883a
00000390: 236a ab2a 99dc e529 4efb 7827 0000 0000
000003a0: 8f6d f130 be91 5727 8e62 1c39 eb24 3a33
000003b0: 8e83 7a31 b4f5 4d3a 021e c039 a62d c025
000003c0: 5b6c 2037 9a9d c032 e4f8 7734 50fc f536
000003d0: fdd3 2236 e181 6136 224e 8636 1d1b 3e38
000003e0: 3927 222a d351 0028 0487 b425 adbf 9536
000003f0: 0000 0000 fa08 8925 2462 2437 67dd 2333

exp_avg f4 [9, 20]
0.00083690084 1.8027282e-05 5.934159e-05 0.0010136967 0.00021103016 0.0003744557 0.00087664154 -0.0001504665
6e-45 6e-45 6e-45 0.0007107863 -1.3478646e-05 6e-45 0.00026413734 2.182111e-05
-6.771972e-06 0.0012211308 0.0007512205 6e-45 -0.00036585506 -0.00015162755 -0.0003109474 2.429201e-05
-0.0004979811 -0.00037265598 -0.0005877627 0.0008511247 -6e-45 6e-45 6e-45 0.00033877025
2.0480446e-05 6e-45 -0.0006325179 0.00014288284 0.00038845197 -0.0005021807 0.00042984646 6e-45
0.0008584191 0.00047456258 0.00080445624 0.0019194017 2.1001739e-05 0.0006260044 0.0016909471 0.002762961
6e-45 6e-45 6e-45 0.001439499 0.00029184244 6e-45 0.00084237545 0.00014616322
0.00016123477 0.005313606 0.0016619242 6e-45 -0.00022559239 0.00049643795 0.00029888705 0.0030564975
-0.00089373736 -0.0016077765 0.0017178901 0.00055576174 6e-45 6e-45 6e-45 0.0012629932
0.00017365794 6e-45 -0.00062571006 -0.00023785047 7.720651e-05 0.009188232 -8.796713e-06 6e-45
-0.0032251559 -0.0013206605 -0.0016161973 -0.004757217 -0.001535357 -0.0015134359 -0.0060534487 -0.0041008433
6e-45 6e-45 6e-45 -0.0035357142 -0.0004891617 6e-45 -0.0016717925 -0.0011515209
-0.0005353967 -0.012660697 -0.0034442372 6e-45 0.00014737895 -0.00059015217 -0.0011666964 -0.0019298028
0.0009509001 0.0010663735 -0.0008849284 0.0008786582 6e-45 6e-45 6e-45 -0.0017344989
-8.074572e-05 6e-45 0.0011810651 -0.00072475703 -0.001065285 -0.0022910659 0.0012430209 6e-45
-0.0003193402 -5.190362e-05 8.589091e-05 -0.002074868 -0.0007995865 -0.0010134822 -0.00055517093 -0.0019875497
6e-45 6e-45 6e-45 -0.0018008369 -0.0001316215 6e-45 -0.00026983416 0.00030028794
0.000116857285 -0.003168346 -0.002499126 6e-45 0.0013033175 0.0006581152 0.00042542888 0.002020735
0.0021184252 0.0017328247 0.0023700898 0.0015766387 6e-45 -6e-45 -6e-45 0.0017083101
0.00020174829 -6e-45 -1.0646915e-05 0.0011020782 5.657519e-05 0.0025518457 0.000867923 -6e-45
0.0009899298 0.0004672018 0.001419838 0.0007272668 0.0004253054 0.00070769415 0.0014257452 -0.00038628376
6e-45 6e-45 6e-45 0.0016106934 2.7278596e-05 6e-45 0.000922925 0.0004008959
0.0008071283 0.00034747802 0.0009982274 6e-45
00000000: 7763 5b3a 4b39 9737 8ce5 7838 04de 843a
00000010: fa47 5d39 9852 c439 6bce 653a 8bc6 1db9
00000020: 0400 0000 0400 0000 0400 0000 1054 3a3a
00000030: 5822 62b7 0400 0000 ea7b 8a39 7a0c b737
00000040: cc3a e3b6 5a0e a03a 8eed 443a 0400 0000
00000050: 3cd0 bfb9 36fe 1eb9 a706 a3b9 b2c6 cb37
00000060: f28a 02ba 0a61 c3b9 1614 1aba 031e 5f3a
00000070: 0400 0080 0400 0000 0400 0000 f99c b139
00000080: 6ccd ab37 0400 0000 8fcf 25ba d2d2 1539
00000090: 24a9 cb39 c7a4 03ba 045d e139 0400 0000
000000a0: 8807 613a b6ce f839 25e2 523a 6f94 fb3a
000000b0: e42c b037 721a 243a c5a2 dd3a cb12 353b
000000c0: 0400 0000 0400 0000 0400 0000 92ad bc3a
000000d0: 6e02 9939 0400 0000 dcd2 5c3a 6443 1939
000000e0: 2111 2939 c21d ae3b ecd4 d93a 0400 0000
000000f0: ff8c 6cb9 6323 023a f1b3 9c39 854f 483b
00000100: b349 6aba 07bc d2ba d42a e13a 8ab0 113a
00000110: 0400 0000 0400 0000 0400 0000 058b a53a
00000120: f317 3639 0400 0000 b106 24ba 8067 79b9
00000130: eee9 a138 3d8a 163c 9895 13b7 0400 0000
00000140: 235d 53bb 031a adba 95d6 d3ba 6ee2 9bbb
00000150: 083e c9ba 7b5e c6ba 025c c6bb 5e60 86bb
00000160: 0400 0000 0400 0000 0400 0000 71b7 67bb
00000170: 163b 00ba 0400 0000 0c20 dbba a1ee 96ba
00000180: dd59 0cba d06e 4fbc b6b8 61bb 0400 0000
00000190: bc89 1a39 71b4 1aba d6eb 98ba 70f1 fcba
000001a0: d345 793a 8fc5 8b3a 8afa 67ba c155 663a
000001b0: 0400 0000 0400 0000 0400 0000 2058 e3ba
000001c0: 0756 a9b8 0400 0000 f8cd 9a3a 9ffd 3dba
000001d0: 08a1 8bba b525 16bb dcec a23a 0400 0000
000001e0: 1e6d a7b9 16b3 59b8 5520 b438 82fa 07bb
000001f0: 579b 51ba d2d6 84ba e488 11ba 8d41 02bb
00000200: 0400 0000 0400 0000 0400 0000 0f0a ecba
00000210: e103 0ab9 0400 0000 8778 8db9 f76f 9d39
00000220: 4711 f538 06a4 4fbb 60c8 23bb 0400 0000
00000230: 14d4 aa3a 5d85 2c3a 190c df39 4f6e 043b
00000240: 47d5 0a3b f31f e33a 8253 1b3b 37a7 ce3a
00000250: 0400 0000 0400 0080 0400 0080 60e9 df3a
00000260: 658c 5339 0400 0080 27a0 32b7 9c73 903a
00000270: 264b 6d38 de3c 273b 5485 633a 0400 0080
00000280: 88c0 813a c4f2 f439 dc19 ba3a 0ca6 3e3a
00000290: 86fb de39 8d84 393a 12e0 ba3a 2186 cab9
000002a0: 0400 0000 0400 0000 0400 0000 e71d d33a
000002b0: 57d4 e437 0400 0000 73f0 713a 562f d239
000002c0: 7795 533a b62d b639 f4d6 823a 0400 0000
