checkpoints/RNN_67.pt (torch, 111341 bytes, 9 tensors)

snn.l1.input_weights f4 [20, 416]
0	0xc0b1f296	-5.5608625
1	0xc0b84786	-5.758731
2	0xc0bade92	-5.839669
3	0xc0cc7c74	-6.390192
4	0xc0be5dd9	-5.948956
5	0xc0d72d85	-6.7243066
6	0xc0cbe824	-6.3720875
7	0xc0caf5b4	-6.342493
8	0xc0cf71c7	-6.482639
9	0xc0b19e49	-5.550572
10	0xc0c83387	-6.25629
11	0xc0d287a2	-6.5790567
12	0xc0bd08c1	-5.9073186
13	0xc0c956d9	-6.2918515
14	0xc0ce249a	-6.441968
15	0xc0b1ea00	-5.5598145
16	0xc0b24403	-5.570802
17	0xc0ca2d23	-6.31801
18	0xc0c47c44	-6.140169
19	0xc0b44999	-5.633984
20	0xc0d1adeb	-6.55248
21	0xc0c2fdfd	-6.0935044
22	0xc0c470e9	-6.138783
23	0xc0b2cfa0	-5.587845
24	0xc0bf3d22	-5.9762125
25	0xc0b4528f	-5.635078
26	0xc0c7f516	-6.2486677
27	0xc0b9fdd5	-5.8122354
28	0xc0bbfd03	-5.874635
29	0xc0c6f952	-6.2179346
30	0xc0c168ec	-6.044058
31	0xc0aed085	-5.462954
32	0xc0d1a5fe	-6.5515127
33	0xc0d02a23	-6.5051436
34	0xc0c8b868	-6.2725105
35	0xc0b1f858	-5.5615654
36	0xc0c6949c	-6.205641
37	0xc0c546b0	-6.164879
38	0xc0caf49f	-6.342361
39	0xc0cac66c	-6.3367214
40	0xc0d3afe4	-6.615221
41	0xc0b83d5f	-5.7574916
42	0xc0c7754f	-6.23307
43	0xc0c87412	-6.2641687
44	0xc0c3e068	-6.1211433
45	0xc0b61391	-5.6898885
46	0xc0c2192a	-6.065572
47	0xc0be6998	-5.95039
48	0xc0d089c8	-6.516819
49	0xc0d0bc28	-6.5229683
50	0xc0c78810	-6.235359
51	0xc0b4422a	-5.6330767
52	0xc09dbbce	-4.9291754
53	0xc08d692b	-4.419088
54	0xc0aa1147	-5.314609
55	0xc0a3657c	-5.106138
56	0xc0a75934	-5.229639
57	0xc09955cc	-4.7917233
58	0xc09b265d	-4.848433
59	0xc0958957	-4.673015
60	0xc0a37af0	-5.108757
61	0xc08e3fa7	-4.44527
62	0xc09f3d0d	-4.9762025
63	0xc08c4029	-4.382832
64	0xc0927a13	-4.5774016
65	0xc08c0f5c	-4.376875
66	0xc0859fc0	-4.1757507
67	0xc08d762e	-4.420676
68	0xc094f249	-4.654576
69	0xc09c3822	-4.881852
70	0xc0a792d3	-5.236673
71	0xc099f34c	-4.8109493
72	0xc0a8ea84	-5.2786274
73	0xc0934f02	-4.6033945
74	0xc09aa7dc	-4.8329906
75	0xc09579ff	-4.671142
76	0xc09ac2b1	-4.836266
77	0xc09e9653	-4.95585
78	0xc0ae6d12	-5.4508142
79	0xc0a02607	-5.004642
80	0xc098c766	-4.7743406
81	0xc0a3db4b	-5.120519
82	0xc09e717c	-4.951353
83	0xc092252d	-4.567038
84	0xc08ffe0f	-4.499763
85	0xc09927a8	-4.786091
86	0xc09d4af5	-4.9154
87	0xc0a95dbb	-5.2926917
88	0xc0989a71	-4.7688527
89	0xc09cf58b	-4.9049735
90	0xc0a16f5f	-5.044845
91	0xc09d3ccc	-4.9136715
92	0xc0ace12c	-5.402487
93	0xc0ab95a3	-5.362016
94	0xc08db09b	-4.4278083
95	0xc09ced60	-4.9039764
96	0xc0aca6cb	-5.3953605
97	0xc0944f62	-4.6346903
98	0xc0914509	-4.539677
99	0xc08e91df	-4.4553065
100	0xc096f31f	-4.717178
101	0xc098564b	-4.760534
102	0xc0942023	-4.628923
103	0xc097d15e	-4.7443075
104	0xc09cc48a	-4.8989916
105	0xc0870697	-4.2195544
106	0xc0974388	-4.7269936
107	0xc0984e13	-4.7595305
108	0xc08f0bf1	-4.4702077
109	0xc08bcb52	-4.3685694
110	0xc0994bf0	-4.7905197
111	0xc094f647	-4.655063
112	0xc0a6799d	-5.2023454
113	0xc0911849	-4.5342145
114	0xc0907d3a	-4.5152864
115	0xc08b62a2	-4.35579
116	0xc08733e8	-4.225086
117	0xc0912369	-4.5355725
118	0xc0a12de4	-5.036852
119	0xc089264b	-4.2859244
120	0xc094bd2e	-4.648093
121	0xc091cddb	-4.556379
122	0xc0990b64	-4.7826405
123	0xc08f48c0	-4.4776306
124	0xc08e77b2	-4.4521112
125	0xc09216fd	-4.565306
126	0xc08c8415	-4.3911233
127	0xc0926087	-4.574283
128	0xc0902712	-4.5047693
129	0xc0898829	-4.297871
130	0xc09f9b23	-4.9876876
131	0xc0987c1a	-4.765149
132	0xc0879e27	-4.2380557
133	0xc086c431	-4.211449
134	0xc08caa6d	-4.395804
135	0xc08889f1	-4.2668386
136	0xc0933058	-4.5996513
137	0xc0981635	-4.752711
138	0xc0ade4c6	-5.4341764
139	0xc09529a4	-4.661333
140	0xc09aa4e1	-4.832627
141	0xc08c5918	-4.3858757
142	0xc0a65e7f	-5.199035
143	0xc0908c26	-4.517108
144	0xc095d27b	-4.6819434
145	0xc08a5a9d	-4.323561
146	0xc077c408	-3.8713398
147	0xc0854920	-4.1651764
148	0xc087178d	-4.221625
149	0xc0916e2e	-4.5446997
150	0xc09b602e	-4.8554907
151	0xc088dc47	-4.2768893
152	0xc091d62b	-4.5573936
153	0xc08fd773	-4.49505
154	0xc0a107ef	-5.0322185
155	0xc0853404	-4.1625996
156	0xc0de37fd	-6.9443345
157	0xc0c1d2f8	-6.057003
158	0xc0ca4a65	-6.3215814
159	0xc0c5eb6d	-6.1849885
160	0xc0c7b713	-6.241098
161	0xc0c01063	-6.0020003
162	0xc0bf968d	-5.987128
163	0xc0b5bd12	-5.67933
164	0xc0bc10ab	-5.8770347
165	0xc0cc3b41	-6.382233
166	0xc0bdc5b0	-5.930382
167	0xc0c5a641	-6.1765447
168	0xc0d45e7a	-6.636533
169	0xc0bdde9f	-5.9334254
170	0xc0af0114	-5.4688816
171	0xc0c4a2cf	-6.144874
172	0xc0d9d814	-6.8076267
173	0xc0b9cdc9	-5.8063703
174	0xc0b1d037	-5.556667
175	0xc0b69e94	-5.7068577
176	0xc0c2c833	-6.0869384
177	0xc0c21ff1	-6.066399
178	0xc0c323a3	-6.0981
179	0xc0bea5b9	-5.95773
180	0xc0cbf416	-6.3735456
181	0xc0d6d3a7	-6.7133365
182	0xc0d04603	-6.5085464
183	0xc0cb15f9	-6.346432
184	0xc0c74397	-6.2270007
185	0xc0d5142a	-6.6587114
186	0xc0c6a80c	-6.2080135
187	0xc0c18f02	-6.048707
188	0xc0c269a6	-6.0753965
189	0xc0c8d4fe	-6.276
190	0xc0b6c309	-5.711308
191	0xc0bf48f0	-5.9776535
192	0xc0b4ed89	-5.653996
193	0xc0cf91e2	-6.486558
194	0xc0bb3048	-5.8496437
195	0xc0bc6aaa	-5.8880205
196	0xc0c89cd0	-6.269142
197	0xc0c3ceac	-6.1189785
198	0xc0b745c3	-5.727266
199	0xc0b75937	-5.7296405
200	0xc0c97c9c	-6.296461
201	0xc0b46c0c	-5.6381893
202	0xc0c5e731	-6.1844716
203	0xc0c7a6c0	-6.239105
204	0xc0c06b2d	-6.013083
205	0xc0b7d762	-5.745042
206	0xc0aba696	-5.364085
207	0xc0c1bd2f	-6.0543437
208	0xc09e2c24	-4.9428883
209	0xc09f38cf	-4.9756846
210	0xc09eae0d	-4.9587464
211	0xc0a59270	-5.1741257
212	0xc08e1e5b	-4.4412055
213	0xc097a57a	-4.73895
214	0xc09975cd	-4.79563
215	0xc0a4b995	-5.147654
216	0xc09c7222	-4.888932
217	0xc09dd487	-4.9321933
218	0xc09ad1de	-4.8381186
219	0xc0896464	-4.2935047
220	0xc0919d32	-4.550439
221	0xc0aa6f9f	-5.3261256
222	0xc0957662	-4.670701
223	0xc08f714b	-4.4825797
224	0xc0995d70	-4.792656
225	0xc0812217	-4.0354114
226	0xc09b9fdc	-4.863264
227	0xc0aaa2de	-5.3323812
228	0xc097292d	-4.7237763
229	0xc097e3a6	-4.746539
230	0xc09b33cc	-4.850073
231	0xc075900d	-3.8369172
232	0xc0987648	-4.7644386
233	0xc0ab2bae	-5.349082
234	0xc09d94b7	-4.9244037
235	0xc0a702cd	-5.219092
236	0xc09ee7a3	-4.965776
237	0xc0a4e08d	-5.152411
238	0xc09cd2f9	-4.9007535
239	0xc09b8695	-4.8601785
240	0xc0a14f8e	-5.0409613
241	0xc0969ecb	-4.706884
242	0xc09d20b2	-4.910241
243	0xc09cbcfe	-4.8980703
244	0xc09f3246	-4.974887
245	0xc095421f	-4.6643214
246	0xc0a6d21b	-5.2131476
247	0xc0821fb5	-4.0663705
248	0xc08aa78a	-4.3329515
249	0xc0a3dd32	-5.1207514
250	0xc08d1d69	-4.40984
251	0xc09a1c05	-4.8159204
252	0xc09c02b2	-4.875329
253	0xc09f0e29	-4.9704785
254	0xc0931187	-4.5958896
255	0xc09e4801	-4.9462895

snn.l1.recurrent_weights f4 [20, 20]
0	0x00000000	0.0
1	0x3f817a6a	1.0115483
2	0xc01e178c	-2.4701872
3	0xbe1a2924	-0.15054756
4	0xc04b1eaf	-3.1737478
5	0xc0478010	-3.1171913
6	0xc0929d06	-4.581668
7	0x3f64dab0	0.8939619
8	0xc0861c84	-4.190981
9	0x3f751762	0.95738804
10	0xbda4b73b	-0.08042761
11	0xbe145c65	-0.1448837
12	0x3f628c59	0.88495404
13	0x3e1dd239	0.15412225
14	0x3f3a52ae	0.7278241
15	0x3e83d592	0.2574888
16	0xc025e02b	-2.5918071
17	0x3efe1e03	0.49632272
18	0x3fa4cfd8	1.2875929
19	0x3eca5777	0.39519855
20	0x3e94deb7	0.29076168
21	0x00000000	0.0
22	0x4050b2f8	3.2609234
23	0xbfeb0b6e	-1.8362863
24	0xbf99cf0f	-1.2016314
25	0xc052248f	-3.2834814
26	0xc004c156	-2.0743003
27	0x3f4b3948	0.7938428
28	0xbf9e1c0e	-1.2352312
29	0x3f7b2720	0.98106575
30	0x3dbc54c4	0.09195855
31	0xbe81e93e	-0.25373262
32	0x3fbd65a9	1.4796649
33	0x3f592fe5	0.84838706
34	0x3f715921	0.94276625
35	0x3fae7f5d	1.3632618
36	0xc0123025	-2.2841885
37	0x3f639781	0.8890305
38	0x3ed691ad	0.41908017
39	0x3f7f68ca	0.9976927
40	0x3e251941	0.16122915
41	0x3f94c36b	1.1622137
42	0x00000000	0.0
43	0x408f96ef	4.4871745
44	0xbf38a974	-0.72133565
45	0x3f697ebb	0.91209
46	0x3fb89729	1.442113
47	0xbe21c4d7	-0.15797745
48	0xbdb5f251	-0.08884109
49	0x3f909b8e	1.1297472
50	0x3f489e92	0.7836696
51	0x408b9bdc	4.362776
52	0x3fa4cc15	1.2874781
53	0x3f41bd17	0.75679153
54	0x3f1fa979	0.6236797
55	0x3f286785	0.6578296
56	0xbcb12ba9	-0.021627264
57	0x3fc25168	1.5181093
58	0x3f272409	0.6528936
59	0x3f559b86	0.83440435
60	0x3e826153	0.25464877
61	0xbeb5c359	-0.355006
62	0x3f883479	1.0641013
63	0x00000000	0.0
64	0xbf96b95b	-1.1775316
65	0xbe271db7	-0.16319929
66	0x3ff49aa6	1.9109695
67	0xbe133ba1	-0.14378215
68	0xbe662846	-0.224763
69	0x3f8f7016	1.1206081
70	0x3f57bf11	0.8427592
71	0x4115f2a6	9.37174
72	0x3d0f9c19	0.035060976
73	0xbeafdbcd	-0.34347382
74	0xbed0e1cd	-0.40797272
75	0xbf219cec	-0.6313007
76	0x3df02930	0.11726606
77	0x3f9a16e1	1.2038232
78	0x3ea7e84b	0.32794413
79	0xbcd5b8f8	-0.026089177
80	0x3ecd372b	0.40081152
81	0x3f2f0022	0.6835958
82	0x407f3e0f	3.9881628
83	0x4086ce4c	4.2126827
84	0x00000000	0.0
85	0xbfb63cf1	-1.4237348
86	0x3f035b8c	0.51311564
87	0x3f00afd2	0.5026828
88	0xc00bbb14	-2.1832933
89	0x3fa3dc85	1.2801672
90	0xbd58b777	-0.05290934
91	0x409d9d97	4.925487
92	0x3f93b3c0	1.153923
93	0x3eef5af1	0.4674907
94	0xbd517c80	-0.051144123
95	0x3f1872ce	0.5955018
96	0xbfd0e59f	-1.6320075
97	0x400dad32	2.213696
98	0x3f5dff76	0.8671793
99	0x3f121104	0.57057214
100	0x3e9901ab	0.29884085
101	0x3e3ca91b	0.18423884
102	0x4077dca0	3.872841
103	0x40a0a314	5.019907
104	0xbffd0289	-1.9766399
105	0x00000000	0.0
106	0x3edcb802	0.43109137
107	0x3ec75cf8	0.38938117
108	0xbf852ffd	-1.040527
109	0x3e291be6	0.16514549
110	0xbe07c0bf	-0.1325712
111	0x40844122	4.132951
112	0x3f3dd766	0.74156797
113	0x3f1d28c9	0.6139036
114	0x3ec5a3e7	0.3860161
115	0xbd661c3e	-0.056179278
116	0xbe2d572e	-0.16927788
117	0x3f746d1a	0.95478976
118	0x3e847d72	0.25876957
119	0x3e2c2a94	0.16813117
120	0xbe121dac	-0.14269131
121	0x3fc79ed8	1.559535
122	0x40d473eb	6.63915
123	0x409ef44e	4.9673223
124	0x3fb59f12	1.418917
125	0x402708f7	2.6099222
126	0x00000000	0.0
127	0x3f14b689	0.58091027
128	0x4025af28	2.5888157
129	0x3ffc9863	1.9734005
130	0x3f22ccb6	0.63593614
131	0x401e7186	2.475679
132	0x3fb6b6fe	1.4274595
133	0x3f1c951f	0.6116504
134	0x3e959338	0.29213881
135	0x3ed631f1	0.41834977
136	0x40a58844	5.172884
137	0x4064585b	3.5678928
138	0xbe319929	-0.17343582
139	0x3faaf70f	1.3356646
140	0x3f05c83d	0.52258664
141	0x3f4ec582	0.80770123
142	0xbeebdbdf	-0.46066186
143	0xc01b0a82	-2.4225163
144	0xc0301e13	-2.7518356
145	0xc08c7e5e	-4.3904257
146	0xc06bdbb2	-3.6852841
147	0x00000000	0.0
148	0xc01a109c	-2.4072638
149	0x3e36eb96	0.17863306
150	0xbe0d3e4d	-0.13793297
151	0xbf96b276	-1.1773212
152	0x3edbdfd6	0.4294421
153	0x3ee2e14e	0.4431252
154	0x3f37bf41	0.71776205
155	0x3f823b16	1.0174282
156	0xc05220e3	-3.2832572
157	0x3eb931e1	0.36170867
158	0x3e8454a7	0.25845835
159	0x3f53f4a1	0.8279515
160	0xbee6878b	-0.45025286
161	0x3f714be8	0.9425645
162	0x40886ddf	4.263412
163	0x402d4fd7	2.707998
164	0x4043d3c3	3.0598
165	0x3f3c9855	0.7366994
166	0x3fae18c2	1.3601305
167	0x3dd9bd7f	0.10631847
168	0x00000000	0.0
169	0x3f0e2684	0.5552752
170	0x3f60bde2	0.8778974
171	0x3feee9e9	1.8665134
172	0x3fd26f84	1.6440282
173	0x3f1c214b	0.609883
174	0x3ebfe7d5	0.3748156
175	0x3f4b6844	0.7945597
176	0x403172da	2.772635
177	0x3ffdcde5	1.9828459
178	0x3e4775ad	0.19478483
179	0x3efba842	0.49151808
180	0x3dc7991f	0.097460024
181	0x3f203f06	0.62596166
182	0x4016abf7	2.354246
183	0x3d9fa137	0.07794421
184	0xc05a6df4	-3.412961
185	0xc03b37ee	-2.9252887
186	0xc08fd30a	-4.4945116
187	0x3f02c145	0.51076156
188	0xc080c8c6	-4.0245085
189	0x00000000	0.0
190	0x3f86975b	1.051494
191	0x3f05353f	0.5203437
192	0x3f91fa5b	1.1404527
193	0x3f2786df	0.6544017
194	0x3f97a180	1.1846161
195	0x3ee1912a	0.44056064
196	0xc05d1819	-3.4545958
197	0x403f18cf	2.9858892
198	0x3f6deb4c	0.9293716
199	0x3fa61c1b	1.2977327
200	0x3e087f63	0.13329844
201	0x3ee2fcef	0.44333598
202	0x4089b52f	4.303367
203	0x408251c3	4.0724807
204	0xbf43ca14	-0.7648022
205	0xbcd09efc	-0.025466435
206	0xbfac5fc0	-1.346672
207	0x3f1e09a8	0.61733484
208	0xbf2afcef	-0.66792196
209	0x3f2147a6	0.6299995
210	0x00000000	0.0
211	0x4055f262	3.3429189
212	0x3fa6ece1	1.304104
213	0x3e08102e	0.13287422
214	0xbea73c38	-0.3266313
215	0x3da696b5	0.08134214
216	0xbfb44e56	-1.4086406
217	0x3f9760bb	1.1826395
218	0x3dab2d35	0.08358232
219	0x3ea26370	0.3171649
220	0x3f8545b7	1.04119
221	0xbebf88a6	-0.37408942
222	0x3fb1da83	1.389481
223	0x411045ab	9.017009
224	0xbef72ede	-0.48277944
225	0x3e2d5b2a	0.16929308
226	0x3f6a8c32	0.9162017
227	0x3dad4eec	0.08462319
228	0x3d1527ab	0.036414783
229	0x3e30b9d2	0.17258385
230	0xbdbcaedc	-0.09213039
231	0x00000000	0.0
232	0xbe863a9b	-0.26216587
233	0xbdc6e28a	-0.09711178
234	0x3ec930e4	0.39295113
235	0xbd4ba340	-0.049716234
236	0xbeda5f22	-0.42650706
237	0x3f74bf70	0.9560461
238	0x3f93006f	1.1484507
239	0x3e829434	0.25503695
240	0xbc89b548	-0.016810074
241	0x3f5649a8	0.8370614
242	0x4033fa34	2.8121462
243	0x3f4a0d66	0.78926694
244	0xbfdff022	-1.7495158
245	0xbfef038e	-1.867296
246	0xc07de876	-3.9673133
247	0x3f16a289	0.5884176
248	0xc03449ae	-2.816997
249	0x3f10c87a	0.565559
250	0x3fceb0ab	1.6147665
251	0x3fbb8035	1.4648501
252	0x00000000	0.0
253	0x3f930925	1.1487166
254	0xbf02c621	-0.5108357
255	0x3f126216	0.5718092

snn.fc_out.weight f4 [9, 20]
0	0xbf469bb7	-0.7758135
1	0xbf4db693	-0.8035671
2	0xc055b476	-3.3391395
3	0xbf815a4a	-1.0105679
4	0xbffb4b3b	-1.9632334
5	0xbf965a7e	-1.1746366
6	0x4008392b	2.1284893
7	0xbef3defb	-0.47631058
8	0xbfbc5a23	-1.4715008
9	0xbf37bfba	-0.71776927
10	0xbfdaabf8	-1.7083731
11	0xc011fd13	-2.2810714
12	0xbf97894b	-1.1838773
13	0xbf0f18a2	-0.5589696
14	0xbec801ae	-0.39063781
15	0xbf001542	-0.50032437
16	0xbf5a6992	-0.8531734
17	0xc00c8b83	-2.1960151
18	0xbf47e967	-0.7809052
19	0xbf397092	-0.72437394
20	0xbf1e4755	-0.61827594
21	0x3ea05a3b	0.3131884
22	0x4051f70b	3.2807033
23	0xbfce5dca	-1.6122372
24	0xbfcd0332	-1.60166
25	0xbfa6092e	-1.2971551
26	0x3f8cc821	1.0998574
27	0xbe432797	-0.19058071
28	0x3ef7af57	0.4837596
29	0x3f572828	0.8404565
30	0x3f1df0b6	0.6169542
31	0xc063f9eb	-3.5621288
32	0x3e36b38b	0.17841928
33	0x3d6c909e	0.057755105
34	0x3ee731c6	0.45155162
35	0xbe2fc9d8	-0.17166841
36	0xbfdd45f3	-1.7286972
37	0xbdbc6e9d	-0.09200785
38	0xbf2bae47	-0.670628
39	0x3f1e0bcc	0.6173675
40	0x3f1549b0	0.58315563
41	0x3f143baa	0.5790354
42	0xbece2e65	-0.4026977
43	0xbf819c35	-1.0125796
44	0x4021eaff	2.529968
45	0x3fbd2337	1.4776372
46	0xbf85b9cd	-1.0447327
47	0x3eaafcdc	0.3339604
48	0x3ed50c5f	0.41611
49	0x3e335d98	0.17516172
50	0x3fdb8c36	1.7152164
51	0xbf992fa5	-1.1967665
52	0x3f7e7684	0.9939959
53	0x3c8ff6a4	0.017573662
54	0xbe7a2091	-0.24426486
55	0x3ef883a1	0.48537925
56	0xbf60aca5	-0.87763435
57	0x3d995b95	0.07488171
58	0x3e5a0317	0.21290241
59	0x3d3ff9a8	0.04686895
60	0x3e316a5d	0.1732573
61	0xbea908bf	-0.33014485
62	0x400683ec	2.1018019
63	0xbfa36582	-1.2765353
64	0xbe1a3327	-0.15058576
65	0xbd39ef23	-0.045394074
66	0xbf74ded5	-0.95652515
67	0x3dde43ac	0.10852751
68	0xbf271dc2	-0.6527978
69	0x3e8ac3bc	0.27102458
70	0xbf0ef02e	-0.55835235
71	0x3f59e944	0.8512156
72	0xbd59f665	-0.053213496
73	0x3e1cbb92	0.15305927
74	0x3eeaf7de	0.45892233
75	0x3e415eab	0.18883769
76	0x40030cdf	2.0476606
77	0x3faea4bc	1.3644023
78	0x3ed82b1e	0.42220396
79	0x3f067968	0.52529
80	0x3da05ca0	0.07830167
81	0x3f0d5801	0.5521241
82	0x3f269b6d	0.6508091
83	0xc0649806	-3.5717788
84	0x3ea59640	0.32341194
85	0xbecb4df5	-0.39707914
86	0x3f89f2f9	1.0777274
87	0x3eb5f8bf	0.3554134
88	0x3ea30a40	0.31843758
89	0x3f0f3507	0.5594029
90	0x3d58486a	0.052803434
91	0xc0259f1a	-2.5878358
92	0x3f61492f	0.88002294
93	0x3d80c9b8	0.06288475
94	0x3daee2b8	0.08539337
95	0x3f0c22d8	0.5474067
96	0xbf5297dd	-0.82262975
97	0x3f41e143	0.7573435
98	0xbe0c583f	-0.13705538
99	0x3e1abf8f	0.15112136
100	0x3f89333a	1.0718758
101	0xbeb9a985	-0.36262146
102	0xc0847bc0	-4.140106
103	0x3e867c21	0.26266578
104	0xbed1d2e6	-0.40981215
105	0xbf176ec8	-0.59153414
106	0xbf67f8a0	-0.90613747
107	0x3ea6ec13	0.32601985
108	0x3d59e2d3	0.053194832
109	0xbe75af06	-0.23992547
110	0xbfbdaf71	-1.4819165
111	0x3fb1a0cc	1.3877196
112	0xbf204d5a	-0.6261803
113	0xbe80f2b8	-0.2518518
114	0x3dab76f7	0.083723
115	0x3d6b2f8e	0.0574184
116	0x3ff4f2e5	1.9136626
117	0xbd0a9b5f	-0.03383958
118	0x3f308d05	0.6896518
119	0xbdbcddd7	-0.09222
120	0xbf184bca	-0.59490645
121	0xbf001f21	-0.500475
122	0xc093a1b9	-4.6134915
123	0x3f3955c2	0.7239648
124	0xc0140ce7	-2.3132875
125	0x3eb67a5a	0.35640222
126	0x3eedf6ef	0.46477458
127	0xbeadb184	-0.33924496
128	0x3e0158d0	0.12631536
129	0xbf9b14f0	-1.2115765
130	0xbfc9b2db	-1.5757707
131	0x3f9f094c	1.2424712
132	0xbe8865d4	-0.2664019
133	0xbed42b61	-0.41439345
134	0xbe686299	-0.22693862
135	0xbf013741	-0.50474936
136	0xbf06ca8d	-0.5265282
137	0xc02f7904	-2.7417612
138	0xbf3c88fd	-0.7364653
139	0xbf601ef7	-0.8754725
140	0xbf18f81a	-0.5975357
141	0xbf0aa1ed	-0.5415333
142	0xc0ce4aa5	-6.446612
143	0x3fea824d	1.8321015
144	0xbf811a71	-1.0086194
145	0x3fddc82e	1.7326715
146	0xbce17170	-0.027519912
147	0xbf0697fa	-0.5257565
148	0x3eec8702	0.46196753
149	0xbf6b90e9	-0.9201799
150	0x3f93aabf	1.1536483
151	0xbd894327	-0.067022614
152	0xbf530e54	-0.8244374
153	0xbd99d030	-0.07510412
154	0xbf28f4c4	-0.6599848
155	0xbf094128	-0.53615046
156	0xbffb72b3	-1.9644378
157	0xc03165b7	-2.7718332
158	0xbe968eb3	-0.29405746
159	0xbf3a5313	-0.7278301
160	0xbf12773c	-0.5721319
161	0xbf826a3e	-1.0188673
162	0xc072929d	-3.7901986
163	0x403c44b9	2.9416945
164	0xbfbc3711	-1.4704305
165	0xc07e0f6a	-3.9696908
166	0x3f078a52	0.52945435
167	0xbef9d752	-0.4879709
168	0xbaa9c56a	-0.0012952511
169	0xbfa18035	-1.2617251
170	0xc01a8b53	-2.4147537
171	0x3fa12976	1.2590778
172	0xbff140b8	-1.8847876
173	0xbf1a9168	-0.6037812
174	0xbe941b17	-0.28926918
175	0xbeb6809e	-0.35645002
176	0xbf32b167	-0.69801944
177	0xc0283cda	-2.628714
178	0xbf842ce6	-1.0326202
179	0xbf0d8fbd	-0.5529745

exp_avg f4 [20, 416]
0	0x3905fb84	0.00012777565
1	0x395072eb	0.00019879236
2	0x3916ee65	0.00014393924
3	0x38a4507b	7.83512e-05
4	0x38b7c825	8.7634e-05
5	0x3954c500	0.00020291284
6	0x38b43cc6	8.594389e-05
7	0x391fdddb	0.00015246069
8	0x38b75e0c	8.7436376e-05
9	0x3981e788	0.00024777302
10	0x387ac22f	5.9785492e-05
11	0x38c72f48	9.497866e-05
12	0x38d6ea38	0.00010247942
13	0x389eaba5	7.5659984e-05
14	0x38742f2f	5.8218076e-05
15	0x3904d21a	0.0001266677
16	0x3901575d	0.00012334944
17	0x3901cd1b	0.00012378806
18	0x38ca9903	9.660611e-05
19	0x38efd792	0.00011436561
20	0x39254ed8	0.00015764998
21	0x38b3a373	8.56583e-05
22	0x394cab0c	0.00019518676
23	0x38662409	5.4869834e-05
24	0x394b329b	0.0001937844
25	0x38636c31	5.422178e-05
26	0x3914b499	0.00014181658
27	0x38538c81	5.0437175e-05
28	0x393721c6	0.00017464822
29	0x38ba91a1	8.896297e-05
30	0x38817fc6	6.174999e-05
31	0x38e11131	0.00010732038
32	0x390dab35	0.00013510587
33	0x38eb6877	0.00011225131
34	0x38cbda80	9.720493e-05
35	0x38d65cd6	0.00010221607
36	0x3893dfea	7.0512135e-05
37	0x39146cea	0.00014154954
38	0x385a0b30	5.198567e-05
39	0x3922b0cf	0.0001551539
40	0x38f4942c	0.00011662426
41	0x39264242	0.00015855677
42	0x39178f77	0.00014453927
43	0x38cf11e4	9.8738616e-05
44	0x390810c3	0.00012976215
45	0x38d33d59	0.00010072691
46	0x38f6914f	0.0001175726
47	0x3897bfe6	7.235985e-05
48	0x3909fa76	0.00013158642
49	0x3930be1c	0.00016855489
50	0x3912461f	0.00013949767
51	0x38a5712a	7.8888916e-05
52	0x391440fa	0.00014138586
53	0x390e097e	0.00013545711
54	0x389a04ba	7.3441726e-05
55	0x3890a8c2	6.897889e-05
56	0x38295878	4.0375133e-05
57	0x3841ea7c	4.6233166e-05
58	0x384c2c5d	4.8678707e-05
59	0x38b5d550	8.670485e-05
60	0x3927256b	0.000159403
61	0x3954affa	0.00020283452
62	0x38e68356	0.00010991718
63	0x38cb8795	9.7050484e-05
64	0x38622214	5.3914337e-05
65	0x37ad3736	2.0648917e-05
66	0x37ebfb1d	2.8131117e-05
67	0x38936408	7.0281385e-05
68	0x383ae277	4.4556768e-05
69	0x38a0f668	7.675291e-05
70	0x3899e20e	7.3377145e-05
71	0x389efd8e	7.581255e-05
72	0x38c98c66	9.610578e-05
73	0x38f913ba	0.000118769196
74	0x38dd2ea1	0.000105467865
75	0x39241e0a	0.00015651449
76	0x37d0216d	2.4811097e-05
77	0x3907ee7c	0.00012963446
78	0x390a0aef	0.00013164779
79	0x38e9b8ff	0.00011144764
80	0x388ec66b	6.808046e-05
81	0x38eb0a0a	0.00011207543
82	0x38307ab9	4.2075964e-05
83	0x38effb99	0.00011443272
84	0x390379da	0.00012538527
85	0x392f87fa	0.00016739956
86	0x390847bb	0.00012996692
87	0x38c88762	9.56196e-05
88	0x38e7da4d	0.000110556
89	0x38bdd63b	9.052126e-05
90	0x388dd4a1	6.763009e-05
91	0x38e427a9	0.000108792745
92	0x38f94fa2	0.00011888078
93	0x384df5a6	4.9104587e-05
94	0x390dba79	0.00013516274
95	0x38b6190a	8.6831e-05
96	0x39196e2f	0.00014632264
97	0x3862285a	5.392018e-05
98	0x3868e9d1	5.553087e-05
99	0x38f49280	0.000116621144
100	0x39101d50	0.0001374383
101	0x38f29829	0.00011567801
102	0x390b280e	0.00013270995
103	0x3914ed90	0.00014202879
104	0x39091b80	0.00013075583
105	0x38ff1008	0.000121623336
106	0x394fa591	0.00019802737
107	0x3937170e	0.00017460829
108	0x38cc2296	9.73392e-05
109	0x384d8a72	4.9004746e-05
110	0x390718a0	0.00012883777
111	0x39b30f20	0.0003415281
112	0x39267ed8	0.00015878247
113	0x3974fa2d	0.00023362851
114	0x390ccde0	0.00013428135
115	0x38602ba8	5.344642e-05
116	0x38750ae3	5.842269e-05
117	0x38e5e793	0.00010962705
118	0x38a2bedc	7.760312e-05
119	0x38523f94	5.0127113e-05
120	0x3875e66c	5.862715e-05
121	0x389423c6	7.063853e-05
122	0x38a3748c	7.794154e-05
123	0x38b8ac05	8.805845e-05
124	0x38c8979b	9.564982e-05
125	0x39457635	0.0001883142
126	0x391887fb	0.00014546506
127	0x38e2fd0d	0.00010823654
128	0x3851e7af	5.0045255e-05
129	0x38b82315	8.780338e-05
130	0x3939be06	0.00017713764
131	0x391365c2	0.0001405692
132	0x398c90b5	0.00026810696
133	0x38249791	3.9241804e-05
134	0x389abc5b	7.378376e-05
135	0x38f83f67	0.00011837371
136	0x3919a408	0.00014652323
137	0x3901f5c9	0.00012393961
138	0x38c1f233	9.24807e-05
139	0x39bbcf1d	0.0003582173
140	0x388bd454	6.667586e-05
141	0x38a12fd9	7.6859906e-05
142	0x3902d521	0.00012477163
143	0x38fc67aa	0.00012035605
144	0x3906347b	0.00012798786
145	0x3866cc27	5.5026405e-05
146	0x384014d6	4.5795772e-05
147	0x3856b7d8	5.1192794e-05
148	0x3952655a	0.00020064917
149	0x38aef6fd	8.342972e-05
150	0x38956b34	7.124842e-05
151	0x38fa3061	0.0001192994
152	0x39094ee1	0.00013094723
153	0x37da031e	2.5989077e-05
154	0x38ad5987	8.2659586e-05
155	0x38b61189	8.6817025e-05
156	0x38e93a5b	0.00011121175
157	0x38de863a	0.000106107866
158	0x39438422	0.00018645872
159	0x38e871c3	0.00011083812
160	0x38b371ce	8.556583e-05
161	0x38dd12b1	0.00010541583
162	0x39578486	0.00020553367
163	0x3893e7be	7.0526716e-05
164	0x38cc9927	9.756005e-05
165	0x392853c0	0.00016052928
166	0x38d125f6	9.9729674e-05
167	0x38b750e6	8.7411885e-05
168	0x3962d161	0.00021631039
169	0x39387005	0.00017589338
170	0x3858ae18	5.166055e-05
171	0x38d32e65	0.00010069906
172	0x3878d672	5.9327525e-05
173	0x387c0802	6.008894e-05
174	0x38a33fe1	7.784344e-05
175	0x392153dc	0.00015385397
176	0x392ac418	0.00016285514
177	0x3905e4b1	0.00012769063
178	0x38d70cc7	0.00010254379
179	0x390e0254	0.00013543043
180	0x3859d7e8	5.193791e-05
181	0x38959cd9	7.134089e-05
182	0x38c5b20f	9.426858e-05
183	0x38b87031	8.794701e-05
184	0x390af774	0.00013252889
185	0x39189682	0.00014551918
186	0x3938f770	0.00017639785
187	0x3934d3ba	0.00017245012
188	0x38cb7dca	9.703224e-05
189	0x392146f6	0.00015380592
190	0x388621ee	6.395938e-05
191	0x38ab984d	8.182284e-05
192	0x3811aa52	3.4729317e-05
193	0x39143acb	0.00014136282
194	0x391f53c4	0.00015194627
195	0x3887c9e1	6.4749045e-05
196	0x38a667e4	7.934848e-05
197	0x387ce4fd	6.0294744e-05
198	0x38e29168	0.00010803604
199	0x38886a41	6.504777e-05
200	0x38dbc2fc	0.000104790524
201	0x3902a2bf	0.00012458394
202	0x38d7a0b0	0.00010281929
203	0x3916bdf7	0.00014375882
204	0x39030a77	0.00012497032
205	0x3947e163	0.00019062082
206	0x389b2ee8	7.399713e-05
207	0x3933821c	0.0001711924
208	0x388adfcd	6.622039e-05
209	0x37b8dcc7	2.2037317e-05
210	0x38e54682	0.00010932704
211	0x37b7dc79	2.1917966e-05
212	0x38d0dc8e	9.9592944e-05
213	0x38a44f39	7.834886e-05
214	0x38ec7374	0.00011274862
215	0x3852511f	5.014345e-05
216	0x38b93ba9	8.8326e-05
217	0x38b08a15	8.418054e-05
218	0x38f9fbfd	0.00011920182
219	0x392f06fb	0.00016691901
220	0x3887866f	6.462342e-05
221	0x389c00e0	7.438823e-05
222	0x38dc77b1	0.00010512712
223	0x38ea835d	0.00011182458
224	0x3789fc01	1.6449021e-05
225	0x37ba8fcb	2.2239887e-05
226	0x37857054	1.5907142e-05
227	0x3876497b	5.8719404e-05
228	0x391afff0	0.00014781929
229	0x38fc72a3	0.00012037649
230	0x385e910d	5.3064014e-05
231	0x383d538a	4.5138913e-05
232	0x38164430	3.582629e-05
233	0x38fc6425	0.0001203495
234	0x38b0a691	8.4233594e-05
235	0x3900cfa9	0.0001228439
236	0x38a4ccb7	7.8582605e-05
237	0x38758323	5.8534682e-05
238	0x38e0e9ec	0.00010724724
239	0x384da0e1	4.902564e-05
240	0x38800037	6.103556e-05
241	0x39106bb3	0.00013773031
242	0x38a0fff0	7.6770666e-05
243	0x38a422d1	7.8266145e-05
244	0x3841dd4e	4.622089e-05
245	0x37249a90	9.811149e-06
246	0x38a2ec5d	7.768788e-05
247	0x37f2fb1e	2.8965584e-05
248	0x38f4c0e5	0.00011670756
249	0x388d152e	6.727349e-05
250	0x38b33235	8.544737e-05
251	0x3874df66	5.838219e-05
252	0x391f6717	0.00015201826
253	0x38d5e7a1	0.00010199776
254	0x38f159b6	0.000115084855
255	0x38823ecb	6.210579e-05

exp_avg_sq f4 [20, 416]
0	0x338c0064	6.519329e-08
1	0x3380f27d	6.004573e-08
2	0x3385c11f	6.2284236e-08
3	0x3361ba4a	5.2556324e-08
4	0x338b206c	6.4785894e-08
5	0x336da211	5.532826e-08
6	0x338e0754	6.613723e-08
7	0x3381977b	6.034585e-08
8	0x3369e744	5.4459875e-08
9	0x339503ca	6.9390424e-08
10	0x339431be	6.900835e-08
11	0x3385a02c	6.22243e-08
12	0x337cf9e9	5.8900614e-08
13	0x335ec0fc	5.186392e-08
14	0x3372ccae	5.653117e-08
15	0x3372cf87	5.653376e-08
16	0x337c1604	5.8693345e-08
17	0x33884e57	6.3472434e-08
18	0x33710438	5.6116022e-08
19	0x337b177a	5.8461843e-08
20	0x336eb63a	5.5579427e-08
21	0x337bb06b	5.8600943e-08
22	0x3390975c	6.733055e-08
23	0x337ae951	5.841986e-08
24	0x3370498a	5.5946238e-08
25	0x339067f0	6.724429e-08
26	0x3382ea68	6.096235e-08
27	0x339212f6	6.802104e-08
28	0x3385964f	6.220636e-08
29	0x33814407	6.019405e-08
30	0x33932cc1	6.8533616e-08
31	0x337dd68d	5.9101286e-08
32	0x337fe2c7	5.9578067e-08
33	0x338c8048	6.542592e-08
34	0x336a293d	5.4519877e-08
35	0x337b6467	5.8531807e-08
36	0x33706e9b	5.597995e-08
37	0x339e5d69	7.3744395e-08
38	0x336cade4	5.5106185e-08
39	0x33753e43	5.7100134e-08
40	0x336eddb5	5.5615335e-08
41	0x338367e6	6.119062e-08
42	0x337b956e	5.8576397e-08
43	0x33907b89	6.7279935e-08
44	0x3382b39d	6.086268e-08
45	0x339541ac	6.950299e-08
46	0x338484c6	6.17088e-08
47	0x336f6f65	5.5747837e-08
48	0x33807db9	5.983333e-08
49	0x33738b77	5.670469e-08
50	0x3380b9aa	5.9942366e-08
51	0x33755d2e	5.7128254e-08
52	0x33628d17	5.2748046e-08
53	0x338024de	5.9671706e-08
54	0x336b5028	5.4788103e-08
55	0x3364f05c	5.3303992e-08
56	0x336592b9	5.345166e-08
57	0x337a43e8	5.826942e-08
58	0x338f85e2	6.6833096e-08
59	0x3354d312	4.9552064e-08
60	0x337f4765	5.9436747e-08
61	0x33668cab	5.3678985e-08
62	0x33870aff	6.2884276e-08
63	0x336ba299	5.4863083e-08
64	0x33706c75	5.5977996e-08
65	0x33615997	5.2468376e-08
66	0x3375175f	5.7064764e-08
67	0x337f71c8	5.9475298e-08
68	0x33594af2	5.0592412e-08
69	0x33664d8b	5.3621573e-08
70	0x3354bbad	4.9530787e-08
71	0x3380007e	5.960554e-08
72	0x33548ced	4.9488268e-08
73	0x337a68a2	5.8302824e-08
74	0x33837fba	6.123396e-08
75	0x336bde15	5.4917184e-08
76	0x33769a54	5.74167e-08
77	0x335e0345	5.1691377e-08
78	0x33548bd6	4.9487276e-08
79	0x3372bac7	5.651489e-08
80	0x335de59e	5.1664408e-08
81	0x337cf7d8	5.8898735e-08
82	0x3364491e	5.3151886e-08
83	0x336df63a	5.5404804e-08
84	0x336d8f54	5.531122e-08
85	0x3360aebc	5.2312984e-08
86	0x3376bd6c	5.7448617e-08
87	0x33835e23	6.117286e-08
88	0x3357ad00	5.021593e-08
89	0x337a80ab	5.8324684e-08
90	0x33802443	5.9670604e-08
91	0x33514702	4.8726186e-08
92	0x337f7453	5.947761e-08
93	0x334e5de6	4.8048513e-08
94	0x336c6bd5	5.5046105e-08
95	0x33861c4f	6.2450106e-08
96	0x3378c7de	5.7923778e-08
97	0x3362f01a	5.2838097e-08
98	0x337aa7fe	5.836045e-08
99	0x3359a7c8	5.0676846e-08
100	0x334bf62f	4.7488523e-08
101	0x3366474a	5.3615885e-08
102	0x3382cbb9	6.090654e-08
103	0x33888857	6.3577936e-08
104	0x337e7a01	5.9249945e-08
105	0x338f11c9	6.6621915e-08
106	0x3380226f	5.966728e-08
107	0x337f8919	5.9496504e-08
108	0x3363fa81	5.3080388e-08
109	0x3389e62f	6.42143e-08
110	0x33902d73	6.71379e-08
111	0x338adc91	6.4662466e-08
112	0x33685573	5.4094425e-08
113	0x3379b681	5.8140817e-08
114	0x33885880	6.3490916e-08
115	0x3385a729	6.2237014e-08
116	0x337af0f0	5.8426792e-08
117	0x3376ba34	5.744569e-08
118	0x338d24c8	6.5725146e-08
119	0x337f1af1	5.9396317e-08
120	0x3363e9f1	5.3065325e-08
121	0x33934829	6.858347e-08
122	0x33915a61	6.7685285e-08
123	0x3386cc8d	6.277069e-08
124	0x3354a54b	4.951043e-08
125	0x33780d28	5.7753965e-08
126	0x33832e30	6.108564e-08
127	0x33801b7f	5.965466e-08
128	0x3377b197	5.7670686e-08
129	0x3371faf8	5.634044e-08
130	0x3377b55d	5.7674118e-08
131	0x33855cdd	6.210187e-08
132	0x338adc22	6.466168e-08
133	0x3377c523	5.7688464e-08
134	0x337503ac	5.7046847e-08
135	0x3384c746	6.1829766e-08
136	0x337ac65d	5.838807e-08
137	0x3390a5c1	6.735673e-08
138	0x3383d804	6.139456e-08
139	0x339fbec0	7.438712e-08
140	0x3377527a	5.758418e-08
141	0x3374fd4e	5.7041056e-08
142	0x338ff67c	6.703792e-08
143	0x337cc42f	5.885175e-08
144	0x3384061b	6.1478396e-08
145	0x337311ab	5.6593915e-08
146	0x3381d3e5	6.045574e-08
147	0x33837bea	6.122703e-08
148	0x33792e94	5.8017193e-08
149	0x338d86f3	6.590371e-08
150	0x33840b64	6.148801e-08
151	0x336a737a	5.4587396e-08
152	0x334cf087	4.771621e-08
153	0x338f1ec9	6.664556e-08
154	0x3374a4f4	5.69607e-08
155	0x338b323b	6.481829e-08
156	0x3393d865	6.884583e-08
157	0x33906869	6.7245146e-08
158	0x33902e38	6.71393e-08
159	0x339c9ff5	7.293412e-08
160	0x33824f98	6.068075e-08
161	0x3394f8df	6.9370564e-08
162	0x33b04c6d	8.2095404e-08
163	0x339be5c6	7.2595455e-08
164	0x33a187a3	7.521819e-08
165	0x33924e7b	6.81293e-08
166	0x33906e5f	6.725599e-08
167	0x3391ff6c	6.7985496e-08
168	0x33b2f837	8.333921e-08
169	0x339e9ceb	7.3859916e-08
170	0x339b7ccb	7.24045e-08
171	0x33964673	6.997734e-08
172	0x33a4698a	7.6560426e-08
173	0x339aa549	7.201249e-08
174	0x3392eeab	6.842068e-08
175	0x339974ab	7.1458395e-08
176	0x339e8fbb	7.383593e-08
177	0x339d5869	7.326964e-08
178	0x338dd8d7	6.605267e-08
179	0x3394dc3a	6.931846e-08
180	0x339a3b4f	7.181972e-08
181	0x33882eec	6.3415285e-08
182	0x338cb8d0	6.552875e-08
183	0x339dc795	7.347186e-08
184	0x3397d57e	7.0703194e-08
185	0x3395c75d	6.974617e-08
186	0x3395fc8a	6.98429e-08
187	0x339fda6d	7.443746e-08
188	0x3395d79b	6.9775716e-08
189	0x33a24a1c	7.557193e-08
190	0x3395edcc	6.981608e-08
191	0x33b113a3	8.245777e-08
192	0x338532cd	6.202536e-08
193	0x33878821	6.311189e-08
194	0x33a6aff6	7.7619845e-08
195	0x339854b3	7.093458e-08
196	0x33a42bc7	7.644808e-08
197	0x3392ace3	6.830103e-08
198	0x339bda9a	7.257513e-08
199	0x339050de	6.720232e-08
200	0x339baad0	7.2488206e-08
201	0x33903148	6.714487e-08
202	0x3398a386	7.107796e-08
203	0x33931c75	6.850397e-08
204	0x339372dd	6.8661144e-08
205	0x33a58c42	7.708924e-08
206	0x33994f1a	7.139006e-08
207	0x338f0937	6.6606326e-08
208	0x331cb04c	3.648192e-08
209	0x332a7aeb	3.9693003e-08
210	0x33243912	3.823613e-08
211	0x3334e491	4.2117396e-08
212	0x33310a6e	4.122051e-08
213	0x3330ef45	4.1195808e-08
214	0x334087c5	4.4826965e-08
215	0x3318f9c2	3.561741e-08
216	0x331835da	3.5439236e-08
217	0x3326e487	3.885773e-08
218	0x33211c5f	3.7511537e-08
219	0x331f37c4	3.707079e-08
220	0x334f4aed	4.8264088e-08
221	0x3334d4dc	4.210311e-08
222	0x3334c807	4.209144e-08
223	0x333018dd	4.1000806e-08
224	0x33280004	3.9115562e-08
225	0x3337b8d4	4.2776108e-08
226	0x333f9675	4.4607493e-08
227	0x332c5454	4.0123567e-08
228	0x33305632	4.1056587e-08
229	0x332b725f	3.991806e-08
230	0x33400662	4.470929e-08
231	0x3330d73c	4.1173948e-08
232	0x332451bb	3.825856e-08
233	0x3344771f	4.5743146e-08
234	0x33193b9d	3.5677306e-08
235	0x33294904	3.9414786e-08
236	0x33450157	4.5868855e-08
237	0x331da9d8	3.6708883e-08
238	0x3335be8e	4.2315655e-08
239	0x33358d04	4.22706e-08
240	0x33219415	3.7620413e-08
241	0x3333be21	4.1849606e-08
242	0x3331a6b3	4.1362636e-08
243	0x332d989b	4.0418495e-08
244	0x33149c71	3.4601218e-08
245	0x33292bac	3.9388098e-08
246	0x3329bce6	3.952018e-08
247	0x3326de3a	3.8852e-08
248	0x332e5dfa	4.0598003e-08
249	0x3336f734	4.2600007e-08
250	0x3329d842	3.9545064e-08
251	0x3336a18e	4.252211e-08
252	0x3338ca02	4.3024563e-08
253	0x333aad33	4.3464023e-08
254	0x332d1c73	4.0305576e-08
255	0x3320705d	3.7355097e-08

exp_avg f4 [20, 20]
0	0x00000000	0.0
1	0x00000004	6e-45
2	0x35a61382	1.2373641e-06
3	0x3593f656	1.1024047e-06
4	0x36d5bb64	6.36971e-06
5	0x36c6bd34	5.922886e-06
6	0x37445c2d	1.1703972e-05
7	0x00000004	6e-45
8	0x36fd38a0	7.5465796e-06
9	0x00000004	6e-45
10	0x80000004	-6e-45
11	0x33844770	6.1597234e-08
12	0x00000004	6e-45
13	0x00000004	6e-45
14	0x00000004	6e-45
15	0x00000004	6e-45
16	0x378d49c8	1.6842867e-05
17	0x00000004	6e-45
18	0x80000004	-6e-45
19	0x00000004	6e-45
20	0x80000004	-6e-45
21	0x00000000	0.0
22	0xb3faed08	-1.1684648e-07
23	0x36156d81	2.226647e-06
24	0x37158b41	8.913515e-06
25	0x370657c0	8.007453e-06
26	0x37911d89	1.72991e-05
27	0x80000004	-6e-45
28	0x374f7beb	1.2367013e-05
29	0x80000004	-6e-45
30	0x80000004	-6e-45
31	0x33d46b95	9.891588e-08
32	0x80000004	-6e-45
33	0x80000004	-6e-45
34	0x00000004	6e-45
35	0x00000004	6e-45
36	0x3771944d	1.4399248e-05
37	0x80000004	-6e-45
38	0x00000004	6e-45
39	0x80000004	-6e-45
40	0x80000004	-6e-45
41	0x80000004	-6e-45
42	0x00000000	0.0
43	0xbb770f7c	-0.0037698438
44	0x3b8cf6d0	0.0043018833
45	0x3b1f225b	0.0024281952
46	0xbb5cb676	-0.003367809
47	0x80000004	-6e-45
48	0x3bdfc1ab	0.006828507
49	0x80000004	-6e-45
50	0x00000004	6e-45
51	0x3795944f	1.7831246e-05
52	0x80000004	-6e-45
53	0x80000004	-6e-45
54	0x80000004	-6e-45
55	0x80000004	-6e-45
56	0xba056964	-0.0005089252
57	0x80000004	-6e-45
58	0x00000004	6e-45
59	0x80000004	-6e-45
60	0x00000004	6e-45
61	0x00000004	6e-45
62	0x3ba32e37	0.0049798745
63	0x00000000	0.0
64	0x3ba8bc68	0.005149413
65	0x3b7ab9ec	0.003825779
66	0xbbb74179	-0.0055925217
67	0x00000004	6e-45
68	0x3bb0d409	0.0053963703
69	0x00000004	6e-45
70	0x80000004	-6e-45
71	0xb9cacd91	-0.000386816
72	0x00000004	6e-45
73	0x00000004	6e-45
74	0x00000004	6e-45
75	0x00000004	6e-45
76	0x3b2a58a5	0.0025992778
77	0x00000004	6e-45
78	0x80000004	-6e-45
79	0x00000004	6e-45
80	0x00000004	6e-45
81	0x00000004	6e-45
82	0x39873063	0.00025785257
83	0xba69569d	-0.0008901151
84	0x00000000	0.0
85	0xb92faa44	-0.0001675273
86	0x3ab383c1	0.0013695882
87	0x00000004	6e-45
88	0x3abb1847	0.0014274203
89	0x80000004	-6e-45
90	0x80000004	-6e-45
91	0xb856bb51	-5.1196028e-05
92	0x00000004	6e-45
93	0x00000004	6e-45
94	0x00000004	6e-45
95	0x00000004	6e-45
96	0x3b2bb02e	0.002619754
97	0x00000004	6e-45
98	0x80000004	-6e-45
99	0x00000004	6e-45
100	0x00000004	6e-45
101	0x00000004	6e-45
102	0x3ad444e6	0.001619485
103	0x390f4e5c	0.00013666734
104	0x3aff30a4	0.0019469452
105	0x00000000	0.0
106	0x3b571eee	0.0032824832
107	0x00000004	6e-45
108	0x3ba04605	0.0048911595
109	0x00000004	6e-45
110	0x80000004	-6e-45
111	0x39d38324	0.00040342764
112	0x00000004	6e-45
113	0x00000004	6e-45
114	0x00000004	6e-45
115	0x00000004	6e-45
116	0x3ac7bab9	0.0015238143
117	0x00000004	6e-45
118	0x80000004	-6e-45
119	0x00000004	6e-45
120	0x80000004	-6e-45
121	0x80000004	-6e-45
122	0xb9121551	-0.00013931586
123	0xbacc75ab	-0.0015599033
124	0x3a05c97a	0.000510357
125	0xba4aba6c	-0.00077334675
126	0x00000000	0.0
127	0x80000004	-6e-45
128	0xba543d58	-0.0008096299
129	0x80000004	-6e-45
130	0x00000004	6e-45
131	0xb8c971ae	-9.6056014e-05
132	0x80000004	-6e-45
133	0x80000004	-6e-45
134	0x80000004	-6e-45
135	0x80000004	-6e-45
136	0xbb309b73	-0.0026948124
137	0x80000004	-6e-45
138	0x80000004	-6e-45
139	0x80000004	-6e-45
140	0x80000004	-6e-45
141	0x00000004	6e-45
142	0x348af533	2.588291e-07
143	0x355a2fcc	8.128088e-07
144	0x35b118eb	1.319478e-06
145	0x36055908	1.9870367e-06
146	0x368f4559	4.2698052e-06
147	0x00000000	0.0
148	0x362a6bd5	2.539474e-06
149	0x80000004	-6e-45
150	0x00000004	6e-45
151	0x333343a1	4.1738193e-08
152	0x80000004	-6e-45
153	0x80000004	-6e-45
154	0x80000004	-6e-45
155	0x80000004	-6e-45
156	0x369e5542	4.7186923e-06
157	0x80000004	-6e-45
158	0x80000004	-6e-45
159	0x80000004	-6e-45
160	0x80000004	-6e-45
161	0x00000004	6e-45
162	0xb9952df4	-0.00028453732
163	0xba445126	-0.00074888987
164	0xba4d42f9	-0.0007830109
165	0xb9c17787	-0.00036900883
166	0xba8ae88c	-0.0010597869
167	0x80000004	-6e-45
168	0x00000000	0.0
169	0x80000004	-6e-45
170	0x80000004	-6e-45
171	0xb8c09e58	-9.184767e-05
172	0x80000004	-6e-45
173	0x00000004	6e-45
174	0x80000004	-6e-45
175	0x80000004	-6e-45
176	0xba88be09	-0.0010432611
177	0x00000004	6e-45
178	0x80000004	-6e-45
179	0x80000004	-6e-45
180	0x80000004	-6e-45
181	0x80000004	-6e-45
182	0x360ffe45	2.1456665e-06
183	0x35fd549e	1.8874596e-06
184	0x378f1171	1.705505e-05
185	0x37581bc6	1.288107e-05
186	0x37d17bf7	2.4972467e-05
187	0x80000004	-6e-45
188	0x379f8721	1.9017201e-05
189	0x00000000	0.0
190	0x00000004	6e-45
191	0x33e9dd98	1.0890216e-07
192	0x80000004	-6e-45
193	0x80000004	-6e-45
194	0x80000004	-6e-45
195	0x80000004	-6e-45
196	0x380bde8e	3.3347453e-05
197	0x80000004	-6e-45
198	0x00000004	6e-45
199	0x80000004	-6e-45
200	0x00000004	6e-45
201	0x00000004	6e-45
202	0x37041f2c	7.875071e-06
203	0x37050914	7.929531e-06
204	0x3888b337	6.518367e-05
205	0x38805f6f	6.1212915e-05
206	0x38f662fa	0.0001174863
207	0x00000004	6e-45
208	0x38a9711b	8.0796155e-05
209	0x00000004	6e-45
210	0x00000000	0.0
211	0x35169999	5.610287e-07
212	0x00000004	6e-45
213	0x00000004	6e-45
214	0x00000004	6e-45
215	0x00000004	6e-45
216	0x38e0f278	0.00010726316
217	0x00000004	6e-45
218	0x00000004	6e-45
219	0x00000004	6e-45
220	0x00000004	6e-45
221	0x00000004	6e-45
222	0x3b99b363	0.004690574
223	0xbb9d4c68	-0.004800368
224	0x3b78fea1	0.0037993568
225	0x3b502ec2	0.003176615
226	0xbaf50966	-0.0018694818
227	0x00000004	6e-45
228	0x3b3f40bd	0.0029182874
229	0x80000004	-6e-45
230	0x80000004	-6e-45
231	0x00000000	0.0
232	0x00000004	6e-45
233	0x00000004	6e-45
234	0x00000004	6e-45
235	0x00000004	6e-45
236	0x3b90f567	0.0044237855
237	0x00000004	6e-45
238	0x00000004	6e-45
239	0x00000004	6e-45
240	0x00000004	6e-45
241	0x00000004	6e-45
242	0x35eea0b9	1.7779158e-06
243	0x367dbfa8	3.7811496e-06
244	0x379d9aea	1.8787996e-05
245	0x3787e252	1.6198643e-05
246	0x380fd83f	3.429525e-05
247	0x00000004	6e-45
248	0x37c9aa61	2.4040406e-05
249	0x80000004	-6e-45
250	0x80000004	-6e-45
251	0x344f6124	1.9313717e-07
252	0x00000000	0.0
253	0x00000004	6e-45
254	0x00000004	6e-45
255	0x00000004	6e-45

exp_avg_sq f4 [20, 20]
0	0x00000000	0.0
1	0x2b9f95eb	1.133924e-12
2	0x2d66adab	1.3112548e-11
3	0x2dcc8d07	2.3254744e-11
4	0x2efb305b	1.1422748e-10
5	0x2ea07e5f	7.2984056e-11
6	0x3000cfe4	4.686156e-10
7	0x29739a76	5.4090813e-14
8	0x2e9d7447	7.1601884e-11
9	0x2c0fc490	2.0430636e-12
10	0x2bcfe8ad	1.4772815e-12
11	0x2d9b8adb	1.7683124e-11
12	0x2c344e1b	2.5622896e-12
13	0x29046cfd	2.940442e-14
14	0x2ab2f5a2	3.1789594e-13
15	0x29b95ba7	8.2315495e-14
16	0x2f91616e	2.6444574e-10
17	0x2c4105a1	2.7430074e-12
18	0x29d306c3	9.371455e-14
19	0x2b8ca340	9.992909e-13
20	0x2aefb6ac	4.2581683e-13
21	0x00000000	0.0
22	0x2e1360c4	3.3509875e-11
23	0x2da00796	1.8193263e-11
24	0x2f6e901d	2.1697173e-10
25	0x2f4ff399	1.8913084e-10
26	0x308c2b1e	1.0198595e-09
27	0x29807319	5.704308e-14
28	0x2f4d4df6	1.8672339e-10
29	0x2cafc16d	4.9952737e-12
30	0x2ca64d9c	4.72662e-12
31	0x2d28d326	9.596579e-12
32	0x2cf336e6	6.9125703e-12
33	0x29115db8	3.2277756e-14
34	0x2a3b3586	1.6627506e-13
35	0x299d543a	6.9868116e-14
36	0x2fa82cb7	3.0590794e-10
37	0x2d13bd16	8.397968e-12
38	0x29f78f09	1.0993816e-13
39	0x2b20ccdb	5.7127713e-13
40	0x2bb85022	1.3096228e-12
41	0x2bb6128f	1.2937029e-12
42	0x00000000	0.0
43	0x38d066ac	9.937337e-05
44	0x39850cef	0.00025377373
45	0x39a025e8	0.0003054582
46	0x3ac8a5ee	0.001530824
47	0x29be5a6a	8.453379e-14
48	0x3a244066	0.00062656996
49	0x2d58d85b	1.2326219e-11
50	0x32854508	1.551463e-08
51	0x373ed85b	1.1375257e-05
52	0x2e841c42	6.0076846e-11
53	0x2968359e	5.1560854e-14
54	0x2ab318ad	3.181391e-13
55	0x29e6fea3	1.0258224e-13
56	0x3a6e0669	0.00090799347
57	0x3096fb3b	1.098534e-09
58	0x2a868961	2.3898507e-13
59	0x2b88e815	9.727797e-13
60	0x2abc7783	3.3478436e-13
61	0x2c1f2d9c	2.2620577e-12
62	0x39263dbb	0.0001585399
63	0x00000000	0.0
64	0x3a49be9e	0.00076959457
65	0x398add1f	0.0002648616
66	0x3b1dd209	0.002408149
67	0x29813afb	5.738982e-14
68	0x3a81fb09	0.0009916733
69	0x2e158e42	3.4005028e-11
70	0x3235358e	1.05477636e-08
71	0x353e3a0e	7.0864996e-07
72	0x2f0ac88a	1.2622273e-10
73	0x290d3f78	3.136334e-14
74	0x2adadda8	3.8878384e-13
75	0x29aa2a21	7.556825e-14
76	0x3a90fb49	0.0011061217
77	0x31a13cec	4.6926427e-09
78	0x29ce38a8	9.158066e-14
79	0x2bdfcd06	1.5902008e-12
80	0x2b1e5248	5.6247064e-13
81	0x2c62df2a	3.2240413e-12
82	0x371a3228	9.190793e-06
83	0x3761f65f	1.3468408e-05
84	0x00000000	0.0
85	0x3888f70f	6.5310036e-05
86	0x39518af9	0.00019983565
87	0x2a1b36ec	1.378582e-13
88	0x38e29074	0.00010803426
89	0x2df2963a	2.7578929e-11
90	0x3190eec7	4.2180974e-09
91	0x35ca189f	1.5057338e-06
92	0x2ea8be2d	7.6735375e-11
93	0x29a5bec6	7.360566e-14
94	0x2b3076a4	6.269241e-13
95	0x2a680f77	2.0611105e-13
96	0x38b9a6f3	8.852584e-05
97	0x30759711	8.934516e-10
98	0x2a3563d8	1.611067e-13
99	0x2c1e96d8	2.2536886e-12
100	0x2ac1db5e	3.4435904e-13
101	0x2c19312c	2.1769904e-12
102	0x370cc78e	8.391113e-06
103	0x380e9219	3.3991502e-05
104	0x3847eb23	4.7664285e-05
105	0x00000000	0.0
106	0x3984d56a	0.00025336008
107	0x297d71bc	5.6275934e-14
108	0x38cd73ad	9.796708e-05
109	0x2d8a239a	1.5704594e-11
110	0x31000f73	1.8635233e-09
111	0x3692559e	4.361106e-06
112	0x2e501c25	4.7318722e-11
113	0x28f1662d	2.6800687e-14
114	0x2aaf103a	3.1097504e-13
115	0x29e5bcdc	1.0202405e-13
116	0x38e791cf	0.00011042097
117	0x302e8559	6.349033e-10
118	0x29b165d3	7.878043e-14
119	0x2bb3ed05	1.2784501e-12
120	0x2a989b7c	2.7108513e-13
121	0x2b0e5026	5.055976e-13
122	0x34121c42	1.360759e-07
123	0x3613b590	2.201039e-06
124	0x3618b019	2.2752267e-06
125	0x3664b606	3.40806e-06
126	0x00000000	0.0
127	0x2935b5ad	4.0347652e-14
128	0x365b085c	3.2638409e-06
129	0x2cf5d5c5	6.987052e-12
130	0x301a37dc	5.6104255e-10
131	0x341716e4	1.4071298e-07
132	0x2d80dfb0	1.4651252e-11
133	0x28d3d9f7	2.3520233e-14
134	0x2a0be6be	1.2425735e-13
135	0x295f911a	4.9641802e-14
136	0x37277122	9.9803165e-06
137	0x2fd8ddd5	3.9447792e-10
138	0x29ac2d55	7.646198e-14
139	0x2aed2cd4	4.2130763e-13
140	0x29e781c5	1.0280972e-13
141	0x2a57f909	1.9182237e-13
142	0x2bb79da9	1.3046692e-12
143	0x2c130458	2.0892368e-12
144	0x2cfa7c4e	7.119228e-12
145	0x2d257745	9.405647e-12
146	0x2e52422d	4.7807248e-11
147	0x00000000	0.0
148	0x2d07be61	7.716134e-12
149	0x2a52039c	1.8652999e-13
150	0x29a77065	7.435787e-14
151	0x2b96f00c	1.0724767e-12
152	0x2a86ceb0	2.39466e-13
153	0x28a3dcc0	1.819237e-14
154	0x29d3ef0e	9.411752e-14
155	0x2935552c	4.026395e-14
156	0x2dabace9	1.9517237e-11
157	0x2a891ff5	2.4358263e-13
158	0x296874b4	5.1615572e-14
159	0x2a44616d	1.7442098e-13
160	0x2988f799	6.0825646e-14
161	0x2a3966e4	1.6466998e-13
162	0x35b8a24f	1.3756306e-06
163	0x35993786	1.1415548e-06
164	0x35ca9866	1.5094527e-06
165	0x364f6b9c	3.090804e-06
166	0x37c4a7b3	2.3443112e-05
167	0x29177998	3.36342e-14
168	0x00000000	0.0
169	0x2a32119d	1.5815687e-13
170	0x2f2f7677	1.5958244e-10
171	0x340f3d38	1.3340184e-07
172	0x2a7728a5	2.1952108e-13
173	0x28a30cd8	1.8102205e-14
174	0x2993ddec	6.566609e-14
175	0x29526fb9	4.672627e-14
176	0x3706d3ed	8.036365e-06
177	0x2cabfe73	4.888362e-12
178	0x29158f69	3.3209035e-14
179	0x2a1a0e43	1.3682896e-13
180	0x2ab32659	3.1823396e-13
181	0x2a9fa795	2.8360357e-13
182	0x2eddf188	1.0092821e-10
183	0x2ecd8f53	9.34778e-11
184	0x3004028e	4.802495e-10
185	0x2fb9d066	3.379938e-10
186	0x31165a37	2.1879154e-09
187	0x29302650	3.911308e-14
188	0x2fa122fd	2.931059e-10
189	0x00000000	0.0
190	0x2db9ed8a	2.1137554e-11
191	0x2e95db1d	6.814658e-11
192	0x2d1f3e74	9.051971e-12
193	0x28d4e80f	2.3637367e-14
194	0x2a01377a	1.1476749e-13
195	0x29328d2c	3.9646387e-14
196	0x30879a7f	9.866453e-10
197	0x2d9fd2f2	1.8169886e-11
198	0x29b9b031	8.246215e-14
199	0x2aa42ecb	2.916472e-13
200	0x2aef19e0	4.2472883e-13
201	0x2b9352ba	1.0467939e-12
202	0x33886192	6.3507414e-08
203	0x334715a9	4.6352998e-08
204	0x3443769c	1.820394e-07
205	0x340704a5	1.2574544e-07
206	0x3468040a	2.1608153e-07
207	0x295cd5a7	4.9035127e-14
208	0x337195fa	5.6248588e-08
209	0x2d17d1bb	8.629926e-12
210	0x00000000	0.0
211	0x329bf1b7	1.8154294e-08
212	0x2e07fd6d	3.0920533e-11
213	0x28d2074d	2.331785e-14
214	0x2a456a0b	1.7533906e-13
215	0x299f2e84	7.0690876e-14
216	0x3333f497	4.189914e-08
217	0x3055e1f3	7.781004e-10
218	0x29d8b24a	9.623255e-14
219	0x2b3cb06c	6.703585e-13
220	0x2affd757	4.5446521e-13
221	0x2c831051	3.7250554e-12
222	0x3941c5a5	0.00018479543
223	0x3852d8d3	5.0269835e-05
224	0x3a1da89e	0.00060142006
225	0x3982ea46	0.0002497008
226	0x3b2296cd	0.0024809123
227	0x29a1f527	7.1923634e-14
228	0x3a5a9b06	0.00083391403
229	0x2e9ad572	7.041025e-11
230	0x32658eac	1.3361994e-08
231	0x00000000	0.0
232	0x2f8150da	2.3522412e-10
233	0x292bf184	3.817911e-14
234	0x2b5764ec	7.65234e-13
235	0x29fc5b35	1.120687e-13
236	0x3a8fa469	0.0010959032
237	0x3236e986	1.0646891e-08
238	0x2a07d91c	1.2065734e-13
239	0x2c5c5db4	3.1315896e-12
240	0x2b12f417	5.220836e-13
241	0x2b4181bb	6.874741e-13
242	0x300745e5	4.921204e-10
243	0x2fcb5e1d	3.6992356e-10
244	0x30786bb2	9.037492e-10
245	0x3085a1ad	9.722975e-10
246	0x3194b66d	4.3281063e-09
247	0x29865258	5.96508e-14
248	0x301695a1	5.478232e-10
249	0x2d03ce7c	7.492337e-12
250	0x2f4748e9	1.8124847e-10
251	0x2f720302	2.201084e-10
252	0x00000000	0.0
253	0x2903d3a1	2.9271402e-14
254	0x2a4745d4	1.7698977e-13
255	0x29985a98	6.7658715e-14

exp_avg f4 [9, 20]
0	0x00000004	6e-45
1	0x00000004	6e-45
2	0x39d7829b	0.00041105304
3	0x3a84c480	0.0010129362
4	0xb8e7971e	-0.00011043086
5	0xbb32f0cf	-0.0027304178
6	0xbbbe585e	-0.005808874
7	0x00000004	6e-45
8	0xba193818	-0.00058448454
9	0x00000004	6e-45
10	0x00000004	6e-45
11	0x3a7f6e04	0.00097438716
12	0x00000004	6e-45
13	0x00000004	6e-45
14	0x00000004	6e-45
15	0x00000004	6e-45
16	0xbb3482a3	-0.0027543686
17	0x00000004	6e-45
18	0x00000004	6e-45
19	0x00000004	6e-45
20	0x00000004	6e-45
21	0x80000004	-6e-45
22	0xbb606119	-0.0034237562
23	0xb8704357	-5.7283174e-05
24	0xba7005fa	-0.0009156164
25	0x3ab09226	0.001347129
26	0xbb317ac8	-0.002708124
27	0x00000004	6e-45
28	0x3adf13b3	0.0017019421
29	0x00000004	6e-45
30	0x00000004	6e-45
31	0x3980da6b	0.00024576797
32	0x00000004	6e-45
33	0x00000004	6e-45
34	0x00000004	6e-45
35	0x00000004	6e-45
36	0x3b277921	0.0025554376
37	0x00000004	6e-45
38	0x00000004	6e-45
39	0x00000004	6e-45
40	0x00000004	6e-45
41	0x00000004	6e-45
42	0xb9d0ad38	-0.0003980191
43	0xbaba10c5	-0.0014195672
44	0xbb4fb69d	-0.003169454
45	0xbba581d9	-0.0050508794
46	0x3ba7d2c6	0.0051215617
47	0x00000004	6e-45
48	0x3a9cf13c	0.0011973749
49	0x00000004	6e-45
50	0x80000004	-6e-45
51	0xb9cfedc3	-0.00039659263
52	0x00000004	6e-45
53	0x00000004	6e-45
54	0x00000004	6e-45
55	0x00000004	6e-45
56	0x3a85a832	0.0010197221
57	0x00000004	6e-45
58	0x80000004	-6e-45
59	0x00000004	6e-45
60	0x00000004	6e-45
61	0x00000004	6e-45
62	0x3b906dc2	0.0044076154
63	0x3b16c927	0.002300808
64	0x39b37d61	0.00034234955
65	0x3b85f4bf	0.004088014
66	0x3c4047ab	0.011735837
67	0x00000004	6e-45
68	0x3c0d4c1e	0.008624105
69	0x00000004	6e-45
70	0x00000004	6e-45
71	0x3acd7338	0.0015674597
72	0x00000004	6e-45
73	0x00000004	6e-45
74	0x00000004	6e-45
75	0x00000004	6e-45
76	0xbb0d3e6b	-0.0021552097
77	0x00000004	6e-45
78	0x00000004	6e-45
79	0x00000004	6e-45
80	0x80000004	-6e-45
81	0x00000004	6e-45
82	0xb9d1be4d	-0.00040005372
83	0x3b97b858	0.00463013
84	0x3b498f8f	0.0030755734
85	0x3b32a218	0.002725726
86	0x3ba76ef9	0.0051096645
87	0x80000004	-6e-45
88	0xbaa62331	-0.0012675283
89	0x80000004	-6e-45
90	0x00000004	6e-45
91	0x3a4ad6c9	0.0007737694
92	0x80000004	-6e-45
93	0x80000004	-6e-45
94	0x80000004	-6e-45
95	0x80000004	-6e-45
96	0x3b94aec8	0.004537437
97	0x80000004	-6e-45
98	0x00000004	6e-45
99	0x80000004	-6e-45
100	0x00000004	6e-45
101	0x00000004	6e-45
102	0x39669a56	0.00021992004
103	0x3b94ece2	0.00454484
104	0x3a8bbfb6	0.0010661993
105	0x3b417e85	0.0029524874
106	0x3c619a24	0.01376966
107	0x00000004	6e-45
108	0x3b9a4d32	0.0047089094
109	0x00000004	6e-45
110	0x00000004	6e-45
111	0x39d5ac9b	0.00040755127
112	0x00000004	6e-45
113	0x00000004	6e-45
114	0x00000004	6e-45
115	0x00000004	6e-45
116	0x3c35876c	0.01107965
117	0x00000004	6e-45
118	0x80000004	-6e-45
119	0x00000004	6e-45
120	0x00000004	6e-45
121	0x00000004	6e-45
122	0x39dfecde	0.00042710354
123	0x3af60563	0.0018769916
124	0x3a832c02	0.0010007622
125	0x3b249fc1	0.0025119635
126	0xbb6bc81b	-0.0035977426
127	0x00000004	6e-45
128	0xb892c974	-6.999346e-05
129	0x00000004	6e-45
130	0x00000004	6e-45
131	0x3aaffa9b	0.0013426127
132	0x00000004	6e-45
133	0x00000004	6e-45
134	0x00000004	6e-45
135	0x00000004	6e-45
136	0xbb94a403	-0.0045361533
137	0x00000004	6e-45
138	0x00000004	6e-45
139	0x00000004	6e-45
140	0x00000004	6e-45
141	0x00000004	6e-45
142	0xb93c2786	-0.00017943801
143	0xbba0ee2b	-0.0049112043
144	0xba7ecdae	-0.000971998
145	0xbba323b1	-0.00497862
146	0xbc297972	-0.010343896
147	0x00000004	6e-45
148	0xbbe97ace	-0.007125235
149	0x00000004	6e-45
150	0x00000004	6e-45
151	0xbaacf2a4	-0.0013194871
152	0x00000004	6e-45
153	0x00000004	6e-45
154	0x00000004	6e-45
155	0x00000004	6e-45
156	0xbb997dfd	-0.0046842084
157	0x00000004	6e-45
158	0x00000004	6e-45
159	0x00000004	6e-45
160	0x00000004	6e-45
161	0x00000004	6e-45
162	0xba8b841f	-0.0010644234
163	0xbc02b4b1	-0.0079776505
164	0xb9a66653	-0.00031738225
165	0xba62dc30	-0.00086540263
166	0xbc598c53	-0.013278085
167	0x00000004	6e-45
168	0xbbeb70e1	-0.007185087
169	0x00000004	6e-45
170	0x00000004	6e-45
171	0xbb6ba1f6	-0.003595469
172	0x00000004	6e-45
173	0x00000004	6e-45
174	0x00000004	6e-45
175	0x00000004	6e-45
176	0xbba5e1ac	-0.0050623026
177	0x00000004	6e-45
178	0x00000004	6e-45
179	0x00000004	6e-45
