checkpoints/RNN_163.pt (torch, 111359 bytes, 9 tensors)

snn.l1.input_weights f4 [20, 416]
0	0xbdc00190	-0.09375298
1	0x3f0f79f8	0.56045485
2	0x3e04cd99	0.12969054
3	0x3e40d8e3	0.18832736
4	0xbef3d06c	-0.4761995
5	0x3e2932ee	0.16523334
6	0xbe804eb4	-0.25060046
7	0x3ee732d6	0.45155972
8	0xbdb11d70	-0.08648193
9	0x3f261fda	0.6489235
10	0x3e43688c	0.1908285
11	0xbe80f955	-0.25190225
12	0xbd10b265	-0.03532638
13	0xbf34352a	-0.7039362
14	0x3e723079	0.23651303
15	0x3e38df8f	0.18054031
16	0xbf0c4c73	-0.5480415
17	0xbe7cb039	-0.24676599
18	0xbe027bb0	-0.12742496
19	0xbe630404	-0.221695
20	0x3ece9b5a	0.403529
21	0xbdfcaba4	-0.12337425
22	0x3e6b9727	0.23006879
23	0x3f19d280	0.6008682
24	0x3e1b5fcb	0.15173261
25	0x3ee742b7	0.45168087
26	0x3d95d26f	0.07315528
27	0x3ea5c861	0.3237944
28	0x3f014ace	0.5050477
29	0xbd4e0561	-0.0502981
30	0x3f0c12b9	0.5471607
31	0x3f28f98a	0.66005766
32	0x3ddf4064	0.109009534
33	0xbeefd5a0	-0.4684267
34	0xbebf0f8b	-0.37316546
35	0x3df42582	0.119212165
36	0x3f61dd66	0.8822845
37	0xbc84b6b6	-0.016200405
38	0xbeac56a1	-0.33659843
39	0x3dc7301e	0.097259745
40	0xbee790d1	-0.45227674
41	0x3f34810a	0.705094
42	0xbe596413	-0.21229582
43	0x3f2e5827	0.6810326
44	0x3ef5bbd0	0.47994852
45	0x3ec712c0	0.38881493
46	0x3efc9271	0.49330476
47	0x3df8191a	0.12114163
48	0x3e1de895	0.15420754
49	0xbf5a4642	-0.85263455
50	0xbe800325	-0.250024
51	0x3ca19a28	0.019726828
52	0x3f9c4ee7	1.2211579
53	0x3f54a6d8	0.83067083
54	0x3ef15207	0.47132894
55	0x3f70ee9a	0.9411408
56	0x3f1f6bf9	0.6227413
57	0x3f58b806	0.846558
58	0x3f83cbfe	1.0296628
59	0x3f97dc3b	1.1864084
60	0x3f922f5f	1.1420707
61	0x3f0e8d74	0.5568459
62	0x3f90f629	1.1325122
63	0x3f24d37b	0.64385194
64	0x3fa84203	1.3145145
65	0x3f944f78	1.1586752
66	0x3f9dc94e	1.2327058
67	0x3fb146e3	1.3849758
68	0x3f9729d2	1.1809638
69	0x3f403b46	0.75090444
70	0x3e4a7d3a	0.19774333
71	0x3eef9389	0.46792248
72	0x3f690b4f	0.9103288
73	0x3f8a9926	1.0827987
74	0x3f1d07c2	0.6133996
75	0x3f4d8db4	0.80294347
76	0x3f8f871c	1.1213107
77	0x3ef67d25	0.48142353
78	0x3fa505f8	1.2892447
79	0x3f4c7ba5	0.79876167
80	0x3fa590a2	1.2934763
81	0x3fab143b	1.3365549
82	0x3f4ea7c3	0.80724734
83	0x3fac8a85	1.3479773
84	0x3f84bdbf	1.0370406
85	0x3f6454a4	0.8919165
86	0x3f14503d	0.57934934
87	0x3f36e8da	0.71449053
88	0x3f434249	0.7627302
89	0x3f54fa4f	0.8319444
90	0x3f4934c0	0.78596115
91	0x3f942198	1.1572752
92	0x3fa670b2	1.3003142
93	0x3f5872af	0.84549993
94	0x3f82b68a	1.0211957
95	0x3f45deea	0.77293265
96	0x3f412589	0.754479
97	0x3fb839fb	1.4392694
98	0x3f5630e7	0.8366837
99	0x3fb53a23	1.4158367
100	0x3ee0c76a	0.4390214
101	0x3de21dbf	0.1104083
102	0x3f5e0f1c	0.86741805
103	0x3f8499b4	1.0359406
104	0x4010d6fe	2.263122
105	0x400cf65b	2.2025363
106	0x3fcdd53a	1.6080697
107	0x3fd7efc1	1.6870042
108	0x400f0389	2.2345908
109	0x402479a3	2.569924
110	0x3fafd575	1.3737017
111	0x4010cabf	2.2623746
112	0x3fa4a943	1.2864155
113	0x4001f6dc	2.030692
114	0x400fec18	2.248785
115	0x4022736f	2.5382955
116	0x401881cc	2.3829222
117	0x3fe0cc46	1.7562339
118	0x3fbd695a	1.4797776
119	0x40044d21	2.0672076
120	0x40096b07	2.1471574
121	0x3fe661f4	1.7998643
122	0x3feb37af	1.8376368
123	0x3ffe34e3	1.985989
124	0x400892b0	2.133953
125	0x4007f376	2.1242347
126	0x3fbccb00	1.4749451
127	0x3fd63ee3	1.6737942
128	0x3fb6ee6c	1.429151
129	0x40066345	2.099809
130	0x400d2420	2.20533
131	0x402abcbd	2.6677697
132	0x401657d3	2.3491104
133	0x3fda8289	1.7071086
134	0x3fd0a82f	1.6301326
135	0x3fb4a5bb	1.4113077
136	0x400440e5	2.0664608
137	0x3ff8b951	1.9431554
138	0x3fd22d3f	1.6420058
139	0x40000e02	2.000855
140	0x3ff1a017	1.887698
141	0x3fe31875	1.7741839
142	0x3fd872ff	1.6910094
143	0x3fe4f805	1.788819
144	0x3f9ca31c	1.2237277
145	0x401df333	2.4679687
146	0x4011277c	2.268035
147	0x40451830	3.0796013
148	0x4020ae48	2.5106373
149	0x3fd3d7d5	1.6550242
150	0x3fb611fd	1.422424
151	0x3fde55a0	1.7369881
152	0x4018dc8b	2.3884609
153	0x3fea0a82	1.8284457
154	0x3fd36635	1.6515566
155	0x402a2d79	2.6590254
156	0xbf193071	-0.5983954
157	0x3ead4b04	0.33846295
158	0x3eea3965	0.45746914
159	0x3e817b36	0.25289315
160	0x3ed963d8	0.42458987
161	0x3dd771fc	0.10519788
162	0x3f40ce8b	0.7531516
163	0x3fa296d7	1.2702283
164	0x3f601cbc	0.87543845
165	0x3f08b508	0.5340123
166	0x3f5de4de	0.8667735
167	0x3f22d9a0	0.6361332
168	0x3ed00c80	0.40634537
169	0x3e82ce86	0.2554819
170	0x3e8fbcc5	0.28073707
171	0xbdf4da22	-0.11955668
172	0xbea1ba75	-0.31587568
173	0x3eb339fd	0.3500518
174	0x3dc7858a	0.097422674
175	0x3d9d9a66	0.07695465
176	0x3db622dc	0.08893368
177	0x3dfb45d1	0.12269176
178	0x3f641b40	0.8910408
179	0x3f7220e3	0.9458143
180	0x3f1c57e0	0.61071587
181	0x3d38c289	0.0451074
182	0xbd9ab2dc	-0.07553646
183	0x3f57c270	0.84281063
184	0x3f203896	0.62586343
185	0x3c1dd127	0.009632385
186	0x3f477a98	0.7792144
187	0x3ef7c784	0.48394406
188	0xbe58d814	-0.21176177
189	0x3e4306a3	0.190455
190	0x3eb60d07	0.35556814
191	0x3e5b580f	0.2142031
192	0x3e04046e	0.12892315
193	0xbe9125ef	-0.28349254
194	0x3f82d3f2	1.022093
195	0x3f5831f7	0.8445124
196	0x3f104ec1	0.5637017
197	0x3e9874d0	0.2977662
198	0x3cd66580	0.026171446
199	0x3f477b15	0.77922183
200	0x3ec50841	0.3848286
201	0x3ea545e9	0.322799
202	0x3f35af65	0.70970756
203	0x3f0e15d3	0.5550205
204	0x3e9328c6	0.28742045
205	0x3f0b8ca3	0.5451147
206	0x3ded02e2	0.115728155
207	0x3f01db71	0.50725466
208	0xbd28cae4	-0.041209117
209	0x3e71e1a7	0.23621236
210	0xbd41d29d	-0.047319997
211	0xbe840171	-0.2578235
212	0x3e5ab0ca	0.21356502
213	0xbc7236b8	-0.014783554
214	0xbf4b4095	-0.7939542
215	0xbd9c7bb9	-0.07640786
216	0xbe5cc8aa	-0.21560922
217	0xbd74c450	-0.05975753
218	0x3d01d49c	0.0316969
219	0xbecf3b13	-0.40474758
220	0x3eb7e635	0.35917822
221	0xbf28a151	-0.6587115
222	0xbf36f419	-0.71466213
223	0xbedd47b3	-0.43218765
224	0xbe8a40af	-0.27002475
225	0x3ef4c407	0.47805807
226	0xbe50fed1	-0.20409705
227	0xbe65c11a	-0.22436944
228	0x3f0355e1	0.51302916
229	0xbebd6919	-0.36994246
230	0xbf71da4b	-0.94473714
231	0x3e2818ec	0.16415757
232	0xbed1db52	-0.4098764
233	0xbe6e978a	-0.23299995
234	0x3d802cb5	0.06258527
235	0xbe6e4ea6	-0.2327219
236	0x3ee7b3fb	0.45254502
237	0x3d8815ee	0.06644808
238	0xbed7cc45	-0.42148033
239	0xbf1c3591	-0.61019236
240	0xbea083ed	-0.3135065
241	0xbe8fb09b	-0.28064427
242	0xbe1f2df1	-0.15544869
243	0xbebde987	-0.3709223
244	0x3ea95876	0.33075303
245	0xbf4ce228	-0.8003259
246	0xbf23cf3e	-0.639881
247	0x3f376a13	0.7164623
248	0xbe8a89bc	-0.27058208
249	0xbd758824	-0.059944287
250	0x3e18f479	0.14937009
251	0xbef619cf	-0.48066565
252	0xbe14768c	-0.14498347
253	0x3e288850	0.16458249
254	0xbf03e351	-0.5151873
255	0xbf246669	-0.64218765

snn.l1.recurrent_weights f4 [20, 20]
0	0x00000000	0.0
1	0x40ac8b05	5.39197
2	0x3ffb6e9c	1.964313
3	0x4099581f	4.792007
4	0xbc38032c	-0.011231225
5	0xbff883c7	-1.9415215
6	0xbf476b5d	-0.778982
7	0xc05c81fe	-3.445434
8	0x40bea8a3	5.9580855
9	0x4034afae	2.8232226
10	0x4056b0e5	3.3545468
11	0x40c67543	6.201814
12	0x40ceb564	6.4596424
13	0x405bb71d	3.4330513
14	0xbfcc8971	-1.5979444
15	0x3f2df511	0.67952067
16	0x40b00b03	5.501344
17	0xc0aad9c3	-5.3390822
18	0x3ff92ead	1.9467369
19	0x3f527875	0.8221505
20	0x3f07588d	0.5286949
21	0x00000000	0.0
22	0x41825103	16.289557
23	0x412e84ef	10.9074545
24	0xc0061607	-2.0950944
25	0x40c30d1f	6.0953517
26	0x4164ccfd	14.300046
27	0xc0a1158a	-5.0338793
28	0x40d0a067	6.5195804
29	0x40827edb	4.0779853
30	0x40647b77	3.5700357
31	0x413781a8	11.469154
32	0x4153579e	13.208891
33	0x4094e2db	4.6526923
34	0x3eb97161	0.36219314
35	0x40fbb570	7.865898
36	0xbf5e92c0	-0.8694267
37	0x40920469	4.5630383
38	0x3f435ef2	0.7631675
39	0x3ff2fa38	1.8982611
40	0x3f087eee	0.5331868
41	0x40ff83c7	7.984836
42	0x00000000	0.0
43	0x410275b9	8.153741
44	0xc04c8e90	-3.1962013
45	0x40ad04a7	5.406818
46	0x411690e9	9.410378
47	0xc00f3d80	-2.2381287
48	0x40041e9b	2.064368
49	0x409626c4	4.692232
50	0x3ff55dbd	1.9169232
51	0x4127cfc7	10.488227
52	0x4113effd	9.246091
53	0x4082fe68	4.0935555
54	0x406eb4c9	3.7297843
55	0x40c055fe	6.010497
56	0xbf79b280	-0.97537994
57	0x40ce9485	6.45563
58	0x4016a04e	2.3535342
59	0x403afd19	2.9216979
60	0x3f4bbbbf	0.7958335
61	0x4044973b	3.0717304
62	0x40417be0	3.0231857
63	0x00000000	0.0
64	0x3ebbc594	0.36674178
65	0xbfd1038d	-1.6329209
66	0x40e0e4eb	7.027944
67	0x3fe835f9	1.8141471
68	0x408751b2	4.2287226
69	0x3f555e8e	0.83347404
70	0x402acf62	2.6689076
71	0x419d5df4	19.670876
72	0x40a8d42a	5.275899
73	0x3fb9fe5e	1.4530752
74	0x3ff31972	1.899214
75	0xbe69df0e	-0.22838995
76	0x406dbc36	3.7146125
77	0x40f611b5	7.6896615
78	0x40d9797a	6.7960787
79	0xbebee768	-0.37285924
80	0xc016d512	-2.3567548
81	0x40573fda	3.3632722
82	0x4060c0a8	3.5117588
83	0x41024f6b	8.144389
84	0x00000000	0.0
85	0xc01f02f5	-2.4845555
86	0x401dc950	2.4654121
87	0xc0968ac8	-4.704441
88	0x40ab10a5	5.345782
89	0x3fc4b259	1.5366927
90	0x4035cabf	2.8404996
91	0x40e51a72	7.159478
92	0x40ade9a5	5.434771
93	0x3fc710f1	1.5552045
94	0xbfc1f400	-1.5152588
95	0xbfa74ee1	-1.3070947
96	0x3ee7be4f	0.4526238
97	0xc0036fae	-2.0536914
98	0xc06420cf	-3.5645025
99	0xbe19e464	-0.1502853
100	0xbf313428	-0.6922021
101	0x40867ff7	4.2031207
102	0x40d175c9	6.545628
103	0xbf42b220	-0.7605305
104	0xbddd5acc	-0.10808334
105	0x00000000	0.0
106	0x3ffe16c7	1.9850701
107	0x3e945468	0.28970647
108	0x40a7aa03	5.2395034
109	0x402eeece	2.7333255
110	0x403c706a	2.9443612
111	0x3fb0d6f1	1.3815595
112	0x40b3f1f1	5.623284
113	0x4083d95f	4.1202846
114	0x409a3ae2	4.819688
115	0x3fb53407	1.4156502
116	0x3f0a7163	0.54079264
117	0xbeefc3a5	-0.46828952
118	0x401fae0b	2.4949977
119	0x3f917087	1.1362466
120	0x3fd85221	1.6900064
121	0x40bc70c1	5.888764
122	0x40d9e860	6.809616
123	0x40c22a31	6.0676503
124	0xbfc39d62	-1.5282404
125	0x40af6f55	5.4823403
126	0x00000000	0.0
127	0x3efaf380	0.490139
128	0x402395f5	2.5560277
129	0x3fde869a	1.7384827
130	0x3f2e55f6	0.68099916
131	0x40a8cba5	5.274859
132	0x409306aa	4.5945635
133	0x3ff1798e	1.886522
134	0x3faa923b	1.3325876
135	0x405cc7ca	3.4496942
136	0xc025abc2	-2.5886083
137	0x41046f91	8.277238
138	0x40778f87	3.8681352
139	0x3fa89dab	1.3173116
140	0xbfe10781	-1.7580415
141	0x41080769	8.501809
142	0x4079fd98	3.9061031
143	0xbe08e140	-0.13367176
144	0x40a5c2db	5.180036
145	0xc01b8e20	-2.4305496
146	0xc0e470c6	-7.1387663
147	0x00000000	0.0
148	0x40be8100	5.953247
149	0x3fddae6d	1.7318856
150	0x403f43d6	2.9885154
151	0x405128e6	3.2681212
152	0x41030b46	8.190252
153	0x40621659	3.532614
154	0xc072cae4	-3.7936335
155	0x40701b73	3.7516754
156	0x4017cbec	2.3718214
157	0xc113b6e8	-9.232155
158	0xc03cdf43	-2.9511268
159	0x3f9d2407	1.227662
160	0xc13d58df	-11.834197
161	0x4091ecf2	4.560174
162	0x407adf56	3.9198813
163	0x4047d8a0	3.1225967
164	0xc11548ab	-9.330241
165	0xc10e1a10	-8.881363
166	0xc04c1070	-3.1885033
167	0xc173caf0	-15.237045
168	0x00000000	0.0
169	0xbe4b040c	-0.19825763
170	0x407493a9	3.8215125
171	0x3fc88230	1.566473
172	0x410d02fb	8.813228
173	0x400619c4	2.0953226
174	0xc11a2abb	-9.635432
175	0xc0121a5c	-2.2828588
176	0xc05ae52d	-3.4202378
177	0xc12cbf9b	-10.796779
178	0xc1280441	-10.501039
179	0xbfc93da6	-1.5721939
180	0xc14265f1	-12.149888
181	0x40a05241	5.0100408
182	0x40ea1e82	7.316224
183	0xc0833d46	-4.1012297
184	0xc13b305a	-11.699305
185	0xc0ffb9ca	-7.9914293
186	0xc0b2b26e	-5.584281
187	0xc17cab3b	-15.791804
188	0x40bfe9c4	5.997286
189	0x00000000	0.0
190	0x4063e73f	3.5609891
191	0xc01261bc	-2.2872152
192	0x40f9cf2f	7.806541
193	0x4098b249	4.7717633
194	0xc0cf2f37	-6.4745135
195	0xc0570054	-3.359395
196	0xbfa13ed0	-1.2597294
197	0xc1274db5	-10.456471
198	0xc11e2f20	-9.886505
199	0x3f98c022	1.1933634
200	0xc16a9fb4	-14.66399
201	0x3fb7e571	1.4366895
202	0x409f1b7e	4.972106
203	0xbfa457a0	-1.2839241
204	0xc1246c8a	-10.276499
205	0xc12f241f	-10.946319
206	0xc108f462	-8.559664
207	0xc18d344a	-17.650532
208	0x40ecccba	7.399991
209	0x40301fac	2.751933
210	0x00000000	0.0
211	0xbff3b969	-1.9040958
212	0x40cf2f71	6.474541
213	0x4066dd92	3.6072736
214	0xc12ad755	-10.677571
215	0xc0f0dc0f	-7.5268626
216	0xc07b2733	-3.9242675
217	0xc1611141	-14.066712
218	0xc137d02c	-11.488323
219	0xbedf23d3	-0.4358202
220	0x3f9a39a2	1.2048838
221	0x3f661706	0.8987888
222	0x3fdc7663	1.7223629
223	0x41670d1f	14.440703
224	0xbfe77c2e	-1.8084772
225	0x3fbf75db	1.4957842
226	0x409d68db	4.9190497
227	0x3f9f7316	1.2456996
228	0x3fe6626a	1.7998784
229	0x3e49b924	0.19699532
230	0x3f3c179a	0.73473513
231	0x00000000	0.0
232	0x406dadab	3.7137249
233	0x3fe74c08	1.8070078
234	0x3f4014a7	0.7503151
235	0x3eeb7106	0.45984668
236	0x3ee901ef	0.45509288
237	0x40c3707f	6.1074824
238	0x40b6d219	5.7131467
239	0x3d8a4de6	0.06753139
240	0xc0a7f511	-5.2486653
241	0x411df006	9.871099
242	0x4124cccb	10.299998
243	0x40dba053	6.863321
244	0xc0d06a5c	-6.5129833
245	0xbeea0064	-0.45703423
246	0x40cd1a87	6.409488
247	0xc11a60ee	-9.648664
248	0x40ef673b	7.4813514
249	0x3fd95565	1.6979185
250	0x40940221	4.62526
251	0x40dcfc5d	6.905806
252	0x00000000	0.0
253	0x407be953	3.936116
254	0xc0aef620	-5.4675446
255	0x40086d72	2.13168

snn.fc_out.weight f4 [9, 20]
0	0xc03f33f4	-2.987546
1	0xbf8a7925	-1.081822
2	0xc018d3a4	-2.3879175
3	0xc111251f	-9.071563
4	0x3f24c2e1	0.6435986
5	0xc02860b3	-2.630902
6	0xc0cf3ce7	-6.4761844
7	0x40ec5440	7.3852844
8	0xc0566f53	-3.3505447
9	0xbd986601	-0.07441331
10	0xbfad5c6c	-1.354383
11	0xc10c2595	-8.759175
12	0xc01a7eb5	-2.4139836
13	0xbfa6a67f	-1.301956
14	0x3f804cb0	1.0023403
15	0x3fd32057	1.6494244
16	0x40ab621b	5.355726
17	0xbf90161e	-1.125675
18	0x3e1b0324	0.15137917
19	0xbe685c37	-0.22691427
20	0xc03031ab	-2.7530315
21	0x4034a619	2.8226378
22	0x40fba78e	7.8642035
23	0xc04de753	-3.217244
24	0xbfa3407f	-1.2754058
25	0x3fa9f7a4	1.3278699
26	0x3e4fffd8	0.2031244
27	0xc0034e25	-2.0516446
28	0x3f0dad10	0.553422
29	0x402614fc	2.5950308
30	0x3ff477d9	1.9099075
31	0xbfaf91be	-1.3716352
32	0x401e6871	2.4751246
33	0x3facc811	1.3498555
34	0x402c2fe3	2.6904228
35	0xc096eaa8	-4.7161446
36	0xbfb570c8	-1.4175043
37	0x3fea7889	1.8318034
38	0x3dc3adc8	0.095546305
39	0x3fd71916	1.6804531
40	0x402b4f08	2.6766987
41	0x3fe9c445	1.8263022
42	0xbf03c4f4	-0.514724
43	0xbfa902f7	-1.320403
44	0x40a4c15c	5.1486034
45	0x3ef0fc37	0.47067425
46	0x3f17828d	0.5918358
47	0x3f1e184b	0.6175582
48	0x40854272	4.164361
49	0x3e365fce	0.17809984
50	0x3ffa00dd	1.9531513
51	0xc043fb5a	-3.0622163
52	0x3fe720c4	1.8056874
53	0x3f1fa627	0.62362903
54	0x3f61e0fd	0.8823393
55	0x402dbbbe	2.7145839
56	0xc0a7f9d3	-5.249246
57	0xc0670170	-3.6094627
58	0xc057023b	-3.3595111
59	0x3f3d9d47	0.7406811
60	0x3ff45472	1.9088271
61	0xbfcc41cd	-1.5957581
62	0xbf43dd17	-0.7650923
63	0xc0c1580a	-6.041997
64	0xbfc2705b	-1.5190538
65	0x4083a682	4.1140757
66	0xbf828e81	-1.0199739
67	0x3f95445f	1.166149
68	0xbde0325f	-0.109471075
69	0x3fb75ff1	1.4326154
70	0x3ef1b45f	0.47207925
71	0xbfc596ce	-1.5436647
72	0x3ed0e04f	0.40796134
73	0x3fcded7d	1.6088101
74	0x404b33f8	3.175047
75	0x405a1ac7	3.4078844
76	0x404dcab4	3.215497
77	0xc02cb397	-2.6984613
78	0x3ee6b346	0.4505865
79	0x3f9348d2	1.1506598
80	0xbfac628e	-1.3467577
81	0x40521de3	3.2830741
82	0x3e813f26	0.2524349
83	0xc06f7a95	-3.7418568
84	0xbf2474b5	-0.6424058
85	0xbfd6e23f	-1.6787795
86	0x40a6283e	5.1924124
87	0xbf4ea9bb	-0.8072774
88	0xc01de4b6	-2.4670844
89	0xbf3cc88f	-0.7374353
90	0xbff64890	-1.9240894
91	0xc0e88f04	-7.267458
92	0x3f91958b	1.1373762
93	0xbfd73822	-1.6814005
94	0xbfe17bfc	-1.7615962
95	0x3fc0980a	1.5046399
96	0xc0001415	-2.0012257
97	0x407d6fb7	3.9599435
98	0xbf313cab	-0.69233197
99	0xbfa4968d	-1.2858444
100	0x40223195	2.5342762
101	0xbf9b4cff	-1.2132872
102	0xc0604534	-3.5042238
103	0x3f4f1ac9	0.80900246
104	0xc014b592	-2.3235822
105	0xc05f8250	-3.4923286
106	0xc01d0d47	-2.4539354
107	0xbf22a197	-0.63527817
108	0xc08684cb	-4.20371
109	0xbf744e3a	-0.95431864
110	0xc0280cf4	-2.6257906
111	0x3fd3d810	1.6550312
112	0xc02000fa	-2.5000596
113	0xbf02e899	-0.51136166
114	0xc06df78f	-3.7182348
115	0x3f03a7f8	0.51428175
116	0x4060f0eb	3.5147045
117	0x3d1f7673	0.03893132
118	0xbe1c77e9	-0.15280117
119	0xbefa011a	-0.48828965
120	0xc1031e1b	-8.19485
121	0xc1174565	-9.454442
122	0xc115ecf0	-9.370346
123	0x40a03315	5.0062356
124	0xc098dc43	-4.7768874
125	0x3fec3e24	1.8456464
126	0xbf15cad9	-0.58512646
127	0xba93ae1e	-0.0011267101
128	0xc0b896c7	-5.7684054
129	0xc102c229	-8.172402
130	0xc0de4de2	-6.947007
131	0x409bc5aa	4.867879
132	0xc0c22b80	-6.06781
133	0xc0c96557	-6.2936206
134	0xc0f74329	-7.7269483
135	0xc04c27ad	-3.1899216
136	0xc0444a30	-3.067028
137	0x3f8f289d	1.1184269
138	0xbf145397	-0.5794005
139	0xc083a503	-4.113893
140	0xc06b6f97	-3.678686
141	0xc02e8ca3	-2.7273338
142	0xc0ca4e02	-6.3220224
143	0x410507e1	8.314424
144	0x400a7ad1	2.163746
145	0xc0188727	-2.383249
146	0xbfc8aa6d	-1.567701
147	0xc093fb8f	-4.624458
148	0x40696aa9	3.647135
149	0xc03f51ed	-2.9893754
150	0x4007412a	2.1133523
151	0x404624bb	3.0959918
152	0x3e747c77	0.23875605
153	0xbfb3ab29	-1.4036609
154	0xc09134c8	-4.537693
155	0xc10ee2a4	-8.930332
156	0xc0b757a3	-5.729448
157	0xbe814aba	-0.25252324
158	0x3f96bbdf	1.1776084
159	0xc05900b1	-3.3906672
160	0xc02edbb4	-2.7321596
161	0xc14d7bd7	-12.842734
162	0xc02a98d9	-2.665579
163	0x409ed8ca	4.9639635
164	0xc1077648	-8.466377
165	0xc118a0d9	-9.539269
166	0xc1155b4e	-9.334791
167	0x3e09260a	0.13393417
168	0xc108746e	-8.528425
169	0xc062e521	-3.545235
170	0xc097d321	-4.7445226
171	0x40b0b888	5.522526
172	0xc149a91e	-12.603788
173	0xc089773b	-4.2958045
174	0x4006c9e6	2.106073
175	0xc0bbb48e	-5.8657904
176	0xbc891322	-0.016732756
177	0x3fd416c8	1.6569452
178	0x3ebd6577	0.36991474
179	0xbf04d741	-0.5189095

exp_avg f4 [20, 416]
0	0x3ba28103	0.004959227
1	0xb91f3b24	-0.00015185453
2	0xbb05290b	-0.0020318653
3	0xba4d48f1	-0.00078309985
4	0x39edccbe	0.00045356707
5	0x39ee77ef	0.00045484255
6	0xbb76acd1	-0.0037639628
7	0xbb0975ee	-0.0020974833
8	0x3b2c5551	0.002629597
9	0xb9823d60	-0.0002484126
10	0xba2d0c85	-0.0006601292
11	0x398dc3ec	0.0002703959
12	0x39da3ef8	0.00041627116
13	0xbbb73b33	-0.005591774
14	0xb988755e	-0.00026027387
15	0x3ac92ac7	0.0015347832
16	0xb9b12dca	-0.00033794186
17	0xbac3d421	-0.0014940539
18	0xb8b02ed4	-8.4010564e-05
19	0xbaf51239	-0.0018697447
20	0x3b9d951a	0.004809034
21	0xbb9d44bc	-0.0047994535
22	0xb99a3666	-0.000294137
23	0xba5e4636	-0.000847909
24	0x38eace33	0.00011196397
25	0x3a8359fb	0.0010021323
26	0xba868940	-0.0010264292
27	0xbb0231d4	-0.0019866126
28	0x3a83b58f	0.0010048616
29	0xba296533	-0.0006461918
30	0x3af62d7b	0.0018781865
31	0xba279d9d	-0.00063940306
32	0x3b10fed5	0.0022124548
33	0x3ab8453b	0.0014058718
34	0xbb2675ab	-0.0025399725
35	0x398bbd3e	0.00026653142
36	0xba2d0512	-0.0006600182
37	0xbaf108ca	-0.001838946
38	0x3a8c53d0	0.001070613
39	0x3ae49a13	0.0017440937
40	0xba3f8375	-0.00073056604
41	0x3b8d7c5a	0.0043178024
42	0x3ac1e40a	0.0014792692
43	0xbaf2e3fe	-0.0018531082
44	0x39639fbb	0.00021707911
45	0x3b06df01	0.0020579698
46	0x3b08cf26	0.0020875423
47	0x398ae397	0.0002649098
48	0xbb65ca75	-0.00350633
49	0x3a2b5bf1	0.00065368327
50	0xba89737e	-0.001048669
51	0x3b060157	0.0020447576
52	0x3b8f729e	0.004377677
53	0x38a348aa	7.7859804e-05
54	0x39e4901f	0.00043594927
55	0xbad3d865	-0.0016162513
56	0xbb54b68a	-0.0032457435
57	0x3a971442	0.0011526423
58	0x3b4758aa	0.0030417838
59	0x3a37d15b	0.00070120924
60	0x3a4568cc	0.00075305696
61	0xba2a03c8	-0.0006485549
62	0xbb225799	-0.002477145
63	0xbb9288e2	-0.004471884
64	0x39e8f7f0	0.00044435216
65	0xbafac084	-0.001913086
66	0x3b0436f1	0.002017435
67	0x3a4c02b6	0.00077823864
68	0xb8da525c	-0.00010410391
69	0x3acecce6	0.0015777617
70	0x3a6abdb8	0.0008954662
71	0x3af7ee0d	0.0018915549
72	0x3b57e623	0.0032943569
73	0xba916fcb	-0.0011095939
74	0x3a99923c	0.0011716555
75	0xbb64a3c7	-0.0034887658
76	0xba2f9d75	-0.0006699183
77	0xbb5f3c77	-0.003406314
78	0x3a1754c5	0.00057728245
79	0xbab7007f	-0.001396194
80	0xb91bf5d0	-0.00014873524
81	0x3ae20720	0.0017244555
82	0xb9e2bf04	-0.00043248397
83	0xbb19f26c	-0.0023490442
84	0xba9bccf9	-0.0011886648
85	0xbb18186d	-0.0023207918
86	0x3b4c74fe	0.0031197662
87	0xb907fc2f	-0.00012968549
88	0xbb21618f	-0.00246248
89	0xba38a3c5	-0.00070434465
90	0x3b8b568e	0.0042522615
91	0xb9f3e708	-0.00046520703
92	0xbad34613	-0.0016118906
93	0x3965ae09	0.00021903975
94	0x3b41bab8	0.0029560756
95	0xba8887b3	-0.0010416418
96	0x3ab68b40	0.0013926998
97	0x3a8cb6e3	0.0010735657
98	0xbaab5710	-0.0013072211
99	0x3a47d937	0.0007623615
100	0xbb277f9c	-0.002555824
101	0xba91b633	-0.0011116922
102	0xbb89c106	-0.0042039184
103	0xb982cbb8	-0.00024947315
104	0x3b52e859	0.0032181947
105	0x3b31a03c	0.0027103564
106	0xba1b6e1b	-0.0005929188
107	0xba5ad042	-0.0008347073
108	0xb9cbdccd	-0.00038883687
109	0xb98dec79	-0.00027069802
110	0xbb3589fc	-0.0027700653
111	0xbb4ca570	-0.0031226538
112	0x3ab4c094	0.0013790303
113	0xbb4f4f98	-0.0031633135
114	0xbb1218df	-0.0022292656
115	0xbb4bfbfa	-0.0031125532
116	0xb9b80650	-0.00035099918
117	0xbb14ff0b	-0.0022735025
118	0x3a13ff46	0.00056456437
119	0x3bb7d021	0.0056095277
120	0x3ad5e279	0.0016318104
121	0xba885fa5	-0.0010404481
122	0xbbb7b04b	-0.0056057326
123	0x3a5a7f50	0.0008335011
124	0x3adffe05	0.0017089254
125	0xbb22dec9	-0.0024852029
126	0xbaef851b	-0.0018273921
127	0xbb10b76f	-0.0022081991
128	0x3b467aa8	0.0030285511
129	0xbb5959ff	-0.0033165214
130	0x390a3324	0.00013179757
131	0xbafc463a	-0.0019247003
132	0x3b205618	0.0024465378
133	0x3a0a5668	0.0005277158
134	0x39abab18	0.00032743136
135	0xbad1d786	-0.0016009666
136	0xbb5f6a01	-0.0034090283
137	0x3b1cbf8c	0.0023917882
138	0x3b1a2c1c	0.0023524826
139	0xbabbf673	-0.0014340415
140	0x38d108a1	9.967504e-05
141	0xbb0077d0	-0.0019602664
142	0x3ab54107	0.0013828584
143	0x3b9be0ac	0.0047570076
144	0x3a944b23	0.0011313896
145	0x3ae71991	0.0017631521
146	0x3997514f	0.00028861544
147	0x3acf7c54	0.0015829899
148	0x3b2046ca	0.0024456256
149	0x3b2d90fa	0.0026484118
150	0x3ae5f026	0.0017542883
151	0xbb22d873	-0.0024848252
152	0xbb8ec318	-0.004356753
153	0xb977e581	-0.00023641252
154	0xbb33dfa9	-0.0027446544
155	0xbac3a00d	-0.0014925018
156	0x391c7e73	0.00014924425
157	0x3a34a73b	0.00068913744
158	0xbae333cf	-0.0017334166
159	0x3a9b0dff	0.0011829733
160	0x3acb6e8a	0.0015520614
161	0xbaae492d	-0.0013296955
162	0xbb35c568	-0.0027736071
163	0xb95f8631	-0.00021316927
164	0xba4d5779	-0.0007833164
165	0xbb0fa4fd	-0.002191841
166	0xbad4fa65	-0.001624894
167	0xbaa74963	-0.001276296
168	0x3a84442e	0.001009112
169	0x3a7e6077	0.00097037054
170	0x39d91241	0.00041403066
171	0x3bddd8e3	0.0067702397
172	0x3a073656	0.0005157938
173	0xb9b8a858	-0.0003522064
174	0xbba9b339	-0.0051788357
175	0x37321ecc	1.0616797e-05
176	0x3b2dc729	0.0026516414
177	0xbab776d6	-0.0013997208
178	0x3a137d9a	0.0005626321
179	0xbac754f9	-0.0015207819
180	0x3b52d6ae	0.0032171416
181	0x3abc479a	0.0014364601
182	0x3a44a6bb	0.00075016514
183	0x3a2337ef	0.00062262913
184	0x3aad5098	0.0013222871
185	0xbac4a37d	-0.0015002337
186	0x3924851a	0.00015689843
187	0xbb00247e	-0.0019553
188	0xba8ec829	-0.0010893393
189	0xb94601fb	-0.00018883489
190	0x3a4b0b19	0.0007745489
191	0xbb2277bd	-0.0024790608
192	0xba655d77	-0.0008749584
193	0xbad2b216	-0.0016074802
194	0x3b1a8e61	0.00235834
195	0x3a98909a	0.0011639774
196	0xbaada67b	-0.0013248468
197	0x3b18de2d	0.0023325786
198	0xba04c22b	-0.00050643337
199	0x3b1d3a4c	0.0023991046
200	0x3ac55174	0.0015054182
201	0xbb02d8ac	-0.0019965572
202	0xbc1a1222	-0.009403737
203	0xbb40ba80	-0.0029408038
204	0xbb4175c5	-0.002951966
205	0x39c18d41	0.0003691707
206	0xbacd9e9b	-0.0015687527
207	0x3945d2c9	0.00018865908
208	0xba7e24e5	-0.0009694829
209	0x3ae932ed	0.0017791666
210	0xba8667d6	-0.0010254334
211	0x3a9a9a2d	0.0011795216
212	0xbb87ce56	-0.00414447
213	0xbb5a7749	-0.003333526
214	0xbb7f7887	-0.0038981752
215	0xb9cb2278	-0.00038744858
216	0x3ac19317	0.0014768568
217	0x3a8844b9	0.0010396458
218	0xbaa0a022	-0.0012254755
219	0x3a866baa	0.0010255475
220	0x3a540a12	0.0008088659
221	0xba4cc314	-0.00078110513
222	0xbb30f4f8	-0.0027001482
223	0x3b2e2b13	0.0026575967
224	0x3b983769	0.0046452773
225	0x3a9d7123	0.0012011867
226	0xbaf65459	-0.0018793448
227	0xbac31a29	-0.0014885116
228	0x3b97f77c	0.0046376567
229	0xbb4e2c24	-0.0031459415
230	0x3a43663f	0.00074538955
231	0xbb2ec3a9	-0.0026666916
232	0x3ad709a3	0.001640607
233	0x3abe67c7	0.0014526778
234	0xbab9c5f1	-0.0014173371
235	0x3b50b92c	0.0031848652
236	0x3a366320	0.000695752
237	0xbb3d246c	-0.002886082
238	0x3ab0549b	0.0013452949
239	0xbb5ad614	-0.003339176
240	0xb9c2ffa2	-0.00037193025
241	0x3bae3974	0.0053169075
242	0x3b9a8e09	0.004716639
243	0x3a9274c9	0.0011173721
244	0xbafc21ab	-0.0019236108
245	0x3b0e2e6d	0.0021695152
246	0xba6321eb	-0.0008664417
247	0x38db335d	0.00010452301
248	0xb8c2cffb	-9.28938e-05
249	0x3b024cbc	0.0019882163
250	0x3a8a5c91	0.0010556151
251	0x3b81ec90	0.003964968
252	0xbab2adfa	-0.0013632171
253	0x3ae5f4d3	0.0017544277
254	0x39e88c4b	0.00044355015
255	0x38c22eda	9.259368e-05

exp_avg_sq f4 [20, 416]
0	0x38d2a7e1	0.0001004485
1	0x38b92583	8.8284745e-05
2	0x38eb60c9	0.00011223701
3	0x38dbc111	0.00010478695
4	0x38f12e0a	0.00011500351
5	0x38cfbebc	9.906056e-05
6	0x38eb054e	0.00011206661
7	0x38b17c28	8.4631436e-05
8	0x38de3a3a	0.000105966305
9	0x38d95a98	0.00010364241
10	0x39083a62	0.0001299172
11	0x38d075ce	9.940156e-05
12	0x38fc175a	0.00012020646
13	0x38d69025	0.00010231164
14	0x38bb58ec	8.933418e-05
15	0x390b0453	0.00013257684
16	0x38e19834	0.00010757186
17	0x38d3552d	0.00010077129
18	0x38ee12d2	0.0001135223
19	0x395f7d62	0.00021313646
20	0x38b54db6	8.645227e-05
21	0x38ddbba0	0.00010573049
22	0x38f8a088	0.00011855463
23	0x388ff9da	6.86531e-05
24	0x38aeb9e6	8.331593e-05
25	0x38c09815	9.183601e-05
26	0x38e4add4	0.00010904265
27	0x38aca866	8.232966e-05
28	0x38cdfa95	9.821836e-05
29	0x38e5ad94	0.000109519024
30	0x38ea9a5f	0.00011186743
31	0x38f9d83f	0.00011913524
32	0x38d0e5c0	9.961007e-05
33	0x38fccdf9	0.00012054662
34	0x38defc34	0.000106327614
35	0x38c93400	9.5941126e-05
36	0x38c66a2c	9.461152e-05
37	0x38d79156	0.0001027907
38	0x38e2c342	0.000108128894
39	0x38c9f46d	9.629955e-05
40	0x38d2ad02	0.000100458055
41	0x38be0524	9.0608635e-05
42	0x38e3aba8	0.00010856177
43	0x38b66e07	8.6989305e-05
44	0x38c10b0b	9.205014e-05
45	0x38ab04d7	8.154817e-05
46	0x38da3ba4	0.00010406159
47	0x391a3e65	0.00014709828
48	0x38f01cef	0.00011449481
49	0x38d375a1	0.00010083174
50	0x38cd6b21	9.795116e-05
51	0x38ce5ba1	9.839913e-05
52	0x38f0d8f9	0.00011484506
53	0x390d4d00	0.00013475493
54	0x38c62195	9.447631e-05
55	0x38e83619	0.000110726985
56	0x3902a811	0.00012460376
57	0x38e021cf	0.0001068745
58	0x38d9ec67	0.000103914
59	0x38bafe51	8.916541e-05
60	0x38aacd3b	8.144459e-05
61	0x38bfb608	9.141496e-05
62	0x38b7ac52	8.758217e-05
63	0x38bf7f13	9.131259e-05
64	0x38d664e5	0.00010223108
65	0x38d23c5c	0.00010024823
66	0x38cf6fb5	9.891336e-05
67	0x38dcf956	0.0001053686
68	0x38c0da34	9.195917e-05
69	0x39026d9b	0.00012438597
70	0x39027cff	0.00012444331
71	0x39040187	0.0001258907
72	0x38e62d30	0.000109756715
73	0x38bb2975	8.924577e-05
74	0x390e0aff	0.00013546272
75	0x38f6a899	0.00011761598
76	0x38b6587c	8.694918e-05
77	0x38b9d60c	8.861357e-05
78	0x38c3c588	9.335118e-05
79	0x3891ff56	6.961699e-05
80	0x389eb536	7.56778e-05
81	0x38e6b067	0.00011000112
82	0x38ccfb87	9.774329e-05
83	0x38dc990f	0.00010518927
84	0x38a9fc4d	8.105543e-05
85	0x39001558	0.00012214982
86	0x38c63805	9.45181e-05
87	0x38ff3c3f	0.00012170569
88	0x38d902c5	0.00010347882
89	0x38f996bd	0.000119013224
90	0x390f671c	0.00013675954
91	0x38c612f1	9.444904e-05
92	0x38dabb10	0.00010429893
93	0x38bbf920	8.963258e-05
94	0x38c91022	9.587432e-05
95	0x38b033b7	8.4019666e-05
96	0x38cb9df9	9.709219e-05
97	0x38c98400	9.609014e-05
98	0x38c8b650	9.5707015e-05
99	0x38e6ec4e	0.0001101127
100	0x38dc7154	0.000105115265
101	0x390667bb	0.00012817878
102	0x3902898c	0.00012449006
103	0x38c5cd0f	9.431887e-05
104	0x38cdfc5f	9.8221695e-05
105	0x38b76dc1	8.746563e-05
106	0x38bf2616	9.114684e-05
107	0x38f66bd5	0.000117502794
108	0x38c8a651	9.567722e-05
109	0x38b04d86	8.406774e-05
110	0x38c372e2	9.319723e-05
111	0x390da763	0.00013509164
112	0x38aef4e5	8.342582e-05
113	0x390b9039	0.000133098
114	0x38d12b9d	9.97402e-05
115	0x38b108e6	8.441675e-05
116	0x38ba6e12	8.889673e-05
117	0x38df8fd8	0.000106602616
118	0x38c61d48	9.44683e-05
119	0x38b2f816	8.533911e-05
120	0x38d0407d	9.930225e-05
121	0x38d215d0	0.00010017643
122	0x38b49607	8.6110136e-05
123	0x38be57b4	9.076242e-05
124	0x38b791bf	8.753267e-05
125	0x38af5ec2	8.3623e-05
126	0x38d930d8	0.00010356464
127	0x3928cdb4	0.00016098359
128	0x38a4940a	7.847704e-05
129	0x3904cd93	0.00012665083
130	0x38cba524	9.710554e-05
131	0x38b4d881	8.623396e-05
132	0x38c5b1db	9.42682e-05
133	0x38d578d8	0.000101791404
134	0x38af1de3	8.350217e-05
135	0x389df462	7.531863e-05
136	0x38d095a9	9.946089e-05
137	0x38cc5908	9.7440614e-05
138	0x38a8e47f	8.053425e-05
139	0x38e1a004	0.00010758641
140	0x38a8354f	8.020794e-05
141	0x38b6a3a4	8.708917e-05
142	0x38ca3b78	9.6431875e-05
143	0x3912e064	0.00014007237
144	0x38b89be2	8.802839e-05
145	0x38de3a09	0.00010596595
146	0x38cfec14	9.914502e-05
147	0x389cae32	7.471106e-05
148	0x38c71418	9.492802e-05
149	0x38c68bfb	9.467449e-05
150	0x38e9ea79	0.0001115398
151	0x38c897a2	9.564987e-05
152	0x38eef859	0.00011394983
153	0x38d81239	0.00010303077
154	0x38c7dd1d	9.530245e-05
155	0x38d3b91f	0.000100957455
156	0x39709606	0.00022944072
157	0x3941b24d	0.00018472337
158	0x391a99b4	0.00014743843
159	0x39589d1a	0.0002065789
160	0x396f7137	0.00022834992
161	0x395a624b	0.00020826717
162	0x39579366	0.00020558908
163	0x393580c2	0.00017309471
164	0x39382991	0.00017563092
165	0x3923755b	0.0001558861
166	0x399bbbb3	0.0002970375
167	0x393c3d3b	0.00017951887
168	0x38f41404	0.00011638555
169	0x392ca219	0.00016463584
170	0x3956e4ea	0.00020493908
171	0x392c7774	0.00016447698
172	0x393f1296	0.00018222103
173	0x398189c8	0.00024707452
174	0x391f3027	0.0001518136
175	0x39071ad2	0.00012884595
176	0x39738ebb	0.00023227457
177	0x39570a02	0.00020507726
178	0x39842cf2	0.0002521049
179	0x39517a22	0.00019977291
180	0x395d64e0	0.00021113781
181	0x39585096	0.00020629386
182	0x393ce00f	0.00018012545
183	0x394dad01	0.00019614772
184	0x38fd9c0d	0.00012093047
185	0x393e3f51	0.00018143399
186	0x39425683	0.0001853351
187	0x39219c51	0.00015412389
188	0x39814aa2	0.00024660403
189	0x39554b38	0.00020341284
190	0x39095731	0.0001309782
191	0x390fb33b	0.00013704311
192	0x394e7f32	0.00019693075
193	0x391f0f35	0.00015169087
194	0x394ba005	0.000194192
195	0x3916a9b1	0.0001436833
196	0x39b61f99	0.00034737287
197	0x391b155e	0.00014789912
198	0x394f14d9	0.00019748825
199	0x392cf1bc	0.00016493251
200	0x392fdb90	0.00016771094
201	0x394443dc	0.00018717296
202	0x39787f78	0.00023698609
203	0x3900ab8d	0.00012270939
204	0x39469995	0.00018939965
205	0x3915f273	0.00014300067
206	0x38eca419	0.000112839225
207	0x3906968c	0.00012835319
208	0x38e4a0b7	0.00010901823
209	0x3923368e	0.00015565215
210	0x38c95c50	9.6016214e-05
211	0x38f19da2	0.00011521137
212	0x390a6b90	0.00013200776
213	0x390cd6c5	0.00013431448
214	0x38cf9b5d	9.899468e-05
215	0x390f909e	0.00013691417
216	0x392642f1	0.00015855931
217	0x38e10f02	0.000107316315
218	0x38f153fd	0.000115074195
219	0x39293c3d	0.00016139536
220	0x39171419	0.00014407969
221	0x3905aa40	0.00012747291
222	0x3974d009	0.00023347152
223	0x3908d3c8	0.00013048865
224	0x38d759be	0.00010268715
225	0x395633c8	0.0002042792
226	0x392b4da6	0.00016336757
227	0x39023aba	0.00012419643
228	0x39235a41	0.00015578514
229	0x39223aa9	0.00015471377
230	0x38a6188a	7.9200676e-05
231	0x393df6f6	0.00018116445
232	0x39304703	0.00016811122
233	0x39185d23	0.00014530546
234	0x38c36c10	9.318453e-05
235	0x38c15569	9.218866e-05
236	0x38c332fe	9.3078226e-05
237	0x38fe746a	0.000121333476
238	0x39724330	0.00023103948
239	0x3926977c	0.00015887426
240	0x3910bb35	0.0001380265
241	0x395c5fdc	0.00021016545
242	0x39199172	0.000146454
243	0x39011bbe	0.00012312733
244	0x392a6390	0.00016249553
245	0x392ceffd	0.00016492601
246	0x38c0258d	9.162268e-05
247	0x391fdc83	0.00015245569
248	0x392e3c13	0.00016616312
249	0x393f6770	0.00018253713
250	0x38c1b4f9	9.236666e-05
251	0x38d8c20f	0.00010335829
252	0x392bccaa	0.00016384074
253	0x390aa8fc	0.00013223657
254	0x3933d823	0.00017151287
255	0x395fc80e	0.00021341463

exp_avg f4 [20, 20]
0	0x00000000	0.0
1	0x37c311f0	2.3254164e-05
2	0x392525c2	0.00015749692
3	0x3a7114fc	0.00091965473
4	0x3b8845ef	0.0041587274
5	0x3a7948da	0.0009509452
6	0x39f473c6	0.00046625565
7	0x3bb7d3f6	0.0056099845
8	0x00000004	6e-45
9	0x80000004	-6e-45
10	0x00000004	6e-45
11	0x3a5692b4	0.00081853126
12	0x00000004	6e-45
13	0x00000004	6e-45
14	0x3a05fdc3	0.0005111361
15	0x388265d5	6.217851e-05
16	0x39685bfc	0.00022159511
17	0x3b2db9a6	0.002650836
18	0x3ac45615	0.0014979268
19	0x00000004	6e-45
20	0xb9b2c845	-0.00034100018
21	0x00000000	0.0
22	0xb89ece31	-7.572433e-05
23	0xb9be0232	-0.0003624126
24	0x3a027019	0.00049758103
25	0xb948576b	-0.00019106052
26	0xb9b665fb	-0.00034789726
27	0x3b18a5ba	0.002329214
28	0x80000004	-6e-45
29	0x00000004	6e-45
30	0x00000004	6e-45
31	0xb994d14a	-0.00028384692
32	0x80000004	-6e-45
33	0x00000004	6e-45
34	0xba91e1ee	-0.0011129954
35	0xb6acac9d	-5.1460943e-06
36	0xb92bfb81	-0.00016401523
37	0xb912ed3a	-0.00014012019
38	0xb9edb90e	-0.0004534204
39	0x00000004	6e-45
40	0xb9f0e45e	-0.00045946514
41	0x371e3548	9.429939e-06
42	0x00000000	0.0
43	0xba93912c	-0.0011258475
44	0xb9eb27cd	-0.00044852347
45	0xb9d5c965	-0.00040776576
46	0xba079fb3	-0.00051736383
47	0xba81f540	-0.0009915009
48	0x80000004	-6e-45
49	0x00000004	6e-45
50	0x00000004	6e-45
51	0xba3a9b67	-0.00071184937
52	0x80000004	-6e-45
53	0x00000004	6e-45
54	0xbb3600a8	-0.0027771387
55	0x37099bcd	8.2021115e-06
56	0xb92ff8bc	-0.00016781961
57	0xbb219fd3	-0.0024661913
58	0xbaeed597	-0.0018221614
59	0x00000004	6e-45
60	0x3a48235c	0.00076346635
61	0xb69987a3	-4.5755455e-06
62	0xb70d0221	-8.404751e-06
63	0x00000000	0.0
64	0xba51c69d	-0.0008002313
65	0x3a02b27b	0.0004985702
66	0x38d4ef35	0.000101535035
67	0xbb934c59	-0.0044951853
68	0x00000004	6e-45
69	0x80000004	-6e-45
70	0x80000004	-6e-45
71	0xb9fe2b7d	-0.00048479057
72	0x00000004	6e-45
73	0x80000004	-6e-45
74	0xbb3426f3	-0.0027489036
75	0xb6f645fc	-7.3395186e-06
76	0xb86f4109	-5.704261e-05
77	0xbaae4cce	-0.0013298036
78	0xbb13802d	-0.0022506819
79	0x80000004	-6e-45
80	0x392189a5	0.00015405433
81	0x36dac8a9	6.520266e-06
82	0xb8655917	-5.4680826e-05
83	0xbaa5779a	-0.0012624145
84	0x00000000	0.0
85	0x38ebc226	0.00011241836
86	0xba2863f7	-0.00064235873
87	0xbaedbb6a	-0.0018137519
88	0x00000004	6e-45
89	0x80000004	-6e-45
90	0x80000004	-6e-45
91	0xba70ee85	-0.00091908156
92	0x00000004	6e-45
93	0x80000004	-6e-45
94	0xbaaaba48	-0.0013025487
95	0x372468cd	9.799563e-06
96	0xb99bb97d	-0.00029702103
97	0xba80e8a0	-0.0009834953
98	0xb9d298cf	-0.00040168173
99	0x80000004	-6e-45
100	0x3b128a68	0.0022360329
101	0x3781da53	1.5479663e-05
102	0x37a70e26	1.991454e-05
103	0x3a85a0ee	0.0010195056
104	0x3b354dd3	0.0027664795
105	0x00000000	0.0
106	0x3aa39954	0.0012481608
107	0x3c87b393	0.01656512
108	0x80000004	-6e-45
109	0x00000004	6e-45
110	0x00000004	6e-45
111	0x3a21fa9f	0.0006179008
112	0x80000004	-6e-45
113	0x00000004	6e-45
114	0xba86e511	-0.0010291656
115	0x38780785	5.913481e-05
116	0xb943c54d	-0.0001867015
117	0x3be0d4f4	0.0068613235
118	0x3b03a861	0.0020089375
119	0x00000004	6e-45
120	0xba76dd3b	-0.0009417121
121	0x370bb896	8.328023e-06
122	0xb6cfc193	-6.1916157e-06
123	0xba37a8d4	-0.00070060533
124	0xbab6d1fe	-0.0013948081
125	0xb94ca3a1	-0.00019515913
126	0x00000000	0.0
127	0x3acedd70	0.0015782546
128	0x00000004	6e-45
129	0x00000004	6e-45
130	0x00000004	6e-45
131	0xb9652f67	-0.000218568
132	0x80000004	-6e-45
133	0x00000004	6e-45
134	0xbb794966	-0.0038038134
135	0x36cfe43a	6.19565e-06
136	0xb8f47e49	-0.00011658349
137	0xbaaadd8b	-0.0013035996
138	0xbb2344e5	-0.002491289
139	0x00000004	6e-45
140	0x3a9519eb	0.0011375522
141	0x3759328e	1.2945979e-05
142	0x392073fc	0.00015301997
143	0x3b216fe7	0.002463335
144	0x3a882c3f	0.0010389163
145	0x39fb0f3e	0.00047885807
146	0x3a87a6cd	0.0010349393
147	0x00000000	0.0
148	0x00000004	6e-45
149	0x00000004	6e-45
150	0x00000004	6e-45
151	0x3af19065	0.0018429874
152	0x80000004	-6e-45
153	0x00000004	6e-45
154	0x3af5c167	0.0018749655
155	0x381dffe5	3.7670037e-05
156	0x3a02c8cc	0.00049890275
157	0x3b812871	0.0039415886
158	0x3b2e6f50	0.002661664
159	0x00000004	6e-45
160	0x38c178d4	9.225463e-05
161	0xb2478cdb	-1.1615351e-08
162	0xb3dc6894	-1.0263571e-07
163	0xb5cad071	-1.5110837e-06
164	0x3a055dfb	0.00050875515
165	0x376a259a	1.3956242e-05
166	0x361998b4	2.2887662e-06
167	0x3ac82018	0.0015268354
168	0x00000000	0.0
169	0x80000004	-6e-45
170	0x80000004	-6e-45
171	0x34172985	1.4078076e-07
172	0x00000004	6e-45
173	0x80000004	-6e-45
174	0xb87b1743	-5.9864728e-05
175	0x3245ffd9	1.1525082e-08
176	0xb502d069	-4.873205e-07
177	0x38cebeae	9.858362e-05
178	0x385e74de	5.3037766e-05
179	0x80000004	-6e-45
180	0x3837f182	4.385552e-05
181	0x32ed7580	2.7643864e-08
182	0x32789cdf	1.4471168e-08
183	0x36816ac9	3.856931e-06
184	0x3986f2a2	0.00025739247
185	0x37022c16	7.758868e-06
186	0x3620a3ca	2.3937196e-06
187	0x3a4bd3cb	0.0007775395
188	0x80000004	-6e-45
189	0x00000000	0.0
190	0x00000004	6e-45
191	0x364d1ab3	3.0562921e-06
192	0x80000004	-6e-45
193	0x00000004	6e-45
194	0xb83e6efc	-4.5402892e-05
195	0x338cba1b	6.5531104e-08
196	0xb425593f	-1.539929e-07
197	0x384d0c89	4.8887483e-05
198	0x3810d9d7	3.4535155e-05
199	0x00000004	6e-45
200	0x3821e43d	3.8597955e-05
201	0xae981862	-6.916491e-11
202	0xb360f03b	-5.2372553e-08
203	0xb6098703	-2.0493178e-06
204	0x39770bf4	0.00023560209
205	0x36e168af	6.7177093e-06
206	0x357a5c59	9.326664e-07
207	0x3a2c704b	0.0006578012
208	0x80000004	-6e-45
209	0x80000004	-6e-45
210	0x00000000	0.0
211	0xb5176e24	-5.641216e-07
212	0x80000004	-6e-45
213	0x80000004	-6e-45
214	0xb81ab813	-3.6887894e-05
215	0x325e1b13	1.2928257e-08
216	0xb4a14919	-3.0041772e-07
217	0x380c4862	3.3446013e-05
218	0x379abf29	1.8447246e-05
219	0x00000004	6e-45
220	0x3ae34cba	0.0017341592
221	0xb699e348	-4.5862143e-06
222	0x35ff8d12	1.9040037e-06
223	0xb8bfac70	-9.139709e-05
224	0x3b085290	0.0020801164
225	0x3a19b01a	0.0005862728
226	0x3a33226e	0.00068334385
227	0x3b9ff7f8	0.004881855
228	0x00000004	6e-45
229	0x80000004	-6e-45
230	0x80000004	-6e-45
231	0x00000000	0.0
232	0x00000004	6e-45
233	0x80000004	-6e-45
234	0xbb1d704a	-0.0024023228
235	0x371a7670	9.206691e-06
236	0xb73036c9	-1.0503173e-05
237	0x3b00e417	0.0019667202
238	0xba22a8d3	-0.00062049663
239	0x80000004	-6e-45
240	0x3983aefc	0.0002511664
241	0x34fda210	4.7242838e-07
242	0x3521ee3f	6.032387e-07
243	0x37fa64b1	2.984921e-05
244	0x3a8f6586	0.001094029
245	0x383b1da5	4.4611883e-05
246	0x37baf940	2.2288994e-05
247	0x3b55f854	0.0032649236
248	0x80000004	-6e-45
249	0x00000004	6e-45
250	0x00000004	6e-45
251	0x37d7b0b0	2.5712274e-05
252	0x00000000	0.0
253	0x00000004	6e-45
254	0xb945d05d	-0.00018865005
255	0x3588951f	1.017619e-06

exp_avg_sq f4 [20, 20]
0	0x00000000	0.0
1	0x324f0694	1.20504815e-08
2	0x34469a94	1.8496422e-07
3	0x385cda10	5.2655174e-05
4	0x397ebbda	0.00024293308
5	0x3730928c	1.0524538e-05
6	0x377de498	1.5133199e-05
7	0x3aee5393	0.0018182866
8	0x2327c332	9.094422e-18
9	0x20eac227	3.976962e-19
10	0x1eebb3c2	2.4955939e-20
11	0x37ed2843	2.827135e-05
12	0x2a82751b	2.3173897e-13
13	0x1e61fefb	1.19641295e-20
14	0x384a378a	4.8212278e-05
15	0x3343b842	4.5569557e-08
16	0x357b7549	9.367546e-07
17	0x39dd1ce3	0.00042173927
18	0x395697e4	0.00020465214
19	0x1c5f4f32	7.388687e-22
20	0x36b9ac0c	5.5334585e-06
21	0x00000000	0.0
22	0x336a0af4	5.4492332e-08
23	0x3702221e	7.756547e-06
24	0x37a765f2	1.9955423e-05
25	0x3591c7fa	1.0861543e-06
26	0x363134c4	2.640577e-06
27	0x39341cbc	0.00017176842
28	0x221b50e0	2.1049232e-18
29	0x1fd51ca5	9.02564e-20
30	0x1dd01558	5.507921e-21
31	0x36a992c9	5.0536805e-06
32	0x2895859a	1.6600264e-14
33	0x1d327321	2.3617624e-21
34	0x36da2ba1	6.5019854e-06
35	0x32180845	8.849445e-09
36	0x34d980e4	4.051318e-07
37	0x381c6ac9	3.729275e-05
38	0x3782b2e1	1.5580505e-05
39	0x1acf377c	8.5702833e-23
40	0x37d945e5	2.5900963e-05
41	0x30fa9930	1.8233433e-09
42	0x00000000	0.0
43	0x37ae1b87	2.0755235e-05
44	0x389ae535	7.3859854e-05
45	0x36add81e	5.180961e-06
46	0x37177146	9.026675e-06
47	0x3a307b62	0.00067322527
48	0x239e63c3	1.7172645e-17
49	0x218b8e92	9.456744e-19
50	0x1f783dce	5.2567166e-20
51	0x3748f226	1.19773085e-05
52	0x29e27d72	1.00581774e-13
53	0x1e875055	1.4326906e-20
54	0x384a8acc	4.8289818e-05
55	0x31c137aa	5.6233675e-09
56	0x34bc884d	3.51169e-07
57	0x394835ba	0.00019093501
58	0x38a09413	7.6569755e-05
59	0x1bda4412	3.6109064e-22
60	0x3892d276	7.001024e-05
61	0x2f86afb3	2.44993e-10
62	0x3182ad9a	3.803234e-09
63	0x00000000	0.0
64	0x39bdb391	0.00036182677
65	0x36480bbf	2.980916e-06
66	0x359b5e81	1.1575904e-06
67	0x3b61b593	0.0034440502
68	0x231581ac	8.104765e-18
69	0x218eb842	9.671067e-19
70	0x1f71ff00	5.1244666e-20
71	0x359f12e4	1.1851921e-06
72	0x2947f428	4.4398648e-14
73	0x1ece701c	2.1857466e-20
74	0x387ed24f	6.0754184e-05
75	0x304116fe	7.0245665e-10
76	0x329f8f54	1.8575214e-08
77	0x3954c546	0.00020291386
78	0x3903ee53	0.00012581916
79	0x1cfb24a8	1.6619262e-21
80	0x37c4d021	2.3461938e-05
81	0x3181c974	3.7772967e-09
82	0x33892b25	6.3874076e-08
83	0x37a22784	1.9330306e-05
84	0x00000000	0.0
85	0x3652a0ab	3.138596e-06
86	0x36d3a1e5	6.307137e-06
87	0x39c01f5f	0.00036644467
88	0x23de62c9	2.4111125e-17
89	0x2207b96e	1.8394077e-18
90	0x2005c5b0	1.1330948e-19
91	0x3732a125	1.0647146e-05
92	0x2a38dfca	1.6420125e-13
93	0x1f5abe80	4.6320874e-20
94	0x379a622b	1.8403944e-05
95	0x32bb2996	2.1788576e-08
96	0x3506534d	5.004011e-07
97	0x39033434	0.0001251258
98	0x387e4472	6.0622064e-05
99	0x1d13a7d7	1.954206e-21
100	0x395ed020	0.00021249102
101	0x323370b4	1.0444797e-08
102	0x3477a6e3	2.306438e-07
103	0x38bd81b1	9.036379e-05
104	0x39e2a25d	0.0004322705
105	0x00000000	0.0
106	0x37b612bd	2.1704816e-05
107	0x3b5fd763	0.003415548
108	0x21d28037	1.4264092e-18
109	0x1fafee4d	7.450962e-20
110	0x1d99ad7c	4.067814e-21
111	0x3861394b	5.369754e-05
112	0x29da5278	9.695451e-14
113	0x1d3289fc	2.362944e-21
114	0x393f1175	0.00018221683
115	0x3397d712	7.0706065e-08
116	0x36465d0e	2.9558464e-06
117	0x3a4d8771	0.0007840312
118	0x39da0fbd	0.00041591926
119	0x1ba3cff0	2.7100464e-22
120	0x38a980a2	8.082508e-05
121	0x30537ce8	7.6938855e-10
122	0x32e95e3e	2.7167626e-08
123	0x37d4875d	2.5335403e-05
124	0x39812c90	0.00024638
125	0x3699f840	4.5886554e-06
126	0x00000000	0.0
127	0x3b16f94c	0.0023036776
128	0x2203309f	1.777955e-18
129	0x204156b4	1.6376424e-19
130	0x1e917abb	1.5403232e-20
131	0x375adce3	1.3045242e-05
132	0x28a1abbc	1.7949069e-14
133	0x1e1187bd	7.704306e-21
134	0x38bd72dd	9.033617e-05
135	0x3183c6a6	3.8351855e-09
136	0x34ea032e	4.358821e-07
137	0x39c36424	0.0003726791
138	0x393d8293	0.00018073087
139	0x1b9abda3	2.5599713e-22
140	0x3690943a	4.3087903e-06
141	0x3217cb79	8.835621e-09
142	0x33f65af8	1.1471815e-07
143	0x37454a32	1.175939e-05
144	0x37bea5cd	2.2726972e-05
145	0x35d41959	1.5802608e-06
146	0x367cfdc7	3.7698644e-06
147	0x00000000	0.0
148	0x23b4cf29	1.9603375e-17
149	0x2163d837	7.719675e-19
150	0x1f3262e8	3.777478e-20
151	0x36ea2f14	6.979224e-06
152	0x2b080736	4.8326913e-13
153	0x1e473588	1.0546042e-20
154	0x36a92ef2	5.0420576e-06
155	0x32d15e97	2.4373817e-08
156	0x34c64471	3.6930172e-07
157	0x3861371a	5.3695498e-05
158	0x37b3d4b2	2.1437507e-05
159	0x1c26b5c2	5.515971e-22
160	0x33897933	6.401606e-08
161	0x29042b25	2.934731e-14
162	0x2b2a81e6	6.0576403e-13
163	0x30caf6da	1.4767594e-09
164	0x3560c77d	8.3736796e-07
165	0x30b56477	1.3198037e-09
166	0x2f042a87	1.2020439e-10
167	0x373beb0a	1.1200793e-05
168	0x00000000	0.0
169	0x21869461	9.119469e-19
170	0x1f19938c	3.2521058e-20
171	0x30036fc5	4.7816356e-10
172	0x2784b4ef	3.683353e-15
173	0x1ecd4abe	2.1736132e-20
174	0x33dec2e8	1.0373134e-07
175	0x299474bc	6.5927705e-14
176	0x2cd78022	6.124893e-12
177	0x33ba55f3	8.676934e-08
178	0x336b67b7	5.480953e-08
179	0x1c6ee8bd	7.90484e-22
180	0x32caec44	2.3623336e-08
181	0x2868b7fc	1.2918482e-14
182	0x2acd15e1	3.6430497e-13
183	0x2ff8d9cf	4.52657e-10
184	0x344a9639	1.8867367e-07
185	0x3004795a	4.819377e-10
186	0x2e784739	5.645193e-11
187	0x3665f1d9	3.4264433e-06
188	0x23863c6e	1.4553902e-17
189	0x00000000	0.0
190	0x1ee683ec	2.4406759e-20
191	0x2f2b68a0	1.558953e-10
192	0x25ec8755	4.1031179e-16
193	0x1db9bb25	4.9162595e-21
194	0x334806b6	4.6572232e-08
195	0x28bb7468	2.0811654e-14
196	0x2c29fd39	2.4156911e-12
197	0x332a3aab	3.9634568e-08
198	0x32c1f800	2.2580934e-08
199	0x1b00f19d	1.0665981e-22
200	0x32686615	1.3527388e-08
201	0x27cfc2f6	5.766542e-15
202	0x2a3da6fb	1.6844505e-13
203	0x2fb3c605	3.2700612e-10
204	0x3443f94b	1.8251482e-07
205	0x2fb3acab	3.2682598e-10
206	0x2e0af145	3.1591858e-11
207	0x362f64a2	2.6135608e-06
208	0x221b07fb	2.1010642e-18
209	0x2105c036	4.531654e-19
210	0x00000000	0.0
211	0x2edc4b61	1.0017832e-10
212	0x23f02449	2.603622e-17
213	0x1e893065	1.4525455e-20
214	0x32cfe44e	2.4201793e-08
215	0x2872b87e	1.3473704e-14
216	0x2b9b4e3f	1.103513e-12
217	0x32b01055	2.0496524e-08
218	0x32538871	1.231284e-08
219	0x1c3a4502	6.163143e-22
220	0x3911385c	0.00013849273
221	0x309dcf4a	1.1482169e-09
222	0x32ad05fa	2.0142569e-08
223	0x37037321	7.835014e-06
224	0x39f68583	0.0004702025
225	0x36e457bc	6.805143e-06
226	0x369a5de7	4.6004893e-06
227	0x3ba45d61	0.0050160144
228	0x22b1564e	4.8067325e-18
229	0x21edcda3	1.6114176e-18
230	0x1f80caca	5.4545595e-20
231	0x00000000	0.0
232	0x2988e5dd	6.079488e-14
233	0x1f5f049b	4.7225896e-20
234	0x38f9d8dd	0.00011913639
235	0x316f7cab	3.4849943e-09
236	0x33127a35	3.410442e-08
237	0x39dab0e2	0.00041711988
238	0x3981fc0f	0.00024792596
239	0x1dc6d191	5.262685e-21
240	0x351dc685	5.877594e-07
241	0x2e994817	6.97044e-11
242	0x2fa21e45	2.9489136e-10
243	0x330c4f84	3.266861e-08
244	0x36978328	4.5154193e-06
245	0x32a8b017	1.963785e-08
246	0x31a6857e	4.846412e-09
247	0x3885896e	6.3675325e-05
248	0x2227c185	2.2735169e-18
249	0x2004c0ee	1.124467e-19
250	0x1dbac3da	4.9436296e-21
251	0x3279c14d	1.4537659e-08
252	0x00000000	0.0
253	0x1d8dc4ef	3.7526014e-21
254	0x3585ebbd	9.977881e-07
255	0x2e56850b	4.8776132e-11

exp_avg f4 [9, 20]
0	0x3a540231	0.0008087485
1	0xb88cf101	-6.720611e-05
2	0xb8525dd5	-5.015529e-05
3	0x3aa4367e	0.0012528447
4	0x3a825743	0.0009944219
5	0x39860682	0.0002556332
6	0x3a07d519	0.00051815953
7	0xb9c2893d	-0.00037104814
8	0x00000004	6e-45
9	0x00000004	6e-45
10	0x00000004	6e-45
11	0x3a7e862f	0.0009709326
12	0x1e1b024b	8.206106e-21
13	0x00000004	6e-45
14	0x39a99f8e	0.0003235307
15	0xb7ca055e	-2.4082776e-05
16	0x398c99d8	0.00026817503
17	0x3a84b896	0.0010125812
18	0x3ac17408	0.0014759311
19	0x00000004	6e-45
20	0xbb529534	-0.003213239
21	0x37fcb9de	3.0127292e-05
22	0xba9fc748	-0.0012190128
23	0xbba6961e	-0.0050838133
24	0xbbb25a6a	-0.005442907
25	0xbb3b170c	-0.0028547673
26	0xbb667237	-0.0035163292
27	0xbc2684e0	-0.010163516
28	0x80000004	-6e-45
29	0x00000004	6e-45
30	0x00000004	6e-45
31	0xbb8f3d2c	-0.004371306
32	0xa45d4a0a	-4.798445e-17
33	0x00000004	6e-45
34	0xbbb27a90	-0.0054467395
35	0x39ba875a	0.0003557753
36	0xbaf092d8	-0.001835431
37	0xbc023f8f	-0.007949724
38	0xbbd22245	-0.0064127767
39	0x00000004	6e-45
40	0x3b57f10c	0.0032950072
41	0x384d310f	4.8921498e-05
42	0xb9df6d44	-0.00042615284
43	0x3b404626	0.0029338687
44	0x3bbcc37a	0.0057606073
45	0x3b38e359	0.0028211682
46	0x3a94e68c	0.0011360212
47	0x3bc7d930	0.006098889
48	0x00000004	6e-45
49	0x00000004	6e-45
50	0x00000004	6e-45
51	0x3b2f459f	0.0026744378
52	0x2136fa6a	6.199542e-19
53	0x00000004	6e-45
54	0x3b5b626c	0.0033475412
55	0xb982b97c	-0.0002493373
56	0x3a599074	0.0008299418
57	0x3bc1588f	0.0059004496
58	0x3b9ea5fa	0.0048415633
59	0x00000004	6e-45
60	0x39c0a65d	0.00036745044
61	0x38b7a4e4	8.756833e-05
62	0x3afc9bde	0.0019272526
63	0x3ba1cb6f	0.0049375813
64	0x3b39c66f	0.0028347035
65	0x3a036fdc	0.0005013922
66	0x3b8520e3	0.0040627583
67	0x3c5209a5	0.012819682
68	0x00000004	6e-45
69	0x00000004	6e-45
70	0x00000004	6e-45
71	0x3b85b22f	0.004080079
72	0x2075d249	2.0821885e-19
73	0x00000004	6e-45
74	0x3af10a91	0.001838999
75	0x3a136613	0.0005622815
76	0x3ab4be99	0.0013789713
77	0x3c267d4a	0.010161707
78	0x3b945b5a	0.0045274915
79	0x00000004	6e-45
80	0xbb04aa17	-0.0020242983
81	0x386c36ff	5.6318004e-05
82	0xb9351e5f	-0.00017272819
83	0xbb1ef481	-0.0024254622
84	0xbb80ea8c	-0.00393421
85	0xbab67562	-0.0013920481
86	0xbb3559b8	-0.0027671885
87	0xbbb1321d	-0.0054075853
88	0x00000004	6e-45
89	0x00000004	6e-45
90	0x00000004	6e-45
91	0xbb00eb32	-0.0019671437
92	0x2456204f	4.643122e-17
93	0x00000004	6e-45
94	0xba89c34a	-0.0010510471
95	0xba2bb783	-0.00065504777
96	0xb9d7f901	-0.00041193518
97	0xbbcc2638	-0.006230142
98	0xbb51af93	-0.003199552
99	0x00000004	6e-45
100	0x39d051c8	0.00039733783
101	0x3a22837e	0.00061994034
102	0x3a66a710	0.0008798698
103	0x3b03fdb0	0.0020140223
104	0x3b4b7733	0.003104639
105	0x3a8864e3	0.0010406043
106	0x3ad6a4af	0.0016375984
107	0x3ad76805	0.0016434198
108	0x00000004	6e-45
109	0x00000004	6e-45
110	0x00000004	6e-45
111	0x3acc59df	0.0015590749
112	0x204f9689	1.758339e-19
113	0x00000004	6e-45
114	0xb84973b3	-4.8029888e-05
115	0x3a83d8de	0.0010059138
116	0x3a1f1334	0.000606823
117	0x3b1f83b1	0.0024339969
118	0x3a8e321a	0.0010848672
119	0x00000004	6e-45
120	0x3b1024bb	0.002199455
121	0x38731329	5.795356e-05
122	0x39eda9f1	0.0004533078
123	0x3b97003c	0.0046081822
124	0x3b597f3f	0.0033187417
125	0x3a87e0e5	0.0010366706
126	0x3b4fc1d7	0.003170123
127	0x3c135fcb	0.008995007
128	0x00000004	6e-45
129	0x00000004	6e-45
130	0x00000004	6e-45
131	0x3b7d367c	0.0038637212
132	0x20b198ad	3.0085999e-19
133	0x00000004	6e-45
134	0x3b1d16f4	0.002396998
135	0x3995636f	0.00028493578
136	0x3ac29baa	0.0014847417
137	0x3bed30a9	0.0072384668
138	0x3b936d84	0.0044991393
139	0x00000004	6e-45
140	0xbb2974d8	-0.0025856998
141	0xb9fd53e4	-0.00048318424
142	0xbacbc72d	-0.001554703
143	0xbc0f4bac	-0.008746069
144	0xbbed670f	-0.0072449516
145	0xbb092a4a	-0.0020929747
146	0xbb8e3131	-0.00433936
147	0xbc713726	-0.014722621
148	0x00000004	6e-45
149	0x80000004	-6e-45
150	0x80000004	-6e-45
151	0xbbf4da22	-0.0074722925
152	0x208d3c92	2.392641e-19
153	0x80000004	-6e-45
154	0xbb854ef6	-0.004068251
155	0xba567fc9	-0.00081824936
156	0xbb5a9bbf	-0.0033356992
157	0xbc474066	-0.01216135
158	0xbc07dee9	-0.008292892
159	0x80000004	-6e-45
160	0x3a45fb46	0.0007552396
161	0xb9b7bb11	-0.00035043855
162	0x392a3520	0.00016232254
163	0x3a05643f	0.0005088485
164	0x3a1fa26f	0.0006089573
165	0x3a33641f	0.00068432273
166	0x38cdfafe	9.821913e-05
167	0x3a9132b8	0.0011077737
168	0x00000004	6e-45
169	0x00000004	6e-45
170	0x00000004	6e-45
171	0x3a2dab7d	0.000662498
172	0x1c87d9f4	8.98989e-22
173	0x00000004	6e-45
174	0x3b3167e8	0.002706999
175	0xb9f251f7	-0.00046218905
176	0x3a84f613	0.0010144137
177	0xb9d4da16	-0.00040598278
178	0x3ac17e24	0.0014762324
179	0x00000004	6e-45
