checkpoints/RNN_250.pt (torch, 111359 bytes, 9 tensors)

snn.l1.input_weights f4 [20, 416]
000000 f7 13 16 3f a0 72 ca 3f 87 f4 8e 3f f0 19 2c 3f
       0.58624214 1.5816231 1.1168374 0.6722708
000010 99 43 41 be 85 59 83 3f f8 7b f4 3e 15 97 8b 3f
       -0.18873443 1.0261694 0.4775083 1.0905482
000020 cc 94 20 3f de ef a9 3f a6 d2 92 3f 6c 9d d0 3e
       0.62727046 1.3276327 1.1470535 0.40745103
000030 4b 2b e3 3e be 6f 35 bf fd 74 b5 3f ef 4e 9e 3e
       0.44368967 -0.7087363 1.4176327 0.30919597
000040 52 aa bf bc 53 d5 17 3f c5 df c6 3e 8a f3 b6 3a
       -0.023396645 0.5930988 0.38842598 0.0013958078
000050 c4 1a a9 3f 3e ee 21 3f 32 e3 81 3f 61 80 60 3f
       1.3211293 0.63254154 1.014746 0.8769589
000060 0b a4 9c 3f 95 bd b7 3f d8 8b 40 3f 81 80 6a 3f
       1.2237562 1.4354731 0.75213385 0.9160233
000070 fa 74 8f 3f 6f 35 97 3e d7 36 c2 3f aa 4c b7 3f
       1.1207573 0.29532954 1.5172986 1.4320271
000080 bd 51 5e 3f 01 d9 35 3e 56 c7 85 3e 6e 2c d2 3e
       0.8684347 0.17758562 0.26128644 0.41049522
000090 9e 6e dd 3f f7 9a 4e 3f 11 95 17 3e 3a cb 87 3f
       1.7299383 0.8070521 0.14802958 1.0608895
0000a0 af 88 c9 3e 68 1c ce 3f dd 76 31 3f c6 a8 c3 3f
       0.39362094 1.6102419 0.69321996 1.528588
0000b0 6c e0 b6 3f 1b 47 57 3f 5c 88 ba 3f 4e 7d 23 3f
       1.4287238 0.84092873 1.4572864 0.63863075
0000c0 0d d0 68 3f 83 69 0b bf 2b a0 35 3f 0c b3 15 3f
       0.9094246 -0.54457873 0.7094752 0.5847633
0000d0 4c c3 e5 3f d6 55 da 3f 92 12 a8 3f 1a ea d9 3f
       1.7950225 1.7057445 1.3130667 1.7024567
0000e0 27 77 9e 3f 72 83 d2 3f fd 02 11 40 fe 0d 04 40
       1.2380112 1.6446364 2.2658074 2.063354
0000f0 47 6a 16 40 13 9a 93 3f 64 aa 0f 40 bc 89 b6 3f
       2.3502367 1.1531395 2.2447748 1.4260783
000100 d6 e1 10 40 66 82 16 40 22 bd ec 3f 2c 4b 28 40
       2.263784 2.351709 1.8495219 2.6295881
000110 39 bc 02 40 9d 67 b7 3f 20 6d 8c 3e bc dc 50 3f
       2.0427382 1.4328495 0.27427006 0.81586814
000120 77 51 bf 3f ba 91 08 40 6b 92 ee 3f 28 77 cf 3f
       1.4946736 2.1338944 1.8638433 1.6208239
000130 f2 4b 17 40 7b ee c9 3f 77 3e 1f 40 bf 0d c4 3f
       2.3640103 1.5775903 2.4881876 1.5316695
000140 54 9d 22 40 78 0b 13 40 ed 2e b2 3f fb 86 25 40
       2.5408525 2.297575 1.3920571 2.5863636
000150 d5 4f f3 3f 44 ea c1 3f bb c5 73 3f 33 a4 e7 3f
       1.9008738 1.5149617 0.9522359 1.8096985
000160 e7 b0 a0 3f 4a 18 e6 3f 0e b5 06 40 22 b0 05 40
       1.2553986 1.7976162 2.1048007 2.0888753
000170 32 0a 22 40 4b 96 05 40 63 0c 02 40 37 a2 bf 3f
       2.5318723 2.0872982 2.032006 1.4971379
000180 54 7a eb 3f 0a 43 24 40 a6 ee b1 3f 3a 02 1c 40
       1.8396707 2.5665917 1.3900955 2.437636
000190 0f dd 92 3f fb 8e 08 3f 78 e4 c4 3f 28 ca 0a 40
       1.1473712 0.5334317 1.5382223 2.1685886
0001a0 32 b1 16 40 71 01 11 40 93 00 02 40 5f a1 d9 3f
       2.3545651 2.265713 2.031285 1.7002372
0001b0 7e 03 16 40 bf 46 4d 40 e4 8a fc 3f ea 74 3a 40
       2.3439631 3.207443 1.9729886 2.9133859
0001c0 8c 26 f8 3f c0 58 07 40 b9 bb 3e 40 08 83 36 40
       1.9386764 2.1147919 2.9802077 2.8517475
0001d0 a0 ca 1b 40 d0 d1 eb 3f 00 d2 df 3f 20 3b 25 40
       2.4342422 1.8423405 1.7485962 2.5817337
0001e0 4d 87 0f 40 6c 0f 06 40 60 51 e5 3f bf 06 0b 40
       2.242633 2.0946913 1.7915459 2.1722867
0001f0 f2 c3 27 40 7b c5 1d 40 57 cd 12 40 7d 70 11 40
       2.6213346 2.4651783 2.293783 2.2724907
000200 5a 6c f4 3f e5 10 06 40 dd 30 2d 40 ef ab 5c 40
       1.9095566 2.0947812 2.7061074 3.447994
000210 48 05 3b 40 1a 2d b6 3f 71 65 ae 3f ba cf c1 3f
       2.9221973 1.4232514 1.3624707 1.5141518
000220 2e 25 1e 40 3d 72 1f 40 1f 3f eb 3f ac 44 ff 3f
       2.4710193 2.4913476 1.8378638 1.9942832
000230 e4 bb 15 40 4f 39 ea 3f 6e 0e 20 40 c2 94 09 40
       2.339593 1.8298739 2.5008807 2.1497045
000240 40 db 0b 40 48 f3 2b 40 ec 57 38 40 77 14 74 40
       2.185257 2.6867237 2.8803663 3.813749
000250 99 2f 42 40 d9 8d b4 3f ab db ec 3f 39 c1 f2 3f
       3.0341551 1.4105788 1.8504537 1.8965217
000260 76 e9 36 40 b4 98 13 40 af 0d db 3f 7f 56 28 40
       2.8579993 2.3061953 1.7113551 2.6302793
000270 57 ef a0 bb 8b 47 73 3f 90 b1 74 3f 07 93 4d 3f
       -0.004911344 0.9503104 0.9558344 0.8030247
000280 a0 2d a4 3f 0c 79 c3 3e 81 16 9d 3f c8 02 e1 3f
       1.2826424 0.3817829 1.2272493 1.7578974
000290 fb fd a6 3f 92 6d 80 3f 6e cf 8b 3f 02 90 92 3f
       1.3046259 1.0033438 1.0922678 1.1450198
0002a0 94 60 9b 3f f5 27 25 3f 88 52 26 3f e5 af 30 3e
       1.2138848 0.64514095 0.6496968 0.17254598
0002b0 e6 3a 9b 3e 9f c6 2a 3f 5c 46 66 3d 06 b4 32 3f
       0.30318373 0.6670932 0.056219444 0.69805944
0002c0 86 7b 53 3f 05 46 e0 3d 13 ca df 3f dd b7 bf 3f
       0.82610357 0.10950855 1.7483543 1.4977986
0002d0 5e 10 94 3f a8 41 07 3f 9d 4a 07 3f a8 60 96 3f
       1.1567495 0.5283456 0.52848226 1.1748247
0002e0 1b 77 c2 3f 6f c9 76 3f 94 b7 97 3f 8e 12 88 3f
       1.5192598 0.96401113 1.1852899 1.0630662
0002f0 fe fc a7 3d 46 73 6c 3e fe 4e 85 3f b0 4d 21 3f
       0.08202551 0.23090848 1.0414732 0.63009167
000300 95 f8 27 3f 10 df 82 be bd 7f dc 3f e1 60 88 3f
       0.6561368 -0.25560808 1.7226483 1.0654565
000310 a6 fd 9f 3f 61 81 2c 3f 2c 20 08 3f af 3c ab 3f
       1.2499282 0.67384917 0.5317409 1.3377894
000320 6b fc 98 3f 74 fd 65 3f 1a 7b 88 3f ea 99 8c 3f
       1.1952032 0.89839864 1.0662568 1.0984471
000330 b5 a0 3d 3f 19 38 48 3f d7 25 cd 3e 04 2e 68 3f
       0.74073344 0.782106 0.40067932 0.90695214
000340 27 fe 63 3e 81 b3 89 3f 49 e0 05 3f fa 22 2a 3f
       0.2226492 1.0757905 0.52295357 0.6645962
000350 35 54 3f 3f c0 17 12 3f 38 b3 e4 be b0 df 0c 3f
       0.74737865 0.5706749 -0.44667983 0.5502882
000360 14 52 1b 3e 55 01 00 3f 0a 81 25 3f 16 2b de be
       0.15168029 0.5000203 0.64650023 -0.43392247
000370 a9 a4 d0 3e 79 95 51 be 70 26 04 bf 29 79 66 3c
       0.40750626 -0.20467176 -0.5162115 0.014066973
000380 97 67 d3 3d 4c 45 b0 3f 27 7b 94 3e ae 93 e0 3e
       0.103224926 1.3771148 0.29000208 0.4386267
000390 c3 d1 a2 3f 75 dc 7e 3e 08 1d 20 bf 07 f4 f4 3e
       1.2720264 0.24888785 -0.625443 0.47842428
0003a0 22 a0 f2 bd e1 10 9f 3e 21 47 55 3e ac 0b 6e 3d
       -0.11846949 0.31067565 0.20827915 0.0581166
0003b0 b5 0c 64 3f 1a 2a 28 3f c9 63 7b 3e 93 ee 02 be
       0.8908189 0.6568924 0.24549784 -0.12786321
0003c0 31 a0 8e 3e 1f 20 58 3e b6 08 27 3f 2f d7 d8 bd
       0.2785659 0.21106003 0.65247667 -0.10587918
0003d0 8e de 72 3f 05 b3 b6 be 18 7f 93 be 8e 9d bb 3f
       0.9487084 -0.35683456 -0.28807902 1.4657457
0003e0 d0 40 83 bd ac 75 41 3e 71 60 fe 3e 8a 3d cf be
       -0.064088464 0.18892545 0.49682954 -0.40476638
0003f0 1c f8 8f 3e 0e d3 7c 3f d0 d6 57 be cb c9 0d bf
       0.2811898 0.98759544 -0.21078038 -0.55386037

snn.l1.recurrent_weights f4 [20, 20]
000000 00 00 00 00 30 f7 4e 40 16 5a 4b bf b2 55 c4 40
       0.0 3.2338371 -0.79434335 6.135461
000010 eb 1f 22 bf 06 d9 06 c0 b5 7c 12 3e 43 a3 6a c0
       -0.6332995 -2.106996 0.14305384 -3.6662147
000020 a3 a8 be 40 ae af 34 40 e5 b0 56 40 e7 6d e7 40
       5.9580855 2.8232226 3.3545468 7.232166
000030 64 b5 ce 40 1d b7 5b 40 bb 67 1c c0 82 aa 8f bf
       6.4596424 3.4330513 -2.4438312 -1.122391
000040 42 1f 61 40 42 8e 9e c0 f5 4e 16 40 75 78 52 3f
       3.5175328 -4.9548655 2.3485692 0.8221505
000050 de f5 32 c0 00 00 00 00 70 7d 6f 41 2a 3d 0e 41
       -2.7962565 0.0 14.968124 8.889933
000060 72 ea ee c0 ba e2 9b 40 8f 38 52 41 ef e9 0e c1
       -7.466119 4.8714266 13.138808 -8.932113
000070 67 a0 d0 40 db 7e 82 40 77 7b 64 40 c5 cc 17 41
       6.5195804 4.0779853 3.5700357 9.487493
000080 9e 57 53 41 db e2 94 40 23 81 ab bf 2b 5f c1 40
       13.208891 4.6526923 -1.3398784 6.042867
000090 6b c5 48 c0 64 6f 15 40 9d 03 0a c0 38 fa f2 3f
       -3.1370494 2.3349237 -2.1564705 1.8982611
0000a0 24 dd 8d 3f 25 66 d2 40 00 00 00 00 98 fa 11 41
       1.1083112 6.574969 0.0 9.12368
0000b0 6e 83 2c c0 fe 29 f3 40 26 03 2d 41 d7 96 5c bf
       -2.6955218 7.598876 10.813269 -0.86167663
0000c0 9b 1e 04 40 c4 26 96 40 bd 5d f5 3f 87 d7 2c 41
       2.064368 4.692232 1.9169232 10.802619
0000d0 fd ef 13 41 68 fe 82 40 0c 61 d1 40 a9 d9 b4 40
       9.246091 4.0935555 6.5430965 5.65157
0000e0 d3 38 ea be c7 23 0c 41 85 0e 83 40 19 fd 3a 40
       -0.45746478 8.758735 4.0955224 2.9216979
0000f0 68 66 e8 bc 4b 49 44 40 97 dd 54 bf 00 00 00 00
       -0.028369144 3.0669734 -0.8315062 0.0
000100 c2 17 c1 3e dc 34 64 c0 0e 0e 3e 40 bd 3f 20 40
       0.37713438 -3.5657263 2.9696078 2.5038903
000110 b2 51 87 40 8e 5e 55 3f 62 cf 2a 40 17 af 9a 41
       4.2287226 0.83347404 2.6689076 19.335493
000120 2a d4 a8 40 5e fe b9 3f 76 43 23 40 d3 dd 6b c0
       5.275899 1.4530752 2.5509925 -3.685414
000130 5e 83 22 40 ee bd 15 41 6f 52 20 41 68 e7 be be
       2.539268 9.35887 10.020125 -0.37285924
000140 77 55 97 c0 49 8d da 3f 23 98 91 40 a6 80 01 41
       -4.7291827 1.7074367 4.5498214 8.093908
000150 00 00 00 00 4e 23 a2 c0 b9 53 6c 40 f2 3b f5 c0
       0.0 -5.0668097 3.69261 -7.6635675
000160 a5 10 ab 40 59 b2 c4 3f bf ca 35 40 f9 af f8 40
       5.345782 1.5366927 2.8404996 7.771481
000170 a5 e9 ad 40 f1 10 c7 3f b5 f1 ac c0 2d 3f e6 bf
       5.434771 1.5552045 -5.4045053 -1.798803
000180 a2 d0 59 3f 02 c2 96 c0 23 89 d7 c0 64 e4 19 be
       0.85083973 -4.7111826 -6.7354903 -0.1502853
000190 6d c3 7e be 22 80 fc 3f 4d 3f 88 40 02 51 93 bf
       -0.24879237 1.9726603 4.257727 -1.1509097
0001a0 34 e5 09 be 00 00 00 00 2b cd a0 3f 6a e1 1c 3f
       -0.1346634 0.0 1.2562612 0.61281455
0001b0 03 aa a7 40 ce ee 2e 40 6a 70 3c 40 f3 e9 89 3f
       5.2395034 2.7333255 2.9443612 1.0774521
0001c0 f1 f1 b3 40 5f d9 83 40 88 0a bb 40 9f 3a d5 3d
       5.623284 4.1202846 5.8450356 0.10411572
0001d0 3c 52 39 3f 02 d6 f5 bc 0c 15 54 40 87 70 91 3f
       0.72391105 -0.030009273 3.3137846 1.1362466
0001e0 96 66 d4 3f e7 8b 2c 40 86 a4 86 40 ba 99 b7 40
       1.6593807 2.696039 4.2075834 5.7375154
0001f0 11 10 0f c0 74 5b bb 40 00 00 00 00 8e a6 2d 3f
       -2.2353556 5.8549137 0.0 0.6783227
000200 f5 95 23 40 9a 86 de 3f f6 55 2e 3f 10 67 95 40
       2.5560277 1.7384827 0.68099916 4.668831
000210 aa 06 93 40 8e 79 f1 3f a1 5b ef 3f 36 3a c0 be
       4.5945635 1.886522 1.8699838 -0.3754441
000220 70 82 85 c0 2d d3 06 41 f1 9a 98 40 ab 9d a8 3f
       -4.1721725 8.426557 4.7689137 1.3173116
000230 18 3e 7f c0 fc f5 24 41 6b ca f4 40 10 b0 d0 bf
       -3.988165 10.310055 7.649709 -1.630373
000240 ce 93 18 41 7a 75 c4 c0 a4 cc 04 c1 00 00 00 00
       9.536085 -6.1393404 -8.299961 0.0
000250 00 81 be 40 6d ae dd 3f d6 43 3f 40 44 f8 02 40
       5.953247 1.7318856 2.9885154 2.046403
000260 46 0b 03 41 59 16 62 40 f9 82 9d c0 41 ef e8 40
       8.190252 3.532614 -4.922238 7.279206
000270 a1 19 e0 3e 85 58 16 c1 87 40 92 c0 07 24 9d 3f
       0.43769553 -9.396611 -4.570377 1.227662
000280 26 89 89 c1 ee 50 68 40 ce db 1e 3f b8 52 c4 bf
       -17.191967 3.6299396 0.62054145 -1.5337744
000290 9b 04 9c c1 59 57 4e c1 b1 7d b7 c0 75 44 bd c1
       -19.502249 -12.896325 -5.734093 -23.658426
0002a0 00 00 00 00 0c 04 4b be a9 93 74 40 3d cc 2a c0
       0.0 -0.19825763 3.8215125 -2.6687157
0002b0 fb 02 0d 41 c4 19 06 40 e7 b3 4c c1 6d 4a a5 c0
       8.813228 2.0953226 -12.793921 -5.165335
0002c0 2a 1b d5 c0 d9 56 83 c1 b7 12 6e c1 a6 3d c9 bf
       -6.659566 -16.417406 -14.879569 -1.5721939
0002d0 b9 69 86 c1 7c 72 89 40 9c d9 cb 40 df 5c 0c c1
       -16.801622 4.295225 6.3703136 -8.772674
0002e0 26 26 a0 c1 c0 9b 20 c1 2d 84 c3 c0 be b9 b6 c1
       -20.018627 -10.038025 -6.1098847 -22.840694
0002f0 c4 e9 bf 40 00 00 00 00 3f e7 63 40 b4 70 e8 c0
       5.997286 0.0 3.5609891 -7.2637577
000300 2f cf f9 40 49 b2 98 40 ce b4 fb c0 19 fc b3 c0
       7.806541 4.7717633 -7.865821 -5.6245236
000310 29 4c 86 c0 59 49 62 c1 ad bb 5d c1 22 c0 98 3f
       -4.196797 -14.142907 -13.858319 1.1933634
000320 07 82 9f c1 47 5f 56 3f 74 91 36 40 0f f0 c6 c0
       -19.93849 0.8373913 2.8526278 -6.216804
000330 5a b6 a5 c1 14 4f 6d c1 32 af 20 c1 e2 71 d3 c1
       -20.714039 -14.831806 -10.042772 -26.430607
000340 ba cc ec 40 ac 1f 30 40 00 00 00 00 ff 81 d9 c0
       7.399991 2.751933 0.0 -6.7971187
000350 71 2f cf 40 92 dd 66 40 e0 33 54 c1 6d 1b 1e c1
       6.474541 3.6072736 -13.262665 -9.881696
000360 3d 32 dc c0 2b ff 9c c1 10 e6 81 c1 d3 23 df be
       -6.8811326 -19.624594 -16.237335 -0.4358202
000370 a6 9a 16 3f 18 f0 a4 3f ca ef 8b bf 54 1d 72 41
       0.58829725 1.2885771 -1.0932553 15.13216
000380 28 db c1 bf 3e 12 6b 3f bf a0 0c 40 06 e3 da 3f
       -1.5145006 0.9182471 2.1973112 1.7100532
000390 6a 62 e6 3f 24 b9 49 3e 9a 17 3c 3f 00 00 00 00
       1.7998784 0.19699532 0.73473513 0.0
0003a0 ab ad 6d 40 08 4c e7 3f 33 cc c0 3f 0f 8f 05 c0
       3.7137249 1.8070078 1.5062317 -2.0868566
0003b0 8b 29 b4 bf 41 ff fc 40 23 83 02 41 e6 4d 8a 3d
       -1.4075178 7.906159 8.157016 0.06753139
0003c0 e3 48 1d c1 46 e2 0a 41 7e 83 f2 40 31 59 1d 40
       -9.830295 8.680243 7.5785513 2.4585688
0003d0 ff 4b 66 c1 dd 94 30 c0 4e 66 7b 40 95 66 80 c1
       -14.393554 -2.759086 3.9281192 -16.050089
0003e0 3b 67 ef 40 65 55 d9 3f 21 02 94 40 db 0f 34 40
       7.4813514 1.6979185 4.62526 2.8134677
0003f0 00 00 00 00 53 e9 7b 40 5d 3d f6 c0 73 43 7a bf
       0.0 3.936116 -7.6949906 -0.9775917

snn.fc_out.weight f4 [9, 20]
000000 c6 91 9f c0 ea 06 2b 40 d0 cf 94 40 86 3d 3a c1
       -4.9865446 2.672297 4.6503677 -11.64002
000010 42 ed 46 bf 9f 67 16 c1 16 62 e6 c0 f2 df 13 41
       -0.77705777 -9.400298 -7.1994734 9.242174
000020 53 6f 56 c0 01 66 98 bd 6c 5c ad bf 34 5d 2d c1
       -3.3505447 -0.07441331 -1.354383 -10.835255
000030 1a 7f 1a c0 7f a6 a6 bf b7 8d 8f c0 0d ea f1 40
       -2.4140077 -1.301956 -4.486049 7.5598207
000040 2c 5f 95 40 80 1c 46 c0 dd 05 e1 c0 37 5c 68 be
       4.6678677 -3.0954895 -7.0319657 -0.22691427
000050 35 4d 46 c0 5a d2 9e 3f 71 3c 0f 41 25 1f 66 c0
       -3.0984623 1.2407944 8.952256 -3.595651
000060 8d 15 97 bf a9 3f 3a 40 56 54 05 3f 7f e0 d7 bf
       -1.1803452 2.9101355 0.5208181 -1.6865386
000070 10 ad 0d 3f fc 14 26 40 d9 77 f4 3f 70 39 e9 bf
       0.553422 2.5950308 1.9099075 -1.8220654
000080 a7 70 20 40 11 c8 ac 3f a4 71 82 40 3f 0c cd c0
       2.5068758 1.3498555 4.076372 -6.407745
000090 aa c3 52 bf 81 ea 06 40 20 11 ad 3e 16 19 d7 3f
       -0.8232981 2.108063 0.33802128 1.6804531
0000a0 63 98 70 40 1c 0d 54 bf 4f 3b f5 be 59 1c 83 bf
       3.759301 -0.82832503 -0.4789681 -1.0243026
0000b0 fe cd 7b 40 2b 74 9e 3e 61 ae 2a 3f bb 58 2b bf
       3.9344478 0.30948004 0.6667233 -0.66932267
0000c0 72 42 85 40 ce 5f 36 3e dd 00 fa 3f 79 a5 2a c0
       4.164361 0.17809984 1.9531513 -2.6663496
0000d0 b3 01 e7 3f 27 a6 1f 3f 82 75 38 3f c8 aa 3e 40
       1.8047394 0.62362903 0.720543 2.9791737
0000e0 68 db d8 c0 c5 3c 98 c0 76 6e 59 c0 47 9d 3d 3f
       -6.776783 -4.757418 -3.397367 0.7406811
0000f0 95 b6 fd 3f 35 d5 b9 bf 76 da 3c c0 63 ff d0 c0
       1.9821345 -1.4518191 -2.9508338 -6.531175
000100 94 66 b2 bf 88 02 77 40 57 2f 53 bf b2 2f ca 3d
       -1.3937554 3.8595295 -0.8249411 0.098723784
000110 5f 32 e0 bd f1 5f b7 3f 5f b4 f1 3e e3 87 00 c0
       -0.109471075 1.4326154 0.47207925 -2.0082939
000120 ad bc d0 3e 7d ed cd 3f ed ed 37 40 f8 94 85 40
       0.40768948 1.6088101 2.8738968 4.1744347
000130 00 7b 64 40 eb 6f 53 c0 49 d9 1a 3d d2 48 93 3f
       3.5700073 -3.303706 0.037804876 1.1506598
000140 4b ae ec bf a2 e9 e7 3f db d3 f3 3c ab f8 6c c0
       -1.849069 1.8118174 0.029764106 -3.7026775
000150 76 a9 06 bf 49 3e c7 bf 7e a9 ad 40 4b e2 65 bf
       -0.52602327 -1.5565883 5.42694 -0.8979842
000160 b6 e4 1d c0 8f c8 3c bf 90 48 f6 bf 65 0c e9 c0
       -2.4670844 -0.7374353 -1.9240894 -7.282763
000170 ac bb 8c 3f 22 38 d7 bf a6 7d bf bf 6e fa b2 3f
       1.0994773 -1.6814005 -1.496022 1.3982675
000180 01 59 0b c0 cb b6 87 40 98 d7 1e bf 8d 96 a4 bf
       -2.1773074 4.2410636 -0.6204772 -1.2858444
000190 43 ee 33 40 86 92 b7 bf ba f4 af c0 b6 12 42 3f
       2.8114173 -1.434159 -5.498624 0.758098
0001a0 c9 37 0e c0 f6 82 3f c0 66 bb 27 c0 10 4a b7 be
       -2.2221549 -2.9923682 -2.620813 -0.35798693
0001b0 cb 84 86 c0 3a 4e 74 bf f4 0c 28 c0 09 86 e2 3f
       -4.20371 -0.95431864 -2.6257906 1.7697154
0001c0 c6 05 20 c0 99 e8 02 bf f0 cf 82 c0 90 29 89 bf
       -2.5003524 -0.51136166 -4.087883 -1.0715809
0001d0 56 5c 60 40 67 f1 6a be 19 b1 92 3d 1a 01 fa be
       3.5056357 -0.2294365 0.07162685 -0.48828965
0001e0 c3 b8 03 c1 95 3d f8 c0 84 d1 21 c1 2c a6 af 40
       -8.232608 -7.7575173 -10.113651 5.4890347
0001f0 d6 1d 62 c0 82 3a 0a 40 54 b7 ec bf 26 a9 e9 be
       -3.533071 2.159821 -1.8493447 -0.45636863
000200 c7 96 b8 c0 29 c2 02 c1 e2 4d de c0 75 88 a8 40
       -5.7684054 -8.172402 -6.947007 5.2666574
000210 64 30 c2 c0 57 65 c9 c0 07 b2 ea c0 81 3a 47 c0
       -6.068407 -6.2936206 -7.334232 -3.1129458
000220 f6 45 3a c0 bf 5b f9 3f 4e 00 12 3f 03 a5 83 c0
       -2.91052 1.9481124 0.57031715 -4.113893
000230 33 52 8f c0 61 ba 17 c0 4a b8 a3 c0 0e 92 0a 41
       -4.478784 -2.3707507 -5.116246 8.660658
000240 c2 5f f7 3f 56 92 10 c0 e9 fa 7f bf b7 c5 2a c0
       1.9326098 -2.2589316 -0.99992234 -2.6683176
000250 a9 6a 69 40 ed 51 3f c0 2a 41 07 40 76 69 65 40
       3.647135 -2.9893754 2.1133523 3.5845618
000260 be 48 74 3e 29 ab b3 bf d5 8e a7 c0 f0 37 04 c1
       0.23855874 -1.4036609 -5.2361856 -8.263657
000270 ed e0 8a c0 ae 3c a3 3e b2 6d c4 3f b1 00 59 c0
       -4.3399568 0.31882232 1.5345976 -3.3906672
000280 ce bf 7e c0 3f ee 2b c1 5b f4 26 c0 cd ab ae 40
       -3.9804568 -10.745666 -2.6086643 5.458472
000290 45 46 de c0 6b 6c 54 c1 1b 62 1a c1 1f df 88 3d
       -6.946078 -13.276469 -9.648952 0.06683182
0002a0 6e 74 08 c1 21 e5 62 c0 21 d3 97 c0 8e 2d b2 40
       -8.528425 -3.545235 -4.7445226 5.568061
0002b0 1e a9 49 c1 3b 77 89 c0 c5 83 18 40 fd a7 a6 c0
       -12.603788 -4.2958045 2.3830426 -5.2080064
0002c0 19 1d 74 bf eb 4e 33 40 6e ef 63 3f 41 d7 04 bf
       -0.953569 2.8016918 0.89037216 -0.5189095

exp_avg f4 [20, 416]
000000 dd e8 4d ba 9b 95 86 ba ff 82 93 b9 77 79 57 3a
       -0.0007854829 -0.0010267975 -0.00028135625 0.0008219699
000010 68 8e 99 ba 4a 60 a4 ba e5 31 03 bb d0 04 58 bb
       -0.0011715414 -0.0012540903 -0.0020018753 -0.0032961853
000020 48 cd 86 bb 2e be 7c 3a 1b cb 2e 3b c4 bd 9a b9
       -0.004113827 0.0009641376 0.0026671353 -0.00029514555
000030 2b dd 49 3b 58 0d ad ba 60 60 a4 3a 34 1a 1a 3b
       0.0030801992 -0.0013202829 0.0012540929 0.0023514153
000040 40 2d 2c ba 32 2d 3b ba 85 47 36 ba 11 5c cc 39
       -0.0006568022 -0.00071402185 -0.0006953406 0.00038978507
000050 8a 71 94 bb 79 57 53 39 0d 11 27 39 d8 29 16 3b
       -0.0045301365 0.00020155114 0.00015932713 0.0022913124
000060 62 58 98 ba 09 cb 24 bb f3 55 e7 3a 80 1b 93 bb
       -0.001162302 -0.0025145432 0.0017649516 -0.0044893622
000070 61 59 dd ba 4a a0 50 39 39 56 93 ba a8 9e bd b9
       -0.0016887599 0.00019896138 -0.0011240906 -0.00036167097
000080 5c 10 82 3b 18 a7 52 ba 54 23 7b 3a d2 a9 7f 3b
       0.0039692353 -0.0008035763 0.00095801544 0.0039011133
000090 eb 6e 0a 3a 40 e7 bd ba c2 7b ee b9 f1 5f 32 3b
       0.00052808103 -0.0014488474 -0.00045487104 0.002721783
0000a0 51 3c ee b9 de 0e 7e bb a8 2d fd 39 cd d6 3f 39
       -0.00045439837 -0.0038766186 0.00048289937 0.00018295199
0000b0 19 0d 29 3b 2e 7d cb 39 b1 5e 10 ba a2 79 94 ba
       0.002579516 0.00038812443 -0.0005507274 -0.0011327753
0000c0 ed 61 84 bb 93 c6 81 3b da ff a5 ba db dd 95 bb
       -0.004039994 0.0039604395 -0.0012664751 -0.0045735664
0000d0 11 3a 54 ba 11 8f c8 39 d5 b1 d8 39 80 ce dc ba
       -0.0008095811 0.00038253565 0.00041331226 -0.001684621
0000e0 04 2a b6 3a 5b 43 10 bb 79 a0 36 ba ab 2c 9c ba
       0.001389802 -0.0022012803 -0.00069666613 -0.0011915168
0000f0 32 7e 2c 3a d6 78 fc b9 75 42 0e bb 2d 4c fd 3a
       0.0006580084 -0.00048155215 -0.0021707092 0.001932507
000100 b4 7b 73 bb 74 35 81 ba f0 60 0d 3b 98 c3 4e ba
       -0.003715259 -0.0009857849 0.0021572672 -0.0007887422
000110 bd 7c 62 bb c1 37 96 3a 63 ca 23 bb e0 1d 88 3a
       -0.0034559213 0.0011460708 -0.0024992458 0.001038488
000120 ad f4 b4 39 99 52 73 bb 16 d2 bb 36 1c 64 72 b9
       0.00034514573 -0.003712809 5.5974915e-06 -0.00023116212
000130 e8 ef 79 ba 40 eb e9 b8 3e c7 59 ba 6d 7b 85 3a
       -0.0009534345 -0.000111541245 -0.00083075825 0.0010183878
000140 ca b8 e8 b9 fe d4 8a 3a 07 d4 13 3b 3a ff b1 3a
       -0.00044388167 0.0010592041 0.0022556798 0.0013580092
000150 82 b6 74 39 83 3b 86 ba 09 40 b6 ba 01 d2 c1 3a
       0.00023337643 -0.0010241125 -0.0013904582 0.0014787317
000160 9d 1a 85 3a d5 cf 1a 3a 20 c5 d9 ba fd 82 fd ba
       0.0010155026 0.0005905603 -0.0016614534 -0.0019341406
000170 bd f2 03 ba 42 2c 35 39 f2 ca 48 3a 5e 8c 7f 3a
       -0.0005033424 0.00017277992 0.0007659636 0.00097483944
000180 20 50 cb 3a da 2e db bb c4 00 dc b8 77 4f da 37
       0.001551155 -0.0066889348 -0.0001049056 2.6024629e-05
000190 52 3a 0a 3b d8 f9 9d 3a fd b6 6a ba f1 7b 3d 39
       0.002109189 0.0012052609 -0.0008953659 0.00018070616
0001a0 81 5f 1f bb 10 a7 d7 36 b3 6f 2e 3a f3 73 7c 3a
       -0.00243184 6.426948e-06 0.0006654218 0.0009630315
0001b0 ff 5a 69 3a 92 72 f4 ba 4a 1a 08 3b 54 f7 8e 3a
       0.0008901804 -0.0018649867 0.0020767623 0.001090745
0001c0 01 3a c6 3a 7c eb 55 ba d0 fc 00 3a 54 28 a4 3a
       0.0015123488 -0.0008160395 0.00049204845 0.0012524226
0001d0 30 0d ac 3a 6e 81 54 ba 6d b2 08 ba bd 24 5d ba
       0.0013126489 -0.0008106445 -0.0005214576 -0.00084359554
0001e0 ea da fb ba 61 92 16 3b e1 c2 5b b9 d5 20 cc 3a
       -0.0019215022 0.0022975432 -0.00020958066 0.001557375
0001f0 07 59 08 37 2d a6 8c ba 4c dd 85 b9 2d 13 ea 38
       8.12696e-06 -0.0010730677 -0.00025532616 0.00011161561
000200 45 b8 d8 3a 67 66 c4 b8 b5 62 6d ba 76 d9 aa 39
       0.0016534409 -9.365082e-05 -0.0009055541 0.00032586948
000210 d7 20 2f ba 8c f8 ee 39 bd a5 1e 3b 03 23 79 3a
       -0.0006680614 0.0004558008 0.0024207674 0.00095038133
000220 8f ee 4b ba c2 20 b2 b8 c8 87 4a 3a 3a c9 b5 39
       -0.00077793834 -8.493803e-05 0.00077259215 0.00034672936
000230 0f 30 41 3a 9e 73 28 ba 99 2d 37 bb 86 e6 f1 b9
       0.0007369527 -0.000642592 -0.0027950762 -0.00046138855
000240 14 3e 0b 3b 5d 12 82 ba 9d 4a 0a ba 32 25 12 3b
       0.0021246718 -0.0009923686 -0.00052754005 0.0022300002
000250 07 3b 78 3a 32 9f 35 ba 31 8e 05 3b 66 74 ab ba
       0.0009469245 -0.0006928324 0.0020378942 -0.0013080954
000260 a3 85 02 3a c7 d1 4a 3a f5 fe 18 3b 76 17 53 38
       0.000497902 0.0007736948 0.0023345326 5.032817e-05
000270 ce a2 ff ba 32 c1 96 3a 83 37 37 3b 30 10 a2 ba
       -0.0019503476 0.0011501668 0.0027956672 -0.0012364443
000280 1f 2d 25 bb 9a ec ce ba 40 c6 8f 3b 1e 11 f7 3a
       -0.0025203896 -0.0015787065 0.004387647 0.0018849706
000290 b5 94 ce 3a 54 49 8c 3a 03 2c 9d b9 62 c4 bb 3a
       0.0015760871 0.0010703006 -0.00029978165 0.0014325494
0002a0 03 5f c0 3a 9b b0 e5 39 6c 75 74 3a a4 f8 84 3b
       0.0014676753 0.00043809865 0.00093253586 0.0040579606
0002b0 28 3d e1 ba a6 24 fd b9 b0 e4 bf 3b 1f da 1f 3a
       -0.0017184364 -0.00048283226 0.005856119 0.0006097871
0002c0 87 85 7b bb 0a 42 48 bb 2f 4b 10 bb 65 74 fe 3a
       -0.003837915 -0.003055694 -0.002201747 0.001941335
0002d0 1d d3 37 3b b7 f3 85 bb 23 be e8 3a 19 ff 90 ba
       0.0028049417 -0.004087891 0.001775686 -0.0011062353
0002e0 9a 93 83 3a cb f9 c2 ba 04 15 b7 3a c9 c4 7a 3a
       0.0010038496 -0.001487547 0.0013968055 0.00095660664
0002f0 93 d6 91 b8 02 55 0b 3b 5b f7 0c 3a 12 1d 29 ba
       -6.954106e-05 0.0021260385 0.0005377435 -0.000645117
000300 eb 42 67 b9 c4 4f bc ba d4 22 02 39 04 f0 87 3a
       -0.00022054806 -0.0014367034 0.0001241074 0.0010371213
000310 7a 6c 8e 3a 74 52 56 3a 37 6f c5 3a 25 e6 08 3b
       0.0010866069 0.00081757386 0.0015063052 0.002088913
000320 3a a4 1d 3a ca ad e1 3a b3 fa 32 3b cb f7 e2 ba
       0.00060135464 0.0017217931 0.0027310073 -0.001731628
000330 3f ce b2 39 32 ce fe ba 93 ce 49 3a 23 4a 91 ba
       0.0003410447 -0.0019440113 0.00076983235 -0.0011084717
000340 a4 32 48 3a 70 95 32 3a da 43 07 b9 0f c3 5b 3a
       0.00076369406 0.0006812429 -0.0001289988 0.0008383253
000350 e1 36 8e 3a 68 64 a2 bb e0 00 60 ba 17 e7 00 bb
       0.0010850095 -0.004955817 -0.0008545052 -0.001966899
000360 fd 1d c7 3a 56 b0 b8 ba 62 d0 95 38 81 b1 f4 3a
       0.0015191432 -0.0014090638 7.143688e-05 0.0018668623
000370 d3 83 78 ba a1 d4 6e ba cf 29 19 3b 89 8b 91 b9
       -0.00094800926 -0.00091106637 0.0023370867 -0.00027760517
000380 ca db 90 b8 ad 55 45 bb d4 66 32 ba a2 99 4b 3a
       -6.907394e-05 -0.0030110881 -0.0006805484 0.00077667285
000390 75 66 0f bb 21 64 0b bb 88 81 7e bb 20 02 b4 b8
       -0.0021881138 -0.0021269398 -0.003883453 -8.583465e-05
0003a0 1b b3 10 3b 6b 30 1f bb f4 bb 77 39 58 cd 6d 3b
       0.0022079411 -0.0024290334 0.00023625774 0.0036285724
0003b0 80 25 4b bb 51 07 41 ba 91 32 6c 39 a0 b0 73 3b
       -0.0030997694 -0.0007363456 0.00022525551 0.0037184134
0003c0 e3 12 5a bb 62 71 70 3a 7a ac a0 ba 0b e0 bf ba
       -0.0033275418 0.0009172169 -0.0012258433 -0.0014638914
0003d0 10 b7 96 b9 70 03 50 ba dc 57 ba 39 7e ff 2a b9
       -0.00028746622 -0.00079350825 0.00035542145 -0.00016307642
0003e0 79 0a 8d 3a 16 6d 4b 3a 3b 42 91 ba e0 c1 b5 39
       0.0010760567 0.00077600905 -0.001108236 0.00034667458
0003f0 45 4e d4 ba 11 7c f9 3a 17 6f 3a ba ed 29 98 3a
       -0.0016197643 0.0019034167 -0.00071118906 0.0011609175

exp_avg_sq f4 [20, 416]
000000 fb 63 ac 38 64 38 a2 38 55 16 bf 38 c8 9b be 38
       8.220222e-05 7.7352655e-05 9.1117494e-05 9.0889225e-05
000010 c4 b2 d9 38 44 9d a0 38 99 5b 07 39 ed 77 b3 38
       0.00010380664 7.6586875e-05 0.00012908726 8.557723e-05
000020 c4 27 d9 38 3e 67 11 39 35 48 18 39 ba 77 e1 38
       0.00010354773 0.00013866738 0.00014522749 0.00010751137
000030 c8 48 d7 38 c1 bf c2 38 91 b1 d1 38 16 ba 12 39
       0.000102655555 9.286358e-05 9.998971e-05 0.00013992967
000040 31 25 f2 38 d4 cf bb 38 b1 e2 d0 38 7a 0d 1b 39
       0.00011546387 8.955566e-05 9.9604375e-05 0.00014786972
000050 09 6d ae 38 f3 aa 97 38 c8 73 b4 38 66 3a 9f 38
       8.317276e-05 7.232083e-05 8.604635e-05 7.5925884e-05
000060 70 38 cc 38 48 4e 07 39 0a 36 f3 38 23 aa 95 38
       9.73799e-05 0.00012903765 0.000115972085 7.136564e-05
000070 3a 28 b1 38 55 ca b9 38 4e b6 e2 38 41 f5 d0 38
       8.4475105e-05 8.859175e-05 0.00010810477 9.963895e-05
000080 09 c8 ed 38 10 bb c9 38 de f1 ba 38 8e 22 a0 38
       0.000113383 9.61927e-05 8.9142224e-05 7.635831e-05
000090 70 fa e1 38 67 3a a4 38 6e e9 e1 38 c5 b2 f0 38
       0.00010775484 7.831008e-05 0.00010772316 0.0001147739
0000a0 49 4c b2 38 08 2b f8 38 8b ab d3 38 89 08 9d 38
       8.5019106e-05 0.00011833577 0.000100932164 7.487933e-05
0000b0 78 c5 b7 38 98 56 80 38 74 f8 e8 38 43 38 d7 38
       8.7629014e-05 6.119645e-05 0.000111089 0.000102624785
0000c0 ff 04 0d 39 54 ba a6 38 4f 14 ac 38 54 2c da 38
       0.00013448669 7.950203e-05 8.205382e-05 0.00010403307
0000d0 e3 bc 9d 38 29 45 c5 38 70 e0 80 38 55 93 b3 38
       7.521526e-05 9.406574e-05 6.1453204e-05 8.562828e-05
0000e0 18 69 a2 38 d9 f8 b3 38 2c f6 b6 38 07 76 14 39
       7.744337e-05 8.5817366e-05 8.7242894e-05 0.00014158348
0000f0 0c 76 84 38 97 17 a5 38 33 11 f3 38 ba 33 66 38
       6.3162384e-05 7.872207e-05 0.000115903465 5.4884447e-05
000100 ae 2b ea 38 82 90 c3 38 d4 54 a2 38 ea 8a 99 38
       0.000111661255 9.325241e-05 7.7405624e-05 7.321483e-05
000110 e5 fa 8e 38 f2 65 b9 38 48 52 f3 38 f9 62 d3 38
       6.8178204e-05 8.840476e-05 0.00011602469 0.00010079699
000120 ea 65 e0 38 b4 fc 60 38 a4 8d c2 38 a1 df f6 38
       0.00010700135 5.364111e-05 9.2770235e-05 0.00011771848
000130 38 fb a8 38 be cc 92 38 46 a9 f4 38 b2 5d 4b 38
       8.0576574e-05 6.999959e-05 0.00011666356 4.8486232e-05
000140 63 7f c2 38 22 39 aa 38 96 80 d1 38 d6 b3 9c 38
       9.2743685e-05 8.1168735e-05 9.9898476e-05 7.472157e-05
000150 9a c9 6d 38 46 f9 90 38 7b 07 a8 38 f9 a1 b4 38
       5.669296e-05 6.912886e-05 8.0122576e-05 8.6132386e-05
000160 a2 aa 9d 38 27 2c 91 38 ec 5e d3 38 c9 07 0d 39
       7.518126e-05 6.922363e-05 0.000100789446 0.00013449708
000170 a2 0a ab 38 d9 74 af 38 20 ff fc 38 95 83 61 38
       8.155896e-05 8.366415e-05 0.00012063817 5.3766726e-05
000180 3d 7f d5 38 e2 3b e0 38 16 a4 cc 38 4c c8 b9 38
       0.000101803314 0.000106923064 9.7580414e-05 8.8587956e-05
000190 92 5a 93 38 ab 5c 98 38 1d e4 a2 38 50 b4 94 38
       7.026376e-05 7.2651856e-05 7.7672514e-05 7.090776e-05
0001a0 8e 91 58 38 46 e7 50 38 b8 0a 3f 38 6b ec 32 38
       5.163397e-05 4.9806455e-05 4.554793e-05 4.265869e-05
0001b0 f2 28 40 38 66 43 20 38 f2 d9 8c 38 a5 d0 05 39
       4.58145e-05 3.8209742e-05 6.716316e-05 0.00012761595
0001c0 5a 1c 4d 38 ab 73 36 38 81 2a 5b 38 81 84 4a 38
       4.8902213e-05 4.3499906e-05 5.2253254e-05 4.8283957e-05
0001d0 f3 a2 4c 38 a1 cf 24 38 1d e6 4e 38 81 3b 4d 38
       4.878915e-05 3.9294016e-05 4.9328537e-05 4.8931226e-05
0001e0 46 45 40 38 14 c1 5a 38 c0 50 22 38 20 54 2e 38
       4.5840883e-05 5.215507e-05 3.8699014e-05 4.156318e-05
0001f0 28 43 78 38 b8 e9 56 38 ae 06 86 38 87 64 b3 38
       5.919035e-05 5.1239243e-05 6.390862e-05 8.55411e-05
000200 d2 ec 61 38 35 54 35 38 0b bd 53 38 37 c5 30 38
       5.3864736e-05 4.3232187e-05 5.048238e-05 4.214534e-05
000210 bc c7 73 38 fc 96 47 38 d1 38 58 38 3b f3 2f 38
       5.8121732e-05 4.7585912e-05 5.1551327e-05 4.1949777e-05
000220 85 63 25 38 75 79 67 38 97 6f 3e 38 b4 72 40 38
       3.943175e-05 5.5187807e-05 4.5403456e-05 4.5883193e-05
000230 03 39 79 38 86 81 75 38 db d1 8f 38 9b 5e d4 38
       5.9419322e-05 5.853318e-05 6.85786e-05 0.000101265694
000240 34 e2 79 38 67 58 18 38 2d 7d 5c 38 9f 32 2d 38
       5.9576894e-05 3.6321955e-05 5.2568666e-05 4.129356e-05
000250 b6 79 74 38 a5 27 4b 38 27 0f 73 38 d9 03 6a 38
       5.8287485e-05 4.8435893e-05 5.7949826e-05 5.579353e-05
000260 f3 46 56 38 e0 af 84 38 e9 1e 64 38 02 a3 22 38
       5.1087653e-05 6.32701e-05 5.4388223e-05 3.8775623e-05
000270 13 f2 2c 39 2c 11 02 39 3b 8c ef 38 8f 08 f3 38
       0.00016493378 0.00012404163 0.00011422528 0.00011588737
000280 1e 42 1d 39 dc a0 d8 38 06 81 44 39 53 61 3c 39
       0.00014997317 0.00010329645 0.00018740082 0.00017965333
000290 dd c4 f6 38 d0 72 c0 38 af dc 23 39 c4 ec 06 39
       0.00011766863 9.176659e-05 0.00015627102 0.00012867438
0002a0 57 d8 e8 38 fd a0 f6 38 fa 10 01 39 ab 96 cc 38
       0.000111029185 0.000117601805 0.00012308723 9.755542e-05
0002b0 a9 56 28 39 79 3c 1a 39 33 70 09 39 45 2f b9 38
       0.00016054012 0.00014709112 0.00013107136 8.830292e-05
0002c0 96 18 2a 39 81 5b d9 38 60 fa 20 39 c5 ec 0f 39
       0.00016221622 0.0001036441 0.00015352061 0.00013725746
0002d0 91 44 08 39 16 72 cf 38 17 2c aa 38 89 2b ef 38
       0.00012995514 9.891779e-05 8.114444e-05 0.00011404517
0002e0 51 e2 da 38 41 df fe 38 37 a3 2e 39 b5 fe b1 38
       0.00010437205 0.00012153248 0.00016654735 8.4874606e-05
0002f0 c6 55 04 39 ba 75 35 39 e5 ac a3 38 8b a5 e3 38
       0.00012620454 0.00017305362 7.80465e-05 0.00010855038
000300 35 04 1a 39 cd 1f c9 38 f1 25 1e 39 d4 2b 6e 39
       0.00014688152 9.59035e-05 0.00015082188 0.00022713776
000310 d7 06 32 39 17 ff b1 38 5d db e7 38 bb 12 e3 38
       0.00016977951 8.487532e-05 0.00011055798 0.00010827692
000320 fe ba ea 38 7e 89 c0 38 ef 54 39 39 3d 3f bc 38
       0.000111928195 9.180883e-05 0.00017674615 8.9763176e-05
000330 56 8a d1 38 c2 07 c6 38 09 e1 ed 38 bc aa e9 38
       9.991664e-05 9.442821e-05 0.00011342957 0.000111421075
000340 7c 39 d6 38 13 27 1d 39 5c ac 9b 38 a0 9f bc 38
       0.000102150225 0.00014987243 7.4230804e-05 8.994271e-05
000350 e1 ce a8 38 2c 9b d3 38 5d ea 9a 38 da 95 1e 39
       8.0493985e-05 0.00010090167 7.386946e-05 0.00015123878
000360 69 b6 cb 38 e1 74 15 39 b1 55 92 38 90 47 f1 38
       9.713771e-05 0.00014253288 6.977784e-05 0.00011505105
000370 85 79 06 39 f6 a3 98 38 95 7b 62 39 16 ee 8e 38
       0.00012824505 7.278465e-05 0.00021599077 6.8154346e-05
000380 6b c9 c5 38 b2 c7 28 39 2c d2 0e 39 da f1 a4 38
       9.431209e-05 0.00016096121 0.0001362047 7.865178e-05
000390 c8 9e e7 38 c7 f3 e4 38 92 6f 90 38 25 60 3f 39
       0.00011044514 0.00010917294 6.887237e-05 0.00018250996
0003a0 38 f6 c6 38 2d ab e4 38 5d 16 89 38 4c 89 b7 38
       9.4872375e-05 0.00010903771 6.5368346e-05 8.7516935e-05
0003b0 20 35 ac 38 94 9d df 38 66 84 09 39 69 69 9f 38
       8.2114944e-05 0.0001066282 0.0001311466 7.601345e-05
0003c0 19 2b b9 38 21 60 60 39 25 35 a6 38 e0 b6 d7 38
       8.829515e-05 0.00021398115 7.925396e-05 0.00010286062
0003d0 46 da 2a 39 cd fe 3d 39 8b 44 7d 38 79 01 eb 38
       0.00016293777 0.00018119365 6.0383736e-05 0.000112059475
0003e0 57 ea 0f 39 fd 07 32 39 26 42 80 38 1a 96 d3 38
       0.00013724841 0.00016978379 6.115837e-05 0.000100892226
0003f0 7c 87 99 38 4b 66 ee 38 7a 58 6d 38 c4 2f 21 39
       7.3208445e-05 0.00011367778 5.6587603e-05 0.0001537195

exp_avg f4 [20, 20]
000000 00 00 00 00 7c 14 6d 33 b6 99 d7 b8 ef f4 a4 b9
       0.0 5.5199493e-08 -0.0001028063 -0.00031463007
000010 8b cc 7c 3a 7c a9 e5 b9 34 15 03 ba 55 24 d4 ba
       0.00096435164 -0.0004380456 -0.0005000413 -0.0016185144
000020 04 00 00 00 04 00 00 80 04 00 00 00 ce 62 51 b9
       6e-45 -6e-45 6e-45 -0.00019968601
000030 04 00 00 00 04 00 00 00 d7 6a 88 3a c1 2e 8b b7
       6e-45 6e-45 0.0010407817 -1.6591863e-05
000040 3f 58 12 39 34 44 c3 ba 1f 6c 67 39 04 00 00 00
       0.00013956519 -0.0014897645 0.00022070155 6e-45
000050 75 25 3c b8 00 00 00 00 f5 68 2a b6 f2 c3 f5 36
       -4.4857577e-05 0.0 -2.5393067e-06 7.32438e-06
000060 d1 b6 b8 b7 0a 6c 2e b7 ff 11 23 b7 32 08 75 ba
       -2.201964e-05 -1.0396363e-05 -9.719747e-06 -0.00093472295
000070 04 00 00 80 04 00 00 00 04 00 00 00 2e 84 d0 36
       -6e-45 6e-45 6e-45 6.214271e-06
000080 04 00 00 80 04 00 00 00 ad e8 ca b7 85 72 40 35
       -6e-45 6e-45 -2.4188625e-05 7.169222e-07
000090 2c 91 d6 36 64 d1 95 b8 1d 02 ff 36 04 00 00 00
       6.394597e-06 -7.143876e-05 7.599838e-06 6e-45
0000a0 19 f9 dc ba 28 6c 82 33 00 00 00 00 4d 66 af ba
       -0.0016858905 6.07327e-08 0.0 -0.0013381928
0000b0 29 5c bd bb bf 70 a6 b9 4a ae 42 38 73 3b 3a bc
       -0.0057788086 -0.0003174599 4.6415524e-05 -0.011366713
0000c0 04 00 00 80 04 00 00 00 04 00 00 00 50 bc 1b ba
       -6e-45 6e-45 6e-45 -0.00059408415
0000d0 04 00 00 80 04 00 00 00 de 33 e4 ba e9 8c b2 b4
       -6e-45 6e-45 -0.0017410477 -3.325761e-07
0000e0 6f d8 87 b9 a9 fd 44 bb d5 3f c3 ba 04 00 00 00
       -0.00025910462 -0.003005842 -0.0014896343 6e-45
0000f0 d2 ae 47 ba 22 01 bd b0 1d 8a b1 38 00 00 00 00
       -0.0007617298 -1.3751882e-09 8.465743e-05 0.0
000100 10 99 ce 3a 77 1c 60 b8 7f cb ce 38 84 d1 c1 bb
       0.0015762169 -5.343227e-05 9.8607496e-05 -0.005914869
000110 04 00 00 00 04 00 00 80 04 00 00 80 cf 4c fe 39
       6e-45 -6e-45 -6e-45 0.00048503882
000120 04 00 00 00 04 00 00 80 84 72 f2 37 05 76 fc 36
       6e-45 -6e-45 2.8901974e-05 7.5239245e-06
000130 30 b3 e7 38 04 e0 fd b8 f5 21 b5 b9 04 00 00 80
       0.000110483146 -0.00012105706 -0.0003454831 -6e-45
000140 fb 0f 6f b9 28 30 22 b4 70 07 8d b7 8c 21 4e 39
       -0.0002279877 -1.5104945e-07 -1.6811973e-05 0.00019658188
000150 00 00 00 00 b4 49 a3 b8 59 40 05 b9 4d e0 74 3a
       0.0 -7.786174e-05 -0.0001270784 0.0009341285
000160 04 00 00 00 04 00 00 80 04 00 00 80 3e d9 a0 39
       6e-45 -6e-45 -6e-45 0.00030679436
000170 04 00 00 00 04 00 00 80 e3 76 15 39 59 73 1c 39
       6e-45 -6e-45 0.00014254036 0.0001492029
000180 1f 1e c5 37 d9 8b f1 38 7a 37 8c 38 04 00 00 80
       2.3498256e-05 0.00011517824 6.6860535e-05 -6e-45
000190 b6 79 d2 bb 2e e8 9a 35 18 39 51 39 a4 a9 ab ba
       -0.0064232005 1.1541467e-06 0.00019953062 -0.0013096821
0001a0 96 9c 0f bc 00 00 00 00 04 d1 15 3a cc 2e de bc
       -0.00876536 0.0 0.00057150447 -0.027121924
0001b0 04 00 00 80 04 00 00 00 04 00 00 00 0d 5a 17 ba
       -6e-45 6e-45 6e-45 -0.00057736115
0001c0 04 00 00 80 04 00 00 00 b2 3b 55 bb 86 e2 b6 39
       -6e-45 6e-45 -0.0032536802 0.00034882518
0001d0 b1 49 83 ba ac 0b ee bb 1c e1 77 bb 04 00 00 00
       -0.0010016469 -0.007264575 -0.0037823385 6e-45
0001e0 f9 05 a6 bb 6a c1 44 34 26 23 a5 b8 c1 36 5c b9
       -0.00506663 1.8324286e-07 -7.87436e-05 -0.00021001232
0001f0 a5 4b e4 bb 4d f2 8b ba 00 00 00 00 30 49 a0 bc
       -0.0069670253 -0.001067707 0.0 -0.019566149
000200 04 00 00 00 04 00 00 00 04 00 00 00 06 31 88 37
       6e-45 6e-45 6e-45 1.6235292e-05
000210 04 00 00 80 04 00 00 00 18 ed 51 bb 45 0f 2e 37
       -6e-45 6e-45 -0.0032032188 1.0374763e-05
000220 bc a9 f8 b9 a4 d3 c5 bb 6f 71 26 bb 04 00 00 00
       -0.00047428708 -0.0060371924 -0.0025397202 6e-45
000230 ef 46 fd 39 b0 f7 01 b5 29 5a 24 b8 0a 6f 90 39
       0.0004830877 -4.841668e-07 -3.9184615e-05 0.0002754855
000240 79 68 3d 3a ed e6 83 39 f2 e4 0a 39 00 00 00 00
       0.00072253455 0.0002515832 0.00013245994 0.0
000250 04 00 00 00 04 00 00 00 04 00 00 00 71 47 de 38
       6e-45 6e-45 6e-45 0.00010599092
000260 04 00 00 80 04 00 00 00 39 99 d5 39 2b 91 39 b8
       -6e-45 6e-45 0.00040740686 -4.4242635e-05
000270 ff c4 35 39 5a c6 81 3a 6f 3f fe 39 04 00 00 00
       0.00017334892 0.0009901032 0.00048493917 6e-45
000280 01 c9 bd b7 ed cc df 2e 1a 53 e1 33 c0 ec 59 36
       -2.2624155e-05 1.0177268e-10 1.0492495e-07 3.2473326e-06
000290 c8 aa 3f 3a 16 0c 0b b5 d5 b5 61 34 d7 f9 95 39
       0.000731152 -5.179912e-07 2.1020908e-07 0.0002860564
0002a0 00 00 00 00 04 00 00 80 04 00 00 80 5b f3 e4 35
       0.0 -6e-45 -6e-45 1.705815e-06
0002b0 04 00 00 00 04 00 00 80 53 a5 ac b6 18 8f 66 34
       6e-45 -6e-45 -5.1452457e-06 2.1472476e-07
0002c0 1f aa 1f 32 93 d3 01 37 00 e2 34 36 04 00 00 80
       9.293699e-09 7.73826e-06 2.695364e-06 -6e-45
0002d0 40 1d 2d b7 20 89 9e 2e 03 91 cb b2 04 f7 84 b3
       -1.0318414e-05 7.2093664e-11 -2.3698254e-08 -6.191661e-08
0002e0 a2 96 0c 39 bb 46 16 b5 f4 2f 4c b1 b7 08 fd b8
       0.00013407556 -5.598228e-07 -2.9713165e-09 -0.000120656034
0002f0 04 00 00 80 00 00 00 00 04 00 00 00 7d cd a7 34
       -6e-45 0.0 6e-45 3.1255686e-07
000300 04 00 00 80 04 00 00 00 a2 83 e6 b6 4a 5e 77 33
       -6e-45 6e-45 -6.869858e-06 5.7594924e-08
000310 b3 7d ff b3 ea d4 1b b7 a5 ec 07 b6 04 00 00 00
       -1.18972274e-07 -9.288293e-06 -2.0254313e-06 6e-45
000320 d1 12 02 b7 29 fd 2b 2e 3b cd 22 33 66 53 b5 35
       -7.752985e-06 3.910575e-11 3.790522e-08 1.3509823e-06
000330 96 4d d8 39 bd 3b e5 b3 e8 20 e6 33 32 4c 48 39
       0.00041256536 -1.067451e-07 1.0716195e-07 0.00019101871
000340 04 00 00 80 04 00 00 80 00 00 00 00 0f 8e 5e 35
       -6e-45 -6e-45 0.0 8.2908167e-07
000350 04 00 00 80 04 00 00 80 0e 13 00 b6 ee 0e d8 33
       -6e-45 -6e-45 -1.9084578e-06 1.00609995e-07
000360 45 fd af b2 bf 10 bb 36 8f ef 02 36 04 00 00 00
       -2.0487855e-08 5.574984e-06 1.951095e-06 6e-45
000370 49 74 3e 39 b7 00 b0 33 48 b1 3b 39 70 fc b0 39
       0.00018163132 8.195769e-08 0.00017899752 0.00033757417
000380 80 4d 66 3a ae 2b 2f 3a dc de 19 3a f5 10 f8 bb
       0.0008785352 0.0006682229 0.00058696955 -0.007570381
000390 04 00 00 00 04 00 00 80 04 00 00 80 00 00 00 00
       6e-45 -6e-45 -6e-45 0.0
0003a0 04 00 00 00 04 00 00 80 cd 97 99 3a a8 04 75 39
       6e-45 -6e-45 0.0011718214 0.00023366755
0003b0 9f 68 89 39 28 fa c1 39 d0 67 8e b8 04 00 00 80
       0.00026208625 0.0003699821 -6.790424e-05 -6e-45
0003c0 dc 09 65 b8 49 4a 9a 30 de 6f 46 34 18 a1 ca 36
       -5.4607037e-05 1.1226088e-09 1.8480884e-07 6.038823e-06
0003d0 c4 fc 31 3a 33 f7 45 b6 4a 78 c9 34 c5 6e 80 b9
       0.0006789679 -2.9499176e-06 3.752669e-07 -0.00024496592
0003e0 04 00 00 80 04 00 00 00 04 00 00 00 d6 5b 72 36
       -6e-45 6e-45 6e-45 3.6114266e-06
0003f0 00 00 00 00 04 00 00 00 0d 48 9b b7 b3 68 46 35
       0.0 6e-45 -1.8510991e-05 7.3913105e-07

exp_avg_sq f4 [20, 20]
000000 00 00 00 00 7f 00 60 2f c4 21 86 34 8a f8 5c 38
       0.0 2.0372858e-10 2.4984013e-07 5.2683557e-05
000010 96 7e 9a 3a 59 84 68 37 e9 df a9 36 8d fd 94 3b
       0.0011786993 1.3859092e-05 5.062659e-06 0.004546827
000020 6e d8 0a 13 fc 4a c2 10 14 13 c3 0e 8a db b4 37
       1.7524757e-27 7.663504e-29 4.8089583e-30 2.1559903e-05
000030 1a f1 57 1a 7a 0a 3b 0e 9f 3a a0 38 d2 37 15 36
       4.4655718e-23 2.3054574e-30 7.6403136e-05 2.2235222e-06
000040 21 4d 15 37 20 bf 20 3a 6a 8a 08 39 72 d1 38 0c
       8.89905e-06 0.00061319955 0.00013021534 1.4237872e-31
000050 67 7d 38 34 00 00 00 00 ae 32 dd 31 d2 6e 91 33
       1.7181956e-07 0.0 6.437708e-09 6.772247e-08
000060 32 a4 ba 36 8d 2b b7 31 2c fe 9a 32 b9 3e 94 37
       5.562347e-06 5.330952e-09 1.8043544e-08 1.7672182e-05
000070 5f 8b 00 12 c2 60 b0 0f 50 37 ac 0d fc 2c 4c 33
       4.0561466e-28 1.739221e-29 1.0613634e-30 4.7538364e-08
000080 87 7f 77 18 c1 b0 13 0d ee b1 64 33 4a ce 81 32
       3.1988387e-24 4.551063e-31 5.3247213e-08 1.5111386e-08
000090 da cf 02 32 d2 cf b2 34 28 b3 31 33 9b 7f ab 0a
       7.614256e-09 3.3306293e-07 4.1373966e-08 1.6514701e-32
0000a0 b2 28 03 38 f7 0c b9 2b 00 00 00 00 ee ed 5c 37
       3.1270734e-05 1.3148639e-12 0.0 1.3168419e-05
0000b0 7f 27 69 39 a9 e6 bf 36 73 fd 16 36 63 dc 66 3a
       0.00022235325 5.719096e-06 2.2499269e-06 0.0008806644
0000c0 8f 16 83 13 b9 00 67 11 ce 73 4d 0f 95 70 b8 36
       3.3091294e-27 1.822291e-28 1.01295835e-29 5.4967336e-06
0000d0 34 73 bb 19 d3 fa 5f 0e d7 ab f7 37 a2 2e ef 34
       1.9381877e-23 2.760764e-30 2.9524714e-05 4.455115e-07
0000e0 10 ac 74 36 95 e6 2d 39 15 49 f1 37 d5 a4 b4 0b
       3.6458987e-06 0.00016584464 2.876347e-05 6.958149e-32
0000f0 b1 45 8b 38 03 87 a4 2d 9a 52 80 32 00 00 00 00
       6.6410175e-05 1.8704599e-11 1.4938724e-08 0.0
000100 b3 5a 6f 3a 2c 14 31 36 98 2c 37 35 f8 09 54 3b
       0.00091306417 2.6386797e-06 6.8237705e-07 0.0032354575
000110 36 79 f7 12 05 3d 6c 11 9e 48 48 0f 9b a7 7a 35
       1.5617772e-27 1.863592e-28 9.874747e-30 9.3376156e-07
000120 b8 7c 25 19 95 da aa 0e 55 ce ca 37 8d 5f 1e 34
       8.555487e-24 4.2118722e-30 2.4176357e-05 1.4749658e-07
000130 e4 e8 e5 34 b3 2c 18 39 d4 37 c1 37 a5 da cf 0c
       4.2824024e-07 0.00014512501 2.303339e-05 3.2024992e-31
000140 32 ad 95 37 93 5c 25 2e 00 f6 e7 33 b9 09 77 37
       1.7842834e-05 3.759888e-11 1.0801523e-07 1.4724611e-05
000150 00 00 00 00 e5 98 f9 35 62 e9 be 35 c2 34 2b 3a
       0.0 1.8596444e-06 1.4224026e-06 0.0006530994
000160 a6 0d b8 13 d2 a8 e0 11 95 6d dd 0f b7 30 ef 36
       4.646159e-27 3.5445012e-28 2.1834492e-29 7.128426e-06
000170 e7 01 19 1a 14 0a 35 0f bc d6 38 37 a8 89 2d 35
       3.1641195e-23 8.92593e-30 1.1017251e-05 6.464784e-07
000180 fc 65 0f 36 5b 42 c7 38 0e c1 92 37 77 68 f4 0c
       2.1368023e-06 9.501419e-05 1.7494454e-05 3.7657025e-31
000190 af 5f 04 3a 89 04 1c 31 79 30 58 35 6a b0 1c 39
       0.00050496584 2.2703566e-09 8.053681e-07 0.00014943039
0001a0 20 2d 5f 3b 00 00 00 00 7a f7 2a 37 45 45 51 3c
       0.0034053996 0.0 1.019041e-05 0.012772863
0001b0 41 37 ae 11 08 9b 91 0f 22 60 7e 0d 92 17 92 38
       2.7486412e-28 1.435782e-29 7.838551e-31 6.966213e-05
0001c0 ca b0 b4 19 bd c3 13 0d f1 ac 9e 39 f4 3c a6 36
       1.8682968e-23 4.5533484e-31 0.0003026496 4.9542814e-06
0001d0 85 f7 dd 37 aa da d0 3a 43 05 b2 39 8f 93 87 0b
       2.6460513e-05 0.0015934308 0.00033954726 5.222213e-32
0001e0 5c 61 b7 38 7d 55 0d 2f c0 a7 af 33 34 2a cb 37
       8.7442546e-05 1.2854247e-10 8.179586e-08 2.4219138e-05
0001f0 b1 f2 23 3a 49 fb bf 36 00 00 00 00 e8 d8 27 3b
       0.00062541204 5.721497e-06 0.0 0.0025611464
000200 e0 26 d9 11 34 03 20 10 7d ce 70 0e ef 85 20 37
       3.4260522e-28 3.1556904e-29 2.9681704e-30 9.567927e-06
000210 ce cd 85 18 f7 e3 f0 0d b7 a2 53 38 15 b8 1e 35
       3.4587504e-24 1.48460225e-30 5.045786e-05 5.912746e-07
000220 34 0c 8a 36 c6 17 be 39 1b ea 86 38 84 11 80 0b
       4.114141e-06 0.00036257337 6.4332235e-05 4.933016e-32
000230 0c bc be 35 7a ac 76 30 1d 7e a8 33 fd cd 2a 36
       1.4210832e-06 8.973938e-10 7.8460495e-08 2.5451875e-06
000240 86 b6 91 37 26 5d b1 34 0f 06 fe 34 00 00 00 00
       1.7370341e-05 3.3036594e-07 4.7315595e-07 0.0
000250 b1 a4 95 13 34 92 3c 11 72 a3 13 0f ea 74 a7 35
       3.7775286e-27 1.4875637e-28 7.279138e-30 1.2476496e-06
000260 7b 29 e1 1a 2d df 24 0e 1f b3 89 35 d4 08 43 34
       9.3124834e-23 2.0322016e-30 1.0259427e-06 1.8164002e-07
000270 75 99 b8 34 16 f6 8e 37 76 a4 29 36 5a f9 09 0c
       3.4384325e-07 1.7042312e-05 2.5278691e-06 1.0629133e-31
000280 33 5a e2 32 6f f6 eb 24 42 7c ed 29 41 e4 d5 2e
       2.635088e-08 1.0233248e-16 1.05464696e-13 9.7266646e-11
000290 b7 97 0e 36 c5 48 0f 2e cb e5 56 2c 84 19 db 36
       2.1247959e-06 3.2579068e-11 3.053879e-12 6.529679e-06
0002a0 00 00 00 00 a4 c3 5e 11 1e 35 fe 0e a4 4d e3 2d
       0.0 1.7572999e-28 6.2666984e-30 2.5841392e-11
0002b0 19 aa 5b 17 a4 e7 a9 0e 1c 79 a0 31 51 09 85 2b
       7.097741e-25 4.188478e-30 4.6703814e-09 9.452804e-13
0002c0 d5 1e ba 2d 10 1a 2e 32 6b 83 b5 30 a1 ba 45 0c
       2.1159444e-11 1.0134059e-08 1.3206835e-09 1.523249e-31
0002d0 ca 0a 46 32 94 c4 d8 23 41 94 a0 29 2c 8b 18 2e
       1.152757e-08 2.3502021e-17 7.131145e-14 3.4684408e-11
0002e0 8d fc 25 35 06 13 e1 2d 13 fe ef 2b a8 7e 06 36
       6.18348e-07 2.5587987e-11 1.7052491e-12 2.004128e-06
0002f0 e8 31 5e 13 00 00 00 00 30 c8 be 0e 88 06 21 2d
       2.8044945e-27 0.0 4.703139e-30 9.153241e-12
000300 e9 c1 c3 15 78 b7 99 0d 27 1f 28 31 e7 d7 ec 2a
       7.906581e-26 9.4735215e-31 2.4464926e-09 4.2071834e-13
000310 5f ac 80 2d f9 44 bb 31 4a 5d 36 30 9f 6f d5 0a
       1.4628463e-11 5.4502576e-09 6.6343786e-10 2.0553141e-32
000320 8d ff f1 31 96 5f 78 23 4f b7 1e 29 c7 3c eb 2d
       7.043076e-09 1.3464348e-17 3.5242042e-14 2.6743397e-11
000330 97 16 25 35 b4 c2 5c 2d c7 ad 86 2b f5 be fb 35
       6.150016e-07 1.2548785e-11 9.569506e-13 1.8756533e-06
000340 d3 4e 00 12 5b 64 dd 10 00 00 00 00 29 55 e9 2c
       4.0486837e-28 8.732375e-29 0.0 6.631713e-12
000350 6d bf c6 13 63 15 63 0e 34 db ad 30 94 fe 8f 2a
       5.0170987e-27 2.7990208e-30 1.2649708e-09 2.5578552e-13
000360 91 28 cb 2c 7f 4c 48 31 1d 39 c3 2f 55 29 1a 0c
       5.774111e-12 2.9147313e-09 3.5510875e-10 1.1876166e-31
000370 ee 90 df 38 9f 0a 20 2e 98 9d 35 33 e4 d3 82 36
       0.00010660464 3.638922e-11 4.2285677e-08 3.898969e-06
000380 fc 43 89 3a 6c bd a1 36 51 98 e0 35 0c a6 79 3b
       0.0010472531 4.8202255e-06 1.673363e-06 0.0038093356
000390 00 c5 92 12 4d d0 c4 11 09 2f 55 0f 00 00 00 00
       9.26246e-28 3.1051723e-28 1.05107694e-29 0.0
0003a0 c4 99 62 19 b0 93 38 0f 92 c6 39 38 7d 87 9c 34
       1.1714979e-23 9.100344e-30 4.429237e-05 2.9155845e-07
0003b0 fe 33 7d 35 89 52 72 39 1f aa 2a 38 6a 8c a4 0d
       9.4325503e-07 0.00023109665 4.0689596e-05 1.0141084e-30
0003c0 52 30 1d 34 e4 cb 48 28 db 9d 22 2c 4f dd 5c 30
       1.4639343e-07 1.1146442e-14 2.3109212e-12 8.035003e-10
0003d0 8a c6 f6 36 a3 1b 9f 2f 30 e5 11 2e 49 dc c0 37
       7.3544843e-06 2.8941569e-10 3.3172742e-11 2.2990762e-05
0003e0 12 d7 0a 12 18 be db 0f a2 92 9a 0d 9a ee 8e 2f
       4.3810217e-28 2.1668289e-29 9.526283e-31 2.5999186e-10
0003f0 00 00 00 00 0e aa 6a 0d 23 8f 10 33 0c c4 79 2d
       0.0 7.2311513e-31 3.3657795e-08 1.41975424e-11
