checkpoints/RNN_215.pt (torch, 111359 bytes, 9 tensors)

snn.l1.input_weights f4 [20, 416]
0.289809 1.0992037 0.6377051 0.38860294 -0.38767672 0.69950545 0.065924525 0.6998925
0.2687966 0.9604612 0.690274 0.059791185 0.20175442 -0.67505676 0.92143697 0.29914325
-0.23477338 0.16540033 0.13621329 -0.052755315 0.88627505 0.37188905 0.514088 0.5889565
0.773604 0.9265524 0.35126817 0.5862191 0.81916344 0.019379616 1.0808537 1.0743912
0.56560296 -0.07182838 -0.0628164 0.23131776 1.301973 0.52469283 -0.15929057 0.5751116
-0.054058176 1.1471128 0.26843 1.0881956 1.0088894 0.50406224 0.98186684 0.4504734
0.56726956 -0.65892357 0.2868714 0.2177779 1.59651 1.4067991 1.023819 1.3383154
1.1205498 1.380228 1.8550972 1.7482477 1.8663477 0.87302274 1.7893528 1.1629068
1.7746601 1.9435748 1.5725923 2.1409469 1.6961988 1.1755718 0.2959818 0.65838534
1.3522289 1.8100784 1.4052842 1.3892653 1.8820683 1.1499668 1.9734644 1.2662706
1.9928193 1.905985 1.1879193 2.0915997 1.6157982 1.2990959 0.8416835 1.3061858
1.1104958 1.4114243 1.6253698 1.6935147 2.0763032 1.590231 1.5270213 1.2230353
1.397225 2.1151655 1.1782058 2.0669293 0.8742532 0.42816004 1.3590276 1.693732
2.2809348 2.1429589 1.8265475 1.6746744 2.195178 2.9569 1.6962197 2.593849
1.5721047 2.0403483 2.7183137 2.7108133 2.3441873 1.885007 1.6451857 2.3496373
2.182418 1.990315 1.7881632 2.0230355 2.3683567 2.2357934 1.9432722 1.964649
1.6699846 2.1002758 2.4920495 3.1034272 2.6398778 1.5709606 1.4153777 1.4446591
2.3573256 2.1867805 1.6932606 2.022652 2.1281726 1.7481054 2.1353176 2.0404727
1.8279984 2.5648832 2.5966449 3.4137611 2.811468 1.5411357 1.6001244 1.789505
2.625269 2.0169053 1.6135328 2.5639343 -0.19413708 0.77375406 0.7490649 0.561528
1.02162 0.23787431 1.0912924 1.6154567 1.1572896 0.7961859 0.9838291 1.0640672
0.9995436 0.49709544 0.5347965 -0.042859834 0.045823056 0.6212025 0.08501518 0.50222266
0.5462708 0.09964234 1.5105667 1.2842014 1.016818 0.29239073 0.44208616 1.1189008
1.2681237 0.6943206 1.1065772 0.8656004 -0.06192946 0.2774419 0.80050594 0.49465033
0.43152514 -0.25823343 1.4481561 1.1028031 1.0315818 0.5358491 0.3632557 1.1047637
0.9113076 0.73628426 0.99704146 0.91555953 0.6387862 0.73965615 0.32923722 0.8166405
0.16220978 0.7083483 0.32323572 0.353047 0.629505 0.41343597 -0.5471377 0.30652705
0.005339986 0.24830253 0.42068252 -0.38906705 0.378027 -0.43767452 -0.5356519 -0.20714128
-0.018713707 1.0124654 0.124284364 0.26235813 0.9905421 0.058031946 -0.810956 0.4131876
-0.2842892 0.0804543 0.10020151 0.016228914 0.6493075 0.4406337 -0.06443396 -0.28616586
0.055320468 0.0785894 0.46264225 -0.20398648 0.7894077 -0.43612272 -0.39988843 1.1323948
-0.12049202 0.13232169 0.3693331 -0.48707563 0.123703934 0.72121775 -0.3202197 -0.4679512
00000000: d861 943e b5b2 8c3f a440 233f f7f6 c63e
00000010: 907d c6be ca12 333f 7003 873d 282c 333f
00000020: b59f 893e c9e0 753f ccb5 303f 9ae7 743d
00000030: b698 4e3e 85d0 2cbf 4be3 6b3f 4e29 993e
00000040: 6f68 70be b45e 293e 7f7b 0b3e f515 58bd
00000050: ece2 623f 3e68 be3e 459b 033f dac5 163f
00000060: e90a 463f 8a32 6d3f 6cd9 b33e 7412 163f
00000070: b2b4 513f 00c2 9e3c 6a59 8a3f a785 893f
00000080: 5bcb 103f c21a 93bd e2a5 80bd 90de 6c3e
00000090: 0da7 a63f 4552 063f 111d 23be 843a 133f
000000a0: 1b6c 5dbd 98d4 923f a86f 893e fe49 8b3f
000000b0: 4a23 813f 390a 013f a05b 7b3f 73a4 e63e
000000c0: 9438 113f 37af 28bf cfe0 923e 2b01 5f3e
000000d0: 715a cc3f fe11 b43f 800c 833f eb4d ab3f
000000e0: 2d6e 8f3f 50ab b03f d373 ed3f 95c6 df3f
000000f0: 7be4 ee3f 6b7e 5f3f 8309 e53f 21da 943f
00000100: 1028 e33f 0fc7 f83f b44a c93f 4605 0940
00000110: 0b1d d93f 2379 963f ed8a 973e f18b 283f
00000120: d615 ad3f a6b0 e73f 5ae0 b33f 72d3 b13f
00000130: 9de7 f03f 1d32 933f 7b9a fc3f 2815 a23f
00000140: b414 ff3f 51f7 f33f bd0d 983f c5dc 0540
00000150: 7ad2 ce3f c648 a63f 9278 573f 1931 a73f
00000160: ba24 8e3f 8da9 b43f 1e0c d03f 17c5 d83f
00000170: 27e2 0440 b08c cb3f 6f75 c33f 6c8c 9c3f
00000180: 45d8 b23f df5e 0740 73cf 963f 9248 0440
00000190: 0fcf 5f3f cb37 db3e 9ef4 ad3f 36cc d83f
000001a0: d6fa 1140 3d26 0940 4fcc e93f bb5b d63f
000001b0: cc7d 0c40 d93d 3d40 ba1d d93f 9f01 2640
000001c0: ba3a c93f 1195 0240 daf8 2d40 f77d 2d40
000001d0: 2a07 1640 e947 f13f 7295 d23f 7560 1640
000001e0: bdac 0b40 a4c2 fe3f 88e2 e43f 6a79 0140
000001f0: 2893 1740 3d17 0f40 25bd f83f 9e79 fb3f
00000200: 0ec2 d53f eb6a 0640 bd7d 1f40 8d9e 4640
00000210: c2f3 2840 3d15 c93f 192b b53f 97ea b83f
00000220: 6cde 1640 36f4 0b40 c3bc d83f 2173 0140
00000230: fb33 0840 ebc1 df3f 0ba9 0840 1b97 0240
00000240: dafb e93f 0c27 2440 6e2f 2640 107b 5a40
00000250: 17ef 3340 ef43 c53f e0d0 cc3f 800e e53f
00000260: 6804 2840 fa14 0140 3e88 ce3f 8017 2440
00000270: dfcb 46be bf14 463f b8c2 3f3f 4dc0 0f3f
00000280: 72c4 823f 5395 733e 78af 8b3f 49c7 ce3f
00000290: 1122 943f d7d2 4b3f 39dc 7b3f 5b33 883f
000002a0: 17e2 7f3f 4b83 fe3e 6ce8 083f cb8d 2fbd
000002b0: f5b0 3b3d 2107 1f3f 701c ae3d aa91 003f
000002c0: 67d8 0b3f 4811 cc3d 405a c13f b660 a43f
000002d0: 1827 823f 3db4 953e 1e59 e23e 2438 8f3f
000002e0: e151 a23f ffbe 313f 52a4 8d3f fd97 5d3f
000002f0: bfa9 7dbd dd0c 8e3e f5ed 4c3f cf42 fd3e
00000300: ddf0 dc3e 2c37 84be 2e5d b93f a728 8d3f
00000310: df0a 843f 682d 093f a7fc b93e e668 8d3f
00000320: 744b 693f 207d 3c3f 1c3e 7f3f 1c62 6a3f
00000330: 7e87 233f 1b5a 3d3f c891 a83e 5a0f 513f
00000340: 521a 263e 5056 353f 277f a53e 94c2 b43e
00000350: 3d27 213f e1ad d33e 3711 0cbf 1df1 9c3e
00000360: 0dfb ae3b 0543 7e3e b363 d73e cc33 c7be
00000370: c18c c13e e016 e0be 7c20 09bf d81c 54be
00000380: 7d4d 99bc 7798 813f cd88 fe3d ce53 863e
00000390: 2b94 7d3f e8b2 6d3d d09a 4fbf 538d d33e
000003a0: 5b8e 91be 39c5 a43d 7336 cd3d 80f2 843c
000003b0: 0439 263f be9a e13e f4f5 83bd 5584 92be
000003c0: b797 623d 7bf3 a03d 72df ec3e d5e1 50be
000003d0: 9f16 4a3f 7a4b dfbe 2dbe ccbe 50f2 903f
000003e0: 85c4 f6bd 567f 073e 3a19 bd3e fa61 f9be
000003f0: 7d58 fd3d baa1 383f d6f3 a3be 4d97 efbe

snn.l1.recurrent_weights f4 [20, 20]
0.0 3.910468 -0.42335397 5.5629253 -0.28561714 -1.5797274 -0.09603857 -3.797814
5.9580855 2.8232226 3.3545468 6.7963386 6.4596424 3.4330513 -2.027074 -0.4607339
4.420896 -5.0818424 2.2399952 0.8221505 -1.4644188 0.0 15.168207 9.1083
-5.810384 5.597073 13.288573 -8.011632 6.5195804 4.0779853 3.5700357 9.728267
13.208891 4.6526923 -0.40451103 6.1777864 -2.4737096 2.8833778 -1.1184006 1.8982611
0.7861416 7.0058537 0.0 8.722716 -3.2100024 7.2073975 10.599927 -1.8432539
2.064368 4.692232 1.9169232 10.762909 9.246091 4.0935555 5.7690926 6.065569
-0.689417 7.8973193 3.5988433 2.9216979 0.12952542 3.5761008 1.0421046 0.0
0.5744461 -3.0570817 4.670297 2.2381854 4.2287226 0.83347404 2.6689076 20.245409
5.275899 1.4530752 2.375618 -2.0095837 2.6905797 8.90474 8.897015 -0.37285924
-3.5984755 1.7784865 3.5618837 7.83995 0.0 -3.8705373 3.0819232 -6.6312494
5.345782 1.5366927 2.8404996 7.4080286 5.434771 1.5552045 -4.0625467 -1.6557623
1.2815028 -4.225067 -5.890437 -0.1502853 -0.24391206 2.8200667 5.5480466 -1.0324404
-0.02539195 0.0 1.6537172 0.5001973 5.2395034 2.7333255 2.9443612 1.2289813
5.623284 4.1202846 5.735162 0.7017567 0.93380165 -0.08708893 3.192567 1.1362466
1.9207758 3.5618532 5.5261064 5.853606 -1.9060029 6.438091 0.0 0.31665942
2.5560277 1.7384827 0.68099916 4.8850975 4.5945635 1.886522 2.175221 1.0590669
-3.4536219 8.677308 4.735013 1.3173116 -2.7270443 9.608405 5.3788543 -1.0540155
8.710443 -4.386676 -8.251032 0.0 5.953247 1.7318856 2.9885154 2.2899282
8.190252 3.532614 -4.012964 5.91426 1.0397046 -8.971285 -3.2382758 1.227662
-15.333098 3.9290557 2.3501368 -0.06983245 -15.74498 -11.131123 -4.6942835 -20.474136
0.0 -0.19825763 3.8215125 -1.2328569 8.813228 2.0953226 -11.5124235 -3.9918308
-5.239015 -14.233229 -13.54324 -1.5721939 -15.103442 4.437084 6.9298034 -7.683754
-17.236382 -9.174551 -5.9927626 -20.446505 5.997286 0.0 3.5609891 -5.8596687
7.806541 4.7717633 -7.0534954 -5.0858126 -3.0223198 -12.783957 -12.630542 1.1933634
-18.106707 0.97161186 4.029272 -4.646179 -16.821089 -13.206233 -9.517174 -23.062971
7.399991 2.751933 0.0 -5.0789227 6.474541 3.6072736 -12.121288 -8.951588
-5.5865655 -17.437979 -14.680153 -0.4358202 0.96900445 1.7280359 0.36012 15.300719
-1.3309003 1.3687373 3.1043353 1.5820466 1.7998784 0.19699532 0.73473513 0.0
3.7137249 1.8070078 1.5067776 -1.0337839 -0.9715372 7.387746 7.4924574 0.06753139
-8.19264 9.379771 9.081758 3.5951195 -11.650884 -1.6576928 4.995771 -13.808985
7.4813514 1.6979185 4.62526 3.9533052 0.0 3.936116 -6.6435857 0.10048848
00000000: 0000 0000 1c45 7a40 dac1 d8be 7c03 b240
00000010: 693c 92be 8234 cabf dfaf c4bd 620f 73c0
00000020: a3a8 be40 aeaf 3440 e5b0 5640 9b7b d940
00000030: 64b5 ce40 1db7 5b40 95bb 01c0 50e5 ebbe
00000040: fb77 8d40 749e a2c0 155c 0f40 7578 523f
00000050: 1372 bbbf 0000 0000 fab0 7241 99bb 1141
00000060: aaee b9c0 391b b340 ff9d 5441 a52f 00c1
00000070: 67a0 d040 db7e 8240 777b 6440 fba6 1b41
00000080: 9e57 5341 dbe2 9440 121c cfbe 6db0 c540
00000090: 4251 1ec0 4389 3840 c027 8fbf 38fa f23f
000000a0: 9340 493f f42f e040 0000 0000 3f90 0b41
000000b0: ae70 4dc0 00a3 e640 4d99 2941 beef ebbf
000000c0: 9b1e 0440 c426 9640 bd5d f53f e034 2c41
000000d0: fdef 1341 68fe 8240 689c b840 2419 c240
000000e0: a27d 30bf d7b6 fc40 7353 6640 19fd 3a40
000000f0: 50a2 043e d6de 6440 af63 853f 0000 0000
00000100: e60e 133f 3aa7 43c0 1373 9540 6e3e 0f40
00000110: b251 8740 8e5e 553f 62cf 2a40 99f6 a141
00000120: 2ad4 a840 5efe b93f 200a 1840 059d 00c0
00000130: 7532 2c40 d179 0e41 2c5a 0e41 68e7 bebe
00000140: 6c4d 66c0 72a5 e33f e7f5 6340 dfe0 fa40
00000150: 0000 0000 e2b6 77c0 3b3e 4540 3233 d4c0
00000160: a510 ab40 59b2 c43f bfca 3540 920e ed40
00000170: a5e9 ad40 f110 c73f 6200 82c0 05f0 d3bf
00000180: 4908 a43f c033 87c0 767e bcc0 64e4 19be
00000190: 15c4 79be f97b 3440 9989 b140 0227 84bf
000001a0: c702 d0bc 0000 0000 01ad d33f ee0c 003f
000001b0: 03aa a740 ceee 2e40 6a70 3c40 424f 9d3f
000001c0: f1f1 b340 5fd9 8340 7286 b740 54a6 333f
000001d0: a00d 6f3f ae5b b2bd 0553 4c40 8770 913f
000001e0: fbdb f53f 67f5 6340 ddd5 b040 be50 bb40
000001f0: e7f7 f3bf d704 ce40 0000 0000 2f21 a23e
00000200: f595 2340 9a86 de3f f655 2e3f b852 9c40
00000210: aa06 9340 8e79 f13f d236 0b40 818f 873f
00000220: 2408 5dc0 41d6 0a41 3a85 9740 ab9d a83f
00000230: e587 2ec0 07bc 1941 931f ac40 fbe9 86bf
00000240: f95d 0b41 a65f 8cc0 3a04 04c1 0000 0000
00000250: 0081 be40 6dae dd3f d643 3f40 2f8e 1240
00000260: 460b 0341 5916 6240 336a 80c0 9e41 bd40
00000270: 0a15 853f 628a 0fc1 e93f 4fc0 0724 9d3f
00000280: 5f54 75c1 a675 7b40 a468 1640 5104 8fbd
00000290: 70eb 7bc1 1419 32c1 9237 96c0 08cb a3c1
000002a0: 0000 0000 0c04 4bbe a993 7440 41ce 9dbf
000002b0: fb02 0d41 c419 0640 e332 38c1 287a 7fc0
000002c0: 03a6 a7c0 4ebb 63c1 1cb1 58c1 a63d c9bf
000002d0: b3a7 71c1 98fc 8d40 f3c0 dd40 50e1 f5c0
000002e0: 1ce4 89c1 f6ca 12c1 b6c4 bfc0 7192 a3c1
000002f0: c4e9 bf40 0000 0000 3fe7 6340 6882 bbc0
00000300: 2fcf f940 49b2 9840 3cb6 e1c0 fabe a2c0
00000310: b06d 41c0 168b 4cc1 b316 4ac1 22c0 983f
00000320: 89da 90c1 8ebb 783f ccef 8040 80ad 94c0
00000330: 9791 86c1 bb4c 53c1 5846 18c1 f780 b8c1
00000340: bacc ec40 ac1f 3040 0000 0000 8986 a2c0
00000350: 712f cf40 92dd 6640 ccf0 41c1 b439 0fc1
00000360: 25c5 b2c0 fb80 8bc1 e8e1 6ac1 d323 dfbe
00000370: ad10 783f 4830 dd3f a661 b83e bfcf 7441
00000380: f15a aabf c932 af3f 6ead 4640 8180 ca3f
00000390: 6a62 e63f 24b9 493e 9a17 3c3f 0000 0000
000003a0: abad 6d40 084c e73f 17de c03f 0853 84bf
000003b0: a9b6 78bf 6a68 ec40 36c2 ef40 e64d 8a3d
000003c0: 0e15 03c1 8b13 1641 e14e 1141 7016 6640
000003d0: 056a 3ac1 472f d4bf 5bdd 9f40 9af1 5cc1
000003e0: 3b67 ef40 6555 d93f 2102 9440 f402 7d40
000003f0: 0000 0000 53e9 7b40 4198 d4c0 e7cc cd3d

snn.fc_out.weight f4 [9, 20]
-4.3711953 1.7821681 1.8363539 -11.138632 -0.613037 -6.3186126 -7.1731024 8.954553
-3.3505447 -0.07441331 -1.354383 -10.591907 -2.4140077 -1.301956 -2.2198658 5.7951612
5.196447 -2.2989125 -3.9927993 -0.22691427 -2.9419463 2.1139972 8.776665 -3.363932
-1.2948575 2.4725032 0.52517575 -1.7104802 0.553422 2.5950308 1.9099075 -1.5102243
2.5068758 1.3498555 3.786168 -6.0983963 -1.0105705 2.1161013 0.39270005 1.6804531
3.3374135 0.38577878 -0.37458125 -1.112146 4.591655 0.37109962 0.9178634 -0.14274928
4.164361 0.17809984 1.9531513 -2.8309214 1.8047394 0.62362903 0.82303065 3.2806122
-6.0450406 -4.392451 -3.4541013 0.7406811 2.1838183 -1.5950035 -2.6130128 -6.510857
-1.3143255 4.291208 -1.2622375 0.34387225 -0.109471075 1.4326154 0.47207925 -1.9911474
0.40768948 1.6088101 3.131269 3.7484183 3.483393 -3.24275 0.35564694 1.1506598
-1.5413772 2.5252743 0.25966454 -3.6099598 -0.4184834 -1.5380709 5.527361 -0.86179286
-2.4670844 -0.7374353 -1.9240894 -7.1785893 1.0994773 -1.6814005 -1.5348074 1.7329773
-2.0924344 4.304938 -0.7019099 -1.2858444 2.925464 -1.7441092 -5.0797014 0.69839126
-2.361319 -3.263653 -2.5805793 -0.4717813 -4.20371 -0.95431864 -2.6257906 1.6942303
-2.5003524 -0.51136166 -3.95568 -0.7732423 3.5357366 -0.1430223 -0.042956118 -0.48828965
-9.007956 -8.107472 -9.427778 5.311529 -4.365965 1.557246 -1.398602 -0.30473328
-5.7684054 -8.172402 -6.947007 5.0785794 -6.068407 -6.2936206 -8.061862 -3.2189643
-3.213424 1.6422602 -0.100086346 -4.113893 -4.5389557 -2.4178395 -5.5653114 8.598882
1.9861548 -2.5292006 -1.3793 -3.3602288 3.647135 -2.9893754 2.1133523 3.510987
0.23855874 -1.4036609 -5.251209 -8.561075 -4.6725345 0.07783299 1.441191 -3.3906672
-3.895298 -11.051487 -2.5829298 5.3816833 -7.5937605 -12.92676 -9.639828 0.09975039
-8.528425 -3.545235 -4.7445226 5.5880027 -12.603788 -4.2958045 1.9401729 -5.2919908
-0.94885665 2.3980262 0.5078867 -0.5189095
00000000: d5e0 8bc0 161e e43f a50d eb3f d637 32c1
00000010: feef 1cbf 1332 cac0 0e8a e5c0 d945 0f41
00000020: 536f 56c0 0166 98bd 6c5c adbf 7378 29c1
00000030: 1a7f 1ac0 7fa6 a6bf 4812 0ec0 f671 b940
00000040: 4b49 a640 6221 13c0 068a 7fc0 375c 68be
00000050: d948 3cc0 bb4b 0740 386d 0c41 a94a 57c0
00000060: e4bd a5bf 7e3d 1e40 eb71 063f 04f1 dabf
00000070: 10ad 0d3f fc14 2640 d977 f43f 084f c1bf
00000080: a770 2040 11c8 ac3f 9450 7240 1026 c3c0
00000090: 605a 81bf 346e 0740 fb0f c93e 1619 d73f
000000a0: 2f98 5540 cc84 c53e 1dc9 bfbe cd5a 8ebf
000000b0: d6ee 9240 c500 be3e 19f9 6a3f de2c 12be
000000c0: 7242 8540 ce5f 363e dd00 fa3f d12d 35c0
000000d0: b301 e73f 27a6 1f3f 23b2 523f 8df5 5140
000000e0: f970 c1c0 f58e 8cc0 ff0f 5dc0 479d 3d3f
000000f0: aec3 0b40 1329 ccbf 9a3b 27c0 f158 d0c0
00000100: d13b a8bf 9351 8940 0091 a1bf 0610 b03e
00000110: 5f32 e0bd f15f b73f 5fb4 f13e ebdd febf
00000120: adbc d03e 7ded cd3f b666 4840 16e6 6f40
00000130: e9ef 5e40 3789 4fc0 5b17 b63e d248 933f
00000140: d94b c5bf 189e 2140 c0f2 843e 9509 67c0
00000150: 7543 d6be 82df c4bf 24e0 b040 759e 5cbf
00000160: b6e4 1dc0 8fc8 3cbf 9048 f6bf 01b7 e5c0
00000170: acbb 8c3f 2238 d7bf 9274 c4bf 33d2 dd3f
00000180: 72ea 05c0 0dc2 8940 5eb0 33bf 8d96 a4bf
00000190: cd3a 3b40 f83e dfbf ea8c a2c0 c5c9 323f
000001a0: da1f 17c0 b1df 50c0 3628 25c0 528d f1be
000001b0: cb84 86c0 3a4e 74bf f40c 28c0 8adc d83f
000001c0: c605 20c0 99e8 02bf dc29 7dc0 35f3 45bf
000001d0: 8249 6240 7074 12be c1f2 2fbd 1a01 fabe
000001e0: 9620 10c1 35b8 01c1 2ed8 16c1 0cf8 a940
000001f0: fcb5 8bc0 d653 c73f 6405 b3bf 0006 9cbe
00000200: c796 b8c0 29c2 02c1 e24d dec0 b983 a240
00000210: 6430 c2c0 5765 c9c0 63fd 00c1 8303 4ec0
00000220: bda8 4dc0 9535 d23f 12fa ccbd 03a5 83c0
00000230: 203f 91c0 e2bd 1ac0 0817 b2c0 0595 0941
00000240: 523a fe3f 6cde 21c0 e78c b0bf fd0d 57c0
00000250: a96a 6940 ed51 3fc0 2a41 0740 03b4 6040
00000260: be48 743e 29ab b3bf e709 a8c0 2afa 08c1
00000270: 6785 95c0 e766 9f3d f278 b83f b100 59c0
00000280: 904c 79c0 e4d2 30c1 b94e 25c0 c036 ac40
00000290: 1600 f3c0 02d4 4ec1 bc3c 1ac1 ef49 cc3d
000002a0: 6e74 08c1 21e5 62c0 21d3 97c0 ebd0 b240
000002b0: 1ea9 49c1 3b77 89c0 9657 f83f fd57 a9c0
000002c0: 45e8 72bf 4379 1940 dd04 023f 41d7 04bf

exp_avg f4 [20, 416]
0.0012861496 0.0013560014 0.0006121515 -0.006080816 -0.0006564472 -0.0026787259 -0.00046156626 -0.0015873628
0.0009102509 -0.0040071122 -0.00037317292 -0.003626495 0.0010324679 -0.00048354478 0.0011109188 -0.004434556
-0.0039252993 -0.00031523837 0.00028679223 0.0005209442 -0.0013402276 0.0026962867 -0.0048097065 -0.0010548049
-0.00066185184 -0.0014666413 0.002011739 0.00043775022 -0.001013272 -0.003645914 0.001664966 -0.0036562223
-0.00013119895 -0.00095475354 -0.00029891176 7.367386e-05 -0.0026262316 -0.0011386366 0.0011579243 0.00081368437
8.374305e-05 -0.0013444169 -0.0045054993 -0.0011148315 -0.0010222604 -0.0016224611 -0.0037940175 0.00049393275
-0.0007451385 -0.0030309611 -0.0012269693 -0.0075950325 1.3539944e-05 -0.00083896937 -0.0016828566 -0.0023935852
-0.0010230916 0.0004482421 0.0020832724 -0.0010618544 -0.00017207951 -0.0043531186 -0.0009689677 -0.0022905907
0.00070540956 -0.005624178 0.0017429331 -0.0026980906 -0.0017819764 -0.00081064977 0.0011684152 0.00010553896
0.0016984824 0.00018713497 0.00172296 -0.0006776599 -0.00026842396 -0.0006522484 0.0035471683 -0.0012453478
-0.0018802858 0.0004046478 0.0028242331 -0.002832759 -0.0020372283 -0.003932583 -0.0021267277 0.0020230473
-0.002192983 -0.0014841422 0.004306119 -0.0005451571 -0.0042194766 -0.0016645193 -0.0028062875 0.0002704469
0.0033500437 -0.0003931013 -0.0012435087 -0.0018465386 0.0016852252 -0.0028893123 -0.003563761 0.0010643062
0.0021474625 7.103934e-05 -0.00325178 0.001933046 -0.0008433065 -0.0020347692 0.001755273 -0.0020174065
0.001000567 0.0016427102 -0.00014475772 0.00024031314 0.0010077453 0.00037507116 0.0015675386 -0.0030420178
-0.0010306035 -0.0041863564 -0.0009624649 -8.7651526e-05 0.00026781487 0.0020266916 -0.00042559011 -9.319391e-06
0.00040959113 -0.00041442367 0.0019186602 0.002446178 -0.0003607385 0.0014177894 0.001632408 0.0003662704
0.00032783902 -0.0026247478 -0.00043100477 0.0023842165 -0.0015707894 -0.0015309026 0.0034918103 0.0011001419
0.00032195105 7.8796504e-05 -0.0018923132 -0.0004610908 -0.0013666935 0.0004918494 -0.0019756244 -5.4178214e-05
0.00034247863 0.0008623275 0.0021605887 -0.0017421438 -7.1119146e-05 0.003388652 -0.0017471068 0.00093350594
0.0009968971 -0.0018169865 -0.0015396967 -0.001468127 -0.0008952537 0.00074948475 -0.0005044134 -0.004079548
-0.0012396113 -0.0023908159 -0.00044017073 0.0009606094 -0.0027945 -0.0011224592 0.0005490666 0.0006260985
-0.0005343926 0.0029435246 -0.006900606 0.0022615357 0.001748746 0.000779914 -0.0009656011 0.0026345598
0.00026103357 0.0016817587 0.0022351872 -0.0006893233 0.0010438821 -0.0012609734 -0.00079098134 0.0014613885
0.0023539944 -0.002908999 0.001141444 -0.0013630455 0.0030950073 -0.00053557125 0.00016738629 0.0032464198
0.002223483 -0.00040286715 0.0014381452 0.001926024 -0.0033268014 -0.0030630429 -0.00076472975 0.003914695
-0.0012618658 -0.00031105618 -0.0016841445 -7.072344e-05 -0.0015675504 -0.0084148515 0.00045206008 0.0008249786
-0.0043377336 0.004172499 0.0002167869 0.0005755363 -0.0044645723 0.002151972 0.009012495 0.0011478744
0.004626319 0.0036566292 -0.0029083733 0.001300578 0.0012452502 0.00041088418 -0.0021131386 0.0035367892
0.0011689146 -0.0027490524 0.0008006391 -0.002093864 -0.0017756934 -0.00055968243 0.00052348484 -0.0028180357
-0.0034921274 -0.0052230177 0.0004171644 -0.0038149152 -0.0020305212 -0.0011446229 0.002714461 -0.00042447905
-0.000627022 -0.0017599512 -0.0031169716 0.0026813648 0.001519498 0.00060260756 0.00030322972 0.002774313
00000000: 0594 a83a dbbb b13a cb78 203a 9541 c7bb
00000010: 6d15 2cba 908d 2fbb 60fe f1b9 0f0f d0ba
00000020: e79d 6e3a 184e 83bb 6ca6 c3b9 7daa 6dbb
00000030: e053 873a 4884 fdb9 409c 913a c04f 91bb
00000040: cc9f 80bb 9446 a5b9 9a5c 9639 f98f 083a
00000050: 93aa afba 2fb4 303b be9a 9dbb 6141 8aba
00000060: 2080 2dba 513c c0ba 61d7 033b d781 e539
00000070: c4cf 84ba 49f0 6ebb fd3a da3a 3b9d 6fbb
00000080: 7392 09b9 6d48 7aba 42b7 9cb9 5a81 9a38
00000090: db1c 2cbb 4e3e 95ba 7ec5 973a 6f4d 553a
000000a0: 359f af38 2537 b0ba dea2 93bb 8a1f 92ba
000000b0: 5efd 85ba c3a8 d4ba 0da5 78bb 447b 013a
000000c0: 6655 43ba 17a3 46bb 42d2 a0ba c0df f8bb
000000d0: 9e29 6337 48ee 5bba 4c93 dcba b2dd 1cbb
000000e0: 4219 86ba 0902 eb39 8387 083b ec2d 8bba
000000f0: 3e70 34b9 9ba4 8ebb 5202 7eba bc1d 16bb
00000100: 3ceb 383a 064b b8bb 2173 e43a 73d2 30bb
00000110: 3591 e9ba c981 54ba 8225 993a cc54 dd38
00000120: 9d9f de3a a939 4439 f2d4 e13a fca4 31ba
00000130: 41bb 8cb9 a6fb 2aba 9c77 683b f03a a3ba
00000140: ec73 f6ba e926 d439 c516 393b cfa5 39bb
00000150: 0583 05bb e6dc 80bb 9260 0bbb 1a95 043b
00000160: 26b8 0fbb 8c87 c2ba 581a 8d3b e0e8 0eba
00000170: 8943 8abb 002c daba b1e9 37bb c5ca 8d39
00000180: 688c 5b3b 2a19 ceb9 3afd a2ba 8e07 f2ba
00000190: c6e2 dc3a 9e5a 3dbb fd8d 69bb 3180 8b3a
000001a0: 71bc 0c3b f5fa 9438 d11b 55bb 435e fd3a
000001b0: 5711 5dba c359 05bb 3011 e63a 7736 04bb
000001c0: 7525 833a 3550 d73a 1bca 17b9 91fc 7b39
000001d0: 5216 843a 33a5 c439 de75 cd3a 975c 47bb
000001e0: 5115 87ba b42d 89bb ed4d 7cba 8ed1 b7b8
000001f0: 8169 8c39 3ed2 043b bd21 dfb9 7b5a 1cb7
00000200: 64be d639 0147 d9b9 8e7b fb3a 0f50 203b
00000210: 8021 bdb9 1ed5 b93a 86f6 d53a fb07 c039
00000220: cfe1 ab39 f603 2cbb 7bf8 e1b9 8440 1c3b
00000230: f2e2 cdba 91a8 c8ba dbd6 643b a332 903a
00000240: 8acb a839 8d3f a538 7f07 f8ba 8fbe f1b9
00000250: a022 b3ba 74ef 003a 7a79 01bb 6a3d 63b8
00000260: b48e b339 d20d 623a aa98 0d3b a558 e4ba
00000270: cd25 95b8 2614 5e3b 2dff e4ba 86b6 743a
00000280: 51aa 823a f327 eeba a6cf c9ba 2b6e c0ba
00000290: 75af 6aba 1279 443a 9c3a 04ba bbad 85bb
000002a0: 747a a2ba 3caf 1cbb b7c6 e6b9 68d1 7b3a
000002b0: ee23 37bb 7b1f 93ba 3cef 0f3a c220 243a
000002c0: 7b16 0cba 26e8 403b 7b1e e2bb 4636 143b
000002d0: 2e36 e53a 2473 4c3a 6520 7dba 94a8 2c3b
000002e0: 55db 8839 756e dc3a 387c 123b b4b3 34ba
000002f0: dfd2 883a 3f47 a5ba dc59 4fba 108c bf3a
00000300: 7945 1a3b e8a4 3ebb 819c 953a 38a8 b2ba
00000310: 9bd5 4a3b 9465 0cba 6a84 2f39 e3c1 543b
00000320: dbb7 113b ea37 d3b9 2580 bc3a a472 fc3a
00000330: 7706 5abb 55bd 48bb 2578 48ba d746 803b
00000340: 3165 a5ba 4115 a3b9 83be dcba 5c51 94b8
00000350: 4376 cdba 72de 09bc 7a02 ed39 6043 583a
00000360: 8c23 8ebb 75b9 883b 4a51 6339 96df 163a
00000370: 8c4b 92bb 1908 0d3b 25a9 133c 4674 963a
00000380: 6098 973b 0fa4 6f3b 689a 3ebb 2878 aa3a
00000390: aa37 a33a f16b d739 957c 0abb 7ac9 673b
000003a0: 4436 993a 7229 34bb fbe1 513a 3539 09bb
000003b0: 62be e8ba a7b7 12ba 793a 093a cbae 38bb
000003c0: 2ddc 64bb d925 abbb dcb6 da39 a803 7abb
000003d0: 7e12 05bb 2c07 96ba 19e5 313b 9d8c deb9
000003e0: bc5e 24ba 2aae e6ba 1b46 4cbb d6b9 2f3b
000003f0: e429 c73a 4ff8 1d3a cefa 9e39 40d1 353b

exp_avg_sq f4 [20, 416]
9.2196715e-05 9.087416e-05 0.000115540344 0.00012004574 0.0001364161 8.641884e-05 0.00014131799 8.1986786e-05
0.00013094235 0.00017217736 0.00013778135 0.000120820165 0.00011415464 0.00011282673 0.00011452135 0.00013174051
0.00011009558 9.038839e-05 0.00015457005 0.00016678438 0.00010085335 8.9256566e-05 0.000104476756 7.9113575e-05
0.000101243466 0.0001364291 0.00011483351 7.281926e-05 0.00010654309 0.00010482271 0.00013836089 0.00011147014
9.689692e-05 0.00011428902 9.954222e-05 9.361536e-05 0.00011540512 8.0171856e-05 0.00013527699 0.00013084029
0.00011086528 0.00012545638 0.00011842201 7.219088e-05 0.000103358114 7.6400764e-05 0.00010853932 0.00012646252
0.000116366915 9.608924e-05 9.484252e-05 0.00012533931 8.977609e-05 0.00011200677 7.860347e-05 9.925465e-05
0.00010148959 9.132762e-05 9.087707e-05 8.144481e-05 6.577869e-05 8.485909e-05 9.703056e-05 7.837225e-05
9.337879e-05 9.278711e-05 8.452372e-05 7.475783e-05 7.590021e-05 9.388572e-05 0.00012316901 0.00012485596
0.00011362539 6.6483175e-05 0.00010073083 0.000107771615 7.430706e-05 7.672794e-05 9.265569e-05 5.2519732e-05
7.712621e-05 0.000108510656 9.101307e-05 7.743053e-05 7.168582e-05 9.078751e-05 8.327545e-05 9.9288234e-05
8.522341e-05 9.398746e-05 0.00013145796 7.237968e-05 8.64369e-05 6.5630265e-05 9.479765e-05 5.773288e-05
8.687202e-05 9.00293e-05 8.744066e-05 8.8891866e-05 8.6054286e-05 8.999498e-05 9.994511e-05 7.1770315e-05
7.048426e-05 6.365047e-05 6.503745e-05 6.504867e-05 5.50108e-05 5.7195433e-05 8.2977625e-05 0.000104499275
6.933479e-05 7.059927e-05 6.0705115e-05 5.60707e-05 5.862486e-05 6.425235e-05 6.396196e-05 5.9864928e-05
5.6350385e-05 7.098981e-05 5.464305e-05 6.722396e-05 6.616998e-05 6.418952e-05 8.857734e-05 0.00011002998
6.182004e-05 7.313626e-05 5.9607104e-05 5.472744e-05 7.160644e-05 6.506733e-05 6.2062e-05 5.509841e-05
6.090824e-05 7.171088e-05 6.15837e-05 5.4156375e-05 6.56951e-05 6.768585e-05 8.0327976e-05 9.749197e-05
7.67857e-05 5.0387254e-05 7.251218e-05 5.2666168e-05 7.2988216e-05 5.9083606e-05 6.867423e-05 7.5908276e-05
7.401631e-05 7.312084e-05 6.7972906e-05 6.584409e-05 0.00018808056 0.00019165172 0.00013744521 0.00013565776
0.00019003426 0.00012055244 0.00023375209 0.0001516311 0.0001388948 0.00013036441 0.00016811994 0.00016134922
0.00010942802 0.00016824916 0.0001428957 0.00012588478 0.00018955718 0.00018175541 0.00012491306 0.00010770809
0.0001767926 0.00012406037 0.00018035597 0.0001370797 0.00016144771 0.0001382639 0.00011579986 0.00013883108
9.233017e-05 0.00017764857 0.00016105246 0.000104930725 0.00015219006 0.00018625069 0.00010339644 0.00011451349
0.0002307245 9.441192e-05 0.00012752943 0.0001238502 0.00029126462 0.00010868895 0.00015557285 0.0001297571
0.00013462025 0.00011803241 0.00019218332 0.000106899744 0.00014241172 0.00011431 0.00012863074 0.00012551415
0.00010787968 0.00014180668 9.139965e-05 8.854679e-05 0.00010364363 0.00012371263 8.791876e-05 0.000175277
0.00012673865 0.00012988005 7.9301004e-05 0.0001657284 0.00014716234 8.0709004e-05 0.00031819803 7.821702e-05
0.00010310759 0.00012594905 0.0001494749 0.00011146367 0.000111972804 0.00014025795 8.4895124e-05 0.00031897682
0.00018167803 0.0001446927 7.180867e-05 9.1096335e-05 8.0450285e-05 0.00011416205 0.00014205696 0.000107248816
0.00010025994 0.00025061576 0.00012734851 0.000106206964 0.00016341024 0.00020015189 6.8075016e-05 0.00012416905
0.00016145846 0.00017280152 6.7682784e-05 0.0001089887 9.1218884e-05 0.00013125305 7.84745e-05 0.00017901028
00000000: bc59 c138 b193 be38 404e f238 11c1 fb38
00000010: eb0a 0f39 c33b b538 c22e 1439 52f0 ab38
00000020: 924d 0939 828a 3439 6679 1039 d560 fd38
00000030: 4e66 ef38 649d ec38 2e2b f038 d323 0a39
00000040: 1de3 e638 e68e bd38 1514 2239 d7e2 2e39
00000050: 3b81 d338 412f bb38 881a db38 c7e9 a538
00000060: ac52 d438 680e 0f39 c5d2 f038 8bb6 9838
00000070: e36f df38 44d4 db38 f814 1139 13c5 e938
00000080: 2335 cb38 73ae ef38 53c1 d038 5d53 c438
00000090: a705 f238 f021 a838 24d9 0d39 2c32 0939
000000a0: 5880 e838 f18c 0339 5559 f838 2f65 9738
000000b0: f7c1 d838 5939 a038 9b9f e338 069b 0439
000000c0: 030a f438 8583 c938 31e6 c638 846d 0339
000000d0: 2c46 bc38 2de5 ea38 ebd7 a438 ef26 d038
000000e0: cfd6 d438 2587 bf38 4195 be38 59cd aa38
000000f0: aaf2 8938 61f6 b138 e37c cb38 c85b a438
00000100: 5bd4 c338 b396 c238 5442 b138 4ec7 9c38
00000110: 9d2c 9f38 83e4 c438 ee26 0139 c4eb 0239
00000120: 2b4a ee38 e26c 8b38 743f d338 7203 e238
00000130: 4dd5 9b38 00e9 a038 2550 c238 a248 5c38
00000140: d2be a138 3790 e338 45de be38 3362 a238
00000150: 0856 9638 2c65 be38 2ba4 ae38 f738 d038
00000160: f8b9 b238 221b c538 fad7 0939 8bca 9738
00000170: 7545 b538 fba2 8938 1ace c638 3526 7238
00000180: 102f b638 1dce bc38 5960 b738 756b ba38
00000190: 0b78 b438 b0bb bc38 9f99 d138 6583 9638
000001a0: f3d0 9338 167c 8538 b764 8838 bd6a 8838
000001b0: 66bb 6638 21e5 6f38 4604 ae38 9f26 db38
000001c0: d567 9138 b20e 9438 9f9d 7e38 752d 6b38
000001d0: f7e3 7538 38bf 8638 5123 8638 7a17 7b38
000001e0: c459 6c38 5de0 9438 8730 6538 97fa 8c38
000001f0: bdc4 8a38 7c9d 8638 99c2 b938 e5bf e638
00000200: 62a5 8138 bb60 9938 a402 7a38 248b 6538
00000210: 6a2b 9638 c274 8838 4827 8238 7819 6738
00000220: ba77 7f38 7c63 9638 7f26 8138 f725 6338
00000230: cac5 8938 90f2 8d38 c175 a838 9a74 cc38
00000240: 0208 a138 e756 5338 ae11 9838 dee5 5c38
00000250: 4011 9938 8ad0 7738 3205 9038 f230 9f38
00000260: 3439 9b38 7458 9938 ad8c 8e38 c715 8a38
00000270: 7e37 4539 1ef6 4839 2b1f 1039 5a3f 0e39
00000280: ef43 4739 19d1 fc38 591b 7539 2aff 1e39
00000290: 4aa4 1139 6eb2 0839 5a49 3039 da2f 2939
000002a0: b97c e538 0a6c 3039 46d6 1539 f0ff 0339
000002b0: dec3 4639 9995 3e39 18fb 0239 57e1 e138
000002c0: 6761 3939 3416 0239 f01d 3d39 0dbd 0f39
000002d0: 4a4a 2939 effa 1039 94d9 f238 2f93 1139
000002e0: 62a1 c138 2d47 3a39 31e0 2839 410e dc38
000002f0: 3595 1f39 4a4c 4339 8bd6 d838 f626 f038
00000300: a3ee 7139 03ff c538 6cb9 0539 c9dd 0139
00000310: e0b4 9839 f0ef e338 4521 2339 680f 0839
00000320: d928 0d39 2b88 f738 d184 4939 5d2f e038
00000330: 5b54 1539 b7b9 ef38 0de1 0639 739c 0339
00000340: 763d e238 f1b1 1439 d0ad bf38 32b2 b938
00000350: 405b d938 dbb8 0139 0661 b838 90ca 3739
00000360: 26e5 0439 6930 0839 674e a638 61c7 2d39
00000370: 974f 1a39 5142 a938 d1d3 a639 7108 a438
00000380: 773b d838 3111 0439 5dbc 1c39 9ac1 e938
00000390: f1d2 ea38 3512 1339 b909 b238 583c a739
000003a0: d380 3e39 a7b8 1739 fc97 9638 f90a bf38
000003b0: 6bb7 a838 496a ef38 20f5 1439 c5ea e038
000003c0: a542 d238 1465 8339 db88 0539 6ebb de38
000003d0: 1a59 2b39 dddf 5139 7fc3 8e38 6033 0239
000003e0: 2d4d 2939 0e32 3539 ebf0 8d38 dd90 e438
000003f0: c44c bf38 f9a0 0939 ad92 a438 b5b4 3b39

exp_avg f4 [20, 20]
0.0 2.5866123e-06 -1.3796327e-05 -0.0016297863 -0.003610898 -0.000745473 -0.0006687548 -0.0032435115
6e-45 -6e-45 6e-45 -0.0007825851 6e-45 6e-45 -0.0011065305 -5.9580627e-05
0.00022448883 -0.0038382406 -0.002148385 6e-45 0.00013157542 0.0 -5.419625e-06 -2.6939173e-05
0.0009829421 2.349793e-05 -1.502852e-05 0.001500622 -6e-45 6e-45 6e-45 -1.8049972e-05
-6e-45 6e-45 8.930673e-05 -1.450773e-05 -3.8601794e-07 7.819745e-05 8.075161e-05 6e-45
0.001708031 1.9629802e-08 0.0 0.0007249169 0.0038016413 0.0009782756 0.00066775497 0.0057735024
-6e-45 6e-45 6e-45 0.00046852836 -6e-45 6e-45 0.0014227881 -5.7451336e-05
0.00012154753 0.0029705556 0.0017717173 6e-45 0.001498334 6.329349e-07 1.0713405e-05 0.0
0.0015211694 0.0002194533 9.5094765e-05 0.001912255 6e-45 -6e-45 -6e-45 -0.0001547413
6e-45 -6e-45 0.00078366604 4.388591e-05 5.166786e-05 -0.00046736115 -0.00037938292 -6e-45
0.0002454062 -9.1254896e-07 -4.7898222e-05 -0.0019575749 0.0 -4.340354e-06 -0.00048689215 -0.002674413
6e-45 -6e-45 -6e-45 -0.0012965531 6e-45 -6e-45 0.0005777092 -0.00017922102
-0.00025943542 -0.0016940284 -0.00057155883 -6e-45 0.0037694382 5.0270382e-06 0.00013264889 0.0026767212
0.017758213 0.0 0.0012098234 0.025658485 -6e-45 6e-45 6e-45 0.00160846
-6e-45 6e-45 0.004035265 0.00021572171 0.000121452365 0.009809005 0.0061056223 6e-45
9.80109e-05 1.4460209e-06 -3.9244997e-06 -0.00045066563 -7.109043e-05 0.000105660576 0.0 -0.0032197703
6e-45 6e-45 6e-45 -0.00014813883 -6e-45 6e-45 -3.7256636e-05 -1.1178599e-06
3.6545175e-06 -0.0013668109 -0.00033443066 6e-45 0.0003369978 -7.629273e-06 -3.423729e-05 0.00061950105
-0.00017363613 0.00017420309 0.00015335636 0.0 6e-45 6e-45 6e-45 0.0003984979
-6e-45 6e-45 3.2804186e-05 -4.274887e-05 8.610804e-05 0.0011778404 0.0007467619 6e-45
5.6302597e-05 9.541303e-10 3.6911306e-08 -1.987364e-06 0.0007458375 4.1202848e-06 7.778511e-08 0.0011433496
0.0 -6e-45 -6e-45 -9.0841473e-07 6e-45 -6e-45 2.9675932e-05 -2.4952506e-08
3.3073863e-07 2.4671028e-05 1.7415661e-05 -6e-45 3.5274472e-05 1.9650316e-10 1.28948265e-08 5.8576336e-07
0.00037755995 3.6621361e-06 2.3411289e-07 0.0006822398 -6e-45 0.0 6e-45 2.5819728e-07
-6e-45 6e-45 1.4056747e-05 -2.531023e-08 6.4611305e-07 2.6276355e-05 1.5484911e-05 6e-45
3.0280404e-05 2.2033955e-10 1.6616697e-08 -8.978264e-07 0.0004057669 2.8170787e-06 7.1641836e-08 0.00065517274
-6e-45 -6e-45 0.0 -4.6180452e-07 -6e-45 -6e-45 1.4183584e-05 -3.1496395e-08
2.2017903e-07 1.6138732e-05 8.829185e-06 6e-45 0.0018732385 1.0834958e-06 3.760379e-05 0.0005696425
0.005960783 0.0005377024 0.00039934315 0.012192714 6e-45 -6e-45 -6e-45 0.0
6e-45 -6e-45 0.0014722259 9.500015e-05 0.00017628106 0.0025176622 0.0013001374 -6e-45
0.00013857518 1.3612831e-08 1.7206447e-07 1.3950049e-07 0.0012970134 1.2032214e-05 1.0448056e-06 0.002051609
-6e-45 6e-45 6e-45 8.567141e-07 0.0 6e-45 7.342357e-05 1.17475764e-07
00000000: 0000 0000 a995 2d36 c676 67b7 8e9e d5ba
00000010: d1a4 6cbb d96b 43ba 604f 2fba 1891 54bb
00000020: 0400 0000 0400 0080 0400 0000 6626 4dba
00000030: 0400 0000 0400 0000 0109 91ba 36e6 79b8
00000040: c364 6b39 fe8a 7bbb ebcb 0cbb 0400 0000
00000050: 82f7 0939 0000 0000 39da b5b6 6ffb e1b7
00000060: 10d6 803a 6c1d c537 0023 7cb7 85b0 c43a
00000070: 0400 0080 0400 0000 0400 0000 056a 97b7
00000080: 0400 0080 0400 0000 304a bb38 3a66 73b7
00000090: e73d cfb4 f0fd a338 3159 a938 0400 0000
000000a0: 03e0 df3a 649e a832 0000 0000 5a08 3e3a
000000b0: f524 793b 7b39 803a 470c 2f3a a62f bd3b
000000c0: 0400 0080 0400 0000 0400 0000 d0a4 f539
000000d0: 0400 0080 0400 0000 d97c ba3a e7f7 70b8
000000e0: 55e7 fe38 a7ad 423b f838 e83a 0400 0000
000000f0: bf63 c43a f5e6 2935 b9bd 3337 0000 0000
00000100: fa61 c73a 0c1d 6639 9d6d c738 a1a4 fa3a
00000110: 0400 0000 0400 0080 0400 0080 0d42 22b9
00000120: 0400 0000 0400 0080 f06e 4d3a 2312 3838
00000130: f1b5 5838 2708 f5b9 eae7 c6b9 0400 0080
00000140: dda9 8039 e3f5 74b5 53e6 48b8 a84a 00bb
00000150: 0000 0000 5ba3 91b6 8f45 ffb9 3445 2fbb
00000160: 0400 0000 0400 0080 0400 0080 1af1 a9ba
00000170: 0400 0000 0400 0080 6871 173a 47ed 3bb9
00000180: d504 88b9 290a deba aad4 15ba 0400 0080
00000190: ae08 773b eead a836 aa17 0b39 ee6b 2f3b
000001a0: ac79 913c 0000 0000 f092 9e3a be31 d23c
000001b0: 0400 0080 0400 0000 0400 0000 f6d2 d23a
000001c0: 0400 0080 0400 0000 423a 843b 5b33 6239
000001d0: 3eb4 fe38 f3b5 203c ac11 c83b 0400 0000
000001e0: 348b cd38 e614 c235 32af 83b6 5147 ecb9
000001f0: 6216 95b8 1796 dd38 0000 0000 c802 53bb
00000200: 0400 0000 0400 0000 0400 0000 b755 1bb9
00000210: 0400 0080 0400 0000 0244 1cb8 6009 96b5
00000220: 2240 7536 9026 b3ba 8656 afb9 0400 0000
00000230: 14af b039 f5fe ffb6 039a 0fb8 0366 223a
00000240: 1812 36b9 49aa 3639 49ce 2039 0000 0000
00000250: 0400 0000 0400 0000 0400 0000 7ced d039
00000260: 0400 0080 0400 0000 3a97 0938 404d 33b8
00000270: e794 b438 c461 9a3a 58c2 433a 0400 0000
00000280: 7426 6c38 7a22 8330 6988 1e33 a75e 05b6
00000290: 4f84 433a fa40 8a36 d10a a733 72dc 953a
000002a0: 0000 0000 0400 0080 0400 0080 c9d9 73b5
000002b0: 0400 0000 0400 0080 94f0 f837 2457 d6b2
000002c0: 5f90 b134 a1f4 ce37 d917 9237 0400 0080
000002d0: adf3 1338 b90e 582f 0c88 5d32 5a3d 1d35
000002e0: 3df3 c539 05c3 7536 7660 7b34 57d8 323a
000002f0: 0400 0080 0000 0000 0400 0000 5d9e 8a34
00000300: 0400 0080 0400 0000 45d5 6b37 c969 d9b2
00000310: 8d70 2d35 0b6c dc37 98e5 8137 0400 0000
00000320: ac02 fe37 1244 722f 81bc 8e32 2902 71b5
00000330: 1dbd d439 0b0d 3d36 84d9 9933 e6bf 2b3a
00000340: 0400 0080 0400 0080 0000 0000 eeed f7b4
00000350: 0400 0080 0400 0080 08f6 6d37 a746 07b3
00000360: 5a6a 6c34 aa61 8737 1021 1437 0400 0000
00000370: 7487 f53a a26c 9135 c3b8 1d38 1054 153a
00000380: ac52 c33b 99f4 0c3a ee5e d139 f3c3 473c
00000390: 0400 0000 0400 0080 0400 0080 0000 0000
000003a0: 0400 0000 0400 0080 b4f7 c03a d13a c738
000003b0: 16d8 3839 5dff 243b 5f69 aa3a 0400 0080
000003c0: 7e4e 1139 dddd 6932 b9c0 3834 9ac9 1534
000003d0: 8c00 aa3a f7dd 4937 3f3b 8c35 4a74 063b
000003e0: 0400 0080 0400 0000 0400 0000 f2f8 6535
000003f0: 0000 0000 0400 0000 fbfa 9938 fc46 fc33

exp_avg_sq f4 [20, 20]
0.0 5.839243e-11 8.086934e-08 6.762053e-05 0.0011265549 1.4977596e-05 5.518177e-06 0.004966428
1.41917e-23 6.2059914e-25 3.8943376e-26 3.0628962e-05 3.6162586e-19 1.8669871e-26 7.747864e-05 5.077366e-07
6.585926e-06 0.00070992176 0.00025486934 1.1529937e-27 2.7840855e-07 0.0 4.3499115e-09 1.0595563e-07
8.798564e-06 2.0325238e-08 2.6647333e-08 3.337264e-05 3.2847052e-24 1.4084361e-25 8.5950286e-27 6.8112314e-08
2.5904494e-20 3.685488e-27 1.582808e-07 7.9334495e-09 1.45261065e-08 7.7346203e-07 2.0970721e-07 1.3373771e-28
1.9298635e-05 2.1687127e-12 0.0 1.4374353e-05 0.00014305326 5.050705e-06 2.7927874e-06 0.0006243699
2.6797602e-23 1.4757132e-24 8.203022e-26 7.691151e-06 1.5695625e-19 2.2356913e-26 2.4628429e-05 7.999766e-08
2.3538876e-06 0.00013434314 3.9881284e-05 5.6347717e-28 5.3590902e-05 2.748886e-12 1.9939967e-09 0.0
0.00091360905 1.890687e-06 2.8996004e-07 0.003553854 1.2647393e-23 1.509156e-24 7.99666e-26 8.056986e-07
6.928329e-20 3.4108164e-26 2.5300742e-05 8.416721e-09 1.8519503e-07 0.00013562317 4.7125297e-05 2.5934168e-27
1.7152921e-05 1.23049e-11 3.879125e-08 1.7694494e-05 0.0 2.51021e-06 1.694566e-06 0.00060231145
3.7625017e-23 2.8703659e-24 1.7681788e-25 9.273506e-06 2.5623354e-19 7.2283017e-26 1.35259115e-05 1.7999628e-07
2.0585398e-06 0.00011920935 3.8675236e-05 3.0495065e-27 0.00034628512 1.0948614e-10 1.6058026e-07 0.00012293425
0.002341644 0.0 7.6275714e-06 0.009389737 2.2258835e-24 1.1627126e-25 6.347741e-27 6.282469e-05
1.5129626e-19 3.687339e-27 0.0002467334 6.6855597e-07 1.6931801e-05 0.0012892958 0.0004823829 4.228991e-28
5.6355824e-05 1.2494951e-11 1.590717e-08 2.2047625e-05 0.00043115445 4.856326e-06 0.0 0.0019627775
2.7744674e-24 2.5555161e-25 2.403653e-26 9.811163e-06 2.8009324e-20 1.2022463e-26 4.1082847e-05 6.1549436e-08
2.4796345e-06 0.00030138876 9.2589056e-05 3.9947961e-28 1.6164666e-06 2.8598185e-10 2.7205884e-08 3.9059773e-06
3.080302e-05 5.06451e-07 5.1572096e-07 0.0 3.059075e-23 1.2046436e-24 5.8947157e-26 2.034678e-06
7.541339e-19 1.6456962e-26 1.5844898e-06 7.193346e-08 3.8472746e-07 2.515351e-05 6.9160915e-06 8.607591e-28
3.0419354e-08 2.4531614e-17 3.5827027e-14 1.7011727e-10 2.3683713e-06 7.4381896e-11 2.8162785e-12 8.863777e-06
0.0 1.4230803e-24 5.0748457e-26 4.930787e-11 5.7478256e-21 3.3918717e-26 1.1034136e-08 1.1378337e-13
2.0225687e-11 1.5840534e-08 5.6034004e-09 1.2335393e-27 1.2072729e-08 1.1599538e-17 2.2651875e-14 6.272553e-11
6.139684e-07 5.159578e-11 1.8482455e-12 2.6129333e-06 2.2711088e-23 0.0 3.8086405e-26 1.8026568e-11
6.402833e-22 7.6717524e-27 4.993132e-09 5.768607e-14 1.206975e-11 8.307415e-09 2.6913551e-09 1.6644121e-28
7.701663e-09 6.217701e-18 1.2621264e-14 4.8360156e-11 6.4088283e-07 2.6671013e-11 1.0532942e-12 2.426768e-06
3.2786755e-24 7.071564e-25 0.0 1.3354803e-11 4.0629047e-23 2.2666795e-26 2.8615834e-09 3.7968496e-14
5.051228e-12 4.472236e-09 1.5066136e-09 9.617456e-28 9.695562e-05 5.802884e-12 7.3874844e-09 3.4558552e-06
0.0010904367 4.0976615e-06 9.18573e-07 0.004608483 7.5008255e-24 2.5145975e-24 8.5117426e-26 0.0
9.486915e-20 7.369544e-26 5.1563642e-05 2.4536774e-08 4.0264413e-07 0.00023957675 8.489102e-05 8.212347e-27
1.8232409e-07 2.4527707e-15 9.343509e-13 1.5440339e-09 8.8016795e-06 7.930452e-10 3.5740536e-11 3.4425473e-05
3.5477923e-24 1.7547148e-25 7.714469e-27 5.254809e-10 0.0 5.855858e-27 8.116335e-08 1.9513735e-12
00000000: 0000 0000 0468 802e 64aa ad33 7fcf 8d38
00000010: e9a8 933a 4948 7b37 c828 b936 6bbd a23b
00000020: f340 8919 ee10 4017 98d6 4015 9977 0038
00000030: 5b77 d520 bfe5 b814 077c a238 654b 0835
00000040: acfc dc36 0b1a 3a3a fc9f 8539 fbb2 b612
00000050: 2e78 9534 0000 0000 3a76 9531 b989 e333
00000060: 8b9d 1337 ac97 ae32 1be6 e432 99f9 0b38
00000070: 4a24 7e18 1f5b 2e16 f93d 2a14 2445 9233
00000080: 39a9 f41e 4aff 9113 e5f3 2934 ae4b 0832
00000090: 7e8e 7932 e89f 4f35 e12b 6134 5e88 2911
000000a0: 81e3 a137 0e9c 182c 0000 0000 6029 7137
000000b0: 9100 1639 3a79 a936 b96b 3b36 c1ac 233a
000000c0: d395 011a 065b e417 d418 cb15 3e09 0137
000000d0: 1e4d 3920 8269 dd14 2699 ce37 2ecb ab33
000000e0: 7bf7 1d36 76de 0c39 3446 2738 b392 3212
000000f0: cbc6 6038 876f 412c c306 0931 0000 0000
00000100: 447f 6f3a 83c3 fd35 ceab 9b34 c7e7 683b
00000110: dba2 7419 d487 e917 dbfc c515 3047 5835
00000120: 2e97 a31f 3ce5 2815 ee3c d437 2199 1032
00000130: 06da 4634 1136 0e39 67a8 4538 be78 4d13
00000140: 9ee3 8f37 5878 582d 6e9b 2633 a36e 9437
00000150: 0000 0000 1475 2836 d870 e335 70e4 1d3a
00000160: 84f1 351a 7415 5e18 d3e3 5a16 6895 1b37
00000170: eb40 9720 cef6 b215 59ed 6237 0045 4134
00000180: 7225 0a36 0800 fa38 3837 2238 579b 7113
00000190: 9a8d b539 38c3 f02e f76b 2c34 e9e7 0039
000001a0: 4476 193b 0000 0000 57f0 ff36 69d7 193c
000001b0: 2a38 2c18 d5ef 0f16 be75 fb13 c0c0 8338
000001c0: 7d9e 3220 0f12 9213 ff5b 8139 d176 3335
000001d0: c408 8e37 97fd a83a 56e8 fc39 a705 0612
000001e0: 9b5f 6c38 42d0 5b2d 3da4 8832 eaf2 b837
000001f0: 920c e239 86f3 a236 0000 0000 f1a1 003b
00000200: fda9 5618 c52d 9e16 d80b ee14 a09a 2437
00000210: 3245 041f 2121 6e14 5f50 2c38 292d 8433
00000220: cc67 2636 b703 9e39 5f2c c238 4633 fd11
00000230: 5ff5 d835 5e38 9d2f 5fb2 e932 1710 8336
00000240: 7e32 0138 0cf3 0735 1370 0a35 0000 0000
00000250: 84ed 131a d968 ba17 33f2 9115 808b 0836
00000260: bf94 5e21 5bfb a214 a8aa d435 d679 9a33
00000270: 8a8c ce34 c000 d337 c610 e836 8a64 8812
00000280: 6fa6 0233 a343 e223 c059 2129 c10b 3b2f
00000290: 4ff0 1e36 4991 a32e 902d 462c a2b5 1437
000002a0: 0000 0000 0536 dc17 504b 7b15 badb 582e
000002b0: 8f25 d91d 15f5 2715 a590 3d32 d31b 002a
000002c0: 33e8 b12d b411 8832 0888 c031 4c76 c312
000002d0: 6c68 4f32 45f9 5523 ab07 cc28 56ef 892e
000002e0: 96cf 2435 afeb 622e 080f 022c da59 2f36
000002f0: eea5 db19 0000 0000 4198 3c15 3990 9e2d
00000300: 8583 411c 68f4 1714 0e90 ab31 c1e5 8129
00000310: 5255 542d 66b8 0e32 d2f2 3831 43fd 5211
00000320: 4650 0432 8764 e522 4f5d 6328 b2b0 542e
00000330: 2209 2c35 c899 ea2d ec3c 942b 8fdb 2236
00000340: dcac 7d18 b4da 5a17 0000 0000 b0f0 6a2d
00000350: 5378 441a 277b e014 82a5 4431 b2fe 2a29
00000360: 6bb9 b12c 34aa 9931 4111 cf30 0965 9812
00000370: a754 cb38 bc2b cc2c 00d5 fd31 24eb 6736
00000380: fcec 8e3a a57e 8936 db93 7635 c202 973b
00000390: 4a16 1119 bc8e 4218 94bd d215 0000 0000
000003a0: e200 e01f 0976 b615 0a46 5838 f0c4 d232
000003b0: fd2a d834 e536 7b39 8507 b238 8ca9 2214
000003c0: ddc4 4334 a2bd 3027 8a7f 832b dd35 d430
000003d0: edaa 1337 98fd 5930 4430 1d2e 1264 1038
000003e0: a23f 8918 2239 5916 01cd 1814 6e71 1030
000003f0: 0000 0000 75f9 e713 064c ae33 d250 092c

exp_avg f4 [9, 20]
-0.00018060544 -5.8327434e-05 -0.00034145406 -0.0005776952 -0.0012948875 0.00031194778 -0.00011275198 -0.0026898994
6e-45 6e-45 6e-45 -0.00039968875 6e-45 6e-45 -6.125282e-05 -0.0006195764
-0.00029332907 8.1274455e-05 0.00035092176 6e-45 0.007004741 3.4526718e-05 0.0012459437 0.008148031
0.0131272515 0.004428146 0.0054007815 0.021813456 -6e-45 6e-45 6e-45 0.0064981678
-6e-45 6e-45 0.007365141 0.0022471002 0.0033030042 0.015774697 0.009291392 6e-45
-0.0011546004 3.3062706e-06 -5.0337247e-05 -0.0032809814 -0.0020378034 -0.0008172361 -0.0017984771 -0.0052464157
6e-45 6e-45 6e-45 -0.0026001453 6e-45 6e-45 -0.00018786768 -0.0005055281
-0.00056057295 -0.0034075978 -0.0016875472 6e-45 -0.0034335186 9.397615e-07 -4.700555e-05 -0.0009796531
-0.0031082993 -0.00071859756 -0.00037563292 -0.0017666679 6e-45 6e-45 6e-45 -0.0010149225
6e-45 6e-45 -0.0029452308 -0.0010160431 -0.0011539813 -0.0024926753 -0.0027324255 6e-45
-0.0034458593 6.2429076e-06 -0.0011352124 -0.00378582 -0.0074991817 -0.0026223501 -0.0030848768 -0.011068365
6e-45 6e-45 6e-45 -0.0029369432 6e-45 6e-45 -0.004556591 -0.0013150427
-0.0016426108 -0.008981904 -0.0047693406 6e-45 0.002368403 1.346047e-05 0.00059713516 0.0034234046
0.0048302775 0.00078863924 0.0012577209 0.0065662055 6e-45 6e-45 6e-45 0.0031779753
6e-45 6e-45 0.0023908818 0.0016020406 0.0019145462 0.0054900344 0.0030866754 6e-45
0.0017733638 3.636014e-06 0.0009580618 0.004729501 0.0048520574 0.0011391394 0.0028970612 0.009682731
6e-45 6e-45 6e-45 0.0039745905 6e-45 6e-45 0.001892921 0.0018589728
0.0019029825 0.005777636 0.003422285 6e-45 -0.0023852626 -9.645299e-07 -0.00090802787 -0.007568373
-0.007445722 -0.002357856 -0.0037897627 -0.019321457 6e-45 -6e-45 -6e-45 -0.006346292
6e-45 -6e-45 -0.0029678731 -0.0019095573 -0.003455833 -0.011190488 -0.0061218236 -6e-45
-0.00054665765 -2.8201644e-06 -0.00031910307 -0.00010841198 -0.001423681 -0.00015183022 -0.0003940606 0.0020304262
6e-45 6e-45 6e-45 -0.00035273866 6e-45 6e-45 -0.0009301249 -0.00034236524
-1.4203961e-05 -0.0010509692 -0.00084012875 6e-45
00000000: e760 3db9 9ba4 74b8 3005 b3b9 7870 17ba
00000010: 37b9 a9ba ec8c a339 4275 ecb8 0649 30bb
00000020: 0400 0000 0400 0000 0400 0000 518d d1b9
00000030: 0400 0000 0400 0000 db74 80b8 126b 22ba
00000040: f6c9 99b9 e471 aa38 ecfb b739 0400 0000
00000050: 0788 e53b c8d0 1038 ef4e a33a 527f 053c
00000060: af13 573c fb19 913b 0af9 b03b 22b2 b23c
00000070: 0400 0080 0400 0000 0400 0000 95ee d43b
00000080: 0400 0080 0400 0000 4857 f13b 1644 133b
00000090: 3777 583b f039 813c ec3a 183c 0400 0000
000000a0: f655 97ba 4ce1 5d36 3521 53b8 bc05 57bb
000000b0: ab8c 05bb c93b 56ba e1ba ebba 20ea abbb
000000c0: 0400 0000 0400 0000 0400 0000 3367 2abb
000000d0: 0400 0000 0400 0000 59fe 44b9 6b85 04ba
000000e0: 6af3 12ba 0152 5fbb b030 ddba 0400 0000
000000f0: e204 61bb eb43 7c35 d327 45b8 b467 80ba
00000100: 9cb4 4bbb 4460 3cba 99f0 c4b9 8a8f e7ba
00000110: 0400 0000 0400 0000 0400 0000 2607 85ba
00000120: 0400 0000 0400 0000 c604 41bb c02c 85ba
00000130: 3041 97ba 275c 23bb 7e12 33bb 0400 0000
00000140: edd3 61bb 2b7a d136 68cb 94ba 851b 78bb
00000150: b2bb f5bb bcdb 2bbb a52b 4abb 1658 35bc
00000160: 0400 0000 0400 0000 0400 0000 bb79 40bb
00000170: 0400 0000 0400 0000 754f 95bb 835d acba
00000180: df4c d7ba d628 13bc 2148 9cbb 0400 0000
00000190: 3537 1b3b 47d4 6137 1089 1c3a 335b 603b
000001a0: 4e47 9e3b afbc 4e3a 1cda a43a 5329 d73b
000001b0: 0400 0000 0400 0000 0400 0000 9445 503b
000001c0: 0400 0000 0400 0000 57b0 1c3b 90fb d13a
000001d0: 83f1 fa3a bfe5 b33b d249 4a3b 0400 0000
000001e0: 3770 e83a 3f02 7436 7026 7b3a eef9 9a3b
000001f0: 02fe 9e3b 2d4f 953a 9fdc 3d3b 51a4 1e3c
00000200: 0400 0000 0400 0000 0400 0000 483d 823b
00000210: 0400 0000 0400 0000 e41b f83a c7a8 f33a
00000220: 7f6d f93a 5352 bd3b 6a48 603b 0400 0000
00000230: 1152 1cbb ff74 81b5 b808 6eba 1d00 f8bb
00000240: 3efb f3bb 4286 1abb ab5d 78bb 0848 9ebc
00000250: 0400 0000 0400 0080 0400 0080 8ef4 cfbb
00000260: 0400 0000 0400 0080 a680 42bb 1c4a faba
00000270: 427b 62bb 4f58 37bc 9499 c8bb 0400 0080
00000280: 934d 0fba 0e42 3db6 4a4d a7b9 3d5b e3b8
00000290: cf9a baba 9d34 1fb9 eb99 ceb9 e610 053b
000002a0: 0400 0000 0400 0000 0400 0000 c8ef b8b9
000002b0: 0400 0000 0400 0000 a0d3 73ba 7c7f b3b9
000002c0: 8c4d 6eb7 adc0 89ba 163c 5cba 0400 0000
