checkpoints/RNN_169.pt (torch, 111359 bytes, 9 tensors)

snn.l1.input_weights f4 [20, 416]
0	0xbda14225	-0.07873944
1	0x3f131514	0.5745404
2	0x3e2f9d94	0.17149955
3	0x3e2a88fa	0.16653815
4	0xbf02b7f6	-0.5106195
5	0x3e722465	0.23646696
6	0xbe6bfd3b	-0.23045819
7	0x3eed5044	0.463503
8	0xbd48e11a	-0.0490428
9	0x3f2b599a	0.66933596
10	0x3e6be5dd	0.23036905
11	0xbe60ea94	-0.21964484
12	0xbcb7852a	-0.022402365
13	0xbf2ddbdc	-0.67913604
14	0x3e9de947	0.3084204
15	0x3e584c7f	0.21122931
16	0xbf05ea85	-0.52310973
17	0xbe56149a	-0.20906296
18	0xbdf3f645	-0.119122066
19	0xbe6543ee	-0.22389194
20	0x3edc4f8d	0.43029442
21	0xbdd226d8	-0.10261315
22	0x3e6c54b3	0.23079185
23	0x3f11fc7e	0.570259
24	0x3e429bfe	0.19004819
25	0x3eed96a7	0.46404
26	0x3da22e12	0.079189435
27	0x3eaa1712	0.33220726
28	0x3f025854	0.5091603
29	0xbd85c57a	-0.06531806
30	0x3f12cf84	0.57347894
31	0x3f2dccd1	0.6789065
32	0x3e2e39e7	0.17014275
33	0xbee65b0d	-0.4499134
34	0xbebb19de	-0.36543173
35	0x3dd409a2	0.103534
36	0x3f6a8d82	0.91622174
37	0x3c435c1d	0.011923817
38	0xbeb0ee89	-0.34556988
39	0x3e08f77c	0.13375658
40	0xbed323b5	-0.4123818
41	0x3f365471	0.712226
42	0xbe3e0029	-0.18554749
43	0x3f33bc13	0.70208853
44	0x3f09a4a5	0.5376685
45	0x3ec06d40	0.3758335
46	0x3f0510be	0.5197867
47	0x3e05aa6a	0.13053289
48	0x3e5d2f02	0.21599963
49	0xbf58b79a	-0.84655154
50	0xbe5ff543	-0.21870904
51	0x3cae735a	0.021295238
52	0x3f9d240b	1.2276624
53	0x3f5947e7	0.8487534
54	0x3f0795a9	0.5296274
55	0x3f802f1d	1.0014378
56	0x3f32ff25	0.6992057
57	0x3f6275f4	0.8846123
58	0x3f8b59ae	1.0886743
59	0x3fa01f8c	1.2509627
60	0x3f99b888	1.200944
61	0x3f11e19b	0.5698487
62	0x3f9cbf42	1.2245867
63	0x3f37c945	0.7179149
64	0x3fae7012	1.3627951
65	0x3fa09520	1.2545509
66	0x3fa135b8	1.2594519
67	0x3fba067e	1.4533231
68	0x3f9c8512	1.222811
69	0x3f4649e8	0.7745652
70	0x3e6963f3	0.22792034
71	0x3ef57c41	0.4794636
72	0x3f7881ce	0.97073066
73	0x3f909ab1	1.1297208
74	0x3f2e058e	0.67977226
75	0x3f62505f	0.88403887
76	0x3f96db84	1.1785741
77	0x3f0e004b	0.554692
78	0x3fac4fd8	1.3461866
79	0x3f5929e4	0.84829545
80	0x3faf62da	1.3702042
81	0x3fb13bba	1.3846352
82	0x3f5e88cb	0.8692748
83	0x3fb5dad7	1.420741
84	0x3f8b6056	1.0888774
85	0x3f6be54b	0.9214675
86	0x3f1a407d	0.6025465
87	0x3f448efa	0.76780665
88	0x3f4f1e6e	0.80905807
89	0x3f60ea98	0.8785796
90	0x3f59dbf4	0.85101247
91	0x3f99fb97	1.2029904
92	0x3fb0891e	1.3791845
93	0x3f69a8de	0.91273296
94	0x3f83e7cf	1.0305117
95	0x3f541846	0.8284954
96	0x3f51adca	0.81905806
97	0x3fc15c0d	1.5106217
98	0x3f5f84d5	0.8731206
99	0x3fba5d54	1.4559731
100	0x3eefdc5f	0.46847817
101	0x3e2b2b3e	0.16715714
102	0x3f6b4399	0.9190002
103	0x3f8e7218	1.1128569
104	0x40114a4f	2.2701604
105	0x400b5f82	2.1777043
106	0x3fd24bb0	1.6429348
107	0x3fd98f14	1.6996789
108	0x400fd07c	2.2470999
109	0x402696fa	2.6029649
110	0x3fb4e0d0	1.4131107
111	0x40136009	2.3027365
112	0x3fa8f1f3	1.3198837
113	0x40028f8b	2.0400112
114	0x401390ce	2.3057132
115	0x40249dc8	2.5721302
116	0x4018d3c6	2.3879256
117	0x3fe46abc	1.7845073
118	0x3fbfa49e	1.4972112
119	0x4004ccf9	2.0750105
120	0x4008e436	2.138929
121	0x3fe999ce	1.8250062
122	0x3fee6a26	1.8626144
123	0x3ffcb31d	1.9742161
124	0x400920a4	2.1426172
125	0x40080cf8	2.1257915
126	0x3fc2d9d8	1.5222731
127	0x3fd96337	1.6983403
128	0x3fb82ad9	1.4388076
129	0x40053586	2.0813918
130	0x401037cc	2.2534056
131	0x402cd2b8	2.7003613
132	0x401871dd	2.3819497
133	0x3fd9b5ca	1.7008603
134	0x3fcd52d2	1.60409
135	0x3fb2be7a	1.3964379
136	0x4006ac7e	2.104278
137	0x3ffa273f	1.9543227
138	0x3fcfdb51	1.6238805
139	0x4000e4f8	2.0139751
140	0x3ff57546	1.9176414
141	0x3fdfe5e4	1.7492032
142	0x3fdaf2da	1.7105362
143	0x3fe703c4	1.8048024
144	0x3fa5db71	1.2957593
145	0x401e2afc	2.4713736
146	0x40116b37	2.2721689
147	0x4045d448	3.0910816
148	0x4022eb5a	2.5456147
149	0x3fd21656	1.6413066
150	0x3fb708f9	1.4299613
151	0x3fdddafe	1.7332456
152	0x401ab343	2.4171913
153	0x3fe8a0e5	1.8174101
154	0x3fd31d41	1.6493303
155	0x40293829	2.6440527
156	0xbf07adc0	-0.52999496
157	0x3ebb3ec4	0.36571324
158	0x3ef19d6a	0.4719041
159	0x3e8b3c89	0.27194622
160	0x3ef32123	0.4748622
161	0x3de1bb6f	0.11022078
162	0x3f4d78f7	0.802627
163	0x3faab094	1.3335137
164	0x3f6c61d3	0.9233677
165	0x3f0adb49	0.5424085
166	0x3f622b62	0.88347447
167	0x3f2d30bd	0.67652494
168	0x3ef28434	0.47366488
169	0x3e8e090a	0.2774127
170	0x3e9c3f05	0.3051683
171	0xbe0a1f28	-0.13488448
172	0xbe8c4873	-0.27399024
173	0x3ec05387	0.37563726
174	0x3db905b0	0.09034288
175	0x3e00b903	0.12570576
176	0x3df66c86	0.12032418
177	0x3de6579e	0.112471804
178	0x3f7465d8	0.954679
179	0x3f7a487f	0.9776687
180	0x3f24191b	0.6410081
181	0x3d26fe80	0.040770054
182	0x3c4d3e75	0.012527098
183	0x3f60479f	0.87609285
184	0x3f33a21e	0.70169246
185	0x3db5b1ef	0.08871829
186	0x3f56a910	0.8385172
187	0x3f0756b3	0.5286667
188	0xbe29d385	-0.16584595
189	0x3e4d46a8	0.20046484
190	0x3ec314f3	0.3810192
191	0x3e851970	0.2599597
192	0x3e10f651	0.14156462
193	0xbe9857fa	-0.2975462
194	0x3f89aeaa	1.0756428
195	0x3f5dd1ec	0.8664844
196	0x3f1c7de3	0.6112959
197	0x3e9d5ce3	0.3073493
198	0x3d460c47	0.048351552
199	0x3f4c519e	0.7981204
200	0x3ee24b43	0.44198045
201	0x3eb187ea	0.34674007
202	0x3f44fd85	0.7694934
203	0x3f17a6a5	0.59238654
204	0x3eac4b4c	0.33651197
205	0x3f0fabca	0.56121504
206	0x3df063ee	0.1173781
207	0x3f0dc901	0.5538483
208	0xbc8f50e6	-0.01749463
209	0x3e8ea12d	0.27857342
210	0x3b476440	0.0030424744
211	0xbe4f6ffe	-0.20257565
212	0x3e7da47d	0.24769779
213	0x3cb68a4d	0.022282744
214	0xbf437ca1	-0.76362044
215	0xbcbc094c	-0.022953652
216	0xbe68edc3	-0.22746949
217	0xbd17950b	-0.037007373
218	0x3dbc5c8d	0.0919734
219	0xbed25f89	-0.41088513
220	0x3eade3a3	0.33962736
221	0xbf227dba	-0.63473094
222	0xbf39c533	-0.7256653
223	0xbeda54fa	-0.42642957
224	0xbe7032b8	-0.23456848
225	0x3f0778ef	0.52918905
226	0xbe3da808	-0.1852113
227	0xbe446903	-0.19180684
228	0x3f0a0110	0.5390787
229	0xbea37aef	-0.31929728
230	0xbf803315	-1.0015589
231	0x3e5187fb	0.20462029
232	0xbede2109	-0.4338458
233	0xbe4d53ee	-0.20051548
234	0x3d922c6c	0.07137379
235	0xbe5a7015	-0.21331818
236	0x3eef1e9a	0.46703035
237	0x3dc7c091	0.09753526
238	0xbec92391	-0.39284948
239	0xbf1127ca	-0.5670134
240	0xbe86a6ea	-0.2629922
241	0xbe84bd17	-0.25925514
242	0xbdd76858	-0.10517949
243	0xbebd72b3	-0.3700157
244	0x3ec38874	0.38190043
245	0xbf4c2db5	-0.79757243
246	0xbf1c45df	-0.61044115
247	0x3f3fba99	0.748941
248	0xbe867ce5	-0.26267162
249	0xbcbe1dd2	-0.023207579
250	0x3e058908	0.13040555
251	0xbef8ed88	-0.48618722
252	0xbdd80ee0	-0.10549712
253	0x3e4b2454	0.19838077
254	0xbefd1db3	-0.4943672
255	0xbf1fe4a8	-0.62458277

snn.l1.recurrent_weights f4 [20, 20]
0	0x00000000	0.0
1	0x40a36961	5.1066136
2	0x3fd7d388	1.6861429
3	0x409b0300	4.844116
4	0xbd0dee30	-0.03465098
5	0xbfed491f	-1.853794
6	0xbf295111	-0.6613932
7	0xc060a698	-3.510168
8	0x40bea8a3	5.9580855
9	0x4034afae	2.8232226
10	0x4056b0e5	3.3545468
11	0x40c85b01	6.261109
12	0x40ceb564	6.4596424
13	0x405bb71d	3.4330513
14	0xbfd08276	-1.6289814
15	0x3f0ecf7b	0.5578534
16	0x40aed2f3	5.4632506
17	0xc0a9af49	-5.302647
18	0x400019a5	2.0015652
19	0x3f527875	0.8221505
20	0x3eeb7aba	0.4599207
21	0x00000000	0.0
22	0x418310e5	16.38325
23	0x412cc1c8	10.79731
24	0xc01a20e0	-2.4082565
25	0x40c98f0d	6.2987123
26	0x41660bc2	14.377871
27	0xc0aa8adc	-5.3294506
28	0x40d0a067	6.5195804
29	0x40827edb	4.0779853
30	0x40647b77	3.5700357
31	0x4136214f	11.383132
32	0x4153579e	13.208891
33	0x4094e2db	4.6526923
34	0x3ee59009	0.44836453
35	0x40f89c79	7.7691007
36	0xbf5b310b	-0.8562171
37	0x408ef9da	4.4679995
38	0x3f35cf25	0.710192
39	0x3ff2fa38	1.8982611
40	0x3f064a1f	0.5245685
41	0x40f69d10	7.7066727
42	0x00000000	0.0
43	0x4103124a	8.191965
44	0xc04eb33d	-3.2296898
45	0x40b58ad2	5.673196
46	0x41191dea	9.569803
47	0xc0117bc6	-2.2731795
48	0x40041e9b	2.064368
49	0x409626c4	4.692232
50	0x3ff55dbd	1.9169232
51	0x41282cb0	10.51091
52	0x4113effd	9.246091
53	0x4082fe68	4.0935555
54	0x407db5fd	3.9642327
55	0x40bdbea9	5.929524
56	0xbf6dd099	-0.9289642
57	0x40d22568	6.567066
58	0x401fb8cf	2.4956548
59	0x403afd19	2.9216979
60	0x3f2de3db	0.67925805
61	0x404e43ea	3.2228951
62	0x4037d7b3	2.8725402
63	0x00000000	0.0
64	0x3ed0407d	0.406742
65	0xbfe397aa	-1.7780659
66	0x40d9f312	6.8109217
67	0x3ff15690	1.8854542
68	0x408751b2	4.2287226
69	0x3f555e8e	0.83347404
70	0x402acf62	2.6689076
71	0x419ebbf6	19.841778
72	0x40a8d42a	5.275899
73	0x3fb9fe5e	1.4530752
74	0x3ffccfcf	1.9750918
75	0xbe9bd26d	-0.3043398
76	0x405f6abd	3.4908898
77	0x40fb57ec	7.8544827
78	0x40e1280c	7.0361385
79	0xbebee768	-0.37285924
80	0xc01a10dd	-2.4072793
81	0x403e1d6a	2.9705453
82	0x405caee6	3.448175
83	0x410170b2	8.0900135
84	0x00000000	0.0
85	0xc0247e29	-2.5702002
86	0x4022b6bd	2.5424035
87	0xc09d7e6e	-4.9216833
88	0x40ab10a5	5.345782
89	0x3fc4b259	1.5366927
90	0x4035cabf	2.8404996
91	0x40e658b7	7.1983294
92	0x40ade9a5	5.434771
93	0x3fc710f1	1.5552045
94	0xbfdeda11	-1.7410299
95	0xbfbf792a	-1.4958851
96	0x3f2f8192	0.68557084
97	0xc014dce4	-2.325982
98	0xc0745873	-3.8178985
99	0xbe19e464	-0.1502853
100	0xbf175670	-0.5911627
101	0x407cbc76	3.9490027
102	0x40ce27a9	6.4423413
103	0xbf4a5d63	-0.79048747
104	0xbde7b326	-0.11313467
105	0x00000000	0.0
106	0x3ffe581a	1.9870636
107	0x3e939658	0.2882564
108	0x40a7aa03	5.2395034
109	0x402eeece	2.7333255
110	0x403c706a	2.9443612
111	0x3fb44d15	1.4086024
112	0x40b3f1f1	5.623284
113	0x4083d95f	4.1202846
114	0x409f51ad	4.97872
115	0x3fac2232	1.3447936
116	0x3f33550e	0.7005166
117	0xbedff3dd	-0.4374074
118	0x4027332a	2.6124978
119	0x3f917087	1.1362466
120	0x3fe2ed21	1.7728616
121	0x40b054e7	5.510364
122	0x40d89bef	6.769035
123	0x40c101f4	6.0314884
124	0xbfc23a8b	-1.5174116
125	0x40b5d5d0	5.68235
126	0x00000000	0.0
127	0x3eec947b	0.46207032
128	0x402395f5	2.5560277
129	0x3fde869a	1.7384827
130	0x3f2e55f6	0.68099916
131	0x40a802a9	5.2503247
132	0x409306aa	4.5945635
133	0x3ff1798e	1.886522
134	0x3fc09db9	1.5048133
135	0x404951a0	3.145607
136	0xc02953a1	-2.6457293
137	0x4105e593	8.368548
138	0x40813716	4.0379744
139	0x3fa89dab	1.3173116
140	0xbfe97156	-1.8237712
141	0x410b3103	8.699466
142	0x407caf89	3.9482138
143	0xbe5b0124	-0.21387154
144	0x40b43faa	5.6327715
145	0xc025d8b1	-2.5913508
146	0xc0e86d9b	-7.2633796
147	0x00000000	0.0
148	0x40be8100	5.953247
149	0x3fddae6d	1.7318856
150	0x403f43d6	2.9885154
151	0x404b3782	3.175263
152	0x41030b46	8.190252
153	0x40621659	3.532614
154	0xc07638f9	-3.8472273
155	0x4083806f	4.109428
156	0x40123ecd	2.285083
157	0xc112b2d5	-9.16866
158	0xc03cafea	-2.948237
159	0x3f9d2407	1.227662
160	0xc145737e	-12.340696
161	0x408ad3cc	4.338354
162	0x406f6853	3.7407424
163	0x402b388d	2.6753266
164	0xc121fdad	-10.124433
165	0xc11295f5	-9.161611
166	0xc05c193d	-3.4390404
167	0xc17d84fa	-15.844965
168	0x00000000	0.0
169	0xbe4b040c	-0.19825763
170	0x407493a9	3.8215125
171	0x3f995015	1.1977564
172	0x410d02fb	8.813228
173	0x400619c4	2.0953226
174	0xc11e38a5	-9.888829
175	0xc028e546	-2.6389937
176	0xc069f376	-3.6554847
177	0xc133c110	-11.234634
178	0xc12e833d	-10.907041
179	0xbfc93da6	-1.5721939
180	0xc1491d60	-12.569672
181	0x40994d79	4.790707
182	0x40e6de0c	7.2146053
183	0xc094121e	-4.6272116
184	0xc1469d4a	-12.413401
185	0xc1029c76	-8.163198
186	0xc0b6edb5	-5.716517
187	0xc182dc33	-16.35752
188	0x40bfe9c4	5.997286
189	0x00000000	0.0
190	0x4063e73f	3.5609891
191	0xc0314d48	-2.7703419
192	0x40f9cf2f	7.806541
193	0x4098b249	4.7717633
194	0xc0d27c1a	-6.577649
195	0xc0701e32	-3.751843
196	0xbfbff2ab	-1.4995931
197	0xc12c09d7	-10.752402
198	0xc123a077	-10.226676
199	0x3f98c022	1.1933634
200	0xc172b1b7	-15.168387
201	0x3f9d80da	1.2304947
202	0x409aaf9c	4.8339367
203	0xbfdda399	-1.7315551
204	0xc1311f34	-11.070118
205	0xc133d068	-11.23838
206	0xc10c3f88	-8.765511
207	0xc19215c1	-18.260622
208	0x40ecccba	7.399991
209	0x40301fac	2.751933
210	0x00000000	0.0
211	0xc013131a	-2.2980409
212	0x40cf2f71	6.474541
213	0x4066dd92	3.6072736
214	0xc12e0977	-10.877311
215	0xc0fbf4f8	-7.8736534
216	0xc0847b5a	-4.1400576
217	0xc167977d	-14.474484
218	0xc13e25cd	-11.884229
219	0xbedf23d3	-0.4358202
220	0x3f9b0c70	1.2113171
221	0x3f851879	1.0398093
222	0x3fc8b36f	1.5679759
223	0x4168e707	14.556403
224	0xbfdbe61c	-1.7179599
225	0x3fcbd5e7	1.5924653
226	0x40982b6d	4.755301
227	0x3fa89893	1.3171562
228	0x3fe6626a	1.7998784
229	0x3e49b924	0.19699532
230	0x3f3c179a	0.73473513
231	0x00000000	0.0
232	0x406dadab	3.7137249
233	0x3fe74c08	1.8070078
234	0x3f6563a0	0.8960514
235	0x3eb938c4	0.3617612
236	0x3e5b6770	0.21426177
237	0x40c8f5f2	6.2800226
238	0x40be68ef	5.9503093
239	0x3d8a4de6	0.06753139
240	0xc0b54e8b	-5.665838
241	0x411c8b70	9.784042
242	0x4122f88d	10.185681
243	0x40cc7e17	6.390392
244	0xc0e5171c	-7.159071
245	0xbf1c5a2c	-0.6107509
246	0x40c5d29d	6.1819596
247	0xc122597e	-10.146849
248	0x40ef673b	7.4813514
249	0x3fd95565	1.6979185
250	0x40940221	4.62526
251	0x40cfdda9	6.495808
252	0x00000000	0.0
253	0x407be953	3.936116
254	0xc0b409e1	-5.626206
255	0x3ff20f2d	1.8910881

snn.fc_out.weight f4 [9, 20]
0	0xc0515667	-3.2708986
1	0xbf112839	-0.56702
2	0xbffc0f91	-1.969225
3	0xc116fa0a	-9.436045
4	0x3ec5c74c	0.38628614
5	0xc04322ae	-3.0489917
6	0xc0d5548c	-6.6665707
7	0x40f4d940	7.65152
8	0xc0566f53	-3.3505447
9	0xbd986601	-0.07441331
10	0xbfad5c6c	-1.354383
11	0xc11134b8	-9.075371
12	0xc01a7eef	-2.4139974
13	0xbfa6a67f	-1.301956
14	0x3f256a37	0.64615196
15	0x4006be76	2.1053748
16	0x40ad5a6a	5.417287
17	0xbf9fd319	-1.2486297
18	0xbeb37e15	-0.3505713
19	0xbe685c37	-0.22691427
20	0xc02dd2e2	-2.7159963
21	0x4029769c	2.6478643
22	0x40fc8530	7.8912582
23	0xc04e1336	-3.2199225
24	0xbf9e3af4	-1.2361741
25	0x3fc07036	1.5034244
26	0x3e7db9b1	0.24777867
27	0xbffb2ae3	-1.9622463
28	0x3f0dad10	0.553422
29	0x402614fc	2.5950308
30	0x3ff477d9	1.9099075
31	0xbfaf830d	-1.3711869
32	0x401f4be6	2.4890075
33	0x3facc811	1.3498555
34	0x40398e64	2.8993158
35	0xc0a07252	-5.013955
36	0xbfb21437	-1.3912419
37	0x3feeec55	1.8665873
38	0x3e4f6fd5	0.20257504
39	0x3fd71916	1.6804531
40	0x402c2e82	2.6903386
41	0x3fdbe87c	1.7180324
42	0xbec3c926	-0.38239402
43	0xbfa6f1a8	-1.3042498
44	0x40a22425	5.066912
45	0x3ed025a5	0.4065372
46	0x3f26075f	0.64855
47	0x3f1792d6	0.5920843
48	0x40854272	4.164361
49	0x3e365fce	0.17809984
50	0x3ffa00dd	1.9531513
51	0xc0420598	-3.0315914
52	0x3fe71500	1.8053284
53	0x3f1fa627	0.62362903
54	0x3f4a5f09	0.7905126
55	0x403bd244	2.9347086
56	0xc0a70c70	-5.2202682
57	0xc06e16bb	-3.7201374
58	0xc05813df	-3.3762128
59	0x3f3d9d47	0.7406811
60	0x40039bde	2.0563884
61	0xbfd0a230	-1.6299496
62	0xbf850532	-1.039221
63	0xc0c3d560	-6.1197968
64	0xbfbb0b32	-1.4612792
65	0x40885d21	4.2613683
66	0xbf881ee5	-1.0634428
67	0x3f846467	1.034314
68	0xbde0325f	-0.109471075
69	0x3fb75ff1	1.4326154
70	0x3ef1b45f	0.47207925
71	0xbfce102b	-1.6098684
72	0x3ed0d1a4	0.40784943
73	0x3fcded7d	1.6088101
74	0x4050184a	3.2514825
75	0x40583655	3.3783162
76	0x404ef835	3.2338994
77	0xc032caec	-2.7936354
78	0x3ee6ab8e	0.4505276
79	0x3f9348d2	1.1506598
80	0xbfb03f84	-1.3769383
81	0x4052caf9	3.2936385
82	0x3e98ec66	0.29867858
83	0xc06cb48f	-3.6985204
84	0xbf165c02	-0.5873414
85	0xbfd7af18	-1.6850309
86	0x40a836f9	5.2567105
87	0xbf57ac5d	-0.8424738
88	0xc01de4b6	-2.4670844
89	0xbf3cc88f	-0.7374353
90	0xbff64890	-1.9240894
91	0xc0e79ff2	-7.2382746
92	0x3f8f6f8f	1.120592
93	0xbfd73822	-1.6814005
94	0xbfdeeb58	-1.7415571
95	0x3fc89a3f	1.5672072
96	0xc00152be	-2.0206752
97	0x4081a46d	4.0513215
98	0xbf3464c3	-0.7046625
99	0xbfa4968d	-1.2858444
100	0x4023c46f	2.5588644
101	0xbfb64e96	-1.4242733
102	0xc066aadd	-3.6041787
103	0x3f4da51f	0.8033008
104	0xc0184c6b	-2.3796642
105	0xc062854a	-3.5393853
106	0xc01d46ab	-2.4574382
107	0xbf22603e	-0.63428104
108	0xc08684cb	-4.20371
109	0xbf744e3a	-0.95431864
110	0xc0280cf4	-2.6257906
111	0x3fd5de35	1.6708437
112	0xc0200303	-2.5001838
113	0xbf02e899	-0.51136166
114	0xc0717267	-3.7726076
115	0x3eb5eb46	0.35531062
116	0x40615b1a	3.5211854
117	0x3d47d9cd	0.048791695
118	0xbe146dbd	-0.14494987
119	0xbefa011a	-0.48828965
120	0xc10703a4	-8.438389
121	0xc112e06d	-9.179791
122	0xc11422cc	-9.258495
123	0x40a0fb75	5.0306954
124	0xc098f80d	-4.7802796
125	0x3fe57ed3	1.7929329
126	0xbf2a4d21	-0.6652394
127	0xbce37248	-0.027764454
128	0xc0b896c7	-5.7684054
129	0xc102c229	-8.172402
130	0xc0de4de2	-6.947007
131	0x409c39f5	4.882075
132	0xc0c22d85	-6.0680566
133	0xc0c96557	-6.2936206
134	0xc0fcecb9	-7.903897
135	0xc0456974	-3.0845613
136	0xc04610cb	-3.094775
137	0x3f92b8c3	1.1462635
138	0xbf1aff8d	-0.6054619
139	0xc083a503	-4.113893
140	0xc0713274	-3.7687044
141	0xc02cc6e2	-2.6996388
142	0xc0c8bc26	-6.2729673
143	0x4105a248	8.352119
144	0x400b1e13	2.1737106
145	0xc01ce0fe	-2.4512324
146	0xbfcc3a49	-1.5955287
147	0xc08ffd1b	-4.4996467
148	0x40696aa9	3.647135
149	0xc03f51ed	-2.9893754
150	0x4007412a	2.1133523
151	0x40490591	3.1409647
152	0x3e7466e3	0.23867373
153	0xbfb3ab29	-1.4036609
154	0xc091c548	-4.555332
155	0xc10fd601	-8.989747
156	0xc0b3fea8	-5.624836
157	0xbe552aeb	-0.20817153
158	0x3f9f8e05	1.2465216
159	0xc05900b1	-3.3906672
160	0xc03e0ac7	-2.9694078
161	0xc1472cfa	-12.448481
162	0xc02a86cc	-2.6644773
163	0x40a14f2f	5.040916
164	0xc1062325	-8.38358
165	0xc121b757	-10.107261
166	0xc1161a49	-9.381417
167	0x3e0ff43f	0.14058016
168	0xc108746e	-8.528425
169	0xc062e521	-3.545235
170	0xc097d321	-4.7445226
171	0x40b10d7f	5.5328975
172	0xc149a91e	-12.603788
173	0xc089773b	-4.2958045
174	0x3ffdc6f9	1.9826347
175	0xc0b6b1c5	-5.7092004
176	0xbe461c99	-0.19346847
177	0x3fe00488	1.7501383
178	0x3ea9745e	0.33096594
179	0xbf04d741	-0.5189095

exp_avg f4 [20, 416]
0	0xba0bddae	-0.0005335462
1	0xbb08285f	-0.0020776016
2	0xb9c80bdd	-0.00038155811
3	0x39955c19	0.00028488113
4	0xba874c1d	-0.0010322366
5	0x3b86839c	0.0041050445
6	0x3ab5575b	0.0013835238
7	0x3aa83619	0.0012833505
8	0x3a945cc8	0.0011319155
9	0x3b18a1e2	0.002328985
10	0xbaf957a4	-0.0019023311
11	0x3b11db24	0.0022255862
12	0xb9d6be71	-0.0004095915
13	0x3b337a6d	0.0027386204
14	0xba8baa18	-0.001065555
15	0x394ae311	0.0001934881
16	0xbad3d4ac	-0.0016161404
17	0x3a09a59e	0.0005250814
18	0xbad8fb21	-0.0016554334
19	0xbab2138d	-0.0013586149
20	0x39a46c0c	0.0003136102
21	0x3a992714	0.001168462
22	0xbb95f01a	-0.0045757415
23	0x39d75650	0.00041072303
24	0xbafd29ca	-0.0019314822
25	0x3a42571c	0.0007413493
26	0x3b302cbf	0.002688214
27	0xbadfddd4	-0.001707966
28	0x3a7bea2c	0.00096097845
29	0xb9cad892	-0.000386898
30	0xba86783c	-0.0010259221
31	0x39abfc91	0.00032803838
32	0xbb37da65	-0.0028053757
33	0x3b8b266b	0.004246523
34	0xba76ae67	-0.0009410143
35	0xba69f80d	-0.0008925207
36	0x3a466ec6	0.0007569607
37	0xba9c5345	-0.0011926672
38	0x3a1cc1b5	0.00059797923
39	0xbab08bc1	-0.0013469384
40	0xbab4aac5	-0.0013783803
41	0x3b062300	0.002046764
42	0xba6dc091	-0.0009069527
43	0x3b0ad149	0.0021181873
44	0x3a80a229	0.0009813952
45	0x3afd9fc3	0.0019349981
46	0x382df1cb	4.14716e-05
47	0xbb4679c3	-0.0030284978
48	0x3b2e109d	0.0026560195
49	0xbb1efac8	-0.0024258364
50	0xba9c3a09	-0.0011919151
51	0x39a75c4c	0.0003192149
52	0xb9d6f82c	-0.00041002163
53	0xbbbfd68e	-0.0058544343
54	0x3a3a457a	0.000710569
55	0x3b2489bc	0.002510651
56	0x3b3050f2	0.0026903716
57	0xba929d68	-0.0011185827
58	0xb94fcabd	-0.00019816584
59	0x3b5e4c03	0.0033919818
60	0xba73f6cf	-0.00093064917
61	0xbb120e8e	-0.0022286507
62	0xbb08cd2b	-0.0020874243
63	0x395be01a	0.00020968952
64	0xb9805ddc	-0.00024483993
65	0x3af7bc60	0.0018900745
66	0xbade7bcc	-0.001697415
67	0x3b9d3298	0.004797291
68	0x3a8a6ebf	0.0010561569
69	0xb9501382	-0.00019843693
70	0xbb67fe9e	-0.0035399566
71	0x3a0cb383	0.00053673255
72	0xbae9d4a7	-0.0017839865
73	0xbba46e74	-0.00501805
74	0xbadd95f9	-0.0016905657
75	0xb80f0f68	-3.4108205e-05
76	0xb9373854	-0.00017473224
77	0xb997bee5	-0.00028943192
78	0x3abc48e3	0.0014364984
79	0x3b4764e3	0.0030425123
80	0x3b399888	0.0028319675
81	0xbb6aad7e	-0.0035808976
82	0xbb14fe0f	-0.0022734439
83	0x3abe7fdb	0.0014533954
84	0xba89039a	-0.0010453344
85	0x3b3173f9	0.0027077182
86	0xba57438a	-0.0008211663
87	0xbafd1da6	-0.0019311204
88	0x3b7835a8	0.0037873778
89	0xbb2847f9	-0.0025677665
90	0x3b361c34	0.0027787806
91	0x3b20e221	0.0024548846
92	0xbad0e783	-0.0015938136
93	0xbb0b0fc0	-0.0021219105
94	0xbb4380f5	-0.0029831503
95	0x3a783e05	0.0009469691
96	0x39b119e8	0.00033779372
97	0x3a6eeecd	0.00091145636
98	0x3a41d59d	0.00073941966
99	0xbb4f0f30	-0.0031594746
100	0x392f2aa8	0.00016705191
101	0xbafc5b1a	-0.0019253225
102	0xbb29b59f	-0.0025895608
103	0x3aaaf2da	0.0013042346
104	0xbaba17aa	-0.0014197726
105	0xbb2043ad	-0.00244544
106	0x3a30b208	0.0006740396
107	0x3b27c4c0	0.002559945
108	0x3ab69f11	0.0013932904
109	0xbb130ce5	-0.0022438106
110	0x3a684500	0.00088603795
111	0x3a495b90	0.00076811854
112	0x39a2ce72	0.00031052862
113	0x3a5dea89	0.00084654294
114	0xbad2682a	-0.0016052772
115	0x3b3b15a4	0.0028546834
116	0x3ab65a4b	0.0013912407
117	0xbadddb2f	-0.0016926284
118	0x3b811af9	0.003939983
119	0x3c016fc9	0.007900187
120	0xbafa72a7	-0.0019107655
121	0xbae98efc	-0.0017819102
122	0xbb2e9abe	-0.0026642526
123	0x3bba43e1	0.0056843613
124	0xbb834013	-0.004005441
125	0x3a80bc9c	0.0009821835
126	0xba4b5783	-0.0007756876
127	0x3b040421	0.0020144063
128	0x3b93fdc2	0.0045163343
129	0x39ed9820	0.00045317505
130	0x3b358c22	0.0027701934
131	0x3a033b74	0.00050061126
132	0x39037917	0.00012538243
133	0x3a74d970	0.0009340262
134	0x3a1c5fe5	0.0005965217
135	0x3b9b9187	0.004747573
136	0xba970dc6	-0.001152449
137	0x3ba96564	0.0051695574
138	0xbb0e8cd9	-0.0021751432
139	0xbb7cb9a0	-0.003856279
140	0x3b04f6a6	0.0020288615
141	0xbb10e966	-0.0022111773
142	0xbac5ce45	-0.001509138
143	0xbbc5a766	-0.0060319183
144	0xb8c7040c	-9.489813e-05
145	0xbb19ed08	-0.002348723
146	0xba488099	-0.0007648557
147	0xbb884079	-0.0041580764
148	0x3b119ba0	0.0022218004
149	0xbae22e22	-0.001725618
150	0x3ad9bf20	0.0016612746
151	0xbab02f42	-0.0013441818
152	0xbadbc98c	-0.001676844
153	0xba06f38c	-0.00051479856
154	0xb9324332	-0.00017000435
155	0xbb3e4ebf	-0.0029038636
156	0xbae27aec	-0.0017279065
157	0xbb2637c5	-0.002536283
158	0xb9d07cd5	-0.0003976586
159	0x3aeda73d	0.0018131506
160	0x3b877ef8	0.004135009
161	0x387c25e2	6.0116763e-05
162	0x3b80314b	0.003912126
163	0x3a3f1b2d	0.0007290121
164	0x38cac0b4	9.668004e-05
165	0x3ace95fd	0.0015761253
166	0xb929a332	-0.00016177891
167	0x3b0c8641	0.0021442326
168	0xbab9598e	-0.0014141069
169	0x39dbe69a	0.00041942747
170	0x3b254b41	0.0025221857
171	0x3ba359e1	0.0049850796
172	0xbabd48f5	-0.0014441299
173	0xbaefdf2f	-0.0018300767
174	0xbb2c525b	-0.0026294205
175	0x3b3b72cc	0.002860236
176	0xbae8846d	-0.0017739661
177	0xba9e660d	-0.0012084857
178	0xba217352	-0.00061588467
179	0x3aca566e	0.0015437135
180	0xba8afdaa	-0.0010604162
181	0x3b276009	0.002553942
182	0x3aea4388	0.0017872909
183	0x3ac7073d	0.0015184652
184	0x39d3108f	0.00040257393
185	0xba840009	-0.0010070811
186	0xbaba1236	-0.0014196101
187	0x3c03682b	0.008020441
188	0x3b14f159	0.0022726862
189	0x3b40b871	0.002940681
190	0xbb787e4c	-0.0037917076
191	0xbb933f21	-0.0044936095
192	0x3b0c2414	0.002138381
193	0xbb145207	-0.00226319
194	0xbaa22bf1	-0.0012372715
195	0xba115dce	-0.0005545289
196	0x3aac045f	0.0013123861
197	0x3aad324b	0.0013213841
198	0x3808de9d	3.263225e-05
199	0xbb80fbf2	-0.003936284
200	0x3b81f5d2	0.0039660716
201	0xb8ccac2a	-9.759546e-05
202	0xbba7c790	-0.0051202253
203	0x3acdbbec	0.0015696264
204	0xba1c0bbe	-0.00059526775
205	0xba99ab9d	-0.0011724118
206	0x3a230f63	0.00062202493
207	0xb9fe3c1a	-0.00048491434
208	0xba0a74ef	-0.00052817067
209	0x3b8d8f80	0.004320085
210	0x3aa57bd0	0.00126254
211	0x38b1ce41	8.4784355e-05
212	0xbaa8c778	-0.0012876829
213	0xb9d1885d	-0.00039965185
214	0x3a523e89	0.0008020183
215	0x3aa14a8e	0.0012305544
216	0xbc0e28d8	-0.00867673
217	0xba626067	-0.0008635581
218	0x3a6d2046	0.00090456416
219	0xba816a2d	-0.0009873562
220	0xbb7c2262	-0.0038472642
221	0xbafec06f	-0.0019436012
222	0xbb1b5630	-0.0023702495
223	0x3b3f3592	0.0029176218
224	0xba82bd35	-0.0009974601
225	0xb788d74d	-1.631272e-05
226	0xbb55fe23	-0.0032652698
227	0x394ec56b	0.00019719235
228	0xbbc46f28	-0.005994696
229	0x3bb78d92	0.0056015933
230	0xbb226a37	-0.0024782547
231	0x3b00ffc3	0.0019683696
232	0x37fd3c1d	3.0187943e-05
233	0x39635b1d	0.0002168235
234	0x3b3c71d6	0.0028754375
235	0xbb652245	-0.0034963053
236	0x3b5ba53e	0.003351524
237	0xbac0561e	-0.0014674102
238	0x3bad372a	0.005286117
239	0x38e8b34c	0.00011096019
240	0xbacfa9f2	-0.0015843494
241	0xb9c0ee51	-0.00036798653
242	0xbb07804f	-0.0020675843
243	0xbb10286f	-0.0021996757
244	0x3b085122	0.0020800312
245	0xb8282962	-4.0092862e-05
246	0x3b38ff7b	0.002822845
247	0x3a0c592c	0.0005353864
248	0x3a76990c	0.0009406961
249	0x3a58ec98	0.00082750013
250	0xb995af19	-0.00028549953
251	0x3b37e186	0.0028058006
252	0xba009a15	-0.00049057725
253	0xbae129a3	-0.0017178546
254	0xb98e1054	-0.00027096516
255	0xb9ec29b2	-0.00045044493

exp_avg_sq f4 [20, 416]
0	0x38c68534	9.466187e-05
1	0x38be568d	9.076027e-05
2	0x38f2e2d5	0.0001158171
3	0x38d03379	9.9278004e-05
4	0x3906dd1e	0.00012861608
5	0x38cd7d55	9.798507e-05
6	0x38d080c4	9.942197e-05
7	0x38bcc555	9.0012945e-05
8	0x38d737f0	0.00010262418
9	0x38ec7b84	0.000112763635
10	0x391a1a20	0.00014696317
11	0x38cf0fab	9.8734476e-05
12	0x38f37d95	0.000116105344
13	0x38d9b519	0.000103810984
14	0x38c6b811	9.475661e-05
15	0x3908a5ad	0.0001303169
16	0x38d84e8d	0.00010314314
17	0x38c1af56	9.235616e-05
18	0x38e1b1c5	0.00010761948
19	0x395fb22b	0.0002133331
20	0x38b823e9	8.7804925e-05
21	0x38cd46b7	9.7883334e-05
22	0x38f34374	0.00011599707
23	0x388b22ce	6.6345194e-05
24	0x38ac45f6	8.21463e-05
25	0x38cbbf74	9.715455e-05
26	0x38d0c11c	9.954182e-05
27	0x38a28c8f	7.750943e-05
28	0x38c7f5f7	9.534874e-05
29	0x38d75ca1	0.000102692524
30	0x38f4be7e	0.000116703086
31	0x38edf498	0.000113466
32	0x38c6974f	9.469559e-05
33	0x38f8f83a	0.00011871797
34	0x38d80156	0.000102999315
35	0x38c2ae73	9.2831346e-05
36	0x38c019bd	9.1600676e-05
37	0x38d30b03	0.00010063315
38	0x38f24348	0.00011551991
39	0x38dc11f6	0.00010493763
40	0x38e34416	0.000108368855
41	0x38b87d48	8.797139e-05
42	0x38d573aa	0.000101781756
43	0x38a1bede	7.71263e-05
44	0x38b3daf7	8.5761705e-05
45	0x38a57222	7.889072e-05
46	0x38dbe930	0.00010486168
47	0x390fcbf7	0.00013713526
48	0x38da9a21	0.00010423759
49	0x38d0bafc	9.9530414e-05
50	0x38d29101	0.000100405894
51	0x38cde15d	9.817139e-05
52	0x38e79501	0.000110426925
53	0x390f5d43	0.00013672285
54	0x38ce79b4	9.8455144e-05
55	0x38e5f9a3	0.000109660694
56	0x38f108ec	0.00011493437
57	0x38d4e9e9	0.00010152517
58	0x38d46a59	0.000101287565
59	0x38a971bb	8.079732e-05
60	0x38a12fcc	7.685981e-05
61	0x38b33abf	8.5463274e-05
62	0x38af11b6	8.347949e-05
63	0x38b64c4b	8.692647e-05
64	0x38cced82	9.771717e-05
65	0x38d9ee05	0.00010391701
66	0x38b3e1ae	8.577421e-05
67	0x38c410d2	9.349141e-05
68	0x38ba468a	8.88231e-05
69	0x38fc98b8	0.000120447425
70	0x3915a419	0.00014270878
71	0x3901460b	0.00012328492
72	0x38e0cf61	0.0001071978
73	0x38bb2a6d	8.924757e-05
74	0x3900a036	0.00012266714
75	0x38d2f5eb	0.00010059386
76	0x38b12415	8.4467385e-05
77	0x38b3e6a6	8.578347e-05
78	0x38a98abb	8.0843885e-05
79	0x388f714e	6.839876e-05
80	0x389c38f7	7.44927e-05
81	0x38e7bc63	0.00011050028
82	0x38b35924	8.551989e-05
83	0x38cbc477	9.716389e-05
84	0x38a94818	8.0719765e-05
85	0x38f08154	0.00011468181
86	0x38c67c19	9.464491e-05
87	0x38e26eb1	0.00010797138
88	0x38cb9795	9.708029e-05
89	0x38e32c6a	0.00010832476
90	0x39151f90	0.00014221505
91	0x38bf71d5	9.1287926e-05
92	0x38c591a7	9.420822e-05
93	0x38b14702	8.453244e-05
94	0x38ca4c94	9.6463744e-05
95	0x389b9a4f	7.419718e-05
96	0x38be2380	9.0665184e-05
97	0x38bad94f	8.909648e-05
98	0x38b9ba70	8.856214e-05
99	0x38d9f6ef	0.00010393361
100	0x38d08f96	9.944958e-05
101	0x38fdfd6b	0.00012111183
102	0x38f716d4	0.0001178213
103	0x38b4bf70	8.618727e-05
104	0x38bc8ada	8.990402e-05
105	0x38b24892	8.501219e-05
106	0x38ae8fd3	8.323756e-05
107	0x38e26573	0.00010795416
108	0x38ae72e4	8.3183666e-05
109	0x38aabb89	8.141163e-05
110	0x38bcc486	9.001144e-05
111	0x38faa502	0.00011951664
112	0x38a7fea2	8.0106096e-05
113	0x39025370	0.00012428849
114	0x38c96619	9.603444e-05
115	0x38aaaf38	8.138869e-05
116	0x38b3d900	8.5758045e-05
117	0x38d82279	0.00010306104
118	0x38a51a2e	7.8726895e-05
119	0x38b153a3	8.455596e-05
120	0x38a9d598	8.098333e-05
121	0x38cb4211	9.6921e-05
122	0x38a80304	8.011426e-05
123	0x38c2d014	9.2893984e-05
124	0x38af0b53	8.3467596e-05
125	0x389ddf1c	7.527901e-05
126	0x38cd7597	9.7970646e-05
127	0x39188154	0.00014544028
128	0x38960250	7.152988e-05
129	0x39018d5f	0.00012355064
130	0x38b50a14	8.63263e-05
131	0x38a51c51	7.8730875e-05
132	0x38b64ed5	8.69312e-05
133	0x38b99ea9	8.85104e-05
134	0x3898acba	7.2800976e-05
135	0x38ad48b3	8.262824e-05
136	0x38c8db24	9.577561e-05
137	0x38ccf5ee	9.773286e-05
138	0x38a20519	7.7257115e-05
139	0x38c8c22c	9.5729105e-05
140	0x388f3962	6.82946e-05
141	0x38b3d177	8.574401e-05
142	0x38baeb9a	8.913055e-05
143	0x390b4af5	0.00013283997
144	0x38aaf644	8.152102e-05
145	0x38cb4f0c	9.694518e-05
146	0x38bfab4b	9.1394955e-05
147	0x3895ea5d	7.148527e-05
148	0x38b9a1cb	8.851624e-05
149	0x38bc5d0f	8.981872e-05
150	0x38d997b4	0.00010375623
151	0x38c36df3	9.318804e-05
152	0x38d8824e	0.00010323954
153	0x38cdd1fd	9.814275e-05
154	0x38b51f38	8.6365675e-05
155	0x38c1fb74	9.249794e-05
156	0x39443fda	0.00018715803
157	0x3931a432	0.00016941203
158	0x39206262	0.0001529544
159	0x3940ac28	0.0001837468
160	0x39724d5d	0.00023107739
161	0x394ceb25	0.00019542554
162	0x3959d0d6	0.0002077253
163	0x3935f76f	0.00017353681
164	0x393d959d	0.0001808018
165	0x39297af8	0.00016162905
166	0x39894a2f	0.00026185947
167	0x3925ea5c	0.00015822932
168	0x38e248a6	0.000107900516
169	0x3920b2d5	0.00015325409
170	0x39411025	0.00018411929
171	0x39255bcf	0.00015769828
172	0x393580b6	0.00017309454
173	0x396e2477	0.00022711033
174	0x3914e916	0.00014201211
175	0x390b17cb	0.00013264937
176	0x394fe8cb	0.0001982778
177	0x3938ab59	0.0001761144
178	0x39719f73	0.0002304295
179	0x3936452f	0.00017382645
180	0x39517ead	0.00019978984
181	0x395556bb	0.00020345573
182	0x39299872	0.00016173886
183	0x394aeebd	0.00019353158
184	0x38f9efc9	0.00011917909
185	0x39353414	0.00017280906
186	0x3946eaae	0.00018970176
187	0x3912e69e	0.00014009557
188	0x3967f6a6	0.0002212176
189	0x3936677f	0.00017395428
190	0x39059883	0.00012740683
191	0x3907c8b1	0.00012949367
192	0x394a61ac	0.00019300607
193	0x39188b52	0.0001454775
194	0x3936d5c6	0.0001743651
195	0x3905965c	0.00012739882
196	0x39a74901	0.00031907114
197	0x39120412	0.00013925161
198	0x393ba336	0.0001789451
199	0x3918f24c	0.00014586112
200	0x39209482	0.00015314113
201	0x39365d7b	0.00017391697
202	0x39625670	0.0002158524
203	0x38ed5869	0.00011317508
204	0x3939e9ea	0.00017730115
205	0x39085b4b	0.0001300398
206	0x38f5943b	0.000117101205
207	0x3906b4a5	0.00012846531
208	0x38e3edd8	0.00010868505
209	0x391cb010	0.00014942908
210	0x38e4f144	0.000109168264
211	0x38e14cce	0.00010743142
212	0x3900fb07	0.00012300546
213	0x39143a8b	0.00014136189
214	0x38c560a9	9.4116964e-05
215	0x3914edf4	0.00014203024
216	0x3920ba9d	0.00015328308
217	0x38de27a3	0.00010593168
218	0x38d95736	0.000103636106
219	0x39220635	0.00015451836
220	0x39046443	0.00012625851
221	0x38e45c7c	0.00010889114
222	0x396ff610	0.00022884482
223	0x38f39d93	0.000116164934
224	0x38dcc224	0.00010526579
225	0x393f9a98	0.0001827277
226	0x392a3d90	0.00016235397
227	0x38ffbb34	0.00012194217
228	0x39134a16	0.00014046612
229	0x392722a5	0.00015939267
230	0x38ab4354	8.166456e-05
231	0x395376ef	0.00020166834
232	0x3938963e	0.00017603577
233	0x391639a9	0.00014326595
234	0x38bb32f1	8.9263434e-05
235	0x38ba62fb	8.887608e-05
236	0x38bae3e0	8.911616e-05
237	0x38f9ab1b	0.00011905116
238	0x39544bcf	0.00020246136
239	0x3923c2a4	0.000156174
240	0x3913046b	0.00014020658
241	0x394f43f1	0.00019766368
242	0x391d23f2	0.00014986077
243	0x3901fbf6	0.00012396261
244	0x391c362d	0.00014897501
245	0x392f973c	0.0001674564
246	0x38bdabb0	9.0442016e-05
247	0x39239526	0.00015600453
248	0x39333d14	0.00017093524
249	0x3947568d	0.00019010362
250	0x38b58ef5	8.6573804e-05
251	0x38e81558	0.00011066598
252	0x391d1de7	0.00014983826
253	0x3909e326	0.00013149958
254	0x3928889d	0.00016072621
255	0x395d2e80	0.00021093525

exp_avg f4 [20, 20]
0	0x00000000	0.0
1	0x37f5533b	2.9245033e-05
2	0x38eb3e37	0.000112172616
3	0x3afdb6ca	0.0019356844
4	0x3b8f1a2c	0.0043671336
5	0xb9456ca7	-0.0001882786
6	0x39c10e91	0.0003682268
7	0x3c151229	0.009098568
8	0x00000004	6e-45
9	0x80000004	-6e-45
10	0x00000004	6e-45
11	0x3a83ab0f	0.0010045486
12	0x00000004	6e-45
13	0x00000004	6e-45
14	0x39e33900	0.00043339282
15	0x391648e1	0.00014332264
16	0x39a46683	0.00031356895
17	0x3b2525b7	0.0025199482
18	0x3b050b82	0.0020301049
19	0x00000004	6e-45
20	0x395644da	0.0002043428
21	0x00000000	0.0
22	0xb719ed04	-9.174695e-06
23	0x39e06e4a	0.0004280678
24	0x3b01c2e6	0.0019800006
25	0x36d819de	6.440313e-06
26	0xb7f3deae	-2.907155e-05
27	0x3b1d7ba3	0.0024029992
28	0x80000004	-6e-45
29	0x00000004	6e-45
30	0x00000004	6e-45
31	0x398dd9fb	0.00027056024
32	0x80000004	-6e-45
33	0x00000004	6e-45
34	0x3873d4f4	5.8134043e-05
35	0x37c45987	2.340671e-05
36	0x38217c58	3.8501195e-05
37	0x39d71c43	0.00041029052
38	0x39c348ae	0.0003724745
39	0x00000004	6e-45
40	0xba08ad44	-0.0005213807
41	0x3722bb62	9.699581e-06
42	0x00000000	0.0
43	0x39c392ec	0.00037302764
44	0x3b0a8993	0.002113913
45	0xb8f87ad4	-0.0001184844
46	0xb9c1d787	-0.0003697241
47	0x39c26199	0.0003707528
48	0x80000004	-6e-45
49	0x00000004	6e-45
50	0x00000004	6e-45
51	0x394ef83b	0.00019738164
52	0x80000004	-6e-45
53	0x00000004	6e-45
54	0xba8e59eb	-0.0010860538
55	0xb7708a9e	-1.4337389e-05
56	0x37d4ea49	2.5381467e-05
57	0xba880f5e	-0.0010380556
58	0xba4af3df	-0.0007742028
59	0x00000004	6e-45
60	0xb72994ce	-1.0107831e-05
61	0xb5565bf5	-7.985503e-07
62	0x36f39cf7	7.2602375e-06
63	0x00000000	0.0
64	0x3b876975	0.0041324445
65	0x39e0f5e3	0.0004290781
66	0x39420bf9	0.00018505742
67	0xbb8cfff9	-0.0043029753
68	0x00000004	6e-45
69	0x80000004	-6e-45
70	0x80000004	-6e-45
71	0xb9052a6a	-0.00012699669
72	0x00000004	6e-45
73	0x80000004	-6e-45
74	0xba4e3a1e	-0.00078669365
75	0x37251db4	9.841682e-06
76	0x36791e09	3.7121374e-06
77	0xbb2a8173	-0.00260171
78	0xbb104017	-0.0022010857
79	0x80000004	-6e-45
80	0x3a106993	0.0005508896
81	0x37a7f4b5	2.0021902e-05
82	0xb75bca51	-1.3100523e-05
83	0x3a17d0b1	0.00057912903
84	0x00000000	0.0
85	0x3a243dd2	0.00062653155
86	0x395761ed	0.00020540478
87	0x3ad18287	0.0015984335
88	0x00000004	6e-45
89	0x80000004	-6e-45
90	0x80000004	-6e-45
91	0x385f0bf5	5.317848e-05
92	0x00000004	6e-45
93	0x80000004	-6e-45
94	0x39ecf666	0.0004519701
95	0x38b638e2	8.6890315e-05
96	0xb88a98a3	-6.6087836e-05
97	0x3ad2261f	0.001603309
98	0x3ab574f0	0.0013844054
99	0x80000004	-6e-45
100	0xbac86914	-0.0015290105
101	0x3755bf12	1.2740276e-05
102	0xb88abaae	-6.6151246e-05
103	0xbac2fedc	-0.0014876979
104	0xba4f8880	-0.00079167634
105	0x00000000	0.0
106	0xba330ed3	-0.0006830517
107	0xbbe14062	-0.00687413
108	0x80000004	-6e-45
109	0x00000004	6e-45
110	0x00000004	6e-45
111	0xbab99f3a	-0.0014161833
112	0x80000004	-6e-45
113	0x00000004	6e-45
114	0xbb6965db	-0.003561369
115	0x38019437	3.0894033e-05
116	0xb9f62add	-0.00046952712
117	0xbb91d7ec	-0.0044507887
118	0xbb96c6b9	-0.0046013263
119	0x00000004	6e-45
120	0x3a87ab6c	0.001035077
121	0x36e69315	6.8716568e-06
122	0x36e297c2	6.752992e-06
123	0x3a2ab059	0.0006511263
124	0x3b88174b	0.0041531674
125	0x39000b09	0.00012211142
126	0x00000000	0.0
127	0x3b2ff8ce	0.002685118
128	0x00000004	6e-45
129	0x00000004	6e-45
130	0x00000004	6e-45
131	0x39843aa8	0.00025220704
132	0x80000004	-6e-45
133	0x00000004	6e-45
134	0xb8d8f3a9	-0.00010345068
135	0x37d01c35	2.4808667e-05
136	0x380c31d4	3.3425007e-05
137	0x3a320e42	0.0006792286
138	0x39886e01	0.000260219
139	0x00000004	6e-45
140	0x39ae7066	0.0003327161
141	0xb799d002	-1.8335882e-05
142	0x36ec8ba8	7.049606e-06
143	0x390cb6d0	0.00013419543
144	0xbb39969c	-0.002831853
145	0x379c6590	1.8643943e-05
146	0x39c3b198	0.00037325616
147	0x00000000	0.0
148	0x00000004	6e-45
149	0x00000004	6e-45
150	0x00000004	6e-45
151	0x39d62151	0.00040842083
152	0x80000004	-6e-45
153	0x00000004	6e-45
154	0x39eb2a16	0.0004485405
155	0xb8475810	-4.7527312e-05
156	0x38d3bbc2	0.00010096237
157	0x39e19aa8	0.00043030572
158	0x391e4844	0.00015094975
159	0x00000004	6e-45
160	0x38a44e50	7.834716e-05
161	0x32be4146	2.2148594e-08
162	0xb19ce451	-4.566154e-09
163	0x37663b2b	1.3722844e-05
164	0x3a54f94c	0.00081243063
165	0x375a1fa9	1.3001184e-05
166	0x359d4733	1.1718133e-06
167	0x3a8f7b1b	0.0010946722
168	0x00000000	0.0
169	0x80000004	-6e-45
170	0x80000004	-6e-45
171	0x36894839	4.091326e-06
172	0x00000004	6e-45
173	0x80000004	-6e-45
174	0x37e8ba98	2.7743445e-05
175	0x33f4dab0	1.14019144e-07
176	0xb44ae0ed	-1.8894544e-07
177	0x385fff22	5.3404954e-05
178	0x383d6a73	4.516025e-05
179	0x80000004	-6e-45
180	0x3806053f	3.1952975e-05
181	0x32afdbac	2.0472577e-08
182	0x3324afc5	3.8344087e-08
183	0x3730ea76	1.0545007e-05
184	0x39c0393b	0.00036663734
185	0x36961b0c	4.473497e-06
186	0xb43eb27f	-1.7760065e-07
187	0x3a1fb5df	0.00060924696
188	0x80000004	-6e-45
189	0x00000000	0.0
190	0x00000004	6e-45
191	0x368fe42f	4.288296e-06
192	0x80000004	-6e-45
193	0x00000004	6e-45
194	0x36e34b90	6.773924e-06
195	0x3318afd2	3.5550165e-08
196	0x32caad1c	2.3594616e-08
197	0x37e93493	2.7800246e-05
198	0x37ed036d	2.8254197e-05
199	0x00000004	6e-45
200	0x3800f4ab	3.0745443e-05
201	0x32591115	1.2634946e-08
202	0x3180f8e0	3.753584e-09
203	0x36f11e80	7.1859104e-06
204	0x39d60499	0.00040820686
205	0x36f1b6fa	7.203661e-06
206	0x3451bd80	1.9533582e-07
207	0x3a07067f	0.00051508093
208	0x80000004	-6e-45
209	0x80000004	-6e-45
210	0x00000000	0.0
211	0x3612b18e	2.1859046e-06
212	0x80000004	-6e-45
213	0x80000004	-6e-45
214	0x36bd4252	5.6403596e-06
215	0x3334442f	4.197153e-08
216	0xb3f1c716	-1.12586505e-07
217	0x37b3e370	2.1444372e-05
218	0x3798f6f4	1.8234809e-05
219	0x00000004	6e-45
220	0xbad60607	-0.0016328701
221	0xb631c262	-2.64882e-06
222	0x37008419	7.660151e-06
223	0x391cf453	0.00014968337
224	0x3a9f178b	0.0012137754
225	0xb9d682a5	-0.00040914599
226	0x35b4f7e4	1.3483191e-06
227	0xbc26c79d	-0.010179427
228	0x00000004	6e-45
229	0x80000004	-6e-45
230	0x80000004	-6e-45
231	0x00000000	0.0
232	0x00000004	6e-45
233	0x80000004	-6e-45
234	0xbb18c5a8	-0.0023311172
235	0x371c6095	9.320812e-06
236	0xb8235fbf	-3.89514e-05
237	0xbba444a9	-0.0050130677
238	0xbb923967	-0.0044624093
239	0x80000004	-6e-45
240	0x392fb650	0.00016757217
241	0x34d1bd5b	3.9067058e-07
242	0x355c5d30	8.209199e-07
243	0x3880db8b	6.144409e-05
244	0x3ac6163c	0.0015112828
245	0x37bfec27	2.2878941e-05
246	0x366436d7	3.4006569e-06
247	0x3afc5b96	0.0019253369
248	0x80000004	-6e-45
249	0x00000004	6e-45
250	0x00000004	6e-45
251	0x37e32c48	2.7081129e-05
252	0x00000000	0.0
253	0x00000004	6e-45
254	0x38633bbf	5.417666e-05
255	0x358f7571	1.068851e-06

exp_avg_sq f4 [20, 20]
0	0x00000000	0.0
1	0x31eb3227	6.845102e-09
2	0x34131ea9	1.3701596e-07
3	0x386342aa	5.4183103e-05
4	0x39af78ff	0.0003346875
5	0x373cf187	1.1261908e-05
6	0x376bcd4a	1.4054889e-05
7	0x3b0e67a9	0.0021729267
8	0x220f76fd	1.9443106e-18
9	0x1fc8c203	8.502426e-20
10	0x1dc990b6	5.3353885e-21
11	0x37f1da1e	2.8831008e-05
12	0x295f2058	4.9544e-14
13	0x1d4143c0	2.5578363e-21
14	0x38569aa7	5.1165607e-05
15	0x334b42c5	4.7325347e-08
16	0x35a8be0c	1.2572286e-06
17	0x39eec7ae	0.0004554367
18	0x3964f3d0	0.00021834602
19	0x1b3ef791	1.5796425e-22
20	0x368cd21d	4.1967855e-06
21	0x00000000	0.0
22	0x333f14b3	4.448948e-08
23	0x36cd2079	6.1132564e-06
24	0x37ad56d3	2.0663638e-05
25	0x354d7441	7.653762e-07
26	0x35fef7e1	1.8996617e-06
27	0x3922f889	0.0001554211
28	0x2104d23e	4.5001593e-19
29	0x1eb63f27	1.9296119e-20
30	0x1cb1f23f	1.1775497e-21
31	0x3686b5d7	4.01468e-06
32	0x277fbb99	3.5490056e-15
33	0x1c189acf	5.0492667e-22
34	0x369baae8	4.639256e-06
35	0x323eb51e	1.1100637e-08
36	0x34d73154	4.0082762e-07
37	0x37f185cf	2.8791748e-05
38	0x374430e0	1.169389e-05
39	0x19b13477	1.8322561e-23
40	0x37be08a2	2.2653785e-05
41	0x308abadb	1.0093929e-09
42	0x00000000	0.0
43	0x37a05484	1.9112842e-05
44	0x38b47ce5	8.606332e-05
45	0x36a3023c	4.8580387e-06
46	0x3702ef49	7.804317e-06
47	0x3a2a9a8c	0.00065080146
48	0x22877335	3.6713804e-18
49	0x206eb06b	2.0217756e-19
50	0x1e5449c7	1.1238443e-20
51	0x373c30b8	1.1217016e-05
52	0x28c1afcb	2.1503542e-14
53	0x1d676ea0	3.0629787e-21
54	0x382992f3	4.0429597e-05
55	0x31c41a32	5.707329e-09
56	0x3501d5da	4.836744e-07
57	0x3932d767	0.00017055646
58	0x388d2f4b	6.732213e-05
59	0x1abaa76f	7.71983e-23
60	0x3884184a	6.298775e-05
61	0x2f15969a	1.3604975e-10
62	0x3133d191	2.6167053e-09
63	0x00000000	0.0
64	0x39f0528f	0.00045837878
65	0x362b402e	2.5518343e-06
66	0x35691d86	8.6842226e-07
67	0x3b6b07a2	0.0035862704
68	0x21ffb4ec	1.7327362e-18
69	0x20741934	2.0675943e-19
70	0x1e4ef278	1.09556906e-20
71	0x358bc051	1.0412278e-06
72	0x282afe82	9.492083e-15
73	0x1db08a11	4.672957e-21
74	0x385d110f	5.2706393e-05
75	0x303d250a	6.8810435e-10
76	0x32d9a1a3	2.5335629e-08
77	0x3944e18a	0.00018776036
78	0x38e81283	0.0001106607
79	0x1bd6c521	3.5530722e-22
80	0x37b4b71f	2.1542945e-05
81	0x311d45ac	2.288611e-09
82	0x335d5508	5.1532908e-08
83	0x3799d73f	1.8339253e-05
84	0x00000000	0.0
85	0x3631b6a9	2.6481378e-06
86	0x36b2261e	5.309251e-06
87	0x39d2904f	0.0004016184
88	0x22be2d72	5.154772e-18
89	0x20e82270	3.9325118e-19
90	0x1ee4cb9d	2.4224651e-20
91	0x372b4804	1.0209162e-05
92	0x291e1937	3.5104918e-14
93	0x1e3b1013	9.903022e-21
94	0x378b8e58	1.6636375e-05
95	0x32c0b7df	2.2435357e-08
96	0x35235250	6.084201e-07
97	0x3901aa2c	0.00012365793
98	0x386ea91f	5.6901128e-05
99	0x1bfc8a59	4.1779308e-22
100	0x3978123e	0.00023657919
101	0x31d8466f	6.2944348e-09
102	0x3454b3df	1.9809475e-07
103	0x38d818b4	0.00010304284
104	0x3a2c255c	0.0006566846
105	0x00000000	0.0
106	0x37ad9e76	2.0696996e-05
107	0x3b8dc196	0.0043260558
108	0x20b40370	3.049546e-19
109	0x1e96734d	1.5929555e-20
110	0x1c836ba0	8.696673e-22
111	0x387a0b01	5.9614893e-05
112	0x28bab3b1	2.0728077e-14
113	0x1c18ae41	5.05178e-22
114	0x394acafe	0.00019339842
115	0x33a3e967	7.6327346e-08
116	0x368417d9	3.936683e-06
117	0x3a6df98a	0.0009078017
118	0x39f7663c	0.00047187682
119	0x1a8c1649	5.7938646e-23
120	0x389cb51e	7.4723954e-05
121	0x300158c4	4.705607e-10
122	0x32b66289	2.1232397e-08
123	0x37d74cb8	2.5665722e-05
124	0x39983df7	0.00029037867
125	0x3688ce9b	4.077168e-06
126	0x00000000	0.0
127	0x3b179a45	0.0023132723
128	0x20e060e8	3.8011203e-19
129	0x1f255653	3.5011515e-20
130	0x1d78d198	3.2930884e-21
131	0x375cc966	1.3159914e-05
132	0x278a4180	3.837371e-15
133	0x1cf8e7d6	1.6471192e-21
134	0x38a2c377	7.76117e-05
135	0x31910b8e	4.221369e-09
136	0x351e96b5	5.9078894e-07
137	0x39bb88f3	0.00035769455
138	0x392fabe8	0.0001675334
139	0x1a84545b	5.4730204e-23
140	0x366ac1e5	3.4981579e-06
141	0x3198da08	4.4485695e-09
142	0x3397bb20	7.065523e-08
143	0x37245aec	9.796331e-06
144	0x37d46fbc	2.53244e-05
145	0x35a5d94c	1.23567e-06
146	0x3635dda7	2.710012e-06
147	0x00000000	0.0
148	0x229a9f52	4.191047e-18
149	0x2042d86a	1.6504045e-19
150	0x1e188cee	8.0759566e-21
151	0x36c25f8e	5.7927746e-06
152	0x29e8a753	1.0331896e-13
153	0x1d2a5b7c	2.2546609e-21
154	0x36777b86	3.6877768e-06
155	0x32b5ef73	2.1180062e-08
156	0x34c1ac5a	3.6074454e-07
157	0x38435fa7	4.6580706e-05
158	0x3797021e	1.8001589e-05
159	0x1b0e90a7	1.1792704e-22
160	0x3380f04b	6.0041735e-08
161	0x287b2bea	1.3942821e-14
162	0x2abcd6a2	3.354444e-13
163	0x3098d676	1.1120409e-09
164	0x35982da5	1.1338167e-06
165	0x3067a937	8.427778e-10
166	0x2ea0e831	7.317203e-11
167	0x37476c8c	1.1886597e-05
168	0x00000000	0.0
169	0x20662d1f	1.9496687e-19
170	0x1e035563	6.95274e-21
171	0x2fc8a1f7	3.649487e-10
172	0x2662f92a	7.874718e-16
173	0x1daf8f25	4.6470122e-21
174	0x339f25a0	7.4108584e-08
175	0x29596bba	4.8277117e-14
176	0x2d092746	7.796269e-12
177	0x339b5468	7.2331034e-08
178	0x333f7ed0	4.458599e-08
179	0x1b4c4ec5	1.6899936e-22
180	0x32bb466f	2.1801695e-08
181	0x27ef06f0	6.6343347e-15
182	0x2a690ef4	2.0699745e-13
183	0x2fc10e93	3.511685e-10
184	0x348d956a	2.637201e-07
185	0x2fb98dd4	3.375208e-10
186	0x2e216f2f	3.6705913e-11
187	0x366d5184	3.53632e-06
188	0x226596ba	3.1115081e-18
189	0x00000000	0.0
190	0x1dc52117	5.217968e-21
191	0x2f03304f	1.1931543e-10
192	0x24ca4592	8.772139e-17
193	0x1c9ed4c5	1.0510563e-21
194	0x330dc341	3.3006703e-08
195	0x28a0b922	1.7843857e-14
196	0x2c8592a4	3.7963677e-12
197	0x330ac1c4	3.2306858e-08
198	0x329c2502	1.817762e-08
199	0x19dc8990	2.2803028e-23
200	0x325f7527	1.3006946e-08
201	0x276c6381	3.280552e-15
202	0x29e1c143	1.0025533e-13
203	0x2f8bf046	2.5454677e-10
204	0x348987cb	2.561704e-07
205	0x2f726df3	2.2048834e-10
206	0x2db2b4fb	2.0316629e-11
207	0x363d2045	2.8181978e-06
208	0x210493e0	4.491905e-19
209	0x1fe4c25a	9.6883284e-20
210	0x00000000	0.0
211	0x2eae05a7	7.913608e-11
212	0x22cd5c88	5.5663333e-18
213	0x1d6aa3ac	3.1054259e-21
214	0x32961d95	1.747575e-08
215	0x2847b22f	1.10853565e-14
216	0x2bd597b7	1.517667e-12
217	0x32953118	1.7368208e-08
218	0x322f20db	1.0193811e-08
219	0x1b1f4aab	1.3176298e-22
220	0x3905252d	0.00012697717
221	0x302dad7a	6.318356e-10
222	0x327428b9	1.42119285e-08
223	0x36e62f94	6.860073e-06
224	0x3a1fe1f6	0.00060990395
225	0x36d0dc41	6.224524e-06
226	0x36730e95	3.621831e-06
227	0x3bace326	0.0052761016
228	0x2197a72f	1.0276411e-18
229	0x20cb5cb7	3.445089e-19
230	0x1e5c4715	1.16614024e-20
231	0x00000000	0.0
232	0x286a2436	1.2997461e-14
233	0x1e3eb7b4	1.0096505e-20
234	0x38e5e3c1	0.000109619934
235	0x315c1c20	3.20302e-09
236	0x3361837e	5.2506486e-08
237	0x39cfc8e9	0.00039631806
238	0x396b9505	0.0002246686
239	0x1caa05f3	1.1251194e-21
240	0x35069f7e	5.015098e-07
241	0x2d96f1b9	1.7160372e-11
242	0x2ebb5305	8.518523e-11
243	0x32b19f39	2.0677918e-08
244	0x36c266e5	5.793629e-06
245	0x3249cd0e	1.1746364e-08
246	0x3118f80a	2.2259905e-09
247	0x38846e6d	6.314819e-05
248	0x210f75b0	4.8606043e-19
249	0x1ee30da2	2.4040198e-20
250	0x1c9fb72e	1.0569088e-21
251	0x3215daa0	8.722651e-09
252	0x00000000	0.0
253	0x1c727929	8.022768e-22
254	0x3538b7c0	6.8812733e-07
255	0x2d761b05	1.3989481e-11

exp_avg f4 [9, 20]
0	0x38baf4bc	8.9147565e-05
1	0xb91c6a42	-0.00014916903
2	0xb9b6ffed	-0.00034904425
3	0x384b42a4	4.8461035e-05
4	0xb957c418	-0.00020577048
5	0x38bb42e3	8.9293135e-05
6	0xb96a4949	-0.0002234328
7	0xbafaea66	-0.0019143343
8	0x00000004	6e-45
9	0x00000004	6e-45
10	0x00000004	6e-45
11	0x38e2691a	0.000107960965
12	0x25fa9480	4.3468714e-16
13	0x00000004	6e-45
14	0x39b353f7	0.000342041
15	0xb9b4e481	-0.00034502524
16	0xb900b0b0	-0.00012272852
17	0xba0e02d4	-0.00054172915
18	0x3a2df43c	0.000663582
19	0x00000004	6e-45
20	0xbb3e22d1	-0.0029012451
21	0x3956244f	0.00020422156
22	0xb9d5aca2	-0.00040755147
23	0xbacd422c	-0.001565998
24	0xbac44a40	-0.0014975742
25	0xba9a977f	-0.0011794417
26	0xbb171c23	-0.0023057542
27	0xbba47f25	-0.0050200396
28	0x80000004	-6e-45
29	0x00000004	6e-45
30	0x00000004	6e-45
31	0xbab4ebfe	-0.0013803241
32	0xacce698b	-5.8665898e-12
33	0x00000004	6e-45
34	0xbb2f6bf4	-0.0026767226
35	0xb9ce736f	-0.00039377387
36	0xba857ae6	-0.0010183721
37	0xbb79c4dd	-0.0038111724
38	0xbb5eb9e3	-0.003398531
39	0x00000004	6e-45
40	0x3b5d2418	0.0033743437
41	0x392716c8	0.00015934848
42	0x399623cc	0.000286369
43	0x3bbbb403	0.005728246
44	0x3c21ca31	0.009874866
45	0x3b829eef	0.0039862315
46	0x3b89784e	0.0041952496
47	0x3c69a3bd	0.01426023
48	0x00000004	6e-45
49	0x00000004	6e-45
50	0x00000004	6e-45
51	0x3b93eea9	0.0045145345
52	0x29e7d0ee	1.0294704e-13
53	0x00000004	6e-45
54	0x3b8741da	0.004127723
55	0x3a10b33e	0.0005519873
56	0x3af86747	0.0018951677
57	0x3c44cf2e	0.012012286
58	0x3bf237ea	0.0073919194
59	0x00000004	6e-45
60	0xbb3cef60	-0.0028829202
61	0xb893212d	-7.015686e-05
62	0xb92855ef	-0.00016053741
63	0xbafce532	-0.001929438
64	0xbb8fa97a	-0.004384217
65	0xbb553cc9	-0.0032537451
66	0xbb038112	-0.0020065946
67	0xbb395055	-0.0028276641
68	0x00000004	6e-45
69	0x00000004	6e-45
70	0x00000004	6e-45
71	0xbae4f226	-0.0017467185
72	0x2900a8a4	2.8567982e-14
73	0x00000004	6e-45
74	0xbb8ef762	-0.0043629864
75	0xb6074b34	-2.0160342e-06
76	0xbaa30eb7	-0.0012440298
77	0xbb651440	-0.0034954697
78	0xbb850af6	-0.0040601445
79	0x00000004	6e-45
80	0x3b7a8b4d	0.0038230002
81	0x388aed04	6.6245004e-05
82	0x3a31a44e	0.00067764975
83	0x3b43d9f1	0.0029884542
84	0x3b5d4cbb	0.0033767659
85	0x3a97c6c1	0.0011579619
86	0x3b09f0ea	0.0021048137
87	0x3c05e8b9	0.008173161
88	0x00000004	6e-45
89	0x00000004	6e-45
90	0x00000004	6e-45
91	0x3b35975f	0.0027708632
92	0x2cc68386	5.6421005e-12
93	0x00000004	6e-45
94	0x3b4372e0	0.002982311
95	0x3904d92c	0.00012669404
96	0x3afcf47c	0.0019298936
97	0x3ba1ebfd	0.004941462
98	0x3bb02aa0	0.005376175
99	0x00000004	6e-45
100	0xbac638c7	-0.0015123122
101	0x39ab707f	0.00032699478
102	0x3a425e51	0.0007414567
103	0xb95f4b64	-0.00021295022
104	0xbb2f973b	-0.0026793021
105	0xba6a8ca3	-0.0008947348
106	0xb9fc8a5d	-0.00048168274
107	0xbb6a2de2	-0.0035732915
108	0x00000004	6e-45
109	0x00000004	6e-45
110	0x00000004	6e-45
111	0xb9f87ca5	-0.00047395114
112	0x28cd2690	2.2776296e-14
113	0x00000004	6e-45
114	0x3985ae67	0.00025497677
115	0x3a321c2a	0.0006794358
116	0xb92d53ce	-0.00016529785
117	0xbabd23b5	-0.0014430197
118	0xbaf7f2da	-0.001891698
119	0x00000004	6e-45
120	0x3983b88f	0.00025123774
121	0xb9ac0a6a	-0.00032814156
122	0xb9a85bc5	-0.0003211183
123	0xbb29824d	-0.0025865019
124	0xbb810ad3	-0.003938058
125	0xba05526e	-0.00050858303
126	0xb9a9e58b	-0.00032405215
127	0xbb5744a1	-0.0032847303
128	0x00000004	6e-45
129	0x00000004	6e-45
130	0x00000004	6e-45
131	0xbaddc77f	-0.0016920416
132	0x292fcaf7	3.903385e-14
133	0x00000004	6e-45
134	0x3914b751	0.0001418267
135	0xb9b97963	-0.0003537639
136	0xba520401	-0.0008011461
137	0xbb1d7f7b	-0.0024032283
138	0xbb05a38e	-0.0020391676
139	0x00000004	6e-45
140	0xbac955d9	-0.0015360668
141	0xb6ed4a47	-7.0717974e-06
142	0xba2efa0d	-0.0006674834
143	0xbb79a62f	-0.0038093438
144	0xbb14c7bc	-0.0022702059
145	0xb9ca4803	-0.00038582095
146	0xbb0b67d3	-0.00212716
147	0xbc1b22ea	-0.009468773
148	0x00000004	6e-45
149	0x80000004	-6e-45
150	0x80000004	-6e-45
151	0xbb6c7a96	-0.003608381
152	0x2909df96	3.061404e-14
153	0x80000004	-6e-45
154	0xbad871bb	-0.0016513387
155	0x38edc9af	0.00011338607
156	0xbacb7b1e	-0.0015524363
157	0xbbead275	-0.0071662017
158	0xbb8582eb	-0.0040744445
159	0x80000004	-6e-45
160	0x3aa9b6ed	0.0012948193
161	0xb954188b	-0.00020227038
162	0x3951fd01	0.00020026045
163	0x3aaf83f7	0.0013390769
164	0x3ae1e72b	0.0017235031
165	0x3a819c07	0.0009888419
166	0x3a992c50	0.001168618
167	0x3b6f9052	0.0036554527
168	0x00000004	6e-45
169	0x00000004	6e-45
170	0x00000004	6e-45
171	0x3ac5aa25	0.0015080614
172	0x25057fe0	1.1579237e-16
173	0x00000004	6e-45
174	0x3a5cc53c	0.0008421724
175	0xb9c59dd0	-0.00037692348
176	0x3a8d6b9b	0.0010789515
177	0x3af9f710	0.0019070823
178	0x3b05309f	0.002032317
179	0x00000004	6e-45
