checkpoints/RNN_161.pt (torch, 111359 bytes, 9 tensors)

snn.l1.input_weights f4 [20, 416]
000000 56 12 ca bd 10 72 0b 3f d8 c6 e7 3d 58 ab 49 3e
       -0.098667786 0.5447092 0.11317223 0.19694269
000010 63 2f ee be d7 8d 1c 3e 0a e8 81 be 32 1a ea 3e
       -0.46520528 0.15288483 -0.25372344 0.4572311
000020 96 27 c3 bd 97 4c 24 3f 53 87 38 3e da 20 86 be
       -0.09529035 0.64179367 0.18020372 -0.2619694
000030 b7 f5 2a bd 8f 6a 33 bf 5d 47 5b 3e 07 80 33 3e
       -0.04173824 -0.7008447 0.21413942 0.17529307
000040 26 97 0d bf ae 14 83 be 58 66 01 be d4 03 63 be
       -0.5530876 -0.25601715 -0.12636697 -0.22169429
000050 65 e7 c9 3e 24 9b f6 bd ac a5 71 3e 81 12 1b 3f
       0.39434353 -0.120413095 0.23598355 0.6057511
000060 2f 3d 10 3e 49 37 e6 3e 5a 4b 93 3d ac 48 a4 3e
       0.1408584 0.44964054 0.071921065 0.32086694
000070 4e 60 00 3f f8 34 29 bd bb f7 08 3f 8e 06 27 3f
       0.5014695 -0.04131028 0.53503007 0.65244377
000080 cd b1 97 3d 06 67 f3 be 17 0e c3 be 0d 8b ed 3d
       0.0740696 -0.47539538 -0.38096687 0.115987875
000090 2a 26 61 3f f4 0e 94 bc ff 47 aa be 85 66 a9 3d
       0.8794886 -0.018073536 -0.33258054 0.08271507
0000a0 7b 82 f3 be b8 4b 2f 3f 45 99 61 be a4 6b 2c 3f
       -0.47560486 0.6847491 -0.22031124 0.67351747
0000b0 2b f6 ef 3e 76 fe c8 3e aa 1a f7 3e fa 14 05 3e
       0.468675 0.39256638 0.4826253 0.12996283
0000c0 d7 d9 0e 3e b2 eb 5b bf ab f2 82 be b4 e9 ae 3c
       0.13950287 -0.8590652 -0.25575766 0.021351673
0000d0 b0 a4 9b 3f e9 3e 52 3f 0d 95 eb 3e 6a 8b 6b 3f
       1.2159634 0.82127243 0.46012154 0.92009604
0000e0 de 53 19 3f 8f 2c 57 3f 5b 0f 81 3f c2 28 95 3f
       0.59893596 0.84052366 1.0082811 1.1653063
0000f0 36 72 8f 3f b9 82 0d 3f 8b f0 8d 3f 3e 32 20 3f
       1.120673 0.5527759 1.1089033 0.62576663
000100 6d e3 a6 3f cf 99 90 3f 27 3f 9c 3f f4 36 af 3f
       1.3038155 1.1296939 1.2206773 1.3688645
000110 9e 2f 96 3f 59 a7 3c 3f f8 9b 35 3e bb 21 e9 3e
       1.1733282 0.7369285 0.17735279 0.45533547
000120 de 65 67 3f be ef 87 3f 8c d5 14 3f 01 18 49 3f
       0.9038981 1.0620039 0.58138347 0.7855225
000130 71 57 8c 3f 1c 99 e9 3e 47 8b a2 3f 15 e7 49 3f
       1.0964185 0.45624626 1.2698754 0.7886823
000140 d4 f1 a1 3f fc be a7 3f 50 7f 47 3f 70 2e a8 3f
       1.2651925 1.3105159 0.7792864 1.3139172
000150 45 29 82 3f 82 ae 62 3f b4 da 12 3f 37 3d 32 3f
       1.0168844 0.8854753 0.57364964 0.69624656
000160 ba 64 41 3f af 74 52 3f 41 df 42 3f f3 03 92 3f
       0.7554432 0.82209295 0.7612191 1.1407455
000170 48 77 a2 3f ba 6c 51 3f db f4 80 3f e3 10 43 3f
       1.2692652 0.8180653 1.0074724 0.7619764
000180 a9 4e 3c 3f 11 74 b5 3f 5e 37 51 3f 71 19 b4 3f
       0.73557526 1.4176046 0.8172511 1.4070264
000190 9b a7 df 3e 5d 44 c8 3d 61 1d 59 3f 48 01 83 3f
       0.4368256 0.09778664 0.84810454 1.0234766
0001a0 f9 cf 10 40 98 23 0d 40 9a 15 cd 3f 6a b2 d7 3f
       2.2626936 2.2052975 1.6022217 1.6851323
0001b0 17 97 0e 40 33 3d 24 40 31 4f ae 3f 46 97 10 40
       2.2279718 2.5662353 1.3617917 2.259233
0001c0 f5 08 a4 3f a1 18 02 40 ae 0c 0f 40 c7 a2 22 40
       1.2815233 2.0327532 2.235149 2.5411851
0001d0 29 bb 18 40 05 bd df 3f c1 14 bc 3f 8c ed 03 40
       2.3864233 1.7479559 1.4693834 2.0613737
0001e0 59 59 09 40 ef 0e e6 3f e6 9b ea 3f 4a 5d fe 3f
       2.1460783 1.7973307 1.8328826 1.987222
0001f0 9f 38 08 40 2b 70 08 40 3c 26 bd 3f c5 32 d5 3f
       2.1284559 2.1318462 1.4777293 1.6656119
000200 ec 4e b6 3f f2 aa 06 40 f1 d9 0b 40 16 7d 29 40
       1.4242835 2.1041837 2.185177 2.6482596
000210 e2 b0 14 40 0c 1b db 3f 41 3e d2 3f b5 6f b6 3f
       2.323296 1.7117629 1.6425248 1.425284
000220 b1 9c 03 40 79 08 f8 3f cb d2 d0 3f 63 cc ff 3f
       2.0564387 1.9377586 1.6314329 1.9984249
000230 19 bc f1 3f 0b cb e3 3f 0c f5 d7 3f 4f 4b e3 3f
       1.8885528 1.7796339 1.6871657 1.7757357
000240 9a 6b 9a 3f 15 ee 1d 40 08 ea 10 40 9c f0 44 40
       1.2064087 2.4676564 2.2642841 3.0771856
000250 86 22 20 40 a5 8b d3 3f 2d d5 b5 3f a7 08 df 3f
       2.5021071 1.6526991 1.4205681 1.7424515
000260 15 17 19 40 d7 0d ea 3f 28 0b d3 3f 81 8e 2a 40
       2.3920338 1.8285474 1.648778 2.6649477
000270 41 77 1d bf 38 82 ab 3e 99 d7 eb 3e 9d 7f 7d 3e
       -0.6151009 0.33497787 0.46062925 0.24755712
000280 2b cb cd 3e 0c c2 ec 3d 72 f6 3d 3f 18 18 a0 3f
       0.40194067 0.11560449 0.7420417 1.2507353
000290 b3 3b 5e 3f 73 a8 08 3f d2 b3 5c 3f e0 45 20 3f
       0.86809844 0.53382033 0.86211884 0.6260662
0002a0 60 a7 bd 3e c1 55 82 3e 71 60 85 3e 24 ae fc bd
       0.3704176 0.2545605 0.2605014 -0.12337902
0002b0 98 7c a9 be f0 69 ac 3e 00 f1 e4 3d 27 45 7a 3d
       -0.3310287 0.33674574 0.111787796 0.061101105
0002c0 0f 54 9d 3d b6 e0 f8 3d 1f fe 5e 3f 95 22 70 3f
       0.076820485 0.12152235 0.8710651 0.9380277
0002d0 1e 7b 1b 3f 89 6e 3e 3d 2f e8 c7 bd d6 01 55 3f
       0.60734737 0.046492133 -0.097610824 0.83205926
0002e0 c9 d3 17 3f 05 cb 38 bc 11 fa 42 3f 47 e2 f5 3e
       0.59307534 -0.011278872 0.7616282 0.48024198
0002f0 d0 07 64 be 03 d8 46 3e d7 c1 ab 3e dd cf 4c 3e
       -0.22268605 0.1941834 0.33546326 0.20001169
000300 9f 99 08 3e b6 bf 90 be b4 bf 7f 3f 8a 93 55 3f
       0.13339852 -0.28271264 0.9990189 0.8342825
000310 09 b7 0b 3f be 36 95 3e 13 fa 70 3c 18 80 45 3f
       0.54576164 0.29143327 0.01470806 0.7714858
000320 29 a1 ba 3e 7f d7 a1 3e cf 7b 33 3f c0 b6 0d 3f
       0.3645108 0.31609723 0.7011079 0.5535698
000330 ad 4b 8d 3e 0e 63 09 3f 7d a5 e7 3d 36 c4 fa 3e
       0.275968 0.5366677 0.11310861 0.48977822
000340 54 f6 72 bd d5 8c 65 3e 72 97 35 bd a7 53 8c be
       -0.059316948 0.22417004 -0.044333883 -0.27407572
000350 26 1b 59 3e f0 49 b4 bc 52 5e 48 bf 3a 0a ae bd
       0.21201763 -0.022007912 -0.7826892 -0.08498044
000360 c2 a3 5f be 65 ae 9b bd 80 51 b1 3c 5e b0 cf be
       -0.21839812 -0.076016225 0.021645308 -0.40564245
000370 83 c9 b8 3e d2 e0 2b bf 47 59 38 bf b5 6a df be
       0.3609124 -0.67139924 -0.72011226 -0.43636099
000380 73 6b 8d be 9f 69 ec 3e c1 3f 54 be 4a f3 6c be
       -0.2762104 0.46174332 -0.20727445 -0.23139682
000390 69 af fe 3e 7e 93 c2 be 9a 94 6d bf 3b 4f 21 3e
       0.49743202 -0.38003153 -0.92804873 0.1575288
0003a0 2b 4f cd be 8f bd 80 be cb 19 7b 3d 98 a0 76 be
       -0.40099463 -0.25144622 0.061303895 -0.24084699
0003b0 1a c2 e6 3e bd 07 62 3d 8e 5f dc be d7 57 1b bf
       0.45069963 0.05518316 -0.43041652 -0.6068091
0003c0 ac 56 a7 be a5 67 96 be a0 c5 30 be e9 81 be be
       -0.32683313 -0.2937595 -0.17262888 -0.3720849
0003d0 da 38 9f 3e c3 1e 4d bf 2d 7f 24 bf d7 3d 35 3f
       0.31098062 -0.80125064 -0.64256555 0.70797485
0003e0 8c 18 87 be f3 d1 95 bd 48 a6 20 3e f4 06 f5 be
       -0.26385915 -0.07315435 0.15688431 -0.47856867
0003f0 a8 c1 1e be aa c0 23 3e 7e bd 05 bf 68 3a 23 bf
       -0.15503561 0.15991464 -0.5224227 -0.63760996

snn.l1.recurrent_weights f4 [20, 20]
000000 00 00 00 00 fb 33 af 40 da 63 03 40 83 25 99 40
       0.0 5.4750953 2.0529695 4.785829
000010 5e ce 91 bb bb 90 fc bf 6d 57 52 bf cf 0a 5b c0
       -0.0044496497 -1.9731668 -0.8216465 -3.4225347
000020 a3 a8 be 40 ae af 34 40 e5 b0 56 40 be 1f c6 40
       5.9580855 2.8232226 3.3545468 6.191375
000030 64 b5 ce 40 1d b7 5b 40 55 ac cb bf 6b 36 36 3f
       6.4596424 3.4330513 -1.5911967 0.71176785
000040 54 d8 b0 40 58 58 ab c0 d3 4c f7 3f 75 78 52 3f
       5.5264072 -5.354534 1.932032 0.8221505
000050 09 57 0a 3f 00 00 00 00 1b e1 81 41 0f ce 2e 41
       0.54039055 0.0 16.234915 10.925307
000060 bb bd 00 c0 70 50 c0 40 0f 10 64 41 b9 31 9e c0
       -2.0115802 6.009819 14.253921 -4.9435697
000070 67 a0 d0 40 db 7e 82 40 77 7b 64 40 6a 94 37 41
       6.5195804 4.0779853 3.5700357 11.473734
000080 9e 57 53 41 db e2 94 40 b5 50 a5 3e 14 4f fc 40
       13.208891 4.6526923 0.32288137 7.884653
000090 ee ed 66 bf 61 80 92 40 7e a3 43 3f 38 fa f2 3f
       -0.902068 4.5781713 0.76421344 1.8982611
0000a0 a9 29 0a 3f 0c 58 01 41 00 00 00 00 e8 2f 02 41
       0.5396982 8.083996 0.0 8.136696
0000b0 f8 90 4c c0 3c b9 a9 40 dd 92 15 41 24 b9 0e c0
       -3.1963482 5.3038616 9.348355 -2.23005
0000c0 9b 1e 04 40 c4 26 96 40 bd 5d f5 3f e2 8f 27 41
       2.064368 4.692232 1.9169232 10.472628
0000d0 fd ef 13 41 68 fe 82 40 0f eb 69 40 f0 c8 c1 40
       9.246091 4.0935555 3.6549718 6.0557785
0000e0 1c d2 7e bf b1 2f cd 40 0b 2a 13 40 19 fd 3a 40
       -0.9953935 6.4120717 2.299441 2.9216979
0000f0 8c 02 56 3f 24 5b 41 40 a0 4c 44 40 00 00 00 00
       0.83597636 3.0211878 3.0671768 0.0
000100 3a 73 af 3e 7d 7c cc bf c5 f9 e2 40 1a bc e4 3f
       0.34267598 -1.5975491 7.0929894 1.7869904
000110 b2 51 87 40 8e 5e 55 3f 62 cf 2a 40 85 d4 9c 41
       4.2287226 0.83347404 2.6689076 19.60377
000120 2a d4 a8 40 5e fe b9 3f 7c 1c ef 3f a3 ec 57 be
       5.275899 1.4530752 1.8680568 -0.21086363
000130 bc d0 71 40 b6 da f3 40 62 ee d6 40 68 e7 be be
       3.7783651 7.620448 6.7165995 -0.37285924
000140 01 1f 15 c0 07 43 60 40 d7 3d 62 40 cc c3 02 41
       -2.3300173 3.504091 3.5350244 8.172802
000150 00 00 00 00 f7 32 1d c0 13 62 1c 40 9e 1a 94 c0
       0.0 -2.4562356 2.443486 -4.628249
000160 a5 10 ab 40 59 b2 c4 3f bf ca 35 40 04 e9 e4 40
       5.345782 1.5366927 2.8404996 7.1534443
000170 a5 e9 ad 40 f1 10 c7 3f 2d a9 b7 bf 04 a9 9c bf
       5.434771 1.5552045 -1.4348503 -1.223908
000180 68 57 c7 3e b3 c1 fa bf d9 40 5e c0 64 e4 19 be
       0.38933873 -1.9590362 -3.472708 -0.1502853
000190 6a 8d 39 bf 51 96 89 40 1d d9 d2 40 45 11 3f bf
       -0.72481406 4.299599 6.589003 -0.74635726
0001a0 e8 f8 d8 bd 00 00 00 00 08 c5 fd 3f 60 21 96 3e
       -0.1059435 0.0 1.9825754 0.29322338
0001b0 03 aa a7 40 ce ee 2e 40 6a 70 3c 40 e4 88 af 3f
       5.2395034 2.7333255 2.9443612 1.3713651
0001c0 f1 f1 b3 40 5f d9 83 40 ee 71 98 40 fd 50 b8 3f
       5.623284 4.1202846 4.7639074 1.4399716
0001d0 c8 b1 f7 3e 56 aa f3 be f4 54 1d 40 87 70 91 3f
       0.48377824 -0.47590894 2.4583101 1.1362466
0001e0 fd bf d5 3f e0 97 c0 40 2f 5f da 40 1b da c2 40
       1.6699215 6.0185394 6.824119 6.089124
0001f0 26 1b c5 bf 20 1c ad 40 00 00 00 00 99 4b ff 3e
       -1.539891 5.409683 0.0 0.49862364
000200 f5 95 23 40 9a 86 de 3f f6 55 2e 3f 5f 39 a9 40
       2.5560277 1.7384827 0.68099916 5.2882533
000210 aa 06 93 40 8e 79 f1 3f 17 25 a3 3f 2b 53 63 40
       4.5945635 1.886522 1.2745694 3.5519512
000220 04 df 23 c0 f2 f1 03 41 8d 14 74 40 ab 9d a8 3f
       -2.5604868 8.246569 3.8137543 1.3173116
000230 08 88 df bf fa 03 07 41 0b c5 79 40 fb 13 d8 bd
       -1.7463388 8.438471 3.9026515 -0.10550686
000240 4e 75 a1 40 5d db 17 c0 5d 1f e3 c0 00 00 00 00
       5.0455694 -2.3727639 -7.0975785 0.0
000250 00 81 be 40 6d ae dd 3f d6 43 3f 40 c5 47 53 40
       5.953247 1.7318856 2.9885154 3.3012555
000260 46 0b 03 41 59 16 62 40 3d 75 71 c0 b7 56 68 40
       8.190252 3.532614 -3.7727807 3.6302927
000270 fd 15 19 40 a5 f8 13 c1 31 c3 3c c0 07 24 9d 3f
       2.391967 -9.248204 -2.9494135 1.227662
000280 97 70 3a c1 8d 90 94 40 4d 1c 7f 40 b1 16 52 40
       -11.652488 4.6426454 3.9861023 3.282635
000290 2b 20 11 c1 64 b6 0c c1 98 2c 46 c0 53 81 70 c1
       -9.0703535 -8.794529 -3.0964718 -15.031573
0002a0 00 00 00 00 0c 04 4b be a9 93 74 40 bb 46 d9 3f
       0.0 -0.19825763 3.8215125 1.697471
0002b0 fb 02 0d 41 c4 19 06 40 06 a0 18 c1 e5 d6 09 c0
       8.813228 2.0953226 -9.539068 -2.1537411
0002c0 70 aa 54 c0 a7 70 2a c1 3e 9a 25 c1 a6 3d c9 bf
       -3.3229027 -10.652503 -10.350157 -1.5721939
0002d0 62 fa 3f c1 56 e2 a2 40 67 35 eb 40 65 b6 7a c0
       -11.998629 5.090129 7.350269 -3.9173825
0002e0 9c 74 37 c1 6f 38 fe c0 20 36 b1 c0 8b 9b 79 c1
       -11.465969 -7.944389 -5.537857 -15.600474
0002f0 c4 e9 bf 40 00 00 00 00 3f e7 63 40 5c 8d 07 c0
       5.997286 0.0 3.5609891 -2.118003
000300 2f cf f9 40 49 b2 98 40 93 b0 cd c0 a8 5a 4e c0
       7.806541 4.7717633 -6.4278045 -3.2242832
000310 e4 7e 94 bf aa c7 25 c1 78 3b 1c c1 22 c0 98 3f
       -1.1601224 -10.361246 -9.764519 1.1933634
000320 db b8 67 c1 47 03 c2 3f 60 ae a0 40 57 4f 90 bf
       -14.482631 1.515725 5.021286 -1.1274213
000330 e2 4a 20 c1 2b b8 2d c1 46 c3 07 c1 b8 91 8b c1
       -10.018282 -10.857463 -8.485174 -17.446152
000340 ba cc ec 40 ac 1f 30 40 00 00 00 00 f0 21 e2 bf
       7.399991 2.751933 0.0 -1.7666607
000350 71 2f cf 40 92 dd 66 40 2b 96 29 c1 c4 be ec c0
       6.474541 3.6072736 -10.599162 -7.398287
000360 d0 50 75 c0 23 f6 5e c1 5c 83 35 c1 d3 23 df be
       -3.8330574 -13.935092 -11.34457 -0.4358202
000370 e9 c2 99 3f e1 71 5b 3f 33 fd e2 3f b0 6d 66 41
       1.2012607 0.8572064 1.773352 14.401779
000380 30 e9 ec bf 4b c2 b9 3f ec c9 9e 40 cc f8 9b 3f
       -1.8508663 1.4512419 4.9621487 1.2185302
000390 6a 62 e6 3f 24 b9 49 3e 9a 17 3c 3f 00 00 00 00
       1.7998784 0.19699532 0.73473513 0.0
0003a0 ab ad 6d 40 08 4c e7 3f 3f ec 31 3f b2 00 f5 3e
       3.7137249 1.8070078 0.6950111 0.47852093
0003b0 e8 90 05 3f f6 31 c1 40 ea 3c b4 40 e6 4d 8a 3d
       0.52174234 6.0373487 5.632436 0.06753139
0003c0 c7 24 a3 c0 73 6a 1e 41 82 67 25 41 56 e3 e0 40
       -5.0982394 9.900989 10.33777 7.027751
0003d0 a3 ab c9 c0 2f 46 d4 be a4 a0 cf 40 6c af 17 c1
       -6.3022017 -0.41459796 6.4883595 -9.480328
0003e0 3b 67 ef 40 65 55 d9 3f 21 02 94 40 84 78 e1 40
       7.4813514 1.6979185 4.62526 7.0459614
0003f0 00 00 00 00 53 e9 7b 40 ba ed ac c0 af da 0c 40
       0.0 3.936116 -5.4040194 2.2008474

snn.fc_out.weight f4 [9, 20]
000000 3e 9f 38 c0 9f 2e a0 bf ca ff 20 c0 2f 39 0f c1
       -2.8847194 -1.2514228 -2.5156121 -8.951461
000010 cb 84 37 3f 9a 95 1f c0 3a 37 cd c0 63 cd e8 40
       0.71687 -2.493506 -6.4129915 7.2750716
000020 53 6f 56 c0 01 66 98 bd 6c 5c ad bf c9 84 0a c1
       -3.3505447 -0.07441331 -1.354383 -8.657418
000030 9c 7e 1a c0 7f a6 a6 bf dd 9e 8d 3f ec 9a c1 3f
       -2.4139776 -1.301956 1.1064106 1.5125403
000040 f2 86 aa 40 3e c1 8c bf 42 0d 9b 3e 37 5c 68 be
       5.328973 -1.0996473 0.30283552 -0.22691427
000050 82 2a 31 c0 89 49 38 40 1b 4c fb 40 89 33 4e c0
       -2.7682195 2.8794882 7.85304 -3.2218955
000060 dc 5f a6 bf ee 73 a1 3f 6d 74 3b 3e 52 d7 05 c0
       -1.2998004 1.2613504 0.18306132 -2.091267
000070 10 ad 0d 3f fc 14 26 40 d9 77 f4 3f d5 78 b0 bf
       0.553422 2.5950308 1.9099075 -1.3786875
000080 bf 1d 1e 40 11 c8 ac 3f a0 80 27 40 cd b4 93 c0
       2.4705656 1.3498555 2.6172256 -4.6158204
000090 d6 7b b6 bf 00 77 e8 3f 61 ec 4a 3d 16 19 d7 3f
       -1.4256542 1.8161316 0.049541835 1.6804531
0000a0 26 58 2b 40 a5 5d ed 3f 20 b0 0e bf fb a1 a9 bf
       2.6772552 1.8544203 -0.55737495 -1.3252558
0000b0 14 9d a5 40 1e 74 fe 3e 17 20 13 3f ab 68 1d 3f
       5.1754246 0.49697965 0.5747084 0.61487836
0000c0 72 42 85 40 ce 5f 36 3e dd 00 fa 3f f1 96 44 c0
       4.164361 0.17809984 1.9531513 -3.0717127
0000d0 74 24 e7 3f 27 a6 1f 3f 34 ae 6b 3f d6 78 29 40
       1.8058 0.62362903 0.9206269 2.6480002
0000e0 c0 93 a8 c0 08 af 64 c0 6a c3 56 c0 47 9d 3d 3f
       -5.268036 -3.573183 -3.3556771 0.7406811
0000f0 c1 6e ed 3f b9 88 c8 bf 63 b8 2a bf a3 4a c0 c0
       1.8549424 -1.5666724 -0.666876 -6.009111
000100 ab 55 c4 bf d0 fc 81 40 88 7f 80 bf fe 28 9c 3f
       -1.5338644 4.062111 -1.003892 1.220001
000110 5f 32 e0 bd f1 5f b7 3f 5f b4 f1 3e 89 ff c1 bf
       -0.109471075 1.4326154 0.47207925 -1.5156108
000120 4e e5 d0 3e 7d ed cd 3f e9 5a 49 40 e1 f3 5a 40
       0.40799946 1.6088101 3.1461737 3.4211352
000130 ba c5 4d 40 87 41 2a c0 ae 28 ea 3e d2 48 93 3f
       3.2151933 -2.6602495 0.4573416 1.1506598
000140 a9 6c aa bf 3d a8 51 40 3c e4 73 3e 35 26 70 c0
       -1.331441 3.2758934 0.23817533 -3.752332
000150 ec 40 27 bf c5 d8 d5 bf 9a aa a5 40 e3 bd 49 bf
       -0.6533344 -1.6706778 5.1770754 -0.7880537
000160 b6 e4 1d c0 8f c8 3c bf 90 48 f6 bf 50 b8 e8 c0
       -2.4670844 -0.7374353 -1.9240894 -7.272499
000170 8b 4b 92 3f 22 38 d7 bf ee de e1 bf 2a 8d be 3f
       1.1429304 -1.6814005 -1.7646158 1.488683
000180 c1 7d fe bf 35 ae 7b 40 7e a0 2e bf 8d 96 a4 bf
       -1.9882127 3.9325078 -0.6821364 -1.2858444
000190 26 e0 21 40 76 68 95 bf 5a f0 5e c0 c1 49 50 3f
       2.529306 -1.1672504 -3.48342 0.8136254
0001a0 c6 63 13 c0 fd 72 5e c0 97 18 1d c0 ac 89 1f bf
       -2.3029647 -3.4757683 -2.4546258 -0.62319446
0001b0 cb 84 86 c0 3a 4e 74 bf f4 0c 28 c0 f5 5c d3 3f
       -4.20371 -0.95431864 -2.6257906 1.6512743
0001c0 4e 00 20 c0 99 e8 02 bf 21 9b 6c c0 bf 89 0c 3f
       -2.5000186 -0.51136166 -3.6969683 0.54897684
0001d0 79 1a 61 40 17 8d 17 3d 85 b4 18 be 1a 01 fa be
       3.5172408 0.036999788 -0.14912613 -0.48828965
0001e0 c4 11 02 c1 3d 97 18 c1 43 83 16 c1 6b da 9f 40
       -8.129337 -9.536923 -9.407046 4.9954123
0001f0 97 f2 98 c0 ef 77 ed 3f bb d4 0f bf 18 ad e7 39
       -4.779613 1.8552226 -0.56183976 0.00044188718
000200 c7 96 b8 c0 29 c2 02 c1 e2 4d de c0 d7 82 9b 40
       -5.7684054 -8.172402 -6.947007 4.8597217
000210 dd 2a c2 c0 57 65 c9 c0 49 8f f5 c0 27 51 4f c0
       -6.0677323 -6.2936206 -7.673741 -3.2393281
000220 cf b0 44 c0 7b 5c 8e 3f de 2f 13 bf 03 a5 83 c0
       -3.0732915 1.1121973 -0.57494915 -4.113893
000230 8d 2a 69 c0 00 2a 2f c0 3c c7 ca c0 45 df 04 41
       -3.643222 -2.7369385 -6.3368206 8.304509
000240 fb 7a 0a 40 0a d0 16 c0 1f a8 c6 bf 69 0d 95 c0
       2.1637561 -2.3564477 -1.5520056 -4.657887
000250 a9 6a 69 40 ed 51 3f c0 2a 41 07 40 64 79 45 40
       3.647135 -2.9893754 2.1133523 3.085534
000260 ae 83 74 3e 29 ab b3 bf 94 21 91 c0 59 56 0e c1
       0.23878357 -1.4036609 -4.535349 -8.896081
000270 f6 10 b8 c0 7d ec 87 be 6a 51 94 3f b1 00 59 c0
       -5.7520704 -0.26547614 1.1587346 -3.3906672
000280 fd 93 2a c0 11 7f 4f c1 91 dc 2a c0 d2 93 9d 40
       -2.6652825 -12.968522 -2.6697123 4.9242945
000290 3c 07 08 c1 02 97 15 c1 64 4e 15 c1 2c 58 f0 3d
       -8.501766 -9.349367 -9.331638 0.117355675
0002a0 6e 74 08 c1 21 e5 62 c0 21 d3 97 c0 cd 43 b0 40
       -8.528425 -3.545235 -4.7445226 5.5082765
0002b0 1e a9 49 c1 3b 77 89 c0 35 27 09 40 af a3 bd c0
       -12.603788 -4.2958045 2.143018 -5.926231
0002c0 f6 5c f8 3c 9c 99 ce 3f 0a 36 bd 3e 41 d7 04 bf
       0.030317765 1.6140628 0.3695529 -0.5189095

exp_avg f4 [20, 416]
000000 47 7c e0 ba 9c 15 04 ba 8f aa 5f 3a e2 80 2a b7
       -0.0017126881 -0.00050386204 0.000853219 -1.01627975e-05
000010 81 aa 16 ba 95 1b fa 3b ff ad 25 ba 64 e4 03 3a
       -0.0005747453 0.0076326826 -0.0006320178 0.0005031286
000020 2b 09 11 3b 8d e6 49 3b e7 c3 e3 ba dd 6e 8e bb
       0.0022130709 0.0030807585 -0.0017377109 -0.004346712
000030 c4 29 82 ba 33 db 38 bb ba a1 2c bb a2 b7 a7 3a
       -0.000993066 -0.0028206825 -0.0026341514 0.0012795816
000040 05 49 18 3b ed 7e 68 3b 14 e7 88 ba 87 bd a8 3a
       0.0023236882 0.0035476044 -0.0010444843 0.0012873866
000050 e2 dd a6 ba f6 8f 76 ba fa 2f 2b 3a 31 89 9e b9
       -0.0012730921 -0.0009405607 0.00065302814 -0.00030238324
000060 0a 29 8e ba 07 1a fb 39 53 67 7a ba fb 6f 23 3b
       -0.0010845971 0.00047893843 -0.00095521397 0.0024938572
000070 a0 43 83 bb 90 15 df ba be 3e be bb dc 12 96 39
       -0.0040058643 -0.0017019976 -0.0058058193 0.0002862428
000080 3a b8 90 b9 fc 9e 36 bb bf 12 0a 38 c9 04 84 bb
       -0.0002760308 -0.0027865758 3.2919223e-05 -0.0040288907
000090 2d 41 50 3b 84 9f c0 3a 54 2c 94 3a 08 56 ee 39
       0.003177713 0.0014695977 0.0011304715 0.00045458996
0000a0 f9 63 33 bb 9a 1b 03 bb 45 67 4d b9 e3 00 74 ba
       -0.002737282 -0.0020005465 -0.00019588794 -0.00093079935
0000b0 55 ff 70 bb d7 89 1a 3a 30 00 a8 b8 aa c4 ec 3a
       -0.0036773284 0.00058951735 -8.010899e-05 0.0018063982
0000c0 f5 03 2e bb f7 b3 0b 3b 36 49 28 bb 0b 94 1b 3b
       -0.0026552652 0.0021316984 -0.0025678403 0.0023739364
0000d0 ea ac 5d 3b f9 11 2b bb ce 07 d3 ba da 39 f5 ba
       0.0033824989 -0.0026103242 -0.0016100348 -0.0018709258
0000e0 9c 05 6a bb 0a 8a 86 3b fa a3 2c bb 01 7d ef 39
       -0.003570891 0.004105811 -0.0026342855 0.00045678767
0000f0 d3 81 0d bb a7 2c e6 3a 7a ca 8c ba 9c d2 89 39
       -0.0021592274 0.0017560915 -0.0010741495 0.00026287592
000100 63 62 aa b9 c1 ef 18 ba 3f d3 98 b9 b2 60 80 bb
       -0.0003249823 -0.0005834066 -0.0002914909 -0.003917777
000110 fb 07 3a ba 98 34 8e b9 05 2e cb ba 00 69 a9 ba
       -0.0007096526 -0.00027123536 -0.0015501386 -0.0012924969
000120 a0 d1 56 b8 6d 87 82 bb 48 23 8b bb 07 de 86 3a
       -5.1216804e-05 -0.003983429 -0.004246149 0.0010289558
000130 f1 b9 d7 ba 73 2d 20 35 9f b5 24 ba 7b 08 08 3a
       -0.0016458613 5.967078e-07 -0.0006283167 0.0005189252
000140 bf 86 81 bb c6 86 68 bb 73 c1 f4 ba e5 be 0e bb
       -0.0039528306 -0.0035480722 -0.0018673375 -0.0021781262
000150 98 8f a9 ba 3f 51 5c bb fd 04 59 ba 3f 58 5a bb
       -0.0012936471 -0.0033617762 -0.00082786364 -0.003331676
000160 80 b6 83 3a 5b c6 4e ba 47 08 c6 39 75 0a 2a ba
       0.0010048896 -0.00078878336 0.0003777167 -0.00064865436
000170 85 7a 90 bb 51 f6 c3 b6 ad fc 10 bb 9e 5c 5c ba
       -0.0044091367 -5.840128e-06 -0.0022123263 -0.0008406135
000180 5c c1 44 3b 02 4b 92 b9 fb 72 c3 3a 67 f8 36 3b
       0.0030022478 -0.00027903175 0.0014911586 0.0027919055
000190 b0 93 36 3b 0a 82 9a 3b 1f ed 03 ba 17 49 0b 3b
       0.0027859025 0.004715209 -0.0005032587 0.0021253282
0001a0 d7 ee 5f 3b 2b 7a 0c ba 34 c4 8a ba fe fa be ba
       0.003416946 -0.00053587806 -0.0010587038 -0.0014570651
0001b0 9c c2 fb b8 92 37 a8 3b c3 ca 40 bb 26 10 09 3b
       -0.000120048615 0.0051335776 -0.002941773 0.0020914166
0001c0 41 08 1f 3a 2b 14 db ba c0 37 d5 ba ed 89 d4 38
       0.00060665986 -0.0016714385 -0.0016267225 0.000101346384
0001d0 01 5c 00 39 a9 dd 7f 39 ca 8a de ba fc 33 75 3b
       0.00012241305 0.0002440127 -0.0016978618 0.0037415018
0001e0 9d 8e c9 3a 55 83 dc 39 84 02 57 bb 99 75 06 bb
       0.0015377585 0.0004205952 -0.0032807896 -0.002051687
0001f0 a5 f9 d7 37 f4 10 4b 3a f6 1f 5f ba ca a4 25 3a
       2.5746247e-05 0.00077463617 -0.00085115375 0.0006318806
000200 c8 85 a9 b8 9a ec 32 ba 91 86 fb ba 6a 7d 8a ba
       -8.083467e-05 -0.00068254175 -0.0019189884 -0.0010565941
000210 f2 5f 89 bb 9d 54 2c bb 78 ae 2c b9 69 37 09 bb
       -0.004192346 -0.002629555 -0.00016468193 -0.0020937568
000220 2f 98 6f bb 98 49 ef ba 9c 89 b9 bb 3e 52 35 3b
       -0.0036559214 -0.0018256186 -0.0056621563 0.0027667428
000230 9a f2 41 3b d9 1f 66 39 cd b1 6a 3a 78 6f 43 ba
       0.0029594065 0.00021946373 0.0008952886 -0.000745527
000240 2e de 43 bb 6a 00 3b ba 37 ae 0f bb 41 9f b8 3a
       -0.0029887068 -0.00071335456 -0.0021923908 0.0014085547
000250 3b 7c 46 3b 31 e9 81 3b f3 23 98 3a 34 6a 53 3b
       0.003028645 0.003964566 0.0011607393 0.0032259347
000260 01 90 bc 3b 57 37 5a 3a 3a e6 a4 bb 4c fa c9 39
       0.0057544713 0.00083242863 -0.005032328 0.00038524193
000270 aa 6d 2c ba 27 d6 10 ba 04 c8 06 3a 16 77 47 bb
       -0.00065776205 -0.0005525075 0.0005141499 -0.003043597
000280 ab f5 c4 b9 a1 59 31 3c c4 ce fe 3a 5e 35 47 ba
       -0.0003756707 0.010824592 0.0019440283 -0.00075992
000290 f1 d6 a7 3a 42 2b 71 bb dd 85 7e bb aa a7 94 38
       0.0012805146 -0.0036799465 -0.0038837113 7.08842e-05
0002a0 a7 28 18 3a 47 45 5e 3b 98 62 81 bb 45 81 78 b9
       0.00058043975 0.0033915804 -0.003948521 -0.0002369928
0002b0 b4 40 47 bb 53 19 ce 3a 37 2b 46 bb 9f f3 81 3a
       -0.0030403556 0.00157241 -0.003023816 0.0009914524
0002c0 9d 70 35 3b 45 35 42 3a 2d 2e 86 ba 7a f2 3c ba
       0.002768553 0.00074084505 -0.001023715 -0.00072077627
0002d0 87 3b f6 3b 2d d6 ed ba 0a 3b de 3a 6c 34 59 3b
       0.0075144204 -0.0018145494 0.0016954851 0.0033142818
0002e0 48 73 49 ba 35 65 10 bb e2 d2 b8 bb 39 f4 ae bb
       -0.000768472 -0.002203298 -0.0056403736 -0.005339172
0002f0 54 ef 09 bb c6 62 ff 3a aa e9 26 bb b2 2f 1c bb
       -0.0021047192 0.0019484393 -0.0025468864 -0.002383214
000300 91 cb af 3b 5a 86 0c 3b ba 37 e2 ba ac e5 ec ba
       0.005364843 0.0021442384 -0.001725904 -0.0018073819
000310 7b 97 64 bb 9a 86 11 3a 5f 53 29 3b 51 23 bd b9
       -0.0034880328 0.0005551368 0.0025837047 -0.00036075202
000320 c5 ea e5 3a 23 95 dc 39 6c c7 e9 b9 ea df 07 3b
       0.001754128 0.00042072785 -0.00044589804 0.0020732828
000330 d9 cf eb 39 9b 7a 13 3b 8e eb 35 b9 90 6a 14 ba
       0.0004497755 0.0022503498 -0.00017349256 -0.0005661631
000340 a6 c3 d8 ba 7d b7 c0 ba c2 a2 b1 3a e4 51 5c 3a
       -0.00165378 -0.0014703121 0.0013552534 0.00084045366
000350 b0 96 2e 3b c9 00 db 39 33 94 78 ba 0e 04 26 3a
       0.002664011 0.0004177152 -0.00094825326 0.00063330017
000360 f5 80 bc ba ba 29 ec 3a 57 4d 33 bb a1 2a 34 3b
       -0.0014381694 0.0018017807 -0.002735933 0.002749123
000370 8c 69 b1 3a f9 5c 89 b9 69 15 27 bb 9f 62 8c 3a
       0.0013535484 -0.00026199946 -0.002549494 0.0010710544
000380 5c 58 8d bb fd 8b 79 3a c8 47 41 ba 7b 9b 86 bb
       -0.004313512 0.0009519456 -0.0007373062 -0.00410789
000390 ee 4f 10 3b 4a 86 46 3b d0 0b 60 ba 1f 74 94 3a
       0.0022020298 0.0030292445 -0.0008546682 0.0011326111
0003a0 63 a1 21 3b 00 2a 49 3a 51 c3 73 b9 04 11 9e 3a
       0.0024662844 0.00076738 -0.00023247047 0.0012059514
0003b0 11 14 e7 3a ba d8 07 39 77 30 b4 ba 29 76 7a ba
       0.0017629882 0.0001295534 -0.0013747354 -0.00095543504
0003c0 24 d5 1f bb 9b ca b6 3a e5 73 3e bb 27 4a 4f 3a
       -0.0024388516 0.0013945879 -0.0029060778 0.0007907473
0003d0 61 ce f6 ba 37 62 24 3b f9 88 12 bb 1c 7b 40 ba
       -0.0018829816 0.0025082955 -0.0022359474 -0.00073425635
0003e0 35 2f 9f 3b 3a 1e 3d 3b 05 8d 7d 3b d0 ad 89 3a
       0.0048579224 0.0028857128 0.003868879 0.0010504071
0003f0 ad 7a f0 3a e8 cf e6 3a 5c 7e ab ba 49 02 32 3a
       0.0018347107 0.0017609568 -0.0013083923 0.00067905016

exp_avg_sq f4 [20, 416]
000000 d9 6c da 38 1c 0e b8 38 89 ea f2 38 45 a6 d8 38
       0.000104153245 8.776432e-05 0.00011583145 0.00010330653
000010 4b 9e f9 38 94 c5 e5 38 7e a9 eb 38 7d 1a b1 38
       0.000119027296 0.00010956373 0.000112372436 8.4449515e-05
000020 d2 d9 d4 38 14 80 dc 38 94 25 0d 39 a7 7f d1 38
       0.0001014952 0.00010514274 0.00013460807 9.989674e-05
000030 fe 87 fb 38 55 a0 c8 38 c9 6c ce 38 ba 40 0d 39
       0.00011993943 9.566607e-05 9.843108e-05 0.0001347092
000040 4c 4c e9 38 96 a7 d9 38 27 ac f6 38 b3 f6 60 39
       0.00011124517 0.00010378582 0.0001176226 0.00021454207
000050 3e 33 bc 38 c3 3f e2 38 67 81 fc 38 fd c1 94 38
       8.974083e-05 0.00010788396 0.000120403995 7.093323e-05
000060 d4 f0 ae 38 5f 68 c5 38 fd 7b e6 38 18 a4 b1 38
       8.341824e-05 9.413133e-05 0.00010990349 8.4705825e-05
000070 bb 81 ca 38 9d f4 d7 38 d2 06 f1 38 e3 59 eb 38
       9.656275e-05 0.00010297562 0.00011493046 0.00011222416
000080 bc f7 d4 38 14 0b 00 39 5d 1f e0 38 48 0f ce 38
       0.00010155092 0.00012211158 0.00010686994 9.825692e-05
000090 76 99 c6 38 da 70 df 38 96 00 dc 38 e5 c4 c5 38
       9.46996e-05 0.00010654489 0.000104905266 9.4303665e-05
0000a0 c1 72 d0 38 1d f6 bc 38 14 39 e4 38 71 48 aa 38
       9.9395875e-05 9.010381e-05 0.00010882519 8.119725e-05
0000b0 c2 1d cb 38 98 e3 ac 38 09 12 d1 38 4e 7d 14 39
       9.685337e-05 8.243992e-05 9.969256e-05 0.0001416106
0000c0 a4 26 f6 38 78 fa d7 38 d5 86 d7 38 46 cf d1 38
       0.000117373915 0.00010298652 0.00010277113 0.00010004504
0000d0 91 fc f8 38 e1 2c 07 39 30 22 ca 38 9c 8d ec 38
       0.00011872606 0.00012891322 9.6384785e-05 0.00011279734
0000e0 19 fd 05 39 c2 25 ea 38 26 4e e3 38 86 d3 b7 38
       0.00012778155 0.000111650224 0.0001083876 8.765519e-05
0000f0 5b a7 a9 38 dc 66 c6 38 65 24 bc 38 ee 4e c2 38
       8.08972e-05 9.460535e-05 8.9713176e-05 9.265343e-05
000100 34 06 da 38 a2 b0 d5 38 59 d1 da 38 16 b8 e0 38
       0.000103962055 0.00010189532 0.00010434044 0.00010715441
000110 6a 6f c9 38 0a 47 08 39 f1 7e 08 39 bd 52 0e 39
       9.6051794e-05 0.00012996435 0.0001301726 0.00013572998
000120 fa d7 e4 38 d0 f1 c2 38 8a 92 0e 39 10 d4 f8 38
       0.00010912116 9.295682e-05 0.00013596765 0.00011865061
000130 26 0c af 38 80 1e b5 38 76 9f c3 38 4f 81 8f 38
       8.346913e-05 8.6364336e-05 9.3280265e-05 6.842857e-05
000140 dd d9 a5 38 ba 59 ea 38 31 90 d2 38 60 c0 d8 38
       7.908393e-05 0.000111747024 0.00010040438 0.00010335515
000150 ce 63 aa 38 a2 0f 00 39 ef da c9 38 cc cc 00 39
       8.124822e-05 0.00012212855 9.6252064e-05 0.00012283324
000160 0b 11 e2 38 94 16 f4 38 f8 99 14 39 84 9a c6 38
       0.00010779694 0.00011639032 0.00014171738 9.4701565e-05
000170 0c d7 d1 38 da 9f b1 38 a2 17 d1 38 cd 89 a0 38
       0.00010005952 8.4697924e-05 9.9702986e-05 7.655062e-05
000180 b2 a3 cf 38 9c 85 cf 38 3f 22 d5 38 e7 cc e4 38
       9.90102e-05 9.895416e-05 0.0001016301 0.00010910053
000190 04 08 d9 38 7e 8c 04 39 45 a2 fd 38 a9 5c ca 38
       0.00010348859 0.00012640838 0.00012094205 9.64937e-05
0001a0 a4 a0 d7 38 ea 49 bb 38 64 0e c3 38 d6 14 f9 38
       0.000102819205 8.9306224e-05 9.301005e-05 0.00011877126
0001b0 8f 0b c6 38 a7 53 b2 38 fc d9 cd 38 31 45 16 39
       9.443529e-05 8.503283e-05 9.8157645e-05 0.0001433089
0001c0 b3 64 b1 38 e9 88 0b 39 79 ea d2 38 80 b0 a7 38
       8.4587744e-05 0.00013307076 0.00010057254 7.996056e-05
0001d0 66 45 bb 38 d7 ac ef 38 8d 60 d3 38 48 d9 ad 38
       8.929781e-05 0.00011428602 0.00010079248 8.2897546e-05
0001e0 81 14 d7 38 1b 8f db 38 6c ac bf 38 c4 20 ca 38
       0.00010255818 0.00010469389 9.139706e-05 9.638214e-05
0001f0 93 d5 b6 38 82 71 ab 38 8c 37 dc 38 14 02 24 39
       8.7182176e-05 8.175058e-05 0.00010500764 0.00015641033
000200 d4 b4 a9 38 9a 91 07 39 43 d1 cc 38 15 f3 b1 38
       8.09223e-05 0.00012928844 9.766456e-05 8.485295e-05
000210 89 40 cb 38 77 b3 dd 38 57 1e ad 38 55 5a a2 38
       9.691815e-05 0.00010571529 8.254934e-05 7.7415876e-05
000220 7e d2 d9 38 e5 31 d1 38 6f 54 ae 38 22 bc df 38
       0.000103865736 9.97519e-05 8.3126935e-05 0.00010668511
000230 dd 95 ad 38 6e 35 bc 38 79 28 c7 38 3c b0 17 39
       8.277197e-05 8.9744906e-05 9.496598e-05 0.00014466135
000240 83 e4 bb 38 6c 83 d7 38 a2 37 e1 38 ff 4a 9b 38
       8.9594185e-05 0.00010276478 0.000107391985 7.404945e-05
000250 d3 85 c2 38 b2 8f d7 38 35 d6 e9 38 41 16 cb 38
       9.2755676e-05 0.00010278764 0.00011150205 9.6839394e-05
000260 43 21 df 38 cb 68 db 38 4e a9 cb 38 f0 80 d0 38
       0.00010639664 0.00010462253 9.71133e-05 9.9422294e-05
000270 53 ba 76 39 e2 71 43 39 bc 8f 1b 39 38 e7 5a 39
       0.000235298 0.00018639074 0.00014835497 0.00020876236
000280 e3 b0 71 39 d9 51 64 39 91 07 67 39 a3 73 3a 39
       0.00023049446 0.00021774265 0.00022032695 0.0001778142
000290 2d e8 41 39 43 c6 2e 39 13 2c 9a 39 c2 51 41 39
       0.00018492407 0.00016667791 0.00029406007 0.00018436371
0002a0 ca dc f1 38 65 8f 2e 39 58 49 60 39 dc e0 32 39
       0.00011532901 0.00016647352 0.00021389627 0.0001705917
0002b0 31 19 3c 39 f1 dc 85 39 15 d0 12 39 b6 96 08 39
       0.00017938462 0.0002553235 0.00014001162 0.00013026115
0002c0 6c 6f 81 39 46 0f 6e 39 df 79 8a 39 9c a3 4a 39
       0.00024687813 0.00022703139 0.00026412212 0.0001932517
0002d0 8c 90 60 39 01 77 55 39 b9 69 3c 39 83 79 48 39
       0.00021416153 0.00020357595 0.00017968462 0.00019118753
0002e0 d5 49 fd 38 4f 60 3a 39 c2 f1 41 39 70 84 22 39
       0.000120777324 0.0001777422 0.00018495976 0.00015498861
0002f0 66 49 80 39 7a d8 4e 39 d0 be 0b 39 ed 21 15 39
       0.0002446875 0.00019726335 0.00013327156 0.00014222386
000300 a3 91 5e 39 a6 f8 20 39 ca 7d 48 39 41 37 20 39
       0.00021225824 0.00015351418 0.00019120346 0.00015279373
000310 25 1c b8 39 6b 0d 25 39 fb 3e 52 39 ff 34 35 39
       0.00035116184 0.00015740625 0.00020050623 0.00017281248
000320 3d 92 33 39 04 62 3f 39 b1 59 7f 39 ac c7 01 39
       0.00017125248 0.00018251693 0.00024352108 0.00012376782
000330 5f a9 4e 39 65 48 14 39 0f 7a f9 38 91 e8 0a 39
       0.00019708787 0.00014141349 0.000118959804 0.00013247343
000340 d1 37 e6 38 26 18 29 39 a9 c9 cf 38 f5 d5 eb 38
       0.00010977651 0.00016126092 9.908091e-05 0.00011245526
000350 8b 10 0e 39 30 71 0d 39 00 68 d6 38 d1 20 13 39
       0.00013548338 0.00013488973 0.00010223687 0.00014031238
000360 9f 81 27 39 5f 9e d8 38 10 94 f2 38 e1 37 2f 39
       0.00015974649 0.000103291815 0.00011567038 0.00016710117
000370 95 f7 24 39 b8 b7 02 39 ae 2d 77 39 9f 3f 04 39
       0.0001573249 0.00012466207 0.00023572773 0.00012612202
000380 4a b2 ec 38 4d 4b 5d 39 a4 65 2f 39 df e4 09 39
       0.00011286566 0.00021104254 0.00016727165 0.00013150599
000390 3b b9 28 39 53 45 1c 39 7a a8 a7 38 19 33 30 39
       0.00016090732 0.00014903145 7.994562e-05 0.00016803703
0003a0 a9 ae 31 39 0c e3 17 39 46 7f c4 38 05 c2 bd 38
       0.00016945101 0.00014485064 9.369715e-05 9.048361e-05
0003b0 c1 a9 cd 38 5f 67 02 39 b1 f9 6e 39 8d 85 26 39
       9.806781e-05 0.00012436275 0.00022790466 0.00015880745
0003c0 fc 1e 19 39 c2 13 53 39 ec 30 24 39 e5 82 fe 38
       0.0001460276 0.00020129888 0.00015658484 0.00012136045
0003d0 c8 f6 28 39 b1 97 2c 39 41 58 be 38 2f c4 25 39
       0.00016113662 0.00016459708 9.0763446e-05 0.0001580871
0003e0 40 17 2f 39 78 db 3c 39 66 d2 c5 38 6a 72 d2 38
       0.00016697962 0.00018010836 9.432882e-05 0.000100348916
0003f0 0b da 28 39 99 e7 04 39 85 a0 3b 39 a0 dd 4e 39
       0.00016102956 0.00012674778 0.00017893508 0.00019728253

exp_avg f4 [20, 20]
000000 00 00 00 00 93 11 24 b7 7c 79 e3 b4 48 03 2f ba
       0.0 -9.779254e-06 -4.2370436e-07 -0.0006676209
000010 21 5f 3e bb f2 49 67 ba 8c 8f a8 ba ee 9f 4e bb
       -0.00290484 -0.00088229694 -0.0012860163 -0.003152843
000020 04 00 00 00 04 00 00 80 04 00 00 00 83 6e ed b9
       6e-45 -6e-45 6e-45 -0.000452865
000030 f3 24 57 02 04 00 00 00 ad f6 9d ba f5 60 6f b8
       1.5806309e-37 6e-45 -0.0012051665 -5.707234e-05
000040 5f 5c bb b7 54 98 4b bb 27 56 06 bb 04 00 00 00
       -2.233515e-05 -0.0031066136 -0.0020498128 6e-45
000050 6e 4f d6 39 00 00 00 00 dd 3c 93 b7 46 0b 0b 3a
       0.0004087644 0.0 -1.7552107e-05 0.0005304109
000060 21 86 e6 b8 2c 43 b4 b9 70 5c d5 b8 ee e8 91 3a
       -0.00010992238 -0.00034382322 -0.00010173849 0.001113204
000070 04 00 00 80 04 00 00 00 04 00 00 00 49 73 f7 39
       -6e-45 6e-45 6e-45 0.00047197405
000080 38 23 71 81 04 00 00 00 a9 32 56 b9 76 0a 05 38
       -4.4289977e-38 6e-45 -0.00020427503 3.1719414e-05
000090 df 99 6d 39 d5 a9 0f 39 a9 2f e4 39 04 00 00 00
       0.00022659403 0.0001370081 0.00043523058 6e-45
0000a0 1a 37 8a 3a 57 90 92 37 00 00 00 00 5a 16 c8 39
       0.0010544986 1.747177e-05 0.0 0.00038163626
0000b0 61 18 a3 ba 62 e9 1c ba 5c 58 73 b9 46 13 bf ba
       -0.0012443179 -0.00059857045 -0.00023207202 -0.0014577887
0000c0 04 00 00 80 04 00 00 00 04 00 00 00 25 19 c9 39
       -6e-45 6e-45 6e-45 0.00038356442
0000d0 04 61 8e 82 04 00 00 00 d2 43 5d ba eb 34 9d 37
       -2.092071e-37 6e-45 -0.0008440587 1.87405e-05
0000e0 9f b4 2d 39 cd c6 89 ba b1 70 8a b9 04 00 00 00
       0.00016565852 -0.0010511518 -0.00026405373 6e-45
0000f0 09 bf a6 39 3d dc 5b b6 75 e2 91 36 00 00 00 00
       0.0003180432 -3.2761739e-06 4.3477e-06 0.0
000100 e7 75 cd bb 50 c0 16 ba c0 59 e7 b8 6a 3d 06 bc
       -0.0062701586 -0.00057507027 -0.000110316556 -0.008193353
000110 04 00 00 00 04 00 00 80 04 00 00 80 36 1f e1 36
       6e-45 -6e-45 -6e-45 6.709156e-06
000120 87 b1 1d 02 04 00 00 80 09 5a 8c ba db e4 a1 b6
       1.1585486e-37 -6e-45 -0.0010707985 -4.824816e-06
000130 7b a6 86 b7 db d0 68 bb 34 80 df ba 04 00 00 80
       -1.6051568e-05 -0.0035524878 -0.0017051757 -6e-45
000140 ad 99 42 38 ef c9 42 37 ac de 31 b7 0c 19 53 3a
       4.6396326e-05 1.1610317e-05 -1.0601867e-05 0.00080527435
000150 00 00 00 00 f3 c7 e2 b9 0d 36 09 ba 96 38 87 3b
       0.0 -0.00043255053 -0.00052341894 0.0041266186
000160 04 00 00 00 04 00 00 80 04 00 00 80 bb 62 35 3a
       6e-45 -6e-45 -6e-45 0.0006919314
000170 1e 49 bc 02 04 00 00 80 21 ba b8 39 3b 9d 6f 38
       2.7666084e-37 -6e-45 0.00035233892 5.7128473e-05
000180 3e dd 88 39 6a 5a 04 3b ac 47 19 3b 04 00 00 80
       0.0002610478 0.0020195493 0.0023388667 -6e-45
000190 71 cd 14 3b 99 58 68 38 d7 96 d2 38 18 5f 0d 3b
       0.002270546 5.5395623e-05 0.000100416764 0.0021571573
0001a0 dc 29 8e ba 00 00 00 00 df 8c 96 3a 18 6a 90 3b
       -0.0010846215 0.0 0.0011486075 0.0044071786
0001b0 04 00 00 80 04 00 00 00 04 00 00 00 d1 4d e0 3a
       -6e-45 6e-45 6e-45 0.0017113035
0001c0 00 be ec 82 04 00 00 00 48 fc 02 ba f8 5b 23 39
       -3.4786138e-37 6e-45 -0.0004996699 0.00015579152
0001d0 7a 7f 12 3a 80 2a 4e 3b 8d 19 2f 3b 04 00 00 00
       0.00055884535 0.0031458437 0.002671811 6e-45
0001e0 aa 7e 3a 39 91 7b 28 37 51 c2 d5 36 34 b3 75 3a
       0.00017785528 1.004235e-05 6.370516e-06 0.00093727116
0001f0 56 f4 84 bb c2 c1 5f ba 00 00 00 00 77 d1 19 bb
       -0.0040574474 -0.0008535647 0.0 -0.0023470798
000200 04 00 00 00 04 00 00 00 04 00 00 00 0f 09 8c 3a
       6e-45 6e-45 6e-45 0.0010683852
000210 be 88 ba 80 04 00 00 00 8b e5 ab ba 18 68 1a 38
       -1.7130456e-38 6e-45 -0.0013114674 3.6813406e-05
000220 52 3b 87 39 69 e3 09 bb 8d 74 3e b9 04 00 00 00
       0.00025793404 -0.0021040088 -0.0001816323 6e-45
000230 2f 92 96 38 55 a9 b1 b7 0a 39 39 b7 6c 26 a9 39
       7.179786e-05 -2.1178896e-05 -1.104014e-05 0.00032262818
000240 60 3f f0 b9 ff cb b7 39 99 f0 9f 39 00 00 00 00
       -0.00045823585 0.0003505647 0.00030506102 0.0
000250 04 00 00 00 04 00 00 00 04 00 00 00 08 05 95 38
       6e-45 6e-45 6e-45 7.105811e-05
000260 20 ec 84 82 04 00 00 00 c7 99 ec 38 db f4 74 b8
       -1.9531186e-37 6e-45 0.00011282 -5.8402173e-05
000270 43 48 b9 b8 26 3d 2a 3a 6f e3 12 39 04 00 00 00
       -8.834947e-05 0.0006494097 0.0001400837 6e-45
000280 47 f1 bb 38 9b 6e 15 33 3f 62 98 33 f6 30 8e 37
       8.961796e-05 3.479236e-08 7.0959224e-08 1.6950518e-05
000290 4a a8 23 39 d4 b9 98 b6 c5 2b d2 34 1f 26 4d 3a
       0.00015607584 -4.5515862e-06 3.9147395e-07 0.000782581
0002a0 00 00 00 00 04 00 00 80 04 00 00 80 23 a5 51 37
       0.0 -6e-45 -6e-45 1.249582e-05
0002b0 38 ff 05 00 04 00 00 80 dd 7e 1c 38 a4 7a f2 33
       5.50733e-40 -6e-45 3.731145e-05 1.1291311e-07
0002c0 34 2d c1 35 08 42 69 38 e3 d3 de 38 04 00 00 80
       1.4392776e-06 5.5613025e-05 0.00010625252 -6e-45
0002d0 3a 7f 69 38 41 7f ff 32 32 28 a2 32 f2 b9 0b 37
       5.5670018e-05 2.9743775e-08 1.887756e-08 8.328339e-06
0002e0 55 19 1d 38 09 f1 be b6 00 e7 47 b4 d1 79 a5 39
       3.745531e-05 -5.6905014e-06 -1.8617357e-07 0.00031562013
0002f0 04 00 00 80 00 00 00 00 04 00 00 00 18 ad cd 36
       -6e-45 0.0 6e-45 6.129627e-06
000300 68 71 06 80 04 00 00 00 ac 50 6e b4 e4 99 69 33
       -5.91695e-40 6e-45 -2.2194826e-07 5.4389503e-08
000310 09 d0 1a 35 c6 bd 6b 37 1e 74 29 38 04 00 00 00
       5.76722e-07 1.4051277e-05 4.0400882e-05 6e-45
000320 c0 d4 2d 38 91 de 94 32 b1 47 b3 32 e8 b3 e2 36
       4.1444553e-05 1.733068e-08 2.0870944e-08 6.7562687e-06
000330 17 0b a5 38 29 da c8 b5 20 d7 a6 33 bb 0d c0 39
       7.869879e-05 -1.4964654e-06 7.7691084e-08 0.00036631324
000340 04 00 00 80 04 00 00 80 00 00 00 00 a0 21 ac 36
       -6e-45 -6e-45 0.0 5.129914e-06
000350 19 64 00 80 04 00 00 80 2d 45 34 37 d3 b5 39 33
       -3.5908e-41 -6e-45 1.0744942e-05 4.3239037e-08
000360 94 11 11 35 2a f8 c3 37 35 86 39 38 04 00 00 00
       5.404229e-07 2.3361372e-05 4.4232427e-05 6e-45
000370 6f eb 22 3a d3 38 18 b5 5e 5d 8a 37 81 63 9d b9
       0.0006214892 -5.67071e-07 1.649436e-05 -0.0003001951
000380 bc 48 c8 bb 20 a3 58 ba bd 1f ba 38 a7 92 d3 bb
       -0.0061121862 -0.00082640536 8.875083e-05 -0.0064566913
000390 04 00 00 00 04 00 00 80 04 00 00 80 00 00 00 00
       6e-45 -6e-45 -6e-45 0.0
0003a0 ca ab ad 01 04 00 00 80 30 df b1 ba a1 cc 4d b6
       6.379667e-38 -6e-45 -0.0013570543 -3.066649e-06
0003b0 94 2d 95 b7 da 20 6d bb c7 62 f9 ba 04 00 00 80
       -1.7783408e-05 -0.003618291 -0.001902663 -6e-45
0003c0 4f 6b 91 39 f6 81 49 35 72 4b aa 35 a8 68 b0 38
       0.00027736506 7.5067453e-07 1.2687944e-06 8.411828e-05
0003d0 66 24 23 39 91 ca 0d b8 2a d6 ed 36 6d ba 9d 3a
       0.00015558451 -3.3805674e-05 7.0880824e-06 0.0012033709
0003e0 04 00 00 80 04 00 00 00 04 00 00 00 54 0f 87 38
       -6e-45 6e-45 6e-45 6.440157e-05
0003f0 00 00 00 00 04 00 00 00 4b 8b 88 38 76 c8 fb 35
       0.0 6e-45 6.510931e-05 1.8759299e-06

exp_avg_sq f4 [20, 20]
000000 00 00 00 00 45 e4 6a 32 c4 13 50 34 1e 6b 5d 38
       0.0 1.3672495e-08 1.93787e-07 5.2790267e-05
000010 ef 8f 66 39 29 e2 2d 37 3d 11 83 37 35 04 e4 3a
       0.00021988129 1.0364261e-05 1.5624444e-05 0.0017396273
000020 1b 48 8c 23 a6 4d 44 21 a3 17 45 1f 31 f5 f1 37
       1.5209368e-17 6.651015e-19 4.1735924e-20 2.8843615e-05
000030 ce 2c da 2a f6 f9 bc 1e 7c a2 49 38 68 04 48 33
       3.8755669e-13 2.0008656e-20 4.807346e-05 4.6570136e-08
000040 73 14 69 35 7d 01 db 39 b6 b3 57 39 be ba ba 1c
       8.682902e-07 0.00041772044 0.00020570945 1.2356719e-21
000050 48 f0 c7 36 00 00 00 00 4d b2 80 33 ee b1 0d 37
       5.9586346e-06 0.0 5.992897e-08 8.445682e-06
000060 b1 65 a8 37 8c 17 a3 35 38 a4 42 36 30 99 36 39
       2.0074514e-05 1.2151299e-06 2.900384e-06 0.0001741394
000070 bf df 81 22 d7 33 32 20 64 ff 2d 1e 66 6e b9 36
       3.520242e-18 1.5094339e-19 9.211357e-21 5.5262817e-06
000080 e3 0e fa 28 da 37 95 1d 9f 8a f0 36 52 d4 13 32
       2.7762032e-14 3.949772e-21 7.168695e-06 8.604802e-09
000090 a1 04 da 34 ef b2 29 38 f5 a6 8f 37 f1 45 2d 1b
       4.0609032e-07 4.0459385e-05 1.7124674e-05 1.4332824e-22
0000a0 58 41 d9 37 d1 c9 12 31 00 00 00 00 db a7 ac 37
       2.5898844e-05 2.1360516e-09 0.0 2.0582162e-05
0000b0 80 f0 91 38 6d be ac 36 14 54 18 37 ce f4 2a 3a
       6.9589354e-05 5.148168e-06 9.079482e-06 0.0006521464
0000c0 ba 71 04 24 94 64 e9 21 d4 93 cf 1f 35 f0 46 37
       2.8719267e-17 1.5815317e-18 8.791247e-20 1.1857647e-05
0000d0 a5 63 3d 2a ed 4b e2 1e b0 d9 52 38 d1 dd b3 31
       1.6821143e-13 2.3960083e-20 5.027064e-05 5.2348033e-09
0000e0 ac c2 a2 34 61 32 46 39 44 4e a1 38 28 83 36 1c
       3.0316494e-07 0.00018901519 7.691656e-05 6.0388264e-22
0000f0 17 17 98 38 e7 01 a0 2f ba a9 90 31 00 00 00 00
       7.2522256e-05 2.9105182e-10 4.2102473e-09 0.0
000100 95 9c b0 39 61 6e 4e 36 4a 0d a8 35 8d f5 5e 3b
       0.00033686 3.076064e-06 1.2520843e-06 0.0034020871
000110 53 08 7a 23 a6 ae ee 21 f4 5a ca 1f 57 79 a6 35
       1.355429e-17 1.6173736e-18 8.57008e-20 1.2403278e-06
000120 24 33 a7 29 28 9f 2c 1f bb 92 87 38 76 86 47 30
       7.425161e-14 3.6554068e-20 6.464632e-05 7.258686e-10
000130 ba 79 90 32 6b 5a 5b 39 a6 c2 0b 39 0e 01 52 1d
       1.6819161e-08 0.00020919151 0.00013328585 2.7793814e-21
000140 e0 01 d3 37 38 00 9b 31 28 05 9b 33 57 c2 a3 37
       2.5154033e-05 4.5111186e-09 7.218688e-08 1.952161e-05
000150 00 00 00 00 15 b4 5a 36 7d a9 e6 36 6a 7a b7 39
       0.0 3.2589353e-06 6.874265e-06 0.00034995686
000160 11 f5 39 24 ae fb 62 22 f5 b7 5f 20 c5 4b 35 37
       4.032306e-17 3.076195e-18 1.8949701e-19 1.0806082e-05
000170 1c 97 9a 2a 82 e9 b6 1f 19 89 a0 37 e1 fe c2 32
       2.7460749e-13 7.7466304e-20 1.9137327e-05 2.2700478e-08
000180 40 12 00 35 9e ec 05 39 29 b9 80 38 e5 ef 76 1d
       4.7710273e-07 0.00012772015 6.1380044e-05 3.2681851e-21
000190 f8 64 54 39 75 75 50 32 16 69 84 34 56 18 bc 38
       0.0002025551 1.21339e-08 2.4663376e-07 8.9690715e-05
0001a0 0d 6e cf 39 00 00 00 00 a3 eb bc 37 13 74 51 3b
       0.0003956411 0.0 2.2521073e-05 0.0031960055
0001b0 f3 04 30 22 ab 1c 13 20 07 81 00 1e 78 f6 60 38
       2.3855068e-18 1.246087e-19 6.802946e-21 5.3635304e-05
0001c0 29 8f 36 2a 01 4b 95 1d ea 62 3d 39 ea 36 98 33
       1.6214516e-13 3.9517524e-21 0.00018061293 7.0880404e-08
0001d0 62 bb 37 36 ba 81 48 3a 6a 15 d6 39 7e fa 08 1c
       2.7378196e-06 0.00076487253 0.00040833215 4.532238e-22
0001e0 d7 28 ad 38 c9 5b 74 30 22 25 fa 32 a3 14 d7 37
       8.25689e-05 8.889712e-10 2.9120717e-08 2.5639607e-05
0001f0 61 55 77 39 27 29 a2 36 00 00 00 00 b3 c5 15 3b
       0.00023587562 4.832767e-06 0.0 0.0022853434
000200 72 66 5b 22 1e ab a1 20 31 4c f3 1e 5b 74 5f 37
       2.9734269e-18 2.7387697e-19 2.5760138e-20 1.3318927e-05
000210 20 30 07 29 f1 61 73 1e 2d ca c6 38 b3 34 86 31
       3.0017763e-14 1.2884567e-20 9.479034e-05 3.9059045e-09
000220 dc f8 d5 34 30 04 c7 39 e8 05 44 39 9c 64 01 1c
       3.985541e-07 0.00037959358 0.00018694217 4.2812554e-22
000230 75 9d 9b 36 e9 ce 3a 32 02 6e 0c 34 ea 94 4d 37
       4.6376904e-06 1.0873671e-08 1.3078537e-07 1.2253624e-05
000240 1a 54 b5 37 c4 48 e2 35 e8 63 89 36 00 00 00 00
       2.1616044e-05 1.685949e-06 4.094549e-06 0.0
000250 fb 30 17 24 90 85 be 21 5f 2a 95 1f 1d 6f f3 36
       3.2784394e-17 1.2910254e-18 6.317405e-20 7.2548996e-06
000260 c0 7d 63 2b ba 93 a6 1e 10 fe b3 36 56 65 e2 32
       8.0821114e-13 1.7637032e-20 5.3641925e-06 2.6355945e-08
000270 cf e4 be 34 08 1d 67 38 ca 64 b8 37 d0 66 8b 1c
       3.5556738e-07 5.510173e-05 2.1981443e-05 9.224825e-22
000280 66 fc 8d 33 9d b4 2e 29 c5 69 4d 2b 48 e2 d9 30
       6.611735e-08 3.879242e-14 7.2977415e-13 1.5853141e-09
000290 55 16 53 35 6d d3 ca 30 9e 15 1e 2f 86 80 34 37
       7.863612e-07 1.4757525e-09 1.4377696e-10 1.075876e-05
0002a0 00 00 00 00 9a 11 e1 21 65 6b 80 1f d8 d8 0e 30
       0.0 1.5251252e-18 5.438778e-20 5.196745e-10
0002b0 cf ef dd 27 d1 a9 2b 1f ff 3c f9 33 89 b1 a9 29
       6.1599823e-15 3.6351127e-20 1.1606061e-07 7.535905e-14
0002c0 98 33 cc 2c b9 ae c7 33 6c 83 7f 33 22 c6 c7 1c
       5.8037568e-12 9.2984415e-08 5.949134e-08 1.3219931e-21
0002d0 36 af d1 32 47 04 92 28 85 aa fa 2a 2b 58 09 30
       2.4410479e-08 1.6211111e-14 4.4527243e-13 4.9965604e-10
0002e0 b7 5f 40 34 00 35 13 30 9e 4c 8f 2e b7 c5 60 36
       1.7916214e-07 5.3553606e-10 6.516497e-11 3.3493686e-06
0002f0 80 7e e0 23 00 00 00 00 50 c1 40 1f 04 3a 3f 2f
       2.4339703e-17 0.0 4.0817486e-20 1.739196e-10
000300 8d c8 45 26 91 4e 1b 1e 79 56 61 33 1d 67 cd 28
       6.86199e-16 8.221879e-21 5.246554e-08 2.280429e-14
000310 61 d0 1d 2c 7a 47 35 33 45 81 d4 32 cb a4 57 1b
       2.2426715e-12 4.2207354e-08 2.4738833e-08 1.7837631e-22
000320 61 fb 6d 32 78 4c fd 27 3b ec 5e 2a fb a0 be 2f
       1.3852373e-08 7.0304514e-15 1.979952e-13 3.4675182e-10
000330 e2 60 35 34 d1 15 c7 2f 15 ad 20 2e e1 73 27 36
       1.6892184e-07 3.621339e-10 3.6533516e-11 2.495239e-06
000340 cf a2 81 22 d0 ae 5f 21 00 00 00 00 6d f2 eb 2e
       3.51379e-18 7.57867e-19 0.0 1.0729626e-10
000350 0b ce 48 24 d6 6e e5 1e 05 4d e7 32 2c b4 82 28
       4.3542612e-17 2.4292159e-20 2.6926964e-08 1.4511036e-14
000360 7a 33 8e 2b 9a a8 b9 32 8e de 62 32 d5 c1 9b 1c
       1.0103994e-12 2.1613506e-08 1.3205534e-08 1.0307144e-21
000370 e1 67 16 39 b2 71 c6 30 0e 90 c5 32 db c0 0b 37
       0.00014343813 1.443871e-09 2.2999327e-08 8.329948e-06
000380 d8 9e ea 39 39 8d ea 36 8a 00 a7 36 9c 17 a4 3b
       0.00044750306 6.990184e-06 4.9770506e-06 0.0050076973
000390 bb 49 14 23 66 d9 46 22 e3 63 d7 1f 00 00 00 00
       8.038709e-18 2.6949094e-18 9.122129e-20 0.0
0003a0 32 f2 e4 29 63 7c ba 1f b4 a7 04 39 2f a5 82 31
       1.0167248e-13 7.8979845e-20 0.00012650975 3.802277e-09
0003b0 fe 0a 02 33 15 5a e3 39 ee 69 8a 39 21 40 26 1e
       3.027798e-08 0.0004336393 0.00026400335 8.801228e-21
0003c0 bb 25 27 35 89 ab f1 2e 8e e8 fa 2f ba 17 29 33
       6.2267253e-07 1.0989882e-10 4.5639975e-10 3.9369958e-08
0003d0 97 db 94 36 3d 03 c7 32 57 56 df 31 e8 1f 85 38
       4.4363073e-06 2.3168122e-08 6.49997e-09 6.347877e-05
0003e0 b5 46 8c 22 d5 03 5e 20 ee 2b 1c 1e 68 29 9b 32
       3.802194e-18 1.8805399e-19 8.267656e-21 1.8063204e-08
0003f0 00 00 00 00 bb 17 ed 1d 84 b2 98 35 22 82 a7 2e
       0.0 6.2757914e-21 1.1376837e-06 7.617397e-11
