checkpoints/RNN_110.pt (torch, 111359 bytes, 9 tensors)

snn.l1.input_weights f4 [20, 416]
0	0xbebff191	-0.37488988
1	0xbde416ac	-0.11137137
2	0xbec4a598	-0.38407588
3	0xbe95b695	-0.29240862
4	0xbf00060f	-0.50009245
5	0xbea2fbfe	-0.3183288
6	0xbf7969fc	-0.97427344
7	0xbe2707a7	-0.16311513
8	0xbf306f0e	-0.68919456
9	0x3e438a65	0.19095762
10	0xbec97c5a	-0.39352685
11	0xbef53506	-0.47892016
12	0xbedab9d0	-0.4271989
13	0xbf84fe17	-1.0390042
14	0xbe3bb244	-0.18329722
15	0xbc7ec050	-0.015548781
16	0xbf30a004	-0.68994164
17	0xbf367593	-0.71273154
18	0xbeb420e5	-0.35181347
19	0xbe8c65e3	-0.27421483
20	0xbe90bd1f	-0.28269288
21	0xbda422f8	-0.08014482
22	0xbf22e82a	-0.63635504
23	0x3e0b8174	0.13623601
24	0xbf2c1250	-0.6721544
25	0x3d8108b4	0.06300488
26	0xbe82b700	-0.25530243
27	0xbb4b06ef	-0.0030979475
28	0x3c9b1bfd	0.018934244
29	0xbe889cd8	-0.26682162
30	0x3e4015c8	0.18758309
31	0x3eaf32a0	0.3421831
32	0xbf2faf0f	-0.68626493
33	0xbf543990	-0.82900333
34	0xbf302df0	-0.68820095
35	0xbe60eabe	-0.21964547
36	0x3e451c9f	0.192492
37	0xbe0a6549	-0.135152
38	0xbf8bfc1e	-1.0936315
39	0xbf2b8205	-0.6699527
40	0xbf90f764	-1.1325498
41	0x3e022f67	0.12713395
42	0xbf5c2aa9	-0.86002594
43	0x3e581219	0.21100654
44	0x3ce4b176	0.027916651
45	0x3e6987c6	0.228057
46	0x3cd6bfff	0.026214598
47	0xbe28046c	-0.16407937
48	0xbee34899	-0.44391325
49	0xbf62eab0	-0.88639355
50	0xbf4dca52	-0.8038684
51	0xbeebaced	-0.4603037
52	0x3f2f47b7	0.68468803
53	0x3ead7e7f	0.3388557
54	0x3cb55755	0.02213637
55	0x3e5136c1	0.20431043
56	0xbd3ce672	-0.046118207
57	0x3eb8e526	0.36112326
58	0x3eed525d	0.463519
59	0x3f341184	0.70339227
60	0x3f008696	0.5020536
61	0x3ee891a2	0.4542361
62	0x3e1661f4	0.14685804
63	0x3e3eab79	0.18620099
64	0x3f2bb3ce	0.67071235
65	0x3f02a141	0.51027304
66	0x3f18eece	0.5973939
67	0x3f200f3e	0.6252326
68	0x3f173814	0.59069943
69	0x3e919e06	0.28440875
70	0xbea28131	-0.3173919
71	0x3eb27e0f	0.348618
72	0x3e1cf5c1	0.15328123
73	0x3f1a60d7	0.60304016
74	0x3e26211f	0.16223572
75	0x3e0adb42	0.13560203
76	0x3f05ad5b	0.52217644
77	0xbcd24172	-0.025665972
78	0x3eb2e142	0.34937483
79	0x3ebfc760	0.374568
80	0x3f030cd8	0.51191473
81	0x3f0e40b7	0.55567497
82	0x3dd30623	0.10303905
83	0x3eb6e5a6	0.35722083
84	0x3ec8f9b2	0.39253002
85	0x3ef6f80e	0.48236126
86	0x3e964805	0.29351822
87	0x3e4a15aa	0.19734827
88	0x3e03b6b2	0.12862661
89	0x3e02fbbb	0.1279134
90	0x3e809d17	0.2511985
91	0x3f1a5a01	0.60293585
92	0x3e4ed1c7	0.20197211
93	0x3de63477	0.112404756
94	0x3f270e7d	0.6525648
95	0x3ed18bf5	0.4092709
96	0xbc7c8245	-0.015411918
97	0x3f301889	0.6878744
98	0x3ef5b52b	0.47989783
99	0x3f5d2efc	0.8639982
100	0x3e45905f	0.19293354
101	0xbe8c2982	-0.27375418
102	0x3e6053d3	0.21906976
103	0x3f0d2e39	0.55148655
104	0x4008fa1b	2.1402652
105	0x4004be7a	2.0741258
106	0x3fafed74	1.374434
107	0x3fd26fef	1.644041
108	0x400052a6	2.0050445
109	0x4006b9fe	2.105102
110	0x3f9cf494	1.2262139
111	0x3ffcfe5a	1.9765122
112	0x3f801e6c	1.0009284
113	0x3fe7b52f	1.8102168
114	0x3fe0ab4c	1.7552276
115	0x401707a5	2.3598416
116	0x40079a49	2.1187918
117	0x3fc271aa	1.5190938
118	0x3fa05138	1.2524786
119	0x3feec423	1.8653606
120	0x3ffff25b	1.9995836
121	0x3fcf7af7	1.6209401
122	0x3fc417ed	1.5319802
123	0x3fe9fba0	1.8279915
124	0x3fe18d5c	1.7621264
125	0x4000e652	2.0140576
126	0x3f9fdbde	1.2488973
127	0x3fbf2692	1.4933646
128	0x3fa3335a	1.2750046
129	0x3fff04e7	1.9923371
130	0x3fdaef91	1.710436
131	0x400720a5	2.1113675
132	0x3ff5d78e	1.9206407
133	0x3fd8b367	1.6929749
134	0x3febfd01	1.8436586
135	0x3fac62de	1.3467672
136	0x3ff19573	1.8873733
137	0x3fdfe7ba	1.7492592
138	0x3fa3e104	1.2803044
139	0x3fea76c4	1.8317494
140	0x3fda4bd5	1.7054392
141	0x3fe9ef61	1.8276178
142	0x3fb9a4d2	1.4503424
143	0x3fc2f29f	1.5230292
144	0x3f5c778f	0.8611993
145	0x400d9376	2.2121253
146	0x4001683b	2.0219867
147	0x402a0343	2.656449
148	0x400576bf	2.0853727
149	0x3fad1176	1.3520954
150	0x3fa0bff7	1.2558583
151	0x3fd54d51	1.666422
152	0x4006c52b	2.1057842
153	0x3fe6846c	1.8009162
154	0x3fb23d07	1.3924874
155	0x40266526	2.5999236
156	0xbf7b387f	-0.9813308
157	0x3a574c78	0.0008212994
158	0x3d905a74	0.070485026
159	0x3da56b06	0.08077054
160	0x3d0f2282	0.03494502
161	0xbd2a7500	-0.041615486
162	0x3edd16d9	0.43181494
163	0x3f4e8ad1	0.8068057
164	0x3f0b91c3	0.5451929
165	0x3ee4a59b	0.44657597
166	0x3f156f7e	0.5837325
167	0x3e739f7f	0.23791312
168	0xbeba4785	-0.3638269
169	0x3e6110cc	0.21979064
170	0x3e1a975e	0.15096804
171	0xbe75d8eb	-0.24008529
172	0xbf4ade5b	-0.7924554
173	0x3e25deec	0.16198319
174	0x3e8096d3	0.2511507
175	0xbda5d0ca	-0.08096464
176	0xbe425181	-0.18976404
177	0xbdf59fe1	-0.11993385
178	0x3e6666fc	0.22500223
179	0x3ed41818	0.41424632
180	0x3e9eb17c	0.30994785
181	0x3d8d798b	0.06907948
182	0xbec60a23	-0.3867961
183	0x3f1e1cab	0.61762494
184	0xbd2ecaca	-0.042673863
185	0xbe9c905e	-0.30578893
186	0x3dbff896	0.09373586
187	0x3d5e412f	0.054261383
188	0xbe0cbda6	-0.1374422
189	0xbe1deff1	-0.15423562
190	0x3e1f1ce4	0.15538365
191	0xbe4c8741	-0.1997347
192	0x3e1bfb08	0.1523248
193	0xbec7c17e	-0.3901481
194	0x3f22c64e	0.6358384
195	0x3f079566	0.5296234
196	0x3e62478c	0.22097605
197	0x3ceeb7c8	0.029140368
198	0xbe06f5a0	-0.13179636
199	0x3f1d2e75	0.6139901
200	0x3e0f6eac	0.14007062
201	0x3e54a23c	0.20765013
202	0x3ec3daa4	0.38252747
203	0x3db71c5a	0.089409545
204	0x3d9e2c9b	0.077233516
205	0x3e0fd458	0.14045846
206	0x3e9fcf8e	0.3121304
207	0x3de21691	0.110394605
208	0xbedaf995	-0.4276854
209	0xbed63546	-0.4183752
210	0xbeaf6078	-0.34253287
211	0xbf2b538e	-0.6692437
212	0xbd4e5398	-0.05037269
213	0xbde5181a	-0.11186238
214	0xbf326db4	-0.69698644
215	0xbf253eff	-0.6454925
216	0xbf0e3129	-0.5554376
217	0xbf21e41b	-0.63238686
218	0xbf34fc6b	-0.7069766
219	0xbec01bff	-0.3752136
220	0xbcccaaff	-0.024983881
221	0xbf7b1652	-0.98080933
222	0xbf331f82	-0.6996995
223	0xbf0cc0e7	-0.54981846
224	0xbeab1c3b	-0.33419976
225	0xbddb9e25	-0.10723523
226	0xbf28abef	-0.6588735
227	0xbf23df78	-0.6401286
228	0x3e7998e4	0.2437473
229	0xbf2e43f7	-0.68072456
230	0xbf2d7905	-0.67762786
231	0xbc6eedde	-0.014583079
232	0xbeef072f	-0.46685168
233	0xbf37ebb4	-0.7184403
234	0xbecd0457	-0.40042374
235	0xbf45898a	-0.7716299
236	0xbd61a39e	-0.055087678
237	0xbedbe28b	-0.42946276
238	0xbf1191ac	-0.568629
239	0xbf22b2d9	-0.6355415
240	0xbf20f3bb	-0.62871903
241	0xbf48e85d	-0.7847956
242	0xbf34a458	-0.7056327
243	0xbf0a1399	-0.53936154
244	0xbe04dc7c	-0.12974733
245	0xbf51149a	-0.8167206
246	0xbf2b0039	-0.66797215
247	0x3dada2dd	0.08478329
248	0xbe30b7df	-0.17257641
249	0xbf026789	-0.5093923
250	0xbe09df41	-0.13464071
251	0xbf1288f4	-0.57240224
252	0xbf2a9ead	-0.6664837
253	0xbeb8c95f	-0.36091134
254	0xbf1cd1c4	-0.61257577
255	0xbf06fe1f	-0.5273151

snn.l1.recurrent_weights f4 [20, 20]
0	0x00000000	0.0
1	0x40c1516e	6.04119
2	0x40234d0f	2.5515783
3	0x4094b843	4.647493
4	0x3fca63c0	1.5811691
5	0xbfeae2e8	-1.8350496
6	0xc001f30e	-2.03046
7	0xbfe9a747	-1.8254174
8	0x40bea8a3	5.9580855
9	0x4034afae	2.8232226
10	0x4056b0e5	3.3545468
11	0x40b55266	5.6663084
12	0x40e600ce	7.187598
13	0x405bb71d	3.4330513
14	0xbf4e22b5	-0.8052171
15	0xbefc8fa6	-0.49328345
16	0x40b4a8c1	5.6456
17	0xc08e32a8	-4.4436836
18	0x402dab5b	2.7135837
19	0x3f527875	0.8221505
20	0xbe889ba0	-0.26681232
21	0x00000000	0.0
22	0x4156324f	13.387282
23	0x41177866	9.466894
24	0xbf6023e3	-0.8755476
25	0x4073950f	3.8059728
26	0x412ddefc	10.86694
27	0xc0310b9a	-2.766333
28	0x40d0a067	6.5195804
29	0x40827edb	4.0779853
30	0x40647b77	3.5700357
31	0x4119797d	9.59216
32	0x41590059	13.562585
33	0x4094e2db	4.6526923
34	0xbef87a4e	-0.4853081
35	0x40e1ac1b	7.052259
36	0xbf9dfe14	-1.2343163
37	0x405b1bf0	3.4235802
38	0xbf081cea	-0.5316912
39	0x3ff2fa38	1.8982611
40	0xbe24c450	-0.16090512
41	0x410ff1ad	8.996503
42	0x00000000	0.0
43	0x40dea3b4	6.9574833
44	0xc082ce16	-4.087657
45	0x401a452c	2.410472
46	0x40daf80c	6.842779
47	0xbfdf4184	-1.7441869
48	0x40041e9b	2.064368
49	0x409626c4	4.692232
50	0x3ff55dbd	1.9169232
51	0x4112b250	9.168533
52	0x41144743	9.267398
53	0x4082fe68	4.0935555
54	0x4021aa8d	2.5260346
55	0x40a68d86	5.204776
56	0xbf7c85eb	-0.9864184
57	0x40a1aa66	5.0520506
58	0x3f0cb923	0.54969996
59	0x403afd19	2.9216979
60	0x3eed9b44	0.4640752
61	0x403b1901	2.923401
62	0x40871f87	4.2225986
63	0x00000000	0.0
64	0x3ef22190	0.4729123
65	0xbfdee90a	-1.7414868
66	0x40d99953	6.7999663
67	0x3c01e5d3	0.0079283295
68	0x408751b2	4.2287226
69	0x3f555e8e	0.83347404
70	0x402acf62	2.6689076
71	0x417fbae1	15.983125
72	0x40a53786	5.163028
73	0x3fb9fe5e	1.4530752
74	0x3f041e35	0.5160859
75	0x3f5e7bc1	0.86907583
76	0x408deb32	4.4349604
77	0x40950cfd	4.6578355
78	0x40447db9	3.0701735
79	0xbebee768	-0.37285924
80	0xbf87a5d6	-1.0597484
81	0x4096662b	4.6999717
82	0x3fda4220	1.705143
83	0x40f5330c	7.6624813
84	0x00000000	0.0
85	0xbf8c5cb0	-1.0965786
86	0x4005aaa1	2.0885394
87	0xc02b2319	-2.6740172
88	0x40ab10a5	5.345782
89	0x3fc4b259	1.5366927
90	0x4035cabf	2.8404996
91	0x40b9f9ec	5.811758
92	0x40bf6333	5.9808593
93	0x3fc710f1	1.5552045
94	0xbf15337b	-0.5828168
95	0xbe55cecd	-0.2087967
96	0xbfbe3d38	-1.4862432
97	0xbeb8ebd1	-0.36117414
98	0xbfdeb3cc	-1.739862
99	0xbe19e464	-0.1502853
100	0xbf6b80aa	-0.919932
101	0x40bc3f7c	5.8827496
102	0x40b7fb3a	5.7494173
103	0x3dda0706	0.10645871
104	0x3e4f4eb8	0.20244873
105	0x00000000	0.0
106	0x3fb8faa7	1.4451493
107	0x3f8309e4	1.0237393
108	0x40a7aa03	5.2395034
109	0x402eeece	2.7333255
110	0x403c706a	2.9443612
111	0x3f870193	1.0547355
112	0x40cadad8	6.3392143
113	0x4083d95f	4.1202846
114	0x405b16ba	3.4232621
115	0x400168d3	2.022023
116	0x3c17491d	0.00923374
117	0xbe9fc537	-0.3120515
118	0x3fbc0549	1.4689113
119	0x3f917087	1.1362466
120	0x3eb7cea6	0.35899848
121	0x40c83095	6.2559304
122	0x408f413c	4.476713
123	0x40b2aa6e	5.5833044
124	0xbf9f8422	-1.2462199
125	0x405b1f30	3.4237785
126	0x00000000	0.0
127	0xbd6c0f6b	-0.05763189
128	0x402395f5	2.5560277
129	0x3fde869a	1.7384827
130	0x3f2e55f6	0.68099916
131	0x409089b7	4.516811
132	0x409881fe	4.765868
133	0x3ff1798e	1.886522
134	0xbef02607	-0.46904013
135	0x40937b7d	4.6088243
136	0xbf913dcc	-1.1346984
137	0x40bee778	5.9657555
138	0x3f476ca3	0.7790014
139	0x3fa89dab	1.3173116
140	0xbf781f05	-0.9692233
141	0x40e8fb71	7.2806935
142	0x4087f21b	4.248304
143	0x401d601a	2.4589906
144	0x402cb784	2.698701
145	0xbfecfb9c	-1.8514285
146	0xc0a69641	-5.2058415
147	0x00000000	0.0
148	0x40be8100	5.953247
149	0x3fddae6d	1.7318856
150	0x403f43d6	2.9885154
151	0x40add783	5.4325576
152	0x4104b2c0	8.29364
153	0x40621659	3.532614
154	0xc028068f	-2.6254003
155	0x3f5c964e	0.86166847
156	0x4034237a	2.8146653
157	0xc0f22564	-7.5670643
158	0xbfb09ca0	-1.3797798
159	0x3f9d2407	1.227662
160	0xc0bdf7c1	-5.9364934
161	0x40b80d78	5.751644
162	0x40969bb5	4.706507
163	0x40d4972a	6.6434526
164	0xbfdb20ae	-1.7119348
165	0xc0a6c802	-5.211915
166	0xbeef9a3a	-0.46797353
167	0xc0ffcfc3	-7.9941115
168	0x00000000	0.0
169	0xbe4b040c	-0.19825763
170	0x407493a9	3.8215125
171	0x408cd559	4.4010434
172	0x410d9972	8.849962
173	0x400619c4	2.0953226
174	0xc0ae48ea	-5.4464006
175	0xbf122890	-0.57093143
176	0xbf97f1fd	-1.1870724
177	0xc0c590ca	-6.1739244
178	0xc0b7676c	-5.7313747
179	0xbfc93da6	-1.5721939
180	0xc0e45e4c	-7.136511
181	0x40ce3b3c	6.4447308
182	0x40fef793	7.9677215
183	0x3f8dc1f0	1.107481
184	0xc08372a5	-4.1077447
185	0xc09f4fb6	-4.9784803
186	0xc06d8ba6	-3.7116485
187	0xc10babd8	-8.729454
188	0x40bfe9c4	5.997286
189	0x00000000	0.0
190	0x4063e73f	3.5609891
191	0x401d4cb5	2.4578068
192	0x40fb52dc	7.8538647
193	0x4098b249	4.7717633
194	0xc06a22c1	-3.6583712
195	0xbf95289b	-1.1653017
196	0x3fb1a0f2	1.3877242
197	0xc0d484e7	-6.6412234
198	0xc0a8e3ee	-5.2778234
199	0x3f98c022	1.1933634
200	0xc10a3b20	-8.639435
201	0x406548ae	3.582561
202	0x40b69fca	5.7070055
203	0x4021273b	2.5180194
204	0xc02b3954	-2.675374
205	0xc0e2d6ac	-7.088705
206	0xc0bbe37c	-5.871519
207	0xc124887c	-10.283321
208	0x40ecccba	7.399991
209	0x40301fac	2.751933
210	0x00000000	0.0
211	0x3fbfcba0	1.4984016
212	0x40d20c21	6.5639806
213	0x4066dd92	3.6072736
214	0xc0db6164	-6.8556385
215	0xc09d9985	-4.92499
216	0xbf9b185b	-1.2116808
217	0xc118b9cc	-9.545361
218	0xc0d31e21	-6.597428
219	0xbedf23d3	-0.4358202
220	0x3d959783	0.07304289
221	0x3fd99329	1.6998035
222	0x40784e1a	3.879767
223	0x41482d8c	12.51112
224	0xc01aa63b	-2.416396
225	0xbe2393ac	-0.15974301
226	0x409ba65a	4.8640566
227	0xbeae898f	-0.34089324
228	0x3fe6626a	1.7998784
229	0x3e49b924	0.19699532
230	0x3f3c179a	0.73473513
231	0x00000000	0.0
232	0x405f017f	3.4844663
233	0x3fe74c08	1.8070078
234	0xbf780826	-0.96887434
235	0x3fe1191b	1.7585787
236	0x4008171a	2.12641
237	0x406a95ad	3.6653855
238	0x401f6ab5	2.4908879
239	0x3d8a4de6	0.06753139
240	0xbfd53cea	-1.6659214
241	0x412cdf70	10.80455
242	0x4127ee49	10.495675
243	0x4116efd7	9.433555
244	0xbfa3ea45	-1.2805868
245	0x3f7ab243	0.97928256
246	0x40ef366e	7.4753942
247	0xc0877fc1	-4.234345
248	0x40ef673b	7.4813514
249	0x3fd95565	1.6979185
250	0x40940221	4.62526
251	0x410f21d3	8.945758
252	0x00000000	0.0
253	0x407be953	3.936116
254	0xc0516913	-3.2720382
255	0x406fee07	3.748903

snn.fc_out.weight f4 [9, 20]
0	0x3f8a51f1	1.0806257
1	0xc082619a	-4.0744143
2	0xc088f142	-4.2794504
3	0xc0ba0acc	-5.813818
4	0x3fccd102	1.6001284
5	0x3f98e4dc	1.1944842
6	0xc05edfc3	-3.4824073
7	0x4031df08	2.7792377
8	0xc0566f53	-3.3505447
9	0xbd986601	-0.07441331
10	0xbfad5c6c	-1.354383
11	0xc0c2895f	-6.079269
12	0xc05339cf	-3.3004034
13	0xbfa6a67f	-1.301956
14	0x40017e27	2.0233247
15	0xbf0aae9f	-0.541727
16	0x4050f386	3.2648635
17	0xbf8611ba	-1.047416
18	0x40241798	2.56394
19	0xbe685c37	-0.22691427
20	0xc0423593	-3.03452
21	0x4041abe6	3.0261168
22	0x40ec67f3	7.387689
23	0xc06f9f9d	-3.744117
24	0xc009d65b	-2.1537082
25	0x3e63e6bc	0.22255987
26	0xbef69a1a	-0.48164445
27	0xc01159bd	-2.2711022
28	0x3f0dad10	0.553422
29	0x402614fc	2.5950308
30	0x3ff477d9	1.9099075
31	0xbff6e394	-1.9288201
32	0x40118faa	2.2743936
33	0x3facc811	1.3498555
34	0x3fdeeacf	1.7415408
35	0xc0692a83	-3.6432197
36	0xbfcafbb4	-1.5858064
37	0x3f8d1c1e	1.1024206
38	0xbf2bca54	-0.67105603
39	0x3fd71916	1.6804531
40	0x403767e9	2.8657172
41	0x3f803247	1.0015343
42	0xbfa8b5d2	-1.3180487
43	0xbfb2f131	-1.3979856
44	0x40a521ea	5.16039
45	0x3f6b93e4	0.9202254
46	0x3f015e98	0.50534964
47	0x3f8277f3	1.0192856
48	0x40854272	4.164361
49	0x3e365fce	0.17809984
50	0x3ffa00dd	1.9531513
51	0xc0598981	-3.3990176
52	0x4014d1fd	2.3253167
53	0x3f1fa627	0.62362903
54	0x3fda4002	1.7050784
55	0x3f8ed19e	1.115772
56	0xc0cb54e9	-6.354115
57	0xc01a39ad	-2.4097703
58	0xc044a988	-3.0728474
59	0x3f3d9d47	0.7406811
60	0x3e8ee681	0.27910236
61	0xbe5392c0	-0.2066145
62	0x3ecdc4de	0.4018926
63	0xc093dbe7	-4.6205935
64	0xc001cde8	-2.0281925
65	0x4008d294	2.1378527
66	0xbf31d1cc	-0.6946075
67	0x3fed054d	1.8517243
68	0xbde0325f	-0.109471075
69	0x3fb75ff1	1.4326154
70	0x3ef1b45f	0.47207925
71	0xbf3acea2	-0.72971547
72	0x3f8de6d2	1.1086066
73	0x3fcded7d	1.6088101
74	0x3fd765f7	1.6827992
75	0x406271f4	3.5382051
76	0x4066bea8	3.6053867
77	0xbf2a66e0	-0.66563225
78	0x3e739465	0.23787077
79	0x3f9348d2	1.1506598
80	0xbf73bbc7	-0.952084
81	0x40335b38	2.8024426
82	0xbe874db5	-0.26426473
83	0xc08aa9d5	-4.3332314
84	0xbf427ffb	-0.7597653
85	0xbf98d102	-1.1938784
86	0x40882fe3	4.2558455
87	0xbead6d86	-0.33872622
88	0xc01de4b6	-2.4670844
89	0xbf3cc88f	-0.7374353
90	0xbff64890	-1.9240894
91	0xc0e8e6a5	-7.278155
92	0x3f7bce06	0.9836124
93	0xbfd73822	-1.6814005
94	0xbfc91b13	-1.5711387
95	0x3fa52216	1.2901027
96	0xbfb18990	-1.3870106
97	0x401c026e	2.4376483
98	0xbe069f4d	-0.13146706
99	0xbfa4968d	-1.2858444
100	0x400fbf9f	2.2460706
101	0xbfc3db47	-1.5301293
102	0xc08029dd	-4.0051103
103	0x3f4bb414	0.7957165
104	0xbfb988bb	-1.4494852
105	0xc039e61f	-2.9046705
106	0xc02e5095	-2.7236683
107	0x3f198ac3	0.5997736
108	0xc08684cb	-4.20371
109	0xbf744e3a	-0.95431864
110	0xc0280cf4	-2.6257906
111	0x3fc1123a	1.5083687
112	0xc03a6b38	-2.912794
113	0xbf02e899	-0.51136166
114	0xc02a967c	-2.6654348
115	0x3e1faf0e	0.15594122
116	0x40446fcd	3.0693238
117	0xbdf0e098	-0.11761588
118	0x3f164216	0.5869459
119	0xbefa011a	-0.48828965
120	0xc0c198b1	-6.049889
121	0xc11df079	-9.871209
122	0xc111b2ad	-9.106122
123	0x40a0ab3d	5.020903
124	0xc080e9ab	-4.028524
125	0x3fd68fee	1.6762674
126	0x3f123a5e	0.5712031
127	0xbf956521	-1.1671487
128	0xc0b896c7	-5.7684054
129	0xc102c229	-8.172402
130	0xc0de4de2	-6.947007
131	0x409d6d1b	4.9195685
132	0xc0e4351c	-7.131483
133	0xc0c96557	-6.2936206
134	0xc0cddba3	-6.433061
135	0xc0274b47	-2.6139696
136	0xc0472b66	-3.1120238
137	0x3f2a3000	0.6647949
138	0xbf9e7173	-1.2378372
139	0xc083a503	-4.113893
140	0xc02c7c73	-2.6950958
141	0xbfd7cb7f	-1.6858977
142	0xc0c95216	-6.2912703
143	0x40f145d4	7.539774
144	0x4025d21e	2.5909495
145	0xbfa1949e	-1.2623479
146	0xbf9dbe6f	-1.2323741
147	0xc0ac20c5	-5.379
148	0x40696aa9	3.647135
149	0xc03f51ed	-2.9893754
150	0x4007412a	2.1133523
151	0x402b3c3f	2.6755521
152	0x3ed08483	0.40726098
153	0xbfb3ab29	-1.4036609
154	0xc0957162	-4.6700907
155	0xc0c179fc	-6.0461407
156	0xc0a7190a	-5.2218065
157	0xbfab4f43	-1.3383564
158	0x3ec7dccc	0.39035642
159	0xc05900b1	-3.3906672
160	0xbfd7174d	-1.6803986
161	0xc14e4595	-12.891988
162	0xbe9454e3	-0.28971013
163	0x4083d30e	4.1195135
164	0xc10f716a	-8.965189
165	0xc0872d99	-4.224316
166	0xc107d0b2	-8.488451
167	0xbfa82bf2	-1.3138411
168	0xc108746e	-8.528425
169	0xc062e521	-3.545235
170	0xc097d321	-4.7445226
171	0x40ad3752	5.413003
172	0xc14c3b12	-12.764421
173	0xc089773b	-4.2958045
174	0x40398aa7	2.8990877
175	0xc0d1c3d3	-6.5551543
176	0x3f8ab9bd	1.0837933
177	0x3f33da3b	0.7025487
178	0x3d3b4289	0.04571775
179	0xbf04d741	-0.5189095

exp_avg f4 [20, 416]
0	0xbb0bf7d2	-0.002135743
1	0xbaffde6c	-0.0019521243
2	0xbb4bad2a	-0.0031078556
3	0xbb340b38	-0.0027472507
4	0xb93de08c	-0.00018108095
5	0x39a136e8	0.0003074922
6	0xb82873f5	-4.0162315e-05
7	0xba66e7ef	-0.00088083645
8	0xbaab42f8	-0.0013066223
9	0x3abe0f75	0.0014500456
10	0xbb62e7ce	-0.003462303
11	0xba71a24b	-0.0009217604
12	0xbb339594	-0.0027402388
13	0x3b0af8c4	0.0021205405
14	0xba1e7d83	-0.00060459244
15	0xb9907287	-0.0002755115
16	0x3b8825f3	0.0041549145
17	0x37245374	9.794592e-06
18	0x39553763	0.00020333896
19	0x3a65c9f7	0.0008765752
20	0xba6ab9cf	-0.0008954079
21	0xbb504b41	-0.0031783136
22	0x3a14a796	0.0005670724
23	0xba1ecb4f	-0.0006057517
24	0x3806299d	3.1986845e-05
25	0xbb2d4844	-0.0026440779
26	0xba4d4096	-0.00078297534
27	0xb9f59e95	-0.00046848194
28	0xbb307d67	-0.0026930214
29	0x39e10c71	0.00042924614
30	0x3ad18251	0.0015984272
31	0xb8ba812a	-8.89323e-05
32	0xb9db96fa	-0.0004188342
33	0x39b575af	0.0003461069
34	0x390d285f	0.00013461847
35	0xbb92fcab	-0.004485687
36	0xba684780	-0.0008860752
37	0xba7bcddf	-0.00096055673
38	0xbb7ddda2	-0.003873684
39	0xbaeb32af	-0.0017944182
40	0xb8b6eb7c	-8.722299e-05
41	0xbb4eb9fd	-0.0031543963
42	0xbae7e7db	-0.0017693
43	0xba9bb068	-0.0011878135
44	0xb9626674	-0.00021591206
45	0x3803e2ed	3.1444175e-05
46	0xbba22edb	-0.0049494333
47	0x3ab2920a	0.0013623845
48	0xb9a700d5	-0.00031853342
49	0x383b7630	4.4694345e-05
50	0x3b0e325d	0.00216975
51	0xba04be71	-0.00050637784
52	0xba9042c3	-0.0011006225
53	0xba249b13	-0.00062792114
54	0xba913e18	-0.0011081127
55	0xb9108638	-0.0001378291
56	0xb8c13ad5	-9.2139155e-05
57	0x39a5eaef	0.00031646292
58	0x38d8e7a5	0.0001034283
59	0xb94fa6a3	-0.00019803135
60	0xba40e909	-0.00073589437
61	0x3a4dd467	0.000785178
62	0xb9db66aa	-0.00041847426
63	0xba2d92bf	-0.0006621293
64	0xbad7c6ad	-0.0016462408
65	0xbb00cc43	-0.0019653
66	0xbad5b2f0	-0.0016303938
67	0xbae7eb2c	-0.0017693988
68	0x3a8c1978	0.0010688743
69	0xb9bdbfae	-0.00036191702
70	0xb9ff2e6a	-0.0004867197
71	0xbafe3823	-0.0019395392
72	0x3917b73f	0.00014468747
73	0x39e9167d	0.00044457978
74	0xbb09e9c8	-0.0021043885
75	0xbab4077b	-0.001373514
76	0xba62464a	-0.00086316897
77	0x3a091ec0	0.00052307174
78	0x3adeb6ea	0.0016991768
79	0xba685e54	-0.00088641536
80	0xba1ac1c1	-0.00059035054
81	0xb8907797	-6.8887304e-05
82	0x3a7b88ba	0.0009595264
83	0x3a2c8d84	0.0006582367
84	0xbaf3e5d6	-0.0018607925
85	0xbabdf9ac	-0.0014493964
86	0xbb30ac95	-0.0026958336
87	0xba8b69d1	-0.0010636394
88	0x3810d4b4	3.453037e-05
89	0xba0393e8	-0.0005019293
90	0xb9262674	-0.00015845319
91	0xb9f3f35a	-0.00046529883
92	0xb99a16ad	-0.00029390064
93	0xb8f0bfcd	-0.000114798175
94	0xbb4f453d	-0.0031626963
95	0xbaa57ee0	-0.0012626313
96	0xba8c8900	-0.0010721982
97	0xbb24e74a	-0.0025162273
98	0xbad96816	-0.0016586806
99	0xba87d144	-0.0010362049
100	0xba7cb635	-0.0009640188
101	0xba95026f	-0.0011368523
102	0x3a6aa324	0.00089507014
103	0xba7b9691	-0.0009597326
104	0x39f9316a	0.00047529797
105	0xbabdd002	-0.0014481547
106	0xba8deafc	-0.0010827477
107	0xba51adbd	-0.00079986063
108	0xba6c617c	-0.0009017212
109	0xba47ee61	-0.0007626769
110	0x37ddb28b	2.6428394e-05
111	0xba2e2ef8	-0.0006644572
112	0x39f56f90	0.00046813162
113	0xb99f7dd5	-0.00030420595
114	0xba0dd31b	-0.00054101803
115	0xbb14a607	-0.0022681968
116	0xb99f3439	-0.00030365752
117	0xba1ada1c	-0.00059071346
118	0xba7c3bce	-0.00096219487
119	0xb7aebadf	-2.0829435e-05
120	0xb8b95366	-8.8370216e-05
121	0x3a1d1ba2	0.00059931923
122	0x3b7df02e	0.0038747895
123	0xbac273dc	-0.0014835554
124	0x3a2cd90f	0.00065936235
125	0x3a38e33b	0.0007052903
126	0xba7298bf	-0.00092543283
127	0xbae6282a	-0.0017559577
128	0x3880bbc4	6.13849e-05
129	0xba6f28cb	-0.0009123205
130	0xba5db3a5	-0.000845725
131	0xbabddce7	-0.001448539
132	0xb9f655f8	-0.00046984828
133	0xb99e7cd9	-0.00030229127
134	0x3ada584c	0.0016658395
135	0x3b0edd04	0.0021799216
136	0xbab50cda	-0.0013813034
137	0xba82809b	-0.000995654
138	0x39af02e9	0.0003338077
139	0xbada61c6	-0.0016661219
140	0xb8c73bc2	-9.50019e-05
141	0xb9c7f13b	-0.00038135968
142	0xb9d7c3da	-0.00041153916
143	0xbae34454	-0.0017339089
144	0x3a2a5708	0.0006497954
145	0xba360b86	-0.0006944466
146	0xbabb8ac8	-0.0014308328
147	0xb873d0a5	-5.813003e-05
148	0xbab6b42e	-0.0013939196
149	0xbab37744	-0.001369216
150	0x39c77b3c	0.00038048055
151	0x3a5314c5	0.0008052106
152	0x3920b5c9	0.0001532651
153	0x3a34660c	0.0006881661
154	0x39d14ab8	0.00039919256
155	0xb942eb31	-0.00018588897
156	0x388055d5	6.119503e-05
157	0xbb478ad4	-0.0030447738
158	0xbabe2082	-0.0014505538
159	0x39e2f712	0.0004329016
160	0x39d14ac2	0.00039919285
161	0x3ac84822	0.0015280286
162	0x3af93048	0.0019011581
163	0xb9f55ee6	-0.00046800746
164	0xbac3d7c2	-0.001494162
165	0xba6a3199	-0.0008933782
166	0xb9da9595	-0.00041691647
167	0xba2cbac9	-0.00065891125
168	0xb8aafe3a	-8.153585e-05
169	0x3af7eab7	0.0018914555
170	0x3982efeb	0.00024974285
171	0xba28e426	-0.0006442688
172	0xba494f34	-0.00076793437
173	0xbafbdca6	-0.0019215539
174	0x3b19c085	0.0023460698
175	0xb9a356c6	-0.00031154434
176	0xbb884a18	-0.0041592233
177	0xb86582af	-5.4719563e-05
178	0xba9be50a	-0.001189382
179	0xbab304d6	-0.0013658057
180	0xbaa024a0	-0.0012217946
181	0xbb0469be	-0.0020204629
182	0x3a96da83	0.0011509213
183	0xb9b59120	-0.00034631137
184	0xba1df550	-0.0006025629
185	0xb8e79aae	-0.0001104375
186	0x3a0703d4	0.0005150412
187	0x3b13d34d	0.0022556365
188	0x3a5eee66	0.0008504152
189	0xb9df4251	-0.00042583284
190	0xb9462bf2	-0.00018899122
191	0xb9daf760	-0.0004176451
192	0xb9c234dd	-0.0003704195
193	0xbad6bd98	-0.0016383408
194	0xba2995b9	-0.0006469149
195	0x3ab4e16f	0.0013800095
196	0xb8cf3b89	-9.8816185e-05
197	0xba584b09	-0.0008250927
198	0xba02668e	-0.0004974388
199	0xbb26e77b	-0.0025467563
200	0x39d42c64	0.00040468865
201	0xb8a7e9b4	-8.006711e-05
202	0x3943c18d	0.00018668752
203	0xba263a60	-0.0006341096
204	0xba56b1db	-0.00081899547
205	0xbb64e280	-0.0034925044
206	0x39d6b433	0.0004095152
207	0xbacf9f3b	-0.0015840301
208	0x3aec21de	0.0018015464
209	0xbb0fab2a	-0.002192209
210	0xbac52d3d	-0.0015043389
211	0xba74ce34	-0.0009338588
212	0xb9da18bd	-0.00041598632
213	0x3aaf3b18	0.0013369052
214	0xba27c5ea	-0.0006400036
215	0x3aa7aff5	0.0012793528
216	0xba9b1536	-0.0011831883
217	0xb99ffbe9	-0.0003051453
218	0xba4b1b75	-0.0007747927
219	0x396d3d6a	0.0002262496
220	0xbb6463a0	-0.003484942
221	0x3b4d7ff9	0.0031356795
222	0x39c2cfa5	0.0003715727
223	0xb9e12c15	-0.00042948188
224	0xbaca3f3d	-0.0015430223
225	0xbb16389d	-0.0022921928
226	0x39db44f5	0.00041822312
227	0xba272471	-0.00063759746
228	0xbb13b62c	-0.0022539003
229	0x3b147cd2	0.0022657407
230	0xb9493b64	-0.00019190978
231	0xb9c47323	-0.00037469817
232	0x3a02f2df	0.0004995297
233	0xbb8715cc	-0.0041224714
234	0xbaae3b7a	-0.0013292872
235	0x3a8a13ed	0.0010534503
236	0xb91f4771	-0.00015190036
237	0x3a492ee4	0.0007674529
238	0xbb0f9285	-0.00219074
239	0x3aeff305	0.0018306678
240	0xb98484cf	-0.00025275952
241	0x3b95e490	0.004574366
242	0xb99bcf78	-0.0002971848
243	0xbb96e64e	-0.004605091
244	0x392b0fce	0.00016313719
245	0xba6cfe30	-0.00090405624
246	0xba95790e	-0.0011403875
247	0xba447b5a	-0.00074951875
248	0x3a5fafdd	0.00085329806
249	0xbab6e806	-0.0013954646
250	0xbaa4f654	-0.0012585619
251	0x3b210e1d	0.0024575063
252	0xbaf374bc	-0.0018574218
253	0x39aa581c	0.00032490573
254	0x3960d0df	0.00021440115
255	0xba68e7dc	-0.00088846474

exp_avg_sq f4 [20, 416]
0	0x38be5ee4	9.077581e-05
1	0x38c8cd00	9.5749274e-05
2	0x3883a2ec	6.276913e-05
3	0x38b8f025	8.818534e-05
4	0x395f599e	0.00021300322
5	0x3843fc4c	4.6726593e-05
6	0x38a6baeb	7.950313e-05
7	0x386e085e	5.6751414e-05
8	0x38aa62f3	8.1246624e-05
9	0x38b05d7d	8.4097475e-05
10	0x38dd4563	0.000105510255
11	0x38b26fa5	8.508497e-05
12	0x38bdc011	9.0479974e-05
13	0x390aeb8c	0.00013248454
14	0x38d24b0d	0.000100275596
15	0x391506b0	0.00014212239
16	0x39204b69	0.00015286882
17	0x39095829	0.0001309818
18	0x3882d1d2	6.237965e-05
19	0x392d21e3	0.0001651119
20	0x38c7f0b5	9.5338946e-05
21	0x38b71a67	8.731038e-05
22	0x38cfe9f8	9.914109e-05
23	0x38a6a670	7.946498e-05
24	0x38870c32	6.439573e-05
25	0x38b88b74	8.799779e-05
26	0x38a6124b	7.918904e-05
27	0x3843e96d	4.6709018e-05
28	0x38cc78ad	9.749956e-05
29	0x389f07d9	7.5831726e-05
30	0x38dbb98c	0.000104772946
31	0x38d4fc7a	0.00010155975
32	0x3871e38c	5.7670797e-05
33	0x394a6fb1	0.0001930583
34	0x38a71b18	7.968227e-05
35	0x38987b7d	7.270926e-05
36	0x38ff1a11	0.00012164203
37	0x38a609b5	7.917305e-05
38	0x3936623b	0.00017393466
39	0x391f3a3c	0.00015185116
40	0x387d9e27	6.046719e-05
41	0x3901f0a5	0.00012392046
42	0x38ceea5f	9.8665005e-05
43	0x38586382	5.1591087e-05
44	0x388411a4	6.297536e-05
45	0x384507b9	4.6975652e-05
46	0x389523ab	7.111517e-05
47	0x38d94f31	0.00010362117
48	0x388a4b88	6.5944216e-05
49	0x38ff8fb5	0.00012186115
50	0x38aadaee	8.1470105e-05
51	0x38939a6e	7.038271e-05
52	0x38542a70	5.058426e-05
53	0x381282ba	3.493086e-05
54	0x382ab885	4.0703006e-05
55	0x382c7122	4.111336e-05
56	0x38631282	5.4138254e-05
57	0x381d0753	3.7438538e-05
58	0x3826ace0	3.9738487e-05
59	0x381337f2	3.5099634e-05
60	0x382a3bb8	4.0586776e-05
61	0x38487403	4.779176e-05
62	0x38b0a526	8.423095e-05
63	0x381be67e	3.7169542e-05
64	0x385e0f5c	5.294323e-05
65	0x38209b15	3.8291404e-05
66	0x38455f1f	4.705705e-05
67	0x3812cbbd	3.499886e-05
68	0x381afc5a	3.6951482e-05
69	0x381d9224	3.756782e-05
70	0x38706049	5.731013e-05
71	0x3846f6af	4.743662e-05
72	0x38652ab6	5.4637632e-05
73	0x38048715	3.1597057e-05
74	0x382b1567	4.078951e-05
75	0x3875b9a4	5.8585443e-05
76	0x381e0980	3.7678983e-05
77	0x3816d32c	3.5959456e-05
78	0x388b75d2	6.649982e-05
79	0x37f54339	2.9237579e-05
80	0x38352580	4.3188687e-05
81	0x3834a854	4.3072112e-05
82	0x3873b149	5.8100824e-05
83	0x38283d3c	4.011135e-05
84	0x3807e876	3.2403004e-05
85	0x381ce613	3.740757e-05
86	0x3852d263	5.026384e-05
87	0x3822add5	3.8785704e-05
88	0x3825790a	3.9451792e-05
89	0x3808b7c7	3.2596083e-05
90	0x38367c5b	4.3507996e-05
91	0x384c9df1	4.8784485e-05
92	0x38501552	4.961092e-05
93	0x380decac	3.3837438e-05
94	0x38c00280	9.155739e-05
95	0x38015749	3.0837287e-05
96	0x384d0db9	4.888859e-05
97	0x38356cba	4.3255022e-05
98	0x384d54b8	4.895471e-05
99	0x381453f2	3.536413e-05
100	0x3829ec82	4.0513005e-05
101	0x385c42d4	5.2514326e-05
102	0x3877a3d1	5.9041955e-05
103	0x3818d4b5	3.6437723e-05
104	0x37d9bc51	2.5956107e-05
105	0x37ccc556	2.4410587e-05
106	0x38179a17	3.6144713e-05
107	0x37c4c0b8	2.3454762e-05
108	0x37bc43e7	2.2442966e-05
109	0x37df6e44	2.6635018e-05
110	0x37ccad6b	2.439945e-05
111	0x3810dd70	3.4538505e-05
112	0x37d68238	2.5571426e-05
113	0x37bd6191	2.2575989e-05
114	0x37e7a7e4	2.7615526e-05
115	0x37ae2c1c	2.0762956e-05
116	0x37d4546a	2.5311678e-05
117	0x37efe922	2.8599581e-05
118	0x37d0945f	2.4864623e-05
119	0x37dae042	2.6092053e-05
120	0x37cf4812	2.4709883e-05
121	0x37d016b2	2.48061e-05
122	0x38045886	3.1553696e-05
123	0x37cb9a0c	2.427122e-05
124	0x37d44f85	2.5309399e-05
125	0x37d13856	2.4940975e-05
126	0x37d94b91	2.5903604e-05
127	0x38255499	3.9417853e-05
128	0x37ace378	2.0609921e-05
129	0x37e456b8	2.72201e-05
130	0x37d862e9	2.5795265e-05
131	0x37aace9c	2.036179e-05
132	0x37e94be3	2.7811102e-05
133	0x37e94055	2.7805721e-05
134	0x37d725f8	2.5647678e-05
135	0x37fc7e3a	3.009952e-05
136	0x37ddf5f9	2.6459793e-05
137	0x37b86ad1	2.198425e-05
138	0x37dfa912	2.6662401e-05
139	0x37c996e5	2.4031333e-05
140	0x37af9d8f	2.0934995e-05
141	0x38038571	3.135711e-05
142	0x37dbbff3	2.6196218e-05
143	0x3815b89b	3.5696296e-05
144	0x37ecc4a4	2.822496e-05
145	0x37c0fffe	2.300739e-05
146	0x37f5df4c	2.9310257e-05
147	0x37ad46f1	2.0656242e-05
148	0x37fec11d	3.0369085e-05
149	0x37ca73cc	2.4134199e-05
150	0x37ffcdd6	3.0494219e-05
151	0x3800d45e	3.071536e-05
152	0x37f09c43	2.8682995e-05
153	0x37f4e618	2.9194212e-05
154	0x37e44303	2.7210923e-05
155	0x37ccf3e8	2.4432273e-05
156	0x38759431	5.8550566e-05
157	0x384679cd	4.7320314e-05
158	0x38309248	4.2097905e-05
159	0x386cf9bb	5.6499364e-05
160	0x388911d9	6.5359935e-05
161	0x3870a880	5.7377387e-05
162	0x387a13bf	5.9623035e-05
163	0x38654244	5.465957e-05
164	0x387e005c	6.0558654e-05
165	0x382d3a3c	4.130065e-05
166	0x389fdd45	7.6229255e-05
167	0x383671d5	4.3498196e-05
168	0x38200936	3.815555e-05
169	0x38403075	4.5821496e-05
170	0x38729ed4	5.7845216e-05
171	0x3850f5c1	4.981994e-05
172	0x388b0742	6.6293884e-05
173	0x385c51fd	5.2528445e-05
174	0x383fa747	4.5693738e-05
175	0x384e9773	4.9255275e-05
176	0x387b7abd	5.9957372e-05
177	0x38874231	6.449631e-05
178	0x38a53654	7.8779325e-05
179	0x38803ac4	6.1144616e-05
180	0x386126c3	5.368028e-05
181	0x3845f7e8	4.719934e-05
182	0x384b0634	4.840475e-05
183	0x384bb9a4	4.8571863e-05
184	0x38374b74	4.370087e-05
185	0x3863fe25	5.4357708e-05
186	0x388c30ac	6.684786e-05
187	0x38528978	5.019593e-05
188	0x387ce0ab	6.029072e-05
189	0x3850c588	4.977503e-05
190	0x3830c0ca	4.214122e-05
191	0x38409fff	4.5925375e-05
192	0x388e8ae3	6.796957e-05
193	0x3825f90f	3.957102e-05
194	0x3887898e	6.462923e-05
195	0x384def06	4.9098417e-05
196	0x389f4161	7.5938886e-05
197	0x3825a424	3.9491933e-05
198	0x38483c69	4.7739977e-05
199	0x38421b52	4.627865e-05
200	0x384430e8	4.677559e-05
201	0x386662f8	5.4928445e-05
202	0x38883a07	6.495794e-05
203	0x3835659f	4.3248405e-05
204	0x38590995	5.1745756e-05
205	0x3851fae0	5.006313e-05
206	0x383c42b9	4.4884833e-05
207	0x3858c75a	5.1684074e-05
208	0x3866c8cd	5.5023283e-05
209	0x389b6948	7.410586e-05
210	0x388ec79c	6.808268e-05
211	0x3851ea38	5.0047616e-05
212	0x38a29cbc	7.753956e-05
213	0x38bf755b	9.129449e-05
214	0x38857291	6.363274e-05
215	0x38a0ee2b	7.673757e-05
216	0x38981055	7.250967e-05
217	0x38a4fd0f	7.867265e-05
218	0x3890f5b9	6.9122245e-05
219	0x38ffa351	0.000121897676
220	0x395ec54b	0.00021245067
221	0x38a77acb	7.9860525e-05
222	0x38b306da	8.536661e-05
223	0x38dedbbb	0.00010626713
224	0x386dc5e6	5.668951e-05
225	0x38a13dbb	7.6885764e-05
226	0x388528ea	6.349555e-05
227	0x38937848	7.03191e-05
228	0x38939c38	7.038604e-05
229	0x389c1476	7.442471e-05
230	0x3840d5d3	4.5975507e-05
231	0x38a4e765	7.86323e-05
232	0x38794483	5.9430033e-05
233	0x38d0272b	9.9255085e-05
234	0x385df171	5.2915366e-05
235	0x391d58e5	0.00015005803
236	0x38fdc79f	0.000121011624
237	0x38bdecfd	9.056365e-05
238	0x389eb6d5	7.568082e-05
239	0x38b24f4d	8.502472e-05
240	0x38812df5	6.1597595e-05
241	0x38e43b18	0.00010882894
242	0x3845b7fc	4.713981e-05
243	0x38af093a	8.346369e-05
244	0x38c20e08	9.2532544e-05
245	0x38ce89fa	9.8485456e-05
246	0x384264c7	4.634706e-05
247	0x3895e1cd	7.146932e-05
248	0x38a5b1fc	7.900965e-05
249	0x3937d8bd	0.00017532981
250	0x3835c2f9	4.3335345e-05
251	0x390f51ba	0.00013667988
252	0x3891b430	6.947701e-05
253	0x389ab2f5	7.3766256e-05
254	0x38799d76	5.9512873e-05
255	0x38aecb06	8.3347826e-05

exp_avg f4 [20, 20]
0	0x00000000	0.0
1	0xb90ac798	-0.0001323506
2	0xb98a6a11	-0.00026400437
3	0xb8fc923c	-0.00012043535
4	0x39bc07c6	0.00035863946
5	0x383b5e5a	4.4672146e-05
6	0xba54a3e9	-0.0008111583
7	0x3a130e5d	0.0005609745
8	0x00000004	6e-45
9	0x80000004	-6e-45
10	0x00000004	6e-45
11	0xb99de5da	-0.00030116626
12	0xb7edda49	-2.8354249e-05
13	0x00000004	6e-45
14	0xb8b3897c	-8.5609936e-05
15	0xb9218b0b	-0.00015405954
16	0xb782257c	-1.5514663e-05
17	0x3ab6ec52	0.0013955927
18	0x3a982d52	0.0011610186
19	0x00000004	6e-45
20	0xba1547d3	-0.00056946016
21	0x00000000	0.0
22	0xb998bba8	-0.00029131514
23	0xbb137830	-0.0022502057
24	0x39950e16	0.0002842999
25	0xb9854419	-0.00025418474
26	0xbae11378	-0.001717194
27	0x3ab80919	0.0014040797
28	0x80000004	-6e-45
29	0x00000004	6e-45
30	0x00000004	6e-45
31	0xbaf866bb	-0.0018951515
32	0xb73a147a	-1.10912315e-05
33	0x00000004	6e-45
34	0xba8757b7	-0.0010325824
35	0xb8adbc74	-8.284385e-05
36	0xb70df95f	-8.462316e-06
37	0xbb0cd878	-0.002149133
38	0xbad8950c	-0.0016523912
39	0x00000004	6e-45
40	0x3b0bbe32	0.0021323082
41	0x382a376f	4.0582785e-05
42	0x00000000	0.0
43	0xba1e33aa	-0.000603492
44	0x3977e47d	0.00023640874
45	0x3912f94a	0.00014016512
46	0x394ce6c0	0.00019540917
47	0x3ba48ed5	0.0050219097
48	0x80000004	-6e-45
49	0x00000004	6e-45
50	0x00000004	6e-45
51	0xb9833f68	-0.00025033508
52	0xb78af382	-1.6564274e-05
53	0x00000004	6e-45
54	0x3aad3786	0.00132154
55	0xb76ae8d8	-1.40017e-05
56	0x37bf2e05	2.2790404e-05
57	0x3b511f04	0.0031909356
58	0x3a83a955	0.0010044972
59	0x00000004	6e-45
60	0x3a7c2cf3	0.0009619735
61	0xb62649b1	-2.4778822e-06
62	0xb888b3a4	-6.518446e-05
63	0x00000000	0.0
64	0x3a97db34	0.0011585713
65	0xb982aad3	-0.00024922806
66	0xba9cfbd5	-0.0011976907
67	0xbacbe79c	-0.0015556696
68	0x00000004	6e-45
69	0x80000004	-6e-45
70	0x80000004	-6e-45
71	0xbb0f469f	-0.0021862162
72	0x378ecfc4	1.7024468e-05
73	0x80000004	-6e-45
74	0xbb0ec744	-0.0021786252
75	0x37ae6caf	2.0793026e-05
76	0x3775c129	1.4648112e-05
77	0xbbe52fde	-0.0069942316
78	0xbbab5fee	-0.0052299416
79	0x80000004	-6e-45
80	0xba9417e3	-0.0011298623
81	0xb90e2c26	-0.00013558622
82	0xba060b32	-0.00051133626
83	0xbb2ebcd0	-0.0026662834
84	0x00000000	0.0
85	0xb9de116f	-0.0004235613
86	0xbad465f6	-0.0016204703
87	0xbaa470cf	-0.0012545827
88	0x00000004	6e-45
89	0x80000004	-6e-45
90	0x80000004	-6e-45
91	0xbb206fe1	-0.0024480748
92	0xb753a8c2	-1.2615872e-05
93	0x80000004	-6e-45
94	0xbabf5cd3	-0.0014599807
95	0xb8b3447b	-8.5481406e-05
96	0xb8f7715e	-0.00011798994
97	0xbb29e61e	-0.0025924514
98	0xbad4e45c	-0.0016242373
99	0x80000004	-6e-45
100	0x3b1d4a4b	0.002400058
101	0x377c4a4f	1.5037672e-05
102	0xb8efecfb	-0.00011440549
103	0x38adb993	8.283849e-05
104	0x39928ec0	0.00027953647
105	0x00000000	0.0
106	0x3a0296e1	0.0004981589
107	0x3b81bf1a	0.0039595487
108	0x80000004	-6e-45
109	0x00000004	6e-45
110	0x00000004	6e-45
111	0xb99a6848	-0.00029450865
112	0xb6b4407f	-5.3719264e-06
113	0x00000004	6e-45
114	0x386f5fdc	5.7071316e-05
115	0x3768edab	1.3883614e-05
116	0xb76fd78a	-1.4295694e-05
117	0x3b1c5c30	0.002385866
118	0xb8a21603	-7.728862e-05
119	0x00000004	6e-45
120	0xb967bc96	-0.0002210013
121	0xb875ad22	-5.8573794e-05
122	0xb9bae13c	-0.00035644497
123	0xbb425231	-0.002965104
124	0x3a2b779d	0.0006540956
125	0xba0de7c7	-0.00054132607
126	0x00000000	0.0
127	0x3a133191	0.0005614991
128	0x00000004	6e-45
129	0x00000004	6e-45
130	0x00000004	6e-45
131	0xbb16f4da	-0.0023034126
132	0xb735dff5	-1.0840585e-05
133	0x00000004	6e-45
134	0xbb6a15c4	-0.003571854
135	0xb809e62d	-3.2877713e-05
136	0x3793ca45	1.7617955e-05
137	0xbc13078d	-0.008973968
138	0xbbd4c638	-0.006493356
139	0x00000004	6e-45
140	0xba0e8d71	-0.00054379465
141	0xb940619a	-0.00018346906
142	0xb9cf8e53	-0.00039588157
143	0x3ab62836	0.0013897482
144	0xba0c19b4	-0.0005344406
145	0xb9a70a6f	-0.00031860496
146	0xb92ad2ab	-0.00016290943
147	0x00000000	0.0
148	0x00000004	6e-45
149	0x00000004	6e-45
150	0x00000004	6e-45
151	0x3a2f5314	0.00066881
152	0xb8aceccc	-8.245706e-05
153	0x00000004	6e-45
154	0xb98c15ba	-0.00026719068
155	0xb903eee9	-0.00012582135
156	0x36c95298	5.999882e-06
157	0x3aa98e0b	0.0012936009
158	0x3ad0af9e	0.0015921479
159	0x00000004	6e-45
160	0x39fffd82	0.00048826268
161	0x3585048a	9.910593e-07
162	0xb61a51ad	-2.299533e-06
163	0xb709760d	-8.193322e-06
164	0x39375718	0.00017484685
165	0x39222b5b	0.00015465675
166	0x38bf9423	9.135182e-05
167	0x3aa55d3f	0.001261629
168	0x00000000	0.0
169	0x80000004	-6e-45
170	0x80000004	-6e-45
171	0xb69c83d8	-4.664511e-06
172	0x3580322d	9.551346e-07
173	0x80000004	-6e-45
174	0x394104cb	0.000184077
175	0x35467f13	7.3945665e-07
176	0xb4dabef6	-4.0744607e-07
177	0x3a543cfe	0.0008096247
178	0x39a34cf5	0.0003114712
179	0x80000004	-6e-45
180	0x3983e6cb	0.0002515822
181	0x3558d421	8.077496e-07
182	0x369fd7d3	4.7636945e-06
183	0x38585680	5.1578972e-05
184	0x388620f6	6.3957574e-05
185	0x3894b79a	7.0913884e-05
186	0x381d0e92	3.7445287e-05
187	0x3a3f9db1	0.00073095696
188	0x80000004	-6e-45
189	0x00000000	0.0
190	0x00000004	6e-45
191	0x38148708	3.5411707e-05
192	0x343b188f	1.7424667e-07
193	0x00000004	6e-45
194	0x390da938	0.00013509847
195	0x339ba03b	7.246896e-08
196	0x34c3c5c4	3.6465474e-07
197	0x3a024026	0.00049686653
198	0x3988f3d7	0.00026121616
199	0x00000004	6e-45
200	0x395846e4	0.00020625774
201	0x34919ed9	2.7123932e-07
202	0x34920d21	2.7204172e-07
203	0x36cdc849	6.1327924e-06
204	0x38949dbe	7.086572e-05
205	0x38893ccf	6.5439956e-05
206	0x38134666	3.5113095e-05
207	0x3a125458	0.0005582026
208	0x80000004	-6e-45
209	0x80000004	-6e-45
210	0x00000000	0.0
211	0x36b8dd1b	5.5093674e-06
212	0x33fdca87	1.181807e-07
213	0x80000004	-6e-45
214	0x38bee3f4	9.1023656e-05
215	0x341d2d8c	1.4638334e-07
216	0xb3056865	-3.1061422e-08
217	0x39c227bc	0.00037032168
218	0x392a5c3f	0.00016246828
219	0x00000004	6e-45
220	0x3b02da92	0.0019966704
221	0x38b01428	8.3960884e-05
222	0x39480825	0.0001907652
223	0xbae1ae6f	-0.0017218123
224	0x3a833055	0.0010008911
225	0x38a8f572	8.056582e-05
226	0x393e576c	0.00018152379
227	0x3a92d926	0.0011203631
228	0x00000004	6e-45
229	0x80000004	-6e-45
230	0x80000004	-6e-45
231	0x00000000	0.0
232	0x37b002ad	2.0982081e-05
233	0x80000004	-6e-45
234	0xba4ec0f5	-0.0007887029
235	0x38bac986	8.906708e-05
236	0x382963f6	4.0385836e-05
237	0xbb4c5298	-0.003117716
238	0xbb5e754f	-0.0033944433
239	0x80000004	-6e-45
240	0x39e85b2a	0.0004431841
241	0xb88f3faf	-6.830633e-05
242	0xb9af3c50	-0.00033423537
243	0xbaca1d4b	-0.0015420107
244	0x39954dae	0.0002847737
245	0xb94e2c16	-0.00019662114
246	0xba855e82	-0.001017526
247	0x3b31cdc7	0.002713071
248	0x80000004	-6e-45
249	0x00000004	6e-45
250	0x00000004	6e-45
251	0xbaab14b5	-0.0013052436
252	0x00000000	0.0
253	0x00000004	6e-45
254	0xb96a92ff	-0.0002237074
255	0xb8a6397d	-7.926205e-05

exp_avg_sq f4 [20, 20]
0	0x00000000	0.0
1	0x341f433f	1.4832493e-07
2	0x3558fb8c	8.083232e-07
3	0x376a4fd8	1.3966077e-05
4	0x360cc019	2.0973441e-06
5	0x3700f663	7.686761e-06
6	0x378feb4b	1.7156495e-05
7	0x38132a32	3.508683e-05
8	0x2d04966e	7.536733e-12
9	0x2ab9896d	3.295796e-13
10	0x28ba4856	2.0681519e-14
11	0x37169c68	8.977113e-06
12	0x32fb07df	2.9223825e-08
13	0x28329ca4	9.914951e-15
14	0x371b155b	9.243692e-06
15	0x342cd6d5	1.6096904e-07
16	0x3250fcdf	1.216469e-08
17	0x38efd9dd	0.00011436988
18	0x37aba79f	2.0462843e-05
19	0x26307d22	6.1231853e-16
20	0x37b50b78	2.1582222e-05
21	0x00000000	0.0
22	0x34ffb9aa	4.763254e-07
23	0x37bd7b46	2.258796e-05
24	0x36823223	3.8801386e-06
25	0x372c26c9	1.0261029e-05
26	0x37aa1a21	2.0277746e-05
27	0x3835b20d	4.3319586e-05
28	0x2bf5807b	1.7443958e-12
29	0x29a86daf	7.479726e-14
30	0x27a47452	4.564526e-15
31	0x37673971	1.3782047e-05
32	0x318a284b	4.0209094e-09
33	0x270d08d7	1.9572473e-15
34	0x377b3b4d	1.4974573e-05
35	0x33998e24	7.150473e-08
36	0x3379a4f7	5.8124865e-08
37	0x390db1f6	0.00013513103
38	0x37e2fcb6	2.7058977e-05
39	0x24a3c52d	7.102401e-17
40	0x38759ed6	5.856048e-05
41	0x339e1419	7.361104e-08
42	0x00000000	0.0
43	0x3826ab81	3.973721e-05
44	0x368d9861	4.2198667e-06
45	0x37c04d2f	2.2924125e-05
46	0x3859f512	5.196507e-05
47	0x3916d994	0.00014386169
48	0x2d7a5c66	1.4231371e-11
49	0x2b5c9791	7.837004e-13
50	0x29443153	4.3563525e-14
51	0x37cbb819	2.4285213e-05
52	0x3297b55f	1.7661192e-08
53	0x2855e29c	1.1873013e-14
54	0x3888cc6e	6.523063e-05
55	0x341e09a3	1.4718402e-07
56	0x328f8813	1.670927e-08
57	0x39f5225b	0.00046755638
58	0x38b917cd	8.825921e-05
59	0x25ac807f	2.9924316e-16
60	0x3903c2d0	0.00012565707
61	0x33236e6c	3.8051823e-08
62	0x345bbeb1	2.0465338e-07
63	0x00000000	0.0
64	0x37756432	1.46264665e-05
65	0x38332ae2	4.2716863e-05
66	0x38876b9b	6.457345e-05
67	0x39c3a778	0.00037318072
68	0x2cec51b6	6.716595e-12
69	0x2b61974a	8.0146014e-13
70	0x293f41bd	4.246754e-14
71	0x3728367d	1.0026267e-05
72	0x321ca5bc	9.118079e-09
73	0x28a3278a	1.8113783e-14
74	0x38873168	6.446504e-05
75	0x3436a739	1.7010906e-07
76	0x318060c9	3.7362935e-09
77	0x3a4aa4c1	0.0007730239
78	0x3921a862	0.00015416884
79	0x26c67c63	1.3772725e-15
80	0x38591aa3	5.176164e-05
81	0x344ba694	1.8966449e-07
82	0x35571373	8.0122044e-07
83	0x3801006e	3.0756397e-05
84	0x00000000	0.0
85	0x378c12cc	1.6698054e-05
86	0x3818c52b	3.642325e-05
87	0x388bb5d5	6.661905e-05
88	0x2dafc240	1.9981461e-11
89	0x2bd688c0	1.524357e-12
90	0x29d372c5	9.390192e-14
91	0x3796ec42	1.799141e-05
92	0x33185eb9	3.5476408e-08
93	0x292ce142	3.8387052e-14
94	0x37a51a58	1.96818e-05
95	0x34d8f13b	4.0408653e-07
96	0x338c7794	6.541009e-08
97	0x393d2837	0.00018039426
98	0x383c610c	4.4913075e-05
99	0x26e964bc	1.6194927e-15
100	0x3861a85b	5.3800974e-05
101	0x33316f26	4.1312113e-08
102	0x34b1e07b	3.313215e-07
103	0x37d4922b	2.5340434e-05
104	0x35d9d520	1.6229787e-06
105	0x00000000	0.0
106	0x37525e32	1.2538907e-05
107	0x38b797e9	8.7544155e-05
108	0x2ba65d89	1.1820971e-12
109	0x298b0b11	6.17476e-14
110	0x2772e9c2	3.3710967e-15
111	0x379611e3	1.7889723e-05
112	0x31f5d3cf	7.1545183e-09
113	0x270d1ac6	1.9582195e-15
114	0x37b644d3	2.172814e-05
115	0x34300980	1.6394733e-07
116	0x3334054d	4.1914337e-08
117	0x392c4caf	0.00016431765
118	0x387816b5	5.9148955e-05
119	0x25817739	2.245872e-16
120	0x39047b46	0.00012634424
121	0x32b56d77	2.1120952e-08
122	0x34c8cd81	3.7402427e-07
123	0x384c200e	4.8667243e-05
124	0x37036403	7.831494e-06
125	0x37bce9d6	2.2520235e-05
126	0x00000000	0.0
127	0x39a9ddaa	0.00032399344
128	0x2bcf5e00	1.4734325e-12
129	0x2a18cd53	1.3571548e-13
130	0x2865f40b	1.2764972e-14
131	0x37f5d90c	2.9307346e-05
132	0x316a236b	3.4071614e-09
133	0x27e608a7	6.3847205e-15
134	0x38b17dff	8.463486e-05
135	0x33426825	4.5263864e-08
136	0x334d3dfb	4.7786653e-08
137	0x3a2e2208	0.00066426443
138	0x3937ec95	0.00017540374
139	0x257497ac	2.1215015e-16
140	0x37868c0b	1.6039257e-05
141	0x348c4a19	2.6130945e-07
142	0x35ec3929	1.7600006e-06
143	0x37c77810	2.3778557e-05
144	0x3646a3c6	2.9599628e-06
145	0x37255f7a	9.856996e-06
146	0x37afdac2	2.0963493e-05
147	0x00000000	0.0
148	0x2d8ee637	1.6245767e-11
149	0x2b341283	6.3974536e-13
150	0x290cfbeb	3.130475e-14
151	0x3770b03c	1.43461475e-05
152	0x3382d15c	6.091679e-08
153	0x281d70d8	8.73972e-15
154	0x37493cdb	1.1994703e-05
155	0x34464fb0	1.8469177e-07
156	0x32ab3481	1.9930896e-08
157	0x390621c7	0.00012791819
158	0x37ced7ef	2.4657666e-05
159	0x2603c17c	4.5711975e-16
160	0x34fd02ca	4.7126952e-07
161	0x3181ceb6	3.7778944e-09
162	0x31b0326e	5.1280074e-09
163	0x3439f0b8	1.731704e-07
164	0x33881260	6.336336e-08
165	0x3416585f	1.4001988e-07
166	0x33ff14dc	1.1878157e-07
167	0x3619f040	2.293862e-06
168	0x00000000	0.0
169	0x2b54b977	7.5574914e-13
170	0x28f2c0bc	2.6950982e-14
171	0x33ad621c	8.073786e-08
172	0x314f722c	3.0187364e-09
173	0x28a23fb1	1.8013235e-14
174	0x34a0902b	2.9907218e-07
175	0x316ca573	3.4436567e-09
176	0x2fa30dc6	2.9659314e-10
177	0x362b4c9e	2.5525583e-06
178	0x34c278a2	3.6223088e-07
179	0x263cd124	6.550904e-16
180	0x33d3c6a2	9.861584e-08
181	0x3008261d	4.9530674e-10
182	0x3123febf	2.3864428e-09
183	0x32cd2e80	2.3886287e-08
184	0x31e6be1e	6.715495e-09
185	0x32bbedfa	2.1877884e-08
186	0x3260d730	1.3087444e-08
187	0x352a51f6	6.3449204e-07
188	0x2d542eab	1.2061167e-11
189	0x00000000	0.0
190	0x28b62eda	2.0226378e-14
191	0x3244159b	1.1413614e-08
192	0x2fb5ea57	3.3090217e-10
193	0x2792c9ea	4.0742056e-15
194	0x33f0dc77	1.1215973e-07
195	0x2ed23c97	9.560457e-11
196	0x2eb4dd04	8.2247126e-11
197	0x353ebcde	7.1055354e-07
198	0x33f69420	1.14822114e-07
199	0x24cbd0f8	8.839122e-17
200	0x3384476c	6.1597206e-08
201	0x2dd811e9	2.456431e-11
202	0x2f2b2877	1.5566735e-10
203	0x3261567b	1.3116387e-08
204	0x31ee1679	6.9292665e-09
205	0x3292f0b6	1.71061e-08
206	0x321bad71	9.0616235e-09
207	0x34c8e06f	3.74162e-07
208	0x2bf50d6d	1.7412023e-12
209	0x2ad36a43	3.7554863e-13
210	0x00000000	0.0
211	0x31b6574b	5.306821e-09
212	0x2db5a24e	2.0649395e-11
213	0x2858d968	1.2037551e-14
214	0x334acc8a	4.7217817e-08
215	0x2e3273cb	4.057536e-11
216	0x2caad872	4.855721e-12
217	0x34cbf5d0	3.799055e-07
218	0x336e4bef	5.5482754e-08
219	0x26133701	5.1075414e-16
220	0x39382f7f	0.00017565301
221	0x33d987b6	1.01295356e-07
222	0x3549e60f	7.5213114e-07
223	0x37f342aa	2.89989e-05
224	0x375441c5	1.2651498e-05
225	0x38608548	5.352989e-05
226	0x38c482f5	9.370401e-05
227	0x3a069dca	0.0005135207
228	0x2c8c27b2	3.9834464e-12
229	0x2bbbf15c	1.335414e-12
230	0x294b93cb	4.5203245e-14
231	0x00000000	0.0
232	0x326831d9	1.3515511e-08
233	0x293041e2	3.9136995e-14
234	0x38d2f678	0.00010059489
235	0x349fa24f	2.9734153e-07
236	0x31a073f3	4.6697948e-09
237	0x3a90beef	0.0011043231
238	0x397c62f5	0.00024069457
239	0x279d21e2	4.361299e-15
240	0x3783b5f4	1.5701145e-05
241	0x33181f0f	3.5418505e-08
242	0x3500f04c	4.8033394e-07
243	0x37980d15	1.8125904e-05
244	0x36479860	2.9742005e-06
245	0x36f8daba	7.416439e-06
246	0x376fa00e	1.4282776e-05
247	0x3819be4e	3.6655278e-05
248	0x2c049515	1.8841085e-12
249	0x29d1d69c	9.318693e-14
250	0x27939b26	4.096891e-15
251	0x37351f5f	1.0795745e-05
252	0x00000000	0.0
253	0x27601717	3.1098762e-15
254	0x3733d1ee	1.07181095e-05
255	0x340dec93	1.3217714e-07
