checkpoints/RNN_94.pt (torch, 111341 bytes, 9 tensors)

snn.l1.input_weights f4 [20, 416]
000000 53 fd 03 bf b2 cc d1 be 9c 8e 29 bf 13 21 20 bf
       -0.5155842 -0.40976483 -0.6623323 -0.6255047
000010 7a 15 1b bf 5d 82 27 bf 6b 8c 94 bf 1a e1 17 bf
       -0.60579646 -0.65433294 -1.1605352 -0.5932785
000020 b3 69 71 bf 06 39 cb bd 2b 50 3b bf eb fe 22 bf
       -0.9430191 -0.09922986 -0.731692 -0.63670224
000030 0b 6c 17 bf 45 6d 90 bf b1 09 bd be c0 ba 30 be
       -0.59149235 -1.1283346 -0.36921456 -0.1725874
000040 2e 1b 4d bf fa a7 72 bf 45 da 21 bf 4c b2 b2 be
       -0.801196 -0.9478756 -0.6322368 -0.34901655
000050 ce d8 16 bf 99 50 4f be 83 3e 72 bf 79 73 16 be
       -0.5892457 -0.2024559 -0.94626635 -0.14692487
000060 34 80 7b bf 30 ef 29 be 0b 8c 05 bf 98 97 5b be
       -0.982425 -0.16595149 -0.52166814 -0.21444547
000070 eb a8 7e be a6 c1 e6 be 48 fa d4 bd 3b d1 53 3d
       -0.24869125 -0.45069617 -0.103993 0.05171321
000080 aa 24 81 bf 2c ce 82 bf f0 c5 77 bf 88 81 ce be
       -1.0089314 -1.0219169 -0.96786404 -0.403332
000090 dc 06 5c be 28 39 82 be b6 c4 a7 bf c3 e4 79 bf
       -0.21486992 -0.25434232 -1.3106906 -0.9761469
0000a0 8b 0b a8 bf b6 5f db bd 02 4d 8d bf 2c 54 40 be
       -1.3128523 -0.10711615 -1.1039126 -0.18782109
0000b0 98 9f 8a be cf f1 27 be e6 74 7f be 7d 08 cf be
       -0.27074885 -0.16400836 -0.24946937 -0.40436164
0000c0 86 53 55 bf 34 35 79 bf 9c fc 8b bf 18 6b 41 bf
       -0.8333057 -0.97346807 -1.0936465 -0.7555404
0000d0 db 39 3c 3e 0d c7 0a 3d 5a 38 a4 be b3 a3 42 be
       0.18381445 0.033881236 -0.32074243 -0.19007759
0000e0 42 1a 96 be b2 24 63 bd c3 78 c8 3d 4e 63 a5 3e
       -0.29316908 -0.055454917 0.097886585 0.32302326
0000f0 13 aa ed 3d 65 82 5d 3e 54 13 8b be 53 dd d2 bd
       0.11604705 0.21631773 -0.27163184 -0.102961205
000100 5e 9e 9f 3e 5b 12 9a 3e dc 03 b6 3e 03 1f f9 3d
       0.31175512 0.3009213 0.3554982 0.12164118
000110 33 8a 53 3e 52 f0 b5 3b 2b d3 09 bf 88 db e6 3d
       0.20658188 0.00555233 -0.5383784 0.11272341
000120 8a 37 b5 be 38 d9 93 3e c1 1c 2e bd a3 19 21 be
       -0.35393935 0.28876662 -0.04250789 -0.15732436
000130 5d c4 15 3e 7d 53 1f be d5 b5 93 bd e4 b5 18 bd
       0.14625688 -0.15559192 -0.07212416 -0.03728284
000140 39 aa 4d 3e e8 00 26 3e e9 0f a7 bd 5f ba d4 bd
       0.20084466 0.16211283 -0.081573315 -0.1038711
000150 90 08 47 3e 8f 0a 1c 3e 61 57 6d 3d 02 4b 21 be
       0.1943686 0.15238403 0.05794466 -0.1575127
000160 d0 5a a0 be 47 b3 f1 bd 35 59 43 3e f4 7c 58 3e
       -0.31319284 -0.118017726 0.19076999 0.21141416
000170 3f 25 7d be 1e a0 5f be 27 8e a9 3e 7e 83 d6 3c
       -0.2472124 -0.21838424 0.33116266 0.026185747
000180 e4 48 96 be 5d a8 86 3e 40 11 77 3e 6e 73 e1 3e
       -0.29352486 0.26300326 0.24127674 0.44033378
000190 44 3f 70 bd 21 ab e1 be e5 33 b4 bd 06 ff 0b 3e
       -0.058654085 -0.44075873 -0.087989606 0.13671502
0001a0 3f d9 ef 3f 41 3b f3 3f ba 73 91 3f 90 72 c8 3f
       1.8738173 1.9002458 1.1363442 1.5659962
0001b0 ae ea db 3f 9a ec e9 3f 16 d1 70 3f c8 66 d6 3f
       1.7180994 1.827533 0.9406904 1.6750116
0001c0 35 c8 51 3f d8 fc b7 3f ef 23 c2 3f 4c 59 0b 40
       0.81946117 1.4374037 1.5167216 2.1773252
0001d0 01 47 f6 3f 7e d9 ac 3f 36 ba 90 3f a0 10 c4 3f
       1.9240419 1.3503873 1.1306827 1.5317574
0001e0 2f 00 e8 3f f3 76 b5 3f 3f f4 a0 3f e0 a4 d0 3f
       1.8125056 1.4176925 1.2574538 1.6300316
0001f0 99 12 b3 3f df 65 de 3f 77 ce 84 3f 92 e0 a8 3f
       1.399005 1.7374839 1.0375508 1.3193533
000200 53 3e 84 3f 91 82 e2 3f ee 9d c1 3f e9 da e0 3f
       1.033152 1.7696096 1.5126321 1.7566806
000210 73 b2 dd 3f 70 ef c9 3f 76 86 dd 3f bf 9c 8f 3f
       1.7320083 1.5776196 1.7306659 1.121971
000220 07 2e d8 3f be 95 c6 3f 80 a9 73 3f 7d ba d4 3f
       1.6889046 1.5514448 0.9518051 1.6619412
000230 88 57 ae 3f d9 97 d4 3f 1f 1a 93 3f 2e b9 b1 3f
       1.3620462 1.660884 1.1492347 1.3884637
000240 ce 86 2c 3f 31 c8 ef 3f 2b d8 e9 3f 5c de 0a 40
       0.67393196 1.8732969 1.8269094 2.1698217
000250 24 a1 eb 3f f0 55 93 3f 96 65 79 3f af f5 b0 3f
       1.8408551 1.1510601 0.9742063 1.3824977
000260 73 df e1 3f a1 76 cb 3f a5 c1 88 3f 08 35 0e 40
       1.7646316 1.5895578 1.0684096 2.2219868
000270 70 ce 8e bf 2b 78 41 be e8 f8 3d be 74 bf 19 3d
       -1.115675 -0.18893497 -0.18551981 0.0375361
000280 6f 1a 73 bc dc 99 15 bd 88 37 b4 3e 4d 55 0d 3f
       -0.014837845 -0.036523685 0.35198617 0.55208284
000290 06 4a af 3e cd 1d 3e 3e 77 03 08 3f 15 f3 40 3d
       0.34236163 0.18566056 0.53130287 0.04710682
0002a0 2d 02 cf be 42 d3 41 3e 86 b9 04 3e df c2 d6 be
       -0.40431347 0.18928245 0.12961397 -0.4194555
0002b0 b1 33 85 bf f5 f8 9d bd 1a 80 80 3e c9 5f be bd
       -1.04064 -0.077135004 0.25097734 -0.09295613
0002c0 28 d0 88 be e9 67 88 be 88 83 a9 3d f8 59 36 3e
       -0.2672131 -0.26641777 0.08277041 0.17807758
0002d0 6a d3 f8 3d 57 0f 62 be 69 e8 98 be 29 97 eb 3e
       0.12149699 -0.22076164 -0.29864815 0.46013764
0002e0 f1 d5 47 be a4 0e 80 be fa 9d 76 be eb 88 41 be
       -0.19515206 -0.2501117 -0.24083701 -0.18899886
0002f0 e8 5e 0d be 01 db 74 be b9 6f b6 3d 24 33 8e be
       -0.13805735 -0.23911668 0.08908028 -0.27773392
000300 b5 ec f0 bc 39 56 ec be 4b 14 06 3f 4b 45 ed 3e
       -0.029409746 -0.46159533 0.52374715 0.4634193
000310 72 95 56 3d 14 37 e3 bd 98 ea d0 bd 3e f6 b3 3e
       0.052388616 -0.1109449 -0.10200995 0.35148805
000320 06 dd 37 3e 60 80 46 3e e9 20 90 3e 05 0d 63 be
       0.17955408 0.19384909 0.28150108 -0.22172935
000330 b4 e0 95 bc 0f 46 1b be 42 e5 f8 3e 7d 7b 98 bd
       -0.018295623 -0.15163444 0.4861241 -0.074454285
000340 07 ee 38 bf b7 64 43 bf 1a e0 24 bf fc 42 61 bf
       -0.722382 -0.76325554 -0.6440445 -0.87992835
000350 67 cf a6 bd 9d f7 3d be 01 bf 46 bf ed 7c 4b bf
       -0.081450276 -0.18551488 -0.776352 -0.79487497
000360 97 59 44 bf 08 8c 7d bf 71 dd 77 bf 64 d8 00 bf
       -0.76699203 -0.99041796 -0.9682227 -0.50330186
000370 bc 19 5a be e2 ea 9e bf 03 70 40 bf 71 fd 3b bf
       -0.2129888 -1.241543 -0.75170916 -0.73433596
000380 55 fe 07 bf 2a 60 de be 69 35 6f bf e9 5d 6a bf
       -0.53122455 -0.43432742 -0.9344087 -0.91549546
000390 2e 85 7b 3d 91 bc 4e bf 2f bc 55 bf 99 65 ee ba
       0.061406307 -0.8075648 -0.8349027 -0.0018188237
0003a0 43 e3 12 bf f2 16 8d bf c9 c3 49 bf 4d 3d 7e bf
       -0.57378024 -1.1022627 -0.7881437 -0.9931229
0003b0 bd a1 c2 be bb 48 51 bf a2 19 4b bf 4e 6f 41 bf
       -0.38014022 -0.817516 -0.7933599 -0.7556046
0003c0 65 f5 5e bf ad 0d 80 bf a8 ab 57 bf 3d 96 41 bf
       -0.8709319 -1.0004174 -0.842463 -0.7561987
0003d0 fa 28 9d be e4 72 60 bf 50 be 5e bf 59 86 d3 bd
       -0.30695325 -0.8767531 -0.87009144 -0.10328359
0003e0 73 ae 88 be f1 68 41 bf cf b8 ee be c2 f7 37 bf
       -0.26695594 -0.7555075 -0.46625373 -0.71862423
0003f0 04 e9 7b bf 12 f1 38 bf fb 50 3d bf 64 80 20 bf
       -0.9840243 -0.72242844 -0.7395169 -0.6269591

snn.l1.recurrent_weights f4 [20, 20]
000000 00 00 00 00 19 64 b1 40 50 c5 10 40 4f d4 94 40
       0.0 5.543469 2.262043 4.6509166
000010 6a 6e 0e 40 08 d3 ef bf 97 c6 fb bf 1a 36 46 bf
       2.2254891 -1.8736277 -1.966998 -0.774263
000020 8f 72 bf 40 ee a8 34 40 e5 b0 56 40 ae 55 af 40
       5.982734 2.8228106 3.3545468 5.479209
000030 57 9b da 40 1d b7 5b 40 0c ea 81 3e 99 05 8c bf
       6.8314624 3.4330513 0.25373876 -1.0939208
000040 51 93 ad 40 75 88 4c c0 5e 60 67 40 75 78 52 3f
       5.424233 -3.1958287 3.6152568 0.8221505
000050 d8 08 2f bf 00 00 00 00 eb 7f 3c 41 51 0b 02 41
       -0.6837287 0.0 11.78123 8.127763
000060 a1 1b 79 bf 89 98 46 40 19 a2 10 41 6c f3 06 c0
       -0.97307783 3.10306 9.039575 -2.1086073
000070 0a 42 d1 40 96 ce 82 40 77 7b 64 40 04 12 03 41
       6.5393114 4.087718 3.5700357 8.191898
000080 7c d5 55 41 db e2 94 40 b2 2d fe be e0 f4 c5 40
       13.36462 4.6526923 -0.49644238 6.186142
000090 dd 5b 22 bf 17 b4 1b 40 06 a1 d9 bf 38 fa f2 3f
       -0.6342142 2.4328668 -1.7002265 1.8982611
0000a0 f2 a9 06 bf d3 c3 04 41 00 00 00 00 13 c0 bf 40
       -0.52603066 8.297809 0.0 5.9921966
0000b0 af 69 a1 c0 82 e4 99 3f 82 34 a6 40 56 92 b9 bf
       -5.044151 1.202286 5.1939096 -1.4497783
0000c0 10 ae 05 40 82 9d 96 40 bd 5d f5 3f 0f 2a 04 41
       2.088749 4.706727 1.9169232 8.260268
0000d0 30 8e 0e 41 68 fe 82 40 cd f7 23 40 ab dd 89 40
       8.909714 4.0935555 2.5619996 4.308309
0000e0 2d 3e 3f 3e ff 37 81 40 35 46 c9 be 19 fd 3a 40
       0.18676062 4.0380855 -0.39311376 2.9216979
0000f0 6b 92 48 3e 45 d0 58 40 f6 e4 88 40 00 00 00 00
       0.19587104 3.3877118 4.2779493 0.0
000100 8a bf 64 3f fb 99 1e c0 38 13 b1 40 3f 4c 02 bf
       0.89354765 -2.4781482 5.533596 -0.5089759
000110 42 f4 85 40 f1 f6 51 3f 62 cf 2a 40 d0 32 61 41
       4.1860666 0.8201743 2.6689076 14.074905
000120 d1 40 ac 40 5e fe b9 3f 3d fd 01 bf 0e a6 91 3f
       5.382912 1.4530752 -0.50777036 1.1378801
000130 af 10 80 40 9e 6b 3e 40 e6 34 8a 3f 68 e7 be be
       4.0020366 2.9753184 1.0797393 -0.37285924
000140 08 09 51 bf d6 7f 99 40 4b e7 98 3f 9a 9d e0 40
       -0.81654406 4.796855 1.1945585 7.0192385
000150 00 00 00 00 9b 27 1d bf ae 36 0b 40 01 ff 01 c0
       0.0 -0.6138856 2.1752124 -2.0311892
000160 16 6a aa 40 e3 89 c2 3f bf ca 35 40 ad f3 a5 40
       5.32545 1.519833 2.8404996 5.1859956
000170 e5 9e c3 40 f1 10 c7 3f 4d ae aa bf c1 f3 17 3d
       6.1131463 1.5552045 -1.3334442 0.037097696
000180 8b 9c d4 bf c9 a6 3e 3e c3 b5 bf bf 64 e4 19 be
       -1.6610273 0.18618311 -1.4977344 -0.1502853
000190 ee 93 12 bf 61 7b b5 40 61 1d 9a 40 9f c7 ef 3d
       -0.5725697 5.671311 4.8160863 0.117079966
0001a0 1b 10 08 3f 00 00 00 00 0b 8a 84 3f 6a 9e ce 3f
       0.53149575 0.0 1.0354627 1.6142094
0001b0 ec b4 a9 40 f3 61 30 40 6a 70 3c 40 18 77 42 3f
       5.303335 2.7559783 2.9443612 0.7596297
0001c0 41 d2 cb 40 5f d9 83 40 b4 69 63 40 5b 0e c9 3f
       6.3694158 4.1202846 3.5533266 1.5707506
0001d0 e5 1e 99 3f ba df 92 be 51 33 90 3f 87 70 91 3f
       1.1962553 -0.28686315 1.126566 1.1362466
0001e0 a3 e2 43 3e 2f 58 b2 40 67 80 4a 40 f3 08 98 40
       0.19129424 5.5732646 3.164087 4.7510924
0001f0 c2 f8 43 bf 7a 44 3f 40 00 00 00 00 58 51 f2 3d
       -0.7655145 2.9885545 0.0 0.11831921
000200 ee 12 25 40 d3 2c df 3f f6 55 2e 3f 79 c3 6c 40
       2.5792804 1.7435554 0.68099916 3.6994307
000210 d7 86 95 40 8e 79 f1 3f 89 c4 70 bf f4 8a 88 40
       4.67271 1.886522 -0.9404989 4.266962
000220 c9 d6 b8 be d1 24 8c 40 f1 f9 37 bf ab 9d a8 3f
       -0.36101368 4.379494 -0.71865755 1.3173116
000230 a0 6e b6 be 36 8b c2 40 c4 a7 4e 40 a8 f0 43 40
       -0.35631275 6.0794935 3.2289896 3.0615635
000240 3a 21 11 40 97 73 05 c0 18 14 98 c0 00 00 00 00
       2.267653 -2.08518 -4.752453 0.0
000250 56 21 c0 40 d5 ee e0 3f d6 43 3f 40 69 62 af 40
       6.0040693 1.7572886 2.9885154 5.480763
000260 81 1e eb 40 59 16 62 40 53 34 dc bf d9 a8 01 bf
       7.3474736 3.532614 -1.7203468 -0.50648266
000270 bb 96 62 40 5e 52 c2 c0 d2 af 7c 3e 07 24 9d 3f
       3.5404499 -6.0725546 0.24676445 1.227662
000280 b5 f2 57 c0 0d d8 bb 40 fc 0d 9b 40 f4 f6 e6 40
       -3.3741887 5.8701234 4.845457 7.2176456
000290 38 99 50 3e 13 27 59 c0 7f eb b8 3e 89 62 97 c0
       0.20370948 -3.39301 0.3611717 -4.730778
0002a0 00 00 00 00 35 06 5f be a9 93 74 40 ae 36 9f 40
       0.0 -0.21779712 3.8215125 4.975425
0002b0 8c dd 0e 41 c4 19 06 40 c9 88 46 c0 91 b3 cc be
       8.929089 2.0953226 -3.1020987 -0.39980748
0002c0 03 95 89 bf e6 62 89 c0 38 3e 5f c0 a6 3d c9 bf
       -1.07486 -4.2933226 -3.4881725 -1.5721939
0002d0 0c a5 8e c0 0c d2 d3 40 a9 c4 01 41 25 86 1e 40
       -4.4576473 6.6193905 8.110513 2.4769375
0002e0 24 bb f4 bf 2f e6 4f c0 29 ff 3e c0 af ae ae c0
       -1.9119611 -3.2484243 -2.9843237 -5.4588237
0002f0 38 81 c2 40 00 00 00 00 3f e7 63 40 8a 23 71 40
       6.078274 0.0 3.5609891 3.7677941
000300 de 52 00 41 49 b2 98 40 26 ea db bf fe 99 87 bf
       8.020231 4.7717633 -1.7180831 -1.059387
000310 33 20 da 3f d7 ac 9b c0 07 dc 29 c0 22 c0 98 3f
       1.7041076 -4.8648486 -2.6540544 1.1933634
000320 8f e6 b6 c0 16 5d 70 40 29 01 bb 40 0b e6 5c 40
       -5.7156444 3.7556815 5.8438916 3.4515407
000330 3a 38 fd be 2c 2b a1 c0 7a 19 98 c0 ae 59 d8 c0
       -0.4945696 -5.03652 -4.75311 -6.760947
000340 4d c4 ec 40 13 1d 30 40 00 00 00 00 dc c4 22 40
       7.3989625 2.7517745 0.0 2.5432653
000350 9c 10 d5 40 92 dd 66 40 40 8a 8a c0 8f ad 93 c0
       6.6582775 3.6072736 -4.329376 -4.6149364
000360 19 9d 5d bf 71 4a ee c0 f1 bc 74 c0 d3 23 df be
       -0.86567837 -7.446587 -3.824032 -0.4358202
000370 20 96 ff bd 99 ef 07 40 25 ac 86 40 34 4e 31 41
       -0.12479806 2.1239989 4.2085137 11.081593
000380 f9 7f 0a c0 42 fb a0 bf d6 80 68 40 63 cf 3f bf
       -2.1640608 -1.2576678 3.6328635 -0.7492582
000390 af ea e0 3f f9 88 41 3e 9a 17 3c 3f 00 00 00 00
       1.757162 0.18899907 0.73473513 0.0
0003a0 dc 05 68 40 08 4c e7 3f 1b b4 c1 bf 1d 1c f3 3f
       3.6253576 1.8070078 -1.5133089 1.8992954
0003b0 3f 7b 22 40 9d 4c 0e 40 6c 40 7c 3f e6 4d 8a 3d
       2.5387723 2.223426 0.985358 0.06753139
0003c0 cd 39 c3 bf 43 6c 1d 41 fb 24 0f 41 ef 32 09 41
       -1.5252014 9.838931 8.946528 8.574935
0003d0 66 2e 90 bf ae 9d 33 3f 5e 5e c7 40 a6 59 3c c0
       -1.126416 0.70162475 6.2302694 -2.9429717
0003e0 e3 d2 ef 40 b7 eb d9 3f 21 02 94 40 80 b7 ff 40
       7.494493 1.702506 4.62526 7.99115
0003f0 00 00 00 00 53 e9 7b 40 37 9d 3a c0 20 2a 43 40
       0.0 3.936116 -2.9158456 3.049446

snn.fc_out.weight f4 [9, 20]
000000 6b 13 f5 3f 00 7c 88 c0 af ff 87 c0 60 d0 a0 c0
       1.9146551 -4.2651367 -4.2499614 -5.0254364
000010 f8 12 44 3f 64 bd ad 3f 59 fa 20 c0 7e 88 22 40
       0.76591444 1.3573422 -2.51528 2.5395808
000020 7e 69 56 c0 38 65 98 bd 05 5c ad bf 03 4b aa c0
       -3.3501887 -0.07441181 -1.3543707 -5.3216567
000030 8d 0c 6d c0 7f a6 a6 bf ea 88 00 40 6c d8 f0 be
       -3.703891 -1.301956 2.0083566 -0.47040117
000040 17 36 26 40 08 7d 35 bf b4 56 3b 40 37 5c 68 be
       2.5970514 -0.7089391 2.927167 -0.22691427
000050 9b 47 41 c0 a6 ae 28 40 bf 70 e1 40 2a 30 7c c0
       -3.0199955 2.6356597 7.045013 -3.9404397
000060 42 b5 2f c0 99 89 6b 3e 0c 5f 4c bf 56 82 08 c0
       -2.745438 0.23001708 -0.7983253 -2.132955
000070 cd ae 12 3f f2 a1 29 40 5e 85 f4 3f e2 60 05 c0
       0.57297975 2.6505094 1.91032 -2.0840383
000080 c5 c2 ff 3f 11 c8 ac 3f be 02 ee 3f cb 5a 71 c0
       1.9981314 1.3498555 1.8594587 -3.7711666
000090 8a 50 dd bf 2f c2 38 3f 2f 4d 14 bf 16 19 d7 3f
       -1.7290204 0.721713 -0.5793027 1.6804531
0000a0 3a 45 2e 40 14 e5 53 3f 21 b9 c6 bf 1a 60 b0 bf
       2.7229753 0.8277142 -1.5525247 -1.3779328
0000b0 fd 84 9d 40 02 f3 67 3f 41 b6 22 3f 71 33 a8 3f
       4.922484 0.90605175 0.6355935 1.3140699
0000c0 1f 12 87 40 35 60 37 3e ee 0a fa 3f 92 ac 61 c0
       4.220962 0.17907794 1.9534585 -3.5261579
0000d0 bb 57 fb 3f 27 a6 1f 3f 68 df 8a 3f 7e cf 4b 3f
       1.9636148 0.62362903 1.0849428 0.7961348
0000e0 23 b1 b6 c0 7a e8 ea bf 0a 9f 3f c0 47 9d 3d 3f
       -5.709123 -1.8352196 -2.994082 0.7406811
0000f0 3b 2a 80 3e ea 8e e1 be fa a7 ca 3d 6f 3b 81 c0
       0.2503222 -0.44054347 0.0989532 -4.038505
000100 2e 85 16 c0 52 b4 ba 3f 77 a7 f3 be cf 45 f8 3f
       -2.3518786 1.4586279 -0.47588703 1.9396304
000110 2b 19 91 bd 7d b5 b7 3f 86 be f1 3e 8b 50 06 bf
       -0.070848785 1.4352261 0.4721567 -0.5246665
000120 e7 21 5d 3f 7d ed cd 3f 48 81 f1 3f ae 20 2c 40
       0.86379856 1.6088101 1.8867579 2.6894946
000130 9f 9a 8a 40 2d 7c cb 3e 6a 61 cb 3e d2 48 93 3f
       4.3313746 0.39743176 0.3972276 1.1506598
000140 9e fe 96 bf 90 6b 36 40 74 4a 2e be 00 37 90 c0
       -1.1796453 2.850315 -0.17020589 -4.506714
000150 0d 5c 57 bf 87 0a 75 bf d1 fc 67 40 e5 cc 20 bf
       -0.84124833 -0.9571919 3.6248057 -0.62812644
000160 a5 6f 1d c0 90 c7 3c bf b0 47 f6 bf bb 5a df c0
       -2.4599392 -0.7374201 -1.9240627 -6.9798255
000170 ec 66 ad 3f 22 38 d7 bf cd 11 ec bf ca c2 d7 3f
       1.3547034 -1.6814005 -1.8442932 1.685632
000180 cf c7 d7 bf 50 6e c8 3f 60 08 8a bf 8d 96 a4 bf
       -1.6857852 1.5658665 -1.0783806 -1.2858444
000190 06 48 1a 40 2e 19 e4 bf 1c 96 7f c0 d0 a0 46 3f
       2.410646 -1.7820184 -3.993537 0.7758913
0001a0 55 0d 3e bf a1 4f 29 c0 35 d9 23 c0 a3 8c 81 3f
       -0.74239093 -2.6454852 -2.5601323 1.0121044
0001b0 07 b8 86 c0 9c 48 74 bf 23 0c 28 c0 a8 4f c7 3f
       -4.2099643 -0.95423293 -2.6257408 1.5571184
0001c0 00 01 4a c0 99 e8 02 bf 0c 8c e6 bf 21 ef a2 3e
       -3.156311 -0.51136166 -1.8011489 0.31823066
0001d0 7d 0f 1f 40 25 66 6e bd bd 58 9c 3f 1a 01 fa be
       2.4853203 -0.05820288 1.2214581 -0.48828965
0001e0 5b d8 b7 c0 3e 48 07 c1 22 27 fe c0 6c 97 9c 40
       -5.7451606 -8.455137 -7.942277 4.893484
0001f0 80 7d 32 c0 fa 34 e9 3f 4c c5 7a 3f 07 99 1e c0
       -2.78891 1.8219292 0.979573 -2.47809
000200 c9 a4 b8 c0 15 c2 02 c1 7f 4d de c0 1a 1a 95 40
       -5.7701154 -8.172383 -6.94696 4.659436
000210 10 2a cd c0 57 65 c9 c0 0e 81 d5 c0 e2 15 b0 bf
       -6.4113846 -6.2936206 -6.6720037 -1.3756678
000220 a6 bd 57 c0 33 21 a6 be f9 2c 2a c0 03 a5 83 c0
       -3.3709502 -0.32447204 -2.658995 -4.113893
000230 ad a0 39 c0 78 fd 99 bf 3d fd c2 c0 4d 2d df 40
       -2.9004319 -1.2030478 -6.093413 6.97428
000240 77 09 29 40 54 fe 83 bf d7 ec c8 bf da f0 a8 c0
       2.6412027 -1.031199 -1.5697278 -5.279401
000250 a6 c3 63 40 2c ba 43 c0 4b 35 07 40 f9 99 18 40
       3.5588164 -3.058238 2.1126277 2.3843977
000260 64 5c 80 3f 29 ab b3 bf ae da 96 c0 66 6a 9e c0
       1.0028195 -1.4036609 -4.7141943 -4.950488
000270 bd d7 af c0 e6 77 01 c0 65 c1 43 be b1 00 59 c0
       -5.4950852 -2.022943 -0.19116743 -3.3906672
000280 e8 06 ca bf cf ef 37 c1 42 4d 8d 3f 29 49 81 40
       -1.5783358 -11.496047 1.1039202 4.0401807
000290 6e 94 06 c1 1a 80 13 c0 c0 3f ef c0 65 5b f4 bf
       -8.411238 -2.3046937 -7.476532 -1.9090391
0002a0 55 9a 08 c1 36 e4 62 c0 fc d2 97 c0 ba a0 ae 40
       -8.537679 -3.545179 -4.744505 5.45712
0002b0 c5 cd 3e c1 3b 77 89 c0 94 09 09 40 e9 cd b3 c0
       -11.925237 -4.2958045 2.1412096 -5.6188855
0002c0 a0 bf a8 3f a4 21 47 3e 72 60 84 be 41 d7 04 bf
       1.3183479 0.19446427 -0.25854832 -0.5189095

exp_avg f4 [20, 416]
000000 9c 4f 4b 3b 2c 8e 8e 3a f4 c7 28 bb 23 f3 ce bb
       0.0031022793 0.0010876111 -0.0025753947 -0.0063156052
000010 ba 86 04 bb 0b 47 f2 39 74 e6 6e 3a 1e a9 05 bb
       -0.0020221905 0.00046210768 0.00091133197 -0.002039499
000020 24 9e 8a 3a 97 7b 80 bb 69 a3 db bb f1 d0 42 bb
       0.0010575694 -0.003920983 -0.0067028296 -0.002972659
000030 d3 53 41 39 47 a0 c7 ba 45 06 b7 b8 43 21 08 3a
       0.00018437141 -0.0015230261 -8.727288e-05 0.00051929447
000040 0b c7 64 bb ad 81 2f 3b 00 58 49 3a cd 87 54 bb
       -0.0034908678 0.0026780174 0.00076806545 -0.0032429576
000050 5a 16 13 bb 16 15 98 ba 8a d2 1e bb db f8 14 bb
       -0.0022443742 -0.0011602964 -0.0024234378 -0.0022731337
000060 24 18 d9 3a aa cd dd ba 20 1a f1 ba c1 46 29 ba
       0.0016562981 -0.0016922255 -0.0018394627 -0.00064573815
000070 3e f8 3f bb 25 29 03 3b 94 ed 13 bb 8c 7f a4 bb
       -0.002929225 0.0020013538 -0.0022572028 -0.0050200876
000080 ba b5 65 bb 0c c5 ea bb 22 f0 52 ba 03 d0 b2 ba
       -0.0035050944 -0.007164603 -0.0008046647 -0.0013642315
000090 a5 20 ae b9 cc 4b cd 3b d3 67 b2 3b 8a 1c 80 bb
       -0.00033212188 0.006265139 0.0054445057 -0.003909652
0000a0 ca d1 b2 39 8c 22 2f 3a 1c 82 15 ba a2 2e 9d 39
       0.0003410711 0.0006680868 -0.0005703287 0.00029980118
0000b0 3c 22 28 bb 46 56 31 39 5c e6 01 bb 05 36 f2 ba
       -0.002565517 0.00016912175 -0.0019821143 -0.0018479234
0000c0 ac 86 40 ba 1a 5a fb 3a f1 80 94 38 61 39 45 b9
       -0.00073442864 0.0019176633 7.081207e-05 -0.0001880876
0000d0 6f 94 25 ba ed 83 b6 ba 6b 30 db bb 15 c4 0a bb
       -0.0006316369 -0.0013924815 -0.0066891215 -0.0021174003
0000e0 13 ed 14 3a 82 d2 8a ba 33 41 7d 38 f9 4f 98 ba
       0.0005681079 -0.0010591301 6.0380622e-05 -0.0011620513
0000f0 c5 a4 a3 bb 3b 35 f6 ba 92 5e ac ba 96 0d f4 ba
       -0.0049940073 -0.0018784174 -0.0013150743 -0.0018619772
000100 57 43 6c 3a f8 07 1c bb b8 81 2d 3b 01 04 40 b9
       0.000901272 -0.002380846 0.0026475023 -0.00018312038
000110 dc fe 61 3a 35 73 b6 3a b6 4b 86 ba 93 bd b3 ba
       0.0008621046 0.0013919832 -0.0010245952 -0.0013713114
000120 69 07 06 3a 7b b0 9c ba 5c c7 43 bb a5 85 ea 37
       0.00051127985 -0.0011954451 -0.0029873466 2.7957207e-05
000130 28 3b 08 3a 19 5d 3a ba 10 f3 1e 3b b6 63 cd ba
       0.0005196803 -0.00071092095 0.0024253763 -0.0015669975
000140 aa 3f b0 bb a4 ae d6 b9 2d ac 9a b8 1c 19 ff ba
       -0.005378683 -0.00040947378 -7.3753625e-05 -0.0019462439
000150 e2 1e 84 ba 09 70 6a b9 df 9e 8b ba 10 14 8a bb
       -0.0010080005 -0.00022357715 -0.0010652206 -0.0042138174
000160 25 9b d4 b9 d8 e4 94 39 08 3b 5e 3a 0f e1 de ba
       -0.00040551383 0.00028399262 0.0008477424 -0.0017004329
000170 c9 31 89 bb 9f 08 2d b9 ce a7 68 bb 07 08 c2 ba
       -0.004186843 -0.00016501777 -0.003550041 -0.0014803418
000180 62 c5 83 ba b1 5c 15 bb cb b9 28 3b 39 52 8b ba
       -0.0010053331 -0.0022790844 0.0025745507 -0.0010629363
000190 98 9e d4 38 a7 43 43 3b 1d 87 3e 3b 19 07 1e bb
       0.00010138488 0.0029794963 0.0029072233 -0.0024113117
0001a0 cd c2 ac b9 72 db e2 ba 4d d4 10 bb e0 2e 88 b9
       -0.00032951534 -0.0017307831 -0.0022099197 -0.00025974866
0001b0 32 b0 4a bb 71 45 86 ba 04 86 60 3b 5d 64 e9 ba
       -0.0030927774 -0.0010244084 0.0034259567 -0.00178064
0001c0 ea 6f 87 ba ed 44 58 bb fb ce 50 bb 01 44 2a bb
       -0.0010333036 -0.0033000067 -0.0031861651 -0.0025980475
0001d0 7c fa 4c bb 97 40 82 3a 0d 91 29 bb b5 98 c9 b9
       -0.003127723 0.0009937462 -0.002587381 -0.00038451483
0001e0 0a ae 37 bb 8e ed 83 b9 f6 e8 56 39 c0 2e e9 ba
       -0.002802732 -0.0002516326 0.00020495415 -0.0017790422
0001f0 17 f4 ae b9 6a be 27 3a bd 0d 8d bb 85 20 c4 b8
       -0.00033369727 0.00063989183 -0.0043046162 -9.3520655e-05
000200 fa 77 15 bb 78 54 88 b9 30 9e 16 ba 39 86 76 39
       -0.0022807107 -0.00026002876 -0.00057456177 0.0002351039
000210 f4 b5 60 bb 86 03 50 b9 61 bb db b9 a8 d2 1e bb
       -0.003428814 -0.00019837738 -0.00041910543 -0.0024234448
000220 8c 91 16 3a 64 85 3e b6 0a 3a 94 bb 03 1f 4e ba
       0.0005743734 -2.838985e-06 -0.0045235204 -0.00078628975
000230 b2 1e bd 39 9a 17 ce b7 15 6c 8e ba 5e 5b f1 3a
       0.0003607176 -2.4568104e-05 -0.0010865951 0.001841407
000240 a3 a1 0a bb 60 6f 87 ba 7f 2b 41 ba 7b fa df ba
       -0.0021153472 -0.0010332875 -0.0007368847 -0.0017088199
000250 63 fb db ba e0 68 3e b8 4b 67 93 ba 29 0f 3b ba
       -0.0016783293 -4.5397202e-05 -0.0011245994 -0.0007135743
000260 4d 55 7e bb f6 e7 03 3b 89 ee 39 39 ab 91 70 ba
       -0.0038808167 0.0020127273 0.00017731836 -0.00091769797
000270 a1 bb 9e ba 7a 98 19 ba 9d 3a bd ba 91 1f 27 ba
       -0.0012110361 -0.00058592076 -0.0014437024 -0.0006375248
000280 89 50 89 3a 7b 7c 03 ba 63 2e 11 ba 0b 28 25 ba
       0.0010476272 -0.00050158025 -0.0005538223 -0.00063002174
000290 67 94 48 39 71 cf 4f ba d1 4b 60 bb 5c 46 a0 b9
       0.0001912877 -0.00079273345 -0.0034224878 -0.0003057
0002a0 73 40 fc ba c2 b6 8d 39 57 cc b2 39 ea 72 97 bb
       -0.0019245282 0.0002702978 0.0003410305 -0.004621853
0002b0 84 03 af b9 1a 49 6d bb cd ae 29 ba 0d ad 92 ba
       -0.0003338122 -0.0036206902 -0.0006472886 -0.0011190489
0002c0 a9 82 c4 b9 60 a5 15 3b a2 22 cc bb ce 89 e4 bb
       -0.00037481383 0.0022834167 -0.0062297145 -0.0069744354
0002d0 d0 8f 48 3a eb 06 13 ba b4 a8 fb ba 68 05 fa ba
       0.0007650824 -0.0005608636 -0.0019200058 -0.0019075098
0002e0 2a 87 57 bb 65 87 89 ba d0 d3 d6 b9 b5 ee 37 bb
       -0.003288696 -0.0010492621 -0.00040975073 -0.0028065864
0002f0 39 96 d7 3a c2 b3 5e 38 3d dd 59 ba 96 62 28 bb
       0.0016447968 5.3096337e-05 -0.000831086 -0.0025693527
000300 30 29 ca 3a 45 43 d5 3a cd fd 83 b9 01 38 a1 ba
       0.0015423652 0.0016270658 -0.00025175363 -0.0012300016
000310 e3 63 22 ba 54 37 0f ba 4b de 56 ba 5a cf f0 ba
       -0.0006194694 -0.00054632616 -0.00081965764 -0.0018372342
000320 cb 8f c0 ba e9 3b 18 bb e1 9f a9 b4 63 f9 8b b8
       -0.0014691291 -0.0023229069 -3.159503e-07 -6.6744884e-05
000330 e4 56 87 bb f1 51 42 3b 00 99 51 3a ac 67 3c 3a
       -0.004130231 0.0029650892 0.0007995516 0.0007187079
000340 21 17 36 3a 2a c8 28 bb 30 c5 e9 b8 cf 29 a2 b7
       0.00069461955 -0.0025754073 -0.00011147035 -1.9331374e-05
000350 23 23 85 bb 79 b6 09 ba 39 8f 9b ba f7 21 7b b9
       -0.0040630265 -0.0005253326 -0.0011868245 -0.00023949878
000360 8c ee 55 b9 09 1f 99 3a 32 0a 53 3a e8 55 22 ba
       -0.00020402129 0.0011682223 0.00080505305 -0.00061926106
000370 82 cb 69 bb 67 55 c6 37 ff 05 a9 ba de 54 51 bb
       -0.0035674279 2.3643208e-05 -0.0012895464 -0.0031941454
000380 d7 3c 64 b9 a4 05 60 3a 15 10 cc 3a 42 e2 bd 3a
       -0.00021766439 0.00085457624 0.0015568758 0.0014486986
000390 32 06 4a bb 03 f7 a2 ba 90 e4 93 3b 1c e6 ee ba
       -0.0030826447 -0.0012433234 0.0045133308 -0.0018226537
0003a0 1b 99 b9 3a 8a 88 a4 39 17 ac e7 37 35 b8 14 3b
       0.0014160009 0.00031382247 2.7617481e-05 0.0022692804
0003b0 1a 3e 0e bb e1 4a 00 bb 23 55 88 3a 98 10 27 bc
       -0.0021704496 -0.0019575881 0.0010401349 -0.010196827
0003c0 3d 73 20 37 92 d7 0f ba 5b b6 7e ba 73 c4 ba 3a
       9.563574e-06 -0.00054871396 -0.0009716504 0.001424922
0003d0 9d 23 ff ba 62 51 f8 ba 8b d4 12 bb f4 4f fd ba
       -0.001946557 -0.0018945152 -0.0022404518 -0.0019326196
0003e0 84 d2 1e 3a 65 84 9e 39 d3 3a 1b bb 0f da 2e 3b
       0.0006058591 0.0003023475 -0.0023686185 0.0026680266
0003f0 19 9f 94 ba 70 40 5a bb 54 fa 91 3b af 49 5e ba
       -0.0011338919 -0.0033302568 0.0044548903 -0.00084796076

exp_avg_sq f4 [20, 416]
000000 b1 10 6a 39 b7 71 5e 39 eb 92 0e 39 52 3a 51 39
       0.00022322197 0.00021213932 0.00013596907 0.00019953519
000010 fa 85 c2 39 65 fe ef 38 32 4d 53 39 d8 4c 0c 39
       0.00037102384 0.00011443793 0.00020151286 0.00013380067
000020 13 27 3f 39 06 ee 43 39 94 0e 47 39 b6 6f 33 39
       0.00018229736 0.0001868532 0.0001898355 0.00017112386
000030 9a e8 43 39 d6 92 83 39 30 fe 3b 39 08 92 86 39
       0.000186833 0.00025095668 0.00017928402 0.00025667273
000040 75 81 94 39 ce 56 56 39 d4 c6 02 39 f6 00 50 39
       0.00028325213 0.00020440968 0.00012471835 0.00019836784
000050 e5 59 8b 39 dc 0a 61 39 ac c8 78 39 82 f5 35 39
       0.00026579123 0.00021461718 0.00023725879 0.00017352964
000060 f4 d7 04 39 97 cf 54 39 d1 59 46 39 78 00 00 39
       0.0001266895 0.00020295229 0.0001891621 0.00012207206
000070 69 4c 28 39 95 e8 27 39 12 8c 54 39 04 3e 82 39
       0.00016050194 0.00016013005 0.00020270076 0.00024841737
000080 9c 73 1b 39 83 ad 8e 39 3f c0 37 39 2b 02 09 39
       0.0001482502 0.00027213627 0.00017523857 0.00013066146
000090 2d b8 74 39 7b 01 5b 39 16 57 a9 39 e2 5a 61 39
       0.00023338264 0.00020886019 0.00032299076 0.00021491529
0000a0 9b 38 0f 39 92 8c 70 39 08 94 49 39 f9 3e ee 38
       0.0001365863 0.0002294055 0.00019224 0.00011360454
0000b0 38 3b 26 39 c7 60 e7 38 3e 68 2e 39 bc d3 4b 39
       0.00015853054 0.000110329645 0.00016632766 0.00019438466
0000c0 18 d7 17 39 ea 6a 64 39 77 41 43 39 f8 56 08 39
       0.00014480611 0.00021783603 0.00018621037 0.00013002369
0000d0 03 a4 e7 38 b7 d5 ce 38 38 27 b7 38 f9 51 a4 38
       0.00011045488 9.862653e-05 8.733425e-05 7.835398e-05
0000e0 ff 0b 11 39 f5 29 92 38 dd 0e 07 39 dd bb b7 38
       0.00013832746 6.9696376e-05 0.0001288014 8.761112e-05
0000f0 b9 1d b5 38 86 02 df 38 f7 13 47 39 9d 8d a8 38
       8.636289e-05 0.00010633939 0.00018985556 8.037242e-05
000100 9d 28 f9 38 a0 b7 b7 38 80 a8 0f 39 4f 9c b8 38
       0.0001188081 8.760323e-05 0.00013700314 8.8029185e-05
000110 67 2e d3 38 83 46 ac 38 c1 d8 aa 38 51 9d b0 38
       0.00010069907 8.214733e-05 8.146605e-05 8.4216364e-05
000120 1d 72 0e 39 db 65 87 38 87 13 e6 38 00 63 01 39
       0.00013584686 6.456274e-05 0.00010970892 0.00012339279
000130 0d 3b a6 38 1b 2c a1 38 5c e5 16 39 83 6f 8a 38
       7.926496e-05 7.6852935e-05 0.00014390558 6.6011235e-05
000140 0f ba ec 38 c4 59 02 39 21 95 09 39 bd 93 c7 38
       0.00011288013 0.00012431206 0.00013120893 9.516578e-05
000150 b0 16 92 38 65 dd a1 38 ac 49 ef 38 f1 1f b6 38
       6.9660484e-05 7.718316e-05 0.000114101305 8.684386e-05
000160 a9 53 b2 38 96 24 9a 38 56 fa c2 38 d7 eb e7 38
       8.503284e-05 7.350107e-05 9.2972696e-05 0.00011058867
000170 b2 47 e6 38 98 8e 94 38 fc 4f 50 39 85 58 9f 38
       0.00010980609 7.08375e-05 0.00019866222 7.598199e-05
000180 b3 87 e1 38 43 12 1d 39 e7 b7 eb 38 19 5b de 38
       0.00010754112 0.0001497949 0.00011239928 0.00010602753
000190 77 ff a3 38 65 ad bf 38 44 07 ea 38 7f 6c bd 38
       7.82003e-05 9.139887e-05 0.00011159343 9.032431e-05
0001a0 5d 05 89 38 7d 41 60 38 66 0e b4 38 12 18 5e 38
       6.533668e-05 5.3466752e-05 8.585751e-05 5.295134e-05
0001b0 7e 12 46 38 cf 9d 7e 38 af 2b 9b 38 bb 51 82 38
       4.72241e-05 6.070529e-05 7.399113e-05 6.2141065e-05
0001c0 72 8e 51 38 e4 28 6f 38 5c b9 6a 38 79 3f 4a 38
       4.9962146e-05 5.7020123e-05 5.5962577e-05 4.8219666e-05
0001d0 7a b5 6b 38 2d 5a 86 38 e9 78 45 38 cd 37 88 38
       5.619738e-05 6.4064145e-05 4.7081066e-05 6.495379e-05
0001e0 bc 8f 71 38 a2 42 6b 38 56 84 88 38 d7 66 5a 38
       5.759274e-05 5.6090423e-05 6.509635e-05 5.2071027e-05
0001f0 6c 06 a7 38 c8 a4 8c 38 43 14 a7 38 57 90 a2 38
       7.964377e-05 6.706413e-05 7.9669546e-05 7.751647e-05
000200 9a 94 52 38 8c 1d 82 38 34 ff 83 38 26 c7 68 38
       5.0206298e-05 6.2043866e-05 6.294102e-05 5.549858e-05
000210 27 d0 75 38 e0 dd 71 38 74 6d 70 38 16 19 a2 38
       5.860641e-05 5.7665515e-05 5.7322395e-05 7.7294346e-05
000220 47 cb 69 38 f6 7a 27 38 8e 62 8e 38 27 a0 69 38
       5.5740846e-05 3.993042e-05 6.789445e-05 5.5700682e-05
000230 70 20 72 38 c2 c5 b8 38 4e d7 8c 38 d5 22 85 38
       5.7727506e-05 8.810639e-05 6.715824e-05 6.348422e-05
000240 03 92 80 38 a5 7a b7 38 2e 27 e8 38 7d 5a 80 38
       6.1307124e-05 8.748964e-05 0.0001106992 6.1203704e-05
000250 0c e9 7a 38 63 4b 5e 38 26 59 82 38 c2 a2 96 38
       5.9821687e-05 5.2999134e-05 6.215488e-05 7.1828734e-05
000260 3a cf 41 38 86 4f 9d 38 0a c7 96 38 91 71 6e 38
       4.620778e-05 7.501156e-05 7.189631e-05 5.684939e-05
000270 63 8a a4 38 3f 31 81 38 4f 98 a7 38 c1 1c 9c 38
       7.845906e-05 6.160372e-05 7.99155e-05 7.4440155e-05
000280 ed 8f 95 38 d2 64 b3 38 23 4d 96 38 3b be ac 38
       7.131682e-05 8.5541644e-05 7.166925e-05 8.237032e-05
000290 2e 8f c0 38 84 d3 b0 38 70 f8 9c 38 74 f5 78 38
       9.181943e-05 8.431732e-05 7.484935e-05 5.9356404e-05
0002a0 2e c2 86 38 7e 08 59 38 83 d3 9d 38 f0 ed bd 38
       6.425787e-05 5.174474e-05 7.5257405e-05 9.0565416e-05
0002b0 06 3d a9 38 76 87 80 38 d6 1e b0 38 93 c6 71 38
       8.0699145e-05 6.128747e-05 8.3980776e-05 5.7643814e-05
0002c0 9f cb a2 38 de bc 8d 38 3d 6a a1 38 a7 7a c1 38
       7.762689e-05 6.758583e-05 7.696867e-05 9.225803e-05
0002d0 f8 0f a3 38 47 0a b9 38 9b ad 82 38 94 7c a7 38
       7.77542e-05 8.823402e-05 6.2312196e-05 7.986385e-05
0002e0 f3 7a 8b 38 52 4f 74 38 ab f4 90 38 e0 4e a6 38
       6.6509376e-05 5.8248006e-05 6.912028e-05 7.9301884e-05
0002f0 9c 15 99 38 f0 11 89 38 a8 92 9e 38 91 06 7c 38
       7.2996336e-05 6.53601e-05 7.561344e-05 6.0087597e-05
000300 1b ea ca 38 f0 d2 6e 38 32 79 99 38 a5 13 8e 38
       9.675716e-05 5.6940073e-05 7.318183e-05 6.774747e-05
000310 43 e7 a9 38 95 a1 80 38 da 48 90 38 61 57 93 38
       8.101624e-05 6.1336126e-05 6.880025e-05 7.025782e-05
000320 1e 0f 98 38 67 52 8b 38 38 a2 97 38 62 f3 7e 38
       7.2507406e-05 6.643385e-05 7.230457e-05 6.0784987e-05
000330 02 83 ab 38 ce 8d 89 38 89 0f ba 38 ca 96 78 38
       8.1783175e-05 6.559082e-05 8.872065e-05 5.926824e-05
000340 2c df e5 38 3e 18 e8 38 a5 ec 15 39 7f 93 d0 38
       0.0001096114 0.000110671375 0.00014297904 9.945686e-05
000350 d4 1a 3a 39 21 7b 05 39 00 56 dd 38 98 08 61 39
       0.00017748337 0.00012729738 0.0001055412 0.00021460874
000360 f3 90 04 39 e9 d0 f1 38 fc 36 c7 38 f6 e2 3d 39
       0.00012642499 0.00011530688 9.499301e-05 0.00018108994
000370 25 74 a0 39 bb 7d 0a 39 4a b5 5a 39 45 16 31 39
       0.00030604113 0.00013207544 0.00020857636 0.00016888331
000380 56 78 e5 38 8e 69 ee 38 00 6d ea 38 9c 32 0d 39
       0.00010941985 0.000113683855 0.00011178292 0.00013465661
000390 bd a6 62 39 ab bb bc 38 f8 97 a0 38 09 ad 37 39
       0.00021615154 8.9994945e-05 7.657701e-05 0.000175167
0003a0 7e a8 c5 38 42 57 40 39 a9 e4 c1 38 19 3d 56 39
       9.425076e-05 0.00018343053 9.2455484e-05 0.00020431391
0003b0 de 2c 6f 39 e8 0b 1e 39 58 fa 4a 39 14 d3 27 39
       0.0002280953 0.0001507249 0.00019357482 0.00016004994
0003c0 13 90 ff 38 a4 a5 0f 39 12 34 e6 38 61 4f 06 39
       0.000121861834 0.00013699249 0.000109769535 0.00012808807
0003d0 bc c1 4b 39 0f b6 13 39 e2 3c a4 38 70 69 1e 39
       0.0001943176 0.00014086835 7.83147e-05 0.00015107333
0003e0 e7 9d f3 38 93 b2 88 39 c0 bd bc 38 2a d4 6a 39
       0.000116165545 0.0002607299 8.999882e-05 0.00022395016
0003f0 86 71 f5 38 be 62 f9 38 01 b4 2a 39 1f 57 3f 39
       0.00011703656 0.000118916374 0.0001627952 0.00018247635

exp_avg f4 [20, 20]
000000 00 00 00 00 2c 6f 1b b9 b0 01 c1 b8 62 9a 78 ba
       0.0 -0.00014823367 -9.2032715e-05 -0.0009483454
000010 69 28 8c 39 a7 e2 ac b9 2d 61 7c b9 c9 f9 62 b9
       0.0002673299 -0.00032975266 -0.00024068794 -0.00021646092
000020 13 c7 8d 35 51 99 32 b2 04 00 00 00 22 14 46 ba
       1.0563257e-06 -1.0395824e-08 6e-45 -0.00075561006
000030 c4 42 c4 b8 04 00 00 00 99 ca 0e 39 76 4a da b8
       -9.3584444e-05 6e-45 0.00013617649 -0.000104089195
000040 49 73 8a 36 92 fb 9c 39 c3 21 bf b6 04 00 00 00
       4.1261414e-06 0.00029942073 -5.696174e-06 6e-45
000050 a1 74 04 39 00 00 00 00 b9 66 c2 b9 e5 ea e0 ba
       0.00012631949 0.0 -0.00037079098 -0.0017159848
000060 a6 da e5 b8 21 85 18 b9 db 38 4a bb b4 d7 50 3a
       -0.000109602974 -0.00014545444 -0.0030856642 0.00079667126
000070 84 05 ca 34 c5 22 de 33 04 00 00 00 9f cf b8 ba
       3.7629445e-07 1.0344005e-07 6e-45 -0.0014099962
000080 97 e5 2b b8 04 00 00 00 7b 33 84 39 78 fd 97 b9
       -4.09834e-05 6e-45 0.00025215358 -0.00028989813
000090 5f 47 a0 38 8f fa 94 bb 9b 52 bd b7 04 00 00 00
       7.6426884e-05 -0.0045464705 -2.2569022e-05 6e-45
0000a0 0d ed 3d ba 50 60 5c b8 00 00 00 00 90 15 07 bb
       -0.0007245101 -5.2541785e-05 0.0 -0.0020612217
0000b0 ce 84 d8 b7 8f 63 a8 b8 b5 29 9c bb 7d cf 9c ba
       -2.5811049e-05 -8.0294085e-05 -0.004765714 -0.0011963692
0000c0 a7 1c cf 35 6b b7 00 35 04 00 00 00 43 0a 04 bb
       1.5431041e-06 4.7950624e-07 6e-45 -0.0020147718
0000d0 ae 41 01 b9 04 00 00 00 8d 6f 4b ba b0 dc a6 b9
       -0.00012326866 6e-45 -0.0007760458 -0.00031826412
0000e0 24 b1 38 38 98 2c 3e bc 59 98 25 ba 04 00 00 00
       4.4033994e-05 -0.011607312 -0.0006316952 6e-45
0000f0 aa 81 53 ba 95 e3 59 37 41 20 a2 b8 00 00 00 00
       -0.00080683327 1.2987196e-05 -7.73077e-05 0.0
000100 96 5e 0d ba a7 3a aa ba df cf ce bb 54 eb 4f bb
       -0.00053928175 -0.001298745 -0.0063114013 -0.003172596
000110 a9 ca da b5 a9 62 ef b4 04 00 00 80 d8 4b 20 bb
       -1.6301248e-06 -4.4589004e-07 -6e-45 -0.002445927
000120 b9 ad 88 37 04 00 00 80 a0 0d 5f ba d2 61 b7 36
       1.629336e-05 -6e-45 -0.0008508805 5.465213e-06
000130 83 64 9e b7 90 40 ac bc 8f 36 0d ba 04 00 00 80
       -1.8881872e-05 -0.02102688 -0.0005386853 -6e-45
000140 d9 61 b7 b9 6d f3 26 b9 20 9f 6a b9 b0 79 9d ba
       -0.00034977382 -0.00015921677 -0.00022375258 -0.0012014415
000150 00 00 00 00 70 3d 3f ba d7 e8 9d ba e1 b0 88 37
       0.0 -0.00072952267 -0.0012047541 1.6294829e-05
000160 a4 ce bd b5 0a 22 46 b5 04 00 00 80 17 7b 81 ba
       -1.4141738e-06 -7.381028e-07 -6e-45 -0.0009878603
000170 1e 28 0c b8 04 00 00 80 99 b9 c8 37 55 d8 b1 b9
       -3.3415963e-05 -6e-45 2.3928284e-05 -0.0003392125
000180 23 78 51 b7 1f 4e 89 b9 6f c1 f6 38 04 00 00 80
       -1.2485342e-05 -0.0002618888 0.00011766224 -6e-45
000190 86 12 0e 39 ba f5 ad b8 49 cb b5 b9 66 e2 e7 b9
       0.00013549076 -8.295053e-05 -0.0003467447 -0.00044228433
0001a0 97 23 6b b7 00 00 00 00 f4 64 c0 b9 69 8e 0c 3a
       -1.4015378e-05 0.0 -0.0003669631 0.0005361797
0001b0 34 76 73 35 c9 8c 28 34 04 00 00 00 f5 ba 9a ba
       9.069656e-07 1.5697437e-07 6e-45 -0.0011804985
0001c0 2b da c3 b8 04 00 00 00 9c 86 94 b8 8a 8d 94 b9
       -9.3389615e-05 6e-45 -7.082263e-05 -0.00028334215
0001d0 04 88 0e 38 55 e9 99 3a 40 75 c9 b9 04 00 00 00
       3.3982113e-05 0.0011742512 -0.00038425066 6e-45
0001e0 a0 52 30 3a 42 1e 39 b7 33 83 88 b8 6d 7a a1 ba
       0.0006726179 -1.1033904e-05 -6.509423e-05 -0.0012319811
0001f0 99 48 91 b9 22 a4 9b b9 00 00 00 00 81 0d 4f 3a
       -0.00027710645 -0.00029686192 0.0 0.00078984356
000200 40 a3 ce 34 2f 65 92 33 04 00 00 00 5e d2 ac ba
       3.848927e-07 6.81706e-08 6e-45 -0.0013185253
000210 be dd ed 37 04 00 00 00 e7 3d 88 39 cb 16 32 b9
       2.8355858e-05 6e-45 0.00025986062 -0.00016983894
000220 43 ad c8 38 22 bd 18 bc c2 d2 bf b9 04 00 00 00
       9.569016e-05 -0.0093224365 -0.00036587386 6e-45
000230 69 27 51 39 b6 59 94 b9 3c f4 b7 b9 7f 73 63 38
       0.00019946475 -0.000282956 -0.0003508645 5.422858e-05
000240 f4 70 b1 39 c7 2e 07 b9 6a a9 39 3a 00 00 00 00
       0.00033844227 -0.00012892029 0.00070824346 0.0
000250 19 a6 70 36 0e 64 20 35 04 00 00 00 04 72 26 ba
       3.5859468e-06 5.9750244e-07 6e-45 -0.0006349387
000260 15 95 85 b9 04 00 00 00 68 e8 fe 38 a7 e3 17 b9
       -0.00025478812 6e-45 0.00012154953 -0.0001448529
000270 78 fb 16 38 29 61 90 3b d6 5f 49 39 04 00 00 00
       3.5996985e-05 0.0044061136 0.00019204555 6e-45
000280 a4 cf 03 3a db 2d 84 37 bf b1 bc 37 36 06 8a 39
       0.0005028194 1.575698e-05 2.2494116e-05 0.0002632604
000290 e1 75 3b 38 e2 58 ef 38 b4 8b 6c 39 70 70 64 3a
       4.4694058e-05 0.00011412964 0.00022558757 0.0008714264
0002a0 00 00 00 00 6a 27 f6 b4 04 00 00 80 99 24 58 39
       0.0 -4.5849748e-07 -6e-45 0.00020612999
0002b0 b7 88 bf 37 04 00 00 80 ee 49 53 39 fd ae d7 37
       2.2832637e-05 -6e-45 0.00020150069 2.5711483e-05
0002c0 a8 3c 6d 36 e2 9e 9f 3a ab 5e 0d 39 04 00 00 80
       3.5351059e-06 0.0012178088 0.00013482074 -6e-45
0002d0 c8 f7 5a 39 06 76 a5 37 22 14 f2 37 49 7e 3d 39
       0.00020882406 1.9724492e-05 2.8858023e-05 0.0001807149
0002e0 6a 5b 77 37 26 6f 2d 38 35 d1 7a 38 37 d6 af 39
       1.4743631e-05 4.134993e-05 5.9799484e-05 0.00033538204
0002f0 0a 10 3c 36 00 00 00 00 04 00 00 00 16 83 04 39
       2.802352e-06 0.0 6e-45 0.00012637334
000300 81 30 7d 37 04 00 00 00 44 25 ca 38 e2 af 68 36
       1.5091268e-05 6e-45 9.639052e-05 3.4673071e-06
000310 75 ee c7 36 de 51 df 39 9e 3d 62 38 04 00 00 00
       5.958422e-06 0.0004259487 5.3939984e-05 6e-45
000320 46 be 32 39 95 9a 20 35 d4 05 a9 b5 32 4b 98 38
       0.00017046285 5.982959e-07 -1.2593177e-06 7.261931e-05
000330 fa 31 09 37 c2 7e 27 38 d9 5f 88 38 c1 db a0 39
       8.177472e-06 3.9933955e-05 6.5028384e-05 0.00030681308
000340 10 72 e1 b2 3f d9 c0 b1 00 00 00 00 9c 27 83 38
       -2.6245317e-08 -5.6126335e-09 0.0 6.2539446e-05
000350 12 0c 90 34 04 00 00 80 d9 bb 7f 38 8e da a0 36
       2.6830872e-07 -6e-45 6.0971684e-05 4.7938147e-06
000360 06 4a b7 35 dc cf da 39 f6 99 3a 38 04 00 00 00
       1.3656106e-06 0.00041735067 4.4489243e-05 6e-45
000370 c3 52 1b ba 81 92 63 38 93 02 c9 b8 17 7c 7b bb
       -0.0005925113 5.425746e-05 -9.5849064e-05 -0.0038373524
000380 8a 98 a6 b9 73 03 8f ba ef da e6 bb 19 aa 6e bb
       -0.00031775638 -0.0010911062 -0.007045142 -0.0036417304
000390 28 9f aa b5 c6 09 bb b4 04 00 00 80 00 00 00 00
       -1.2712308e-06 -3.4838575e-07 -6e-45 0.0
0003a0 04 fe 37 b8 04 00 00 80 e1 9d 80 ba a4 cf ff 38
       -4.386717e-05 -6e-45 -0.0009812677 0.000121980236
0003b0 99 da 36 37 1f c9 c3 bc 5d db 35 ba 04 00 00 80
       1.0898942e-05 -0.023899613 -0.000693729 -6e-45
0003c0 67 ba 9b b9 a6 6d b0 b8 d8 cb f8 b9 30 75 13 bb
       -0.00029702784 -8.4127576e-05 -0.00047454122 -0.002250027
0003d0 56 96 80 b9 69 d4 87 b9 fd c2 62 bb 3d 11 2d 3a
       -0.00024526072 -0.00025907464 -0.0034601085 0.0006601995
0003e0 90 69 6b 34 c9 23 60 33 04 00 00 00 4e ea f4 ba
       2.1924484e-07 5.218661e-08 6e-45 -0.0018685551
0003f0 00 00 00 00 04 00 00 00 f0 c8 09 39 36 2d ac b9
       0.0 6e-45 0.00013140193 -0.0003284008

exp_avg_sq f4 [20, 20]
000000 00 00 00 00 89 d0 23 35 29 5d 00 36 1a fa a0 37
       0.0 6.102569e-07 1.9127713e-06 1.9189949e-05
000010 aa 00 3a 35 7a 0b 06 36 e9 10 c1 37 cf 94 1a 37
       6.9291366e-07 1.9974236e-06 2.3015267e-05 9.2137625e-06
000020 1d b2 fa 2f 94 63 b1 2d 57 1b b2 2b a1 29 56 37
       4.5601292e-10 2.0166792e-11 1.2655249e-12 1.27650865e-05
000030 a5 8b a2 34 10 c6 2a 2b e2 73 49 36 24 f1 90 35
       3.0276456e-07 6.0671e-13 3.0018787e-06 1.0799017e-06
000040 a9 78 d7 32 8a 79 e2 38 10 f0 81 35 40 be 28 29
       2.5084164e-08 0.00010799158 9.681116e-07 3.746851e-14
000050 fb 92 a9 37 00 00 00 00 94 37 bb 35 05 47 3b 38
       2.0214813e-05 0.0 1.3948761e-06 4.4650416e-05
000060 ae 8d b6 35 c2 2b 86 36 88 d0 82 38 58 cf f9 37
       1.3601291e-06 3.9986053e-06 6.237725e-05 2.9779665e-05
000070 9c 40 e5 2e e8 75 9f 2c 9b 3c 9d 2a 87 0b e7 37
       1.0425191e-10 4.532142e-12 2.7930856e-13 2.7542714e-05
000080 06 5c 86 33 5d d8 06 2a 2b 83 da 36 7d 6b 93 35
       6.2566e-08 1.1976657e-13 6.5121762e-06 1.0983637e-06
000090 e3 f1 66 34 39 c1 95 39 f0 6a 8c 36 54 95 9c 27
       2.1508417e-07 0.00028563457 4.1847743e-06 4.34606e-15
0000a0 1d ec 21 38 b6 1a d1 34 00 00 00 00 dc 8d 80 38
       3.860529e-05 3.8948718e-07 0.0 6.129939e-05
0000b0 b8 6e 63 35 5a 25 b4 36 c7 bd e5 38 ac eb 88 38
       8.4725207e-07 5.3687663e-06 0.0001095492 6.528883e-05
0000c0 da a7 61 30 46 5c 4e 2e 03 95 3b 2c ee 36 28 38
       8.2093055e-10 4.6920932e-11 2.6657016e-12 4.010548e-05
0000d0 cb 98 59 34 7d 7f 4c 2b 32 41 87 37 a6 50 f3 35
       2.0265286e-07 7.2652285e-13 1.6123613e-05 1.8128383e-06
0000e0 28 3c cf 33 64 bd 2e 3a 84 33 14 37 77 ee a4 28
       9.650131e-08 0.00066657946 8.833482e-06 1.8311075e-14
0000f0 2e 12 6f 38 11 83 0b 35 f0 4e cc 35 00 00 00 00
       5.699897e-05 5.197226e-07 1.5222158e-06 0.0
000100 bc a2 5b 36 ea 74 5c 37 71 07 4d 39 e8 8f ee 38
       3.2728267e-06 1.3140243e-05 0.00019553096 0.00011375529
000110 bf d2 cd 2f ed c8 53 2e ee dc 36 2c 2e 8e bf 37
       3.7439027e-10 4.8154303e-11 2.5986396e-12 2.2835182e-05
000120 9b b3 40 34 89 fe 9b 2b 8c 7a 5e 37 5b fc 7b 36
       1.7946734e-07 1.108406e-12 1.3260764e-05 3.7548805e-06
000130 f3 5f d4 32 72 36 95 3a 76 d5 cd 36 5b c6 bd 29
       2.472368e-08 0.0011384024 6.134326e-06 8.427695e-14
000140 37 37 d6 37 e5 da 9b 35 b0 cc e5 35 d5 29 0b 38
       2.55365e-05 1.1612107e-06 1.7121401e-06 3.317914e-05
000150 00 00 00 00 82 2b b7 36 8d 50 6e 38 1e 6f c2 37
       0.0 5.45889e-06 5.681864e-05 2.3178345e-05
000160 95 d7 9c 30 79 65 c7 2e 1c 2b ca 2c 06 39 a1 37
       1.1411766e-09 9.0674974e-11 5.7459714e-12 1.921925e-05
000170 7b 6d 12 35 eb 4a 25 2c 4b c6 6c 36 6d bc 7d 36
       5.4548553e-07 2.3489498e-12 3.5282162e-06 3.7809616e-06
000180 00 c2 29 34 82 a6 29 39 57 f3 47 36 9e 26 df 29
       1.5809928e-07 0.00016179125 2.9794953e-06 9.9098884e-14
000190 08 4a a2 37 01 65 01 34 6e 1c b7 34 91 a0 ad 37
       1.9346378e-05 1.2050806e-07 3.4107092e-07 2.0697977e-05
0001a0 b9 35 d7 34 00 00 00 00 e5 91 53 37 4a 51 9b 37
       4.008596e-07 0.0 1.2610549e-05 1.8515293e-05
0001b0 f9 bb 8e 2e c5 2a 7d 2c b5 40 68 2a ad 31 79 37
       6.490803e-11 3.5977204e-12 2.0628189e-13 1.4853123e-05
0001c0 6c 4f 82 33 79 e9 06 2a 0d 1e 31 36 cc 5e 68 35
       6.0680435e-08 1.1982593e-13 2.6392547e-06 8.656468e-07
0001d0 4a 8e bb 33 0c cf be 38 5d 25 a6 36 65 91 77 28
       8.733748e-08 9.0984715e-05 4.951535e-06 1.3742782e-14
0001e0 eb eb 5d 38 85 77 dd 33 d9 7c 66 35 87 e6 93 38
       5.291022e-05 1.0312855e-07 8.5863354e-07 7.052445e-05
0001f0 c3 d9 68 35 1e 10 3b 36 00 00 00 00 7b 2e 94 38
       8.674362e-07 2.7874553e-06 0.0 7.0658476e-05
000200 a6 7a c4 2e 7a b8 11 2d a7 dc 5b 2b 2e 7c 3a 38
       8.934835e-11 8.283258e-12 7.8110646e-13 4.4461507e-05
000210 98 f3 41 33 2b f0 db 2a 8b 48 7d 37 88 9b 09 35
       4.515786e-08 3.9068865e-13 1.5096865e-05 5.1262805e-07
000220 49 c7 5b 34 5e 8f 1e 3a aa 12 60 37 b5 db 69 28
       2.0468464e-07 0.0006048585 1.3355786e-05 1.298174e-14
000230 64 22 bb 36 d9 3a 48 35 06 9c 3f 36 e5 95 a3 37
       5.577038e-06 7.459144e-07 2.8552035e-06 1.9500914e-05
000240 20 f8 1f 35 bd 2f c5 35 69 db a5 37 00 00 00 00
       5.9593185e-07 1.4691537e-06 1.9771704e-05 0.0
000250 3b 97 75 30 81 36 22 2e 02 cc 06 2c bd 0d 55 37
       8.934539e-10 3.6882945e-11 1.9155792e-12 1.2698988e-05
000260 97 8a e0 34 16 88 16 2b 8b 97 40 36 43 04 52 35
       4.182409e-07 5.347956e-13 2.869844e-06 7.82373e-07
000270 3e 46 00 33 70 5a c0 38 09 05 47 35 51 f2 fb 28
       2.9866207e-08 9.172119e-05 7.4140604e-07 2.7971686e-14
000280 b2 9f 4e 35 b7 6f 43 34 af a4 4f 34 a4 75 65 36
       7.697337e-07 1.8201432e-07 1.9338289e-07 3.4192135e-06
000290 02 bc c1 33 db b3 46 34 3c 4a 1e 36 0a 1e c4 35
       9.021461e-08 1.8505618e-07 2.3587045e-06 1.461188e-06
0002a0 00 00 00 00 34 aa 44 2e 65 19 e8 2b d7 ca f2 35
       0.0 4.471641e-11 1.649164e-12 1.8089439e-06
0002b0 38 33 1d 34 ca 20 9b 2b 87 05 62 34 30 5a 58 34
       1.4640398e-07 1.1022513e-12 2.1049901e-07 2.0149378e-07
0002c0 a4 39 48 32 0a be 45 37 4a 2e a8 33 e2 87 34 29
       1.1654638e-08 1.1786362e-05 7.8315296e-08 4.008589e-14
0002d0 27 de c5 33 25 09 37 32 3e f9 2b 33 24 e2 5f 34
       9.2139366e-08 1.0654081e-08 4.0040725e-08 2.0850763e-07
0002e0 05 8f 02 31 08 00 2e 32 7a be 00 34 b7 a7 89 34
       1.8998787e-09 1.012814e-08 1.1990224e-07 2.5640267e-07
0002f0 a0 14 09 30 00 00 00 00 10 30 ae 2b 73 0a f5 33
       4.986962e-10 0.0 1.2376784e-12 1.1410602e-07
000300 50 f3 0e 32 c1 58 8c 2a 8a de 65 33 9e 8b be 31
       8.320811e-09 2.493058e-13 5.3520615e-08 5.5456004e-09
000310 34 35 b9 30 2f 5d 0e 36 56 f7 3f 32 14 df c2 27
       1.3475643e-09 2.121389e-06 1.1173901e-08 5.408768e-15
000320 0f 7c 64 33 b1 f4 ba 30 d3 93 8b 31 3a 46 e4 33
       5.3198217e-08 1.3602827e-09 4.062238e-09 1.06298515e-07
000330 d4 bb 1d 31 89 40 0d 32 72 5a b3 33 3b d4 24 34
       2.2953275e-09 8.221954e-09 8.351789e-08 1.5350899e-07
000340 8b 46 ea 2e fa 22 ca 2d 00 00 00 00 05 3e 4c 33
       1.0653619e-10 2.2980274e-11 0.0 4.7553858e-08
000350 28 be a3 30 1e 55 4f 2b 8b 89 89 32 f0 da 16 31
       1.1913857e-09 7.3659297e-13 1.6011446e-08 2.1952324e-09
000360 45 69 56 2f 77 5d a5 35 dd 50 a6 31 09 c1 0c 29
       1.9500586e-10 1.232066e-06 4.840429e-09 3.1253676e-14
000370 1f 99 a4 38 1d 5c 92 35 d2 e2 91 36 32 87 7e 38
       7.8486504e-05 1.0904656e-06 4.347742e-06 6.068423e-05
000380 7d 09 2f 36 39 d1 6f 37 12 b4 80 39 97 35 23 39
       2.6082555e-06 1.4294224e-05 0.00024548225 0.00015564855
000390 35 79 78 2f 4e 82 b2 2e 85 a4 42 2c 00 00 00 00
       2.259853e-10 8.1176496e-11 2.7660385e-12 0.0
0003a0 bb 6e a3 34 ba 85 28 2c 4e dd ce 37 5f ef b3 36
       3.0441683e-07 2.394847e-12 2.4660167e-05 5.362482e-06
0003b0 04 1b e5 32 ba 2e d1 3a 6e 66 38 37 83 3c 96 2a
       2.6671394e-08 0.001595936 1.0991103e-05 2.668734e-13
0003c0 b4 98 c5 37 c8 c5 65 34 0b 0f e3 35 29 76 84 38
       2.3555338e-05 2.139924e-07 1.6917196e-06 6.3162595e-05
0003d0 6f da f5 35 2d 6a ab 36 96 bd a8 38 7d 1c 0d 38
       1.8317495e-06 5.1085576e-06 8.0461774e-05 3.364355e-05
0003e0 e4 8e fb 2e 9d 2c c8 2c db 20 8d 2a dd 29 1c 38
       1.1439541e-10 5.689295e-12 2.506943e-13 3.7232287e-05
0003f0 00 00 00 00 90 41 56 2a 16 b9 e5 36 34 33 01 36
       0.0 1.9029765e-13 6.8462787e-06 1.9252302e-06
