checkpoints/RNN_16.pt (torch, 111341 bytes, 9 tensors)

snn.l1.input_weights f4 [20, 416]
-0.26235712 -0.35107812 -0.4148022 -0.9581083 -0.49884182 -1.0875567 -0.93385166 -1.1187063
-0.85085547 -0.29573074 -0.8212772 -0.9437016 -0.77441525 -0.8060461 -0.8978609 -0.5420553
-0.32144028 -0.70530957 -0.68683296 -0.6020975 -0.95699924 -0.5258822 -0.7279248 -0.23316787
-0.7701658 -0.20046885 -0.6619702 -0.2708362 -0.64218396 -0.6875362 -0.6725501 -0.30173936
-1.1991644 -0.89589614 -0.7995932 -0.45810604 -0.63580555 -0.8085491 -0.88365865 -1.0185347
-1.1128308 -0.2807089 -0.94457334 -0.8159265 -0.7825727 -0.303377 -0.8150881 -0.6191327
-1.0527128 -0.8834061 -0.9429215 -0.7894531 -0.13843004 0.26279753 -0.26933333 -0.19059117
-0.3664888 0.09608783 0.085217156 -0.034616083 -0.27301478 0.41183153 -0.2333135 0.3175655
0.1921544 0.28462422 0.6327671 -0.08018499 -0.056840528 -0.112297855 -0.24605906 0.077147186
-0.19448946 0.22963603 0.061947893 -0.06790283 -0.11165014 0.01688899 -0.53504395 -0.12544633
0.009520438 -0.14770302 -0.2720249 -0.10517274 0.02307459 0.033814114 0.25529093 -0.19055045
0.06308822 -0.044548772 -0.12066836 -0.13537027 -0.51751953 -0.4507126 0.08328421 0.03007052
-0.54145443 0.12329002 0.054502506 0.12433118 0.07276825 -0.16647387 0.19067037 -0.13806836
0.62865657 0.87214243 0.72589296 0.8389705 0.555589 0.9630101 0.63428414 0.47773793
0.25659394 0.61144763 0.617649 0.8176597 1.0092677 0.6943959 0.3568677 0.7910425
0.7185832 0.5140377 0.7264204 0.89948684 0.7123231 0.88513225 0.7081021 0.5315093
0.78354657 0.8269988 0.25452453 0.4242068 0.94833976 1.0955467 0.913216 0.7859585
0.83110476 0.6340886 0.061772782 0.8222264 0.38850668 1.0776407 0.25076124 0.5910724
0.59868455 0.76742935 1.0097896 1.0486951 1.0737447 0.49744737 0.28932828 0.7801471
0.8474919 0.6316284 0.42684692 1.1191397 -1.1217815 -0.4557504 -0.78096855 -0.32810554
-0.5295716 -0.38704267 -0.296977 -0.23397017 -0.20672178 -0.5447922 -0.33820564 -0.59759814
-1.1786649 -0.21582751 0.002601071 -0.6922258 -1.0316583 -0.16987629 -0.15346853 -0.082373746
-0.3398237 -0.5038869 -0.5211587 -0.24269316 -0.6340804 -0.6162742 -0.8149524 -0.4021145
-0.57142586 -0.896873 -0.7000639 -0.6924147 -0.38761717 -0.38066426 -0.22137958 -0.41874218
0.045881137 -0.68469715 -0.1732456 -0.1294597 -0.5501379 -0.42298648 -0.29892588 -0.25952286
-0.42979902 -0.15108225 -0.5720961 -0.7574054 -0.40359625 -0.22797632 0.1646701 -0.4448125
-0.48406193 -0.64870983 -0.3945941 -0.69258964 -0.1665585 -0.1743433 -0.3390429 -0.68981266
-0.5852499 -0.31452623 -0.5840308 -0.004424458 -0.23476526 -0.6379297 -0.14125985 -0.061927762
-0.20270437 -0.042445388 -0.28670582 -0.993886 -0.27986377 -0.32556155 -0.2596028 0.31760973
-0.41437152 -0.38806576 -0.5161213 -0.61644477 -0.36237726 -0.5603341 -0.4039792 -0.31491062
-0.4968618 -0.3818048 -0.5113238 -0.51433414 -0.5798844 -0.41100112 -0.3860811 0.09806062
-0.043978594 -0.4679874 -0.12167075 -0.2685606 -0.40267876 -0.49224225 -0.19682291 -0.48480836
00000000: ac53 86be 83c0 b3be f460 d4be 9646 75bf
00000010: 3268 ffbe 0f35 8bbf e710 6fbf c531 8fbf
00000020: aad1 59bf 056a 97be 393f 52bf 6e96 71bf
00000030: 1440 46bf 0a59 4ebf 36da 65bf 23c4 0abf
00000040: d293 a4be 2b8f 34bf 49d4 2fbf 1023 1abf
00000050: e7fd 74bf 37a0 06bf 4859 3abf 8fc3 6ebe
00000060: 9629 45bf b547 4dbe e176 29bf 0bab 8abe
00000070: 2b66 24bf 5f02 30bf 3e2c 2cbf 957d 9abe
00000080: 387e 99bf 7359 65bf 24b2 4cbf e08c eabe
00000090: 27c4 22bf 13fd 4ebf 7437 62bf 585f 82bf
000000a0: 3d71 8ebf 14b9 8fbe 8fcf 71bf 8fe0 50bf
000000b0: af56 48bf 3b54 9bbe 9da9 50bf 7b7f 1ebf
000000c0: 4bbf 86bf e726 62bf 4e63 71bf 9919 4abf
000000d0: 9bc0 0dbe 668d 863e 0fe6 89be 552a 43be
000000e0: 6ca4 bbbe b2c9 c43d 5586 ae3d 98c9 0dbd
000000f0: 98c8 8bbe 95db d23e bce9 6ebe f297 a23e
00000100: 1fc4 443e 44ba 913e 06fd 213f 0738 a4bd
00000110: 9dd1 68bd 6bfc e5bd e8f6 7bbe 58ff 9d3d
00000120: 3f28 47be b525 6b3e 13bd 7d3d a410 8bbd
00000130: d4a8 e4bd c75a 8a3c a4f8 08bf 0175 00be
00000140: 9cfb 1b3c 763f 17be d946 8bbe ce64 d7bd
00000150: ec06 bd3c ab80 0a3d 7eb5 823e a81f 43be
00000160: 6634 813d c678 36bd f920 f7bd 819e 0abe
00000170: 297c 04bf cdc3 e6be e990 aa3d 7356 f63c
00000180: c29c 0abf 7a7f fc3d 053e 5f3d 58a1 fe3d
00000190: 8507 953d 2078 2abe 183f 433e cb61 0dbe
000001a0: a3ef 203f ba44 5f3f 1fd4 393f c5c6 563f
000001b0: 153b 0e3f d487 763f 7260 223f 119a f43e
000001c0: 4860 833e d587 1c3f 3f1e 1e3f 2552 513f
000001d0: af2f 813f eec3 313f 5db7 b63e c381 4a3f
000001e0: 12f5 373f fa97 033f b0f6 393f c544 663f
000001f0: cf5a 363f 0798 623f 2e46 353f fe10 083f
00000200: 8296 483f 31b6 533f 0a51 823e a231 d93e
00000210: 65c6 723f e03a 8c3f 86c8 693f 9434 493f
00000220: 48c3 543f a153 223f 7505 7d3d 6e7d 523f
00000230: 59ea c63e 21f0 893f c763 803e 8550 173f
00000240: 6443 193f 4076 443f c940 813f a43b 863f
00000250: 7770 893f 6cb1 fe3e d622 943e b8b7 473f
00000260: 3bf5 583f 66b2 213f ae8b da3e f83f 8f3f
00000270: 8996 8fbf 1e58 e9be 8eed 47bf 73fd a7be
00000280: 0192 07bf 752a c6be 5f0d 98be e095 6fbe
00000290: e0ae 53be 8077 0bbf 4a29 adbe 31fc 18bf
000002a0: 7ede 96bf e301 5dbe bb76 2a3b b635 31bf
000002b0: 610d 84bf 0df4 2dbe db26 1dbe 91b3 a8bd
000002c0: 5ffd adbe bbfe 00bf a86a 05bf 8e84 78be
000002d0: 1853 22bf 25c4 1dbf b8a0 50bf f4e1 cdbe
000002e0: f748 12bf 7899 65bf 6337 33bf 1742 31bf
000002f0: c275 c6be 6de6 c2be 54b1 62be 6065 d6be
00000300: dced 3b3d 5048 2fbf 4b67 31be 1591 04be
00000310: d6d5 0cbf af91 d8be d00c 99be 2ee0 84be
00000320: 9e0e dcbe 4eb5 1abe e474 12bf 52e5 41bf
00000330: 2ba4 cebe a072 69be 479f 283e 77be e3be
00000340: f7d6 f7be d911 26bf 3d08 cabe 8e4d 31bf
00000350: 508e 2abe 0d87 32be 0897 adbe 9097 30bf
00000360: f0d2 15bf 9509 a1be 0b83 15bf 0bfb 90bb
00000370: 4e66 70be 5c4f 23bf 6ca6 10be f7a7 7dbd
00000380: bc91 4fbe 37db 2dbd 1bcb 92be 506f 7ebf
00000390: 4e4a 8fbe 01b0 a6be a8ea 84be be9d a23e
000003a0: 8128 d4be 8eb0 c6be 8720 04bf 53cf 1dbf
000003b0: 8389 b9be 0e72 0fbf 5dd6 cebe f73b a1be
000003c0: ab64 febe eb7b c3be 1ee6 02bf 67ab 03bf
000003d0: 4e73 14bf bd6e d2be 6cac c5be 02d4 c83d
000003e0: e622 34bd 0b9c efbe 842e f9bd c680 89be
000003f0: e92b cebe 2d07 fcbe f28b 49be cd38 f8be

snn.l1.recurrent_weights f4 [20, 20]
0.0 1.936243 -0.5959195 3.3207014 2.259717 1.825491 0.9444057 2.6130896
2.475416 2.0479326 1.9896759 2.9139996 1.8773515 2.0396712 2.1937344 1.1033194
2.8186462 1.0484688 3.1754572 1.3412384 0.98985296 0.0 3.594325 1.8087497
2.1523688 1.6784269 2.5416908 1.3837477 3.082596 2.3752766 2.375873 1.4341232
3.533538 3.056461 1.7597908 2.2233953 -0.37212402 0.48726538 1.169317 1.9316714
0.051508687 2.5605216 0.0 0.22929147 -1.6519394 -0.03708767 0.06113195 0.16833508
0.5259785 2.2537584 1.0775416 1.7030146 2.4118366 2.6520715 1.7656975 0.85069907
2.0135498 1.138482 1.703156 1.7967014 1.6474384 0.11847919 -0.85714877 0.0
1.5507109 0.5265549 1.0883472 1.451508 1.3578444 0.9984358 1.7638102 5.093694
0.51624125 1.0202883 0.60163593 0.36064458 1.9988291 0.5938981 1.8721807 0.7597006
1.4520557 1.6288915 -1.2373898 3.0960965 0.0 1.3244855 1.1809613 1.2647069
2.0970528 1.0259217 1.6759919 2.310848 1.8776723 1.0763602 -0.1577014 1.3928965
-1.1553303 0.93209714 1.2135304 0.45044014 1.1802385 2.1343243 1.4213083 2.0133972
2.3192337 0.0 0.95592636 1.5255969 2.9349337 1.4859942 2.1457536 1.7005355
2.781899 2.9678817 1.7005738 0.928671 1.365858 1.0908929 1.4303892 1.3004637
1.0930697 2.8454642 0.8957081 1.1828957 2.216552 2.0289254 0.0 1.5864296
2.419175 1.8922405 1.2840881 0.5303844 2.0813649 1.8548126 0.6060186 1.3924203
0.12262395 1.2127037 0.8907611 1.5583643 2.3628926 1.8331428 -0.009769976 3.0824704
2.0226343 1.8209715 0.8957082 0.0 2.1901066 1.3847339 2.0505645 3.2409863
1.7474409 2.339061 2.0666122 1.7641201 2.8755028 1.0034533 2.2463396 1.8605466
-0.22419249 1.8215389 0.6490388 2.986137 2.648764 0.79274285 1.3589762 0.056546573
0.0 0.43979946 2.4761696 0.99160117 2.7292051 1.6126891 -0.33192068 0.9429354
-1.3669692 -0.43604976 0.078949004 0.042983893 0.44713864 2.5963688 3.167682 1.6181315
0.8279255 1.1687118 0.52409273 0.9536414 2.729143 0.0 2.7325194 1.9095762
2.6494718 3.1899724 2.2446487 0.57182324 2.2451048 1.7500174 1.857476 2.3035676
0.6628926 2.122699 3.1135333 2.463802 2.7950833 1.2543559 1.0311354 0.8116755
3.1535473 2.167793 0.0 1.6577313 3.3187525 2.317704 0.59657454 0.07157282
0.27976483 0.73019665 0.70476574 1.3009508 1.5862206 -0.5612865 0.7149505 4.0804906
-1.19973 0.6020665 -0.71419245 1.0214114 -0.39592314 0.55130184 -0.040948994 0.0
-0.63613737 1.2890284 1.6324573 0.18911053 2.9443293 0.82856214 2.4906511 1.0927682
0.42866698 3.0525858 2.0261946 2.2442536 2.6340342 1.8606035 1.6949339 0.99584776
3.7130642 1.7753853 3.5698092 1.5788816 0.0 3.1262803 -0.010867875 1.2658242
00000000: 0000 0000 d0d6 f73f 2e8e 18bf 5f86 5440
00000010: 349f 1040 b0a9 e93f 92c4 713f dc3c 2740
00000020: 376d 1e40 5411 0340 b3ad fe3f f87e 3a40
00000030: 0e4d f03f f989 0240 2566 0c40 9239 8d3f
00000040: b364 3440 3a34 863f b13a 4b40 b3ad ab3f
00000050: 0167 7d3f 0000 0000 6c09 6640 1c85 e73f
00000060: 69c0 0940 b1d6 d63f 10ab 2240 a51e b13f
00000070: 4149 4540 8804 1840 4e0e 1840 5991 b73f
00000080: 7d25 6240 0f9d 4340 d340 e13f 1c4c 0e40
00000090: 0a87 bebe d97a f93e 2eac 953f 0241 f73f
000000a0: c6fa 523d 96df 2340 0000 0000 62cb 6a3e
000000b0: c072 d3bf 3ee9 17bd 7f65 7a3d 0860 2c3e
000000c0: 87a6 063f 943d 1040 e2ec 893f 62fc d93f
000000d0: 885b 1a40 8abb 2940 6002 e23f 6ac7 593f
000000e0: 00de 0040 c7b9 913f 0401 da3f 50fa e53f
000000f0: 43df d23f 38a5 f23d 1a6e 5bbf 0000 0000
00000100: b27d c63f 4dcc 063f f64e 8b3f 04cb b93f
00000110: d8cd ad3f 7d99 7f3f 88c4 e13f 8bff a240
00000120: 6328 043f cf98 823f d004 1a3f 68a6 b83e
00000130: a2d9 ff3f b509 183f 9ea3 ef3f bd7b 423f
00000140: f6dc b93f 847f d03f ca62 9ebf 7226 4640
00000150: 0000 0000 be88 a93f bd29 973f eae1 a13f
00000160: 1d36 0640 6751 833f e786 d63f efe4 1340
00000170: 9157 f03f 2cc6 893f 7a7c 21be 6f4a b23f
00000180: dde1 93bf eb9d 6e3f f754 9b3f 17a0 e63e
00000190: 0e12 973f c598 0840 6eed b53f 80db 0040
000001a0: 536e 1440 0000 0000 97b7 743f c246 c33f
000001b0: f4d5 3b40 0f35 be3f 0754 0940 26ab d93f
000001c0: a20a 3240 c6f1 3d40 67ac d93f 62bd 6d3f
000001d0: 6fd4 ae3f 61a2 8b3f fe16 b73f 9875 a63f
000001e0: b5e9 8b3f 161c 3640 204d 653f 2069 973f
000001f0: fddb 0d40 ead9 0140 0000 0000 2010 cb3f
00000200: c3d3 1a40 f034 f23f 005d a43f 46c7 073f
00000210: 1535 0540 806a ed3f 0924 1b3f d43a b23f
00000220: 4422 fb3d e039 9b3f eb08 643f 7b78 c73f
00000230: a239 1740 6ca4 ea3f 4012 20bc 3247 4540
00000240: d772 0140 9815 e93f 224d 653f 0000 0000
00000250: b52a 0c40 f63e b13f 733c 0340 526c 4f40
00000260: 25ac df3f 2db3 1540 6043 0440 b0ce e13f
00000270: 3d08 3840 2871 803f 07c4 0f40 6426 ee3f
00000280: b792 65be 3028 e93f 6827 263f de1c 3f40
00000290: 5985 2940 32f1 4a3f eff2 ad3f 619d 673d
000002a0: 0000 0000 652d e13e 9079 1e40 93d9 7d3f
000002b0: 4cab 2e40 996c ce3f 82f1 a9be 3764 713f
000002c0: d9f8 aebf ea41 dfbe 04b0 a13d e10f 303d
000002d0: 5bef e43e e82a 2640 4dbb 4a40 ef1e cf3f
000002e0: edf2 533f 5998 953f f12a 063f d821 743f
000002f0: 47aa 2e40 0000 0000 99e1 2e40 fe6c f43f
00000300: f290 2940 8228 4c40 53a8 0f40 0263 123f
00000310: ccaf 0f40 9200 e03f c6c1 ed3f a76d 1340
00000320: 54b3 293f 4dda 0740 2144 4740 efae 1d40
00000330: a5e2 3240 bc8e a03f 3ffc 833f f7c9 4f3f
00000340: b8d3 4940 1fbd 0a40 0000 0000 8a30 d43f
00000350: 7166 5440 4355 1440 1cb9 183f c594 923d
00000360: 563d 8f3e 2bee 3a3f 876b 343f 8e85 a63f
00000370: 4709 cb3f 79b0 0fbf ff06 373f 6193 8240
00000380: c190 99bf 0821 1a3f 51d5 36bf 9cbd 823f
00000390: 70b6 cabe 1e22 0d3f 22ba 27bd 0000 0000
000003a0: e6d9 22bf e2fe a43f 5cf4 d03f 31a6 413e
000003b0: e46f 3c40 a61c 543f d466 1f40 d4df 8b3f
000003c0: 3d7a db3e 915d 4340 2cad 0140 daa1 0f40
000003d0: 0494 2840 4128 ee3f 98f3 d83f e1ef 7e3f
000003e0: d8a2 6d40 d33f e33f c177 6440 cb18 ca3f
000003f0: 0000 0000 fa14 4840 2c0f 32bc 8706 a23f

snn.fc_out.weight f4 [9, 20]
-0.7975671 -1.5990299 -1.5365385 -3.0981963 -1.2102606 -0.7751999 -0.27047655 -0.6902704
-2.1400828 -1.2398844 -1.2554545 -2.9173977 -1.2943752 -1.6717123 -0.8922017 -0.6151801
-1.1682912 -0.5259424 -0.84382695 -1.11 -2.3516376 0.7090022 2.693519 -2.9777682
-2.7590585 -0.79223657 -0.49056512 -1.6296586 0.2045892 1.354784 1.0171767 -1.9963927
0.6426004 0.83898246 0.7042655 -1.7840445 -0.15367688 -0.077000745 -1.4996605 0.8850391
1.4671074 0.44758293 -1.6701025 -0.18793607 2.1104875 0.5962975 1.09183 0.97499245
1.4802684 -0.013470526 0.9593701 -2.067824 0.61176795 0.0059211734 -0.12716372 1.0313122
-2.244423 -0.24305876 0.53851 0.1267811 0.43308944 -0.38962892 0.23526275 -1.517303
-1.145129 0.7630299 0.103986226 0.7956294 -0.63521284 0.67295706 0.21022634 0.32721394
-0.036036454 0.66846687 1.1542488 0.7927777 1.7982225 1.1565243 1.1733011 0.9618214
-0.36347416 1.5881263 0.76184875 -2.7558475 0.54726547 0.56135696 1.0559325 0.19323052
0.46171546 0.6536494 0.07421719 -3.0154192 1.5253558 0.041457117 -0.49353042 0.8554536
-0.5032397 0.28676313 -0.9794728 -0.15817828 1.6684349 -1.2554321 -1.7066369 0.9122228
0.44035915 -0.9310146 -0.7840702 1.1563047 -1.926102 -0.576086 -1.6774875 1.5603516
-1.3449382 -0.41310638 0.43412036 0.34492818 1.9517899 0.33418763 1.3337234 -0.041931808
-2.0062644 -1.504407 -0.9784247 2.4386673 -0.7337572 -0.77478206 -0.9043238 -1.7026017
-1.1640404 -2.1795728 -2.009928 1.9898473 -0.9088169 -2.2606778 -1.414678 -1.3894938
-1.6438228 -1.3827204 -2.32321 -1.9562821 -1.7596462 -1.0725527 -3.0530794 2.8054128
1.0937626 -0.85529 -1.4448527 -2.4278548 1.6122235 -1.6701307 0.8297887 0.84839165
-0.004288099 -0.8445694 -2.5375793 -2.1157331 -3.78046 -2.0133705 -1.7889403 -2.0111036
-1.003313 -2.7498531 0.1831346 2.1416757 -3.2148178 -2.1217394 -1.1058142 -1.2122437
-3.3368323 -1.7200414 -2.71413 2.633523 -2.9364736 -2.4889576 -0.62719136 -0.85333925
1.0828383 -0.87321985 -1.375057 -1.0578426
00000000: 5c2d 4cbf 03ad ccbf 4bad c4bf d948 46c0
00000010: d2e9 9abf 8073 46bf e77b 8abe 90b5 30bf
00000020: 1ef7 08c0 88b4 9ebf bcb2 a0bf a5b6 3ac0
00000030: 16ae a5bf abfa d5bf 5567 64bf 717c 1dbf
00000040: 918a 95bf 29a4 06bf 0b05 58bf 7b14 8ebf
00000050: 3b81 16c0 2b81 353f 9e62 2c40 c193 3ec0
00000060: 6a94 30c0 04d0 4abf 5a2b fbbe a798 d0bf
00000070: d57f 513e 9069 ad3f d932 823f cc89 ffbf
00000080: 7681 243f 8ec7 563f be4a 343f 925b e4bf
00000090: 795d 1dbe 91b2 9dbd e0f4 bfbf ec91 623f
000000a0: 2dca bb3f 9729 e53e ebc5 d5bf 5072 40be
000000b0: 3a12 0740 f4a6 183f 16c1 8b3f 1b99 793f
000000c0: 6f79 bd3f 7bb3 5cbc 4799 753f 3a57 04c0
000000d0: d39c 1c3f 6706 c23b 3537 02be 0a02 843f
000000e0: a0a4 0fc0 65e4 78be cbdb 093f e8d2 013e
000000f0: e6bd dd3e 717d c7be b8e8 703e fc36 c2bf
00000100: 9693 92bf ed55 433f bbf6 d43d 5eae 4b3f
00000110: 4f9d 22bf ea46 2c3f 9345 573e 9688 a73e
00000120: f69a 13bd a520 2b3f 6dbe 933f 7bf3 4a3f
00000130: 282c e63f fd08 943f bb2e 963f ed39 763f
00000140: 4919 babe b947 cb3f 8508 433f ce5f 30c0
00000150: 9719 0c3f 17b5 0f3f cc28 873f 39de 453e
00000160: f865 ec3e 9155 273f 2fff 973d a1fc 40c0
00000170: dc3e c33f f0ce 293d 05b0 fcbe 02ff 5a3f
00000180: 51d4 00bf 9ed2 923e bbbe 7abf 7df9 21be
00000190: 468f d53f 00b2 a0bf 1473 dabf 6f87 693f
000001a0: c176 e13e f956 6ebf d3b8 48bf cb01 943f
000001b0: 838a f6bf 5f7a 13bf e9b7 d6bf 9ab9 c73f
000001c0: ef26 acbf ae82 d3be 0645 de3e 6d9a b03e
000001d0: 40d4 f93f a41a ab3e 73b7 aa3f b0c0 2bbd
000001e0: a366 00c0 6990 c0bf 0b7a 7abf 2013 1c40
000001f0: 83d7 3bbf 1e58 46bf c481 67bf daee d9bf
00000200: 47ff 94bf 1f7e 0bc0 a9a2 00c0 51b3 fe3f
00000210: 39a8 68bf f2ae 10c0 2b14 b5bf efda b1bf
00000220: c968 d2bf fbfc b0bf 79af 14c0 7467 fabf
00000230: 163c e1bf 6849 89bf a765 43c0 e28b 3340
00000240: 6a00 8c3f 49f4 5abf eff0 b8bf f961 1bc0
00000250: 575d ce3f d8c6 d5bf 086d 543f 3230 593f
00000260: 2e83 8cbb b335 58bf b367 22c0 2c68 07c0
00000270: 0ef3 71c0 10db 00c0 fffb e4bf ecb5 00c0
00000280: 8f6c 80bf 98fd 2fc0 a387 3b3e 3711 0940
00000290: 93bf 4dc0 94ca 07c0 528b 8dbf cd2a 9bbf
000002a0: a98e 55c0 512a dcbf 4eb4 2dc0 a48b 2840
000002b0: 2fef 3bc0 154b 1fc0 9d8f 20bf 7174 5abf
000002c0: 729a 8a3f 568b 5fbf de01 b0bf 6367 87bf

exp_avg f4 [20, 416]
0.00177353 -0.00093264744 0.0045155426 0.0026163342 0.00064670184 0.002763337 -0.00023378426 -0.00012569579
0.0008877052 0.0042414726 0.0051442944 0.0027490112 0.0027794363 0.0033190688 0.0034801324 0.0022043006
0.0034940748 0.00077833695 0.0011428555 -2.5235853e-05 0.0024888457 0.004411471 0.0014871026 0.0012875336
0.0018731183 0.0026614158 0.0037678499 0.0007969666 0.0030592126 0.0010952641 0.0006352242 0.0037844828
0.0006597872 0.004129633 0.0036193305 -0.0025464364 0.0024822573 0.0016295649 0.004312983 0.0018825424
0.00037440268 -0.0003027555 0.0024026933 0.004619715 0.0011478886 0.0043437053 7.001996e-05 0.0004827015
0.0045862803 0.0016525701 0.006646964 0.0031552995 0.0017504264 -0.003968629 0.009562805 0.000627756
0.006417524 0.0007454308 0.0028665068 0.0015566262 0.0009767084 0.0026634317 0.0006714984 -0.00014733084
0.009431406 0.00077700644 0.0016320737 0.008237729 0.0052250116 -0.0030224181 0.004043907 0.0076547046
0.0004215521 0.0052338094 0.00023345457 -0.0012265284 -0.001700154 0.00013359082 0.004568202 -0.00064674224
0.0011049109 -0.00080344547 0.0006754121 0.0053718123 0.003742069 0.0022003292 0.001043255 -0.0009612387
-0.0007322201 0.003688064 0.0039192643 0.0024388433 0.0018917692 -0.0020220736 0.001147893 -0.0012703368
9.603519e-05 0.002835723 0.0034203401 -0.0006799227 0.0054552443 0.00026077213 0.0071456204 0.0035815449
0.004506448 -0.0007081751 0.006818309 0.0006318114 -0.0019454334 0.00042745488 0.009393793 0.011561339
0.003258122 0.014063672 0.00039783926 0.002136599 0.0040808255 0.0013860902 0.0019076109 0.006213698
0.0011798724 0.00083367125 -0.0017014011 0.0011473786 -0.0015070972 0.0021534264 0.0020769143 -0.002400669
-0.002504067 -0.0013215843 0.0029316354 -0.006062357 -0.0019241074 -0.0014189478 -0.0040997174 -0.0016464468
-7.591123e-05 -0.0014550049 0.0019967633 -0.0031086172 -0.0032611885 0.0009658757 0.0037954012 0.001434752
-0.00010564665 -0.00328623 0.0024770903 -0.0003446617 0.00058135216 5.8417216e-05 -0.00091151823 0.0015626712
0.0075383806 -0.0036501826 0.004813836 0.0006427374 0.011436583 -0.00034193342 0.0016303489 -0.0018331025
-0.0010327373 0.003070652 0.0021589922 -0.00045970365 0.0056338105 0.008719567 0.0016073328 0.0035855207
0.0019745599 0.0030177822 0.0005606116 0.004042351 0.0016157506 0.0044844737 0.0002849419 0.00087621016
0.0043827635 0.001402245 0.00019110978 -0.0003842256 -0.0023755643 -9.763696e-06 0.004102148 -0.0026764786
0.0022776031 0.0012700917 -0.002938334 0.0014201145 0.0009327062 0.001745947 0.00048011012 0.0037562377
-0.0013434847 0.0032762557 0.0022253715 0.0021965213 0.0007382368 0.0038888254 0.005142758 -0.00040651823
0.00043137968 -0.00045985353 0.0029226926 0.0024034244 0.0067424984 -0.00385373 0.004340196 -0.00049326627
-0.0001835974 -0.00058682857 0.00021960454 -0.003302285 -0.0016807986 -7.519415e-05 0.0018106241 -0.0017836554
-0.0016607641 0.0043857014 0.0016234515 0.002069134 0.003865006 0.0037717663 0.0002822527 0.0028393986
0.007395023 0.0036068677 0.0005760699 0.0021372952 0.0029858395 0.0038778114 -0.0002466297 0.0002884585
-2.6829586e-05 -0.002153011 0.0012935142 0.0011981104 8.004394e-05 -0.0019228124 0.0028121811 1.624204e-05
0.0029689153 0.0009036523 -0.0029443651 0.0010382321 0.0065360484 -0.0036741542 0.0030957593 0.0013687585
0.008120461 0.0015234036 0.0032904767 0.004611135 0.0009238747 0.0023173392 0.0019641835 0.0042450437
00000000: cb75 e83a e97c 74ba 1ef7 933b ce76 2b3b
00000010: 6d87 293a 1a19 353b fc23 75b9 35cd 03b9
00000020: e3b4 683a 0dfc 8a3b 7891 a83b c128 343b
00000030: 3427 363b bc84 593b ef12 643b 0776 103b
00000040: d9fc 643b 4f09 4c3a decb 953a 95b1 d3b7
00000050: e71b 233b 1a8e 903b e2ea c23a 75c2 a83a
00000060: 6c83 f53a 266b 2e3b 08ee 763b 86eb 503a
00000070: 127d 483b f78e 8f3a 2d85 263a 1605 783b
00000080: 92f5 2c3a df51 873b 4a32 6d3b 1de2 26bb
00000090: 5ead 223b 2097 d53a ec53 8d3b a4bf f63a
000000a0: 7a4b c439 28bb 9eb9 8176 1d3b fa60 973b
000000b0: c074 963a a455 8e3b aed7 9238 1913 fd39
000000c0: 8248 963b 0d9b d83a c6ce d93b 24c9 4e3b
000000d0: 906e e53a 460b 82bb 50ad 1c3c fe8f 243a
000000e0: 184a d23b 0469 433a 01dc 3b3b b507 cc3a
000000f0: e504 803a f88c 2e3b 7f07 303a d27c 1ab9
00000100: 2f86 1a3c 05b0 4b3a 4eeb d53a 8af7 063c
00000110: 9336 ab3b c313 46bb c082 843b 51d4 fa3b
00000120: c403 dd39 6080 ab3b 7ccb 7439 77c3 a0ba
00000130: b4d7 deba 8314 0c39 dbb0 953b 238a 29ba
00000140: a8d2 903a 509e 52ba 240e 313a 0706 b03b
00000150: 803d 753b 6633 103b d4bd 883a a3fb 7bba
00000160: 76f2 3fba 72b3 713b 2c6d 803b 00d5 1f3b
00000170: 3ef5 f73a c484 04bb e674 963a 6e81 a6ba
00000180: 8066 c938 8ad7 393b c927 603b d73c 32ba
00000190: e8c1 b23b 3eb8 8839 cf25 ea3b 5ab8 6a3b
000001a0: d3aa 933b d4a4 39ba 1f6c df3b 25a0 253a
000001b0: eafd feba 061c e039 6ce8 193c c56b 3d3c
000001c0: 3786 553b 516b 663c 1595 d039 2f06 0c3b
000001d0: 72b8 853b 78ad b53a cd08 fa3a 479c cb3b
000001e0: f3a5 9a3a bb8a 5a3a 8c01 dfba a363 963a
000001f0: ca89 c5ba 8020 0d3b d71c 083b 8b54 1dbb
00000200: 461b 24bb 0339 adba ae20 403b bda6 c6bb
00000210: 5532 fcba fdfb b9ba ec56 86bb 96cd d7ba
00000220: 8832 9fb8 ddb5 beba 21dc 023b f1b9 4bbb
00000230: aab9 55bb d232 7d3a 44bc 783b 4a0e bc3a
00000240: 9d8e ddb8 ca5d 57bb ae56 223b b6b3 b4b9
00000250: e265 183a 0205 7538 f4f2 6eba 8bd2 cc3a
00000260: 8504 f73b e737 6fbb 62bd 9d3b 607d 283a
00000270: 8160 3b3c 8745 b3b9 6eb1 d53a b744 f0ba
00000280: ea5c 87ba fe3c 493b e17d 0d3b 6104 f1b9
00000290: d49b b83b 84dc 0e3c 24ad d23a 0efb 6a3b
000002a0: 9e67 013b fcc5 453b 02f6 123a b375 843b
000002b0: 98c7 d33a 7ef2 923b 4164 9539 78b1 653a
000002c0: 499d 8f3b 89cb b73a a464 4839 e371 c9b9
000002d0: 5baf 1bbb c1ce 23b7 506b 863b dc67 2fbb
000002e0: d743 153b 3579 a63a 1091 40bb 2323 ba3a
000002f0: db80 743a 43d8 e43a 4ab7 fb39 362b 763b
00000300: de17 b0ba 73b6 563b 8ad7 113b 83f3 0f3b
00000310: 3c86 413a aadb 7e3b 9584 a83b f421 d5b9
00000320: cd2a e239 7f18 f1b9 a58a 3f3b c582 1d3b
00000330: 2df0 dc3b dc8e 7cbb 3438 8e3b 8a4e 01ba
00000340: 0d84 40b9 66d5 19ba a545 6639 266b 58bb
00000350: 3e4e dcba 8db1 9db8 7752 ed3a 8bc9 e9ba
00000360: ffad d9ba eeb5 8f3b fec9 d43a 4f9a 073b
00000370: 0a4c 7d3b bd2f 773b 51fb 9339 3415 3a3b
00000380: f351 f23b 3361 6c3b 6603 173a dd11 0c3b
00000390: 13ae 433b e122 7e3b 144e 81b9 3f3c 9739
000003a0: 1910 e1b7 8819 0dbb 228b a93a ea09 9d3a
000003b0: 43dd a738 e106 fcba 924c 383b 843f 8837
000003c0: 2292 423b 14e3 6c3a 40f6 40bb 4a15 883a
000003d0: 592c d63b 14ca 70bb 39e2 4a3b ea67 b33a
000003e0: af0b 053c f1ac c73a 0aa5 573b 0119 973b
000003f0: 2e30 723a 80de 173b 88b9 003b 021a 8b3b

exp_avg_sq f4 [20, 416]
9.3870614e-05 0.00012191799 7.468411e-05 6.743092e-05 8.400668e-05 7.5084834e-05 8.69181e-05 4.8161357e-05
5.2105905e-05 0.00010143083 8.6718006e-05 6.0723323e-05 7.459574e-05 5.9403927e-05 7.6818695e-05 7.8845675e-05
8.256778e-05 9.222011e-05 7.630609e-05 7.0141636e-05 8.293079e-05 9.129212e-05 8.389271e-05 8.0919854e-05
5.9606646e-05 8.415459e-05 8.701789e-05 6.6970606e-05 6.9928e-05 5.6066092e-05 8.197934e-05 9.639862e-05
6.6412555e-05 9.0884314e-05 7.7961005e-05 6.496377e-05 7.6871846e-05 7.832164e-05 5.748492e-05 7.016387e-05
6.182672e-05 8.2698585e-05 7.3009265e-05 6.104003e-05 7.053219e-05 8.179141e-05 8.720179e-05 6.7059635e-05
6.746906e-05 8.170285e-05 7.543237e-05 7.3965064e-05 0.00013143133 0.00017745193 9.992881e-05 0.00010553825
0.00013554282 0.00010998458 0.0001359102 0.00013450107 7.7728684e-05 0.000128419 0.00013002925 0.00012222388
8.789521e-05 0.00010194187 0.000103776896 0.00011739144 0.0001379324 0.00014935626 0.000104816194 0.00013765981
0.00015676973 0.00011793767 0.00015578515 0.00020598466 9.523029e-05 9.7683456e-05 0.00010179668 9.2369526e-05
8.777574e-05 8.8134555e-05 0.000104841616 0.00012496585 8.919728e-05 0.00014779047 0.00011178345 0.00011436535
0.00013825034 9.283729e-05 0.00010083397 0.00014117516 8.468964e-05 9.306774e-05 0.000115221635 0.00010385164
8.204418e-05 9.8701224e-05 0.00011710621 0.00014051513 0.00012235937 0.00012964092 0.00010983319 0.00013539288
9.38352e-05 0.00025923137 0.00010395479 0.000107709064 0.00013532638 0.00010723193 0.00015859907 0.00028766625
0.00010954525 0.00024862064 0.0001581916 0.00013223752 0.00012263753 0.00013837189 0.00010756641 0.00014148031
0.00010913432 0.00022992441 0.00011309483 0.00011527443 0.00018827574 0.00010467838 0.00013231894 0.00030180896
0.0001055302 0.00019250592 0.00011254986 0.0001127846 0.00011745057 0.000116070965 0.00012736929 0.00012053768
0.00013343857 0.00018840036 9.421591e-05 0.00012391855 0.00017806781 9.330614e-05 0.000119418335 0.0002856499
8.1207356e-05 0.00019417757 0.0001446374 0.00015319744 0.000111691246 0.00012427775 0.00011557234 0.00014675432
0.00012373464 0.00018347616 8.509842e-05 0.00015308421 0.00010718914 0.00011617631 8.34e-05 9.529101e-05
0.00011667553 0.000110950925 0.000116169685 0.00014492197 0.00017942896 0.00015691531 0.00012842263 0.0001024335
7.235222e-05 0.00011212245 0.00011613923 7.945049e-05 8.490112e-05 0.000112816204 0.00010879931 0.000107792126
0.00015445301 9.330835e-05 0.00012267302 0.00015845077 0.00012400739 0.00013787922 0.00011930537 0.00012049788
7.8585836e-05 0.000100055426 0.00010838661 0.00010104434 9.7654614e-05 8.260654e-05 0.00011052681 8.081486e-05
0.00015089202 6.513179e-05 0.00013940192 0.00013892003 0.00011609379 0.000103352 0.00014466706 0.0001192818
9.810348e-05 0.0001297708 0.000105189225 9.004459e-05 0.000111409376 0.000102135666 0.00010529908 0.00010366541
8.0530765e-05 0.00011474366 0.00010018307 7.408542e-05 0.00011654903 0.00015068949 0.00010433331 7.601869e-05
8.583396e-05 0.00010349791 9.5611744e-05 0.00019636023 0.0001158207 9.080138e-05 0.0001423168 0.00011694854
0.00011886024 0.00015521795 0.00012553786 7.047864e-05 0.00010330546 0.00014218318 7.018771e-05 0.0001503439
9.458229e-05 0.000121550176 0.00010986483 0.000111865615 0.000117203854 9.314906e-05 0.00014828394 0.00011540722
9.426597e-05 0.00011888702 0.0001250612 7.234031e-05 0.000100202815 0.00010088811 8.5034284e-05 0.00014496536
0.000110288565 0.00010377278 0.0001217226 0.00012693396 8.856621e-05 9.7123186e-05 0.00015684625 0.0001313659
00000000: 67dc c438 39ae ff38 ba9f 9c38 b369 8d38
00000010: be2c b038 dd76 9d38 cd47 b638 dd00 4a38
00000020: 4a8c 5a38 43b7 d438 60dc b538 2cb1 7e38
00000030: 4870 9c38 7b28 7938 b919 a138 f359 a538
00000040: 3d28 ad38 4b66 c138 8506 a038 0119 9338
00000050: 21eb ad38 1574 bf38 8eef af38 84b3 a938
00000060: 2602 7a38 277c b038 607d b638 9272 8c38
00000070: 4fa6 9238 8228 6b38 53ec ab38 9d29 ca38
00000080: f846 8b38 2599 be38 ff7e a338 293d 8838
00000090: 4236 a138 9c40 a438 f61b 7138 f124 9338
000000a0: f8a8 8138 776e ad38 8d1c 9938 9e02 8038
000000b0: aeea 9338 6e87 ab38 1be0 b638 5ea2 8c38
000000c0: 2d7e 8d38 e257 ab38 7231 9e38 b11d 9b38
000000d0: d4d0 0939 6412 3a39 df90 d138 6b54 dd38
000000e0: 8020 0e39 86a7 e638 1e83 0e39 db08 0d39
000000f0: 4502 a338 36a8 0639 7658 0839 3929 0039
00000100: 6254 b838 a0c9 d538 cca2 d938 0d30 f638
00000110: f2a1 1039 849c 1c39 c4d0 db38 c658 1039
00000120: 8e62 2439 4e55 f738 425a 2339 96fd 5739
00000130: 5fb6 c738 68db cc38 ad7b d538 83b6 c138
00000140: 3e14 b838 e1d4 b838 6ade db38 4409 0339
00000150: 6d0f bb38 34f8 1a39 486d ea38 6ed7 ef38
00000160: 4bf7 1039 a4b1 c238 d376 d338 6b08 1439
00000170: 679b b138 5d2d c338 25a3 f138 edca d938
00000180: 220f ac38 d1fd ce38 eb96 f538 3e57 1339
00000190: 984d 0039 38f0 0739 3f56 e638 40f8 0d39
000001a0: 64c9 c438 72e9 8739 4e02 da38 dde1 e138
000001b0: 66e6 0d39 b4e1 e038 9d4d 2639 e9d1 9639
000001c0: a9bb e538 4c59 8239 3ce0 2539 3da9 0a39
000001d0: 4398 0039 ec17 1139 4795 e138 555a 1439
000001e0: 0bdf e438 dd17 7139 532d ed38 7dbf f138
000001f0: e26b 4539 c786 db38 18bf 0a39 1d3c 9e39
00000200: 1850 dd38 6adb 4939 bf08 ec38 c586 ec38
00000210: cb4f f638 206b f338 6f8e 0539 2dc9 fc38
00000220: a5eb 0b39 568d 4539 c895 c538 22f0 0139
00000230: b7b7 3a39 5aad c338 3b70 fa38 48c3 9539
00000240: de4d aa38 259c 4b39 cea9 1739 a0a3 2039
00000250: c83b ea38 8e50 0239 6d5f f238 10e2 1939
00000260: c4be 0139 8263 4039 de76 b238 3b85 2039
00000270: bbca e038 aea3 f338 09e7 ae38 f9d6 c738
00000280: b3af f438 53ae e838 20a0 f338 32f6 1739
00000290: 1825 3c39 a289 2439 30a9 0639 91d1 d638
000002a0: cdbb 9738 4823 eb38 c68f f338 a89e a638
000002b0: f10c b238 bd97 ec38 2f2b e438 750e e238
000002c0: aaf4 2139 8aae c338 caa1 0039 ce25 2639
000002d0: fb07 0239 ac93 1039 9533 fa38 cfb3 fc38
000002e0: 73ce a438 d9d4 d138 9e4d e338 c4e7 d338
000002f0: eccb cc38 0c3d ad38 a1ca e738 267b a938
00000300: c538 1e39 5d97 8838 6b2c 1239 10ab 1139
00000310: 6177 f338 afbe d838 c5b1 1739 ee26 fa38
00000320: e8bc cd38 1513 0839 0999 dc38 52d6 bc38
00000330: 74a4 e938 ab31 d638 03d4 dc38 f166 d938
00000340: a0e2 a838 89a2 f038 6019 d238 4f5e 9b38
00000350: c96b f438 6702 1e39 85cd da38 396c 9f38
00000360: c201 b438 040d d938 2a83 c838 0ce6 4d39
00000370: c4e4 f238 9f6c be38 e03a 1539 4542 f538
00000380: 9b44 f938 00c2 2239 d0a2 0339 efcd 9338
00000390: b2a5 d838 0217 1539 bd31 9338 a2a5 1d39
000003a0: 7b5a c638 c1e8 fe38 3b67 e638 6599 ea38
000003b0: 57cb f538 0559 c338 ab7c 1b39 c806 f238
000003c0: a8b0 c538 fc52 f938 dc22 0339 69b5 9738
000003d0: fa23 d238 e493 d338 6f54 b238 d801 1839
000003e0: b94a e738 96a0 d938 5345 ff38 9319 0539
000003f0: 9fbc b938 9dae cb38 1877 2439 44bf 0939

exp_avg f4 [20, 20]
0.0 4.183993e-05 0.0006740486 0.00062888494 -3.423621e-05 0.00016472083 0.00012208674 7.204851e-05
-0.00010080533 0.00044398484 3.7624526e-05 0.00010959203 0.00021160496 0.00013863698 0.00019511816 0.00015346958
0.00010821592 0.00013783188 7.0935486e-05 0.00019847607 5.909378e-05 0.0 -0.0004556886 -0.0015458934
9.751529e-05 -5.781066e-06 -3.088164e-05 6.362721e-05 0.00014321998 -5.8406735e-05 1.717262e-05 -0.0018707028
-0.00024166923 -6.8005036e-05 -2.5743633e-05 2.7538641e-05 -0.00033007533 -2.8502822e-05 -9.520173e-05 -6.157864e-05
-0.00028600454 -0.0009802401 0.0 -0.0030118946 -4.147993e-05 -9.820703e-05 -2.4455512e-05 -0.000107884756
-0.00016682896 -0.000788426 -0.0003880021 -0.0035282797 -0.0006956685 -0.0006850233 -0.00037479485 -0.0001467642
-0.0009155757 -0.00013124442 -0.00045014115 -0.00040212143 6.597509e-05 0.0001329718 0.0011334342 0.0
-0.00010508455 0.00018433864 0.00010974436 5.6482524e-05 -0.0002286031 0.00095313636 0.00024324475 -0.0019438659
0.0005590941 0.00037609416 0.00024073919 0.00015190241 2.1729498e-05 0.00013710563 6.8885754e-05 0.00030781448
0.00044497877 0.00057284586 0.001545828 0.0013453888 0.0 0.00023458083 0.000105254345 0.00027394562
0.0005402312 0.001165292 0.00067092915 0.0014744311 0.00067717413 0.00096179516 0.0005647894 0.0002815068
0.00069013226 0.00019596324 0.0004335537 0.0005026922 7.5310934e-05 0.00023869726 0.00090951315 0.00057039567
0.00014994154 0.0 6.6615896e-05 5.8226153e-05 0.0003128726 0.00056006917 0.00036878366 0.00012895986
0.00061642117 0.00030894618 0.00012607669 7.1942144e-05 8.259586e-06 5.8360365e-05 -1.0057569e-05 0.00018615095
3.0070065e-05 0.00012842662 0.00054136524 0.00047140953 0.00010708494 5.3775046e-05 0.0 2.5876623e-05
0.00033214493 0.00040122584 0.00030763142 0.00029927774 0.00031096197 0.0003204364 0.00010525275 4.3751978e-05
3.5091667e-05 2.5689182e-05 1.1001441e-05 0.00011622284 7.322234e-05 0.0002303036 0.00097473024 0.00041764806
-2.820202e-05 0.00013372 0.00011472983 0.0 0.00012477636 0.0006599221 0.00026272383 -0.00012200955
0.0004601881 0.00025337626 0.00020955421 0.0001195737 9.7359625e-05 0.00012392273 1.3868733e-05 0.00023390351
0.0001861937 -0.00020891913 0.00017866211 -0.00086159434 0.0002333366 6.9742e-05 5.22211e-06 0.00012457462
0.0 0.0003233425 4.7969133e-05 -0.0005516657 0.00012304288 0.00015747397 6.995488e-05 0.00012551571
-8.7079316e-05 2.1584394e-05 1.5949992e-05 3.8552364e-05 2.637666e-05 -0.00047724866 -0.00052210415 -0.001708557
4.764338e-05 1.9463621e-05 2.5939047e-05 4.69637e-05 -1.4421382e-05 0.0 -3.6780377e-05 -0.0019879164
-6.2477186e-05 -0.0001526204 -3.6697078e-05 2.5584226e-05 -0.00030618862 -4.149099e-06 -0.00011918764 -5.1162053e-05
0.00011394138 -0.0002607215 -9.609676e-05 -0.0005317997 0.00021946173 5.188799e-05 2.3256891e-05 8.808232e-05
-6.317706e-05 0.0001390549 0.0 -0.0007214052 0.000112619826 -2.2418331e-05 2.418887e-06 8.4061736e-05
-0.00011288971 1.7004266e-05 -4.8502166e-05 -3.092432e-05 -3.76803e-05 8.35515e-05 0.0017290193 -0.0033056217
-0.00022810226 0.00015386591 0.00014577254 1.2689815e-05 -0.00053479045 0.0010699856 8.9985246e-05 0.0
0.00056090194 0.00014491194 0.0002554488 7.41929e-05 -2.2535804e-05 0.00015823386 -7.2042654e-05 0.0004295146
6.8316265e-05 -0.00048810727 -0.00033368345 -0.0018654915 0.0001645544 1.6745298e-05 -1.9988995e-05 6.595182e-05
0.00011415105 7.0471426e-05 7.291446e-05 -0.0017047633 0.0 3.7587808e-05 -1.6970724e-05 2.8831291e-05
00000000: 0000 0000 487d 2f38 a3b2 303a c1db 243a
00000010: da98 0fb8 e9b8 2c39 6904 0039 c018 9738
00000020: 7367 d3b8 a3c6 e839 07cf 1d38 c6d4 e538
00000030: 46e2 5d39 155f 1139 a298 4c39 adec 2039
00000040: fbf1 e238 f786 1039 33c3 9438 041e 5039
00000050: 77db 7738 0000 0000 7de9 eeb9 939f caba
00000060: 1f81 cc38 fbfa c1b6 e986 01b8 996f 8538
00000070: 522d 1639 c1f9 74b8 ec0d 9037 5f32 f5ba
00000080: 9768 7db9 ed9d 8eb8 08f4 d7b7 c802 e737
00000090: f60d adb9 5819 efb7 0aa7 c7b8 c823 81b8
000000a0: e1f2 95b9 667b 80ba 0000 0000 3563 45bb
000000b0: bcfa 2db8 7ff4 cdb8 d025 cdb7 3040 e2b8
000000c0: cfee 2eb9 60ae 4eba c36c cbb9 b63a 67bb
000000d0: 865d 36ba 2393 33ba 1d80 c4b9 b7e4 19b9
000000e0: 3f03 70ba a89e 09b9 ec00 ecb9 d3d3 d2b9
000000f0: 1b5c 8a38 596e 0b39 be8f 943a 0000 0000
00000100: d760 dcb8 074b 4139 8e26 e638 a6e7 6c38
00000110: 2db5 6fb9 e6db 793a 840f 7f39 51c9 feba
00000120: 2b90 123a 812e c539 ef6e 7c39 fe47 1f39
00000130: be47 b637 03c4 0f39 c276 9038 2962 a139
00000140: 0a4c e939 092b 163a 619d ca3a c257 b03a
00000150: 0000 0000 d0f9 7539 ffbb dc38 5ca0 8f39
00000160: 4d9e 0d3a b6bc 983a 4be1 2f3a b341 c13a
00000170: 6384 313a fb20 7c3a 600e 143a 3497 9339
00000180: fee9 343a 7b7b 4d39 984e e339 1ac7 033a
00000190: 40f0 9d38 cf4a 7a39 656c 6e3a 9b86 153a
000001a0: a039 1d39 0000 0000 23b4 8b38 db37 7438
000001b0: 0d09 a439 9bd1 123a 4e59 c139 6639 0739
000001c0: 5397 213a 0efa a139 7433 0439 a5df 9638
000001d0: a792 0a37 f7c7 7438 eebc 28b7 8431 4339
000001e0: f93e fc37 42aa 0639 68ea 0d3a 8427 f739
000001f0: ca92 e038 848c 6138 0000 0000 a011 d937
00000200: bd23 ae39 9f5b d239 9749 a139 61e8 9c39
00000210: 9c08 a339 3f00 a839 24bb dc38 5482 3738
00000220: 642f 1338 197f d737 d492 3837 a9bc f338
00000230: f28e 9938 a77d 7139 0a85 7f3a c6f7 da39
00000240: 6093 ecb7 3037 0c39 1c9b f038 0000 0000
00000250: 66d6 0239 9ffe 2c3a 32be 8939 61df ffb8
00000260: 6745 f139 96d7 8439 c8bb 5b39 a4c3 fa38
00000270: 8d2d cc38 41f1 0139 c1ad 6837 ff43 7539
00000280: fe3c 4339 4d11 5bb9 3f57 3b39 9edc 61ba
00000290: d1ab 7439 7342 9238 9539 af36 3fa0 0239
000002a0: 0000 0000 4c86 a939 7732 4938 a99d 10ba
000002b0: 1205 0139 991f 2539 bdb4 9238 de9c 0339
000002c0: 5a9e b6b8 2210 b537 59cc 8537 49b3 2138
000002d0: 7243 dd37 3b37 fab9 d1dd 08ba a9f1 dfba
000002e0: b1d4 4738 cf45 a337 ae97 d937 e4fa 4438
000002f0: 5df3 71b7 0000 0000 a144 1ab8 b447 02bb
00000300: 2f06 83b8 ba08 20b9 30eb 19b8 b59d d637
00000310: f187 a0b9 7d38 8bb6 61f4 f9b8 d696 56b8
00000320: d0f3 ee38 73b1 88b9 8e87 c9b8 7968 0bba
00000330: 4f1f 6639 4ea2 5938 cb17 c337 d6b8 b838
00000340: ed7d 84b8 44cf 1139 0000 0000 af1c 3dba
00000350: 4f2e ec38 000f bcb7 2a54 2236 4d4a b038
00000360: 34bf ecb8 62a4 8e37 ce6e 4bb8 bcb4 01b8
00000370: ea0a 1eb8 5f38 af38 43a0 e23a 21a3 58bb
00000380: bc2e 6fb9 1157 2139 85da 1839 57e6 5437
00000390: 2e31 0cba c23e 8c3a 76b6 bc38 0000 0000
000003a0: 7e09 133a 81f3 1739 c2ed 8539 0398 9b38
000003b0: 450b bdb7 94eb 2539 9b15 97b8 7930 e139
000003c0: 0445 8f38 a6e8 ffb9 3cf2 aeb9 8283 f4ba
000003d0: 3c8c 2c39 4178 8c37 0aae a7b7 9d4f 8a38
000003e0: 6164 ef38 0fca 9338 a7e9 9838 5d72 dfba
000003f0: 0000 0000 9aa7 1d38 5a5c 8eb7 bada f137

exp_avg_sq f4 [20, 20]
0.0 4.396111e-06 4.56339e-06 3.274105e-05 6.178928e-07 1.9372011e-07 2.1288061e-07 1.0370542e-07
2.2185945e-06 2.1196727e-06 1.6930899e-06 1.894389e-05 4.8340135e-06 1.728007e-06 4.7679927e-07 6.755773e-08
7.553665e-07 1.8209373e-07 2.2957677e-07 7.7152504e-07 2.6401293e-07 0.0 3.2379724e-06 4.817467e-05
6.209137e-07 4.3711417e-08 3.922048e-08 9.257164e-08 1.4721746e-06 5.6418514e-07 5.160984e-07 2.408117e-05
2.8539578e-06 5.2163296e-07 1.4169922e-07 3.0750478e-08 7.8101476e-07 3.6331244e-08 2.6842454e-07 1.5302419e-07
5.453073e-07 4.182118e-06 0.0 4.7909576e-05 1.0235283e-06 2.0477415e-07 2.008084e-07 2.680507e-07
2.9892537e-06 1.6669985e-06 1.6871546e-06 2.9522103e-05 5.339594e-06 1.5373489e-06 4.581303e-07 1.2125153e-07
1.6183685e-06 1.285175e-07 6.137784e-07 5.3526486e-07 1.5449525e-07 1.0096098e-05 1.4520562e-05 0.0
6.35677e-07 3.714958e-07 4.5905938e-07 1.6673741e-07 3.7075038e-06 4.1031935e-06 2.9194891e-06 2.1960885e-05
1.074565e-05 2.8681798e-06 6.5925644e-07 1.6780365e-07 6.5716875e-07 2.6684208e-07 1.5797136e-07 1.1817186e-06
4.485406e-07 1.0511519e-05 8.105583e-06 5.8130227e-05 0.0 4.1127169e-07 4.5929997e-07 2.6831205e-07
5.511274e-06 3.8599524e-06 3.7926093e-06 2.5643198e-05 1.1449056e-05 3.0866734e-06 6.1979097e-07 1.7809231e-07
7.623e-07 2.84953e-07 4.1377558e-07 1.1856499e-06 1.8437147e-07 2.0767404e-06 3.140445e-06 1.0120535e-05
2.6502056e-07 0.0 3.465205e-08 6.965704e-08 8.452716e-07 9.08731e-07 6.046937e-07 5.341482e-06
2.2785987e-06 6.849394e-07 2.0493793e-07 1.9934657e-08 4.5006703e-07 5.1315876e-08 2.0253606e-07 2.7361392e-07
1.3407914e-07 1.9053266e-06 1.7777162e-06 5.416691e-06 3.9159676e-07 5.696376e-08 0.0 6.642513e-08
9.1347187e-07 6.7778177e-07 5.974253e-07 2.1868418e-06 2.0830264e-06 5.2411195e-07 1.18161864e-07 3.2758525e-08
1.4230491e-07 4.3282395e-08 1.16925804e-07 1.9527977e-07 1.6679128e-07 3.882417e-06 5.076391e-06 2.430285e-05
4.5657663e-07 1.0674924e-07 1.13785624e-07 0.0 1.690352e-06 1.8643277e-06 1.2996601e-06 1.4455846e-05
4.1661538e-06 1.4768829e-06 3.978046e-07 3.245516e-08 6.6488525e-07 1.2625028e-07 2.0012166e-07 6.19935e-07
5.1493646e-07 3.1787756e-06 3.941539e-06 7.8291756e-05 1.0016221e-06 1.1935464e-07 1.04456255e-07 1.9529077e-07
0.0 1.1067382e-06 1.0514176e-06 3.4342214e-05 4.0204864e-06 9.680913e-07 2.7389646e-07 7.614552e-08
1.0885423e-06 8.850762e-08 4.900487e-07 3.4769815e-07 2.401025e-07 1.5818172e-06 3.573074e-06 3.994968e-05
4.0158918e-07 2.4130614e-08 1.7574024e-08 7.744828e-08 1.2098809e-06 0.0 4.7061738e-07 2.283013e-05
2.4489868e-06 4.6924643e-07 1.2722427e-07 2.0297964e-08 7.9069173e-07 2.2068162e-08 2.7615482e-07 1.1873771e-07
3.7946972e-07 1.3732457e-06 2.6144496e-06 5.235224e-05 5.74081e-07 3.2554578e-08 2.6645424e-08 1.2558172e-07
1.2203254e-06 4.3643786e-07 0.0 2.4951547e-05 2.0313998e-06 4.363936e-07 1.6644974e-07 3.2417383e-08
9.568776e-07 3.1292636e-08 3.8104486e-07 1.3578199e-07 3.3353157e-07 1.8536153e-05 2.880678e-05 5.8637426e-05
1.1060599e-06 7.289366e-07 7.1348757e-07 3.351189e-07 5.8425044e-06 8.468546e-06 5.280425e-06 0.0
1.9027859e-05 6.068513e-06 1.5498006e-06 3.0142849e-07 1.3240584e-06 6.5421153e-07 3.944371e-07 2.683975e-06
3.4797742e-07 1.8469719e-06 3.3925414e-06 6.116473e-05 5.8949854e-07 3.7435598e-08 3.206276e-08 1.16027955e-07
1.3070188e-06 5.490379e-07 4.5164734e-07 2.934407e-05 0.0 5.010732e-07 1.7555173e-07 3.116774e-08
00000000: 0000 0000 4e82 9336 391f 9936 6f53 0938
00000010: 45dd 2535 6101 5034 2d94 6434 a8b4 de33
00000020: 2ae3 1436 b33f 0e36 203e e335 b2e9 9e37
00000030: dc33 a236 deed e735 cbfa ff34 4114 9133
00000040: 64c4 4a35 8b85 4334 9581 7634 cc1a 4f35
00000050: a9bd 8d34 0000 0000 f14b 5936 280f 4a38
00000060: ddac 2635 36bd 3b33 6073 2833 cccb c633
00000070: 8997 c535 8272 1735 038a 0a35 eb01 ca37
00000080: 9f86 3f36 5806 0c35 fc25 1834 8212 0433
00000090: eda6 5135 a00a 1c33 fd1b 9034 f84e 2434
000000a0: 3b61 1235 1f54 8c36 0000 0000 84f2 4838
000000b0: 2a60 8935 e4df 5b34 cb9d 5734 9ce8 8f34
000000c0: fd9a 4836 a2bd df35 3172 e235 3ca6 f737
000000d0: c32a b336 e856 ce35 f3f4 f534 5e31 0234
000000e0: b836 d935 9ffe 0934 88c2 2435 1faf 0f35
000000f0: 55e3 2534 6962 2937 579d 7337 0000 0000
00000100: 64a3 2a35 fe71 c734 a474 f634 6e08 3334
00000110: 6ece 7836 2aae 8936 71ec 4336 a438 b837
00000120: 3748 3437 f47a 4036 c2f7 3035 842d 3434
00000130: 4b68 3035 7f42 8f34 d69e 2934 8b9b 9e35
00000140: f3ce f034 a15a 3037 37fd 0737 dbd0 7338
00000150: 0000 0000 c0cc dc34 b595 f634 870c 9034
00000160: 7ced b836 bd84 8136 8884 7e36 591c d737
00000170: 5215 4037 a524 4f36 b65f 2635 a439 3f34
00000180: dba0 4c35 a4fb 9834 e224 de34 9f22 9f35
00000190: a5f7 4534 215e 0b36 6fc0 5236 5ecb 2937
000001a0: 2648 8e34 0000 0000 55d4 1433 5d96 9533
000001b0: 9fe6 6235 85ef 7335 3c52 2235 fb3a b336
000001c0: 07ea 1836 addc 3735 e90c 5c34 c63c ab32
000001d0: bea0 f134 6766 5c33 b078 5934 36e5 9234
000001e0: 65f7 0f34 86ba ff35 dd99 ee35 05c1 b536
000001f0: a63c d234 51a8 7433 0000 0000 9aa5 8e33
00000200: 4f35 7535 cff0 3535 c15e 2035 a8c1 1236
00000210: 1fca 0b36 b3b0 0c35 2cc0 fd33 61b2 0c33
00000220: 7acc 1834 7fe5 3933 a418 fb33 18ae 5134
00000230: 3d17 3334 b545 8236 de55 aa36 f9dd cb37
00000240: 6a1f f534 043e e533 4f5a f433 0000 0000
00000250: 0de0 e235 d039 fa35 fb6f ae35 6387 7237
00000260: fdca 8b36 4f39 c635 d991 d534 d364 0b33
00000270: 917a 3235 6a8f 0734 06e1 5634 9c69 2635
00000280: 2a3a 0a35 f352 5536 9041 8436 9130 a438
00000290: 796f 8635 f427 0034 6f51 e033 1eb1 5134
000002a0: 0000 0000 3c8b 9435 6f1e 8d35 ac0a 1038
000002b0: b7e7 8636 5def 8135 0b0c 9334 7185 a333
000002c0: 071a 9235 9411 be33 e48b 0335 45ab ba34
000002d0: 70e7 8034 d34e d435 f2c8 6f36 a48f 2738
000002e0: ff99 d734 c847 cf32 b0f5 9632 a451 a633
000002f0: 3163 a235 0000 0000 29a9 fc34 5583 bf37
00000300: 4659 2436 bdec fb34 249b 0834 b25b ae32
00000310: ec3f 5435 6790 bd32 6e42 9434 bffc fe33
00000320: ecb9 cb34 5d50 b835 e773 2f36 ca94 5b38
00000330: 8c1a 1a35 23d2 0b33 e8e1 e432 a4d7 0634
00000340: 10ca a335 904f ea34 0000 0000 0a4f d137
00000350: 2f53 0836 7b49 ea34 5bb9 3234 4a3b 0b33
00000360: 106e 8035 9e66 0633 6892 cc34 78cb 1134
00000370: 3b10 b334 167e 9b37 17a6 f137 75f1 7538
00000380: ee73 9435 24ac 4335 7e86 3f35 64ea b334
00000390: bb0a c436 2114 0e37 812e b136 0000 0000
000003a0: 049e 9f37 21a0 cb36 be02 d035 04d4 a134
000003b0: 4db6 b135 139d 2f35 06c3 d334 571e 3436
000003c0: a7d1 ba34 79e5 f735 6bab 6336 9045 8038
000003d0: 083e 1e35 e0c8 2033 61b5 0933 0b2b f933
000003e0: d36c af35 9961 1335 f079 f234 e927 f637
000003f0: 0000 0000 7d81 0635 4b7f 3c34 4bdd 0533

exp_avg f4 [9, 20]
-1.0219691e-05 0.00025156618 0.00032559896 0.0006023941 6.6767745e-05 5.2146775e-06 1.3913035e-05 8.5064823e-07
0.00019903448 0.000194442 0.00017349432 0.00051640405 0.00030784277 0.00021243462 3.376184e-05 7.189886e-07
-7.759666e-07 -6.9077973e-06 1.0003036e-05 9.6906886e-05 -0.00049178925 -0.005850937 -0.009944125 -0.00082152773
-0.00063018675 -0.0015207436 -0.0013000693 -0.00075852574 -0.0034507785 -0.006817189 -0.005758079 -0.0017008536
-0.0067411815 -0.005722173 -0.0033465216 -0.0008902877 -0.0012382517 -0.0015289242 -0.0008311564 -0.0043606483
-0.0003400172 0.0015063317 0.0021904544 0.0034778484 -0.00027230172 -6.977672e-05 -0.0004884224 -0.0002953428
0.00029573974 0.001202066 8.208728e-05 0.003576938 0.0010702073 0.00066034513 0.00032114828 0.00033396587
0.0016031443 0.00040989617 -0.00019216619 -0.00021474765 -0.0022878267 0.00075855595 0.0031417722 -0.0017496174
-0.0009522943 -0.00040657035 0.00024503042 -0.0016964925 -0.000360362 0.0007153717 0.000641447 -0.0023514943
0.002028784 7.0359914e-05 -0.0012120433 -0.0011863759 -0.0029824602 -0.00089290814 -0.0029535189 -0.00030528786
0.0014556433 0.0015081525 0.0031063617 0.0047601736 0.0019208987 0.0016127286 0.0014791624 0.0014535558
0.0036701355 0.0027661729 0.004157137 0.0030378422 0.0027830382 0.0032946824 0.0024020672 0.00078944693
0.00057337916 0.00087649334 0.0017426456 0.00275738 0.0018823574 0.0014857458 0.0015911934 0.00646391
0.00042875073 0.00056069734 0.00012932274 0.0013306147 0.00094550266 0.0012165323 0.0010245944 0.0058374777
0.00084864575 0.0013830828 0.0017361864 0.0012667185 0.0027886273 0.001248046 0.002127812 0.0017267396
0.00012668894 2.3139148e-05 -0.000112509224 -0.0068369214 -0.0003772767 -0.00010394493 -8.7931585e-05 9.843153e-05
-9.2104914e-05 0.00043879962 0.00010423184 -0.0055082003 -0.00064634 0.00013539816 0.00013473262 -3.4901386e-05
-0.0004812724 4.9466867e-05 0.00011499739 0.00025633248 0.00070417515 -1.4578403e-05 0.00029205298 -0.001238946
-0.00035230047 0.00016484184 4.2940574e-05 0.0005338951 -0.0015037892 0.00028415493 -0.0005671761 0.00095620484
-0.00022345991 0.00022575144 0.0004916664 0.00033791724 0.0010272793 8.747869e-05 0.0007582001 0.0004967735
-0.0010390112 0.00033202564 -0.00059079845 -0.004657313 0.0001679435 -0.00024244605 -3.3945027e-05 -0.0006669863
0.00029662295 -3.4844203e-07 0.00014226467 -0.004364318 0.00057246356 -0.00025988065 -0.0005609971 -0.0006172021
-0.0012896697 -0.00024264067 -0.000776816 -0.00045344682
00000000: 3d75 2bb7 a4e4 8339 27b5 aa39 fce9 1d3a
00000010: a905 8c38 bdf9 ae36 086c 6937 1a58 6435
00000020: e9b3 5039 20e3 4b39 07ec 3539 4a5f 073a
00000030: f565 a139 fcc0 5e39 809b 0d38 8500 4135
00000040: 054c 50b5 87c9 e7b6 b6d2 2737 7d3a cb38
00000050: 6beb 00ba 38b9 bfbb afec 22bc cb5b 57ba
00000060: 1e33 25ba b053 c7ba 1667 aaba cdd7 46ba
00000070: 7526 62bb ba62 dfbb 44ae bcbb 2def deba
00000080: 21e5 dcbb 1181 bbbb 5151 5bbb 3262 69ba
00000090: d54c a2ba 2f66 c8ba f6e1 59ba c5e3 8ebb
000000a0: 5644 b2b9 1b70 c53a ba8d 0f3b 9dec 633b
000000b0: b8c3 8eb9 1755 92b8 7909 00ba 3dd8 9ab9
000000c0: 840d 9b39 a48e 9d3a 4626 ac38 106b 6a3b
000000d0: 3346 8c3a 031b 2d3a cb5f a839 2418 af39
000000e0: 9920 d23a 55e7 d639 3880 49b9 e22d 61b9
000000f0: 5def 15bb d4d9 463a 31e6 4d3b 6b53 e5ba
00000100: 63a3 79ba f328 d5b9 6d77 8039 d85c deba
00000110: f8ee bcb9 c887 3b3a c826 283a 871b 1abb
00000120: 59f5 043b 318e 9338 6ddd 9eba 2b80 9bba
00000130: 6175 43bb 0d12 6aba d38f 41bb 0b0f a0b9
00000140: 49cb be3a 33ad c53a 1a94 4b3b 3bfb 9b3b
00000150: aac6 fb3a 3162 d33a 74e0 c13a 3d85 be3a
00000160: a886 703b ae48 353b 9838 883b 8916 473b
00000170: a263 363b 99eb 573b 006c 1d3b e3f2 4e3a
00000180: d34e 163a 79c4 653a 7c69 e43a 29b5 343b
00000190: 6fb9 f63a 5bbd c23a 978f d03a 35cf d33b
000001a0: f3c9 e039 c3fb 123a cf9a 0739 0568 ae3a
000001b0: 9cdb 773a 0d74 9f3a af4b 863a 5048 bf3b
000001c0: a777 5e3a 8f48 b53a c090 e33a 0508 a63a
000001d0: 67c1 363b 7a95 a33a c372 0b3b c453 e23a
000001e0: ced7 0439 f11a c237 eef2 ebb8 4108 e0bb
000001f0: 39cd c5b9 02fd d9b8 e967 b8b8 066d ce38
00000200: 7328 c1b8 b00e e639 0b97 da38 227e b4bb
00000210: 256f 29ba abf9 0d39 0347 0d39 1463 12b8
00000220: 4a53 fcb9 a57a 4f38 c12a f138 5d64 8639
00000230: 6598 383a c495 74b7 b01e 9939 2164 a2ba
00000240: f8b4 b8b9 65d9 2c39 171b 3438 18f5 0b3a
00000250: cb1a c5ba a1fa 9439 8bae 14ba d2a9 7a3a
00000260: 9050 6ab9 b1b7 6c39 2ce3 003a 7c2a b139
00000270: c6a5 863a c474 b738 f3c1 463a e839 023a
00000280: 6e2f 88ba ba13 ae39 d0df 1aba 609c 98bb
00000290: fd19 3039 1e39 7eb9 3260 0eb8 b1d8 2eba
000002a0: 0f84 9b39 8211 bbb4 e22c 1539 8e02 8fbb
000002b0: 6111 163a 9740 88b9 e10f 13ba bbcb 21ba
000002c0: 220a a9ba 5c6d 7eb9 3da3 4bba 9abc edb9
