checkpoints/RNN_190.pt (torch, 111359 bytes, 9 tensors)

snn.l1.input_weights f4 [20, 416]
000000 99 3d da 3c 48 0d 42 3f d2 44 9e 3e 49 e8 68 3e
       0.0266407 0.75801516 0.3091188 0.2274486
000010 fb fb 07 bf 5a 4b d3 3e b4 fa 06 be fb 77 fd 3e
       -0.53118867 0.41268426 -0.13181573 0.495056
000020 b6 82 fa 3c fa 29 36 3f db 18 cc 3e c4 03 ef bd
       0.030579906 0.711578 0.39862713 -0.1167064
000030 72 95 7b 3d 9d 5c 2b bf ac 6b 0e 3f 88 4d 93 3e
       0.06142182 -0.6693819 0.55633044 0.2877009
000040 d1 3e c6 be cb 82 ba bd 61 f9 8e bd 3f 1a 14 be
       -0.387198 -0.09106978 -0.06981159 -0.14463137
000050 28 b2 0e 3f a4 4d 01 3d 6e 50 a2 3e e7 55 f6 3e
       0.55740595 0.031568184 0.31701988 0.48112413
000060 bb 4e c8 3e 56 30 18 3f a8 55 c6 3d 55 cd c3 3e
       0.39122567 0.59448755 0.096843064 0.38242593
000070 5b f8 18 3f f8 61 a3 bd d1 ec 38 3f f5 06 53 3f
       0.5975396 -0.079776704 0.72236353 0.8243249
000080 eb c6 c6 3e 2b 96 82 be 95 6d 97 be e2 5f 95 3d
       0.38823637 -0.25505194 -0.29575792 0.07293679
000090 e2 11 85 3f 49 cf 7a 3e 4e 86 b4 be eb 99 99 3e
       1.0396082 0.24493136 -0.35258716 0.30000243
0000a0 af b1 8f be 37 c4 4e 3f b1 38 bb 3a 90 24 4c 3f
       -0.2806525 0.8076815 0.0014283863 0.7974329
0000b0 bb f2 37 3f 11 d5 b5 3e f7 3c 33 3f 9d 93 8a 3e
       0.7185475 0.3551412 0.700149 0.27065745
0000c0 51 c5 aa 3e 51 0b 3c bf b9 58 4e bd 19 74 83 3d
       0.33353665 -0.7345477 -0.05037758 0.06418628
0000d0 28 5b ac 3f f6 a6 8a 3f d7 2a 3f 3f e4 8a 95 3f
       1.3465319 1.0832202 0.74674743 1.1683011
0000e0 6a 62 6b 3f 80 01 8b 3f ad 0a b7 3f 9f 09 bd 3f
       0.9194704 1.0859833 1.4300133 1.4768561
0000f0 7c dd c1 3f 0f d0 30 3f e9 89 b6 3f 8e 6c 63 3f
       1.5145717 0.6906747 1.4260837 0.88837516
000100 ac 6c c5 3f d0 6f c3 3f dd 27 ab 3f 18 8c dd 3f
       1.5423789 1.5268497 1.337154 1.7308378
000110 3b 5c b4 3f e8 ad 67 3f d2 5d 8f 3e e5 49 0e 3f
       1.4090647 0.90499735 0.28001267 0.55581504
000120 95 54 97 3f 71 5b b6 3f b7 cc 85 3f 8b fd 92 3f
       1.1822687 1.4246656 1.0453099 1.1483625
000130 1b 65 be 3f c6 18 4e 3f 62 42 c6 3f 03 ca 7e 3f
       1.4874605 0.8050655 1.5489008 0.99526995
000140 d8 13 d3 3f d6 50 c7 3f 66 e3 82 3f 52 2d d8 3f
       1.6490431 1.5571544 1.0225646 1.6888831
000150 88 a6 a5 3f 62 b4 8c 3f da a8 2e 3f 40 8c 79 3f
       1.2941446 1.0992548 0.682264 0.9747963
000160 31 4d 7a 3f d4 3d 95 3f 3a 23 96 3f 7b c4 ae 3f
       0.97774035 1.1659493 1.17295 1.3653711
000170 c0 aa da 3f 75 37 99 3f a4 da 98 3f 10 5a 7f 3f
       1.7083359 1.1970049 1.1941724 0.997468
000180 51 1a 83 3f e5 77 dc 3f 57 ba 81 3f c7 09 de 3f
       1.0242406 1.7224089 1.0134991 1.7346734
000190 af 48 24 3f f8 ca ae 3e 9e ab 8e 3f f9 cc aa 3f
       0.64173406 0.34139228 1.1146123 1.3343803
0001a0 69 2d 12 40 9c f5 08 40 f7 f0 d8 3f 9e b1 db 3f
       2.2840216 2.1399908 1.6948537 1.716358
0001b0 63 75 0d 40 87 9a 2f 40 52 1d c3 3f f5 1e 1b 40
       2.2102897 2.7438066 1.5243323 2.4237645
0001c0 c1 39 b0 3f a4 6c 01 40 16 1e 20 40 33 2d 29 40
       1.3767625 2.022256 2.5018363 2.6433837
0001d0 a3 fc 15 40 dc 45 ed 3f 53 76 c6 3f 4b b4 0a 40
       2.3435447 1.8536944 1.550486 2.1672542
0001e0 2d 37 0a 40 c2 f4 f1 3f e3 b2 e8 3f 13 2f fb 3f
       2.1596177 1.8902819 1.8179592 1.9623741
0001f0 74 65 0e 40 7b 36 07 40 61 6c de 3f 70 f0 e6 3f
       2.2249422 2.1127002 1.7376825 1.8042126
000200 f1 15 c0 3f 48 b9 03 40 3f fb 15 40 02 ec 36 40
       1.5006696 2.0581837 2.3434598 2.8581548
000210 46 ae 1f 40 23 57 d6 3f e3 4e c3 3f b8 21 b1 3f
       2.4950118 1.6745342 1.5258449 1.3838415
000220 e8 79 0c 40 f8 22 02 40 05 a2 d2 3f 9d fe 03 40
       2.1949406 2.0333843 1.6455694 2.0624154
000230 da 3e 00 40 06 11 df 3f 3c 4f f3 3f 26 c1 f0 3f
       2.0038362 1.742707 1.9008555 1.8808944
000240 2f 5b c5 3f df 29 1f 40 f7 91 1b 40 3d b4 4d 40
       1.5418452 2.4869306 2.430784 3.2141259
000250 b7 d7 29 40 8f 3b ce 3f c5 3e bc 3f 4b a7 e4 3f
       2.6537912 1.6111926 1.4706656 1.7863554
000260 8e cc 1f 40 a9 0b ef 3f 55 1b d0 3f 13 c9 25 40
       2.49686 1.8675433 1.6258341 2.5903976
000270 5b fd a5 be f6 ad 04 3f 07 23 0f 3f 16 43 b2 3e
       -0.32419857 0.51827943 0.5591282 0.34816808
000280 85 93 38 3f bb 4d ea 3d b8 11 6a 3f 05 c7 b8 3f
       0.72100097 0.11440607 0.91433287 1.4435736
000290 f1 bd 86 3f 7d 25 23 3f 44 e0 6a 3f 9f 07 5f 3f
       1.0526716 0.6372908 0.9174845 0.87121004
0002a0 9d 94 38 3f d6 98 b5 3e e1 36 d2 3e 3f ff 09 be
       0.72101766 0.35468167 0.41057494 -0.13476275
0002b0 af 60 dc bd 14 a2 e4 3e 24 d8 b5 3d f0 e7 b1 3e
       -0.107606284 0.44654906 0.08879116 0.34747267
0002c0 89 29 91 3e c5 0b bc 3d 62 e5 9f 3f 84 95 8e 3f
       0.28352 0.09181932 1.2491877 1.1139379
0002d0 13 ac 4c 3f a4 45 8d 3d 5d 54 87 3e fa 24 7d 3f
       0.79950064 0.068980485 0.26431552 0.98884547
0002e0 91 2b 73 3f 27 15 cb 3e a8 92 7d 3f d0 a0 2d 3f
       0.9498835 0.39664575 0.99051905 0.67823505
0002f0 fe 04 fe bd 85 74 6d 3e 39 28 0f 3f cf 0c c8 3e
       -0.12403296 0.2318898 0.5592075 0.39072272
000300 7a f6 5a 3e 4a 04 90 be 90 96 9f 3f 47 15 7e 3f
       0.21383086 -0.28128272 1.2467823 0.99251217
000310 e1 c4 49 3f 0c 50 c3 3e f0 8d 4d 3e 3e 3e 6d 3f
       0.7881604 0.38147008 0.20073676 0.926731
000320 a4 27 23 3f f4 6f f7 3e 83 69 68 3f 80 5c 34 3f
       0.6373236 0.483276 0.90786 0.70453644
000330 3a fc 02 3f ac 2e 21 3f 0e 63 2e 3e e0 83 2d 3f
       0.5116612 0.6296184 0.17029974 0.6777935
000340 ea 4f c9 3d 90 d0 f2 3e 30 9f 1a 3e b4 b1 76 3d
       0.098296955 0.47424746 0.15099788 0.060228065
000350 f0 5f d9 3e 02 23 49 3e 2b 24 1e bf 52 0b fa 3d
       0.42456007 0.1964226 -0.6177394 0.122091904
000360 a9 02 0f be 6d 1e ad 3d 9b 72 90 3e 7d 2f bd be
       -0.13965859 0.08453069 0.28212437 -0.36950293
000370 76 31 a9 3e d7 13 0a bf 78 2d 20 bf 42 f6 c6 be
       0.33045548 -0.53936523 -0.6256938 -0.38859755
000380 da 42 1e be 99 c0 46 3f da ac 30 bd 5f 82 4f 3d
       -0.1545519 0.7763763 -0.043133594 0.05066144
000390 67 9b 3e 3f 9c 1e 10 be 84 cb 73 bf 68 80 93 3e
       0.74455875 -0.14074177 -0.95232415 0.28808904
0003a0 d4 4a d2 be 5d cb 76 bd d0 09 52 3d c4 9e 81 bd
       -0.41072714 -0.060252536 0.05127889 -0.0632911
0003b0 4a 56 0c 3f e2 25 88 3e be 67 80 be 4d 6b c5 be
       0.54819167 0.26591402 -0.2507915 -0.38558426
0003c0 a0 4c c9 bd e4 06 94 bd 96 3f 5b 3e 3f aa 9d be
       -0.09829068 -0.07227877 0.21410975 -0.3079395
0003d0 e8 64 19 3f 52 84 2f bf da ed 02 bf 60 26 65 3f
       0.59919596 -0.6856128 -0.5114418 0.8951168
0003e0 4e 16 73 be f3 a8 c9 3d d6 44 3b 3e c2 46 0a bf
       -0.23738977 0.09846678 0.18287978 -0.5401422
0003f0 7a 59 04 bd 41 a9 d2 3e af 93 df be b2 12 09 bf
       -0.032311894 0.41144755 -0.4366736 -0.5354415

snn.l1.recurrent_weights f4 [20, 20]
000000 00 00 00 00 30 fd 89 40 8a 52 01 3f e3 4e a5 40
       0.0 4.3121567 0.5051657 5.1658797
000010 2d 10 e1 bd ac 25 bb bf 32 9b a2 be 67 d9 6e c0
       -0.109894134 -1.4620872 -0.3175903 -3.7320192
000020 a3 a8 be 40 ae af 34 40 e5 b0 56 40 e7 ff d0 40
       5.9580855 2.8232226 3.3545468 6.531238
000030 64 b5 ce 40 1d b7 5b 40 31 17 e2 bf 46 40 8e 3c
       6.4596424 3.4330513 -1.7663327 0.017364632
000040 41 f0 a4 40 89 66 a6 c0 7b fa 09 40 75 78 52 3f
       5.154328 -5.2000165 2.155913 0.8221505
000050 ab dc bb be 00 00 00 00 64 91 7e 41 a1 b7 1e 41
       -0.36691794 0.0 15.910496 9.919831
000060 3e b8 7f c0 0b c7 c6 40 09 60 5e 41 6d 10 d4 c0
       -3.9956203 6.211797 13.898446 -6.627005
000070 67 a0 d0 40 db 7e 82 40 77 7b 64 40 80 91 28 41
       6.5195804 4.0779853 3.5700357 10.535522
000080 9e 57 53 41 db e2 94 40 03 b2 2d 3e 39 63 dc 40
       13.208891 4.6526923 0.16962437 6.887112
000090 04 72 c6 bf 4a d8 6c 40 a9 07 af bd 38 fa f2 3f
       -1.5503545 3.7007012 -0.08546383 1.8982611
0000a0 30 b7 18 3f a0 c7 e5 40 00 00 00 00 52 2d 06 41
       0.5965452 7.1806183 0.0 8.386065
0000b0 20 54 55 c0 b8 b5 d0 40 b7 15 22 41 ea 6d 0f c0
       -3.3332596 6.5221825 10.130301 -2.2410836
0000c0 9b 1e 04 40 c4 26 96 40 bd 5d f5 3f 39 b0 29 41
       2.064368 4.692232 1.9169232 10.605523
0000d0 fd ef 13 41 68 fe 82 40 10 d0 9a 40 07 58 c2 40
       9.246091 4.0935555 4.8378983 6.0732455
0000e0 f9 c1 5f bf d9 30 e4 40 3f 29 40 40 19 fd 3a 40
       -0.87405354 7.130963 3.0025175 2.9216979
0000f0 30 04 b9 3e d0 97 67 40 da 0b 05 40 00 00 00 00
       0.36136007 3.618641 2.0788484 0.0
000100 aa 7a 08 3f dc 33 18 c0 6d f1 ba 40 ec 1e 04 40
       0.5331217 -2.3781652 5.841971 2.0643873
000110 b2 51 87 40 8e 5e 55 3f 62 cf 2a 40 46 ec a1 41
       4.2287226 0.83347404 2.6689076 20.240368
000120 2a d4 a8 40 5e fe b9 3f f8 9d 0b 40 31 6d 4e bf
       5.275899 1.4530752 2.1815166 -0.8063536
000130 d7 10 38 40 df d6 05 41 c7 2b fc 40 68 e7 be be
       2.8760278 8.364959 7.880344 -0.37285924
000140 57 06 2f c0 7e a1 04 40 46 5a 4e 40 3d 65 fd 40
       -2.734762 2.0723567 3.2242599 7.918608
000150 00 00 00 00 2f ea 3a c0 a9 ef 2f 40 24 81 b7 c0
       0.0 -2.9205434 2.7490027 -5.734514
000160 a5 10 ab 40 59 b2 c4 3f bf ca 35 40 af 9e e9 40
       5.345782 1.5366927 2.8404996 7.3006206
000170 a5 e9 ad 40 f1 10 c7 3f 52 c0 2e c0 fc da e8 bf
       5.434771 1.5552045 -2.7304883 -1.8191829
000180 63 a7 ad 3f 8a 58 55 c0 71 06 9a c0 64 e4 19 be
       1.3566707 -3.333529 -4.8132863 -0.1502853
000190 59 24 b3 be 17 17 54 40 3f 6c c4 40 3f 66 67 bf
       -0.3498867 3.3139093 6.1382136 -0.9039039
0001a0 4b 1b a2 bd 00 00 00 00 ef c4 ed 3f ab b3 b8 3e
       -0.07915362 0.0 1.8575724 0.36074576
0001b0 03 aa a7 40 ce ee 2e 40 6a 70 3c 40 01 6a af 3f
       5.2395034 2.7333255 2.9443612 1.3704225
0001c0 f1 f1 b3 40 5f d9 83 40 f8 8b ad 40 c5 45 8a 3f
       5.623284 4.1202846 5.423336 1.0802542
0001d0 9d 25 7f 3f 45 69 7d be 08 03 3d 40 87 70 91 3f
       0.9966677 -0.24747188 2.95331 1.1362466
0001e0 53 4f f4 3f 7d 80 8d 40 73 57 cc 40 c5 bb bd 40
       1.9086708 4.4219346 6.385675 5.929171
0001f0 49 f8 d4 bf 74 cb c7 40 00 00 00 00 7f 9f a2 3e
       -1.6638271 6.2435856 0.0 0.3176231
000200 f5 95 23 40 9a 86 de 3f f6 55 2e 3f b4 19 a3 40
       2.5560277 1.7384827 0.68099916 5.0968876
000210 aa 06 93 40 8e 79 f1 3f 0b da f5 3f 07 3f 0b 40
       4.5945635 1.886522 1.9207166 2.175722
000220 aa 35 3a c0 7f 25 09 41 e1 5a 8e 40 ab 9d a8 3f
       -2.9095254 8.571654 4.4485936 1.3173116
000230 00 20 05 c0 e4 f8 11 41 44 a2 8a 40 e8 a1 0f bf
       -2.0800781 9.123264 4.332308 -0.56106424
000240 7e 88 eb 40 2b b1 52 c0 65 ca f6 c0 00 00 00 00
       7.3604116 -3.2920635 -7.7122064 0.0
000250 00 81 be 40 6d ae dd 3f d6 43 3f 40 2b 5d 30 40
       5.953247 1.7318856 2.9885154 2.7556865
000260 46 0b 03 41 59 16 62 40 a5 99 77 c0 0c 18 9f 40
       8.190252 3.532614 -3.8687527 4.9716854
000270 2a e9 dc 3f f2 96 0e c1 d2 2f 39 c0 07 24 9d 3f
       1.7258656 -8.911852 -2.8935437 1.227662
000280 39 d7 5d c1 0b ea 80 40 75 2f 4a 40 73 66 a4 3f
       -13.865045 4.0285697 3.1591465 1.2843765
000290 6c 69 4d c1 c2 85 20 c1 b0 4f 85 c0 01 54 90 c1
       -12.838238 -10.032656 -4.1659775 -18.041018
0002a0 00 00 00 00 0c 04 4b be a9 93 74 40 ef 96 bc bb
       0.0 -0.19825763 3.8215125 -0.0057552974
0002b0 fb 02 0d 41 c4 19 06 40 52 7d 2a c1 57 29 5d c0
       8.813228 2.0953226 -10.655596 -3.4556482
0002c0 2b d8 88 c0 0a f0 4a c1 8b 64 44 c1 a6 3d c9 bf
       -4.2763877 -12.683603 -12.274547 -1.5721939
0002d0 6d 77 5d c1 81 de 8e 40 38 7b e2 40 fe b2 c8 c0
       -13.841657 4.464661 7.0775414 -6.2718496
0002e0 56 72 6d c1 7d e6 09 c1 f6 7b bf c0 31 ec 92 c1
       -14.840414 -8.618772 -5.983882 -18.365328
0002f0 c4 e9 bf 40 00 00 00 00 3f e7 63 40 0d e9 8b c0
       5.997286 0.0 3.5609891 -4.3721986
000300 2f cf f9 40 49 b2 98 40 5f 26 d9 c0 c9 d1 94 c0
       7.806541 4.7717633 -6.785934 -4.6506085
000310 52 95 08 c0 86 fe 3b c1 bc 5d 37 c1 22 c0 98 3f
       -2.1341138 -11.7496395 -11.460384 1.1933634
000320 8f 5f 85 c1 df 92 7f 3f 69 ca 8f 40 ed ee 4b c0
       -16.67166 0.9983348 4.4934583 -3.1864579
000330 6c 4d 5d c1 42 5d 42 c1 e3 8e 14 c1 65 18 a4 c1
       -13.831402 -12.147768 -9.284884 -20.511911
000340 ba cc ec 40 ac 1f 30 40 00 00 00 00 0e 8b 69 c0
       7.399991 2.751933 0.0 -3.6491122
000350 71 2f cf 40 92 dd 66 40 d1 3f 37 c1 c4 25 09 c1
       6.474541 3.6072736 -11.45308 -8.57172
000360 1d 75 96 c0 42 16 7e c1 b6 a8 54 c1 d3 23 df be
       -4.701796 -15.880434 -13.291189 -0.4358202
000370 e7 a9 99 3f a7 b1 c5 3f 78 51 86 3f 95 fa 6f 41
       1.2004975 1.544484 1.0493612 14.998677
000380 e8 2c b6 bf af db da 3f b0 05 80 40 0b c8 be 3f
       -1.4232454 1.7098292 4.0006943 1.4904798
000390 6a 62 e6 3f 24 b9 49 3e 9a 17 3c 3f 00 00 00 00
       1.7998784 0.19699532 0.73473513 0.0
0003a0 ab ad 6d 40 08 4c e7 3f 10 dc a6 3f ed 72 09 be
       3.7137249 1.8070078 1.3035908 -0.13422747
0003b0 26 7e 11 bf 78 ae db 40 3f f2 d7 40 e6 4d 8a 3d
       -0.5683311 6.8650475 6.748321 0.06753139
0003c0 61 3b de c0 87 7c 19 41 6c 8f 1c 41 e7 b5 9d 40
       -6.9447484 9.592902 9.785015 4.928455
0003d0 38 03 16 c1 58 16 86 bf 82 6b b1 40 de d0 3e c1
       -9.375786 -1.0475569 5.5443735 -11.925993
0003e0 3b 67 ef 40 65 55 d9 3f 21 02 94 40 79 23 a6 40
       7.4813514 1.6979185 4.62526 5.19183
0003f0 00 00 00 00 53 e9 7b 40 5f be c2 c0 0b af 75 3f
       0.0 3.936116 -6.0857387 0.9597022

snn.fc_out.weight f4 [9, 20]
000000 f3 6c 76 c0 8d cb 55 3f 02 07 93 be e3 75 27 c1
       -3.8503997 0.8351372 -0.28716284 -10.466281
000010 31 f6 90 be 41 4c 8c c0 a7 49 e1 c0 51 dc 05 41
       -0.2831283 -4.3843083 -7.040241 8.366288
000020 53 6f 56 c0 01 66 98 bd 6c 5c ad bf d9 e5 1f c1
       -3.3505447 -0.07441331 -1.354383 -9.993615
000030 1a 7f 1a c0 7f a6 a6 bf 78 f7 2f bf e6 d8 77 40
       -2.4140077 -1.301956 -0.6873698 3.8726134
000040 52 4b b0 40 18 3e df bf 53 6b 04 c0 37 5c 68 be
       5.5091944 -1.7440825 -2.0690506 -0.22691427
000050 8c 39 31 c0 92 d0 14 40 ef da 04 41 64 60 50 c0
       -2.7691374 2.3252301 8.303451 -3.2558832
000060 bc 44 a2 bf 54 8a ff 3f d1 66 d2 3e 28 36 e6 bf
       -1.2677226 1.9964089 0.41094068 -1.7985277
000070 10 ad 0d 3f fc 14 26 40 d9 77 f4 3f 1b 90 b2 bf
       0.553422 2.5950308 1.9099075 -1.3950227
000080 a7 70 20 40 11 c8 ac 3f ca 94 5a 40 ba 6c b3 c0
       2.5068758 1.3498555 3.4153314 -5.6070223
000090 8e 28 9c bf 31 f6 00 40 2d ed b6 3e 16 19 d7 3f
       -1.2199876 2.0150263 0.35727826 1.6804531
0000a0 bc 2a 3d 40 b0 83 85 3f 84 ac 97 be 8a eb 9a bf
       2.9557333 1.0430813 -0.29623806 -1.2103131
0000b0 33 34 9c 40 cb fd bd 3e 36 43 60 3f 6f 83 9d 3e
       4.881372 0.3710769 0.87602556 0.30764338
0000c0 72 42 85 40 ce 5f 36 3e dd 00 fa 3f ee 3b 3a c0
       4.164361 0.17809984 1.9531513 -2.9099078
0000d0 b3 01 e7 3f 27 a6 1f 3f 00 29 44 3f d9 18 57 40
       1.8047394 0.62362903 0.7662506 3.3608916
0000e0 db 3d ae c0 c7 00 82 c0 b6 77 59 c0 47 9d 3d 3f
       -5.4450507 -4.062595 -3.3979316 0.7406811
0000f0 99 ac 13 40 01 e7 d1 bf e0 a9 f8 bf d8 5b cb c0
       2.3074095 -1.6398622 -1.9426842 -6.3549614
000100 29 97 a8 bf bf 08 90 40 ba 99 a0 bf 41 50 29 3f
       -1.317113 4.5010676 -1.2546914 0.6613808
000110 5f 32 e0 bd f1 5f b7 3f 5f b4 f1 3e 94 33 ec bf
       -0.109471075 1.4326154 0.47207925 -1.845324
000120 ad bc d0 3e 7d ed cd 3f f6 cb 54 40 6a 90 53 40
       0.40768948 1.6088101 3.3249488 3.3056893
000130 db 99 55 40 d5 60 43 c0 ce c8 e9 3e d2 48 93 3f
       3.3375156 -3.0527852 0.45661014 1.1506598
000140 73 70 bb bf 2f c9 44 40 ee 73 c9 3e 99 04 65 c0
       -1.4643692 3.0747793 0.3934626 -3.5784056
000150 44 25 e9 be 24 8b ce bf 18 a3 ae 40 d3 44 5b bf
       -0.45536244 -1.6136212 5.457409 -0.8565189
000160 b6 e4 1d c0 8f c8 3c bf 90 48 f6 bf 4f c0 e4 c0
       -2.4670844 -0.7374353 -1.9240894 -7.148475
000170 ac bb 8c 3f 22 38 d7 bf 61 a1 d5 bf 38 d5 e1 3f
       1.0994773 -1.6814005 -1.6689874 1.7643194
000180 d2 91 00 c0 36 da 87 40 06 50 35 bf 8d 96 a4 bf
       -2.0089002 4.245387 -0.7082523 -1.2858444
000190 65 b2 2e 40 68 24 f8 bf 4f 99 88 c0 b8 8f 3c 3f
       2.7296383 -1.938611 -4.2687144 0.736568
0001a0 f4 31 1c c0 b9 32 5f c0 aa 28 20 c0 37 6c 0f bf
       -2.440549 -3.4874709 -2.502482 -0.560245
0001b0 cb 84 86 c0 3a 4e 74 bf f4 0c 28 c0 d9 db d7 3f
       -4.20371 -0.95431864 -2.6257906 1.6863967
0001c0 c6 05 20 c0 99 e8 02 bf 8b b9 78 c0 cd a2 78 be
       -2.5003524 -0.51136166 -3.8863246 -0.24280854
0001d0 21 ee 61 40 76 7e be bc 70 82 d6 bd 1a 01 fa be
       3.5301592 -0.02325366 -0.10474098 -0.48828965
0001e0 d3 ea 10 c1 22 d1 06 c1 e0 8d 11 c1 f5 e7 a4 40
       -9.05733 -8.426058 -9.097137 5.153315
0001f0 d3 91 97 c0 dc 04 c0 3f 52 ff 7d bf 1b c0 32 be
       -4.736551 1.5001483 -0.9921771 -0.17456095
000200 c7 96 b8 c0 29 c2 02 c1 e2 4d de c0 0a ba 9e 40
       -5.7684054 -8.172402 -6.947007 4.96021
000210 64 30 c2 c0 57 65 c9 c0 30 09 04 c1 75 8b 44 c0
       -6.068407 -6.2936206 -8.252243 -3.0710118
000220 f4 31 4f c0 30 5f b0 3f a2 f3 08 bf 03 a5 83 c0
       -3.237424 1.3779049 -0.53496754 -4.113893
000230 0a 77 87 c0 42 95 22 c0 45 f1 c0 c0 aa 81 07 41
       -4.233281 -2.54036 -6.029452 8.469156
000240 03 c3 06 40 5f fc 28 c0 74 0b d0 bf 95 1b 7f c0
       2.1056526 -2.6404035 -1.6253495 -3.9860585
000250 a9 6a 69 40 ed 51 3f c0 2a 41 07 40 ee 33 54 40
       3.647135 -2.9893754 2.1133523 3.3156695
000260 be 48 74 3e 29 ab b3 bf 15 f0 9c c0 ff f2 0d c1
       0.23855874 -1.4036609 -4.904307 -8.871825
000270 2d bb a4 c0 55 6b ed bd 67 53 b1 3f b1 00 59 c0
       -5.1478486 -0.115927376 1.3853577 -3.3906672
000280 34 63 65 c0 ca 81 36 c1 d5 9b 2a c0 16 9d a7 40
       -3.5841799 -11.406687 -2.6657612 5.2379255
000290 2e 8e 00 c1 d8 20 3d c1 ea 94 18 c1 e8 ed 1b 3e
       -8.034712 -11.8205185 -9.536356 0.15227473
0002a0 6e 74 08 c1 21 e5 62 c0 21 d3 97 c0 d6 88 b1 40
       -8.528425 -3.545235 -4.7445226 5.5479536
0002b0 1e a9 49 c1 3b 77 89 c0 66 54 e6 3f 2c f9 ad c0
       -12.603788 -4.2958045 1.7994506 -5.4366665
0002c0 7e 64 39 bf 6a 55 04 40 6a d1 a3 3e 41 d7 04 bf
       -0.72418964 2.0677133 0.31995708 -0.5189095

exp_avg f4 [20, 416]
000000 b7 26 6c ba ef 6a 0b ba 92 03 b8 ba 96 0c b8 b9
       -0.00090084545 -0.00053183635 -0.001403915 -0.00035104592
000010 02 ef 0b 3b 7d 9d 38 3b 9b 33 ff ba 2d 39 34 bb
       0.0021352177 0.0028170042 -0.0019470336 -0.00274999
000020 a5 f5 c5 bb 9d 6c e1 ba 42 84 10 bb 2c 80 d7 b8
       -0.006041246 -0.0017198507 -0.0022051488 -0.00010275873
000030 00 7d 87 3a e1 d1 a4 38 8b 4d 5a bb 1b 74 57 3b
       0.0010336936 7.8592224e-05 -0.003331038 0.00328756
000040 00 1e 12 3a ff 6c ba ba 93 54 9b 3a 61 81 08 bb
       0.00055739284 -0.0014223157 0.0011850767 -0.002082907
000050 1f 33 9e ba 95 07 43 3a ff 0c c8 3a 02 38 2a b8
       -0.0012069679 0.00074397895 0.0015262662 -4.058332e-05
000060 fe 18 15 3b 7b 85 d1 3a f4 19 a0 bb be 65 67 3a
       0.0022750492 0.0015985215 -0.0048859064 0.00088271115
000070 f7 d7 2e bb 59 18 38 3a 87 e1 69 3a 2d 52 ab 3a
       -0.0026679018 0.0007022671 0.0008921851 0.0013070755
000080 ae c3 ae 3a 18 f9 b6 ba 23 32 85 ba 3c 91 7e 38
       0.0013333464 -0.0013959734 -0.0010162037 6.069358e-05
000090 a4 2a 9c b9 c7 23 4a 3a 24 4c 27 ba 39 43 7d 3b
       -0.00029786408 0.000771102 -0.000638189 0.0038644804
0000a0 d7 d4 df ba 22 8f c7 39 30 d0 41 bb 67 e2 b9 ba
       -0.0017076981 0.0003806288 -0.0029573552 -0.0014181853
0000b0 ea a7 d2 ba 49 6b 12 bb 49 4d f8 ba 1c d1 ac bb
       -0.0016071771 -0.002234178 -0.0018943931 -0.005273951
0000c0 42 08 2d ba 97 2c c4 39 9e 39 01 ba 36 b1 0c 3a
       -0.0006600657 0.00037417255 -0.0004929545 0.00053669827
0000d0 d0 6e 0c 3a 54 3d 55 3b a2 3c 07 bb ea f3 e1 b9
       0.00053570885 0.0032537775 -0.0020635505 -0.00043097074
0000e0 35 fb 14 bb 6a 99 77 bb a1 76 0e 3b 29 84 50 bb
       -0.002273274 -0.003778065 0.0021738189 -0.0031817055
0000f0 7c bd a2 ba 04 6f be 3a 00 3c 0b bb 1a 25 d8 b9
       -0.001241609 0.0014528935 -0.002124548 -0.00041226373
000100 33 66 38 bb 8e 9c ea 39 14 07 b0 3a d2 1f 28 3b
       -0.0028137087 0.000447486 0.0013429844 0.0025653732
000110 f7 08 e2 3a 3e 19 46 3a b7 60 65 3b 8e b2 b7 38
       0.0017245103 0.0007556862 0.0035000273 8.7593784e-05
000120 b4 49 00 bb 49 9b 4d b9 2e 17 47 3a b7 f1 02 bb
       -0.001957518 -0.00019608172 0.00075947016 -0.00199805
000130 d9 b4 42 3a 24 5f 48 bb 56 fc 47 3a ac 8f 13 b9
       0.0007427461 -0.0030574286 0.00076288485 -0.00014072534
000140 a3 80 9c 3a e8 02 28 bb 16 71 4b 3a 1d 17 a2 39
       0.0011940192 -0.0025636498 0.00077606866 0.0003091627
000150 67 36 13 3a cf df dd b8 05 bb 36 bb 9d 9b db ba
       0.00056157116 -0.00010579789 -0.0027882468 -0.001675475
000160 be a7 25 ba dd 17 fc ba 55 18 1d 3b 37 9c e4 3a
       -0.0006319246 -0.0019233186 0.0023970802 0.0017441575
000170 d4 50 96 ba 5a 60 15 bb 20 26 47 ba 4d dd 86 ba
       -0.001146818 -0.0022793026 -0.00075969286 -0.0010289341
000180 e0 c7 86 ba 94 85 56 3a 5f d4 92 3a 36 6a e5 ba
       -0.0010282956 0.0008183357 0.0011202208 -0.0017502967
000190 32 e5 bf ba 95 58 0b 3b 34 6f 4d bb fb 58 36 ba
       -0.0014640449 0.0021262516 -0.00313468 -0.0006956008
0001a0 96 20 62 3a 4d bb 1b 3b 5a 8f 8b ba 2a 53 37 39
       0.00086260715 0.0023762763 -0.001064758 0.00017483221
0001b0 1e d6 d2 ba 05 da b7 36 e9 eb 00 3b 77 c8 b9 b9
       -0.001608554 5.479206e-06 0.0019671863 -0.00035435308
0001c0 15 84 2c bb 52 79 25 b9 56 ab 19 bb 05 2c 20 bb
       -0.0026323844 -0.00015780822 -0.0023448071 -0.00244403
0001d0 9e b9 2f bb 02 bb ca ba 45 9e 67 ba 34 d4 33 3b
       -0.0026813517 -0.001546711 -0.00088355347 0.0027439715
0001e0 50 8d 6e ba bb a6 4d b9 09 f4 32 b6 1d 0c dc 3a
       -0.00091000367 -0.00019612435 -2.6666114e-06 0.0016788278
0001f0 65 9a 0e 3b 6e f2 03 bb c2 57 b4 3a 96 36 31 3b
       0.0021759507 -0.0020133513 0.0013759064 0.0027040592
000200 2a dd 0f 3b a2 63 e0 b9 67 20 05 bb c9 2b 65 3a
       0.0021951892 -0.00042798842 -0.0020313503 0.0008742181
000210 43 48 5c ba df d3 af 3a 27 67 e3 3a 13 2a 1f 3a
       -0.0008403102 0.0013414583 0.0017349467 0.0006071638
000220 ae c7 b3 39 6d b4 e7 ba 6a 69 c9 ba 3b 02 4a 3a
       0.00034290313 -0.0017677672 -0.0015366499 0.0007706021
000230 ee 4b 84 ba ec 0c 49 39 25 5a d1 3a c5 10 9e 3b
       -0.001009343 0.00019173668 0.00159723 0.0048237764
000240 60 e9 e1 38 99 a3 99 ba fd 69 14 3b f9 a4 05 3b
       0.000107723055 -0.001172173 0.0022646182 0.002039252
000250 49 99 1d bb b1 5d 33 3b 8a 89 0f 3b 72 24 fa 39
       -0.0024047664 0.0027369077 0.0021902048 0.0004771087
000260 ad 9c 9a ba 80 f6 d5 3a e2 0c cb ba a6 e1 90 3a
       -0.0011795961 0.0016324073 -0.001549151 0.0011053577
000270 39 71 5d 3b 75 79 a5 bb 86 61 61 39 75 45 58 bb
       0.003378941 -0.005049879 0.00021494002 -0.0033000384
000280 ad 5a 26 bb 26 05 87 3b 9c a6 5f bb d4 8c 85 bb
       -0.0025383637 0.004120487 -0.0034126407 -0.004075626
000290 46 4b a0 3a f8 e5 87 b9 f6 c5 98 ba c3 ac 13 3a
       0.0012229464 -0.00025920547 -0.0011655677 0.00056333485
0002a0 f2 3a 14 3b 77 05 fb bb 2b 18 cd 3b 07 4b 0e 38
       0.0022618142 -0.0076605636 0.0062589846 3.3925313e-05
0002b0 19 66 a9 3a 5a 04 bc 3a e3 f7 01 3a 17 a0 04 3b
       0.0012924104 0.0014344559 0.00049578975 0.0020237023
0002c0 9e ec 25 3b dc 43 83 3a 32 f1 b1 3b 67 4f 80 3b
       0.0025318037 0.001001473 0.005430364 0.0039157155
0002d0 0c fe 30 3b e4 07 16 bb d4 87 81 ba 13 76 d7 3a
       0.0027006892 -0.0022892887 -0.0009882399 0.0016438387
0002e0 62 79 aa ba da 44 fc ba ca fa e0 3b 6b f5 2d 3a
       -0.0013006146 -0.0019246594 0.006865834 0.00066359964
0002f0 f5 4f 49 b8 d7 47 ae 3a 31 ca 4b bb 05 fe 9c b9
       -4.79966e-05 0.0013296556 -0.0031095857 -0.00029943898
000300 05 52 7d 39 a0 f3 0c 3a a0 9d 11 3b 91 e1 f6 3a
       0.00024158515 0.0005376879 0.0022219196 0.0018835535
000310 2c 38 16 3b 52 05 8e bb 12 0b 78 3b a1 c0 4b ba
       0.0022921665 -0.0043341303 0.0037848395 -0.00077725394
000320 64 b1 8d 3a 6d 37 4c ba 85 f9 20 b9 77 58 34 3b
       0.0010810313 -0.00077902415 -0.00015351742 0.002751855
000330 8f cb 16 bb 6a b3 01 b9 9f 73 1d bb 5a 17 d1 3a
       -0.0023009514 -0.00012369236 -0.0024025214 0.0015952394
000340 57 66 ab b9 f8 05 75 ba 01 94 21 ba e7 17 9a b9
       -0.0003269191 -0.0009346898 -0.0006163717 -0.00029390978
000350 9c 49 df 3a e3 b0 7c 38 2b 3e 82 3b 8b 5b 97 bb
       0.0017035487 6.024622e-05 0.003974696 -0.004619067
000360 bf 42 ed b8 54 40 61 bb 38 fc 1e 3b 10 c1 0d bb
       -0.00011313473 -0.0034370618 0.002425922 -0.0021629967
000370 f5 20 71 ba 24 69 d0 ba f9 3b a6 ba 38 06 36 3a
       -0.00091983314 -0.0015900475 -0.0012682668 0.00069436757
000380 a8 42 cd 3a 95 9a ab b7 97 d3 fd 3a b4 ca 2c 3a
       0.0015660124 -2.0456771e-05 0.0019365427 0.00065914844
000390 8c 13 06 bb 8e 04 8a 3a 61 cf c4 bb 17 ea e8 3a
       -0.0020458428 0.0010529922 -0.006006167 0.001776996
0003a0 27 0b e9 3a fc 93 19 bb 8c 12 17 3a eb 27 26 3b
       0.0017779813 -0.0023434153 0.00057629566 0.0025353383
0003b0 b1 79 d3 3a f9 f2 0e bb 25 48 c1 b6 05 39 a7 3a
       0.0016134289 -0.0021812303 -5.760247e-06 0.0012758082
0003c0 fa 13 df b8 38 cc a6 ba d8 09 a5 bb 7e b3 06 3b
       -0.000106371896 -0.0012725657 -0.005036574 0.0020553763
0003d0 6e 4e 38 3b f1 eb a4 bb 81 a1 38 3b 61 2c aa bb
       0.002812292 -0.005033009 0.0028172436 -0.0051932787
0003e0 44 fa bf 3a d0 8a cc 3a 3d 17 fd 39 a3 27 c1 3a
       0.0014646729 0.0015605334 0.00048273234 0.0014736544
0003f0 ef cc 09 3b d2 0f 7b 3a b3 b4 eb 3a bb 4f 06 3a
       0.002102669 0.00095772475 0.001798293 0.0005123575

exp_avg_sq f4 [20, 416]
000000 bd 2c b7 38 6a 3a bb 38 67 78 e1 38 6a e4 e4 38
       8.734453e-05 8.927735e-05 0.00010751263 0.00010914433
000010 10 78 f1 38 2b 4b bc 38 6c a4 f8 38 50 57 b1 38
       0.00011514139 8.97854e-05 0.000118561875 8.456281e-05
000020 63 24 00 39 46 7b 27 39 73 6d 10 39 47 91 e0 38
       0.00012220586 0.00015972284 0.00013773683 0.00010708212
000030 9e d6 f7 38 9c 9a dc 38 74 da e2 38 8f 18 03 39
       0.000118178534 0.00010519216 0.0001081721 0.00012502282
000040 39 85 d2 38 c0 90 c1 38 c9 be f7 38 73 99 50 39
       0.00010038395 9.229919e-05 0.00011813414 0.0001989359
000050 2c cb d2 38 3b 2f c0 38 13 b8 f5 38 88 bc 9f 38
       0.00010051424 9.164071e-05 0.00011716797 7.6168275e-05
000060 a9 41 b7 38 a4 bd f5 38 c7 41 d4 38 45 79 9a 38
       8.73835e-05 0.00011717834 0.000101212 7.3658804e-05
000070 a4 b9 c1 38 85 f7 d3 38 c1 06 f9 38 a1 3e ea 38
       9.2375354e-05 0.00010107368 0.00011874503 0.00011169655
000080 d8 08 c7 38 95 2e eb 38 ec 0c d2 38 06 e5 b9 38
       9.490707e-05 0.0001121435 0.00010015987 8.8641464e-05
000090 8e bd cf 38 fb 97 b9 38 75 75 02 39 07 9c ec 38
       9.9058365e-05 8.849796e-05 0.00012441522 0.00011282419
0000a0 f9 0f e3 38 21 3d d1 38 50 c6 ef 38 d8 b6 97 38
       0.000108271786 9.977283e-05 0.00011433347 7.2342984e-05
0000b0 45 64 be 38 13 29 99 38 38 d0 d4 38 f5 8d 23 39
       9.078583e-05 7.303259e-05 0.000101477315 0.00015597774
0000c0 3e cd ef 38 d5 6c c1 38 fb 91 e2 38 44 ab cf 38
       0.000114346374 9.223229e-05 0.00010803711 9.90243e-05
0000d0 46 1f b8 38 89 b9 02 39 2d 3d af 38 90 0e c5 38
       8.779629e-05 0.00012466883 8.356045e-05 9.3964045e-05
0000e0 11 e4 c8 38 84 cc bd 38 58 2c c4 38 a4 c9 b2 38
       9.579224e-05 9.050316e-05 9.354268e-05 8.52526e-05
0000f0 17 7e 91 38 52 e7 b5 38 82 a9 a7 38 ca 80 ae 38
       6.937625e-05 8.673839e-05 7.994754e-05 8.3209554e-05
000100 ba f5 cd 38 ad 68 b8 38 0f 37 a4 38 ad 9c b3 38
       9.820932e-05 8.793301e-05 7.830385e-05 8.564568e-05
000110 08 7d ac 38 c0 5a f1 38 0e 0e 13 39 05 f8 fe 38
       8.224888e-05 0.00011508679 0.00014024248 0.00012157861
000120 f2 0b 02 39 a3 14 a3 38 f0 0e f8 38 91 34 d0 38
       0.00012402216 7.7762896e-05 0.00011828344 9.928004e-05
000130 84 e5 96 38 01 ea a1 38 e3 b3 9f 38 14 53 88 38
       7.195308e-05 7.720665e-05 7.615217e-05 6.50046e-05
000140 34 04 9c 38 55 ce d6 38 f0 bd 9e 38 d7 99 b4 38
       7.4394426e-05 0.000102427475 7.569406e-05 8.611724e-05
000150 aa f9 a6 38 7b 39 c0 38 a3 f0 a6 38 b1 22 d8 38
       7.9620004e-05 9.16598e-05 7.960319e-05 0.000103061444
000160 4a 2b b4 38 4d 89 f7 38 34 d3 02 39 30 87 99 38
       8.591132e-05 0.00011803452 0.00012476445 7.320789e-05
000170 5f fd b7 38 61 fc a4 38 1a 4b c0 38 b2 3d 95 38
       8.773314e-05 7.8671386e-05 9.169262e-05 7.116365e-05
000180 4f de b1 38 c6 d2 c2 38 0e 6a b1 38 2a b9 de 38
       8.481426e-05 9.2899005e-05 8.459772e-05 0.000106202744
000190 a3 04 ab 38 67 e7 e7 38 c5 d1 f3 38 0d 37 93 38
       8.154779e-05 0.000110580404 0.000116262156 7.01976e-05
0001a0 19 aa b8 38 c8 84 8f 38 b1 b9 99 38 c8 de b2 38
       8.805487e-05 6.843504e-05 7.330196e-05 8.529198e-05
0001b0 3e 95 86 38 18 c9 95 38 03 09 b3 38 f9 69 ce 38
       6.4174164e-05 7.14233e-05 8.537064e-05 9.8425844e-05
0001c0 f0 05 9b 38 24 bf ba 38 9b 52 9d 38 10 1c 8d 38
       7.392082e-05 8.904774e-05 7.50173e-05 6.728631e-05
0001d0 8a 17 88 38 c0 63 a0 38 d0 30 90 38 8f 6f 91 38
       6.48937e-05 7.6479744e-05 6.875547e-05 6.934918e-05
0001e0 df 15 9c 38 cd b3 a8 38 aa cf 8c 38 c7 7d 9c 38
       7.4427335e-05 8.044355e-05 6.714401e-05 7.4620875e-05
0001f0 c2 30 8b 38 1a 52 89 38 c1 0a aa 38 3c 58 00 39
       6.637118e-05 6.547962e-05 8.108235e-05 0.00012239901
000200 c0 60 94 38 fe 8c ba 38 c9 4e 90 38 64 2d 8d 38
       7.075211e-05 8.895433e-05 6.88113e-05 6.7318586e-05
000210 6d 46 9d 38 e1 74 a2 38 ec 81 89 38 77 91 8e 38
       7.499461e-05 7.746532e-05 6.556869e-05 6.7981826e-05
000220 20 8b 94 38 6d c0 aa 38 dd a8 99 38 2e 6d 9e 38
       7.083104e-05 8.142074e-05 7.327062e-05 7.5543634e-05
000230 20 67 7e 38 f4 f8 9e 38 e5 8b a7 38 d3 f3 d6 38
       6.065436e-05 7.580398e-05 7.989238e-05 0.00010249731
000240 d4 83 99 38 ba 35 81 38 a0 55 a2 38 de 26 8b 38
       7.3201634e-05 6.161207e-05 7.740711e-05 6.635276e-05
000250 ce 94 a0 38 27 ad 90 38 96 93 af 38 b0 27 ba 38
       7.6571116e-05 6.898707e-05 8.37214e-05 8.8765635e-05
000260 41 f6 a0 38 2e da a3 38 cc c5 a8 38 eb 9f 9e 38
       7.675263e-05 7.813085e-05 8.047707e-05 7.563814e-05
000270 7e b2 47 39 14 b1 29 39 b0 35 11 39 68 b1 2f 39
       0.00019044612 0.00016183063 0.00013848278 0.0001675539
000280 c3 b6 60 39 ef ab 19 39 67 a9 52 39 16 0b 18 39
       0.00021430389 0.00014655267 0.00020090268 0.0001449998
000290 f6 f5 40 39 43 50 1e 39 fb 23 62 39 4b e7 0e 39
       0.00018402174 0.00015097954 0.00021566443 0.00013628339
0002a0 64 d5 c6 38 9b 6b 4a 39 b9 ef 2c 39 49 e0 30 39
       9.481123e-05 0.00019304307 0.00016492502 0.0001686822
0002b0 bd 63 78 39 3f a9 45 39 a3 da 00 39 7f 43 f9 38
       0.00023688278 0.00018850433 0.0001228848 0.000118858174
0002c0 e0 03 29 39 9b 63 07 39 2c 67 4e 39 13 56 15 39
       0.0001611854 0.00012911709 0.00019684125 0.00014241812
0002d0 8c 35 55 39 04 fb 3b 39 96 32 0f 39 7b 77 27 39
       0.0002033321 0.0001792722 0.00013656387 0.00015970871
0002e0 4e 00 cf 38 54 3d 32 39 20 fd 19 39 49 32 f5 38
       9.870586e-05 0.0001699825 0.00014685513 0.00011691877
0002f0 99 d0 6f 39 39 8f 2f 39 6c bf fd 38 fd 26 f7 38
       0.00022870525 0.00016742655 0.00012099635 0.0001178514
000300 71 24 55 39 6c fb dd 38 e1 b1 46 39 76 cd e6 38
       0.00020326838 0.00010584932 0.00018949017 0.00011005525
000310 ba a9 8d 39 6e f2 03 39 54 12 35 39 46 e3 21 39
       0.00027020072 0.00012583446 0.00017268333 0.00015438822
000320 6a d9 fc 38 65 a6 1c 39 25 d6 4d 39 b3 77 eb 38
       0.00012056793 0.00014939306 0.00019630099 0.00011227969
000330 00 9a 28 39 75 bc 00 39 1d bb f9 38 01 81 03 39
       0.00016079098 0.00012277237 0.00011908098 0.00012541191
000340 ee ac ea 38 fe 78 19 39 ff 0a e5 38 88 a0 d8 38
       0.000111902 0.0001463629 0.00010921619 0.00010329584
000350 89 fe fd 38 2a 55 19 39 f3 ee b1 38 4d 89 3b 39
       0.00012111391 0.00014622943 8.4845255e-05 0.00017884858
000360 fc f0 04 39 fa de fb 38 c1 77 db 38 88 0c 46 39
       0.00012678275 0.00012010145 0.0001046504 0.0001888742
000370 3c 00 f2 38 b6 ff ad 38 96 5d a0 39 fe 7f dd 38
       0.00011539503 8.296913e-05 0.00030587305 0.000105619416
000380 c8 45 c7 38 a1 33 0c 39 29 b2 30 39 5b ba 11 39
       9.502057e-05 0.00013370674 0.00016851038 0.000138977
000390 c3 b3 e8 38 d0 86 0e 39 20 bb b3 38 cd 45 75 39
       0.00011096105 0.00013592397 8.57024e-05 0.00023391024
0003a0 04 7e 14 39 43 ff 27 39 01 cc ac 38 9b ee 91 38
       0.00014161324 0.00016021453 8.239598e-05 6.9585825e-05
0003b0 c3 78 ca 38 95 12 f0 38 2d 9e 3a 39 1c a9 19 39
       9.654604e-05 0.00011447553 0.00017797267 0.00014654215
0003c0 51 eb f5 38 01 fc 73 39 ff 7d 30 39 1f 01 f5 38
       0.000117263415 0.00023268165 0.00016831605 0.00011682719
0003d0 fd 8a 1a 39 94 91 41 39 16 86 ad 38 8f 77 2c 39
       0.00014738362 0.00018460146 8.274258e-05 0.00016447737
0003e0 af e9 11 39 62 24 71 39 36 cf 92 38 7e 3b ec 38
       0.00013915332 0.00022997105 7.0004186e-05 0.00011264438
0003f0 26 0e d7 38 6e 68 fb 38 ad ad 09 39 42 bd 51 39
       0.00010254634 0.00011988064 0.00013130037 0.00020002297

exp_avg f4 [20, 20]
000000 00 00 00 00 ea 8e 84 36 d4 6c 03 38 9a a3 c1 b8
       0.0 3.950544e-06 3.1334188e-05 -9.23343e-05
000010 08 c6 ea 3a 4a 16 bb b9 7c 16 8b b9 27 49 22 3c
       0.0017911801 -0.00035684026 -0.00026528898 0.009905136
000020 04 00 00 00 04 00 00 80 04 00 00 00 4a 22 60 39
       6e-45 -6e-45 6e-45 0.00021375078
000030 04 00 00 00 04 00 00 00 52 10 3b b9 51 a8 52 38
       6e-45 6e-45 -0.0001783979 5.022466e-05
000040 d0 5d cb 39 9e 38 95 3a d7 d6 24 3a 04 00 00 00
       0.00038789073 0.0011384671 0.0006288117 6e-45
000050 08 f4 70 39 00 00 00 00 71 0e f6 37 48 05 a5 39
       0.00022979092 0.0 2.933221e-05 0.00031475187
000060 79 74 cf 3a 92 f6 d2 37 2c 71 12 39 ce 48 55 3b
       0.0015827558 2.5148769e-05 0.00013965805 0.0032544616
000070 04 00 00 80 04 00 00 00 04 00 00 00 06 7c 7f 39
       -6e-45 6e-45 6e-45 0.00024364897
000080 04 00 00 80 04 00 00 00 31 ba 45 39 27 1a 2e 38
       -6e-45 6e-45 0.00018856746 4.150919e-05
000090 61 58 af 38 9c d0 1f 3a 6b 75 b9 39 04 00 00 00
       8.361112e-05 0.0006096454 0.00035373433 6e-45
0000a0 2c 79 9c 3a 76 68 17 33 00 00 00 00 aa f4 83 3a
       0.0011937968 3.5252434e-08 0.0 0.0010067422
0000b0 01 e3 34 3b 56 f2 2b 39 de c0 87 39 01 d6 a3 3b
       0.0027601125 0.00016398108 0.00025892904 0.0049998765
0000c0 04 00 00 80 04 00 00 00 04 00 00 00 9b 2d 6f 3a
       -6e-45 6e-45 6e-45 0.0009123922
0000d0 04 00 00 80 04 00 00 00 9c 4d 32 3a 66 c2 42 37
       -6e-45 6e-45 0.0006801726 1.1608563e-05
0000e0 ea 7d 19 39 08 68 01 3b b7 6b 98 3a 04 00 00 00
       0.00014638124 0.0019745845 0.0011628781 6e-45
0000f0 ce b7 a6 3a 1f c9 d6 b4 3a 91 dc 36 00 00 00 00
       0.0012719573 -4.000694e-07 6.5734175e-06 0.0
000100 b6 e6 b7 3b c3 40 28 39 03 b7 14 39 ce e2 9b 3c
       0.0056122197 0.00016045854 0.00014182557 0.019029047
000110 04 00 00 00 04 00 00 80 04 00 00 80 3b 4b cf 36
       6e-45 -6e-45 -6e-45 6.1778387e-06
000120 04 00 00 00 04 00 00 80 77 bb ab 3a 6f 07 29 b7
       6e-45 -6e-45 0.0013102134 -1.0074916e-05
000130 d2 0a 12 36 6c 71 7f 3b aa d6 85 3a 04 00 00 80
       2.1761994e-06 0.0038977517 0.001021107 -6e-45
000140 1d 55 0c b7 53 9c c2 b3 d6 b8 a3 36 5c 8b 5a ba
       -8.364467e-06 -9.062264e-08 4.8792963e-06 -0.0008336806
000150 00 00 00 00 20 12 7b b9 8a 0d cb b9 45 1d 8a 3a
       0.0 -0.00023943977 -0.00038729265 0.0010537287
000160 04 00 00 00 04 00 00 80 04 00 00 80 e9 5b 18 ba
       6e-45 -6e-45 -6e-45 -0.00058120355
000170 04 00 00 00 04 00 00 80 f5 12 e8 39 e3 74 4a b7
       6e-45 -6e-45 0.00044264612 -1.2067353e-05
000180 41 0b bf b8 d4 f5 33 ba ec e0 bc b9 04 00 00 80
       -9.109686e-05 -0.00068649394 -0.00036025734 -6e-45
000190 7f 05 ba 3b 81 c6 64 34 0b b2 ed 38 59 f5 c2 3a
       0.0056769247 2.130637e-07 0.00011334204 0.0014874145
0001a0 12 e6 16 3c 00 00 00 00 e5 e5 94 3a 70 69 13 3c
       0.0092101265 0.0 0.0011360018 0.008997306
0001b0 04 00 00 80 04 00 00 00 04 00 00 00 79 de a0 3a
       -6e-45 6e-45 6e-45 0.0012273333
0001c0 04 00 00 80 04 00 00 00 39 0d 81 3b 46 dd 3a 39
       -6e-45 6e-45 0.003938344 0.00017820773
0001d0 16 d3 36 3a f9 69 aa 3b 1e 20 5f 3b 04 00 00 00
       0.0006974203 0.005200621 0.0034046243 6e-45
0001e0 0d f5 8e ba 0c e1 28 35 7d fc 47 b7 6b d6 50 ba
       -0.0010906771 6.2912363e-07 -1.1920111e-05 -0.0007966521
0001f0 27 b6 c9 ba 56 99 0b ba 00 00 00 00 16 64 bb bb
       -0.0015389369 -0.0005325278 0.0 -0.0057187183
000200 04 00 00 00 04 00 00 00 04 00 00 00 1b 62 e3 b9
       6e-45 6e-45 6e-45 -0.00043369908
000210 04 00 00 80 04 00 00 00 fb 9b e5 ba 3b 7f cc 37
       -6e-45 6e-45 -0.0017517799 2.4377941e-05
000220 9b 9a a2 38 27 d6 8f bb 57 d8 30 bb 04 00 00 00
       7.7535595e-05 -0.0043895426 -0.0026984417 6e-45
000230 3f 72 b6 39 5a c2 24 36 13 d3 17 37 68 51 40 39
       0.00034798865 2.4551032e-06 9.049446e-06 0.00018340873
000240 be 80 24 ba 9f 9f 03 39 fa 25 d8 38 00 00 00 00
       -0.00062752876 0.00012552597 0.00010306756 0.0
000250 04 00 00 00 04 00 00 00 04 00 00 00 8e 93 4c 39
       6e-45 6e-45 6e-45 0.00019509924
000260 04 00 00 80 04 00 00 00 30 cb b8 b8 02 6a 0a 38
       -6e-45 6e-45 -8.81165e-05 3.300049e-05
000270 a2 be 1b 39 2c 83 d1 b9 3f 08 a4 38 04 00 00 00
       0.00014852968 -0.00039961317 7.821665e-05 6e-45
000280 69 3e 81 38 4a 45 9d af 8f 32 4d b1 6a 7c e8 36
       6.162824e-05 -2.8607366e-10 -2.9860165e-09 6.9286225e-06
000290 63 64 61 3a 95 d2 d0 35 8d b9 6e 35 1c 67 02 3b
       0.00085980276 1.5558495e-06 8.893192e-07 0.0019897884
0002a0 00 00 00 00 04 00 00 80 04 00 00 80 dd f5 6c 36
       0.0 -6e-45 -6e-45 3.5309852e-06
0002b0 04 00 00 00 04 00 00 80 eb f9 30 38 da 82 0d 32
       6e-45 -6e-45 4.2194424e-05 8.237032e-09
0002c0 7c e4 c0 34 61 fe a8 38 18 21 27 38 04 00 00 80
       3.592903e-07 8.058246e-05 3.9846724e-05 -6e-45
0002d0 f0 1f 2d 38 79 8a 17 2e f1 33 9d b2 a2 8f dd 36
       4.127616e-05 3.4456413e-11 -1.8300826e-08 6.6030343e-06
0002e0 84 9c cb 39 f0 ab b6 35 95 41 2e 35 f9 1a 83 3a
       0.0003883579 1.3610097e-06 6.4915486e-07 0.0010002545
0002f0 04 00 00 80 00 00 00 00 04 00 00 00 d7 d7 7b 36
       -6e-45 0.0 6e-45 3.752755e-06
000300 04 00 00 80 04 00 00 00 47 1b 95 37 0e 31 0b 33
       -6e-45 6e-45 1.7774886e-05 3.2408074e-08
000310 94 f1 9f 33 1f 7e 62 38 04 8b 05 38 04 00 00 00
       7.447957e-08 5.400006e-05 3.183914e-05 6e-45
000320 f8 a6 08 38 9d 5d ad af 34 2f f5 b1 df d0 a0 36
       3.258043e-05 -3.1535033e-10 -7.135805e-09 4.7926874e-06
000330 c5 54 e6 39 39 b3 b3 35 ce 6f 0e 35 68 d3 8d 3a
       0.00043932177 1.33887e-06 5.306182e-07 0.001082045
000340 04 00 00 80 04 00 00 80 00 00 00 00 e4 8d 31 36
       -6e-45 -6e-45 0.0 2.6457647e-06
000350 04 00 00 80 04 00 00 80 cb 0e b6 37 24 d9 a5 31
       -6e-45 -6e-45 2.170298e-05 4.826818e-09
000360 17 c2 b8 33 14 8f 47 38 a9 cd ce 37 04 00 00 00
       8.6034724e-08 4.757855e-05 2.4652882e-05 6e-45
000370 55 df 73 3b 6d 70 64 b5 37 bb db 37 1c 69 4c 3a
       0.0037211974 -8.510022e-07 2.6194013e-05 0.0007797645
000380 90 f7 2b 3c e4 ac f0 39 25 17 13 3a 54 68 fd 3c
       0.010496035 0.0004590518 0.0005611054 0.030933537
000390 04 00 00 00 04 00 00 80 04 00 00 80 00 00 00 00
       6e-45 -6e-45 -6e-45 0.0
0003a0 04 00 00 00 04 00 00 80 9a 6f 58 3b b7 f6 27 36
       6e-45 -6e-45 0.0033025504 2.5028546e-06
0003b0 01 eb 1e 39 1c f8 08 3c 0e 5a 80 3b 04 00 00 80
       0.000151556 0.008359935 0.0039169854 -6e-45
0003c0 7c 4e 36 39 51 d5 9d 30 59 a8 02 b4 ed b0 e1 37
       0.0001738611 1.1483882e-09 -1.2168438e-07 2.6904478e-05
0003d0 83 90 ca 3a 48 5c 6f 36 cd 1e 75 36 c9 70 6f 3b
       0.0015454445 3.566749e-06 3.6525773e-06 0.003653573
0003e0 04 00 00 80 04 00 00 00 04 00 00 00 1f 47 6c 37
       -6e-45 6e-45 6e-45 1.4083255e-05
0003f0 00 00 00 00 04 00 00 00 b6 89 e5 38 e1 d9 91 34
       0.0 6e-45 0.000109452216 2.7166882e-07

exp_avg_sq f4 [20, 20]
000000 00 00 00 00 af 73 0f 30 39 24 9d 33 13 82 91 38
       0.0 5.2187493e-10 7.317471e-08 6.938367e-05
000010 3a 65 4b 3a 84 44 60 37 29 b4 1e 37 80 76 81 3b
       0.00077589194 1.3367393e-05 9.459481e-06 0.003950894
000020 29 f1 25 1e f5 35 e8 1b 0e 25 e9 19 9e 23 13 38
       8.784898e-21 3.841605e-22 2.4106602e-23 3.5080702e-05
000030 cc 0a 81 25 15 8b 5f 19 f9 8c 88 38 da bb df 33
       2.238525e-16 1.1556917e-23 6.5112436e-05 1.0418417e-07
000040 0c 3b 6f 36 ff b7 2b 3a cd e7 97 39 f5 e2 5c 17
       3.5648145e-06 0.000655055 0.0002897367 7.1372294e-25
000050 e0 8a 61 35 00 00 00 00 16 e4 a3 32 38 7f 8f 35
       8.402112e-07 0.0 1.9079419e-08 1.0691356e-06
000060 4b 3e 5a 37 df a9 2b 34 81 f1 a2 34 17 fd 93 38
       1.3008316e-05 1.5987415e-07 3.035057e-07 7.056648e-05
000070 6e a1 19 1d a7 cc d2 1a 43 d3 cd 18 24 ee 40 35
       2.0332839e-21 8.71846e-23 5.3204578e-24 7.1872114e-07
000080 40 e6 93 23 70 83 30 18 a8 a4 57 35 d9 8e 71 32
       1.6035287e-17 2.2813826e-24 8.033335e-07 1.4060526e-08
000090 a9 4e 02 34 89 3a bf 36 29 1f 01 36 d8 f7 cc 15
       1.213581e-07 5.699058e-06 1.9240636e-06 8.278597e-26
0000a0 82 c3 90 37 64 23 8f 2e 00 00 00 00 e3 30 8b 37
       1.7257178e-05 6.509174e-11 0.0 1.6592856e-05
0000b0 bc a9 f2 38 91 d0 93 36 b6 29 9d 36 a7 e0 23 3a
       0.00011571075 4.4052217e-06 4.6838204e-06 0.00062514324
0000c0 c6 ab 9c 1e d6 0a 8a 1c 3c 8c 75 1a 1d 0e 25 37
       1.6588186e-20 9.134875e-22 5.0778093e-23 9.838052e-06
0000d0 4d 08 e0 24 6d d8 85 19 c1 e2 df 37 da ce 4d 32
       9.715858e-17 1.3839291e-23 2.6689262e-05 1.1979603e-08
0000e0 6e b5 bb 35 43 d8 16 39 91 1a 54 38 d5 e5 d7 16
       1.3985389e-06 0.00014385679 5.056948e-05 3.4880168e-25
0000f0 f8 bb 4c 38 81 c6 aa 2d c3 ef c2 30 00 00 00 00
       4.881245e-05 1.9414916e-11 1.4183502e-09 0.0
000100 14 ae 3e 3a 5c f6 ed 35 09 f9 ef 34 12 19 6b 3b
       0.00072738645 1.7729576e-06 4.4698416e-07 0.0035873097
000110 79 e2 13 1e c4 2b 8d 1c de 5e 6f 1a 1d df 5c 35
       7.828949e-21 9.34191e-22 4.9500675e-23 8.228106e-07
000120 ac c8 45 24 97 32 cc 19 8e aa f4 37 84 09 a0 30
       4.288754e-17 2.1113539e-23 2.9166487e-05 1.1644237e-09
000130 34 c4 9b 33 38 4c 1b 39 df 44 94 38 13 6b f8 17
       7.253439e-08 0.00014810346 7.070018e-05 1.6053654e-24
000140 db eb 90 37 5e 0f 3c 2f 37 46 07 33 8f b1 9a 37
       1.7275966e-05 1.710396e-10 3.1495997e-08 1.8440913e-05
000150 00 00 00 00 7d f2 19 36 d4 10 3e 36 99 ae 0b 3a
       0.0 2.2939923e-06 2.8322002e-06 0.0005328446
000160 07 f9 db 1e 6d 40 06 1d 15 52 04 1b 72 1c 2c 37
       2.3290522e-20 1.776806e-21 1.0945306e-22 1.0258622e-05
000170 1e de 36 25 d9 5e 58 1a 29 33 67 37 6a c1 24 33
       1.586124e-16 4.474437e-23 1.3780585e-05 3.8360135e-08
000180 da 28 ab 35 32 02 06 39 94 b1 58 38 99 0d 12 18
       1.2752382e-06 0.00012780054 5.1663796e-05 1.8876923e-24
000190 5b 2a 97 39 79 13 f6 2f 19 22 04 34 8c f6 f6 38
       0.00028832522 4.4760975e-10 1.2305863e-07 0.00011776117
0001a0 84 9f bd 3a 00 00 00 00 39 3c 54 37 63 8a df 3b
       0.0014467095 0.0 1.2650206e-05 0.006821917
0001b0 47 37 d0 1c 7c 05 ae 1a 80 02 98 18 54 5b 89 38
       1.3778574e-21 7.1973574e-23 3.9293603e-24 6.54968e-05
0001c0 14 f4 d7 24 06 9a 30 18 c5 62 5c 39 1e 73 0f 34
       9.365487e-17 2.2825229e-24 0.0002101763 1.3359792e-07
0001d0 6c 78 1a 37 48 d4 94 3a 77 3e 08 3a eb 08 a2 16
       9.207153e-06 0.0011354769 0.0005197296 2.617814e-25
0001e0 d6 a4 51 38 05 e5 37 2e 65 ac 64 32 9b c1 be 37
       4.9983e-05 4.1812793e-11 1.3310545e-08 2.273992e-05
0001f0 8c 0d bf 39 b8 80 74 36 00 00 00 00 a9 39 00 3b
       0.00036440452 3.6433757e-06 0.0 0.0019565618
000200 26 c4 01 1d 87 3d 3f 1b a9 e6 8f 19 e9 e0 3a 37
       1.7174414e-21 1.581903e-22 1.4879016e-23 1.113883e-05
000210 b0 ea 9f 23 7a f3 0f 19 c5 bf 32 38 6c c3 1a 32
       1.7338209e-17 7.4420964e-24 4.2617106e-05 9.008414e-09
000220 1d a8 a3 35 30 51 9c 39 de 7a f3 38 d4 0f 99 16
       1.2193374e-06 0.00029815128 0.00011610029 2.4728472e-25
000230 1a 55 0b 36 e2 e1 d1 2f b3 63 ec 32 d3 88 c4 36
       2.076215e-06 3.8177378e-10 2.7519354e-08 5.8571836e-06
000240 3a 90 0f 38 d4 cb 3b 35 33 4e 89 35 00 00 00 00
       3.422818e-05 6.995954e-07 1.0230054e-06 0.0
000250 df d8 b2 1e 32 5f 61 1c 7c 73 30 1a 76 9b 60 36
       1.8936179e-20 7.456929e-22 3.6489234e-23 3.3469091e-06
000260 53 8d 06 26 36 0c 45 19 00 14 0f 36 bb 38 c7 32
       4.668212e-16 1.0187127e-23 2.1320302e-06 2.3192447e-08
000270 c5 a0 d7 34 b7 77 0e 38 da 36 48 37 97 e6 24 17
       4.0163846e-07 3.396693e-05 1.19337e-05 5.3282303e-25
000280 17 f7 23 33 6a 9d 6b 26 ed 77 a8 29 37 f7 ee 2f
       3.8176122e-08 8.174534e-16 7.4815025e-14 4.3467605e-10
000290 74 ec 03 36 77 e7 82 2f 14 67 64 2d 28 8c 3b 37
       1.9658155e-06 2.3811328e-10 1.29831874e-11 1.1178701e-05
0002a0 00 00 00 00 81 1e 85 1c e1 e8 17 1a 31 92 1a 2f
       0.0 8.809087e-22 3.1414186e-23 1.4058156e-10
0002b0 45 44 83 22 52 10 cb 19 8a b7 cf 32 98 9b 21 29
       3.5579904e-18 2.09963e-23 2.4181436e-08 3.5884137e-14
0002c0 9f 5c 91 2d 02 e2 15 33 0f e4 98 32 3d 51 6c 17
       1.6525723e-11 3.489732e-08 1.7798838e-08 7.635825e-25
0002d0 d1 2c 76 32 70 fc 03 26 98 cb 47 29 ce 16 20 2f
       1.4329275e-08 4.579187e-16 4.4363466e-14 1.4560017e-10
0002e0 2e 05 fd 34 c9 0d 02 2f 98 64 fe 2c dd f4 5a 36
       4.712869e-07 1.1828329e-10 7.2302823e-12 3.262706e-06
0002f0 69 c7 84 1e 00 00 00 00 ab 03 e4 19 b3 40 55 2e
       1.4058518e-20 0.0 2.3576129e-23 4.8488057e-11
000300 34 f6 e9 20 31 b7 b7 18 94 70 35 32 7c 65 98 28
       3.963466e-19 4.7489367e-24 1.0561184e-08 1.6919402e-14
000310 00 37 31 2d 0e 1f 8b 32 3b 85 04 32 dd 16 ff 15
       1.0073498e-11 1.6195852e-08 7.713704e-09 1.0302975e-25
000320 cf 14 1b 32 20 0c 6c 25 37 a2 d8 28 ec 28 fb 2e
       9.026919e-09 2.0473845e-16 2.4051167e-14 1.1421428e-10
000330 d2 04 04 35 4c f8 95 2e 1f e6 95 2c 35 00 41 36
       4.9180846e-07 6.819842e-11 4.2603833e-12 2.8759362e-06
000340 59 59 19 1d a5 4c 04 1c 00 00 00 00 ff 41 1c 2e
       2.0295573e-21 4.3774197e-22 0.0 3.552891e-11
000350 12 89 ed 1e 4a b3 87 19 04 29 cf 31 ce e3 3f 28
       2.5150042e-20 1.4031087e-23 6.029156e-09 1.0652027e-14
000360 c7 d9 8d 2c 2d b3 1e 32 5d a3 9b 31 67 3f 38 17
       4.031639e-12 9.23755e-09 4.529666e-09 5.953363e-25
000370 c9 ec d7 38 43 74 5d 2e ac 00 d9 31 d9 ee 96 36
       0.000102961036 5.0352843e-11 6.3156076e-09 4.498154e-06
000380 2e c7 7b 3a a8 92 9a 36 e1 20 dc 35 08 f7 a9 3b
       0.000960457 4.6066307e-06 1.6400846e-06 0.005186919
000390 af 69 af 1d 28 39 eb 1c eb c9 7e 1a 00 00 00 00
       4.643139e-21 1.556577e-21 5.2689077e-23 0.0
0003a0 83 69 87 24 20 99 5c 1a 9f 80 8b 38 2c b0 95 31
       5.872566e-17 4.5618627e-23 6.651994e-05 4.356499e-09
0003b0 1c 1f 29 34 52 5a a0 39 12 4f 16 39 41 a9 c4 18
       1.5750669e-07 0.00030584872 0.00014334571 5.0835715e-24
0003c0 d6 01 8b 34 c5 59 6c 2a 07 58 91 2c 89 d0 b1 31
       2.5892103e-07 2.0992156e-13 4.130921e-12 5.1750857e-09
0003d0 be 4a 08 37 fe 45 4c 31 5f 74 78 2f 7e 53 4e 38
       8.123634e-06 2.9725693e-09 2.2596812e-10 4.9191985e-05
0003e0 83 ef 25 1d 33 50 03 1b 19 bd b8 18 00 1a 09 31
       2.1961393e-21 1.086198e-22 4.7753825e-24 1.9950903e-09
0003f0 00 00 00 00 19 3b 8c 18 13 39 53 34 c0 32 be 2b
       0.0 3.6248825e-24 1.967167e-07 1.3514398e-12
