checkpoints/RNN_258.pt (torch, 111359 bytes, 9 tensors)

snn.l1.input_weights f4 [20, 416]
0.6374833 1.6867042 1.2090539 0.7342431 -0.12455416 1.0578789 0.5536122 1.1711924
0.710783 1.3890113 1.2083977 0.45603883 0.4799338 -0.7389889 1.4917213 0.3072795
0.0075131604 0.68190295 0.43173638 -0.04140189 1.425465 0.67011577 1.1063123 0.9404614
1.3122579 1.5557244 0.8365771 1.0121046 1.1622272 0.32834512 1.6062888 1.5001663
0.93127537 0.20961487 0.3242873 0.43579614 1.8151543 0.8575276 0.22425987 1.1622374
0.45510042 1.6696703 0.7763809 1.6236708 1.4779375 0.8871653 1.5484926 0.65494347
0.9340584 -0.5221785 0.79394054 0.6440862 1.8449227 1.7321818 1.3441893 1.7658503
1.255102 1.6923051 2.3330228 2.1299698 2.3968008 1.2111113 2.3333004 1.4709662
2.3949702 2.4461858 1.8703645 2.700254 2.0895233 1.4616133 0.247451 0.8520889
1.5361035 2.2140162 1.9562284 1.6838354 2.4623275 1.6380415 2.5806282 1.5833929
2.6236444 2.3883142 1.4224523 2.6563685 1.9642214 1.5643889 0.98320377 1.9075644
1.3027343 1.8553736 2.1762943 2.1661654 2.6277165 2.1927607 2.1135046 1.5306802
1.9700216 2.6728065 1.4177376 2.522207 1.2065482 0.5288963 1.5663891 2.2260332
2.3868961 2.30826 2.0734196 1.7089427 2.3711197 3.279648 2.0302968 2.9715447
1.9886723 2.1095443 3.0636795 2.8788815 2.4602997 1.857002 1.7855539 2.6454833
2.2435114 2.1111834 1.779356 2.2157478 2.6836312 2.5140388 2.3893256 2.3297505
1.9623812 2.0894186 2.7569997 3.5194516 2.9414616 1.4094287 1.367626 1.5788991
2.4845564 2.5528247 1.8840412 1.9876925 2.371033 1.8771995 2.5756252 2.1988134
2.2475739 2.7112849 2.932053 3.9177349 3.0957258 1.3903294 1.9064878 1.919575
2.9205475 2.3798149 1.7396208 2.6354666 0.0046488144 0.96714246 1.0055524 0.83929783
1.3320658 0.41124752 1.2387283 1.7459457 1.3211057 1.010841 1.0843923 1.1269609
1.2267648 0.69705284 0.67601043 0.22289115 0.3509621 0.67444456 0.029944314 0.730931
0.90502787 0.13179971 1.7789302 1.504114 1.1638364 0.55063957 0.5440928 1.171568
1.5190336 1.00007 1.1666485 1.0784533 0.087766364 0.19148529 1.0801378 0.6215598
0.70759434 -0.22655463 1.7617369 1.011169 1.2688358 0.6607732 0.5590064 1.3403064
1.1957822 0.89212596 1.1053593 1.092485 0.7530106 0.7710046 0.39356127 0.9102573
0.25387713 1.1302719 0.5724033 0.69424444 0.734139 0.59791106 -0.39935437 0.60102785
0.18842624 0.5487491 0.7122106 -0.46169344 0.44448164 -0.12307901 -0.51260024 0.039350327
0.12996148 1.4870197 0.31522763 0.43909693 1.348691 0.24850024 -0.58936024 0.5012395
-0.11358974 0.36917 0.20624739 0.061684925 0.96731335 0.710627 0.30446303 -0.07190271
0.32442373 0.25834823 0.7481478 -0.096980266 0.98386705 -0.3264298 -0.2525138 1.5425686
-0.04960136 0.20476036 0.5275273 -0.41516116 0.33056775 1.0657618 -0.19048914 -0.54344183
00000000: 1b32 233f ece5 d73f 47c2 9a3f 5bf7 3b3f
00000010: 4016 ffbd 9368 873f 87b9 0d3f a2e9 953f
00000020: e0f5 353f 1fcb b13f c7ac 9a3f ec7d e93e
00000030: e2b9 f53e 602e 3dbf b9f0 be3f bd53 9d3e
00000040: f530 f63b 3191 2e3f 8d0c dd3e 0795 29bd
00000050: a375 b63f b58c 2b3f a49b 8d3f 14c2 703f
00000060: 11f8 a73f fa21 c73f eb29 563f a58c 813f
00000070: dcc3 943f da1c a83e df9a cd3f 7305 c03f
00000080: 1068 6e3f 48a5 563e fc08 a63e ac20 df3e
00000090: fa56 e83f ee86 5b3f 61a4 653e 32c4 943f
000000a0: ec02 e93e c2b7 d53f e6c0 463f 72d4 cf3f
000000b0: 0e2d bd3f 441d 633f 0135 c63f 60aa 273f
000000c0: 741e 6f3f 7dad 05bf b03f 4b3f d5e2 243f
000000d0: 6d26 ec3f 22b8 dd3f 650e ac3f 6207 e23f
000000e0: 2fa7 a03f 749d d83f 3f50 1540 6d51 0840
000000f0: 2f65 1940 b205 9b3f cb54 1540 9f48 bc3f
00000100: 3147 1940 4f8e 1c40 1b68 ef3f f6d0 2c40
00000110: c0ba 0540 2516 bb3f cc63 7d3e 8022 5a3f
00000120: 0a9f c43f 71b2 0d40 b165 fa3f eb87 d73f
00000130: c696 1d40 58ab d13f 0329 2540 9eac ca3f
00000140: cae9 2740 24da 1840 eb12 b63f f101 2a40
00000150: 9b6b fb3f e53d c83f 3eb3 7b3f 122b f43f
00000160: ffbf a63f e27c ed3f 6848 0b40 74a2 0a40
00000170: 822c 2840 3156 0c40 a943 0740 54ed c33f
00000180: ab29 fc3f 430f 2b40 6d78 b53f d76b 2140
00000190: 2c70 9a3f bf65 073f 707f c83f 5477 0e40
000001a0: e8c2 1840 88ba 1340 e8b2 0440 a2be da3f
000001b0: 6dc0 1740 c1e5 5140 62f0 0140 ca2d 3e40
000001c0: d08c fe3f c602 0740 5313 4440 983f 3840
000001d0: 8d75 1d40 3eb2 ed3f 088d e43f 994f 2940
000001e0: b195 0f40 a11d 0740 f0c1 e33f d0ce 0d40
000001f0: 9dc0 2b40 03e6 2040 b6ea 1840 a21a 1540
00000200: 4f2f fb3f 09b9 0540 af72 3040 b23e 6140
00000210: e840 3c40 2968 b43f 5e0e af3f 5e19 ca3f
00000220: f902 1f40 7b61 2340 4328 f13f b56c fe3f
00000230: 01bf 1740 1348 f03f 0bd7 2440 5cb9 0c40
00000240: 40d8 0f40 b185 2d40 c2a6 3b40 2bbc 7a40
00000250: 5f20 4640 50f6 b13f cb07 f43f a2b4 f53f
00000260: 40ea 3a40 e34e 1840 e5ab de3f 7cab 2840
00000270: 1555 983b a696 773f f1b5 803f 39dc 563f
00000280: 2281 aa3f 098f d23e a68e 9e3f 267b df3f
00000290: fe19 a93f 3d63 813f 5ecd 8a3f 4140 903f
000002a0: a106 9d3f 0e72 323f 050f 2d3f 943d 643e
000002b0: 4eb1 b33e 66a8 2c3f c74d f53c 4b1e 3b3f
000002c0: e8af 673f 81f6 063e fcb3 e33f cf86 c03f
000002d0: 97f8 943f b7f6 0c3f aa49 0b3f f1f5 953f
000002e0: b16f c23f 4b02 803f bd54 953f c20a 8a3f
000002f0: dabe b33d b814 443e f541 8a3f 8b1e 1f3f
00000300: e724 353f f0fd 67be 9880 e13f fc6d 813f
00000310: 3669 a23f 6f28 293f 0b1b 0f3f 298f ab3f
00000320: 640f 993f 5e62 643f 6a7c 8d3f 8cd6 8b3f
00000330: 4dc5 403f 8f60 453f dd80 c93e 9f06 693f
00000340: 2ffc 813e c0ac 903f 0689 123f 01ba 313f
00000350: 89f0 3b3f b310 193f 2d78 ccbe f6dc 193f
00000360: cff2 403e d27a 0c3f 6f53 363f 1563 ecbe
00000370: 1993 e33e d910 fcbd c539 03bf cf2d 213d
00000380: 9f14 053e a956 be3f 8465 a13e 50d1 e03e
00000390: e8a1 ac3f d976 7e3e 50e0 16bf 3b51 003f
000003a0: bda1 e8bd da03 bd3e 8432 533e 55a9 7c3d
000003b0: d9a1 773f a7eb 353f 94e2 9b3e ba41 93bd
000003c0: de1a a63e 3846 843e 9d86 3f3f 979d c6bd
000003d0: b6de 7b3f cf21 a7be 7d49 81be e372 c53f
000003e0: cc2a 4bbd b3ac 513e 070c 073f 0190 d4be
000003f0: 2d40 a93e e26a 883f 960f 43be 011f 0bbf

snn.l1.recurrent_weights f4 [20, 20]
0.0 3.0529435 -0.8190341 6.2469354 -0.68786365 -2.1911116 0.19436328 -3.6477406
5.9580855 2.8232226 3.3545468 7.321293 6.4596424 3.4330513 -2.5008197 -1.2686429
3.3689406 -4.9294424 2.3923202 0.8221505 -3.0304544 0.0 14.963205 8.908983
-7.633004 4.698716 13.166127 -8.930109 6.5195804 4.0779853 3.5700357 9.504633
13.208891 4.6526923 -1.6290288 6.071917 -3.1827703 2.2901735 -2.3562362 1.8982611
1.1499915 6.541913 0.0 9.135102 -2.5983076 7.5374007 10.815261 -0.640592
2.064368 4.692232 1.9169232 10.756513 9.246091 4.0935555 6.5352 5.577561
-0.47731638 8.847766 4.0605817 2.9216979 -0.07129771 2.921065 -1.2178797 0.0
0.29801965 -3.6325126 2.7134514 2.5351467 4.2287226 0.83347404 2.6689076 19.01805
5.275899 1.4530752 2.5525196 -3.9592595 2.508733 9.403583 10.194532 -0.37285924
-4.8943 1.6741061 4.8719783 8.17888 0.0 -5.2840714 3.883812 -7.8282566
5.345782 1.5366927 2.8404996 7.882074 5.434771 1.5552045 -5.626852 -1.8393831
0.76931727 -4.738201 -6.854299 -0.1502853 -0.26477668 1.7926747 3.9857683 -1.1801933
-0.17526777 0.0 1.1110352 0.62860286 5.2395034 2.7333255 2.9443612 1.0470694
5.623284 4.1202846 5.8399553 -0.036261313 0.67315936 -0.037689567 3.3567643 1.1362466
1.5182743 2.488571 3.9601932 5.6959686 -2.3319893 5.608275 0.0 0.7613446
2.5560277 1.7384827 0.68099916 4.6416717 4.5945635 1.886522 1.6866881 -0.7070798
-4.356101 8.287337 4.716185 1.3173116 -4.324194 10.469918 8.165268 -1.7182001
9.700364 -6.579404 -8.239941 0.0 5.953247 1.7318856 2.9885154 2.0595293
8.190252 3.532614 -5.301832 7.659112 0.33910525 -9.517534 -5.021352 1.227662
-17.564884 3.5162668 0.24186358 -1.8791908 -20.29265 -13.322301 -6.045376 -24.337273
0.0 -0.19825763 3.8215125 -3.009292 8.813228 2.0953226 -13.070055 -5.5128565
-6.9607816 -16.954449 -15.142485 -1.5721939 -17.148691 4.2245636 6.218414 -9.001809
-20.548418 -10.258878 -6.2305136 -23.303286 5.997286 0.0 3.5609891 -7.5714345
7.806541 4.7717633 -8.117029 -5.826284 -4.4432764 -14.491786 -14.104207 1.1933634
-20.302221 0.7746428 2.573621 -6.592304 -21.538847 -15.237858 -10.2539215 -27.15413
7.399991 2.751933 0.0 -7.2174945 6.474541 3.6072736 -13.526239 -10.199544
-7.1500435 -20.168968 -16.55717 -0.4358202 0.5016403 1.1745648 -1.4376746 15.00242
-1.5783852 0.84561515 2.0657039 1.7169336 1.7998784 0.19699532 0.73473513 0.0
3.7137249 1.8070078 1.4467868 -2.2724755 -1.4855802 7.9710093 8.240329 0.06753139
-10.163583 8.505143 7.24405 2.2274313 -14.928959 -3.0449433 3.6172533 -16.490057
7.4813514 1.6979185 4.62526 2.5926075 0.0 3.936116 -7.967488 -1.2503228
00000000: 0000 0000 6d63 4340 38ac 51bf e5e6 c740
00000010: d517 30bf 2c3b 0cc0 2b07 473e 9574 69c0
00000020: a3a8 be40 aeaf 3440 e5b0 5640 0848 ea40
00000030: 64b5 ce40 1db7 5b40 6e0d 20c0 e462 a2bf
00000040: b99c 5740 febd 9dc0 c61b 1940 7578 523f
00000050: f7f2 41c0 0000 0000 4a69 6f41 328b 0e41
00000060: 9241 f4c0 e25b 9640 75a8 5241 bae1 0ec1
00000070: 67a0 d040 db7e 8240 777b 6440 fa12 1841
00000080: 9e57 5341 dbe2 9440 0484 d0bf 254d c240
00000090: 82b2 4bc0 3492 1240 93cc 16c0 38fa f23f
000000a0: ec32 933f 5a57 d140 0000 0000 6129 1241
000000b0: ac4a 26c0 6332 f140 4f0b 2d41 d6fd 23bf
000000c0: 9b1e 0440 c426 9640 bd5d f53f ad1a 2c41
000000d0: fdef 1341 68fe 8240 5c20 d140 617b b240
000000e0: d062 f4be 7390 0d41 49f0 8140 19fd 3a40
000000f0: 8904 92bd bbf2 3a40 7be3 9bbf 0000 0000
00000100: 0896 983e 167b 68c0 30a9 2d40 d83f 2240
00000110: b251 8740 8e5e 553f 62cf 2a40 f724 9841
00000120: 2ad4 a840 5efe b93f 7b5c 2340 8264 7dc0
00000130: 158f 2040 1375 1641 ce1c 2341 68e7 bebe
00000140: 1b9e 9cc0 1c49 d63f 3fe7 9b40 b1dc 0241
00000150: 0000 0000 1d17 a9c0 6090 7840 1481 fac0
00000160: a510 ab40 59b2 c43f bfca 3540 f339 fc40
00000170: a5e9 ad40 f110 c73f 2c0f b4c0 e870 ebbf
00000180: faf1 443f 589f 97c0 6b56 dbc0 64e4 19be
00000190: cf90 87be 5d76 e53f d416 7f40 9310 97bf
000001a0: 6579 33be 0000 0000 6736 8e3f 1eec 203f
000001b0: 03aa a740 ceee 2e40 6a70 3c40 5f06 863f
000001c0: f1f1 b340 5fd9 8340 eae0 ba40 be86 14bd
000001d0: 2c54 2c3f 6060 1abd 3ad5 5640 8770 913f
000001e0: d056 c23f bf44 1f40 ce73 7d40 6045 b640
000001f0: 503f 15c0 fd76 b340 0000 0000 7be7 423f
00000200: f595 2340 9a86 de3f f655 2e3f 9388 9440
00000210: aa06 9340 8e79 f13f 65e5 d73f 2f03 35bf
00000220: 2e65 8bc0 ef98 0441 fdea 9640 ab9d a83f
00000230: cc5f 8ac0 c984 2741 f0a4 0241 fbed dbbf
00000240: b134 1b41 7a8a d2c0 ccd6 03c1 0000 0000
00000250: 0081 be40 6dae dd3f d643 3f40 54cf 0340
00000260: 460b 0341 5916 6240 9ca8 a9c0 7217 f540
00000270: 349f ad3e d247 18c1 eaae a0c0 0724 9d3f
00000280: e284 8cc1 840a 6140 16ab 773e 5389 f0bf
00000290: 5957 a2c1 2528 55c1 b873 c1c0 bcb2 c2c1
000002a0: 0000 0000 0c04 4bbe a993 7440 3d98 40c0
000002b0: fb02 0d41 c419 0640 f21e 51c1 5269 b0c0
000002c0: b9be dec0 b6a2 87c1 9e47 72c1 a63d c9bf
000002d0: 8530 89c1 a02f 8740 3ffd c640 6907 10c1
000002e0: 2963 a4c1 5d24 24c1 5e60 c7c0 216d bac1
000002f0: c4e9 bf40 0000 0000 3fe7 6340 3149 f2c0
00000300: 2fcf f940 49b2 9840 5adf 01c1 eb70 bac0
00000310: 522f 8ec0 5bde 67c1 d5aa 61c1 22c0 983f
00000320: f36a a2c1 fe4e 463f 35b6 2440 28f4 d2c0
00000330: 8f4f acc1 44ce 73c1 1010 24c1 a93b d9c1
00000340: bacc ec40 ac1f 3040 0000 0000 b7f5 e6c0
00000350: 712f cf40 92dd 6640 7a6b 58c1 5531 23c1
00000360: 28cd e4c0 0c5a a1c1 1675 84c1 d323 dfbe
00000370: 806b 003f 2458 963f b905 b8bf ea09 7041
00000380: 8708 cabf 3c7a 583f 7e34 0440 7bc4 db3f
00000390: 6a62 e63f 24b9 493e 9a17 3c3f 0000 0000
000003a0: abad 6d40 084c e73f 4f30 b93f 3d70 11c0
000003b0: 7e27 bebf 8212 ff40 63d8 0341 e64d 8a3d
000003c0: 099e 22c1 1115 0841 42cf e740 3c8e 0e40
000003d0: 04dd 6ec1 5ae0 42c0 1481 6740 a3eb 83c1
000003e0: 3b67 ef40 6555 d93f 2102 9440 48ed 2540
000003f0: 0000 0000 53e9 7b40 a9f5 fec0 940a a0bf

snn.fc_out.weight f4 [9, 20]
-5.080958 2.9007351 5.17213 -11.703911 -0.7750746 -10.1126995 -7.20523 9.260631
-3.3505447 -0.07441331 -1.354383 -10.826687 -2.4140077 -1.301956 -5.1195707 7.9090877
4.585582 -3.285337 -7.7938 -0.22691427 -3.0993834 1.0189303 8.910845 -3.66049
-1.1525006 2.9667084 0.5114136 -1.6936074 0.553422 2.5950308 1.9099075 -1.9013768
2.5068758 1.3498555 4.0842385 -6.4322853 -0.7996354 2.0941663 0.2976073 1.6804531
3.838235 -1.2662554 -0.5756488 -1.0397393 3.7884097 0.311622 0.6111489 -0.757978
4.164361 0.17809984 1.9531513 -2.6379373 1.8047394 0.62362903 0.68040615 2.9326618
-6.938098 -4.808317 -3.3300033 0.7406811 1.9591651 -1.4178094 -2.9192247 -6.4957743
-1.4056816 3.773311 -0.7274698 0.05492846 -0.109471075 1.4326154 0.47207925 -1.9802476
0.40768948 1.6088101 2.8466015 4.2178106 3.6018918 -3.3080068 -0.056390505 1.1506598
-1.9423367 1.5504608 0.0017809493 -3.7098153 -0.57945657 -1.5646019 5.3877196 -0.9050019
-2.4670844 -0.7374353 -1.9240894 -7.2964125 1.0994773 -1.6814005 -1.4772432 1.3037562
-2.1864362 4.210975 -0.5711411 -1.2858444 2.7579846 -1.4015694 -5.5171785 0.7802453
-2.187548 -2.9439292 -2.618892 -0.33422953 -4.20371 -0.95431864 -2.6257906 1.7925243
-2.5003524 -0.51136166 -4.1193223 -1.0951675 3.5021765 -0.23766385 0.090019695 -0.48828965
-8.071857 -7.651944 -10.250155 5.5278587 -3.3470523 2.3399038 -1.934798 -0.48246652
-5.7684054 -8.172402 -6.947007 5.3062873 -6.068407 -6.2936206 -7.139033 -3.066046
-2.8511713 2.018963 0.74536437 -4.113893 -4.460996 -2.3815231 -4.9735436 8.662079
1.9258466 -2.2380912 -0.9153295 -2.5356374 3.647135 -2.9893754 2.1133523 3.580269
0.23855874 -1.4036609 -5.206133 -8.235477 -4.286916 0.3630871 1.5221851 -3.3906672
-3.9858203 -10.67251 -2.680465 5.455304 -6.806842 -13.269528 -9.639974 0.057886466
-8.528425 -3.545235 -4.7445226 5.5380273 -12.603788 -4.2958045 2.5052679 -5.2096224
-0.9447869 2.8770213 0.9790548 -0.5189095
00000000: 3597 a2c0 a5a5 3940 1782 a540 3843 3bc1
00000010: 4a6b 46bf 9ecd 21c1 3f91 e6c0 8b2b 1441
00000020: 536f 56c0 0166 98bd 6c5c adbf 1c3a 2dc1
00000030: 1a7f 1ac0 7fa6 a6bf 86d3 a3c0 3f17 fd40
00000040: 16bd 9240 f642 52c0 cf66 f9c0 375c 68be
00000050: 4c5c 46c0 4f6c 823f d292 0e41 7845 6ac0
00000060: 2485 93bf 8dde 3d40 00ec 023f 21c8 d8bf
00000070: 10ad 0d3f fc14 2640 d977 f43f 5160 f3bf
00000080: a770 2040 11c8 ac3f 15b2 8240 48d5 cdc0
00000090: e8b4 4cbf d206 0640 fc5f 983e 1619 d73f
000000a0: a4a5 7540 a814 a2bf b85d 13bf 2d16 85bf
000000b0: 4e75 7240 eb8c 9f3e 4174 1c3f d90a 42bf
000000c0: 7242 8540 ce5f 363e dd00 fa3f f7d3 28c0
000000d0: b301 e73f 27a6 1f3f 192f 2e3f bbb0 3b40
000000e0: e604 dec0 bcdd 99c0 c61e 55c0 479d 3d3f
000000f0: ecc5 fa3f c77a b5bf 94d4 3ac0 62dd cfc0
00000100: 60ed b3bf ed7d 7140 763b 3abf aafc 603d
00000110: 5f32 e0bd f15f b73f 5fb4 f13e c178 fdbf
00000120: adbc d03e 7ded cd3f b82e 3640 4ef8 8640
00000130: 6585 6640 62b6 53c0 bbf9 66bd d248 933f
00000140: 7d9e f8bf 8075 c63f be6e e93a 9d6d 6dc0
00000150: 4457 14bf e044 c8bf 3368 ac40 34ae 67bf
00000160: b6e4 1dc0 8fc8 3cbf 9048 f6bf 367c e9c0
00000170: acbb 8c3f 2238 d7bf 4e16 bdbf 7ce1 a63f
00000180: 92ee 0bc0 4fc0 8640 4e36 12bf 8d96 a4bf
00000190: d282 3040 a066 b3bf ba8c b0c0 28be 473f
000001a0: c900 0cc0 5669 3cc0 ed9b 27c0 2220 abbe
000001b0: cb84 86c0 3a4e 74bf f40c 28c0 7071 e53f
000001c0: c605 20c0 99e8 02bf 7dd1 83c0 732e 8cbf
000001d0: a923 6040 275e 73be 3f5c b83d 1a01 fabe
000001e0: 5426 01c1 badc f4c0 a300 24c1 38e4 b040
000001f0: 1b36 56c0 fcc0 1540 76a7 f7bf da05 f7be
00000200: c796 b8c0 29c2 02c1 e24d dec0 1bcd a940
00000210: 6430 c2c0 5765 c9c0 f572 e4c0 193a 44c0
00000220: 9779 36c0 b136 0140 33d0 3e3f 03a5 83c0
00000230: 7bc0 8ec0 e06a 18c0 4527 9fc0 e097 0a41
00000240: 2482 f63f e33c 0fc0 0953 6abf e247 22c0
00000250: a96a 6940 ed51 3fc0 2a41 0740 2123 6540
00000260: be48 743e 29ab b3bf a498 a6c0 84c4 03c1
00000270: 6a2e 89c0 8de6 b93e f6d6 c23f b100 59c0
00000280: ae17 7fc0 9ac2 2ac1 bd8c 2bc0 da91 ae40
00000290: a6d1 d9c0 fd4f 54c1 553d 1ac1 5c1a 6d3d
000002a0: 6e74 08c1 21e5 62c0 21d3 97c0 8537 b140
000002b0: 1ea9 49c1 3b77 89c0 4f56 2040 3ab5 a6c0
000002c0: 8edd 71bf 1e21 3840 56a3 7a3f 41d7 04bf

exp_avg f4 [20, 416]
-0.0029511019 0.0002667122 -0.0020356518 0.00032822468 -0.0015726553 0.0009080635 -0.0003871338 -0.0009917544
-0.00039891494 -0.0010122028 -0.0015102997 -0.0005220855 -0.0019630685 0.0004699739 -0.00021929848 0.0010813208
0.0004927999 0.0013915368 -0.0012461334 -0.005998355 -0.0002120714 -0.003362465 -0.0028903938 -0.0022911164
-0.0007166349 0.0014864759 0.00017961816 -0.00077569525 0.003502695 0.00037613892 0.0055098347 0.0032308912
-0.0023566128 -0.004135349 -0.0016939369 -0.004087925 -0.005688568 -8.1549755e-05 -0.0017186289 0.0025374345
-0.00147996 -0.0011310863 0.00018954826 0.0004363805 0.0032355282 0.0014653696 0.0020258706 0.0023638306
0.0055864104 -0.0014245111 -0.0002388455 -0.00036958625 -0.0006189725 0.00035738276 -0.00075285166 -0.0013453413
-0.0021558425 -0.0006312967 -0.0008400685 -0.0045935423 -0.0012171975 2.4473748e-05 0.00085054897 -0.00021981157
-0.006460023 -0.00085081096 -0.0012214333 -0.001140768 0.00064565206 -0.00052879856 0.0010029769 -0.00072045106
0.0046532834 -0.002088887 0.0021295603 0.0020073627 -0.0019942278 -0.00020509583 0.0014633441 -0.0003551872
-0.002771729 0.0011444904 0.0009201722 0.001874687 0.0001895137 0.00048747277 -0.0032893452 0.0010472739
-0.0009869902 0.0027180233 -0.0048914524 -0.0024951596 0.0011447789 0.0008367277 0.00016348527 0.0004901322
-0.0010764496 0.0009629735 0.00093017734 0.00031826357 -0.000121235826 -0.0018523665 0.0020454675 0.00048867264
0.00016363639 0.00020357332 0.0006165619 0.0002549659 -0.0002099367 -0.0027511814 -0.002147702 0.0019293692
-0.0010911808 0.0005759026 -0.0006308708 -0.0012820454 -0.0015779473 0.0011033727 -0.00041002771 -0.00206175
0.0042707715 -0.0015550569 -7.524927e-05 -0.00018340137 0.0008856472 0.0027696034 -0.0006794354 0.0016330113
-0.0014307306 0.0013413884 -0.00047886584 -0.0010897266 -0.0040745586 0.00021439341 -0.000812395 0.00054510095
-0.00032866758 0.0013966764 -0.0017286692 0.0007205057 -0.001145422 -0.0009029347 -0.00036188387 0.00073311146
-0.004433779 0.00024597786 -0.0013804242 0.00025107572 -0.0013145705 0.001312842 1.685614e-05 -0.0012636189
-0.0012995339 -0.0025454117 -2.780003e-05 -0.0016492856 -0.0015142941 -0.0019071827 -0.0008659573 0.0011937568
0.00047794916 -0.0015999619 -0.005617033 -0.0018495636 -0.00041817626 -0.0019215819 -0.0016064895 0.0011776134
-0.0030784204 -0.00014350042 0.00086112804 0.001580298 -0.001954582 0.0017038261 -0.00046490468 -0.00075890135
0.0009033642 -0.0039776894 -0.0015019908 0.0010754165 0.0030703666 0.0006040902 -0.0010607428 -0.0029626724
0.001663036 -0.0007244208 0.002191775 -0.0014534032 -0.0011399785 -0.0031267733 -0.0034287833 -0.002241521
0.00047088473 -0.0020048912 -0.0022164984 -0.0059665213 0.0017706989 0.00029613925 0.0001118527 0.0016840169
-0.003075089 0.00071074313 -0.0017928524 -0.0004035546 8.10589e-05 -0.00067141524 -0.00112468 0.0029208492
-0.00085031753 0.0015309921 -0.0014124505 0.0011007275 -0.0016152934 -0.0039647366 0.00017716317 -0.0038233197
0.00072136114 0.00012400301 -0.00089148857 0.0022312987 -0.0010777717 -0.0002502677 -0.00019051578 0.0016708454
0.0027104404 0.0012086878 -0.0010916706 -0.0019148672 0.0031063906 0.0021623767 -9.102202e-05 -0.0028813975
-0.0015169918 -0.0014574903 -0.0004724995 -0.001112865 0.0016826623 -0.0017395527 -7.297316e-05 -0.0010460907
-0.0023712665 0.0013092685 -0.0030009705 0.0020179283 -0.0021866981 -0.0052226977 -0.001332546 -0.0016330308
0.0010427567 -0.0007601294 0.0018629503 0.0015048614 -1.0556092e-05 -0.0023921034 -0.00043218685 0.0008979337
00000000: 4667 41bb 81d5 8b39 9268 05bb 9215 ac39
00000010: 8e21 ceba 1c0b 6e3a 38f8 cab9 c1fd 81ba
00000020: 7525 d1b9 e4ab 84ba 40f5 c5ba 91dc 08ba
00000030: d3a6 00bb d466 f639 7df3 65b9 1bbb 8d3a
00000040: 3e2f 013a 3a64 b63a 4c55 a3ba d98d c4bb
00000050: 7c5f 5eb9 cd5c 5cbb c36c 3dbb 8e26 16bb
00000060: 8edc 3bba dbd5 c23a e257 3c39 0758 4bba
00000070: 788d 653b 8334 c539 d88b b43b 5cbd 533b
00000080: 6771 1abb d281 87bb 1707 deba 00f4 85bb
00000090: 2b67 babb b105 abb8 9e43 e1ba 164b 263b
000000a0: 38fb c1ba f540 94ba 79c1 4639 00ca e439
000000b0: 280b 543b a511 c03a 78c4 043b 7fea 1a3b
000000c0: 350e b73b a9b6 baba 9a72 7ab9 07c5 c1b9
000000d0: 8b42 22ba 1a5f bb39 055b 45ba 2a56 b0ba
000000e0: 0949 0dbb 9b7d 25ba 0b38 5cba 6d85 96bb
000000f0: 5f8a 9fba f94c cd37 60f7 5e3a 387d 66b9
00000100: 9aae d3bb f508 5fba 8018 a0ba d385 95ba
00000110: fa40 293a 129f 0aba 5276 833a a7dc 3cba
00000120: 927a 983b b5e5 08bb 1890 0b3b f58d 033b
00000130: 97b1 02bb fe0e 57b9 aecd bf3a 6b38 bab9
00000140: e5a5 35bb ba02 963a b637 713a 0fb8 f53a
00000150: 32b8 4639 7d93 ff39 0e92 57bb ae44 893a
00000160: e55d 81ba dd20 323b 7a48 a0bb d585 23bb
00000170: 680c 963a d857 5b3a 3e6d 2b39 377c 003a
00000180: a817 8dba 0f70 7c3a 25d7 733a 9ddc a639
00000190: fd3f feb8 1bcb f2ba 400d 063b 441a 003a
000001a0: cf95 2b39 4c76 5539 c5a0 213a f2ac 8539
000001b0: 7422 5cb9 2a4d 34bb 76c0 0cbb e3e2 fc3a
000001c0: f405 8fba 2bf8 163a 0661 25ba 4e0a a8ba
000001d0: 20d3 ceba 0b9f 903a fdf8 d6b9 6d1e 07bb
000001e0: d4f1 8b3b 0dd3 cbba 25cf 9db8 6e4f 40b9
000001f0: c72a 683a 3c82 353b 231c 32ba c40a d63a
00000200: 5a87 bbba 87d1 af3a 4910 fbb9 28d5 8eba
00000210: e083 85bb cbce 6039 e8f6 54ba 1be5 0e3a
00000220: 0451 acb9 af10 b73a 8394 e2ba 52e0 3c3a
00000230: fc21 96ba ecb2 6cba 3bbb bdb9 472e 403a
00000240: 3c49 91bb 97f6 8039 5aef b4ba d0a2 8339
00000250: ab4d acba ab13 ac3a 4966 8d37 04a0 a5ba
00000260: 1f55 aaba ecd0 26bb 1c34 e9b7 d72c d8ba
00000270: 477b c6ba 6ffa f9ba 6901 63ba d577 9c3a
00000280: 4095 fa39 d0b5 d1ba 170f b8bb 0e6d f2ba
00000290: ab3e dbb9 97dd fbba d890 d2ba 265a 9a3a
000002a0: 53bf 49bb 9a78 16b9 53bd 613a 0022 cf3a
000002b0: 7218 00bb eb52 df3a 73be f3b9 02f1 46ba
000002c0: bfcf 6c3a 4757 82bb 73de c4ba fdf4 8c3a
000002d0: 3438 493b cf5b 1e3a 9f08 8bba 6529 42bb
000002e0: 3afa d93a 0fe7 3dba e2a3 0f3b 1e80 beba
000002f0: 556b 95ba 8dea 4cbb 70b5 60bb 7be6 12bb
00000300: 14e1 f639 7e64 03bb ac42 11bb cf82 c3bb
00000310: cc16 e83a 2343 9b39 7692 ea38 3bba dc3a
00000320: 6f87 49bb 2a51 3a3a 25fe eaba 2e94 d3b9
00000330: 2afe a938 ea01 30ba 006a 93ba b86b 3f3b
00000340: d8e7 5eba 92ab c83a f921 b9ba 4946 903a
00000350: 41b8 d3ba 9fea 81bb e0c4 3939 a990 7abb
00000360: ba19 3d3a ce06 0239 c9b2 69ba fb3a 123b
00000370: 0444 8dba 5d36 83b9 31c5 47b9 4500 db3a
00000380: a5a1 313b d56c 9e3a 6316 8fba 48fc faba
00000390: 9694 4b3b a9b6 0d3b 13e3 beb8 d4d5 3cbb
000003a0: ccd5 c6ba 4209 bfba cfb9 f7b9 8edd 91ba
000003b0: c78c dc3a b401 e4ba 2b09 99b8 fb1c 89ba
000003c0: 4067 1bbb c39b ab3a eeab 44bb 383f 043b
000003d0: b54e 0fbb 2a23 abbb d3a8 aeba 6c0b d6ba
000003e0: 1cad 883a 6c43 47ba 3d2e f43a c53e c53a
000003f0: 121a 31b7 d6c4 1cbb 2397 e2b9 5063 6b3a

exp_avg_sq f4 [20, 416]
8.4222316e-05 6.8877496e-05 8.932229e-05 9.228902e-05 9.042006e-05 8.04764e-05 0.00010051405 8.1230406e-05
9.7325996e-05 0.00012958726 0.00014008787 8.814088e-05 0.00010208008 8.787367e-05 9.357989e-05 0.0001291482
0.000105989035 8.260163e-05 8.855567e-05 0.00012893492 7.689514e-05 6.722951e-05 8.000564e-05 7.229712e-05
9.359901e-05 0.00010948526 0.000103222075 6.7758934e-05 8.6299e-05 8.5535845e-05 0.00011103237 0.00010725782
0.000109010594 8.505437e-05 8.4613e-05 6.6468056e-05 0.0001026424 7.174081e-05 9.520664e-05 0.000102902704
7.8671525e-05 0.000115076946 9.394447e-05 7.145051e-05 8.15856e-05 5.8499565e-05 0.00010254669 9.475144e-05
0.00015446874 8.2757666e-05 7.84397e-05 9.1409e-05 7.2637515e-05 7.452175e-05 6.1026574e-05 8.536763e-05
7.099668e-05 7.880651e-05 8.589148e-05 0.00016467465 6.569388e-05 7.499806e-05 0.00010886892 5.2257485e-05
0.0001145476 9.997629e-05 7.537477e-05 7.281171e-05 6.182063e-05 8.194378e-05 0.0001033483 0.000100997066
0.000102788814 5.633953e-05 9.319217e-05 0.00012294552 8.6209395e-05 7.116185e-05 0.00013083272 4.0997358e-05
8.910022e-05 0.00010217013 0.000100890735 6.902595e-05 5.5413984e-05 6.183729e-05 8.053235e-05 7.867812e-05
6.6587716e-05 6.047839e-05 0.000105318795 0.00015094844 8.678143e-05 7.7200835e-05 0.00012540066 5.0362563e-05
9.952688e-05 0.00012284836 9.398462e-05 9.211651e-05 7.11465e-05 6.4311425e-05 7.2031195e-05 7.222029e-05
5.2056286e-05 4.394916e-05 4.1030486e-05 4.1106814e-05 4.7112113e-05 3.753233e-05 5.8202433e-05 0.00013464066
4.7076337e-05 3.5385507e-05 4.835517e-05 4.858857e-05 4.9282196e-05 3.9377082e-05 4.5985962e-05 4.4477452e-05
4.225145e-05 5.3094172e-05 3.9491955e-05 4.108204e-05 5.1033214e-05 4.6354977e-05 5.4476463e-05 7.593816e-05
5.0303814e-05 4.0565537e-05 4.3673903e-05 3.957879e-05 5.5941095e-05 4.5641293e-05 4.97994e-05 3.836447e-05
3.786695e-05 4.91234e-05 4.3681404e-05 3.696193e-05 5.7484714e-05 5.9659465e-05 6.34106e-05 0.00012342594
5.7115256e-05 3.3197433e-05 4.5874727e-05 3.9750677e-05 5.345568e-05 4.0590396e-05 5.5824778e-05 5.0037266e-05
4.613715e-05 6.180705e-05 4.790422e-05 3.510886e-05 0.00015923944 0.000107620006 0.000111368936 0.00010619641
0.00013589047 0.000100956684 0.00020150877 0.00019414454 0.0001196224 8.2104096e-05 0.00014481733 0.00012647954
0.000110558365 0.000108981185 0.00012425389 8.7918874e-05 0.00014900815 0.00014995164 0.00013157366 8.171257e-05
0.00014779026 0.00010090779 0.00015152407 0.00013289756 0.00013890778 0.00010353567 7.22212e-05 0.00011424438
0.000100800484 0.000108997556 0.0001506534 8.414362e-05 0.000114556926 0.00015943564 7.870125e-05 0.00010676504
0.00014431875 8.8931e-05 0.0001383002 0.00026150644 0.00018199417 8.2746476e-05 9.619208e-05 0.00010459854
0.000107436295 8.8164925e-05 0.00018562343 8.7441236e-05 8.851055e-05 8.996791e-05 0.00010649503 0.00010283958
0.00010124686 0.00014614432 7.558688e-05 7.701052e-05 8.8779314e-05 8.800127e-05 6.503457e-05 0.00013070575
9.263075e-05 0.00013408906 7.403834e-05 0.000105358165 0.00013701817 6.100036e-05 0.0001840528 6.6056986e-05
9.94642e-05 0.00017729364 0.00012930557 8.380278e-05 0.00011286246 0.0001096693 6.390098e-05 0.00014309873
8.445595e-05 0.0001132516 5.9339032e-05 8.13598e-05 7.957614e-05 0.0001101524 0.00012287361 6.810937e-05
8.2824714e-05 0.00019301815 8.276588e-05 9.4853705e-05 0.00015955599 0.00016311654 6.3393854e-05 0.00010930984
0.00012228395 0.00014203895 6.156774e-05 9.372574e-05 6.728574e-05 0.00011791311 4.6595018e-05 0.00014975744
00000000: 83a0 b038 5372 9038 8a52 bb38 4a8b c138
00000010: e69f bd38 70c5 a838 12cb d238 3e5a aa38
00000020: 7f1b cc38 d1e1 0739 8de4 1239 46d8 b838
00000030: d313 d638 d148 b838 5240 c438 f56b 0739
00000040: 6e46 de38 6a3a ad38 f7b6 b938 b432 0739
00000050: c442 a138 91fd 8c38 b3c8 a738 399e 9738
00000060: 964a c438 749b e538 ee78 d838 cd19 8e38
00000070: 6cfb b438 b561 b338 0dda e838 9bef e038
00000080: 9e9c e438 385f b238 4272 b138 c464 8b38
00000090: b841 d738 8e73 9638 ada9 c738 78cd d738
000000a0: 74fc a438 7755 f138 0e04 c538 b3d7 9538
000000b0: ef18 ab38 6e5d 7538 560e d738 4bb5 c638
000000c0: e3f8 2139 2f8e ad38 fe7f a438 d5b2 bf38
000000d0: f854 9838 8f48 9c38 c9f6 7f38 6607 b338
000000e0: 0de4 9438 ec44 a538 a320 b438 84ac 2c39
000000f0: 22c5 8938 4748 9d38 8e50 e438 0c2f 5b38
00000100: 4639 f038 5daa d138 8612 9e38 7db2 9838
00000110: b3a5 8138 3bd9 ab38 b2bc d838 63ce d338
00000120: 5390 d738 1c4e 6c38 2a70 c338 f0ea 0039
00000130: 51cb b438 ba3c 9538 2430 0939 94f4 2b38
00000140: 51db ba38 2c44 d638 4d95 d338 06c2 9038
00000150: 506c 6838 a4ae 8138 7ae3 a838 feff a438
00000160: 02a5 8b38 2daa 7d38 99de dc38 ea47 1e39
00000170: 6dfe b538 e2e6 a138 fc7d 0339 643c 5338
00000180: 16b9 d038 dbd0 0039 9c19 c538 ad2e c138
00000190: 7d34 9538 efde 8638 740f 9738 f974 9738
000001a0: 0357 5a38 0d56 3838 2618 2c38 1b6a 2c38
000001b0: 3f9a 4538 086c 1d38 631e 7438 542e 0d39
000001c0: d573 4538 e66a 1438 f8d0 4a38 94cb 4b38
000001d0: 5bb4 4e38 d228 2538 0de1 4038 4d8d 3a38
000001e0: 2637 3138 6fb1 5e38 2aa4 2538 814f 2c38
000001f0: 7f0c 5638 476d 4238 a87d 6438 fd40 9f38
00000200: 4ffd 5238 ea24 2a38 7f2e 3738 6701 2638
00000210: 4ba2 6a38 f76e 3f38 b3df 5038 89e9 2038
00000220: 54d3 1e38 d909 4e38 8d36 3738 9207 1b38
00000230: be1b 7138 dd3a 7a38 4ffb 8438 e66b 0139
00000240: 0a8f 6f38 793d 0b38 9d69 4038 f7b9 2638
00000250: 9935 6038 9b3f 2a38 6625 6a38 1bdf 5138
00000260: 6383 4138 689e 8138 c4ec 4838 da41 1338
00000270: 83f9 2639 0db2 e138 be8e e938 c3b5 de38
00000280: d27d 0e39 b5b8 d338 194c 5339 4793 4b39
00000290: c9dd fa38 4d2f ac38 1bda 1739 989f 0439
000002a0: 92db e738 d48c e438 264a 0239 1661 b838
000002b0: 123f 1c39 563c 1d39 09f7 0939 1a5d ab38
000002c0: 25f8 1a39 759e d338 6fe2 1e39 6b5a 0b39
000002d0: c6a7 1139 4a21 d938 7675 9738 7c96 ef38
000002e0: d964 d338 9e95 e438 b7f8 1d39 4376 b038
000002f0: 483e f038 2e2e 2739 690c a538 0be7 df38
00000300: 4554 1739 7880 ba38 ad04 1139 cd1a 8939
00000310: b0d5 3e39 2d88 ad38 bbba c938 ea5b db38
00000320: 6c4f e138 2fe5 b838 e9a3 4239 a860 b738
00000330: bd9e b938 27ad bc38 1556 df38 94ab d738
00000340: 7e54 d438 513e 1939 6684 9e38 b580 a138
00000350: 082f ba38 528d b838 2b63 8838 0f0e 0939
00000360: c142 c238 429a 0c39 0845 9b38 bcf3 dc38
00000370: 89ac 0f39 a3da 7f38 4cfe 4039 1388 8a38
00000380: 7097 d038 e6e7 3939 3396 0739 46bf af38
00000390: 92b0 ec38 42fe e538 9402 8638 c60c 1639
000003a0: f11d b138 7d81 ed38 cde2 7838 b69f aa38
000003b0: 1de2 a638 9f01 e738 a2d7 0039 f1d5 8e38
000003c0: 2eb2 ad38 ea64 4a39 9892 ad38 32ec c638
000003d0: 7c4e 2739 430a 2b39 51f2 8438 463d e538
000003e0: 5939 0039 4af0 1439 ee1d 8138 a08e c438
000003f0: c21b 8d38 1e48 f738 056f 4338 3508 1d39

exp_avg f4 [20, 20]
0.0 6.2661303e-07 8.3624676e-05 -0.00094289304 0.00077419163 0.00014751706 -0.00033322314 -0.0023760714
6e-45 -6e-45 6e-45 -0.0005136119 6e-45 6e-45 0.0019693517 -6.834232e-05
0.00013013312 -0.00091781566 -0.00063329784 6e-45 8.199147e-05 0.0 6.8594622e-06 1.1317433e-05
-4.8787486e-05 2.548426e-06 6.7267547e-06 -0.0009519948 -6e-45 6e-45 6e-45 5.2047258e-06
-6e-45 6e-45 2.4679695e-05 6.3672423e-06 -7.0691704e-06 -3.348921e-05 -2.8192262e-06 6e-45
-0.0010884759 1.1472477e-07 0.0 -0.000719871 -0.003784679 -0.00013484241 -0.00016049524 -0.015283975
-6e-45 6e-45 6e-45 -0.0003192521 -6e-45 6e-45 -0.0014573933 8.391972e-05
-0.00087228266 -0.004866191 -0.0012023104 6e-45 -0.0005764461 -3.840837e-07 2.3139091e-05 0.0
-0.0034777652 -0.00020142349 -0.000107223554 -0.0039241286 6e-45 -6e-45 -6e-45 0.00015384512
6e-45 -6e-45 -0.00072561373 -4.7029753e-05 -2.6329984e-05 -0.0017805179 -0.0012101205 -6e-45
-0.00039888758 -3.4898238e-07 -0.00010217785 -0.0009212523 0.0 -0.0004301415 -0.00062776014 0.000106378124
6e-45 -6e-45 -6e-45 -0.0006349975 6e-45 -6e-45 -0.00091735576 -0.00024983703
-0.00031957572 -0.0018850863 -0.00070423476 -6e-45 0.0021784327 4.7100693e-07 -3.0246354e-05 -6.082927e-05
0.0054733925 0.0 0.00042870248 -0.005547678 -6e-45 6e-45 6e-45 -0.0003912469
-6e-45 6e-45 0.00045743905 0.00031968005 -0.0010727335 0.0007621429 3.7717833e-05 6e-45
-0.00045493574 4.2602431e-07 5.5190318e-05 -0.0002592212 3.5676454e-05 0.00011908004 0.0 -0.0104792025
6e-45 6e-45 6e-45 -0.00014419862 -6e-45 6e-45 -0.00021921641 0.0001408908
-0.00043498015 -0.0007379456 -0.0010247789 6e-45 2.3651515e-05 1.9984974e-07 -0.00010067256 -9.569019e-05
-0.00025423712 0.00012125048 -9.899884e-05 0.0 6e-45 6e-45 6e-45 -0.00017209485
-6e-45 6e-45 0.0001098741 -0.00016979023 -1.4423094e-05 -0.00013399238 0.00027845288 6e-45
3.0553147e-05 -4.939427e-10 5.384693e-08 7.267904e-07 0.00045321093 -4.956831e-07 -2.9666558e-07 0.00059903343
0.0 -6e-45 -6e-45 4.195554e-07 6e-45 -6e-45 3.0291676e-06 -7.353904e-08
-1.044144e-06 1.3962951e-05 -1.3065355e-06 -6e-45 2.5071955e-05 2.3574342e-10 5.2117713e-08 9.020634e-08
0.000110169196 -1.5355043e-07 1.042585e-07 1.14783115e-05 -6e-45 0.0 6e-45 1.0376023e-07
-6e-45 6e-45 1.970329e-06 1.8666523e-07 -1.3767541e-06 -1.2406066e-06 -1.7179226e-06 6e-45
1.7373643e-05 -2.1666959e-10 3.0065525e-08 1.9486679e-07 0.0002476441 -2.9694525e-07 -1.6505834e-07 0.00032222885
-6e-45 -6e-45 0.0 2.5879984e-07 -6e-45 -6e-45 1.2336518e-06 -6.2326957e-09
-7.4379415e-07 5.177741e-06 -6.985444e-07 6e-45 0.0013959525 -5.446083e-07 2.8068433e-05 9.840749e-05
-0.0008334462 0.00013605859 -7.448418e-05 -0.0020382402 6e-45 -6e-45 -6e-45 0.0
6e-45 -6e-45 0.000716045 2.1395379e-05 -5.2882915e-05 -0.00071689056 -0.00025681526 -6e-45
7.44045e-05 6.811011e-10 3.147158e-07 1.9501324e-06 0.0004635954 -5.911235e-07 4.509384e-07 0.00027653083
-6e-45 6e-45 6e-45 4.0469166e-07 0.0 6e-45 1.1391567e-05 4.334673e-07
00000000: 0000 0000 8534 2835 a85f af38 7b2c 77ba
00000010: 1ff3 4a3a cfae 1a39 74b4 aeb9 ddb7 1bbb
00000020: 0400 0000 0400 0080 0400 0000 e9a3 06ba
00000030: 0400 0000 0400 0000 3d10 013b 0153 8fb8
00000040: 5874 0839 9199 70ba e603 26ba 0400 0000
00000050: d6f2 ab38 0000 0000 552a e636 01e0 3d37
00000060: 2aa1 4cb8 a005 2b36 62b6 e136 4a8f 79ba
00000070: 0400 0080 0400 0000 0400 0000 41a4 ae36
00000080: 0400 0080 0400 0000 3e07 cf37 32a6 d536
00000090: b633 edb6 c476 0cb8 f031 3db6 0400 0000
000000a0: 31ab 8eba 9c5e f633 0000 0000 bab5 3cba
000000b0: 6108 78bb 7c64 0db9 9d4a 28b9 a369 7abc
000000c0: 0400 0080 0400 0000 0400 0000 4b61 a7b9
000000d0: 0400 0080 0400 0000 0106 bfba 0efe af38
000000e0: e6a9 64ba 9274 9fbb d896 9dba 0400 0000
000000f0: a51c 17ba 1034 ceb4 d21a c237 0000 0000
00000100: 38eb 63bb 3535 53b9 35dd e0b8 fa95 80bb
00000110: 0400 0000 0400 0080 0400 0080 7c51 2139
00000120: 0400 0000 0400 0080 1d37 3eba d041 45b8
00000130: 36df dcb7 4460 e9ba e89c 9eba 0400 0080
00000140: c921 d1b9 c65b bbb4 5148 d6b8 3280 71ba
00000150: 0000 0000 9d84 e1b9 4590 24ba 5217 df38
00000160: 0400 0000 0400 0080 0400 0080 f675 26ba
00000170: 0400 0000 0400 0080 b47a 70ba 8ffc 82b9
00000180: ba8c a7b9 0015 f7ba 659c 38ba 0400 0080
00000190: 09c4 0e3b b3de fc34 8db9 fdb7 ee22 7fb8
000001a0: 255a b33b 0000 0000 79c3 e039 4cc9 b5bb
000001b0: 0400 0080 0400 0000 0400 0000 4520 cdb9
000001c0: 0400 0080 0400 0000 6ed4 ef39 bb9a a739
000001d0: f79a 8cba 8bca 473a 3733 1e38 0400 0000
000001e0: 7184 eeb9 56b8 e434 277c 6738 15e8 87b9
000001f0: 4da3 1538 9cba f938 0000 0000 f6b0 2bbc
00000200: 0400 0000 0400 0000 0400 0000 0634 17b9
00000210: 0400 0080 0400 0000 75dd 65b9 16bc 1339
00000220: 0c0e e4b9 b172 41ba e051 86ba 0400 0000
00000230: 3e67 c637 4796 5634 2b20 d3b8 48ad c8b8
00000240: 214b 85b9 db47 fe38 999d cfb8 0000 0000
00000250: 0400 0000 0400 0000 0400 0000 5c74 34b9
00000260: 0400 0080 0400 0000 356c e638 b809 32b9
00000270: b8fa 71b7 4e80 0cb9 50fd 9139 0400 0000
00000280: 3126 0038 21c6 07b0 5345 6733 a818 4335
00000290: f19c ed39 150f 05b5 6845 9fb4 7408 1d3a
000002a0: 0000 0000 0400 0080 0400 0080 413f e134
000002b0: 0400 0000 0400 0080 b448 4b36 84ec 9db3
000002c0: 8424 8cb5 6b42 6a37 385c afb5 0400 0080
000002d0: 9d51 d237 f099 812f 08d8 5f33 76b7 c133
000002e0: a30a e738 9fdf 24b4 b7e4 df33 f992 4037
000002f0: 0400 0080 0000 0000 0400 0000 cad2 de33
00000300: 0400 0080 0400 0000 ff39 0436 266e 4834
00000310: e9c8 b8b5 eb82 a6b5 5f93 e6b5 0400 0000
00000320: 9dbd 9137 113b 6eaf 6521 0133 933c 5134
00000330: 3ad6 8139 d86b 9fb4 e43a 31b4 d3f0 a839
00000340: 0400 0080 0400 0080 0000 0000 2ef1 8a34
00000350: 0400 0080 0400 0080 f493 a535 5f27 d6b1
00000360: 25a9 47b5 75bc ad36 9b83 3bb5 0400 0000
00000370: 65f8 b63a 3331 12b5 8074 eb37 1e60 ce38
00000380: a17b 5aba f3aa 0e39 6434 9cb8 ff93 05bb
00000390: 0400 0000 0400 0080 0400 0080 0000 0000
000003a0: 0400 0000 0400 0080 f7b4 3b3a 3a7a b337
000003b0: 99ce 5db8 b6ed 3bba 29a5 86b9 0400 0080
000003c0: 9d09 9c38 3b38 3b30 36f6 a834 05df 0236
000003d0: b90e f339 b3ad 1eb5 8018 f234 57fb 9039
000003e0: 0400 0080 0400 0000 0400 0000 6644 d934
000003f0: 0000 0000 0400 0000 681e 3f37 4bb7 e834

exp_avg_sq f4 [20, 20]
0.0 2.3629693e-10 3.619903e-07 5.277562e-05 0.0011598266 1.268219e-05 5.594854e-06 0.0045327963
2.2403074e-28 9.796759e-30 6.147612e-31 2.1651895e-05 5.7086365e-24 2.9472237e-31 7.313071e-05 2.8292543e-06
9.349931e-06 0.000604883 0.0001085861 1.8201222e-32 1.6232661e-07 0.0 9.702956e-09 7.758933e-08
5.24343e-06 5.736029e-09 2.2245281e-08 1.727256e-05 5.185247e-29 2.2233635e-30 1.3568097e-31 5.4294695e-08
4.089291e-25 5.817925e-32 4.871345e-08 2.0445396e-08 1.00845625e-08 3.563833e-07 3.2716084e-08 2.1111809e-33
3.5988516e-05 1.5834987e-12 0.0 1.3376031e-05 0.00025527095 5.8532846e-06 2.227059e-06 0.0009850322
4.2302815e-28 2.3295606e-29 1.2949314e-30 5.3283547e-06 2.4777137e-24 3.5292692e-31 3.330409e-05 5.782364e-07
4.1753833e-06 0.00018102855 2.6964466e-05 8.895046e-33 6.699343e-05 3.3121283e-11 2.4394854e-08 0.0
0.00083992974 2.5157142e-06 8.852049e-07 0.0030129564 1.9965217e-28 2.3823502e-29 1.2623546e-30 1.0385269e-06
1.0937055e-24 5.3843175e-31 2.3592156e-05 2.3530272e-07 5.1077745e-07 0.00014222815 1.8325461e-05 4.0939712e-32
1.8561526e-05 3.1639486e-11 1.4089524e-07 1.3509616e-05 0.0 1.5418008e-06 1.3854601e-06 0.0006761145
5.93949e-28 4.53117e-29 2.7912465e-30 6.5202303e-06 4.0449135e-24 1.1410595e-30 1.05663385e-05 7.0447396e-07
2.052038e-06 9.045108e-05 1.3773628e-05 4.8139482e-32 0.00055796606 3.8506225e-09 1.215248e-06 0.0001579253
0.0037049633 0.0 1.2297483e-05 0.013885582 3.5137752e-29 1.8354564e-30 1.0020543e-31 7.3035226e-05
2.3883632e-24 5.820841e-32 0.00031401284 6.878674e-06 2.9254288e-05 0.0017322531 0.00030351576 6.675903e-33
0.00010157813 2.1562742e-10 1.3091105e-07 2.3998267e-05 0.00071252324 6.183107e-06 0.0 0.002788455
4.3797516e-29 4.034135e-30 3.7944184e-31 9.397385e-06 4.4215447e-25 1.8978654e-31 5.4268858e-05 8.420207e-07
4.624505e-06 0.00037729874 5.671445e-05 6.306204e-33 1.3002556e-06 9.935502e-10 8.538753e-08 2.3333787e-06
1.4620026e-05 2.659863e-07 4.3457848e-07 0.0 4.8290666e-28 1.9016504e-29 9.305415e-31 1.1495998e-06
1.1904752e-23 2.5978978e-31 9.0740264e-07 1.9488223e-07 3.2207393e-07 1.5082389e-05 1.863144e-06 1.3587927e-32
2.414625e-08 2.1547286e-16 1.6120609e-13 8.887085e-11 1.9068954e-06 2.7321667e-11 3.670366e-12 6.18841e-06
0.0 2.2464737e-29 8.011117e-31 2.39372e-11 9.073519e-26 5.3544003e-31 3.9586356e-09 1.4138914e-12
1.9238089e-11 1.0096635e-08 9.437255e-10 1.9472724e-32 1.08585025e-08 4.6263523e-17 9.990425e-14 3.3405213e-11
5.956892e-07 2.2311061e-11 1.9332277e-12 1.9863387e-06 3.585172e-28 0.0 6.0123315e-31 8.6216555e-12
1.0107514e-26 1.2110628e-31 2.189225e-09 6.601685e-13 1.3794997e-11 5.3324745e-09 4.754764e-10 2.6274457e-33
6.489126e-09 2.789881e-17 5.046881e-14 2.4822219e-11 5.542279e-07 1.0561728e-11 1.0973092e-12 1.7900065e-06
5.1756996e-29 1.1163177e-29 0.0 6.2801105e-12 6.4136717e-28 3.5781775e-31 1.0783273e-09 3.899686e-13
5.3211667e-12 2.8812868e-09 2.5435776e-10 1.518205e-32 0.00010596133 6.0991004e-11 6.89035e-08 4.0701616e-06
0.00096535357 4.636294e-06 1.998631e-06 0.0035586464 1.1840817e-28 3.9695465e-29 1.34365935e-30 0.0
1.4976002e-24 1.1633587e-30 4.2405245e-05 4.385733e-07 1.0175705e-06 0.00022694738 3.3265103e-05 1.2964026e-31
1.3471099e-07 2.1139381e-14 3.3538658e-12 7.2182466e-10 6.7840706e-06 2.4568012e-10 3.7656944e-11 2.203291e-05
5.600548e-29 2.7700013e-30 1.217809e-31 2.3259286e-10 0.0 9.2440623e-32 2.9136528e-08 1.9330844e-11
00000000: 0000 0000 d6e7 812f 9157 c234 645b 5d38
00000010: 5305 983a 97c5 5437 6ebb bb36 da87 943b
00000020: 11ff 8d11 aeb3 460f 5d80 470d 17a1 b537
00000030: 99d7 dc18 2749 bf0c c05d 9938 38de 3d36
00000040: a6dd 1c37 0391 1e3a b8b8 e338 2603 bd0a
00000050: 004c 2e34 0000 0000 0db2 2632 2f9f a633
00000060: b9f0 af36 a516 c531 e415 bf32 8ae4 9037
00000070: 2d76 8310 7461 340e bc1f 300c a631 6933
00000080: 671d fd16 be0a 970b 0139 5133 e79f af32
00000090: 6040 2d32 f354 bf34 b783 0c33 da63 2f09
000000a0: 60f2 1638 8edb de2b 0000 0000 9e69 6037
000000b0: e3d5 8539 5567 c436 9574 1536 321c 813a
000000c0: 1f10 0612 da3e ec0f 591d d20d 38ca b236
000000d0: 2db4 3f18 0b10 e50c ffaf 0b38 1a38 1b35
000000e0: 451a 8c36 7bd2 3d39 c031 e237 2dbe 380a
000000f0: d37e 8c38 40ab 112e da8c d132 0000 0000
00000100: bb2e 5c3a a4d3 2836 d19e 6d35 0575 453b
00000110: d516 7d11 5999 f10f 29d4 cc0d 8363 8b35
00000120: 233e a917 29bb 2e0d c5e7 c537 85a7 7c34
00000130: 5c1c 0935 1423 1539 a1b9 9937 3692 540b
00000140: 93b4 9b37 e526 0b2e fd48 1734 5ca7 6237
00000150: 0000 0000 dfef ce35 0cf4 b935 473d 313a
00000160: de3a 3c12 f3c1 6510 ec73 620e 5ac8 da36
00000170: e27a 9c18 c225 b90d 1446 3137 151b 3d35
00000180: bfb5 0936 8eb0 bd38 4815 6737 59f4 790b
00000190: 7844 123a 6f4e 8431 9a1b a335 c098 2539
000001a0: f8ce 723b 0000 0000 4a51 4e37 5a80 633c
000001b0: 692b 3210 f0e8 140e f712 020c 7d2a 9938
000001c0: 68ca 3818 201e 970b 17a2 a439 5ccf e636
000001d0: 1b67 f537 c50c e33a 3221 9f39 30a7 0a0a
000001e0: 5806 d538 b915 6d2f 8e90 0c34 e34f c937
000001f0: a0c8 3a3a 7c78 cf36 0000 0000 83be 363b
00000200: 6d14 5e10 daa4 a30e 9745 f60c 76a9 1d37
00000210: 16d7 0817 655b 760c be9e 6338 3907 6235
00000220: 322c 9b36 2ed0 c539 ade0 6d38 88f9 020a
00000230: 7184 ae35 718d 8830 4b5e b733 2497 1c36
00000240: 8948 7537 e1cc 8e34 0350 e934 0000 0000
00000250: 0b0a 1912 abd9 c00f 2ffd 960d f34b 9a35
00000260: 7a45 6619 fb9c a80c 3c94 7335 d240 5134
00000270: 81e9 ac34 5e0a 7d37 2411 fa35 e81a 8d0a
00000280: 2a6a cf32 5d6c 7825 7e80 352a d76d c32e
00000290: 6df0 ff35 ed52 f02d b823 812c 0aa6 cf36
000002a0: 0000 0000 cbd1 e30f e1fc 810d c88d d22d
000002b0: 42a6 e015 9ec2 2d0d 8704 8831 cefc c62b
000002c0: 5338 a92d 7875 2d32 64b4 8130 6137 ca0a
000002d0: 338c 3a32 545a 5524 e1f6 e029 edea 122e
000002e0: 73e7 1f35 0b40 c42d ef09 082c 0a4d 0536
000002f0: be3c e311 0000 0000 7f1c 430d 7cac 172d
00000300: 2f33 4814 7734 1d0c 4171 1631 27d2 392b
00000310: 25af 722d f138 b731 adb2 0230 9747 5a09
00000320: f5f6 de31 1aa9 0024 944a 6329 ab56 da2d
00000330: 40c6 1435 cbcd 392d bb6e 9a2b 2840 f035
00000340: 3638 8310 876a 620f 0000 0000 35f6 dc2c
00000350: e341 4b12 ac3c e80c 4534 9430 6688 db2a
00000360: cf38 bb2c 2200 4631 acd5 8b2f d0a8 9d0a
00000370: 8e37 de38 e21e 862e 1af8 9333 6c92 8836
00000380: c80f 7d3a 7691 9b36 3820 0636 2e38 693b
00000390: a619 1611 a947 4910 6d05 da0d 0000 0000
000003a0: 0ebe e717 08c4 bc0d 49dc 3138 0e75 eb34
000003b0: 7593 8835 b9f8 6d39 2286 0b38 5e48 280c
000003c0: 13a5 1034 1868 be28 e001 6c2c e569 4630
000003d0: b9a2 e336 6710 872f f39d 252e 50d3 b837
000003e0: a2fd 8d10 adba 600e a514 1e0c 12bd 7f2f
000003f0: 0000 0000 55fd ef0b e747 fa32 3109 aa2d

exp_avg f4 [9, 20]
-0.0007003864 -1.992978e-06 -0.00061617454 -0.0010922508 -0.0009050416 8.1607555e-05 -0.0006989744 -0.0045405906
6e-45 6e-45 6e-45 -0.0010215004 6e-45 6e-45 -7.4137555e-05 -0.0008860906
-0.0005360154 -0.0019363221 0.00035339885 6e-45 -0.001180934 2.5505346e-06 -0.0010813553 -0.0021749733
-0.0016260133 -0.0014927653 -0.0016503728 -0.009865671 -6e-45 6e-45 6e-45 -0.0018744608
-6e-45 6e-45 -0.0017231735 -0.00060418487 -0.0026155075 -0.0060774833 -0.0011569886 6e-45
-0.009417228 2.6885862e-06 -0.00085782394 -0.0041728453 -0.01017793 -0.0032245466 -0.004121022 -0.014888643
6e-45 6e-45 6e-45 -0.0029776066 6e-45 6e-45 -0.0070253666 -0.0023657002
-0.0024203986 -0.01151103 -0.005555609 6e-45 0.00812161 -6.354462e-06 0.0008811219 0.003823943
0.010184865 0.003607906 0.00308691 0.014281191 6e-45 6e-45 6e-45 0.0032320428
6e-45 6e-45 0.0067771976 0.0025870523 0.0030138767 0.010135037 0.0053774836 6e-45
0.0037450453 2.607888e-05 0.0014153605 0.0032998773 0.0074997875 0.0019479885 0.0035665415 0.013104177
6e-45 6e-45 6e-45 0.0026213105 6e-45 6e-45 0.0031778417 0.0021598798
0.0016346386 0.008912329 0.0014238879 6e-45 -7.22326e-05 2.0385812e-06 0.00017580003 -0.001145832
-0.001899565 -0.0006644287 -0.0004887662 -0.0031782277 6e-45 6e-45 6e-45 -0.001437274
6e-45 6e-45 0.0004855248 -0.0008190952 -0.00040132535 -0.001696898 -0.00084229314 6e-45
-0.0013611946 1.68788e-06 0.0002193799 0.0016266293 0.0005915473 -0.00020251235 0.0008006447 0.004290023
6e-45 6e-45 6e-45 0.0009874583 6e-45 6e-45 -0.00056242704 0.0002944124
0.00042898644 0.001740641 0.0002871102 6e-45 -0.0012593874 -2.5644864e-05 -0.0008305647 -0.0022482623
-0.0048415023 -0.0011856077 -0.0019632634 -0.005415622 6e-45 -6e-45 -6e-45 -0.0017172282
6e-45 -6e-45 -0.0018922539 -0.001692696 -0.0005871673 -0.0025493847 -0.0008147869 -6e-45
0.0021247142 -1.0521626e-06 0.000694256 0.0020837164 0.0011738561 0.0011323612 0.0014683038 0.0062133744
6e-45 6e-45 6e-45 0.0021872602 6e-45 6e-45 0.0008367986 0.0013264241
0.001482914 0.0029831163 0.0009278 6e-45
00000000: 239a 37ba 1abf 05b6 c686 21ba db29 8fba
00000010: 5040 6dba b924 ab38 613b 37ba 3cc9 94bb
00000020: 0400 0000 0400 0000 0400 0000 dee3 85ba
00000030: 0400 0000 0400 0000 4c7a 9bb8 8948 68ba
00000040: 6283 0cba 30cc fdba 6448 b939 0400 0000
00000050: 92c9 9aba da29 2b36 43bc 8dba ff89 0ebb
00000060: f41f d5ba e4a8 c3ba 5251 d8ba a0a3 21bc
00000070: 0400 0080 0400 0000 0400 0000 78b0 f5ba
00000080: 0400 0080 0400 0000 1cdc e1ba 2962 1eba
00000090: ef68 2bbb a025 c7bb 18a6 97ba 0400 0000
000000a0: b84a 1abc 8f6d 3436 97df 60ba 5dbc 88bb
000000b0: 55c1 26bc ea52 53bb a309 87bb 7fef 73bc
000000c0: 0400 0000 0400 0000 0400 0000 f323 43bb
000000d0: 0400 0000 0400 0000 0c35 e6bb dd09 1bbb
000000e0: 8d9f 1ebb c298 3cbc d30b b6bb 0400 0000
000000f0: 8010 053c 6a38 d5b6 17fb 663a 1e9b 7a3b
00000100: 6cde 263c 9e72 6c3b c14d 4a3b a8fb 693c
00000110: 0400 0000 0400 0000 0400 0000 aed0 533b
00000120: 0400 0000 0400 0000 4113 de3b 898b 293b
00000130: 7684 453b 6d0d 263c 9a35 b03b 0400 0000
00000140: 6f6f 753b f8c3 da37 9e83 b93a c142 583b
00000150: c7c0 f53b a653 ff3a a3bc 693b e7b2 563c
00000160: 0400 0000 0400 0000 0400 0000 4bca 2b3b
00000170: 0400 0000 0400 0000 5643 503b c58c 0d3b
00000180: 5f41 d63a 0405 123c c0a1 ba3a 0400 0000
00000190: 957b 97b8 8fce 0836 f656 3839 be2f 96ba
000001a0: d3fa f8ba 0e2d 2eba 8b20 00ba d049 50bb
000001b0: 0400 0000 0400 0000 0400 0000 ea62 bcba
000001c0: 0400 0000 0400 0000 098e fe39 8cb8 56ba
000001d0: fa68 d2b9 736a deba 56cd 5cba 0400 0000
000001e0: 1d6a b2ba 1d8b e235 5809 6639 9f34 d53a
000001f0: 1112 1b3a 7f59 54b9 5be2 513a 5293 8c3b
00000200: 0400 0000 0400 0000 0400 0000 9a6d 813a
00000210: 0400 0000 0400 0000 d76f 13ba 5d5b 9a39
00000220: 96e9 e039 3826 e43a 4787 9639 0400 0000
00000230: 0712 a5ba ed1f d7b7 41ba 59ba 9557 13bb
00000240: 77a5 9ebb 6566 9bba 18aa 00bb 8875 b1bb
00000250: 0400 0000 0400 0080 0400 0080 9e14 e1ba
00000260: 0400 0000 0400 0080 8105 f8ba 74dd ddba
00000270: 21ec 19ba 9413 27bb 6c97 55ba 0400 0080
00000280: ca3e 0b3b 0838 8db5 bbfe 353a f68e 083b
00000290: 13dc 993a bd6b 943a 1a74 c03a 9099 cb3b
000002a0: 0400 0000 0400 0000 0400 0000 2358 0f3b
000002b0: 0400 0000 0400 0000 9a5c 5b3a 68db ad3a
000002c0: 565e c23a 6380 433b 9b37 733a 0400 0000
