checkpoints/RNN_76.pt (torch, 289709 bytes, 9 tensors)

snn.l1.input_weights f4 [50, 416]
000000 88 f6 8c c0 3c 19 8c c0 a1 69 83 c0 6a 89 96 c0
       -4.405094 -4.3780804 -4.106644 -4.704274
000010 37 94 8c c0 8b ac 95 c0 91 b3 8d c0 fc af 96 c0
       -4.3930926 -4.6773124 -4.4281697 -4.7089825
000020 47 f8 8f c0 9c 4a 7d c0 24 ef 99 c0 ed 86 98 c0
       -4.4990573 -3.9576788 -4.810442 -4.7664704
000030 0f 41 92 c0 8c d4 8f c0 92 26 93 c0 6e 30 86 c0
       -4.5704417 -4.4946957 -4.5984583 -4.193412
000040 4c 6c 89 c0 4f 5f 94 c0 17 c4 8e c0 76 66 84 c0
       -4.29447 -4.6366343 -4.4614367 -4.1375074
000050 ab 4d 92 c0 7d f4 85 c0 e3 f4 8e c0 97 e7 7e c0
       -4.571981 -4.1860948 -4.4673934 -3.9828851
000060 75 29 83 c0 43 1e 86 c0 f1 b1 91 c0 a3 53 81 c0
       -4.0988107 -4.191194 -4.5529714 -4.0414596
000070 ac 2c 8f c0 2b 8f 88 c0 08 70 96 c0 c4 3c 89 c0
       -4.474203 -4.2674766 -4.7011757 -4.2886677
000080 a2 a7 9b c0 91 aa 9d c0 7b 23 84 c0 68 0b 86 c0
       -4.864213 -4.927071 -4.129331 -4.1888924
000090 44 40 8a c0 73 39 8e c0 9c e7 90 c0 7e b9 93 c0
       -4.320345 -4.444513 -4.5282726 -4.616393
0000a0 8d ac 9f c0 31 f8 86 c0 07 d5 99 c0 8a 7a 92 c0
       -4.9898133 -4.217797 -4.8072543 -4.5774584
0000b0 16 2e 96 c0 04 f2 79 c0 0b 3a 96 c0 62 12 90 c0
       -4.6931257 -3.9053965 -4.6945853 -4.502244
0000c0 64 97 98 c0 02 6f 9a c0 a0 e7 89 c0 7b d3 8c c0
       -4.7684803 -4.8260508 -4.3095245 -4.4008155
0000d0 cb f0 88 c0 04 7c 81 c0 2f a5 88 c0 8b ef 88 c0
       -4.2793937 -4.0463886 -4.270164 -4.279241
0000e0 50 a4 8f c0 35 44 89 c0 ca b5 88 c0 96 4d 80 c0
       -4.4888077 -4.289576 -4.272191 -4.009471
0000f0 cf 9f 84 c0 f4 4f 75 c0 bc b0 87 c0 a6 4d 77 c0
       -4.144508 -3.833005 -4.240324 -3.8641143
000100 0f c5 6f c0 07 cd 7f c0 04 22 6f c0 df 83 81 c0
       -3.7464025 -3.9968889 -3.7364511 -4.0473475
000110 39 5d 89 c0 8c f9 83 c0 09 59 89 c0 22 e2 7c c0
       -4.2926297 -4.1242123 -4.2921185 -3.951302
000120 e5 97 85 c0 e1 59 83 c0 38 fe 82 c0 30 12 81 c0
       -4.174792 -4.1047215 -4.0935326 -4.03347
000130 68 e5 82 c0 59 51 87 c0 af cc 98 c0 6c ab 8f c0
       -4.0905037 -4.22868 -4.774986 -4.4896755
000140 00 d0 78 c0 93 14 87 c0 2e d8 92 c0 02 49 85 c0
       -3.8876953 -4.2212615 -4.588889 -4.165162
000150 2e f5 88 c0 d3 98 86 c0 cd 45 72 c0 64 07 81 c0
       -4.279929 -4.2061553 -3.7855103 -4.032152
000160 4a 4f 79 c0 ff 77 86 c0 71 6a 92 c0 e8 0a 86 c0
       -3.8954644 -4.202148 -4.5754933 -4.1888313
000170 8f 18 9a c0 e0 9a 8c c0 ca 49 74 c0 a5 45 7d c0
       -4.815498 -4.3939056 -3.8170037 -3.9573758
000180 23 38 93 c0 41 89 76 c0 ae 98 81 c0 20 c9 82 c0
       -4.6006026 -3.8521273 -4.0498877 -4.0870514
000190 55 d4 84 c0 38 9e 81 c0 8c 49 80 c0 6c 3b 83 c0
       -4.1509194 -4.050564 -4.008978 -4.1010036
0001a0 41 c6 88 c0 93 45 81 c0 4d 87 7b c0 5b b9 79 c0
       -4.274201 -4.039743 -3.930133 -3.9019382
0001b0 35 38 89 c0 24 7a 71 c0 03 03 84 c0 47 d7 85 c0
       -4.288111 -3.7730799 -4.1253676 -4.182529
0001c0 8e 6b 8e c0 aa 5c 8b c0 35 2f 85 c0 0b 94 83 c0
       -4.450629 -4.3550615 -4.1620126 -4.1118217
0001d0 48 e2 6c c0 1e 3a 86 c0 bd 9f 8d c0 1e 8c 78 c0
       -3.701311 -4.1945944 -4.4257493 -3.883552
0001e0 5f bf 89 c0 08 21 89 c0 13 fd 84 c0 58 47 7a c0
       -4.3046107 -4.285282 -4.155893 -3.9106045
0001f0 0f 92 74 c0 74 9c 84 c0 13 d5 81 c0 19 79 83 c0
       -3.8214147 -4.1440983 -4.05726 -4.1085324
000200 90 33 83 c0 e8 01 85 c0 e8 0a 8f c0 12 7d 8d c0
       -4.1000443 -4.1564827 -4.4700813 -4.4215174
000210 a1 c4 78 c0 01 57 74 c0 0c 41 8a c0 73 7d 84 c0
       -3.8870013 -3.8178103 -4.3204403 -4.1403136
000220 4a d0 81 c0 26 95 81 c0 b8 5a 95 c0 d4 24 7c c0
       -4.056676 -4.0494566 -4.667324 -3.9397478
000230 67 08 88 c0 6a a4 80 c0 86 3d 91 c0 d5 1f 78 c0
       -4.2510257 -4.02007 -4.53876 -3.8769429
000240 de 6d 9a c0 bf d0 6b c0 8d 3a 6f c0 3f 4d 61 c0
       -4.8259115 -3.6846159 -3.7379487 -3.5203397
000250 ff 46 76 c0 7a bd 82 c0 34 f2 86 c0 e9 79 85 c0
       -3.8480833 -4.0856295 -4.217066 -4.1711316
000260 9c 51 77 c0 fa 2a 7e c0 64 60 85 c0 50 fa 76 c0
       -3.864356 -3.971373 -4.1680164 -3.8590279
000270 ba 3e ab c0 33 e2 9f c0 81 7c 99 c0 54 d9 92 c0
       -5.351407 -4.996362 -4.796448 -4.5890293
000280 22 b9 a2 c0 11 77 93 c0 f6 34 9b c0 59 31 9a c0
       -5.085099 -4.6082845 -4.850215 -4.818524
000290 12 58 9a c0 6d 17 9e c0 74 26 98 c0 49 8e 9e c0
       -4.823251 -4.9403596 -4.754694 -4.954869
0002a0 73 1a ac c0 ba c8 92 c0 a5 ff 91 c0 e7 7b 97 c0
       -5.3782287 -4.5870028 -4.5624566 -4.733875
0002b0 57 f4 ac c0 18 f7 92 c0 78 5d 92 c0 85 50 85 c0
       -5.4048266 -4.592663 -4.5739098 -4.166079
0002c0 e6 49 95 c0 1b 92 92 c0 af f9 9e c0 8f 6d 95 c0
       -4.665271 -4.580335 -4.967979 -4.669624
0002d0 56 b1 a2 c0 1d d1 9c c0 cb da a3 c0 d7 0d 9b c0
       -5.0841475 -4.9005265 -5.120458 -4.8454394
0002e0 cb 60 9e c0 ad 73 a3 c0 70 bd a8 c0 5a d0 9f c0
       -4.9493155 -5.1078706 -5.2731247 -4.9941835
0002f0 40 5f 93 c0 96 25 9d c0 62 2f 95 c0 81 9a 94 c0
       -4.605377 -4.910838 -4.662034 -4.6438603
000300 7b f2 89 c0 cf 1f 9e c0 0a 34 97 c0 2b 82 96 c0
       -4.3108497 -4.941383 -4.7251024 -4.7033896
000310 ef c7 a7 c0 f4 3a 8d c0 8a 04 8f c0 3f ed 87 c0
       -5.243156 -4.4134464 -4.469304 -4.2477107
000320 b8 55 9d c0 ea 00 8f c0 90 cb 95 c0 4f 32 a1 c0
       -4.9167137 -4.4688616 -4.681099 -5.037391
000330 05 2b 92 c0 34 da 92 c0 ce 0b 8c c0 75 ef 98 c0
       -4.5677514 -4.589136 -4.376441 -4.7792306
000340 2a 21 85 c0 b7 c3 88 c0 15 e5 78 c0 46 bf 88 c0
       -4.1602983 -4.273891 -3.888982 -4.273349
000350 7e 0b 6b c0 aa c0 75 c0 e5 ca 85 c0 ff ce 8b c0
       -3.6725764 -3.8398843 -4.1810174 -4.369018
000360 92 1b 84 c0 60 ff 77 c0 d1 d1 78 c0 b3 07 62 c0
       -4.1283655 -3.8749619 -3.8878062 -3.53172
000370 e5 21 79 c0 e0 b8 89 c0 c9 82 7d c0 cd f6 68 c0
       -3.8926938 -4.3038177 -3.9611075 -3.6400635
000380 67 b4 82 c0 38 89 63 c0 6d 55 80 c0 3a e4 89 c0
       -4.084522 -3.5552502 -4.010428 -4.3091097
000390 3c fd 81 c0 3c 41 80 c0 e6 ec 82 c0 05 48 6c c0
       -4.0621624 -4.007963 -4.0914183 -3.6918957
0003a0 69 b1 7b c0 21 57 87 c0 4c 64 7f c0 05 e6 85 c0
       -3.9327033 -4.229386 -3.9904966 -4.1843286
0003b0 8a d3 6b c0 2e 6a 75 c0 ce 95 84 c0 ea ca 72 c0
       -3.6847863 -3.8346057 -4.1432867 -3.793635
0003c0 a0 46 86 c0 32 df 85 c0 24 1e 87 c0 86 1e 7f c0
       -4.196121 -4.1834955 -4.2224293 -3.986238
0003d0 e4 ce 81 c0 7b f6 83 c0 fd 62 8b c0 68 37 79 c0
       -4.056505 -4.123838 -4.3558335 -3.8940067
0003e0 78 a6 69 c0 cc fc 88 c0 53 5f 5a c0 a8 a5 80 c0
       -3.6507854 -4.280859 -3.4120681 -4.0202217
0003f0 a2 a2 74 c0 f0 2b 75 c0 78 b1 79 c0 58 04 80 c0
       -3.8224263 -3.8308067 -3.9014568 -4.0005302

snn.l1.recurrent_weights f4 [50, 50]
000000 00 00 00 00 45 28 91 3e 71 4f 81 3f 60 8b 65 be
       0.0 0.28351036 1.0102369 -0.22416449
000010 59 45 16 c0 34 fd 51 3f 6d ac b2 3f ce 45 92 bd
       -2.3479826 0.8202698 1.395887 -0.071422204
000020 bb 7b e0 c0 14 2d 1b 3f 64 75 19 c0 ab fa b6 3f
       -7.015104 0.6061566 -2.39779 1.4295248
000030 85 a0 d6 bd b1 bc 9d c0 e0 db 2d bf 8f 9e 41 c0
       -0.104798354 -4.9292836 -0.6791363 -3.0253026
000040 02 57 52 3f 53 a4 b5 bf 02 7a 85 3f 00 7b 6d c0
       0.82164013 -1.4190773 1.0427859 -3.7106323
000050 ea 44 9c bf 31 c0 3f 3f 8d 32 49 3f 0d 32 93 3f
       -1.2208531 0.74902636 0.7859276 1.1499649
000060 26 d9 e7 3d ae 79 08 be 62 8e a2 3f 3b 07 bb bf
       0.11320715 -0.13327667 1.2699702 -1.4611582
000070 15 b1 0f 3f 40 ca 15 3f 63 ba 9f 3f 39 32 14 be
       0.5612958 0.58511734 1.2478756 -0.14472283
000080 9c eb 09 3e 19 30 1a c0 f0 71 3f 3f 2c 6f 56 3f
       0.13468784 -2.4091856 0.7478323 0.83763385
000090 32 d8 91 3f 01 28 14 c0 b3 71 cd 3e 19 e3 a0 bf
       1.1394103 -2.3149416 0.40125808 -1.2569305
0000a0 c9 98 52 3e bb 36 f4 3e f0 75 6c 3f 6f 37 52 3f
       0.20566095 0.47698006 0.9236746 0.82115835
0000b0 86 95 0f be 1b 51 c0 bf e5 06 87 bf 60 40 34 c0
       -0.14021882 -1.5024751 -1.0548979 -2.8164291
0000c0 34 48 ae c0 c2 e6 37 be f5 77 ca 3e 00 00 00 00
       -5.446314 -0.17959121 0.39544645 0.0
0000d0 56 7c 4a bf 26 2c 25 bd 75 81 20 c0 63 aa b4 3f
       -0.7909597 -0.040325306 -2.5079014 1.4114498
0000e0 3b fc 94 3f 13 d7 0b 3f ce d1 e3 c0 b0 69 09 3f
       1.1639475 0.5462505 -7.119361 0.5367689
0000f0 55 7b 1b c0 61 2c 5a 3f 99 cd 1b 3f ae 8b a8 c0
       -2.4294026 0.85223967 0.6086059 -5.2670507
000100 83 dc 18 c0 f8 35 7c c0 30 c2 a6 3f 45 cb 40 c0
       -2.388459 -3.940794 1.3028011 -3.0124066
000110 f3 2e a4 3e de 59 4f c0 8d c4 ca bf a0 a8 ac 3e
       0.3206707 -3.23986 -1.5841233 0.337224
000120 6e 4f 19 3f 5c 7a bd 3d f5 ef 65 be 42 41 14 3e
       0.59886825 0.09251854 -0.22454818 0.14478019
000130 16 92 38 3b 91 7f 1b c0 82 66 5c 3f 4f d3 df 3e
       0.0028163246 -2.429661 0.86093915 0.43715903
000140 eb c1 3b 3f e3 55 51 3f 05 82 84 3e d5 05 0c c0
       0.7334277 0.8177168 0.25880447 -2.187856
000150 21 78 28 3f 3a 82 84 3f 0c c1 96 3f 24 d6 07 c0
       0.658083 1.0352242 1.1777663 -2.122445
000160 13 e1 62 3f ed 7e 9f bf e7 ca a1 3f 34 51 df 3e
       0.88624686 -1.246061 1.2640046 0.4361664
000170 d1 41 ad be 75 ab 8d 3f 74 03 13 3f 1a e3 8c bf
       -0.33839276 1.106795 0.57427144 -1.1006806
000180 68 1c 68 bf 6e dc 56 c0 c3 4f b2 c0 b5 88 35 3f
       -0.90668344 -3.357204 -5.5722365 0.70911723
000190 3c a8 b4 be dd 42 c9 3e 00 00 00 00 cd 9c 93 3e
       -0.35284603 0.39308825 0.0 0.28830567
0001a0 fb fe bb bf 9d bc 77 40 7e 93 b4 3f 92 28 36 be
       -1.4687189 3.870887 1.4107511 -0.17788914
0001b0 ce c6 a6 3d 55 08 79 3e a7 42 3e bf 4c 72 4b 3e
       0.08143388 0.24319585 -0.74320453 0.1986782
0001c0 ba 96 11 3e a5 e1 6f 40 2e a0 ab 40 e7 d9 ca bf
       0.14217654 3.7481472 5.363303 -1.5847749
0001d0 9b 8d 72 3f 3c fa 55 be 0f b1 3b be 0d 20 6d bf
       0.9474732 -0.20896238 -0.18329261 -0.9262703
0001e0 f9 33 48 be 44 ab f5 3e 06 55 cb 3f df b2 11 40
       -0.19551076 0.47982228 1.5885322 2.2765424
0001f0 59 73 2f bf 64 91 84 3e ef b1 a3 3f 7c cc 56 bf
       -0.6853538 0.25892174 1.2788676 -0.8390577
000200 88 29 6b bd ab 40 70 be 70 b6 66 3f bc 7c dc 3e
       -0.057412654 -0.23462169 0.9012213 0.43063915
000210 2a 49 99 bc f6 1e 1b 41 d2 6b 2c be 9d cb a9 3f
       -0.018711645 9.695059 -0.16838005 1.3265263
000220 d8 88 c6 3e 11 87 06 bf 86 1b 7e 3e 02 85 5b bf
       0.38776278 -0.52549845 0.24815187 -0.8574983
000230 66 8c 8b 3f e1 a9 ba 3b 52 79 85 40 e2 10 c8 bd
       1.0902221 0.0056965207 4.1710596 -0.09768845
000240 95 ef c5 3e aa f6 b3 be fb c2 be be fb 3f 44 bf
       0.3865935 -0.35149127 -0.37258133 -0.76660126
000250 a3 58 ad bb 26 36 e4 3d 36 16 89 3d 79 d3 87 3c
       -0.0052901073 0.111431405 0.066936895 0.01658033
000260 c9 35 c5 be 00 00 00 00 3d 11 0f 3f 2f ed 18 bf
       -0.38517597 0.0 0.5588568 -0.59736913
000270 51 19 43 bf ec 44 56 3d 41 07 1c c0 a4 aa 02 be
       -0.76210505 0.052311823 -2.4379427 -0.12760407
000280 71 f8 18 3f 43 6c 36 be eb cf ff bd 71 c6 40 c0
       0.5975409 -0.17814736 -0.12490829 -3.012112
000290 38 dc 5f 3e 79 8e 4a c0 9d d1 fa 3d c9 2f df bf
       0.2186135 -3.1649458 0.12247012 -1.7436458
0002a0 8e fb a3 be fa 24 b0 be 23 4f c3 bf af 3c 0c be
       -0.32027858 -0.3440321 -1.5258526 -0.13695024
0002b0 cd 49 f3 3d 27 53 97 3e e8 06 b8 be 1e fa 66 bd
       0.11879311 0.29555628 -0.3594277 -0.056390874
0002c0 59 f5 48 3d 37 12 15 c0 f5 c2 ed bd 0b 7e e5 bc
       0.049062107 -2.3292367 -0.11609451 -0.028014204
0002d0 90 44 83 3d 51 57 6c 3c 08 cb 0e be 27 57 87 c0
       0.06409562 0.014425115 -0.13944638 -4.2293887
0002e0 34 f1 f0 3d 24 5d 52 3b a1 9e 63 bd 11 24 c4 be
       0.11764756 0.0032098973 -0.055571202 -0.38308766
0002f0 68 7f 31 be b1 b7 fb be f5 b2 11 be c3 91 42 3e
       -0.17333758 -0.49163583 -0.14228423 0.19000916
000300 c1 cd 17 3f fa 6f 24 be 8f 05 03 3d 76 3f 16 bd
       0.5929833 -0.1605834 0.031987723 -0.036681615
000310 f9 5f 5f bf c7 0d 55 3f 4e 2e ac c0 81 94 50 3d
       -0.8725582 0.8322415 -5.3806524 0.050922874
000320 2d 59 4e 3f 35 35 4b 3f eb 4d 3a 40 cc ca 09 be
       0.8060482 0.7937806 2.9110057 -0.13456267
000330 00 00 00 00 a1 96 60 3f bc 78 85 3f 74 29 d5 bd
       0.0 0.8772984 1.042747 -0.10408297
000340 26 55 70 40 47 8a 2a 3f 74 44 7a 3f d5 f0 89 3f
       3.755197 0.66617244 0.977607 1.0776621
000350 06 c8 23 3f cd 44 47 40 96 79 0f 40 c1 02 33 40
       0.63977087 3.1135743 2.241796 2.797043
000360 0a e0 2b 3f fe 36 1a 40 e2 60 55 3f 91 ee f0 3f
       0.6713873 2.4096065 0.83350956 1.8822805
000370 34 2b 13 40 7d 0a 4e 3f 1a 07 df 3f 81 7d a3 3f
       2.299512 0.80484754 1.7424042 1.2772676
000380 18 86 87 3f 4e 8d b4 3e f0 d6 b3 3f 49 15 96 3f
       1.0587797 0.35264057 1.4049969 1.1725246
000390 af de e3 3e 65 a3 f3 3e fa ef b5 3f 39 25 33 3f
       0.44505832 0.47585598 1.421386 0.6997867
0003a0 d7 e3 bb bd 9c 1a ef bf ef 35 59 3f f6 cd c3 3f
       -0.091743164 -1.8679996 0.8484792 1.5297229
0003b0 24 09 6c 3f 5e 4a 00 40 e1 27 cf 3e 8f 08 f9 3f
       0.9220145 2.004539 0.40460113 1.9455737
0003c0 32 83 07 3f 3c cd 3b 3c bd 15 80 40 b3 55 90 3e
       0.52934563 0.011462506 4.0026536 0.28190383
0003d0 d1 47 5d 3f 40 57 33 3f a7 a9 33 40 00 e5 f2 3e
       0.8643771 0.7005501 2.8072298 0.47440338
0003e0 a4 c3 06 40 8b 11 f8 3e a9 a8 25 be 84 95 06 3f
       2.105691 0.48450884 -0.1617762 0.5257189
0003f0 cb c8 22 40 56 87 ce 3d d7 26 eb bf 00 00 00 00
       2.5435054 0.10084407 -1.8371228 0.0

snn.fc_out.weight f4 [9, 50]
000000 63 a6 c1 be b6 f8 09 bf 00 7b 1f c0 95 06 d9 bc
       -0.37822255 -0.5389513 -2.4918823 -0.026492396
000010 99 0f a7 3f 42 00 c1 bf 69 28 06 bf cc 6a b5 bd
       1.3051635 -1.5078204 -0.5240541 -0.088582605
000020 d6 cd 48 40 0f c3 6f be 48 59 1d 3f 28 cc 07 bf
       3.1375632 -0.23414253 0.6146436 -0.5304589
000030 0a 7e 82 be c1 71 26 bf cd b0 20 3e 4b f9 3c c0
       -0.25486785 -0.65017325 0.15692444 -2.9527156
000040 3d f5 94 bf 24 93 b7 be cd 50 2a be 72 45 30 3f
       -1.1637341 -0.35854447 -0.16632386 0.68855965
000050 69 a3 c4 bf e8 ee 9d be 33 8b 1d bf 58 91 88 3f
       -1.5362369 -0.30846334 -0.61540526 1.0669355
000060 74 38 f5 3e dc b4 07 be 6a 4b f5 3e fc a5 9e be
       0.47894633 -0.13252586 0.479091 -0.3098601
000070 bc 61 db bd 13 b6 17 bf 9b cd 38 be 78 91 bb be
       -0.10712001 -0.592622 -0.18047182 -0.3663442
000080 6b 8a 9b bd f9 a9 b4 c0 5d 7e 15 be d8 45 ce be
       -0.075947605 -5.6457486 -0.14598985 -0.40287662
000090 ef 2c 3e bf 3f 3f 1f be 31 7a 36 be 7f 71 58 3f
       -0.74287313 -0.1555147 -0.1782005 0.8454818
0000a0 fb 1e 2e bf e5 fd eb bd f8 71 4c 40 df 1b c5 be
       -0.6801602 -0.11523036 3.194456 -0.38497826
0000b0 64 b7 2c bf 84 60 04 c0 02 e3 55 3f ea 64 f4 be
       -0.6746733 -2.0683908 0.8354951 -0.4773324
0000c0 39 8f 39 bf df 53 ba be 13 05 86 3e 82 16 20 be
       -0.72484165 -0.36392114 0.26175746 -0.15633586
0000d0 5b f1 fb 3e be c1 c8 bd e8 ae a0 3d 3b d2 18 c0
       0.49207577 -0.098025784 0.07845861 -2.3878314
0000e0 d7 da d7 bf 1a 8c 4e 3c f6 e7 26 3f b5 37 bf be
       -1.686366 0.012606645 0.65197694 -0.3734719
0000f0 7b 42 5a bd 43 3f 91 3e 42 72 f3 3d 37 aa 29 40
       -0.053286057 0.28368577 0.11887027 2.651014
000100 c1 de 9c bd a0 aa 28 bf 44 52 61 bf 3d a6 50 bf
       -0.076596744 -0.65885353 -0.8801615 -0.8150366
000110 d8 b2 c4 3e 64 d4 a3 3e 9d 6f dc 3e 48 a4 23 3f
       0.38417697 0.3199798 0.43053904 0.6392255
000120 fb d9 37 3f 88 35 97 3f 8c 36 c5 3e 11 b6 64 bd
       0.71816987 1.1813211 0.38518178 -0.055837695
000130 a2 29 97 3f 24 b5 10 bf d6 4f 8d 3e 3b f3 14 bf
       1.180958 -0.565264 0.27599972 -0.5818364
000140 3d 9b 2c 3f b8 6c e3 be c0 10 3f bd db 1a 45 c0
       0.67424375 -0.44418883 -0.046646833 -3.0797641
000150 90 70 c3 3e 38 c1 48 3f 7c 4b 3f bf e8 45 43 3f
       0.38171816 0.7841983 -0.74724555 0.76278543
000160 28 ce 15 bd ec fb 2a 3f 4e 2c d5 bd 2d 22 da bd
       -0.03657356 0.6679065 -0.10408841 -0.1065105
000170 88 7d d8 3f 67 7a 29 bf 5d 7d d8 3e 1f 87 d8 3e
       1.6913309 -0.66202396 0.42283145 0.4229059
000180 e1 e1 2c 3e 02 1e 95 3e cd ab 54 bf 15 0c 2f 3e
       0.16883041 0.29124457 -0.8307465 0.17094453
000190 b3 85 af be 15 5b d9 3e 7d fa 40 40 1c 0b ed bc
       -0.34281692 0.42452303 3.0152886 -0.028935961
0001a0 ef 34 4a bf 32 e3 04 40 e3 f6 19 3f 8c 5c 0f 3f
       -0.7898702 2.076367 0.60142344 0.5600059
0001b0 f9 17 24 bf 65 6c 8e 3e bf b4 61 3d 20 ab bd 3d
       -0.6409908 0.27817073 0.055104014 0.09261155
0001c0 73 b4 ee 3e 6b 31 3c 3f 4e 53 79 bf 97 10 72 3f
       0.46622047 0.73512906 -0.9739274 0.94556564
0001d0 e3 06 68 3f 6d 3d 89 3f af 7f 2d bf f0 a9 8f be
       0.9063551 1.0721871 -0.67772955 -0.2805934
0001e0 05 ed bc 3c 87 9b 1e 3e e9 a9 57 3f 00 a3 10 bf
       0.023062238 0.15489016 0.8424364 -0.5649872
0001f0 b0 0e 06 3f 79 d8 ac 3e 73 33 00 bf 0e 1f f8 3f
       0.5236616 0.33758906 -0.50078505 1.9384477
000200 77 96 95 3c 85 dd 20 3d 35 1f 4b 3e 12 14 6f 3f
       0.018260224 0.039273757 0.19836123 0.9339
000210 93 f9 eb 3e fb 2b 13 40 4a 1b bd be 63 43 05 3f
       0.46088848 2.2995594 -0.36934882 0.5205595
000220 61 9c d7 3e c6 a3 8e bd 5e ab b7 3e 58 8d a6 3e
       0.42111495 -0.06964831 0.3587293 0.32529712
000230 e3 3d 9f 3f 4d 23 9d 3e d1 6d c3 3b 6b f8 67 be
       1.2440761 0.30690995 0.005964019 -0.22653358
000240 d9 47 71 3f ef fc a7 bd 75 fc 9d be 0c e1 37 3e
       0.94250256 -0.0820254 -0.30856672 0.17956942
000250 f7 08 3a 3f fa 60 04 3f 67 a2 2a 3f e2 68 35 3e
       0.7266993 0.51710474 0.66654056 0.17715791
000260 f4 46 1a 3d 3c 07 bb bd b1 f1 84 bf dd 0f 22 bf
       0.037665322 -0.09132239 -1.0386258 -0.63305455
000270 61 05 3e 3f 67 b2 4c be 22 90 9d be be d5 89 3e
       0.7422696 -0.1998993 -0.30774027 0.26920885
000280 12 be 81 be 7d 3e 42 3f ad 6c cb 3d 8b 21 5d 3f
       -0.25340325 0.758766 0.09932838 0.8637931
000290 17 14 90 40 d0 6d d5 3f b9 6d b5 bd 14 20 ad be
       4.5024524 1.6674137 -0.088588186 -0.33813536
0002a0 e4 93 39 3f 5a f2 b2 be 83 73 05 3f bb c2 c9 3e
       0.7249129 -0.34950525 0.5212938 0.3940638
0002b0 af 73 0d 3e e9 ff a2 3f 0f dc 47 be c4 95 23 bd
       0.13813661 1.2734348 -0.1951754 -0.03993775
0002c0 ea 4d a4 3f 0f da b6 be 34 3a df 3e a6 ac c3 3e
       1.2836277 -0.3571324 0.43599093 0.38217658
0002d0 5e ea 1d 3f 8a 0f 1d bf 0d 0d 31 be e1 34 88 bf
       0.6168574 -0.61351836 -0.17290135 -1.0641137
0002e0 f7 11 17 3f 4c 23 fc 3d 80 4d 32 3f db c1 e9 3e
       0.5901179 0.1231142 0.69649506 0.45655712
0002f0 e8 ff b7 3e 35 fd 16 bf fd b7 f0 be ac 5f d7 bd
       0.35937428 -0.58980113 -0.47015372 -0.10516295
000300 39 47 d9 be f0 1e 0b 3f 8d d7 bf be 97 76 7e 3e
       -0.4243715 0.5434408 -0.3746914 0.24849926
000310 31 b6 fb be 6e 7c cc bd 9e 50 d2 3f b4 d3 9d 3e
       -0.4916244 -0.099846706 1.6430852 0.3082558
000320 39 09 95 3e cf 01 b8 3e 5c e5 e0 3f 17 f2 c8 bc
       0.291086 0.3593888 1.7569995 -0.0245295
000330 8f 98 2e 3f 02 e4 32 be cd 09 4d 3c b4 83 16 bf
       0.68201536 -0.1746979 0.012514544 -0.58794713
000340 42 b5 2c 3e 7b db c7 bd c3 15 03 3f 0e 44 b9 3e
       0.1686602 -0.097586595 0.5120508 0.36184734
000350 03 bf 2d 3e ed 60 11 3f d7 59 7b bf f4 91 1f bf
       0.16967396 0.5678852 -0.9818396 -0.6233208
000360 1c 0b 34 3e 81 98 91 3f 55 39 7e bc 5d 35 af 3e
       0.17582363 1.1374665 -0.015516599 0.342204
000370 b1 1b d4 3e 16 56 20 3f 26 fc 84 3f 0f 4b 45 3f
       0.41427377 0.62631357 1.038945 0.77067655
000380 4b 61 42 be ea 9d 90 3e a1 6d 8b 3d 33 31 8f 3e
       -0.18982427 0.2824548 0.068080194 0.27967224
000390 a4 c0 54 3e ba 4b fe bd 79 df 66 3f d4 11 3f 3d
       0.20776612 -0.124167874 0.9018474 0.04664786
0003a0 89 e2 0e 3e ac a2 88 bf 04 2b 8a bd d2 aa 97 3f
       0.13953604 -1.0674644 -0.06746486 1.1849005
0003b0 7d e5 e1 bd 2e eb 46 3c 18 ff 96 3e 73 fb a8 3e
       -0.110300995 0.012141032 0.29491496 0.3300434
0003c0 6a 73 7f be 53 60 02 3e c7 5e 26 40 04 11 a7 be
       -0.2494637 0.12732057 2.5995347 -0.3263017
0003d0 5f 28 11 3e 50 95 48 be e7 9a 81 3f 45 9d 05 bf
       0.14175557 -0.19588208 1.0125397 -0.521931
0003e0 54 c5 bf be 10 8a 23 3e be 25 47 3f 73 7e 13 3f
       -0.37455237 0.15970635 0.77791965 0.5761482
0003f0 ef 9f d0 bf 51 95 9a bd a6 21 f7 3e db cb 34 40
       -1.6298808 -0.07548011 0.4826786 2.8249424

exp_avg f4 [50, 416]
000000 27 56 9d 36 02 df 89 36 19 d1 a9 b6 3d d5 f4 36
       4.688994e-06 4.1088797e-06 -5.0609347e-06 7.296591e-06
000010 2d 07 9d b7 8e 81 41 b8 f8 e2 56 b7 b7 91 e7 b7
       -1.87192e-05 -4.6135443e-05 -1.2808239e-05 -2.76052e-05
000020 09 84 13 b6 c3 dd ff b7 c7 9a 93 b7 d9 72 8d b7
       -2.1981562e-06 -3.0501635e-05 -1.759584e-05 -1.686199e-05
000030 9f 9c 08 b7 c5 97 ac b7 57 00 55 b4 d3 70 3b b7
       -8.142698e-06 -2.0574671e-05 -1.9837294e-07 -1.11723375e-05
000040 d8 a5 31 b7 d8 88 8a 35 00 dc 39 b7 3a 87 36 b7
       -1.0588636e-05 1.0321628e-06 -1.1078082e-05 -1.087953e-05
000050 a9 e1 9c b6 f7 f9 01 b7 0d 86 d8 b7 24 00 b5 b6
       -4.6754326e-06 -7.747199e-06 -2.5811629e-05 -5.3942367e-06
000060 88 00 a8 b7 9c 9a 6b b7 5c 1f 47 b8 dc 14 7a b7
       -2.0027408e-05 -1.4043089e-05 -4.7474503e-05 -1.4906018e-05
000070 68 11 4f b8 3f 25 25 37 2a 29 4a b6 ca f4 ef b7
       -4.9368857e-05 9.843438e-06 -3.0124306e-06 -2.8605009e-05
000080 a6 2e c4 b7 00 6c 05 b7 8c c8 75 b7 1e 1c 27 37
       -2.3386743e-05 -7.9525635e-06 -1.4649831e-05 9.960522e-06
000090 c8 d4 c0 b6 8d 93 cd 37 b1 3b 14 36 97 b4 a0 b7
       -5.746817e-06 2.4506613e-05 2.2088464e-06 -1.915758e-05
0000a0 e3 4d 07 37 82 a7 e4 b7 52 79 0d b8 17 ee ec 36
       8.0647615e-06 -2.725772e-05 -3.3730008e-05 7.0610654e-06
0000b0 cc 45 55 37 73 42 9a 37 18 b6 8a 37 10 26 85 b5
       1.271204e-05 1.8389173e-05 1.6535676e-05 -9.92035e-07
0000c0 46 73 0f 38 92 9b 15 b6 c1 f2 da b6 c3 d2 48 b7
       3.4201214e-05 -2.2293284e-06 -6.5251666e-06 -1.1970001e-05
0000d0 fd b4 1c b7 02 ad bc 36 32 cd 94 b7 2f 72 e7 36
       -9.340464e-06 5.6229774e-06 -1.7738526e-05 6.897629e-06
0000e0 3e 7a af 35 97 e4 80 b7 b6 c1 10 b7 72 aa 67 37
       1.3074093e-06 -1.5365235e-05 -8.628171e-06 1.3808358e-05
0000f0 32 fc c8 36 cc cd 1d b7 2d fa 9a b7 ac 48 b3 36
       5.989824e-06 -9.405845e-06 -1.8474728e-05 5.343076e-06
000100 ab 38 84 b6 d8 36 e5 b6 14 90 22 b6 1b d5 07 37
       -3.9405036e-06 -6.8311165e-06 -2.4223746e-06 8.0962445e-06
000110 55 e9 c4 37 38 14 4a b7 8b 12 9b b5 d1 e7 43 b7
       2.3473674e-05 -1.2044846e-05 -1.1553797e-06 -1.167688e-05
000120 4b 89 99 b7 2a 0a 85 b7 98 d9 52 b7 5d c5 89 b7
       -1.8302953e-05 -1.5859569e-05 -1.2567638e-05 -1.6423577e-05
000130 ec db ad b7 69 8b 35 b6 14 d6 e1 36 6b c0 f1 b5
       -2.0725616e-05 -2.705225e-06 6.7304445e-06 -1.80119e-06
000140 59 ec 5f b5 a6 b0 a7 36 49 d2 0c b7 8d c7 5c b7
       -8.3417905e-07 4.9975524e-06 -8.393611e-06 -1.3159483e-05
000150 6d d9 24 b6 8d 6b 41 b7 71 a5 5b b7 b6 c1 a6 b6
       -2.4564463e-06 -1.1528738e-05 -1.3091937e-05 -4.9697364e-06
000160 54 6e e1 b6 c0 35 28 b7 7b dd 28 b7 d3 44 c0 37
       -6.7183664e-06 -1.0026095e-05 -1.0065148e-05 2.2920232e-05
000170 a2 cf c8 b7 d6 10 09 36 be e9 9f 37 a3 84 83 b7
       -2.3938544e-05 2.042439e-06 1.9063122e-05 -1.567818e-05
000180 29 2a 8a b7 76 de 2d b6 9e a7 d5 b6 2b bd 21 b7
       -1.6470514e-05 -2.5908498e-06 -6.367408e-06 -9.640392e-06
000190 a4 5a 99 36 57 88 92 35 58 69 cd b6 58 ce 42 b6
       4.5703073e-06 1.0917528e-06 -6.1217397e-06 -2.902836e-06
0001a0 07 2a 93 b7 c8 bf 27 b5 32 63 2f b6 3c ca 56 b7
       -1.7543336e-05 -6.2491426e-07 -2.6134771e-06 -1.280248e-05
0001b0 8f fd 14 38 02 e4 2d b7 4d 78 15 37 5f 79 33 b7
       3.5522095e-05 -1.0364691e-05 8.909102e-06 -1.069749e-05
0001c0 fc bd 82 b6 0d 6e 15 b7 4e 27 44 b7 c7 bd 26 37
       -3.896419e-06 -8.906715e-06 -1.1691662e-05 9.938557e-06
0001d0 63 3d 16 b6 1b 9b 6f b7 8e e0 1e b7 72 0d 99 37
       -2.2387474e-06 -1.4281623e-05 -9.469817e-06 1.8245282e-05
0001e0 fc 91 98 b7 f0 71 9a b7 47 37 de b7 d9 58 8c b6
       -1.8187791e-05 -1.8411287e-05 -2.6490203e-05 -4.1826684e-06
0001f0 0b f8 0c 37 cd 38 3d b7 e2 ed e8 b6 c2 6f 5f b7
       8.402402e-06 -1.1278503e-05 -6.941832e-06 -1.3317856e-05
000200 5b 7e 54 b7 28 7e 11 37 18 35 8d b7 af b0 9f b7
       -1.2665604e-05 8.6720465e-06 -1.6833234e-05 -1.9036552e-05
000210 28 e0 cd b7 47 bf a9 b6 d9 63 05 b7 0b f8 47 b7
       -2.4542285e-05 -5.05886e-06 -7.950665e-06 -1.1919076e-05
000220 6d dc 17 b8 92 b0 ab 33 3d 98 04 b8 df be 09 b8
       -3.6206493e-05 7.994926e-08 -3.1613035e-05 -3.2841108e-05
000230 77 59 9b b4 5e 7b 23 b6 eb e5 58 b7 64 d1 c6 36
       -2.8936094e-07 -2.4360702e-06 -1.2928135e-05 5.925236e-06
000240 a9 f1 7b b6 04 04 a6 b5 38 fb 11 36 d1 06 cf b7
       -3.754258e-06 -1.2369132e-06 2.1752912e-06 -2.4679497e-05
000250 29 c0 1c b7 38 bb b3 b7 bc 8d 4c b7 d1 fa a3 35
       -9.343065e-06 -2.1425643e-05 -1.2192348e-05 1.2217444e-06
000260 43 cd 69 b7 18 57 7a 36 89 2a 60 36 c3 20 97 b6
       -1.3935673e-05 3.7303598e-06 3.340336e-06 -4.5039646e-06
000270 55 78 9c b6 60 5f 97 37 56 c5 62 b6 24 ba 03 38
       -4.663171e-06 1.8045015e-05 -3.379149e-06 3.140619e-05
000280 11 95 57 b8 b1 83 35 36 8c 7e 3f b7 c5 0d 7e b6
       -5.1398823e-05 2.7047756e-06 -1.1413951e-05 -3.7856964e-06
000290 59 af 0d b8 a8 ac 40 35 fd 6f df b6 df 89 7f 37
       -3.3780325e-05 7.177682e-07 -6.658955e-06 1.5231285e-05
0002a0 14 64 d0 36 a0 63 b3 36 23 c7 34 b7 d8 33 01 36
       6.2105337e-06 5.3462136e-06 -1.0775201e-05 1.9252675e-06
0002b0 6a 15 33 b3 35 45 c9 b6 9c f9 80 b7 81 27 4d b6
       -4.169616e-08 -5.9983236e-06 -1.5375022e-05 -3.0570375e-06
0002c0 44 12 85 37 8c c6 65 b7 e3 f2 89 b7 32 6e 04 b8
       1.5863341e-05 -1.3695691e-05 -1.6444776e-05 -3.157388e-05
0002d0 bb 34 00 b8 1f 90 26 b7 63 41 f6 b6 c7 ac ce b6
       -3.0566687e-05 -9.927927e-06 -7.3389833e-06 -6.1593923e-06
0002e0 c1 41 88 b7 6e 52 7b b7 1b 1a ba b7 0b 72 e5 b5
       -1.6243082e-05 -1.4979958e-05 -2.2185084e-05 -1.709502e-06
0002f0 83 a9 21 b6 86 33 38 b7 ba 12 d5 36 73 c5 7b b6
       -2.4089538e-06 -1.0979251e-05 6.3500747e-06 -3.7516845e-06
000300 87 a4 c5 b7 4d f9 4a b6 05 4b 35 b7 1f a7 f7 b7
       -2.3560844e-05 -3.0245458e-06 -1.0805908e-05 -2.9522516e-05
000310 fe 52 c1 b7 c3 a7 c9 b7 c1 a6 02 b8 4c 20 13 b7
       -2.304604e-05 -2.4039187e-05 -3.1149717e-05 -8.7694025e-06
000320 3c c0 f3 36 33 0f 65 b7 9d 80 59 b7 e5 d6 b9 b7
       7.2643434e-06 -1.36530025e-05 -1.2964153e-05 -2.2153787e-05
000330 d8 1e a6 36 b5 72 a5 b7 89 86 d0 37 59 5e 5f b8
       4.950776e-06 -1.9722947e-05 2.485818e-05 -5.325521e-05
000340 c0 08 20 b7 ac 42 4e b7 55 8d 59 37 e8 fe 87 b5
       -9.53878e-06 -1.229408e-05 1.2967114e-05 -1.0132471e-06
000350 6d 47 70 b7 f7 9b a3 b7 50 cc 02 b6 5c 3b 4d 37
       -1.4321745e-05 -1.9503741e-05 -1.9490435e-06 1.2232773e-05
000360 95 06 ed b6 06 6c 92 b3 7f 14 b5 b6 db e2 5a b7
       -7.0639167e-06 -6.818304e-08 -5.3966064e-06 -1.30466315e-05
000370 5b cb be 36 35 13 4e b7 35 10 b8 b7 05 ed 49 b7
       5.686115e-06 -1.2283029e-05 -2.1942056e-05 -1.2035719e-05
000380 d5 11 56 b6 09 20 8b 37 35 4c 77 37 13 bb 63 b7
       -3.1898865e-06 1.6585009e-05 1.4740091e-05 -1.3573811e-05
000390 0c 68 2f b7 14 0e d1 b5 ee 11 e5 36 83 0e 3e b6
       -1.0455038e-05 -1.5575811e-06 6.826819e-06 -2.8320653e-06
0003a0 7d 90 f7 36 5a 33 18 b7 fd b0 43 b7 c4 11 75 b7
       7.3779943e-06 -9.071862e-06 -1.1664114e-05 -1.4607274e-05
0003b0 51 ae 8c 34 db d9 9f b6 ce 57 6b b7 83 f0 8e b7
       2.6203864e-07 -4.763931e-06 -1.4027535e-05 -1.7039716e-05
0003c0 7f 4b 54 b7 d5 79 90 b7 ba a0 9e b7 1a 87 f0 b5
       -1.26537625e-05 -1.722287e-05 -1.8909912e-05 -1.7920713e-06
0003d0 45 5d 89 36 6d a6 aa 37 ad b7 c1 36 b6 bd 23 b7
       4.093776e-06 2.0343077e-05 5.773231e-06 -9.759728e-06
0003e0 82 b3 63 37 4c a0 d9 b6 ae 57 0e 37 76 1d 9c 36
       1.3572049e-05 -6.485765e-06 8.484274e-06 4.652592e-06
0003f0 43 59 60 b7 2a 1e b3 b6 61 e2 37 36 c8 5a f5 37
       -1.3372223e-05 -5.3381273e-06 2.7400895e-06 2.924855e-05

exp_avg_sq f4 [50, 416]
000000 d4 50 3c 32 30 f0 36 32 47 61 57 32 1d 46 39 32
       1.0961418e-08 1.0648407e-08 1.2536765e-08 1.0784359e-08
000010 fe 5e 55 32 a4 2a 4b 32 aa f2 47 32 21 68 33 32
       1.24198305e-08 1.18258505e-08 1.16385e-08 1.04428475e-08
000020 28 e9 44 32 91 94 4c 32 b5 aa 37 32 02 47 48 32
       1.1461715e-08 1.1908143e-08 1.0690816e-08 1.16576775e-08
000030 f3 af 45 32 4e a7 38 32 da 5d 3f 32 49 ec 41 32
       1.1506915e-08 1.074825e-08 1.1139003e-08 1.1287804e-08
000040 3f 9c 49 32 c8 19 39 32 8f 10 38 32 44 90 33 32
       1.1735266e-08 1.0774279e-08 1.0713975e-08 1.04519735e-08
000050 f1 6d 4c 32 a1 fb 47 32 e2 d1 3c 32 14 d1 46 32
       1.1899361e-08 1.1640538e-08 1.0990762e-08 1.1572656e-08
000060 73 30 39 32 17 49 4e 32 13 69 49 32 19 d9 4a 32
       1.0779433e-08 1.2007397e-08 1.1723631e-08 1.180731e-08
000070 b9 fe 4b 32 12 1c 44 32 ef c2 48 32 58 a2 3e 32
       1.1874072e-08 1.1415084e-08 1.1685855e-08 1.1096368e-08
000080 63 ea 3d 32 0a 97 32 32 43 1b 4b 32 71 4b 36 32
       1.1054541e-08 1.0395306e-08 1.1822354e-08 1.0610948e-08
000090 4a 8d 4a 32 ab 3a 4b 32 39 54 41 32 0f c1 39 32
       1.1790073e-08 1.1829495e-08 1.1253229e-08 1.0812314e-08
0000a0 8e 9d 40 32 dd 8e 43 32 48 d7 55 32 30 03 3c 32
       1.1211695e-08 1.1382977e-08 1.2447181e-08 1.0943765e-08
0000b0 22 48 34 32 b4 74 59 32 d1 84 41 32 87 f6 3b 32
       1.049378e-08 1.2657598e-08 1.12642775e-08 1.0940886e-08
0000c0 d1 f1 40 32 8d 6a 40 32 30 c4 3d 32 a0 1f 3e 32
       1.1230854e-08 1.1200098e-08 1.1045856e-08 1.1066646e-08
0000d0 47 a3 06 32 ed 54 09 32 b9 cb 08 32 15 ba 0a 32
       7.8369515e-09 7.993759e-09 7.962563e-09 8.074967e-09
0000e0 2a 96 f0 31 48 c6 00 32 1b b1 0c 32 97 04 08 32
       7.001991e-09 7.4956645e-09 8.189342e-09 7.9172855e-09
0000f0 37 e4 03 32 7e 2d 11 32 1f b9 0d 32 90 04 09 32
       7.677094e-09 8.450455e-09 8.249372e-09 7.975487e-09
000100 78 90 04 32 15 ae f7 31 4d 0b 14 32 d1 1d 03 32
       7.71626e-09 7.208437e-09 8.617303e-09 7.631983e-09
000110 b7 56 05 32 ce 53 0d 32 ae 41 07 32 ac 01 0d 32
       7.761336e-09 8.226335e-09 7.872968e-09 8.20766e-09
000120 ab fd 03 32 24 82 f1 31 71 85 0b 32 bc ac 12 32
       7.682881e-09 7.0288184e-09 8.121206e-09 8.537594e-09
000130 74 53 05 32 5d 99 02 32 64 aa 08 32 d6 a7 00 32
       7.760594e-09 7.601867e-09 7.954984e-09 7.488742e-09
000140 aa be 06 32 84 71 fe 31 2d 8c 00 32 79 28 05 32
       7.8431786e-09 7.405278e-09 7.482453e-09 7.750821e-09
000150 6f 0f 05 32 d4 2a 0f 32 ee 46 03 32 9e 61 0f 32
       7.745128e-09 8.3334335e-09 7.641331e-09 8.345891e-09
000160 40 86 ee 31 51 7e ff 31 d8 4a 0d 32 ed 96 10 32
       6.941974e-09 7.4358373e-09 8.224298e-09 8.41622e-09
000170 34 09 03 32 9b 5c 03 32 e5 6e 0b 32 61 b4 14 32
       7.627296e-09 7.64626e-09 8.116079e-09 8.655747e-09
000180 ed 6e fa 31 1c 0e 08 32 a4 ef 0c 32 92 12 06 32
       7.2885684e-09 7.91945e-09 8.2035605e-09 7.804049e-09
000190 6c 1e 00 32 9a b7 09 32 ad 11 08 32 8d 39 09 32
       7.457498e-09 8.016196e-09 7.920261e-09 7.987535e-09
0001a0 39 5e 19 32 e0 2d 2f 32 33 f8 2a 32 33 b3 1a 32
       8.927196e-09 1.0196771e-08 9.951736e-09 9.004725e-09
0001b0 66 1e 2b 32 ca 18 23 32 15 bf 2e 32 78 89 26 32
       9.960422e-09 9.493485e-09 1.017158e-08 9.6937285e-09
0001c0 34 54 24 32 db 3a 19 32 40 e0 19 32 ca 25 19 32
       9.565202e-09 8.919154e-09 8.956761e-09 8.914364e-09
0001d0 84 30 25 32 38 12 1d 32 17 6a 24 32 49 c6 1e 32
       9.615295e-09 9.142745e-09 9.570178e-09 9.241895e-09
0001e0 fd df 1e 32 3c 46 37 32 33 56 30 32 1b 86 1d 32
       9.2477395e-09 1.0667971e-08 1.0264148e-08 9.169095e-09
0001f0 c2 cf 23 32 ca 58 29 32 4f fe 28 32 e1 40 1d 32
       9.535087e-09 9.857283e-09 9.83671e-09 9.1533545e-09
000200 7b bc 22 32 4a fa 25 32 c5 6f 16 32 3e 9c 19 32
       9.472497e-09 9.661173e-09 8.756563e-09 8.9412975e-09
000210 16 b0 20 32 be e3 29 32 41 a4 22 32 44 cd 29 32
       9.353263e-09 9.888877e-09 9.466988e-09 9.883767e-09
000220 63 49 1f 32 2f 04 29 32 f9 09 2c 32 4f 62 29 32
       9.271704e-09 9.838046e-09 1.0013985e-08 9.8594475e-09
000230 ba 81 1c 32 11 f2 2b 32 93 03 25 32 db dd 2c 32
       9.1098915e-09 1.00085495e-08 9.605077e-09 1.0062162e-08
000240 aa 94 30 32 c6 9c 26 32 b9 f9 1c 32 10 4e 2c 32
       1.0278351e-08 9.698118e-09 9.1371755e-09 1.0029467e-08
000250 2c 92 13 32 7d 2b 1f 32 7e ba 21 32 e3 bc 24 32
       8.589762e-09 9.264906e-09 9.413837e-09 9.589004e-09
000260 09 1f 1c 32 d2 9a 22 32 d7 0f 31 32 16 40 2b 32
       9.087452e-09 9.464843e-09 1.03063575e-08 9.9680815e-09
000270 0a 7b 4b 32 dc d5 5b 32 ec 95 61 32 cf c8 52 32
       1.1844131e-08 1.2796104e-08 1.3130812e-08 1.2269267e-08
000280 41 42 58 32 2d 7f 4e 32 e4 41 6d 32 0e c8 5d 32
       1.2587919e-08 1.2019695e-08 1.3810197e-08 1.290938e-08
000290 ad 62 64 32 74 ea 55 32 78 37 46 32 a8 0b 78 32
       1.3293783e-08 1.245154e-08 1.1537729e-08 1.443815e-08
0002a0 6a a3 52 32 14 20 54 32 8e c9 5c 32 39 42 3d 32
       1.2260765e-08 1.2347318e-08 1.2851514e-08 1.1016305e-08
0002b0 73 4e 55 32 46 c3 60 32 3a 37 45 32 3a 8e 55 32
       1.2416069e-08 1.3082916e-08 1.1479466e-08 1.243057e-08
0002c0 59 1a 50 32 30 57 55 32 8c b9 5b 32 79 1e 57 32
       1.2113184e-08 1.2418056e-08 1.2789666e-08 1.2521576e-08
0002d0 d5 2e 59 32 61 bc 46 32 b1 02 54 32 bf e4 6a 32
       1.2641711e-08 1.1567949e-08 1.2340636e-08 1.36726035e-08
0002e0 da 32 4e 32 47 06 5d 32 cc 1f 60 32 c5 1f 43 32
       1.20023405e-08 1.286532e-08 1.3045746e-08 1.1357717e-08
0002f0 42 dd 5d 32 8d 31 4e 32 27 24 51 32 8e ee 5e 32
       1.2914201e-08 1.2002045e-08 1.2173621e-08 1.2976342e-08
000300 9b 71 5e 32 a9 d1 40 32 e5 a0 5c 32 02 d9 64 32
       1.2947932e-08 1.1223542e-08 1.2842269e-08 1.33206886e-08
000310 9d 7e 64 32 38 16 57 32 88 bb 4e 32 05 0f 69 32
       1.3300135e-08 1.2519699e-08 1.2033418e-08 1.35658e-08
000320 c5 47 55 32 15 15 61 32 d7 6c 57 32 b5 43 57 32
       1.241455e-08 1.3101517e-08 1.2539394e-08 1.2530042e-08
000330 11 22 56 32 18 4c 5c 32 2a d4 70 32 41 5e 6f 32
       1.2464185e-08 1.2822987e-08 1.4018079e-08 1.3933062e-08
000340 e3 e7 e2 31 8b c6 e8 31 83 93 f5 31 c0 4a 03 32
       6.603828e-09 6.7746604e-09 7.1472086e-09 7.6422e-09
000350 0d 2e ed 31 56 e2 d9 31 5d 5f 00 32 bc 9a d8 31
       6.902843e-09 6.3412626e-09 7.472264e-09 6.3040186e-09
000360 fc 2d d7 31 0f 7f ce 31 5a e1 de 31 25 18 03 32
       6.2625514e-09 6.009834e-09 6.48667e-09 7.630693e-09
000370 4f 07 e5 31 4d 76 ef 31 69 4c ee 31 6c cf f3 31
       6.665608e-09 6.9692647e-09 6.9353985e-09 7.095812e-09
000380 00 76 ea 31 84 b6 e3 31 a0 20 e5 31 de f0 e2 31
       6.8237114e-09 6.627319e-09 6.668486e-09 6.604849e-09
000390 06 aa fe 31 2b fe e1 31 e1 ba 03 32 1f c4 ea 31
       7.4117024e-09 6.5772574e-09 7.667695e-09 6.8325927e-09
0003a0 ab 75 e8 31 f2 27 e1 31 2d 1c eb 31 02 71 f9 31
       6.765466e-09 6.552903e-09 6.8426034e-09 7.2597013e-09
0003b0 46 e6 de 31 de a8 e8 31 ec 71 eb 31 08 d1 e4 31
       6.4872294e-09 6.7712866e-09 6.8523516e-09 6.6594374e-09
0003c0 ea c1 db 31 6b 5d f2 31 fc 6d e2 31 16 31 f0 31
       6.3957843e-09 7.0537474e-09 6.5899695e-09 6.9904997e-09
0003d0 b1 89 de 31 80 18 d7 31 c2 59 00 32 92 6a ef 31
       6.476704e-09 6.260109e-09 7.470989e-09 6.967931e-09
0003e0 a2 60 db 31 86 6b f2 31 96 7e e1 31 d7 cd dd 31
       6.3847247e-09 7.055351e-09 6.562753e-09 6.455348e-09
0003f0 ae 0a d9 31 fd e3 f6 31 6e bc fa 31 fc ee f1 31
       6.3167453e-09 7.1854616e-09 7.2973796e-09 7.0411925e-09

exp_avg f4 [50, 50]
000000 00 00 00 00 04 00 00 80 e5 d6 d0 16 04 00 00 00
       0.0 -6e-45 3.373983e-25 6e-45
000010 42 8c a1 36 04 00 00 80 04 00 00 00 04 00 00 80
       4.814502e-06 -6e-45 6e-45 -6e-45
000020 48 33 0d 37 04 00 00 80 4a f1 e2 36 04 00 00 80
       8.416195e-06 -6e-45 6.7634146e-06 -6e-45
000030 04 00 00 00 b1 6a 95 35 ed a6 ae 34 0e 26 1e 37
       6e-45 1.1132416e-06 3.253148e-07 9.426394e-06
000040 04 00 00 80 ee 5f 3a 35 04 00 00 80 53 74 f9 36
       -6e-45 6.9429996e-07 -6e-45 7.43432e-06
000050 4a fc fe 35 04 00 00 80 04 00 00 00 04 00 00 00
       1.89979e-06 -6e-45 6e-45 6e-45
000060 59 cd d5 b2 04 00 00 80 04 00 00 80 b8 a3 71 36
       -2.4889845e-08 -6e-45 -6e-45 3.6007095e-06
000070 04 00 00 00 04 00 00 80 04 00 00 80 37 5d ab 32
       6e-45 -6e-45 -6e-45 1.994941e-08
000080 04 00 00 80 cd 40 87 33 04 00 00 00 04 00 00 00
       -6e-45 6.2982146e-08 6e-45 6e-45
000090 04 00 00 80 a1 82 5f 35 04 00 00 80 17 50 aa 35
       -6e-45 8.3264064e-07 -6e-45 1.2689296e-06
0000a0 04 00 00 00 04 00 00 80 a1 04 b8 32 04 00 00 80
       6e-45 -6e-45 2.1422524e-08 -6e-45
0000b0 04 00 00 80 bf 28 87 35 6c 54 05 35 a5 0b e7 35
       -6e-45 1.0070142e-06 4.966921e-07 1.721423e-06
0000c0 e7 31 ca 36 04 00 00 80 04 00 00 00 00 00 00 00
       6.0258785e-06 -6e-45 6e-45 0.0
0000d0 05 aa f7 16 04 00 00 80 bb 94 a0 36 04 00 00 80
       4.00123e-25 -6e-45 4.785686e-06 -6e-45
0000e0 04 00 00 00 04 00 00 80 51 bd e0 36 04 00 00 80
       6e-45 -6e-45 6.6977595e-06 -6e-45
0000f0 dd c2 ad 36 04 00 00 00 04 00 00 80 e2 b1 40 35
       5.178487e-06 6e-45 -6e-45 7.178443e-07
000100 a9 9d 81 34 a1 fe 0a 37 04 00 00 80 45 06 e0 34
       2.4142835e-07 8.284726e-06 -6e-45 4.1727813e-07
000110 04 00 00 80 b3 fe da 36 92 5d e2 35 04 00 00 00
       -6e-45 6.526557e-06 1.6865545e-06 6e-45
000120 04 00 00 00 04 00 00 00 a0 f8 67 31 04 00 00 00
       6e-45 6e-45 3.3756251e-09 6e-45
000130 04 00 00 00 7d b2 49 36 04 00 00 00 04 00 00 80
       6e-45 3.0055228e-06 6e-45 -6e-45
000140 04 00 00 80 b9 c5 26 b2 04 00 00 00 f5 a8 9b 33
       -6e-45 -9.707429e-09 6e-45 7.248483e-08
000150 04 00 00 00 04 00 00 00 04 00 00 80 b6 88 df 34
       6e-45 6e-45 -6e-45 4.1636457e-07
000160 04 00 00 00 3e 32 81 35 04 00 00 80 04 00 00 00
       6e-45 9.625871e-07 -6e-45 6e-45
000170 11 7d af 32 04 00 00 80 04 00 00 00 a3 b1 44 35
       2.0429555e-08 -6e-45 6e-45 7.3274185e-07
000180 f0 6b 70 34 8b 0e 0e 36 8b 6c b7 36 04 00 00 80
       2.2391009e-07 2.1168114e-06 5.466461e-06 -6e-45
000190 04 00 00 00 04 00 00 00 00 00 00 00 04 00 00 00
       6e-45 6e-45 0.0 6e-45
0001a0 f8 4a bb 38 04 00 00 00 04 00 00 00 04 00 00 00
       8.930819e-05 6e-45 6e-45 6e-45
0001b0 9e 4f 6c b9 04 00 00 00 ad 72 37 b8 04 00 00 80
       -0.00022536374 6e-45 -4.37374e-05 -6e-45
0001c0 04 00 00 80 1a 30 28 38 0f 33 c9 b7 45 15 d2 38
       -6e-45 4.009912e-05 -2.3984843e-05 0.00010017542
0001d0 04 00 00 00 00 99 d9 38 04 00 00 00 c4 d4 aa b7
       6e-45 0.00010375865 6e-45 -2.0364656e-05
0001e0 e5 53 24 39 04 00 00 00 04 00 00 00 04 00 00 00
       0.00015671512 6e-45 6e-45 6e-45
0001f0 d2 c0 a2 36 04 00 00 80 04 00 00 00 a2 6d 6b 39
       4.8504235e-06 -6e-45 6e-45 0.00022452188
000200 04 00 00 00 04 00 00 00 04 00 00 00 12 b0 ec b5
       6e-45 6e-45 6e-45 -1.7634613e-06
000210 04 00 00 00 36 7d 65 b7 04 00 00 80 04 00 00 00
       6e-45 -1.3678617e-05 -6e-45 6e-45
000220 04 00 00 00 b8 0e 7f 37 04 00 00 00 99 90 c2 38
       6e-45 1.5202611e-05 6e-45 9.277574e-05
000230 04 00 00 80 04 00 00 80 0c 36 bf 36 04 00 00 00
       -6e-45 -6e-45 5.6985355e-06 6e-45
000240 04 00 00 00 b7 13 73 36 07 c0 66 38 fa 2c e4 37
       6e-45 3.6221297e-06 5.5015113e-05 2.7200662e-05
000250 67 29 3f 39 04 00 00 00 04 00 00 80 04 00 00 80
       0.00018230603 6e-45 -6e-45 -6e-45
000260 3d 97 8f 94 00 00 00 00 b1 02 b2 b4 04 00 00 00
       -1.4498963e-26 0.0 -3.3157042e-07 6e-45
000270 04 00 00 80 04 00 00 80 2f e2 d1 b5 04 00 00 00
       -6e-45 -6e-45 -1.5637542e-06 6e-45
000280 02 37 20 b5 04 00 00 00 04 00 00 00 83 c9 df b2
       -5.968469e-07 6e-45 6e-45 -2.6052254e-08
000290 f3 a1 2b b3 be 70 40 b5 04 00 00 00 88 a7 a7 34
       -3.9961332e-08 -7.1689635e-07 6e-45 3.122807e-07
0002a0 04 00 00 80 d7 f4 12 b5 c8 9c c3 34 04 00 00 80
       -6e-45 -5.474553e-07 3.6435654e-07 -6e-45
0002b0 04 00 00 80 04 00 00 80 95 ad 0e b0 04 00 00 00
       -6e-45 -6e-45 -5.1905974e-10 6e-45
0002c0 04 00 00 00 94 20 0e 35 04 00 00 80 04 00 00 00
       6e-45 5.294653e-07 -6e-45 6e-45
0002d0 04 00 00 80 2c 77 b9 2e 04 00 00 80 c1 bc a2 b2
       -6e-45 8.433995e-11 -6e-45 -1.8945117e-08
0002e0 04 00 00 00 04 00 00 80 04 00 00 00 ad a0 87 32
       6e-45 -6e-45 6e-45 1.5789135e-08
0002f0 04 00 00 80 00 f5 06 34 04 00 00 80 04 00 00 80
       -6e-45 1.2568853e-07 -6e-45 -6e-45
000300 cd c5 25 b1 04 00 00 00 04 00 00 80 72 f2 72 32
       -2.4123097e-09 6e-45 -6e-45 1.414138e-08
000310 df cb 40 33 8d 49 87 b4 7b 9b ee 33 04 00 00 80
       4.4888903e-08 -2.5199225e-07 1.11110204e-07 -6e-45
000320 04 00 00 80 04 00 00 80 b7 cc 2c 9b 04 00 00 00
       -6e-45 -6e-45 -1.4293653e-22 6e-45
000330 00 00 00 00 04 00 00 80 04 00 00 00 04 00 00 80
       0.0 -6e-45 6e-45 -6e-45
000340 19 cd 33 bb 04 00 00 80 a2 25 b2 ba 04 00 00 80
       -0.002743548 -6e-45 -0.0013591538 -6e-45
000350 04 00 00 00 96 f8 48 b9 a5 27 03 b9 50 35 dc ba
       6e-45 -0.00019166092 -0.00012507902 -0.0016800556
000360 04 00 00 00 04 de 29 38 04 00 00 80 64 9a dd ba
       6e-45 4.0499508e-05 -6e-45 -0.0016906974
000370 18 8d 0e 37 04 00 00 80 04 00 00 00 04 00 00 00
       8.4967105e-06 -6e-45 6e-45 6e-45
000380 2d 87 3d b6 04 00 00 00 04 00 00 80 47 ce f9 36
       -2.8241877e-06 6e-45 -6e-45 7.444792e-06
000390 04 00 00 00 04 00 00 80 04 00 00 80 f6 c0 a5 35
       6e-45 -6e-45 -6e-45 1.2349617e-06
0003a0 04 00 00 80 fa 8e 29 36 04 00 00 00 04 00 00 00
       -6e-45 2.5266186e-06 6e-45 6e-45
0003b0 04 00 00 80 5c af 0f b9 04 00 00 80 51 42 0e b9
       -6e-45 -0.00013702869 -6e-45 -0.0001356688
0003c0 04 00 00 00 04 00 00 80 51 57 07 b7 04 00 00 80
       6e-45 -6e-45 -8.066957e-06 -6e-45
0003d0 04 00 00 80 73 9e 15 b9 09 63 24 b8 69 e3 17 ba
       -6e-45 -0.00014268774 -3.919288e-05 -0.00057940796
0003e0 aa fe 0f ba 04 00 00 80 04 00 00 00 04 00 00 80
       -0.0005492965 -6e-45 6e-45 -6e-45
0003f0 80 c9 d1 17 04 00 00 80 91 eb 91 37 00 00 00 00
       1.3557174e-24 -6e-45 1.7395041e-05 0.0

exp_avg_sq f4 [50, 50]
000000 00 00 00 00 25 3e 0d 27 b9 ca 87 29 bf 6b 50 20
       0.0 1.960137e-15 6.030371e-14 1.7653935e-19
000010 35 f3 a6 2e f7 8b ea 29 15 84 e7 29 e3 72 ff 22
       7.592008e-11 1.04159675e-13 1.0281373e-13 6.923953e-18
000020 5d 96 22 30 af f6 84 26 c9 34 18 2f 75 5e 74 28
       5.9148936e-10 9.226204e-16 1.3843073e-10 1.3565203e-14
000030 88 77 d8 25 5d 1c b0 2d 53 d9 43 2b 15 38 0d 30
       3.7551025e-16 2.002148e-11 6.9579515e-13 5.13752e-10
000040 b1 be c3 28 aa 85 cb 2d 69 67 9c 26 55 ad 80 2f
       2.1732048e-14 2.3137787e-11 1.0852704e-15 2.3406224e-10
000050 c4 20 d8 2d 71 a9 9a 28 9e 01 3a 29 54 39 cb 28
       2.4570908e-11 1.7170918e-14 4.13017e-14 2.256239e-14
000060 c3 d6 70 28 3f 40 fd 24 39 d7 d8 28 cf 1f 57 2e
       1.3369245e-14 1.098301e-16 2.4074155e-14 4.8913592e-11
000070 c8 65 98 26 fc ee e6 26 69 03 37 29 cb 4f ef 27
       1.0574707e-15 1.6024233e-15 4.063712e-14 6.6422337e-15
000080 f5 d0 40 25 fe 46 05 2c 44 35 b5 26 c5 3a 36 29
       1.6724143e-16 1.8939845e-12 1.2573836e-15 4.0463093e-14
000090 5b 17 27 29 5c 55 99 2c f5 cb bf 26 0c 4c a7 2c
       3.7101707e-14 4.3579983e-12 1.330857e-15 4.7548684e-12
0000a0 3c 03 22 28 f5 10 a3 23 33 0c b0 29 ed 79 0d 28
       8.993508e-15 1.7679677e-17 7.818086e-14 7.853511e-15
0000b0 75 b2 a6 27 21 98 0e 2c a8 fa b7 2b e9 98 68 2d
       4.626774e-15 2.0263862e-12 1.3072503e-12 1.3221626e-11
0000c0 23 5b 85 2f 03 45 f2 26 fb c5 aa 26 00 00 00 00
       2.4257316e-10 1.6810829e-15 1.1849782e-15 0.0
0000d0 eb c5 09 29 9b 07 8a 1f 2e 50 ab 2e 68 66 41 29
       3.0591777e-14 5.8457856e-20 7.7904225e-11 4.2943432e-14
0000e0 2a 36 21 29 65 b6 d4 21 16 f4 0c 30 10 6e 22 26
       3.579616e-14 1.4413958e-18 5.127857e-10 5.6354203e-16
0000f0 26 c6 13 2f 42 a2 f5 27 27 63 72 25 80 ab c6 2d
       1.3439969e-10 6.817708e-15 2.1023748e-16 2.2586155e-11
000100 ae b1 4e 2b 8b 4b ce 2f 7f 2e 5f 28 42 67 d9 2d
       7.343248e-13 3.7524858e-10 1.2389069e-14 2.47159e-11
000110 2a 43 06 26 15 93 7f 2f dd f9 b5 2d ea f1 27 28
       4.6581613e-16 2.3244369e-10 2.068828e-11 9.322819e-15
000120 e2 e5 b1 28 c2 76 08 28 dc 94 fb 28 8c 35 97 24
       1.9750643e-14 7.575268e-15 2.7931155e-14 6.557652e-17
000130 ef 65 06 28 11 43 0b 2e d1 f4 39 26 28 79 42 26
       7.460598e-15 3.1664508e-11 6.4516557e-16 6.747147e-16
000140 f6 5a 98 28 d5 b6 20 27 88 1a c5 24 a5 d7 54 2b
       1.6914838e-14 2.2303574e-15 8.548008e-17 7.5616797e-13
000150 51 f5 06 26 6d 90 ae 28 63 29 98 28 64 6e e0 2c
       4.6823055e-16 1.9380515e-14 1.6893339e-14 6.3787187e-12
000160 ba c0 7b 26 3b 20 9f 2c 2d 83 ca 27 71 85 3d 23
       8.734431e-16 4.52263e-12 5.6208484e-15 1.0273968e-17
000170 0d 77 81 29 1f 72 37 27 be ee 00 27 32 05 c7 2b
       5.749403e-14 2.5458217e-15 1.789299e-15 1.4141242e-12
000180 c9 b7 0b 2c 69 0c 4f 2d cc 2e 1a 2f 19 fb ab 26
       1.985511e-12 1.1769343e-11 1.4022844e-10 1.1933569e-15
000190 3d 57 7a 26 29 bc d5 25 00 00 00 00 06 b4 12 20
       8.6854404e-16 3.7077112e-16 0.0 1.2426246e-19
0001a0 8f b5 ca 35 64 01 9a 2d 6a 94 8a 2a 96 49 bb 27
       1.5103013e-06 1.750839e-11 2.4616707e-13 5.198271e-15
0001b0 d8 b0 5f 37 c6 a7 5e 24 b0 bd 11 36 1c 68 6a 27
       1.333301e-05 4.8280686e-17 2.1717096e-06 3.2530461e-15
0001c0 1b c9 c9 26 21 35 d1 36 dd a2 9c 34 8e c7 80 36
       1.4001686e-15 6.2348704e-06 2.9175763e-07 3.8379285e-06
0001d0 83 9f 41 28 82 39 82 36 28 8f ce 25 60 97 99 36
       1.0748241e-14 3.8809967e-06 3.583231e-16 4.5773777e-06
0001e0 2b 8b 19 36 70 7b 24 28 bd a7 16 2a 3b 21 84 2b
       2.2879783e-06 9.130595e-15 1.3380872e-13 9.388387e-13
0001f0 cd da 2c 33 6d bc c4 23 69 47 fa 29 2c bf e2 35
       4.024587e-08 2.1330164e-17 1.1114618e-13 1.689395e-06
000200 e0 82 24 27 e3 01 92 24 28 23 1b 29 9f e6 03 2e
       2.283052e-15 6.33206e-17 3.4447407e-14 2.9990784e-11
000210 aa f6 89 24 a0 46 88 35 17 4b 52 25 f3 c3 79 2a
       5.9832144e-17 1.0153344e-06 1.8240038e-16 2.2183626e-13
000220 f9 c2 bd 27 7d bd 4e 35 b8 19 cf 25 22 1b ee 34
       5.2669428e-15 7.701672e-07 3.5926204e-16 4.4350696e-07
000230 36 e1 e8 27 28 80 69 22 27 e6 4b 33 09 9c 52 25
       6.463711e-15 3.1645234e-18 4.7473943e-08 1.8267463e-16
000240 0a ff b5 26 5b e9 f9 32 b0 24 14 35 93 38 99 34
       1.2628526e-15 2.9093533e-08 5.5187684e-07 2.8539634e-07
000250 9e a0 d2 36 0d b6 d6 25 80 b1 00 22 d5 75 04 22
       6.277186e-06 3.7246445e-16 1.7441202e-18 1.7951716e-18
000260 c2 ac 9c 25 00 00 00 00 3c 64 9c 2b e5 da c4 22
       2.7178751e-16 0.0 1.1112287e-12 5.335767e-18
000270 da 4f 92 22 3d 54 5a 20 9f 5a 45 2d 77 c4 95 21
       3.9657925e-18 1.849319e-19 1.12182754e-11 1.0148637e-18
000280 be ba 33 2c 8d 2c 89 22 1b 22 92 22 e0 8e c4 2a
       2.5541093e-12 3.7181094e-18 3.960949e-18 3.4915733e-13
000290 21 e5 db 27 3d cc 58 2d 8e e8 8b 21 23 ba a7 2a
       6.1033133e-15 1.23235285e-11 9.480563e-19 2.9794318e-13
0002a0 99 4e 2e 21 7e b9 7b 2c a1 d8 b9 2a 16 a4 aa 22
       5.9057516e-19 3.5772214e-12 3.3012918e-13 4.6252325e-18
0002b0 80 8e c1 22 ec 7b 77 22 65 c6 b9 25 b6 6d 26 22
       5.2463633e-18 3.3540346e-18 3.2226822e-16 2.2555276e-18
0002c0 5b 72 c7 21 27 dd 8d 2b 18 ff 80 22 bf f6 5b 22
       1.3515034e-18 1.0080035e-12 3.496456e-18 2.981066e-18
0002d0 83 a6 80 22 63 23 47 24 20 8d c0 21 65 11 9c 28
       3.487077e-18 4.318122e-17 1.3047782e-18 1.7327023e-14
0002e0 e2 74 f3 21 b2 be f3 22 b2 82 2b 22 72 9a af 29
       1.6497259e-18 6.606719e-18 2.324401e-18 7.798353e-14
0002f0 dd 1a d4 22 f0 8f 5d 29 f3 e4 8d 21 1e af 25 21
       5.7491158e-18 4.9196704e-14 9.615134e-19 5.613594e-19
000300 60 1a 82 25 a1 d7 af 21 76 09 30 21 2e 8c 19 29
       2.2569278e-16 1.1915538e-18 5.964364e-19 3.409441e-14
000310 da 2a 9c 28 1d b2 61 2a 94 63 a3 2c 56 d6 68 22
       1.7338063e-14 2.004581e-13 4.643794e-12 3.1555332e-18
000320 65 f9 88 26 d2 74 9a 26 23 33 a3 2f 4e 4b 79 1f
       9.504494e-16 1.0717561e-15 2.9685862e-10 5.279009e-20
000330 00 00 00 00 8a a2 0d 29 2e a1 01 29 e2 4c d3 24
       0.0 3.144927e-14 2.8783555e-14 9.163691e-17
000340 94 8f 4e 38 a9 a5 4e 26 ff 17 17 37 5e 63 d2 27
       4.9247945e-05 7.169512e-16 9.005888e-06 5.8394443e-15
000350 ed c4 bb 25 8f 3c 3d 36 3b d4 57 34 f5 a4 8f 37
       3.257277e-16 2.8198444e-06 2.0100644e-07 1.7123743e-05
000360 99 72 10 28 58 83 f3 35 f6 d7 0e 26 7d 6b 91 37
       8.018455e-15 1.8143137e-06 4.955883e-16 1.73354e-05
000370 03 ef aa 35 fe 0f 88 27 5c 76 83 28 77 25 c5 28
       1.2735549e-06 3.776492e-15 1.4595252e-14 2.1887641e-14
000380 ca 18 8c 30 af 89 03 24 39 18 08 28 9b d9 f8 35
       1.0193386e-09 2.852272e-17 7.554769e-15 1.8540771e-06
000390 5f 9b 1e 26 ac 81 92 26 df 7a 44 28 a9 e8 b8 2d
       5.502783e-16 1.0165933e-15 1.0906829e-14 2.10217e-11
0003a0 68 d5 8b 24 98 7c 95 34 b2 8f 6c 26 9a d1 b8 28
       6.0643165e-17 2.7844067e-07 8.207369e-16 2.0519004e-14
0003b0 41 ba 6a 28 e6 80 e8 34 30 83 51 26 fc 0a 98 34
       1.3029997e-14 4.3307153e-07 7.2689234e-16 2.8320198e-07
0003c0 e9 b5 88 27 57 23 ba 22 98 fe bd 2f ea 6a 80 27
       3.794481e-15 5.045282e-18 3.45598e-10 3.5643053e-15
0003d0 4a 4a ae 26 29 fe 32 34 99 80 c3 33 f4 ee cc 35
       1.2093811e-15 1.6670005e-07 9.103787e-08 1.5268729e-06
0003e0 7e 87 21 37 00 41 94 26 80 6b 59 27 85 cf d0 26
       9.6278945e-06 1.0287181e-15 3.0173075e-15 1.4489148e-15
0003f0 f5 fd 20 31 11 0a 3d 20 93 15 dc 31 00 00 00 00
       2.3427422e-09 1.6012253e-19 6.4052954e-09 0.0
