checkpoints/RNN_176.pt (torch, 111359 bytes, 9 tensors)

snn.l1.input_weights f4 [20, 416]
-0.051562488 0.6256049 0.21453449 0.18255706 -0.5332165 0.28890347 -0.20999505 0.4781881
-0.044918057 0.6710858 0.28625625 -0.18594918 -0.0066702673 -0.67762727 0.3885829 0.24730626
-0.4709815 -0.17027059 -0.124490455 -0.21185876 0.47153875 -0.058322933 0.24222043 0.5323401
0.23054452 0.4973058 0.07148571 0.3292478 0.5457638 -0.082583874 0.6274938 0.7205869
0.2137275 -0.39503238 -0.36638218 0.0848606 0.9442667 0.082488865 -0.35256174 0.19586532
-0.34842828 0.73560315 -0.13559482 0.7125999 0.6192926 0.36603463 0.5451756 0.17072348
0.25957355 -0.8204376 -0.15886177 0.032629278 1.2635595 0.9175335 0.5831905 1.0802243
0.77610797 0.9312475 1.1771191 1.3135446 1.2871131 0.61065656 1.3048712 0.7798548
1.4024292 1.3591056 1.3026268 1.5279914 1.2814193 0.79876405 0.24278629 0.4871865
1.0356861 1.2129515 0.7903473 0.971783 1.2923404 0.6487718 1.3909531 0.8937263
1.4590323 1.4337554 0.9287369 1.4901676 1.1441171 0.9717088 0.6298511 0.8225718
0.8840914 0.9704899 0.92437875 1.251162 1.4853266 1.0046992 1.0869832 0.87802815
0.89542955 1.5826118 0.89304554 1.5435791 0.52048606 0.22350286 1.0022092 1.1740578
2.2746465 2.1773307 1.6615503 1.699708 2.2285657 2.6316133 1.4582494 2.3311136
1.3356528 2.0376196 2.3525503 2.6011987 2.375103 1.7974726 1.5059887 2.0906098
2.1639922 1.8412523 1.8538562 1.952871 2.179036 2.1065335 1.5858411 1.7346071
1.44637 2.0768416 2.3007784 2.7347534 2.424924 1.6750005 1.5738019 1.3893216
2.1277132 1.9686422 1.628022 2.0374315 1.9446831 1.7539943 1.7976205 1.8247564
1.3798578 2.4816308 2.3196266 3.1211312 2.5670047 1.6324072 1.4235162 1.7390922
2.4478648 1.814324 1.6508595 2.609461 -0.4450556 0.42405537 0.5105359 0.27848345
0.549925 0.098187074 0.84134716 1.3780148 0.9845247 0.57885396 0.90406144 0.7373782
0.56189686 0.2836216 0.33750656 -0.16731758 -0.22407997 0.4091268 0.06793375 0.18072094
0.19199926 0.09723227 1.0358226 1.0058908 0.69614995 0.044976998 0.10903065 0.90656
0.77137506 0.18529922 0.8892566 0.5692114 -0.17225718 0.19026472 0.44349146 0.30666393
0.1514332 -0.2776657 1.1358876 0.9004797 0.6810785 0.33348763 0.09755155 0.8342917
0.4905688 0.38273388 0.8298905 0.6440736 0.41129977 0.58120984 0.12880935 0.58692634
0.0036758066 0.33104762 0.03680157 -0.11627345 0.29799148 0.05527845 -0.70725197 0.009225017
-0.20258814 -0.010736079 0.16104145 -0.3996643 0.31047836 -0.62219226 -0.6828154 -0.43774867
-0.20843513 0.6364473 -0.14463077 -0.12457623 0.5848906 -0.27552453 -1.0025984 0.24349456
-0.42559353 -0.15645482 0.06856478 -0.16546932 0.47589314 0.13996314 -0.35533625 -0.49883953
-0.21955721 -0.19310585 -0.004160278 -0.3650496 0.46288526 -0.7534284 -0.5897966 0.7982807
-0.257259 0.030159565 0.120825104 -0.52138126 -0.06078955 0.23057742 -0.4683442 -0.6026758
00000000: 3033 53bd a527 203f eeae 5b3e 3df0 3a3e
00000010: e080 08bf 28eb 933e f108 57be 12d5 f43e
00000020: fffb 37bd 47cc 2b3f 2e90 923e 7669 3ebe
00000030: 4292 dabb fb78 2dbf 56f4 c63e da3d 7d3e
00000040: 7d24 f1be 6a5b 2ebe daf4 febd 81f1 58be
00000050: 876d f13e 07e4 6ebd a208 783e 7147 083f
00000060: dd13 6c3e de9e fe3e 1a67 923d 2b93 a83e
00000070: 2db7 0b3f bc21 a9bd 6fa3 203f 6278 383f
00000080: 62db 5a3e af41 cabe 7296 bbbe 65cb ad3d
00000090: 76bb 713f ecef a83d f982 b4be eb90 483e
000000a0: 3165 b2be 7d50 3c3f 5ed9 0abe f26c 363f
000000b0: f689 1e3f e468 bb3e a190 0b3f 23d2 2e3e
000000c0: d3e6 843e 3308 52bf a9ac 22be 47a6 053d
000000d0: 51bc a13f 7ae3 6a3f f94b 153f ca44 8a3f
000000e0: 03af 463f 3c66 6e3f d7ab 963f 3b22 a83f
000000f0: 1fc0 a43f fd53 1c3f 0506 a73f 90a4 473f
00000100: cd82 b33f 2cf7 ad3f 7abc a63f 3995 c33f
00000110: 8c05 a43f cd7b 4c3f f89c 783e 8270 f93e
00000120: 5d91 843f ff41 9b3f 3354 4a3f c5c6 783f
00000130: 696b a53f e915 263f c00a b23f 3fcb 643f
00000140: 92c1 ba3f 4c85 b73f b4c1 6d3f d0bd be3f
00000150: 6e72 923f e8c1 783f ec3d 213f 1194 523f
00000160: d053 623f 0772 783f 16a4 6c3f 1426 a03f
00000170: 2f1f be3f fc99 803f 4422 8b3f 74c6 603f
00000180: df3a 653f 0693 ca3f a29e 643f 0094 c53f
00000190: 933e 053f efdd 643e 6448 803f 8747 963f
000001a0: cf93 1140 6359 0b40 aead d43f 0890 d93f
000001b0: d2a0 0e40 5a6c 2840 eba7 ba3f f730 1540
000001c0: acf6 aa3f 5c68 0240 2f90 1640 0a7a 2640
000001d0: b001 1840 9513 e63f 3dc4 c03f 8dcc 0540
000001e0: d97e 0a40 28ae eb3f 294b ed3f adf7 f93f
000001f0: 5375 0b40 72d1 0640 d7fc ca3f 9b07 de3f
00000200: a722 b93f f9ea 0440 f43f 1340 3306 2f40
00000210: f431 1b40 6b66 d63f 5772 c93f 4ad5 b13f
00000220: 742c 0840 78fc fb3f 0663 d03f 4765 0240
00000230: 60eb f83f e382 e03f 6e18 e63f 9e91 e93f
00000240: 2e9f b03f 0ad3 1e40 c374 1440 9dc0 4740
00000250: ce49 2440 b8f2 d03f c735 b63f 939a de3f
00000260: d1a9 1c40 c53b e83f 5d4f d33f 6901 2740
00000270: 54de e3be c91d d93e 7bb2 023f 6295 8e3e
00000280: e3c7 0c3f 4e16 c93d 8762 573f ca62 b03f
00000290: d009 7c3f c62f 143f 9270 673f d1c4 3c3f
000002a0: 79d8 0f3f da36 913e a9cd ac3e 4d55 2bbe
000002b0: 3875 65be 1179 d13e da20 8b3d e90e 393e
000002c0: 749b 443e b621 c73d d695 843f 08c1 803f
000002d0: e236 323f cd39 383d 764b df3d 5114 683f
000002e0: d678 453f 14bf 3d3e 52a6 633f d7b7 113f
000002f0: 3064 30be c1d4 423e 5011 e33e 0e03 9d3e
00000300: 4e11 1b3e 332a 8ebe c464 913f d685 663f
00000310: 295b 2e3f e4be aa3e 1bc9 c73d 2494 553f
00000320: d52b fb3e b2f5 c33e b473 543f 02e2 243f
00000330: e295 d23e 2bca 143f 99e6 033e ce40 163f
00000340: cde5 703b 137f a93e 3ebd 163d c620 eebd
00000350: 5792 983e a86b 623d 770e 35bf 8724 173c
00000360: 4473 4fbe 61e6 2fbc 0de8 243e cda0 ccbe
00000370: 05f7 9e3e fe47 1fbf fdcc 2ebf 9820 e0be
00000380: 0570 55be 36ee 223f 171a 14be d321 ffbd
00000390: 64bb 153f 8d11 8dbe 2555 80bf a356 793e
000003a0: 65e7 d9be b135 20be b16b 8c3d ca70 29be
000003b0: 44a8 f33e 7f52 0f3e a2ee b5be e567 ffbe
000003c0: 9bd3 60be 8abd 45be f152 88bb c8e7 babe
000003d0: 4cff ec3e afe0 40bf e9fc 16bf 205c 4c3f
000003e0: 74b7 83be 3111 f73c 2773 f73d 3e79 05bf
000003f0: 77fe 78bd 7d1c 6c3e d0ca efbe f648 1abf

snn.l1.recurrent_weights f4 [20, 20]
0.0 4.791942 1.3233291 4.9388986 -0.061668012 -1.7010927 -0.5255048 -3.5947435
5.9580855 2.8232226 3.3545468 6.3545785 6.4596424 3.4330513 -1.6702145 0.38772285
5.3865848 -5.2628546 2.05752 0.8221505 0.2671864 0.0 16.386503 10.576727
-2.872692 6.403812 14.332163 -5.730415 6.5195804 4.0779853 3.5700357 11.179825
13.208891 4.6526923 0.45748723 7.5212455 -0.9703593 4.281701 0.53113633 1.8982611
0.5422782 7.480242 0.0 8.241043 -3.2731714 5.963065 9.761984 -2.2964141
2.064368 4.692232 1.9169232 10.53759 9.246091 4.0935555 4.2572203 5.905995
-0.9118625 6.7319794 2.6571777 2.9216979 0.5525999 3.3659594 2.6345654 0.0
0.43236482 -1.9701673 6.501585 1.9461167 4.2287226 0.83347404 2.6689076 20.005125
5.275899 1.4530752 2.0580099 -0.43209794 3.2556052 8.034213 7.2996173 -0.37285924
-2.4767017 2.5696628 3.3574078 8.012926 0.0 -2.646956 2.6187081 -5.197432
5.345782 1.5366927 2.8404996 7.2301297 5.434771 1.5552045 -2.0466404 -1.6904751
0.9593283 -2.6691582 -4.150222 -0.1502853 -0.5002037 3.6828232 6.3467183 -0.83007866
-0.09732095 0.0 1.9655154 0.30170178 5.2395034 2.7333255 2.9443612 1.4152745
5.623284 4.1202846 5.1549277 1.234518 0.83444905 -0.37669244 2.7358618 1.1362466
1.8400908 5.114671 6.7003064 5.996059 -1.5322084 5.899832 0.0 0.41018417
2.5560277 1.7384827 0.68099916 5.212031 4.5945635 1.886522 1.6800799 2.786116
-2.7148962 8.462235 4.200958 1.3173116 -1.9016749 8.894316 4.0469484 -0.2992352
6.2224264 -2.7957256 -7.378075 0.0 5.953247 1.7318856 2.9885154 3.0635686
8.190252 3.532614 -3.865837 4.46636 2.140335 -9.070542 -2.9117787 1.227662
-12.885017 4.1671915 3.5440884 2.1558652 -11.058787 -9.469423 -3.7181776 -16.582472
0.0 -0.19825763 3.8215125 0.7722871 8.813228 2.0953226 -10.153363 -3.0083017
-3.8826675 -11.725862 -11.402145 -1.5721939 -13.012709 4.632238 7.151407 -5.2123566
-13.245094 -8.331195 -5.8320446 -17.035885 5.997286 0.0 3.5609891 -3.3097591
7.806541 4.7717633 -6.6528397 -4.126793 -1.729593 -11.077287 -10.653732 1.1933634
-15.703222 1.0941718 4.703578 -2.26023 -12.013739 -11.560346 -8.980495 -19.00807
7.399991 2.751933 0.0 -2.7608278 6.474541 3.6072736 -11.074453 -8.203977
-4.3457117 -14.940572 -12.378385 -0.4358202 1.2195319 1.2018443 1.4021176 14.691777
-1.6208123 1.6798463 4.5315313 1.3839619 1.7998784 0.19699532 0.73473513 0.0
3.7137249 1.8070078 1.0597736 0.2264113 -0.07830136 6.4861565 6.214649 0.06753139
-6.1159983 9.713285 10.07355 5.8611655 -7.91903 -0.76669097 5.948727 -10.748043
7.4813514 1.6979185 4.62526 6.040125 0.0 3.936116 -5.781882 1.5819299
00000000: 0000 0000 9757 9940 d962 a93f 750b 9e40
00000010: 9997 7cbd 68bd d9bf 7c87 06bf 4710 66c0
00000020: a3a8 be40 aeaf 3440 e5b0 5640 b558 cb40
00000030: 64b5 ce40 1db7 5b40 97c9 d5bf 9c83 c63e
00000040: e75e ac40 4e69 a8c0 68ae 0340 7578 523f
00000050: a8cc 883e 0000 0000 8f17 8341 463a 2941
00000060: 30da 37c0 07ec cc40 8a50 6541 8f5f b7c0
00000070: 67a0 d040 db7e 8240 777b 6440 90e0 3241
00000080: 9e57 5341 dbe2 9440 c43b ea3e 0bae f040
00000090: 7869 78bf b203 8940 8df8 073f 38fa f23f
000000a0: bed2 0a3f 245e ef40 0000 0000 50db 0341
000000b0: a47b 51c0 6ed1 be40 1631 1c41 73f8 12c0
000000c0: 9b1e 0440 c426 9640 bd5d f53f f899 2841
000000d0: fdef 1341 68fe 8240 263b 8840 e9fd bc40
000000e0: d26f 69bf 606c d740 330f 2a40 19fd 3a40
000000f0: 3077 0d3f e16b 5740 b89c 2840 0000 0000
00000100: ec5e dd3e 712e fcbf fc0c d040 5a1a f93f
00000110: b251 8740 8e5e 553f 62cf 2a40 7f0a a041
00000120: 2ad4 a840 5efe b93f 6fb6 0340 f13b ddbe
00000130: d65b 5040 238c 0041 7796 e940 68e7 bebe
00000140: 4882 1ec0 5b75 2440 c5df 5640 f234 0041
00000150: 0000 0000 ba67 29c0 ea98 2740 5d51 a6c0
00000160: a510 ab40 59b2 c43f bfca 3540 395d e740
00000170: a5e9 ad40 f110 c73f 28fc 02c0 7d61 d8bf
00000180: 8a96 753f 7dd3 2ac0 9ece 84c0 64e4 19be
00000190: 5a0d 00bf 60b3 6b40 5118 cb40 0980 54bf
000001a0: 3550 c7bd 0000 0000 0296 fb3f a878 9a3e
000001b0: 03aa a740 ceee 2e40 6a70 3c40 b727 b53f
000001c0: f1f1 b340 5fd9 8340 2bf5 a440 b004 9e3f
000001d0: 749e 553f d5dd c0be 5c18 2f40 8770 913f
000001e0: 1888 eb3f 63ab a340 e968 d640 b7df bf40
000001f0: 681f c4bf 6ccb bc40 0000 0000 a903 d23e
00000200: f595 2340 9a86 de3f f655 2e3f f5c8 a640
00000210: aa06 9340 8e79 f13f dc0c d73f b94f 3240
00000220: dcc0 2dc0 5165 0741 3f6e 8640 ab9d a83f
00000230: 156a f3bf 1e4f 0e41 9a80 8140 5b35 99be
00000240: 1e1e c740 2bed 32c0 3119 ecc0 0000 0000
00000250: 0081 be40 6dae dd3f d643 3f40 8211 4440
00000260: 460b 0341 5916 6240 e069 77c0 6cec 8e40
00000270: 40fb 0840 f120 11c1 955a 3ac0 0724 9d3f
00000280: 0829 4ec1 a259 8540 58d2 6240 b2f9 0940
00000290: cbf0 30c1 c282 17c1 9ff6 6dc0 e7a8 84c1
000002a0: 0000 0000 0c04 4bbe a993 7440 9bb4 453f
000002b0: fb02 0d41 c419 0640 2d74 22c1 0488 40c0
000002c0: a07d 78c0 219d 3bc1 306f 36c1 a63d c9bf
000002d0: 0e34 50c1 4b3b 9440 53d8 e440 a0cb a6c0
000002e0: e8eb 53c1 934c 05c1 1ca0 bac0 7e49 88c1
000002f0: c4e9 bf40 0000 0000 3fe7 6340 18d3 53c0
00000300: 2fcf f940 49b2 9840 10e4 d4c0 b00e 84c0
00000310: 4e63 ddbf 913c 31c1 b075 2ac1 22c0 983f
00000320: 6640 7bc1 d20d 8c3f b683 9640 9ca7 10c0
00000330: 4638 40c1 2df7 38c1 1cb0 0fc1 8710 98c1
00000340: bacc ec40 ac1f 3040 0000 0000 67b1 30c0
00000350: 712f cf40 92dd 6640 f630 31c1 7d43 03c1
00000360: 1210 8bc0 950c 6fc1 dd0d 46c1 d323 dfbe
00000370: 9f19 9c3f 09d6 993f 9778 b33f 8511 6b41
00000380: c776 cfbf 3405 d73f 4e02 9140 aa25 b13f
00000390: 6a62 e63f 24b9 493e 9a17 3c3f 0000 0000
000003a0: abad 6d40 084c e73f a9a6 873f 5dd8 673e
000003b0: 775c a0bd 988e cf40 68de c640 e64d 8a3d
000003c0: 42b6 c3c0 9e69 1b41 432d 2141 ab8e bb40
000003d0: b268 fdc0 dc45 44bf f95b be40 fcf7 2bc1
000003e0: 3b67 ef40 6555 d93f 2102 9440 b448 c140
000003f0: 0000 0000 53e9 7b40 2d05 b9c0 ae7c ca3f

snn.fc_out.weight f4 [9, 20]
-3.5021772 -0.026168948 -1.4454021 -9.838637 0.1144544 -3.4944704 -6.838941 7.9098125
-3.3505447 -0.07441331 -1.354383 -9.430373 -2.4140077 -1.301956 0.22134028 2.6622481
5.472059 -1.4156239 -0.93713677 -0.22691427 -2.701605 2.509228 7.9836583 -3.2274141
-1.2258004 1.6806148 0.30340028 -1.8900918 0.553422 2.5950308 1.9099075 -1.3741158
2.5068758 1.3498555 3.1041825 -5.281568 -1.3439844 1.9156377 0.2840932 1.6804531
2.7464678 1.5224383 -0.27154338 -1.2782037 4.98334 0.36407536 0.72896636 0.5204017
4.164361 0.17809984 1.9531513 -2.9857173 1.8047394 0.62362903 0.7276843 3.1553645
-5.2335153 -3.8486972 -3.3923018 0.7406811 2.1868553 -1.6550341 -1.365025 -6.205346
-1.3938605 4.4016247 -1.1274356 0.9039674 -0.109471075 1.4326154 0.47207925 -1.6892492
0.40768948 1.6088101 3.3189192 3.3212771 3.2521052 -2.888769 0.4601165 1.1506598
-1.3999538 3.2769423 0.34892264 -3.6344244 -0.50719213 -1.6626416 5.337761 -0.8559838
-2.4670844 -0.7374353 -1.9240894 -7.1954436 1.0994773 -1.6814005 -1.7011966 1.647877
-2.0131993 4.148541 -0.6978199 -1.2858444 2.6042564 -1.6603748 -3.7676616 0.78940153
-2.4208863 -3.5500424 -2.4593537 -0.61043143 -4.20371 -0.95431864 -2.6257906 1.6845242
-2.5003524 -0.51136166 -3.8267553 0.15981811 3.5257657 0.041895438 -0.13420473 -0.48828965
-8.728118 -8.878648 -9.158825 5.0628986 -4.789952 1.680695 -0.7682579 -0.07969662
-5.7684054 -8.172402 -6.947007 4.899902 -6.068407 -6.2936206 -8.086586 -3.0213845
-3.1486068 1.2010393 -0.6195141 -4.113893 -3.906935 -2.6854825 -6.2296767 8.378825
2.1553307 -2.5401626 -1.6413703 -4.347409 3.647135 -2.9893754 2.1133523 3.1833005
0.23855874 -1.4036609 -4.6285443 -9.017223 -5.4741855 -0.1849787 1.3043537 -3.3906672
-3.20858 -12.02835 -2.6761324 5.121771 -8.279716 -10.743047 -9.439469 0.15327461
-8.528425 -3.545235 -4.7445226 5.5425935 -12.603788 -4.2958045 1.8660761 -5.5701156
-0.39322916 1.8634475 0.30793697 -0.5189095
00000000: ac23 60c0 4360 d6bc f002 b9bf 0f6b 1dc1
00000010: 1267 ea3d 67a5 5fc0 9bd8 dac0 2f1d fd40
00000020: 536f 56c0 0166 98bd 6c5c adbf cfe2 16c1
00000030: 1a7f 1ac0 7fa6 a6bf 07a7 623e 4662 2a40
00000040: 1b1b af40 2a33 b5bf 32e8 6fbf 375c 68be
00000050: 19e7 2cc0 3197 2040 217a ff40 f48d 4ec0
00000060: 07e7 9cbf 631e d73f 4857 9b3e 87ee f1bf
00000070: 10ad 0d3f fc14 2640 d977 f43f 07e3 afbf
00000080: a770 2040 11c8 ac3f edaa 4640 9b02 a9c0
00000090: ae07 acbf 9e33 f53f aa74 913e 1619 d73f
000000a0: 21c6 2f40 42df c23f bc07 8bbe 2e9c a3bf
000000b0: 8577 9f40 1668 ba3e 8a9d 3a3f 0c39 053f
000000c0: 7242 8540 ce5f 363e dd00 fa3f fe15 3fc0
000000d0: b301 e73f 27a6 1f3f 8549 3a3f 7ef1 4940
000000e0: f578 a7c0 0e51 76c0 791b 59c0 479d 3d3f
000000f0: 70f5 0b40 28d8 d3bf 24b9 aebf 3292 c6c0
00000100: 056a b2bf 1cda 8c40 cf4f 90bf 686a 673f
00000110: 5f32 e0bd f15f b73f 5fb4 f13e 5139 d8bf
00000120: adbc d03e 7ded cd3f 2c69 5440 ce8f 5440
00000130: 7e22 5040 97e1 38c0 6494 eb3e d248 933f
00000140: b031 b3bf 6cb9 5140 fda5 b23e 699a 68c0
00000150: 58d7 01bf 71d1 d4bf f0ce aa40 c121 5bbf
00000160: b6e4 1dc0 8fc8 3cbf 9048 f6bf 1341 e6c0
00000170: acbb 8c3f 2238 d7bf cfc0 d9bf a2ed d23f
00000180: 42d8 00c0 d9c0 8440 53a4 32bf 8d96 a4bf
00000190: 23ac 2640 2987 d4bf 5e21 71c0 3816 4a3f
000001a0: cdef 1ac0 e533 63c0 0d66 1dc0 3c45 1cbf
000001b0: cb84 86c0 3a4e 74bf f40c 28c0 7d9e d73f
000001c0: c605 20c0 99e8 02bf 8fe9 74c0 5ca7 233e
000001d0: 25a6 6140 8d9a 2b3d f76c 09be 1a01 fabe
000001e0: 5fa6 0bc1 f10e 0ec1 8c8a 12c1 4403 a240
000001f0: 4947 99c0 0421 d73f 8dac 44bf fb37 a3bd
00000200: c796 b8c0 29c2 02c1 e24d dec0 ffcb 9c40
00000210: 6430 c2c0 5765 c9c0 a862 01c1 5d5e 41c0
00000220: c682 49c0 a8bb 993f 7a98 1ebf 03a5 83c0
00000230: 390b 7ac0 f2de 2bc0 8359 c7c0 ab0f 0641
00000240: f0f0 0940 0692 22c0 6c18 d2bf f91d 8bc0
00000250: a96a 6940 ed51 3fc0 2a41 0740 32bb 4b40
00000260: be48 743e 29ab b3bf 091d 94c0 8c46 10c1
00000270: 872c afc0 0e6b 3dbe 10f5 a63f b100 59c0
00000280: 6059 4dc0 1f74 40c1 c145 2bc0 8ce5 a340
00000290: b779 04c1 85e3 2bc1 1108 17c1 05f4 1c3e
000002a0: 6e74 08c1 21e5 62c0 21d3 97c0 ed5c b140
000002b0: 1ea9 49c1 3b77 89c0 95db ee3f 633e b2c0
000002c0: 5555 c9be 7385 ee3f eaa9 9d3e 41d7 04bf

exp_avg f4 [20, 416]
0.0008700363 0.00113106 0.0017627211 9.520496e-05 0.0013782926 -0.0019704516 -0.00035252093 0.0009123784
-0.0006390855 0.0048372555 0.0021615305 0.0025909117 0.00013129864 0.0017995933 -0.0011430604 0.0012957214
-9.105455e-05 -0.0020359743 -0.0020713299 -0.0019604084 0.0008024779 0.003746415 -0.0010830694 -0.0021439986
-0.00016119341 -0.00017686702 0.0008252485 -0.0007247589 0.002433754 0.0007605459 0.0036498052 -0.0011475049
-0.0015525061 0.0016438109 0.0028388822 0.0019455298 -0.0010584629 0.0021626398 -0.0044508306 -0.0002551305
0.0012169095 0.004076211 -0.0034875283 -0.0005517249 0.0019764323 0.0017808278 -0.002734376 -0.0020170002
-0.0013493903 -0.00070009904 -0.00113555 0.0015460396 0.0017666746 0.00021488343 0.00069223467 -0.0029364584
0.0010081447 -0.0015632162 -1.0093454e-05 0.0031362262 -0.00027134162 -0.001997407 0.0023202812 0.00043975908
0.0007270117 0.000102493876 -0.00181269 0.0019447897 -0.00069367315 -0.002135822 -0.0028896672 0.00079654
-0.002680693 0.00051628955 -0.0017413315 -0.0005110243 -0.0021272781 0.002355852 -0.0011244523 -0.0013154054
0.00030647445 -0.0021893694 0.004453717 -0.0013901641 -0.005571607 0.0014891871 0.0005014006 0.0019700448
-0.00027846496 0.0012806201 -0.0030839376 0.001422725 0.0029723388 0.00096223084 -0.0014198252 -0.0012847703
0.0014768735 0.0006813975 0.0015177862 0.00014538817 6.269576e-05 0.00024044221 0.004736748 0.0014233672
0.0057661613 0.00071825547 0.0005973139 0.00042230616 0.0014892959 -0.002665765 0.0030767913 2.2687174e-05
2.5132904e-05 0.0016364377 0.0020272746 0.0022042259 0.0014002926 -0.0015234938 -0.0022936414 -0.0006658056
-0.0029179028 3.934449e-05 -0.0024461846 -0.0054305745 0.0027336006 0.0007442146 -8.252575e-05 -0.0027926567
-0.0022160958 7.04633e-05 -3.3388413e-05 -0.0023518214 0.0008640383 -0.0032339788 0.0039560157 -0.0018887189
-0.004420503 -0.0009478655 0.00074104546 0.0019368749 -0.0020818482 0.005655202 0.0008082464 -0.0010307557
0.0019725626 -0.0007724276 -0.002493046 0.0018273079 -0.00019601539 0.0018550678 -0.004444525 0.00069348334
0.00019015244 0.0006582213 0.002950169 0.0032543347 0.0042078956 0.003989314 0.000591003 0.0034165843
-0.0023121866 -0.0023772456 0.0046979315 -0.005219551 0.00060637324 0.0027742595 0.0012687636 0.0003379222
0.002324018 -0.0020352087 -0.006083876 -0.0029888737 -0.0034787392 0.0023965423 0.0014335725 -0.0033666193
0.0074445927 0.002406601 0.0031934844 0.00014919078 0.00393698 0.00451271 -0.0005395462 0.0012379736
0.000959344 -0.004645937 0.0019150237 -0.0036231563 -0.0011546019 -0.009753961 0.0028349506 0.00022355479
-0.0024169818 0.0036133914 -0.0018268998 0.0003983188 0.0021342074 0.00023838485 -0.0013478699 0.005737966
0.0007667821 0.0021154778 0.0030770493 -0.00064562826 -0.0046597207 -0.0009693135 0.00056612585 -0.0024664754
0.001070173 0.0001762435 0.0015103477 -0.0008165708 -0.0010026101 0.0030525348 -0.0008757587 0.0004909125
-0.00056547514 -0.0022555706 -0.0014550003 0.0023122374 -0.0021929138 0.00055519136 -0.0031159432 -0.0016321989
0.0002606936 0.0068252482 -0.0054384796 0.0012516247 0.005439677 0.0015689909 -0.00024902332 -0.0021080081
-0.002016536 0.00035263962 -0.00066866353 0.0008447952 -8.5763015e-05 -0.003911602 -0.0015047712 0.00077871076
0.00021109344 -0.0025448103 -0.0005166252 -0.00012193824 0.00035724824 0.001482374 -0.0014949066 -0.0005346037
0.0035007745 -0.0012330661 -0.0017582617 0.004003449 -0.0022754462 -0.0015183656 0.0010067248 -0.0031147192
00000000: 2613 643a 1340 943a 1b0b e73a c6a8 c738
00000010: d3a7 b43a b122 01bb 8fd2 b8b9 ae2c 6f3a
00000020: 4d88 27ba d781 9e3b 77a8 0d3b 49cc 293b
00000030: 36ad 0939 55e0 eb3a bed2 95ba 32d5 a93a
00000040: 8af4 beb8 fb6d 05bb 26bf 07bb 327a 00bb
00000050: 615d 523a 6a86 753b c7f5 8dba 5482 0cbb
00000060: 0706 29b9 6175 39b9 7d55 583a bffd 3dba
00000070: 9e7f 1f3b 5f5f 473a 9231 6f3b e067 96ba
00000080: 767d cbba 2475 d73a 8a0c 3a3b 2601 ff3a
00000090: 1fbc 8aba 13bb 0d3b 46d8 91bb 09c3 85b9
000000a0: b580 9f3a bc91 853b 048f 64bb a2a1 10ba
000000b0: 0887 013b aa6a e93a 3733 33bb a62f 04bb
000000c0: 06de b0ba da86 37ba bcd6 94ba 7ba4 ca3a
000000d0: c38f e73a 5552 6139 1577 353a 9971 40bb
000000e0: b923 843a d5e4 ccba 0e57 29b7 2589 4d3b
000000f0: db42 8eb9 eee6 02bb dc0f 183b 778f e639
00000100: ee94 3e3a fbf1 d638 c997 edba 50e8 fe3a
00000110: 9ed7 35ba 26f9 0bbb 9260 3dbb e5ce 503a
00000120: 91ae 2fbb 9b57 073a 643d e4ba 43f6 05ba
00000130: ce69 0bbb a364 1a3b 5c62 93ba ae69 acba
00000140: 4eae a039 867b 0fbb 7cf0 913b 2b36 b6ba
00000150: 0792 b6bb d430 c33a 6d70 033a de1b 013b
00000160: effe 91b9 7bda a73a e31b 4abb bb7a ba3a
00000170: 92cb 423b 383e 7c3a 6e19 baba bd65 a8ba
00000180: a793 c13a d09f 323a 74f0 c63a 5773 1839
00000190: 887b 8338 371f 7c39 b936 9b3b 4790 ba3a
000001a0: 11f2 bc3b 4f49 3c3a 0f95 1c3a f968 dd39
000001b0: 7a34 c33a 1db4 2ebb fea3 493b 5650 be37
000001c0: 80d4 d237 bd7d d63a 06dc 043b c674 103b
000001d0: 068a b73a f8af c7ba eb50 16bb 7589 2eba
000001e0: 493a 3fbb d305 2538 2b50 20bb f6f2 b1bb
000001f0: 3526 333b 6517 433a ad11 adb8 0105 37bb
00000200: eb3b 11bb b2c5 9338 890a 0cb8 0421 1abb
00000210: a180 623a 29f1 53bb 77a1 813b e48e f7ba
00000220: ded9 90bb 2d7a 78ba b842 423a bdde fd3a
00000230: 9e6f 08bb 464f b93b 7fe0 533a 6c1a 87ba
00000240: 1c46 013b bd7c 4aba 5f62 23bb 4782 ef3a
00000250: 7b89 4db9 bf25 f33a 61a3 91bb e1ca 353a
00000260: a863 4739 7c8c 2c3a 9f57 413b ad46 553b
00000270: 63e2 893b cbb8 823b 8aed 1a3a c6e8 5f3b
00000280: 0e88 17bb 90cb 1bbb 1bf1 993b c408 abbb
00000290: 05f5 1e3a 5ad0 353b a44c a63a 262b b139
000002a0: 8d4e 183b 2361 05bb 405b c7bb fbe0 43bb
000002b0: 8ffb 63bb 4f0f 1d3b b6e6 bb3a 80a2 5cbb
000002c0: c5f1 f33b 11b8 1d3b c749 513b 1870 1c39
000002d0: c801 813b 5bdf 933b 5570 0dba 8043 a23a
000002e0: 7c7c 7b3a f23c 98bb 8801 fb3a 7a72 6dbb
000002f0: 0356 97ba 14cf 1fbc 94ca 393b 086a 6a39
00000300: 3a66 1ebb a6ce 6c3b 9674 efba 72d5 d039
00000310: 0fde 0b3b f2f6 7939 02ab b0ba 8c05 bc3b
00000320: e001 493a d4a3 0a3b 52a8 493b 613f 29ba
00000330: 92b0 98bb 8719 7eba 1068 143a 97a4 21bb
00000340: 0c45 8c3a 01ce 3839 dcf6 c53a 240f 56ba
00000350: 036a 83ba 090d 483b 2c93 65ba 95b0 003a
00000360: 653c 14ba 32d2 13bb b5b5 beba e888 173b
00000370: fdb6 0fbb 438a 113a da34 4cbb 82ef d5ba
00000380: b4ad 8839 55a6 df3b 4635 b2bb 8e0d a43a
00000390: 513f b23b 99a6 cd3a 588f 82b9 8226 0abb
000003a0: dc27 04bb 7de2 b839 4049 2fba 3f75 5d3a
000003b0: abdb b3b8 e52c 80bb be3b c5ba 6522 4c3a
000003c0: f758 5d39 d5c6 26bb 216e 07ba 18b9 ffb8
000003d0: 0c4d bb39 384c c23a bef0 c3ba a624 0cba
000003e0: 406d 653b d59e a1ba 7975 e6ba 5d2f 833b
000003f0: a71f 15bb e503 c7ba 14f4 833a 5120 4cbb

exp_avg_sq f4 [20, 416]
8.829669e-05 9.376967e-05 0.00010763859 0.0001047124 0.00012948607 9.190768e-05 0.00010750564 8.780268e-05
0.0001035075 0.00012164996 0.00012218751 9.8199416e-05 0.00011715514 0.00011270462 0.00010397935 0.00012512291
9.896143e-05 9.239093e-05 0.00012098296 0.00021356966 9.424396e-05 9.526405e-05 0.00011089557 6.513e-05
8.429909e-05 0.000107324326 9.447051e-05 7.2385046e-05 8.908967e-05 0.00010204642 0.00011227367 0.00010691826
8.888149e-05 0.00010924965 9.447036e-05 9.055572e-05 9.0366884e-05 9.7450895e-05 0.000116838564 9.42747e-05
0.0001073692 8.711881e-05 0.000112783935 8.122661e-05 8.2630846e-05 7.728462e-05 9.340994e-05 0.00013838006
0.00010431992 9.60949e-05 0.00010161578 9.357995e-05 0.00010368556 0.00012981183 8.887572e-05 0.000111689405
0.00011079879 8.804817e-05 9.752826e-05 8.2261744e-05 7.296874e-05 8.2295184e-05 7.510912e-05 8.224416e-05
9.002205e-05 9.302138e-05 8.138086e-05 9.356879e-05 8.3618645e-05 0.00011185888 0.00015168074 0.00011810762
0.000104690036 7.9824815e-05 0.00011448836 9.329013e-05 8.593648e-05 8.5207765e-05 7.6300494e-05 6.3402535e-05
7.661237e-05 0.000116170195 8.2418155e-05 9.323146e-05 8.301425e-05 0.00010588196 8.805852e-05 0.00010335717
9.829633e-05 0.000100860714 0.00012849756 7.66922e-05 8.767171e-05 7.9267986e-05 8.509207e-05 7.7396406e-05
8.478379e-05 8.69327e-05 8.7669534e-05 9.8826305e-05 8.776804e-05 0.000118941374 0.000120029494 7.6468794e-05
8.684713e-05 7.91211e-05 8.396497e-05 8.4202395e-05 7.2125964e-05 7.609455e-05 8.7506654e-05 0.000112831265
8.64985e-05 0.00010757441 8.2539475e-05 7.333596e-05 7.758719e-05 9.10592e-05 7.6294324e-05 7.377068e-05
7.707529e-05 8.8441666e-05 7.550661e-05 8.65632e-05 7.07492e-05 7.253426e-05 8.249473e-05 0.00014004072
6.8123525e-05 0.000106116546 8.157626e-05 7.061972e-05 8.339781e-05 8.755393e-05 7.440965e-05 7.789885e-05
8.0996615e-05 9.009137e-05 7.636044e-05 8.759301e-05 6.0694387e-05 7.6056764e-05 8.329469e-05 0.00013070415
7.603233e-05 8.580612e-05 8.13088e-05 6.78417e-05 7.8115605e-05 8.434804e-05 9.199841e-05 8.995766e-05
8.246018e-05 8.9623885e-05 8.6629334e-05 8.162526e-05 0.00018335613 0.00017719585 0.00015903515 0.00015892064
0.00022488445 0.00016759575 0.00021923108 0.00016087173 0.00018322954 0.00016240784 0.00021888246 0.00015554357
0.000104126535 0.0001711891 0.00016551906 0.00014477862 0.00021101786 0.00018952308 0.00013066643 0.00013099582
0.00018809359 0.0001567445 0.00021811719 0.00015379886 0.00018807309 0.00019015894 0.00015695432 0.00015969788
0.00011503997 0.00017907169 0.00018199548 0.000122001315 0.00020109244 0.000168275 0.00013019395 0.00011332867
0.0001601727 0.00013687456 0.00017441636 0.00012806251 0.00031694394 0.00013361032 0.00017351369 0.00016908479
0.00013938885 0.00016854382 0.00019868164 0.000109136236 0.000182639 0.00012711836 0.000114595976 0.00011733749
0.000103917955 0.00014618365 0.000118361226 0.000109028886 0.00011373197 0.00013202081 8.4363106e-05 0.00013006783
0.00015155619 0.00011446272 0.000108472625 0.00016068135 0.00010902816 0.00010058045 0.00026972507 0.000107391206
0.00010139371 0.00020509794 0.00017743817 0.00012395841 0.00013412241 0.00015614262 8.130307e-05 0.00020606366
0.00015976635 0.0001476095 9.2393995e-05 9.026879e-05 7.5463635e-05 0.000105864274 0.00021418446 0.00014956755
0.00011440884 0.00020928028 0.00016331152 0.0001320811 0.00013293819 0.00017268011 8.905659e-05 0.00016720728
0.00014511475 0.0002471384 8.131271e-05 0.00011245798 0.000117689226 0.00013363652 0.00014916382 0.00019899885
00000000: ed2b b938 35a6 c438 07bc e138 0b99 db38
00000010: a7c6 0739 8fbe c038 a774 e138 b422 b838
00000020: 2a12 d938 531e ff38 761f 0039 69f0 cd38
00000030: 30b1 f538 d55b ec38 7d0f da38 6d33 0339
00000040: 8389 cf38 01c2 c138 3bb8 fd38 abf1 5f39
00000050: d7a4 c538 7fc8 c738 9b90 e838 6796 8838
00000060: bbc9 b038 4f13 e138 781e c638 6dcd 9738
00000070: a7d5 ba38 c101 d638 7874 eb38 4e39 e038
00000080: e365 ba38 f61c e538 631e c638 bbe8 bd38
00000090: 5a83 bd38 8d5e cc38 3a07 f538 58b5 c538
000000a0: 662b e138 8eb3 b638 6a86 ec38 3458 aa38
000000b0: 194a ad38 dd13 a238 14e5 c338 1d1a 1139
000000c0: 55c6 da38 8e86 c938 8e1a d538 5a40 c438
000000d0: c371 d938 191e 0839 ca62 ba38 cb3a ea38
000000e0: a65c e838 80a6 b838 1688 cc38 f083 ac38
000000f0: cb06 9938 e495 ac38 e783 9d38 7f7a ac38
00000100: 38ca bc38 7914 c338 04ab aa38 5d3a c438
00000110: 6b5c af38 c795 ea38 7d0c 1f39 8cb0 f738
00000120: 098d db38 9f67 a738 7819 f038 c2a4 c338
00000130: cc38 b438 92b1 b238 8403 a038 faf6 8438
00000140: f4aa a038 66a0 f338 e9d7 ac38 4285 c338
00000150: f017 ae38 f20c de38 0fac b838 75c1 d838
00000160: 7124 ce38 2f85 d338 4dbd 0639 d0d5 a038
00000170: 64dc b738 ad3c a638 7573 b238 e14f a238
00000180: f3cd b138 a34f b638 39db b738 f840 cf38
00000190: 1c10 b838 2a70 f938 58b8 fb38 df5d a038
000001a0: b321 b638 d1ed a538 5a16 b038 d195 b038
000001b0: 5542 9738 f394 9f38 c783 b738 d39f ec38
000001c0: 8766 b538 9299 e138 0b19 ad38 f2cb 9938
000001d0: 4eb6 a238 09f7 be38 3400 a038 55b5 9a38
000001e0: 7ba3 a138 c279 b938 4d59 9e38 4489 b538
000001f0: 305f 9438 891d 9838 0501 ad38 e5d7 1239
00000200: 8add 8e38 e38a de38 ec13 ab38 ac19 9438
00000210: dce5 ae38 299d b738 600c 9c38 a05d a338
00000220: badc a938 70ef bc38 b323 a038 24b2 b738
00000230: 1a92 7e38 aa80 9f38 7fae ae38 a10d 0939
00000240: 8c73 9f38 cff2 b338 5484 aa38 3c46 8e38
00000250: ffd1 a338 02e4 b038 45ef c038 a7a7 bc38
00000260: 79ee ac38 75f4 bb38 c5ac b538 3a2e ab38
00000270: 4943 4039 a6cd 3939 acc2 2639 efa3 2639
00000280: f6ce 6b39 a4bc 2f39 65e1 6539 adaf 2839
00000290: 4e21 4039 064c 2a39 d083 6539 6919 2339
000002a0: 825e da38 3981 3339 2f8f 2d39 b7cf 1739
000002b0: ad44 5d39 b7ba 4639 8103 0939 ec5b 0939
000002c0: fd3a 4539 c85b 2439 63b6 6439 1145 2139
000002d0: 7c35 4539 6765 4739 1b94 2439 9374 2739
000002e0: 9d41 f138 31c5 3b39 0ad6 3e39 f5da ff38
000002f0: 57dc 5239 fa72 3039 ac84 0839 deaa ed38
00000300: 08f4 2739 fc85 0f39 89e3 3639 8548 0639
00000310: 7f2b a639 bf19 0c39 3af1 3539 5a4c 3139
00000320: e928 1239 23bb 3039 3255 5039 12e0 e438
00000330: c982 3f39 134b 0539 3f53 f038 1613 f638
00000340: 87ee d938 e048 1939 b338 f838 70a6 e438
00000350: 6383 ee38 116f 0a39 19ec b038 d162 0839
00000360: 0eeb 1e39 b40b f038 cc7b e338 927c 2839
00000370: 0ca6 e438 b8ee d238 e369 8d39 3737 e138
00000380: 55a3 d438 8f0f 5739 b20e 3a39 d5fa 0139
00000390: 36a3 0c39 37ba 2339 4181 aa38 cb12 5839
000003a0: f486 2739 a0c7 1a39 a6c3 c138 b04e bd38
000003b0: 3b42 9e38 7303 de38 b496 6039 3cd5 1c39
000003c0: c7ee ef38 3f72 5b39 9a3e 2b39 407f 0a39
000003d0: 5365 0b39 7711 3539 e5c3 ba38 5d54 2f39
000003e0: f229 1839 5b92 8139 6e86 aa38 6bd7 eb38
000003f0: eccf f638 c820 0c39 dc68 1c39 59aa 5039

exp_avg f4 [20, 20]
0.0 1.728144e-05 0.00011398241 0.0014254324 0.0063312585 0.00011705858 0.000612424 0.015211974
6e-45 -6e-45 6e-45 0.00080269616 6e-45 6e-45 0.0014778136 7.5379074e-05
3.0116218e-05 0.0068978863 0.0030884605 6e-45 0.00069884444 0.0 6.5810414e-06 0.00013230127
0.0017986317 -4.8944985e-05 -3.8674287e-05 0.0050183833 -6e-45 6e-45 6e-45 0.00011039734
-6e-45 6e-45 0.0001682273 1.1451598e-05 9.183964e-05 0.00064205343 0.0005312834 6e-45
0.001714107 1.6313275e-06 0.0 0.000731415 0.0026398862 -0.00027525146 0.00016749324 0.0071404763
-6e-45 6e-45 6e-45 0.00063302665 -6e-45 6e-45 0.00043957806 8.940316e-06
0.00024597076 0.0015998988 0.0013528486 6e-45 0.0035194468 -1.3931804e-06 1.7038074e-06 0.0
0.0028650686 -0.00010484997 -9.326331e-05 0.0070318785 6e-45 -6e-45 -6e-45 -0.00063895487
6e-45 -6e-45 0.0013903967 -9.242784e-06 -5.5418324e-05 0.00060740823 -0.00068746496 -6e-45
-0.00057350274 3.2562093e-06 1.9543e-05 -0.001241189 0.0 -0.00047378129 -0.0006447264 0.0032349546
6e-45 -6e-45 -6e-45 -0.0009775709 6e-45 -6e-45 -0.00039801054 -2.3878747e-05
-0.00027530536 0.00073236774 -6.119656e-05 -6e-45 0.007748271 6.3091893e-06 3.615191e-05 0.001104331
0.013854893 0.0 0.0013605822 0.029557433 -6e-45 6e-45 6e-45 0.00066363567
-6e-45 6e-45 0.0044254074 3.9085786e-05 9.28085e-05 0.011367713 0.007926772 6e-45
0.003606899 1.191862e-06 8.013494e-06 0.00037879034 0.0060544484 -7.938644e-05 0.0 0.016826423
6e-45 6e-45 6e-45 0.000280947 -6e-45 6e-45 0.0007446601 3.405852e-06
0.00011377231 0.004425965 0.002611803 6e-45 0.00017794297 9.747634e-06 4.798728e-05 0.0012171053
-0.00038942407 0.0003672389 0.0005166011 0.0 6e-45 6e-45 6e-45 0.001032015
-6e-45 6e-45 0.00029025777 5.220073e-05 0.00026906768 0.0006468753 0.0006418831 6e-45
0.00014499809 -4.3281263e-09 4.8275883e-08 -4.450234e-07 0.00076143036 4.0015865e-07 1.8163334e-07 0.002156338
0.0 -6e-45 -6e-45 -3.3545467e-07 6e-45 -6e-45 6.873314e-05 -1.4377703e-08
2.014344e-07 0.0001002197 6.42866e-05 -6e-45 0.00010021457 7.1084685e-09 2.004e-08 5.683598e-06
0.00039295282 -6.9911255e-07 1.1444665e-06 0.0012690149 -6e-45 0.0 6e-45 3.0296892e-06
-6e-45 6e-45 3.943107e-05 2.605025e-08 3.624008e-07 7.434247e-05 5.9324884e-05 6e-45
6.875923e-05 -1.9828648e-09 1.5099017e-08 -1.3881402e-07 0.00035652728 -2.4731304e-07 3.148668e-07 0.0010813931
-6e-45 -6e-45 0.0 1.896077e-08 -6e-45 -6e-45 3.2159285e-05 -7.800746e-09
8.322104e-08 4.7795493e-05 3.050449e-05 6e-45 0.006310497 -3.8989887e-07 1.3361348e-05 -0.00010334905
0.0069314246 0.00015574634 0.0005888199 0.015394089 6e-45 -6e-45 -6e-45 0.0
6e-45 -6e-45 0.0031493723 3.4036732e-06 -3.35764e-05 0.0047831545 0.0021229319 -6e-45
0.00043804917 9.3328204e-08 3.1340483e-07 2.3548819e-05 0.0015991705 -2.5228242e-06 3.4689992e-06 0.0046766456
-6e-45 6e-45 6e-45 1.2670322e-05 0.0 6e-45 0.00018602621 2.5825108e-07
00000000: 0000 0000 9cf7 9037 d709 ef38 93d5 ba3a
00000010: 7276 cf3b 597d f538 148b 203a a53b 793c
00000020: 0400 0000 0400 0080 0400 0000 076c 523a
00000030: 0400 0000 0400 0000 32b3 c13a d514 9e38
00000040: 16a2 fc37 aa07 e23b c567 4a3b 0400 0000
00000050: a832 373a 0000 0000 b7d2 dc36 5aba 0a39
00000060: 11c0 eb3a 474a 4db8 3336 22b8 4071 a43b
00000070: 0400 0080 0400 0000 0400 0000 1f85 e738
00000080: 0400 0080 0400 0000 2c66 3039 3d20 4037
00000090: 089a c038 7a4f 283a d345 0b3a 0400 0000
000000a0: e3ab e03a fcf3 da35 0000 0000 6ebc 3f3a
000000b0: f101 2d3b a04f 90b9 20a1 2f39 a8fa e93b
000000c0: 0400 0080 0400 0000 0400 0000 b3f1 253a
000000d0: 0400 0080 0400 0000 2b77 e639 5dfe 1537
000000e0: a3f5 8039 b2b3 d13a 1152 b13a 0400 0000
000000f0: 85a6 663b 50fd bab5 60ae e435 0000 0000
00000100: e0c3 3b3b e6e2 dbb8 5c96 c3b8 ac6b e63b
00000110: 0400 0000 0400 0080 0400 0080 897f 27ba
00000120: 0400 0000 0400 0080 f93d b63a 7411 1bb7
00000130: f970 68b8 7a3a 1f3a fe36 34ba 0400 0080
00000140: 1e57 16ba 4085 5a36 46f0 a337 64af a2ba
00000150: 0000 0000 d965 f8b9 db02 29ba 8801 543b
00000160: 0400 0000 0400 0080 0400 0080 d621 80ba
00000170: 0400 0000 0400 0080 12ac d0b9 384f c8b7
00000180: dc56 90b9 5efc 3f3a a756 80b8 0400 0080
00000190: 35e5 fd3b 86b3 d336 d1a1 1738 33bf 903a
000001a0: a2ff 623c 0000 0000 9055 b23a 6e22 f23c
000001b0: 0400 0080 0400 0000 0400 0000 d6f7 2d3a
000001c0: 0400 0080 0400 0000 0203 913b 0bf0 2338
000001d0: 2fa2 c238 a53f 3a3c 4bdf 013c 0400 0000
000001e0: b961 6c3b 11f8 9f35 b271 0637 6198 c639
000001f0: 6564 c63b 457c a6b8 0000 0000 91d7 893c
00000200: 0400 0000 0400 0000 0400 0000 114c 9339
00000210: 0400 0080 0400 0000 4b35 433a 1890 6436
00000220: 0b99 ee38 af07 913b c82a 2b3b 0400 0000
00000230: 3496 3a39 c589 2337 f345 4938 4787 9f3a
00000240: 9d2b ccb9 f989 c039 836c 073a 0000 0000
00000250: 0400 0000 0400 0000 0400 0000 ad44 873a
00000260: 0400 0080 0400 0000 bd2d 9839 1bf2 5a38
00000270: a711 8d39 1193 293a 0c44 283a 0400 0000
00000280: a10a 1839 9ab6 94b1 e557 4f33 8deb eeb4
00000290: ba9a 473a 63d5 d634 fe06 4334 5951 0d3b
000002a0: 0000 0000 0400 0080 0400 0080 8a18 b4b4
000002b0: 0400 0000 0400 0080 d324 9038 ce01 77b2
000002c0: de49 5834 0b2d d238 9bd1 8638 0400 0080
000002d0: 4a2a d238 c03e f431 6d24 ac32 bcb5 be36
000002e0: 3c05 ce39 a6aa 3bb5 929b 9935 1355 a63a
000002f0: 0400 0080 0000 0000 0400 0000 aa51 4b36
00000300: 0400 0080 0400 0000 ca62 2538 1bc5 df32
00000310: fd8f c234 4fe8 9b38 9cd3 7838 0400 0000
00000320: d532 9038 ed42 08b1 17b3 8132 e80c 15b4
00000330: 48ec ba39 72c6 84b4 f70a a934 88bd 8d3a
00000340: 0400 0080 0400 0080 0000 0000 2ddf a232
00000350: 0400 0080 0400 0080 c5e2 0638 0b04 06b2
00000360: 40b7 b233 0578 4838 e5e3 ff37 0400 0000
00000370: 49c8 ce3b 4b53 d1b4 8d2a 6037 19bd d8b8
00000380: 0121 e33b d74f 2339 095b 1a3a 7d37 7c3c
00000390: 0400 0000 0400 0080 0400 0080 0000 0000
000003a0: 0400 0000 0400 0080 b365 4e3b a96a 6436
000003b0: 63d4 0cb8 02bc 9c3b e320 0b3b 0400 0080
000003c0: f7a9 e539 b96b c833 0842 a834 b48a c537
000003d0: 429b d13a ca4d 29b6 f4cc 6836 8c3e 993b
000003e0: 0400 0080 0400 0000 0400 0000 9e92 5437
000003f0: 0000 0000 0400 0000 0810 4339 c2a5 8a34

exp_avg_sq f4 [20, 20]
0.0 2.9654776e-09 1.0298085e-07 5.950437e-05 0.0004705114 1.1611261e-05 1.2489679e-05 0.002699108
3.2143215e-19 1.4056165e-20 8.820426e-22 3.0931336e-05 8.19059e-15 4.228592e-22 5.4228214e-05 5.4402403e-08
1.7921425e-06 0.0005228089 0.00024641937 2.611448e-23 2.587445e-06 0.0 3.4084117e-08 3.8041358e-06
1.9243118e-05 5.188473e-07 1.1745177e-06 0.00012749039 7.4396333e-20 3.1900208e-21 1.9467151e-22 2.5110485e-06
5.86719e-16 8.347422e-23 2.7941405e-06 1.3222281e-08 3.007918e-07 1.8714962e-05 7.1353506e-06 3.0290742e-24
2.0588917e-05 4.4742607e-10 0.0 1.8378494e-05 0.00010009199 4.570521e-06 6.8527665e-06 0.0006582127
6.069502e-19 3.342383e-20 1.8579325e-21 1.0884805e-05 3.5549515e-15 5.063696e-22 3.38252e-05 6.839499e-09
7.4591986e-07 0.00016157006 6.122959e-05 1.2762371e-23 5.620312e-05 7.599823e-11 1.9579232e-09 0.0
0.0005958565 2.2364927e-06 6.8356366e-07 0.0035644018 2.8645513e-19 3.4181313e-20 1.8111873e-21 9.3975586e-07
1.5692218e-15 7.7252954e-22 4.4418266e-05 7.2955847e-10 3.455125e-08 0.00017141654 9.4895346e-05 5.87391e-23
1.8906943e-05 1.0140178e-09 3.8097042e-08 1.6912187e-05 0.0 2.4183084e-06 4.021918e-06 0.0004418512
8.521844e-19 6.501195e-20 4.0047957e-21 9.283742e-06 5.8035165e-15 1.6371588e-21 1.4788726e-05 2.254001e-08
7.0564784e-07 0.000121363635 5.334031e-05 6.906922e-23 0.00025989173 2.95876e-09 1.5966565e-07 0.00011058496
0.000917037 0.0 1.8778337e-05 0.0053185606 5.04149e-20 2.6334607e-21 1.4377263e-22 6.3004925e-05
3.4267506e-15 8.351571e-23 0.00020076692 8.494902e-08 5.461728e-06 0.0010161944 0.0005027058 9.578371e-24
6.5301225e-05 2.343092e-10 1.753722e-08 2.345529e-05 0.00034365736 3.983802e-06 0.0 0.0022454269
6.283992e-20 5.7880796e-21 5.444115e-22 1.1601049e-05 6.3439147e-16 2.7230027e-22 6.30109e-05 4.9516373e-09
7.149271e-07 0.00033768793 0.0001469149 9.047962e-24 2.7087858e-06 1.9380662e-09 4.5110653e-08 8.127305e-06
2.8685705e-05 1.0102104e-06 1.9746665e-06 0.0 6.928607e-19 2.728436e-20 1.3351104e-21 4.6505716e-06
1.7080599e-14 3.727395e-22 2.9194034e-06 1.8672068e-08 3.489133e-07 4.195147e-05 1.562111e-05 1.9495585e-23
5.2575157e-08 4.995094e-15 1.8566646e-13 7.6468526e-10 1.5517809e-06 5.4999266e-10 3.9641856e-11 1.2137896e-05
0.0 3.2231778e-20 1.1494197e-21 2.4146618e-10 1.3018412e-16 7.6823834e-22 5.1739654e-08 3.4291804e-14
8.65482e-12 5.7444456e-08 3.29493e-08 2.793888e-23 1.9411642e-08 2.7598466e-15 1.1612406e-13 2.5196512e-10
3.5156725e-07 2.2799604e-10 2.1549231e-11 3.6406311e-06 5.1439147e-19 0.0 8.626315e-22 8.387209e-11
1.450205e-17 1.7375955e-22 2.247142e-08 1.3990039e-14 4.5757465e-12 2.6493804e-08 1.3982169e-08 3.7697797e-24
1.154231e-08 1.2298627e-15 5.788504e-14 1.8632494e-10 3.6432735e-07 1.4442333e-10 1.2015022e-11 2.9734292e-06
7.425987e-20 1.6016674e-20 0.0 5.6675123e-11 9.202199e-19 5.1338644e-22 1.2380857e-08 8.720303e-15
1.8549316e-12 1.4463237e-08 7.916901e-09 2.178292e-23 0.00011812055 2.990655e-10 1.0296761e-08 5.7354073e-06
0.0007541538 5.3608987e-06 2.8509114e-06 0.0051278602 1.6988887e-19 5.695404e-20 1.9278504e-21 0.0
2.148725e-15 1.6691483e-21 9.434164e-05 3.2983238e-09 7.463854e-08 0.00035671197 0.00019020845 1.8600401e-22
4.085172e-07 3.5695017e-12 2.4268287e-11 1.2014976e-08 7.098368e-06 7.2895063e-09 9.657765e-10 6.0125054e-05
8.0355136e-20 3.974303e-21 1.7472738e-22 4.741601e-09 0.0 1.3263199e-22 4.5648622e-07 4.1939278e-12
00000000: 0000 0000 3cc9 4b31 5226 dd33 5594 7938
00000010: f9ae f639 fccd 4237 c38a 5137 85e3 303b
00000020: 74bd bd20 b9c1 841e 5f4a 851c 45bc 0138
00000030: 6e8c 1328 4b9a ff1b 1a73 6338 13a8 6933
00000040: 8c89 f035 1d0d 093a d931 8139 5290 fc19
00000050: f7a3 2d36 0000 0000 e263 1233 8e4a 7f36
00000060: 486c a137 ea46 0b35 1fa4 9d35 f1ae 0539
00000070: d3a9 af1f fa07 711d ea57 6b1b 7c83 2836
00000080: 391c 2926 0ad4 c91a f882 3b36 3528 6332
00000090: 837c a134 13fe 9c37 326c ef36 ff5c 6a18
000000a0: 5db6 ac37 9ff9 f52f 0000 0000 842b 9a37
000000b0: 7ae8 d138 7a5c 9936 d1f0 e536 e88b 2c3a
000000c0: dc23 3321 eed6 1d1f a461 0c1d e29d 3637
000000d0: a414 8027 730a 191c 88df 0d38 df00 eb31
000000e0: 393b 4835 226b 2939 6368 8038 33dc 7619
000000f0: a4bb 6b38 331f a72e 268c 0631 0000 0000
00000100: 4133 1c3a a716 1636 237e 3735 bd98 693b
00000110: e017 a920 ac6a 211f 75d9 081d 8843 7c35
00000120: 1126 e226 947b 691c c04d 3a38 1d8a 4830
00000130: 8065 1433 47be 3339 8d02 c738 be05 8e1a
00000140: 5a9a 9e37 945d 8b30 24a0 2333 a5de 8d37
00000150: 0000 0000 394a 2236 03f4 8636 44a8 e739
00000160: 3c85 7b21 5081 991f 024c 971d 5ec1 1b37
00000170: fe17 d127 8366 f71c 181d 7837 029e c132
00000180: c06b 3d35 9b84 fe38 b9b9 5f38 c7ff a61a
00000190: 1442 8839 0e53 4b31 8f70 2b34 d9e9 e738
000001a0: 5065 703a 0000 0000 2c86 9d37 5247 ae3b
000001b0: e013 6e1f 8afa 461d 79cf 2d1b 8321 8438
000001c0: 64ec 7627 b8ed c91a f684 5239 386d b633
000001d0: e343 b736 d331 853a 04c8 033a cc45 3919
000001e0: 54f2 8838 17d0 802f c1a4 9632 dac1 c437
000001f0: e92c b439 99ac 8536 0000 0000 0328 133b
00000200: 6760 941f dfaa da1d cd89 241c 20a2 4237
00000210: d4d9 3626 6d98 a41b b824 8438 1023 aa31
00000220: 6be9 3f35 b50b b139 2b0d 1a39 5603 2f19
00000230: 96c8 3536 d22e 0531 b0bf 4133 825a 0837
00000240: 15a2 f037 9196 8735 8384 0436 0000 0000
00000250: 137f 4c21 c4d8 001f 95c1 c91c 1b0c 9c36
00000260: 2ed9 9928 a54e e11b f8ea 4336 5064 a032
00000270: 4752 bb34 0cf5 2f38 140a 8337 bb8c bc19
00000280: ffce 6133 9cf7 b327 b70a 512a f131 5230
00000290: c946 d035 4b2e 1730 c358 2e2e dea3 4b37
000002a0: 0000 0000 d435 181f 05b2 ad1c 58bf 842f
000002b0: 9217 1625 902f 681c 5a38 5e33 c26f 1a29
000002c0: d841 182d d9b8 7633 2384 0d33 a91a 071a
000002d0: a7be a632 2fde 4627 7bbe 022a f084 8a2f
000002e0: 09bf bc34 2eaf 7a2f 8e8c bd2d 9151 7436
000002f0: 52d2 1721 0000 0000 715b 821c ca6f b82e
00000300: ffc1 8523 fa0f 521b 2d07 c132 ab05 7c28
00000310: a9fe a02c 7e94 e332 3b36 7032 17d6 9118
00000320: 9e4b 4632 ed3d b126 7458 8229 cfdd 4c2f
00000330: c598 c334 8ecb 1e2f d95e 532d 208b 4736
00000340: 5657 af1f f145 971e 0000 0000 8442 792e
00000350: edcc 8721 5a29 1b1c 96b3 5432 4d17 1d28
00000360: 7a87 022c fd79 7832 e602 0832 e6ab d219
00000370: 7db7 f738 ba69 a42f a2e5 3032 c672 c036
00000380: 68b2 453a c5e1 b336 4952 3f36 9c07 a83b
00000390: c391 4820 9b7a 861f 0daa 111d 0000 0000
000003a0: fbd4 1a27 0c3c fc1c 48d9 c538 baa8 6231
000003b0: f948 a033 1205 bb39 b172 4739 74dd 601b
000003c0: 2d52 db34 6d2e 7b2c 5377 d52d 6c6a 4e32
000003d0: 842e ee36 2d77 fa31 3dbc 8430 c92e 7c38
000003e0: b3bb bd1f 1a25 961d 813b 531b 90eb a231
000003f0: 0000 0000 9d57 201b fd12 f534 8b8f 932c

exp_avg f4 [9, 20]
0.00013740428 -4.788975e-05 -0.00010358261 0.0010035537 0.00038917895 0.00015474172 0.0002035019 7.562998e-05
6e-45 6e-45 6e-45 0.00085235416 6e-45 6e-45 0.0004938012 -0.0001026504
0.00021062861 0.00093745306 0.0013515829 6e-45 0.0016154476 -0.00010153932 -0.00028950744 0.0013662485
0.002060849 -0.00040010535 0.0005782726 0.0022087372 -6e-45 6e-45 6e-45 0.0010723885
-6e-45 6e-45 0.0007570341 0.00011801986 0.00059305166 0.0024081436 0.0019747305 6e-45
-0.008917832 0.00028963858 -6.52856e-05 -0.0059827077 -0.009333147 -0.0037811736 -0.0059013898 -0.012943047
6e-45 6e-45 6e-45 -0.005089417 6e-45 6e-45 -0.007150691 -0.00061315
-0.0020651557 -0.009357218 -0.009850979 6e-45 0.0058929925 3.0123498e-05 0.00065287517 0.0051158527
0.007730642 0.0027993496 0.00552362 0.014431504 6e-45 6e-45 6e-45 0.004300102
6e-45 6e-45 0.004966645 0.0008924336 0.001444224 0.011064093 0.007616726 6e-45
0.002361669 -0.000103287035 -9.469352e-05 0.0032119204 0.0037264118 0.0013090497 0.0014215006 0.008803039
6e-45 6e-45 6e-45 0.0028314893 6e-45 6e-45 0.0009501269 2.531429e-05
0.0013431597 0.004076992 0.0043205647 6e-45 0.0025900814 0.00017048852 0.0008836523 0.0046326937
0.0055166 0.0011416059 0.0028315124 0.0086589735 6e-45 6e-45 6e-45 0.00361798
6e-45 6e-45 0.0024132922 0.00066819775 0.0011254667 0.007689266 0.003986433 6e-45
8.191893e-05 8.97332e-06 7.636948e-05 0.00067609776 0.0015031692 0.00063148834 0.00051372434 0.0012299941
6e-45 6e-45 6e-45 0.000611977 6e-45 6e-45 0.0004569758 9.994542e-05
0.00032970632 -2.3104743e-05 0.0006194623 6e-45 -0.004189833 -0.00021088451 -0.0010697788 -0.009690282
-0.010949309 -0.0024550587 -0.0053212014 -0.019336138 6e-45 -6e-45 -6e-45 -0.0082563255
6e-45 -6e-45 -0.0032463865 -0.001181512 -0.003613142 -0.014084775 -0.009224311 -6e-45
0.00042815637 -3.5623278e-05 9.951424e-06 -0.00033337303 -0.0006443884 0.0006001057 0.00015046271 -0.003128683
6e-45 6e-45 6e-45 5.9453454e-05 6e-45 6e-45 0.0003592061 9.340202e-05
0.0006320621 -0.0027108383 -0.0007942037 6e-45
00000000: 2e14 1039 3add 48b8 7e3a d9b8 ad89 833a
00000010: b70a cc39 2a42 2239 2063 5539 899b 9e38
00000020: 0400 0000 0400 0000 0400 0000 8570 5f3a
00000030: 0400 0000 0400 0000 7072 013a 0446 d7b8
00000040: 30dc 5c39 69bf 753a 9927 b13a 0400 0000
00000050: 6dbd d33a 82f1 d4b8 08c9 97b9 b113 b33a
00000060: 4f0f 073b 3bc5 d1b9 3897 173a 76c0 103b
00000070: 0400 0080 0400 0000 0400 0000 638f 8c3a
00000080: 0400 0080 0400 0000 b373 463a 6e81 f738
00000090: 0677 1b3a f2d1 1d3b 7b6a 013b 0400 0000
000000a0: 191c 12bc a2da 9739 f1e9 88b8 970a c4bb
000000b0: 0eea 18bc 91cd 77bb 7260 c1bb 130f 54bc
000000c0: 0400 0000 0400 0000 0400 0000 20c5 a6bb
000000d0: 0400 0000 0400 0000 5850 eabb cdbb 20ba
000000e0: 9057 07bb 044f 19bc 0066 21bc 0400 0000
000000f0: 011a c13b b8b1 fc37 b625 2b3a e2a2 a73b
00000100: 5351 fd3b 4b75 373b 7cff b43b 1d72 6c3c
00000110: 0400 0000 0400 0000 0400 0000 dfe7 8c3b
00000120: 0400 0000 0400 0000 3dbf a23b 35f2 693a
00000130: 1e4c bd3a 2b46 353c bb95 f93b 0400 0000
00000140: 3bc6 1a3b ce9b d8b8 3296 c6b8 157f 523b
00000150: d136 743b 6b94 ab3a a551 ba3a 9f3a 103c
00000160: 0400 0000 0400 0000 0400 0000 8290 393b
00000170: 0400 0000 0400 0000 f011 793a 065a d437
00000180: f60c b03a 4a98 853b 8693 8d3b 0400 0000
00000190: 5bbe 293b 2ac5 3239 e7a4 673a dacd 973b
000001a0: 98c4 b43b f0a1 953a e590 393b 5ede 0d3c
000001b0: 0400 0000 0400 0000 0400 0000 a21b 6d3b
000001c0: 0400 0000 0400 0000 5328 1e3b fe29 2f3a
000001d0: 6584 933a 3df6 fb3b a0a0 823b 0400 0000
000001e0: e4cb ab38 1e8c 1637 8d28 a038 273c 313a
000001f0: fd05 c53a 778a 253a 75ab 063a c137 a13a
00000200: 0400 0000 0400 0000 0400 0000 156d 203a
00000210: 0400 0000 0400 0000 4196 ef39 ca99 d138
00000220: 6fdc ac39 0fd1 c1b7 6963 223a 0400 0000
00000230: de4a 89bb e120 5db9 d237 8cba fdc3 1ebc
00000240: bb64 33bc 0de5 20bb 795d aebb d266 9ebc
00000250: 0400 0000 0400 0080 0400 0080 8a45 07bc
00000260: 0400 0000 0400 0080 54c1 54bb f7dc 9aba
00000270: 77ca 6cbb d4c3 66bc 9121 17bc 0400 0080
00000280: 2d7a e039 346a 15b8 0af5 2637 92c8 aeb9
00000290: 2cec 28ba 6950 1d3a 87c5 1d39 970a 4dbb
000002a0: 0400 0000 0400 0000 0400 0000 a95d 7938
000002b0: 0400 0000 0400 0000 d453 bc39 d4e0 c338
000002c0: f8b0 253a 52a8 31bb 1c32 50ba 0400 0000
