checkpoints/RNN_50.pt (torch, 111341 bytes, 9 tensors)

snn.l1.input_weights f4 [20, 416]
0	0x3d47363d	0.04863571
1	0x3deead1f	0.11654114
2	0xbc0c7bfa	-0.00857448
3	0xbdc0c4a5	-0.09412507
4	0x3e8ebcf8	0.27878547
5	0xbe6e52ee	-0.23273823
6	0xbef9c42f	-0.4878249
7	0xbded086d	-0.11573873
8	0xbdada3f4	-0.08478537
9	0x3ea99132	0.33118588
10	0xbe50dc45	-0.20396526
11	0xbe1f74c4	-0.15571886
12	0x3d8057fd	0.062667824
13	0xbedf240d	-0.43582192
14	0xbe75ce0c	-0.24004382
15	0x3e9ab808	0.3021853
16	0x3d68b788	0.056815654
17	0xbe58e0ed	-0.21179552
18	0xbce5e360	-0.028062522
19	0x3d8605b0	0.065440536
20	0xbe38695d	-0.18008943
21	0xbd740e77	-0.059584107
22	0xbe2c83e6	-0.1684719
23	0x3ebf3f31	0.373529
24	0xbe845033	-0.25842437
25	0x3e4fc3bb	0.20289509
26	0x3dd81e42	0.10552646
27	0x3e060a0c	0.1308977
28	0x3eecd9b0	0.46259832
29	0xbc3ce37a	-0.011528844
30	0x3c88f16e	0.016716685
31	0x3ed58ed2	0.41710526
32	0xbefdf4f2	-0.4960094
33	0xbeb484c1	-0.35257533
34	0xbe3b3ea7	-0.18285619
35	0x3e7690eb	0.2407872
36	0x3e502034	0.20324785
37	0xbe89bf07	-0.26903555
38	0xbea55760	-0.32293224
39	0xbe77ff28	-0.24218428
40	0xbed9fd5c	-0.4257611
41	0x3e9395e3	0.28825292
42	0xbec75fb3	-0.389402
43	0xbca9ba95	-0.020718852
44	0x3e1b2464	0.151506
45	0x3dbc75d0	0.092021585
46	0xbcc93cd5	-0.02456514
47	0x3dae221e	0.08502601
48	0xbe89f55e	-0.26945013
49	0xbdee9ffd	-0.11651609
50	0xbf019556	-0.50618494
51	0xbe7899a8	-0.24277365
52	0xbf0c20e2	-0.54737675
53	0xbd0e5591	-0.03474957
54	0xbf176ff7	-0.5915522
55	0xbf03bf25	-0.5146354
56	0xbf55d773	-0.83531874
57	0xbee29729	-0.4425595
58	0xbd9b9068	-0.07595903
59	0xbf0ed1e5	-0.55789024
60	0xbef528ee	-0.4788279
61	0x3c2b8d9b	0.010470773
62	0xbf1b96c9	-0.60776955
63	0xbe49db86	-0.19712648
64	0xbed585f7	-0.4170377
65	0xbd8d0cc3	-0.068872
66	0x3f0dd3fd	0.55401593
67	0xbf0588c9	-0.5216184
68	0xbea46ae1	-0.32112792
69	0xbe92fa42	-0.28706557
70	0xbf095df0	-0.5365896
71	0xbee9b273	-0.45643958
72	0xbf0eeffc	-0.5583494
73	0x3c25c3ab	0.010117452
74	0xbde366fe	-0.111036286
75	0xbf49ea33	-0.78872985
76	0xbe9d8db8	-0.30772185
77	0xbebe32e2	-0.37148196
78	0xbeeed908	-0.46649957
79	0xbed88775	-0.42290846
80	0xbed7e87a	-0.42169553
81	0xbed33ead	-0.41258755
82	0xbec64cbd	-0.38730422
83	0xbef35c02	-0.47531134
84	0xbe2176cd	-0.15767975
85	0xbe41e01a	-0.18933144
86	0xbe4e6420	-0.20155382
87	0xbf086144	-0.53273416
88	0xbf47f379	-0.78105885
89	0xbeee3556	-0.46525067
90	0xbdf70bd0	-0.120628
91	0xbf219ad7	-0.6312689
92	0xbe9a25b0	-0.30106878
93	0xbf1cf899	-0.6131683
94	0xbe9ee457	-0.31033584
95	0xbeac8f3e	-0.33703035
96	0xbf582280	-0.8442764
97	0xbe81363f	-0.252367
98	0xbe4e69c3	-0.20157532
99	0xbe1644e8	-0.14674723
100	0xbe9b8751	-0.30376676
101	0xbf371716	-0.715196
102	0xbd97837b	-0.07398125
103	0xbec2aa1c	-0.38020408
104	0x3fb5b465	1.4195677
105	0x3fc54d3c	1.5414195
106	0x3f958696	1.1681697
107	0x3f929d6d	1.1454293
108	0x3f982ba8	1.1888323
109	0x3fc65ff9	1.5498039
110	0x3f7a8086	0.9785236
111	0x3f757c60	0.95892906
112	0x3f7430b6	0.95386827
113	0x3f9a3a41	1.2049028
114	0x3fa04fe0	1.2524376
115	0x3fb97c1b	1.4490999
116	0x3fb9ecff	1.452545
117	0x3f890c4b	1.0706877
118	0x3f33bf84	0.70214105
119	0x3fa5a379	1.2940513
120	0x3fb41214	1.4068017
121	0x3fa79149	1.3091213
122	0x3f7f806f	0.9980535
123	0x3fa7d1ac	1.3110862
124	0x3f9f7a9e	1.2459295
125	0x3fba5de7	1.4559907
126	0x3f83d983	1.0300754
127	0x3f5216f0	0.8206625
128	0x3f8b2ec4	1.0873647
129	0x3fb3fa31	1.4060727
130	0x3f86d6db	1.0534319
131	0x3f976cfc	1.1830134
132	0x3fbc183a	1.4694893
133	0x3fb55a8f	1.4168261
134	0x3fa53709	1.290742
135	0x3f8130ed	1.0093056
136	0x3fb1881a	1.386966
137	0x3fab17c3	1.3366627
138	0x3f54b479	0.8308788
139	0x3f9505a6	1.1642349
140	0x3f6e2573	0.9302589
141	0x3fdd6006	1.7294929
142	0x3f73e973	0.9527809
143	0x3f6e22b2	0.9302169
144	0x3f72cfbf	0.94848245
145	0x3fb5e30a	1.4209912
146	0x3fc56ffd	1.5424801
147	0x3faf4156	1.3691814
148	0x3fbd750d	1.4801346
149	0x3f703630	0.93832684
150	0x3f19dffa	0.60107386
151	0x3faa1414	1.3287377
152	0x3fa6c058	1.3027449
153	0x3faf51bf	1.3696822
154	0x3f60dd57	0.8783774
155	0x3fd182f2	1.6368086
156	0xbfb8a78a	-1.4426129
157	0xbefe676e	-0.49688286
158	0xbf19db9f	-0.6010074
159	0xbf423f44	-0.75877786
160	0xbef0f52c	-0.4706205
161	0xbf3e00d5	-0.7422002
162	0xbe4de4ed	-0.2010686
163	0xbde6a2c2	-0.11261512
164	0xbd78d73d	-0.060752142
165	0xbe724a71	-0.2366121
166	0xbeb14caf	-0.34628817
167	0xbefbecdd	-0.4920415
168	0xbf927d7b	-1.1444544
169	0xbeb1b6db	-0.3470982
170	0xbe33a859	-0.17544688
171	0xbf666b12	-0.90007126
172	0xbfaaac60	-1.3333855
173	0xbeda1450	-0.42593622
174	0xbe4d7677	-0.20064722
175	0xbf4e3a2e	-0.80557525
176	0xbee0b6bd	-0.43889418
177	0xbf6f6840	-0.9351845
178	0xbf0c6ca0	-0.5485325
179	0xbe7b1eee	-0.24523517
180	0xbe5f61ee	-0.21814701
181	0xbf0c5078	-0.54810286
182	0xbf62950b	-0.8850867
183	0x3d188192	0.037232943
184	0xbf621280	-0.8830948
185	0xbf6fa676	-0.93613374
186	0xbf13ed0a	-0.5778357
187	0xbf3a86e1	-0.7286206
188	0xbf58d174	-0.846946
189	0xbefc3af6	-0.49263734
190	0xbe9ddc28	-0.30832028
191	0xbf45fd79	-0.77339894
192	0xbe358d92	-0.17729786
193	0xbf6bd201	-0.92117316
194	0xbe0007de	-0.12503001
195	0xbde8fadb	-0.11375972
196	0xbec1db40	-0.37862587
197	0xbe9a5921	-0.30146125
198	0xbf060ba4	-0.5236151
199	0xbe1602df	-0.14649533
200	0xbf319dc7	-0.69381374
201	0xbed32e8e	-0.41246456
202	0xbed38dc8	-0.41319108
203	0xbf72b400	-0.9480591
204	0xbf1966a5	-0.5992225
205	0xbf34df45	-0.7065318
206	0x3beeef5b	0.007291717
207	0xbf63dffa	-0.89013636
208	0xbf369767	-0.7132477
209	0xbf6ca78c	-0.92443156
210	0xbf47c726	-0.7803825
211	0xbf9d7dbd	-1.2303997
212	0xbeaf3724	-0.34221756
213	0xbedb52c0	-0.4283657
214	0xbf6d151e	-0.9261035
215	0xbf283739	-0.65709263
216	0xbf92be4a	-1.1464322
217	0xbf65607b	-0.8960034
218	0xbf54d22c	-0.83133197
219	0xbec8e2dd	-0.39235583
220	0xbec610a8	-0.38684583
221	0xbfadfc61	-1.3592645
222	0xbf56fec1	-0.83982474
223	0xbf208c61	-0.627142
224	0xbf102b97	-0.5631651
225	0xbecf7c66	-0.40524596
226	0xbf9ca5d6	-1.2238109
227	0xbfb167c4	-1.3859792
228	0xbe896e83	-0.26842126
229	0xbf3cb92b	-0.73720044
230	0xbf660124	-0.8984549
231	0xbdc2dd86	-0.095149085
232	0xbf554c9e	-0.83320034
233	0xbfa75a3b	-1.3074411
234	0xbf490c74	-0.78534627
235	0xbf7c1f4d	-0.9848526
236	0xbf6c0ed5	-0.9221013
237	0xbf681fef	-0.90673727
238	0xbf92e34d	-1.1475617
239	0xbf61b18b	-0.88161534
240	0xbf2b6752	-0.6695453
241	0xbf2ff870	-0.6873846
242	0xbf976450	-1.1827488
243	0xbf8f8864	-1.1213498
244	0xbee0f5f1	-0.43937638
245	0xbf386bc7	-0.72039455
246	0xbf3cd301	-0.73759466
247	0xbe6a89fd	-0.22904201
248	0xbf141c2a	-0.57855475
249	0xbf57445b	-0.8408868
250	0xbefa554d	-0.48893204
251	0xbec865d4	-0.3914019
252	0xbfc87323	-1.5660137
253	0xbfa07982	-1.2537081
254	0xbf8cfa17	-1.1013821
255	0xbf4c9a62	-0.7992307

snn.l1.recurrent_weights f4 [20, 20]
0	0x00000000	0.0
1	0x3fbcf0da	1.4761002
2	0xbed989c9	-0.42487934
3	0x407b6ed5	3.9286397
4	0x3ef899af	0.4855475
5	0x3febfdfd	1.8436886
6	0x3f12b428	0.57306147
7	0x3f861816	1.04761
8	0x3febad8a	1.8412335
9	0x400c1390	2.188694
10	0x3f8f0bbe	1.1175458
11	0x4053f2d5	3.3116963
12	0x3fd0b87f	1.6306304
13	0x3f8269ff	1.0188597
14	0x3fdbe4b1	1.7179166
15	0xbd5f0cac	-0.054455444
16	0x401e988a	2.4780602
17	0x3e3d03c3	0.18458466
18	0x4009113c	2.141677
19	0x3fb4c385	1.4122168
20	0x3eba979a	0.36443788
21	0x00000000	0.0
22	0x40857593	4.1706023
23	0x40a038f7	5.0069537
24	0x3f87f373	1.062117
25	0x407be326	3.935739
26	0x40ab4d64	5.353197
27	0x3fb01190	1.375536
28	0x401e3e8d	2.4725678
29	0x3f9db033	1.2319397
30	0x3f682503	0.90681475
31	0x4099a152	4.8009424
32	0x404dbee0	3.214775
33	0x40162999	2.346289
34	0x3fc622c3	1.5479358
35	0x4042a0c2	3.0410619
36	0xbf12d1a4	-0.57351136
37	0x3f8bc6f4	1.0920091
38	0xbf434270	-0.7627325
39	0x3fab7603	1.3395389
40	0x3ebb0d82	0.36533743
41	0x3fe2498c	1.7678695
42	0x00000000	0.0
43	0x40833e74	4.1013737
44	0xbe39bd86	-0.18138704
45	0x40368e69	2.852442
46	0x3ff3dcfd	1.9051815
47	0x3ec6f9e4	0.38862526
48	0x3fe9bff5	1.8261706
49	0x3fa6f693	1.3043998
50	0x3f834cad	1.0257775
51	0x40807f95	4.015574
52	0x40021d76	2.0330482
53	0x4008e814	2.139165
54	0x3f7e5905	0.99354583
55	0x3f862e90	1.048296
56	0x3eda7ff2	0.4267574
57	0x3ef74e0e	0.48301739
58	0x3f93316a	1.1499455
59	0x3f62f92b	0.8866145
60	0x3eb2f657	0.34953567
61	0x3f0ce449	0.55035836
62	0x3f869011	1.0512716
63	0x00000000	0.0
64	0xbefb482c	-0.490785
65	0x401bf96f	2.4370992
66	0x3fe592f2	1.7935469
67	0x3ea83401	0.32852176
68	0xbf3d4205	-0.7392886
69	0x3df497ea	0.11943038
70	0x3e5347ab	0.20632808
71	0x41140769	9.251809
72	0x3e88fa72	0.26753575
73	0xbe9d33d5	-0.30703607
74	0xbe07425f	-0.13208912
75	0xbd225e93	-0.039640974
76	0x3f833ccd	1.025293
77	0x3f7e0a09	0.9923406
78	0xbe29f600	-0.16597748
79	0xbf4b83c0	-0.7949791
80	0x3e3205c2	0.17385009
81	0x3f3d0efe	0.73851
82	0xbf21860c	-0.63095164
83	0x4072fa02	3.7965093
84	0x00000000	0.0
85	0x4025fb97	2.5934808
86	0x3f34e374	0.70659566
87	0xbed660b2	-0.41870648
88	0x3f8977a3	1.0739635
89	0x3f8c6a25	1.0969893
90	0x3f46faf0	0.7772665
91	0x404fdbd2	3.2477918
92	0x3f98df72	1.194319
93	0x3f1b52ec	0.60673404
94	0xbe0591ab	-0.13043849
95	0xbd8007bb	-0.062514745
96	0xbca03e4f	-0.019560961
97	0x3e38a832	0.18032911
98	0xbf1ece21	-0.6203328
99	0x3f1e4c24	0.6183493
100	0xbf46c2e3	-0.77641124
101	0xbe638a32	-0.22220686
102	0x3f953b8a	1.1658795
103	0x40a2ca0c	5.087164
104	0xbe96e073	-0.29468116
105	0x00000000	0.0
106	0x3f813b7a	1.0096276
107	0xbeeb3e4e	-0.45945972
108	0xbe05b69b	-0.1305794
109	0xbfc3e634	-1.5304627
110	0xbf0b8eb4	-0.5451462
111	0x4035ea43	2.8424232
112	0x3f4a2804	0.7896731
113	0x3e90f682	0.2831307
114	0x3f3a0a24	0.72671723
115	0xbee753af	-0.45181033
116	0xbefbcb00	-0.49178314
117	0x3f4b5841	0.7943154
118	0xbfa3f4fd	-1.280914
119	0xbfc3e879	-1.530532
120	0x3efd3b7b	0.49459442
121	0x4029eaeb	2.6549633
122	0x4041e530	3.0296135
123	0x405081c9	3.2579215
124	0x3dc6737f	0.09689998
125	0x4036d3d2	2.8566785
126	0x00000000	0.0
127	0x3f5ef24a	0.87088454
128	0x3fd48df6	1.6605823
129	0x3fd7d951	1.6863195
130	0x3eae40e2	0.34033877
131	0x401c403b	2.4414203
132	0x3fa0b7a1	1.2556039
133	0x3fe766a0	1.8078194
134	0x3feac2d5	1.8340708
135	0x3f94d57f	1.1627654
136	0xbee57063	-0.44812307
137	0x3fd92892	1.6965506
138	0xbd2ded35	-0.042462546
139	0x4024df92	2.5761456
140	0x3fbeef61	1.4916803
141	0x3fcaf738	1.5856695
142	0x3dbf8a89	0.09352595
143	0x4072cbac	3.7936811
144	0x3ee2d081	0.442997
145	0x40177b79	2.3669112
146	0x3f62d7cf	0.8861055
147	0x00000000	0.0
148	0x3fc70410	1.5548115
149	0x3f884c61	1.0648309
150	0x3f900720	1.1252174
151	0x40857a9a	4.171216
152	0x4003362b	2.0501812
153	0x3fd5b8f9	1.6697074
154	0x3fc69f86	1.5517433
155	0x3fa4a5f5	1.2863146
156	0x3ffb1a26	1.9617355
157	0x3f9b3997	1.212695
158	0x3ee33eb7	0.44383785
159	0x3fb38495	1.4024836
160	0xbebb7796	-0.36614674
161	0x3eb132f8	0.346092
162	0x4026846a	2.601832
163	0x40c871c2	6.2638865
164	0x3f285117	0.65748733
165	0x405c12b3	3.4386413
166	0x3fd87e0b	1.6913465
167	0xbd557af8	-0.052119225
168	0x00000000	0.0
169	0xbf0891cf	-0.53347486
170	0x3fbeb70e	1.4899614
171	0x40843dce	4.1325445
172	0x3f8caa17	1.0989407
173	0x3ebeb22c	0.3724531
174	0xbebc6c1f	-0.3680124
175	0x3eeaadbe	0.4583568
176	0xbea08ed3	-0.31358966
177	0xbf5f6e11	-0.87277323
178	0xbfa74c2f	-1.3070124
179	0xbf133c2f	-0.5751371
180	0xbfb1cf0b	-1.389131
181	0x3f634ded	0.8879078
182	0x40901635	4.502711
183	0x4045315b	3.0811374
184	0xbee336f3	-0.4437786
185	0x3ff2f747	1.8981713
186	0xbd865f13	-0.06561103
187	0xbf6192eb	-0.88114804
188	0x403f6f29	2.9911597
189	0x00000000	0.0
190	0x3fe5fdb2	1.7968047
191	0x4042947b	3.0403125
192	0x402787d9	2.6176665
193	0x3fff8f1b	1.9965547
194	0xbf30f257	-0.6911978
195	0xbeddcccc	-0.4332031
196	0x3f0359d5	0.5130895
197	0xbf208056	-0.62695825
198	0xbf09d0e1	-0.5383435
199	0xbf4b7d06	-0.79487646
200	0xbf5951da	-0.8489052
201	0xbe875280	-0.2643013
202	0x4082d589	4.0885663
203	0x408c83a8	4.3910713
204	0xbcf59c96	-0.029981893
205	0x401f8655	2.492574
206	0x3dce74ed	0.100808956
207	0xbeeff4bb	-0.46866402
208	0x40332219	2.7989562
209	0x3f762611	0.96151835
210	0x00000000	0.0
211	0x40476262	3.1153798
212	0x3fedece1	1.8587915
213	0x3f16c096	0.5888761
214	0xbf5f36f9	-0.87193257
215	0xbf9bb772	-1.2165358
216	0x3d852867	0.06501847
217	0xbf385423	-0.7200338
218	0xbfc2b412	-1.5211203
219	0x3dcce3a4	0.100043565
220	0x3f1f2969	0.6217256
221	0x3ea3d2dc	0.3199681
222	0x3f7e1cdb	0.9926278
223	0x410db9c8	8.857857
224	0xbe7f239f	-0.24915932
225	0x402332c1	2.5499728
226	0x3f127895	0.57215244
227	0x3e7f97ca	0.24960247
228	0xbf8a40c9	-1.0801021
229	0xbf35def9	-0.71043354
230	0xbf82fa46	-1.0232627
231	0x00000000	0.0
232	0x3ddea546	0.10871367
233	0x3ddf1cc5	0.10894159
234	0x3cce5229	0.025185661
235	0x3e988d88	0.2979548
236	0xbe139016	-0.14410433
237	0x3f4f8dc4	0.8107569
238	0x3e412f7f	0.18865775
239	0xbf48461d	-0.78231984
240	0xbfbebf5e	-1.4902151
241	0x3e253d66	0.16136703
242	0x3fc3af0d	1.5287796
243	0x40807c03	4.015138
244	0xbf66a0d3	-0.9008915
245	0x402657ae	2.5991015
246	0x3e12b7ac	0.14327878
247	0xbf908210	-1.1289692
248	0x3fed968c	1.8561568
249	0xbf9c1ea6	-1.2196853
250	0x3f534f45	0.8254283
251	0x40638dd8	3.5555325
252	0x00000000	0.0
253	0x3fc9cd4e	1.5765779
254	0xc02e0ef8	-2.7196636
255	0xbee57b40	-0.44820595

snn.fc_out.weight f4 [9, 20]
0	0x3f3ad61f	0.7298297
1	0xbf4b0577	-0.79305214
2	0xbf1b2976	-0.6061014
3	0xc0afd971	-5.495293
4	0x3f72f3cf	0.9490327
5	0xc040150d	-3.0012848
6	0xbf40b08e	-0.752694
7	0x3f367502	0.7127229
8	0xbfc5d5ce	-1.5455873
9	0x3f848385	1.0352637
10	0x3e81ac2a	0.25326663
11	0xc083281a	-4.098645
12	0xbe77ea19	-0.24210395
13	0xbf2842bd	-0.65726835
14	0x3e7fd922	0.24985173
15	0x3ef424e0	0.47684383
16	0x3f9c96c7	1.2233514
17	0x3f119ccd	0.56879884
18	0x3fa9d545	1.326821
19	0x3fb0b75a	1.3805954
20	0xbf4329b1	-0.7623549
21	0x3eaf076b	0.34185347
22	0x40755324	3.8331995
23	0xbfb6eb90	-1.4290638
24	0xbfbee910	-1.4914875
25	0xbf75efb7	-0.960689
26	0x3f2ff442	0.6873208
27	0xbf9a4e48	-1.205514
28	0x3ff0f345	1.882424
29	0x3fbc14ff	1.4693907
30	0x3fc13c37	1.5096501
31	0xbfbeb80c	-1.4899917
32	0x3eb1d271	0.34730867
33	0x3f49ae5d	0.7878168
34	0x3f78641f	0.9702777
35	0xbfe9e40e	-1.8272722
36	0xbf68019a	-0.90627444
37	0x3b2a3d76	0.0025976575
38	0xbd423abe	-0.047419302
39	0x3f8bda6a	1.092603
40	0x3fb2a7cd	1.3957459
41	0x3d7c8346	0.06164863
42	0xbfc55729	-1.5417224
43	0xbede82ac	-0.4345907
44	0x40120336	2.281446
45	0x3fb8e31b	1.4444307
46	0x3f203b67	0.6259064
47	0x3ea07a58	0.3134334
48	0x40236d41	2.5535433
49	0xbe976f59	-0.2957714
50	0x3f0a4777	0.54015297
51	0xbeb1d974	-0.34736216
52	0x3f723858	0.94617224
53	0x3e3032b4	0.17206842
54	0xbd8e7c5f	-0.06957316
55	0x3f1c0105	0.60939056
56	0xc038c93f	-2.887283
57	0xbf55e78c	-0.8355644
58	0xbf575de0	-0.84127617
59	0xbdb6bbc2	-0.08922531
60	0xbf3401cf	-0.7031526
61	0xbf011271	-0.50418764
62	0x3d6faf39	0.058516715
63	0xbfb9a840	-1.4504471
64	0xbf662610	-0.8990183
65	0x3f89a7b0	1.0754299
66	0xbeb91dd9	-0.36155584
67	0x3e8e5027	0.27795526
68	0xbff56404	-1.9171147
69	0x3d2f85ca	0.0428522
70	0xbf3bd5cd	-0.7337311
71	0x3e3277d5	0.17428525
72	0x3f5130ca	0.8171507
73	0x3f3e4678	0.74326277
74	0x3f9deba4	1.2337537
75	0x3f9d6450	1.2296238
76	0x3f8e16fc	1.1100764
77	0x3fbd6861	1.4797479
78	0x3f4b0353	0.7930195
79	0xbe590912	-0.21194866
80	0xbf065b09	-0.5248266
81	0x40084f7c	2.1298513
82	0xbce7ba8c	-0.028287195
83	0xc06fdd5c	-3.7478857
84	0x3e3e9a47	0.1861354
85	0xbe5ee415	-0.21766694
86	0x3fe9cabb	1.8264993
87	0x3f05a308	0.5220189
88	0xbf233935	-0.63759166
89	0x3f1a1bd9	0.6019874
90	0x3b4dc6be	0.0031398977
91	0xc08a40f3	-4.3204284
92	0x3f868af5	1.0511156
93	0xbe37fe89	-0.17968191
94	0xbf4c2153	-0.7973835
95	0x3f803540	1.0016251
96	0xbf0e18c0	-0.55506516
97	0x3e9525bb	0.2913035
98	0xbe032a46	-0.12809095
99	0x3c88c133	0.016693687
100	0x3fbe94c9	1.4889156
101	0xbf6aff63	-0.9179594
102	0xc0254525	-2.5823452
103	0x3e57ed73	0.21086673
104	0xbe3b8b8f	-0.18314956
105	0xbfff36ee	-1.9938638
106	0xbfbeea1b	-1.4915193
107	0x3fa633f9	1.2984611
108	0xbfe745e6	-1.8068206
109	0xbef2cc2c	-0.47421396
110	0xbfacaab6	-1.3489597
111	0x3f61b809	0.8817144
112	0xbfb13f96	-1.384753
113	0xbf10479b	-0.5635926
114	0xbf0fbbe1	-0.56146055
115	0xbee91834	-0.45526278
116	0x3fb5fa9b	1.4217104
117	0xbdf715bf	-0.120646946
118	0x3ebc5874	0.36786234
119	0xbc6dd44c	-0.014515948
120	0xc033f76a	-2.811976
121	0xc0168c1a	-2.3523011
122	0xc057b4f2	-3.370419
123	0x3fce72eb	1.612882
124	0xbf603163	-0.8757536
125	0x3f696071	0.9116278
126	0xbfa6b621	-1.3024331
127	0xbea0e3d0	-0.31423807
128	0xc0a2fffb	-5.0937476
129	0xc037da32	-2.8726926
130	0xc07c8bdc	-3.9460363
131	0x3fa128c1	1.2590562
132	0xc01b7bd5	-2.429433
133	0xc0285b33	-2.6305664
134	0x3ea08a1a	0.31355363
135	0xbed99631	-0.424974
136	0x3fb984ca	1.4493649
137	0x3b5dc3f2	0.0033838716
138	0xc014e460	-2.326439
139	0xbf98fa54	-1.1951394
140	0xbf0f01b7	-0.5586199
141	0xc00dcdb0	-2.2156792
142	0xc0522ac7	-3.283861
143	0x404ab834	3.1674929
144	0xbe4e2c54	-0.20134097
145	0x403436fc	2.815856
146	0xc00e9375	-2.22775
147	0xc0013d40	-2.0193634
148	0x3fc179f6	1.5115345
149	0xbfb024da	-1.3761246
150	0x3fe7de0f	1.8114642
151	0x3f0127cb	0.50451344
152	0xbfbe76b2	-1.4879973
153	0xbf91182f	-1.1335505
154	0xc033c99a	-2.8091798
155	0xc0012c8e	-2.0183444
156	0xc05049bc	-3.2545004
157	0xbf9f4d1b	-1.2445406
158	0x3f11a99e	0.5689944
159	0xbf14180a	-0.5784918
160	0x3eb0001b	0.3437508
161	0xc0096a19	-2.1471007
162	0x3e82ae4a	0.25523597
163	0x403316bd	2.7982628
164	0xc033f495	-2.811803
165	0xc11750b6	-9.457205
166	0xbf895732	-1.0729735
167	0xbf84b758	-1.0368452
168	0xbfe688f8	-1.801055
169	0xbed9bfec	-0.42529237
170	0xbf9851c6	-1.1899955
171	0x4020d891	2.5132182
172	0xc087c192	-4.242379
173	0xc0072176	-2.1114173
174	0xbf033037	-0.51245445
175	0xbf2ff82a	-0.68738043
176	0x3fabfab7	1.3435887
177	0xbfdb25bf	-1.7120894
178	0xbed3ceb4	-0.4136864
179	0x3f3727ef	0.7154531

exp_avg f4 [20, 416]
0	0xb946d7a4	-0.00018963084
1	0x3a00111e	0.0004885363
2	0xba3968a7	-0.00070727844
3	0x3b0d286d	0.0021538988
4	0xb80b61d2	-3.3231285e-05
5	0xba55e951	-0.0008160072
6	0xba854e8f	-0.0010170507
7	0xba3d751d	-0.0007227229
8	0x39b0bb22	0.0003370876
9	0xb9bc54d8	-0.00035921368
10	0xba5f0a6f	-0.00085083296
11	0x3a7d058c	0.00096520106
12	0x38b16986	8.459673e-05
13	0xbac1e2ac	-0.0014792285
14	0xb9a2b8a2	-0.0003103661
15	0x3a732276	0.00092748494
16	0xba9b4b52	-0.0011848009
17	0xb9b226fa	-0.00033979845
18	0xba451762	-0.0007518438
19	0x395596a6	0.00020369384
20	0x3a1eb411	0.00060540537
21	0x3a494b54	0.0007678766
22	0xb9b47411	-0.00034418752
23	0x3614e29d	2.2185625e-06
24	0x3976ee12	0.00023549076
25	0xbae27b32	-0.0017279147
26	0x3a033db0	0.00050064456
27	0xb96fb5f9	-0.00022860606
28	0x37a1e51a	1.929938e-05
29	0xba11663e	-0.00055465463
30	0xbadfa81c	-0.001706365
31	0x3ad012fa	0.0015874796
32	0xb8c3f775	-9.344417e-05
33	0xbabf11cf	-0.0014577451
34	0xb9c4bf5c	-0.00037526607
35	0xb9d74e89	-0.0004106651
36	0x3a766916	0.00093998143
37	0x38a8367e	8.021014e-05
38	0xb9b0439d	-0.00033619712
39	0x396631d3	0.0002195307
40	0x37fb19fa	2.9933628e-05
41	0xb9a8dc61	-0.00032207652
42	0x37fa488e	2.9836108e-05
43	0xba9d7a6f	-0.0012014637
44	0x39afd941	0.00033540468
45	0x3999e342	0.00029351754
46	0x39ce8678	0.0003939157
47	0x3aaa7f0b	0.0013007832
48	0x392d7e55	0.00016545628
49	0xba957655	-0.0011403064
50	0xba4bf0f5	-0.0007779741
51	0xb8cdd5ac	-9.814961e-05
52	0x397f246e	0.00024332266
53	0x398d520e	0.0002695475
54	0xb965771d	-0.00021883515
55	0x3a63fe67	0.00086972717
56	0xba93ed6e	-0.001128597
57	0xba84f03a	-0.0010142394
58	0x3ab0aa98	0.0013478575
59	0x39b75caa	0.0003497352
60	0x3a9d8c80	0.0012020022
61	0x3b01f113	0.001982753
62	0xb9e496dc	-0.00043599948
63	0x3b00c92b	0.0019651155
64	0x3a098ddb	0.00052472734
65	0x3aac2df3	0.0013136253
66	0x3ae8fbb1	0.0017775205
67	0xba6304d1	-0.00086600805
68	0x3a5c61e2	0.00084069197
69	0x3a0ce8d3	0.00053752697
70	0x38385dbf	4.3956326e-05
71	0x3a308942	0.000673432
72	0x39f1e6c2	0.0004613903
73	0x3a17fc43	0.0005797783
74	0x3ab7468a	0.0013982814
75	0xba992d01	-0.0011686386
76	0x3a68d59d	0.00088819285
77	0x3957b892	0.00020572756
78	0xb9c34334	-0.0003724337
79	0x394b5e31	0.00019394678
80	0x39c262f0	0.00037076278
81	0x3a593f15	0.0008287293
82	0xb8ffac1f	-0.000121914076
83	0x3a8e2ef8	0.0010847738
84	0xb9190ddd	-0.00014596382
85	0xba0e5195	-0.0005429027
86	0x38c22ab1	9.258593e-05
87	0x39cd36e5	0.00039141547
88	0x3ab59ffb	0.0013856882
89	0xb911360e	-0.00013848415
90	0xba802f23	-0.0009779673
91	0xb9ef82f1	-0.0004568319
92	0xba0a0706	-0.0005265329
93	0x3a0c5d89	0.0005354514
94	0x3a18f89d	0.0005835386
95	0xba1e170d	-0.00060306565
96	0xbaaeb97a	-0.0013330423
97	0xb8072eba	-3.2230026e-05
98	0x3a86c1b1	0.0010281113
99	0x3ab03b85	0.0013445473
100	0x3a1bf316	0.00059490034
101	0x399ac098	0.00029516662
102	0xb92f4137	-0.00016713595
103	0xba55ba99	-0.00081531104
104	0xba218f55	-0.0006163021
105	0x393ec6b1	0.0001819383
106	0x3a618cf4	0.00086040725
107	0xb9954798	-0.00028472836
108	0xb9a3703c	-0.00031173404
109	0xba747cee	-0.00093264773
110	0xba0684b4	-0.00051314686
111	0xb97bc5ab	-0.00024010862
112	0xb6b8367d	-5.4899706e-06
113	0x39fa1d73	0.00047705657
114	0x395ca227	0.00021041241
115	0xb9ed01b4	-0.00045205432
116	0xba9ec6c8	-0.0012113685
117	0x3a5b3f2a	0.0008363599
118	0x3ac78059	0.0015220746
119	0xb806503a	-3.2022806e-05
120	0x3a046fbd	0.00050520507
121	0x3a349112	0.0006888072
122	0xba078c6d	-0.00051707664
123	0xb8dd3435	-0.000105478255
124	0xb9a71011	-0.00031864693
125	0xb94568bd	-0.00018826402
126	0xba143238	-0.0005653235
127	0xb9a0d01f	-0.0003067264
128	0xba188491	-0.0005818094
129	0xb9645ab2	-0.00021777561
130	0xba20f760	-0.00061403774
131	0x39b996be	0.0003539826
132	0xbac4e956	-0.0015023153
133	0x3a227b05	0.0006198141
134	0x387e162d	6.0578972e-05
135	0x3b0914a4	0.0020916844
136	0xb96dd856	-0.00022682673
137	0xb9d8d50e	-0.0004135747
138	0x3985855f	0.00025467106
139	0x3a1f8ac6	0.00060860475
140	0xba0782a6	-0.00051693094
141	0xbab7b219	-0.0014014869
142	0xba0e67d1	-0.000543234
143	0xba9ada84	-0.001181439
144	0x38ceaa87	9.854609e-05
145	0x3ac4e7ab	0.0015022656
146	0xb7a08f07	-1.9140089e-05
147	0xba63c184	-0.0008688199
148	0xb82eca38	-4.1673164e-05
149	0x3837c20e	4.3811327e-05
150	0x393a0ebd	0.00017743833
151	0xb94c9fca	-0.00019514482
152	0xb9df51b5	-0.0004259475
153	0x382dab84	4.140615e-05
154	0xbaf6abdd	-0.001881953
155	0x3459ffe3	2.0302791e-07
156	0x39d859aa	0.00041265535
157	0x3ab41cd3	0.00137415
158	0xb80c508e	-3.3453623e-05
159	0x38d507b3	0.000101580656
160	0x3a6575b7	0.00087531976
161	0x3a122231	0.0005574553
162	0x3aa7d8e0	0.0012805723
163	0x3ace509a	0.0015740574
164	0x3a7aadf7	0.0009562666
165	0xba8f5624	-0.0010935706
166	0x3a9e7d0c	0.001209171
167	0xba9acc99	-0.0011810242
168	0xb80dcc71	-3.380742e-05
169	0x382534e8	3.938834e-05
170	0x3ae3f727	0.0017392383
171	0x3a28f99c	0.0006445886
172	0x39a876d0	0.0003213198
173	0x39930ab6	0.00028046005
174	0xba4ac58d	-0.0007735126
175	0x3aab1f87	0.001305566
176	0x3a01453d	0.0004931277
177	0xb951d139	-0.00020009735
178	0x3a91a220	0.0011110939
179	0x38ab5b7e	8.170957e-05
180	0xbac3d61f	-0.0014941132
181	0x3ab28f29	0.0013622987
182	0xb909150d	-0.0001307318
183	0x3921c734	0.00015428365
184	0xbae45d0f	-0.0017422753
185	0xba866673	-0.0010253921
186	0x39ed4f1e	0.0004526311
187	0x3b0b0084	0.0021210024
188	0x3a07d495	0.00051815185
189	0x39e0e1b8	0.00042892783
190	0x3921c914	0.00015429064
191	0x3aeb2e14	0.001794281
192	0x3ab0cf31	0.0013489482
193	0x39ed651a	0.0004527949
194	0xb9dc1bcc	-0.0004198238
195	0xba71df84	-0.0009226727
196	0x3a8bd818	0.0010669259
197	0x3a9680fe	0.0011482534
198	0xb9553e79	-0.00020336536
199	0x3a42c961	0.00074305205
200	0xba6e6746	-0.00090943684
201	0xb8e496b2	-0.000108999564
202	0x3b1b2040	0.0023670346
203	0xb7dba143	-2.6181928e-05
204	0xba52e883	-0.0008045511
205	0xb8d12fb6	-9.9747835e-05
206	0xb98cb131	-0.000268349
207	0x39f4be41	0.00046681057
208	0x395b1b0e	0.00020895546
209	0x399c0f03	0.00029765823
210	0xba2719ab	-0.0006374369
211	0xba19d18d	-0.00058677123
212	0x3a1158c1	0.00055445364
213	0x3a4c8e16	0.0007803155
214	0xb99425bc	-0.00028256874
215	0xb9b7d655	-0.0003506417
216	0xba4ef368	-0.0007894547
217	0x3a48a491	0.0007653917
218	0x3aaf0c9a	0.0013355196
219	0xbb027f48	-0.0019912291
220	0x3923b5cd	0.00015612617
221	0x393b4228	0.00017858355
222	0x3a3da3c6	0.0007234182
223	0xb99eaf34	-0.00030266645
224	0xb9242bcb	-0.00015656573
225	0xbb2f1a25	-0.0026718464
226	0xb908a9fa	-0.00013033292
227	0x3a9bb51c	0.0011879536
228	0x3aa131fe	0.0012298224
229	0xba495985	-0.0007680881
230	0xba733438	-0.00092774956
231	0xb9868e17	-0.00025664337
232	0xba77de09	-0.0009455388
233	0x3a19d900	0.00058688223
234	0xb8bb9dca	-8.946245e-05
235	0x3a9fa45e	0.0012179723
236	0xba0989e0	-0.000524668
237	0x39b46705	0.0003440903
238	0x3a2970e4	0.00064636604
239	0x3a8eab16	0.0010884728
240	0x3a7591d9	0.00093677413
241	0xba49ccaa	-0.0007698039
242	0x39935189	0.00028098773
243	0xba0ab9e4	-0.0005291982
244	0x3ad43419	0.0016189843
245	0xbaf9f054	-0.0019068816
246	0xba748cbd	-0.0009328833
247	0x3a1ce60e	0.00059852086
248	0x3a15cf81	0.00057148194
249	0xba4b2a45	-0.0007750134
250	0x38bda746	9.0433794e-05
251	0xb95a02e1	-0.00020791173
252	0xba495515	-0.000768022
253	0x385bb1b8	5.2379182e-05
254	0x36756d30	3.65714e-06
255	0x3a9dca8e	0.0012038515

exp_avg_sq f4 [20, 416]
0	0x378ae38a	1.6556838e-05
1	0x378a1dec	1.6464815e-05
2	0x37664010	1.3723984e-05
3	0x378012a8	1.5267477e-05
4	0x3792cc4b	1.7499688e-05
5	0x3778da2b	1.4832748e-05
6	0x3761ea26	1.3465562e-05
7	0x376d22e7	1.4134427e-05
8	0x375ab08d	1.3034919e-05
9	0x3798cae3	1.8214289e-05
10	0x379e4897	1.886887e-05
11	0x375d1fa4	1.3179993e-05
12	0x37a34311	1.9462344e-05
13	0x375450e6	1.265502e-05
14	0x37810f6b	1.5385178e-05
15	0x37a0f19b	1.9185993e-05
16	0x3781a2a6	1.5453737e-05
17	0x3774a5f2	1.45821705e-05
18	0x3771ce6b	1.441278e-05
19	0x3782e3d0	1.5603291e-05
20	0x37905599	1.7205997e-05
21	0x37a57c01	1.9727277e-05
22	0x3796e380	1.7987331e-05
23	0x376a91b2	1.3981409e-05
24	0x375d1669	1.3177844e-05
25	0x37abefb8	2.0496416e-05
26	0x37ad7207	2.0676305e-05
27	0x3778b6dc	1.4824527e-05
28	0x378bec70	1.6680191e-05
29	0x37750bfc	1.4605928e-05
30	0x378a7c9d	1.650891e-05
31	0x37b2f7d5	2.133466e-05
32	0x376a8a8b	1.3979744e-05
33	0x377b63e6	1.4984025e-05
34	0x376ed69e	1.4235875e-05
35	0x376bff95	1.4066599e-05
36	0x379991a5	1.8306842e-05
37	0x379e6fb4	1.8887084e-05
38	0x3770e009	1.4357277e-05
39	0x375e03ec	1.3233144e-05
40	0x3762edd5	1.3526024e-05
41	0x37965175	1.7919325e-05
42	0x378d5c88	1.6851598e-05
43	0x3789fc60	1.6449194e-05
44	0x37813aa8	1.5405312e-05
45	0x3773ece0	1.453908e-05
46	0x37720487	1.4425378e-05
47	0x379429b3	1.7662393e-05
48	0x3779ace2	1.4881809e-05
49	0x377d55a6	1.5099917e-05
50	0x37643a51	1.3603437e-05
51	0x377e28a7	1.5149045e-05
52	0x3789572b	1.6372263e-05
53	0x37aa7d0d	2.032381e-05
54	0x3761220d	1.3418973e-05
55	0x37826ad3	1.5546952e-05
56	0x377d9653	1.5114975e-05
57	0x3785fbaf	1.5972035e-05
58	0x37835085	1.5653912e-05
59	0x3787cae0	1.6187725e-05
60	0x372699e3	9.930201e-06
61	0x3768eea8	1.3883844e-05
62	0x3791170b	1.7296077e-05
63	0x37784175	1.4797192e-05
64	0x378c83a3	1.6750599e-05
65	0x3782e451	1.5603526e-05
66	0x379c77af	1.8652381e-05
67	0x37615df7	1.3432923e-05
68	0x378c2c63	1.670997e-05
69	0x37a22d55	1.9333014e-05
70	0x37580f1f	1.2878124e-05
71	0x378bd9a7	1.6671444e-05
72	0x3788b1ca	1.6295253e-05
73	0x378e1a7a	1.6940048e-05
74	0x3796a0e6	1.7956318e-05
75	0x37881d27	1.6226038e-05
76	0x37590ff9	1.2937927e-05
77	0x3776ddc3	1.47143755e-05
78	0x37871f05	1.6107699e-05
79	0x374c2ebe	1.2170231e-05
80	0x377a15cd	1.4906237e-05
81	0x37883fee	1.6242233e-05
82	0x377ac9b2	1.4948122e-05
83	0x3754ccb3	1.2683845e-05
84	0x3769ee3b	1.394335e-05
85	0x378c5d0c	1.6732629e-05
86	0x376edec2	1.423777e-05
87	0x3787cecb	1.618955e-05
88	0x376d7433	1.4153356e-05
89	0x3772f8c5	1.4482245e-05
90	0x3796f9af	1.7997661e-05
91	0x3766c936	1.3755916e-05
92	0x377b6c72	1.4986015e-05
93	0x37855d2e	1.5898226e-05
94	0x37855c69	1.5897867e-05
95	0x3759bcd7	1.2978176e-05
96	0x375bb7a4	1.3096174e-05
97	0x3785684e	1.5903406e-05
98	0x377ed3a3	1.5188855e-05
99	0x378f37ec	1.7072969e-05
100	0x37800ab8	1.526378e-05
101	0x375f7e34	1.332122e-05
102	0x3789574d	1.6372325e-05
103	0x3794e888	1.7751256e-05
104	0x3783e830	1.5724538e-05
105	0x3747e6f5	1.1915098e-05
106	0x3769711a	1.3914216e-05
107	0x3752f03f	1.2572912e-05
108	0x37536e5f	1.2602278e-05
109	0x376a5028	1.396615e-05
110	0x3759a7a0	1.2973236e-05
111	0x378a7ad1	1.6508073e-05
112	0x373fb4fc	1.1426626e-05
113	0x37449ab9	1.1718535e-05
114	0x376050a2	1.3370214e-05
115	0x374f19fb	1.23442105e-05
116	0x377cfa56	1.5078656e-05
117	0x37819885	1.544902e-05
118	0x37859578	1.5924437e-05
119	0x3753caeb	1.2623826e-05
120	0x3770b512	1.43472735e-05
121	0x374a9b79	1.2076337e-05
122	0x37603c9f	1.3365555e-05
123	0x3772dce3	1.4475753e-05
124	0x375080a5	1.24277185e-05
125	0x375ca35e	1.3151059e-05
126	0x377c7aab	1.5048931e-05
127	0x3786ce34	1.6070066e-05
128	0x37519c28	1.2493729e-05
129	0x375d40dd	1.3187729e-05
130	0x375eae90	1.3272875e-05
131	0x37370bcb	1.0910396e-05
132	0x37617482	1.3438172e-05
133	0x3785720d	1.5907945e-05
134	0x376d387c	1.4139452e-05
135	0x376c68c2	1.4091087e-05
136	0x3776013e	1.4663032e-05
137	0x37472566	1.1870032e-05
138	0x3783b587	1.5700947e-05
139	0x3785d861	1.5955595e-05
140	0x3744024e	1.1683047e-05
141	0x3771d5a2	1.441446e-05
142	0x375c22a7	1.312109e-05
143	0x37895704	1.6372192e-05
144	0x37636d67	1.3555727e-05
145	0x377a1d92	1.4908046e-05
146	0x3741d7fb	1.1553983e-05
147	0x37575ef7	1.2837109e-05
148	0x37830b3b	1.5621647e-05
149	0x377e2fee	1.5150739e-05
150	0x37819251	1.5446132e-05
151	0x37876971	1.6142354e-05
152	0x3764f4a2	1.3646817e-05
153	0x374f678d	1.2362271e-05
154	0x37884feb	1.6249678e-05
155	0x377a5a91	1.4922248e-05
156	0x37ac5931	2.054553e-05
157	0x37cda50d	2.4514762e-05
158	0x37a0b6b5	1.9158566e-05
159	0x37b0b462	2.1064832e-05
160	0x37d9f237	2.5981206e-05
161	0x37cc05e3	2.4321436e-05
162	0x37e03f28	2.673229e-05
163	0x37dfc0d5	2.6673466e-05
164	0x37cfb7f0	2.4761976e-05
165	0x37b769a7	2.1864498e-05
166	0x37e5dc4f	2.7401516e-05
167	0x37a7d9a7	2.0009304e-05
168	0x37840f74	1.5742822e-05
169	0x37cde4d0	2.4544453e-05
170	0x38028df2	3.1126612e-05
171	0x3799be44	1.832762e-05
172	0x379b5062	1.8514871e-05
173	0x37bf43ae	2.280049e-05
174	0x37bc0dde	2.2417804e-05
175	0x37a6a935	1.9867535e-05
176	0x37d6c89d	2.5604206e-05
177	0x37a774e0	1.9962376e-05
178	0x37cb6226	2.424519e-05
179	0x380000b5	3.0518237e-05
180	0x37d4e25d	2.5377778e-05
181	0x379e77d0	1.889086e-05
182	0x37b04038	2.101074e-05
183	0x37d9b486	2.5952479e-05
184	0x378a1a25	1.6463056e-05
185	0x37c4fb12	2.3481934e-05
186	0x37c18f65	2.3074166e-05
187	0x37b6156d	2.1706068e-05
188	0x37c96c1b	2.4011408e-05
189	0x37b067de	2.1029202e-05
190	0x37b6a0eb	2.1771024e-05
191	0x3797b0ac	1.8082872e-05
192	0x37cda6de	2.4515608e-05
193	0x37940458	1.7644998e-05
194	0x37f4c035	2.917657e-05
195	0x37f15085	2.8766934e-05
196	0x37c518f0	2.3495842e-05
197	0x37b1a4e3	2.1176826e-05
198	0x37cb962f	2.426942e-05
199	0x37ad0762	2.0626645e-05
200	0x37bd4bc6	2.256584e-05
201	0x37ef2379	2.8507538e-05
202	0x37d409cb	2.527693e-05
203	0x37a01436	1.9082898e-05
204	0x37bcff82	2.2530327e-05
205	0x37ba764b	2.2228012e-05
206	0x37c3fb26	2.3362762e-05
207	0x3795237b	1.7778706e-05
208	0x377223e8	1.4432684e-05
209	0x378b0154	1.657071e-05
210	0x375052d7	1.2417054e-05
211	0x372c00c8	1.0252181e-05
212	0x37ac2b60	2.0524196e-05
213	0x37ac9d8d	2.0577363e-05
214	0x37711338	1.4369194e-05
215	0x378bbc7e	1.6657865e-05
216	0x3777b8f0	1.4765406e-05
217	0x3736ba28	1.0891388e-05
218	0x376b54ea	1.4026862e-05
219	0x378b65b4	1.661745e-05
220	0x3781efd5	1.5489679e-05
221	0x370b8348	8.315612e-06
222	0x37538b90	1.26090745e-05
223	0x37862013	1.598898e-05
224	0x378c2a57	1.6709017e-05
225	0x37b0a20c	2.1056294e-05
226	0x3724bc20	9.818963e-06
227	0x370cd948	8.39524e-06
228	0x37a42b5e	1.9570518e-05
229	0x3785aabf	1.5934345e-05
230	0x373c9120	1.1239463e-05
231	0x37a64acc	1.9823572e-05
232	0x37855049	1.5892221e-05
233	0x3726db3d	9.945416e-06
234	0x3768ba1c	1.387161e-05
235	0x3741b304	1.1545377e-05
236	0x373e230c	1.13330425e-05
237	0x373a0666	1.1087954e-05
238	0x3785aa80	1.593423e-05
239	0x377b6b86	1.4985801e-05
240	0x37782cd7	1.4792392e-05
241	0x379d533a	1.8754614e-05
242	0x375be641	1.3107027e-05
243	0x3724bc65	9.819026e-06
244	0x379155b8	1.7325263e-05
245	0x377404a3	1.4544613e-05
246	0x3755a359	1.2733822e-05
247	0x37a771bb	1.9960911e-05
248	0x378f85a3	1.7109158e-05
249	0x37484f70	1.1939424e-05
250	0x37756509	1.4626662e-05
251	0x378755d8	1.6133228e-05
252	0x37132fb1	8.772987e-06
253	0x3734e876	1.078296e-05
254	0x37757b7e	1.4631891e-05
255	0x378e26ce	1.6945789e-05

exp_avg f4 [20, 20]
0	0x00000000	0.0
1	0x388d87bb	6.748686e-05
2	0x385b0671	5.2219668e-05
3	0xba2e7c32	-0.000665608
4	0x3a2016dd	0.00061069225
5	0xb99a58bf	-0.0002943929
6	0xb94cec8e	-0.0001954308
7	0x391ff274	0.00015253742
8	0x373475f9	1.0756304e-05
9	0x330ce1c5	3.2801626e-08
10	0xb6b7584e	-5.464105e-06
11	0xba146709	-0.00056611054
12	0x3509aa55	5.128434e-07
13	0x00000004	6e-45
14	0x390f7556	0.00013681254
15	0x390a302e	0.00013178654
16	0xb9a59c5f	-0.00031587758
17	0x386934c9	5.560069e-05
18	0x3839115f	4.4123615e-05
19	0xb86325da	-5.415627e-05
20	0xb961ab22	-0.00021521424
21	0x00000000	0.0
22	0xb954fe10	-0.00020312541
23	0xba62b498	-0.00086481264
24	0x39494923	0.000191961
25	0xb9c02073	-0.0003664527
26	0xba91cb76	-0.0011123258
27	0xb906d2cb	-0.00012857762
28	0x3833869f	4.28023e-05
29	0xb6cdc201	-6.132061e-06
30	0x374e9ed6	1.2315539e-05
31	0xb9f29b8a	-0.00046273723
32	0x354f3c19	7.720096e-07
33	0x00000004	6e-45
34	0x3848719f	4.7789534e-05
35	0xb9235537	-0.00015576636
36	0x391baf2d	0.0001484721
37	0x37eaff59	2.801388e-05
38	0xb99b8bf0	-0.00029668165
39	0xb8722372	-5.7730307e-05
40	0xbaa3cd75	-0.0012497144
41	0xb9f63f70	-0.0004696804
42	0x00000000	0.0
43	0xbad0e590	-0.0015937556
44	0xb9692bab	-0.00022236879
45	0xba5bc1a9	-0.00083830446
46	0xba84ec02	-0.0010141137
47	0xb9de14ff	-0.00042358783
48	0x37c91b8f	2.39739e-05
49	0x38c408d0	9.34765e-05
50	0x37bc33fe	2.2435557e-05
51	0xba4dbe0d	-0.0007848449
52	0xb6ea7ea0	-6.9884845e-06
53	0x80000004	-6e-45
54	0x393458af	0.00017199175
55	0xb9a07a79	-0.00030608827
56	0x39e27262	0.000431913
57	0xb9d770f4	-0.00041092152
58	0xbabea753	-0.0014545716
59	0xb9fa843b	-0.00047782235
60	0x388f3ba8	6.829883e-05
61	0x39c8f599	0.00038329957
62	0x3a2491f4	0.0006277852
63	0x00000000	0.0
64	0x3b193a6c	0.002338077
65	0x3a08151f	0.00051911356
66	0x39695fb8	0.0002225627
67	0x3a808c7b	0.0009807491
68	0x390f1ef9	0.00013649081
69	0x3a197124	0.0005853346
70	0xb71577bd	-8.908971e-06
71	0xba672352	-0.0008817214
72	0xb7580742	-1.2876293e-05
73	0x80000004	-6e-45
74	0x39a653f4	0.00031724537
75	0x3a88c8b5	0.0010435792
76	0xb9303e0c	-0.00016807782
77	0x3a29ccf0	0.00064773764
78	0xbad0e703	-0.0015937987
79	0xba60aa0d	-0.00085702614
80	0x39ef2846	0.00045615638
81	0x3a131f04	0.00056122267
82	0xb7b44eb9	-2.149433e-05
83	0xbaa8a6e8	-0.0012867125
84	0x00000000	0.0
85	0xba2c1961	-0.0006565061
86	0xb99d6d4d	-0.0003002681
87	0x3a9bd044	0.001188763
88	0x38963be1	7.163711e-05
89	0xb87767f2	-5.8986196e-05
90	0x372c7fd8	1.0281765e-05
91	0xba3d9815	-0.000723244
92	0x3689ff5f	4.1126473e-06
93	0x00000004	6e-45
94	0x39cae76e	0.0003870087
95	0x3a48cff3	0.00076603814
96	0x38a80e4c	8.013527e-05
97	0x3a4d9a6c	0.000784314
98	0x395457d2	0.00020250611
99	0x397594ca	0.00023420449
100	0xbb04e52e	-0.0020278203
101	0x3ab60293	0.0013886265
102	0x39b43536	0.0003437192
103	0xbb8ea235	-0.0043528327
104	0x3aa06ecc	0.0012240051
105	0x00000000	0.0
106	0xb9bd1826	-0.0003606688
107	0x3a441db4	0.0007481233
108	0x39ad4b69	0.00033053316
109	0x39ea9daf	0.0004474944
110	0x388f58a6	6.8352834e-05
111	0xbb02f300	-0.0019981265
112	0xb65adac5	-3.2611872e-06
113	0x00000004	6e-45
114	0xba338c67	-0.00068492297
115	0x3a840f7b	0.0010075414
116	0xb93ed4c0	-0.00018199068
117	0x3a8b8cbb	0.0010646799
118	0xbb621573	-0.0034497648
119	0xba1dd8ab	-0.0006021361
120	0xb9bb6c54	-0.0003574813
121	0x39452996	0.00018802876
122	0xb8d689f5	-0.00010230012
123	0xba8c7d56	-0.0010718505
124	0x3a1c3b5d	0.00059597736
125	0xb926f948	-0.00015923858
126	0x00000000	0.0
127	0x39de2e87	0.00042377805
128	0x387c2ad6	6.0121376e-05
129	0x381760e1	3.609143e-05
130	0x3772631b	1.4447399e-05
131	0xb9af0e58	-0.00033389288
132	0xb3e2d0f2	-1.0561952e-07
133	0x00000004	6e-45
134	0x39bb6bc8	0.00035747723
135	0x39810e74	0.00024615566
136	0x39ed66bf	0.00045280714
137	0x39b24017	0.00033998556
138	0xba1e6f8c	-0.00060438435
139	0x368015ae	3.817221e-06
140	0x39f8ef69	0.0004748062
141	0x3871c68d	5.7643792e-05
142	0xb855b1fa	-5.094891e-05
143	0x38076313	3.227878e-05
144	0x39dbec59	0.00041947028
145	0x38dd6dce	0.00010558554
146	0xb99e2f13	-0.0003017118
147	0x00000000	0.0
148	0x379522b7	1.777835e-05
149	0xb7a79404	-1.9976877e-05
150	0x348b644d	2.5963746e-07
151	0x370a58ac	8.2460865e-06
152	0x35eee0c2	1.7797795e-06
153	0x00000004	6e-45
154	0xb7fcccfa	-3.013619e-05
155	0xb7652e0d	-1.3660186e-05
156	0xb7bcdb2a	-2.2513403e-05
157	0x390a1995	0.00013170236
158	0x39003853	0.00012228014
159	0xb8e19abf	-0.0001075766
160	0xb9fa2147	-0.0004770851
161	0xb8b7908b	-8.753043e-05
162	0xb8bd68d9	-9.031752e-05
163	0xba8a2af3	-0.0010541364
164	0x3930cf26	0.00016861837
165	0xb9e9b02d	-0.00044572484
166	0xba08c391	-0.000521713
167	0x38f12616	0.000114988696
168	0x00000000	0.0
169	0x38cf1e13	9.876131e-05
170	0x379e62e1	1.8881112e-05
171	0xba171227	-0.0005762898
172	0xb6aee950	-5.2127652e-06
173	0x80000004	-6e-45
174	0xb7933c86	-1.7551949e-05
175	0x383058a3	4.204422e-05
176	0xb80e4ed8	-3.3928867e-05
177	0xb8d7b7ef	-0.00010286259
178	0xb9ef784e	-0.00045675266
179	0xb7ce75d4	-2.4611982e-05
180	0xb98990be	-0.00026238518
181	0xba15746b	-0.00057012466
182	0xb9a10840	-0.0003071446
183	0x37a24a72	1.9346571e-05
184	0xb90496b8	-0.00012644648
185	0x39315913	0.00016913218
186	0xba1cec7e	-0.0005986168
187	0xb9a44ecb	-0.00031339223
188	0xb7d5ca7e	-2.5485871e-05
189	0x00000000	0.0
190	0x37344490	1.07447995e-05
191	0x37d0a285	2.4871211e-05
192	0xb58f99dc	-1.0699109e-06
193	0x80000004	-6e-45
194	0xb883a013	-6.276383e-05
195	0xb9c65ceb	-0.00037834732
196	0xb7ee6a1b	-2.842122e-05
197	0xb97136ac	-0.00023003918
198	0xb8e55328	-0.0001093506
199	0xb983a457	-0.0002510871
200	0xb9b95ab8	-0.0003535354
201	0xb9b2ab94	-0.0003407864
202	0xb98ac576	-0.0002646853
203	0xb98cbb49	-0.0002684242
204	0xb801a2c5	-3.0907588e-05
205	0xb8209a61	-3.829075e-05
206	0xb9ea4fb8	-0.00044691353
207	0xb984de36	-0.00025342562
208	0x363f13fa	2.8472846e-06
209	0xb77823f4	-1.4790323e-05
210	0x00000000	0.0
211	0xb8e52e0b	-0.00010928147
212	0xb6a8c1a9	-5.029335e-06
213	0x80000004	-6e-45
214	0xb93b9905	-0.00017890714
215	0xb97a8f6e	-0.0002389529
216	0xb91d143a	-0.00014980222
217	0xb98dba26	-0.00027032307
218	0xb983fc1f	-0.00025174112
219	0xb9abf5a5	-0.0003279868
220	0x3968383d	0.00022146195
221	0x38a6f065	7.960274e-05
222	0x3a04dd0b	0.00050683384
223	0xbad3c9d9	-0.0016158178
224	0x3af5a36d	0.0018740721
225	0x39b136a5	0.00033800784
226	0x3893c145	7.0455055e-05
227	0x3a22cb67	0.0006210119
228	0x38ff3b34	0.00012170375
229	0x3a22f0d7	0.00062156975
230	0xb73b25b2	-1.1154845e-05
231	0x00000000	0.0
232	0xb76218b4	-1.3476401e-05
233	0x80000004	-6e-45
234	0x39dfc394	0.00042679592
235	0x3a3aef51	0.0007130998
236	0x38be37c7	9.070295e-05
237	0x3a156447	0.00056988414
238	0xbab3b772	-0.0013711287
239	0xba8a294d	-0.0010540873
240	0x399fa428	0.0003044915
241	0x39825d59	0.00024865082
242	0x397857d5	0.00023683843
243	0x39f32eb2	0.00046383362
244	0x39a02a7f	0.0003054924
245	0x3a03e220	0.00050309487
246	0x39994d34	0.00029239955
247	0x39d7675f	0.00041085013
248	0x38aaeebc	8.1506994e-05
249	0x3846195e	4.7230504e-05
250	0x3816e37c	3.597465e-05
251	0x39c3c9b5	0.00037343582
252	0x00000000	0.0
253	0x00000004	6e-45
254	0x39ffe1ed	0.00048805718
255	0x398290c9	0.00024903406

exp_avg_sq f4 [20, 20]
0	0x00000000	0.0
1	0x360de8ed	2.1146218e-06
2	0x35632e97	8.4631887e-07
3	0x36b30f1c	5.3363747e-06
4	0x358d29b7	1.0517459e-06
5	0x3638c6d6	2.7533874e-06
6	0x368a49d2	4.1213143e-06
7	0x363dc2fe	2.8276695e-06
8	0x329d2283	1.82929e-08
9	0x32f42474	2.8421915e-08
10	0x3092d1bd	1.0682509e-09
11	0x3640bd28	2.8720333e-06
12	0x32aa62c4	1.9835518e-08
13	0x2fd5cbe9	3.888936e-10
14	0x35f29202	1.8072899e-06
15	0x35e7e1bd	1.727654e-06
16	0x35890826	1.0209667e-06
17	0x35d1dd1f	1.5636068e-06
18	0x358371c6	9.793373e-07
19	0x34f95496	4.644141e-07
20	0x360ae7f5	2.069862e-06
21	0x00000000	0.0
22	0x3584552e	9.859557e-07
23	0x367f033b	3.7999841e-06
24	0x35a50472	1.2294752e-06
25	0x36b0da13	5.270596e-06
26	0x369170a2	4.334449e-06
27	0x36115c7b	2.1660514e-06
28	0x3240c180	1.1219868e-08
29	0x32f1fc14	2.8170724e-08
30	0x30aa68a3	1.2398867e-09
31	0x35d635ab	1.5959862e-06
32	0x3250d371	1.215527e-08
33	0x2f1f47ca	1.448647e-10
34	0x36092d53	2.0440973e-06
35	0x35a46577	1.2248482e-06
36	0x35339f6e	6.6914697e-07
37	0x35c8323a	1.4915779e-06
38	0x35672e20	8.6121327e-07
39	0x350e4f23	5.301428e-07
40	0x3769bb31	1.3931466e-05
41	0x37489fd0	1.1958138e-05
42	0x00000000	0.0
43	0x379e1c4e	1.8848248e-05
44	0x361640b0	2.2389395e-06
45	0x373a1e97	1.1093586e-05
46	0x37d63352	2.5534686e-05
47	0x377bb53c	1.5002963e-05
48	0x33cc9821	9.527162e-08
49	0x34d79924	4.0158295e-07
50	0x31e0a359	6.5378285e-09
51	0x371c6d1c	9.323729e-06
52	0x33e29ca2	1.05524364e-07
53	0x30459b39	7.1888767e-10
54	0x379291e7	1.7472497e-05
55	0x36f210aa	7.214102e-06
56	0x36d02dc3	6.2042104e-06
57	0x374aa3d4	1.2078282e-05
58	0x36f113dd	7.184672e-06
59	0x36b7ae73	5.4741336e-06
60	0x37e580e3	2.7358945e-05
61	0x38c9bcd3	9.619598e-05
62	0x381ae371	3.6928282e-05
63	0x00000000	0.0
64	0x37eccdd1	2.8229233e-05
65	0x37dc6e2a	2.6277343e-05
66	0x3912cb12	0.00013999295
67	0x38ad6e8b	8.269873e-05
68	0x352d0ca0	6.4465894e-07
69	0x36343c13	2.6857058e-06
70	0x32c6e902	2.3156193e-08
71	0x360e6b84	2.1222231e-06
72	0x35b4435a	1.3430647e-06
73	0x31bf290a	5.563497e-09
74	0x383fe250	4.574872e-05
75	0x3895700b	7.125743e-05
76	0x369bfc2e	4.6487175e-06
77	0x385edd68	5.3135125e-05
78	0x36d2ad14	6.2786366e-06
79	0x37dc8621	2.6288502e-05
80	0x3710af3c	8.623869e-06
81	0x3721316b	9.607854e-06
82	0x3690343a	4.2976144e-06
83	0x370c0082	8.3447685e-06
84	0x00000000	0.0
85	0x36b2a5d9	5.3241206e-06
86	0x378636ac	1.5999503e-05
87	0x37312869	1.0559431e-05
88	0x3393c932	6.881818e-08
89	0x3493288c	2.7410385e-07
90	0x3180fd27	3.7540704e-09
91	0x3699a1aa	4.5785755e-06
92	0x33be5593	8.86313e-08
93	0x30b4533c	1.312038e-09
94	0x36ad8b93	5.1720504e-06
95	0x36e0508d	6.6850976e-06
96	0x35e9c989	1.7418507e-06
97	0x36bfae6e	5.71255e-06
98	0x3646a5ac	2.9600733e-06
99	0x363232d7	2.655366e-06
100	0x386cf17d	5.6491688e-05
101	0x3801abfe	3.0916177e-05
102	0x378942df	1.6362812e-05
103	0x3893b3cf	7.042998e-05
104	0x370b5e72	8.307035e-06
105	0x00000000	0.0
106	0x3846419a	4.7267975e-05
107	0x3838642f	4.396232e-05
108	0x348d3b32	2.6306367e-07
109	0x3582a96f	9.735066e-07
110	0x32c7654e	2.3212717e-08
111	0x3845c770	4.71542e-05
112	0x34b2011e	3.3155897e-07
113	0x30e8de1e	1.6943351e-09
114	0x37fa800b	2.9861947e-05
115	0x37c66496	2.3650278e-05
116	0x37d82c6d	2.5769894e-05
117	0x37c2cae4	2.322108e-05
118	0x37f034f2	2.8634884e-05
119	0x373c3037	1.1216899e-05
120	0x369ff62e	4.7672283e-06
121	0x35b49a0c	1.3455879e-06
122	0x356ae9c0	8.7511944e-07
123	0x36fa1b01	7.4537243e-06
124	0x3603b5d6	1.9626364e-06
125	0x370a8343	8.256003e-06
126	0x00000000	0.0
127	0x366c7716	3.5236058e-06
128	0x3238b885	1.07521645e-08
129	0x330d3191	3.28742e-08
130	0x30a29242	1.182862e-09
131	0x363871b4	2.748432e-06
132	0x32599ff5	1.2667432e-08
133	0x2f154058	1.357433e-10
134	0x36287ce4	2.5106647e-06
135	0x35cb1aeb	1.5132513e-06
136	0x359de0e9	1.1762869e-06
137	0x35d50d13	1.5873542e-06
138	0x361c6c94	2.3309012e-06
139	0x35206e01	5.976472e-07
140	0x35a14f01	1.2018428e-06
141	0x3596cbaa	1.1235145e-06
142	0x35ad5241	1.2913443e-06
143	0x3672d82d	3.618664e-06
144	0x3503138a	4.8829736e-07
145	0x3624caf7	2.4556045e-06
146	0x36262fc3	2.4763729e-06
147	0x00000000	0.0
148	0x321af991	9.020725e-09
149	0x333df328	4.422614e-08
150	0x30538fb2	7.6965556e-10
151	0x3600fa91	1.9219335e-06
152	0x325eb5e9	1.2963462e-08
153	0x2fbb94da	3.4120867e-10
154	0x35e40c53	1.6990911e-06
155	0x34ecf14d	4.4133995e-07
156	0x352765fe	6.2360766e-07
157	0x3594d0f9	1.1087678e-06
158	0x3521b2dc	6.023745e-07
159	0x3520bd0b	5.987974e-07
160	0x37130264	8.762439e-06
161	0x37ba3bec	2.2200831e-05
162	0x3742394c	1.1576642e-05
163	0x36f6761a	7.34512e-06
164	0x36a2e8d0	4.855079e-06
165	0x36ca912f	6.0369707e-06
166	0x37eba3b1	2.8090408e-05
167	0x37873c38	1.6121296e-05
168	0x00000000	0.0
169	0x356cfef1	8.828784e-07
170	0x320b604b	8.112759e-09
171	0x366a9872	3.4957452e-06
172	0x34af418d	3.2643985e-07
173	0x31025008	1.8962982e-09
174	0x372071b8	9.56322e-06
175	0x375b7052	1.3079569e-05
176	0x35c77f32	1.4863674e-06
177	0x3746f806	1.1859467e-05
178	0x35cd0719	1.5275756e-06
179	0x36c40fbd	5.8430874e-06
180	0x35a94ceb	1.2613867e-06
181	0x365fc573	3.334452e-06
182	0x36338554	2.6750686e-06
183	0x35552b7e	7.941197e-07
184	0x3504964e	4.9392554e-07
185	0x34e8032f	4.3215684e-07
186	0x369ab7b8	4.6109453e-06
187	0x362ad13d	2.5453767e-06
188	0x330e0fc2	3.3076283e-08
189	0x00000000	0.0
190	0x30d440c0	1.5443433e-09
191	0x34fdbc69	4.726201e-07
192	0x32b1e0c4	2.0707724e-08
193	0x2f096290	1.2495094e-10
194	0x363beb26	2.8002046e-06
195	0x35f70a7d	1.8405987e-06
196	0x350fd601	5.358307e-07
197	0x3625f40f	2.4728977e-06
198	0x3498348b	2.8350436e-07
199	0x35d3b45b	1.5773215e-06
200	0x3505e669	4.988165e-07
201	0x3600cb38	1.9191775e-06
202	0x35c180dc	1.4417124e-06
203	0x352bec61	6.404644e-07
204	0x34800176	2.384292e-07
205	0x34cb7fc4	3.7904658e-07
206	0x3611dd13	2.1735366e-06
207	0x3589f8ea	1.0279739e-06
208	0x332b75cb	3.9921172e-08
209	0x34742f1f	2.2741413e-07
210	0x00000000	0.0
211	0x34b7f51c	3.4264747e-07
212	0x33c36971	9.099575e-08
213	0x3061d1eb	8.2152835e-10
214	0x356682f5	8.5872244e-07
215	0x357bbffc	9.378416e-07
216	0x34546bf2	1.9783309e-07
217	0x3589816b	1.0244961e-06
218	0x33cb0de0	9.455448e-08
219	0x3543bc3c	7.291708e-07
220	0x37fad112	2.9899678e-05
221	0x38e407a9	0.00010873314
222	0x384ac041	4.8339603e-05
223	0x373dd797	1.1315474e-05
224	0x37ca55d0	2.4120236e-05
225	0x37c9251f	2.3978353e-05
226	0x3920d433	0.0001533784
227	0x38c511e5	9.397025e-05
228	0x353c293c	7.009546e-07
229	0x3663f76a	3.396965e-06
230	0x32db23b5	2.5511193e-08
231	0x00000000	0.0
232	0x35c75497	1.4851274e-06
233	0x32174d96	8.806998e-09
234	0x3873a274	5.808701e-05
235	0x38a3ff6d	7.8200224e-05
236	0x36f11636	7.1849454e-06
237	0x388ae635	6.623232e-05
238	0x36eb9b17	7.0216006e-06
239	0x37ff530b	3.0437039e-05
240	0x35cda1f3	1.5320824e-06
241	0x35fb36ee	1.8716944e-06
242	0x35901857	1.073592e-06
243	0x360e92aa	2.1245019e-06
244	0x352c2576	6.4129506e-07
245	0x35f361eb	1.8133409e-06
246	0x3636e324	2.7252327e-06
247	0x35d815ca	1.6099596e-06
248	0x32fcf6e3	2.9448932e-08
249	0x34038129	1.2247314e-07
250	0x315c957b	3.2099183e-09
251	0x35b31eee	1.3345541e-06
252	0x00000000	0.0
253	0x2f90461d	2.6243266e-10
254	0x35c49948	1.4647749e-06
255	0x35c76f81	1.4859107e-06
