checkpoints/RNN_246.pt (torch, 111359 bytes, 9 tensors)

snn.l1.input_weights f4 [20, 416]
0	0x3f0e4c1d	0.5558489
1	0x3fc6eec0	1.5541611
2	0x3f88772c	1.0661368
3	0x3f256c6d	0.6461857
4	0xbe5b414a	-0.21411625
5	0x3f7fb1bb	0.9988057
6	0x3ede588f	0.4342694
7	0x3f851d3c	1.0399547
8	0x3f13569f	0.5755405
9	0x3fa59fbd	1.2939373
10	0x3f8cdc0a	1.100465
11	0x3ec229a7	0.37922403
12	0x3ed57692	0.41692024
13	0xbf301fba	-0.6879841
14	0x3fb1436e	1.3848703
15	0x3e9c3c4f	0.30514762
16	0xbd6990d9	-0.057022903
17	0x3f0ca828	0.54944086
18	0x3eb057b4	0.34441912
19	0x3c0c9ab6	0.008581808
20	0x3fa3b115	1.2788416
21	0x3f1dd25c	0.6164911
22	0x3f7651b4	0.9621842
23	0x3f54e055	0.83154804
24	0x3f960c4b	1.1722502
25	0x3fb0f9e0	1.3826256
26	0x3f3188c9	0.6934934
27	0x3f5dde63	0.8666746
28	0x3f8b3d1c	1.0878024
29	0x3e86ba2f	0.26313922
30	0x3fbc54fe	1.4713438
31	0x3fb322c1	1.3994981
32	0x3f50ae05	0.8151553
33	0x3e2193dd	0.15779062
34	0x3e612b67	0.21989213
35	0x3ebe258f	0.3713803
36	0x3fd8caee	1.6936929
37	0x3f48b390	0.7839899
38	0x3def0ad1	0.11671985
39	0x3f80f322	1.0074198
40	0x3eb3636e	0.35036796
41	0x3fc8a49e	1.5675237
42	0x3f236e55	0.6384023
43	0x3fbea0bd	1.4892803
44	0x3fb28045	1.3945395
45	0x3f505c67	0.81390995
46	0x3fb36446	1.4014976
47	0x3f20bf12	0.6279155
48	0x3f5e8498	0.8692107
49	0xbf0c2a78	-0.547523
50	0x3f2a403c	0.66504264
51	0x3f0b00af	0.5429792
52	0x3fe2dcad	1.7723595
53	0x3fd95d47	1.6981591
54	0x3fa2fe0f	1.2733783
55	0x3fd4396a	1.6580021
56	0x3f9d9ab3	1.2312835
57	0x3fce22a5	1.6104323
58	0x400daa6e	2.2135272
59	0x40019eef	2.0253255
60	0x401365d3	2.3030899
61	0x3f8e30f8	1.1108694
62	0x400d124c	2.2042418
63	0x3fb217a1	1.3913461
64	0x400cf0ae	2.20219
65	0x4014503a	2.3173966
66	0x3fea7df4	1.8319688
67	0x4025b0eb	2.5889232
68	0x4000884d	2.0083191
69	0x3fb51bf9	1.4149162
70	0x3e89666c	0.26835954
71	0x3f4cec61	0.80048186
72	0x3fbb76a5	1.4645582
73	0x4006dffc	2.107421
74	0x3fe859f0	1.8152447
75	0x3fcccd9c	1.6000247
76	0x4013d2dc	2.3097448
77	0x3fc4d690	1.5377979
78	0x401c2888	2.4399738
79	0x3fbffcea	1.4999058
80	0x401ebf76	2.4804358
81	0x4010ebc9	2.2643912
82	0x3faf35b5	1.3688265
83	0x40222c1d	2.5339425
84	0x3feee597	1.8663815
85	0x3fbd85b4	1.4806428
86	0x3f706b63	0.9391386
87	0x3fdf6fcd	1.7455994
88	0x3f9ceaac	1.2259116
89	0x3fe0b1d0	1.7554264
90	0x400444a4	2.0666895
91	0x4003532a	2.051951
92	0x401f8178	2.4922771
93	0x40033be9	2.0505316
94	0x3fffc3a5	1.9981581
95	0x3fbacf41	1.4594499
96	0x3fe42a8c	1.7825484
97	0x4021629f	2.5216444
98	0x3fb09ec4	1.3798451
99	0x401a5235	2.4112675
100	0x3f8e7e43	1.1132282
101	0x3f065183	0.52468127
102	0x3fc2ba48	1.5213099
103	0x400727ba	2.1117997
104	0x40145996	2.317968
105	0x4010c6cc	2.2621336
106	0x40001938	2.0015392
107	0x3fd9553e	1.6979139
108	0x4014c657	2.3246057
109	0x404b5633	3.1771362
110	0x3ff82989	1.9387676
111	0x40385d14	2.880681
112	0x3ff2857f	1.894699
113	0x4005f1ed	2.092891
114	0x403bb89a	2.9331422
115	0x4035778a	2.835421
116	0x401b2643	2.4242103
117	0x3fec57ce	1.8464296
118	0x3fddab12	1.7317832
119	0x4023c3f9	2.5588362
120	0x400fc5af	2.2464406
121	0x4004fe13	2.0780075
122	0x3fe4a4f3	1.7862839
123	0x4008e15d	2.138755
124	0x40258cf3	2.5867279
125	0x401b6ed9	2.4286406
126	0x400f2f98	2.23728
127	0x400f6dbc	2.2410727
128	0x3fefa1cf	1.8721255
129	0x40061c59	2.0954802
130	0x402a5256	2.6612754
131	0x405b1392	3.4230695
132	0x403933ba	2.8937821
133	0x3fb7326c	1.4312263
134	0x3faf3f8a	1.3691266
135	0x3fbd5e60	1.4794426
136	0x401db953	2.4644363
137	0x401caff7	2.44824
138	0x3fe879bc	1.816215
139	0x3ffce345	1.9756857
140	0x4014b557	2.323568
141	0x3fe755d6	1.807307
142	0x401d0687	2.4535234
143	0x40078206	2.117311
144	0x40098eff	2.1493528
145	0x402bbfab	2.6835735
146	0x403687bf	2.8520353
147	0x407192d8	3.7745876
148	0x40401070	3.0010033
149	0x3fb4f9f0	1.4138775
150	0x3fea2040	1.8291092
151	0x3ff11c19	1.88367
152	0x403527b3	2.830548
153	0x4010d0e5	2.26275
154	0x3fd76e8b	1.683061
155	0x40272c14	2.6120653
156	0xbcdc0f73	-0.026862836
157	0x3f6f6a11	0.9352122
158	0x3f6b2634	0.9185517
159	0x3f4b1f39	0.79344517
160	0x3fa1a446	1.2628257
161	0x3ebe3833	0.37152252
162	0x3f9c4927	1.2209824
163	0x3fdf7b2b	1.7459463
164	0x3fa4ed69	1.2884952
165	0x3f79f006	0.9763187
166	0x3f8b5883	1.0886387
167	0x3f92c0a6	1.1465042
168	0x3f986d8e	1.1908433
169	0x3f218df7	0.63107246
170	0x3f23015f	0.6367397
171	0x3e071f08	0.13195431
172	0x3e902d33	0.28159484
173	0x3f2b4a04	0.66909814
174	0x3d85f1ad	0.065402366
175	0x3f2f4026	0.6845726
176	0x3f4b5bda	0.7943703
177	0x3dc31954	0.09526315
178	0x3fdbcd66	1.7172058
179	0x3fbe2d7f	1.4857634
180	0x3f92b927	1.1462754
181	0x3f018ed6	0.50608575
182	0x3f05ac6a	0.5221621
183	0x3f9711ad	1.1802269
184	0x3fc13ac5	1.509606
185	0x3f6fb5a1	0.9363652
186	0x3f97e644	1.1867146
187	0x3f85c2f2	1.0450118
188	0x3d819866	0.06327896
189	0x3e730112	0.23730877
190	0x3f80720b	1.0034803
191	0x3f214d3f	0.63008493
192	0x3f1ea292	0.6196681
193	0xbe8a29a5	-0.26984897
194	0x3fd9346c	1.6969123
195	0x3f89b509	1.0758373
196	0x3f9f4e4e	1.2445772
197	0x3f2a86f3	0.66612166
198	0x3f02a0c7	0.51026577
199	0x3faa0951	1.3284093
200	0x3f95915d	1.1684986
201	0x3f65fcfa	0.89839137
202	0x3f867202	1.0503542
203	0x3f8c8ca9	1.0980426
204	0x3f3e1afd	0.7425993
205	0x3f44a0e7	0.7680802
206	0x3ec62179	0.38697413
207	0x3f65da4a	0.8978621
208	0x3e559591	0.20857836
209	0x3f864dd8	1.0492506
210	0x3ef2147c	0.47281253
211	0x3f1ff6ca	0.62485945
212	0x3f3aec58	0.7301688
213	0x3f0f7cc1	0.56049734
214	0xbef16d7c	-0.47153842
215	0x3f06123f	0.5237159
216	0x3e11ad19	0.14226188
217	0x3ef62f84	0.48083127
218	0x3f1e3887	0.61805004
219	0xbee1a298	-0.44069362
220	0x3ec3d57a	0.38248807
221	0xbe5876ba	-0.2113904
222	0xbf04b735	-0.5184205
223	0x3bfbe8da	0.00768767
224	0x3daae0f9	0.083436914
225	0x3faa3847	1.3298424
226	0x3e8fed9f	0.28110978
227	0x3ee7b65f	0.45256326
228	0x3f9e5505	1.2369696
229	0x3e75e780	0.24014091
230	0xbf23931d	-0.6389635
231	0x3eeaa194	0.458264
232	0xbe0f5cd0	-0.14000249
233	0x3e929a71	0.28633454
234	0x3e41d5ea	0.18929258
235	0x3d43ae24	0.047773495
236	0x3f5f9648	0.87338686
237	0x3f21f4cc	0.63264155
238	0x3e598021	0.21240284
239	0xbe278e07	-0.16362773
240	0x3e840077	0.25781605
241	0x3e3f55d8	0.1868509
242	0x3f22e2bb	0.63627213
243	0xbde257b0	-0.11051881
244	0x3f6dadba	0.9284321
245	0xbec0760a	-0.37590057
246	0xbe9e8b94	-0.30965865
247	0x3fb66442	1.4249346
248	0xbd9b38c5	-0.07579187
249	0x3e2b0094	0.1669944
250	0x3ef2a607	0.47392294
251	0xbece46bc	-0.4028834
252	0x3e883fcc	0.26611173
253	0x3f6e8676	0.9317392
254	0xbe67d8e1	-0.22641326
255	0xbf0e909a	-0.55689394

snn.l1.recurrent_weights f4 [20, 20]
0	0x00000000	0.0
1	0x40557515	3.3352711
2	0xbf4a9db8	-0.7914691
3	0x40c2042e	6.06301
4	0xbf1b6e61	-0.607153
5	0xc0047c1a	-2.0700746
6	0x3de5e7a4	0.112258226
7	0xc06c473f	-3.6918485
8	0x40bea8a3	5.9580855
9	0x4034afae	2.8232226
10	0x4056b0e5	3.3545468
11	0x40e59671	7.1746144
12	0x40ceb564	6.4596424
13	0x405bb71d	3.4330513
14	0xc01a9bab	-2.4157512
15	0xbf879c2f	-1.0594538
16	0x4065657b	3.5843189
17	0xc09f4e66	-4.97832
18	0x40146a03	2.3189704
19	0x3f527875	0.8221505
20	0xc029c89b	-2.652869
21	0x00000000	0.0
22	0x416f2b8f	14.948134
23	0x410dbba3	8.85831
24	0xc0eb3a8b	-7.3508964
25	0x409dc2f9	4.9300504
26	0x4151b52a	13.1067295
27	0xc10e81ce	-8.906691
28	0x40d0a067	6.5195804
29	0x40827edb	4.0779853
30	0x40647b77	3.5700357
31	0x41174dec	9.456524
32	0x4153579e	13.208891
33	0x4094e2db	4.6526923
34	0xbf9a8406	-1.207154
35	0x40c0328b	6.00617
36	0xc047f5e9	-3.1243842
37	0x40167682	2.3509831
38	0xc003dea0	-2.060463
39	0x3ff2fa38	1.8982611
40	0x3f899ee7	1.0751618
41	0x40d2d5a5	6.5885797
42	0x00000000	0.0
43	0x4111abb3	9.104419
44	0xc02fdf17	-2.7479913
45	0x40f38771	7.6102834
46	0x412d03d6	10.8134365
47	0xbf79206d	-0.973151
48	0x40041e9b	2.064368
49	0x409626c4	4.692232
50	0x3ff55dbd	1.9169232
51	0x412d1381	10.817262
52	0x4113effd	9.246091
53	0x4082fe68	4.0935555
54	0x40d0809d	6.5157
55	0x40b62273	5.691705
56	0xbee6092b	-0.4492887
57	0x410b358a	8.700571
58	0x4082dd0c	4.0894833
59	0x403afd19	2.9216979
60	0x3ba071d5	0.0048963823
61	0x4048732e	3.13203
62	0xbf1adf1b	-0.6049668
63	0x00000000	0.0
64	0x3ece1d2b	0.40256628
65	0xc06102b4	-3.51579
66	0x4049614a	3.146563
67	0x401e67c9	2.4750845
68	0x408751b2	4.2287226
69	0x3f555e8e	0.83347404
70	0x402acf62	2.6689076
71	0x419bdc24	19.48249
72	0x40a8d42a	5.275899
73	0x3fb9fe5e	1.4530752
74	0x40234636	2.5511603
75	0xc05ff6cc	-3.4994383
76	0x40251158	2.5791836
77	0x411560f2	9.336168
78	0x411eb743	9.919742
79	0xbebee768	-0.37285924
80	0xc093b402	-4.6157236
81	0x3fde1650	1.7350559
82	0x408cc674	4.399225
83	0x41010285	8.063115
84	0x00000000	0.0
85	0xc09e4bca	-4.9467516
86	0x4068109b	3.6260135
87	0xc0f1cdb5	-7.5563607
88	0x40ab10a5	5.345782
89	0x3fc4b259	1.5366927
90	0x4035cabf	2.8404996
91	0x40f72678	7.723446
92	0x40ade9a5	5.434771
93	0x3fc710f1	1.5552045
94	0xc0a8b86c	-5.2725124
95	0xbfe19d0a	-1.762605
96	0x3f6576bb	0.89634293
97	0xc095a0f5	-4.675898
98	0xc0d55208	-6.6662636
99	0xbe19e464	-0.1502853
100	0xbe764254	-0.2404874
101	0x400500ab	2.0781658
102	0x408d8a17	4.4231067
103	0xbf910fac	-1.1332908
104	0xbdeece45	-0.116604365
105	0x00000000	0.0
106	0x3fa9d947	1.3269433
107	0x3f1b86af	0.60752386
108	0x40a7aa03	5.2395034
109	0x402eeece	2.7333255
110	0x403c706a	2.9443612
111	0x3f8c6969	1.0969669
112	0x40b3f1f1	5.623284
113	0x4083d95f	4.1202846
114	0x40bb3033	5.8496337
115	0x3e3694da	0.1783022
116	0x3f3fd177	0.74928993
117	0xbcb481c2	-0.02203453
118	0x4052f970	3.2964745
119	0x3f917087	1.1362466
120	0x3fdb4985	1.7131811
121	0x4033cf38	2.8095226
122	0x408a9b73	4.3314757
123	0x40b7e590	5.746773
124	0xc00c5701	-2.1928103
125	0x40bef230	5.967064
126	0x00000000	0.0
127	0x3f21bdc4	0.63180184
128	0x402395f5	2.5560277
129	0x3fde869a	1.7384827
130	0x3f2e55f6	0.68099916
131	0x409577d9	4.67088
132	0x409306aa	4.5945635
133	0x3ff1798e	1.886522
134	0x3ffa2ee8	1.9545565
135	0xbe6b2034	-0.22961503
136	0xc082b54a	-4.08463
137	0x4107c529	8.485635
138	0x4098fdaf	4.780967
139	0x3fa89dab	1.3173116
140	0xc07627a6	-3.84617
141	0x41239e46	10.226141
142	0x40ebe6fa	7.3719454
143	0xbfca5e30	-1.5809994
144	0x41173900	9.451416
145	0xc0bd775c	-5.92082
146	0xc1057918	-8.342064
147	0x00000000	0.0
148	0x40be8100	5.953247
149	0x3fddae6d	1.7318856
150	0x403f43d6	2.9885154
151	0x40030af6	2.047544
152	0x41030b46	8.190252
153	0x40621659	3.532614
154	0xc098d7e2	-4.776353
155	0x40e2e5dc	7.090559
156	0x3efb1d0f	0.49045607
157	0xc1158d4c	-9.346996
158	0xc08bc2c3	-4.3675246
159	0x3f9d2407	1.227662
160	0xc187bb38	-16.966415
161	0x406b4dd0	3.6766243
162	0x3f558a41	0.83414084
163	0xbfafc382	-1.3731539
164	0xc198d287	-19.102797
165	0xc14b1ad8	-12.694054
166	0xc0b24428	-5.57082
167	0xc1ba7734	-23.308205
168	0x00000000	0.0
169	0xbe4b040c	-0.19825763
170	0x407493a9	3.8215125
171	0xc020d1a7	-2.5127962
172	0x410d02fb	8.813228
173	0x400619c4	2.0953226
174	0xc14a516c	-12.644878
175	0xc09faa37	-4.989528
176	0xc0d037f9	-6.5068326
177	0xc1812c6a	-16.146687
178	0xc16bf45a	-14.747156
179	0xbfc93da6	-1.5721939
180	0xc184bede	-16.593197
181	0x408a27b7	4.317348
182	0x40ce8ad6	6.4544477
183	0xc10ad49b	-8.676906
184	0xc19de398	-19.73613
185	0xc11f1093	-9.941546
186	0xc0c1eea7	-6.0603824
187	0xc1b4c1b5	-22.594584
188	0x40bfe9c4	5.997286
189	0x00000000	0.0
190	0x4063e73f	3.5609891
191	0xc0e3ea14	-7.122324
192	0x40f9cf2f	7.806541
193	0x4098b249	4.7717633
194	0xc0f7bb83	-7.7416396
195	0xc0b1409f	-5.5391383
196	0xc0824e2a	-4.0720415
197	0xc15f849f	-13.969878
198	0xc15bb678	-13.732048
199	0x3f98c022	1.1933634
200	0xc19dbc0a	-19.716816
201	0x3f5b7d59	0.8573814
202	0x404096b5	3.0091984
203	0xc0c1772b	-6.045797
204	0xc1a2620d	-20.297876
205	0xc16a4bbd	-14.643491
206	0xc11ef4ab	-9.934733
207	0xc1d078f4	-26.05906
208	0x40ecccba	7.399991
209	0x40301fac	2.751933
210	0x00000000	0.0
211	0xc0d350d4	-6.6036167
212	0x40cf2f71	6.474541
213	0x4066dd92	3.6072736
214	0xc151f989	-13.123422
215	0xc11b9b0c	-9.725353
216	0xc0d7bcd1	-6.741799
217	0xc19ad42f	-19.353605
218	0xc1809e64	-16.07734
219	0xbedf23d3	-0.4358202
220	0x3f240c65	0.6408141
221	0x3fab6ff0	1.3393536
222	0xbf62bd7b	-0.88570374
223	0x41730262	15.188082
224	0xbfbf00c2	-1.4922106
225	0x3f745aa3	0.954508
226	0x4011ed00	2.2800903
227	0x3fd91357	1.6959027
228	0x3fe6626a	1.7998784
229	0x3e49b924	0.19699532
230	0x3f3c179a	0.73473513
231	0x00000000	0.0
232	0x406dadab	3.7137249
233	0x3fe74c08	1.8070078
234	0x3fc39b14	1.5281701
235	0xbffc2623	-1.9699138
236	0xbfac8606	-1.3478401
237	0x40fbd086	7.8692045
238	0x4101a44c	8.102612
239	0x3d8a4de6	0.06753139
240	0xc11a1275	-9.629506
241	0x410c5b07	8.772223
242	0x40f85be0	7.761215
243	0x402402b4	2.562665
244	0xc161d1fc	-14.113766
245	0xc0283b30	-2.6286125
246	0x40828ad1	4.0794454
247	0xc17d1641	-15.817933
248	0x40ef673b	7.4813514
249	0x3fd95565	1.6979185
250	0x40940221	4.62526
251	0x403a8141	2.914139
252	0x00000000	0.0
253	0x407be953	3.936116
254	0xc0f1c285	-7.554995
255	0xbf58bd46	-0.8466381

snn.fc_out.weight f4 [9, 20]
0	0xc09e40c3	-4.9454055
1	0x402395c2	2.5560155
2	0x408b5f76	4.355403
3	0xc1398588	-11.5951
4	0xbf41e57f	-0.7574081
5	0xc110a28c	-9.039684
6	0xc0e655eb	-7.197988
7	0x4113be24	9.233921
8	0xc0566f53	-3.3505447
9	0xbd986601	-0.07441331
10	0xbfad5c6c	-1.354383
11	0xc12d4914	-10.830341
12	0xc01a7f1a	-2.4140077
13	0xbfa6a67f	-1.301956
14	0xc08646e4	-4.1961536
15	0x40ec5959	7.3859067
16	0x40970609	4.7194867
17	0xc0402a8a	-3.0025964
18	0xc0d4dd10	-6.651985
19	0xbe685c37	-0.22691427
20	0xc045c86f	-3.0903585
21	0x3faeed40	1.3666153
22	0x410fb7fb	8.982417
23	0xc0633a86	-3.550447
24	0xbf984d3b	-1.1898569
25	0x40384723	2.8793418
26	0x3f09a2ee	0.53764236
27	0xbfd66706	-1.675019
28	0x3f0dad10	0.553422
29	0x402614fc	2.5950308
30	0x3ff477d9	1.9099075
31	0xbfe22d2a	-1.7670033
32	0x402070a7	2.5068758
33	0x3facc811	1.3498555
34	0x4082343f	4.0688777
35	0xc0cbee6e	-6.372855
36	0xbf53faa4	-0.8280432
37	0x4007fd0e	2.1248202
38	0x3eb8ae24	0.3607036
39	0x3fd71916	1.6804531
40	0x406db288	3.7140217
41	0xbf1e6bed	-0.6188343
42	0xbee110ce	-0.43958133
43	0xbf83462f	-1.0255793
44	0x40804ac6	4.0091276
45	0x3ea22814	0.31671202
46	0x3f34ed8b	0.7067496
47	0xbf1e7504	-0.618973
48	0x40854272	4.164361
49	0x3e365fce	0.17809984
50	0x3ffa00dd	1.9531513
51	0xc02bea26	-2.6861663
52	0x3fe701b3	1.8047394
53	0x3f1fa627	0.62362903
54	0x3f3c9b6e	0.73674667
55	0x4040c00e	3.011722
56	0xc0d66c4b	-6.7007194
57	0xc0973886	-4.72565
58	0xc05b9142	-3.4307408
59	0x3f3d9d47	0.7406811
60	0x3fff55b8	1.9948034
61	0xbfbdc8b4	-1.4826875
62	0xc03c4911	-2.9419596
63	0xc0d1789d	-6.5459733
64	0xbfb24138	-1.3926153
65	0x4079631c	3.8966742
66	0xbf6330f6	-0.88746583
67	0x3dea8552	0.1145121
68	0xbde0325f	-0.109471075
69	0x3fb75ff1	1.4326154
70	0x3ef1b45f	0.47207925
71	0xc0011141	-2.016678
72	0x3ed0bcad	0.40768948
73	0x3fcded7d	1.6088101
74	0x4038e9e0	2.8892746
75	0x40846fe0	4.1386566
76	0x40636d45	3.5535443
77	0xc053a781	-3.3070986
78	0x3da49cfc	0.08037755
79	0x3f9348d2	1.1506598
80	0xbfe7ce37	-1.8109807
81	0x3ff6ce3a	1.9281685
82	0x3cbcec74	0.023061968
83	0xc06d9eec	-3.7128248
84	0xbf02c0c7	-0.51075405
85	0xbfc7d20c	-1.5610976
86	0x40adc969	5.430836
87	0xbf66e438	-0.90191984
88	0xc01de4b6	-2.4670844
89	0xbf3cc88f	-0.7374353
90	0xbff64890	-1.9240894
91	0xc0e97c4b	-7.2964225
92	0x3f8cbbac	1.0994773
93	0xbfd73822	-1.6814005
94	0xbfc0c54b	-1.5060209
95	0x3fb62b6b	1.4232
96	0xc00bdf42	-2.1855016
97	0x4087db3b	4.2455115
98	0xbf2518f3	-0.64491194
99	0xbfa4968d	-1.2858444
100	0x40361739	2.8451674
101	0xbfb6247e	-1.4229887
102	0xc0af8046	-5.4844084
103	0x3f3fe635	0.74960643
104	0xc00ef978	-2.2339764
105	0xc040e14b	-3.0137508
106	0xc027a3ee	-2.6193805
107	0xbebe12c5	-0.37123695
108	0xc08684cb	-4.20371
109	0xbf744e3a	-0.95431864
110	0xc0280cf4	-2.6257906
111	0x3fe1449c	1.7599063
112	0xc02005c6	-2.5003524
113	0xbf02e899	-0.51136166
114	0xc0822b7d	-4.0678086
115	0xbf865e2e	-1.0497491
116	0x406066c8	3.5062733
117	0xbe63975a	-0.22225705
118	0x3d8086fa	0.06275745
119	0xbefa011a	-0.48828965
120	0xc105283c	-8.322323
121	0xc0f9a466	-7.801318
122	0xc1208f3a	-10.034967
123	0x40af2e34	5.47439
124	0xc0687b54	-3.6325274
125	0x40050645	2.0785077
126	0xbfe72249	-1.8057338
127	0xbee03d76	-0.4379689
128	0xc0b896c7	-5.7684054
129	0xc102c229	-8.172402
130	0xc0de4de2	-6.947007
131	0x40a81181	5.2521367
132	0xc0c23064	-6.068407
133	0xc0c96557	-6.2936206
134	0xc0edbb52	-7.4291162
135	0xc0485945	-3.1304486
136	0xc03c246d	-2.9397233
137	0x3ff5142c	1.9146781
138	0x3efa38aa	0.48871356
139	0xc083a503	-4.113893
140	0xc08f4abe	-4.477874
141	0xc018d22d	-2.387828
142	0xc0a59f4f	-5.175697
143	0x410a9e75	8.663686
144	0x3ff8c9da	1.94366
145	0xc01164aa	-2.271769
146	0xbf83e0fa	-1.0303032
147	0xc02f0015	-2.73438
148	0x40696aa9	3.647135
149	0xc03f51ed	-2.9893754
150	0x4007412a	2.1133523
151	0x4065a540	3.588211
152	0x3e7448be	0.23855874
153	0xbfb3ab29	-1.4036609
154	0xc0a7dbe3	-5.2455916
155	0xc1047299	-8.277978
156	0xc08b787e	-4.3584585
157	0x3e99aea4	0.30016053
158	0x3fc55267	1.5415772
159	0xc05900b1	-3.3906672
160	0xc07eb7a7	-3.9799592
161	0xc12c8b26	-10.783972
162	0xc0259aaa	-2.587565
163	0x40ae69cf	5.450416
164	0xc0e0a6cb	-7.0203605
165	0xc1546331	-13.274217
166	0xc11a95ed	-9.661603
167	0x3d876a2b	0.06612047
168	0xc108746e	-8.528425
169	0xc062e521	-3.545235
170	0xc097d321	-4.7445226
171	0x40b26a72	5.575494
172	0xc149a91e	-12.603788
173	0xc089773b	-4.2958045
174	0x401489b2	2.3209043
175	0xc0a709bf	-5.2199397
176	0xbf7536e4	-0.9578688
177	0x40305b3b	2.7555683
178	0x3f58057d	0.84383374
179	0xbf04d741	-0.5189095

exp_avg f4 [20, 416]
0	0x3a3ead48	0.0007273746
1	0xbb0965cd	-0.002096522
2	0xb9e8a450	-0.0004437291
3	0xba8a7915	-0.001056465
4	0x3aaf09eb	0.0013354396
5	0x3a95775c	0.001140337
6	0xbab0e8b2	-0.0013497083
7	0x38de612f	0.00010603887
8	0xba31e77f	-0.000678651
9	0xbbace077	-0.0052757817
10	0xbb418f5b	-0.002953491
11	0xb8fba13f	-0.00011998647
12	0x3b37ed33	0.0028064966
13	0xb95bc969	-0.00020960499
14	0xb9d0266b	-0.00039701475
15	0xb9a5fb85	-0.0003165865
16	0xbafe3aaf	-0.0019396151
17	0x3a8119ba	0.0009849586
18	0xbaa82f7f	-0.0012831538
19	0xbbe6529d	-0.0070288912
20	0xbb75b824	-0.003749379
21	0xb90af348	-0.00013251335
22	0x3a36ddf4	0.00069758226
23	0xba075c3b	-0.0005163585
24	0xbb0f9120	-0.002190657
25	0x3a13fd38	0.00056453375
26	0xbb634217	-0.0034676844
27	0x3a9c7b53	0.0011938609
28	0x39afbd56	0.00033519667
29	0x3ac54263	0.0015049692
30	0xbb67e6ae	-0.0035385299
31	0xb5e03162	-1.6703673e-06
32	0xba8db9f1	-0.0010812861
33	0x3b0cca40	0.0021482855
34	0x3987dfb3	0.00025915875
35	0xbb450b9e	-0.003006674
36	0xbb33e8a3	-0.0027451895
37	0x3aaa30f0	0.0012984555
38	0xbb149eaa	-0.002267758
39	0xbbddaae4	-0.0067647565
40	0xbabad482	-0.0014254006
41	0x3b2b9b01	0.0026184919
42	0x3af684a8	0.0018807845
43	0xbb025825	-0.0019888964
44	0xbac686e7	-0.0015146405
45	0x3a221d53	0.0006184179
46	0x3ac7872f	0.0015222783
47	0xbb1dc82b	-0.0024075608
48	0xbb116e3f	-0.0022190956
49	0x3aa40265	0.0012512921
50	0x39f075f5	0.00045864252
51	0x3a99adc6	0.0011724762
52	0xba39f3fa	-0.0007093545
53	0xbb1137bf	-0.0022158471
54	0xb9f528cb	-0.00046760435
55	0xbade22a2	-0.0016947577
56	0x3b047171	0.0020209218
57	0xba5e532f	-0.0008481023
58	0xba887691	-0.0010411312
59	0xbb4b60e2	-0.0031033088
60	0x3ad2fe3f	0.00160975
61	0xbb12e536	-0.0022414452
62	0x3b847614	0.0040423963
63	0xbb25d9e3	-0.0025306873
64	0x395ee66d	0.0002125741
65	0x3b4f0c2f	0.0031592955
66	0x3a9253c4	0.001116388
67	0xbb0445d0	-0.0020183213
68	0xba46f784	-0.0007589983
69	0x3b33a491	0.0027411322
70	0xbb7cc197	-0.0038567537
71	0x3a432bc5	0.0007445182
72	0xbb006ecd	-0.0019597292
73	0xbad14720	-0.0015966631
74	0xba42be29	-0.0007428849
75	0xbabd13db	-0.0014425473
76	0xbb964697	-0.0045860517
77	0x3b0ba188	0.0021305997
78	0xbade2ec5	-0.0016951194
79	0x3aee6707	0.0018188664
80	0x399d27e1	0.00029975086
81	0xba4ec847	-0.000788812
82	0x3a5c1de5	0.00083967886
83	0xbacd3cd7	-0.001565839
84	0xbad08b68	-0.0015910687
85	0xba141eef	-0.00056503614
86	0x3ad049a3	0.0015891086
87	0x3b6c477f	0.0036053357
88	0xba792c32	-0.0009505182
89	0x3a447106	0.00074936484
90	0xb9c62729	-0.0003779468
91	0x3a8843e9	0.0010396215
92	0xb9348972	-0.0001721734
93	0x39d33298	0.0004028275
94	0x3b707799	0.003669238
95	0xba55533a	-0.0008137707
96	0xbb338e33	-0.002739799
97	0x3afb1fa5	0.0019159211
98	0x3b2b73c7	0.0026161538
99	0xbac6166f	-0.0015112887
100	0x3af507f6	0.0018694389
101	0x3b294682	0.002582938
102	0xba22ed99	-0.00062152144
103	0xbb8995ff	-0.004198789
104	0xbb8e5325	-0.0043434077
105	0xb99a0fa1	-0.00029384813
106	0xbaa9ff34	-0.0012969733
107	0xbaa02cae	-0.0012220347
108	0x3b298d7f	0.0025871692
109	0xbae8b481	-0.001775399
110	0xbb2647e8	-0.002537245
111	0x3b29c5b5	0.0025905196
112	0xb9a91d3f	-0.00032255982
113	0x37e3475d	2.709374e-05
114	0xbab025e7	-0.001343903
115	0x3911d21e	0.00013906552
116	0x3a67b8a2	0.0008839463
117	0x39df8d96	0.00042639364
118	0x3a85a8ca	0.0010197398
119	0xba05b768	-0.0005100877
120	0xba31c3e7	-0.0006781206
121	0x3a456c07	0.0007531051
122	0xba8c65cb	-0.0010711489
123	0xb88c0ded	-6.678314e-05
124	0x3ad23f7f	0.0016040652
125	0xb9c0bbd5	-0.0003676104
126	0xba163920	-0.0005730558
127	0x391ab2f4	0.0001475325
128	0xbae4b8a6	-0.0017450049
129	0xba9a065f	-0.0011751166
130	0xbae86083	-0.0017728958
131	0xb9dcdd5f	-0.00042126604
132	0xbabfff26	-0.0014648184
133	0xba688153	-0.00088693685
134	0x396d7110	0.000226442
135	0xb8ed2102	-0.00011307189
136	0x39acff8b	0.0003299679
137	0xba1bf715	-0.0005949599
138	0x3a9a7e03	0.0011786822
139	0xbb01520a	-0.0019732737
140	0xba75301e	-0.00093531783
141	0xba5dcaa8	-0.0008460679
142	0xbb176d49	-0.002310591
143	0xbabcc6bc	-0.0014402489
144	0x3a10cb07	0.00055234175
145	0xbab31ba5	-0.0013664855
146	0x3a4f37b1	0.0007904722
147	0xb9a8bed6	-0.0003218564
148	0xbb4d7af4	-0.0031353803
149	0xbac0dd44	-0.001471438
150	0x3b6a457b	0.003574698
151	0xba38b148	-0.000704546
152	0xba8b7658	-0.0010640128
153	0x3b237d62	0.002494656
154	0xb892c737	-6.998929e-05
155	0xba0a62c0	-0.0005278997
156	0xbabdfd9b	-0.0014495136
157	0x398ca6cf	0.00026827163
158	0xbb182069	-0.0023212677
159	0xba133306	-0.0005615208
160	0x3b6cc8ed	0.0036130503
161	0x3abf1979	0.0014579735
162	0xbaf86063	-0.0018949624
163	0xb946ae96	-0.0001894779
164	0x3a8433e2	0.0010086263
165	0xbb76ce49	-0.0037659577
166	0xba7aeaf3	-0.00095717533
167	0xb9c4548a	-0.0003744702
168	0xbb3335f0	-0.0027345382
169	0x3aeeb39a	0.0018211484
170	0x3b429da0	0.0029696003
171	0xbb0ad089	-0.0021181426
172	0xbb80db6d	-0.0039324076
173	0x3ab97bf2	0.0014151318
174	0xba683090	-0.0008857334
175	0x3ac3ed0e	0.0014947967
176	0x3ac8e871	0.0015328062
177	0xb89e612b	-7.552126e-05
178	0xb89a998a	-7.371891e-05
179	0xbaeba2f2	-0.0017977639
180	0x3b0bde37	0.0021342167
181	0xb9b57d5c	-0.0003461641
182	0x3a9cabcd	0.0011953056
183	0xb9bd6ddd	-0.00036130744
184	0xba464608	-0.0007563536
185	0xbb1a1292	-0.0023509604
186	0xbaff6dfb	-0.0019487733
187	0xb9ecd8c4	-0.0004517493
188	0xbb34593c	-0.0027519008
189	0xbb101ff8	-0.002199171
190	0xba3ca645	-0.0007196407
191	0xba2dbb9d	-0.0006627383
192	0xba2a1c7e	-0.0006489231
193	0xbb0dcfa8	-0.0021638665
194	0xb985bb6c	-0.00025507377
195	0xba93e279	-0.0011282704
196	0x398f5d7b	0.00027344734
197	0xbb5286e6	-0.0032123863
198	0xbb1519e9	-0.002275104
199	0xb880715a	-6.124629e-05
200	0xbb83356c	-0.004004171
201	0xbb18bd39	-0.0023306145
202	0x3b99245f	0.004673525
203	0x3a7256e6	0.0009244516
204	0xbb0a391f	-0.0021091176
205	0xbb18b12d	-0.0023298964
206	0xbb973ea4	-0.0046156216
207	0xbafbcfb9	-0.0019211686
208	0x3a9ee04b	0.0012121288
209	0x3b1283b4	0.0022356333
210	0xb98a369c	-0.00026362098
211	0x3a11ab5b	0.0005556845
212	0x3a5312f4	0.00080518355
213	0xbb74fcac	-0.003738205
214	0xba8492fb	-0.0010114604
215	0x3b15ea3b	0.0022875208
216	0x3a440eb2	0.00074789964
217	0xbaff0845	-0.001945742
218	0x3ab85d18	0.001406583
219	0xbb0e59a4	-0.002172091
220	0xbbad1c85	-0.005282941
221	0x3b215237	0.0024615654
222	0xba24a498	-0.000628063
223	0x3b0be9d7	0.0021349096
224	0x3ab258fc	0.0013606842
225	0xba6ef522	-0.0009115507
226	0xba86d18a	-0.0010285836
227	0x3adb71d9	0.0016742303
228	0xba38849b	-0.0007038803
229	0x39e03e0f	0.00042770847
230	0xbae5d6d7	-0.0017535341
231	0xbc2fd197	-0.010731122
232	0xbb0316e9	-0.002000267
233	0x3a74905d	0.0009329373
234	0xba0833c9	-0.0005195705
235	0x3a91b42a	0.0011116315
236	0xba344bbc	-0.00068777404
237	0xba710992	-0.00091948465
238	0xb8b974b7	-8.843227e-05
239	0xbafe9def	-0.001942573
240	0xba930cb7	-0.0011218999
241	0x3b4393b3	0.0029842674
242	0xbaf36fda	-0.0018572763
243	0x3b3999df	0.0028320474
244	0xba3093c0	-0.00067358837
245	0x3a82be58	0.000997494
246	0xba72f2d2	-0.00092677504
247	0xbbab0f45	-0.005220326
248	0xb7b0d34f	-2.1079233e-05
249	0xbbb14a4c	-0.005410468
250	0x3b2275a8	0.0024789367
251	0x3afc4749	0.0019247319
252	0x3a1dc407	0.0006018285
253	0xbb2ef3ab	-0.002669553
254	0x3b6a40f6	0.0035744286
255	0x3adbe795	0.0016777391

exp_avg_sq f4 [20, 416]
0	0x38a84fcf	8.02573e-05
1	0x389ffa58	7.628341e-05
2	0x38da6935	0.000104146464
3	0x38ce3623	9.832929e-05
4	0x38e368bb	0.00010843711
5	0x38b2271b	8.4949854e-05
6	0x3904eea6	0.00012677404
7	0x38aeb33d	8.330352e-05
8	0x38cb1250	9.683205e-05
9	0x39158a89	0.00014261356
10	0x391419bc	0.00014123967
11	0x38f5d07e	0.00011721345
12	0x38db55a4	0.000104586856
13	0x38ca1658	9.6362724e-05
14	0x38d0d63a	9.958116e-05
15	0x391acb84	0.000147624
16	0x38e719b0	0.00011019723
17	0x38bd9f9a	9.0419504e-05
18	0x38de53ca	0.00010601392
19	0x39241c75	0.0001565086
20	0x38b62560	8.685398e-05
21	0x389a08a5	7.3449024e-05
22	0x38b0bb2b	8.427197e-05
23	0x389f417e	7.59391e-05
24	0x38c2b332	9.2840186e-05
25	0x390ad960	0.00013241684
26	0x38fbc81f	0.00012005888
27	0x388fc14d	6.8547764e-05
28	0x38b83664	8.783935e-05
29	0x38c6a09a	9.47129e-05
30	0x38f29130	0.000115665025
31	0x38cd61ab	9.793354e-05
32	0x38e15169	0.00010744
33	0x38c2ad1a	9.2828835e-05
34	0x38c80c85	9.539075e-05
35	0x38a8c6d6	8.0479e-05
36	0x38dda193	0.00010568197
37	0x389f1fd5	7.58764e-05
38	0x38d39f12	0.00010090893
39	0x38fbe1e1	0.00012010686
40	0x38bc5e58	8.9821115e-05
41	0x38f66f15	0.00011750885
42	0x38dc89bf	0.00010516075
43	0x389ba75e	7.4221505e-05
44	0x38bcd3e7	9.0040085e-05
45	0x38894ddc	6.5471715e-05
46	0x38ee72d2	0.00011370111
47	0x38dff29a	0.00010678657
48	0x3906f6fe	0.00012871248
49	0x38b597e7	8.6590466e-05
50	0x38b4df47	8.6246575e-05
51	0x38de63aa	0.00010604349
52	0x389f8f91	7.608452e-05
53	0x38c709f3	9.4909126e-05
54	0x3886419a	6.401837e-05
55	0x38afe765	8.387751e-05
56	0x38a84a36	8.024687e-05
57	0x38b1d30e	8.47933e-05
58	0x38b3417b	8.547582e-05
59	0x38fce10c	0.000120582146
60	0x38801515	6.1074425e-05
61	0x38a2e9fd	7.768346e-05
62	0x39069979	0.00012836409
63	0x3878c62a	5.9312362e-05
64	0x38da76f8	0.0001041721
65	0x38c391f6	9.325512e-05
66	0x38abc3fd	8.190421e-05
67	0x389bb7d6	7.425218e-05
68	0x388e9959	6.799651e-05
69	0x38b918a2	8.826076e-05
70	0x3902eee6	0.00012486763
71	0x38e4b976	0.00010906432
72	0x38e49849	0.000109002525
73	0x38668314	5.495835e-05
74	0x38c70c95	9.491403e-05
75	0x38fdcbde	0.00012101953
76	0x38a68acc	7.94135e-05
77	0x3890dde1	6.907783e-05
78	0x39060473	0.00012780893
79	0x384a86d6	4.828613e-05
80	0x38b52866	8.638277e-05
81	0x38b387bd	8.560668e-05
82	0x38d4563e	0.000101250116
83	0x389c1847	7.443182e-05
84	0x3883038f	6.2472296e-05
85	0x389792f0	7.22761e-05
86	0x38a47f02	7.8437864e-05
87	0x38ae1a00	8.3018094e-05
88	0x38a21920	7.729442e-05
89	0x388c8543	6.700542e-05
90	0x38d8f7bb	0.00010345826
91	0x38f98805	0.00011898581
92	0x38b5ccab	8.668875e-05
93	0x38aa7ca2	8.129446e-05
94	0x38f4ff8b	0.00011682425
95	0x385a8e65	5.2107865e-05
96	0x38e4039b	0.00010872559
97	0x38df87b3	0.000106587446
98	0x38bfea11	9.151188e-05
99	0x38c2db9d	9.291547e-05
100	0x3894787a	7.0796304e-05
101	0x389ea15b	7.564082e-05
102	0x38ab4dfa	8.16844e-05
103	0x38929fb0	6.9915666e-05
104	0x385d30b3	5.273586e-05
105	0x3857dbc5	5.146467e-05
106	0x3847e312	4.7656773e-05
107	0x383cde16	4.5029527e-05
108	0x384ffb3a	4.958662e-05
109	0x3827352b	3.986542e-05
110	0x38872b3c	6.445355e-05
111	0x39050711	0.00012686501
112	0x384b6cc3	4.8500264e-05
113	0x3842a8ba	4.6410343e-05
114	0x3868affb	5.5477005e-05
115	0x3856f010	5.124515e-05
116	0x38549a32	5.0688344e-05
117	0x3830e79c	4.2177373e-05
118	0x3855e71f	5.0998406e-05
119	0x385a2d82	5.2017633e-05
120	0x3848a84f	4.7840465e-05
121	0x386d467c	5.6570847e-05
122	0x3829b114	4.0457657e-05
123	0x383baeee	4.474719e-05
124	0x3882b12b	6.231883e-05
125	0x385b8de3	5.234581e-05
126	0x3890721a	6.887708e-05
127	0x38b7bbb5	8.761083e-05
128	0x385bd27c	5.2409698e-05
129	0x38471690	4.746631e-05
130	0x384f1738	4.937427e-05
131	0x383a96e3	4.448638e-05
132	0x387c9652	6.022148e-05
133	0x3842b918	4.6425586e-05
134	0x386d9f72	5.66537e-05
135	0x382dbcb3	4.1422154e-05
136	0x3832bf24	4.261652e-05
137	0x387ea9dd	6.0716517e-05
138	0x38468e21	4.7339247e-05
139	0x38481925	4.7707133e-05
140	0x388dcadc	6.7611894e-05
141	0x38703db9	5.7277943e-05
142	0x388d8115	6.747447e-05
143	0x38c3e1d3	9.3403876e-05
144	0x3888b29e	6.5182554e-05
145	0x381da64d	3.7586597e-05
146	0x3861696d	5.3742366e-05
147	0x382cf914	4.1239968e-05
148	0x387bb38c	6.001028e-05
149	0x3843e96c	4.6709014e-05
150	0x388331f9	6.255875e-05
151	0x38790e59	5.937959e-05
152	0x385ed644	5.3128475e-05
153	0x3883a916	6.2780615e-05
154	0x385ca932	5.2609663e-05
155	0x38312a86	4.223969e-05
156	0x392fbd42	0.00016759805
157	0x39081e07	0.00012981157
158	0x38e70b07	0.00011016992
159	0x38f58611	0.00011707482
160	0x391f4b4d	0.00015191473
161	0x38ed4276	0.0001131342
162	0x394255c1	0.00018533228
163	0x3930daf6	0.00016866237
164	0x38f97824	0.00011895623
165	0x38d3f219	0.00010106358
166	0x3928dc27	0.00016103742
167	0x38ffd0e9	0.0001219826
168	0x38ec4955	0.00011267016
169	0x39013c97	0.0001232497
170	0x3908f619	0.00013061649
171	0x38cae8b1	9.675453e-05
172	0x393c0b83	0.00017933366
173	0x391dbb82	0.00015042539
174	0x38fe144e	0.00012115446
175	0x38b7a526	8.756881e-05
176	0x39365e4b	0.00017392
177	0x38ed6965	0.00011320672
178	0x39217f9f	0.00015401699
179	0x391b9ad4	0.0001483963
180	0x3912f949	0.00014016511
181	0x38cb951a	9.707567e-05
182	0x38ac3066	8.210614e-05
183	0x38f44652	0.00011647925
184	0x38db0d2e	0.00010445189
185	0x38fc6fcd	0.00012037121
186	0x393bdc78	0.0001791584
187	0x38b20ba3	8.489869e-05
188	0x3904932d	0.00012643328
189	0x39304863	0.00016811634
190	0x38ad4eac	8.2639366e-05
191	0x38e074cc	0.000107029075
192	0x393198b4	0.00016936922
193	0x38d4f0da	0.0001015381
194	0x3922bae6	0.00015519149
195	0x395646fe	0.00020435077
196	0x393f0315	0.00018216328
197	0x38b682a4	8.70277e-05
198	0x38eeea89	0.0001139241
199	0x38e561b3	0.00010937769
200	0x38db059c	0.000104437786
201	0x38d64c32	0.00010218508
202	0x393c71ad	0.00017971425
203	0x38bffa25	9.154183e-05
204	0x38eb394c	0.000112163456
205	0x38cb515a	9.694947e-05
206	0x38f79d30	0.00011807156
207	0x38e5959b	0.00010947437
208	0x38d77939	0.000102745784
209	0x391b4646	0.00014808131
210	0x389f50ce	7.596762e-05
211	0x38a5db00	7.908605e-05
212	0x38a1d298	7.7163044e-05
213	0x38d40fad	0.000101118676
214	0x38a46abf	7.8400124e-05
215	0x391d5914	0.00015005871
216	0x38d7522a	0.00010267303
217	0x390763d7	0.00012911797
218	0x389ccef4	7.477208e-05
219	0x390fb645	0.00013705443
220	0x3905df47	0.00012767046
221	0x389cd724	7.478733e-05
222	0x396cb3f5	0.00022573753
223	0x388b2cc4	6.636375e-05
224	0x38cfce3d	9.908944e-05
225	0x39174476	0.00014425986
226	0x390a2cdd	0.00013177418
227	0x38b5673f	8.649984e-05
228	0x38f5282e	0.000116899944
229	0x38e538c0	0.000109301414
230	0x38924803	6.975236e-05
231	0x3955073d	0.0002031596
232	0x38c22430	9.257381e-05
233	0x38e1ad7d	0.00010761151
234	0x3887ca71	6.475009e-05
235	0x38af310b	8.353785e-05
236	0x38ad710a	8.270338e-05
237	0x38d7b576	0.000102857986
238	0x3909f3ac	0.00013156113
239	0x38b44795	8.596402e-05
240	0x38bf688b	9.1270624e-05
241	0x395f7de2	0.00021313832
242	0x38b3226b	8.541796e-05
243	0x38da1811	0.00010399533
244	0x3929592f	0.0001615032
245	0x393be437	0.00017918726
246	0x387c8df9	6.0213704e-05
247	0x38e1174b	0.00010733175
248	0x391018a9	0.00013742097
249	0x393702ae	0.00017453238
250	0x38788495	5.9251284e-05
251	0x38c81917	9.5414165e-05
252	0x389c29cd	7.446446e-05
253	0x38e249b3	0.00010790247
254	0x38576719	5.135601e-05
255	0x3929287b	0.00016132176

exp_avg f4 [20, 20]
0	0x00000000	0.0
1	0xb3adc1ef	-8.0912166e-08
2	0xb9837d8c	-0.00025079807
3	0xbb44426a	-0.0029946812
4	0xbb3c2273	-0.0028707057
5	0xba8ca91f	-0.0010731554
6	0xba562c65	-0.00081700674
7	0xbc6db878	-0.014509313
8	0x00000004	6e-45
9	0x80000004	-6e-45
10	0x00000004	6e-45
11	0xbb071432	-0.0020611403
12	0x00000004	6e-45
13	0x00000004	6e-45
14	0xbaad0143	-0.0013199229
15	0xb9fd85d5	-0.00048355633
16	0xba0b55f8	-0.00053152395
17	0xbbd53774	-0.0065068547
18	0xbb6e908c	-0.0036402075
19	0x00000004	6e-45
20	0xb8928825	-6.9871814e-05
21	0x00000000	0.0
22	0xb7923d52	-1.743311e-05
23	0xb8a09158	-7.656467e-05
24	0xba24654c	-0.0006271198
25	0xb7c71a67	-2.3734943e-05
26	0xb81c7d50	-3.7310005e-05
27	0xbab6b698	-0.0013939915
28	0x80000004	-6e-45
29	0x00000004	6e-45
30	0x00000004	6e-45
31	0xb859202d	-5.1766798e-05
32	0x80000004	-6e-45
33	0x00000004	6e-45
34	0x37a671fd	1.9841822e-05
35	0xb7ba6c94	-2.2223488e-05
36	0xb4e9551d	-4.346156e-07
37	0xb9605535	-0.00021394047
38	0xb7bdd6ec	-2.2630637e-05
39	0x00000004	6e-45
40	0xba7b57e4	-0.0009587987
41	0x314fd2a9	3.024221e-09
42	0x00000000	0.0
43	0xba1a8c59	-0.0005895547
44	0xbb5afe8b	-0.003341588
45	0xba2e50b8	-0.0006649601
46	0xb9d73d20	-0.00041053537
47	0xbbd5deef	-0.00652682
48	0x80000004	-6e-45
49	0x00000004	6e-45
50	0x00000004	6e-45
51	0xb989ce93	-0.00026284586
52	0x80000004	-6e-45
53	0x00000004	6e-45
54	0x38ce3a56	9.8337114e-05
55	0xb8fb0fd2	-0.000119715594
56	0x39c77c1a	0.000380487
57	0xbb1ba497	-0.0023749226
58	0xb99647ed	-0.00028663818
59	0x00000004	6e-45
60	0xbb01fd95	-0.0019834985
61	0x3416da72	1.4049309e-07
62	0x382e549b	4.1563628e-05
63	0x00000000	0.0
64	0xbc19d825	-0.009389912
65	0xb9d780f7	-0.00041104082
66	0x381cc344	3.7375154e-05
67	0xbc83a1cf	-0.016068367
68	0x00000004	6e-45
69	0x80000004	-6e-45
70	0x80000004	-6e-45
71	0x39a9924b	0.0003234319
72	0x00000004	6e-45
73	0x80000004	-6e-45
74	0xba7e7ea2	-0.0009708201
75	0x38f9a7fb	0.00011904534
76	0xb8e776f1	-0.00011037093
77	0xbb3b81f1	-0.0028611387
78	0xbad8c2ee	-0.0016537586
79	0x80000004	-6e-45
80	0xb8c125b0	-9.209977e-05
81	0xb3a66e2a	-7.750016e-08
82	0xb87b4727	-5.990933e-05
83	0xb9bdb144	-0.00036180962
84	0x00000000	0.0
85	0x367abb75	3.7362017e-06
86	0xb9472c4b	-0.0001899462
87	0xbb0300d7	-0.0019989514
88	0x00000004	6e-45
89	0x80000004	-6e-45
90	0x80000004	-6e-45
91	0xb9594e8a	-0.00020723991
92	0x00000004	6e-45
93	0x80000004	-6e-45
94	0x3a380d6d	0.00070210436
95	0x37a9ca72	2.024064e-05
96	0x39ae28a0	0.00033218134
97	0xba8d23aa	-0.0010768075
98	0x3894c47b	7.093787e-05
99	0x80000004	-6e-45
100	0xbb9b1f51	-0.004733958
101	0x3502cf0d	4.873007e-07
102	0x380e9899	3.3997556e-05
103	0xbb3127c9	-0.002703177
104	0xbca3e364	-0.02000589
105	0x00000000	0.0
106	0xb9f9ad8b	-0.0004762228
107	0xbd02b133	-0.03190727
108	0x80000004	-6e-45
109	0x00000004	6e-45
110	0x00000004	6e-45
111	0xbad9f1c8	-0.0016627843
112	0x80000004	-6e-45
113	0x00000004	6e-45
114	0xb9b41d7c	-0.00034354243
115	0xb9c94ceb	-0.00038395016
116	0x39de885b	0.00042444732
117	0xbc0bfc51	-0.008544044
118	0xbb6d8889	-0.0036244711
119	0x00000004	6e-45
120	0xba73407c	-0.0009279323
121	0x3333e839	4.188789e-08
122	0xb75559b9	-1.27166795e-05
123	0xba3e8b51	-0.00072686846
124	0xbb94d7c4	-0.004542323
125	0xb9e98be4	-0.0004454545
126	0x00000000	0.0
127	0xbc7b3985	-0.015333538
128	0x00000004	6e-45
129	0x00000004	6e-45
130	0x00000004	6e-45
131	0xb9cbb939	-0.0003885718
132	0x80000004	-6e-45
133	0x00000004	6e-45
134	0x3a06a0ed	0.0005135674
135	0x390c6bcb	0.00013391596
136	0x3a201cbc	0.00061077974
137	0xbb321ad6	-0.002717664
138	0xba5450ae	-0.00080991804
139	0x00000004	6e-45
140	0x39f62be9	0.00046953492
141	0xb4ace64e	-3.2205065e-07
142	0xb812fbde	-3.5043682e-05
143	0x39fc4253	0.000481146
144	0x3a14b824	0.0005673191
145	0x39bb2073	0.00035691596
146	0x39397bc3	0.0001768908
147	0x00000000	0.0
148	0x00000004	6e-45
149	0x00000004	6e-45
150	0x00000004	6e-45
151	0x396daef5	0.00022667258
152	0x80000004	-6e-45
153	0x00000004	6e-45
154	0x39a37dec	0.00031183602
155	0xb6952530	-4.4448752e-06
156	0x38ef6bad	0.00011416464
157	0x3acbc045	0.0015544972
158	0x3a547f22	0.00081061025
159	0x00000004	6e-45
160	0xb7511cc8	-1.2464072e-05
161	0x2d9ccb96	1.7825557e-11
162	0x3378e6c2	5.7951873e-08
163	0xb5ef339e	-1.782191e-06
164	0xb87be503	-6.0056347e-05
165	0xb626b0f8	-2.4838937e-06
166	0xb4a0c642	-2.9946574e-07
167	0x3994c23f	0.00028373484
168	0x00000000	0.0
169	0x80000004	-6e-45
170	0x80000004	-6e-45
171	0xb47f6af5	-2.3787636e-07
172	0x00000004	6e-45
173	0x80000004	-6e-45
174	0x374da58c	1.2257497e-05
175	0x326acfd8	1.3667851e-08
176	0x36190d6f	2.2806596e-06
177	0xb6a769cc	-4.989304e-06
178	0xb588bea8	-1.0188278e-06
179	0x80000004	-6e-45
180	0xb7502e7a	-1.2408587e-05
181	0xae5559a6	-4.8510217e-11
182	0xb1ac24c9	-5.010041e-09
183	0xb5ffe050	-1.9064264e-06
184	0xb88a4caa	-6.5946326e-05
185	0xb6335295	-2.6721148e-06
186	0xb5007853	-4.785881e-07
187	0xb75c06b3	-1.3114582e-05
188	0x80000004	-6e-45
189	0x00000000	0.0
190	0x00000004	6e-45
191	0xb51bb4bc	-5.8005e-07
192	0x80000004	-6e-45
193	0x00000004	6e-45
194	0x371b6d11	9.264114e-06
195	0xb3e15897	-1.04934934e-07
196	0x35d65e73	1.5971731e-06
197	0xb757f9d2	-1.2873164e-05
198	0xb5964439	-1.1195726e-06
199	0x00000004	6e-45
200	0xb6c441d6	-5.8489195e-06
201	0xacdd39ed	-6.287629e-12
202	0x32d98878	2.5324184e-08
203	0xb55508f5	-7.936172e-07
204	0x37125f24	8.72443e-06
205	0xb5c1ee0f	-1.4448905e-06
206	0xb482fcc1	-2.439829e-07
207	0x396e410a	0.00022721678
208	0x80000004	-6e-45
209	0x80000004	-6e-45
210	0x00000000	0.0
211	0xb2b7f6e8	-2.1416284e-08
212	0x80000004	-6e-45
213	0x80000004	-6e-45
214	0x36e07dcd	6.6903654e-06
215	0xb12b5495	-2.4931854e-09
216	0x35956174	1.1129728e-06
217	0xb600b379	-1.9177953e-06
218	0x33f59824	1.1436376e-07
219	0x00000004	6e-45
220	0xbb42f087	-0.0029745416
221	0x3493f058	2.7555757e-07
222	0x387507ad	5.84197e-05
223	0xb9cbb13f	-0.00038851236
224	0xbc4e0be7	-0.01257608
225	0xba52afb0	-0.0008037044
226	0xb8db0aac	-0.000104447216
227	0xbc9c830a	-0.019105453
228	0x00000004	6e-45
229	0x80000004	-6e-45
230	0x80000004	-6e-45
231	0x00000000	0.0
232	0x00000004	6e-45
233	0x80000004	-6e-45
234	0xba95c3a8	-0.0011426108
235	0xb7bf244b	-2.2785875e-05
236	0xb82cba30	-4.1181396e-05
237	0xbb9b8196	-0.0047456725
238	0xbb20d11d	-0.0024538704
239	0x80000004	-6e-45
240	0xb85ca0ad	-5.260173e-05
241	0xaf37802d	-1.668929e-10
242	0x336f47e6	5.5711915e-08
243	0xb72a5d89	-1.01545675e-05
244	0xb9e46fc0	-0.0004357081
245	0xb71c83e5	-9.329034e-06
246	0xb5b28169	-1.3299697e-06
247	0xb9c07225	-0.00036706138
248	0x80000004	-6e-45
249	0x00000004	6e-45
250	0x00000004	6e-45
251	0xb674fb0f	-3.6504969e-06
252	0x00000000	0.0
253	0x00000004	6e-45
254	0x37e6b17e	2.7500788e-05
255	0xb4aa3448	-3.1703007e-07

exp_avg_sq f4 [20, 20]
0	0x00000000	0.0
1	0x2f2a0f82	1.546692e-10
2	0x346ec5e2	2.2237467e-07
3	0x386d8d9e	5.6637095e-05
4	0x3a99cb48	0.0011733556
5	0x376ef314	1.42425015e-05
6	0x36aef3c0	5.2139803e-06
7	0x3b9803ba	0.004639116
8	0x13c22a8f	4.901445e-27
9	0x1187da65	2.143384e-28
10	0x0f88664a	1.3450036e-29
11	0x37c47397	2.3418846e-05
12	0x1b16fd87	1.2489628e-22
13	0x0f02c83f	6.448061e-30
14	0x389db2b7	7.5196316e-05
15	0x3610a2ba	2.1552391e-06
16	0x371259f4	8.723222e-06
17	0x3a24da70	0.0006288653
18	0x3917e4fe	0.00014485788
19	0x0d013a5e	3.982145e-31
20	0x343c71c7	1.7550256e-07
21	0x00000000	0.0
22	0x3198b59a	4.444428e-09
23	0x336efdf6	5.564467e-08
24	0x36c9412b	5.9978533e-06
25	0x31b567f2	5.2796105e-09
26	0x326926af	1.3571181e-08
27	0x379c853d	1.8658693e-05
28	0x12b3c2c7	1.13445045e-27
29	0x1076a741	4.8643793e-29
30	0x0e70d541	2.9684962e-30
31	0x3327351e	3.8931027e-08
32	0x192d0e0d	8.946728e-24
33	0x0dce890f	1.2728726e-30
34	0x33807eae	5.9835074e-08
35	0x32389366	1.0743724e-08
36	0x31d490b6	6.186464e-09
37	0x34a94ae7	3.1533202e-07
38	0x334436e5	4.5684732e-08
39	0x0b6fd464	4.618951e-32
40	0x37ed5117	2.8290362e-05
41	0x2b8c8233	9.983736e-13
42	0x00000000	0.0
43	0x375a4c93	1.3011641e-05
44	0x39590abe	0.00020698734
45	0x36bb37d3	5.579533e-06
46	0x361469ee	2.2115378e-06
47	0x3a5d18b3	0.00084341614
48	0x14375176	9.255204e-27
49	0x12218575	5.096714e-28
50	0x100fa7e8	2.8331128e-29
51	0x36b8f432	5.5120554e-06
52	0x1a831189	5.420866e-23
53	0x0f1c9c51	7.721499e-30
54	0x37f18b8c	2.879442e-05
55	0x34d1e3b9	3.9094974e-07
56	0x3661894c	3.360753e-06
57	0x39271624	0.00015934609
58	0x37f47b0d	2.9144367e-05
59	0x0c7c9e65	1.9461039e-31
60	0x388712dd	6.440815e-05
61	0x2d51f6b3	1.1935053e-11
62	0x32334e92	1.0437036e-08
63	0x00000000	0.0
64	0x3a805940	0.0009792224
65	0x36299b2b	2.5273282e-06
66	0x3515b4ab	5.576973e-07
67	0x3b5ef35f	0.0034019572
68	0x13ad09ae	4.3680885e-27
69	0x12252e9e	5.212228e-28
70	0x100c0abc	2.76184e-29
71	0x35756629	9.1418275e-07
72	0x19e76c42	2.3928565e-23
73	0x0f6eed9e	1.1780069e-29
74	0x37d36274	2.5199006e-05
75	0x33f21465	1.1272713e-07
76	0x34da65ed	4.0679825e-07
77	0x3919fe48	0.00014685944
78	0x37e057dd	2.6743795e-05
79	0x0d9155de	8.956987e-31
80	0x3798a8a3	1.819834e-05
81	0x2de30d3d	2.5812791e-11
82	0x33c94ce9	9.373782e-08
83	0x3785b799	1.594033e-05
84	0x00000000	0.0
85	0x3607519c	2.016407e-06
86	0x35ca6dc5	1.508212e-06
87	0x3a325c1e	0.00068038877
88	0x1480b17e	1.2994705e-26
89	0x129d15f5	9.913506e-28
90	0x109ad391	6.106826e-29
91	0x37007352	7.656245e-06
92	0x1ad5f885	8.849624e-23
93	0x0ffd2c02	2.4964677e-29
94	0x3747db51	1.1912388e-05
95	0x35277924	6.238863e-07
96	0x3616a79e	2.2449308e-06
97	0x38dbcce9	0.00010480901
98	0x37ae8201	2.0802954e-05
99	0x0daae4fe	1.0532187e-30
100	0x39f976b2	0.00047581416
101	0x30c40d0b	1.4264584e-09
102	0x35216030	6.0117145e-07
103	0x3912e5eb	0.00014009296
104	0x3b57f5c4	0.0032952884
105	0x00000000	0.0
106	0x371911d9	9.123666e-06
107	0x3c48e777	0.012262217
108	0x1273a124	7.68759e-28
109	0x104b9ebd	4.0156978e-29
110	0x0e31dd2e	2.1923429e-30
111	0x3888d501	6.5246604e-05
112	0x1a7caf1c	5.225383e-23
113	0x0dcea392	1.2735108e-30
114	0x3997c901	0.00028950724
115	0x36881acb	4.056235e-06
116	0x37cfa657	2.4753781e-05
117	0x3ac7bf0c	0.0015239432
118	0x39b74564	0.0003495618
119	0x0c3d9838	1.4605837e-31
120	0x38ae9d96	8.326319e-05
121	0x2ebd6d19	8.6141046e-11
122	0x3387763d	6.307935e-08
123	0x37c91740	2.3971894e-05
124	0x3a1ca019	0.0005974784
125	0x36bee621	5.689232e-06
126	0x00000000	0.0
127	0x3b2049e6	0.002445811
128	0x1297d62d	9.582238e-28
129	0x10dfc455	8.826049e-29
130	0x0f28605f	8.3016e-30
131	0x371f822f	9.507449e-06
132	0x193b1dc4	9.6736845e-24
133	0x0ea86f60	4.1522448e-30
134	0x384adc9d	4.8366015e-05
135	0x350d4637	5.262877e-07
136	0x3688b7a5	4.074495e-06
137	0x39b80ac4	0.00035103236
138	0x388f08a4	6.820381e-05
139	0x0c33186b	1.3797006e-31
140	0x35c74d87	1.4849219e-06
141	0x30592f30	7.90112e-10
142	0x3389d3fe	6.418121e-08
143	0x3637f826	2.7413566e-06
144	0x37a445d6	1.9582843e-05
145	0x34beca46	3.553743e-07
146	0x34f2a41e	4.5195424e-07
147	0x00000000	0.0
148	0x14514431	1.0565252e-26
149	0x1203da26	4.16052e-28
150	0x0fce7682	2.0358816e-29
151	0x35b4bfd1	1.3466871e-06
152	0x1b9d6ff6	2.6045824e-22
153	0x0ee6900a	5.6838082e-30
154	0x3599b6af	1.1452556e-06
155	0x34344fea	1.6792879e-07
156	0x34b32c44	3.3373556e-07
157	0x379b38ef	1.8503952e-05
158	0x364e7bc4	3.0768433e-06
159	0x0cc0f2aa	2.9728332e-31
160	0x32e0af5b	2.6156775e-08
161	0x247dbb97	5.5019525e-17
162	0x29a8f663	7.50344e-14
163	0x2ed64961	9.744628e-11
164	0x36144aea	2.2097324e-06
165	0x2e159aa7	3.4016037e-11
166	0x2c308c36	2.5088937e-12
167	0x36e016f8	6.678394e-06
168	0x00000000	0.0
169	0x121bc2c4	4.9149443e-28
170	0x0fb1bf17	1.7527153e-29
171	0x2de82df0	2.6395747e-11
172	0x181997e6	1.9851476e-24
173	0x0f6d99d9	1.1714632e-29
174	0x31b4ef87	5.2659206e-09
175	0x2b565f47	7.6160297e-13
176	0x2db6f139	2.0798129e-11
177	0x3236b08b	1.06339355e-08
178	0x30d7d75b	1.5704517e-09
179	0x0d0a4175	4.2603324e-31
180	0x324205c9	1.1293602e-08
181	0x236e94c3	1.2933507e-17
182	0x29635b15	5.0483126e-14
183	0x2e1d9f38	3.583908e-11
184	0x352c8f94	6.4283927e-07
185	0x2df1ca87	2.7488468e-11
186	0x2bd5c3a5	1.5188863e-12
187	0x36099086	2.0498715e-06
188	0x141b5cd5	7.843808e-27
189	0x00000000	0.0
190	0x0f8565e8	1.3154065e-29
191	0x2d24a6f3	9.359391e-12
192	0x1688e08e	2.21137e-25
193	0x0e56f677	2.6496205e-30
194	0x313b02a1	2.7213576e-09
195	0x2ac1793f	3.4367818e-13
196	0x2d7e26c8	1.44468396e-11
197	0x31bb4416	5.4501568e-09
198	0x3054efbc	7.7465834e-10
199	0x0b953cf7	5.748444e-32
200	0x31efa342	6.9743757e-09
201	0x2303037c	7.102262e-18
202	0x28e54d24	2.5457562e-14
203	0x2df6515b	2.8003091e-11
204	0x352ac617	6.3618194e-07
205	0x2d6715d2	1.3135675e-11
206	0x2b69e882	8.31009e-13
207	0x3600ee38	1.9212148e-06
208	0x12b36e3e	1.1323665e-27
209	0x119acd21	2.4423336e-28
210	0x00000000	0.0
211	0x2cf595d6	6.979954e-12
212	0x148af7c5	1.4032167e-26
213	0x0f1ec7fa	7.8285155e-30
214	0x30c4bd6e	1.4314716e-09
215	0x2a6d552f	2.1079383e-13
216	0x2cc6043f	5.62797e-12
217	0x3151cac1	3.0528755e-09
218	0x2feb60a0	4.2814907e-10
219	0x0cd795bf	3.321612e-31
220	0x38d7c271	0.000102882164
221	0x2dd4484a	2.4133712e-11
222	0x3306eaf0	3.141298e-08
223	0x367f48ce	3.804034e-06
224	0x3a904260	0.0011006109
225	0x36a40a2b	4.8887646e-06
226	0x35c5e404	1.4744005e-06
227	0x3b820d04	0.0039688367
228	0x134d3f70	2.5905915e-27
229	0x12899d9e	8.684771e-28
230	0x10150fd8	2.9397274e-29
231	0x00000000	0.0
232	0x1a1e717b	3.2765303e-23
233	0x10010f30	2.5452464e-29
234	0x383a11b0	4.436233e-05
235	0x347ba45e	2.3435993e-07
236	0x3571183b	8.9814756e-07
237	0x3973fb49	0.00023267897
238	0x383d1cb4	4.5087843e-05
239	0x0e661c38	2.8363276e-30
240	0x341d5295	1.4651808e-07
241	0x27e927c5	6.471361e-15
242	0x2be8bc54	1.6536863e-12
243	0x305721b5	7.8264445e-10
244	0x37021991	7.7545565e-06
245	0x2fad29ce	3.149822e-10
246	0x2dfa49a4	2.8454412e-11
247	0x37c7fe8d	2.3841183e-05
248	0x12c228a4	1.225314e-27
249	0x1099a5ce	6.060332e-29
250	0x0e5828ee	2.6643762e-30
251	0x2f8c0f66	2.5476793e-10
252	0x00000000	0.0
253	0x0e2414d5	2.0224591e-30
254	0x33229f5f	3.786351e-08
255	0x2d476441	1.1334101e-11

exp_avg f4 [9, 20]
0	0x3a21a6b3	0.0006166503
1	0xb77dc564	-1.5125934e-05
2	0xb88aa3d1	-6.610866e-05
3	0x3a7a85e5	0.0009556695
4	0x3ac8150e	0.0015265064
5	0x3a794381	0.0009508655
6	0x3a168dfb	0.00057432026
7	0x3b1c5f3e	0.002386048
8	0x00000004	6e-45
9	0x00000004	6e-45
10	0x00000004	6e-45
11	0x3a1a83d2	0.00058942765
12	0x00000004	6e-45
13	0x00000004	6e-45
14	0x3a918327	0.0011101709
15	0x38b68e57	8.704949e-05
16	0x3a50a310	0.00079588685
17	0x3b28e2d1	0.0025769959
18	0x3aefadc6	0.0018286041
19	0x00000004	6e-45
20	0xba6d301a	-0.0009048
21	0x37b6bef5	2.1785012e-05
22	0xb9af5acb	-0.00033446247
23	0xba832df4	-0.0010008202
24	0xbb43b330	-0.0029861443
25	0xbac4fb85	-0.0015028572
26	0xba7a493b	-0.00095476554
27	0xba488ff7	-0.0007650847
28	0x80000004	-6e-45
29	0x00000004	6e-45
30	0x00000004	6e-45
31	0xba2d5913	-0.00066126994
32	0x80000004	-6e-45
33	0x00000004	6e-45
34	0xb992359f	-0.0002788724
35	0xba9f3a41	-0.0012148098
36	0xba01e490	-0.0004955018
37	0xba8c9d8f	-0.0010728108
38	0x392183cf	0.00015403259
39	0x00000004	6e-45
40	0x3b99cca5	0.004693585
41	0x34cabbe9	3.7762155e-07
42	0xb8950687	-7.1060895e-05
43	0x3b5236fb	0.0032076228
44	0x3c3a0c4f	0.011355474
45	0x3b0d8904	0.002159656
46	0x3aa5f600	0.0012661815
47	0x3c27eba8	0.010249056
48	0x00000004	6e-45
49	0x00000004	6e-45
50	0x00000004	6e-45
51	0x3b15360c	0.002276781
52	0x00000004	6e-45
53	0x00000004	6e-45
54	0x3ba57f0d	0.005050546
55	0x3a731b5a	0.000927379
56	0x3b22f3c4	0.0024864534
57	0x3be85ceb	0.007091155
58	0x3ba1b0bc	0.0049343985
59	0x00000004	6e-45
60	0xbb4bea1b	-0.003111488
61	0xb6ac03e1	-5.126451e-06
62	0xb98399aa	-0.00025100756
63	0xbb4ddc48	-0.0031411815
64	0xbbae3557	-0.005316417
65	0xbaf2a656	-0.0018512707
66	0xbb1d4d22	-0.0024002274
67	0xbbc43f17	-0.005988966
68	0x00000004	6e-45
69	0x00000004	6e-45
70	0x00000004	6e-45
71	0xbb3f0e10	-0.002915267
72	0x00000004	6e-45
73	0x00000004	6e-45
74	0xbb0d5b44	-0.002156929
75	0xbb0eabc8	-0.002176987
76	0xba9ad5d0	-0.0011812989
77	0xbbac1357	-0.005251329
78	0xbb45eda8	-0.0030201469
79	0x00000004	6e-45
80	0xba03c958	-0.0005027256
81	0xb7328e5d	-1.0642773e-05
82	0x38ba490b	8.8827765e-05
83	0x381aca0b	3.690463e-05
84	0xb94c9e7a	-0.00019513993
85	0xb98076c5	-0.00024502553
86	0x399c4cf7	0.00029811982
87	0xbb67f106	-0.0035391464
88	0x00000004	6e-45
89	0x00000004	6e-45
90	0x00000004	6e-45
91	0x39c9a882	0.00038463256
92	0x00000004	6e-45
93	0x00000004	6e-45
94	0xb948895e	-0.0001912466
95	0x3ad3a8c3	0.0016148317
96	0x392ae6e3	0.00016298475
97	0xbb0644d1	-0.0020487795
98	0xba8762be	-0.001032911
99	0x00000004	6e-45
100	0xbb7042d9	-0.0036660938
101	0x35882cb6	1.0145802e-06
102	0xbaa9f72f	-0.0012967343
103	0xbbd35efb	-0.0064505315
104	0xbc1143fc	-0.008866306
105	0xbb0589fd	-0.0020376437
106	0xbb24ba25	-0.0025135365
107	0xbc6dfda1	-0.014525802
108	0x00000004	6e-45
109	0x00000004	6e-45
110	0x00000004	6e-45
111	0xbbb090d6	-0.0053883595
112	0x00000004	6e-45
113	0x00000004	6e-45
114	0xbb8c2541	-0.004276902
115	0xbaf4ea02	-0.0018685462
116	0xbb8649a8	-0.004098136
117	0xbc0e4256	-0.008682808
118	0xbbad204c	-0.005283391
119	0x00000004	6e-45
120	0x3a03a655	0.0005022039
121	0x3543e400	7.2974944e-07
122	0x3a49f03d	0.000770334
123	0x3af85910	0.0018947441
124	0x38dc123b	0.00010493813
125	0x3a6f8fd6	0.00091385597
126	0x3ae71a1e	0.0017631685
127	0x3ba6a6d3	0.005085805
128	0x00000004	6e-45
129	0x00000004	6e-45
130	0x00000004	6e-45
131	0x3adad3aa	0.0016695161
132	0x00000004	6e-45
133	0x00000004	6e-45
134	0x39a6f961	0.0003184779
135	0x3a808edb	0.0009808199
136	0x39ebfb54	0.00045009947
137	0x3b355d42	0.0027673994
138	0x39ec936b	0.00045123263
139	0x00000004	6e-45
140	0x3ae60b81	0.0017551036
141	0x3636e68a	2.7254305e-06
142	0x3a1dbfc8	0.00060176523
143	0x3ad1bd7a	0.0016001903
144	0x3a650ba1	0.00087373896
145	0x3a820a93	0.0009921364
146	0x3a9c8ad1	0.0011943226
147	0xb98a1234	-0.00026334974
148	0x00000004	6e-45
149	0x80000004	-6e-45
150	0x80000004	-6e-45
151	0x3ade2670	0.0016948711
152	0x00000004	6e-45
153	0x80000004	-6e-45
154	0xb9da625e	-0.0004165349
155	0x3a935706	0.0011241145
156	0x3a6f7b9e	0.0009135547
157	0x3ab4b19d	0.0013785843
158	0x3a1ee68e	0.0006061577
159	0x80000004	-6e-45
160	0x3a21e474	0.0006175705
161	0x368f08dc	4.2627635e-06
162	0x3a1264ca	0.0005584477
163	0x3b3de26f	0.0028974076
164	0x3b6598a2	0.0035033603
165	0x3a229a9d	0.0006202849
166	0x3a4a7c1d	0.0007724183
167	0x3bf13856	0.007361452
168	0x00000004	6e-45
169	0x00000004	6e-45
170	0x00000004	6e-45
171	0x3b19fcf1	0.0023496712
172	0x00000004	6e-45
173	0x00000004	6e-45
174	0x3a5c8a45	0.0008412938
175	0x3a09ed51	0.0005261498
176	0x3a7d387a	0.00096596
177	0x3b54711f	0.0032416058
178	0x3ab28627	0.0013620303
179	0x00000004	6e-45
