checkpoints/RNN_174.pt (torch, 111359 bytes, 9 tensors)

snn.l1.input_weights f4 [20, 416]
00000000: ed36 63bd 31b4 1c3f 7533 503e b805 343e
00000010: bc0b 06bf 31fe 8a3e b8dd 5abe fa05 ef3e
00000020: c393 5dbd 1dcf 2a3f 2a5e 853e 4aa7 49be
00000030: c74c 56bc cd3b 2ebf 1bcd b43e 0dae 723e
00000040: a067 f9be f4d8 38be 1d17 f2bd ecba 5ebe
00000050: 12a4 e93e aab3 95bd 33d7 743e 427f 0b3f
00000060: 177c 5f3e a6d2 f53e c313 a23d 2399 a83e
00000070: 8996 073f 2184 a0bd 7b67 1b3f 2838 333f
00000080: d31f 493e 3b8f d5be 7eb5 bebe 82aa a93d
00000090: 973e 703f 70cf 7e3d dd7b b3be cd67 2c3e
000000a0: 956a babe 3249 393f 6a1f 1abe 0961 353f
000000b0: fccb 193f adf3 bd3e b7bd 093f cb29 293e
000000c0: f393 7c3e 81c8 53bf 239d 32be 4c58 de3c
000000d0: 17f8 a03f b152 663f 125a 103f 6070 873f
000000e0: e024 423f 4b07 6a3f f3f9 923f e52c a53f
000000f0: 93d6 a03f 5ff9 183f 9846 a43f 0996 423f
00000100: 28ee b03f 8b16 aa3f 98e0 a43f a2e8 bf3f
00000110: 2024 a13f 773f 4a3f 3ce4 783e 0ec5 f53e
00000120: 174d 823f 9ccf 963f 8c77 423f 84f4 743f
00000130: 2ae6 a03f 25ba 1e3f ea84 b03f f3c9 603f
00000140: 02e7 b63f c659 b63f fa06 683f 881e bc3f
00000150: 84d8 903f 9ad2 733f 769b 1e3f a984 4d3f
00000160: 115d 5d3f 60b8 6f3f 7c3f 673f 3fbc 9e3f
00000170: 5322 ba3f 6134 793f 101c 893f e544 5d3f
00000180: 26d7 5f3f b760 c83f 52c3 623f 1ebc c23f
00000190: 5904 ff3e 78cd 533e 97f4 7a3f e44c 933f
000001a0: 9c9c 1140 57ae 0b40 3b29 d43f 6eb3 d83f
000001b0: 9d2b 0f40 a8dc 2740 13fe b83f 4352 1440
000001c0: d54d aa3f 5dbb 0240 f7a9 1540 04f3 2540
000001d0: 1fff 1740 172d e73f 7fd7 bf3f fe62 0540
000001e0: ca5f 0a40 1b17 eb3f c451 ee3f 785c fb3f
000001f0: a6d0 0a40 7160 0640 a3ee c83f 589c dc3f
00000200: 278d b83f 7fbb 0440 fd57 1240 e720 2e40
00000210: 65ae 1a40 ad3e d73f 808b c93f 6cd3 b13f
00000220: 6219 0840 3078 fb3f 5d85 cf3f 7499 0140
00000230: a099 f73f 8886 e03f 6a49 e23f 1ded e83f
00000240: a737 ae3f 09a8 1e40 9fce 1340 6bf7 4640
00000250: 2f5c 2340 30ea d13f 20a0 b53f 2d7e de3f
00000260: 739d 1b40 1fd2 e83f d46c d23f 4e38 2740
00000270: e669 f2be 9b5b cf3e 529b ff3e 3495 8b3e
00000280: 9261 073f 6257 ca3d e13f 533f 2a2f af3f
00000290: 42a7 763f 51c8 113f 1b78 663f b9be 373f
000002a0: be62 083f 6343 913e 8c9d a73e 7709 1ebe
000002b0: 16b4 77be 0b40 cd3e 7fb6 993d 3bde 1f3e
000002c0: fdd0 2f3e 41a3 cd3d bf89 813f 8120 7f3f
000002d0: e1a5 2e3f f35f 263d 94ef a83d c126 663f
000002e0: 3443 423f 28f6 1c3e 3751 603f 7eab 0c3f
000002f0: d61f 2cbe 9d65 4a3e 2b9c d53e 9281 973e
00000300: e58f 1f3e 21a5 92be ff4b 8f3f 4d35 623f
00000310: e462 2a3f 06dd a33e 70b7 ac3d a92f 523f
00000320: a2eb f23e 5ea7 be3e 9106 4f3f fd94 213f
00000330: 8246 c73e cad1 123f 552f fa3d 8a75 123f
00000340: 0bed a4bb e81b 9f3e 0654 e53c eda9 15be
00000350: 106e 923e 508c 2d3d 777e 39bf 73cc 09bb
00000360: 7794 52be 7bf1 a4bc 7545 0b3e 0eca cebe
00000370: a324 a33e 1d5f 20bf 348c 33bf a138 ddbe
00000380: 7006 5ebe 9d26 193f 5eb7 14be 6452 16be
00000390: 2496 0f3f 3e5d 94be 66cd 7ebf 4d48 6e3e
000003a0: d013 dbbe 855d 2cbe a98d 993d 32b6 39be
000003b0: bfba f33e a0f9 033e 0211 bcbe a1fc 03bf
000003c0: cbbb 69be 04c4 57be 8d26 25bd f17e bdbe
000003d0: e90a df3e 9f1f 45bf e787 18bf 843a 493f
000003e0: 4dae 86be 7b69 6c3c 02c3 fc3d 6bf6 02bf
000003f0: 658e 8abd c248 613e d7f8 f4be 80c7 1bbf
-0.055472303 0.6121245 0.2033213 0.17580307 -0.52361655 0.27147058 -0.21373641 0.46684247
-0.054095995 0.6672228 0.26048404 -0.19692722 -0.013079829 -0.6806 0.35312733 0.23699208
-0.48711872 -0.18051511 -0.11820815 -0.21750993 0.45632988 -0.07309659 0.23910217 0.54491055
0.2182468 0.48012275 0.079139255 0.32929334 0.52964073 -0.078377016 0.60704774 0.7000756
0.19641046 -0.4171084 -0.37247843 0.08284475 0.93845505 0.062209547 -0.35055438 0.16836472
-0.3640944 0.7237731 -0.15051046 0.7085119 0.6007688 0.37099972 0.53805107 0.16519849
0.24665813 -0.8272782 -0.17442755 0.027141713 1.2575711 0.8996993 0.56387436 1.0581169
0.75837517 0.9141738 1.1482528 1.2904326 1.2565483 0.5975551 1.2834044 0.76010185
1.382268 1.328813 1.288104 1.4992869 1.258915 0.7900309 0.24305815 0.48001903
1.0179776 1.1782107 0.75963664 0.956856 1.257024 0.62002784 1.3790562 0.8780815
1.4289248 1.4246147 0.90635645 1.4696817 1.1316075 0.9524323 0.61955965 0.8028055
0.86470133 0.9364071 0.90331244 1.2401198 1.4541725 0.9734555 1.0711689 0.8643325
0.87437665 1.5654515 0.88579285 1.5213659 0.49808004 0.20683849 0.98029464 1.150784
2.2751837 2.1825159 1.6575083 1.6929758 2.237037 2.6228428 1.4452537 2.3175209
1.3305002 2.0426857 2.3384988 2.5929575 2.3749464 1.8060635 1.4987639 2.084167
2.1620965 1.8366426 1.8618703 1.9637594 2.168985 2.0996363 1.5697826 1.7235212
1.4418076 2.0739439 2.2866204 2.7207582 2.4168942 1.6816002 1.5745697 1.3892646
2.1265492 1.9646053 1.6212574 2.024991 1.9343758 1.7541056 1.7678654 1.8197361
1.3610734 2.479006 2.3094862 3.1088512 2.5525014 1.6399593 1.4189491 1.7382256
2.431485 1.8189124 1.6439462 2.6128116 -0.4734642 0.40499577 0.49923187 0.2726227
0.52883255 0.09879948 0.82519346 1.3686268 0.96348965 0.56946284 0.90027016 0.71775395
0.5327567 0.28371724 0.32737386 -0.15433298 -0.24189791 0.40087923 0.075055115 0.15612118
0.17169566 0.10040904 1.0120162 0.9965897 0.6822186 0.040618848 0.08248821 0.89902884
0.75883794 0.15328276 0.87623924 0.54949176 -0.1680902 0.19765325 0.4172071 0.29591042
0.15582235 -0.28641608 1.1195067 0.8836258 0.66557145 0.32004565 0.084334254 0.82103974
0.474454 0.37237066 0.80869395 0.63117963 0.3892098 0.5735136 0.12216059 0.572106
-0.0050331405 0.31075978 0.027994167 -0.14615603 0.28599596 0.04237014 -0.72458595 -0.0021026402
-0.20564447 -0.020134678 0.13600715 -0.4038853 0.3186389 -0.6264513 -0.7013581 -0.43207267
-0.21682143 0.59824544 -0.14523074 -0.14679867 0.5608847 -0.28977388 -0.99532163 0.23269768
-0.42788553 -0.1683255 0.07497723 -0.18135908 0.47603413 0.12888193 -0.36731726 -0.51557356
-0.22825544 -0.21070868 -0.040319968 -0.3701091 0.4356301 -0.77001375 -0.5958237 0.7860491
-0.26304856 0.014429445 0.12341882 -0.51157254 -0.06765441 0.22000411 -0.478461 -0.6085129

snn.l1.recurrent_weights f4 [20, 20]
00000000: 0000 0000 c509 9c40 45f1 b63f 8dfd 9c40
00000010: 70ca 6fbd e6c2 dfbf 1118 10bf 0eec 64c0
00000020: a3a8 be40 aeaf 3440 e5b0 5640 2250 ca40
00000030: 64b5 ce40 1db7 5b40 c5a6 d4bf 879d e13e
00000040: 5417 ad40 7cef a8c0 f344 0240 7578 523f
00000050: 0072 ac3e 0000 0000 8944 8341 3a70 2a41
00000060: 8efd 2ec0 e85c cc40 9cc6 6541 ab8c b3c0
00000070: 67a0 d040 db7e 8240 777b 6440 f103 3441
00000080: 9e57 5341 dbe2 9440 6ad7 f13e a179 f340
00000090: 9e3f 6bbf 600c 8b40 4c71 183f 38fa f23f
000000a0: ed91 093f c9f3 f040 0000 0000 d5a0 0341
000000b0: 77d7 50c0 f826 bc40 684d 1b41 23b8 12c0
000000c0: 9b1e 0440 c426 9640 bd5d f53f fd75 2841
000000d0: fdef 1341 68fe 8240 74b5 8540 78d2 bc40
000000e0: 3cd6 6bbf 20d5 d540 5632 2740 19fd 3a40
000000f0: 3fc2 153f 9bfb 5440 b941 2d40 0000 0000
00000100: 48be d63e e12a f5bf bd33 d340 bc12 f73f
00000110: b251 8740 8e5e 553f 62cf 2a40 2fb1 9f41
00000120: 2ad4 a840 5efe b93f f29b 0240 eed7 ccbe
00000130: d575 5440 138c ff40 5f1e e740 68e7 bebe
00000140: 2bc7 1cc0 2b41 2b40 8c95 5840 ad91 0041
00000150: 0000 0000 45d5 27c0 5974 2640 d3b1 a3c0
00000160: a510 ab40 59b2 c43f bfca 3540 1e1c e740
00000170: a5e9 ad40 f110 c73f 39e5 f9bf 2339 d2bf
00000180: 89c3 613f c251 24c0 4ba3 81c0 64e4 19be
00000190: 532e 06bf de83 7040 2dff cb40 f5e8 50bf
000001a0: 2845 d6bd 0000 0000 465a fc3f b2c1 973e
000001b0: 03aa a740 ceee 2e40 6a70 3c40 fe44 b53f
000001c0: f1f1 b340 5fd9 8340 368a a340 cbf3 a23f
000001d0: 9776 4c3f bd47 cbbe b8fc 2c40 8770 913f
000001e0: e863 e93f 6447 a740 ef38 d740 cc38 c040
000001f0: cb75 c3bf 47d0 ba40 0000 0000 072e d93e
00000200: f595 2340 9a86 de3f f655 2e3f 0c30 a740
00000210: aa06 9340 8e79 f13f e193 d13f cf33 3940
00000220: c3ae 2cc0 c1f9 0641 31fc 8440 ab9d a83f
00000230: 8797 f1bf 2987 0d41 f7a0 8040 61a3 89be
00000240: bc98 c140 98ac 2ec0 ead1 eac0 0000 0000
00000250: 0081 be40 6dae dd3f d643 3f40 4d95 4640
00000260: 460b 0341 5916 6240 b17c 77c0 9044 8c40
00000270: 7a07 0c40 b48e 11c1 fbf1 3ac0 0724 9d3f
00000280: d7cb 4bc1 858c 8640 708a 6640 cf58 1340
00000290: fdd0 2cc1 862f 16c1 8028 69c0 cbf4 82c1
000002a0: 0000 0000 0c04 4bbe a993 7440 8760 643f
000002b0: fb02 0d41 c419 0640 f12e 21c1 d1c8 3ac0
000002c0: d5d5 74c0 706a 39c1 9f34 34c1 a63d c9bf
000002d0: 524b 4ec1 d855 9540 d04f e540 ac83 a1c0
000002e0: 5c42 50c1 6fa0 04c1 fcda b9c0 5bbc 86c1
000002f0: c4e9 bf40 0000 0000 3fe7 6340 2237 4ac0
00000300: 2fcf f940 49b2 9840 fa15 d4c0 4103 81c0
00000310: cdf6 d5bf d9cd 2fc1 3588 28c1 22c0 983f
00000320: c4ee 78c1 5864 8f3f 29a5 9740 8823 07c0
00000330: 540f 3cc1 d297 37c1 05d5 0ec1 a455 96c1
00000340: bacc ec40 ac1f 3040 0000 0000 e15e 28c0
00000350: 712f cf40 92dd 6640 cd3a 30c1 400e 02c1
00000360: 1b71 89c0 22f5 6cc1 28d2 43c1 d323 dfbe
00000370: 206e 9b3f 71bb 933f 71d5 b93f 5870 6a41
00000380: cbaf d3bf 5d27 d43f 8638 9340 bffa ae3f
00000390: 6a62 e63f 24b9 493e 9a17 3c3f 0000 0000
000003a0: abad 6d40 084c e73f 3084 823f f093 873e
000003b0: fe95 2b3b 62b3 cd40 bc6e c440 e64d 8a3d
000003c0: 9ad0 bfc0 01b7 1b41 d8b9 2141 aa59 c040
000003d0: 05b2 f6c0 0121 3abf a84e c040 9836 29c1
000003e0: 3b67 ef40 6555 d93f 2102 9440 925a c540
000003f0: 0000 0000 53e9 7b40 6577 b7c0 9d20 d63f
0.0 4.8761926 1.429238 4.905951 -0.05854267 -1.7481353 -0.5628672 -3.5769076
5.9580855 2.8232226 3.3545468 6.322282 6.4596424 3.4330513 -1.6613394 0.44065496
5.4090977 -5.279234 2.0354583 0.8221505 0.33680725 0.0 16.408464 10.652399
-2.7342257 6.386341 14.360989 -5.6109214 6.5195804 4.0779853 3.5700357 11.250962
13.208891 4.6526923 0.4723466 7.6085973 -0.9189395 4.3452606 0.5954788 1.8982611
0.5373829 7.529759 0.0 8.226766 -3.263151 5.879757 9.706398 -2.2924888
2.064368 4.692232 1.9169232 10.528806 9.246091 4.0935555 4.1784 5.900692
-0.9212377 6.682266 2.6124473 2.9216979 0.5849952 3.3278568 2.7071364 0.0
0.41942048 -1.9153711 6.6000657 1.9302592 4.2287226 0.83347404 2.6689076 19.961515
5.275899 1.4530752 2.0407681 -0.4000849 3.319692 7.985849 7.2224574 -0.37285924
-2.4496562 2.6758525 3.3841276 8.035565 0.0 -2.622392 2.6008513 -5.115457
5.345782 1.5366927 2.8404996 7.2221823 5.434771 1.5552045 -1.9523078 -1.6423687
0.8818899 -2.56749 -4.051183 -0.1502853 -0.52414435 3.7580485 6.3748994 -0.81605464
-0.10462409 0.0 1.9715049 0.29639965 5.2395034 2.7333255 2.9443612 1.416168
5.623284 4.1202846 5.1106215 1.273065 0.79868454 -0.3970317 2.7029247 1.1362466
1.8233614 5.2274647 6.7257 6.006933 -1.5270323 5.8379245 0.0 0.4241793
2.5560277 1.7384827 0.68099916 5.224615 4.5945635 1.886522 1.6373254 2.8937871
-2.6981666 8.435975 4.155785 1.3173116 -1.8874367 8.845498 4.019649 -0.2688246
6.0498943 -2.7292843 -7.3381243 0.0 5.953247 1.7318856 2.9885154 3.1028626
8.190252 3.532614 -3.8669856 4.3833694 2.1879563 -9.09734 -2.9210193 1.227662
-12.737266 4.2046533 3.6021996 2.3022954 -10.801023 -9.386602 -3.643097 -16.369528
0.0 -0.19825763 3.8215125 0.8920979 8.813228 2.0953226 -10.07396 -2.9185069
-3.8255513 -11.588486 -11.262847 -1.5721939 -12.893389 4.666729 7.1659927 -5.047323
-13.016201 -8.289168 -5.8079815 -16.84197 5.997286 0.0 3.5609891 -3.159615
7.806541 4.7717633 -6.6276827 -4.031647 -1.6715943 -10.987756 -10.533254 1.1933634
-15.558292 1.1202497 4.738911 -2.1115437 -11.753742 -11.4745655 -8.927007 -18.791817
7.399991 2.751933 0.0 -2.630791 6.474541 3.6072736 -11.014356 -8.128479
-4.295057 -14.809847 -12.238808 -0.4358202 1.2142982 1.1541578 1.4518262 14.652428
-1.6538023 1.6574513 4.60065 1.3670272 1.7998784 0.19699532 0.73473513 0.0
3.7137249 1.8070078 1.019659 0.26480055 0.0026181932 6.4281473 6.1385174 0.06753139
-5.994214 9.732179 10.107872 6.0109453 -7.709231 -0.7270661 6.0096016 -10.575829
7.4813514 1.6979185 4.62526 6.167306 0.0 3.936116 -5.7333245 1.6728703

snn.fc_out.weight f4 [9, 20]
00000000: 60a5 5cc0 324d 32be 6ed9 ccbf 2cb7 1bc1
00000010: d3df 3b3e 44e1 57c0 ba8d d9c0 0cb3 fa40
00000020: 536f 56c0 0166 98bd 6c5c adbf 7b5f 15c1
00000030: 1a7f 1ac0 7fa6 a6bf 50b1 ae3e 9f09 2040
00000040: 8d96 ae40 217c afbf dd6c 46bf 375c 68be
00000050: 26de 2cc0 2577 2240 ee68 fe40 e455 4ec0
00000060: 33e8 9cbf 1c89 d03f 80ee 923e 800c f4bf
00000070: 10ad 0d3f fc14 2640 d977 f43f 09a3 afbf
00000080: a770 2040 11c8 ac3f 5835 4340 1af8 a6c0
00000090: 8cfe adbf 5570 f33f 7ed7 873e 1619 d73f
000000a0: 5db2 2e40 fc06 cb3f caa3 96be e41e a4bf
000000b0: db49 a040 fa60 c03e bcd5 353f e6e0 0c3f
000000c0: 7242 8540 ce5f 363e dd00 fa3f bfa1 3fc0
000000d0: b301 e73f 27a6 1f3f 34eb 3d3f 5671 4640
000000e0: bef7 a6c0 71bc 73c0 b29a 58c0 479d 3d3f
000000f0: e8b6 0940 c844 d3bf 0525 a3bf d8de c5c0
00000100: 7f00 b5bf 73b2 8b40 1b4d 8ebf d811 703f
00000110: 5f32 e0bd f15f b73f 5fb4 f13e 39b4 d5bf
00000120: adbc d03e 7ded cd3f 3c75 5340 0f6e 5540
00000130: 847f 4f40 955e 37c0 171d e93e d248 933f
00000140: 3781 b2bf 146a 5240 7f21 ab3e 11c2 69c0
00000150: 248b 07bf b016 d6bf c60e aa40 0670 5bbf
00000160: b6e4 1dc0 8fc8 3cbf 9048 f6bf 10a6 e6c0
00000170: acbb 8c3f 2238 d7bf d240 dbbf 675c d03f
00000180: b023 01c0 cbeb 8340 51e9 33bf 8d96 a4bf
00000190: ae71 2540 b3a7 cbbf 60ab 6dc0 d552 4a3f
000001a0: 17ab 1ac0 495e 63c0 f470 1dc0 c7b7 1fbf
000001b0: cb84 86c0 3a4e 74bf f40c 28c0 fbc1 d63f
000001c0: c605 20c0 99e8 02bf 3e40 74c0 eb2b 613e
000001d0: 8b60 6140 5b75 293d 99ee 10be 1a01 fabe
000001e0: f66b 0ac1 a443 0fc1 efd3 12c1 d8cb a140
000001f0: c513 99c0 fe24 dc3f 123c 3cbf a603 78bd
00000200: c796 b8c0 29c2 02c1 e24d dec0 41b9 9c40
00000210: 6430 c2c0 5765 c9c0 2d91 00c1 41a8 41c0
00000220: a42c 48c0 98aa 973f 2459 1dbf 03a5 83c0
00000230: 0411 77c0 065e 2cc0 1dc6 c7c0 3eee 0541
00000240: 0f74 0a40 c5e8 20c0 5a95 d0bf 8a91 8cc0
00000250: a96a 6940 ed51 3fc0 2a41 0740 cfe8 4a40
00000260: be48 743e 29ab b3bf 3146 93c0 b555 10c1
00000270: 1c9c b0c0 4bce 41be df27 a53f b100 59c0
00000280: 22fc 48c0 8061 42c1 d32d 2bc0 473a a340
00000290: abf9 04c1 6315 29c1 00c0 16c1 9900 1d3e
000002a0: 6e74 08c1 21e5 62c0 21d3 97c0 5c50 b140
000002b0: 1ea9 49c1 3b77 89c0 6b33 f23f b48c b3c0
000002c0: 5952 abbe bb9d ea3f 5ad9 a03e 41d7 04bf
-3.4475937 -0.1741226 -1.6003854 -9.73222 0.18347101 -3.3731241 -6.7985506 7.8343563
-3.3505447 -0.07441331 -1.354383 -9.335811 -2.4140077 -1.301956 0.34119654 2.5005872
5.455878 -1.3709756 -0.7750986 -0.22691427 -2.7010589 2.538522 7.950309 -3.2239923
-1.2258362 1.6291842 0.28697586 -1.9066315 0.553422 2.5950308 1.9099075 -1.3721629
2.5068758 1.3498555 3.0501308 -5.217786 -1.3593307 1.9018656 0.26531595 1.6804531
2.7296364 1.5861506 -0.29421836 -1.2821927 5.0090156 0.37573987 0.7102926 0.5503067
4.164361 0.17809984 1.9531513 -2.9942472 1.8047394 0.62362903 0.74187016 3.1006675
-5.217742 -3.8083766 -3.3844419 0.7406811 2.1517887 -1.6505365 -1.2745672 -6.1834526
-1.4140776 4.3655334 -1.1117281 0.9377723 -0.109471075 1.4326154 0.47207925 -1.6695625
0.40768948 1.6088101 3.3040304 3.3348424 3.242158 -2.8651478 0.45530006 1.1506598
-1.3945683 3.2877245 0.33423993 -3.6524699 -0.52946687 -1.6725674 5.3143034 -0.8571781
-2.4670844 -0.7374353 -1.9240894 -7.2077713 1.0994773 -1.6814005 -1.7129157 1.6278199
-2.0178032 4.1225333 -0.7027789 -1.2858444 2.5850635 -1.5910553 -3.713585 0.7903264
-2.4166925 -3.5526297 -2.460019 -0.62389797 -4.20371 -0.95431864 -2.6257906 1.6777948
-2.5003524 -0.51136166 -3.816421 0.2198941 3.5215175 0.041371685 -0.14153518 -0.48828965
-8.651358 -8.954014 -9.176742 5.0561333 -4.7836633 1.7198789 -0.7352916 -0.060550354
-5.7684054 -8.172402 -6.947007 4.897614 -6.068407 -6.2936206 -8.035443 -3.0258944
-3.1277246 1.1848936 -0.6146414 -4.113893 -3.8604136 -2.6932387 -6.2429338 8.370665
2.1633337 -2.5142071 -1.6295578 -4.392766 3.647135 -2.9893754 2.1133523 3.1704595
0.23855874 -1.4036609 -4.6023183 -9.020925 -5.5190563 -0.18926351 1.2902793 -3.3906672
-3.140389 -12.148804 -2.674672 5.100864 -8.310954 -10.567721 -9.421875 0.15332259
-8.528425 -3.545235 -4.7445226 5.5410595 -12.603788 -4.2958045 1.8921942 -5.6109257
-0.33461264 1.8329386 0.31415826 -0.5189095

exp_avg f4 [20, 416]
00000000: d4e2 8aba 6160 b4ba 0108 05bb 4486 deb9
00000010: 6ac6 a6ba 8eab 9239 24cf 93ba 2a02 d1ba
00000020: 35a5 28ba 0928 c1ba fe4a 0ebb a2d7 a53a
00000030: 128f 86bb 3202 cd3a 9446 07bb c53d 173b
00000040: e05d f8b9 ce3c 80ba 1a68 a83b 57f8 8abb
00000050: aba7 60ba eaff a1ba 8110 363b 9c6a a73a
00000060: 7105 9b3a fe2a ae39 59fb 313b 132a 1abb
00000070: 8eba 7139 ef2d 133b 2ecb e1ba be6d 52bb
00000080: c7a2 bd3a 0940 163b c756 80bb 1f4e 8ebb
00000090: 8ec3 663b c860 a13a c490 67bb 4e53 1abb
000000a0: ee18 9cb9 8a1a 6eb6 0e3a 093b 0dad c73a
000000b0: 848c 00ba 6d26 5a3b 1f50 cdb8 ae21 ba3a
000000c0: 9795 573a 83c5 633b 4a67 c9b9 145c ed3a
000000d0: 2a69 d03b b933 c1ba c90e 6a39 3684 313a
000000e0: 0739 0e3a 9094 16bb 1945 0ebb a483 12ba
000000f0: 0dd9 9e3a 88a1 733a 06c3 48b9 260e 0abb
00000100: c87b 3bbb 27ee 1039 551a 393b 5379 6fba
00000110: 5503 b63a 5d6b e73a ef07 de3a 0c11 4dbb
00000120: f498 ce3a a0fb 61b9 7c2f d83a 19db 613b
00000130: d924 86bb d590 34bb cb8f 3f3a 4f89 2cbb
00000140: 351c 1a3a 4047 bfb9 6369 45ba 310e 13ba
00000150: f47e 81ba 4f23 523b 02ef 0dba b4ca 5abb
00000160: 33e6 553b 96c8 8ebb 3fd1 3539 0102 c0b9
00000170: 6f7c 9b39 3ed4 6eba a23d 35b9 f06b 0cbb
00000180: 2ec3 b0b9 2438 c33a cd6c 9c39 3567 1c3b
00000190: c9d7 24ba aa9b f93a a710 c3ba 3be9 f7ba
000001a0: 8ba9 0b3b 9d45 b3b9 195e c63a 119e edb8
000001b0: 5989 2bb9 39f5 443b b7b4 feb9 a61f d9ba
000001c0: 6c46 093b c331 31ba 0401 143a 71e8 7b3a
000001d0: c167 ee3a 98ff 103b 43bf 683b 86b2 c43a
000001e0: 4ffe ab3b ef34 a0ba b6ba 4337 acaa bbba
000001f0: 3214 73ba 0a64 133b 5be6 453b df6a 823a
00000200: 170e a438 3889 16bb fa53 3a39 20f1 24bb
00000210: 7e55 cfb9 d387 efb9 665f 733a 248a a5b9
00000220: 601b a43a c180 ab3b 5798 803a 7efb 2ebb
00000230: 48e5 64ba 2b2d 8fb9 8886 baba 1d5e c0ba
00000240: 1527 43b9 0225 463b 87a9 cab9 96aa 1d3a
00000250: 63ab 75b8 84cd 603b d1b9 58bb 9d92 8a36
00000260: 85ff 86bb 1459 a43a 178e 3cbb f038 72ba
00000270: 0960 d5b9 2602 22b9 75e4 163a b5a4 7d3b
00000280: fbfb e439 0f09 6f3b 4b12 93bb 00b7 1c3b
00000290: cfd9 673b df80 d3ba 2f0e bd37 3195 c13a
000002a0: a8c8 51ba 97a6 fa39 50aa cf3b f7aa 493b
000002b0: b5ef 0abb 1225 1e3a df3f 023a f15e 47ba
000002c0: 40c4 8538 8548 aa3b 4ee4 4c3a 09e0 6e3a
000002d0: 1a8a 433b c410 f93a dccd 03bb 2916 b13b
000002e0: ea28 243b 6525 cfba 8f98 a93b 95d1 58bb
000002f0: b045 803b 4ca8 dd3b 0643 30ba b25e 0fbb
00000300: 6c49 a9b8 2b19 6bb9 2eae f8ba 332b d93a
00000310: f7dc 223b 62f3 33ba 5dc1 a6ba 665b afba
00000320: e0c9 753b 91ba 053b a478 d0bb 388c 143a
00000330: 4130 dfb8 1271 023b f06a 3c3b 72e7 93bb
00000340: 0c87 a73a 6b8a 5539 8844 1aba c946 ab3a
00000350: b3bb 913a 5d0e 6e3a 53ce 9bba 91bb 72ba
00000360: a6bf b53b 3ecf c0ba dc79 2bbb c00a 02b9
00000370: 9115 813b 4553 09ba 9713 b03a 6e59 813a
00000380: 1c9f 063a dfd0 1a3b b566 a43b 8ae8 4a3a
00000390: 458a 2dbb be6b a3b9 1c1c ac3b b08d 9b3a
000003a0: 4cb8 193b 2bc8 39ba 0aeb 893b 8e36 403b
000003b0: 9742 413a aab9 b83a 17e6 f63a 31a3 2b3b
000003c0: 190c 123b 312a 5c3b 7e2c 7bba 85fa 9db9
000003d0: 43bb 7ebb b556 49b8 074a 6bbb 8b03 adba
000003e0: c836 633a 9291 8a39 5872 bb36 2443 fc39
000003f0: cf55 05bb a127 0d38 4fee d1ba 2512 49bb
-0.0010596165 -0.0013761633 -0.002029896 -0.00042443175 -0.0012723927 0.00027975108 -0.0011276943 -0.001594608
-0.0006433309 -0.0014736663 -0.002171218 0.0012652765 -0.004106411 0.0015640913 -0.0020641433 0.002307759
-0.00047372188 -0.0009783746 0.005139363 -0.00424103 -0.00085699063 -0.0012359594 0.0027780833 0.0012772861
0.0011827183 0.00033219898 0.0027157872 -0.0023523613 0.00023053048 0.0022457798 -0.001722669 -0.0032108868
0.0014468067 0.0022926352 -0.0039165947 -0.004342809 0.0035211775 0.0012312168 -0.003533409 -0.0023548189
-0.00029773213 -3.5480211e-06 0.0020939144 0.0015234068 -0.0004903751 0.0033287064 -9.7900855e-05 0.0014200711
0.000822389 0.0034755177 -0.00038414664 0.0018109106 0.006360193 -0.0014740146 0.00022321487 0.0006771715
0.0005425368 -0.0022976734 -0.0021708666 -0.0005589074 0.001211913 0.00092937844 -0.00019146138 -0.0021065562
-0.0028607715 0.00013821629 0.0028244455 -0.0009135205 0.0013886491 0.0017655898 0.001693962 -0.0031290678
0.0015762136 -0.0002155141 0.0016493644 0.0034462868 -0.004093748 -0.0027552147 0.00073074986 -0.002632696
0.0005878837 -0.00036483444 -0.00075306575 -0.00056097197 -0.0009879754 0.0032064503 -0.0005414338 -0.003338498
0.003263843 -0.004357408 0.00017339455 -0.00036622587 0.00029656614 -0.0009110606 -0.00017284465 -0.002142664
-0.00033714756 0.001489405 0.00029835702 0.0023865227 -0.0006288258 0.0019043584 -0.0014882282 -0.0018914113
0.0021310772 -0.00034193406 0.0015134244 -0.00011330483 -0.00016358997 0.003005339 -0.00048581298 -0.0016565218
0.0020946516 -0.0006759429 0.00056459033 0.00096095266 0.001818888 0.0022125002 0.0035514391 0.0015006817
0.005248822 -0.0012222807 1.1666378e-05 -0.0014317832 -0.00092727237 0.0022490048 0.0030197117 0.0009950063
7.822754e-05 -0.0022969972 0.00017769626 -0.0025168136 -0.00039545813 -0.0004568683 0.000928393 -0.00031574175
0.0012520365 0.0052338545 0.0009811026 -0.0026700194 -0.00087316753 -0.00027308738 -0.0014230767 -0.0014676485
-0.00018611208 0.003023446 -0.0003865475 0.0006014494 -5.857217e-05 0.0034302184 -0.003306974 4.1297885e-06
-0.004119816 0.0012538754 -0.0028771216 -0.0009240052 -0.00040698078 -0.00015450324 0.00057560886 0.003870291
0.0004367529 0.0036473905 -0.0044882647 0.0023912787 0.0035377627 -0.0016136429 2.253716e-05 0.0014769194
-0.00080026174 0.00047807835 0.0063374415 0.003077207 -0.0021200005 0.00060327456 0.0004968624 -0.0007605395
6.3784886e-05 0.0051966333 0.00078160025 0.00091123633 0.0029836954 0.0019002189 -0.0020111715 0.005404253
0.00250488 -0.0015803991 0.005175657 -0.0033083905 0.0039145574 0.0067644473 -0.00067238545 -0.002187651
-8.072224e-05 -0.00022420722 -0.0018972808 0.001656866 0.0024850944 -0.0006864575 -0.0012722422 -0.0013378679
0.003750436 0.0020405392 -0.0063620377 0.0005666646 -0.000106424566 0.001990382 0.0028750263 -0.0045136744
0.0012781336 0.00020364828 -0.0005884846 0.001306736 0.0011118561 0.000908112 -0.0011887051 -0.0009259517
0.005546528 -0.00147102 -0.0026165163 -0.00012401771 0.0039393385 -0.00052385434 0.0013433573 0.0009868571
0.00051354035 0.0023623032 0.0050171264 0.00077403395 -0.002648012 -0.00031170057 0.0052523743 0.0011867788
0.0023455797 -0.00070870173 0.004208927 0.0029329392 0.00073722884 0.0014093418 0.0018836883 0.00261898
0.0022285043 0.0033594484 -0.000958152 -0.00030132025 -0.003886894 -4.8002887e-05 -0.0035902278 -0.0013199908
0.0008667526 0.0002642987 5.5863457e-06 0.0004811521 -0.0020345335 3.3653927e-05 -0.0016016456 -0.003068098

exp_avg_sq f4 [20, 416]
00000000: 8b37 c538 590b bd38 ec5d e238 02f1 d938
00000010: ceb0 0439 fa82 c838 6bbb d538 84ac b238
00000020: 9375 da38 4cd8 f638 78ff fd38 e513 d638
00000030: 5b79 f538 e652 e838 5f14 cd38 35f1 0839
00000040: 444d d338 5518 bd38 c951 fa38 9547 6739
00000050: e896 b238 2156 c538 ec8a eb38 bf17 8738
00000060: 8969 a738 79e7 d538 4e9d c738 af28 9738
00000070: d715 c238 d94c d438 67bf f338 2ad3 e938
00000080: 1d7f b638 bc43 ec38 f742 cd38 d692 bd38
00000090: 325b b838 e32f cd38 d7c1 ea38 3f30 ce38
000000a0: 9288 e538 2aad b838 f6f6 e238 cced 9f38
000000b0: ac15 a938 9d04 a138 f45d c338 56ff 1239
000000c0: 1f32 db38 777c ca38 ab13 cb38 ed50 be38
000000d0: 92fc de38 6e59 0739 29cc bb38 8826 ec38
000000e0: f586 f038 f44a c738 6984 bf38 901c ab38
000000f0: d11d 9a38 5f69 b238 a139 a438 4eda b238
00000100: fd73 c438 19f5 c138 f7dc a638 435f c338
00000110: 4b00 b438 9b23 f538 bccf 2139 c9ca ee38
00000120: 03d4 db38 211e a838 89bb ec38 1cfb cf38
00000130: 81dc a638 1f50 af38 c078 a038 ec79 8a38
00000140: 5ba2 9c38 0a25 f738 dc44 af38 4e40 c138
00000150: e503 ad38 a690 db38 d5dd bc38 a943 e138
00000160: 6051 c738 1f7d d938 d387 0739 4414 a438
00000170: 69a2 b538 daf6 a238 b0f4 b238 d944 ac38
00000180: 2c7c ac38 1dbf b838 1c5a b138 5fb4 cd38
00000190: 6727 bf38 ccd4 f138 76db ff38 dc44 a438
000001a0: 06fe ab38 24ee a338 fc8c ad38 b6a8 bb38
000001b0: f7f6 9738 2c9f a638 1ede b638 783e f438
000001c0: 53f4 ad38 2ed8 e638 aa78 b238 c557 9b38
000001d0: b469 a538 fe28 cd38 e6c6 a438 a9e3 9e38
000001e0: d372 a638 e5a3 ba38 5de6 9c38 46c9 b338
000001f0: 1987 9438 1290 9b38 c5b3 b338 1cf6 1439
00000200: 5654 8f38 be5c e838 ed5c aa38 ca3a 9738
00000210: 98a5 ad38 5389 b938 3182 9938 5ef6 a438
00000220: e9ea ad38 6b34 be38 7ae6 a038 959b c138
00000230: 2811 7938 2b02 a638 4440 b338 a802 0f39
00000240: 1983 9e38 87e1 bb38 10ec b338 2005 8a38
00000250: eca0 a138 9492 b138 1d81 c238 fc20 bd38
00000260: 34c0 b838 741a c538 ac3a b438 d59d b038
00000270: adbe 4639 97ec 3439 b4bd 2139 01d2 2b39
00000280: dcdb 6d39 1f24 3739 fa6e 7139 db69 2439
00000290: ac69 4039 2ae0 3539 da4b 6f39 e52d 1f39
000002a0: fa71 df38 e3db 2c39 f23e 3539 c4b7 1d39
000002b0: 2d73 3f39 6b5e 5039 9e50 0739 6cbd 0c39
000002c0: f2ab 4739 eb5b 2539 4d91 5739 b746 2339
000002d0: 523f 4a39 7ebe 4639 af7d 2439 926d 2f39
000002e0: 3bb8 f838 e731 3239 80fd 4339 85f2 0139
000002f0: c8ff 5739 1b1b 3939 2208 0739 206f fd38
00000300: b1f4 3d39 d17e 1339 d34d 3e39 e6a1 0339
00000310: 21e8 af39 8ce4 1439 0cd7 3539 860b 2539
00000320: c49a 1339 815a 3139 ca80 5539 ddd1 e238
00000330: aea5 4839 fd9f 0739 3035 ef38 a2a1 fb38
00000340: a24e d938 22b3 1339 1b34 f538 b769 e138
00000350: ca0b fa38 b840 0a39 18f0 b938 ab6b 0e39
00000360: 0234 2239 216f ea38 5ce7 d038 454d 2439
00000370: a644 ee38 a136 e938 3829 8239 d1ee e738
00000380: 74c1 dc38 7fe8 4139 fdac 4139 7004 fe38
00000390: d1b1 0a39 24bb 3139 f9de a638 bb3f 5939
000003a0: 3bb8 2839 32b8 1b39 9519 c038 7f08 bb38
000003b0: a8a8 a338 1d19 de38 7bbe 5839 3632 1e39
000003c0: 2b81 0239 65ee 5439 e168 2539 0f40 1139
000003d0: 798f 1839 d1e8 3239 2ec7 bf38 c5f4 2a39
000003e0: 5180 1a39 2de2 6839 609f aa38 47dd ee38
000003f0: 83d1 0639 7d2a 0939 ef47 2539 6ebe 4d39
9.404038e-05 9.014336e-05 0.00010794014 0.000103922575 0.00012654366 9.5611394e-05 0.00010191541 8.519835e-05
0.0001041695 0.000117704825 0.00012111565 0.00010208021 0.000117051146 0.00011078063 9.778956e-05 0.00013059827
0.00010075656 9.0167545e-05 0.000119361626 0.00022056543 8.51581e-05 9.409735e-05 0.000112315494 6.441725e-05
7.982838e-05 0.000101997466 9.51836e-05 7.207819e-05 9.254709e-05 0.00010123262 0.000116227944 0.00011149638
8.702113e-05 0.000112659734 9.787635e-05 9.0395726e-05 8.79079e-05 9.784081e-05 0.00011194095 9.831832e-05
0.00010945009 8.806058e-05 0.0001082252 7.626004e-05 8.062585e-05 7.6779375e-05 9.315825e-05 0.00014018765
0.000104520695 9.655294e-05 9.683458e-05 9.0749796e-05 0.0001063283 0.00012907918 8.954883e-05 0.00011260534
0.000114692295 9.5030206e-05 9.132253e-05 8.1592356e-05 7.348846e-05 8.507328e-05 7.8308636e-05 8.528364e-05
9.367613e-05 9.24861e-05 7.956655e-05 9.3160685e-05 8.5831234e-05 0.000116891424 0.00015431544 0.00011386496
0.00010482224 8.016476e-05 0.00011288288 9.917302e-05 7.956569e-05 8.359574e-05 7.651886e-05 6.6030625e-05
7.468901e-05 0.00011784777 8.357476e-05 9.214935e-05 8.250008e-05 0.000104696766 9.005858e-05 0.00010741439
9.504217e-05 0.00010370672 0.00012925202 7.823904e-05 8.661004e-05 7.770742e-05 8.533278e-05 8.214423e-05
8.224728e-05 8.809401e-05 8.456802e-05 9.8087585e-05 9.114929e-05 0.00011531412 0.00012200225 7.8329555e-05
8.201231e-05 7.816803e-05 8.275543e-05 8.94828e-05 7.246242e-05 7.945145e-05 8.719809e-05 0.000116464624
8.294792e-05 0.00011007521 8.510177e-05 7.407324e-05 7.887502e-05 9.782797e-05 7.857177e-05 7.576432e-05
7.9368845e-05 8.899699e-05 7.481568e-05 8.572875e-05 7.082354e-05 7.417811e-05 8.56887e-05 0.00014206063
6.83448e-05 0.00011079897 8.1235405e-05 7.2111914e-05 8.280127e-05 8.847066e-05 7.3198586e-05 7.866019e-05
8.293038e-05 9.0696696e-05 7.672324e-05 9.2319366e-05 5.9382204e-05 7.915901e-05 8.5473555e-05 0.00013638532
7.558446e-05 8.9588626e-05 8.579355e-05 6.5813074e-05 7.707052e-05 8.46732e-05 9.27469e-05 9.018366e-05
8.809604e-05 9.398619e-05 8.593997e-05 8.4217325e-05 0.00018953784 0.00017254274 0.00015424826 0.00016386063
0.00022683985 0.00017465696 0.00023024893 0.00015679693 0.00018349913 0.00017345013 0.00022821073 0.00015180519
0.000106546984 0.00016485112 0.00017284954 0.00015041145 0.00018258086 0.00019871599 0.00012904636 0.00013422006
0.00019042174 0.00015769868 0.00020558127 0.00015571235 0.0001928781 0.00018953715 0.0001568708 0.00016730119
0.00011859877 0.00016993993 0.00018691085 0.00012392744 0.00020599284 0.00017653072 0.00012877633 0.00012084679
0.00018115599 0.00014066255 0.00018148804 0.00012553445 0.0003355155 0.0001419952 0.00017341616 0.00015739919
0.00014076667 0.00016913751 0.0002036124 0.0001081561 0.00019135207 0.00012934204 0.00011406315 0.00011998719
0.00010362013 0.00014085745 0.00011692216 0.00010748527 0.00011923125 0.00013184815 8.8662084e-05 0.00013582285
0.00015468898 0.00011178689 9.961307e-05 0.00015669044 0.00011361511 0.00011120481 0.00024826243 0.000110594214
0.00010526451 0.00018492526 0.00018470357 0.000121124904 0.00013226947 0.0001694975 7.957029e-05 0.00020718474
0.0001609036 0.0001485057 9.1600385e-05 8.9184374e-05 7.80386e-05 0.000105904626 0.00020670325 0.00015086759
0.00012445885 0.00020306704 0.00015774697 0.00013852141 0.00014549297 0.00017062134 9.14469e-05 0.00016303647
0.00014734386 0.00022209501 8.1359176e-05 0.000113899405 0.00012857285 0.00013081166 0.00015762424 0.00019621264

exp_avg f4 [20, 20]
00000000: 0000 0000 6c14 3837 c749 2439 a491 373b
00000010: 4fb2 b23b 86e5 883a c254 9f3a d71a 8f3c
00000020: 0400 0000 0400 0080 0400 0000 1bf7 103b
00000030: 0400 0000 0400 0000 f31d cc3a a4f0 b938
00000040: 5702 183a b8bf dc3b f207 703b 0400 0000
00000050: de8d 353a 0000 0000 92bd 6038 1e94 863a
00000060: adc8 183b 6600 0fb7 256b a739 ae10 d03b
00000070: 0400 0080 0400 0000 0400 0000 1ebf 623a
00000080: 0400 0080 0400 0000 4236 143a baa7 5738
00000090: 5e92 a139 e6f3 ff3a cd99 af3a 0400 0000
000000a0: cb74 2d3a 8a9b 51b6 0000 0000 7ad6 0e3a
000000b0: 8c46 f83a 0b61 3fba 6586 6ab7 2257 b23b
000000c0: 0400 0080 0400 0000 0400 0000 d20c fb39
000000d0: 0400 0080 0400 0000 d1f6 f639 bbcf 73b6
000000e0: cdf5 0239 8438 6f3a e6f9 153a 0400 0000
000000f0: 3f61 113b 6434 d735 0b38 3136 0000 0000
00000100: bd3b 113c 21b2 e339 ed55 b139 c0f9 b63c
00000110: 0400 0000 0400 0080 0400 0080 da85 9d39
00000120: 0400 0000 0400 0080 5e81 973a 38d0 ab36
00000130: d0a6 c137 9fe4 7a3b ab6e ea3a 0400 0080
00000140: b128 2d3b 41d5 4337 ae76 6738 d3d5 3a3b
00000150: 0000 0000 b305 643a aa9b 703a 4c6e 7b3c
00000160: 0400 0000 0400 0080 0400 0080 df77 f13a
00000170: 0400 0000 0400 0080 c708 fa3a 73e1 8a38
00000180: eeb5 7f39 fce9 0e3c 2e66 be3b 0400 0080
00000190: 56da cc3a 97cc a937 ef9d 0b39 c942 963a
000001a0: c14e ef3a 0000 0000 b2de 6839 850d 0c3c
000001b0: 0400 0080 0400 0000 0400 0000 6143 4e3a
000001c0: 0400 0080 0400 0000 9f7a af39 280c b838
000001d0: 79eb fe39 7953 5a3b f447 fa3a 0400 0000
000001e0: 39b5 393b 4cd2 bc35 5c59 ab37 7c42 253b
000001f0: 1721 073c fec1 bfb8 0000 0000 955e b73c
00000200: 0400 0000 0400 0000 0400 0000 c0f4 ec3a
00000210: 0400 0080 0400 0000 f01a 173b b07b c437
00000220: ca13 e639 4460 f03b 549e a53b 0400 0000
00000230: 9129 88ba a0c4 5bb7 ea25 c2b7 b202 d2ba
00000240: 2deb a0bb 790c 12b9 208e fbb9 0000 0000
00000250: 0400 0000 0400 0000 0400 0000 9750 8bba
00000260: 0400 0080 0400 0000 7370 28ba e9d1 9db8
00000270: e3ae 1eb9 5e0c 86bb 5c53 19bb 0400 0000
00000280: 3949 ef38 63cd 3432 fae0 0934 8bb1 9d37
00000290: bfa1 613a dbc6 bb36 4849 4736 5d87 233b
000002a0: 0000 0000 0400 0080 0400 0080 be3a 2b37
000002b0: 0400 0000 0400 0080 9861 b538 f5b7 b333
000002c0: 94d8 8d35 3152 2f39 f7e4 0139 0400 0080
000002d0: 2b83 5f38 c446 90b1 ed28 2a33 2b9b ef36
000002e0: 342f ae39 3c36 bdb4 9268 4a35 5541 903a
000002f0: 0400 0080 0000 0000 0400 0000 6dc6 8c36
00000300: 0400 0080 0400 0000 3449 5438 91c8 fa32
00000310: 809a 0535 28e2 8f38 b407 6138 0400 0000
00000320: efc3 4f38 6b3a bc30 26b6 2b33 4db3 1037
00000330: 4f08 cf39 ae4d 1136 fbfc a435 7e29 973a
00000340: 0400 0080 0400 0080 0000 0000 7f7d 9636
00000350: 0400 0080 0400 0080 11ff 1738 b983 0f33
00000360: e83e c734 abb8 9a38 4a37 6038 0400 0000
00000370: fc96 803a 56fe 3f36 e44a c037 5411 4d36
00000380: 8548 973b 1a86 6f37 26cb d439 36a5 853c
00000390: 0400 0000 0400 0080 0400 0080 0000 0000
000003a0: 0400 0000 0400 0080 d7d7 d339 dc65 8a37
000003b0: 54f2 7a38 f5f7 9d3a 21d5 8ab9 0400 0080
000003c0: 63a2 8e39 326a 2733 3430 5635 a352 7338
000003d0: f971 c43a bdba 4335 b7eb 0837 ef68 973b
000003e0: 0400 0080 0400 0000 0400 0000 58f2 2438
000003f0: 0000 0000 0400 0000 1720 7439 4df1 1c35
0.0 1.09720095e-05 0.00015667743 0.0028010393 0.005453385 0.001044438 0.0012155997 0.017468853
6e-45 -6e-45 6e-45 0.0022119943 6e-45 6e-45 0.001557289 8.86631e-05
0.00057986885 0.006736722 0.003662583 6e-45 0.0006925742 0.0 5.3582313e-05 0.0010267531
0.0023312971 -8.523557e-06 0.0003193255 0.0063496446 -6e-45 6e-45 6e-45 0.00086496945
-6e-45 6e-45 0.0005653837 5.1416202e-05 0.00030817365 0.0019527643 0.0013397277 6e-45
0.000661683 -3.1233963e-06 0.0 0.00054488296 0.0018941923 -0.00073005323 -1.3978778e-05 0.005442516
-6e-45 6e-45 6e-45 0.00047884003 -6e-45 6e-45 0.0004710467 -3.6330737e-06
0.00012489334 0.0009125548 0.00057211367 6e-45 0.0022183207 1.6033996e-06 2.6407677e-06 0.0
0.00886434 0.0004342953 0.0003382409 0.022335887 6e-45 -6e-45 -6e-45 0.000300451
6e-45 -6e-45 0.001155894 5.120437e-06 2.3085071e-05 0.0038283241 0.0017885765 -6e-45
0.002642196 1.1672558e-05 5.518522e-05 0.0028508797 0.0 0.0008698359 0.0009178469 0.015346121
6e-45 -6e-45 -6e-45 0.0018422565 6e-45 -6e-45 0.0019076102 6.622346e-05
0.00024386469 0.008722778 0.0058105206 -6e-45 0.0015629034 2.024164e-05 0.00013314908 0.0011463995
0.0018257723 0.0 0.00022208205 0.008548145 -6e-45 6e-45 6e-45 0.00078683166
-6e-45 6e-45 0.0003346996 8.776068e-05 0.00048622096 0.0033313914 0.001909493 6e-45
0.0028336777 1.4068296e-06 2.04264e-05 0.002521663 0.008247635 -9.1437236e-05 0.0 0.022383967
6e-45 6e-45 6e-45 0.0018078312 -6e-45 6e-45 0.0023056827 2.3422617e-05
0.00043883763 0.0073356945 0.0050542746 6e-45 -0.0010388364 -1.30991975e-05 -2.3144257e-05 -0.0016022532
-0.0049108476 -0.00013928291 -0.00047980342 0.0 6e-45 6e-45 6e-45 -0.0010628876
-6e-45 6e-45 -0.00064254476 -7.525442e-05 -0.00015133205 -0.0040908298 -0.0023395633 6e-45
0.00011410047 1.05240785e-08 1.2840965e-07 1.8798533e-05 0.0008607171 5.596184e-06 2.9695966e-06 0.002495251
0.0 -6e-45 -6e-45 1.0206071e-05 6e-45 -6e-45 8.648931e-05 8.3687986e-08
1.0568351e-06 0.00016719919 0.00012387695 -6e-45 5.3289503e-05 -4.1989967e-09 3.961843e-08 7.140819e-06
0.00033223035 -3.5243454e-07 7.5403034e-07 0.0011005799 -6e-45 0.0 6e-45 4.195425e-06
-6e-45 6e-45 5.0612914e-05 2.9195037e-08 4.977119e-07 6.860896e-05 5.3651354e-05 6e-45
4.9535123e-05 1.3695404e-09 3.9979703e-08 8.624816e-06 0.00039488307 2.16519e-06 1.2292579e-06 0.0011532751
-6e-45 -6e-45 0.0 4.484958e-06 -6e-45 -6e-45 3.6238755e-05 3.3414583e-08
3.711241e-07 7.377689e-05 5.3457254e-05 6e-45 0.0009810622 2.860926e-06 2.2923057e-05 3.0557467e-06
0.0046167993 1.4276733e-05 0.00040587148 0.01631413 6e-45 -6e-45 -6e-45 0.0
6e-45 -6e-45 0.0004040587 1.6498314e-05 5.983033e-05 0.0012052046 -0.00026480205 -6e-45
0.00027205338 3.89793e-08 7.979136e-07 5.8012676e-05 0.001498758 7.29149e-07 8.161113e-06 0.0046206634
-6e-45 6e-45 6e-45 3.9326347e-05 0.0 6e-45 0.00023281608 5.846567e-07

exp_avg_sq f4 [20, 20]
00000000: 0000 0000 52f2 8231 0f21 f233 12a2 7338
00000010: de0b e239 3ea8 4337 db73 5837 639b 283b
00000020: c2a8 1e21 2905 de1e b6e9 de1c b1c1 fe37
00000030: ffc1 7628 9dbb 551c 7957 6038 10ab 5a33
00000040: 52a5 d435 9a41 043a 157f 7839 3031 531a
00000050: f475 4736 0000 0000 3af4 1c33 927f 9336
00000060: 0a1f a137 457c 1e35 0664 b635 f7fc 0b39
00000070: 6ae3 1220 628c c91d ddca c41b 426a 4236
00000080: 9f68 8d26 5ec4 281b 6737 5536 81df 5632
00000090: 07ac af34 0b04 b137 c17c 0937 07f9 c318
000000a0: 9105 b137 8eaa 1c30 0000 0000 97e3 9a37
000000b0: 5dcc c138 91bb 9b36 dc3c ee36 94e9 273a
000000c0: abcb 9521 f5fb 831f 90c5 6a1d f00b 3737
000000d0: 3833 d627 76f1 7f1c c54e 0f38 cadf e431
000000e0: 4761 2835 4d2a 2939 01d6 7f38 256c ce19
000000f0: d907 7138 87fb c12e 55ba 0d31 0000 0000
00000100: 4163 0e3a e594 1c36 38af 4235 12ee 6d3b
00000110: f764 0d21 bcf9 861f 5ddd 641d 49ac 8035
00000120: 9f1a 3d27 8c3c c31c dfbe 3a38 f54b 3c30
00000130: 52cc 0433 cce3 3839 0d20 cf38 2784 ed1a
00000140: ed5c a137 1093 ae30 9cf9 2d33 e853 8b37
00000150: 0000 0000 4857 2136 8df5 8b36 c3f1 d939
00000160: bc51 d221 1d5c 0020 d706 fd1d 8f20 1937
00000170: b5d7 2e28 e1df 4e1d 9e3f 7337 22b6 bc32
00000180: 19c6 3435 e554 f538 0683 5b38 b4a4 0b1b
00000190: 80a0 7f39 8079 7531 c920 2d34 156b dc38
000001a0: 80db 4c3a 0000 0000 dfe1 9a37 f8ae 9a3b
000001b0: 2214 c71f 6762 a61d c756 911b de6b 7c38
000001c0: b979 ce27 e2d9 281b 5828 4339 2c5c a733
000001d0: 30bb a436 f136 733a 9535 f639 71ec 9a19
000001e0: 0fee 8a38 d2d2 9b2f 5b34 9a32 3cb9 c537
000001f0: c2d4 a039 4b30 8636 0000 0000 41cb 0d3b
00000200: 7624 f81f 11d9 361e f395 891c 94de 4637
00000210: fde5 9826 2ca2 091c 504b 8538 316b 9931
00000220: 3609 3835 f6a9 ab39 6d8e 1839 3458 9219
00000230: 5b6f 4636 fa58 2d31 639f 5a33 b7ea 0f37
00000240: 339c e737 5dbc 9035 7f7d 1436 0000 0000
00000250: 90ff aa21 417b 571f f8b4 281d e7f7 a436
00000260: 9da5 0029 6666 3c1c b3e3 4b36 8aec a532
00000270: 3ae8 b734 4457 3638 dbdf 8837 f5a9 1d1a
00000280: 2d5d 6b33 557a ee27 0a0e 762a a9ed 6430
00000290: bb32 b735 14d7 2930 7e15 4c2e dcab 4837
000002a0: 0000 0000 dd8d 7e1f 273e 111d 574c 912f
000002b0: 0403 7b25 f326 c21c 4a1a 6433 b3a8 2729
000002c0: 509e 1a2d 0a9c 7f33 ca44 1633 3ef2 611a
000002d0: 7550 ad32 d4d2 7c27 ffbf 152a 1771 972f
000002e0: 3ebd a734 5542 8b2f 4a50 d92d 819f 6e36
000002f0: 82e7 7d21 0000 0000 dc01 da1c a055 c92e
00000300: c9b1 df23 18a7 af1b f3af c932 c67a 8628
00000310: e1ee 9a2c fce4 e932 0168 7b32 f9e4 f318
00000320: 007f 4f32 ce75 e926 b2c7 9629 dc6e 5c2f
00000330: ebc3 aa34 5337 332f a9a2 712d 9820 4436
00000340: 799e 1220 a7fc fc1e 0000 0000 9d5c 862e
00000350: 551c e321 b8be 811c 1c07 5a32 baba 2328
00000360: 0d28 002c 0c6a 7f32 657a 0f32 6f29 301a
00000370: 1daa fb38 532d ce2f 423f 3e32 b019 d036
00000380: 3786 383a 6fb0 bf36 036f 4f36 4f90 ab3b
00000390: edb6 a720 7ee6 e01f 4c9b 731d 0000 0000
000003a0: 2578 8127 a8ea 521d 718b c538 23f4 5531
000003b0: 16bc 8d33 3163 c239 41e0 5139 d407 bc1b
000003c0: 6c8f e734 6584 c52c 90dd 152e 6236 6e32
000003d0: 1707 d736 b055 0f32 bf5a a630 67ee 7b38
000003e0: 49a7 1e20 ac19 fb1d 87a1 b01b ba7e bd31
000003f0: 0000 0000 b213 861b 5b8b 0035 3673 cc2c
0.0 3.8110466e-09 1.12750165e-07 5.8086654e-05 0.0004311492 1.1662078e-05 1.2901578e-05 0.0025727383
5.375583e-19 2.3507298e-20 1.4751141e-21 3.0369354e-05 1.3697809e-14 7.0718273e-22 5.3487227e-05 5.091266e-08
1.5843345e-06 0.0005045176 0.00023698465 4.367351e-23 2.9721969e-06 0.0 3.6543703e-08 4.3957925e-06
1.920715e-05 5.904042e-07 1.3589167e-06 0.0001335031 1.2441926e-19 5.334941e-21 3.2556577e-22 2.8970103e-06
9.812198e-16 1.3960084e-22 3.1771722e-06 1.2507258e-08 3.2721456e-07 2.1101927e-05 8.194883e-06 5.065777e-24
2.1102636e-05 5.699484e-10 0.0 1.846421e-05 9.241023e-05 4.6411956e-06 7.1000377e-06 0.000640535
1.0150543e-18 5.5897486e-20 3.107178e-21 1.0910429e-05 5.9452463e-15 8.4684503e-22 3.4167217e-05 6.661115e-09
6.2726434e-07 0.00016132854 6.0996044e-05 2.134358e-23 5.7466186e-05 8.821304e-11 2.0624118e-09 0.0
0.000543166 2.333248e-06 7.252561e-07 0.003630523 4.7906284e-19 5.716436e-20 3.028999e-21 9.586885e-07
2.624345e-15 1.2919669e-21 4.452362e-05 6.8501943e-10 3.0919473e-08 0.00017632468 9.876499e-05 9.8234406e-23
1.9235968e-05 1.2701964e-09 4.050672e-08 1.6609163e-05 0.0 2.4041674e-06 4.1711087e-06 0.00041569592
1.4251788e-18 1.08725e-19 6.6975615e-21 9.127091e-06 9.705714e-15 2.7379616e-21 1.4498741e-05 2.1968905e-08
6.7343495e-07 0.00011698323 5.2335694e-05 1.1551029e-22 0.00024378486 3.5721257e-09 1.6123808e-07 0.00010510363
0.00078146905 0.0 1.846341e-05 0.004720565 8.4313085e-20 4.404158e-21 2.4044316e-22 6.018194e-05
5.7308458e-15 1.3967036e-22 0.00018611678 7.7933095e-08 4.9093724e-06 0.0009277901 0.00046960698 1.6018725e-23
6.624695e-05 2.8344133e-10 1.7951768e-08 2.3570487e-05 0.00030676095 3.9991332e-06 0.0 0.0021636041
1.05092405e-19 9.679888e-21 9.10466e-22 1.1853543e-05 1.0609457e-15 4.55391e-22 6.355962e-05 4.4650723e-09
6.8558745e-07 0.00032742292 0.00014548907 1.5131671e-23 2.9569117e-06 2.522539e-09 5.090204e-08 8.578113e-06
2.7610082e-05 1.0783657e-06 2.2126767e-06 0.0 1.1587295e-18 4.5629974e-20 2.2328174e-21 4.9164405e-06
2.8565356e-14 6.233633e-22 3.0381896e-06 1.9316094e-08 3.4255373e-07 4.3473454e-05 1.6316704e-05 3.260413e-23
5.4799944e-08 6.6190903e-15 2.185406e-13 8.328365e-10 1.3649327e-06 6.1787486e-10 4.640332e-11 1.1960943e-05
0.0 5.390394e-20 1.9222722e-21 2.642959e-10 2.1771801e-16 1.2847911e-21 5.3109297e-08 3.7227772e-14
8.789039e-12 5.951373e-08 3.498716e-08 4.672459e-23 2.0176438e-08 3.5086315e-15 1.330047e-13 2.7547095e-10
3.1243866e-07 2.5331084e-10 2.47057e-11 3.5557607e-06 8.602613e-19 0.0 1.4426511e-21 9.155632e-11
2.4253003e-17 2.9059303e-22 2.3479492e-08 1.4930233e-14 4.403464e-12 2.72289e-08 1.4633771e-08 6.304523e-24
1.2077862e-08 1.6199554e-15 6.69598e-14 2.0048269e-10 3.1807517e-07 1.629961e-10 1.3735382e-11 2.9225248e-06
1.2419115e-19 2.6786032e-20 0.0 6.110066e-11 1.5389618e-18 8.585804e-22 1.2690887e-08 9.0888075e-15
1.8212127e-12 1.4867066e-08 8.351525e-09 3.6429417e-23 0.00012000299 3.7503387e-10 1.1073839e-08 6.2018735e-06
0.00070390425 5.712783e-06 3.091002e-06 0.005235709 2.841195e-19 9.524901e-20 3.2241069e-21 0.0
3.5934954e-15 2.7914583e-21 9.419665e-05 3.1134355e-09 6.600037e-08 0.00037076467 0.00020015334 3.110705e-22
4.3131456e-07 5.6137755e-12 3.4075465e-11 1.38657885e-08 6.4083247e-06 8.343179e-09 1.2103881e-09 6.0065093e-05
1.343847e-19 6.646569e-21 2.9221142e-22 5.515031e-09 0.0 2.2181168e-22 4.7886505e-07 5.8108197e-12

exp_avg f4 [9, 20]
00000000: c74d aeb9 6f9b 11b9 e910 bab9 c353 2eba
00000010: 3b70 a4ba a70f 79b9 b5b7 33ba 2afb 4ebb
00000020: 0400 0000 0400 0000 0400 0000 c727 06ba
00000030: 6985 f20f 0400 0000 efda 66b9 0977 c9b9
00000040: 25f2 fcb9 6e3b b4ba 187f 16b9 0400 0000
00000050: 8e2e 88ba 9287 1538 408a d3b9 e7d9 bbba
00000060: c19d 17bb 957e 36bb a3c5 dfba c711 a1bb
00000070: 0400 0080 0400 0000 0400 0000 2b72 a5ba
00000080: 9945 d996 0400 0000 dfaa 14bb 5207 9939
00000090: 00fb 8fb9 f4f9 4dbb a562 1fbb 0400 0000
000000a0: 9d20 aa3b 07d6 0939 436a 263a caa0 e63b
000000b0: 70e6 3b3c f75d 933b 4d73 a03b a985 893c
000000c0: 0400 0000 0400 0000 0400 0000 dfc2 b73b
000000d0: 5097 e313 0400 0000 ec84 ac3b 9589 d739
000000e0: 75c2 113b 5c5c 5d3c d029 143c 0400 0000
000000f0: 7e70 77bb bb23 3239 e287 013a e57f efba
00000100: d24f 94bb 1dd9 edba 5b9c 6cba fdeb d5ba
00000110: 0400 0000 0400 0000 0400 0000 ace4 d4ba
00000120: f9c6 ee12 0400 0000 bd30 43bb 9118 e938
00000130: 3c74 76ba a5ae beba 01a7 78bb 0400 0000
00000140: 66ca 1d3a 9ae6 ceb9 99de 10ba feba d13a
00000150: b298 af3a 4624 0db9 9dc3 9bb8 c124 ec3b
00000160: 0400 0000 0400 0000 0400 0000 56b9 b53a
00000170: 1071 d116 0400 0000 7740 163a 7c2d 2cba
00000180: 6aa0 ef39 e741 203b fab3 393b 0400 0000
00000190: 4bf5 7639 2f1b b439 df3b 863a c56b a23a
000001a0: 4b97 52ba 4a67 0639 d2ed 8139 6b6c 7cba
000001b0: 0400 0000 0400 0000 0400 0000 2c7c ba3a
000001c0: 0da9 c212 0400 0000 42b7 9c3a dd97 5d3a
000001d0: dc24 983a 1d2b ecb8 a5e1 c438 0400 0000
000001e0: 8391 4fba 58d1 5cb8 fcb6 24b9 2d74 a5bb
000001f0: 07a0 a3bb 6e10 3dba 53bc 21bb 6da4 0cbc
00000200: 0400 0000 0400 0000 0400 0000 4bb2 87bb
00000210: 4758 3613 0400 0000 fdb0 deb9 1eb8 01ba
00000220: 97f6 81ba cc48 05bc 1004 7abb 0400 0000
00000230: d4ab cc3a d52a 7839 f0a3 2e39 8200 853b
00000240: 725b aa3b d2e8 953a d6e4 103b 5b31 4b3b
00000250: 0400 0000 0400 0080 0400 0080 6277 4e3b
00000260: 6ca2 1113 0400 0080 7575 013a 47f7 2f3a
00000270: e20d c939 d060 c33b 8f77 2c3b 0400 0080
00000280: 4586 d8ba eb8f adb9 e338 5fba db95 a2bb
00000290: c0e0 86bb ab88 a0b8 b3ed c6ba 9e79 00bc
000002a0: 0400 0000 0400 0000 0400 0000 eefe 83bb
000002b0: 06af 060f 0400 0000 f666 d6ba 7f59 50ba
000002c0: 4b69 c9ba a840 fcbb 0cc2 90bb 0400 0000
-0.00033245815 -0.00013886181 -0.00035489284 -0.0006650055 -0.0012545654 -0.00023752321 -0.00068556826 -0.003158281
6e-45 6e-45 6e-45 -0.00051176216 2.391443e-29 6e-45 -0.00022016068 -0.00038426396
-0.00048245597 -0.0013750622 -0.00014352461 6e-45 -0.0010389851 3.5650628e-05 -0.0004034806 -0.0014331908
-0.00231348 -0.0027846445 -0.001707245 -0.0049154493 -6e-45 6e-45 6e-45 -0.0012622526
-3.5102163e-25 6e-45 -0.0022684855 0.00029187888 -0.00027462095 -0.0031429501 -0.0024320271 6e-45
0.005191876 0.0001314507 0.00063482317 0.0070382105 0.011468515 0.0044972855 0.0048965574 0.016787367
6e-45 6e-45 6e-45 0.0056079472 5.745206e-27 6e-45 0.005264869 0.00041110502
0.002224115 0.01351079 0.009043172 6e-45 -0.003775626 0.00016988713 0.00049412076 -0.0018272368
-0.004526117 -0.001814637 -0.00090259843 -0.001632094 6e-45 6e-45 6e-45 -0.0016242466
1.5068962e-27 6e-45 -0.002978369 0.000111148816 -0.00094014755 -0.0014547898 -0.003794134 6e-45
0.00060192344 -0.00039463193 -0.00055263337 0.0016001163 0.0013396947 -0.00013460321 -7.427412e-05 0.00720653
6e-45 6e-45 6e-45 0.0013864439 3.3837124e-25 6e-45 0.0005731652 -0.0006568057
0.0004570515 0.0024453343 0.0028336034 6e-45 0.00023551767 0.0003435253 0.0010241232 0.0012391737
-0.00080334087 0.00012817714 0.00024781987 -0.00096291926 6e-45 6e-45 6e-45 0.001422768
1.22847955e-27 6e-45 0.001195647 0.00084531103 0.0011607665 -0.000112613874 9.388038e-05 6e-45
-0.0007918106 -5.2647054e-05 -0.00015708426 -0.0050492496 -0.004993442 -0.0007212226 -0.00246789 -0.008584124
6e-45 6e-45 6e-45 -0.004141127 2.3015154e-27 6e-45 -0.00042475006 -0.0004948395
-0.0009915408 -0.008135032 -0.0038149394 6e-45 0.0015615174 0.00023667079 0.00016655005 0.0040588984
0.0051988894 0.0011437184 0.0022109053 0.003100476 6e-45 -6e-45 -6e-45 0.0031504263
1.8381653e-27 -6e-45 0.0004938462 0.00067125674 0.0003834805 0.0059624687 0.002631638 -6e-45
-0.0016519508 -0.0003310436 -0.00085152517 -0.004961712 -0.0041161478 -7.654851e-05 -0.0015177041 -0.007841496
6e-45 6e-45 6e-45 -0.0040281927 6.640418e-30 6e-45 -0.0016357589 -0.0007947906
-0.0015366463 -0.0076981373 -0.0044176634 6e-45
