checkpoints/RNN_30.pt (torch, 111341 bytes, 9 tensors)

snn.l1.input_weights f4 [20, 416]
0	0xbee75495	-0.45181718
1	0xbf24e587	-0.6441273
2	0xbf37b54a	-0.71761
3	0xbf9cf1be	-1.2261274
4	0xbf3dcc11	-0.74139506
5	0xbfa95a05	-1.3230597
6	0xbfa195fe	-1.2623899
7	0xbfb243b9	-1.3926917
8	0xbf96413f	-1.1738662
9	0xbf042b10	-0.5162821
10	0xbf8befe1	-1.093258
11	0xbf94fe61	-1.164013
12	0xbf76aef2	-0.96360695
13	0xbf84f668	-1.0387697
14	0xbf9946f5	-1.1974779
15	0xbf442365	-0.7661651
16	0xbf2220e4	-0.6333144
17	0xbf8939be	-1.0720747
18	0xbf7b59fa	-0.9818417
19	0xbf54ce97	-0.8312773
20	0xbf9dfb20	-1.2342262
21	0xbf440289	-0.7656637
22	0xbf806356	-1.0030315
23	0xbed5ef22	-0.41784006
24	0xbf91e60c	-1.139833
25	0xbef2ae09	-0.47398403
26	0xbf6c3918	-0.9227462
27	0xbed191bf	-0.40931508
28	0xbf5cc455	-0.8623708
29	0xbf6520c2	-0.8950311
30	0xbf7033a5	-0.93828803
31	0xbf0937c3	-0.5360071
32	0xbfc04ced	-1.5023476
33	0xbf9e0bb4	-1.2347322
34	0xbf8da526	-1.1066024
35	0xbf340df7	-0.7033381
36	0xbf6ff480	-0.9373245
37	0xbf7eae0c	-0.99484324
38	0xbf9d6b3b	-1.2298349
39	0xbfa48ca9	-1.2855426
40	0xbfb8eb16	-1.4446743
41	0xbf02eac3	-0.5113947
42	0xbf942449	-1.1573573
43	0xbf9304d9	-1.1485854
44	0xbf756753	-0.95860785
45	0xbee88653	-0.4541498
46	0xbf818af5	-1.0120531
47	0xbf675431	-0.9036284
48	0xbfb03e12	-1.3768942
49	0xbf9c40af	-1.220724
50	0xbfae43d1	-1.3614446
51	0xbf833e87	-1.0253457
52	0xbef11430	-0.47085714
53	0x3cb5fd19	0.022215413
54	0xbf246fa8	-0.64232874
55	0xbefdd8e6	-0.49579543
56	0xbf1b98f6	-0.60780275
57	0xbe3a8135	-0.18213351
58	0xbe40f47b	-0.18843262
59	0xbeb6811b	-0.35645375
60	0xbf2e1b0d	-0.68010026
61	0x3dd14381	0.102179535
62	0xbf0c416f	-0.54787344
63	0x3c8cad93	0.01717261
64	0xbe3d6b3a	-0.18497935
65	0x3b8b6541	0.0042540138
66	0x3ea06d58	0.31333423
67	0xbedad05f	-0.427371
68	0xbebb8464	-0.36624444
69	0xbed44a4b	-0.4146293
70	0xbf149722	-0.5804311
71	0xbe841c62	-0.25802904
72	0xbee3a5db	-0.44462475
73	0xbd2adf85	-0.04171707
74	0xbe5a5e89	-0.21325125
75	0xbeb49a67	-0.3527405
76	0xbedccbf0	-0.43124342
77	0xbe8410e6	-0.25794142
78	0xbf59f9ac	-0.85146594
79	0xbee1fb18	-0.44136882
80	0xbea2c3e5	-0.3179008
81	0xbedb5de5	-0.42845073
82	0xbf137c62	-0.5761167
83	0xbed035a7	-0.40665933
84	0xbe95f417	-0.29287788
85	0xbe891d95	-0.26780382
86	0xbd0a7a36	-0.033807956
87	0xbf0abb78	-0.54192305
88	0xbe7d0fc1	-0.24713041
89	0xbec104f7	-0.376991
90	0xbead5301	-0.3385239
91	0xbf00b6ee	-0.5027913
92	0xbf599799	-0.84996945
93	0xbf45814a	-0.77150404
94	0xbe761095	-0.24029763
95	0xbe9a10c4	-0.30090916
96	0xbf6532b6	-0.89530504
97	0xbe11777c	-0.14205736
98	0xbe9491fc	-0.29017627
99	0xbe3293ae	-0.17439148
100	0xbe46a9d2	-0.19400719
101	0xbeec25bf	-0.46122548
102	0xbdec1aca	-0.11528547
103	0xbedb2b3b	-0.4280642
104	0x3f0d0d48	0.5509839
105	0x3f5188f5	0.81849605
106	0x3f250a7e	0.64469135
107	0x3f42a33b	0.7603032
108	0x3efb2cb1	0.49057534
109	0x3f80faee	1.0076578
110	0x3f0a2629	0.5396448
111	0x3ec04467	0.37552187
112	0x3e3cf47d	0.1845264
113	0x3f0829e7	0.5318894
114	0x3f06a490	0.5259485
115	0x3f418d4a	0.75606215
116	0x3f827c28	1.019414
117	0x3f29b2e8	0.66288614
118	0x3e8e6c1b	0.27816853
119	0x3f2b6a98	0.66959524
120	0x3f320e1f	0.695528
121	0x3ee53659	0.44768026
122	0x3f29aa08	0.6627507
123	0x3f5abe91	0.8544703
124	0x3f12b248	0.57303286
125	0x3f6bf323	0.9216787
126	0x3f1f73da	0.6228615
127	0x3ecfe514	0.4060446
128	0x3f282558	0.6568198
129	0x3f422b1e	0.7584704
130	0x3e40b8e6	0.18820533
131	0x3ec5d1ef	0.3863673
132	0x3f83f8a3	1.0310253
133	0x3f8699ad	1.0515648
134	0x3f669d75	0.9008401
135	0x3f300c32	0.6876861
136	0x3f30a114	0.68995786
137	0x3f1654e4	0.5872328
138	0xbd1bcaa4	-0.03803505
139	0x3f33fd86	0.7030872
140	0x3e7e16be	0.24813363
141	0x3f8c6c57	1.0970563
142	0x3d6debf4	0.05808635
143	0x3eeed842	0.46649367
144	0x3efab247	0.4896414
145	0x3f2b1b42	0.6683847
146	0x3f7b70c6	0.98218954
147	0x3f710902	0.9415437
148	0x3f8f9740	1.1218033
149	0x3ef62a66	0.48079222
150	0x3e7885d4	0.24269801
151	0x3f358efa	0.7092129
152	0x3f3c1dbc	0.7348287
153	0x3f0aa76d	0.5416172
154	0x3e82c7b7	0.25542995
155	0x3f8a23d9	1.079219
156	0xbfc3884e	-1.5275972
157	0xbf34e458	-0.70660925
158	0xbf882fc8	-1.0639582
159	0xbf2a5564	-0.66536546
160	0xbf320125	-0.69532996
161	0xbf22304c	-0.63354945
162	0xbefa8448	-0.48929048
163	0xbebaac01	-0.36459354
164	0xbea7d8c7	-0.32782575
165	0xbf466c71	-0.7750922
166	0xbf0bf92d	-0.5467709
167	0xbf349617	-0.7054152
168	0xbfb9d72b	-1.4518789
169	0xbed91eb0	-0.42406225
170	0xbe2bb58c	-0.16768473
171	0xbf86634b	-1.0499052
172	0xbfaeead9	-1.366542
173	0xbec6c7d3	-0.3882433
174	0xbeb1534c	-0.34633863
175	0xbeca8ebc	-0.39562023
176	0xbf0053b8	-0.50127745
177	0xbf4d9e07	-0.80319256
178	0xbf2c5939	-0.6732364
179	0xbed2f96e	-0.41205925
180	0xbf4b7c5a	-0.7948662
181	0xbf62dab4	-0.88614964
182	0xbf841708	-1.0319529
183	0xbf0b87f7	-0.5450434
184	0xbf51c248	-0.81937075
185	0xbf8f3671	-1.1188489
186	0xbf5f930e	-0.8733376
187	0xbf877bd2	-1.0584662
188	0xbf301d69	-0.68794876
189	0xbf100871	-0.5626288
190	0xbee56fe7	-0.44811937
191	0xbf3820c0	-0.7192497
192	0xbe201b2d	-0.15635367
193	0xbf7e6f4b	-0.9938857
194	0xbec4572e	-0.38347763
195	0xbe9e504c	-0.30920637
196	0xbf2b12db	-0.66825646
197	0xbf3318c5	-0.6995967
198	0xbf12da6e	-0.5736455
199	0xbf0116aa	-0.5042521
200	0xbf28d770	-0.6595373
201	0xbeb281d2	-0.3486467
202	0xbf3fd66f	-0.74936575
203	0xbf8fccfd	-1.1234432
204	0xbf2738fd	-0.6532133
205	0xbeea0a69	-0.45711067
206	0xbd82c54a	-0.06385286
207	0xbf32d5ff	-0.6985778
208	0xbf31db15	-0.6947492
209	0xbf5109cc	-0.81655574
210	0xbf3564d7	-0.70856994
211	0xbf7da870	-0.9908514
212	0xbeb74acd	-0.35799256
213	0xbed1733e	-0.40908235
214	0xbf1d56be	-0.61460483
215	0xbf5ad5f8	-0.8548274
216	0xbf5c2551	-0.8599444
217	0xbf3212fd	-0.69560224
218	0xbf4a0560	-0.7891445
219	0xbe72bad4	-0.23704082
220	0xbeebfea2	-0.46092707
221	0xbf6c97ce	-0.92419136
222	0xbed9839f	-0.4248323
223	0xbe9e7918	-0.30951762
224	0xbeea23cd	-0.4573044
225	0xbe821d18	-0.25412822
226	0xbf1a2523	-0.60212916
227	0xbfa6dd43	-1.3036274
228	0xbee362f1	-0.44411424
229	0xbf019c3a	-0.5062901
230	0xbf0d4b90	-0.55193424
231	0x3e4f0352	0.2021611
232	0xbf2df9b0	-0.6795912
233	0xbf32a263	-0.6977903
234	0xbf397df4	-0.72457814
235	0xbf5c3a2a	-0.8602625
236	0xbf179d9f	-0.59224886
237	0xbf4c26bc	-0.79746604
238	0xbf2d7670	-0.67758846
239	0xbf11e76a	-0.56993735
240	0xbf2da8fb	-0.6783597
241	0xbf161771	-0.5862952
242	0xbf38d863	-0.7220518
243	0xbf5a2cbc	-0.8522451
244	0xbf4be4bd	-0.796459
245	0xbf2a7845	-0.66589767
246	0xbf2c5fe5	-0.67333823
247	0xbda43fed	-0.080200054
248	0xbe9a414e	-0.3012795
249	0xbf34bc51	-0.7059985
250	0xbec00883	-0.37506494
251	0xbf094fad	-0.536372
252	0xbf39f932	-0.72645867
253	0xbf5d51fc	-0.86453223
254	0xbef4acd8	-0.4778812
255	0xbf402369	-0.7505403

snn.l1.recurrent_weights f4 [20, 20]
0	0x00000000	0.0
1	0x402ea270	2.7286644
2	0xbe12614e	-0.14294931
3	0x408445a6	4.133502
4	0x4038cd0e	2.8875155
5	0x3f9cacaa	1.2240193
6	0xbd2b8942	-0.041878946
7	0x4011edb7	2.280134
8	0x40680207	3.6251237
9	0x40331770	2.7983055
10	0x403d2e61	2.9559557
11	0x4082314f	4.068519
12	0x40360789	2.84421
13	0x4042b3b5	3.0422184
14	0x401426a9	2.3148596
15	0xbe0e427c	-0.1389255
16	0x40799802	3.8999028
17	0x3e88e6e4	0.26738656
18	0x4058dbc5	3.3884137
19	0x3fc51cf0	1.5399456
20	0xbd7f9994	-0.062402323
21	0x00000000	0.0
22	0x40a5fc01	5.187012
23	0x4053d028	3.3095798
24	0x401e3c2d	2.4724228
25	0x4016eda1	2.3582537
26	0x406c7bef	3.6950643
27	0x3f2cfc47	0.67572445
28	0x40937d90	4.6090775
29	0x40650033	3.5781372
30	0x40595ac7	3.3961656
31	0x40487452	3.1320996
32	0x40b672c3	5.701509
33	0x408be41b	4.371595
34	0x3fc275d1	1.5192205
35	0x40388dfa	2.8836656
36	0xbdcdf73d	-0.100569226
37	0x3f65cf7a	0.8976971
38	0x3eaf965c	0.34294403
39	0x40025899	2.0366576
40	0xbe95e3d9	-0.29275396
41	0x407508a8	3.8286533
42	0x00000000	0.0
43	0x3fcba5dd	1.5909992
44	0xbfc7984b	-1.5593351
45	0x3eb9ce63	0.36290273
46	0x3ecdaa4e	0.40168995
47	0x3e06c533	0.13161163
48	0x3f96e9d5	1.179011
49	0x40509f7e	3.2597346
50	0x3fcf2630	1.6183529
51	0x40575f86	3.3652053
52	0x407477c4	3.81981
53	0x405c93bb	3.4465168
54	0x400248b8	2.0356884
55	0x3fb92ae6	1.4466217
56	0x40134b51	2.301472
57	0x3fd2f7d0	1.6481876
58	0x3fbd3517	1.4781827
59	0x400a8988	2.1646442
60	0x3f954047	1.1660241
61	0x3f74f90c	0.95692515
62	0x3e4426c3	0.19155411
63	0x00000000	0.0
64	0x3fbf0a3b	1.4924997
65	0xbe9e0336	-0.30861825
66	0xbe8caaff	-0.2747421
67	0x3f59e5ef	0.85116476
68	0x4015371d	2.3314888
69	0x3fbb5d5c	1.4637866
70	0x401176fe	2.2728877
71	0x40e86b0b	7.263067
72	0x3fd598c8	1.668725
73	0x3fc36590	1.526537
74	0x3e86106b	0.261844
75	0xbf8dc256	-1.1074932
76	0x40322406	2.7834487
77	0xbecab743	-0.39592943
78	0x3fc235f5	1.5172716
79	0x3ef83081	0.48474506
80	0x3f2624e9	0.6490007
81	0x4019c2a2	2.4025044
82	0xbf47fdc7	-0.7812161
83	0x408340f4	4.101679
84	0x00000000	0.0
85	0x3f74ad66	0.95577085
86	0x3f5425e2	0.82870305
87	0x3f18bbb8	0.59661436
88	0x404abcae	3.167766
89	0x3fb51b52	1.4148962
90	0x400d6d3d	2.2097924
91	0x404c9c42	3.1970372
92	0x40370db7	2.860212
93	0x3fc2bc96	1.5213802
94	0xbf0747ac	-0.5284374
95	0x3f2f1d9b	0.6840455
96	0xbf981805	-1.188233
97	0x3ef0a735	0.4700257
98	0x3ede92c0	0.43471336
99	0x3eac8bad	0.33700314
100	0x3f02018f	0.5078363
101	0x40349504	2.8215952
102	0x3fd2e5d7	1.6476392
103	0x4006feb3	2.1092956
104	0x400e893d	2.2271264
105	0x00000000	0.0
106	0x3ea00435	0.3125321
107	0x3f70593f	0.9388618
108	0x407be0c5	3.9355938
109	0x40044261	2.0665514
110	0x403b2125	2.923898
111	0x40046177	2.0684488
112	0x406aba26	3.6676116
113	0x4071b4e6	3.7766662
114	0x3fd934ad	1.69692
115	0x3e21ab1c	0.1578793
116	0x3fb9944e	1.4498384
117	0x3eb5cf6e	0.3550982
118	0x3f912fa0	1.1342659
119	0x3faed359	1.3658248
120	0x3f733823	0.9500753
121	0x4070670d	3.7562897
122	0x3fb38366	1.4024475
123	0x3fadb805	1.3571783
124	0x403326b7	2.799238
125	0x400f3b78	2.2380047
126	0x00000000	0.0
127	0x3fcc2cba	1.595115
128	0x404695e8	3.1028996
129	0x4016861e	2.3519359
130	0x3fc5843d	1.5430981
131	0x3f2c9760	0.6741848
132	0x40404151	3.0039866
133	0x401300cb	2.2969234
134	0x3f288ed6	0.6584295
135	0x3ffca366	1.9737365
136	0x3ebd6be6	0.36996382
137	0x3fa58290	1.293047
138	0x3f56787d	0.837776
139	0x3fd844e6	1.6896026
140	0x400c5d03	2.193177
141	0x402a8c73	2.6648223
142	0x3ea735bd	0.32658187
143	0x40704957	3.7544763
144	0x402da33d	2.7130883
145	0x3fa8384c	1.314218
146	0xbc65ab17	-0.014017842
147	0x00000000	0.0
148	0x405ab851	3.4174998
149	0x40038b82	2.05539
150	0x403d71cb	2.9600704
151	0x408909bf	4.2824397
152	0x40338118	2.8047543
153	0x40554fb8	3.3329906
154	0x4007aad8	2.1198025
155	0x3f279438	0.6546054
156	0x406eb7f0	3.7299767
157	0x3e7563e3	0.23963885
158	0x40118e88	2.2743244
159	0x3ffd5aef	1.9793376
160	0xbfc0b24b	-1.5054411
161	0x40254fb9	2.582991
162	0x3fbf3cc8	1.4940424
163	0x408d80cd	4.4219728
164	0x401d557a	2.458342
165	0x3e41d654	0.18929416
166	0x3e793cd3	0.24339609
167	0xbf85de51	-1.045847
168	0x00000000	0.0
169	0x3f0a37ab	0.5399119
170	0x40540daf	3.3133352
171	0x40178498	2.3674679
172	0x40826c4a	4.075719
173	0x400482bb	2.0704792
174	0xbf890cd8	-1.0707045
175	0xbeb514cb	-0.35367426
176	0xbfc4f385	-1.5386816
177	0xbf9046d0	-1.127161
178	0xbf6ab3aa	-0.91680396
179	0xbf202a1c	-0.62564254
180	0xbf02cc05	-0.5109256
181	0x408468d9	4.137799
182	0x4099fc08	4.8120155
183	0x403333dc	2.8000402
184	0x3f4feb5f	0.8121852
185	0x3f62aa19	0.885408
186	0xbf6f7084	-0.9353106
187	0x3dedf9c3	0.11619904
188	0x407cbda8	3.9490757
189	0x00000000	0.0
190	0x406e5b19	3.7243102
191	0x40588d67	3.3836305
192	0x408ef15a	4.466962
193	0x4090d234	4.5256596
194	0x3fee8a85	1.8636023
195	0xbea75415	-0.32681337
196	0x4020e9cf	2.5142705
197	0x3f998fb4	1.199698
198	0x3f9477fc	1.1599116
199	0x3fffdd54	1.9989419
200	0xbf265043	-0.6496622
201	0x40390251	2.8907664
202	0x408bb31b	4.3656135
203	0x406e3bee	3.7224078
204	0x4010df8e	2.2636447
205	0x3dc1b5ad	0.0945848
206	0xbf888102	-1.066437
207	0xbef8a8d1	-0.48566297
208	0x4098148f	4.7525096
209	0x4020a6f4	2.51019
210	0x00000000	0.0
211	0x403e8079	2.9765913
212	0x40950ebc	4.6580486
213	0x4045785b	3.085471
214	0xbe2befd6	-0.16790709
215	0xbff3fd0f	-1.9061602
216	0x3d0c0044	0.03417994
217	0xbeda950e	-0.42691845
218	0xbe6c92b5	-0.2310284
219	0x3ee9595c	0.45575988
220	0x3fa5dbef	1.2957743
221	0x3e213817	0.15744053
222	0x3faf4f94	1.369616
223	0x40b7b527	5.7408633
224	0xbfa3f9cd	-1.2810608
225	0x3d8e3402	0.069435135
226	0xbfe8f562	-1.8199885
227	0x3f1cda89	0.6127096
228	0x3f18a2a2	0.5962316
229	0x3f5c380c	0.8602302
230	0x3f050fda	0.5197731
231	0x00000000	0.0
232	0x3ed0dd6f	0.4079394
233	0x3fe32717	1.7746304
234	0x3fa4439f	1.2833136
235	0xbf5e5122	-0.8684255
236	0x40580930	3.3755608
237	0xbcd72c99	-0.026266383
238	0x40181cc5	2.376756
239	0x3f541455	0.82843524
240	0xbf4c435f	-0.797903
241	0x40971bd5	4.7221475
242	0x4052d0bf	3.2939909
243	0x4072951b	3.7903507
244	0x402ed2fc	2.7316275
245	0x40150e65	2.3290036
246	0x400d1b43	2.204789
247	0x3d95ddec	0.07317719
248	0x40ac38b2	5.381921
249	0x40241d0e	2.5642734
250	0x40948a4b	4.6418815
251	0x404b4c8f	3.1765478
252	0x00000000	0.0
253	0x4084e00b	4.152349
254	0xbf0f6184	-0.5600817
255	0x3fa75466	1.3072631

snn.fc_out.weight f4 [9, 20]
0	0xbe0f04af	-0.1396663
1	0xc003043d	-2.0471337
2	0xc00479ad	-2.0699265
3	0xc0611649	-3.5169852
4	0xbf87cc4c	-1.0609221
5	0xbe923d6a	-0.2856248
6	0x3ec27414	0.37979186
7	0xbdb85a7f	-0.09001636
8	0xc03b9a45	-2.9312909
9	0xbf8a5ce3	-1.0809597
10	0xbfcba7fc	-1.591064
11	0xc05e352e	-3.4719958
12	0xbfe26e67	-1.7689942
13	0xbfe7d829	-1.8112842
14	0xbec9f343	-0.39443406
15	0x3da2a8e0	0.079423666
16	0xbf09f111	-0.53883463
17	0xbd945df8	-0.072444856
18	0xbe2d1604	-0.1690293
19	0xbf4aa754	-0.7916157
20	0xc027bee2	-2.6210256
21	0x3f312e11	0.69210917
22	0x406728f2	3.611874
23	0xc070ec32	-3.7644162
24	0xc07013f9	-3.751219
25	0xbf89d850	-1.0769138
26	0xbf6a4e1d	-0.9152544
27	0xbff60394	-1.9219842
28	0xbde9b3ee	-0.11411272
29	0x3fc991d4	1.5747628
30	0x3f9da533	1.231604
31	0xc019e1a8	-2.404398
32	0x3f11d729	0.56968933
33	0x3f644178	0.891624
34	0x3f212144	0.62941384
35	0xc00d6fc0	-2.2099457
36	0xbf45eae9	-0.7731157
37	0x3b74d906	0.0037360801
38	0xbffeae90	-1.9897022
39	0x3f6954ea	0.91145194
40	0x3fe24b2a	1.7679188
41	0x3e8abef1	0.27098802
42	0xc000a46f	-2.0100362
43	0xbee76dc9	-0.45200947
44	0x402ce4a1	2.7014544
45	0x3f35bbae	0.709895
46	0x3f92ad91	1.1459218
47	0x3f9303c4	1.1485524
48	0x3ff257ee	1.8933084
49	0x3d10024b	0.035158437
50	0x3fa69e14	1.3016992
51	0xc0197690	-2.3978615
52	0x3efa3583	0.4886895
53	0x3e701b8e	0.23448011
54	0x3e111a49	0.14170183
55	0x3f69d98e	0.9134759
56	0xc029837e	-2.6486506
57	0xbf07d2a7	-0.53055805
58	0x3f50115d	0.81276494
59	0x3efa19f8	0.48847938
60	0x3ea654fd	0.32486716
61	0xbec7a39d	-0.38992015
62	0x3dde79a5	0.108630456
63	0xc007fd3f	-2.124832
64	0xbfac4e1f	-1.3461341
65	0x3f82f25c	1.0230212
66	0x3da7564d	0.081707574
67	0x3f5e8000	0.8691406
68	0xbe8f82a4	-0.28029358
69	0x3f6b184f	0.91833967
70	0x3f14cdb3	0.5812637
71	0xbd025d65	-0.03182735
72	0x3b91e6e1	0.0044525717
73	0x3f86b7bc	1.0524821
74	0x3fe03498	1.751605
75	0x3f5f5c70	0.87250423
76	0x4014d128	2.325266
77	0x3fa2bfca	1.2714779
78	0x3fc56227	1.5420579
79	0x3fb78cf7	1.4339894
80	0xbf1412c8	-0.5784116
81	0x40114909	2.2700827
82	0x3f3c9284	0.73661065
83	0xc057e77b	-3.3735034
84	0x3f131b56	0.57463586
85	0x3eff23bb	0.49831948
86	0x3fae573d	1.3620373
87	0x3de27ed2	0.11059345
88	0x3e8c8a33	0.27449188
89	0x3f2442c9	0.64164406
90	0xbebedab1	-0.37276223
91	0xc081378b	-4.03803
92	0x400802fb	2.125182
93	0xbe519f2e	-0.20470878
94	0xbf972a95	-1.180987
95	0x3fa39803	1.2780765
96	0xbf463fc8	-0.7744107
97	0x3eac0bda	0.33602792
98	0xbfd45255	-1.6587626
99	0xbf3af5dd	-0.7303141
100	0x40007603	2.0072029
101	0xbf885ee7	-1.0653962
102	0xc006e22b	-2.1075542
103	0x3f7c40d9	0.9853645
104	0x3f12f185	0.5739978
105	0xbf9a7e08	-1.2069712
106	0xbf6bd062	-0.9211484
107	0x3fa9d11f	1.3266944
108	0xc0182ee4	-2.377862
109	0xbed5f242	-0.4178639
110	0xc005caa1	-2.0904925
111	0x3fdb100d	1.7114273
112	0xbfa5837c	-1.2930751
113	0xbe73cc3d	-0.2380838
114	0x3ec94c4a	0.39316016
115	0x3e842e28	0.25816464
116	0x40190a0c	2.3912382
117	0x3e49f7dc	0.19723457
118	0x3fc71f08	1.5556345
119	0xbe039a67	-0.12851869
120	0xc034ea57	-2.826803
121	0xc0131c5c	-2.298606
122	0xbfe8704c	-1.815927
123	0x405002f4	3.2501802
124	0xbf173208	-0.59060717
125	0xbf1274fe	-0.57209766
126	0xbf5abd16	-0.8544477
127	0xc0148de8	-2.3211613
128	0xbfea8387	-1.8321389
129	0xc0846aa6	-4.1380186
130	0xc06d4dfe	-3.7078853
131	0x402ea711	2.728947
132	0xbf9dee81	-1.2338411
133	0xc07b0b76	-3.9225745
134	0xc029e18f	-2.654392
135	0xbfcf3f90	-1.6191273
136	0xc016a8ed	-2.3540604
137	0xbfbff2af	-1.4995936
138	0xc05809c2	-3.3755956
139	0xc055c816	-3.3403373
140	0xc034760b	-2.8197048
141	0xbfdc7532	-1.7223265
142	0xc08b9e6b	-4.363088
143	0x40663d3a	3.597487
144	0x3f83a573	1.0284866
145	0xbfaeeb47	-1.3665551
146	0xc011fe6f	-2.2811544
147	0xc0639326	-3.5558562
148	0x400e76b4	2.225995
149	0xc030d6bb	-2.763106
150	0x3f8d779b	1.1052126
151	0x3f759fce	0.9594697
152	0xbdfd2a86	-0.12361626
153	0xbfc51557	-1.5397137
154	0xc0803f10	-4.007698
155	0xc04ed076	-3.2314734
156	0xc0ad0873	-5.4072814
157	0xc00c791a	-2.1948915
158	0xc03162d6	-2.7716575
159	0xc0577361	-3.3664172
160	0xbf1e9b68	-0.6195588
161	0xc097f4d9	-4.7486386
162	0x3f727107	0.94703716
163	0x40363416	2.846929
164	0xc0933eb7	-4.6014056
165	0xbfea263d	-1.8292919
166	0xbf53d99a	-0.8275391
167	0xbf4ebd00	-0.8075714
168	0xc0b24ec8	-5.572117
169	0xc0271c2d	-2.6110947
170	0xc08ce1f1	-4.4025807
171	0x4068a7c6	3.63524
172	0xc0a67a7c	-5.2024517
173	0xc066e348	-3.6076221
174	0xbf017e7d	-0.5058363
175	0xbed13747	-0.40862486
176	0x3fd84d61	1.6898614
177	0xbeb006f5	-0.34380308
178	0xbf9609ce	-1.1721742
179	0xbf943fb5	-1.1581942

exp_avg f4 [20, 416]
0	0x367799b5	3.6895337e-06
1	0xb6b1b11b	-5.295629e-06
2	0x3630f72d	2.636992e-06
3	0xba3e7956	-0.0007266005
4	0x3a0b1c7b	0.0005306673
5	0xb9c56e97	-0.00037657164
6	0xb894caeb	-7.094986e-05
7	0xba2c8a69	-0.0006581904
8	0xbaaacfcc	-0.0013031899
9	0x38a3b293	7.805708e-05
10	0xb8fc3794	-0.000120266486
11	0x3a092fb1	0.0005233242
12	0xb9e3d544	-0.0004345571
13	0x3a0e9442	0.0005438962
14	0xba35ad89	-0.0006930461
15	0x3a7d1b8c	0.0009655289
16	0xba579ec5	-0.00082252576
17	0x3a023f11	0.0004968504
18	0x3af61a81	0.0018776209
19	0x384b1567	4.8418904e-05
20	0x3a1e9560	0.000604948
21	0x39d67a52	0.00040908396
22	0xb7a07ad4	-1.9130683e-05
23	0xb909472d	-0.00013091853
24	0xb98d9f53	-0.00027012322
25	0xba0731a3	-0.0005157238
26	0xb7e6f7c0	-2.7533504e-05
27	0x39b408f5	0.0003433895
28	0x3a72bdbe	0.0009259841
29	0x38819c5a	6.180322e-05
30	0xb9a229ee	-0.00030930288
31	0x392a4092	0.00016236518
32	0xb9a85d53	-0.0003211299
33	0x37461756	1.1807153e-05
34	0xba2fbcb9	-0.0006703842
35	0xbab71da5	-0.0013970627
36	0xba07e021	-0.0005183239
37	0x39a6e3b8	0.0003183165
38	0x39dd1303	0.0004216657
39	0xba1c2bb3	-0.00059574394
40	0x391e6dc1	0.0001510894
41	0x3a5cfd31	0.00084300624
42	0x3a6bfd0f	0.0009002247
43	0x39f1a294	0.00046088232
44	0x3a09101c	0.0005228536
45	0xb97b123f	-0.00023944023
46	0xba6e94e3	-0.00091011653
47	0x3a313a30	0.0006760685
48	0xb90c8468	-0.00013400766
49	0xb98b5965	-0.0002657875
50	0x3ae0f8b3	0.0017163962
51	0xba30d901	-0.0006746203
52	0xb85078e2	-4.9703645e-05
53	0xba313dcb	-0.0006761222
54	0xba97d416	-0.0011583592
55	0xba9b8518	-0.0011865227
56	0x3a9f01d0	0.0012131277
57	0x38c57714	9.415872e-05
58	0xbae36ea9	-0.0017351705
59	0x3a46b732	0.0007580399
60	0xb9f4c457	-0.0004668559
61	0xb95b78f8	-0.00020930532
62	0xb9fd2ae4	-0.00048287876
63	0x3ab2023a	0.0013580986
64	0x39a38d2d	0.00031194967
65	0x39c478b5	0.00037473967
66	0x3a76eb43	0.0009419212
67	0x3a3d31a6	0.0007217176
68	0xba64f8b1	-0.00087345677
69	0x3996788a	0.00028700038
70	0x3aff832f	0.0019494052
71	0xb87e045a	-6.056237e-05
72	0xba31ac95	-0.0006777731
73	0x3abe6776	0.0014526683
74	0x37dac54e	2.6079502e-05
75	0x3a407b8b	0.0007342628
76	0x3afd84c5	0.0019341937
77	0xb995f3eb	-0.00028601228
78	0x3acdacee	0.0015691796
79	0x39411367	0.00018413142
80	0x3a4155ec	0.0007375169
81	0x3a300a3a	0.0006715391
82	0x39da4d72	0.000416379
83	0x3ac57792	0.0015065542
84	0x37bf7b71	2.2826456e-05
85	0xba2f5175	-0.0006687858
86	0xbaada567	-0.0013248146
87	0xba07c66e	-0.00051794096
88	0x3ab87049	0.001407155
89	0x3a12dfcf	0.0005602808
90	0x39dc8897	0.00042063437
91	0xba283a9e	-0.0006417426
92	0xb966d130	-0.00022012438
93	0x39f93acf	0.00047536797
94	0x391a0cfe	0.00014691424
95	0x3a0b1d42	0.0005306789
96	0x3ac9c771	0.0015394521
97	0xb8ee9e1f	-0.00011378177
98	0xb9ea300d	-0.0004466776
99	0xba26341b	-0.0006340162
100	0xba854dbf	-0.0010170265
101	0x392c1dc4	0.00016414287
102	0x3a5ecc2e	0.0008499053
103	0xba0c3d60	-0.0005349722
104	0xba487c6f	-0.00076479366
105	0xbaa25004	-0.0012383466
106	0xbb0a966d	-0.002114679
107	0xba2b4856	-0.0006533911
108	0xba46ef1c	-0.00075887307
109	0xba916347	-0.0011092209
110	0xbaba3e46	-0.0014209233
111	0x3a9e7a49	0.0012090887
112	0xba7e0042	-0.00096893695
113	0xbb0c1c8f	-0.0021379327
114	0xb9b6605e	-0.00034785544
115	0xba391216	-0.0007059885
116	0x3a5d5954	0.0008443792
117	0x3a1b3b97	0.00059216603
118	0x3a08957b	0.00052102626
119	0xb9d46018	-0.00040507386
120	0x3a1b4f62	0.000592461
121	0x3a45930e	0.00075368665
122	0xbaae8756	-0.001331548
123	0xb98caf74	-0.00026833604
124	0x3a3e26d7	0.00072537124
125	0xbab1f02e	-0.0013575607
126	0x3afc2df0	0.0019239765
127	0xba302bf9	-0.00067204196
128	0x39a200c5	0.0003089962
129	0x3ac9edf0	0.0015405994
130	0xba5d54a6	-0.00084430946
131	0xba89f5ca	-0.0010525521
132	0x3986937b	0.00025668353
133	0xbadc12b3	-0.0016790241
134	0x3929f2cf	0.00016207549
135	0x3b82adf2	0.003988021
136	0xbaee0280	-0.0018158704
137	0xba84ada2	-0.0010122547
138	0xb9d74f78	-0.00041067204
139	0xbaa5bb19	-0.001264426
140	0x3880b925	6.1380015e-05
141	0xba47c0f4	-0.000762
142	0x39bac780	0.00035625324
143	0xbb053af5	-0.002032933
144	0xbb079898	-0.0020690318
145	0x3b2db2c5	0.002650426
146	0x3a098377	0.0005245725
147	0xb823f61a	-3.909143e-05
148	0x3a51351f	0.0007980633
149	0xbab66c46	-0.0013917766
150	0xba22f679	-0.0006216537
151	0xb9c54880	-0.00037628785
152	0xba7a2f4f	-0.00095437927
153	0xba6dbd94	-0.0009069082
154	0xb99c3bd6	-0.0002979922
155	0xbb36609e	-0.0027828584
156	0x3a94c3f3	0.0011349901
157	0x3994801d	0.00028324212
158	0x39cb89ed	0.0003882194
159	0xbabd5757	-0.0014445585
160	0xba7f5444	-0.00097400346
161	0xba902d4d	-0.0010999829
162	0x39d34eb2	0.0004030369
163	0xb9da8fe8	-0.0004168742
164	0x3881fbe3	6.198117e-05
165	0x381517d5	3.5546564e-05
166	0xba37dc8c	-0.000701376
167	0x3a3027fc	0.00067198253
168	0xb9526bdb	-0.0002006734
169	0x38f0c32d	0.00011480446
170	0xb97742d5	-0.00023580652
171	0xba1b4a2c	-0.0005923833
172	0x3a5f6fc2	0.0008523428
173	0x3a455235	0.00075272034
174	0x3a644826	0.0008708261
175	0xba849301	-0.0010114611
176	0x38952ad9	7.112855e-05
177	0x39a101f1	0.0003070976
178	0x3a77d2c9	0.00094537117
179	0xbaecf238	-0.0018077558
180	0xbacdd112	-0.0015702567
181	0x3aa1e44b	0.0012351362
182	0x39a571c8	0.00031556026
183	0x3a95b46f	0.0011421571
184	0x39bf8641	0.00036530386
185	0x394dff32	0.00019645391
186	0xba299b33	-0.0006469965
187	0xb9a9d9e6	-0.0003239654
188	0xba1e09ac	-0.0006028663
189	0x35fde53f	1.8916688e-06
190	0xba1eb988	-0.0006054868
191	0xb8a7a521	-7.993938e-05
192	0xbafe5ba1	-0.001940597
193	0xbaaa604a	-0.0012998667
194	0x3ae43ab3	0.0017412513
195	0x3a35f3c6	0.0006940927
196	0x3957b357	0.00020570807
197	0xba225600	-0.00061926246
198	0x3aaf42ed	0.0013371386
199	0xbac42d8e	-0.001496719
200	0xb93e536d	-0.0001815089
201	0xbac5a9ba	-0.001508049
202	0x3a60034d	0.0008545414
203	0x396f2848	0.00022807822
204	0xbabf9d1f	-0.0014618969
205	0xb98af9d2	-0.00026507542
206	0xb8e60a11	-0.0001096913
207	0xb9fea6ba	-0.00048570876
208	0xb77f086f	-1.5201148e-05
209	0x3a02e72d	0.00049935543
210	0x39c7068a	0.0003796111
211	0x3a0a0b27	0.0005265944
212	0xba300f60	-0.0006716158
213	0x38f320b3	0.00011593234
214	0x39cbaf48	0.00038849772
215	0x39d3d4fd	0.00040403745
216	0x3a2362be	0.000623267
217	0x3a1ab369	0.0005901368
218	0x393c1dbf	0.00017940158
219	0xb8ee093b	-0.00011350444
220	0x3a02283e	0.0004965103
221	0x3a4beabe	0.0007778815
222	0xbab10e69	-0.0013508323
223	0x3929d8e5	0.00016197895
224	0x39eed395	0.00045552538
225	0xba843a7e	-0.0010088233
226	0x3a696935	0.00089039217
227	0x393ebffc	0.00018191332
228	0xba3fa0b5	-0.0007310019
229	0x3a88b3de	0.0010429581
230	0x3a5946ce	0.0008288444
231	0x3a1aae21	0.0005900581
232	0x39774503	0.00023581464
233	0x39b87fb1	0.00035190352
234	0xb9b5c0f7	-0.0003466678
235	0xba3c084c	-0.0007172867
236	0x3a42ff7d	0.00074385834
237	0xb8795efa	-5.945468e-05
238	0xbacbdca5	-0.0015553428
239	0xbabdd126	-0.0014481887
240	0x3ab2ec3c	0.0013650726
241	0xba0cb144	-0.0005366991
242	0xba23d4cf	-0.00062496675
243	0x398c8341	0.00026800673
244	0xb9cf3d7f	-0.00039527935
245	0x39ee32a1	0.0004543262
246	0x3add9101	0.0016904176
247	0x3ac98d47	0.0015377187
248	0x3b15bd04	0.0022848258
249	0xbb489747	-0.0030607746
250	0x39f239ab	0.00046200803
251	0xbb069e92	-0.0020541293
252	0x398adf17	0.00026487626
253	0x3b223819	0.0024752675
254	0x3a986a03	0.0011628274
255	0x3a218b33	0.0006162405

exp_avg_sq f4 [20, 416]
0	0x380ee216	3.4065997e-05
1	0x382cb0e9	4.1172756e-05
2	0x37ec4804	2.8166927e-05
3	0x37e6826a	2.7478865e-05
4	0x37e61b9b	2.7430991e-05
5	0x37d1926b	2.4982923e-05
6	0x37eb83ab	2.8075496e-05
7	0x37a15014	1.9229985e-05
8	0x37b37a7b	2.1395497e-05
9	0x3829a378	4.0444982e-05
10	0x38024726	3.1060677e-05
11	0x37bc0d76	2.2417615e-05
12	0x37f28ae9	2.8913333e-05
13	0x378fb669	1.713187e-05
14	0x37bf7c94	2.2826986e-05
15	0x37f8a417	2.9640314e-05
16	0x37e9272e	2.7794009e-05
17	0x37ff029f	3.039959e-05
18	0x37eb70e5	2.8066754e-05
19	0x37dad0b9	2.608482e-05
20	0x37d915f9	2.5878648e-05
21	0x380b8d30	3.3271674e-05
22	0x37f80658	2.9566858e-05
23	0x37f118a8	2.874092e-05
24	0x37c25bc7	2.316934e-05
25	0x37e56362	2.7345206e-05
26	0x38035ea0	3.132096e-05
27	0x37c54aa6	2.3518991e-05
28	0x37b940c3	2.2083876e-05
29	0x379c71ae	1.8649585e-05
30	0x37cb9a39	2.4271301e-05
31	0x381a67b9	3.681306e-05
32	0x37c9e16b	2.4066036e-05
33	0x37edfff6	2.8371793e-05
34	0x37e62fda	2.744042e-05
35	0x37c20348	2.312813e-05
36	0x37db6739	2.6154901e-05
37	0x37bd8c25	2.2595816e-05
38	0x37a5e41e	1.9775758e-05
39	0x37d6d2ef	2.5609012e-05
40	0x37bf6625	2.2816539e-05
41	0x380445c9	3.1536245e-05
42	0x37eac227	2.7985383e-05
43	0x379c4556	1.8628936e-05
44	0x37cda517	2.451478e-05
45	0x37f12bab	2.8749773e-05
46	0x37f1c810	2.88226e-05
47	0x37d7b061	2.571213e-05
48	0x37ca71f1	2.4133335e-05
49	0x37c47fb3	2.3424485e-05
50	0x37e40cbf	2.7185653e-05
51	0x37d8ba72	2.5836027e-05
52	0x3838a964	4.4026776e-05
53	0x38841476	6.2980616e-05
54	0x382c339c	4.105606e-05
55	0x382b061f	4.0775278e-05
56	0x384c0df4	4.8650385e-05
57	0x38256156	3.9429717e-05
58	0x3856a910	5.1179028e-05
59	0x3858c853	5.168498e-05
60	0x37d46b1c	2.5322246e-05
61	0x383384d9	4.280065e-05
62	0x38288a83	4.018332e-05
63	0x3836f1e6	4.3617467e-05
64	0x380b3b33	3.3195316e-05
65	0x380f03b7	3.4097317e-05
66	0x381355fc	3.512761e-05
67	0x382e29d9	4.1523806e-05
68	0x3847527a	4.752211e-05
69	0x3850d5ee	4.9790302e-05
70	0x381eb031	3.7834227e-05
71	0x3872e767	5.7912806e-05
72	0x38606a52	5.350478e-05
73	0x382d27c6	4.1283456e-05
74	0x388071c6	6.1247076e-05
75	0x38965b9c	7.169621e-05
76	0x380fef83	3.431692e-05
77	0x381072c4	3.443916e-05
78	0x38080af7	3.243514e-05
79	0x37fc4d40	3.0076713e-05
80	0x3812a014	3.4958197e-05
81	0x37f738e1	2.947118e-05
82	0x380d9253	3.3753295e-05
83	0x3831c295	4.2381307e-05
84	0x37f66750	2.9373594e-05
85	0x38574a55	5.132922e-05
86	0x3821b699	3.855545e-05
87	0x3820f8d7	3.8378723e-05
88	0x383a2c63	4.4387194e-05
89	0x38222ed6	3.866743e-05
90	0x38397730	4.421844e-05
91	0x384e5907	4.919714e-05
92	0x38085546	3.2504344e-05
93	0x380052aa	3.0594565e-05
94	0x381e207c	3.770039e-05
95	0x3816b21f	3.5928675e-05
96	0x37e81c9e	2.7669881e-05
97	0x381cdb70	3.7397665e-05
98	0x3819e696	3.6692792e-05
99	0x3855a7c4	5.09394e-05
100	0x381a53d4	3.6794532e-05
101	0x38479b62	4.759001e-05
102	0x3824a036	3.9249855e-05
103	0x3831619b	4.229099e-05
104	0x381e3035	3.771503e-05
105	0x38b5516b	8.645918e-05
106	0x387fd288	6.099281e-05
107	0x384bae2c	4.856118e-05
108	0x387dafa9	6.0483497e-05
109	0x38426e6e	4.635605e-05
110	0x387bdf52	6.0051047e-05
111	0x390b02bc	0.00013257092
112	0x384f2e21	4.9395607e-05
113	0x38dc7d82	0.00010513795
114	0x3892f3cd	7.007234e-05
115	0x3871245d	5.7492744e-05
116	0x388426f2	6.3015046e-05
117	0x386bd10b	5.6223053e-05
118	0x384699a4	4.7349968e-05
119	0x389c6557	7.457536e-05
120	0x385128de	4.9867544e-05
121	0x38a14d9f	7.691536e-05
122	0x38817d15	6.174498e-05
123	0x385ef54e	5.3157382e-05
124	0x3886647f	6.408337e-05
125	0x38409785	4.591748e-05
126	0x384d53c6	4.895383e-05
127	0x3919946e	0.00014646511
128	0x387a3f20	5.9663435e-05
129	0x38b33d78	8.5468346e-05
130	0x38466c74	4.7307884e-05
131	0x38501d2f	4.9618244e-05
132	0x3873aedd	5.809857e-05
133	0x38609f53	5.3554144e-05
134	0x3854fc79	5.0779872e-05
135	0x38632627	5.415655e-05
136	0x3882c118	6.2348496e-05
137	0x38a3ab9b	7.80441e-05
138	0x38321690	4.245952e-05
139	0x38607aed	5.3520245e-05
140	0x3889a209	6.5628505e-05
141	0x38480d7e	4.769628e-05
142	0x385319e0	5.0330418e-05
143	0x3905b848	0.00012752519
144	0x3837aee3	4.3793476e-05
145	0x38b71bc8	8.731295e-05
146	0x388d8e54	6.7499146e-05
147	0x388ad169	6.6193585e-05
148	0x3860d437	5.3603402e-05
149	0x3874c4a2	5.8357262e-05
150	0x384174ff	4.6123747e-05
151	0x38a4d8ae	7.860489e-05
152	0x38642061	5.438959e-05
153	0x388cd38f	6.715126e-05
154	0x3833bd63	4.2853306e-05
155	0x3893bba7	7.044459e-05
156	0x383e3f4b	4.5358476e-05
157	0x38502624	4.9626586e-05
158	0x37f2b6f1	2.8933837e-05
159	0x3829a8f8	4.0450104e-05
160	0x385c26a0	5.248806e-05
161	0x384ccc5f	4.8827726e-05
162	0x385af881	5.2206688e-05
163	0x38966587	7.171468e-05
164	0x38a9b577	8.0923484e-05
165	0x388307fd	6.248055e-05
166	0x3880809b	6.12747e-05
167	0x38569464	5.1159775e-05
168	0x37ffb89d	3.0484336e-05
169	0x384831c7	4.7730075e-05
170	0x388fc6b8	6.8557856e-05
171	0x380b1467	3.3159184e-05
172	0x380ba6e1	3.32956e-05
173	0x38540ff8	5.055961e-05
174	0x3834842a	4.303843e-05
175	0x387ef622	6.0787548e-05
176	0x3896e949	7.19601e-05
177	0x3813cf9b	3.524088e-05
178	0x3880d395	6.142926e-05
179	0x389387b4	7.034783e-05
180	0x385eb08e	5.3093354e-05
181	0x38557332	5.089044e-05
182	0x383eaf4e	4.5462795e-05
183	0x385c0a16	5.246148e-05
184	0x380f49d8	3.416263e-05
185	0x384a7923	4.827337e-05
186	0x386ab778	5.5960816e-05
187	0x38245e96	3.9188737e-05
188	0x3841bbaa	4.618956e-05
189	0x382444a0	3.916456e-05
190	0x384ba873	4.8555852e-05
191	0x382f9258	4.1859545e-05
192	0x3886cd2e	6.4278356e-05
193	0x37eb4727	2.8047316e-05
194	0x3881287f	6.158742e-05
195	0x3886e6b9	6.432593e-05
196	0x3854705c	5.064938e-05
197	0x38317e59	4.231776e-05
198	0x386e6fd6	5.6847777e-05
199	0x38449298	4.6866568e-05
200	0x381ea078	3.7819584e-05
201	0x386f5746	5.706332e-05
202	0x383dae89	4.522366e-05
203	0x3821c51f	3.8568975e-05
204	0x385aa33c	5.2127274e-05
205	0x3836e3b7	4.3604257e-05
206	0x381b4f2a	3.7028607e-05
207	0x38481fef	4.7713456e-05
208	0x38068d1b	3.2079504e-05
209	0x3837d22b	4.3826334e-05
210	0x380cc613	3.3563072e-05
211	0x37c0547f	2.292753e-05
212	0x3826a5d7	3.9731935e-05
213	0x3845c7e8	4.7154637e-05
214	0x38028602	3.111922e-05
215	0x37d4ae44	2.5353518e-05
216	0x380d6be2	3.3717493e-05
217	0x380464b7	3.156505e-05
218	0x380c99be	3.3521785e-05
219	0x388100a0	6.151316e-05
220	0x37f685f8	2.938787e-05
221	0x37d7cf10	2.5726418e-05
222	0x3823bef1	3.9040056e-05
223	0x3829755d	4.0402043e-05
224	0x381c0ff5	3.720816e-05
225	0x387034ae	5.726952e-05
226	0x381157db	3.4652516e-05
227	0x37a3670b	1.9479097e-05
228	0x3820fcc3	3.8382375e-05
229	0x3837d094	4.3824853e-05
230	0x37ca487a	2.4114026e-05
231	0x38727eec	5.78155e-05
232	0x38035151	3.1308566e-05
233	0x38288df0	4.018651e-05
234	0x38105cf3	3.441884e-05
235	0x382cccdb	4.1198782e-05
236	0x38014c28	3.0826923e-05
237	0x37fa6cca	2.9852981e-05
238	0x382ff6ca	4.195309e-05
239	0x382995f6	4.0432402e-05
240	0x381a92bd	3.6853122e-05
241	0x382a0158	4.053241e-05
242	0x38408337	4.589857e-05
243	0x37c2280f	2.3145256e-05
244	0x381045b2	3.4397184e-05
245	0x380df19f	3.3842047e-05
246	0x37d07573	2.4850224e-05
247	0x3847c6f7	4.7630598e-05
248	0x380fd8d4	3.4295794e-05
249	0x3822bf24	3.8801823e-05
250	0x380efb30	3.4089375e-05
251	0x38389ede	4.4016975e-05
252	0x37e09599	2.6772543e-05
253	0x3808f109	3.264941e-05
254	0x38416590	4.6109373e-05
255	0x38116e10	3.4673198e-05

exp_avg f4 [20, 20]
0	0x00000000	0.0
1	0xba0b2204	-0.0005307498
2	0xb969ba8b	-0.00022290104
3	0xbaf05559	-0.0018335982
4	0xb948c24e	-0.0001914587
5	0x3788c00f	1.6301898e-05
6	0xb826fc4e	-3.981246e-05
7	0xb618e481	-2.2782772e-06
8	0xb9f2f5e3	-0.00046341037
9	0xb9900229	-0.0002746743
10	0xb99424fa	-0.0002825631
11	0xbada29f7	-0.0016644587
12	0xba3099c5	-0.00067367806
13	0xb9807f5b	-0.0002450895
14	0x37c99742	2.4031502e-05
15	0x36dc243b	6.5607287e-06
16	0xb9a00b24	-0.00030525879
17	0x3840d8fd	4.5978453e-05
18	0xb7f132f9	-2.8753175e-05
19	0xb7981882	-1.8131224e-05
20	0x3951bc1a	0.00020001867
21	0x00000000	0.0
22	0xba2de75c	-0.00066339015
23	0xba2819c2	-0.00064125296
24	0x38fc1bfb	0.00012021508
25	0xb703cec0	-7.856346e-06
26	0xb8888da5	-6.511369e-05
27	0x381c03f2	3.7196973e-05
28	0x364e8f75	3.0779895e-06
29	0xb80f5693	-3.4174485e-05
30	0x3822ff4b	3.886157e-05
31	0xbacb350a	-0.0015503478
32	0xb9cecc80	-0.00039443746
33	0xb81d9fd6	-3.7580576e-05
34	0x37427589	1.1590667e-05
35	0xb6d3cbcd	-6.3120156e-06
36	0x3958514a	0.00020629648
37	0xb5f3de11	-1.8169541e-06
38	0x3908b995	0.00013039105
39	0xb68eda6d	-4.257358e-06
40	0x38bc9a79	8.993311e-05
41	0xb8b743c0	-8.7387394e-05
42	0x00000000	0.0
43	0xba20c739	-0.0006133202
44	0x397b3ca3	0.00023959814
45	0xb6107ba0	-2.1529631e-06
46	0x3876de3a	5.8857935e-05
47	0x37c15e0c	2.3051187e-05
48	0x3920b448	0.00015325949
49	0xb9362ed1	-0.00017374313
50	0x39642b0e	0.00021759814
51	0xbac4b876	-0.0015008587
52	0xb9b1c891	-0.00033909504
53	0xb898b2d8	-7.281237e-05
54	0xb78c6ec1	-1.6740874e-05
55	0x37670983	1.3770888e-05
56	0x39349a15	0.00017223538
57	0xb7957342	-1.7815855e-05
58	0x389a7d79	7.366663e-05
59	0xb78f3484	-1.7071383e-05
60	0xb6109782	-2.1545861e-06
61	0xba8216c9	-0.0009925003
62	0xb9d328c5	-0.00040275432
63	0x00000000	0.0
64	0xb983d66a	-0.00025146018
65	0x37b4d1a1	2.1555288e-05
66	0x36d0e0ad	6.2250388e-06
67	0xb797a0c3	-1.8075463e-05
68	0xba5bc4e8	-0.00083835283
69	0xb91d5bda	-0.00015006904
70	0xb9e6a093	-0.00043988656
71	0xbb82b090	-0.003988333
72	0xbacda40e	-0.0015689151
73	0xb86244bd	-5.3946616e-05
74	0x38a76020	7.981085e-05
75	0x38978edc	7.226851e-05
76	0x3894abeb	7.089212e-05
77	0x387507a7	5.841968e-05
78	0xb72ffa4e	-1.0489091e-05
79	0x37ec6399	2.8179771e-05
80	0x3916ad85	0.00014369756
81	0xba104f24	-0.0005504957
82	0xb913eccd	-0.00014107228
83	0xba3e99a5	-0.00072708196
84	0x00000000	0.0
85	0x36de49ce	6.6247076e-06
86	0xb8f1aba5	-0.00011523747
87	0x3815e2ff	3.5735775e-05
88	0xb9f6eaba	-0.0004709566
89	0xb92c2b38	-0.00016419298
90	0xb9a549b1	-0.00031526157
91	0xba6498d2	-0.0008720282
92	0xba3b4228	-0.0007143342
93	0xb84a030f	-4.81634e-05
94	0x383892e4	4.400582e-05
95	0x37b009b7	2.0985359e-05
96	0x381885a1	3.6364076e-05
97	0x38498bfe	4.8052512e-05
98	0x38a10100	7.6772645e-05
99	0x37bac10c	2.2262822e-05
100	0x388772d9	6.458694e-05
101	0x38dc8997	0.000105160456
102	0x396bcf80	0.00022488646
103	0x3a017acc	0.00049392576
104	0x38b1b076	8.472886e-05
105	0x00000000	0.0
106	0xb6d0f5ca	-6.2274967e-06
107	0x382e5981	4.156819e-05
108	0x37db6f22	2.6158585e-05
109	0x38510a8c	4.9839306e-05
110	0x3762999d	1.3506416e-05
111	0x39963a96	0.0002865388
112	0x389f6f4a	7.60244e-05
113	0x383bf871	4.4815653e-05
114	0x38612036	5.367418e-05
115	0x3806b81d	3.211956e-05
116	0x38b8f338	8.819107e-05
117	0x38039e24	3.1380114e-05
118	0x382a356e	4.058092e-05
119	0x3784512e	1.5773428e-05
120	0x384f004d	4.9352926e-05
121	0x38e636af	0.0001097744
122	0x3952ac22	0.00020091285
123	0x3a80ecd2	0.0009836203
124	0x38d75c0f	0.00010269146
125	0xb6840e46	-3.935568e-06
126	0x00000000	0.0
127	0x37ede5d0	2.8359616e-05
128	0x39802c46	0.0002444705
129	0x393b2251	0.00017846494
130	0x3919d587	0.00014670762
131	0x3a3553d7	0.0006917095
132	0x39ccd000	0.00039064884
133	0x3920aa2f	0.00015322187
134	0x37d81c48	2.5762376e-05
135	0xb70dfbd1	-8.4628855e-06
136	0x38479f7a	4.759382e-05
137	0x372a360a	1.0145372e-05
138	0x37f80553	2.9566383e-05
139	0x37bfb948	2.2855253e-05
140	0x378b9473	1.6639218e-05
141	0xb955aaa0	-0.00020376826
142	0x385df370	5.2917225e-05
143	0xb99d6229	-0.0003001851
144	0xb872ff00	-5.7934783e-05
145	0x378aeaac	1.656016e-05
146	0xb5cd1099	-1.5278521e-06
147	0x00000000	0.0
148	0xb96317a3	-0.00021657212
149	0xb8e920fc	-0.000111164496
150	0xb90f221a	-0.00013650247
151	0xb9d639a8	-0.00040860218
152	0xb9a6aa76	-0.0003178899
153	0xb8d505f5	-0.00010157741
154	0x3823bbb7	3.903705e-05
155	0x375a330a	1.3005696e-05
156	0xb86947a9	-5.5618268e-05
157	0x382400c0	3.9101345e-05
158	0x36a1aaaf	4.818044e-06
159	0x3627cd56	2.500446e-06
160	0x39a9250d	0.00032261797
161	0x395ca4dc	0.0002104225
162	0x390095b9	0.00012262807
163	0xba41face	-0.00073997385
164	0x394b8018	0.00019407307
165	0x3728d5a5	1.0063323e-05
166	0x355d2d9e	8.23953e-07
167	0x38d084c6	9.942944e-05
168	0x00000000	0.0
169	0x3932289b	0.0001699053
170	0xb93402af	-0.00017167137
171	0xba6f772b	-0.0009134884
172	0xb94e4f26	-0.00019675176
173	0x3914afd0	0.00014179875
174	0x38b72c20	8.734339e-05
175	0x38fe2d56	0.00012120108
176	0x3a02c2a5	0.0004988111
177	0x380ccdf6	3.3570417e-05
178	0x39633be9	0.00021670725
179	0x385f0c5b	5.317885e-05
180	0x391c72d1	0.00014920092
181	0xb98250c3	-0.00024855704
182	0xba2e6acf	-0.0006653489
183	0xbac12673	-0.001473619
184	0x38ed5d90	0.00011318468
185	0x36b5037b	5.3946255e-06
186	0x382c7ce4	4.112431e-05
187	0x3813363e	3.5098048e-05
188	0xb7b9189c	-2.2065178e-05
189	0x00000000	0.0
190	0x37e062e3	2.6748929e-05
191	0xbb0ba1fc	-0.0021306267
192	0xb9eb01a8	-0.00044823927
193	0xb89c0630	-7.439812e-05
194	0x37b5597e	2.1618554e-05
195	0x3814b9e1	3.5459063e-05
196	0x385689f8	5.115007e-05
197	0x3689fade	4.112123e-06
198	0x38cbaf73	9.712474e-05
199	0x37510c80	1.2460281e-05
200	0x397ee1a1	0.00024307381
201	0x387efb55	6.079239e-05
202	0xb9d5e468	-0.00040796702
203	0xba695ff6	-0.0008902544
204	0x39576ba9	0.00020544104
205	0x3768be4c	1.38725845e-05
206	0x388170f7	6.172241e-05
207	0x38a87a22	8.033613e-05
208	0xb96c7141	-0.00022548904
209	0x37485b85	1.19422375e-05
210	0x00000000	0.0
211	0xba9810e7	-0.0011601717
212	0xb9491b8d	-0.00019179117
213	0x383b82bd	4.4706034e-05
214	0x3875aa31	5.8571055e-05
215	0x3902669c	0.00012435991
216	0x39c055a2	0.00036684895
217	0x37a56845	1.9718087e-05
218	0x39224581	0.00015475416
219	0x38238cec	3.8993472e-05
220	0xb812cbbd	-3.499886e-05
221	0xbaa9bea6	-0.0012950494
222	0xb892e0f4	-7.003723e-05
223	0xbbab714b	-0.0052320114
224	0xb9ad3544	-0.00033036817
225	0x380622cb	3.1980493e-05
226	0x37775495	1.4742041e-05
227	0xb81a207f	-3.6746726e-05
228	0xba92e788	-0.0011207918
229	0xb98f6d60	-0.00027356576
230	0xba063fef	-0.0005121221
231	0x00000000	0.0
232	0xbb0adc3d	-0.00211884
233	0xb97f2b0c	-0.00024334731
234	0x38b5a377	8.6612e-05
235	0x3800f4b5	3.074548e-05
236	0x39135c05	0.00014053292
237	0x38806955	6.123135e-05
238	0xb7ef7130	-2.8543727e-05
239	0xb7a008b2	-1.9077535e-05
240	0x39877d63	0.00025842627
241	0xb848fbfb	-4.791839e-05
242	0xba05c575	-0.0005102971
243	0xba6101bf	-0.0008583329
244	0x39102fee	0.00013750765
245	0xb6b156e6	-5.2851274e-06
246	0xb8242ba4	-3.914129e-05
247	0x38605c3e	5.349167e-05
248	0xb8557522	-5.0892246e-05
249	0x3818b37f	3.6406793e-05
250	0xb680c584	-3.837691e-06
251	0xbad2e53c	-0.0016090046
252	0x00000000	0.0
253	0x37ecc91c	2.8227041e-05
254	0x381c4f86	3.726736e-05
255	0x37be8300	2.2710767e-05

exp_avg_sq f4 [20, 20]
0	0x00000000	0.0
1	0x3625b3f8	2.4691672e-06
2	0x360662b3	2.0025007e-06
3	0x379b195f	1.8489254e-05
4	0x34b52930	3.3743845e-07
5	0x32b78719	2.136544e-08
6	0x34256e67	1.5406987e-07
7	0x32650b35	1.33321025e-08
8	0x35950a8b	1.1104433e-06
9	0x356426db	8.499316e-07
10	0x35178565	5.6446e-07
11	0x374d0b68	1.2221608e-05
12	0x362934d1	2.5213706e-06
13	0x351b5620	5.786733e-07
14	0x33ab827e	7.9865444e-08
15	0x335208ea	4.8902542e-08
16	0x351c786c	5.8289766e-07
17	0x329e64f9	1.8439538e-08
18	0x332004cb	3.7257262e-08
19	0x341ca540	1.458875e-07
20	0x34046650	1.2330679e-07
21	0x00000000	0.0
22	0x371b714a	9.265097e-06
23	0x38eeca40	0.00011386396
24	0x34ba7cf6	3.473612e-07
25	0x3129c509	2.4704738e-09
26	0x32bd80ef	2.2061128e-08
27	0x3290bfad	1.685097e-08
28	0x35cda293	1.5321006e-06
29	0x34c6d918	3.703833e-07
30	0x345dd97c	2.0661349e-07
31	0x388d95ed	6.75133e-05
32	0x36a16dcd	4.8109564e-06
33	0x3450c219	1.9442122e-07
34	0x33060d32	3.1211307e-08
35	0x31f2d0d9	7.06687e-09
36	0x35fc9c23	1.8820905e-06
37	0x31076470	1.9702178e-09
38	0x33dd92f1	1.0317843e-07
39	0x32c1b195	2.2548912e-08
40	0x33db06ac	1.0199196e-07
41	0x369a3740	4.5959896e-06
42	0x00000000	0.0
43	0x38e72b71	0.0001102303
44	0x3523a254	6.095845e-07
45	0x327be58f	1.46623185e-08
46	0x33993f57	7.136139e-08
47	0x32de61f2	2.5888742e-08
48	0x363c25c0	2.8036156e-06
49	0x3554c96a	7.926925e-07
50	0x353959f2	6.904876e-07
51	0x389183de	6.938701e-05
52	0x36e4f877	6.8238546e-06
53	0x351279d5	5.456653e-07
54	0x3396e2b7	7.0261585e-08
55	0x32fc8ac2	2.939976e-08
56	0x3606e576	2.010112e-06
57	0x320c0bc6	8.1517495e-09
58	0x33dab193	1.01837166e-07
59	0x339f6426	7.4222314e-08
60	0x331ba09c	3.6234823e-08
61	0x3795230a	1.77785e-05
62	0x37cda419	2.4514318e-05
63	0x00000000	0.0
64	0x35108f97	5.385313e-07
65	0x3378c8ee	5.7924744e-08
66	0x3523b71c	6.098869e-07
67	0x32ec43e6	2.7504893e-08
68	0x367d1439	3.771171e-06
69	0x3661e77a	3.366235e-06
70	0x35d091f9	1.5539691e-06
71	0x3882cb29	6.2367246e-05
72	0x37920d32	1.74107e-05
73	0x35dd3905	1.6482378e-06
74	0x3408117f	1.2672352e-07
75	0x343368ce	1.6708802e-07
76	0x35464a34	7.386873e-07
77	0x330c9788	3.2734107e-08
78	0x32e5b667	2.6742056e-08
79	0x34a45c5c	3.061458e-07
80	0x345742cc	2.0047736e-07
81	0x375be092	1.3105704e-05
82	0x37242bec	9.785388e-06
83	0x389ca7e7	7.469934e-05
84	0x00000000	0.0
85	0x334b95a4	4.7400718e-08
86	0x34d89ff9	4.034953e-07
87	0x33714a03	5.61795e-08
88	0x36a9bfc8	5.0589188e-06
89	0x3646239e	2.952503e-06
90	0x360983ac	2.0491234e-06
91	0x38320825	4.2446092e-05
92	0x37606aea	1.3376333e-05
93	0x35f5f53f	1.8325298e-06
94	0x343dd59b	1.7679706e-07
95	0x33fcc3b3	1.1770262e-07
96	0x35dc37f9	1.6407568e-06
97	0x3317acf7	3.5314738e-08
98	0x34411323	1.7981488e-07
99	0x34b8af64	3.4400284e-07
100	0x331df46f	3.6776722e-08
101	0x35a916d4	1.2598125e-06
102	0x35d69534	1.5987666e-06
103	0x3627fc53	2.5031811e-06
104	0x33a682fe	7.753805e-08
105	0x00000000	0.0
106	0x331b1c81	3.6114674e-08
107	0x32525e7a	1.224509e-08
108	0x34b13412	3.3006705e-07
109	0x34f7dc4a	4.6167617e-07
110	0x3469c0b3	2.176992e-07
111	0x35ccfb6c	1.5272358e-06
112	0x359a6449	1.1503081e-06
113	0x34987f16	2.8404673e-07
114	0x33530a4b	4.9136627e-08
115	0x323bd624	1.09335225e-08
116	0x34522183	1.9569966e-07
117	0x31e240c5	6.584829e-09
118	0x33188dc0	3.551918e-08
119	0x3398f25b	7.122136e-08
120	0x328aebb2	1.6172496e-08
121	0x3656a999	3.1987204e-06
122	0x3649ad68	3.005227e-06
123	0x3643aa88	2.9156527e-06
124	0x344ad723	1.8890982e-07
125	0x31a6b33d	4.851613e-09
126	0x00000000	0.0
127	0x31d99be3	6.3332535e-09
128	0x3556ab26	7.9970266e-07
129	0x352eb600	6.5084896e-07
130	0x34ba2bb1	3.467699e-07
131	0x35c3ab1f	1.4578435e-06
132	0x3645f5cd	2.9498362e-06
133	0x34afdda8	3.2757566e-07
134	0x32cb6d60	2.3682048e-08
135	0x32925ae0	1.7037962e-08
136	0x33ac17d9	8.013712e-08
137	0x31868560	3.9150763e-09
138	0x324f9d14	1.2084701e-08
139	0x335bdfd4	5.119348e-08
140	0x33048fe1	3.0864502e-08
141	0x36052156	1.9837948e-06
142	0x360bc13d	2.0825094e-06
143	0x37202832	9.546102e-06
144	0x344276b4	1.8110842e-07
145	0x3238b216	1.0750702e-08
146	0x33bac34e	8.696826e-08
147	0x00000000	0.0
148	0x3538eeca	6.8892825e-07
149	0x3542e342	7.2601335e-07
150	0x34d81a19	4.0252124e-07
151	0x36d17fc4	6.2435593e-06
152	0x35fcc805	1.8833676e-06
153	0x34fadfdb	4.6729005e-07
154	0x3393419b	6.8571545e-08
155	0x32bbe95f	2.187579e-08
156	0x34b7570f	3.414975e-07
157	0x3268e759	1.355678e-08
158	0x32fa79a7	2.9159152e-08
159	0x3404f224	1.2381548e-07
160	0x34a10b73	2.9996917e-07
161	0x36f8f096	7.418984e-06
162	0x374f99c8	1.23739665e-05
163	0x393a4c41	0.00017766749
164	0x35285fd7	6.272434e-07
165	0x322fa726	1.0224346e-08
166	0x3412e6d6	1.3681287e-07
167	0x33731afc	5.660239e-08
168	0x00000000	0.0
169	0x3592c199	1.0934192e-06
170	0x350ff088	5.362167e-07
171	0x38cc8957	9.7530596e-05
172	0x37061863	7.9927e-06
173	0x351a30d2	5.7440514e-07
174	0x33d86c0c	1.00779374e-07
175	0x33482308	4.659799e-08
176	0x3652b014	3.139493e-06
177	0x31ebe0b8	6.8649477e-09
178	0x34863535	2.4998158e-07
179	0x33b7a9c1	8.5524796e-08
180	0x33ca475f	9.41934e-08
181	0x3668cfd8	3.4691675e-06
182	0x371a1d85	9.185988e-06
183	0x389c5dbd	7.45612e-05
184	0x34aa48a9	3.1717835e-07
185	0x3099d5e7	1.119301e-09
186	0x32b62db7	2.1208377e-08
187	0x3253d711	1.2330717e-08
188	0x35c4e9e5	1.467121e-06
189	0x00000000	0.0
190	0x347fe37a	2.3831481e-07
191	0x3846db2d	4.7411002e-05
192	0x369a9492	4.6068535e-06
193	0x344d9875	1.9147576e-07
194	0x32d48be4	2.4743663e-08
195	0x31d7784f	6.271001e-09
196	0x35c3697e	1.4559334e-06
197	0x308836ca	9.910874e-10
198	0x33b2bb62	8.322856e-08
199	0x328bd8ca	1.6280314e-08
200	0x3435e77c	1.6941152e-07
201	0x368d2362	4.2062466e-06
202	0x3703fd10	7.867129e-06
203	0x38aed850	8.337258e-05
204	0x34eef65e	4.451021e-07
205	0x319dd5fb	4.593628e-09
206	0x33cfdc18	9.6792235e-08
207	0x3311c2d7	3.393765e-08
208	0x35d22d8a	1.5659473e-06
209	0x35187b90	5.680422e-07
210	0x00000000	0.0
211	0x3844d222	4.6925743e-05
212	0x36a51883	4.9202367e-06
213	0x349bcb37	2.9018858e-07
214	0x33881e2f	6.338484e-08
215	0x3308c8cf	3.1847602e-08
216	0x35ebb384	1.756111e-06
217	0x31512c91	3.0438836e-09
218	0x3421e7e3	1.5078653e-07
219	0x33272bbf	3.8922504e-08
220	0x3387f791	6.3314594e-08
221	0x38073f68	3.224556e-05
222	0x384f3c0b	4.9408565e-05
223	0x3919d90a	0.0001467207
224	0x356fee84	8.9381524e-07
225	0x33e5caeb	1.0700554e-07
226	0x3584afa0	9.88588e-07
227	0x33626380	5.271022e-08
228	0x36d35ff5	6.299461e-06
229	0x36fac201	7.4731656e-06
230	0x364c445f	3.0438166e-06
231	0x00000000	0.0
232	0x38022326	3.102715e-05
233	0x366bc487	3.5132123e-06
234	0x34a3ce3d	3.0511174e-07
235	0x34aac961	3.181149e-07
236	0x35a5a4af	1.2341387e-06
237	0x33a1b5c8	7.5302125e-08
238	0x334522e3	4.5899366e-08
239	0x3547f7a6	7.4493653e-07
240	0x344d75c9	1.9134963e-07
241	0x368d75ad	4.2158267e-06
242	0x37486747	1.1944975e-05
243	0x392e13bf	0.00016601289
244	0x34b68209	3.3994755e-07
245	0x310c2e1d	2.0398894e-09
246	0x32df2148	2.5975751e-08
247	0x32dac1d9	2.5466692e-08
248	0x35c61571	1.475839e-06
249	0x3501709c	4.8220113e-07
250	0x344f3ac9	1.9299763e-07
251	0x38c982d8	9.6087984e-05
252	0x00000000	0.0
253	0x3474cf7f	2.2799757e-07
254	0x335dd735	5.1651302e-08
255	0x320905e4	7.975789e-09
